03A/Models_Seed_4040_20260209/model_trad_seed_4040.pth (torch, 276498 bytes, 76 tensors)

_shift f4 [2]
000000 8a 7f 25 40 26 ae dd bf
       2.5859094 -1.7318771

_scale f4 [2]
000000 7b 9a 30 3e 1f 76 5f 40
       0.1724643 3.4915845

weight f4 [50, 2]
000000 13 33 d0 be ca 6f f8 be 2b ae 97 be 02 eb 66 be
       -0.40663967 -0.48522788 -0.29625067 -0.22550586
000010 6f f5 a2 be 3c f9 6f 3e 1c 66 d1 bd c1 ac 19 3f
       -0.31827876 0.23434919 -0.10224554 0.60029227
000020 2c d8 f0 3e 46 ba a4 3e 54 9b f3 be d0 57 62 3e
       0.47039926 0.32173365 -0.47579443 0.2210381
000030 42 02 4a 3f 19 44 8e be 33 2b 28 be 4e 1c d3 be
       0.78909695 -0.2778633 -0.16422729 -0.41232532
000040 ff 5f 00 bf 5b 32 31 3f de 5f 9e be 8c 59 30 bf
       -0.5014648 0.6921746 -0.30932516 -0.6888664
000050 4d fc 18 3d b2 fe c0 3e 82 c9 c1 3c 60 98 f4 bc
       0.037349988 0.37694317 0.023655657 -0.029857814
000060 aa 25 7c bd 26 05 a0 be 19 e8 1a 3f b2 fb ff 3e
       -0.061559357 -0.31253928 0.605104 0.49996716
000070 f7 3e 07 bf a6 7b ea 3e d5 47 56 3e f6 81 f9 be
       -0.5283045 0.4579746 0.20925839 -0.48731965
000080 22 21 3f 3e e0 b8 0a 3e 2f cf 25 bf ac f9 f5 be
       0.18664983 0.13547087 -0.6476926 -0.48042047
000090 5b 57 71 be 4f 70 9c be 7b b1 34 be 80 a3 ae 3b
       -0.2356848 -0.30554435 -0.17645828 0.0053295493
0000a0 53 fd c9 be 36 91 2a bf 04 80 99 be a0 24 af bc
       -0.39451084 -0.66627824 -0.2998048 -0.021379769
0000b0 c8 b7 be 3b 23 ed 12 3f 2c 3b 6e be 8f 57 8d be
       0.0058202483 0.5739309 -0.2326476 -0.27605864
0000c0 a4 e5 f2 be 27 a2 1d bf c7 31 dd 3e e0 57 9e 3d
       -0.47440827 -0.6157555 0.4320204 0.077316046
0000d0 4a ad 1f bd 55 68 e9 be ef 37 2f bf 5e a7 f6 3e
       -0.03898362 -0.45587412 -0.6844472 0.48174566
0000e0 cb 07 03 bd c0 2d fd be 76 95 6f 3e 64 94 00 3e
       -0.031989854 -0.49448967 0.23396859 0.12556607
0000f0 a8 7a cb bd 0c d2 0d 3e e0 72 b8 bd af cc 29 3f
       -0.09935504 0.13849658 -0.09006286 0.6632795
000100 9d e1 8c be a1 42 b8 be 10 46 5f 3f e2 bb 89 3e
       -0.2751588 -0.35988334 0.8721628 0.26901156
000110 bd 51 c7 3e 23 04 15 3f 7e 74 3f 3d 40 fa 7c 3d
       0.3892955 0.5820944 0.046741955 0.061762094
000120 69 23 0c 3f 2a b1 b9 be 83 2d 71 3f eb 00 91 be
       0.5474153 -0.36267978 0.9421007 -0.28321013
000130 65 7a dc 3e 13 69 14 bf 6b 12 53 bd 2a f2 f7 3e
       0.4306213 -0.5797283 -0.051531237 0.48426944
000140 d0 bc 35 be 1e 6e 0d bf a4 a2 04 be a6 d5 ea 3e
       -0.17747808 -0.5524615 -0.12952667 0.45866126
000150 77 11 ec 3c 9c 3d 95 be 6a 2c cf be d5 bb 15 3f
       0.028816922 -0.29148567 -0.40463573 0.58489734
000160 c4 62 e0 bd 52 76 e4 3e 8f a1 d2 be 7c bd 79 3e
       -0.10956338 0.4462152 -0.41138884 0.24388689
000170 e2 1e ae be 72 e9 e7 3e bd fa 29 3d 3d 18 11 3f
       -0.34007937 0.45295292 0.04149889 0.5667761
000180 10 37 6f 3f a0 a5 30 3d 0f 6b 38 bd d2 f9 b1 3e
       0.93443394 0.043126702 -0.045023974 0.3476091

bias f4 [50]
000000 37 37 b9 be 15 c0 1f bf f6 d2 10 3f b7 34 fe 3e
       -0.36174938 -0.6240247 0.565719 0.49649593
000010 4c 29 07 3e 3d 9f a8 be 7d 2b 97 3e a8 f8 95 be
       0.13199347 -0.3293399 0.29525366 -0.29291272
000020 5d 4c 04 3e e0 2d 0b 3f 25 f6 c0 bc 8f 1f 6f be
       0.12919755 0.54366875 -0.02355487 -0.23351882
000030 39 ee 8f 3e e7 cb 05 3f 32 4d 05 be b3 1e fb be
       0.28111437 0.52264255 -0.13017729 -0.4904686
000040 c1 ca 1a bf a8 3d 81 be 81 0f c2 3e 2b 84 18 bf
       -0.6046563 -0.25242352 0.37902454 -0.5957667
000050 4b 33 58 be df 7c 9d 3e 73 68 a3 3e f7 3e 0b 3e
       -0.21113317 0.30759332 0.31915626 0.13598238
000060 97 fc 3d be 34 90 8c 3e 32 a6 d5 bd 9d 41 82 3e
       -0.18553387 0.27453768 -0.1043209 0.25440684
000070 9d 19 fb 3e 25 2d 74 be a6 e6 1d 3f 79 52 b1 bd
       0.4904298 -0.23845346 0.61680067 -0.086583085
000080 a2 de 2d 3f 2f a8 db bd 02 2b d5 3e c6 e4 8b be
       0.67917836 -0.10725438 0.41634375 -0.27322978
000090 7a 57 0f be ff e5 9b be 0a 10 56 be 55 e0 ef 3e
       -0.13998213 -0.3044891 -0.20904556 0.4685084
0000a0 77 f3 bc be 9c 47 a5 3e cc 59 d3 3d 01 b6 24 be
       -0.369045 0.32281196 0.10319862 -0.16085054
0000b0 9e 32 36 3f 4c f7 81 3e 63 48 1a be 64 45 c7 be
       0.71170986 0.25383985 -0.15066676 -0.38920128
0000c0 be 47 40 3e 0a 6f d1 be
       0.18777367 -0.4090503

mask f4 [50, 2]
000000 00 00 80 3f 00 00 00 00 00 00 80 3f 00 00 00 00
       1.0 0.0 1.0 0.0
000010 00 00 80 3f 00 00 00 00 00 00 80 3f 00 00 00 00
       1.0 0.0 1.0 0.0
000020 00 00 80 3f 00 00 00 00 00 00 80 3f 00 00 00 00
       1.0 0.0 1.0 0.0
000030 00 00 80 3f 00 00 00 00 00 00 80 3f 00 00 00 00
       1.0 0.0 1.0 0.0
000040 00 00 80 3f 00 00 00 00 00 00 80 3f 00 00 00 00
       1.0 0.0 1.0 0.0
000050 00 00 80 3f 00 00 00 00 00 00 80 3f 00 00 00 00
       1.0 0.0 1.0 0.0
000060 00 00 80 3f 00 00 00 00 00 00 80 3f 00 00 00 00
       1.0 0.0 1.0 0.0
000070 00 00 80 3f 00 00 00 00 00 00 80 3f 00 00 00 00
       1.0 0.0 1.0 0.0
000080 00 00 80 3f 00 00 00 00 00 00 80 3f 00 00 00 00
       1.0 0.0 1.0 0.0
000090 00 00 80 3f 00 00 00 00 00 00 80 3f 00 00 00 00
       1.0 0.0 1.0 0.0
0000a0 00 00 80 3f 00 00 00 00 00 00 80 3f 00 00 00 00
       1.0 0.0 1.0 0.0
0000b0 00 00 80 3f 00 00 00 00 00 00 80 3f 00 00 00 00
       1.0 0.0 1.0 0.0
0000c0 00 00 80 3f 00 00 00 00 00 00 80 3f 00 00 00 00
       1.0 0.0 1.0 0.0
0000d0 00 00 80 3f 00 00 00 00 00 00 80 3f 00 00 00 00
       1.0 0.0 1.0 0.0
0000e0 00 00 80 3f 00 00 00 00 00 00 80 3f 00 00 00 00
       1.0 0.0 1.0 0.0
0000f0 00 00 80 3f 00 00 00 00 00 00 80 3f 00 00 00 00
       1.0 0.0 1.0 0.0
000100 00 00 80 3f 00 00 00 00 00 00 80 3f 00 00 00 00
       1.0 0.0 1.0 0.0
000110 00 00 80 3f 00 00 00 00 00 00 80 3f 00 00 00 00
       1.0 0.0 1.0 0.0
000120 00 00 80 3f 00 00 00 00 00 00 80 3f 00 00 00 00
       1.0 0.0 1.0 0.0
000130 00 00 80 3f 00 00 00 00 00 00 80 3f 00 00 00 00
       1.0 0.0 1.0 0.0
000140 00 00 80 3f 00 00 00 00 00 00 80 3f 00 00 00 00
       1.0 0.0 1.0 0.0
000150 00 00 80 3f 00 00 00 00 00 00 80 3f 00 00 00 00
       1.0 0.0 1.0 0.0
000160 00 00 80 3f 00 00 00 00 00 00 80 3f 00 00 00 00
       1.0 0.0 1.0 0.0
000170 00 00 80 3f 00 00 00 00 00 00 80 3f 00 00 00 00
       1.0 0.0 1.0 0.0
000180 00 00 80 3f 00 00 00 00 00 00 80 3f 00 00 00 00
       1.0 0.0 1.0 0.0

weight f4 [50, 2]
000000 72 f7 86 be 3a 73 d9 be d9 86 62 3e 56 fe 81 bd
       -0.2636066 -0.42470723 0.22121753 -0.06347339
000010 f4 70 2b 3f 35 ca 8a 3e 77 dd 0b bf d3 95 25 3f
       0.6696923 0.27107397 -0.54634804 0.6468174
000020 d9 ae 14 bf 17 66 17 3e 54 b4 a8 bd 1c 95 d9 be
       -0.58079296 0.14785038 -0.0823752 -0.42496574
000030 39 6a 42 3e 90 f8 0f 3f 3f 56 0f 3f 46 63 3d be
       0.18985833 0.5623865 0.55990976 -0.18494901
000040 8c 9f 8c bd 7b a6 71 3e db f3 04 be 53 db b7 3d
       -0.06866369 0.23598664 -0.12983648 0.0897738
000050 a0 2e d8 3d f9 b9 02 3f 7d da c5 3d b4 a2 aa 3e
       0.10555768 0.5106502 0.09660814 0.33327258
000060 64 ef f0 3e ea bf 0a be 67 41 87 3d 39 b4 15 3e
       0.4705764 -0.13549772 0.066042714 0.1461953
000070 15 4a 0e 3f 0c a3 63 3e d3 c6 c3 bd 1c 6d 5e bd
       0.5558179 0.22230166 -0.09559407 -0.054303274
000080 06 77 da be d3 b2 f0 3e 47 ff 5e 3e ee eb 22 bf
       -0.42668933 0.47011432 0.21777068 -0.6364125
000090 52 ae 7e 3e 77 f8 59 be 0f 73 87 3e 8d c9 1b 3e
       0.24871185 -0.21286188 0.2645497 0.15213604
0000a0 17 16 07 3f 0b bc 7d 3e 53 89 81 be 73 25 09 3e
       0.5276808 0.24778764 -0.25300083 0.13393192
0000b0 62 91 a5 3d 7b 91 b0 3e b8 22 ca be 9c 02 6a be
       0.0808437 0.34485993 -0.39479613 -0.22852558
0000c0 c4 9b a1 be 3e 5f 17 3f 97 ac 26 bf 69 63 6a 3e
       -0.31564152 0.59129703 -0.651071 0.22889484
0000d0 a8 e9 21 3c 27 81 14 3f 61 04 bf 3e c4 e2 5d be
       0.009882368 0.5800957 0.37308028 -0.21668535
0000e0 e8 9c 00 3f 60 d8 78 3e cb 92 90 be 6d db 17 3f
       0.5023942 0.2430129 -0.28236994 0.5931919
0000f0 28 38 b9 3e c6 d2 d9 3e 20 fc 0a bf e8 24 c4 be
       0.36175656 0.4254362 -0.5429096 -0.38309407
000100 5b 55 2f 3e 8c 02 c8 3d 87 84 94 be cc 86 3f be
       0.17122404 0.09766111 -0.2900736 -0.18703765
000110 2b fb ec 3d bb c1 53 3b bd 2b 07 3f 8b bd d1 be
       0.11571344 0.0032311517 0.52801114 -0.40964922
000120 b4 b3 bc 3c 77 59 a8 3d 7d ca c0 3c d9 bf 1d 3f
       0.023034908 0.08220189 0.023534054 0.6162086
000130 66 d6 0f 3f ea 8e d4 be 20 d5 2e 3f b6 2e e6 3e
       0.5618652 -0.41515285 0.6829395 0.44957513
000140 8f 9d b8 3e 02 96 22 bf f7 03 4a be f4 c3 cd 3e
       0.36057708 -0.63510144 -0.19728075 0.40188563
000150 3c 69 13 bf 39 28 18 bf 84 77 0b 3f f6 11 1d 3f
       -0.5758245 -0.59436375 0.5447924 0.6135553
000160 6b 5d 9b 3e 2c fa 05 bf df 89 57 bd de 94 12 3f
       0.3034471 -0.52334857 -0.05262172 0.57258403
000170 e5 85 1f 3f 52 34 fd 3d 3b fa 0f 3e 19 16 94 3e
       0.6231368 0.12363495 0.14060299 0.2892311
000180 30 17 e5 bd 32 ec 9d be d5 81 28 3f 1e 9f aa 3e
       -0.11186063 -0.30844265 0.6582311 0.33324522

bias f4 [50]
000000 d6 df 46 be 54 bc 04 3f 06 f3 7c 3e 6f ee cb be
       -0.19421324 0.51849866 0.24702081 -0.39830348
000010 5d 57 1a 3f 24 61 b5 3d 37 6c 24 3f 66 1b 39 be
       0.60289556 0.08856419 0.6422762 -0.18076858
000020 47 37 23 3e f7 15 0a bf e7 60 4e be a1 0d 27 bf
       0.15939055 -0.53939766 -0.20154153 -0.6525517
000030 81 77 a6 be 9b a6 d1 bc 7e a0 e0 be ef c3 e0 3d
       -0.3251305 -0.025592139 -0.43872446 0.10974871
000040 f7 cb b0 3e 98 a3 8c be 29 d1 db bd ea 5d 00 3f
       0.34530613 -0.27468562 -0.107332535 0.501433
000050 3f 3f a6 be 73 e5 b6 be 17 6f 22 bf 2a b7 08 bf
       -0.32470128 -0.3572193 -0.6345076 -0.53404486
000060 03 b2 ac 3e 50 d9 f5 3b 28 4a dc be c8 3b 5b 3d
       0.33729562 0.0075027123 -0.43025327 0.05352381
000070 4c 32 27 3f db 09 08 bf 98 1e 5d 3e cc 9c 0f 3f
       0.6531112 -0.5314004 0.21593702 0.5609863
000080 e8 8d a1 3d 15 07 d5 be 9a 09 a1 be 25 15 74 3e
       0.078883946 -0.41606966 -0.31452638 0.23836191
000090 21 d8 2a 3f 13 9d e9 3d 2b 0a 1a 3f 0a b9 31 3f
       0.66736037 0.11406913 0.60171765 0.6942297
0000a0 83 34 1f 3f 9f 23 0b be 82 f4 2b 3f 14 b2 fc be
       0.621895 -0.13587807 0.67169964 -0.49354613
0000b0 47 f9 c0 3e d3 3c e1 3e 3e b0 99 3e 55 fb ba be
       0.37690184 0.43991718 0.30017275 -0.36519876
0000c0 6a 7f e7 be 0b cd 8f be
       -0.45214397 -0.28086123

weight f4 [50, 50]
000000 6b d1 f3 bc ce 8c bf bd 59 9b bd 3d 5a 45 03 bd
       -0.029762944 -0.09353028 0.09258146 -0.03204856
000010 8e 9f 46 bd e3 fe 25 3e 9f 23 91 3d 78 e5 1a be
       -0.048492007 0.16210513 0.07086872 -0.15126598
000020 d8 af 87 3d 6a 67 0d bd 1c 5d 01 3e 93 e7 a2 3c
       0.066253364 -0.03452245 0.12633175 0.019885814
000030 eb 58 c7 3d 9c 08 b3 3c 82 d5 04 be f2 d3 0f 3e
       0.09733757 0.021854691 -0.12972072 0.14045694
000040 b6 4b 79 3d 23 c5 cb 3d 74 49 b2 bd c8 01 81 bd
       0.06086322 0.0994971 -0.08705416 -0.06299168
000050 89 6b 27 3c ec 82 2f 3d 33 7a fd 3d c6 51 60 3d
       0.0102185095 0.042849466 0.12376823 0.054765485
000060 fc b4 8a bd 3f 8f 0e 3e 81 0a e7 3d fa 44 f8 3d
       -0.06772801 0.13921832 0.112813 0.12122531
000070 d2 73 cf 3d ef e6 1a 3e 56 37 ce 3d ea a2 09 3e
       0.10129513 0.15127157 0.10069148 0.13441053
000080 75 ea dc bc a4 52 ce 3d bf a5 88 3c 4d 10 85 ba
       -0.026967267 0.10074356 0.016680596 -0.0010151953
000090 ce 36 b9 3d f2 a1 c1 bd 40 d5 e6 bd dd 29 2a 3d
       0.09043656 -0.09454717 -0.11271143 0.04154383
0000a0 36 b2 99 3d ca e6 ca b9 e6 80 9e bd 5d 7a b0 3d
       0.07504694 -0.00038700394 -0.07739429 0.08617089
0000b0 e3 e7 7c 3d 3d 9c 7b bd bd 2f 95 3d 9a 56 09 3c
       0.061744582 -0.061428297 0.07284496 0.008382464
0000c0 7c 0a 01 3c a2 f6 ed 3d 76 d6 c5 bd 8a bb 06 3e
       0.007876035 0.11619307 -0.09660046 0.13157478
0000d0 86 8e b5 3a a5 22 fa 3d a5 b7 3d 3c 5a 80 01 be
       0.0013851679 0.12213639 0.011579429 -0.12646618
0000e0 e5 48 11 3e a6 ea d5 bd 6f bc 42 bd 2a b2 cd 3d
       0.14187963 -0.10445146 -0.047542986 0.10043748
0000f0 a2 7d b6 3d 97 f9 24 be cb 49 e3 3c b3 89 8c 3c
       0.08910681 -0.16110836 0.027745148 0.017155504
000100 61 38 06 bc b9 7d 03 be 53 4f 5b bb c8 a1 09 3e
       -0.008192153 -0.12840928 -0.003346403 0.13440621
000110 95 5d 89 bd 1d 8a d7 3d 1f a3 c3 3d 16 0e fc bc
       -0.067073025 0.1052439 0.09552597 -0.030768435
000120 2a 72 ce bc 7f 2d cb 3d 13 a2 76 3c fa b6 a3 bd
       -0.025200922 0.09920787 0.01505329 -0.079938844
000130 5e bd aa bd a8 3a fc 3d db 7f 9d bb 3e 70 0b be
       -0.083369 0.12315875 -0.0048065013 -0.13617036
000140 74 5d 81 3d f1 9c 80 bd 5d 46 04 3e bd 7d 91 3b
       0.06316653 -0.06279934 0.12917466 0.004440038
000150 5b 9b 4d bd 8f 3c bd bd f8 4b 45 bc b9 ae 96 3d
       -0.050196987 -0.09240066 -0.012042038 0.073575445
000160 0a 38 f7 bd a6 40 6c 3c fc 47 37 3e 25 26 4f bd
       -0.120712355 0.01441971 0.17898554 -0.050573487
000170 a9 76 81 3d 22 e5 c8 bd 8b 05 32 bd cf d9 dc 3d
       0.06321461 -0.098093286 -0.043462317 0.10783731
000180 13 b3 30 3d c0 02 80 bd 2f de 82 bc 49 9c b1 bd
       0.04313953 -0.062505245 -0.015975086 -0.08672387
000190 1d ea 13 3d b5 ec 16 be d1 76 27 bd 77 79 a9 bd
       0.03611194 -0.14738734 -0.040884797 -0.08275121
0001a0 08 70 21 3e 9b 42 dd 3d 9c 54 5c bb ac f8 02 3e
       0.15765393 0.108037196 -0.0033619767 0.12790173
0001b0 77 1e 29 be 2b 0d 89 3c fc c2 02 bd c7 5a ea 3c
       -0.16515528 0.016729912 -0.031924233 0.02860774
0001c0 f3 53 02 3e 6d b2 02 3c ff e4 9c 3b d7 31 7e bd
       0.12727337 0.00797711 0.0047880406 -0.06205925
0001d0 c0 af 0a 3e 94 89 79 3d cc fb 23 bc e3 e9 b8 3d
       0.13543606 0.06092222 -0.0100087635 0.09028985
0001e0 93 72 23 be 2e 8e 97 3d 13 28 94 3c 11 e9 46 bd
       -0.15961675 0.074001655 0.018085515 -0.048562113
0001f0 11 dc 0e 3d d6 40 34 3e 9d 35 fe 3d b9 2c 44 bd
       0.03487784 0.17602858 0.1241257 -0.047894213
000200 4c 05 e3 3d 7d 3c 16 3e 2a a3 fd bd f0 e0 bb bc
       0.11084995 0.14671512 -0.12384637 -0.022934407
000210 3f 47 37 bd 0a 18 31 3c fc d0 79 3c a4 f5 04 3e
       -0.04474568 0.010808954 0.01524758 0.1298433
000220 c8 48 3c bb 20 56 f8 bd c3 6e 88 bd c3 dd 28 bd
       -0.0028729904 -0.12125802 -0.06661751 -0.041227113
000230 06 8b a9 bd e1 f6 2a be 62 98 96 3d eb 52 a1 3d
       -0.0827847 -0.1669574 0.073532835 0.078771435
000240 05 c3 65 3d da b2 2f be f2 6b ba bd 63 63 e3 3d
       0.05609419 -0.1715807 -0.0910262 0.11102941
000250 54 76 a1 bc 91 81 e7 3b c4 17 09 3e 36 48 db 3d
       -0.019709744 0.007065006 0.13387972 0.107071325
000260 36 b4 1e 3e 46 e8 fd 3d bc f8 e0 bd a1 08 ff bd
       0.15498433 0.12397818 -0.10984942 -0.12452818
000270 f6 ca d6 bd cd 1c 4e bd f2 70 04 3d f9 68 e9 bd
       -0.104879305 -0.050320435 0.032334276 -0.11396975
000280 e9 35 d6 bd 35 38 72 bd 16 4f db 3c ed 4f ba bd
       -0.10459501 -0.059135634 0.02677111 -0.09097276
000290 0c 69 01 be df 09 17 be 49 13 05 3e ca a3 cf 3d
       -0.12637728 -0.1474986 0.12995638 0.10138662
0002a0 9f 21 64 bd e5 d4 e0 3d 33 18 f4 3c 4f 88 c2 3d
       -0.055696126 0.109781064 0.029796695 0.09498655
0002b0 89 0d 82 3d fe df a6 bc 48 f6 19 3d 41 dd 4a bd
       0.06350238 -0.02037048 0.037588388 -0.04952741
0002c0 12 05 7b bc f3 5f 4b 3d 3c 54 85 3d c8 37 08 3d
       -0.015321033 0.04965205 0.06510207 0.033256322
0002d0 5d 58 99 bd 57 17 31 bd ad 99 e1 3b dc 69 91 3d
       -0.07487557 -0.04323515 0.0068847747 0.07100269
0002e0 55 74 25 bd 57 ae b8 3d 55 c8 75 bb a9 9d f0 3d
       -0.040394146 0.09017628 -0.003750344 0.11748821
0002f0 f7 ff e7 3d b9 08 f8 3d dd 88 8b bd bf 44 ec 3d
       0.11328118 0.12111039 -0.06813214 0.1153655
000300 17 47 54 3d 2c e4 7f bd 54 9c f1 bc 05 4a 67 3d
       0.05182561 -0.06247346 -0.029493488 0.056467075
000310 67 85 dc 3d bc c7 e5 bd 02 c2 3f 3d a0 39 08 bc
       0.10767632 -0.11219737 0.04681588 -0.00831452
000320 9b 74 7b bd 8c 0e 1e 3e a3 7c 20 3d 39 79 ac 3d
       -0.0613905 0.15435237 0.039181363 0.08421559
000330 42 85 e1 bd 23 97 af 3c ab 10 ce bc fc 00 b8 3c
       -0.11011745 0.021434372 -0.025154432 0.022461407
000340 fc 0e c6 bd fe 29 a0 3d ec d0 6d bd 0a b6 ab 3d
       -0.09670827 0.078205094 -0.05806057 0.083843306
000350 d9 41 ea bc a7 0a 34 be 79 5d 0c bd b5 b5 a8 bd
       -0.028595852 -0.17582189 -0.03426883 -0.08237783
000360 2e 75 18 be 64 d0 7e 3c 4b f3 c2 bd 89 c9 34 bd
       -0.1488845 0.015552614 -0.09519061 -0.04413751
000370 7a 5a 02 3e c4 f7 0e 3e b7 09 58 bc de 2a c1 3d
       0.12729827 0.13961703 -0.01318591 0.094320044
000380 78 4e 82 3d ce d9 73 3d f1 9c 38 bd 91 c3 93 3c
       0.06362623 0.059533887 -0.045071546 0.01803759
000390 ed 14 d8 3d f8 e5 24 3d d5 8e 50 bd ee ed 5e bd
       0.10550866 0.040258378 -0.050917465 -0.054426126
0003a0 5f f2 a4 3d 8e 6f 49 3e 83 0d 04 be 87 43 58 bc
       0.08054041 0.19671461 -0.1289578 -0.0131996935
0003b0 4a 83 16 bd 11 21 38 3e 54 21 d0 3c 6e 7c 05 3e
       -0.0367463 0.17981364 0.025406517 0.13035747
0003c0 a0 e5 0b 3e 0b 65 91 bd 49 69 9b 3d 1e 4d 72 bc
       0.13661814 -0.070993505 0.07588441 -0.014788894
0003d0 ee c7 d3 bc 81 19 d9 bc 8a ce 4c bd 2e 69 d3 3d
       -0.02585217 -0.026501419 -0.05000166 0.10322796
0003e0 59 5c 59 3c ca 21 6a bd 28 47 98 3d d8 8b 71 3d
       0.013266646 -0.05716113 0.07435447 0.058971256
0003f0 71 d7 80 bd 0f 7f 15 3d b3 e1 16 3c ee da 7e 3c
       -0.06291092 0.036498126 0.009209084 0.015555127

bias f4 [50]
000000 2e 30 55 3d a6 f1 f4 3d 7c 22 06 bd 44 e7 67 3d
       0.0520479 0.11960153 -0.03274773 0.056617036
000010 f0 aa 85 3d 59 db 07 be 44 c4 5b 3c fc 29 05 3d
       0.06526744 -0.13267268 0.013413493 0.032510743
000020 6c d7 06 be 3b e2 cd bd ac 19 4e be 3e e2 50 3c
       -0.13168114 -0.10052916 -0.2012698 0.012749253
000030 f9 b7 ac bb 0c f3 49 bb 75 b9 ca 3d 12 05 bd bc
       -0.0052709547 -0.0030815033 0.09898654 -0.023073707
000040 cf c7 b6 bd 8b c4 ab 3d 2a 17 cc bd 01 d8 1e be
       -0.08924829 0.08387097 -0.09965356 -0.15512086
000050 0a 5b e4 bd 34 a8 ca bd 4a 81 16 be 81 23 e0 bc
       -0.11150177 -0.098953635 -0.14697757 -0.02736068
000060 c7 2e 95 3d b6 49 77 bd d2 51 10 3d db 71 f6 bd
       0.07284313 -0.06037303 0.03523428 -0.12033435
000070 46 96 3b 3d 85 39 4c 3e 7f 90 50 bd 0d cf fc 3c
       0.04579761 0.19943817 -0.050919052 0.030860448
000080 86 2e 68 3b be 44 81 3c 9c 60 0a 3c 8c 0f b8 bd
       0.003542812 0.01577985 0.008445885 -0.0898734
000090 e3 99 c4 bb ae 7c d0 b9 2e 59 2a bd be 74 91 bd
       -0.00599979 -0.00039765745 -0.041588955 -0.07102345
0000a0 8e 3e a1 bc 75 a1 17 be 4c b8 83 3d c6 a7 b3 bd
       -0.019683149 -0.14807685 0.06431636 -0.087722346
0000b0 7d 5c a9 3d bc c0 ed 3d 11 f3 56 3d 11 0d a5 3d
       0.08269594 0.11609027 0.0524779 0.08059133
0000c0 a5 aa 67 3d 23 18 8a bd
       0.056559224 -0.06742885

mask f4 [50, 50]
000000 00 00 80 3f 00 00 80 3f 00 00 80 3f 00 00 80 3f
       1.0 1.0 1.0 1.0
000010 00 00 80 3f 00 00 80 3f 00 00 80 3f 00 00 80 3f
       1.0 1.0 1.0 1.0
000020 00 00 80 3f 00 00 80 3f 00 00 80 3f 00 00 80 3f
       1.0 1.0 1.0 1.0
000030 00 00 80 3f 00 00 80 3f 00 00 80 3f 00 00 80 3f
       1.0 1.0 1.0 1.0
000040 00 00 80 3f 00 00 80 3f 00 00 80 3f 00 00 80 3f
       1.0 1.0 1.0 1.0
000050 00 00 80 3f 00 00 80 3f 00 00 80 3f 00 00 80 3f
       1.0 1.0 1.0 1.0
000060 00 00 80 3f 00 00 80 3f 00 00 80 3f 00 00 80 3f
       1.0 1.0 1.0 1.0
000070 00 00 80 3f 00 00 80 3f 00 00 80 3f 00 00 80 3f
       1.0 1.0 1.0 1.0
000080 00 00 80 3f 00 00 80 3f 00 00 80 3f 00 00 80 3f
       1.0 1.0 1.0 1.0
000090 00 00 80 3f 00 00 80 3f 00 00 80 3f 00 00 80 3f
       1.0 1.0 1.0 1.0
0000a0 00 00 80 3f 00 00 80 3f 00 00 80 3f 00 00 80 3f
       1.0 1.0 1.0 1.0
0000b0 00 00 80 3f 00 00 80 3f 00 00 80 3f 00 00 80 3f
       1.0 1.0 1.0 1.0
0000c0 00 00 80 3f 00 00 80 3f 00 00 80 3f 00 00 80 3f
       1.0 1.0 1.0 1.0
0000d0 00 00 80 3f 00 00 80 3f 00 00 80 3f 00 00 80 3f
       1.0 1.0 1.0 1.0
0000e0 00 00 80 3f 00 00 80 3f 00 00 80 3f 00 00 80 3f
       1.0 1.0 1.0 1.0
0000f0 00 00 80 3f 00 00 80 3f 00 00 80 3f 00 00 80 3f
       1.0 1.0 1.0 1.0
000100 00 00 80 3f 00 00 80 3f 00 00 80 3f 00 00 80 3f
       1.0 1.0 1.0 1.0
000110 00 00 80 3f 00 00 80 3f 00 00 80 3f 00 00 80 3f
       1.0 1.0 1.0 1.0
000120 00 00 80 3f 00 00 80 3f 00 00 80 3f 00 00 80 3f
       1.0 1.0 1.0 1.0
000130 00 00 80 3f 00 00 80 3f 00 00 80 3f 00 00 80 3f
       1.0 1.0 1.0 1.0
000140 00 00 80 3f 00 00 80 3f 00 00 80 3f 00 00 80 3f
       1.0 1.0 1.0 1.0
000150 00 00 80 3f 00 00 80 3f 00 00 80 3f 00 00 80 3f
       1.0 1.0 1.0 1.0
000160 00 00 80 3f 00 00 80 3f 00 00 80 3f 00 00 80 3f
       1.0 1.0 1.0 1.0
000170 00 00 80 3f 00 00 80 3f 00 00 80 3f 00 00 80 3f
       1.0 1.0 1.0 1.0
000180 00 00 80 3f 00 00 80 3f 00 00 80 3f 00 00 80 3f
       1.0 1.0 1.0 1.0
000190 00 00 80 3f 00 00 80 3f 00 00 80 3f 00 00 80 3f
       1.0 1.0 1.0 1.0
0001a0 00 00 80 3f 00 00 80 3f 00 00 80 3f 00 00 80 3f
       1.0 1.0 1.0 1.0
0001b0 00 00 80 3f 00 00 80 3f 00 00 80 3f 00 00 80 3f
       1.0 1.0 1.0 1.0
0001c0 00 00 80 3f 00 00 80 3f 00 00 80 3f 00 00 80 3f
       1.0 1.0 1.0 1.0
0001d0 00 00 80 3f 00 00 80 3f 00 00 80 3f 00 00 80 3f
       1.0 1.0 1.0 1.0
0001e0 00 00 80 3f 00 00 80 3f 00 00 80 3f 00 00 80 3f
       1.0 1.0 1.0 1.0
0001f0 00 00 80 3f 00 00 80 3f 00 00 80 3f 00 00 80 3f
       1.0 1.0 1.0 1.0
000200 00 00 80 3f 00 00 80 3f 00 00 80 3f 00 00 80 3f
       1.0 1.0 1.0 1.0
000210 00 00 80 3f 00 00 80 3f 00 00 80 3f 00 00 80 3f
       1.0 1.0 1.0 1.0
000220 00 00 80 3f 00 00 80 3f 00 00 80 3f 00 00 80 3f
       1.0 1.0 1.0 1.0
000230 00 00 80 3f 00 00 80 3f 00 00 80 3f 00 00 80 3f
       1.0 1.0 1.0 1.0
000240 00 00 80 3f 00 00 80 3f 00 00 80 3f 00 00 80 3f
       1.0 1.0 1.0 1.0
000250 00 00 80 3f 00 00 80 3f 00 00 80 3f 00 00 80 3f
       1.0 1.0 1.0 1.0
000260 00 00 80 3f 00 00 80 3f 00 00 80 3f 00 00 80 3f
       1.0 1.0 1.0 1.0
000270 00 00 80 3f 00 00 80 3f 00 00 80 3f 00 00 80 3f
       1.0 1.0 1.0 1.0
000280 00 00 80 3f 00 00 80 3f 00 00 80 3f 00 00 80 3f
       1.0 1.0 1.0 1.0
000290 00 00 80 3f 00 00 80 3f 00 00 80 3f 00 00 80 3f
       1.0 1.0 1.0 1.0
0002a0 00 00 80 3f 00 00 80 3f 00 00 80 3f 00 00 80 3f
       1.0 1.0 1.0 1.0
0002b0 00 00 80 3f 00 00 80 3f 00 00 80 3f 00 00 80 3f
       1.0 1.0 1.0 1.0
0002c0 00 00 80 3f 00 00 80 3f 00 00 80 3f 00 00 80 3f
       1.0 1.0 1.0 1.0
0002d0 00 00 80 3f 00 00 80 3f 00 00 80 3f 00 00 80 3f
       1.0 1.0 1.0 1.0
0002e0 00 00 80 3f 00 00 80 3f 00 00 80 3f 00 00 80 3f
       1.0 1.0 1.0 1.0
0002f0 00 00 80 3f 00 00 80 3f 00 00 80 3f 00 00 80 3f
       1.0 1.0 1.0 1.0
000300 00 00 80 3f 00 00 80 3f 00 00 80 3f 00 00 80 3f
       1.0 1.0 1.0 1.0
000310 00 00 80 3f 00 00 80 3f 00 00 80 3f 00 00 80 3f
       1.0 1.0 1.0 1.0
000320 00 00 80 3f 00 00 80 3f 00 00 80 3f 00 00 80 3f
       1.0 1.0 1.0 1.0
000330 00 00 80 3f 00 00 80 3f 00 00 80 3f 00 00 80 3f
       1.0 1.0 1.0 1.0
000340 00 00 80 3f 00 00 80 3f 00 00 80 3f 00 00 80 3f
       1.0 1.0 1.0 1.0
000350 00 00 80 3f 00 00 80 3f 00 00 80 3f 00 00 80 3f
       1.0 1.0 1.0 1.0
000360 00 00 80 3f 00 00 80 3f 00 00 80 3f 00 00 80 3f
       1.0 1.0 1.0 1.0
000370 00 00 80 3f 00 00 80 3f 00 00 80 3f 00 00 80 3f
       1.0 1.0 1.0 1.0
000380 00 00 80 3f 00 00 80 3f 00 00 80 3f 00 00 80 3f
       1.0 1.0 1.0 1.0
000390 00 00 80 3f 00 00 80 3f 00 00 80 3f 00 00 80 3f
       1.0 1.0 1.0 1.0
0003a0 00 00 80 3f 00 00 80 3f 00 00 80 3f 00 00 80 3f
       1.0 1.0 1.0 1.0
0003b0 00 00 80 3f 00 00 80 3f 00 00 80 3f 00 00 80 3f
       1.0 1.0 1.0 1.0
0003c0 00 00 80 3f 00 00 80 3f 00 00 80 3f 00 00 80 3f
       1.0 1.0 1.0 1.0
0003d0 00 00 80 3f 00 00 80 3f 00 00 80 3f 00 00 80 3f
       1.0 1.0 1.0 1.0
0003e0 00 00 80 3f 00 00 80 3f 00 00 80 3f 00 00 80 3f
       1.0 1.0 1.0 1.0
0003f0 00 00 80 3f 00 00 80 3f 00 00 80 3f 00 00 80 3f
       1.0 1.0 1.0 1.0

weight f4 [50, 50]
000000 9c 9b 00 3e f6 cb 3f bc 32 23 e5 3d 90 f7 c6 3d
       0.1255936 -0.011706343 0.111883536 0.097151875
000010 da a7 58 3c a7 ec 2f 3e cc 5c 5e bd 61 38 23 be
       0.013223613 0.1718012 -0.054287717 -0.15939476
000020 10 5c 20 3d 9d 56 36 bd ed 12 92 bd cf 1a 01 be
       0.039150298 -0.044516195 -0.07132516 -0.12607883
000030 d4 7e 95 bd 00 ca 4d bd d5 64 ac bc a0 db 03 3d
       -0.07299581 -0.05024147 -0.021044174 0.032191873
000040 48 fd 84 3b ae 4b 0a be fe da 1c 3c 4e 5f d7 3d
       0.004058514 -0.13505432 0.009573696 0.10516225
000050 3f 52 9d bd d5 69 fe 3d 68 05 ab bd 3b 9d 1f be
       -0.07681703 0.124225296 -0.083506405 -0.15587322
000060 c0 c8 f4 bc 65 b1 cc 3b 53 ae 8f bd 6c b2 8c 3d
       -0.029880881 0.006246733 -0.070156716 0.06869969
000070 94 29 51 bd 67 8b ad bd a4 f2 81 3d 20 0f 0c 3e
       -0.051065043 -0.084738545 0.06345108 0.13677645
000080 83 ba 18 3d b8 67 9d bd ab de 83 bd f7 0c 04 be
       0.037287246 -0.076857984 -0.06438955 -0.1289557
000090 d2 37 aa bd e2 11 ac 3d 32 38 1b bd 70 dc 36 3d
       -0.08311428 0.084018484 -0.03789539 0.04464382
0000a0 cb d2 d7 3d 45 ca 2e 3e 5f 4e 89 bd 2d fb 55 3d
       0.105382524 0.17069347 -0.06704401 0.052241493
0000b0 db fb ec 3c 0f b6 9a 3c 15 78 d3 3d a5 e1 82 bd
       0.028928688 0.01888564 0.10325638 -0.063906945
0000c0 a1 10 fe 3d 09 37 d1 3d cf b0 ea 3d 31 c2 d3 3d
       0.124055155 0.10215575 0.11459505 0.103397734
0000d0 af ae 13 be fe c4 bb bd 3d 20 e1 3d 20 49 46 3d
       -0.14422105 -0.09168433 0.10992477 0.04840958
0000e0 26 fa 86 3d 65 59 c2 3d 41 10 d6 3d 97 8c 08 3d
       0.06590681 0.09489707 0.10452319 0.033337202
0000f0 a6 b7 6a 3d 72 56 10 3e 50 4c 2d bd 7c f5 59 bd
       0.057304047 0.14095476 -0.042309105 -0.053212628
000100 bc fb 9e 3c f4 e8 3a bd 92 ff 41 bd 0e 5f e5 bc
       0.019407146 -0.045632318 -0.04736287 -0.027999427
000110 5b 10 01 be 2b 4b 2e be 6a 32 9f bc 27 c7 b3 bc
       -0.12603895 -0.17020862 -0.019433219 -0.02194555
000120 5d 63 4d 3d 65 e1 c9 bd 43 8c b7 bc 00 07 ca bd
       0.05014359 -0.09857444 -0.02240575 -0.098646164
000130 0b a2 56 3d 55 f7 f7 3c 2b 2a b2 3d 57 d6 d0 3d
       0.05240063 0.030269304 0.08699449 0.10197132
000140 fc 35 d9 3c f6 0b a3 bd 3a 96 14 3e 55 bc d6 3d
       0.026515 -0.07961266 0.14510432 0.1048514
000150 a2 be a9 ba 58 29 40 3c a4 a2 9e 3d 4f 84 e5 3c
       -0.001295049 0.011728607 0.07745865 0.028017191
000160 4c 5f 9a bc 5f 49 5d bc 15 25 4b 3d 52 4a 4d bc
       -0.01884427 -0.013506263 0.04959591 -0.012529926
000170 f9 52 cc bb e4 c1 90 bd 16 82 55 3a a0 15 0a bd
       -0.006235477 -0.07068232 0.00081446895 -0.03371203
000180 3e 6c e5 3d c5 b0 23 3e 94 d9 0b be 58 45 7d 3d
       0.11202286 0.15985401 -0.13657218 0.06183371
000190 bb 05 41 3d c2 a1 23 be df 73 17 3d 0f 97 76 3c
       0.047124606 -0.15979674 0.036975738 0.015050664
0001a0 f9 ac de 3d e0 ee 39 bd d3 00 cb bd 78 84 b8 bc
       0.10872836 -0.045393825 -0.099122666 -0.022524104
0001b0 48 c9 3b bc b7 8e 2e 3d b8 98 03 3e 73 23 b9 3a
       -0.011461563 0.042616572 0.12851226 0.0014124945
0001c0 b9 73 96 3c 9a 5b a8 3d b9 b9 22 be b7 76 07 3e
       0.018365728 0.082205966 -0.1589116 0.1322888
0001d0 56 01 40 3d bb d9 f0 bc ed 48 e1 3d 03 79 8c bd
       0.046876274 -0.029400697 0.110002376 -0.06859019
0001e0 39 b2 af 3d c0 5f cf 3d 12 77 e5 bc ea a4 b8 3d
       0.08578915 0.10125685 -0.028010879 0.0901583
0001f0 7a d4 c1 bd c0 8e 61 3d a0 62 56 3d 22 26 02 be
       -0.09464355 0.055067778 0.05234015 -0.12709859
000200 29 6e dc 3d f2 f9 7f bd ca 23 b8 3d bb cc 0d be
       0.10763199 -0.062494226 0.08991201 -0.1384763
000210 e6 2b ed 3d ce 50 8f 3c 3e 8e af 3d c3 e3 fb 3c
       0.115806386 0.017494585 0.085720524 0.030748254
000220 cf 92 7d 3d 45 2e 96 bd f4 01 7d 3d ff f8 09 be
       0.061907586 -0.07333044 0.06176944 -0.1347389
000230 02 7d 34 3e 8c 91 e4 3d 25 46 1a be 7a f7 04 be
       0.17625812 0.11160573 -0.1506582 -0.1298503
000240 25 43 df bd 6f 30 a1 3d f4 20 db 3d 9a c7 f6 bd
       -0.10901479 0.07870566 0.10699645 -0.1204979
000250 62 0c 12 3d 92 47 07 3d 41 5e 90 3d c5 1f 85 bd
       0.03565634 0.03302724 0.070492275 -0.065002
000260 7e 70 20 be 64 19 d3 3d 71 30 02 be a1 d5 35 bd
       -0.15667912 0.10307577 -0.12713791 -0.044393186
000270 df db 0e 3c 64 27 bb bd b3 33 b0 3d 70 99 ed bd
       0.008719414 -0.091383725 0.08603611 -0.116015315
000280 fe 67 94 bb 99 15 9f bc 1f 09 18 3d 4e 1d 72 3d
       -0.0045289984 -0.019419478 0.037118074 0.05910998
000290 e6 3d ea 3d 02 92 93 3d 9f d2 a9 bd e0 d5 40 bc
       0.114375874 0.07205583 -0.08292126 -0.011769742
0002a0 23 3e 0d be 11 90 f6 bc 13 4f 14 3c 71 47 b3 bd
       -0.13793235 -0.030097993 0.009052056 -0.08753861
0002b0 ec bb d2 bc 53 ce a6 3d 7f a6 8c bd 49 11 67 3d
       -0.025724374 0.08144822 -0.06867694 0.05641297
0002c0 85 96 06 be 79 0c 64 3d 99 b8 06 be a7 59 2e bd
       -0.13143356 0.055675957 -0.13156356 -0.042565968
0002d0 45 f6 53 3c 7d 6d 0a be 47 8f a1 bd e6 00 e0 3d
       0.012937133 -0.13518329 -0.07888656 0.10937671
0002e0 98 c1 9f 3d 7d 34 0b bd a0 df 01 bd c5 1f 57 bd
       0.07800597 -0.033985604 -0.031707406 -0.052520532
0002f0 79 0d a0 3d a6 4e 91 bd 9b 67 bf bc 4b e7 93 bd
       0.0781507 -0.07095079 -0.023364833 -0.0722185
000300 1b 74 fe 3d af 8d e2 3c 60 0e 57 3c 39 54 22 3e
       0.12424489 0.02765545 0.013125986 0.15852441
000310 73 7a df 3a d0 2d a3 3d 5f 5c 04 be c7 d9 79 bd
       0.0017050043 0.079677224 -0.12925862 -0.060998704
000320 12 94 60 bd 60 db 0c 3e 1c bc 02 be 40 41 cd 3c
       -0.05482871 0.1375556 -0.1276707 0.025055528
000330 cd 7e 37 3d 14 2d e3 3d 7c 7a cb b9 fe 93 56 3c
       0.04479866 0.11092582 -0.00038810435 0.0130968075
000340 6a f4 ca 3d b5 61 27 3d 58 a3 9a bc 96 76 1e 3d
       0.099098995 0.040864665 -0.018876716 0.03868731
000350 2e 22 44 be 64 52 63 bd 13 c7 cb bd 8f 77 da 3d
       -0.19153664 -0.055498496 -0.0995008 0.10667335
000360 4e 9e ab 3d b4 dc 1a be 3b 6e d3 3d 14 51 4e 3d
       0.083798036 -0.15123254 0.10323759 0.05037029
000370 84 7c ba 3d 52 be 0f 3e 99 c2 12 3e 4f 1c 5a 3d
       0.09105781 0.14037445 0.14332046 0.053249653
000380 49 83 c0 3d 42 38 84 bd 31 e7 72 bd 88 96 e6 bd
       0.09400041 -0.06456043 -0.059302513 -0.1125918
000390 86 82 ab bc 1a 75 01 3e 9a 56 60 bd f3 57 0d be
       -0.020936262 0.12642327 -0.05477009 -0.13803081
0003a0 c0 1b 1e be 54 97 41 bb 24 b5 69 3d 82 bd 92 3d
       -0.15440273 -0.0029539661 0.057057515 0.07165052
0003b0 1d 7a 9e bd d4 a5 44 bc 19 d1 f6 3d 6c 88 ec bd
       -0.07738135 -0.012002427 0.12051601 -0.11549458
0003c0 da 56 8f 3c 28 5c e9 bd 69 3c a4 3d 87 33 68 3d
       0.017497469 -0.113945305 0.08019335 0.056689765
0003d0 56 66 d7 bc 29 14 6c bd d2 6a 94 3b 2c ae b6 3b
       -0.026293915 -0.057636414 0.0045293355 0.005574962
0003e0 c1 f4 b2 bb 30 aa e3 3c 0d 47 a5 bc 07 e7 ad 3d
       -0.005461306 0.027791113 -0.020175481 0.084913306
0003f0 97 e2 b1 3c a7 56 d0 bd 45 de 77 3d 10 38 0c bd
       0.021714492 -0.101727776 0.060514707 -0.034233153

bias f4 [50]
000000 c7 91 84 3c 22 9a 34 bd d9 b4 ef 3c 90 13 92 3d
       0.016182793 -0.044092305 0.02926104 0.071326375
000010 31 a7 ad 3c 60 0a 4b 3d d8 f5 38 3d 80 8b 34 3d
       0.021197887 0.04957044 0.04515633 0.04407835
000020 db aa 98 3d e4 35 ef 3d e0 72 b6 3c 33 bd 4f bc
       0.07454463 0.11680201 0.022271574 -0.012679386
000030 be 19 55 3d 6c 7e 40 be 2b c7 6a bd 86 90 80 3d
       0.052026503 -0.18798226 -0.057318848 0.06277566
000040 25 92 8d bc ab 5b 1b be 10 9a 1d 3e 7b 2d 4e bb
       -0.017281601 -0.15171687 0.15390801 -0.0031460214
000050 da 3d 39 be 9f d5 1f 3e d3 c9 d4 3d 12 f7 80 3d
       -0.18090001 0.15608834 0.103900574 0.06297125
000060 33 d2 b1 bd aa db 62 bd ad df ed 3d fb 6f 5d 3e
       -0.086826704 -0.05538527 0.116149284 0.21624748
000070 97 c1 f4 bc 65 29 d4 bd ec e5 60 bd 9a e9 0e be
       -0.029877467 -0.10359458 -0.05490677 -0.139563
000080 28 81 56 3e bc 0c ab 3d 1b bf c6 3d 40 ee 0e bd
       0.20947707 0.08352038 0.09704419 -0.03489518
000090 0c ee cd 3d 88 7b a5 3d c6 5e 9b 3c c0 c5 21 be
       0.100551695 0.08080202 0.01896609 -0.15798092
0000a0 52 d6 06 3b e5 28 76 bc e5 c9 3d 3d ce 55 10 3e
       0.0020574522 -0.015024398 0.04633512 0.14095232
0000b0 0c ac 45 3c 98 4e 07 bd 34 9f 59 be 41 24 a2 3d
       0.012064945 -0.033033937 -0.21252137 0.07917071
0000c0 96 58 5d 3d 85 db c3 bc
       0.05403956 -0.023908386

mask f4 [50, 50]
000000 00 00 80 3f 00 00 80 3f 00 00 80 3f 00 00 80 3f
       1.0 1.0 1.0 1.0
000010 00 00 80 3f 00 00 80 3f 00 00 80 3f 00 00 80 3f
       1.0 1.0 1.0 1.0
000020 00 00 80 3f 00 00 80 3f 00 00 80 3f 00 00 80 3f
       1.0 1.0 1.0 1.0
000030 00 00 80 3f 00 00 80 3f 00 00 80 3f 00 00 80 3f
       1.0 1.0 1.0 1.0
000040 00 00 80 3f 00 00 80 3f 00 00 80 3f 00 00 80 3f
       1.0 1.0 1.0 1.0
000050 00 00 80 3f 00 00 80 3f 00 00 80 3f 00 00 80 3f
       1.0 1.0 1.0 1.0
000060 00 00 80 3f 00 00 80 3f 00 00 80 3f 00 00 80 3f
       1.0 1.0 1.0 1.0
000070 00 00 80 3f 00 00 80 3f 00 00 80 3f 00 00 80 3f
       1.0 1.0 1.0 1.0
000080 00 00 80 3f 00 00 80 3f 00 00 80 3f 00 00 80 3f
       1.0 1.0 1.0 1.0
000090 00 00 80 3f 00 00 80 3f 00 00 80 3f 00 00 80 3f
       1.0 1.0 1.0 1.0
0000a0 00 00 80 3f 00 00 80 3f 00 00 80 3f 00 00 80 3f
       1.0 1.0 1.0 1.0
0000b0 00 00 80 3f 00 00 80 3f 00 00 80 3f 00 00 80 3f
       1.0 1.0 1.0 1.0
0000c0 00 00 80 3f 00 00 80 3f 00 00 80 3f 00 00 80 3f
       1.0 1.0 1.0 1.0
0000d0 00 00 80 3f 00 00 80 3f 00 00 80 3f 00 00 80 3f
       1.0 1.0 1.0 1.0
0000e0 00 00 80 3f 00 00 80 3f 00 00 80 3f 00 00 80 3f
       1.0 1.0 1.0 1.0
0000f0 00 00 80 3f 00 00 80 3f 00 00 80 3f 00 00 80 3f
       1.0 1.0 1.0 1.0
000100 00 00 80 3f 00 00 80 3f 00 00 80 3f 00 00 80 3f
       1.0 1.0 1.0 1.0
000110 00 00 80 3f 00 00 80 3f 00 00 80 3f 00 00 80 3f
       1.0 1.0 1.0 1.0
000120 00 00 80 3f 00 00 80 3f 00 00 80 3f 00 00 80 3f
       1.0 1.0 1.0 1.0
000130 00 00 80 3f 00 00 80 3f 00 00 80 3f 00 00 80 3f
       1.0 1.0 1.0 1.0
000140 00 00 80 3f 00 00 80 3f 00 00 80 3f 00 00 80 3f
       1.0 1.0 1.0 1.0
000150 00 00 80 3f 00 00 80 3f 00 00 80 3f 00 00 80 3f
       1.0 1.0 1.0 1.0
000160 00 00 80 3f 00 00 80 3f 00 00 80 3f 00 00 80 3f
       1.0 1.0 1.0 1.0
000170 00 00 80 3f 00 00 80 3f 00 00 80 3f 00 00 80 3f
       1.0 1.0 1.0 1.0
000180 00 00 80 3f 00 00 80 3f 00 00 80 3f 00 00 80 3f
       1.0 1.0 1.0 1.0
000190 00 00 80 3f 00 00 80 3f 00 00 80 3f 00 00 80 3f
       1.0 1.0 1.0 1.0
0001a0 00 00 80 3f 00 00 80 3f 00 00 80 3f 00 00 80 3f
       1.0 1.0 1.0 1.0
0001b0 00 00 80 3f 00 00 80 3f 00 00 80 3f 00 00 80 3f
       1.0 1.0 1.0 1.0
0001c0 00 00 80 3f 00 00 80 3f 00 00 80 3f 00 00 80 3f
       1.0 1.0 1.0 1.0
0001d0 00 00 80 3f 00 00 80 3f 00 00 80 3f 00 00 80 3f
       1.0 1.0 1.0 1.0
0001e0 00 00 80 3f 00 00 80 3f 00 00 80 3f 00 00 80 3f
       1.0 1.0 1.0 1.0
0001f0 00 00 80 3f 00 00 80 3f 00 00 80 3f 00 00 80 3f
       1.0 1.0 1.0 1.0
000200 00 00 80 3f 00 00 80 3f 00 00 80 3f 00 00 80 3f
       1.0 1.0 1.0 1.0
000210 00 00 80 3f 00 00 80 3f 00 00 80 3f 00 00 80 3f
       1.0 1.0 1.0 1.0
000220 00 00 80 3f 00 00 80 3f 00 00 80 3f 00 00 80 3f
       1.0 1.0 1.0 1.0
000230 00 00 80 3f 00 00 80 3f 00 00 80 3f 00 00 80 3f
       1.0 1.0 1.0 1.0
000240 00 00 80 3f 00 00 80 3f 00 00 80 3f 00 00 80 3f
       1.0 1.0 1.0 1.0
000250 00 00 80 3f 00 00 80 3f 00 00 80 3f 00 00 80 3f
       1.0 1.0 1.0 1.0
000260 00 00 80 3f 00 00 80 3f 00 00 80 3f 00 00 80 3f
       1.0 1.0 1.0 1.0
000270 00 00 80 3f 00 00 80 3f 00 00 80 3f 00 00 80 3f
       1.0 1.0 1.0 1.0
000280 00 00 80 3f 00 00 80 3f 00 00 80 3f 00 00 80 3f
       1.0 1.0 1.0 1.0
000290 00 00 80 3f 00 00 80 3f 00 00 80 3f 00 00 80 3f
       1.0 1.0 1.0 1.0
0002a0 00 00 80 3f 00 00 80 3f 00 00 80 3f 00 00 80 3f
       1.0 1.0 1.0 1.0
0002b0 00 00 80 3f 00 00 80 3f 00 00 80 3f 00 00 80 3f
       1.0 1.0 1.0 1.0
0002c0 00 00 80 3f 00 00 80 3f 00 00 80 3f 00 00 80 3f
       1.0 1.0 1.0 1.0
0002d0 00 00 80 3f 00 00 80 3f 00 00 80 3f 00 00 80 3f
       1.0 1.0 1.0 1.0
0002e0 00 00 80 3f 00 00 80 3f 00 00 80 3f 00 00 80 3f
       1.0 1.0 1.0 1.0
0002f0 00 00 80 3f 00 00 80 3f 00 00 80 3f 00 00 80 3f
       1.0 1.0 1.0 1.0
000300 00 00 80 3f 00 00 80 3f 00 00 80 3f 00 00 80 3f
       1.0 1.0 1.0 1.0
000310 00 00 80 3f 00 00 80 3f 00 00 80 3f 00 00 80 3f
       1.0 1.0 1.0 1.0
000320 00 00 80 3f 00 00 80 3f 00 00 80 3f 00 00 80 3f
       1.0 1.0 1.0 1.0
000330 00 00 80 3f 00 00 80 3f 00 00 80 3f 00 00 80 3f
       1.0 1.0 1.0 1.0
000340 00 00 80 3f 00 00 80 3f 00 00 80 3f 00 00 80 3f
       1.0 1.0 1.0 1.0
000350 00 00 80 3f 00 00 80 3f 00 00 80 3f 00 00 80 3f
       1.0 1.0 1.0 1.0
000360 00 00 80 3f 00 00 80 3f 00 00 80 3f 00 00 80 3f
       1.0 1.0 1.0 1.0
000370 00 00 80 3f 00 00 80 3f 00 00 80 3f 00 00 80 3f
       1.0 1.0 1.0 1.0
000380 00 00 80 3f 00 00 80 3f 00 00 80 3f 00 00 80 3f
       1.0 1.0 1.0 1.0
000390 00 00 80 3f 00 00 80 3f 00 00 80 3f 00 00 80 3f
       1.0 1.0 1.0 1.0
0003a0 00 00 80 3f 00 00 80 3f 00 00 80 3f 00 00 80 3f
       1.0 1.0 1.0 1.0
0003b0 00 00 80 3f 00 00 80 3f 00 00 80 3f 00 00 80 3f
       1.0 1.0 1.0 1.0
0003c0 00 00 80 3f 00 00 80 3f 00 00 80 3f 00 00 80 3f
       1.0 1.0 1.0 1.0
0003d0 00 00 80 3f 00 00 80 3f 00 00 80 3f 00 00 80 3f
       1.0 1.0 1.0 1.0
0003e0 00 00 80 3f 00 00 80 3f 00 00 80 3f 00 00 80 3f
       1.0 1.0 1.0 1.0
0003f0 00 00 80 3f 00 00 80 3f 00 00 80 3f 00 00 80 3f
       1.0 1.0 1.0 1.0

weight f4 [4, 50]
000000 30 21 37 bc 84 7a 59 3d 1a c7 5c bd f4 cf 1a 3d
       -0.011177346 0.053095356 -0.053900816 0.037795976
000010 9e f8 79 bd ca 73 f6 3d 70 04 07 be 58 c1 88 3c
       -0.061028115 0.12033804 -0.13185287 0.016693756
000020 69 bf 10 be 60 49 e1 3c da 31 cd bd 0c 9d 4b 3d
       -0.14135517 0.027500808 -0.10019274 0.04971032
000030 dc 16 be 3d 66 a7 e9 3d 60 3d 37 3d b0 bf 3f 3c
       0.09281704 0.11408882 0.044736266 0.011703417
000040 98 89 2f 3d d4 4e a8 bd c4 f2 9c bd 61 56 10 be
       0.04285583 -0.0821816 -0.07663491 -0.14095451
000050 a6 2a 8c bd 51 15 06 3e c4 13 c3 3d 16 b5 3d bd
       -0.06844072 0.13094069 0.09525254 -0.046315275
000060 7c 0a 28 bd f0 1f 6f bd c9 03 0b 3e 30 ef b5 bd
       -0.041025624 -0.058380067 0.13575663 -0.08883512
000070 b0 14 e6 3c 54 90 b5 3d b4 9d 87 bc f4 95 b7 3d
       0.028086036 0.08865419 -0.01655469 0.08964148
000080 10 5b 40 3d 68 31 c8 bc d2 86 f4 3d fc 78 83 3d
       0.046961844 -0.024437621 0.119397774 0.0641956
000090 b8 95 af bd a2 ae c5 3d 08 14 80 3d d8 15 50 3d
       -0.085734785 0.09652449 0.06253821 0.05080208
0000a0 c0 71 d9 bc 37 25 be bd 6a 0e eb 3d d0 e8 54 3c
       -0.026543498 -0.09284442 0.11477359 0.01299496
0000b0 5c 73 43 3d b0 72 0f bd e9 86 aa bd f0 2e 03 bc
       0.047717437 -0.035021484 -0.08326513 -0.008006796
0000c0 18 ba a2 bd 80 f8 29 bb d6 5c 2f bd 82 4c fc 3d
       -0.07945651 -0.002593547 -0.042813145 0.1231928
0000d0 96 56 6c bd bc 91 14 bd 26 6d d3 bd c4 f7 d0 3d
       -0.057699762 -0.036271796 -0.10323553 0.102035075
0000e0 18 ba 81 3c d2 15 54 bd c8 05 8a 3d 4e 96 fe 3d
       0.015835807 -0.051778622 0.06739384 0.12431012
0000f0 65 6c 0c be 10 81 6b bc e0 d9 8d 3b 78 6c a4 3d
       -0.13713224 -0.014374033 0.0043289512 0.08028501
000100 ec 60 d2 3d 00 8f ce ba 82 38 93 3d ce 06 8d bd
       0.10272393 -0.001575917 0.071885124 -0.068860635
000110 52 d6 b4 bd 25 a1 0c be c0 e3 74 3b 44 d3 dd 3d
       -0.08829941 -0.13733347 0.0037367195 0.10831311
000120 6c 60 e1 bd 14 19 74 bd 9c 1c 66 bd da e6 ee 3d
       -0.11004719 -0.05959423 -0.056179628 0.11665125
000130 c0 7d d7 bb 79 d0 0b 3e 88 46 fc bd 38 b7 48 3d
       -0.00657627 0.13653745 -0.1231814 0.049002856
000140 be e7 a6 bd 20 36 d6 3b d2 85 ea 3d ba 17 d3 bd
       -0.0814967 0.006537214 0.114513054 -0.1030726
000150 b0 f8 6b 3d c0 6d 7e bc b0 2a 2a bc 74 96 ed bd
       0.057610214 -0.015529096 -0.010386154 -0.11600962
000160 28 a5 97 3c 16 21 a7 3d 62 c3 bf bd 66 32 bb 3d
       0.01851137 0.081606075 -0.09363438 0.09140472
000170 34 7e 44 bd f4 e1 8d 3d 78 68 3d bd d6 2f df 3d
       -0.04797192 0.06927863 -0.046242207 0.10897796
000180 f4 25 11 3d 18 e1 ea bd 58 2c 45 bd 99 38 b4 bd
       0.035436586 -0.114687145 -0.048137993 -0.08799858
000190 86 94 2f bd 69 13 27 3d 08 90 f0 bc 67 0b 31 3e
       -0.042866252 0.040789995 -0.029365554 0.17289506
0001a0 6c f0 9f bd ed 6a dc 3d 78 22 2f b9 a8 38 22 be
       -0.07809529 0.10762582 -0.00016702141 -0.15841925
0001b0 03 4b 35 3a 20 bc 2c 3e 1d 4c d3 bc d0 4a 80 3d
       0.00069157797 0.16868639 -0.02579313 0.06264269
0001c0 c3 45 1a be 45 d7 25 be 59 b6 51 3d e3 5e 8e 3d
       -0.15065674 -0.161954 0.05119929 0.06951692
0001d0 d7 a2 0d 3e 97 d0 a4 ba 77 e9 39 3d 52 a1 f5 3d
       0.1383165 -0.0012574372 0.045388665 0.1199366
0001e0 0a 88 1a be 06 73 fe 3d 3d e7 95 3a 4b e4 5c bd
       -0.15090957 0.12424283 0.0011436712 -0.053928655
0001f0 1e fc 23 bd cf 75 b3 3c 5a 06 b9 3d 11 9f 7a 3d
       -0.04003536 0.021906761 0.090344146 0.061186854
000200 aa 30 03 3e 34 40 93 bd e4 51 e2 bd 74 a2 00 be
       0.12811533 -0.0718998 -0.11050776 -0.12561971
000210 c0 93 6d 3d 26 cf 16 3e 25 9c 92 3c 15 e0 04 3e
       0.058002234 0.14727458 0.017896721 0.12976106
000220 31 91 10 3d 67 fc 73 bb 4b 9e 38 be d9 98 00 be
       0.035294715 -0.00372293 -0.18029134 -0.12558307
000230 b7 a7 d0 3c b8 23 ba 3d db 95 ad 3d ff 99 dd 3d
       0.025470598 0.09088844 0.08475848 0.10820388
000240 71 11 fb 3d 79 64 4a bd 98 a1 66 bd 30 da b6 bd
       0.12259186 -0.049412224 -0.05630645 -0.08928335
000250 77 5a 53 bd 1a f6 0b bd 17 62 e1 3d 53 ba 18 bd
       -0.051599946 -0.034170248 0.11005037 -0.037287068
000260 37 db b3 3c 42 7d 01 be 78 08 aa bd 86 f8 36 bc
       0.021955116 -0.12645438 -0.083023965 -0.011167651
000270 3e 70 16 bb 57 7f 2f 3b 23 c1 8b 3a 41 a6 a5 bc
       -0.0022955085 0.0026778781 0.0010662418 -0.020220878
000280 d8 d0 71 3d 34 7e b4 bd 78 a5 05 3e fe 4e e4 3d
       0.05903706 -0.08813134 0.13051403 0.11147879
000290 63 e3 82 bb 5c bb 05 bd 02 1c 15 bd f2 e2 83 3d
       -0.0039943918 -0.032649383 -0.036403663 0.06439771
0002a0 60 38 b8 bc 38 c5 29 bc 39 cc e8 3c 77 9f dc bd
       -0.02248782 -0.010361962 0.028417693 -0.10772603
0002b0 3c fc d3 3a ae dc a8 3d 94 7b 5b 3c b7 4c 06 bc
       0.0016173194 0.08245216 0.013396163 -0.008197001
0002c0 66 1e 2c 3c c1 ec c3 bd b0 ce fc bc 2d dd f3 3d
       0.010505294 -0.095666416 -0.030860275 0.1190742
0002d0 2f c6 18 3e 17 8a 98 3d 18 cb 23 be d9 f6 83 bd
       0.14919351 0.074482135 -0.15995443 -0.06443567
0002e0 1b 9e 11 bc 77 51 56 bb f1 78 d5 bc 2f b0 92 3b
       -0.008887793 -0.0032702365 -0.026058646 0.004476569
0002f0 ac 3f 91 bd f7 31 27 3b 9d a9 73 bc 0c d8 8b bd
       -0.070922226 0.002551196 -0.014871982 -0.06828317
000300 78 11 22 bc 13 c9 7d bd 4e 98 8c bd e6 45 32 3d
       -0.00989186 -0.061959337 -0.06864987 0.04352369
000310 6b a6 dc 3d 77 18 05 b8 ce bd 81 3d 12 45 a7 3d
       0.10773929 -3.1732456e-05 0.063350305 0.08167471

bias f4 [4]
000000 3b 7a 1a 3d 2b e9 6e 3e b1 54 6c bd ed 44 de bd
       0.037714224 0.23331134 -0.057697956 -0.1085299

mask f4 [4, 50]
000000 00 00 00 00 00 00 00 00 00 00 00 00 00 00 00 00
       0.0 0.0 0.0 0.0
000010 00 00 00 00 00 00 00 00 00 00 00 00 00 00 00 00
       0.0 0.0 0.0 0.0
000020 00 00 00 00 00 00 00 00 00 00 00 00 00 00 00 00
       0.0 0.0 0.0 0.0
000030 00 00 00 00 00 00 00 00 00 00 00 00 00 00 00 00
       0.0 0.0 0.0 0.0
000040 00 00 00 00 00 00 00 00 00 00 00 00 00 00 00 00
       0.0 0.0 0.0 0.0
000050 00 00 00 00 00 00 00 00 00 00 00 00 00 00 00 00
       0.0 0.0 0.0 0.0
000060 00 00 00 00 00 00 00 00 00 00 00 00 00 00 00 00
       0.0 0.0 0.0 0.0
000070 00 00 00 00 00 00 00 00 00 00 00 00 00 00 00 00
       0.0 0.0 0.0 0.0
000080 00 00 00 00 00 00 00 00 00 00 00 00 00 00 00 00
       0.0 0.0 0.0 0.0
000090 00 00 00 00 00 00 00 00 00 00 00 00 00 00 00 00
       0.0 0.0 0.0 0.0
0000a0 00 00 00 00 00 00 00 00 00 00 00 00 00 00 00 00
       0.0 0.0 0.0 0.0
0000b0 00 00 00 00 00 00 00 00 00 00 00 00 00 00 00 00
       0.0 0.0 0.0 0.0
0000c0 00 00 00 00 00 00 00 00 00 00 00 00 00 00 00 00
       0.0 0.0 0.0 0.0
0000d0 00 00 00 00 00 00 00 00 00 00 00 00 00 00 00 00
       0.0 0.0 0.0 0.0
0000e0 00 00 00 00 00 00 00 00 00 00 00 00 00 00 00 00
       0.0 0.0 0.0 0.0
0000f0 00 00 00 00 00 00 00 00 00 00 00 00 00 00 00 00
       0.0 0.0 0.0 0.0
000100 00 00 00 00 00 00 00 00 00 00 00 00 00 00 00 00
       0.0 0.0 0.0 0.0
000110 00 00 00 00 00 00 00 00 00 00 00 00 00 00 00 00
       0.0 0.0 0.0 0.0
000120 00 00 00 00 00 00 00 00 00 00 00 00 00 00 00 00
       0.0 0.0 0.0 0.0
000130 00 00 00 00 00 00 00 00 00 00 00 00 00 00 00 00
       0.0 0.0 0.0 0.0
000140 00 00 00 00 00 00 00 00 00 00 00 00 00 00 00 00
       0.0 0.0 0.0 0.0
000150 00 00 00 00 00 00 00 00 00 00 00 00 00 00 00 00
       0.0 0.0 0.0 0.0
000160 00 00 00 00 00 00 00 00 00 00 00 00 00 00 00 00
       0.0 0.0 0.0 0.0
000170 00 00 00 00 00 00 00 00 00 00 00 00 00 00 00 00
       0.0 0.0 0.0 0.0
000180 00 00 00 00 00 00 00 00 00 00 00 00 00 00 00 00
       0.0 0.0 0.0 0.0
000190 00 00 80 3f 00 00 80 3f 00 00 80 3f 00 00 80 3f
       1.0 1.0 1.0 1.0
0001a0 00 00 80 3f 00 00 80 3f 00 00 80 3f 00 00 80 3f
       1.0 1.0 1.0 1.0
0001b0 00 00 80 3f 00 00 80 3f 00 00 80 3f 00 00 80 3f
       1.0 1.0 1.0 1.0
0001c0 00 00 80 3f 00 00 80 3f 00 00 80 3f 00 00 80 3f
       1.0 1.0 1.0 1.0
0001d0 00 00 80 3f 00 00 80 3f 00 00 80 3f 00 00 80 3f
       1.0 1.0 1.0 1.0
0001e0 00 00 80 3f 00 00 80 3f 00 00 80 3f 00 00 80 3f
       1.0 1.0 1.0 1.0
0001f0 00 00 80 3f 00 00 80 3f 00 00 80 3f 00 00 80 3f
       1.0 1.0 1.0 1.0
000200 00 00 80 3f 00 00 80 3f 00 00 80 3f 00 00 80 3f
       1.0 1.0 1.0 1.0
000210 00 00 80 3f 00 00 80 3f 00 00 80 3f 00 00 80 3f
       1.0 1.0 1.0 1.0
000220 00 00 80 3f 00 00 80 3f 00 00 80 3f 00 00 80 3f
       1.0 1.0 1.0 1.0
000230 00 00 80 3f 00 00 80 3f 00 00 80 3f 00 00 80 3f
       1.0 1.0 1.0 1.0
000240 00 00 80 3f 00 00 80 3f 00 00 80 3f 00 00 80 3f
       1.0 1.0 1.0 1.0
000250 00 00 80 3f 00 00 80 3f 00 00 80 3f 00 00 80 3f
       1.0 1.0 1.0 1.0
000260 00 00 80 3f 00 00 80 3f 00 00 80 3f 00 00 80 3f
       1.0 1.0 1.0 1.0
000270 00 00 80 3f 00 00 80 3f 00 00 80 3f 00 00 80 3f
       1.0 1.0 1.0 1.0
000280 00 00 80 3f 00 00 80 3f 00 00 80 3f 00 00 80 3f
       1.0 1.0 1.0 1.0
000290 00 00 80 3f 00 00 80 3f 00 00 80 3f 00 00 80 3f
       1.0 1.0 1.0 1.0
0002a0 00 00 80 3f 00 00 80 3f 00 00 80 3f 00 00 80 3f
       1.0 1.0 1.0 1.0
0002b0 00 00 80 3f 00 00 80 3f 00 00 80 3f 00 00 80 3f
       1.0 1.0 1.0 1.0
0002c0 00 00 80 3f 00 00 80 3f 00 00 80 3f 00 00 80 3f
       1.0 1.0 1.0 1.0
0002d0 00 00 80 3f 00 00 80 3f 00 00 80 3f 00 00 80 3f
       1.0 1.0 1.0 1.0
0002e0 00 00 80 3f 00 00 80 3f 00 00 80 3f 00 00 80 3f
       1.0 1.0 1.0 1.0
0002f0 00 00 80 3f 00 00 80 3f 00 00 80 3f 00 00 80 3f
       1.0 1.0 1.0 1.0
000300 00 00 80 3f 00 00 80 3f 00 00 80 3f 00 00 80 3f
       1.0 1.0 1.0 1.0
000310 00 00 80 3f 00 00 80 3f 00 00 80 3f 00 00 80 3f
       1.0 1.0 1.0 1.0

weight f4 [50, 2]
000000 36 5b 1f 3f a2 3e 55 be 85 51 62 3e 62 3a 86 be
       0.6224855 -0.20824674 0.2210141 -0.26216418
000010 35 d2 d5 3e 98 89 f5 3d fc 7c 68 3d c0 cc 59 bc
       0.41761938 0.119891346 0.05675982 -0.013293445
000020 2d 69 32 3f ea 3e 98 3e eb fe a8 3e a7 15 22 3f
       0.69691736 0.297355 0.33006987 0.6331429
000030 cb ab b3 3d e4 8a 6e be dd ab 7c be 42 20 9f 3e
       0.08773001 -0.2329517 -0.24674936 0.31079298
000040 a3 77 63 bf 4b 66 da be 3b 68 bc 3e 8c 31 8e be
       -0.88854426 -0.42656168 0.36798272 -0.27772176
000050 e0 6e 44 3e 68 a2 8a 3d c1 84 55 3f 68 1b 7b be
       0.1918292 0.06769258 0.8340569 -0.24522173
000060 72 6e ed 3e b0 b5 80 bd 71 af 2b be 40 c5 e8 3d
       0.46373326 -0.06284654 -0.16766144 0.113657475
000070 db 39 3c bf 00 3e 40 bc b5 c2 d7 bd 20 ef 69 be
       -0.7352578 -0.011733532 -0.10535184 -0.22845125
000080 d8 e2 4e 3f 88 1f 43 3e b8 b6 4a 3f b0 ad 41 3d
       0.80814886 0.19054997 0.79185057 0.047284782
000090 ae f4 5a 3e 2a 73 7e be 84 24 42 bf 78 1f 84 bd
       0.213824 -0.24848619 -0.7583697 -0.06451315
0000a0 bb d9 03 3f d2 bb c8 3e 32 a1 0d 3f b4 b6 27 be
       0.51504105 0.39205796 0.5532409 -0.1637829
0000b0 4b 49 d6 3d cc c2 37 3e f6 63 33 3e 88 73 db bd
       0.10463198 0.17945403 0.17518601 -0.10715395
0000c0 08 4f eb 3e aa c7 f7 3e 24 5a 4b bf a7 3e b6 be
       0.45958734 0.4839452 -0.7943442 -0.35594675
0000d0 3e c3 98 3c 6e bc 96 be 59 f4 34 bf 04 e8 1c be
       0.018647786 -0.29440635 -0.70685345 -0.15322882
0000e0 79 bd 2b 3d 94 a7 48 3e 2c 79 e3 3d 00 f1 82 bb
       0.041928742 0.19595176 0.11107096 -0.0039960146
0000f0 3d 4f a8 be a2 87 ee be 69 91 73 bd d8 02 09 be
       -0.32872954 -0.46587855 -0.059464846 -0.13379991
000100 11 3a 24 3f 38 dd b7 3d a6 00 bf 3d 8f d6 cb be
       0.641511 0.08977741 0.093262956 -0.39812133
000110 1d 14 89 bd 80 fd 31 bd b1 30 b0 be 48 53 2c bf
       -0.066932894 -0.043454647 -0.3441215 -0.6731458
000120 06 fc 1f bd 32 1d a5 3e 4a 11 0d bd ac 2e 0a be
       -0.039058708 0.32248837 -0.034440316 -0.13494366
000130 cb c4 ec 3d 27 82 d4 be 3a 6e 01 bf fc 20 d8 be
       0.11560973 -0.41505548 -0.5055882 -0.42212665
000140 be e2 4c be 42 99 03 bf 24 52 52 be 80 cc 46 3c
       -0.2000837 -0.5140573 -0.20539147 0.012133718
000150 dd 61 c0 3e 9b 70 8d be 75 f3 d1 3e 26 58 bc 3e
       0.37574664 -0.27624974 0.41006055 0.36786002
000160 75 ef 1f 3f 70 9b a3 3d f4 b1 a6 be 35 ca 21 3f
       0.6247476 0.07988632 -0.32557642 0.6319917
000170 68 a6 0d bf 23 fd 2c 3f 7e 92 40 bf b7 04 07 bf
       -0.5533204 0.67573756 -0.7522353 -0.5274157
000180 2e 64 62 3f 2c 07 4d be a6 cd 16 3f ff 4d 9b be
       0.8843411 -0.20022267 0.58907545 -0.30332944
