04a/Results_O4a_MultiSeed_Final/Models_Seed_42_20260210/model_trad_seed_42.pth (torch, 276498 bytes, 76 tensors)

_shift f4 [2]
00000000: 8e55 2740 d10f dfbf
2.6145968 -1.7426702

_scale f4 [2]
00000000: 9f38 323e 89a4 5e40
0.17404412 3.4787924

weight f4 [50, 2]
00000000: fd80 04bf 559c 093f 97a6 c6be d69a f53e
00000010: db8a a53e f381 13bf 1cce dabe 48a0 febe
00000020: 402b 0d3f 9485 05be d123 343f 00cc eabc
00000030: a976 0f3e bad3 b33e 9c5e c43d b27c f2be
00000040: 1de5 b03e 508c 41bd 5900 0cbf 1e51 e83e
00000050: 94b1 3dbe a154 2a3f 6f64 433f a4b1 bfbe
00000060: 8688 99be 284e 10bf 0f4c c2be cef1 fa3e
00000070: 74e0 a0be a059 adbe 8928 1a3f 7236 f43e
00000080: 5dc4 243f f4db 42be f5ac c13d 58d9 19bf
00000090: 142c 01bf b098 17be bb4f 8f3e 4ddf b7be
000000a0: 40b9 62be 6042 58bd 3ed3 14bf 7a30 34bf
000000b0: 83e8 b8bd 47c2 32bf e6d3 483f b0bb 1d3d
000000c0: 7a14 d83e 32f3 863e 3acf 23bf b047 75bd
000000d0: e20f 03bf e0ed 953d 6976 123d 49bb 93be
000000e0: c8fd 4d3e 505f 8abd ab5e 1d3e f31b 11bf
000000f0: 7a21 8e3d b5fc 1dbf 827c b7be 391e 9dbe
00000100: dfb9 fa3e a811 8d3d 65bb 803e 678a 0b3f
00000110: 431d 9b3c e233 21bf b241 82bd 0ed6 5abe
00000120: c76a 283f c010 c2bc ba25 333c 8628 ab3e
00000130: 0c3d ecbe 4aea a43e 12b8 523d e290 c73e
00000140: 13f1 b5be f4e7 143e 1632 12be 601b b83c
00000150: 5df9 c53e 4e74 59be 35ba 423f 8040 8d3c
00000160: bfe8 49b8 7632 db3e 9118 c1be 5009 1b3e
00000170: d086 eebe 280e dfbd 9140 2ebf 7caa 02bf
00000180: b670 debe 20d1 45be 4731 803e db65 133f
-0.5175932 0.5375417 -0.38798973 0.47969693 0.323325 -0.5762016 -0.42735374 -0.4973166
0.5514412 -0.13039237 0.7036715 -0.028661728 0.14010109 0.35122472 0.09588358 -0.4736076
0.345498 -0.047252953 -0.5468803 0.45374388 -0.18524772 0.66535383 0.76325125 -0.37440217
-0.29986972 -0.56369257 -0.37948653 0.49012607 -0.31421244 -0.3385744 0.602181 0.47697788
0.64362127 -0.19029218 0.09456817 -0.60097265 -0.5045788 -0.1480434 0.27990517 -0.35912552
-0.2214098 -0.052797675 -0.5813483 -0.7038647 -0.09028723 -0.69827694 0.7844833 0.03850907
0.42203122 0.26357418 -0.6398808 -0.05988282 -0.5119611 0.07320762 0.035757456 -0.28853825
0.20116341 -0.06756461 0.15368144 -0.5668327 0.06939979 -0.61713725 -0.3583718 -0.3068712
0.48969933 0.06888133 0.2514297 0.5450806 0.018934852 -0.6296979 -0.06360187 -0.21370718
0.6578793 -0.023689628 0.010934288 0.33429354 -0.46140325 0.32209998 0.051445074 0.38977724
-0.35535488 0.14541608 -0.14276919 0.02247399 0.38666812 -0.21235773 0.7606538 0.01724267
-4.8138896e-05 0.42811936 -0.37714055 0.15140271 -0.4658723 -0.10891372 -0.6806727 -0.5104139
-0.43445367 -0.19318056 0.25037596 0.57577294

bias f4 [50]
00000000: 180f 863e 2e60 85bd 4aaf 21bf fd5f 08be
00000010: 3289 a6be d0bc 88be cf5b a6be a87b 8f3e
00000020: cfc9 a6be 9671 acbe f2d9 41be 3e41 0a3f
00000030: 2a11 0cbf 6c7c 26bf c416 1cbf b3de 603e
00000040: 2616 223f ce9f 363e 99d8 2e3f 6211 22be
00000050: a4ec 923e 33c8 20bf ec3d 0bbf 41ab edbe
00000060: 9c80 0cbf a110 1ebf abc5 84bd 6fbc 273f
00000070: b76b 2f3f 93d2 9ebe 006e 38bf 0a67 2e3f
00000080: e4d6 3c3f c449 20bf aaf6 bd3e 8a2b 18bf
00000090: 8cdd b83e 48ee 343d b96d 51be 6497 c4be
000000a0: 297a c1be 210c afbe b4a7 c93e 5a02 7e3e
000000b0: 5a4b 1fbf 9849 763e 8e01 253f 4ccf d63e
000000c0: 9302 26bf a9f9 40bc
0.2618339 -0.065124854 -0.63158095 -0.13317867 -0.32526547 -0.26706553 -0.3249192 0.2802403
-0.32575843 -0.3368041 -0.18930796 0.540058 -0.5471369 -0.650336 -0.6097224 0.21959953
0.63315046 0.17834398 0.6829925 -0.15826944 0.28696167 -0.6280548 -0.5439136 -0.4641972
-0.5488374 -0.61744124 -0.06483015 0.655219 0.68523735 -0.3102003 -0.72042847 0.68125975
0.737654 -0.6261256 0.37102252 -0.59441435 0.36106527 0.044172555 -0.20452012 -0.38396752
-0.37788513 -0.3418894 0.3938576 0.24805585 -0.6222435 0.24051511 0.644555 0.4195503
-0.6484768 -0.011778274

mask f4 [50, 2]
00000000: 0000 803f 0000 0000 0000 803f 0000 0000
00000010: 0000 803f 0000 0000 0000 803f 0000 0000
00000020: 0000 803f 0000 0000 0000 803f 0000 0000
00000030: 0000 803f 0000 0000 0000 803f 0000 0000
00000040: 0000 803f 0000 0000 0000 803f 0000 0000
00000050: 0000 803f 0000 0000 0000 803f 0000 0000
00000060: 0000 803f 0000 0000 0000 803f 0000 0000
00000070: 0000 803f 0000 0000 0000 803f 0000 0000
00000080: 0000 803f 0000 0000 0000 803f 0000 0000
00000090: 0000 803f 0000 0000 0000 803f 0000 0000
000000a0: 0000 803f 0000 0000 0000 803f 0000 0000
000000b0: 0000 803f 0000 0000 0000 803f 0000 0000
000000c0: 0000 803f 0000 0000 0000 803f 0000 0000
000000d0: 0000 803f 0000 0000 0000 803f 0000 0000
000000e0: 0000 803f 0000 0000 0000 803f 0000 0000
000000f0: 0000 803f 0000 0000 0000 803f 0000 0000
00000100: 0000 803f 0000 0000 0000 803f 0000 0000
00000110: 0000 803f 0000 0000 0000 803f 0000 0000
00000120: 0000 803f 0000 0000 0000 803f 0000 0000
00000130: 0000 803f 0000 0000 0000 803f 0000 0000
00000140: 0000 803f 0000 0000 0000 803f 0000 0000
00000150: 0000 803f 0000 0000 0000 803f 0000 0000
00000160: 0000 803f 0000 0000 0000 803f 0000 0000
00000170: 0000 803f 0000 0000 0000 803f 0000 0000
00000180: 0000 803f 0000 0000 0000 803f 0000 0000
1.0 0.0 1.0 0.0 1.0 0.0 1.0 0.0
1.0 0.0 1.0 0.0 1.0 0.0 1.0 0.0
1.0 0.0 1.0 0.0 1.0 0.0 1.0 0.0
1.0 0.0 1.0 0.0 1.0 0.0 1.0 0.0
1.0 0.0 1.0 0.0 1.0 0.0 1.0 0.0
1.0 0.0 1.0 0.0 1.0 0.0 1.0 0.0
1.0 0.0 1.0 0.0 1.0 0.0 1.0 0.0
1.0 0.0 1.0 0.0 1.0 0.0 1.0 0.0
1.0 0.0 1.0 0.0 1.0 0.0 1.0 0.0
1.0 0.0 1.0 0.0 1.0 0.0 1.0 0.0
1.0 0.0 1.0 0.0 1.0 0.0 1.0 0.0
1.0 0.0 1.0 0.0 1.0 0.0 1.0 0.0
1.0 0.0 1.0 0.0

weight f4 [50, 2]
00000000: addb 2b3e 1352 3ebe 0e7e 20bc 3ead 3c3e
00000010: a6b1 103f cf29 a63c 8cda 90bc b304 113f
00000020: a1bb 2e3f 847e 113f 53e0 c23e 76ab 2dbe
00000030: 87ee 8d3e e138 6ebe 6802 cdbe f2b5 0e3f
00000040: a965 2a3f f46c 8a3e b35b 8cbe 0dc8 2fbf
00000050: c81d e13e 2a96 0b3f e0ea adbe c179 81be
00000060: a7f0 2e3f 651b 2cbf a7f5 0f3e f804 fd3e
00000070: f221 543e 22d8 59bc b450 82be 84f3 0e3f
00000080: 1978 0d3f b4f6 1cbf bdd5 d1be e27a 04bf
00000090: d009 bbbe 903c 1bbf 2a2c a63e 275a f63e
000000a0: 644d 28be 6f3a b63c e471 9dbe 7a3a 983e
000000b0: e735 6a3d d524 ebbe b318 f7be 27ae 953e
000000c0: 7644 b9be b3a8 d53e 7780 83bc d850 8ebe
000000d0: 4081 e0be e6c8 e2bd 6660 0ebf d48f de3d
000000e0: 6c3f adbe f9cb 1f3e 17b3 0d3e b039 203f
000000f0: 5eba eebe 7103 1abf 4b62 283f c606 693e
00000100: f54e 803e 1e2c b4be 8241 953d d751 e53e
00000110: f04f 093d 32e6 4b3e aba3 57bc 61cb 35be
00000120: c3ce 39bf ced9 823e d506 1a3e cba4 683e
00000130: 750e 8fbe 5fa0 afbe cd64 643e b18a 2a3f
00000140: 799f 1a3f c757 d8be b5e3 953e 7225 b13e
00000150: be0c c23e 0a96 22bf 4921 22bf 5bbe f0bd
00000160: 34cb 9abe a19c c43d 9fd9 f13d 27b8 1a3f
00000170: 547f 9dbd e7b6 0bbf 9079 883e ced1 b6be
00000180: 15d4 93be 229a 173f 60ae 153e caa2 773e
0.16783018 -0.18585996 -0.009795679 0.18425462 0.5652107 0.020283608 -0.017682336 0.56647795
0.6825505 0.5683367 0.3806177 -0.16959938 0.27721044 -0.23263885 -0.40040898 0.55746377
0.6656137 0.2703625 -0.2741371 -0.6866463 0.43968034 0.5452601 -0.33968258 -0.25288203
0.68335956 -0.672293 0.14058553 0.49417853 0.20716074 -0.013296159 -0.25452197 0.55840325
0.5526138 -0.6131394 -0.40983382 -0.51750004 -0.36530924 -0.60639286 0.3245557 0.48115656
-0.16435772 0.02224466 -0.30750954 0.29732114 0.05718031 -0.45926538 -0.48261032 0.2923443
-0.36185044 0.4173027 -0.016052468 -0.27796054 -0.4384861 -0.110734746 -0.5561584 0.10867277
-0.3383745 0.15605153 0.13837849 0.62588024 -0.46626562 -0.601615 0.65774983 0.2275649
0.2506024 -0.3518991 0.07287885 0.44789 0.0335235 0.19912031 -0.01316158 -0.17753364
-0.7258112 0.25556797 0.15041669 0.22719114 -0.27940717 -0.3430204 0.22304077 0.66617876
0.60399586 -0.4225447 0.2927529 0.3459888 0.37900347 -0.6351019 -0.6333204 -0.117550574
-0.30233157 0.09600187 0.11809086 0.60437244 -0.076903015 -0.5457596 0.26655245 -0.35706943
-0.28872743 0.59219563 0.146173 0.24183193

bias f4 [50]
00000000: 8a82 0ebf ce86 14bf 380d 41be f26f 23bf
00000010: 5697 233e 7144 4cbf 4522 d03e 0b59 74bc
00000020: 7c0e fdbe 9bd8 fabe ebeb 1cbe 79e5 253f
00000030: ad00 353e aa5d 533e 331b 5d3e 3d42 49bf
00000040: 6dd1 303f ad9a e5be 37a5 d1be 03b8 123f
00000050: 420b b4be d0d6 8c3c a8d6 73be 5832 d5be
00000060: 8fbd 233e f451 8ebe cb87 253e 87a5 1a3f
00000070: a7b6 0d3f 631e 2e3e 3abf b63d 265b 06be
00000080: 1796 22be df60 19be cd18 cdbe 67d8 e6be
00000090: b32d 363c 3c3c c03d d03f 28bf 8b08 1fbf
000000a0: eb8d f3be 32c1 933e f048 1cbf 8ea0 243f
000000b0: 2b4a 903c dbd5 8e3e 5ee0 dbbe c793 ac3e
000000c0: 58a0 203e ebe4 f1be
-0.55667937 -0.58018196 -0.18852699 -0.6384269 0.15975699 -0.79791933 0.40651146 -0.014913808
-0.49425113 -0.48993382 -0.1532437 0.6480327 0.17676039 0.20641199 0.21592407 -0.78616697
0.6906956 -0.4484457 -0.4094636 0.5731203 -0.3516484 0.017192274 -0.23812354 -0.41639972
0.1599028 -0.277969 0.16165082 0.60408825 0.5535683 0.17003779 0.08923192 -0.13120708
-0.15877567 -0.1497836 -0.40057984 -0.45086977 0.011119294 0.09386489 -0.6572237 -0.6212241
-0.47569212 0.28858334 -0.61048794 0.64307487 0.017613491 0.27897534 -0.42944616 0.33706495
0.15686166 -0.47244963

weight f4 [50, 50]
00000000: 08b7 85bc 5680 113e 860a b2bd 034f 8d3d
00000010: 2abc 7a3c 2830 abbd 4947 e0bb 9254 fcbd
00000020: ddb2 28bc 189a 033d 8b79 abbd e876 be3d
00000030: 14c4 d53c e76d e3bd 67b9 fb3d 98f0 48be
00000040: 5741 ef3d ba22 c3bd 5de6 34bd ca15 dcbd
00000050: f496 863d 1f06 a5bd 34a4 fd3d d3c5 4dbe
00000060: 20c8 893b ea35 ecbd 665c c63d e9b7 babb
00000070: 402f e8bd 276d 08bc c6a2 d73d e224 253e
00000080: 7051 683d b047 1fbe e3a3 a33d 3104 cf3c
00000090: 0ea8 733d 795b 2fbd d22b 583c 0ab1 6b3d
000000a0: 64f1 71bc 22d7 a5bd a2e1 95bd 3fc4 1cbc
000000b0: b75c a43d 948d 37bd 423e 1c3d ccbc 223e
000000c0: 2eca c23d e137 12be bdaa 84bc 6a93 5a3d
000000d0: 342e f4bd c72f b33d ff0e 173d 37bc 65bc
000000e0: afb3 d93d fb9b fabd 5f52 17be 7876 5b3d
000000f0: 0916 0f3d a1f4 93bd 6753 dd3d 9cb5 f3bd
00000100: 739c 8ebd fad9 37bd a35e 073e 994c 8a3d
00000110: f175 c2bd 9b6d 393d a27b 05bd ac9c debd
00000120: 532a c8bd d4fe cdba c2d3 023e b73c 9d3d
00000130: 1999 fb3d 0ac2 69bd dbe6 3ebc bb17 4e3d
00000140: b836 e43d 3ce4 0f3e e08d 893c 5ce2 cf3d
00000150: 950e 8b3d 4b7a 0d3e 8114 68bc 27d1 e13d
00000160: b04a fbbc 984b 883c e027 fb3c 4700 d3bd
00000170: 3fec 82bd a1b5 fe3b f2bb bdbc 1311 d73b
00000180: 3d97 903d 6177 173e a9fd ba3d 6dd6 bebd
00000190: 1334 dfbd 4223 19be 429b d63c 3c40 503d
000001a0: ac80 89bd 6484 ed3d 0aaf 683d c482 e4bd
000001b0: 2f10 c9bd 2841 40bb 8f53 d03d 2f14 1a3e
000001c0: 7f01 de3c c48e 713a 4803 01be 0d6c 09be
000001d0: bdae f53b d84f a43d 6c2b 8d3d c12f e13d
000001e0: 8b84 9f3c c802 723c 624a ad3d 9225 91bc
000001f0: 09a7 11be 511c e5bc 38a0 16bd a338 123e
00000200: 24d8 b9bd 51cb b1bd 3b3a fb3c 0d26 863d
00000210: 5f84 013e 85c7 bc3d c020 5a3d 9f1b fd3b
00000220: abab 063e 2f67 7bbd ff4e 89bd 6c6c 973b
00000230: 5ed6 8cbc 7a8e 1abd 9c48 8abd 6281 023a
00000240: c505 68bd a242 4c3d 598c babd 80f1 10bd
00000250: e756 583d 2e67 b23d 8822 10be 69c0 03be
00000260: 2c35 85bd 6ee2 a23d ae2f abbd d8db ce3d
00000270: e06b 87bd b979 123e 32f2 103e f180 bebd
00000280: 2379 073d 980c 903d 4661 c8bd e5d0 5ebd
00000290: e73c a83d 050c e93d e935 f83d 94b4 c43d
000002a0: 8669 ee3c d4bd 68bd d32b 0cbd 9871 a8bd
000002b0: f3ed 17be 22e3 0c3d 6964 073e 3808 ef3c
000002c0: 24e9 203d 238b b3bd 667b 19bd 42fb 883d
000002d0: 4253 b03c 0c73 0f3d 3c1c 223c b606 e9bd
000002e0: 5e0f 31bd cabd f3bd 4ea4 fe3b 2eeb 7cbd
000002f0: 67cb 7abd fba5 2bbd b909 003d 9703 dfbd
00000300: a72b 1b3e cf15 90bd 369d b2bd a370 653d
00000310: eed9 abbc c362 623d 2f42 cfbc 44bd 3abd
00000320: 329c 84bc c168 223d 7e03 72ba 8db7 fabd
00000330: fcc3 3fbd e52a bd3d 6a37 02bd 2174 e1bd
00000340: f0da 313d 4cf6 25be 2f70 cabc 1f4f cebc
00000350: 505e a7bd c3a8 e2bc 5174 753c 4408 d6bc
00000360: 3b4e a0bd 67d2 5ebd 5d81 00be 129f 5bbc
00000370: cc07 0cbe ea0c 6fbd a528 96bc 6245 8dbd
00000380: 7024 dbbd 1381 713c d6cb 843d fe74 92bd
00000390: e5ef 37bc 2ea8 90bd 2770 f43d 1283 bcbc
000003a0: 40bb 81bd d59a 5fbd 9327 c6bd e12e 1c3e
000003b0: d8cc c8bc 1d9a e3bd f972 30be cda5 8cbd
000003c0: 1d8b 7f3d 20e2 2abe a0ed 38bd c644 a1bc
000003d0: 1f33 64bd f0bc 43bd 1e78 463d 6fc3 833d
000003e0: d48b a83d 4504 94bd 917e d8bc 44ff c53d
000003f0: 0fd0 b63b 9aba 9c3d ce4e 603d fcf5 7f3d
-0.016322628 0.14209113 -0.086934134 0.06899836 0.015303651 -0.083587945 -0.0068444354 -0.12320818
-0.010296551 0.032129377 -0.08372792 0.09300023 0.026094474 -0.111049466 0.12291222 -0.19623029
0.116823845 -0.09528108 -0.044165004 -0.107463434 0.06571761 -0.08057808 0.12384835 -0.20094995
0.004204765 -0.11533721 0.09685592 -0.0056981933 -0.11337137 -0.008326805 0.105290934 0.16127351
0.05671829 -0.1555469 0.07990243 0.025270553 0.05948644 -0.042811844 0.013194041 0.057541884
-0.014767025 -0.08097674 -0.07318427 -0.009568273 0.080254965 -0.044812754 0.03814531 0.15892333
0.09511219 -0.14279129 -0.016194696 0.05336324 -0.11922875 0.08749347 0.036879536 -0.014021925
0.10629975 -0.12236782 -0.14777516 0.053579777 0.034933124 -0.07224394 0.10806923 -0.118998736
-0.06963434 -0.044885613 0.13219695 0.06752891 -0.09495152 0.045270544 -0.03258861 -0.108697265
-0.09773698 -0.0015716203 0.12776092 0.07677596 0.122850604 -0.057069816 -0.01165172 0.0503156
0.11143249 0.14051908 0.016791284 0.101505965 0.06789891 0.13816182 -0.014165045 0.11026221
-0.030675262 0.016637608 0.030658662 -0.10302787 -0.063927166 0.0077731167 -0.023160908 0.0065633147
0.070600964 0.14791633 0.09130413 -0.09318242 -0.10898604 -0.14954856 0.02619708 0.05084251
-0.06713995 0.11597517 0.056807555 -0.11157754 -0.0981754 -0.002933571 0.101721875 0.15046762
0.027100323 0.0009214694 -0.12598908 -0.13420124 0.007497637 0.080230415 0.06893048 0.109954365
0.019472381 0.014771171 0.08461453 -0.01771811 -0.14223875 -0.027967604 -0.03677389 0.14279418
-0.09074429 -0.08681358 0.030667415 0.06550226 0.12648152 0.09217743 0.05325389 0.00772424
0.13151424 -0.0613777 -0.067045204 0.004621079 -0.017192062 -0.037733532 -0.067521304 0.0004978386
-0.056646127 0.049868234 -0.091088004 -0.035386562 0.05281725 0.08711086 -0.14075673 -0.12866367
-0.06504282 0.07953344 -0.083587036 0.101005256 -0.066123724 0.14304246 0.1415489 -0.09301937
0.03307451 0.07033652 -0.097841784 -0.054398436 0.08214741 0.11379246 0.121196575 0.09604755
0.029103052 -0.05682166 -0.03422148 -0.08224791 -0.14836864 0.0343963 0.13221897 0.029178724
0.03928484 -0.087667726 -0.037471198 0.066885486 0.021524075 0.035021827 0.009894427 -0.11378233
-0.043227546 -0.11901434 0.0077710515 -0.061747722 -0.061229136 -0.04190634 0.031259272 -0.108893566
0.15153371 -0.0703541 -0.08721392 0.056015622 -0.02097794 0.055269968 -0.025300113 -0.045590654
-0.016187761 0.039650682 -0.0009232088 -0.12242041 -0.046817765 0.09236697 -0.03179113 -0.11008478
0.043421686 -0.16207236 -0.024711696 -0.025184212 -0.081722856 -0.027668362 0.014981345 -0.026126988
-0.07827421 -0.054399874 -0.12549348 -0.013404625 -0.1367485 -0.058361925 -0.018329928 -0.06897999
-0.10700309 0.014740246 0.06484191 -0.07151221 -0.011226629 -0.07063328 0.11935454 -0.023011718
-0.06334543 -0.05459102 -0.09675517 0.15252258 -0.02451174 -0.11113379 -0.17231359 -0.068675615
0.06238853 -0.16687822 -0.04514849 -0.019686114 -0.055712815 -0.047787607 0.048454396 0.064337604
0.08229795 -0.07227377 -0.026427539 0.09667829 0.0055790017 0.07652779 0.054762654 0.06249045

bias f4 [50]
00000000: 169a ebbd 9fe2 e9bd 4390 953c 4ad4 103e
00000010: 6e07 9dbc 06c1 ce3d 7675 b43d 8d3a d33d
00000020: d2a9 62bb 707c 33bd 2131 133d 7ed8 c7bd
00000030: d714 a4bd 21c7 bf3d 911a 933d f360 a5bd
00000040: 7752 e9bd 69df 52bd 5934 c63d bc8b bbbd
00000050: 5e26 ccbd e1d7 ed3d 1da6 963d 28a4 13be
00000060: 257d 1dbd c877 faba ca27 02be 6760 a23d
00000070: fcdd 923d 105a d1bd 71c0 11be 918a 81bd
00000080: 3c99 173e c26f 903d b77f a5bd 72e5 a6bd
00000090: 6f1c 45bd df9d 2a3e cc04 02be f41b 5f3d
000000a0: 1af7 a6bb fa63 843d 726b 1e3e 3fcc 2ebd
000000b0: 7a20 92bd 7059 ca3d 0bd9 99bc 003f b83c
000000c0: 023e b83b 15d2 bfbd
-0.11503999 -0.11420178 0.018257266 0.14143482 -0.019168582 0.1009541 0.088114664 0.10313902
-0.0034586084 -0.043819845 0.035935525 -0.097580895 -0.080117874 0.09364153 0.071828015 -0.08075132
-0.11392682 -0.05148259 0.09677953 -0.091575116 -0.099682555 0.11613441 0.07355902 -0.1441809
-0.038449425 -0.0019109184 -0.12710491 0.079285435 0.071712464 -0.10222256 -0.14233567 -0.063252576
0.14804548 0.07052566 -0.08081 -0.08149232 -0.04812282 0.16661786 -0.12697142 0.054470018
-0.005095375 0.064643815 0.15470675 -0.042675253 -0.07135101 0.0988034 -0.018780252 0.022490978
0.0056226263 -0.09366242

mask f4 [50, 50]
00000000: 0000 803f 0000 803f 0000 803f 0000 803f
00000010: 0000 803f 0000 803f 0000 803f 0000 803f
00000020: 0000 803f 0000 803f 0000 803f 0000 803f
00000030: 0000 803f 0000 803f 0000 803f 0000 803f
00000040: 0000 803f 0000 803f 0000 803f 0000 803f
00000050: 0000 803f 0000 803f 0000 803f 0000 803f
00000060: 0000 803f 0000 803f 0000 803f 0000 803f
00000070: 0000 803f 0000 803f 0000 803f 0000 803f
00000080: 0000 803f 0000 803f 0000 803f 0000 803f
00000090: 0000 803f 0000 803f 0000 803f 0000 803f
000000a0: 0000 803f 0000 803f 0000 803f 0000 803f
000000b0: 0000 803f 0000 803f 0000 803f 0000 803f
000000c0: 0000 803f 0000 803f 0000 803f 0000 803f
000000d0: 0000 803f 0000 803f 0000 803f 0000 803f
000000e0: 0000 803f 0000 803f 0000 803f 0000 803f
000000f0: 0000 803f 0000 803f 0000 803f 0000 803f
00000100: 0000 803f 0000 803f 0000 803f 0000 803f
00000110: 0000 803f 0000 803f 0000 803f 0000 803f
00000120: 0000 803f 0000 803f 0000 803f 0000 803f
00000130: 0000 803f 0000 803f 0000 803f 0000 803f
00000140: 0000 803f 0000 803f 0000 803f 0000 803f
00000150: 0000 803f 0000 803f 0000 803f 0000 803f
00000160: 0000 803f 0000 803f 0000 803f 0000 803f
00000170: 0000 803f 0000 803f 0000 803f 0000 803f
00000180: 0000 803f 0000 803f 0000 803f 0000 803f
00000190: 0000 803f 0000 803f 0000 803f 0000 803f
000001a0: 0000 803f 0000 803f 0000 803f 0000 803f
000001b0: 0000 803f 0000 803f 0000 803f 0000 803f
000001c0: 0000 803f 0000 803f 0000 803f 0000 803f
000001d0: 0000 803f 0000 803f 0000 803f 0000 803f
000001e0: 0000 803f 0000 803f 0000 803f 0000 803f
000001f0: 0000 803f 0000 803f 0000 803f 0000 803f
00000200: 0000 803f 0000 803f 0000 803f 0000 803f
00000210: 0000 803f 0000 803f 0000 803f 0000 803f
00000220: 0000 803f 0000 803f 0000 803f 0000 803f
00000230: 0000 803f 0000 803f 0000 803f 0000 803f
00000240: 0000 803f 0000 803f 0000 803f 0000 803f
00000250: 0000 803f 0000 803f 0000 803f 0000 803f
00000260: 0000 803f 0000 803f 0000 803f 0000 803f
00000270: 0000 803f 0000 803f 0000 803f 0000 803f
00000280: 0000 803f 0000 803f 0000 803f 0000 803f
00000290: 0000 803f 0000 803f 0000 803f 0000 803f
000002a0: 0000 803f 0000 803f 0000 803f 0000 803f
000002b0: 0000 803f 0000 803f 0000 803f 0000 803f
000002c0: 0000 803f 0000 803f 0000 803f 0000 803f
000002d0: 0000 803f 0000 803f 0000 803f 0000 803f
000002e0: 0000 803f 0000 803f 0000 803f 0000 803f
000002f0: 0000 803f 0000 803f 0000 803f 0000 803f
00000300: 0000 803f 0000 803f 0000 803f 0000 803f
00000310: 0000 803f 0000 803f 0000 803f 0000 803f
00000320: 0000 803f 0000 803f 0000 803f 0000 803f
00000330: 0000 803f 0000 803f 0000 803f 0000 803f
00000340: 0000 803f 0000 803f 0000 803f 0000 803f
00000350: 0000 803f 0000 803f 0000 803f 0000 803f
00000360: 0000 803f 0000 803f 0000 803f 0000 803f
00000370: 0000 803f 0000 803f 0000 803f 0000 803f
00000380: 0000 803f 0000 803f 0000 803f 0000 803f
00000390: 0000 803f 0000 803f 0000 803f 0000 803f
000003a0: 0000 803f 0000 803f 0000 803f 0000 803f
000003b0: 0000 803f 0000 803f 0000 803f 0000 803f
000003c0: 0000 803f 0000 803f 0000 803f 0000 803f
000003d0: 0000 803f 0000 803f 0000 803f 0000 803f
000003e0: 0000 803f 0000 803f 0000 803f 0000 803f
000003f0: 0000 803f 0000 803f 0000 803f 0000 803f
1.0 1.0 1.0 1.0 1.0 1.0 1.0 1.0
1.0 1.0 1.0 1.0 1.0 1.0 1.0 1.0
1.0 1.0 1.0 1.0 1.0 1.0 1.0 1.0
1.0 1.0 1.0 1.0 1.0 1.0 1.0 1.0
1.0 1.0 1.0 1.0 1.0 1.0 1.0 1.0
1.0 1.0 1.0 1.0 1.0 1.0 1.0 1.0
1.0 1.0 1.0 1.0 1.0 1.0 1.0 1.0
1.0 1.0 1.0 1.0 1.0 1.0 1.0 1.0
1.0 1.0 1.0 1.0 1.0 1.0 1.0 1.0
1.0 1.0 1.0 1.0 1.0 1.0 1.0 1.0
1.0 1.0 1.0 1.0 1.0 1.0 1.0 1.0
1.0 1.0 1.0 1.0 1.0 1.0 1.0 1.0
1.0 1.0 1.0 1.0 1.0 1.0 1.0 1.0
1.0 1.0 1.0 1.0 1.0 1.0 1.0 1.0
1.0 1.0 1.0 1.0 1.0 1.0 1.0 1.0
1.0 1.0 1.0 1.0 1.0 1.0 1.0 1.0
1.0 1.0 1.0 1.0 1.0 1.0 1.0 1.0
1.0 1.0 1.0 1.0 1.0 1.0 1.0 1.0
1.0 1.0 1.0 1.0 1.0 1.0 1.0 1.0
1.0 1.0 1.0 1.0 1.0 1.0 1.0 1.0
1.0 1.0 1.0 1.0 1.0 1.0 1.0 1.0
1.0 1.0 1.0 1.0 1.0 1.0 1.0 1.0
1.0 1.0 1.0 1.0 1.0 1.0 1.0 1.0
1.0 1.0 1.0 1.0 1.0 1.0 1.0 1.0
1.0 1.0 1.0 1.0 1.0 1.0 1.0 1.0
1.0 1.0 1.0 1.0 1.0 1.0 1.0 1.0
1.0 1.0 1.0 1.0 1.0 1.0 1.0 1.0
1.0 1.0 1.0 1.0 1.0 1.0 1.0 1.0
1.0 1.0 1.0 1.0 1.0 1.0 1.0 1.0
1.0 1.0 1.0 1.0 1.0 1.0 1.0 1.0
1.0 1.0 1.0 1.0 1.0 1.0 1.0 1.0
1.0 1.0 1.0 1.0 1.0 1.0 1.0 1.0

weight f4 [50, 50]
00000000: 00e8 2cbe 85c0 30bd 7fe0 0f3e a4b3 d4bc
00000010: dfc1 183d 9c81 babd 5833 8b3c acd8 2f3d
00000020: 668c f9bd e170 f83d b7fc 093e f41d 1b3e
00000030: 7d0d d63d 8e5f ab3c c1b6 dcbd 56f4 b3bd
00000040: 0642 efbd 7225 0d3d 707f c93d f75d d7bd
00000050: 3d89 fa3d 007c c9bd 0e5b 6abd af53 0bbe
00000060: b6b8 973d 411e 22be 8a14 80bd 9181 c73d
00000070: 7631 ee3d daef 63bd 7e3f cdbd 5315 3a3c
00000080: d3a9 e6bd 2fa5 b53d 37b0 853d 26f0 7bbd
00000090: 0082 c7bd c926 583d e76d 66bd 19ce 993d
000000a0: 5877 13bc f2ee dabd 5e26 f13c fce1 b33d
000000b0: a15e 6cbd e5c1 c83d 3a59 c1bc 0301 37bd
000000c0: 798e ef3a d8ed ccbd c33e 4b3d 6967 39bd
000000d0: 4795 fcbc 11aa 1abd 170a 1e3e 7673 093e
000000e0: 9e73 853d 7204 c43c eda7 b1bd 2fe0 f9bd
000000f0: a7ed 873d 4b84 173e 88e7 bcbd f185 07be
00000100: 56db 07ba f7cf 5d3d a0fe 343d d79b 8abc
00000110: ed3e 95bd ac07 84bc e029 ecbc c462 a23b
00000120: 35f4 093b 494c d2bd 4e32 9cbb a17f b13c
00000130: 940e dd3b 6b70 babc 3b59 d43d 6bcb 8abc
00000140: 69db e13c 1cf7 b43b 9d75 58bd 4d79 003e
00000150: 6c90 9fbd 02d8 08be f0ec 793d cc83 e23c
00000160: 78ba df3d 1757 9e3d a0a2 d3bd 1c58 f83d
00000170: 96b2 80bd 80f3 7bbd b7cc 76bc ccb3 9dbd
00000180: 7025 b3bd 9e59 8a3d 444f 633c a615 0bbe
00000190: de5e bbbd 305a fa3d 9c83 e3bd 8364 a0bd
000001a0: f523 07be f585 38bd 6620 f53d dae8 9b3d
000001b0: c14f 173e 208a f7bc 114a 123c 3773 1e3c
000001c0: b240 8cbd f6e5 203d 851e 863c 674d 9f3d
000001d0: a1bf 8bbc 3e2c 5f3d e607 70bd 4c0c a13d
000001e0: 5f60 613d b4c8 c43d 36e3 b7bd d480 d83d
000001f0: a35e f2bd 26ce 9a3d b4f7 7cbd 93bf f4bd
00000200: c487 49bc de95 8cbd 437c 1bbd 5677 ce3d
00000210: 36fd 083e a58e 8c3d 76eb 1e3e 96ee 9c3b
00000220: 9375 c03d 7b12 b8bd f8c8 2bbd 92c4 7e3d
00000230: 5fac 9bbd 5d9f d93c d38f c9bd f50d fdbc
00000240: 970e a73d ac5c 35bd 660d 903d 0141 823c
00000250: 6d23 0fbe 062f fbbd 3a9d a03d 6379 b13d
00000260: 07f0 d5bd 1429 f73d 29c3 b53d 7da1 f43d
00000270: 84fa cd3c af56 493d cc59 063c e6fd a83d
00000280: f518 babb f921 903d 977c d2bc 9f14 d5bd
00000290: 8155 f83d cc1c f23c bcdc 45bb fa25 1cbc
000002a0: 6a80 9cbd e643 cb3c 7a66 433d a68b 7dbd
000002b0: 59ef a3bc cd79 a63c 2c15 c2bd d8fd c6bd
000002c0: d51d 55bc b614 133e 5da7 e9bd 0f6e efbd
000002d0: a824 ef3d e6fc 4c3e 182f 203d 5a48 bcbd
000002e0: 38fc f0bd b0e7 023e 57b1 93bd 25c0 82bc
000002f0: f1eb c43d 074c d03d 2436 483d 0a5d 493d
00000300: 12c0 cbbd 4c2f a43b d2d9 3b3d 1856 5ebd
00000310: dfdc 4bbd ce87 693d 6215 b83c a238 c5bb
00000320: ac1d bd3e f9e4 86bd 286f 82bd dafb 49bd
00000330: f8d8 d03d c500 1cbe 6b80 f5bd 6b4b 89be
00000340: c394 14be 0570 8d3e 3f45 89bd c247 babe
00000350: 5c8f 9ebd 8c58 65bd a8fc 28bd 17c4 5fbe
00000360: fc67 ca3d 2746 b53e 79e9 44be 84e5 25be
00000370: b4f5 fd3c 7c27 0ebe 5016 d5ba 17d9 05be
00000380: 75d6 893b b873 d9bd 97e8 293c 9d01 b4bd
00000390: 45cc 803d 7d75 653b 562b c838 51b4 513d
000003a0: 1f3e 1a3e 284a d83d e6a2 da39 7fcc e2bd
000003b0: e55a 5cbd 87f9 cbbc 3f24 04bd 8173 b1b9
000003c0: 3043 e3bc 1e16 033e aaca 07bd 0b4f 653d
000003d0: 6394 96bd 35bd d83d 92c4 05be 11fe 48be
000003e0: 6aeb a2bd f0e9 d23c b98f 8c3c 86eb 9f3d
000003f0: b677 eb3d 899a 18bd 5f63 a0bd 4b2f bc3c
-0.16885376 -0.04315235 0.14050482 -0.025964566 0.037294265 -0.09106752 0.016992256 0.042931244
-0.12184982 0.12130905 0.1347531 0.15148145 0.104517914 0.020919587 -0.10777045 -0.08786838
-0.11682515 0.03445954 0.0983876 -0.10515969 0.122332074 -0.09838104 -0.057215743 -0.13606142
0.07408278 -0.15831853 -0.062539175 0.0974151 0.11630528 -0.055648662 -0.10021876 0.011357623
-0.1126286 0.08869397 0.06527751 -0.06150832 -0.097415924 0.052771363 -0.056257155 0.07510013
-0.009000622 -0.106901065 0.02943724 0.087833375 -0.057707433 0.098026074 -0.023602117 -0.0446787
0.0018276713 -0.100063026 0.0496204 -0.045264635 -0.0308329 -0.037759844 0.15433536 0.13422951
0.06516193 0.023927901 -0.086746074 -0.12200963 0.066371255 0.1479656 -0.092238486 -0.13234688
-0.0005182525 0.05415341 0.04418814 -0.016920013 -0.07287393 -0.01611694 -0.028828561 0.0049556214
0.00210501 -0.102684565 -0.004766739 0.021667304 0.0067461226 -0.022758683 0.10368582 -0.0169427
0.027570443 0.005522622 -0.05284654 0.12546273 -0.07791218 -0.1336365 0.061016977 0.027650736
0.10924238 0.07731455 -0.10333753 0.121261805 -0.062840626 -0.061511517 -0.015063456 -0.07700309
-0.08747375 0.06755374 0.013873879 -0.13582477 -0.09148954 0.12224233 -0.11109087 -0.07831671
-0.1319731 -0.045049626 0.1196907 0.07612772 0.14776517 -0.03021723 0.008928792 0.009671024
-0.06848277 0.039281808 0.016371975 0.07778435 -0.01705915 0.054485552 -0.058601283 0.078636736
0.055023547 0.096085936 -0.08978884 0.10571447 -0.11834457 0.07558851 -0.061759666 -0.119506024
-0.012300435 -0.068645224 -0.037960302 0.10081355 0.13377842 0.06863145 0.15519509 0.004789184
0.093974255 -0.089879 -0.041939706 0.062199183 -0.076012366 0.026565248 -0.098418854 -0.030890444
0.0815708 -0.044277832 0.070338055 0.015900137 -0.13978358 -0.122648284 0.078424886 0.08665731
-0.10446172 0.12068382 0.088751145 0.11944864 0.02514387 0.049154934 0.00820012 0.08251552
-0.0056792446 0.0703773 -0.025694175 -0.10404324 0.121256836 0.029554747 -0.0030191382 -0.009530539
-0.076416805 0.02481265 0.04770515 -0.061900757 -0.02001159 0.020321751 -0.094766945 -0.097163856
-0.013007601 0.1436337 -0.11408875 -0.11690914 0.116769135 0.20018348 0.039107412 -0.091934875
-0.11766857 0.12783694 -0.07211559 -0.015960762 0.09615315 0.10170751 0.048879758 0.049160995
-0.09948744 0.005010521 0.045862027 -0.054281324 -0.049771186 0.05701428 0.022471134 -0.006018714
0.369367 -0.06586642 -0.063688576 -0.04931245 0.101976335 -0.15234669 -0.119873844 -0.26815352
-0.14509873 0.27624527 -0.06702661 -0.36382872 -0.077421874 -0.055992648 -0.041256577 -0.21852146
0.09883115 0.35405084 -0.19229688 -0.16200835 0.03100095 -0.1388225 -0.001625726 -0.13071094
0.0042064735 -0.10617775 0.010370395 -0.0878937 0.06288961 0.0035012655 9.544815e-05 0.051197354
0.1506276 0.10561019 0.0004170157 -0.11074161 -0.05379762 -0.024899257 -0.03226113 -0.00033846128
-0.027741998 0.12801406 -0.03315226 0.055983584 -0.07352521 0.105829634 -0.13063267 -0.19628169
-0.07955058 0.025746316 0.017158376 0.078085944 0.114974424 -0.03725675 -0.078314535 0.02297177

bias f4 [50]
00000000: db1c c33d da7c b3bc 639b 503d 6be3 13be
00000010: 6b46 64bd c312 663d cadf 87bd 3d33 22be
00000020: 9b75 143d 4915 173a 7d09 4ebe af74 773d
00000030: 88fe 2b3e 27fa d5bd fb11 803d b687 21be
00000040: 11f1 e53d fe43 cbbd c8a8 21be c249 8fbd
00000050: 9713 eeba e5b6 2e3d b3e5 22bd 75af 1dbd
00000060: 143c 86bd 1d86 373e 9333 1fbd aae8 9bbc
00000070: 1874 b7bd 8e53 133e 826c 323d e767 93bd
00000080: 7836 2b3e a56c 04be bb28 943d 60b9 343d
00000090: dbe8 7abd a100 34bd e7ed e63d 7b6e a03d
000000a0: c1d4 003e 6c47 dc3d 498c febd 4f21 a6bd
000000b0: ce3c 31bd 1a9f 1d3e dfc0 a1bd b673 0ebd
000000c0: 8fd7 5fbd fda3 e0bd
0.09526988 -0.02191012 0.05092944 -0.14442222 -0.05573122 0.056170236 -0.06634481 -0.15839858
0.03624497 0.00057633646 -0.20120807 0.060414013 0.16796315 -0.104481034 0.062534295 -0.15774426
0.112276204 -0.09925078 -0.15787041 -0.0699649 -0.0018163797 0.04265489 -0.03976984 -0.038497407
-0.06554428 0.17922254 -0.038867544 -0.019031841 -0.0895769 0.14387342 0.043560512 -0.07197552
0.16719997 -0.1293207 0.07234331 0.0441221 -0.061257225 -0.043945912 0.11275845 0.078335725
0.12581159 0.1075581 -0.12429101 -0.08111822 -0.04327088 0.15392724 -0.07898115 -0.03477832
-0.054648932 -0.10968778

mask f4 [50, 50]
00000000: 0000 803f 0000 803f 0000 803f 0000 803f
00000010: 0000 803f 0000 803f 0000 803f 0000 803f
00000020: 0000 803f 0000 803f 0000 803f 0000 803f
00000030: 0000 803f 0000 803f 0000 803f 0000 803f
00000040: 0000 803f 0000 803f 0000 803f 0000 803f
00000050: 0000 803f 0000 803f 0000 803f 0000 803f
00000060: 0000 803f 0000 803f 0000 803f 0000 803f
00000070: 0000 803f 0000 803f 0000 803f 0000 803f
00000080: 0000 803f 0000 803f 0000 803f 0000 803f
00000090: 0000 803f 0000 803f 0000 803f 0000 803f
000000a0: 0000 803f 0000 803f 0000 803f 0000 803f
000000b0: 0000 803f 0000 803f 0000 803f 0000 803f
000000c0: 0000 803f 0000 803f 0000 803f 0000 803f
000000d0: 0000 803f 0000 803f 0000 803f 0000 803f
000000e0: 0000 803f 0000 803f 0000 803f 0000 803f
000000f0: 0000 803f 0000 803f 0000 803f 0000 803f
00000100: 0000 803f 0000 803f 0000 803f 0000 803f
00000110: 0000 803f 0000 803f 0000 803f 0000 803f
00000120: 0000 803f 0000 803f 0000 803f 0000 803f
00000130: 0000 803f 0000 803f 0000 803f 0000 803f
00000140: 0000 803f 0000 803f 0000 803f 0000 803f
00000150: 0000 803f 0000 803f 0000 803f 0000 803f
00000160: 0000 803f 0000 803f 0000 803f 0000 803f
00000170: 0000 803f 0000 803f 0000 803f 0000 803f
00000180: 0000 803f 0000 803f 0000 803f 0000 803f
00000190: 0000 803f 0000 803f 0000 803f 0000 803f
000001a0: 0000 803f 0000 803f 0000 803f 0000 803f
000001b0: 0000 803f 0000 803f 0000 803f 0000 803f
000001c0: 0000 803f 0000 803f 0000 803f 0000 803f
000001d0: 0000 803f 0000 803f 0000 803f 0000 803f
000001e0: 0000 803f 0000 803f 0000 803f 0000 803f
000001f0: 0000 803f 0000 803f 0000 803f 0000 803f
00000200: 0000 803f 0000 803f 0000 803f 0000 803f
00000210: 0000 803f 0000 803f 0000 803f 0000 803f
00000220: 0000 803f 0000 803f 0000 803f 0000 803f
00000230: 0000 803f 0000 803f 0000 803f 0000 803f
00000240: 0000 803f 0000 803f 0000 803f 0000 803f
00000250: 0000 803f 0000 803f 0000 803f 0000 803f
00000260: 0000 803f 0000 803f 0000 803f 0000 803f
00000270: 0000 803f 0000 803f 0000 803f 0000 803f
00000280: 0000 803f 0000 803f 0000 803f 0000 803f
00000290: 0000 803f 0000 803f 0000 803f 0000 803f
000002a0: 0000 803f 0000 803f 0000 803f 0000 803f
000002b0: 0000 803f 0000 803f 0000 803f 0000 803f
000002c0: 0000 803f 0000 803f 0000 803f 0000 803f
000002d0: 0000 803f 0000 803f 0000 803f 0000 803f
000002e0: 0000 803f 0000 803f 0000 803f 0000 803f
000002f0: 0000 803f 0000 803f 0000 803f 0000 803f
00000300: 0000 803f 0000 803f 0000 803f 0000 803f
00000310: 0000 803f 0000 803f 0000 803f 0000 803f
00000320: 0000 803f 0000 803f 0000 803f 0000 803f
00000330: 0000 803f 0000 803f 0000 803f 0000 803f
00000340: 0000 803f 0000 803f 0000 803f 0000 803f
00000350: 0000 803f 0000 803f 0000 803f 0000 803f
00000360: 0000 803f 0000 803f 0000 803f 0000 803f
00000370: 0000 803f 0000 803f 0000 803f 0000 803f
00000380: 0000 803f 0000 803f 0000 803f 0000 803f
00000390: 0000 803f 0000 803f 0000 803f 0000 803f
000003a0: 0000 803f 0000 803f 0000 803f 0000 803f
000003b0: 0000 803f 0000 803f 0000 803f 0000 803f
000003c0: 0000 803f 0000 803f 0000 803f 0000 803f
000003d0: 0000 803f 0000 803f 0000 803f 0000 803f
000003e0: 0000 803f 0000 803f 0000 803f 0000 803f
000003f0: 0000 803f 0000 803f 0000 803f 0000 803f
1.0 1.0 1.0 1.0 1.0 1.0 1.0 1.0
1.0 1.0 1.0 1.0 1.0 1.0 1.0 1.0
1.0 1.0 1.0 1.0 1.0 1.0 1.0 1.0
1.0 1.0 1.0 1.0 1.0 1.0 1.0 1.0
1.0 1.0 1.0 1.0 1.0 1.0 1.0 1.0
1.0 1.0 1.0 1.0 1.0 1.0 1.0 1.0
1.0 1.0 1.0 1.0 1.0 1.0 1.0 1.0
1.0 1.0 1.0 1.0 1.0 1.0 1.0 1.0
1.0 1.0 1.0 1.0 1.0 1.0 1.0 1.0
1.0 1.0 1.0 1.0 1.0 1.0 1.0 1.0
1.0 1.0 1.0 1.0 1.0 1.0 1.0 1.0
1.0 1.0 1.0 1.0 1.0 1.0 1.0 1.0
1.0 1.0 1.0 1.0 1.0 1.0 1.0 1.0
1.0 1.0 1.0 1.0 1.0 1.0 1.0 1.0
1.0 1.0 1.0 1.0 1.0 1.0 1.0 1.0
1.0 1.0 1.0 1.0 1.0 1.0 1.0 1.0
1.0 1.0 1.0 1.0 1.0 1.0 1.0 1.0
1.0 1.0 1.0 1.0 1.0 1.0 1.0 1.0
1.0 1.0 1.0 1.0 1.0 1.0 1.0 1.0
1.0 1.0 1.0 1.0 1.0 1.0 1.0 1.0
1.0 1.0 1.0 1.0 1.0 1.0 1.0 1.0
1.0 1.0 1.0 1.0 1.0 1.0 1.0 1.0
1.0 1.0 1.0 1.0 1.0 1.0 1.0 1.0
1.0 1.0 1.0 1.0 1.0 1.0 1.0 1.0
1.0 1.0 1.0 1.0 1.0 1.0 1.0 1.0
1.0 1.0 1.0 1.0 1.0 1.0 1.0 1.0
1.0 1.0 1.0 1.0 1.0 1.0 1.0 1.0
1.0 1.0 1.0 1.0 1.0 1.0 1.0 1.0
1.0 1.0 1.0 1.0 1.0 1.0 1.0 1.0
1.0 1.0 1.0 1.0 1.0 1.0 1.0 1.0
1.0 1.0 1.0 1.0 1.0 1.0 1.0 1.0
1.0 1.0 1.0 1.0 1.0 1.0 1.0 1.0

weight f4 [4, 50]
00000000: 9af1 9d3d 1321 fabd ee99 2fbd 3095 893c
00000010: 4028 54bc 603f 4c3c 642b 4f3d 8c57 38bd
00000020: fe28 42bd f124 103e 7ca3 bebd 225d 0cbd
00000030: e248 32bd 283c ce3d c056 27bc fa96 d8bd
00000040: 0c5d 97bd a629 fb3d a01f 20bc 6a7c b63d
00000050: 1ee6 0cbd 002d 973a 440a 6e3d c892 d53c
00000060: 77cf cfbd 5f7d 003e 51c4 9abd 6877 9d3d
00000070: 0912 b2bd 3aa3 fe3d 8c24 853d a41a a03d
00000080: 9443 c3bc c192 f7bd e8d4 9f3c 50f0 8a3d
00000090: 6055 c63b e896 453d fab0 ef3d 733d 013e
000000a0: 18c7 cd3d e13c 06be 7c24 b23d 8c18 ddbc
000000b0: 701c ec3c 3e3a d83d 346a 993d 64ea 65bd
000000c0: 6ac4 27bd e9d0 f3bd 8fdb 0cbe 3b03 f4bd
000000d0: f050 283d 67fb 97bd dda1 0fbe 1616 19bd
000000e0: 4811 13bd 045f c4bc 9ca9 473d ac68 d53d
000000f0: 50a8 1d3c 1a52 d73d aa63 eb3d bce0 693d
00000100: b874 b4bd 06f8 91bd 53c8 a1bd a049 afbb
00000110: 49d1 e5bd a039 393d 847b 7d3d 08e1 723d
00000120: 00ae f73a 191b fabd 862f 6dbd e1ad 033e
00000130: dcb0 25bd ba37 ad3d 241d 15bd fa57 08bd
00000140: b869 963d d04a 083d 5073 5ebc 002c 3dba
00000150: 6c84 c43d e21e b5bd 1a6b e3bd 00b9 6abd
00000160: 08f7 ed3c d0e4 05bc 80bd 1a3d c007 c3bd
00000170: 47d8 093e e822 af3d 0ed7 4ebd e029 00bc
00000180: 7414 b7bd c029 42bb def8 8f3d 0e17 f73d
00000190: 708e d23d 381e b03c 381b 803d e136 cdb9
000001a0: 8ccd 25be 47b7 0dbe 5d82 bd3d a29a c5bd
000001b0: 5f0f eabd 4c69 ffbd c86e 22be 2be3 88bd
000001c0: 54e3 1e3e fdbd cabd 8afc 0d3d 9962 2cbe
000001d0: 67f9 a9bc 8757 64bd e886 95bd d766 95bd
000001e0: 7e5f aa3d 01fd e3bd 19ff 95bd e5b4 babd
000001f0: a88d 88bd 3e04 2c3e 8f9c 80bd dc97 ac3a
00000200: 60a8 8abd b02b 243e 1175 b43d a756 d63d
00000210: d739 e73c 5dfe 1abe 6bd7 52bd 20c3 26bb
00000220: 5648 0d3b 5cc7 06bd 1166 c63c 59f9 ff3d
00000230: faa4 113d 0e43 a23d 3daa d23c 45e4 88bd
00000240: 173f e33d e879 cb3d e3b5 033c ada2 30be
00000250: c06c b7bd 5247 f7bc 4758 13bc 622c 8b3c
00000260: db1d 1fbd 8992 03ba e1aa f1bc a4d1 4dbd
00000270: bcc9 74bd b35b f1bb d53d 4c3c 4026 9f3c
00000280: 3fc5 4b3d fdc7 f03c c16b a23d 9ebf 443d
00000290: 957c 3bbd f131 623d 30fb 99bd f979 eb3d
000002a0: a373 633a 7489 603d 7c6f 493d c682 cb3d
000002b0: be6e 1e3d 0f54 f83d 0a3e 073b 09df bcbc
000002c0: 431e 573d 5216 e3b9 6f78 1b3d 7a37 d5bd
000002d0: e3a3 11be 0cd3 b93d b03f 74bc 4665 213d
000002e0: a0b0 8cbd 4fd2 88bb e923 4dbb a6e5 933c
000002f0: be53 8ebb eb4c d03c 45cb e83b 25ca 99bc
00000300: 44e0 ed3b abf6 95bc 7e65 8abd 2a08 83bc
00000310: 6bfe a8bc b41e de3d f9af c33d dbd5 c03d
0.077120975 -0.1221334 -0.04287141 0.016794771 -0.0129490495 0.012466282 0.05057849 -0.045005366
-0.047402374 0.14076592 -0.09308526 -0.034268506 -0.043526538 0.10070068 -0.010213554 -0.105756715
-0.07390794 0.12263803 -0.009773165 0.08910449 -0.034399144 0.0011533797 0.05811526 0.026070967
-0.10146993 0.12547825 -0.07556976 0.076887906 -0.08694846 0.12433477 0.065011114 0.07817581
-0.023835935 -0.12088538 0.019510701 0.06784117 0.006052658 0.04823962 0.117036775 0.12621097
0.1004774 -0.13109161 0.08698365 -0.026989244 0.028822154 0.10557984 0.0749096 -0.056131735
-0.0409588 -0.11905081 -0.1375563 -0.11914679 0.041092813 -0.07420998 -0.1402659 -0.03737458
-0.035905153 -0.023971088 0.048745736 0.10420355 0.009622648 0.105137065 0.11493619 0.05709909
-0.08811325 -0.07127385 -0.07899537 -0.005349353 -0.112215586 0.04522097 0.06188537 0.059296638
0.001889646 -0.122122 -0.05790665 0.12859298 -0.04045187 0.084578946 -0.036404744 -0.033287026
0.07344383 0.03327447 -0.013577297 -0.00072163343 0.0959557 -0.08843781 -0.111044124 -0.057305336
0.029048458 -0.008172229 0.037778378 -0.095229626 0.1346141 0.0855158 -0.05049806 -0.007822484
-0.08939448 -0.0029626936 0.070298895 0.12064944 0.10281074 0.021498784 0.062551916 -0.00039141535
-0.16191691 -0.13839446 0.092533804 -0.096486345 -0.11428713 -0.12471256 -0.15862572 -0.06683954
0.15516406 -0.09899519 0.03466467 -0.16834487 -0.020748807 -0.055747535 -0.07301122 -0.07295006
0.08318995 -0.11132241 -0.07324047 -0.09116534 -0.06667644 0.16798493 -0.06279861 0.0013167816
-0.06770396 0.1603229 0.08811391 0.104657464 0.028225822 -0.15136094 -0.05147497 -0.0025445893
0.0021558008 -0.032904968 0.02421859 0.12498731 0.035557725 0.07922946 0.025715942 -0.06684164
0.11096018 0.09935361 0.008038971 -0.17249556 -0.08956289 -0.030185375 -0.008993215 0.016988937
-0.03884683 -0.0005019089 -0.029500427 -0.050248757 -0.0597627 -0.0073656677 0.012465914 0.019427419
0.049748655 0.029392237 0.07930709 0.048034303 -0.045773108 0.05522341 -0.07518613 0.11497874
0.0008676594 0.054818586 0.049178585 0.099370524 0.03867983 0.12125408 0.0020636343 -0.02305557
0.052519094 -0.00043313444 0.03795665 -0.10410972 -0.14222674 0.09073457 -0.014907762 0.039403223
-0.06869626 -0.0041754614 -0.0031301922 0.01805384 -0.004343479 0.025427302 0.0071043097 -0.018773148
0.0072594006 -0.018306097 -0.06757639 -0.015995104 -0.020629128 0.108457 0.095550485 0.0941579

bias f4 [4]
00000000: 4615 a9bc a84b c83b e901 82bd 438f a5bc
-0.020640027 0.0061125346 -0.063480206 -0.020209914

mask f4 [4, 50]
00000000: 0000 0000 0000 0000 0000 0000 0000 0000
00000010: 0000 0000 0000 0000 0000 0000 0000 0000
00000020: 0000 0000 0000 0000 0000 0000 0000 0000
00000030: 0000 0000 0000 0000 0000 0000 0000 0000
00000040: 0000 0000 0000 0000 0000 0000 0000 0000
00000050: 0000 0000 0000 0000 0000 0000 0000 0000
00000060: 0000 0000 0000 0000 0000 0000 0000 0000
00000070: 0000 0000 0000 0000 0000 0000 0000 0000
00000080: 0000 0000 0000 0000 0000 0000 0000 0000
00000090: 0000 0000 0000 0000 0000 0000 0000 0000
000000a0: 0000 0000 0000 0000 0000 0000 0000 0000
000000b0: 0000 0000 0000 0000 0000 0000 0000 0000
000000c0: 0000 0000 0000 0000 0000 0000 0000 0000
000000d0: 0000 0000 0000 0000 0000 0000 0000 0000
000000e0: 0000 0000 0000 0000 0000 0000 0000 0000
000000f0: 0000 0000 0000 0000 0000 0000 0000 0000
00000100: 0000 0000 0000 0000 0000 0000 0000 0000
00000110: 0000 0000 0000 0000 0000 0000 0000 0000
00000120: 0000 0000 0000 0000 0000 0000 0000 0000
00000130: 0000 0000 0000 0000 0000 0000 0000 0000
00000140: 0000 0000 0000 0000 0000 0000 0000 0000
00000150: 0000 0000 0000 0000 0000 0000 0000 0000
00000160: 0000 0000 0000 0000 0000 0000 0000 0000
00000170: 0000 0000 0000 0000 0000 0000 0000 0000
00000180: 0000 0000 0000 0000 0000 0000 0000 0000
00000190: 0000 803f 0000 803f 0000 803f 0000 803f
000001a0: 0000 803f 0000 803f 0000 803f 0000 803f
000001b0: 0000 803f 0000 803f 0000 803f 0000 803f
000001c0: 0000 803f 0000 803f 0000 803f 0000 803f
000001d0: 0000 803f 0000 803f 0000 803f 0000 803f
000001e0: 0000 803f 0000 803f 0000 803f 0000 803f
000001f0: 0000 803f 0000 803f 0000 803f 0000 803f
00000200: 0000 803f 0000 803f 0000 803f 0000 803f
00000210: 0000 803f 0000 803f 0000 803f 0000 803f
00000220: 0000 803f 0000 803f 0000 803f 0000 803f
00000230: 0000 803f 0000 803f 0000 803f 0000 803f
00000240: 0000 803f 0000 803f 0000 803f 0000 803f
00000250: 0000 803f 0000 803f 0000 803f 0000 803f
00000260: 0000 803f 0000 803f 0000 803f 0000 803f
00000270: 0000 803f 0000 803f 0000 803f 0000 803f
00000280: 0000 803f 0000 803f 0000 803f 0000 803f
00000290: 0000 803f 0000 803f 0000 803f 0000 803f
000002a0: 0000 803f 0000 803f 0000 803f 0000 803f
000002b0: 0000 803f 0000 803f 0000 803f 0000 803f
000002c0: 0000 803f 0000 803f 0000 803f 0000 803f
000002d0: 0000 803f 0000 803f 0000 803f 0000 803f
000002e0: 0000 803f 0000 803f 0000 803f 0000 803f
000002f0: 0000 803f 0000 803f 0000 803f 0000 803f
00000300: 0000 803f 0000 803f 0000 803f 0000 803f
00000310: 0000 803f 0000 803f 0000 803f 0000 803f
0.0 0.0 0.0 0.0 0.0 0.0 0.0 0.0
0.0 0.0 0.0 0.0 0.0 0.0 0.0 0.0
0.0 0.0 0.0 0.0 0.0 0.0 0.0 0.0
0.0 0.0 0.0 0.0 0.0 0.0 0.0 0.0
0.0 0.0 0.0 0.0 0.0 0.0 0.0 0.0
0.0 0.0 0.0 0.0 0.0 0.0 0.0 0.0
0.0 0.0 0.0 0.0 0.0 0.0 0.0 0.0
0.0 0.0 0.0 0.0 0.0 0.0 0.0 0.0
0.0 0.0 0.0 0.0 0.0 0.0 0.0 0.0
0.0 0.0 0.0 0.0 0.0 0.0 0.0 0.0
0.0 0.0 0.0 0.0 0.0 0.0 0.0 0.0
0.0 0.0 0.0 0.0 0.0 0.0 0.0 0.0
0.0 0.0 0.0 0.0 1.0 1.0 1.0 1.0
1.0 1.0 1.0 1.0 1.0 1.0 1.0 1.0
1.0 1.0 1.0 1.0 1.0 1.0 1.0 1.0
1.0 1.0 1.0 1.0 1.0 1.0 1.0 1.0
1.0 1.0 1.0 1.0 1.0 1.0 1.0 1.0
1.0 1.0 1.0 1.0 1.0 1.0 1.0 1.0
1.0 1.0 1.0 1.0 1.0 1.0 1.0 1.0
1.0 1.0 1.0 1.0 1.0 1.0 1.0 1.0
1.0 1.0 1.0 1.0 1.0 1.0 1.0 1.0
1.0 1.0 1.0 1.0 1.0 1.0 1.0 1.0
1.0 1.0 1.0 1.0 1.0 1.0 1.0 1.0
1.0 1.0 1.0 1.0 1.0 1.0 1.0 1.0
1.0 1.0 1.0 1.0 1.0 1.0 1.0 1.0

weight f4 [50, 2]
00000000: 7a1d 9f3e c884 91bd 1ebb 0cbf d80b 8e3d
00000010: a2d9 183f 3f92 87be 8319 13bf 5283 943e
00000020: a673 743d 95d3 253f 423f 13be aa0c 9dbe
00000030: 992a e33e 002d 893d d13a 913d 73da 2b3f
00000040: 98eb 453f d298 913e 3654 153e 5cbb 103e
00000050: a73b 0cbe 86a5 28bf 9a61 443f 01ce 1cbf
00000060: 14cc 57bf 0f2d 33bf 5c48 043f 36a5 03bf
00000070: 3cbe 22bf 5087 b5be 8bc5 543f 3050 9f3d
00000080: ad97 0c3d 4c26 7b3e 5175 77be 5042 3ebd
00000090: aac4 13bf 57bc 343f 6404 ebbe 00d0 863b
000000a0: cbd5 253f 601d c2bd f218 09be 9050 833e
000000b0: 5e07 fbbe b0d0 593d cf3e 29be 1cd1 0dbe
000000c0: 08c2 813d f457 493e 8d41 22bd 6aab cf3e
000000d0: a024 3d3f 38d9 c0bd 78ab d33d 0695 57be
000000e0: 531e e53c 596b 2a3f 71af 2f3f c8b4 d73d
000000f0: a619 db3e 003a b03c ed4c f7be 0434 573e
00000100: d3bd 243d a0d0 cb3d ad4c f6bd b032 15be
00000110: 4b73 6dbe 57a0 1a3f af3c 74bd 28d7 d93d
00000120: 677b c7be 74b5 51be 2655 8d3d cece e93e
00000130: d154 b43d 8413 38be 8d2a 3c3e 6ac9 2ebf
00000140: 183d 2f3e 5038 72be 2078 333f ef5c 173f
00000150: 6326 c6be 4028 10be ddaf 3dbf be4b 943e
00000160: 215e 82be a85b 0cbe 203e 393f 433a 0b3f
00000170: b281 1c3f 2974 303f 0543 d7bd 455e d6be
00000180: 08ec 7cbe 00f7 ae3b dd9b 483e 88d3 ac3d
0.31077176 -0.07105404 -0.5497302 0.06935853 0.5970708 -0.26478764 -0.574608 0.2900644
0.059680603 0.64775974 -0.143796 -0.30673724 0.44368437 0.06698036 0.070912965 0.671302
0.7731261 0.28436905 0.14582905 0.14133972 -0.1369463 -0.6587757 0.7671143 -0.61251837
-0.84295774 -0.6999063 0.5167291 -0.51423967 -0.63571525 -0.35454798 0.83113927 0.077789664
0.034324337 0.24526328 -0.24165846 -0.04644996 -0.5772196 0.70599884 -0.45901787 0.004114151
0.6477935 -0.09478259 -0.13388422 0.25647402 -0.49029058 0.053177536 -0.16527866 -0.138493
0.06335837 0.19662458 -0.039613295 0.40560466 0.7388401 -0.09416431 0.103354394 -0.21052942
0.027968561 0.6657005 0.6862708 0.10532528 0.42793006 0.021512032 -0.48300877 0.21015936
0.040220093 0.099519014 -0.120263435 -0.14570117 -0.23188512 0.6040091 -0.059628185 0.10636741
-0.38961336 -0.20479375 0.069010064 0.45665592 0.0880524 -0.17976195 0.18375607 -0.68276083
0.17113149 -0.23654294 0.7010517 0.5912618 -0.38701162 -0.14077854 -0.7409647 0.28964037
-0.2546244 -0.13706839 0.7236042 0.54385775 0.611354 0.68927246 -0.1051083 -0.41868797
-0.24699414 0.0053395033 0.19590707 0.08438784

bias f4 [50]
00000000: bae3 453e 8680 443e 4b5c 7ebe 4e57 3fbf
00000010: 1d52 7d3d 4b85 083e 9055 1e3f 445b 9cbb
00000020: 9494 8e3e e2e6 90be 84ef 093f 2867 bbbc
00000030: c75a 073f 5842 01bf d378 52be 836e 21bf
00000040: 687c 82be 1fd8 6a3d 4170 4fbf a2d0 fbbe
00000050: 9492 1abf 0494 c5bc 997b e3be 57c9 123f
00000060: 6128 69be 27f3 86be 037f f4bc f209 3bbd
00000070: 5d9e 0abf ce2b b5be bdb0 273f 6c22 11be
00000080: 8911 f4be 1517 1c3f ed8b 11bf 37e6 3ebf
00000090: bc74 1a3f 6077 b8be d1da 32bf e338 03bf
000000a0: 0b78 d9be 1a85 683e d936 1cbe 2fc5 9abe
000000b0: 5cef 9f3e 3754 0bbf d434 28bf 6cf8 21bf
000000c0: 8422 c03d da42 23bf
0.19325152 0.19189653 -0.24839894 -0.7474259 0.061845887 0.13332097 0.6184931 -0.004771622
0.2784773 -0.2830115 0.53881097 -0.022876337 0.5287289 -0.5049186 -0.20553903 -0.6305925
-0.2548554 0.057335015 -0.8103066 -0.49182612 -0.6037991 -0.02411843 -0.44430235 0.5733847
-0.2276931 -0.26357386 -0.02984572 -0.04566378 -0.54147893 -0.35384983 0.65504056 -0.14173287
-0.47669628 0.6097272 -0.56854135 -0.7457003 0.6033437 -0.36028576 -0.6986514 -0.5125868
-0.42474398 0.22707024 -0.15255298 -0.30228564 0.31237304 -0.54425377 -0.6570561 -0.63269687
0.09381583 -0.6377388

mask f4 [50, 2]
00000000: 0000 803f 0000 0000 0000 803f 0000 0000
00000010: 0000 803f 0000 0000 0000 803f 0000 0000
00000020: 0000 803f 0000 0000 0000 803f 0000 0000
00000030: 0000 803f 0000 0000 0000 803f 0000 0000
00000040: 0000 803f 0000 0000 0000 803f 0000 0000
00000050: 0000 803f 0000 0000 0000 803f 0000 0000
00000060: 0000 803f 0000 0000 0000 803f 0000 0000
00000070: 0000 803f 0000 0000 0000 803f 0000 0000
00000080: 0000 803f 0000 0000 0000 803f 0000 0000
00000090: 0000 803f 0000 0000 0000 803f 0000 0000
000000a0: 0000 803f 0000 0000 0000 803f 0000 0000
000000b0: 0000 803f 0000 0000 0000 803f 0000 0000
000000c0: 0000 803f 0000 0000 0000 803f 0000 0000
000000d0: 0000 803f 0000 0000 0000 803f 0000 0000
000000e0: 0000 803f 0000 0000 0000 803f 0000 0000
000000f0: 0000 803f 0000 0000 0000 803f 0000 0000
00000100: 0000 803f 0000 0000 0000 803f 0000 0000
00000110: 0000 803f 0000 0000 0000 803f 0000 0000
00000120: 0000 803f 0000 0000 0000 803f 0000 0000
00000130: 0000 803f 0000 0000 0000 803f 0000 0000
00000140: 0000 803f 0000 0000 0000 803f 0000 0000
00000150: 0000 803f 0000 0000 0000 803f 0000 0000
00000160: 0000 803f 0000 0000 0000 803f 0000 0000
00000170: 0000 803f 0000 0000 0000 803f 0000 0000
00000180: 0000 803f 0000 0000 0000 803f 0000 0000
1.0 0.0 1.0 0.0 1.0 0.0 1.0 0.0
1.0 0.0 1.0 0.0 1.0 0.0 1.0 0.0
1.0 0.0 1.0 0.0 1.0 0.0 1.0 0.0
1.0 0.0 1.0 0.0 1.0 0.0 1.0 0.0
1.0 0.0 1.0 0.0 1.0 0.0 1.0 0.0
1.0 0.0 1.0 0.0 1.0 0.0 1.0 0.0
1.0 0.0 1.0 0.0 1.0 0.0 1.0 0.0
1.0 0.0 1.0 0.0 1.0 0.0 1.0 0.0
1.0 0.0 1.0 0.0 1.0 0.0 1.0 0.0
1.0 0.0 1.0 0.0 1.0 0.0 1.0 0.0
1.0 0.0 1.0 0.0 1.0 0.0 1.0 0.0
1.0 0.0 1.0 0.0 1.0 0.0 1.0 0.0
1.0 0.0 1.0 0.0

weight f4 [50, 2]
00000000: 92aa 69be 76c2 e43e 8b9e b03e b66a 2bbd
00000010: e220 093f 7590 b93e 5478 08bf ea17 563e
00000020: b301 86be d8b0 e0be b3cf da3e 3271 1cbf
00000030: 9879 8dbe 6c06 263f 62d6 373d 6280 61bd
00000040: 4999 2cbe 136f 93be 45d0 b13e 2b12 c6bc
00000050: 4124 bf3e a869 4d3e c75c 0fbf 624c 073f
00000060: 789e 61be 98a6 edbe 19a0 e6be f7c5 223f
00000070: d247 dabe 26b1 11bd 71c4 9fbc 9f2f c03e
00000080: a84d 8abc 7c04 363c cb4e cab6 b205 1c3f
00000090: cdde 48bd c2a2 61be 9e1a aa3e 745c a2bd
000000a0: 82cf f93e e00e 35bd 15af 113e 88d6 8ebe
000000b0: d42a d3be e909 113f e562 b9be 41a0 31bf
000000c0: 06df 3d3e cf70 b83e 5b66 8e3e a9f5 b5be
000000d0: d126 fc3e c9d8 6b3e 400c abbe 83e9 0e3e
000000e0: 9f78 113f 7adb e23e 6ec1 133e a35f 81b8
000000f0: 9a06 22be cba7 febe 8066 e73d 95f6 3cbd
00000100: 0cd2 a53e f898 8f3e 178c a83e 1d05 1b3f
00000110: 32cb cfbe a765 fcbe 5e80 cbbe 38fc 763e
00000120: 060f 8d3e 28fd 2fbf 198d 633e 8f01 183f
00000130: 620e 90be 7460 cc3e b6d8 8bbe 1e4d 073e
00000140: 375d 5fbb e0f8 abbe 52a8 2cbe 02f4 8a3e
00000150: 10dd db3e fc05 b3bd b7b2 2ebe 5d7b 82be
00000160: f922 1c3f ff77 1d3e 8e01 a4bd 9eb1 4abd
00000170: fb0b e7be c1a6 303f 9420 94be 54de f73e
00000180: d227 28bf 54d2 063e b521 353e a121 94be
-0.22818974 0.44679612 0.3449596 -0.041849814 0.535658 0.36243024 -0.53308606 0.2090756
-0.2617317 -0.4388492 0.42736587 -0.6111022 -0.2763183 0.6485355 0.044882186 -0.055054076
-0.16855349 -0.2879568 0.3472921 -0.024178585 0.37332347 0.20059836 -0.5600094 0.52850926
-0.22033107 -0.46416163 -0.4504402 0.6358332 -0.4263292 -0.035569333 -0.01950285 0.37536332
-0.016882733 0.011109468 -6.029242e-06 0.6094619 -0.049040604 -0.22034743 0.33223432 -0.0792779
0.48791128 -0.04420364 0.14226945 -0.2789805 -0.41243613 0.56655747 -0.36208263 -0.69385153
0.18542108 0.36023566 0.27812466 -0.35538986 0.49248365 0.23031916 -0.33407784 0.13956265
0.5682468 0.44308072 0.14429256 -6.169013e-05 -0.15822831 -0.4973739 0.11298847 -0.046133596
0.32386816 0.28046393 0.3291938 0.6055468 -0.40584713 -0.49296305 -0.39746374 0.24119651
0.27550524 -0.6874566 0.22221793 0.5937738 -0.28135973 0.39917338 -0.27313775 0.13213012
-0.003408266 -0.33588314 -0.16861084 0.27139288 0.42942095 -0.08741376 -0.17060362 -0.25484744
0.60990864 0.15377806 -0.08008109 -0.049485795 -0.45126328 0.69004446 -0.28931105 0.4841181
-0.6568576 0.13166171 0.1768864 -0.28931907

bias f4 [50]
00000000: 12ed ed3e b24f bdbe 7a06 c4be 2baa 6e3e
00000010: 47a0 28bf 6702 fc3c 7dc4 063f 67e7 3fbe
00000020: 45f1 1bbf 4328 3ebf ae2b 1c3e c70d 6bbe
00000030: 098c 963e e9b6 ae3e 0a39 2c3f cb73 00be
00000040: 8a19 33bf fa3b a2be 4cc1 c4be 9741 22bf
00000050: f4fd 16be 419d 863e 544e 12bf 8a69 03bc
00000060: a2c5 ccbe 40ad f6be d5e5 4a3e e8be 6f3e
00000070: 71c7 3fbe 12bc 1fbf 97b2 f03e 21ab 233f
00000080: 845c 46bf f0f1 d2bd 0cb8 823e e4df 0f3f
00000090: 7d92 d43e 80d4 01bf 30a6 38bc b30c 363f
000000a0: b248 993e fa5e 44bf f78a 12bf b8ce 89be
000000b0: f290 93be 6ce2 75be f0b0 903e b3d2 3bbe
000000c0: 99d8 f43d 712a 43bf
0.46469933 -0.36974865 -0.3828619 0.23307101 -0.65869564 0.030762864 0.5264357 -0.18740617
-0.60915023 -0.74280185 0.15251037 -0.22954474 0.29403713 0.34123924 0.67274535 -0.12544172
-0.69960845 -0.31686383 -0.38428724 -0.6338133 -0.14745313 0.2629185 -0.5715077 -0.008020768
-0.39994532 -0.48179054 0.19814236 0.23412669 -0.18728425 -0.6239635 0.47011253 0.63932997
-0.7748492 -0.10300052 0.25531042 0.56201005 0.41518012 -0.50714874 -0.011270091 0.7111313
0.29938275 -0.7670742 -0.57243294 -0.26915526 -0.28821522 -0.24012154 0.28259993 -0.18342094
0.11955375 -0.76236635
