04a/Results_O4a_MultiSeed_Final/Models_Seed_42_20260210/model_ai_seed_42.pth (torch, 278418 bytes, 76 tensors)

_shift f4 [2]
000000 de ab 27 40 50 e3 df bf
       2.619865 -1.7491245

_scale f4 [2]
000000 a5 1a 32 3e 25 1f 5f 40
       0.17392977 3.486276

weight f4 [50, 2]
000000 0f 94 a9 bd 1a f6 ef be 28 af 2d 3f 79 dd d6 be
       -0.08280193 -0.46867448 0.6784539 -0.41965845
000010 18 b0 b2 3e c2 30 c2 3e 25 cb 35 bf d4 af bf be
       0.34899974 0.37927824 -0.710131 -0.37438834
000020 ad ee 17 be ae 5b fa be 0f e2 1d 3d 37 19 25 3f
       -0.14837141 -0.4889807 0.038545664 0.644916
000030 48 2e 23 bf a8 cd 1c 3e 3f 64 7a 3f 92 ee bb 3e
       -0.63742495 0.15312827 0.97809213 0.36705452
000040 9d 4f 1d 3f 30 27 34 bf d7 26 b8 bd 98 6c a4 3d
       0.61449605 -0.70372295 -0.08991783 0.08028525
000050 b2 12 0d bf 26 94 a3 3e d6 ba e4 3b f8 e5 aa 3d
       -0.5510665 0.31948966 0.0069802804 0.08344644
000060 22 e2 08 be c0 46 29 3e 1f f3 27 3f 02 36 a6 3e
       -0.13367513 0.16530895 0.6560535 0.3246308
000070 5a b3 ef 3e c0 11 f9 bd b0 f1 09 bf d8 1c fd bd
       0.46816522 -0.12161589 -0.5388441 -0.12359017
000080 3e 95 12 3f ad 69 05 3f 15 db 65 3e cc db 47 3e
       0.57258976 0.52114373 0.22446854 0.1951744
000090 32 18 b1 be c0 2f 45 bc 52 e0 e6 be 56 ae fd 3e
       -0.34588772 -0.01203531 -0.45093018 0.4954707
0000a0 3d 8d 35 3f 94 3b 86 3e b0 ab 29 3e 72 b3 d6 3e
       0.7091864 0.2621733 0.165694 0.4193378
0000b0 65 00 c4 be 44 9f 11 3e 8f 86 20 bf 63 8a 86 be
       -0.3828155 0.14220911 -0.6270532 -0.26277456
0000c0 3c 93 a4 3e 0e c7 30 bf 37 69 4a be 44 28 30 bf
       0.3214358 -0.69053733 -0.19766699 -0.6881144
0000d0 a3 b6 07 be 6e 7a 23 bf ae 22 01 be 3f 9c 2e bf
       -0.13253264 -0.6385869 -0.12610886 -0.6820716
0000e0 3a 16 09 bf de d7 bd be f5 b8 81 be c2 fd b3 3e
       -0.5354954 -0.37078756 -0.25336424 0.3515454
0000f0 86 2b 4d bf d8 aa b5 be bb 4e 5a be 20 a6 0a 3d
       -0.80144536 -0.35481906 -0.21319096 0.033849835
000100 29 d7 41 bd 80 d9 9d 3b 05 2e b4 be 18 33 02 bf
       -0.047324333 0.004817188 -0.3519136 -0.5085921
000110 e9 f0 74 3e 10 a2 89 3e aa f2 14 bd ff f6 f5 be
       0.23920025 0.26881456 -0.036364235 -0.48040006
000120 ec 25 aa 3e 0f c3 17 bf c0 0b 93 3e 84 62 19 bf
       0.33232057 -0.5928201 0.28719902 -0.5991595
000130 97 7c 69 bf 74 ff 1d be 6d 9b 11 bf 08 5f 21 be
       -0.91205734 -0.15429479 -0.56877786 -0.15758908
000140 c4 51 90 3e 0b bd 0c 3f 32 01 5d bf 72 f9 99 3e
       0.28187382 0.54975957 -0.8632995 0.30073124
000150 04 77 57 be 42 09 af be ac ed 99 3d 57 68 98 be
       -0.21041495 -0.3418675 0.075160354 -0.29767105
000160 77 14 4d 3e 06 2f e1 be b2 47 13 bf fa e2 81 3e
       0.20027338 -0.4398119 -0.57531273 0.25368482
000170 5b 92 a9 be dd dd 9c be 45 89 9b bd 4b f2 83 be
       -0.33119473 -0.30638018 -0.075945415 -0.25770792
000180 2d 3b 32 bf 6a d2 e1 3e 80 fd cb 3b fa 9d 9d 3e
       -0.69621545 0.44105846 0.006225288 0.3078459

bias f4 [50]
000000 b3 59 e9 3e 6a 78 1d be 6c 2a 1a 3e 54 3c 5c be
       0.45576248 -0.15377966 0.15055245 -0.21507388
000010 45 60 1a 3e 93 19 27 bf 4f 58 20 3f 1e 23 63 3e
       0.15075786 -0.652734 0.6263475 0.22181365
000020 16 e6 29 be 4a d1 b1 be ae 47 43 3e b3 f3 70 3d
       -0.16591677 -0.34729987 0.19070312 0.05882616
000030 b4 f3 0c bf 59 e6 e9 be 98 2d 73 be 33 da 02 3e
       -0.5505936 -0.45683554 -0.23747861 0.12778549
000040 c4 55 a7 be 38 da b9 be 70 23 08 3f 44 86 8b be
       -0.3268262 -0.362993 0.53179073 -0.27250874
000050 b1 3a d5 3d 14 e3 24 3f e0 16 fa be be c3 bb bd
       0.10411585 0.64408994 -0.48845577 -0.09168194
000060 a0 6f 2c bf 17 6c 4c bd 1e 87 0e 3f 70 86 7c 3d
       -0.67357826 -0.04990777 0.5567492 0.061651647
000070 5c 08 0c be 33 08 0f 3f 4c ec e9 be d4 ad 22 3e
       -0.13675064 0.55871886 -0.45688093 0.15886623
000080 79 1a cf be bf 6c 28 bd 71 8d ce be 93 6f ea be
       -0.40449885 -0.041119333 -0.40342286 -0.4578825
000090 81 db 39 3f eb 08 84 3e 6c 7e 9a 3d db d1 5a bd
       0.7260056 0.25788054 0.07543644 -0.05342279
0000a0 8b d4 0a bf 42 c6 64 3e 45 5e 64 3e 19 64 7a 3e
       -0.54230565 0.22341254 0.22301586 0.24452247
0000b0 f1 f0 b5 3e 90 03 24 3f c8 b6 c4 3e cf a5 0b 3f
       0.35535386 0.64067936 0.384207 0.5454988
0000c0 d7 20 f8 3e c9 b2 bf 3e
       0.48462555 0.3744109

mask f4 [50, 2]
000000 00 00 80 3f 00 00 00 00 00 00 80 3f 00 00 00 00
       1.0 0.0 1.0 0.0
000010 00 00 80 3f 00 00 00 00 00 00 80 3f 00 00 00 00
       1.0 0.0 1.0 0.0
000020 00 00 80 3f 00 00 00 00 00 00 80 3f 00 00 00 00
       1.0 0.0 1.0 0.0
000030 00 00 80 3f 00 00 00 00 00 00 80 3f 00 00 00 00
       1.0 0.0 1.0 0.0
000040 00 00 80 3f 00 00 00 00 00 00 80 3f 00 00 00 00
       1.0 0.0 1.0 0.0
000050 00 00 80 3f 00 00 00 00 00 00 80 3f 00 00 00 00
       1.0 0.0 1.0 0.0
000060 00 00 80 3f 00 00 00 00 00 00 80 3f 00 00 00 00
       1.0 0.0 1.0 0.0
000070 00 00 80 3f 00 00 00 00 00 00 80 3f 00 00 00 00
       1.0 0.0 1.0 0.0
000080 00 00 80 3f 00 00 00 00 00 00 80 3f 00 00 00 00
       1.0 0.0 1.0 0.0
000090 00 00 80 3f 00 00 00 00 00 00 80 3f 00 00 00 00
       1.0 0.0 1.0 0.0
0000a0 00 00 80 3f 00 00 00 00 00 00 80 3f 00 00 00 00
       1.0 0.0 1.0 0.0
0000b0 00 00 80 3f 00 00 00 00 00 00 80 3f 00 00 00 00
       1.0 0.0 1.0 0.0
0000c0 00 00 80 3f 00 00 00 00 00 00 80 3f 00 00 00 00
       1.0 0.0 1.0 0.0
0000d0 00 00 80 3f 00 00 00 00 00 00 80 3f 00 00 00 00
       1.0 0.0 1.0 0.0
0000e0 00 00 80 3f 00 00 00 00 00 00 80 3f 00 00 00 00
       1.0 0.0 1.0 0.0
0000f0 00 00 80 3f 00 00 00 00 00 00 80 3f 00 00 00 00
       1.0 0.0 1.0 0.0
000100 00 00 80 3f 00 00 00 00 00 00 80 3f 00 00 00 00
       1.0 0.0 1.0 0.0
000110 00 00 80 3f 00 00 00 00 00 00 80 3f 00 00 00 00
       1.0 0.0 1.0 0.0
000120 00 00 80 3f 00 00 00 00 00 00 80 3f 00 00 00 00
       1.0 0.0 1.0 0.0
000130 00 00 80 3f 00 00 00 00 00 00 80 3f 00 00 00 00
       1.0 0.0 1.0 0.0
000140 00 00 80 3f 00 00 00 00 00 00 80 3f 00 00 00 00
       1.0 0.0 1.0 0.0
000150 00 00 80 3f 00 00 00 00 00 00 80 3f 00 00 00 00
       1.0 0.0 1.0 0.0
000160 00 00 80 3f 00 00 00 00 00 00 80 3f 00 00 00 00
       1.0 0.0 1.0 0.0
000170 00 00 80 3f 00 00 00 00 00 00 80 3f 00 00 00 00
       1.0 0.0 1.0 0.0
000180 00 00 80 3f 00 00 00 00 00 00 80 3f 00 00 00 00
       1.0 0.0 1.0 0.0

weight f4 [50, 4]
000000 d3 8f ad be 45 b5 ce bd 81 f9 3b 3e 3a b2 cd 3d
       -0.33898792 -0.10093168 0.18356897 0.1004376
000010 3d 47 95 be 61 0a 87 be f6 37 4b be d2 36 db bd
       -0.29155913 -0.26375106 -0.19845566 -0.107038155
000020 d3 18 f6 bc 0d c3 b1 bd 7a 61 2d bd 6d f6 ec 3e
       -0.030041134 -0.08679781 -0.04232929 0.46281758
000030 0b 2f 73 be 87 7e 85 3e ec 77 e2 be 00 09 01 3e
       -0.23748414 0.26073095 -0.44232118 0.1260109
000040 96 89 98 be 70 dc f1 3e d9 9f 37 bf c5 34 b7 be
       -0.2979247 0.47238493 -0.71728283 -0.35782447
000050 bc 6d ce be d3 8f 20 bf 45 42 f2 be 34 75 6a 3e
       -0.40318096 -0.6271946 -0.47316185 0.22896272
000060 db 09 81 3d e8 cb bb 3d 75 bb 53 3d c5 4d b7 bd
       0.06300708 0.091697514 0.051692445 -0.0895038
000070 7e 2b f7 bb e7 a4 91 bd 4e d9 4a be 8f 2e d5 be
       -0.0075430265 -0.07111531 -0.19809458 -0.41637084
000080 70 a5 9a 3e ec d8 ed bd 84 de 9e be ed 20 8e be
       0.30204344 -0.1161364 -0.3102914 -0.27759495
000090 e2 40 97 3d 05 61 7d be 95 37 19 3e e3 cd 29 3e
       0.07385422 -0.24744041 0.14962609 0.16582446
0000a0 1b f0 74 3e 8e 67 ce 3e 67 9b ee be 54 22 3c 3e
       0.23919718 0.4031338 -0.46602938 0.1837247
0000b0 f5 df 64 3e 4d 7e 89 3a a6 2a 6f 3d 2a 1c ec 3e
       0.22351058 0.0010489911 0.058390282 0.46115237
0000c0 d0 54 a5 bd 9e 82 db be a6 28 14 3e 3f 88 c2 3e
       -0.08072817 -0.4287309 0.14468631 0.37994573
0000d0 4b a0 b7 3c af 82 c8 3c 99 bd e5 bc 90 8a 8b 3e
       0.0224153 0.024476377 -0.028044509 0.27254152
0000e0 77 c5 c7 be 2f 27 c4 be ea 21 55 be d0 04 58 be
       -0.3901784 -0.38311145 -0.20813718 -0.21095586
0000f0 a3 d2 83 bc 24 72 a9 bc c6 fd fd 3e 1f ee bc 3e
       -0.01609165 -0.02068431 0.49607676 0.36900422
000100 1e e2 d8 3e bf 58 91 bd 9e 5e 56 3b cf da ad be
       0.42360014 -0.07097005 0.0032710205 -0.33956
000110 ff c8 bf 3e 4e 6d a3 be 3f 59 0c 3f 9b c6 a0 bd
       0.37458035 -0.3191933 0.5482368 -0.07850381
000120 0e 26 80 3e 40 65 17 bf 66 a6 7e 3e 9e db a9 be
       0.25029033 -0.5913887 0.24868163 -0.33175367
000130 59 df 9b 3c 96 8b 53 be 08 1b 17 3e 6c 2a 5b 3e
       0.019027399 -0.20658717 0.14756405 0.21402901
000140 25 51 d2 be 88 4a b1 be 62 29 b7 3e 14 8d e0 3e
       -0.41077533 -0.34627175 0.3577376 0.43857634
000150 e8 53 d0 3e 1d 9c 0d be c9 d8 ac bd 82 c0 c8 be
       0.40689015 -0.13829084 -0.08439786 -0.39209372
000160 58 df 9b be 07 26 c6 3e 0d 38 bd 3e 24 0d ed bd
       -0.30443835 0.38700888 0.36956826 -0.11574772
000170 8f 91 7b 3e 48 56 ab be f1 89 27 be 78 00 30 bc
       0.24567245 -0.33464265 -0.16361214 -0.010742299
000180 d0 c2 8c 3e b7 1b fd 3d 13 85 0a 3f cf 61 f0 be
       0.2749238 0.12358802 0.54109305 -0.46949622
000190 c6 f7 77 3e 49 cb 19 bc 79 35 bd be 2f 8d e0 3d
       0.24215612 -0.009386846 -0.3695486 0.10964429
0001a0 9d 71 54 be 12 ec b8 3e 1b f5 da 3e 07 df bf 3e
       -0.20746465 0.36117607 0.42765126 0.37474844
0001b0 e7 4a 98 be ab 94 73 be ff 00 7f 3d c9 eb 71 3e
       -0.29744646 -0.23787181 0.06225681 0.23625101
0001c0 0b 24 e6 3e 2b 95 a2 be 36 fe 3d 3e 6f 38 b1 bd
       0.44949374 -0.3175443 0.18554005 -0.08653342
0001d0 87 89 60 3e 82 5c 91 3e 21 30 9a 3d 6e 79 e0 3e
       0.21927463 0.2839089 0.07528711 0.43842643
0001e0 6c db 61 be 11 59 d2 3e 2f 75 93 3e 0f aa 81 3b
       -0.22056359 0.41083577 0.2880034 0.00395704
0001f0 89 61 5e 3e d7 1c 29 3e 21 fc 2a be a9 7c 17 bd
       0.21716894 0.16514908 -0.16697742 -0.03698412
000200 f4 4c f0 3e e1 34 9b bd 67 c1 44 bd e2 ca ab be
       0.4693371 -0.07578445 -0.048036005 -0.33553225
000210 23 4b 1f be d1 cb cd 3d f9 30 45 bf 3b 0c 9c be
       -0.15556006 0.100486405 -0.7702785 -0.3047808
000220 90 8f d4 be b8 67 2d 3e 88 f0 79 3e fe 54 af be
       -0.4151578 0.16934097 0.24408162 -0.3424453
000230 44 47 53 be 3e 0a 47 3d 24 60 e5 3d 7d ab 11 bd
       -0.20632654 0.048593752 0.11199978 -0.035563935
000240 f6 e4 d0 3e 0f 5f 8e be 89 63 29 be 6c 56 b0 3d
       0.40799683 -0.278069 -0.16541876 0.08610234
000250 a9 8a 22 3e 6b 7e 36 be 03 e4 89 be 56 bc 76 3e
       0.15873207 -0.17821662 -0.26931772 0.24095282
000260 7b e0 74 be 4c 9a ae be bb 17 f0 be 31 32 a0 3e
       -0.23913758 -0.34102094 -0.46893105 0.31288293
000270 16 be a4 3e 97 f6 37 3e c5 e2 b2 bd 4c 2d 54 3e
       0.32176274 0.1796516 -0.08734659 0.20720404
000280 fb 53 b1 3e c2 64 f2 3e 9f fa b0 3e cb fb a2 be
       0.34634385 0.47342497 0.3456621 -0.31832728
000290 39 1a f3 3e 9a 6c 9b be b8 72 ab be 48 8d 80 3e
       0.47480944 -0.30356294 -0.3348596 0.2510779
0002a0 2b e9 bf be e6 9b c0 3e bb a8 91 3e ea 62 41 be
       -0.3748258 0.3761894 0.28449044 -0.18885389
0002b0 0e 75 e0 be c1 a7 47 3d 5e 07 5a be 14 79 24 3e
       -0.43839306 0.048743967 -0.21291873 0.16061813
0002c0 9b dc ad be 25 97 85 be 52 13 f5 3d 96 d2 4f bd
       -0.3395737 -0.26091877 0.11966576 -0.05073794
0002d0 8b 26 d2 3e 9e 5b 11 3e 3f ac 3d 3d 57 b2 9a 3e
       0.4104503 0.14195105 0.046306845 0.30214188
0002e0 e0 16 35 3d 46 df f8 3e 3d 7f 4b bd f1 77 73 3e
       0.04421127 0.48607844 -0.04968189 0.23776223
0002f0 23 0a 9d 3e bf 1e 6a 3e d9 7a d7 3d 52 82 e1 3e
       0.30671796 0.22863291 0.10521478 0.4404474
000300 fc 9b c4 be df 74 9f bd 61 f4 cf 39 33 14 e6 be
       -0.38400257 -0.07785963 0.00039664193 -0.44937286
000310 ea ea 10 3e bc 43 87 3c 9d a8 55 3d 97 a8 fd be
       0.14152113 0.01651179 0.052162755 -0.49542686

bias f4 [50]
000000 97 b1 d7 3e cf 89 9e be 7b d9 ec 3d ae c9 a4 bd
       0.42127678 -0.30964515 0.115649186 -0.0804628
000010 50 1f ac be db 9c 5e 3e 22 fc 3f 3e d4 8f c9 3e
       -0.3361764 0.21739523 0.18748525 0.39367545
000020 6f 06 18 bd 29 ba 16 be bf b7 b6 be fe 2d 95 be
       -0.03711551 -0.14719452 -0.35687062 -0.29136652
000030 d1 5e ee 3d 96 44 76 3e 7a ee 61 be 0e 03 70 3d
       0.116391785 0.24049601 -0.22063628 0.058596663
000040 bc 55 2b 3e 5e 85 3c be 1b 72 d6 be 34 b3 0a 3f
       0.16731924 -0.1841025 -0.4188393 0.5417969
000050 d9 3f 03 3f 97 f9 86 3e b6 bf b4 be 8b fd 96 be
       0.512693 0.26362297 -0.35302514 -0.29490313
000060 af 69 a6 3e d8 8c 02 3f c3 28 e9 be e0 d7 72 be
       0.32502505 0.5099616 -0.4553891 -0.23715162
000070 e5 99 4a 3e 0e 35 28 3d 3d f3 b4 be 7a 19 ed be
       0.19785269 0.041066222 -0.35341826 -0.463085
000080 d9 ee 5e be 0c 35 3a be c3 dc 2f be c2 ae 02 bf
       -0.217708 -0.18184298 -0.17174058 -0.5104791
000090 8f db e1 3e b0 76 6d 3e 01 f2 1c bd ab 9e cd 3e
       0.44112822 0.23189807 -0.03831673 0.40160117
0000a0 50 d0 b7 3e 0f 77 e9 be 07 17 86 bd 39 4c 24 3e
       0.35901117 -0.45598647 -0.06547361 0.16044702
0000b0 9c 30 d3 be 2e 83 ca bd 7d 7b 7c 3c 1a 08 ab 3e
       -0.41248024 -0.09888302 0.015410301 0.33404619
0000c0 2a ca 8e bc dc ba eb 3e
       -0.017430384 0.46041

weight f4 [50, 50]
000000 8d d1 1c be ad 67 9b bd 71 5c dc bc 0c 29 ff bd
       -0.15314312 -0.07588134 -0.026899548 -0.12459001
000010 0b 01 02 3e d6 d0 f0 3d bd 99 cb 3d 59 79 40 3d
       0.1269571 0.11758582 0.099414326 0.046990726
000020 68 8b 86 3c 0d a0 a4 3d 37 78 24 bd e9 a9 85 3d
       0.016423896 0.0803834 -0.04015371 0.065265484
000030 5d 69 91 bd 84 30 02 be b3 12 b3 3a 61 a7 72 3d
       -0.071001746 -0.1271382 0.0013662189 0.059241656
000040 d7 20 99 3c 8c bf f6 3c 69 34 b6 bd 18 ed e3 3c
       0.018692417 0.030120634 -0.08896715 0.027823016
000050 5b e7 4c 3d 89 b8 24 be 4e 6b 89 3d f7 ce b3 bd
       0.050025325 -0.1608602 0.0670992 -0.0877971
000060 ac ad b8 3d b7 41 08 bc c2 a8 37 bc b1 86 e6 bc
       0.090175 -0.008316449 -0.011209669 -0.028140398
000070 16 c5 90 3d 76 ca 57 3d c8 70 c2 3c b4 52 20 3e
       0.07068841 0.052683316 0.023735419 0.15656549
000080 a1 5d 22 ba ed 3b 19 be d0 39 b2 bd 88 8b a2 3d
       -0.00061937614 -0.14964266 -0.08702433 0.0793677
000090 ea 91 80 3d d9 ee 6b 3c 2c 35 1a be 19 f1 fd 3c
       0.06277831 0.014400207 -0.15059346 0.030998753
0000a0 21 5c a8 bd d6 d9 89 bc e6 3f 7e 3d 4f 5c d1 bd
       -0.08220697 -0.016827505 0.062072657 -0.102226846
0000b0 d8 66 70 3d 2a e2 09 3e 46 9e e8 3c ac ed 31 3d
       0.05869183 0.13465181 0.028395783 0.043439552
0000c0 df dc 7e bd 30 08 03 3c e4 ab f1 bd 8e 1f a9 3d
       -0.062222358 0.0079975575 -0.11800364 0.08257972
0000d0 ea 85 9b 3d 7d 11 db 3d b7 8c fb bc e1 63 d3 3d
       0.075939015 0.10696695 -0.030706747 0.10321785
0000e0 9a e5 13 be db 32 ee bc 95 b9 ac bd 5b 4d 1d be
       -0.14443055 -0.029076984 -0.084338345 -0.1536154
0000f0 c2 12 bc 3d df 3d c9 3d 49 36 3b 3d f6 9f 26 ba
       0.09183265 0.09826254 0.045706067 -0.00063562335
000100 81 d3 db 3d 37 c1 84 3c 28 5f d4 3d f8 e6 8f bc
       0.107337005 0.016205413 0.10369712 -0.01756619
000110 3e 8c ac bd 01 4e f1 bc 68 b2 1f bd 23 eb 27 3e
       -0.084251866 -0.02945614 -0.0389885 0.16398291
000120 84 19 e5 3d 6e 73 1e 3c 1f 01 de 3d e1 3e 77 bc
       0.11186507 0.009671075 0.108400576 -0.015090675
000130 6e 3e 80 bc d4 00 9d bc 41 1a 01 3d f9 fb cc bd
       -0.015654769 -0.019165434 0.03151918 -0.100089975
000140 10 23 b9 3d 1e 63 d7 bd 84 78 54 3d 41 9f 2c 3c
       0.09039891 -0.10516952 0.051872745 0.010536016
000150 16 44 07 bd 20 c0 e0 3d 36 65 88 3d 9c ab 0c 3d
       -0.033023916 0.10974145 0.066599295 0.034343347
000160 7d 49 be 3d 97 93 7c 3d 8a 80 74 bd a0 c3 4c bd
       0.092913605 0.06166419 -0.059692897 -0.04999125
000170 35 1b 04 bd ef 11 8a 3c d5 88 f3 3d 60 f8 37 3b
       -0.03225251 0.016854255 0.11891333 0.0028071627
000180 5c 04 de 3d c9 1a 25 3e da 16 24 bd aa a7 09 3e
       0.10840675 0.16123499 -0.040060855 0.13442865
000190 2f c6 e9 3d 80 db 91 bd 48 e8 05 3e 0b f2 df bd
       0.11414754 -0.071219444 0.1307689 -0.10934838
0001a0 0c 46 bb 3d b9 cb 39 bd 8b 26 ec bc 45 42 03 3e
       0.0914422 -0.0453603 -0.028826972 0.12818249
0001b0 d2 9d 25 3e 7d d6 91 3d 14 79 cb 3d b4 69 1a 3d
       0.16173485 0.071209885 0.09935203 0.037698463
0001c0 64 c1 80 bd c0 47 f1 bd 1a 82 36 bd 80 a9 d6 bd
       -0.06286886 -0.11781263 -0.04455767 -0.10481548
0001d0 e9 71 1c 3e b0 21 88 3d e7 f9 c7 3d c7 85 a6 bd
       0.15277828 0.066470504 0.09764462 -0.08130985
0001e0 e6 86 4a bd 35 24 79 bd e6 b0 3d 3d 8a eb 3f 3e
       -0.049445055 -0.060825545 0.04631128 0.18742195
0001f0 ec 2e 25 bd b4 a8 18 be a2 45 9a 3d 95 50 74 3d
       -0.04032795 -0.14908105 0.07532813 0.05964716
000200 80 c4 01 be 75 c6 c4 3d 10 56 8a bd 53 0c 3d bc
       -0.12672615 0.09608165 -0.06754696 -0.011538583
000210 ea 28 f4 bd c8 08 6e bd cc 9c 95 bc 66 7b 89 bd
       -0.11921866 -0.058113843 -0.018263243 -0.067129895
000220 66 6c f7 bd 08 ca b3 bd 50 00 7a 3e 87 78 6d bd
       -0.12081222 -0.08778769 0.24414182 -0.057976272
000230 8f b5 c6 bc bb 36 2d bc 91 95 77 bd 15 c5 58 bd
       -0.024256496 -0.010572131 -0.060445372 -0.052922327
000240 47 30 dc 3c e0 16 62 bd ba 72 f4 3c 84 70 24 3b
       0.02687849 -0.055197597 0.029839862 0.0025091479
000250 df 11 98 3d c2 49 5f 3d b0 3d 7b 3d 73 f2 92 3d
       0.07425284 0.0545137 0.061338127 0.0717515
000260 42 9e 82 3d 35 d3 01 3d e9 b0 d9 3d 3e b1 02 be
       0.063778415 0.031695563 0.10629446 -0.12762925
000270 8d 6e 8e bb 8f 30 ff bd 2a 73 1c 3e b9 af a9 3d
       -0.004346675 -0.12460434 0.15278307 0.082854696
000280 4b 0b 8f 3d 0f 7a 32 3d f8 86 26 3d fb b1 ba bc
       0.06984576 0.043573435 0.04065606 -0.022789946
000290 6d 31 71 3d ee 4d a4 bd 4c d6 72 3c 8b da a8 bc
       0.058885027 -0.080226764 0.0148216 -0.020612022
0002a0 b5 41 f1 3d 1b f8 97 bd d9 61 e6 39 19 44 a1 3d
       0.11780111 -0.07420369 0.0004394192 0.07874317
0002b0 22 f8 e4 bc 57 08 f3 3d 5d 1b bd bc bf 66 a5 bd
       -0.02795035 0.11866825 -0.023084337 -0.08076238
0002c0 50 df 90 3b 60 59 1b bd 38 c2 a2 3c a1 27 95 3c
       0.004421152 -0.03792703 0.019868001 0.018207373
0002d0 99 08 86 bd 3a 14 f4 bd f4 99 bf 3d 74 7e af bc
       -0.065446086 -0.119179204 0.09355536 -0.021422602
0002e0 a5 30 4d bd 2c c0 e1 bc 4c ba 89 3c 74 56 5b 3c
       -0.05009522 -0.027557455 0.016812466 0.013387311
0002f0 68 0f dd 3d f4 1c 06 be 1c 18 14 3d 85 d3 ac 3d
       0.10793954 -0.13096982 0.036155805 0.08438782
000300 4c d2 bf 3d 1b 0f cd 3d ba 52 b4 3d 1b 13 f5 3b
       0.09366283 0.10012647 0.08804841 0.007479084
000310 31 b2 05 be 44 f9 c2 bd 6f c9 3e bd 97 fb 12 3e
       -0.13056256 -0.095202 -0.04657882 0.14353786
000320 6a 28 fb 3d 72 3f b8 3d 46 ee a8 3c 16 84 18 3e
       0.12263568 0.08996476 0.02062143 0.14894137
000330 f8 e5 26 be ed 3c d4 3d 50 e5 5b bc d1 89 ea bd
       -0.16298664 0.10363183 -0.013421372 -0.11452068
000340 7a de 46 3d eb e7 41 3d 34 ad e5 bc d9 87 08 be
       0.048552014 0.047340315 -0.028036691 -0.13333072
000350 31 84 ce bd e3 20 77 3c 10 4b 7c 3b 23 ab a5 3d
       -0.10083807 0.015083524 0.003849689 0.08089282
000360 39 36 ed 3c 41 c4 4a bd 48 b1 75 3b 2e 4d d1 bd
       0.02895652 -0.04950357 0.00374897 -0.10219799
000370 88 44 6c 3d 27 ec 85 3d dc de 33 bd 43 77 bb 3d
       0.057682544 0.06539183 -0.043913707 0.09153607
000380 84 54 05 3e f6 99 de bd 88 f8 08 bb 16 6a 53 3c
       0.13020521 -0.108692095 -0.002090009 0.012903711
000390 95 a7 13 be e6 60 c4 3d 15 8f 16 3e f9 2c a3 3d
       -0.14419396 0.095887944 0.14703019 0.07967562
0003a0 b8 c1 10 3d 0f 01 da bd 41 ff be bb 43 a0 af bc
       0.035340995 -0.10644733 -0.0058287685 -0.021438723
0003b0 a3 ff ef bd 24 1d c0 3d 93 86 65 3d 78 72 0c be
       -0.11718681 0.09380558 0.056036543 -0.13715541
0003c0 b4 42 1d bd 9b d3 22 3e ef af c7 ba fb 2f 1b 3d
       -0.03839369 0.15901034 -0.0015234927 0.037887555
0003d0 e4 ff ac bd af 16 98 3d f9 d8 4c bc a9 d8 15 3e
       -0.08447245 0.074262016 -0.012502902 0.1463343
0003e0 24 72 b7 bd 29 91 b7 bd 88 f2 b8 bd 98 41 ca bd
       -0.089573175 -0.08963234 -0.09030634 -0.09875792
0003f0 42 0b d5 bd 26 19 04 be 6e 7e 28 bd 61 dc ad 3c
       -0.10402538 -0.12900218 -0.041136198 0.021223249

bias f4 [50]
000000 01 e4 02 be e2 9a cd 3d d4 64 49 bd d6 d4 82 3d
       -0.12782289 0.10039307 -0.049168423 0.063882515
000010 0d ce b3 3d 32 ee aa bd 2b a8 0a 3e c4 4b ef 3c
       0.087795354 -0.083462134 0.13540713 0.029210933
000020 3e d0 85 bd d7 57 17 bd 3b e0 b4 3b 8a ee f5 3d
       -0.0653386 -0.036949005 0.0055198944 0.12008388
000030 54 96 0a 3e 93 47 ba 3d 3c c1 26 be f7 d5 b0 bd
       0.13533908 0.09095683 -0.1628465 -0.086345606
000040 59 e1 00 3e 68 b0 be bd 15 41 41 3d 80 bd 20 3e
       0.12585963 -0.093109906 0.047181208 0.15697289
000050 1d 7c 14 3e 96 56 71 3d 37 68 20 be 6a 74 13 bd
       0.1450047 0.058920465 -0.15664755 -0.035999693
000060 28 cd 2b 3e 3e 4a 00 be 48 b4 04 be 9b 63 4c bd
       0.1677748 -0.12528321 -0.12959397 -0.04989968
000070 87 d7 23 3d c0 39 41 be 26 f2 96 bd 60 32 86 bd
       0.040000465 -0.18869686 -0.07370405 -0.06552577
000080 69 e2 10 3e 41 aa 99 bd 6e 77 ed bd 72 bb c8 bd
       0.14148869 -0.075031765 -0.11595045 -0.09801377
000090 58 9e 27 3e 81 f3 2a 3e a2 96 07 be 9a 36 0f 3d
       0.16368997 0.16694452 -0.13241056 0.03496418
0000a0 01 34 38 3e 59 60 a0 bb b0 b8 7f bd f1 93 a6 3d
       0.17988588 -0.004894298 -0.06243199 0.08133686
0000b0 8c ea db bd c6 fa a0 3d c0 3c 31 be 89 26 15 be
       -0.10738096 0.07860331 -0.1730833 -0.14565481
0000c0 fa 92 e0 3d e3 a9 9c 3c
       0.109655336 0.019123977

mask f4 [50, 50]
000000 00 00 80 3f 00 00 80 3f 00 00 80 3f 00 00 80 3f
       1.0 1.0 1.0 1.0
000010 00 00 80 3f 00 00 80 3f 00 00 80 3f 00 00 80 3f
       1.0 1.0 1.0 1.0
000020 00 00 80 3f 00 00 80 3f 00 00 80 3f 00 00 80 3f
       1.0 1.0 1.0 1.0
000030 00 00 80 3f 00 00 80 3f 00 00 80 3f 00 00 80 3f
       1.0 1.0 1.0 1.0
000040 00 00 80 3f 00 00 80 3f 00 00 80 3f 00 00 80 3f
       1.0 1.0 1.0 1.0
000050 00 00 80 3f 00 00 80 3f 00 00 80 3f 00 00 80 3f
       1.0 1.0 1.0 1.0
000060 00 00 80 3f 00 00 80 3f 00 00 80 3f 00 00 80 3f
       1.0 1.0 1.0 1.0
000070 00 00 80 3f 00 00 80 3f 00 00 80 3f 00 00 80 3f
       1.0 1.0 1.0 1.0
000080 00 00 80 3f 00 00 80 3f 00 00 80 3f 00 00 80 3f
       1.0 1.0 1.0 1.0
000090 00 00 80 3f 00 00 80 3f 00 00 80 3f 00 00 80 3f
       1.0 1.0 1.0 1.0
0000a0 00 00 80 3f 00 00 80 3f 00 00 80 3f 00 00 80 3f
       1.0 1.0 1.0 1.0
0000b0 00 00 80 3f 00 00 80 3f 00 00 80 3f 00 00 80 3f
       1.0 1.0 1.0 1.0
0000c0 00 00 80 3f 00 00 80 3f 00 00 80 3f 00 00 80 3f
       1.0 1.0 1.0 1.0
0000d0 00 00 80 3f 00 00 80 3f 00 00 80 3f 00 00 80 3f
       1.0 1.0 1.0 1.0
0000e0 00 00 80 3f 00 00 80 3f 00 00 80 3f 00 00 80 3f
       1.0 1.0 1.0 1.0
0000f0 00 00 80 3f 00 00 80 3f 00 00 80 3f 00 00 80 3f
       1.0 1.0 1.0 1.0
000100 00 00 80 3f 00 00 80 3f 00 00 80 3f 00 00 80 3f
       1.0 1.0 1.0 1.0
000110 00 00 80 3f 00 00 80 3f 00 00 80 3f 00 00 80 3f
       1.0 1.0 1.0 1.0
000120 00 00 80 3f 00 00 80 3f 00 00 80 3f 00 00 80 3f
       1.0 1.0 1.0 1.0
000130 00 00 80 3f 00 00 80 3f 00 00 80 3f 00 00 80 3f
       1.0 1.0 1.0 1.0
000140 00 00 80 3f 00 00 80 3f 00 00 80 3f 00 00 80 3f
       1.0 1.0 1.0 1.0
000150 00 00 80 3f 00 00 80 3f 00 00 80 3f 00 00 80 3f
       1.0 1.0 1.0 1.0
000160 00 00 80 3f 00 00 80 3f 00 00 80 3f 00 00 80 3f
       1.0 1.0 1.0 1.0
000170 00 00 80 3f 00 00 80 3f 00 00 80 3f 00 00 80 3f
       1.0 1.0 1.0 1.0
000180 00 00 80 3f 00 00 80 3f 00 00 80 3f 00 00 80 3f
       1.0 1.0 1.0 1.0
000190 00 00 80 3f 00 00 80 3f 00 00 80 3f 00 00 80 3f
       1.0 1.0 1.0 1.0
0001a0 00 00 80 3f 00 00 80 3f 00 00 80 3f 00 00 80 3f
       1.0 1.0 1.0 1.0
0001b0 00 00 80 3f 00 00 80 3f 00 00 80 3f 00 00 80 3f
       1.0 1.0 1.0 1.0
0001c0 00 00 80 3f 00 00 80 3f 00 00 80 3f 00 00 80 3f
       1.0 1.0 1.0 1.0
0001d0 00 00 80 3f 00 00 80 3f 00 00 80 3f 00 00 80 3f
       1.0 1.0 1.0 1.0
0001e0 00 00 80 3f 00 00 80 3f 00 00 80 3f 00 00 80 3f
       1.0 1.0 1.0 1.0
0001f0 00 00 80 3f 00 00 80 3f 00 00 80 3f 00 00 80 3f
       1.0 1.0 1.0 1.0
000200 00 00 80 3f 00 00 80 3f 00 00 80 3f 00 00 80 3f
       1.0 1.0 1.0 1.0
000210 00 00 80 3f 00 00 80 3f 00 00 80 3f 00 00 80 3f
       1.0 1.0 1.0 1.0
000220 00 00 80 3f 00 00 80 3f 00 00 80 3f 00 00 80 3f
       1.0 1.0 1.0 1.0
000230 00 00 80 3f 00 00 80 3f 00 00 80 3f 00 00 80 3f
       1.0 1.0 1.0 1.0
000240 00 00 80 3f 00 00 80 3f 00 00 80 3f 00 00 80 3f
       1.0 1.0 1.0 1.0
000250 00 00 80 3f 00 00 80 3f 00 00 80 3f 00 00 80 3f
       1.0 1.0 1.0 1.0
000260 00 00 80 3f 00 00 80 3f 00 00 80 3f 00 00 80 3f
       1.0 1.0 1.0 1.0
000270 00 00 80 3f 00 00 80 3f 00 00 80 3f 00 00 80 3f
       1.0 1.0 1.0 1.0
000280 00 00 80 3f 00 00 80 3f 00 00 80 3f 00 00 80 3f
       1.0 1.0 1.0 1.0
000290 00 00 80 3f 00 00 80 3f 00 00 80 3f 00 00 80 3f
       1.0 1.0 1.0 1.0
0002a0 00 00 80 3f 00 00 80 3f 00 00 80 3f 00 00 80 3f
       1.0 1.0 1.0 1.0
0002b0 00 00 80 3f 00 00 80 3f 00 00 80 3f 00 00 80 3f
       1.0 1.0 1.0 1.0
0002c0 00 00 80 3f 00 00 80 3f 00 00 80 3f 00 00 80 3f
       1.0 1.0 1.0 1.0
0002d0 00 00 80 3f 00 00 80 3f 00 00 80 3f 00 00 80 3f
       1.0 1.0 1.0 1.0
0002e0 00 00 80 3f 00 00 80 3f 00 00 80 3f 00 00 80 3f
       1.0 1.0 1.0 1.0
0002f0 00 00 80 3f 00 00 80 3f 00 00 80 3f 00 00 80 3f
       1.0 1.0 1.0 1.0
000300 00 00 80 3f 00 00 80 3f 00 00 80 3f 00 00 80 3f
       1.0 1.0 1.0 1.0
000310 00 00 80 3f 00 00 80 3f 00 00 80 3f 00 00 80 3f
       1.0 1.0 1.0 1.0
000320 00 00 80 3f 00 00 80 3f 00 00 80 3f 00 00 80 3f
       1.0 1.0 1.0 1.0
000330 00 00 80 3f 00 00 80 3f 00 00 80 3f 00 00 80 3f
       1.0 1.0 1.0 1.0
000340 00 00 80 3f 00 00 80 3f 00 00 80 3f 00 00 80 3f
       1.0 1.0 1.0 1.0
000350 00 00 80 3f 00 00 80 3f 00 00 80 3f 00 00 80 3f
       1.0 1.0 1.0 1.0
000360 00 00 80 3f 00 00 80 3f 00 00 80 3f 00 00 80 3f
       1.0 1.0 1.0 1.0
000370 00 00 80 3f 00 00 80 3f 00 00 80 3f 00 00 80 3f
       1.0 1.0 1.0 1.0
000380 00 00 80 3f 00 00 80 3f 00 00 80 3f 00 00 80 3f
       1.0 1.0 1.0 1.0
000390 00 00 80 3f 00 00 80 3f 00 00 80 3f 00 00 80 3f
       1.0 1.0 1.0 1.0
0003a0 00 00 80 3f 00 00 80 3f 00 00 80 3f 00 00 80 3f
       1.0 1.0 1.0 1.0
0003b0 00 00 80 3f 00 00 80 3f 00 00 80 3f 00 00 80 3f
       1.0 1.0 1.0 1.0
0003c0 00 00 80 3f 00 00 80 3f 00 00 80 3f 00 00 80 3f
       1.0 1.0 1.0 1.0
0003d0 00 00 80 3f 00 00 80 3f 00 00 80 3f 00 00 80 3f
       1.0 1.0 1.0 1.0
0003e0 00 00 80 3f 00 00 80 3f 00 00 80 3f 00 00 80 3f
       1.0 1.0 1.0 1.0
0003f0 00 00 80 3f 00 00 80 3f 00 00 80 3f 00 00 80 3f
       1.0 1.0 1.0 1.0

weight f4 [50, 50]
000000 21 92 f2 3d 71 2e 17 3d d9 6d c3 bd b8 a4 a4 bc
       0.11844278 0.036909524 -0.09542436 -0.020098075
000010 7b b9 ee bd 51 7b 82 3e 6a 99 42 3d ae e4 fc 3c
       -0.11656471 0.25484708 0.04750959 0.030870762
000020 de b1 17 bc 2c 11 97 bc 3c 4c 6b 3d 85 f2 3e 3c
       -0.009258715 -0.018440805 0.05744575 0.011654501
000030 34 d9 9c 3d c6 eb 01 bd a9 9a 95 3d 11 8d 84 3d
       0.07658616 -0.03171899 0.0730489 0.06472219
000040 8e 4d c5 3d f8 5a 28 bd 6c 07 e4 bd 77 6d af bd
       0.09633933 -0.04110238 -0.11134228 -0.08565801
000050 a3 4c a2 bd ad d3 b0 bd f2 c0 0b 3e 95 e3 d0 3d
       -0.079247735 -0.08634124 0.13647822 0.10199658
000060 7f 9a 11 be 5f 86 c0 bd e2 69 3b be 66 fd a9 3d
       -0.14219092 -0.09400629 -0.1830211 0.08300285
000070 2e 20 1e 3d 63 b6 19 3e 39 ae 9a 3d ec 2a 02 be
       0.038604908 0.15010981 0.075527616 -0.12711686
000080 82 e4 0c 3d 34 6d b9 3c f5 7f 88 bc 18 8e 1d 3d
       0.03439761 0.02263508 -0.016662577 0.03846559
000090 38 57 99 3d f8 38 dd bd eb 06 df 3d 15 d8 e0 bd
       0.07487339 -0.108018816 0.108899914 -0.109787144
0000a0 9f ae 2c bd b3 c3 e8 3d d5 bd 37 3e 6d dc 07 be
       -0.04215872 0.11365452 0.17943509 -0.1326768
0000b0 6f 6b d0 bc c9 34 d0 bc 21 4d 24 3e b6 18 a3 bb
       -0.025441853 -0.025415795 0.16045047 -0.004977311
0000c0 56 ab 19 3d 50 14 fb 3d e7 e8 cb bc c4 92 d2 bd
       0.037516914 0.12259734 -0.02489133 -0.102818996
0000d0 de 43 c1 bd 6e bf 35 be bc 99 6a bd a5 81 5a 3e
       -0.09436773 -0.17748806 -0.05727552 0.21338518
0000e0 08 ce 1c be f1 45 6a 3e 30 08 d4 bd 37 a1 aa bc
       -0.1531297 0.22878243 -0.10353124 -0.020828826
0000f0 d4 a0 2d be 85 32 21 3d 5d 43 bb 3b ea e4 c0 bd
       -0.16955882 0.03935482 0.0057148174 -0.09418662
000100 df 18 2b 3e 6b c7 f7 3c ae f5 d0 bc 3b a4 83 3d
       0.16708706 0.030246457 -0.025507774 0.06427809
000110 69 20 53 bb af 95 12 be 0a d4 c9 bc 06 37 32 3d
       -0.0032215363 -0.14314912 -0.02463724 0.043509506
000120 ed c6 b4 bd 05 2b 6b bd 95 28 c4 bd 70 e2 fc bd
       -0.088270046 -0.057414073 -0.09578053 -0.12347877
000130 b8 c1 a9 3c ab 34 a5 bd 95 40 87 3d 06 bc 14 3e
       0.020722255 -0.08066686 0.06604115 0.1452485
000140 06 57 19 be ed 6b 12 bd 15 22 0e be 24 92 72 3d
       -0.14974603 -0.035747457 -0.13880189 0.0592214
000150 6d d8 9d bd 58 31 2b 3d 94 28 0f bd 49 b2 e8 bc
       -0.077072956 0.041795105 -0.034950808 -0.028405325
000160 44 21 81 3d 32 06 f3 3d 05 b4 87 bd fb 80 17 3e
       0.06305173 0.11866416 -0.06626133 0.14795296
000170 53 aa 20 3e a8 2c ed bc 2e f8 81 bc 9d 19 4e bc
       0.15689974 -0.028951958 -0.015865412 -0.012579349
000180 af 6a fb 3d 6e e0 39 bd c9 76 f0 3d 6c d8 9c bd
       0.12276208 -0.04538005 0.117414065 -0.07658467
000190 0b 96 9c 3d 57 12 26 bd 52 42 d7 bd fa d1 0f 3e
       0.07645806 -0.040544834 -0.105106965 0.14044943
0001a0 47 eb 7d 3d 09 0a f3 bc 05 76 22 3d 48 73 17 bd
       0.061991956 -0.029667871 0.039663333 -0.036975175
0001b0 b9 bc 5f 3d fe 53 b3 3d 14 cb ab bd bf 7b 18 3e
       0.05462334 0.087562546 -0.083883435 0.14890955
0001c0 fe d5 fb bc bd 43 47 bd da 66 2e be 74 5c d7 3d
       -0.030741688 -0.048648585 -0.17031422 0.10515681
0001d0 ac 92 de 3d bf 9a 3d bd 51 82 9b 3c ba 38 6c bd
       0.10867819 -0.046290156 0.018983038 -0.057671286
0001e0 82 8a 5d bd 8c 0d 36 3d 18 fc 1a 3d 4c 2f 9f 3d
       -0.05408717 0.044446513 0.03783807 0.07772693
0001f0 e7 78 e2 bd 96 a2 67 3d 89 2c 6d bd e3 72 c0 3d
       -0.110582165 0.05655154 -0.0579038 0.09396913
000200 97 6d 24 3e ef 4c 39 3d 61 5a b4 3d 56 d9 dc 3d
       0.1605743 0.045239385 0.08806301 0.10783641
000210 65 66 ad 3d 2f fa 71 3d 5b 66 07 bd 0f 61 b9 3c
       0.08466796 0.059076484 -0.0330566 0.022629289
000220 33 9d 9a bd a8 43 53 bd 1b 42 f5 bd d6 de c1 ba
       -0.075495146 -0.051578194 -0.11975499 -0.0014791142
000230 2e e6 eb bd ea dd 8f 3b a8 5f f4 bd 53 ac 96 bd
       -0.11518513 0.004390468 -0.119323075 -0.07357087
000240 6c 32 85 3d df 84 17 3e fd a0 c5 bd 60 27 40 be
       0.06503758 0.1479678 -0.09649847 -0.1876502
000250 3c a8 d7 3c 5a 52 56 bc 5d 03 c0 bd 1d 36 88 bd
       0.026325338 -0.013081158 -0.093756415 -0.06650946
000260 e1 da 69 3c 1f c9 ae 3c 44 2a 0a 3e c6 f3 40 be
       0.014273376 0.021336136 0.13492686 -0.18842992
000270 e2 f9 8d 3d c9 4b 3b 3d 0f 9c 7f 3d 4a 3d 5e bd
       0.06932427 0.04572657 0.06240469 -0.05425767
000280 06 6c 0a bd ac 70 90 bd 4f 48 b7 3d 7f d7 e1 bc
       -0.033794425 -0.070527405 0.08949339 -0.027568577
000290 ae 24 9d 3d 9b 3d 9d bc 63 ff 5d 3c 22 17 1c 3e
       0.07673012 -0.019194415 0.0135496585 0.152432
0002a0 92 80 5d bc f0 96 9f 3d 1c 26 19 3d 98 5e 85 3d
       -0.013519423 0.07792461 0.03738986 0.06512183
0002b0 36 cb ce bd 92 95 d6 bd ef fb bd 3d fd 64 88 3c
       -0.10097353 -0.10477747 0.09276568 0.016649717
0002c0 75 08 09 3d d7 45 a6 bd 97 f6 05 bd 0d 89 1b be
       0.03345533 -0.0811879 -0.03270587 -0.15189
0002d0 22 6c e1 bd ab 5f e2 3d 44 a9 73 bb db 4e cb 3d
       -0.11006953 0.110534035 -0.0037179748 0.0992715
0002e0 f3 f6 77 3d 8a c4 07 3d 7a b5 95 bd 8e 03 b5 3d
       0.060538244 0.03314642 -0.073100045 0.08838569
0002f0 83 04 d8 bd 6d 8d a7 bd 4f d9 ca bd ae ca 2a bd
       -0.105477355 -0.08181272 -0.099047296 -0.041697197
000300 7e dc b9 bc 58 af 8a bd 55 b6 fc 3c d7 78 5e bd
       -0.022688147 -0.067717254 0.030848661 -0.05431446
000310 b1 b8 e6 bc 63 ea 42 bd 22 e5 12 3d 45 0d c8 3d
       -0.02816424 -0.04758681 0.03586305 0.09768156
000320 d7 ea 88 bd 0c 48 89 3c d8 03 dd bd 11 45 f1 bc
       -0.06685417 0.016757987 -0.10791749 -0.029451879
000330 93 4f df bd 40 08 85 bd 1d 73 2a 3d 78 e2 9d bb
       -0.109038495 -0.06495714 0.041613687 -0.004818257
000340 43 d6 e0 3d 84 89 9b 3c f6 81 00 be 29 44 97 3d
       0.10978367 0.018986471 -0.12549576 0.073860474
000350 c3 5e 1a 3c 7c d0 13 be 4a 14 06 be a9 ba d6 3d
       0.009422007 -0.14434999 -0.13093677 0.10484821
000360 f9 28 d5 bc b6 fc 49 bd 22 97 b5 bd 40 94 a9 bd
       -0.026020514 -0.04931327 -0.08866717 -0.082802296
000370 f2 8b 8e bd dd a9 f4 3d 82 ff 77 3d d1 1e b4 bd
       -0.06960286 0.11946461 0.060546406 -0.0879494
000380 b4 2f f2 3d 80 77 82 bd 20 57 a5 bd 90 38 69 3d
       0.11825505 -0.06370449 -0.080732584 0.056938708
000390 e1 9f 20 3d 53 ea 04 bc 18 19 1f bd 2c af cf 3c
       0.039214972 -0.008112508 -0.03884229 0.025352083
0003a0 d2 6b 07 bd 3f df fa bc e5 db ef bd 41 ad 80 3c
       -0.03306181 -0.03062403 -0.117118634 0.015707614
0003b0 91 07 96 3d 34 99 bd 3c 27 1d aa 3d 9a 26 71 bd
       0.07325662 0.023144342 0.083063416 -0.058874704
0003c0 29 87 86 bd 49 14 01 3e f2 b8 4a bd f2 e6 2e 3e
       -0.065687485 0.12605394 -0.049492784 0.17080286
0003d0 fe f2 3b bc ae 18 b6 bd 86 0d de 3d ce b3 74 bb
       -0.011471508 -0.08891426 0.10842423 -0.0037338617
0003e0 32 af 89 3d 05 c6 00 3e 03 ca 08 3e b5 43 4a bd
       0.06722869 0.12575538 0.13358311 -0.049380977
0003f0 5c 7d 96 bd 89 f7 95 3d f7 3c 15 3e 9c b4 9d 3d
       -0.07348129 0.07322604 0.14574037 0.07700464

bias f4 [50]
000000 06 c6 d9 bd a0 d8 13 be 05 63 2d 3d 2f 0e b0 3c
       -0.10633473 -0.14438105 0.04233076 0.021491138
000010 c0 91 e5 bc b6 16 cb 3d ff c3 08 3e 8b 78 09 3d
       -0.0280236 0.09916441 0.13356017 0.033562224
000020 5c f9 db 3c f5 ae 87 3d d5 42 c0 bd 9f b2 7a bd
       0.026852302 0.06625167 -0.09387747 -0.061205503
000030 1f 22 22 bc b8 2c 12 3e 92 05 11 bd 67 be 2b bc
       -0.00989583 0.14274871 -0.035405703 -0.010482407
000040 28 58 21 3e 44 6f 08 3e b1 82 c7 bb 52 93 57 bd
       0.15756285 0.13323694 -0.0060885777 -0.05263073
000050 1e b1 83 3d 8a 59 73 bc f3 87 27 3e f8 f0 92 3c
       0.06430267 -0.014852891 0.16360454 0.017937168
000060 06 52 c0 3d e4 a9 35 bd 55 11 fd 3d 7d a7 af bd
       0.09390645 -0.044351473 0.123568214 -0.08576868
000070 bf a5 ad 3d 09 03 a7 bd c8 de a3 bc 0d fd f4 3d
       0.08478879 -0.08154876 -0.020003691 0.11962328
000080 c4 69 2a be 06 a7 98 3d 0e 1d 03 bd f4 e0 3f bd
       -0.16641909 0.07453732 -0.03201013 -0.04684539
000090 72 8f 03 bd 6e af 8a bd 0c 03 1b bb f5 b6 e1 3d
       -0.032119222 -0.06771742 -0.002365294 0.110212244
0000a0 5b 02 0b bd b0 5a 37 3d 78 dd 02 3d 3d 41 1b be
       -0.033937793 0.04476422 0.03194949 -0.15161605
0000b0 f4 2c 30 be 52 9f 20 3d 91 07 2f 3e f4 c5 c3 3c
       -0.17204648 0.03921444 0.1709273 0.023898102
0000c0 36 bb 7b bc 14 8f ca bd
       -0.015364459 -0.09890571

mask f4 [50, 50]
000000 00 00 80 3f 00 00 80 3f 00 00 80 3f 00 00 80 3f
       1.0 1.0 1.0 1.0
000010 00 00 80 3f 00 00 80 3f 00 00 80 3f 00 00 80 3f
       1.0 1.0 1.0 1.0
000020 00 00 80 3f 00 00 80 3f 00 00 80 3f 00 00 80 3f
       1.0 1.0 1.0 1.0
000030 00 00 80 3f 00 00 80 3f 00 00 80 3f 00 00 80 3f
       1.0 1.0 1.0 1.0
000040 00 00 80 3f 00 00 80 3f 00 00 80 3f 00 00 80 3f
       1.0 1.0 1.0 1.0
000050 00 00 80 3f 00 00 80 3f 00 00 80 3f 00 00 80 3f
       1.0 1.0 1.0 1.0
000060 00 00 80 3f 00 00 80 3f 00 00 80 3f 00 00 80 3f
       1.0 1.0 1.0 1.0
000070 00 00 80 3f 00 00 80 3f 00 00 80 3f 00 00 80 3f
       1.0 1.0 1.0 1.0
000080 00 00 80 3f 00 00 80 3f 00 00 80 3f 00 00 80 3f
       1.0 1.0 1.0 1.0
000090 00 00 80 3f 00 00 80 3f 00 00 80 3f 00 00 80 3f
       1.0 1.0 1.0 1.0
0000a0 00 00 80 3f 00 00 80 3f 00 00 80 3f 00 00 80 3f
       1.0 1.0 1.0 1.0
0000b0 00 00 80 3f 00 00 80 3f 00 00 80 3f 00 00 80 3f
       1.0 1.0 1.0 1.0
0000c0 00 00 80 3f 00 00 80 3f 00 00 80 3f 00 00 80 3f
       1.0 1.0 1.0 1.0
0000d0 00 00 80 3f 00 00 80 3f 00 00 80 3f 00 00 80 3f
       1.0 1.0 1.0 1.0
0000e0 00 00 80 3f 00 00 80 3f 00 00 80 3f 00 00 80 3f
       1.0 1.0 1.0 1.0
0000f0 00 00 80 3f 00 00 80 3f 00 00 80 3f 00 00 80 3f
       1.0 1.0 1.0 1.0
000100 00 00 80 3f 00 00 80 3f 00 00 80 3f 00 00 80 3f
       1.0 1.0 1.0 1.0
000110 00 00 80 3f 00 00 80 3f 00 00 80 3f 00 00 80 3f
       1.0 1.0 1.0 1.0
000120 00 00 80 3f 00 00 80 3f 00 00 80 3f 00 00 80 3f
       1.0 1.0 1.0 1.0
000130 00 00 80 3f 00 00 80 3f 00 00 80 3f 00 00 80 3f
       1.0 1.0 1.0 1.0
000140 00 00 80 3f 00 00 80 3f 00 00 80 3f 00 00 80 3f
       1.0 1.0 1.0 1.0
000150 00 00 80 3f 00 00 80 3f 00 00 80 3f 00 00 80 3f
       1.0 1.0 1.0 1.0
000160 00 00 80 3f 00 00 80 3f 00 00 80 3f 00 00 80 3f
       1.0 1.0 1.0 1.0
000170 00 00 80 3f 00 00 80 3f 00 00 80 3f 00 00 80 3f
       1.0 1.0 1.0 1.0
000180 00 00 80 3f 00 00 80 3f 00 00 80 3f 00 00 80 3f
       1.0 1.0 1.0 1.0
000190 00 00 80 3f 00 00 80 3f 00 00 80 3f 00 00 80 3f
       1.0 1.0 1.0 1.0
0001a0 00 00 80 3f 00 00 80 3f 00 00 80 3f 00 00 80 3f
       1.0 1.0 1.0 1.0
0001b0 00 00 80 3f 00 00 80 3f 00 00 80 3f 00 00 80 3f
       1.0 1.0 1.0 1.0
0001c0 00 00 80 3f 00 00 80 3f 00 00 80 3f 00 00 80 3f
       1.0 1.0 1.0 1.0
0001d0 00 00 80 3f 00 00 80 3f 00 00 80 3f 00 00 80 3f
       1.0 1.0 1.0 1.0
0001e0 00 00 80 3f 00 00 80 3f 00 00 80 3f 00 00 80 3f
       1.0 1.0 1.0 1.0
0001f0 00 00 80 3f 00 00 80 3f 00 00 80 3f 00 00 80 3f
       1.0 1.0 1.0 1.0
000200 00 00 80 3f 00 00 80 3f 00 00 80 3f 00 00 80 3f
       1.0 1.0 1.0 1.0
000210 00 00 80 3f 00 00 80 3f 00 00 80 3f 00 00 80 3f
       1.0 1.0 1.0 1.0
000220 00 00 80 3f 00 00 80 3f 00 00 80 3f 00 00 80 3f
       1.0 1.0 1.0 1.0
000230 00 00 80 3f 00 00 80 3f 00 00 80 3f 00 00 80 3f
       1.0 1.0 1.0 1.0
000240 00 00 80 3f 00 00 80 3f 00 00 80 3f 00 00 80 3f
       1.0 1.0 1.0 1.0
000250 00 00 80 3f 00 00 80 3f 00 00 80 3f 00 00 80 3f
       1.0 1.0 1.0 1.0
000260 00 00 80 3f 00 00 80 3f 00 00 80 3f 00 00 80 3f
       1.0 1.0 1.0 1.0
000270 00 00 80 3f 00 00 80 3f 00 00 80 3f 00 00 80 3f
       1.0 1.0 1.0 1.0
000280 00 00 80 3f 00 00 80 3f 00 00 80 3f 00 00 80 3f
       1.0 1.0 1.0 1.0
000290 00 00 80 3f 00 00 80 3f 00 00 80 3f 00 00 80 3f
       1.0 1.0 1.0 1.0
0002a0 00 00 80 3f 00 00 80 3f 00 00 80 3f 00 00 80 3f
       1.0 1.0 1.0 1.0
0002b0 00 00 80 3f 00 00 80 3f 00 00 80 3f 00 00 80 3f
       1.0 1.0 1.0 1.0
0002c0 00 00 80 3f 00 00 80 3f 00 00 80 3f 00 00 80 3f
       1.0 1.0 1.0 1.0
0002d0 00 00 80 3f 00 00 80 3f 00 00 80 3f 00 00 80 3f
       1.0 1.0 1.0 1.0
0002e0 00 00 80 3f 00 00 80 3f 00 00 80 3f 00 00 80 3f
       1.0 1.0 1.0 1.0
0002f0 00 00 80 3f 00 00 80 3f 00 00 80 3f 00 00 80 3f
       1.0 1.0 1.0 1.0
000300 00 00 80 3f 00 00 80 3f 00 00 80 3f 00 00 80 3f
       1.0 1.0 1.0 1.0
000310 00 00 80 3f 00 00 80 3f 00 00 80 3f 00 00 80 3f
       1.0 1.0 1.0 1.0
000320 00 00 80 3f 00 00 80 3f 00 00 80 3f 00 00 80 3f
       1.0 1.0 1.0 1.0
000330 00 00 80 3f 00 00 80 3f 00 00 80 3f 00 00 80 3f
       1.0 1.0 1.0 1.0
000340 00 00 80 3f 00 00 80 3f 00 00 80 3f 00 00 80 3f
       1.0 1.0 1.0 1.0
000350 00 00 80 3f 00 00 80 3f 00 00 80 3f 00 00 80 3f
       1.0 1.0 1.0 1.0
000360 00 00 80 3f 00 00 80 3f 00 00 80 3f 00 00 80 3f
       1.0 1.0 1.0 1.0
000370 00 00 80 3f 00 00 80 3f 00 00 80 3f 00 00 80 3f
       1.0 1.0 1.0 1.0
000380 00 00 80 3f 00 00 80 3f 00 00 80 3f 00 00 80 3f
       1.0 1.0 1.0 1.0
000390 00 00 80 3f 00 00 80 3f 00 00 80 3f 00 00 80 3f
       1.0 1.0 1.0 1.0
0003a0 00 00 80 3f 00 00 80 3f 00 00 80 3f 00 00 80 3f
       1.0 1.0 1.0 1.0
0003b0 00 00 80 3f 00 00 80 3f 00 00 80 3f 00 00 80 3f
       1.0 1.0 1.0 1.0
0003c0 00 00 80 3f 00 00 80 3f 00 00 80 3f 00 00 80 3f
       1.0 1.0 1.0 1.0
0003d0 00 00 80 3f 00 00 80 3f 00 00 80 3f 00 00 80 3f
       1.0 1.0 1.0 1.0
0003e0 00 00 80 3f 00 00 80 3f 00 00 80 3f 00 00 80 3f
       1.0 1.0 1.0 1.0
0003f0 00 00 80 3f 00 00 80 3f 00 00 80 3f 00 00 80 3f
       1.0 1.0 1.0 1.0

weight f4 [4, 50]
000000 80 03 bf 3d 80 8a 11 bb 06 ca ef 3d 26 27 3d bd
       0.093268394 -0.0022207797 0.11708455 -0.046179913
000010 38 22 9d 3d b4 ae 09 be 7d fb 01 3e f6 3a db 3d
       0.07672542 -0.1344555 0.12693591 0.10704605
000020 5c 4b dc 3d b8 aa a4 bd d4 55 23 3d 80 72 2f bb
       0.10756561 -0.080403745 0.039876774 -0.0026771128
000030 30 10 a8 3d 16 d5 bc bd 10 71 5f bc 76 84 f6 3d
       0.082062125 -0.092203304 -0.013637796 0.12036984
000040 98 0b ce 3c 98 3e 06 3d 72 f3 db 3d 14 3f 90 3d
       0.025152013 0.032774538 0.10739793 0.07043281
000050 a0 ee 24 3d 3d 1c 0f 3e 3e af c7 3d c9 83 05 be
       0.040266633 0.13975616 0.09750222 -0.13038553
000060 4c b9 9b 3d 54 66 c7 bc da 7e 9d bd 96 36 f6 3d
       0.07603702 -0.024340786 -0.07690211 0.1202213
000070 a0 a2 e2 3b ed 6b 9c bd b1 e2 09 3e a8 cd 88 bc
       0.006916359 -0.07637773 0.13465382 -0.016699627
000080 d0 7a 77 bc c4 1b 48 bd 8d ae d7 bd ce 7a d8 3d
       -0.015104964 -0.048854604 -0.1053134 0.10570298
000090 40 96 dc 3d 54 13 44 3d d4 32 ae 3d b4 3d d7 bd
       0.107708454 0.047869995 0.085057884 -0.10509816
0000a0 40 a0 1e 3b 12 08 13 bd 68 6b bb bd 00 43 44 bd
       0.0024204403 -0.03589637 -0.091513455 -0.04791546
0000b0 fe 46 e2 bd 8e ca 2a bd 0f b5 06 3e f4 96 d7 3d
       -0.11048697 -0.041697077 0.13155006 0.10526839
0000c0 80 40 31 3c 00 0b 33 3a 6e bd fa 3d 50 98 2a bc
       0.010818601 0.0006829947 0.12243162 -0.010412291
0000d0 6b f7 03 3e 7c 12 01 bd 04 1f 9b bc e0 7e a8 3d
       0.12887351 -0.03151177 -0.018935688 0.082273245
0000e0 00 96 7e 3d 35 f3 f0 bd e6 c8 a3 bd 80 7b 3c bd
       0.06215477 -0.11765138 -0.07997303 -0.046016216
0000f0 e0 64 a2 3b 78 8c c3 3c 78 30 19 3d a8 90 d6 3d
       0.004955873 0.023870692 0.03739974 0.1047681
000100 54 e4 21 bd c4 37 31 3d b8 93 ef 3c 00 81 82 3b
       -0.03952439 0.043266073 0.029245242 0.003982663
000110 80 95 86 3b 57 c8 cf bd 46 2e 9b 3d d2 f1 47 bd
       0.0041071773 -0.10145634 0.07577185 -0.048814602
000120 a6 b7 1e bd a6 3e d3 3d 28 f2 c9 3d 58 53 b3 3c
       -0.03874936 0.103146836 0.09860641 0.021890327
000130 bf ff 0c 3e 1a 19 db 3d 08 06 a7 bd 38 ce a2 3d
       0.13769434 0.10698147 -0.08155447 0.07949489
000140 ce 0c 0f be 23 6d 86 bd 11 f8 fd bd 3c f0 b6 3d
       -0.13969728 -0.06563785 -0.124008305 0.0893254
000150 70 8b d3 bd 0a ab fa bd 64 36 c9 bd 7d 68 01 3e
       -0.1032933 -0.12239654 -0.09824827 0.12637515
000160 14 8f e9 bd 20 99 54 3d 48 34 c9 bc a0 34 b3 3c
       -0.11404243 0.051903844 -0.024561062 0.02187568
000170 76 94 f0 3d 00 02 74 3d 4c c0 9a 3d ec 8c 3a 3d
       0.11747067 0.05957222 0.07556209 0.04554455
000180 b4 b9 e7 bc 1a 12 2a bd 6c 12 9e 3d 70 81 58 bc
       -0.028286792 -0.04152117 0.077183574 -0.013214454
000190 07 be 14 be 7f 02 0d be 75 b3 80 3d 9d c5 b9 3d
       -0.14525615 -0.13770483 0.06284229 0.09070895
0001a0 44 32 09 3a 47 4c 24 bd 09 8e b0 3d 4e 5d f7 bd
       0.00052336254 -0.040111806 0.08620841 -0.12078343
0001b0 7d ba b2 3c ad bb 5d 3c 6b 5e 2e 3c 53 55 c7 3b
       0.02181744 0.013533515 0.010642628 0.0060831695
0001c0 98 a5 45 3b 81 12 28 3e 62 44 92 3d 8a 38 c3 bd
       0.0030158516 0.16413309 0.07141949 -0.09532268
0001d0 06 c7 0b 3e 5e fc b1 3d 9c b6 db bc 98 46 f2 bd
       0.1365014 0.08690713 -0.026820473 -0.11829871
0001e0 0e bf 9b 3c 37 42 da bd 7c d6 e9 3d 61 92 c6 3d
       0.019012 -0.10657161 0.11417863 0.09695888
0001f0 c7 70 3d 3d 9f c5 8c bc 5f 7d b1 3d 50 8c 4e bc
       0.04625013 -0.017184077 0.08666491 -0.012606695
000200 4a 93 12 3e 22 45 e8 3d 7f 6c 07 be 2f fa ee 3d
       0.14313999 0.11341311 -0.13224982 0.116688125
000210 47 aa f1 bd fc a9 db 3d e5 bf 23 bd 6c d5 89 3d
       -0.11800056 0.10725781 -0.039977927 0.0673016
000220 74 02 76 bd 92 2c 94 bd 53 fb 0e 3a 9a 58 40 3d
       -0.060060933 -0.072350636 0.00054543203 0.046959497
000230 7e a6 52 bd 5d 30 9d 3d 93 f4 e7 bd 28 5f 97 bd
       -0.05142831 0.0767524 -0.11325946 -0.073911965
000240 19 9b 28 bd 24 5a ee 3d 6a 82 34 3e 55 f6 c9 3d
       -0.041163538 0.11638287 0.17627874 0.09861437
000250 7d eb 84 bd 4e d4 01 bd 73 40 52 3c de e4 e1 bd
       -0.06490228 -0.03169661 0.012832749 -0.11029981
000260 9f 39 f6 bd 8f 15 70 bd 83 19 2d bd 24 6c 8d 3c
       -0.12022709 -0.05861431 -0.042260658 0.01726348
000270 9e c5 08 be bd 20 e6 bd 9a 6f 0e 3d de ef 58 3d
       -0.13356635 -0.11236713 0.0347744 0.05296313
000280 15 0f 69 3c f5 39 df bb d9 5f 44 3b 45 4a 91 bd
       0.014224787 -0.006812329 0.0029964356 -0.07094244
000290 60 4b c5 3c 8c 8b df 3d 59 ff d2 bd d0 be e1 bd
       0.024083793 0.10915288 -0.1030261 -0.11022723
0002a0 72 41 1c bd 20 d7 9b bc d1 99 16 bd a9 16 ad 3c
       -0.03814835 -0.019023478 -0.036767785 0.02112897
0002b0 0f 74 cb 3d 83 ee 5c bc fa e8 aa 3d 36 6c 27 3c
       0.09934246 -0.0134846 0.08345218 0.010218671
0002c0 39 3a f1 bd 24 da 9b 3c 7e 99 07 3d 64 b1 58 bd
       -0.11778683 0.019024916 0.033105366 -0.052903548
0002d0 bc 29 1a 3e 38 a9 c3 3c 1d 3c 71 bd 6a cd a3 3d
       0.15054983 0.0238844 -0.05889522 0.07998164
0002e0 5a 1c 8e 3d 39 4a 20 3d 9d bd ca b9 be e4 9a 3d
       0.069390014 0.039133284 -0.00038669715 0.0756316
0002f0 82 4e 45 b9 35 05 bb 3d f4 68 8b 3d 6d e3 80 bd
       -0.0001881663 0.091318525 0.068071276 -0.06293378
000300 32 6f af bc 7f a1 59 bd 44 66 b6 3c bc 7f e4 3d
       -0.021415327 -0.05313253 0.02226556 0.11157176
000310 4c a6 49 bd 3c a7 20 bd 72 06 09 3e 65 34 ea 3d
       -0.04923086 -0.039221987 0.13381365 0.11435775

bias f4 [4]
000000 ac c3 16 3e c6 a7 af bd a1 aa 1a 3c 95 31 93 bd
       0.1472308 -0.08576922 0.009440095 -0.071871914

mask f4 [4, 50]
000000 00 00 00 00 00 00 00 00 00 00 00 00 00 00 00 00
       0.0 0.0 0.0 0.0
000010 00 00 00 00 00 00 00 00 00 00 00 00 00 00 00 00
       0.0 0.0 0.0 0.0
000020 00 00 00 00 00 00 00 00 00 00 00 00 00 00 00 00
       0.0 0.0 0.0 0.0
000030 00 00 00 00 00 00 00 00 00 00 00 00 00 00 00 00
       0.0 0.0 0.0 0.0
000040 00 00 00 00 00 00 00 00 00 00 00 00 00 00 00 00
       0.0 0.0 0.0 0.0
000050 00 00 00 00 00 00 00 00 00 00 00 00 00 00 00 00
       0.0 0.0 0.0 0.0
000060 00 00 00 00 00 00 00 00 00 00 00 00 00 00 00 00
       0.0 0.0 0.0 0.0
000070 00 00 00 00 00 00 00 00 00 00 00 00 00 00 00 00
       0.0 0.0 0.0 0.0
000080 00 00 00 00 00 00 00 00 00 00 00 00 00 00 00 00
       0.0 0.0 0.0 0.0
000090 00 00 00 00 00 00 00 00 00 00 00 00 00 00 00 00
       0.0 0.0 0.0 0.0
0000a0 00 00 00 00 00 00 00 00 00 00 00 00 00 00 00 00
       0.0 0.0 0.0 0.0
0000b0 00 00 00 00 00 00 00 00 00 00 00 00 00 00 00 00
       0.0 0.0 0.0 0.0
0000c0 00 00 00 00 00 00 00 00 00 00 00 00 00 00 00 00
       0.0 0.0 0.0 0.0
0000d0 00 00 00 00 00 00 00 00 00 00 00 00 00 00 00 00
       0.0 0.0 0.0 0.0
0000e0 00 00 00 00 00 00 00 00 00 00 00 00 00 00 00 00
       0.0 0.0 0.0 0.0
0000f0 00 00 00 00 00 00 00 00 00 00 00 00 00 00 00 00
       0.0 0.0 0.0 0.0
000100 00 00 00 00 00 00 00 00 00 00 00 00 00 00 00 00
       0.0 0.0 0.0 0.0
000110 00 00 00 00 00 00 00 00 00 00 00 00 00 00 00 00
       0.0 0.0 0.0 0.0
000120 00 00 00 00 00 00 00 00 00 00 00 00 00 00 00 00
       0.0 0.0 0.0 0.0
000130 00 00 00 00 00 00 00 00 00 00 00 00 00 00 00 00
       0.0 0.0 0.0 0.0
000140 00 00 00 00 00 00 00 00 00 00 00 00 00 00 00 00
       0.0 0.0 0.0 0.0
000150 00 00 00 00 00 00 00 00 00 00 00 00 00 00 00 00
       0.0 0.0 0.0 0.0
000160 00 00 00 00 00 00 00 00 00 00 00 00 00 00 00 00
       0.0 0.0 0.0 0.0
000170 00 00 00 00 00 00 00 00 00 00 00 00 00 00 00 00
       0.0 0.0 0.0 0.0
000180 00 00 00 00 00 00 00 00 00 00 00 00 00 00 00 00
       0.0 0.0 0.0 0.0
000190 00 00 80 3f 00 00 80 3f 00 00 80 3f 00 00 80 3f
       1.0 1.0 1.0 1.0
0001a0 00 00 80 3f 00 00 80 3f 00 00 80 3f 00 00 80 3f
       1.0 1.0 1.0 1.0
0001b0 00 00 80 3f 00 00 80 3f 00 00 80 3f 00 00 80 3f
       1.0 1.0 1.0 1.0
0001c0 00 00 80 3f 00 00 80 3f 00 00 80 3f 00 00 80 3f
       1.0 1.0 1.0 1.0
0001d0 00 00 80 3f 00 00 80 3f 00 00 80 3f 00 00 80 3f
       1.0 1.0 1.0 1.0
0001e0 00 00 80 3f 00 00 80 3f 00 00 80 3f 00 00 80 3f
       1.0 1.0 1.0 1.0
0001f0 00 00 80 3f 00 00 80 3f 00 00 80 3f 00 00 80 3f
       1.0 1.0 1.0 1.0
000200 00 00 80 3f 00 00 80 3f 00 00 80 3f 00 00 80 3f
       1.0 1.0 1.0 1.0
000210 00 00 80 3f 00 00 80 3f 00 00 80 3f 00 00 80 3f
       1.0 1.0 1.0 1.0
000220 00 00 80 3f 00 00 80 3f 00 00 80 3f 00 00 80 3f
       1.0 1.0 1.0 1.0
000230 00 00 80 3f 00 00 80 3f 00 00 80 3f 00 00 80 3f
       1.0 1.0 1.0 1.0
000240 00 00 80 3f 00 00 80 3f 00 00 80 3f 00 00 80 3f
       1.0 1.0 1.0 1.0
000250 00 00 80 3f 00 00 80 3f 00 00 80 3f 00 00 80 3f
       1.0 1.0 1.0 1.0
000260 00 00 80 3f 00 00 80 3f 00 00 80 3f 00 00 80 3f
       1.0 1.0 1.0 1.0
000270 00 00 80 3f 00 00 80 3f 00 00 80 3f 00 00 80 3f
       1.0 1.0 1.0 1.0
000280 00 00 80 3f 00 00 80 3f 00 00 80 3f 00 00 80 3f
       1.0 1.0 1.0 1.0
000290 00 00 80 3f 00 00 80 3f 00 00 80 3f 00 00 80 3f
       1.0 1.0 1.0 1.0
0002a0 00 00 80 3f 00 00 80 3f 00 00 80 3f 00 00 80 3f
       1.0 1.0 1.0 1.0
0002b0 00 00 80 3f 00 00 80 3f 00 00 80 3f 00 00 80 3f
       1.0 1.0 1.0 1.0
0002c0 00 00 80 3f 00 00 80 3f 00 00 80 3f 00 00 80 3f
       1.0 1.0 1.0 1.0
0002d0 00 00 80 3f 00 00 80 3f 00 00 80 3f 00 00 80 3f
       1.0 1.0 1.0 1.0
0002e0 00 00 80 3f 00 00 80 3f 00 00 80 3f 00 00 80 3f
       1.0 1.0 1.0 1.0
0002f0 00 00 80 3f 00 00 80 3f 00 00 80 3f 00 00 80 3f
       1.0 1.0 1.0 1.0
000300 00 00 80 3f 00 00 80 3f 00 00 80 3f 00 00 80 3f
       1.0 1.0 1.0 1.0
000310 00 00 80 3f 00 00 80 3f 00 00 80 3f 00 00 80 3f
       1.0 1.0 1.0 1.0
