LMD SNR/03a/ing_net_o3a_gpu.pt (torch, 281292 bytes, 79 tensors)

low f4 [2]
0	0xc1500000	-13.0
1	0x3a83126f	0.001

high f4 [2]
0	0x40a00000	5.0
1	0x3f800000	1.0

_shift f4 [2]
0	0x3f432642	0.7623025
1	0xbfde3982	-1.73613

_scale f4 [2]
0	0x3e44e20f	0.1922686
1	0x405ee1b5	3.482526

weight f4 [50, 2]
0	0xbf0d606d	-0.5522526
1	0x3efc27f6	0.49249238
2	0x3db06253	0.08612504
3	0xbd3127d0	-0.04325086
4	0xbd879870	-0.06620872
5	0x3edf2fde	0.43591207
6	0x3d258931	0.04041404
7	0xbf0311ff	-0.51199335
8	0x3e8279e8	0.25483632
9	0xbf0ae67c	-0.5425794
10	0x3eae97dc	0.34100235
11	0x3ea32126	0.31861228
12	0x3ee5e012	0.44897515
13	0x3e985136	0.2974946
14	0xbe8ee1aa	-0.27906543
15	0xbc2d1c80	-0.010565877
16	0x3edb0853	0.42779788
17	0xbeda8a77	-0.42683765
18	0x3e22d595	0.15901788
19	0x3ee321ea	0.44361812
20	0x3e069312	0.1314204
21	0x3e327fe4	0.17431599
22	0xbf3b21dd	-0.73098546
23	0xbe66db58	-0.2254461
24	0xbeb03ec7	-0.34422895
25	0x3e574de4	0.21025807
26	0xbf242833	-0.6412384
27	0xbf23de93	-0.64011496
28	0x3f161d10	0.58638096
29	0xbe8a6661	-0.27031234
30	0xbf230b7d	-0.63689405
31	0xbf2d23ae	-0.6763257
32	0xbecfa0d4	-0.4055239
33	0xbe9bc2c4	-0.30422032
34	0xbd2144ae	-0.03937214
35	0xbeefb958	-0.46821094
36	0x3d9f9e91	0.07793916
37	0xbea94460	-0.33059978
38	0x3f1dcd49	0.61641365
39	0xbf0b596d	-0.5443333
40	0x3e4109d9	0.18851413
41	0x3d8e66d0	0.06953204
42	0x3ea310f9	0.31848887
43	0x3ef9999a	0.4875
44	0xbde08746	-0.10963301
45	0xbe92e927	-0.28693506
46	0x3e5edba5	0.21763475
47	0x3f2c8d7d	0.67403394
48	0xbecb0c13	-0.3965765
49	0x3f347bd7	0.70501465
50	0x3f34b151	0.70583063
51	0xbe5a0598	-0.21291196
52	0x3f1b3337	0.6062502
53	0xbf27947a	-0.6546093
54	0x3f112d10	0.56709385
55	0xbf07637e	-0.5288619
56	0xbe003ee6	-0.12523994
57	0xbeee80dc	-0.46582687
58	0xbeabbf1f	-0.3354425
59	0x3e5e0ac8	0.216838
60	0x3f2ebbb6	0.68255174
61	0x3f048f17	0.5178084
62	0x3e0e2dc2	0.13884643
63	0xbeb6f2ad	-0.35732022
64	0xbf32d82d	-0.6986111
65	0xbe90aae8	-0.2825539
66	0xbeda940b	-0.42691073
67	0x3ef1f6fa	0.4725874
68	0x3e62e4e0	0.22157621
69	0xbf338cf6	-0.70136964
70	0x3e8238a3	0.25433835
71	0x3ee84186	0.4536249
72	0xbf16ef4f	-0.58958906
73	0xbecbd6bf	-0.39812276
74	0x3ee0563c	0.43815792
75	0x3edae81e	0.42755216
76	0xbedd47c2	-0.4321881
77	0x3f18fbbb	0.5975911
78	0xbe50203d	-0.20324798
79	0x3e89454e	0.26810688
80	0xbdfd0e8f	-0.123562925
81	0x3d2ae950	0.04172641
82	0x3effff5b	0.49999508
83	0xbe319304	-0.17341238
84	0x3dcb6e4c	0.09933147
85	0xbe16b8e4	-0.14718968
86	0x3e8ca5b0	0.2747016
87	0xbdc0ce20	-0.09414315
88	0xbe0da704	-0.13833243
89	0x3d8177f0	0.063217044
90	0xbcc03af7	-0.023465617
91	0xbf0bb72a	-0.5457636
92	0xbee203db	-0.44143566
93	0xbf2c4df0	-0.67306423
94	0xbd991eac	-0.07476553
95	0x3ddd05d0	0.10792124
96	0xbe709067	-0.23492585
97	0x3f2a9d7b	0.66646546
98	0xbee130cc	-0.43982542
99	0xbea3dc37	-0.32003948

bias f4 [50]
0	0x3f2018a0	0.62537575
1	0xbe36ff6a	-0.1787087
2	0x3f08586f	0.5325994
3	0x3de3207b	0.110901795
4	0x3eabe8fc	0.3357619
5	0xbf0d8a59	-0.55289227
6	0x3edc87e7	0.43072435
7	0xbea4e5ba	-0.32206517
8	0x3e36aebf	0.17840098
9	0xbeff4886	-0.49860018
10	0x3ed1b7ea	0.40960628
11	0x3f10e872	0.56604683
12	0xbcf3a9d1	-0.02974406
13	0xbae45013	-0.0017418884
14	0x3f13381b	0.57507485
15	0x3f04d5b8	0.5188861
16	0x3e4430ca	0.19159237
17	0x3da12328	0.07868034
18	0x3e91f1f8	0.2850492
19	0xbf1dee75	-0.6169198
20	0xbf04209a	-0.51612246
21	0xbe28cb7e	-0.16483876
22	0x3e57483a	0.21023646
23	0x3e68d1c7	0.22736274
24	0xbe7fb256	-0.24970374
25	0xbf179400	-0.59210205
26	0xbef679a3	-0.48139676
27	0xbc8a6a6f	-0.016896455
28	0xbf0e777f	-0.55651087
29	0xbe33741e	-0.17524764
30	0x3e8d98ed	0.27655736
31	0xbe88bc5d	-0.2670621
32	0x3f0a21ef	0.5395803
33	0xbe441314	-0.19147903
34	0x3f104597	0.56356186
35	0x3e84ee7c	0.259632
36	0xbda8c8c5	-0.08241419
37	0x3f13e93a	0.5777775
38	0xbe06a672	-0.13149431
39	0x3f318dec	0.6935718
40	0x3e963afa	0.2934187
41	0xbe5c1cb4	-0.21495324
42	0x3e1d6987	0.15372287
43	0x3f07b4d1	0.5301028
44	0xbdcd0ec4	-0.10012582
45	0x3f22d8b6	0.63611925
46	0x3ef9f18b	0.48817095
47	0x3d470731	0.048590843
48	0xbecfaf50	-0.4056344
49	0x3e45f86c	0.19333047

mask f4 [50, 2]
0	0x3f800000	1.0
1	0x00000000	0.0
2	0x3f800000	1.0
3	0x00000000	0.0
4	0x3f800000	1.0
5	0x00000000	0.0
6	0x3f800000	1.0
7	0x00000000	0.0
8	0x3f800000	1.0
9	0x00000000	0.0
10	0x3f800000	1.0
11	0x00000000	0.0
12	0x3f800000	1.0
13	0x00000000	0.0
14	0x3f800000	1.0
15	0x00000000	0.0
16	0x3f800000	1.0
17	0x00000000	0.0
18	0x3f800000	1.0
19	0x00000000	0.0
20	0x3f800000	1.0
21	0x00000000	0.0
22	0x3f800000	1.0
23	0x00000000	0.0
24	0x3f800000	1.0
25	0x00000000	0.0
26	0x3f800000	1.0
27	0x00000000	0.0
28	0x3f800000	1.0
29	0x00000000	0.0
30	0x3f800000	1.0
31	0x00000000	0.0
32	0x3f800000	1.0
33	0x00000000	0.0
34	0x3f800000	1.0
35	0x00000000	0.0
36	0x3f800000	1.0
37	0x00000000	0.0
38	0x3f800000	1.0
39	0x00000000	0.0
40	0x3f800000	1.0
41	0x00000000	0.0
42	0x3f800000	1.0
43	0x00000000	0.0
44	0x3f800000	1.0
45	0x00000000	0.0
46	0x3f800000	1.0
47	0x00000000	0.0
48	0x3f800000	1.0
49	0x00000000	0.0
50	0x3f800000	1.0
51	0x00000000	0.0
52	0x3f800000	1.0
53	0x00000000	0.0
54	0x3f800000	1.0
55	0x00000000	0.0
56	0x3f800000	1.0
57	0x00000000	0.0
58	0x3f800000	1.0
59	0x00000000	0.0
60	0x3f800000	1.0
61	0x00000000	0.0
62	0x3f800000	1.0
63	0x00000000	0.0
64	0x3f800000	1.0
65	0x00000000	0.0
66	0x3f800000	1.0
67	0x00000000	0.0
68	0x3f800000	1.0
69	0x00000000	0.0
70	0x3f800000	1.0
71	0x00000000	0.0
72	0x3f800000	1.0
73	0x00000000	0.0
74	0x3f800000	1.0
75	0x00000000	0.0
76	0x3f800000	1.0
77	0x00000000	0.0
78	0x3f800000	1.0
79	0x00000000	0.0
80	0x3f800000	1.0
81	0x00000000	0.0
82	0x3f800000	1.0
83	0x00000000	0.0
84	0x3f800000	1.0
85	0x00000000	0.0
86	0x3f800000	1.0
87	0x00000000	0.0
88	0x3f800000	1.0
89	0x00000000	0.0
90	0x3f800000	1.0
91	0x00000000	0.0
92	0x3f800000	1.0
93	0x00000000	0.0
94	0x3f800000	1.0
95	0x00000000	0.0
96	0x3f800000	1.0
97	0x00000000	0.0
98	0x3f800000	1.0
99	0x00000000	0.0

weight f4 [50, 4]
0	0x3ea26342	0.31716353
1	0xbe4a2aac	-0.1974284
2	0xbe5a0590	-0.21291184
3	0xbe353385	-0.17695434
4	0x3d7ea060	0.062164664
5	0x3ee74ab2	0.45174176
6	0xbeed1c6b	-0.46310744
7	0x3d33011e	0.043702237
8	0xbebf0386	-0.37307376
9	0xbe482d7d	-0.19548602
10	0xbee7b0ae	-0.45251983
11	0xbe19fb3d	-0.15037246
12	0x3d875830	0.06608617
13	0xbdfcda8d	-0.12346373
14	0xbe7e1273	-0.24811725
15	0xbe21f679	-0.15816678
16	0xbda1e6b0	-0.07905328
17	0x3e726779	0.23672284
18	0xbd8420ac	-0.06451544
19	0xbe0b0775	-0.13577063
20	0xbe463a6c	-0.19358224
21	0xbe87416f	-0.2641711
22	0x3e6f8327	0.23389874
23	0xbeee757e	-0.46574014
24	0x3f1d94bd	0.6155508
25	0x3e8baf1f	0.27282044
26	0xbd8bdf1c	-0.06829664
27	0x3db36842	0.0876012
28	0xbe7e2af6	-0.24821076
29	0xbdbd0420	-0.092293024
30	0x3ee09105	0.4386064
31	0xbd64c02f	-0.055847343
32	0xbf118463	-0.5684263
33	0xbf086744	-0.5328257
34	0xbdf3a5d0	-0.118968606
35	0xbbcea50d	-0.0063062967
36	0x3ea82f63	0.32848653
37	0xbe0df320	-0.13862276
38	0x3e0fdefb	0.14049904
39	0xbea9fbdf	-0.33199975
40	0x3d3a1b3a	0.04543612
41	0x3de05dbb	0.10955378
42	0xbf020aff	-0.5079803
43	0x3eea50c4	0.45764744
44	0x3cd7e49c	0.026354127
45	0x3d7dc753	0.06195767
46	0xbe2039b3	-0.1564701
47	0x3ec8dc4f	0.39230582
48	0xbed1fd57	-0.41013595
49	0x3e91704a	0.28405982
50	0x3f06618d	0.524926
51	0x3dc23a73	0.094838046
52	0xbe8e4101	-0.2778397
53	0xbc9b065d	-0.018923933
54	0xbd980858	-0.074234664
55	0xbdf72857	-0.12068241
56	0x3dd9ae66	0.10628967
57	0xbec2fc74	-0.3808323
58	0x3e7905a1	0.24318554
59	0xbcc8d58b	-0.024515888
60	0xbdcac57f	-0.09900951
61	0xbe362da4	-0.17790848
62	0xbebdce82	-0.37071615
63	0x3e6a6668	0.22890627
64	0x3d45474e	0.048163705
65	0x3ee28575	0.44242445
66	0x3e888984	0.26667416
67	0xbea11486	-0.3146097
68	0xbf020a68	-0.5079713
69	0x3efa823d	0.4892749
70	0x3ee38975	0.4444081
71	0x3d06d6b5	0.032919604
72	0x3e0757a1	0.13217022
73	0x3e8271a7	0.25477335
74	0xbe23320a	-0.15937057
75	0x3ded821e	0.115970835
76	0xbdd7c971	-0.10536469
77	0x3de2960b	0.11063775
78	0x3dc2eb6b	0.09517559
79	0xbed766bb	-0.42070565
80	0xbedd1cb3	-0.43185958
81	0xbca21d7e	-0.019789454
82	0x3ddeac98	0.108727634
83	0x3e945378	0.28969932
84	0x3ba3fa2a	0.005004187
85	0x3e2a9536	0.16658482
86	0xbdc3891a	-0.095476344
87	0xbd2371d7	-0.039903488
88	0xbea7fd3c	-0.3281039
89	0x3e7509ca	0.23929515
90	0xbe888d9a	-0.26670533
91	0xbe8616ee	-0.2618937
92	0xbd411b16	-0.04714497
93	0xbe48b729	-0.1960112
94	0xbd848d81	-0.06472302
95	0x3ed2fa84	0.41206753
96	0xbe0a6ee9	-0.13518871
97	0x3ef6008b	0.4804729
98	0x3f04e33c	0.5190923
99	0xbed00755	-0.40630594
100	0xbecd13f8	-0.40054297
101	0x3ea51f30	0.32250357
102	0x3ebbf3a6	0.36709327
103	0x3e576a81	0.21036722
104	0x3e88f9ea	0.2675317
105	0xbef30888	-0.47467446
106	0xbf043af8	-0.5165248
107	0xbc8acb92	-0.016942773
108	0xbef24f28	-0.47326016
109	0x3d6b721c	0.05748187
110	0xbdbf1fda	-0.09332247
111	0xbe8487ab	-0.25884756
112	0xbe994c47	-0.29941007
113	0x3ec2b67e	0.38029855
114	0xbea56910	-0.3230672
115	0xbed2bacc	-0.4115814
116	0xbec9ce96	-0.39415425
117	0x3eb2a6aa	0.3489278
118	0xbe4f37c3	-0.20236115
119	0x3e500fc1	0.2031851
120	0x3ee2f0d2	0.44324356
121	0xbed26174	-0.41089976
122	0xbeb4bf09	-0.35301998
123	0xbe8a4240	-0.2700367
124	0x3eeccc17	0.46249458
125	0x3ea30229	0.31837586
126	0xbee30343	-0.44338426
127	0xbe56073b	-0.20901196
128	0xbea363a7	-0.31911966
129	0xbe83387b	-0.2562903
130	0x3eb3afd2	0.35095078
131	0x3edbacf9	0.42905405
132	0x3ed41eba	0.41429693
133	0xbe8fd477	-0.28091785
134	0x3dc747f9	0.097305246
135	0xbd69085b	-0.056892734
136	0xbebcb3e3	-0.36855993
137	0x3d87fa24	0.066395074
138	0x3e8a1c59	0.26974753
139	0x3e457c3d	0.19285674
140	0xbec33872	-0.38129002
141	0x3e7b1689	0.24520315
142	0x3dde8e0d	0.10866938
143	0xbe88d2ac	-0.2672323
144	0x3e8275c8	0.25480485
145	0xbcd43e57	-0.025908632
146	0xbd8aa764	-0.067702085
147	0x3e7ff023	0.24993949
148	0xbeb6aae2	-0.35677248
149	0xbe98e05b	-0.2985867
150	0x3eeeec58	0.4666469
151	0x3ebc76ef	0.3680949
152	0x3e8762cb	0.2644256
153	0xbd8cbeac	-0.06872305
154	0x3e2b4cf1	0.1672857
155	0x3e8cb6f7	0.2748334
156	0xbea4d5c9	-0.32194355
157	0xbd33c7c0	-0.04389167
158	0xbe735ba0	-0.23765421
159	0xbd5cc2bd	-0.053896654
160	0xbe959bd5	-0.29220453
161	0xbe8379a8	-0.25678754
162	0x3ef2958f	0.4737973
163	0xbeb174e1	-0.34659484
164	0x3efd6311	0.49489644
165	0x3ea3dd4d	0.32004777
166	0xbe44d689	-0.19222464
167	0x3f233237	0.63748497
168	0xbe77cda0	-0.24199533
169	0x3e75bb4e	0.23997232
170	0x3e798beb	0.2436978
171	0xbe60ef27	-0.2196623
172	0x3ecdd024	0.4019786
173	0x3e84390d	0.25824776
174	0xbea2996b	-0.31757674
175	0x3e909ffa	0.28247052
176	0x3eb01864	0.3439361
177	0x3d237250	0.03990394
178	0xbdb90bf0	-0.0903548
179	0x3e9c1e34	0.30491793
180	0x3e5428c7	0.2071868
181	0xbef98837	-0.48736736
182	0x3ee0c0fd	0.43897238
183	0x3e4621d9	0.1934885
184	0x3eaa10f3	0.33216056
185	0x3d10bff5	0.035339314
186	0x3e61613e	0.22009751
187	0xbe722e1d	-0.23650403
188	0x3e992b94	0.2991606
189	0xbef0aa78	-0.47005057
190	0x3e9be926	0.30451316
191	0xbe75ee33	-0.24016647
192	0x3ece4ad7	0.40291473
193	0x3ecf9242	0.40541273
194	0x3cf782d5	0.030213753
195	0x3e6f2082	0.23352244
196	0x3ee91d9a	0.45530397
197	0xbea9c75f	-0.3315992
198	0xbbd6b3c5	-0.006552192
199	0xbd6f6428	-0.058445126

bias f4 [50]
0	0xbea5477d	-0.32281104
1	0x3c200a5d	0.009768096
2	0xbf0f7ef1	-0.5605307
3	0x3dfc7e14	0.12328735
4	0x3d0030a1	0.031296376
5	0x3e11072c	0.14162892
6	0x3e862fa6	0.26208228
7	0x3e685e4d	0.22692223
8	0xbecfebdf	-0.40609643
9	0x3d7391f2	0.059465356
10	0x3d28c358	0.04120192
11	0xbdc5ff86	-0.09667878
12	0x3e52193e	0.20517442
13	0xbd8f3578	-0.0699262
14	0xbeae69b1	-0.3406501
15	0x3e308fd6	0.17242369
16	0xbea71584	-0.32633603
17	0x3dfc5a27	0.12321883
18	0xbe8f7e48	-0.28026032
19	0x3dfbec54	0.123009354
20	0x3e8cf193	0.27528057
21	0x3e93fa51	0.28901914
22	0x3e5d6c9a	0.2162346
23	0xbdb2de40	-0.08733797
24	0x3eedab3e	0.4641971
25	0x3e08f8e0	0.13376188
26	0xbddd1626	-0.1079524
27	0xbdd10890	-0.10206711
28	0x3d7f324c	0.062303826
29	0x3ed45ada	0.41475564
30	0xbee6cd0a	-0.45078307
31	0xbd5af13d	-0.05345272
32	0xbe3b6ac6	-0.1830245
33	0x3d446d96	0.04795607
34	0xbd8a0ce3	-0.06740739
35	0xbe011df5	-0.12609084
36	0x3e8c3577	0.2738454
37	0xbc5dbdab	-0.01353399
38	0xbe864953	-0.26227817
39	0x3d024bd6	0.031810604
40	0xbe2a9067	-0.16656648
41	0x3e6a7ef8	0.22899997
42	0xbe2f09dc	-0.17093605
43	0xbe606d97	-0.21916805
44	0xbec06e27	-0.3758404
45	0xbef88550	-0.4853921
46	0x3e6a9fa2	0.22912458
47	0xbe23d6b9	-0.15999879
48	0xbeff1d0c	-0.49826849
49	0x3ead1fc5	0.338133

weight f4 [50, 50]
0	0xbd729a80	-0.059229374
1	0xbd0b7cae	-0.03405445
2	0xbe00a665	-0.12563474
3	0xbdab5b68	-0.08367044
4	0x3da72e42	0.0816312
5	0x3d02a277	0.03189322
6	0xbdc7a2cb	-0.09747847
7	0xbd6e5276	-0.05818411
8	0xbdb99be5	-0.09062938
9	0x3dac2565	0.0840557
10	0x3ccd69b5	0.02507482
11	0xbd0154e8	-0.031575114
12	0xbc90defa	-0.017684449
13	0x3c21af49	0.009868451
14	0x3e0c30ec	0.13690537
15	0xbe017b1a	-0.12644616
16	0xbd77e8bf	-0.0605247
17	0x3d867a3c	0.06566283
18	0xbcf358bb	-0.029705396
19	0xbcab92eb	-0.02094408
20	0xbd7a8b09	-0.06116775
21	0x3d515f3e	0.05111622
22	0x3e467e7c	0.19384187
23	0xbd0b00fa	-0.03393648
24	0xbd977082	-0.07394506
25	0x3e3be8f5	0.18350585
26	0xbdb1c79d	-0.08680651
27	0x3e5f4756	0.21804556
28	0xbc6b46ed	-0.014360172
29	0xbe5ecbf9	-0.21757497
30	0x3e0cf1a6	0.13764057
31	0x3dce152a	0.100626305
32	0xbea93b17	-0.33052894
33	0xbd8c6c0f	-0.06856548
34	0xbddf3547	-0.10898834
35	0x3e27ee09	0.16399397
36	0xbe4f8087	-0.20263873
37	0xbdbc82e8	-0.09204656
38	0xbe2bd7b8	-0.16781509
39	0x3df6aed9	0.12045068
40	0x3dfe3636	0.12412684
41	0xbe153546	-0.14571103
42	0xbd31560d	-0.043294955
43	0xbdadc0e6	-0.08484058
44	0xbdb90b5f	-0.09035372
45	0x3dd1792b	0.10228189
46	0xbd9b4d68	-0.075831234
47	0x3e091e02	0.13390353
48	0x3c90cb46	0.017675053
49	0xbcc158e6	-0.02360196
50	0xbcaafba7	-0.02087195
51	0x3e17d346	0.14826688
52	0x3d540aa6	0.051767968
53	0xbe307f29	-0.17236008
54	0x3e0308e7	0.12796365
55	0x3ce778ff	0.028255938
56	0x3b34e95e	0.0027604918
57	0x3d603525	0.054738183
58	0xbd2dc8bd	-0.042427767
59	0xbddf595d	-0.109057166
60	0x3d545adf	0.051844474
61	0x3e4f7f47	0.20263396
62	0x3dbf7845	0.093491115
63	0xbe05804b	-0.13037221
64	0x3af00d81	0.0018314571
65	0x3c863c39	0.016386138
66	0x3d852a85	0.065022506
67	0xbdba4a4e	-0.09096204
68	0xbd3a1888	-0.04543355
69	0xbd982e12	-0.07430662
70	0x3bb4a366	0.0055126427
71	0x3e0195e5	0.12654836
72	0xbc984727	-0.018588616
73	0x3d6d7eb0	0.057982147
74	0xbdd98b76	-0.10622303
75	0xbde9efd0	-0.11422694
76	0x3e0ea978	0.13931835
77	0xbd6e6ff9	-0.058212254
78	0xbd7e940e	-0.062152915
79	0x3e4fd2fa	0.20295325
80	0xbe15a733	-0.14614563
81	0xbda00395	-0.07813183
82	0x3e291ae0	0.16514158
83	0x3d134206	0.035951637
84	0xbde229b5	-0.11043111
85	0x3de7df13	0.11321845
86	0x3d7cf341	0.061755423
87	0x3db803db	0.0898511
88	0x3e51f059	0.20501842
89	0x3dabfe46	0.08398108
90	0xbd84433b	-0.06458136
91	0xbd60de01	-0.05489922
92	0xbd4d6230	-0.050142467
93	0xbdf8b13f	-0.12143182
94	0x3e644673	0.22292499
95	0x3cb74d20	0.022375643
96	0xbd5120bf	-0.05105662
97	0xbd84ce5b	-0.06484672
98	0xbd888b07	-0.06667142
99	0xbd71c7ef	-0.059028562
100	0x3c9888cc	0.018619917
101	0x3d6dfd71	0.05810303
102	0xbdfbcbc5	-0.12294725
103	0x3daece7e	0.08535479
104	0xbb265584	-0.002538056
105	0x3dd97509	0.10618026
106	0x3df3be5b	0.11901542
107	0x3d0ce9f7	0.034402814
108	0xbc29b356	-0.010357698
109	0xbcbccc98	-0.023046777
110	0xbba285bd	-0.0049597905
111	0x3e3b7b98	0.18308866
112	0xbe3ce8ec	-0.18448228
113	0x3e0f40eb	0.13989608
114	0x3dfbc9e1	0.12294365
115	0xbdb0a667	-0.08625489
116	0xbd963e2a	-0.073360756
117	0xbdc131e9	-0.09433348
118	0x3dcc8142	0.099855915
119	0xbe17cb2d	-0.14823599
120	0x3d99574a	0.07487352
121	0x3dba88b2	0.09108104
122	0xbd1965e2	-0.03745068
123	0xbd98759e	-0.07444309
124	0xbe02df95	-0.12780602
125	0xbe31befc	-0.17358011
126	0xbd4d17f4	-0.05007167
127	0xbe09002e	-0.13378975
128	0xbd549463	-0.051899325
129	0x3d8c7d0f	0.068597905
130	0x3c0243d1	0.007950739
131	0xbe2be643	-0.16787057
132	0x3e861bc5	0.2619306
133	0x3b4dc829	0.0031399822
134	0x3df80d9c	0.12111971
135	0x3d862b01	0.06551171
136	0x3e402ff3	0.18768291
137	0x3daf9f68	0.08575326
138	0x3e0eeee9	0.13958324
139	0x3d141491	0.036152426
140	0xbcbfd88f	-0.023418693
141	0x3b48da84	0.0030647824
142	0xbd7a5ccd	-0.061123658
143	0x3e003d31	0.12523343
144	0x3ccd9c49	0.025098937
145	0x3df6dd73	0.12053957
146	0x3deaed5c	0.11471054
147	0x3e1f7271	0.15571
148	0xbd08debf	-0.033415552
149	0xbdb35223	-0.08755901
150	0x3d5c38a5	0.053764958
151	0xbd0421d8	-0.03225884
152	0x3d4fbb2a	0.050715603
153	0x3d9b4635	0.0758175
154	0xbc99e942	-0.018787984
155	0xbe1e2be9	-0.15446438
156	0xbd4e5d19	-0.050381754
157	0x3dfd96ac	0.12382254
158	0x3db8ede2	0.090297475
159	0x3dc4c19f	0.09607243
160	0xbc0dc370	-0.008652553
161	0xbc08ba55	-0.008345206
162	0xbdf3b26a	-0.11899264
163	0xbe0f575a	-0.13998166
164	0x3dbd3437	0.09238475
165	0xbd69fd91	-0.057126585
166	0xbdd0f748	-0.10203415
167	0x3e1c77c7	0.15280066
168	0x3e20bfee	0.15698215
169	0xbc656ab3	-0.01400249
170	0x3c4967af	0.0122927865
171	0x3de1c023	0.11022975
172	0x3caf2992	0.021382127
173	0xbd7122ca	-0.058871068
174	0x3c5d3aa2	0.013502749
175	0xbe074e43	-0.13213448
176	0xbdffe114	-0.12494102
177	0xbe408093	-0.18799047
178	0x3bece59d	0.0072295205
179	0xbd661d19	-0.056180093
180	0xbd753444	-0.059864298
181	0xbd9b4316	-0.07581155
182	0x3d7b2954	0.06131871
183	0x3de359e8	0.11101133
184	0x3db558cb	0.088548265
185	0x3dd455bf	0.10367917
186	0x3e06ce44	0.13164622
187	0x3e085224	0.13312584
188	0x3d1cb825	0.03826155
189	0x3d6f3ee5	0.05840959
190	0xbcbd6aae	-0.023122158
191	0x3d81f508	0.06345564
192	0xbaff9df8	-0.0019502034
193	0x3d652dc0	0.055951834
194	0x3e4787d4	0.19485408
195	0x3d99ccdf	0.07509779
196	0xbd849602	-0.06473924
197	0xbbf38b0c	-0.007432347
198	0xbcedc74d	-0.029025698
199	0xbd028d9a	-0.031873323
200	0xbc9e6d62	-0.019339267
201	0x3d35db94	0.04439886
202	0x3c9f35f2	0.019434903
203	0x3cf48b1a	0.029851485
204	0x3dd275bc	0.10276362
205	0x3def3a82	0.11681081
206	0x3c8c9360	0.017160118
207	0x3db44a9b	0.08803292
208	0x3d866c3c	0.06563613
209	0x3e43f343	0.19135766
210	0x3dc1dcbf	0.09465932
211	0xbe8526b0	-0.2600608
212	0x3e2f6f99	0.17132415
213	0xbdae87af	-0.08521973
214	0x3d56561a	0.052328207
215	0xbe37c5fa	-0.17946616
216	0x3d51c422	0.051212437
217	0xbd860e7a	-0.0654573
218	0xbe085ad3	-0.13315897
219	0x3da1207f	0.07867526
220	0xbe0777f3	-0.13229351
221	0x3da2afc2	0.079436794
222	0x3dac0c2e	0.084007606
223	0xbd93f37f	-0.072241776
224	0xbc9408b3	-0.018070554
225	0x3dcf9157	0.10135143
226	0x3dba73a8	0.09104091
227	0x3e8009c9	0.25007465
228	0x3df279a3	0.118396066
229	0xbe00b65d	-0.12569566
230	0x3cf34824	0.029697485
231	0x3e158675	0.14602073
232	0xbe96df2d	-0.29467145
233	0xbd9c29b7	-0.07625144
234	0xbc8abd59	-0.016935991
235	0x3cbefa4a	0.023312707
236	0xbc3ed66e	-0.011647804
237	0xbcc2ca99	-0.023778247
238	0xbdb40cc3	-0.087914966
239	0xbd3aacfa	-0.04557512
240	0x3e17d7bf	0.14828394
241	0xbd0dc394	-0.034610346
242	0x3d1f10bc	0.03883432
243	0x3dc9f0f9	0.09860415
244	0xbd903774	-0.07041827
245	0x3db3c4a1	0.08777738
246	0x3d86a97b	0.065752946
247	0xbd24d128	-0.04023853
248	0xbdc2e8d8	-0.09517068
249	0x3b967fd2	0.004592874
250	0x3e0a5e84	0.13512617
251	0x3d65dccb	0.056118768
252	0xbe00c4ea	-0.12575117
253	0x3b489497	0.0030606145
254	0xbd8d0552	-0.068857804
255	0xbdff839e	-0.12476276

bias f4 [50]
0	0xbc1a1784	-0.009405021
1	0x3d60835b	0.05481277
2	0x3c889d6b	0.016676625
3	0x3dca880b	0.098892294
4	0xba649d4c	-0.0008720949
5	0xbcf3780d	-0.02972033
6	0x3d22a3ca	0.039706983
7	0xbdb24e4c	-0.0870634
8	0xbd8ebefe	-0.069700226
9	0xba99c351	-0.0011731182
10	0x3d4f2cc1	0.05057979
11	0xbd82f2f9	-0.063939996
12	0x3d02c1e8	0.031923205
13	0xbdea9b1c	-0.11455366
14	0xbcf51826	-0.029918741
15	0xbcf31dd8	-0.029677317
16	0x3de8b28b	0.11362179
17	0x3dfbe4ce	0.122995004
18	0x3de4dc02	0.11174776
19	0x3c462598	0.012093924
20	0x3cbfd1ff	0.023415564
21	0x3ca258ce	0.019817736
22	0xbde52b70	-0.11189926
23	0x3d28701e	0.04112255
24	0x3e2ec2c7	0.17066489
25	0x3dee831e	0.11646102
26	0x3dce18ab	0.10063299
27	0xbbce36b5	-0.0062931427
28	0x3df0d3c2	0.117591396
29	0xbc2a763f	-0.010404169
30	0x3ddf0cb3	0.10891094
31	0x3dccf832	0.10008277
32	0x3e066d9a	0.13127747
33	0xbd946dcb	-0.07247504
34	0x3dc3a474	0.09552851
35	0x3d712b3b	0.05887912
36	0xbcfdc14f	-0.030975966
37	0x3d28b27c	0.04118584
38	0x3d27b394	0.040942743
39	0xbd8bf031	-0.06832922
40	0xbd653bda	-0.055965282
41	0x3c2019b2	0.009771751
42	0xbdda806b	-0.10669025
43	0x3d585d99	0.052823637
44	0xbdc5048a	-0.096200064
45	0x3d37b8d0	0.044853985
46	0xbdba248d	-0.09089003
47	0x3cdb0dad	0.02673992
48	0x3dc6ce93	0.0970737
49	0xbe066069	-0.13122715

mask f4 [50, 50]
0	0x3f800000	1.0
1	0x3f800000	1.0
2	0x3f800000	1.0
3	0x3f800000	1.0
4	0x3f800000	1.0
5	0x3f800000	1.0
6	0x3f800000	1.0
7	0x3f800000	1.0
8	0x3f800000	1.0
9	0x3f800000	1.0
10	0x3f800000	1.0
11	0x3f800000	1.0
12	0x3f800000	1.0
13	0x3f800000	1.0
14	0x3f800000	1.0
15	0x3f800000	1.0
16	0x3f800000	1.0
17	0x3f800000	1.0
18	0x3f800000	1.0
19	0x3f800000	1.0
20	0x3f800000	1.0
21	0x3f800000	1.0
22	0x3f800000	1.0
23	0x3f800000	1.0
24	0x3f800000	1.0
25	0x3f800000	1.0
26	0x3f800000	1.0
27	0x3f800000	1.0
28	0x3f800000	1.0
29	0x3f800000	1.0
30	0x3f800000	1.0
31	0x3f800000	1.0
32	0x3f800000	1.0
33	0x3f800000	1.0
34	0x3f800000	1.0
35	0x3f800000	1.0
36	0x3f800000	1.0
37	0x3f800000	1.0
38	0x3f800000	1.0
39	0x3f800000	1.0
40	0x3f800000	1.0
41	0x3f800000	1.0
42	0x3f800000	1.0
43	0x3f800000	1.0
44	0x3f800000	1.0
45	0x3f800000	1.0
46	0x3f800000	1.0
47	0x3f800000	1.0
48	0x3f800000	1.0
49	0x3f800000	1.0
50	0x3f800000	1.0
51	0x3f800000	1.0
52	0x3f800000	1.0
53	0x3f800000	1.0
54	0x3f800000	1.0
55	0x3f800000	1.0
56	0x3f800000	1.0
57	0x3f800000	1.0
58	0x3f800000	1.0
59	0x3f800000	1.0
60	0x3f800000	1.0
61	0x3f800000	1.0
62	0x3f800000	1.0
63	0x3f800000	1.0
64	0x3f800000	1.0
65	0x3f800000	1.0
66	0x3f800000	1.0
67	0x3f800000	1.0
68	0x3f800000	1.0
69	0x3f800000	1.0
70	0x3f800000	1.0
71	0x3f800000	1.0
72	0x3f800000	1.0
73	0x3f800000	1.0
74	0x3f800000	1.0
75	0x3f800000	1.0
76	0x3f800000	1.0
77	0x3f800000	1.0
78	0x3f800000	1.0
79	0x3f800000	1.0
80	0x3f800000	1.0
81	0x3f800000	1.0
82	0x3f800000	1.0
83	0x3f800000	1.0
84	0x3f800000	1.0
85	0x3f800000	1.0
86	0x3f800000	1.0
87	0x3f800000	1.0
88	0x3f800000	1.0
89	0x3f800000	1.0
90	0x3f800000	1.0
91	0x3f800000	1.0
92	0x3f800000	1.0
93	0x3f800000	1.0
94	0x3f800000	1.0
95	0x3f800000	1.0
96	0x3f800000	1.0
97	0x3f800000	1.0
98	0x3f800000	1.0
99	0x3f800000	1.0
100	0x3f800000	1.0
101	0x3f800000	1.0
102	0x3f800000	1.0
103	0x3f800000	1.0
104	0x3f800000	1.0
105	0x3f800000	1.0
106	0x3f800000	1.0
107	0x3f800000	1.0
108	0x3f800000	1.0
109	0x3f800000	1.0
110	0x3f800000	1.0
111	0x3f800000	1.0
112	0x3f800000	1.0
113	0x3f800000	1.0
114	0x3f800000	1.0
115	0x3f800000	1.0
116	0x3f800000	1.0
117	0x3f800000	1.0
118	0x3f800000	1.0
119	0x3f800000	1.0
120	0x3f800000	1.0
121	0x3f800000	1.0
122	0x3f800000	1.0
123	0x3f800000	1.0
124	0x3f800000	1.0
125	0x3f800000	1.0
126	0x3f800000	1.0
127	0x3f800000	1.0
128	0x3f800000	1.0
129	0x3f800000	1.0
130	0x3f800000	1.0
131	0x3f800000	1.0
132	0x3f800000	1.0
133	0x3f800000	1.0
134	0x3f800000	1.0
135	0x3f800000	1.0
136	0x3f800000	1.0
137	0x3f800000	1.0
138	0x3f800000	1.0
139	0x3f800000	1.0
140	0x3f800000	1.0
141	0x3f800000	1.0
142	0x3f800000	1.0
143	0x3f800000	1.0
144	0x3f800000	1.0
145	0x3f800000	1.0
146	0x3f800000	1.0
147	0x3f800000	1.0
148	0x3f800000	1.0
149	0x3f800000	1.0
150	0x3f800000	1.0
151	0x3f800000	1.0
152	0x3f800000	1.0
153	0x3f800000	1.0
154	0x3f800000	1.0
155	0x3f800000	1.0
156	0x3f800000	1.0
157	0x3f800000	1.0
158	0x3f800000	1.0
159	0x3f800000	1.0
160	0x3f800000	1.0
161	0x3f800000	1.0
162	0x3f800000	1.0
163	0x3f800000	1.0
164	0x3f800000	1.0
165	0x3f800000	1.0
166	0x3f800000	1.0
167	0x3f800000	1.0
168	0x3f800000	1.0
169	0x3f800000	1.0
170	0x3f800000	1.0
171	0x3f800000	1.0
172	0x3f800000	1.0
173	0x3f800000	1.0
174	0x3f800000	1.0
175	0x3f800000	1.0
176	0x3f800000	1.0
177	0x3f800000	1.0
178	0x3f800000	1.0
179	0x3f800000	1.0
180	0x3f800000	1.0
181	0x3f800000	1.0
182	0x3f800000	1.0
183	0x3f800000	1.0
184	0x3f800000	1.0
185	0x3f800000	1.0
186	0x3f800000	1.0
187	0x3f800000	1.0
188	0x3f800000	1.0
189	0x3f800000	1.0
190	0x3f800000	1.0
191	0x3f800000	1.0
192	0x3f800000	1.0
193	0x3f800000	1.0
194	0x3f800000	1.0
195	0x3f800000	1.0
196	0x3f800000	1.0
197	0x3f800000	1.0
198	0x3f800000	1.0
199	0x3f800000	1.0
200	0x3f800000	1.0
201	0x3f800000	1.0
202	0x3f800000	1.0
203	0x3f800000	1.0
204	0x3f800000	1.0
205	0x3f800000	1.0
206	0x3f800000	1.0
207	0x3f800000	1.0
208	0x3f800000	1.0
209	0x3f800000	1.0
210	0x3f800000	1.0
211	0x3f800000	1.0
212	0x3f800000	1.0
213	0x3f800000	1.0
214	0x3f800000	1.0
215	0x3f800000	1.0
216	0x3f800000	1.0
217	0x3f800000	1.0
218	0x3f800000	1.0
219	0x3f800000	1.0
220	0x3f800000	1.0
221	0x3f800000	1.0
222	0x3f800000	1.0
223	0x3f800000	1.0
224	0x3f800000	1.0
225	0x3f800000	1.0
226	0x3f800000	1.0
227	0x3f800000	1.0
228	0x3f800000	1.0
229	0x3f800000	1.0
230	0x3f800000	1.0
231	0x3f800000	1.0
232	0x3f800000	1.0
233	0x3f800000	1.0
234	0x3f800000	1.0
235	0x3f800000	1.0
236	0x3f800000	1.0
237	0x3f800000	1.0
238	0x3f800000	1.0
239	0x3f800000	1.0
240	0x3f800000	1.0
241	0x3f800000	1.0
242	0x3f800000	1.0
243	0x3f800000	1.0
244	0x3f800000	1.0
245	0x3f800000	1.0
246	0x3f800000	1.0
247	0x3f800000	1.0
248	0x3f800000	1.0
249	0x3f800000	1.0
250	0x3f800000	1.0
251	0x3f800000	1.0
252	0x3f800000	1.0
253	0x3f800000	1.0
254	0x3f800000	1.0
255	0x3f800000	1.0

weight f4 [50, 50]
0	0x3dc3181b	0.09526082
1	0xbda70e13	-0.08156981
2	0xbca05504	-0.019571789
3	0x3dde68b5	0.10859815
4	0x3c4b2ee1	0.0124013135
5	0xbe01ff38	-0.12695014
6	0x3d9915dc	0.074748725
7	0x3ded0e13	0.1157495
8	0xbddac982	-0.10682966
9	0xbdd4c43a	-0.1038899
10	0xbc875536	-0.016520124
11	0x3e0acfca	0.13555828
12	0x3d02a1ce	0.03189259
13	0x3db3e10d	0.087831594
14	0xbc226ad7	-0.009913168
15	0x3e18679e	0.14883277
16	0x3d2b4187	0.04181054
17	0xbd8ebe16	-0.0696985
18	0x3d63c9fd	0.055612553
19	0x3e3f6d84	0.1869412
20	0x3e30d6fc	0.1726951
21	0x3dc4d58f	0.096110456
22	0xbe1b642e	-0.15174934
23	0x3d9be302	0.07611658
24	0x3d814cd7	0.06313484
25	0x3c5418cf	0.012945368
26	0xbd1a7b18	-0.037715048
27	0x3daf8099	0.0856945
28	0xbd3e2354	-0.04642041
29	0x3d217d74	0.039426282
30	0x3c6d908c	0.014499795
31	0x3d0d5572	0.034505315
32	0xbd823468	-0.06357652
33	0xbcabfbe9	-0.020994144
34	0x3da43917	0.080187015
35	0xbd36cf95	-0.04463156
36	0x3d33fb8c	0.043941066
37	0xbd960135	-0.07324449
38	0x3e3f4b0d	0.18680973
39	0x3cec1332	0.028817747
40	0xbd2a857b	-0.041631203
41	0xbd34ede1	-0.04417217
42	0x3da5cd9b	0.08095857
43	0xbc950055	-0.018188635
44	0x3e22d198	0.15900266
45	0x3da26664	0.07929686
46	0xbc35a6a5	-0.011087094
47	0xbd707c0f	-0.05871206
48	0x3d7496d1	0.059714142
49	0x3e024d68	0.1272484
50	0x3d9fe75e	0.07807802
51	0xbd7fe189	-0.062470946
52	0x3c6006f5	0.013673534
53	0x3e01fa0a	0.12693039
54	0x3e336b2a	0.17521349
55	0xbda1a5ab	-0.07892927
56	0xbd6322fe	-0.055453293
57	0xbde6cf12	-0.11269964
58	0xbd0ec5a0	-0.03485644
59	0x3d053593	0.032521795
60	0x3c0a84bc	0.008454498
61	0x3c8c6cfe	0.017141815
62	0xbda6931a	-0.08133526
63	0x3da1b95c	0.078966826
64	0x3d282494	0.04105051
65	0x3dc701d6	0.09717147
66	0xbd8678f7	-0.06566041
67	0x3dea5125	0.11441258
68	0xbcdd245b	-0.026994875
69	0xbcb1d1d5	-0.021706501
70	0xbdbad3b3	-0.0912241
71	0xbd8ffe13	-0.07030883
72	0x3cf4c382	0.029878382
73	0xbccb2b13	-0.024800813
74	0xbd1574a8	-0.036488205
75	0xbe1f3060	-0.15545797
76	0xbcf58020	-0.029968321
77	0xbdcc3b8a	-0.09972294
78	0xbc11f156	-0.008907637
79	0x3e04f2a9	0.12983193
80	0xbb829b6d	-0.0039858134
81	0xbd03b796	-0.032157503
82	0xbcd92f13	-0.026511705
83	0xbd3ba17c	-0.0458083
84	0xbd9b2424	-0.07575253
85	0xbd6f2b34	-0.05839081
86	0x3e3175fe	0.17330167
87	0x3d5ea2f5	0.054354627
88	0x3cd29dfd	0.0257101
89	0x3dfbb0ce	0.12289582
90	0x3dc3d2ab	0.09561666
91	0xbe04b16d	-0.12958308
92	0x3e01d33d	0.12678237
93	0x3d5a88a3	0.053352963
94	0xbdadfd23	-0.084955476
95	0xbdb24ad2	-0.08705677
96	0x3d931a44	0.07182744
97	0xbe110681	-0.14162637
98	0xbd9796ff	-0.07401847
99	0x3e060146	0.13086423
100	0x3dd71387	0.105017714
101	0x3e139a54	0.1441434
102	0xbdc37eb4	-0.09545651
103	0xbd873fcd	-0.06603966
104	0xbd58afc3	-0.052901994
105	0xbcd480e5	-0.025940368
106	0x3ce23630	0.02761373
107	0x3e488c50	0.19584775
108	0x3dce7901	0.100816734
109	0xbd5589a4	-0.052133217
110	0x3d56e7fc	0.05246733
111	0xbca74caa	-0.020422298
112	0xbe03fbb5	-0.12888987
113	0xbc8b1892	-0.01697949
114	0xbcbc5835	-0.02299128
115	0xbd889913	-0.066698216
116	0x3dbe00a5	0.09277467
117	0xbdbcad04	-0.092126876
118	0xbcd6e77f	-0.026233433
119	0x3de910dc	0.11380169
120	0x3dbe2952	0.09285225
121	0x3d2aa1ff	0.041658398
122	0xbdead41a	-0.114662364
123	0xbe019600	-0.12654877
124	0xbe01366c	-0.12618417
125	0xbc495ad1	-0.012289719
126	0x3c91fec6	0.01782168
127	0xbdd87f1c	-0.10571119
128	0xbd74fc11	-0.0598107
129	0x3df2dc91	0.11858476
130	0xbd7584dd	-0.05994116
131	0x3df71909	0.12065322
132	0x3d7eb9ec	0.062189028
133	0xbd7fb274	-0.062426046
134	0x3c3d0305	0.011536364
135	0x3d1614b6	0.036640845
136	0x3db69fe5	0.08917216
137	0xbc0d4f76	-0.008624902
138	0x3d08bb6f	0.033381876
139	0x3dc74655	0.09730212
140	0x3d31c6b4	0.04340239
141	0xbde479c6	-0.11156039
142	0x3cf0c3b0	0.029390186
143	0x3d88e926	0.066850945
144	0xbd88ea93	-0.066853665
145	0x3dac42d1	0.08411182
146	0x3ced8237	0.028992755
147	0x3dca7ad3	0.09886708
148	0xbdd7f6a5	-0.105450906
149	0xbd4a636f	-0.049411234
150	0xbe4e2bb1	-0.20133854
151	0x3d108a54	0.03528817
152	0x3d90936b	0.07059368
153	0x3e14a15b	0.14514677
154	0xbe190e24	-0.149468
155	0x3d19ef31	0.037581626
156	0xbe0159d0	-0.12631917
157	0xbde311c9	-0.110873766
158	0xbd2101e3	-0.03930844
159	0xbd622cf3	-0.05521865
160	0x3d8ee128	0.06976539
161	0x3ca22e99	0.01979761
162	0x3da0d421	0.078529604
163	0xbe54da88	-0.20786488
164	0xbd655582	-0.05598975
165	0x3dded8fd	0.10881231
166	0x3dd6cb5c	0.104880065
167	0xbc6804f3	-0.014161336
168	0x3dc18d44	0.094507724
169	0xbd8a4901	-0.06752206
170	0xbdb1edf0	-0.08687961
171	0x3e0522da	0.13001576
172	0xbd69f889	-0.057121787
173	0x3d94fc9d	0.07274745
174	0x3dd770c5	0.10519556
175	0x3dba1e36	0.090877935
176	0x3d0beadf	0.034159537
177	0xbc79f05c	-0.01525506
178	0x3b603bf0	0.0034215413
179	0x3c73a5a5	0.014871036
180	0x3df49f03	0.119443916
181	0xbd48dc5b	-0.049038272
182	0x3e2138ad	0.15744276
183	0x3dab15cb	0.08353766
184	0xbd542336	-0.051791392
185	0xbe029983	-0.12753873
186	0xbc9b2b88	-0.018941656
187	0xbc08bf83	-0.008346441
188	0x3d1408a9	0.03614107
189	0xbe0356df	-0.12826107
190	0x3d4e4068	0.05035439
191	0x3c2f0b5e	0.0106838625
192	0x3d384961	0.044991855
193	0x3e11d95d	0.14243074
194	0x3d722d69	0.059125338
195	0x3db4beaf	0.088254325
196	0xbda02013	-0.07818618
197	0x3e04a78c	0.12954539
198	0xbc53b536	-0.012921622
199	0xbe0c4056	-0.13696417
200	0x3e7051a4	0.23468643
201	0xbe4e3696	-0.2013801
202	0xbc3341fe	-0.010941027
203	0x3dc2a45f	0.095040075
204	0x3dd5831e	0.10425399
205	0x3d5bbe7b	0.053648453
206	0xbdaa31f1	-0.08310307
207	0xbd320ebc	-0.043471083
208	0x3ba36862	0.0049868086
209	0xbe221de0	-0.15831709
210	0xbb546df0	-0.003241416
211	0xbd6dcd79	-0.058057282
212	0x3dc6854a	0.096933916
213	0x3d63d90a	0.055626906
214	0xbd0a94ab	-0.033833187
215	0xbd7a09c9	-0.061044488
216	0x3d174f23	0.036940705
217	0xbbc7b2aa	-0.0060942965
218	0x3e784e15	0.24248536
219	0xbd1274b6	-0.035755835
220	0x3db94ad9	0.09047479
221	0xbddc52b4	-0.10757962
222	0xbd3b534d	-0.04573374
223	0xbe6ceb8a	-0.23136726
224	0xbdb61bb9	-0.088920064
225	0xbdbde2b8	-0.09271759
226	0xbc9344e8	-0.017977193
227	0x3de211ee	0.11038576
228	0x3debc293	0.115117215
229	0xbad7e23b	-0.001647062
230	0xbe141d5c	-0.14464325
231	0x3e1d6b59	0.15372981
232	0xbceb9a7e	-0.028760191
233	0x3db4c579	0.088267274
234	0x3e05dcbf	0.13072489
235	0x3d9ebbd7	0.07750671
236	0x3e0007ee	0.12503025
237	0x3de1ba6e	0.11021887
238	0xba8f2f19	-0.001092407
239	0x3da144c9	0.07874448
240	0xbe06be45	-0.1315852
241	0xbd541209	-0.051775012
242	0xbd834924	-0.06410435
243	0x39cee0bc	0.00039458822
244	0x3de45cfa	0.11150546
245	0xbd5aefc1	-0.053451303
246	0x3ddf4f2a	0.10903771
247	0xbe1ac57b	-0.15114395
248	0xbdea57e6	-0.114425465
249	0x3e09f43c	0.13472074
250	0xbc6b291f	-0.014353066
251	0x3dd6bda3	0.10485389
252	0x3d0d5154	0.03450139
253	0x3c3f522e	0.011677308
254	0xbcc6f7c2	-0.024288062
255	0x3b0644d8	0.0020487811

bias f4 [50]
0	0xbdd6c58c	-0.10486898
1	0xbd62fe30	-0.055418193
2	0xbd3c1e23	-0.045927178
3	0x3d66b98f	0.056329306
4	0xbd655733	-0.055991363
5	0x3d49e952	0.049294777
6	0x3cb20abf	0.02173364
7	0xbcb88d17	-0.022528214
8	0xbc9fbc8a	-0.019499082
9	0x3db80e8f	0.08987152
10	0xbd153910	-0.036431372
11	0x3c6ebf10	0.01457192
12	0x3d924b17	0.071432285
13	0xbc355152	-0.011066752
14	0x3de88654	0.11353746
15	0x3dee7eac	0.116452545
16	0xbde7a109	-0.11310012
17	0x3d02d40b	0.0319405
18	0xbe002db3	-0.12517433
19	0x3e0badfc	0.13640589
20	0x3ad407e7	0.0016176671
21	0xbd81182d	-0.06303439
22	0xbcbe8fb0	-0.023261875
23	0xbd088de7	-0.033338454
24	0xbce9e6bb	-0.028552404
25	0x3d9bb15f	0.0760219
26	0x3d96b8b8	0.07359451
27	0x3d416ae2	0.047221072
28	0x3dac53d9	0.0841443
29	0x3cc29266	0.023751449
30	0xbcb7097b	-0.022343388
31	0x3cfb710b	0.030693552
32	0x3d225601	0.0396328
33	0x3e00bf7b	0.12573044
34	0xbbbec5b3	-0.0058219074
35	0xbdd2c386	-0.102911994
36	0xbdc144fd	-0.094369866
37	0xbe02ce53	-0.12774019
38	0x3ca28743	0.019839888
39	0x3d9c3aaf	0.076283805
40	0x3d94e0f6	0.072694704
41	0xbdcfbfa4	-0.101439744
42	0xbe05b3fc	-0.1305694
43	0xbdb4a52a	-0.08820565
44	0x3dd7cdc7	0.10537296
45	0xbdd0f876	-0.1020364
46	0x3dc1fc87	0.09471994
47	0x3d69c1eb	0.0570697
48	0x3df24fa8	0.118315995
49	0xbe049e1b	-0.12950937

mask f4 [50, 50]
0	0x3f800000	1.0
1	0x3f800000	1.0
2	0x3f800000	1.0
3	0x3f800000	1.0
4	0x3f800000	1.0
5	0x3f800000	1.0
6	0x3f800000	1.0
7	0x3f800000	1.0
8	0x3f800000	1.0
9	0x3f800000	1.0
10	0x3f800000	1.0
11	0x3f800000	1.0
12	0x3f800000	1.0
13	0x3f800000	1.0
14	0x3f800000	1.0
15	0x3f800000	1.0
16	0x3f800000	1.0
17	0x3f800000	1.0
18	0x3f800000	1.0
19	0x3f800000	1.0
20	0x3f800000	1.0
21	0x3f800000	1.0
22	0x3f800000	1.0
23	0x3f800000	1.0
24	0x3f800000	1.0
25	0x3f800000	1.0
26	0x3f800000	1.0
27	0x3f800000	1.0
28	0x3f800000	1.0
29	0x3f800000	1.0
30	0x3f800000	1.0
31	0x3f800000	1.0
32	0x3f800000	1.0
33	0x3f800000	1.0
34	0x3f800000	1.0
35	0x3f800000	1.0
36	0x3f800000	1.0
37	0x3f800000	1.0
38	0x3f800000	1.0
39	0x3f800000	1.0
40	0x3f800000	1.0
41	0x3f800000	1.0
42	0x3f800000	1.0
43	0x3f800000	1.0
44	0x3f800000	1.0
45	0x3f800000	1.0
46	0x3f800000	1.0
47	0x3f800000	1.0
48	0x3f800000	1.0
49	0x3f800000	1.0
50	0x3f800000	1.0
51	0x3f800000	1.0
52	0x3f800000	1.0
53	0x3f800000	1.0
54	0x3f800000	1.0
55	0x3f800000	1.0
56	0x3f800000	1.0
57	0x3f800000	1.0
58	0x3f800000	1.0
59	0x3f800000	1.0
60	0x3f800000	1.0
61	0x3f800000	1.0
62	0x3f800000	1.0
63	0x3f800000	1.0
64	0x3f800000	1.0
65	0x3f800000	1.0
66	0x3f800000	1.0
67	0x3f800000	1.0
68	0x3f800000	1.0
69	0x3f800000	1.0
70	0x3f800000	1.0
71	0x3f800000	1.0
72	0x3f800000	1.0
73	0x3f800000	1.0
74	0x3f800000	1.0
75	0x3f800000	1.0
76	0x3f800000	1.0
77	0x3f800000	1.0
78	0x3f800000	1.0
79	0x3f800000	1.0
80	0x3f800000	1.0
81	0x3f800000	1.0
82	0x3f800000	1.0
83	0x3f800000	1.0
84	0x3f800000	1.0
85	0x3f800000	1.0
86	0x3f800000	1.0
87	0x3f800000	1.0
88	0x3f800000	1.0
89	0x3f800000	1.0
90	0x3f800000	1.0
91	0x3f800000	1.0
92	0x3f800000	1.0
93	0x3f800000	1.0
94	0x3f800000	1.0
95	0x3f800000	1.0
96	0x3f800000	1.0
97	0x3f800000	1.0
98	0x3f800000	1.0
99	0x3f800000	1.0
100	0x3f800000	1.0
101	0x3f800000	1.0
102	0x3f800000	1.0
103	0x3f800000	1.0
104	0x3f800000	1.0
105	0x3f800000	1.0
106	0x3f800000	1.0
107	0x3f800000	1.0
108	0x3f800000	1.0
109	0x3f800000	1.0
110	0x3f800000	1.0
111	0x3f800000	1.0
112	0x3f800000	1.0
113	0x3f800000	1.0
114	0x3f800000	1.0
115	0x3f800000	1.0
116	0x3f800000	1.0
117	0x3f800000	1.0
118	0x3f800000	1.0
119	0x3f800000	1.0
120	0x3f800000	1.0
121	0x3f800000	1.0
122	0x3f800000	1.0
123	0x3f800000	1.0
124	0x3f800000	1.0
125	0x3f800000	1.0
126	0x3f800000	1.0
127	0x3f800000	1.0
128	0x3f800000	1.0
129	0x3f800000	1.0
130	0x3f800000	1.0
131	0x3f800000	1.0
132	0x3f800000	1.0
133	0x3f800000	1.0
134	0x3f800000	1.0
135	0x3f800000	1.0
136	0x3f800000	1.0
137	0x3f800000	1.0
138	0x3f800000	1.0
139	0x3f800000	1.0
140	0x3f800000	1.0
141	0x3f800000	1.0
142	0x3f800000	1.0
143	0x3f800000	1.0
144	0x3f800000	1.0
145	0x3f800000	1.0
146	0x3f800000	1.0
147	0x3f800000	1.0
148	0x3f800000	1.0
149	0x3f800000	1.0
150	0x3f800000	1.0
151	0x3f800000	1.0
152	0x3f800000	1.0
153	0x3f800000	1.0
154	0x3f800000	1.0
155	0x3f800000	1.0
156	0x3f800000	1.0
157	0x3f800000	1.0
158	0x3f800000	1.0
159	0x3f800000	1.0
160	0x3f800000	1.0
161	0x3f800000	1.0
162	0x3f800000	1.0
163	0x3f800000	1.0
164	0x3f800000	1.0
165	0x3f800000	1.0
166	0x3f800000	1.0
167	0x3f800000	1.0
168	0x3f800000	1.0
169	0x3f800000	1.0
170	0x3f800000	1.0
171	0x3f800000	1.0
172	0x3f800000	1.0
173	0x3f800000	1.0
174	0x3f800000	1.0
175	0x3f800000	1.0
176	0x3f800000	1.0
177	0x3f800000	1.0
178	0x3f800000	1.0
179	0x3f800000	1.0
180	0x3f800000	1.0
181	0x3f800000	1.0
182	0x3f800000	1.0
183	0x3f800000	1.0
184	0x3f800000	1.0
185	0x3f800000	1.0
186	0x3f800000	1.0
187	0x3f800000	1.0
188	0x3f800000	1.0
189	0x3f800000	1.0
190	0x3f800000	1.0
191	0x3f800000	1.0
192	0x3f800000	1.0
193	0x3f800000	1.0
194	0x3f800000	1.0
195	0x3f800000	1.0
196	0x3f800000	1.0
197	0x3f800000	1.0
198	0x3f800000	1.0
199	0x3f800000	1.0
200	0x3f800000	1.0
201	0x3f800000	1.0
202	0x3f800000	1.0
203	0x3f800000	1.0
204	0x3f800000	1.0
205	0x3f800000	1.0
206	0x3f800000	1.0
207	0x3f800000	1.0
208	0x3f800000	1.0
209	0x3f800000	1.0
210	0x3f800000	1.0
211	0x3f800000	1.0
212	0x3f800000	1.0
213	0x3f800000	1.0
214	0x3f800000	1.0
215	0x3f800000	1.0
216	0x3f800000	1.0
217	0x3f800000	1.0
218	0x3f800000	1.0
219	0x3f800000	1.0
220	0x3f800000	1.0
221	0x3f800000	1.0
222	0x3f800000	1.0
223	0x3f800000	1.0
224	0x3f800000	1.0
225	0x3f800000	1.0
226	0x3f800000	1.0
227	0x3f800000	1.0
228	0x3f800000	1.0
229	0x3f800000	1.0
230	0x3f800000	1.0
231	0x3f800000	1.0
232	0x3f800000	1.0
233	0x3f800000	1.0
234	0x3f800000	1.0
235	0x3f800000	1.0
236	0x3f800000	1.0
237	0x3f800000	1.0
238	0x3f800000	1.0
239	0x3f800000	1.0
240	0x3f800000	1.0
241	0x3f800000	1.0
242	0x3f800000	1.0
243	0x3f800000	1.0
244	0x3f800000	1.0
245	0x3f800000	1.0
246	0x3f800000	1.0
247	0x3f800000	1.0
248	0x3f800000	1.0
249	0x3f800000	1.0
250	0x3f800000	1.0
251	0x3f800000	1.0
252	0x3f800000	1.0
253	0x3f800000	1.0
254	0x3f800000	1.0
255	0x3f800000	1.0

weight f4 [4, 50]
0	0x3dee4782	0.11634733
1	0xbdfbc6ea	-0.12293799
2	0xbd1ab5b4	-0.03777094
3	0xbe0fd2c5	-0.14045246
4	0xbd508664	-0.050909415
5	0x3d4c0e10	0.0498181
6	0xbbfe6ac0	-0.0077641904
7	0x3c6b8e10	0.014377132
8	0x3b13d1c0	0.002255544
9	0x3b9a17a0	0.0047025234
10	0x3c276720	0.010217458
11	0xbd901396	-0.07034986
12	0x3c5b9ce0	0.013404101
13	0x3e01c51d	0.12672849
14	0x3cde7538	0.027155504
15	0xbd9d50bf	-0.07681417
16	0xba592900	-0.00082840025
17	0x3dbd28ea	0.09236319
18	0xbd49edca	-0.04929904
19	0x3d99d772	0.07511796
20	0x3e093fc3	0.1340323
21	0xbd9b7dfc	-0.07592389
22	0xbdf9e2e2	-0.122014776
23	0xbbad3320	-0.0052856356
24	0xbe06896a	-0.13138357
25	0x3def708e	0.1169139
26	0x3d36c280	0.044619083
27	0x3dbad67c	0.09122941
28	0x3d538924	0.05164446
29	0xbd46a340	-0.04849553
30	0x3dee138e	0.116248235
31	0x3d0cb4dc	0.03435217
32	0x3dcb0ad8	0.09914178
33	0x3dc3c622	0.09559275
34	0xbda1e6d8	-0.07905358
35	0x3ce1ceb8	0.027564391
36	0x3c13d040	0.009021819
37	0x3c8eff28	0.017455652
38	0xbcc6fa10	-0.024289161
39	0xbda749ad	-0.081683494
40	0x3dade3b4	0.084906965
41	0xbdabb0bc	-0.08383319
42	0x3d756cf4	0.05991836
43	0xbdca17f2	-0.098678485
44	0xbd8b35e9	-0.06797392
45	0x3e044209	0.12915815
46	0xbd905e1b	-0.07049199
47	0x3e0e9fcb	0.13928144
48	0xbc21e4d0	-0.009881213
49	0xbdf73927	-0.12071448
50	0xbd897465	-0.067116536
51	0xbd53201e	-0.0515443
52	0xbddfb3d0	-0.109229684
53	0x3ddf9a56	0.10918109
54	0xbdf6300f	-0.12020885
55	0xbda0b817	-0.07847612
56	0x3dbad7a0	0.091231585
57	0x3ce5fdf8	0.028075203
58	0x3d1506dc	0.036383495
59	0x3d902f56	0.070402786
60	0xbdbeb95f	-0.093127005
61	0x3de5ca6a	0.11220248
62	0x3dcb635c	0.09931061
63	0xbdf129ca	-0.11775549
64	0x3d08c16c	0.033387586
65	0xbd3c87ee	-0.04602807
66	0xbd24d70e	-0.040244155
67	0x3ded4c62	0.115868345
68	0xbcab71a0	-0.020928204
69	0xbd7e64c4	-0.062107816
70	0xbc913ee4	-0.017730184
71	0x3d541654	0.051779106
72	0x3ba87c40	0.005141765
73	0x3dc1e9d6	0.09468429
74	0xbd9a2f59	-0.07528562
75	0x3d7ee54c	0.062230393
76	0x3dd9dc64	0.10637739
77	0xba896380	-0.0010481924
78	0xbd990e3d	-0.07473419
79	0x3d91a248	0.07111031
80	0x3d87c338	0.06629032
81	0x3db5f00a	0.088836744
82	0xbdc17686	-0.09446435
83	0xbd661afc	-0.056178078
84	0xbba0fa80	-0.0049126744
85	0xbdcc428c	-0.0997363
86	0x3d5ae554	0.05344136
87	0x3dcd1230	0.100132346
88	0xbd99ee9a	-0.07516213
89	0x3d4b06bc	0.04956697
90	0x3daec3f0	0.08533466
91	0x3e08d27d	0.13361545
92	0xbd23ff48	-0.040038377
93	0x3d4e87d4	0.050422505
94	0x3de19476	0.11014645
95	0xbc7d0900	-0.01544404
96	0x3de329fe	0.11091994
97	0xbd393688	-0.04521802
98	0x3e10241b	0.14076273
99	0x3dbb3fca	0.09143026
100	0xbd11ad3e	-0.035565607
101	0xbd4ef043	-0.0505221
102	0x3cd66f98	0.026176259
103	0x3d6e1728	0.058127552
104	0xbe1b84d7	-0.15187393
105	0xbcb7df9c	-0.022445492
106	0xbe07193d	-0.13193221
107	0xbdc28933	-0.09498825
108	0x3cb44c0c	0.022008918
109	0x3d38d64c	0.045126244
110	0xbe1419be	-0.14462945
111	0xbe323b1e	-0.17405364
112	0xbe1bf40f	-0.1522982
113	0x3d73e407	0.059543636
114	0xbdc25d69	-0.09490473
115	0xbccdc1d8	-0.025116846
116	0xbe248901	-0.16067888
117	0xbc8a7d22	-0.016905371
118	0x3d996bb5	0.074912466
119	0x3d36433f	0.044497725
120	0x3d26a5b3	0.040685367
121	0x3dd05686	0.10172753
122	0xbe481c3a	-0.19542018
123	0x3e0df5c4	0.13863283
124	0xbdb298bc	-0.08720538
125	0x3e02740f	0.12739585
126	0xbdb51b69	-0.08843119
127	0xbda9a868	-0.08284074
128	0x3e040284	0.12891585
129	0xbd37fa48	-0.04491642
130	0x3e1c1ae8	0.15244639
131	0x3d18df27	0.03732219
132	0xbc6f3494	-0.014599938
133	0x3e18b654	0.14913303
134	0x3d8e3cfd	0.06945226
135	0x3e1a1af9	0.15049352
136	0x3c3336bf	0.010938345
137	0x3e17f31d	0.14838834
138	0x3e1cb7f8	0.15304554
139	0x3e2043e2	0.15650895
140	0x3aa83a4c	0.0012834757
141	0xbe1e2510	-0.15443826
142	0x3c72bcf8	0.0148155615
143	0x3d5501c1	0.052003626
144	0xbd9916a4	-0.074750215
145	0x3bea231d	0.007145299
146	0xbd9379ec	-0.07200989
147	0x3e0f78ec	0.14010972
148	0xbe03d64c	-0.12874717
149	0x3d4ea991	0.05045468
150	0xbdbd2354	-0.09235254
151	0xbd6346c9	-0.055487428
152	0xbe007165	-0.12543257
153	0x3ddc6772	0.10761918
154	0xbd1349db	-0.035959106
155	0xbd860d8c	-0.065455526
156	0xbdd8f254	-0.105930954
157	0xbe02dbc3	-0.12779145
158	0x3e1abd42	0.15111259
159	0x3e132151	0.14368178
160	0xbdef6980	-0.116900444
161	0xbe138b0c	-0.14408511
162	0xbd603d74	-0.054746106
163	0x3dc09377	0.09403127
164	0xbd9d863f	-0.07691621
165	0x3dc8efa2	0.09811331
166	0x3d63ff4f	0.055663403
167	0x3e0494ee	0.12947437
168	0x3dcf00e3	0.10107591
169	0x3e0adc6b	0.13560645
170	0x3db7504b	0.089508615
171	0x3dbd97d5	0.09257475
172	0xbc83a873	-0.016071534
173	0xbc8dad92	-0.017294679
174	0x3d2b7ebd	0.041868914
175	0x3de5dc84	0.11223701
176	0x3dfefd73	0.12450685
177	0xbb2e9265	-0.002663755
178	0x3dbabf3d	0.09118507
179	0xbdb5f637	-0.088848524
180	0xbdede216	-0.11615388
181	0x3d1262fc	0.03573893
182	0x3e114efc	0.14190286
183	0x3e05b17e	0.13055989
184	0x3e2db3c7	0.16963111
185	0x3e259e5c	0.1617369
186	0x3c37f950	0.011228874
187	0x3e19c8d7	0.1501802
188	0xbbf566eb	-0.0074890754
189	0x3c23481e	0.009965925
190	0xbe1eb34a	-0.15498081
191	0xbdb0f9e3	-0.08641412
192	0x3d8eadfa	0.06966777
193	0x3e12e29a	0.14344254
194	0xbd839556	-0.06424968
195	0x3d879d41	0.06621791
196	0xbd94281c	-0.07234213
197	0x3d672408	0.056430846
198	0xbc59bdaa	-0.013289848
199	0xbe19d23f	-0.15021609

bias f4 [4]
0	0x3e09bb34	0.13450319
1	0xbe10b356	-0.14130911
2	0xbc316134	-0.010826398
3	0x3d26920a	0.040666617

mask f4 [4, 50]
0	0x00000000	0.0
1	0x00000000	0.0
2	0x00000000	0.0
3	0x00000000	0.0
4	0x00000000	0.0
5	0x00000000	0.0
6	0x00000000	0.0
7	0x00000000	0.0
8	0x00000000	0.0
9	0x00000000	0.0
10	0x00000000	0.0
11	0x00000000	0.0
12	0x00000000	0.0
13	0x00000000	0.0
14	0x00000000	0.0
15	0x00000000	0.0
16	0x00000000	0.0
17	0x00000000	0.0
18	0x00000000	0.0
19	0x00000000	0.0
20	0x00000000	0.0
21	0x00000000	0.0
22	0x00000000	0.0
23	0x00000000	0.0
24	0x00000000	0.0
25	0x00000000	0.0
26	0x00000000	0.0
27	0x00000000	0.0
28	0x00000000	0.0
29	0x00000000	0.0
30	0x00000000	0.0
31	0x00000000	0.0
32	0x00000000	0.0
33	0x00000000	0.0
34	0x00000000	0.0
35	0x00000000	0.0
36	0x00000000	0.0
37	0x00000000	0.0
38	0x00000000	0.0
39	0x00000000	0.0
40	0x00000000	0.0
41	0x00000000	0.0
42	0x00000000	0.0
43	0x00000000	0.0
44	0x00000000	0.0
45	0x00000000	0.0
46	0x00000000	0.0
47	0x00000000	0.0
48	0x00000000	0.0
49	0x00000000	0.0
50	0x00000000	0.0
51	0x00000000	0.0
52	0x00000000	0.0
53	0x00000000	0.0
54	0x00000000	0.0
55	0x00000000	0.0
56	0x00000000	0.0
57	0x00000000	0.0
58	0x00000000	0.0
59	0x00000000	0.0
60	0x00000000	0.0
61	0x00000000	0.0
62	0x00000000	0.0
63	0x00000000	0.0
64	0x00000000	0.0
65	0x00000000	0.0
66	0x00000000	0.0
67	0x00000000	0.0
68	0x00000000	0.0
69	0x00000000	0.0
70	0x00000000	0.0
71	0x00000000	0.0
72	0x00000000	0.0
73	0x00000000	0.0
74	0x00000000	0.0
75	0x00000000	0.0
76	0x00000000	0.0
77	0x00000000	0.0
78	0x00000000	0.0
79	0x00000000	0.0
80	0x00000000	0.0
81	0x00000000	0.0
82	0x00000000	0.0
83	0x00000000	0.0
84	0x00000000	0.0
85	0x00000000	0.0
86	0x00000000	0.0
87	0x00000000	0.0
88	0x00000000	0.0
89	0x00000000	0.0
90	0x00000000	0.0
91	0x00000000	0.0
92	0x00000000	0.0
93	0x00000000	0.0
94	0x00000000	0.0
95	0x00000000	0.0
96	0x00000000	0.0
97	0x00000000	0.0
98	0x00000000	0.0
99	0x00000000	0.0
100	0x3f800000	1.0
101	0x3f800000	1.0
102	0x3f800000	1.0
103	0x3f800000	1.0
104	0x3f800000	1.0
105	0x3f800000	1.0
106	0x3f800000	1.0
107	0x3f800000	1.0
108	0x3f800000	1.0
109	0x3f800000	1.0
110	0x3f800000	1.0
111	0x3f800000	1.0
112	0x3f800000	1.0
113	0x3f800000	1.0
114	0x3f800000	1.0
115	0x3f800000	1.0
116	0x3f800000	1.0
117	0x3f800000	1.0
118	0x3f800000	1.0
119	0x3f800000	1.0
120	0x3f800000	1.0
121	0x3f800000	1.0
122	0x3f800000	1.0
123	0x3f800000	1.0
124	0x3f800000	1.0
125	0x3f800000	1.0
126	0x3f800000	1.0
127	0x3f800000	1.0
128	0x3f800000	1.0
129	0x3f800000	1.0
130	0x3f800000	1.0
131	0x3f800000	1.0
132	0x3f800000	1.0
133	0x3f800000	1.0
134	0x3f800000	1.0
135	0x3f800000	1.0
136	0x3f800000	1.0
137	0x3f800000	1.0
138	0x3f800000	1.0
139	0x3f800000	1.0
140	0x3f800000	1.0
141	0x3f800000	1.0
142	0x3f800000	1.0
143	0x3f800000	1.0
144	0x3f800000	1.0
145	0x3f800000	1.0
146	0x3f800000	1.0
147	0x3f800000	1.0
148	0x3f800000	1.0
149	0x3f800000	1.0
150	0x3f800000	1.0
151	0x3f800000	1.0
152	0x3f800000	1.0
153	0x3f800000	1.0
154	0x3f800000	1.0
155	0x3f800000	1.0
156	0x3f800000	1.0
157	0x3f800000	1.0
158	0x3f800000	1.0
159	0x3f800000	1.0
160	0x3f800000	1.0
161	0x3f800000	1.0
162	0x3f800000	1.0
163	0x3f800000	1.0
164	0x3f800000	1.0
165	0x3f800000	1.0
166	0x3f800000	1.0
167	0x3f800000	1.0
168	0x3f800000	1.0
169	0x3f800000	1.0
170	0x3f800000	1.0
171	0x3f800000	1.0
172	0x3f800000	1.0
173	0x3f800000	1.0
174	0x3f800000	1.0
175	0x3f800000	1.0
176	0x3f800000	1.0
177	0x3f800000	1.0
178	0x3f800000	1.0
179	0x3f800000	1.0
180	0x3f800000	1.0
181	0x3f800000	1.0
182	0x3f800000	1.0
183	0x3f800000	1.0
184	0x3f800000	1.0
185	0x3f800000	1.0
186	0x3f800000	1.0
187	0x3f800000	1.0
188	0x3f800000	1.0
189	0x3f800000	1.0
190	0x3f800000	1.0
191	0x3f800000	1.0
192	0x3f800000	1.0
193	0x3f800000	1.0
194	0x3f800000	1.0
195	0x3f800000	1.0
196	0x3f800000	1.0
197	0x3f800000	1.0
198	0x3f800000	1.0
199	0x3f800000	1.0

weight f4 [50, 2]
0	0xbf0c51f9	-0.5481258
1	0xbc9a79a0	-0.018856823
2	0x3de13f95	0.109984554
3	0x3e21fed0	0.1581986
4	0xbeb9cd8b	-0.3628963
5	0x3ea97cd6	0.33103055
6	0xbf177f98	-0.5917907
7	0x3dfdd6d0	0.12394488
8	0xbe5a932e	-0.21345207
9	0xbebb2dbb	-0.36558327
10	0x3c3ce869	0.01153002
11	0xbee1ed2e	-0.44126266
12	0x3f0b9762	0.54527867
13	0xbe8ecfa7	-0.278928
14	0x3f4927c5	0.7857631
15	0x3ee941a6	0.45557898
16	0x3e9bc8f4	0.30426753
17	0x3ede7a42	0.4345265
18	0x3e6e2a0d	0.23258229
19	0xbe1288e0	-0.14310026
20	0x3ea4788f	0.3212323
21	0xbf0c72f2	-0.5486289
22	0x3e90093d	0.28132048
23	0x3e9a6c7e	0.30160898
24	0x3e391e5f	0.18077992
25	0xbeb754d2	-0.358069
26	0xbf3c199f	-0.73476595
27	0x3d7ed4d0	0.062214673
28	0x3e97c2e7	0.29640886
29	0x3e1677c8	0.1469413
30	0x3ed37e03	0.41307077
31	0xbf145946	-0.5794872
32	0x3dbb5677	0.09147351
33	0x3cd12520	0.025530398
34	0x3c5d941d	0.0135240825
35	0xbed843c1	-0.42239192
36	0xbec0eea8	-0.3768208
37	0x3f0ffb5d	0.56242925
38	0x3ded94d0	0.11600649
39	0x3e208714	0.15676528
40	0x3eeb2d29	0.45932892
41	0x3f0a49c5	0.54018813
42	0xbedec497	-0.4350936
43	0x3f06c535	0.52644664
44	0xbd2ac14d	-0.041688252
45	0xbb3c5e00	-0.0028742552
46	0x3a83ebf5	0.0010064828
47	0x3ef5b122	0.47986704
48	0xbf3575c2	-0.7088281
49	0x3f319873	0.69373244
50	0x3e457d6d	0.19286127
51	0xbe62d6be	-0.2215223
52	0xbc1865e1	-0.009301634
53	0x3f230991	0.6368647
54	0xbf2085e6	-0.6270431
55	0xbf3261ed	-0.6968067
56	0x3e861de9	0.26194695
57	0x3e16bd6c	0.14720696
58	0xbe5bd9ad	-0.21469755
59	0x3f1a43c7	0.6025967
60	0x3e0ef302	0.13959888
61	0x3f081d6d	0.531699
62	0x3f24fced	0.64448434
63	0x3d689360	0.056781173
64	0xbe96b0ba	-0.29431707
65	0xbdd3ebd8	-0.10347718
66	0xbf12e89c	-0.57386184
67	0x3f199a59	0.6000114
68	0x3ebc075b	0.36724362
69	0x3e8719d2	0.26386887
70	0x3e0ea36f	0.13929532
71	0x3f0dfe83	0.5546648
72	0xbf120369	-0.57036453
73	0x3e56d7cc	0.20980757
74	0xbbdd2d47	-0.0067497822
75	0xbe25cd30	-0.16191554
76	0xbe48dae7	-0.19614755
77	0x3dc26320	0.09491563
78	0xbeb12b50	-0.34603357
79	0xbdcec960	-0.10097003
80	0x3e8f91e1	0.28040984
81	0x3f2f986d	0.6859196
82	0x3dd3415a	0.10315199
83	0xbe000b4c	-0.1250431
84	0x3eda2114	0.42603362
85	0x3f27c559	0.65535504
86	0x3eccd50f	0.400063
87	0x3ecfdc42	0.4059773
88	0xbedaea37	-0.42756817
89	0xbe11022c	-0.14160985
90	0xbe5f8e42	-0.21831611
91	0xbeda2285	-0.4260446
92	0x3f1f2b27	0.6217522
93	0xbf3268c3	-0.69691104
94	0x3cb65930	0.022259325
95	0x3f15bcf9	0.58491474
96	0xbe9979ba	-0.29975682
97	0xbec31592	-0.38102394
98	0x3ee5d602	0.44889838
99	0x3ef17746	0.4716131
