LMD SNR/03a/trad_model_o3a_gpu.pt (torch, 279372 bytes, 79 tensors)

low f4 [2]
0	0xc1500000	-13.0
1	0x3a83126f	0.001

high f4 [2]
0	0x40a00000	5.0
1	0x3f800000	1.0

_shift f4 [2]
0	0x3f43f907	0.7655186
1	0xbfde7c10	-1.7381611

_scale f4 [2]
0	0x3e4528a6	0.19253787
1	0x405ea5fd	3.4788811

weight f4 [50, 2]
0	0xbf30433e	-0.68852603
1	0xbea10c37	-0.31454632
2	0xbf1ae99c	-0.6051271
3	0xbe673a90	-0.22580934
4	0x3e0b1479	0.13582028
5	0x3f34543f	0.7044105
6	0x3ec87bd8	0.39156985
7	0x3dd301b0	0.10303056
8	0x3e333483	0.175005
9	0x3e84ae2c	0.25914133
10	0x3ed93bc1	0.424284
11	0x3f1653f5	0.5872186
12	0xbd20b58d	-0.03923564
13	0x3f14262f	0.57870764
14	0xbeba0c1a	-0.36337358
15	0xbe33e550	-0.17567945
16	0xbec760c1	-0.38941005
17	0x3e41e944	0.1893664
18	0xbe6e15cb	-0.23250501
19	0x3f2bdc81	0.6713334
20	0x3f29e63d	0.6636694
21	0x3f25e02b	0.6479518
22	0xbec44583	-0.38334283
23	0x3e234f28	0.15948164
24	0xbda6741c	-0.08127615
25	0x3f29c09d	0.6630953
26	0xbc9843ef	-0.01858708
27	0x3f3195e7	0.6936936
28	0xbe98956e	-0.29801506
29	0x3f09b0d7	0.5378546
30	0xbf5cb5ec	-0.8621509
31	0x3e1f0844	0.15530497
32	0x3e00d254	0.12580234
33	0x3eced4ee	0.40396827
34	0x3f1c20d5	0.609876
35	0xbd7650a0	-0.060135484
36	0xbd8baf0c	-0.06820497
37	0xbec86594	-0.39139998
38	0xbe64b545	-0.22334774
39	0xbdae6688	-0.0851565
40	0x3eee29a7	0.46516153
41	0x3f3141ed	0.6924122
42	0xbe176549	-0.14784731
43	0x3ed2a2c6	0.4113981
44	0xbe547f2b	-0.20751636
45	0x3dd67978	0.10472387
46	0x3c11e1f4	0.008903969
47	0x3e286eb0	0.16448474
48	0x3c7aab78	0.01529967
49	0x3dd08b20	0.10182786
50	0x3ed3b6a7	0.4135029
51	0x3f26ad73	0.6510841
52	0x3e2ea955	0.17056783
53	0x3eab7c1a	0.3349312
54	0x3dc67a07	0.096912436
55	0x3e03388c	0.1281454
56	0x3f7e9881	0.9945145
57	0xbeba9157	-0.3643901
58	0xbf0d5e4e	-0.5522202
59	0x3e81cc62	0.25351244
60	0xbe56ec48	-0.20988572
61	0xbe8976e4	-0.2684852
62	0x3f11a867	0.56897587
63	0x3eafc06a	0.34326488
64	0xbe80e53c	-0.25174892
65	0x3e59a004	0.21252447
66	0x3f115245	0.5676616
67	0xbe4e8878	-0.20169246
68	0x3f3ec84c	0.7452438
69	0x3ecfe686	0.40605563
70	0xbe951be6	-0.29122847
71	0x3f272133	0.65285033
72	0x3f4f364c	0.80942225
73	0xbdd15fd8	-0.10223359
74	0x3e9069c1	0.28205684
75	0x3e9f40ee	0.31104225
76	0x3e3475d5	0.17623074
77	0xbe76541c	-0.24055523
78	0x3c0705f8	0.008241169
79	0x3d265720	0.040610433
80	0xbd043502	-0.032277115
81	0xbe29816c	-0.16553277
82	0x3ebd1a06	0.36933917
83	0x3efe4692	0.49663216
84	0x3d4a99a3	0.049462926
85	0x3d1fd610	0.039022505
86	0xbd9e8dcb	-0.077418886
87	0x3f0629b1	0.52407366
88	0xbeb9ccfb	-0.362892
89	0xbee3a2d0	-0.44460154
90	0xbc48438c	-0.012223136
91	0xbf12c44a	-0.57330763
92	0x3ef1eae5	0.47249523
93	0xbe8643e8	-0.26223683
94	0xbf1727d1	-0.5904513
95	0x3f2cf18f	0.6755609
96	0xbe92a58a	-0.2864192
97	0x3ea6d61a	0.32585222
98	0xbe4fcee4	-0.20293766
99	0xbf06b94c	-0.5262649

bias f4 [50]
0	0x3e29e535	0.16591342
1	0x3c6a8530	0.014313981
2	0x3ebfdfa9	0.37475327
3	0xbe21dc36	-0.1580666
4	0xbec8997c	-0.391796
5	0xbd33b184	-0.043870464
6	0x3e23aeee	0.15984699
7	0x3e47fcf9	0.19530095
8	0x3eb671e6	0.35633773
9	0x3e849554	0.25895178
10	0xbf02e706	-0.51133764
11	0xbebc3fab	-0.36767325
12	0x3ec1505a	0.37756616
13	0x3e4d79bc	0.20065969
14	0xbdff858d	-0.12476645
15	0x3eda2cf6	0.42612427
16	0xbe4fadc2	-0.20281127
17	0x3b8c1570	0.0042750165
18	0xbee2c83b	-0.4429339
19	0xbeed0c04	-0.4629823
20	0x3ddabc0d	0.10680399
21	0xbe9a375a	-0.30120355
22	0x3c73691b	0.014856602
23	0xbebefb84	-0.37301266
24	0xbed8eccf	-0.4236817
25	0x3eaa6d55	0.3328654
26	0x3e88d9e4	0.26728737
27	0x3f1666e7	0.58750767
28	0xbefa426c	-0.488788
29	0xbecc637a	-0.39919645
30	0x3e29ac56	0.16569647
31	0xbf0f2081	-0.5590897
32	0x3f1688df	0.588026
33	0x3e13f94c	0.14450568
34	0xbf087a06	-0.53311193
35	0x3f34601c	0.7045915
36	0xbf17eb44	-0.5934336
37	0xbf09b88c	-0.5379722
38	0xbeda707d	-0.42663947
39	0xbf09035d	-0.53520757
40	0xbe29f58e	-0.16597578
41	0x3eb1e3e9	0.34744194
42	0xbeb1e7dc	-0.34747207
43	0x3f2ae574	0.6675637
44	0x3eeaf52b	0.45890173
45	0x3ee390b1	0.44446328
46	0xbf076099	-0.5288177
47	0x3e6ca2a5	0.23108919
48	0x3f1adb64	0.60491014
49	0x3ec58668	0.38579106

mask f4 [50, 2]
0	0x3f800000	1.0
1	0x00000000	0.0
2	0x3f800000	1.0
3	0x00000000	0.0
4	0x3f800000	1.0
5	0x00000000	0.0
6	0x3f800000	1.0
7	0x00000000	0.0
8	0x3f800000	1.0
9	0x00000000	0.0
10	0x3f800000	1.0
11	0x00000000	0.0
12	0x3f800000	1.0
13	0x00000000	0.0
14	0x3f800000	1.0
15	0x00000000	0.0
16	0x3f800000	1.0
17	0x00000000	0.0
18	0x3f800000	1.0
19	0x00000000	0.0
20	0x3f800000	1.0
21	0x00000000	0.0
22	0x3f800000	1.0
23	0x00000000	0.0
24	0x3f800000	1.0
25	0x00000000	0.0
26	0x3f800000	1.0
27	0x00000000	0.0
28	0x3f800000	1.0
29	0x00000000	0.0
30	0x3f800000	1.0
31	0x00000000	0.0
32	0x3f800000	1.0
33	0x00000000	0.0
34	0x3f800000	1.0
35	0x00000000	0.0
36	0x3f800000	1.0
37	0x00000000	0.0
38	0x3f800000	1.0
39	0x00000000	0.0
40	0x3f800000	1.0
41	0x00000000	0.0
42	0x3f800000	1.0
43	0x00000000	0.0
44	0x3f800000	1.0
45	0x00000000	0.0
46	0x3f800000	1.0
47	0x00000000	0.0
48	0x3f800000	1.0
49	0x00000000	0.0
50	0x3f800000	1.0
51	0x00000000	0.0
52	0x3f800000	1.0
53	0x00000000	0.0
54	0x3f800000	1.0
55	0x00000000	0.0
56	0x3f800000	1.0
57	0x00000000	0.0
58	0x3f800000	1.0
59	0x00000000	0.0
60	0x3f800000	1.0
61	0x00000000	0.0
62	0x3f800000	1.0
63	0x00000000	0.0
64	0x3f800000	1.0
65	0x00000000	0.0
66	0x3f800000	1.0
67	0x00000000	0.0
68	0x3f800000	1.0
69	0x00000000	0.0
70	0x3f800000	1.0
71	0x00000000	0.0
72	0x3f800000	1.0
73	0x00000000	0.0
74	0x3f800000	1.0
75	0x00000000	0.0
76	0x3f800000	1.0
77	0x00000000	0.0
78	0x3f800000	1.0
79	0x00000000	0.0
80	0x3f800000	1.0
81	0x00000000	0.0
82	0x3f800000	1.0
83	0x00000000	0.0
84	0x3f800000	1.0
85	0x00000000	0.0
86	0x3f800000	1.0
87	0x00000000	0.0
88	0x3f800000	1.0
89	0x00000000	0.0
90	0x3f800000	1.0
91	0x00000000	0.0
92	0x3f800000	1.0
93	0x00000000	0.0
94	0x3f800000	1.0
95	0x00000000	0.0
96	0x3f800000	1.0
97	0x00000000	0.0
98	0x3f800000	1.0
99	0x00000000	0.0

weight f4 [50, 2]
0	0x3dcb9233	0.09939995
1	0xbec94f9a	-0.39318544
2	0x3edd75ec	0.4325403
3	0x3dd03dc7	0.10168033
4	0xbe2d2c4c	-0.16911429
5	0xbe877d5a	-0.26462823
6	0x3f2652a9	0.6496988
7	0xbec46e46	-0.38365382
8	0xbf10d06e	-0.5656804
9	0xbd8e5368	-0.06949502
10	0xbe88f036	-0.26745766
11	0xbec40bbe	-0.3829021
12	0xbe7fa361	-0.24964668
13	0x3dbad86a	0.09123309
14	0x3ea0929e	0.3136186
15	0x3ddcf19a	0.10788269
16	0x3f612747	0.8795056
17	0x3e9bc38e	0.30422634
18	0x3f0d19f6	0.5511774
19	0x3e14e9c8	0.14542305
20	0xbe436542	-0.19081596
21	0xbf04f820	-0.5194111
22	0x3e15e1af	0.14636873
23	0x3f510440	0.8164711
24	0xbed80da5	-0.4219791
25	0x3dfffba2	0.12499167
26	0xbec0730c	-0.37587774
27	0x3df07403	0.117408775
28	0x3ddbd7b5	0.10734502
29	0xbf0caa9a	-0.5494782
30	0xbee802e2	-0.453147
31	0x3f028d1e	0.5099658
32	0x3e839c1f	0.25705048
33	0xbe44a489	-0.1920339
34	0xbe693bb1	-0.22776677
35	0xbef98da1	-0.48740867
36	0x3dac3298	0.084080875
37	0x3e87bca1	0.265111
38	0x3eeb908d	0.4600872
39	0x3d8e4073	0.069458865
40	0xbe9662b3	-0.29372177
41	0xbe62df8f	-0.22155593
42	0x3ed4e8dd	0.4158391
43	0x3ec95531	0.39322808
44	0x3e80dc46	0.25168055
45	0x3ec198b8	0.37811828
46	0x3f1c35fe	0.61019886
47	0xbe7a71c2	-0.24457458
48	0xbf0c090f	-0.5470132
49	0x3f50d322	0.81572163
50	0xbea0a68f	-0.31377074
51	0xbef222af	-0.47292086
52	0xbed19ab5	-0.40938345
53	0xbeda4627	-0.42631647
54	0xbed93298	-0.42421412
55	0x3e421c51	0.18956114
56	0xbf1e73c7	-0.6189541
57	0x3ebd4aa5	0.36971012
58	0x3ed8fd0d	0.42380562
59	0xbf139c7b	-0.57660645
60	0x3f05084b	0.5196578
61	0x3e833994	0.25629866
62	0xbf087d11	-0.53315836
63	0xbef61ede	-0.48070425
64	0x3e993f94	0.2993132
65	0x3d33db4e	0.043910317
66	0xbe809677	-0.25114796
67	0xbec36e1a	-0.38169938
68	0xbec20b96	-0.37899464
69	0xbd9a72ea	-0.07541449
70	0x3f2fb0ad	0.6862896
71	0xbf1a5735	-0.6028932
72	0x3f08225f	0.53177446
73	0x3dcf8a9a	0.10133858
74	0x3f2a30f5	0.6648095
75	0xbf00aab8	-0.50260496
76	0x3f03a94e	0.51430213
77	0xbf0e5c7a	-0.5560986
78	0xbf009b2f	-0.5023679
79	0x3f2691c6	0.6506618
80	0x3f274fb4	0.6535599
81	0xbe36c0e9	-0.17847027
82	0xbf42ea93	-0.7613918
83	0xbe953faa	-0.29150134
84	0xbf3152b9	-0.6926685
85	0xbe55e19f	-0.20886849
86	0xbe8cf984	-0.27534115
87	0xbe9a522a	-0.3014081
88	0xbe86740f	-0.2626042
89	0x3e7b6db0	0.24553561
90	0xbe2fedb9	-0.17180528
91	0xbe4aafb0	-0.19793582
92	0xbe8a69eb	-0.27033934
93	0xbeefd62d	-0.4684309
94	0xbf37fc50	-0.71869373
95	0x3ef1ee80	0.47252274
96	0x3e38d850	0.18051267
97	0x3ea5c9ca	0.32380515
98	0x3ef741d6	0.48292416
99	0x3ec0dd87	0.37669012

bias f4 [50]
0	0x3e7124fd	0.23549266
1	0x3e1852fc	0.14875406
2	0xbdeab02f	-0.114593856
3	0xbea3898d	-0.3194088
4	0xbebef2d1	-0.3729463
5	0x3ea29f2f	0.31762072
6	0x3edc60ee	0.430427
7	0xbef6dbd7	-0.482146
8	0x3f5335d8	0.82504034
9	0xbf003368	-0.5007844
10	0x3f1aa54c	0.60408473
11	0x3e550fd2	0.20806816
12	0x3ebe7426	0.3719799
13	0x3eaa2905	0.3323442
14	0x3ebe4b54	0.37166846
15	0x3ed6cc1a	0.41952592
16	0xbe5233cd	-0.20527573
17	0xbebf84af	-0.37405917
18	0x3e0acd29	0.13554825
19	0x3ea7f801	0.328064
20	0xbdfc4e1d	-0.123195864
21	0xbefdb029	-0.49548462
22	0xbe93d1ae	-0.2887091
23	0xb9cd723d	-0.0003918576
24	0xbf5d0487	-0.86335033
25	0x3e0ea2b2	0.13929251
26	0x3e6d788d	0.23190518
27	0x3f2be049	0.67139107
28	0x3d5c7d4e	0.053830437
29	0x3f19c5f6	0.6006769
30	0x3ed87895	0.42279497
31	0x3f271123	0.65260524
32	0xbf1e7c09	-0.6190801
33	0xbf0d7411	-0.5525523
34	0xbea30f07	-0.31847402
35	0x3ec6460b	0.38725314
36	0x3e81937c	0.25307834
37	0x3e9b7e1e	0.30369657
38	0x3f0c8d45	0.5490306
39	0xbeecde04	-0.46263134
40	0xbed9be09	-0.42527798
41	0x3ef95a4c	0.48701704
42	0xbf1ad339	-0.6047855
43	0x3e939887	0.28827307
44	0x3e1864f7	0.14882265
45	0x3c02d733	0.007985878
46	0xbbc258d4	-0.0059309993
47	0x3efa4f64	0.48888695
48	0xbe2973a1	-0.16548015
49	0xbf30b0e9	-0.69019943

weight f4 [50, 50]
0	0x3c490c55	0.012271007
1	0x3ec59466	0.38589782
2	0xbde02a51	-0.10945571
3	0xbe9a3605	-0.3011934
4	0xbc248762	-0.010042043
5	0xbe53df2b	-0.206906
6	0x3c51e5d6	0.012811145
7	0x3e03c876	0.12869439
8	0x3db3303d	0.08749435
9	0xbccaa48d	-0.024736667
10	0xbf86a8cf	-1.0520266
11	0x3de64e39	0.112453885
12	0x3e1d984d	0.1539013
13	0xbd621e95	-0.055204947
14	0xbd7d8246	-0.061891817
15	0x3d824dcd	0.063624956
16	0xbcd48db3	-0.025946474
17	0xbebbacb6	-0.36655205
18	0x3e3c2890	0.18374848
19	0x3db98f0a	0.09060486
20	0xbf03bf06	-0.51463354
21	0xbadc684f	-0.0016815754
22	0x3de548d2	0.1119553
23	0xbe565c95	-0.20933755
24	0x3e49fd32	0.19725493
25	0xbce4b16f	-0.027916638
26	0x3ce3d517	0.02781157
27	0xbd390d97	-0.045178976
28	0xbe36146e	-0.17781231
29	0x3be6aa17	0.0070393193
30	0x3e08994a	0.13339725
31	0xbe016803	-0.12637334
32	0xbdb6cbef	-0.08925616
33	0xbeb89618	-0.36052012
34	0xbd94fda5	-0.07274941
35	0xbe2ea4fc	-0.17055124
36	0xbe00c98f	-0.12576889
37	0xbecf089d	-0.4043626
38	0xbd203432	-0.039112277
39	0x3d585b68	0.052821547
40	0x3ceeff29	0.029174404
41	0xbda6c9e3	-0.081439756
42	0xbe1e032f	-0.15430902
43	0xbde93d01	-0.11388589
44	0x3c8916bb	0.016734472
45	0xbd83f423	-0.0644305
46	0xbe1b9766	-0.15194473
47	0x3e6fa0f0	0.23401237
48	0x3e0edf47	0.13952361
49	0x3df081d1	0.117435105
50	0xbe529cd3	-0.20567636
51	0xbe077edc	-0.13231987
52	0x3e3cb707	0.18429194
53	0x3ead1097	0.3380172
54	0x3d033a3a	0.03203795
55	0x3e43830c	0.19092959
56	0x3da6b47d	0.08139894
57	0xbc374dd3	-0.011187988
58	0x3c3d2e79	0.0115467245
59	0xbdb4e4ec	-0.08832726
60	0x3f8021d2	1.0010321
61	0xbe650288	-0.22364247
62	0xbd871f56	-0.06597774
63	0xbe0a99f7	-0.13535295
64	0x3d2eb69c	0.04265462
65	0xbe768757	-0.24075066
66	0x3dbb2ece	0.09139787
67	0x3e69e977	0.22842966
68	0xbdf3e741	-0.119093426
69	0xbd84af1d	-0.06478713
70	0x3e4700fc	0.1943397
71	0xbd63d929	-0.055627022
72	0xbe8051ee	-0.25062507
73	0x3cfb76f2	0.030696366
74	0xbe324cac	-0.1741206
75	0x3d6d953f	0.05800366
76	0x3de4ae72	0.11166085
77	0xbdb2441f	-0.08704399
78	0x3e2285b6	0.15871319
79	0x3cf98fa3	0.030464
80	0xbe40432e	-0.18775627
81	0x3e1fd5d0	0.15608907
82	0x3e122418	0.14271581
83	0x3e0fcd7c	0.1404323
84	0x3e310ea8	0.17290747
85	0xbbc07fff	-0.0058746333
86	0x3e5951c6	0.212226
87	0x3e93c055	0.28857675
88	0x3e539e40	0.20665836
89	0x3cb9b25c	0.022668056
90	0x3e40f495	0.188433
91	0x3e1b7426	0.15181026
92	0xbc3aa5ee	-0.0113921
93	0x3cad6699	0.021167086
94	0xbce5847a	-0.028017271
95	0xbc6dc9a8	-0.014513411
96	0x3e0ff81c	0.1405949
97	0xbed0ffa0	-0.40820026
98	0xbe08d777	-0.13363443
99	0xbe40900a	-0.18804947
100	0xbdcfdbeb	-0.10149368
101	0xbe64c1fd	-0.22339626
102	0x3e5ce7cc	0.21572798
103	0x3dda784e	0.106674775
104	0xbd345bff	-0.044033047
105	0x3e7aab7e	0.24479482
106	0xbd95064b	-0.07276591
107	0xbdfd45a6	-0.123668
108	0x3c55c664	0.013047788
109	0x3cdfa306	0.027299415
110	0x3f16e15f	0.5893764
111	0xbda96b9f	-0.0827248
112	0xbda1b8b8	-0.078965604
113	0xbd4d1557	-0.05006918
114	0xbd4e5ec5	-0.050383348
115	0xbe7c7ed4	-0.24657756
116	0x3e06d9e3	0.13169055
117	0x3e555a86	0.20835313
118	0xbe2591f8	-0.16168964
119	0xbe289eb2	-0.16466787
120	0x3ebc9692	0.36833626
121	0xbc951ed3	-0.018203175
122	0xbe4e4b20	-0.20145845
123	0x3d8e6353	0.06952538
124	0xbe61c6cb	-0.2204849
125	0x3e0e7adf	0.13914059
126	0xbc91450d	-0.017733121
127	0xbda5a4f1	-0.08088101
128	0x3e063526	0.13106212
129	0x3d940b90	0.07228768
130	0xbcc9f215	-0.024651567
131	0x3e82d230	0.25550985
132	0xbe05d7e4	-0.13070637
133	0x3e895974	0.2682606
134	0xbcbecb30	-0.023290247
135	0x3e746d23	0.23869757
136	0xbbfcd9ac	-0.007716378
137	0x3d05dba0	0.032680154
138	0x3e68a41f	0.22718857
139	0xbe24bc59	-0.16087474
140	0x3d8cdaca	0.06877668
141	0x3def940e	0.11698161
142	0x3e42b022	0.19012502
143	0xbd4a0e1b	-0.04932986
144	0xbd725b03	-0.059168827
145	0xbcc29db7	-0.023756845
146	0x3e5ad492	0.21370152
147	0xbeac5f0a	-0.3366626
148	0xbcb61d50	-0.022230774
149	0xbe5b2619	-0.21401252
150	0xbdde1955	-0.108446755
151	0xbe4eca4c	-0.20194358
152	0x3d2423a1	0.04007304
153	0x3c896ae1	0.016774597
154	0x3d95f24e	0.073216066
155	0x3d348791	0.0440746
156	0xbd30b7b8	-0.043143958
157	0xbe26e612	-0.16298702
158	0xbe3a1d73	-0.18175296
159	0xbda2b2f9	-0.079442926
160	0x3eb13cd3	0.34616718
161	0xbbdada69	-0.0066788686
162	0xbd0f7a70	-0.035028875
163	0xbdbe6c4f	-0.09298002
164	0xbd41f13d	-0.047349203
165	0xbe52fbf3	-0.20603923
166	0x3d0471f7	0.032335248
167	0x3bf14406	0.0073628454
168	0xbdc1f2a5	-0.09470109
169	0xbdd4dc8a	-0.10393627
170	0x3ea0b1e7	0.3138573
171	0xbe6be2e1	-0.23035766
172	0xbe41aa73	-0.18912677
173	0x3d9f2a6e	0.07771765
174	0xbdf90332	-0.121588126
175	0x3d858f55	0.06521479
176	0x3e51f1d0	0.205024
177	0xbd328847	-0.043586995
178	0x3e3eb37b	0.18623154
179	0xbdf3b2c7	-0.118993334
180	0xbdc16fa6	-0.094451234
181	0x3e29967b	0.1656131
182	0x3e0f8940	0.140172
183	0x3dc69506	0.09696393
184	0xba4145b1	-0.00073727506
185	0x3e54d13e	0.20782945
186	0xbdb901aa	-0.090335205
187	0x3e19db43	0.15025048
188	0xbb997136	-0.0046826852
189	0xbd9568ad	-0.07295356
190	0xb981df05	-0.0002477096
191	0xbda9d139	-0.08291859
192	0x3dceaa34	0.100910574
193	0xbd923bcc	-0.071403116
194	0x3dd98745	0.10621504
195	0x3de85269	0.113438435
196	0x3da05d23	0.078302644
197	0xbe326d2f	-0.17424463
198	0x3c2cdd9d	0.010550884
199	0x3d367e06	0.04455378
200	0x3d5c9ebe	0.053862326
201	0xbe3a14e5	-0.18172033
202	0x3e57384d	0.21017571
203	0x3e9aee2b	0.30259833
204	0x3e142164	0.14465863
205	0x3e350f29	0.17681564
206	0xbd80562b	-0.06266435
207	0xbcb71c92	-0.02235249
208	0xbdf25620	-0.11832833
209	0xbd5d75df	-0.05406749
210	0x3f8a90e4	1.0825467
211	0xbe0de15f	-0.13855503
212	0xbd3490f4	-0.04408355
213	0xbdb92994	-0.090411335
214	0xbbcb60d9	-0.0062066135
215	0xbe9823c3	-0.29714784
216	0xbdd22f7f	-0.102629654
217	0x3e5e859c	0.21730655
218	0xbd9a903a	-0.0754704
219	0xbd1f4aa8	-0.038889557
220	0x3ed54b77	0.41659138
221	0xbd3b2393	-0.045688223
222	0xbe46af39	-0.1940278
223	0x3daa667f	0.08320331
224	0xbe872946	-0.26398677
225	0x3db3de5b	0.08782645
226	0x3d69d39f	0.057086583
227	0xbd87400f	-0.06604015
228	0x3db58aac	0.0886434
229	0xbe003e2f	-0.12523721
230	0xbe560ae4	-0.20902592
231	0x3e3a6a39	0.18204583
232	0x3d29edbf	0.041486498
233	0x3dcf2688	0.10114771
234	0x3e0eec2a	0.13957277
235	0x3d9a6f4e	0.07540761
236	0x3d82ab07	0.06380277
237	0x3e83600e	0.2565922
238	0x3d91b614	0.07114807
239	0xbdd028e2	-0.10164048
240	0x3d6fdc85	0.058559913
241	0x3e0bcc51	0.1365216
242	0x3e4f7c65	0.20262296
243	0x3dd876d2	0.10569538
244	0xbe485ba8	-0.19566214
245	0x3e03a9ba	0.12857714
246	0x3e0af3dd	0.13569589
247	0xbef1446f	-0.47122523
248	0xbd9891b4	-0.07449666
249	0x3d1ab436	0.03776952
250	0x3ccbb99a	0.024868775
251	0xbe663885	-0.22482498
252	0x3e0fe517	0.14052235
253	0x3d8ec2f1	0.06970776
254	0xbdc0c4a9	-0.0941251
255	0x3e8b2d7b	0.27183136

bias f4 [50]
0	0x3da7ccce	0.0819336
1	0x3d41890d	0.047249842
2	0xbccb510a	-0.024818916
3	0xbdd513b1	-0.104041465
4	0x3dc0fd78	0.09423345
5	0xbc56ab1c	-0.013102319
6	0x3d2114c4	0.039326444
7	0xbc807a8d	-0.015683437
8	0xbe55acba	-0.20866671
9	0x3e0c2256	0.13684973
10	0xbddbf006	-0.1073914
11	0x3e287d80	0.16454124
12	0xbe1f55b8	-0.15560043
13	0xbe05e4d9	-0.1307558
14	0x3d8acf68	0.06777841
15	0xbaa29847	-0.0012405001
16	0xbd83e6d2	-0.0644051
17	0xbcb66193	-0.022263324
18	0xbdde563f	-0.10856294
19	0xbdcbbd63	-0.09948232
20	0x3de6fe73	0.11279001
21	0xbcee1c10	-0.029066116
22	0x3df990e4	0.12185839
23	0x3e136c4f	0.14396785
24	0x3b17de9f	0.0023173464
25	0xbe6d4b3c	-0.23173231
26	0xbd89f1e3	-0.06735589
27	0xbd998efb	-0.074979745
28	0xbe04da5b	-0.12973921
29	0x3da7aa9c	0.08186838
30	0x3cdebb99	0.027189063
31	0xbe2c347b	-0.16816895
32	0x3dbcd2e4	0.09219912
33	0x3d91081c	0.07081625
34	0x3d058fe8	0.032607943
35	0x39911055	0.00027668723
36	0x3cbbc981	0.022923233
37	0x3a959e0f	0.0011414903
38	0xbd91febb	-0.07128664
39	0xbe530375	-0.20606788
40	0xbd776f1b	-0.060408693
41	0x3c52dfab	0.012870709
42	0x3dcfd401	0.101478584
43	0x3bf463c7	0.0074581834
44	0xbc9abcd9	-0.018888878
45	0xbc72b21c	-0.014812972
46	0x3de23610	0.11045468
47	0x3da9dba3	0.082938455
48	0xbb8a0289	-0.004211728
49	0xbd2645d7	-0.04059395

mask f4 [50, 50]
0	0x3f800000	1.0
1	0x3f800000	1.0
2	0x3f800000	1.0
3	0x3f800000	1.0
4	0x3f800000	1.0
5	0x3f800000	1.0
6	0x3f800000	1.0
7	0x3f800000	1.0
8	0x3f800000	1.0
9	0x3f800000	1.0
10	0x3f800000	1.0
11	0x3f800000	1.0
12	0x3f800000	1.0
13	0x3f800000	1.0
14	0x3f800000	1.0
15	0x3f800000	1.0
16	0x3f800000	1.0
17	0x3f800000	1.0
18	0x3f800000	1.0
19	0x3f800000	1.0
20	0x3f800000	1.0
21	0x3f800000	1.0
22	0x3f800000	1.0
23	0x3f800000	1.0
24	0x3f800000	1.0
25	0x3f800000	1.0
26	0x3f800000	1.0
27	0x3f800000	1.0
28	0x3f800000	1.0
29	0x3f800000	1.0
30	0x3f800000	1.0
31	0x3f800000	1.0
32	0x3f800000	1.0
33	0x3f800000	1.0
34	0x3f800000	1.0
35	0x3f800000	1.0
36	0x3f800000	1.0
37	0x3f800000	1.0
38	0x3f800000	1.0
39	0x3f800000	1.0
40	0x3f800000	1.0
41	0x3f800000	1.0
42	0x3f800000	1.0
43	0x3f800000	1.0
44	0x3f800000	1.0
45	0x3f800000	1.0
46	0x3f800000	1.0
47	0x3f800000	1.0
48	0x3f800000	1.0
49	0x3f800000	1.0
50	0x3f800000	1.0
51	0x3f800000	1.0
52	0x3f800000	1.0
53	0x3f800000	1.0
54	0x3f800000	1.0
55	0x3f800000	1.0
56	0x3f800000	1.0
57	0x3f800000	1.0
58	0x3f800000	1.0
59	0x3f800000	1.0
60	0x3f800000	1.0
61	0x3f800000	1.0
62	0x3f800000	1.0
63	0x3f800000	1.0
64	0x3f800000	1.0
65	0x3f800000	1.0
66	0x3f800000	1.0
67	0x3f800000	1.0
68	0x3f800000	1.0
69	0x3f800000	1.0
70	0x3f800000	1.0
71	0x3f800000	1.0
72	0x3f800000	1.0
73	0x3f800000	1.0
74	0x3f800000	1.0
75	0x3f800000	1.0
76	0x3f800000	1.0
77	0x3f800000	1.0
78	0x3f800000	1.0
79	0x3f800000	1.0
80	0x3f800000	1.0
81	0x3f800000	1.0
82	0x3f800000	1.0
83	0x3f800000	1.0
84	0x3f800000	1.0
85	0x3f800000	1.0
86	0x3f800000	1.0
87	0x3f800000	1.0
88	0x3f800000	1.0
89	0x3f800000	1.0
90	0x3f800000	1.0
91	0x3f800000	1.0
92	0x3f800000	1.0
93	0x3f800000	1.0
94	0x3f800000	1.0
95	0x3f800000	1.0
96	0x3f800000	1.0
97	0x3f800000	1.0
98	0x3f800000	1.0
99	0x3f800000	1.0
100	0x3f800000	1.0
101	0x3f800000	1.0
102	0x3f800000	1.0
103	0x3f800000	1.0
104	0x3f800000	1.0
105	0x3f800000	1.0
106	0x3f800000	1.0
107	0x3f800000	1.0
108	0x3f800000	1.0
109	0x3f800000	1.0
110	0x3f800000	1.0
111	0x3f800000	1.0
112	0x3f800000	1.0
113	0x3f800000	1.0
114	0x3f800000	1.0
115	0x3f800000	1.0
116	0x3f800000	1.0
117	0x3f800000	1.0
118	0x3f800000	1.0
119	0x3f800000	1.0
120	0x3f800000	1.0
121	0x3f800000	1.0
122	0x3f800000	1.0
123	0x3f800000	1.0
124	0x3f800000	1.0
125	0x3f800000	1.0
126	0x3f800000	1.0
127	0x3f800000	1.0
128	0x3f800000	1.0
129	0x3f800000	1.0
130	0x3f800000	1.0
131	0x3f800000	1.0
132	0x3f800000	1.0
133	0x3f800000	1.0
134	0x3f800000	1.0
135	0x3f800000	1.0
136	0x3f800000	1.0
137	0x3f800000	1.0
138	0x3f800000	1.0
139	0x3f800000	1.0
140	0x3f800000	1.0
141	0x3f800000	1.0
142	0x3f800000	1.0
143	0x3f800000	1.0
144	0x3f800000	1.0
145	0x3f800000	1.0
146	0x3f800000	1.0
147	0x3f800000	1.0
148	0x3f800000	1.0
149	0x3f800000	1.0
150	0x3f800000	1.0
151	0x3f800000	1.0
152	0x3f800000	1.0
153	0x3f800000	1.0
154	0x3f800000	1.0
155	0x3f800000	1.0
156	0x3f800000	1.0
157	0x3f800000	1.0
158	0x3f800000	1.0
159	0x3f800000	1.0
160	0x3f800000	1.0
161	0x3f800000	1.0
162	0x3f800000	1.0
163	0x3f800000	1.0
164	0x3f800000	1.0
165	0x3f800000	1.0
166	0x3f800000	1.0
167	0x3f800000	1.0
168	0x3f800000	1.0
169	0x3f800000	1.0
170	0x3f800000	1.0
171	0x3f800000	1.0
172	0x3f800000	1.0
173	0x3f800000	1.0
174	0x3f800000	1.0
175	0x3f800000	1.0
176	0x3f800000	1.0
177	0x3f800000	1.0
178	0x3f800000	1.0
179	0x3f800000	1.0
180	0x3f800000	1.0
181	0x3f800000	1.0
182	0x3f800000	1.0
183	0x3f800000	1.0
184	0x3f800000	1.0
185	0x3f800000	1.0
186	0x3f800000	1.0
187	0x3f800000	1.0
188	0x3f800000	1.0
189	0x3f800000	1.0
190	0x3f800000	1.0
191	0x3f800000	1.0
192	0x3f800000	1.0
193	0x3f800000	1.0
194	0x3f800000	1.0
195	0x3f800000	1.0
196	0x3f800000	1.0
197	0x3f800000	1.0
198	0x3f800000	1.0
199	0x3f800000	1.0
200	0x3f800000	1.0
201	0x3f800000	1.0
202	0x3f800000	1.0
203	0x3f800000	1.0
204	0x3f800000	1.0
205	0x3f800000	1.0
206	0x3f800000	1.0
207	0x3f800000	1.0
208	0x3f800000	1.0
209	0x3f800000	1.0
210	0x3f800000	1.0
211	0x3f800000	1.0
212	0x3f800000	1.0
213	0x3f800000	1.0
214	0x3f800000	1.0
215	0x3f800000	1.0
216	0x3f800000	1.0
217	0x3f800000	1.0
218	0x3f800000	1.0
219	0x3f800000	1.0
220	0x3f800000	1.0
221	0x3f800000	1.0
222	0x3f800000	1.0
223	0x3f800000	1.0
224	0x3f800000	1.0
225	0x3f800000	1.0
226	0x3f800000	1.0
227	0x3f800000	1.0
228	0x3f800000	1.0
229	0x3f800000	1.0
230	0x3f800000	1.0
231	0x3f800000	1.0
232	0x3f800000	1.0
233	0x3f800000	1.0
234	0x3f800000	1.0
235	0x3f800000	1.0
236	0x3f800000	1.0
237	0x3f800000	1.0
238	0x3f800000	1.0
239	0x3f800000	1.0
240	0x3f800000	1.0
241	0x3f800000	1.0
242	0x3f800000	1.0
243	0x3f800000	1.0
244	0x3f800000	1.0
245	0x3f800000	1.0
246	0x3f800000	1.0
247	0x3f800000	1.0
248	0x3f800000	1.0
249	0x3f800000	1.0
250	0x3f800000	1.0
251	0x3f800000	1.0
252	0x3f800000	1.0
253	0x3f800000	1.0
254	0x3f800000	1.0
255	0x3f800000	1.0

weight f4 [50, 50]
0	0xbdc0b3d1	-0.09409297
1	0x3db7e4a6	0.08979158
2	0xbd22815b	-0.039674144
3	0xbaa8673b	-0.0012848148
4	0x3e169e7a	0.14708892
5	0x3d6287ee	0.055305414
6	0xbd739fb2	-0.05947847
7	0x3d99c84f	0.07508909
8	0x3dcfe66d	0.10151372
9	0xbd56ebc5	-0.05247094
10	0x3d6d912f	0.057999786
11	0xbe07a501	-0.13246538
12	0xbd3b6981	-0.045754913
13	0x3de05c7f	0.10955142
14	0xbcdde026	-0.027084421
15	0xbce10a77	-0.02747081
16	0x3d573c49	0.052547727
17	0xbe2b0af1	-0.16703393
18	0x3dabe906	0.08394055
19	0x3e01266d	0.12612315
20	0x3e11a25e	0.14222094
21	0xbcdfcef5	-0.027320364
22	0xbc4e73d9	-0.012600862
23	0xbd9522be	-0.07282017
24	0xbc4318d6	-0.011907777
25	0x3e436275	0.19080527
26	0x3d95b77d	0.07310388
27	0xbc1ca0a8	-0.009559788
28	0x3de0009f	0.109376185
29	0xbd794179	-0.060853455
30	0xbdcc872b	-0.09986719
31	0xbca22c77	-0.019796593
32	0x3d04462e	0.03229349
33	0xbd40d2c9	-0.04707602
34	0x3dabdc8f	0.083916776
35	0xbd4d4ca0	-0.050121903
36	0xbdad4d81	-0.08462048
37	0xbc8855fe	-0.016642567
38	0x3e266008	0.1624757
39	0x3c87e59d	0.01658898
40	0x3e1e34a6	0.15449771
41	0x3da4f71e	0.08054946
42	0xbe2b692f	-0.16739343
43	0xbdbf539b	-0.09342118
44	0xbd78b341	-0.060717825
45	0x3e572811	0.21011378
46	0xbb9edf15	-0.004848371
47	0xbe06aa9f	-0.13151024
48	0x3d9f3ec6	0.07775645
49	0x3d54732f	0.05186766
50	0x3dc1a2a4	0.09454849
51	0xbe00dc1d	-0.12583967
52	0xbdbab7f9	-0.09117121
53	0xbccab092	-0.024742398
54	0x3d719497	0.058979597
55	0xbdaafb30	-0.083486915
56	0x3dcc7e29	0.09985001
57	0x3c4afdc1	0.012389601
58	0xbdac0c48	-0.0840078
59	0x3d0f342e	0.03496187
60	0xbe02dff3	-0.12780742
61	0x3cd8f1ec	0.026482545
62	0xbe104f56	-0.14092764
63	0xbdf4dcba	-0.11956163
64	0x3d6228c7	0.05521467
65	0xbe1bd3d6	-0.15217528
66	0xbd0edd44	-0.034878984
67	0x3cd1dc8f	0.025617866
68	0x3ce8a3d3	0.02839843
69	0x3d942137	0.07232898
70	0x3d13c354	0.03607495
71	0xbd48afab	-0.048995655
72	0x3dd951e3	0.10611322
73	0x3d6bea43	0.057596456
74	0xbd8d6383	-0.06903746
75	0xbd9dc0e9	-0.0770281
76	0x3d6101de	0.05493342
77	0xbc739816	-0.014867803
78	0x3d874541	0.06605006
79	0x3d72bca1	0.05926192
80	0xbe18d718	-0.14925802
81	0x3ccf0ba2	0.025274102
82	0x3d4d7197	0.050157156
83	0xbdf49d97	-0.119441204
84	0x3ced78f2	0.028988335
85	0x3d0e6749	0.03476647
86	0xbd8b38ae	-0.0679792
87	0x3d334ac7	0.043772485
88	0xbd96f247	-0.073704295
89	0x3d6cacd0	0.057781994
90	0xbdbaac78	-0.09114927
91	0xbb9352a5	-0.004495936
92	0x3bf8700c	0.0075817164
93	0x3d582dc2	0.052778013
94	0x3e116e0e	0.14202139
95	0xbbf5b4be	-0.007498353
96	0xbd908a6d	-0.070576526
97	0xbdb5a8cf	-0.08870088
98	0x3e50f5ff	0.2040634
99	0xbdf88c77	-0.121361665
100	0xbe06591e	-0.13119933
101	0xbe45a550	-0.19301343
102	0x3d77b6e7	0.060477164
103	0x3e18f630	0.14937663
104	0x3db34bb8	0.087546766
105	0xbd5f24b4	-0.054478362
106	0xbd684ef0	-0.056715906
107	0xbcd91fec	-0.02650448
108	0x39518b10	0.00019983598
109	0x3d2bcad3	0.041941475
110	0x3dbf56e6	0.093427464
111	0xbd528137	-0.05139276
112	0xbbdbb5d6	-0.006705026
113	0xbdbf0abb	-0.093282185
114	0x3d26e8f4	0.040749505
115	0x3d5ffdd2	0.05468542
116	0x3b32ac5d	0.002726338
117	0x3e1787e8	0.14797938
118	0x3d9e13ca	0.07718618
119	0x3d0ca41f	0.034336206
120	0xbd351617	-0.04421052
121	0xbd7cd931	-0.061730567
122	0xbda15f41	-0.07879496
123	0xbbf6a0d0	-0.0075264946
124	0x3d5b3484	0.05351688
125	0x3d17db8d	0.037074614
126	0xbdeb64b7	-0.11493819
127	0xbd1adf87	-0.03781083
128	0xbe07b193	-0.13251333
129	0x3d53f891	0.051750723
130	0x3c27bf8c	0.010238539
131	0x3df07606	0.11741261
132	0xbdc59def	-0.09649264
133	0x3df6ac36	0.120445654
134	0xbd585032	-0.052810855
135	0xbbfd6318	-0.00773276
136	0xbe048e57	-0.12944923
137	0xbd9ee341	-0.07758189
138	0x3d845246	0.06461005
139	0x3d7aa950	0.061196625
140	0xbdd09cfb	-0.10186192
141	0x3c514745	0.01277334
142	0xbda59e6b	-0.080868565
143	0xbdbcffeb	-0.092285
144	0xbd04928a	-0.032366313
145	0xbd6d75b9	-0.057973597
146	0x3d9371df	0.071994536
147	0x3cbb6a21	0.022877755
148	0xbddb1cca	-0.106988505
149	0xbd8f7717	-0.070051365
150	0x3d91ee4a	0.07125528
151	0xbe01ba2c	-0.12668675
152	0x3c0d307e	0.0086175185
153	0xbe0c9a37	-0.13730703
154	0x3d848195	0.06470028
155	0xbe23d04a	-0.15997425
156	0x3c687512	0.014188068
157	0x3d35d24c	0.044390008
158	0xbd35d3d7	-0.04439148
159	0xbdac1a9b	-0.08403512
160	0xbd8f66e0	-0.07002044
161	0x3dc7f9ad	0.09764419
162	0x3d0f9873	0.035057496
163	0x3d635c43	0.05550791
164	0xbdc9070d	-0.09815798
165	0xbe08be3f	-0.13353823
166	0xbc3bc235	-0.011459877
167	0xbd338961	-0.043832187
168	0x3df156c5	0.11784128
169	0xbb647438	-0.003485931
170	0xbdafe6f5	-0.085889734
171	0xbb4cb39e	-0.003123499
172	0x3dfd8856	0.1237952
173	0x3cbc53cf	0.022989182
174	0xbb6a5c05	-0.0035760414
175	0x3da5517d	0.08072183
176	0x3e09f828	0.1347357
177	0xbcd079c5	-0.02544869
178	0xbd50e6e0	-0.05100143
179	0x3cfce6d0	0.030871779
180	0x3d1f98d3	0.038964104
181	0x3e0f9041	0.14019872
182	0x3d7ede96	0.062223993
183	0xbce8e4c5	-0.028429398
184	0xbde99228	-0.1140483
185	0x3d61042c	0.05493562
186	0x3cdcfc97	0.026975913
187	0x3c1d2417	0.009591124
188	0x3db36c4a	0.08760889
189	0xbd655984	-0.055993572
190	0xbd0b6f2a	-0.03404156
191	0x3d0b2416	0.03396996
192	0x3b628a0e	0.003456715
193	0x3dd08e82	0.10183431
194	0x3cfef43b	0.031122318
195	0x3d149538	0.03627512
196	0xbd99eba1	-0.07515646
197	0xbd3acd66	-0.04560604
198	0x3d59c3c5	0.053165216
199	0xbd69bdf9	-0.057065938
200	0xbd581143	-0.052750837
201	0xb9ad4288	-0.000330467
202	0xbd6b763e	-0.05748581
203	0xbdd00965	-0.10158042
204	0x3e00ea1c	0.12589306
205	0xbd0ca50f	-0.0343371
206	0x3d3663f6	0.044528924
207	0xbcebea79	-0.028798329
208	0x3d3302b5	0.043703754
209	0x3dafbeb0	0.08581293
210	0xbcb04f62	-0.021522228
211	0x3c88f946	0.016720425
212	0xbe174741	-0.14773275
213	0x3b971bae	0.004611454
214	0xbcbe2c12	-0.023214374
215	0x3dc0a2dc	0.09406063
216	0x3c72e570	0.01482521
217	0x3de203ed	0.11035905
218	0xbe0ceb8e	-0.13761732
219	0xbcc14273	-0.023591256
220	0x3e06c8bd	0.13162513
221	0x3d1a3961	0.037652377
222	0x3d61c940	0.055123568
223	0xbdf2e9f4	-0.11861029
224	0x3e19d5c2	0.15022948
225	0xbda049e7	-0.07826596
226	0xbdd7e68c	-0.1054202
227	0xbd958973	-0.07301607
228	0xbd529d96	-0.051419817
229	0xbd4faa00	-0.050699234
230	0xbdc280aa	-0.09497197
231	0xbc0a2ff4	-0.0084342845
232	0xbe0b8f72	-0.13628939
233	0xbbcbbf6a	-0.0062178867
234	0x3db731ce	0.08945046
235	0xbdb90012	-0.090332165
236	0x3e3dfbed	0.18553133
237	0x3e22e8ff	0.15909193
238	0xbd1c933e	-0.03822636
239	0xbdbe20bc	-0.09283587
240	0x3d9afc46	0.075676486
241	0xbdf4c2aa	-0.11951192
242	0xbdcf669d	-0.10126994
243	0x3e0328f3	0.1280859
244	0x3de95bd9	0.11394472
245	0xbe05b11f	-0.13055848
246	0xbe0f34f0	-0.13985038
247	0xbe0ad223	-0.13556723
248	0x3dfe5967	0.12419396
249	0x3e17414e	0.14771006
250	0xbdce060c	-0.10059747
251	0xbda7d1a8	-0.08194286
252	0x3e441b20	0.19150972
253	0xbce0d074	-0.027443148
254	0x3d3ec8d1	0.046578232
255	0xbced2c7f	-0.028951881

bias f4 [50]
0	0xbe13693a	-0.1439561
1	0x3e2f0c94	0.17094642
2	0xbe2ddc9a	-0.16978684
3	0xbd3f7280	-0.046740055
4	0x3d005dc9	0.03133944
5	0x3d441da1	0.04787982
6	0xbe099c55	-0.13438542
7	0x3b6a9969	0.0035797006
8	0xbd66b2ec	-0.056322977
9	0xbd2dadbf	-0.042402025
10	0xbe83bba3	-0.25729093
11	0x3bec6072	0.0072136456
12	0x3a926b8b	0.0011170966
13	0xbe85eb91	-0.26156285
14	0xbd3e212b	-0.04641835
15	0x3d70bc9b	0.05877362
16	0xbde40f4f	-0.111357324
17	0x3e876f86	0.26452273
18	0xbe388d15	-0.18022569
19	0xbdccf31a	-0.100073054
20	0x3dbd949d	0.09256861
21	0xbda808d0	-0.08204806
22	0xbd09f37f	-0.03367948
23	0xbc6bef70	-0.014400348
24	0xbd3bde1a	-0.04586611
25	0xbdeec480	-0.11658573
26	0xbdedb92e	-0.11607586
27	0x3d1191ec	0.035539553
28	0x3db7dd2a	0.089777306
29	0x3b3f0b34	0.0029150965
30	0xbca47f3a	-0.020080198
31	0x3e64ae9b	0.22332232
32	0x3dd0ad07	0.10189252
33	0xbe84b387	-0.25918218
34	0xbd97f800	-0.07420349
35	0xbabc881b	-0.0014383824
36	0xbe5272c4	-0.20551592
37	0x3d91d89a	0.071213916
38	0x3e045fd6	0.12927184
39	0xbd947204	-0.07248309
40	0xbe63f4c8	-0.22261345
41	0x3c2fda85	0.010733251
42	0x3d694d57	0.056958523
43	0x3e3b812e	0.18310997
44	0x3e64de96	0.22350535
45	0x3e0fa214	0.14026672
46	0xbc1f1a09	-0.009710797
47	0xbd01142d	-0.03151338
48	0x3cdd8d36	0.027044874
49	0xbddfb70c	-0.10923585

mask f4 [50, 50]
0	0x3f800000	1.0
1	0x3f800000	1.0
2	0x3f800000	1.0
3	0x3f800000	1.0
4	0x3f800000	1.0
5	0x3f800000	1.0
6	0x3f800000	1.0
7	0x3f800000	1.0
8	0x3f800000	1.0
9	0x3f800000	1.0
10	0x3f800000	1.0
11	0x3f800000	1.0
12	0x3f800000	1.0
13	0x3f800000	1.0
14	0x3f800000	1.0
15	0x3f800000	1.0
16	0x3f800000	1.0
17	0x3f800000	1.0
18	0x3f800000	1.0
19	0x3f800000	1.0
20	0x3f800000	1.0
21	0x3f800000	1.0
22	0x3f800000	1.0
23	0x3f800000	1.0
24	0x3f800000	1.0
25	0x3f800000	1.0
26	0x3f800000	1.0
27	0x3f800000	1.0
28	0x3f800000	1.0
29	0x3f800000	1.0
30	0x3f800000	1.0
31	0x3f800000	1.0
32	0x3f800000	1.0
33	0x3f800000	1.0
34	0x3f800000	1.0
35	0x3f800000	1.0
36	0x3f800000	1.0
37	0x3f800000	1.0
38	0x3f800000	1.0
39	0x3f800000	1.0
40	0x3f800000	1.0
41	0x3f800000	1.0
42	0x3f800000	1.0
43	0x3f800000	1.0
44	0x3f800000	1.0
45	0x3f800000	1.0
46	0x3f800000	1.0
47	0x3f800000	1.0
48	0x3f800000	1.0
49	0x3f800000	1.0
50	0x3f800000	1.0
51	0x3f800000	1.0
52	0x3f800000	1.0
53	0x3f800000	1.0
54	0x3f800000	1.0
55	0x3f800000	1.0
56	0x3f800000	1.0
57	0x3f800000	1.0
58	0x3f800000	1.0
59	0x3f800000	1.0
60	0x3f800000	1.0
61	0x3f800000	1.0
62	0x3f800000	1.0
63	0x3f800000	1.0
64	0x3f800000	1.0
65	0x3f800000	1.0
66	0x3f800000	1.0
67	0x3f800000	1.0
68	0x3f800000	1.0
69	0x3f800000	1.0
70	0x3f800000	1.0
71	0x3f800000	1.0
72	0x3f800000	1.0
73	0x3f800000	1.0
74	0x3f800000	1.0
75	0x3f800000	1.0
76	0x3f800000	1.0
77	0x3f800000	1.0
78	0x3f800000	1.0
79	0x3f800000	1.0
80	0x3f800000	1.0
81	0x3f800000	1.0
82	0x3f800000	1.0
83	0x3f800000	1.0
84	0x3f800000	1.0
85	0x3f800000	1.0
86	0x3f800000	1.0
87	0x3f800000	1.0
88	0x3f800000	1.0
89	0x3f800000	1.0
90	0x3f800000	1.0
91	0x3f800000	1.0
92	0x3f800000	1.0
93	0x3f800000	1.0
94	0x3f800000	1.0
95	0x3f800000	1.0
96	0x3f800000	1.0
97	0x3f800000	1.0
98	0x3f800000	1.0
99	0x3f800000	1.0
100	0x3f800000	1.0
101	0x3f800000	1.0
102	0x3f800000	1.0
103	0x3f800000	1.0
104	0x3f800000	1.0
105	0x3f800000	1.0
106	0x3f800000	1.0
107	0x3f800000	1.0
108	0x3f800000	1.0
109	0x3f800000	1.0
110	0x3f800000	1.0
111	0x3f800000	1.0
112	0x3f800000	1.0
113	0x3f800000	1.0
114	0x3f800000	1.0
115	0x3f800000	1.0
116	0x3f800000	1.0
117	0x3f800000	1.0
118	0x3f800000	1.0
119	0x3f800000	1.0
120	0x3f800000	1.0
121	0x3f800000	1.0
122	0x3f800000	1.0
123	0x3f800000	1.0
124	0x3f800000	1.0
125	0x3f800000	1.0
126	0x3f800000	1.0
127	0x3f800000	1.0
128	0x3f800000	1.0
129	0x3f800000	1.0
130	0x3f800000	1.0
131	0x3f800000	1.0
132	0x3f800000	1.0
133	0x3f800000	1.0
134	0x3f800000	1.0
135	0x3f800000	1.0
136	0x3f800000	1.0
137	0x3f800000	1.0
138	0x3f800000	1.0
139	0x3f800000	1.0
140	0x3f800000	1.0
141	0x3f800000	1.0
142	0x3f800000	1.0
143	0x3f800000	1.0
144	0x3f800000	1.0
145	0x3f800000	1.0
146	0x3f800000	1.0
147	0x3f800000	1.0
148	0x3f800000	1.0
149	0x3f800000	1.0
150	0x3f800000	1.0
151	0x3f800000	1.0
152	0x3f800000	1.0
153	0x3f800000	1.0
154	0x3f800000	1.0
155	0x3f800000	1.0
156	0x3f800000	1.0
157	0x3f800000	1.0
158	0x3f800000	1.0
159	0x3f800000	1.0
160	0x3f800000	1.0
161	0x3f800000	1.0
162	0x3f800000	1.0
163	0x3f800000	1.0
164	0x3f800000	1.0
165	0x3f800000	1.0
166	0x3f800000	1.0
167	0x3f800000	1.0
168	0x3f800000	1.0
169	0x3f800000	1.0
170	0x3f800000	1.0
171	0x3f800000	1.0
172	0x3f800000	1.0
173	0x3f800000	1.0
174	0x3f800000	1.0
175	0x3f800000	1.0
176	0x3f800000	1.0
177	0x3f800000	1.0
178	0x3f800000	1.0
179	0x3f800000	1.0
180	0x3f800000	1.0
181	0x3f800000	1.0
182	0x3f800000	1.0
183	0x3f800000	1.0
184	0x3f800000	1.0
185	0x3f800000	1.0
186	0x3f800000	1.0
187	0x3f800000	1.0
188	0x3f800000	1.0
189	0x3f800000	1.0
190	0x3f800000	1.0
191	0x3f800000	1.0
192	0x3f800000	1.0
193	0x3f800000	1.0
194	0x3f800000	1.0
195	0x3f800000	1.0
196	0x3f800000	1.0
197	0x3f800000	1.0
198	0x3f800000	1.0
199	0x3f800000	1.0
200	0x3f800000	1.0
201	0x3f800000	1.0
202	0x3f800000	1.0
203	0x3f800000	1.0
204	0x3f800000	1.0
205	0x3f800000	1.0
206	0x3f800000	1.0
207	0x3f800000	1.0
208	0x3f800000	1.0
209	0x3f800000	1.0
210	0x3f800000	1.0
211	0x3f800000	1.0
212	0x3f800000	1.0
213	0x3f800000	1.0
214	0x3f800000	1.0
215	0x3f800000	1.0
216	0x3f800000	1.0
217	0x3f800000	1.0
218	0x3f800000	1.0
219	0x3f800000	1.0
220	0x3f800000	1.0
221	0x3f800000	1.0
222	0x3f800000	1.0
223	0x3f800000	1.0
224	0x3f800000	1.0
225	0x3f800000	1.0
226	0x3f800000	1.0
227	0x3f800000	1.0
228	0x3f800000	1.0
229	0x3f800000	1.0
230	0x3f800000	1.0
231	0x3f800000	1.0
232	0x3f800000	1.0
233	0x3f800000	1.0
234	0x3f800000	1.0
235	0x3f800000	1.0
236	0x3f800000	1.0
237	0x3f800000	1.0
238	0x3f800000	1.0
239	0x3f800000	1.0
240	0x3f800000	1.0
241	0x3f800000	1.0
242	0x3f800000	1.0
243	0x3f800000	1.0
244	0x3f800000	1.0
245	0x3f800000	1.0
246	0x3f800000	1.0
247	0x3f800000	1.0
248	0x3f800000	1.0
249	0x3f800000	1.0
250	0x3f800000	1.0
251	0x3f800000	1.0
252	0x3f800000	1.0
253	0x3f800000	1.0
254	0x3f800000	1.0
255	0x3f800000	1.0

weight f4 [4, 50]
0	0x3e0372a3	0.12836699
1	0x3dbce5c8	0.09223515
2	0xbce68afc	-0.028142445
3	0x3d87bd48	0.066278994
4	0x3c974fc8	0.01847066
5	0xbda21ba2	-0.07915427
6	0xbc51b5c0	-0.01279968
7	0x3da1446a	0.07874377
8	0x3d01d468	0.031696707
9	0xbdf72549	-0.120676585
10	0xbd5b4f62	-0.053542502
11	0xbd932285	-0.071843185
12	0x3dccf812	0.10008253
13	0x3cb8bcb0	0.02255091
14	0xbdb6b707	-0.089216284
15	0x3d8059bc	0.062671155
16	0x3d821e90	0.063534856
17	0xbdcaa79d	-0.09895251
18	0xbb7382c0	-0.003715679
19	0xbd5e57a4	-0.0542828
20	0x3d452430	0.048130214
21	0xbd735504	-0.05940725
22	0xbd4b7e8e	-0.04968124
23	0xbd55fcb2	-0.052242942
24	0x3df7e806	0.12104802
25	0x3c022430	0.007943198
26	0xbd10960a	-0.03529934
27	0xbdb4f0fa	-0.08835025
28	0x3db4370e	0.08799563
29	0x3d76db88	0.060267955
30	0x3da31448	0.07962853
31	0xbd51be4c	-0.051206872
32	0x3d3dd0e8	0.046341807
33	0x3dd12b22	0.10213305
34	0x3da9ad40	0.08284998
35	0x3d35f498	0.044422716
36	0xbcf0a4f4	-0.02937553
37	0x3bf95000	0.0076084137
38	0x3e043239	0.12909783
39	0xbbc290c0	-0.0059376657
40	0x3d84b7aa	0.06480344
41	0xbddd6dfa	-0.10811992
42	0x3c723620	0.014783412
43	0x3d9bad36	0.07601397
44	0x3d1b89c0	0.037973166
45	0xbe0f4a0a	-0.13993087
46	0xbd565b18	-0.052332968
47	0xbdc6e474	-0.09711543
48	0xbc330f50	-0.010928944
49	0xbc1a0ea0	-0.009402901
50	0xbccd87f4	-0.025089242
51	0xbddf61ea	-0.109073475
52	0x3d6413b4	0.055682853
53	0x3d773614	0.060354307
54	0xbdabcdd2	-0.083888665
55	0xbde0087a	-0.10939117
56	0xbcc38efc	-0.023871891
57	0xbdb7bdca	-0.08971746
58	0x3e02e11d	0.12781186
59	0xbd2f963c	-0.042867884
60	0x3e0f0173	0.13965397
61	0xbde09c7a	-0.109673455
62	0xbdbc0484	-0.09180549
63	0x3d29b630	0.041433513
64	0xbd5c82ba	-0.053835608
65	0x3cdd4440	0.027010083
66	0x3b6e7a00	0.0036388636
67	0xbd5097b8	-0.05092594
68	0xbbd086e0	-0.0063637346
69	0xbd80793c	-0.062731236
70	0x3dd38472	0.10327996
71	0xbd59d40e	-0.053180747
72	0xbd52e650	-0.051489174
73	0xbe0502a4	-0.12989289
74	0x3ce196a8	0.027537659
75	0x3db41438	0.08792919
76	0xbd5d40d0	-0.05401689
77	0x3dff56ce	0.124677286
78	0x3da171f8	0.07883066
79	0xbdf69aca	-0.120412424
80	0x3d76256c	0.060094282
81	0xbd9b9ee0	-0.075986624
82	0x3de589d6	0.11207931
83	0xbbad3860	-0.0052862614
84	0xbc26c5f0	-0.010179028
85	0xbd662f9c	-0.056197748
86	0x3dbf5c6a	0.093437985
87	0x3e092edd	0.13396783
88	0x3b990160	0.0046693534
89	0x3d3724b0	0.044712722
90	0xbd9fb8c5	-0.07798914
91	0x3d85ec26	0.06539182
92	0xbd49d654	-0.049276665
93	0x3c6923f0	0.01422976
94	0x3d922074	0.07135096
95	0xbd8d85d6	-0.06910293
96	0xbd0650ec	-0.032792017
97	0x3d67c510	0.056584418
98	0xbadc4400	-0.0016804934
99	0x3dff204e	0.124573335
100	0xbd60b690	-0.054861605
101	0x3d4efddd	0.05053507
102	0x3b0670bf	0.002051398
103	0x3a41b8b5	0.0007389889
104	0x3ccaf8c2	0.02477682
105	0x3a114826	0.0005542062
106	0xbc3d222b	-0.011543791
107	0x3a0b14f9	0.00053055544
108	0x390b47ed	0.00013282867
109	0x3db12b87	0.0865088
110	0xbde77239	-0.11301083
111	0x3b1aeb32	0.0023638722
112	0x3a009941	0.0004905649
113	0xbe0d5518	-0.13801992
114	0xba795c01	-0.0009512306
115	0xb9e39906	-0.00043410825
116	0xbc8fc673	-0.017550683
117	0x3e0b12d6	0.13581404
118	0xbd38b246	-0.04509189
119	0x3f03d1de	0.51492107
120	0x3b0c9c4f	0.0021455472
121	0xbd1367c3	-0.035987627
122	0x3dbb7059	0.09152288
123	0x3aa88a04	0.0012858515
124	0xba132126	-0.00056125445
125	0xbd9ae475	-0.07563106
126	0xba84c295	-0.0010128791
127	0x3a9df805	0.0012052065
128	0x3a83467e	0.0010015515
129	0xbd690db5	-0.056897838
130	0x3b10746e	0.0022042054
131	0x3da31226	0.07962446
132	0x3d2d3f38	0.04229662
133	0x3ec0587b	0.37567505
134	0xba0fb4d0	-0.000548196
135	0x3a3def0f	0.00072454003
136	0xbdee740e	-0.116432294
137	0x3b0f3f99	0.0021857976
138	0x3d09046e	0.03345149
139	0xbdc5aac5	-0.09651712
140	0xbd52e47b	-0.051487427
141	0x3cd4acee	0.025961366
142	0x3d181720	0.03713143
143	0x3d5f593f	0.05452847
144	0x3ded2926	0.11580114
145	0x3d38abc8	0.0450857
146	0x3b1b2f96	0.0023679486
147	0xb9142683	-0.00014128727
148	0x3d52eceb	0.051495474
149	0x3be259b7	0.0069076675
150	0xbce2166e	-0.027598586
151	0xbc69b805	-0.014265065
152	0xbb8c4467	-0.004280615
153	0x3b856cd4	0.004071811
154	0x3a9b41d0	0.0011845175
155	0x3acc3203	0.001557887
156	0x3a91db68	0.001112801
157	0x3afa1a60	0.0019081347
158	0x3ae1d017	0.0017228153
159	0xbbcd2755	-0.0062607923
160	0xbc9bcc1c	-0.019018225
161	0xbb6062d1	-0.0034238587
162	0x3a7a5458	0.00095493114
163	0x3cc821a1	0.024430098
164	0xb9050081	-0.00012684056
165	0xb7f1f54b	-2.8843662e-05
166	0xbadf2ad1	-0.001702631
167	0xbc891e14	-0.016737975
168	0xbd019c99	-0.031643484
169	0x3f1c6fb9	0.61107975
170	0xba1d9290	-0.0006010914
171	0xbd7f3579	-0.062306855
172	0x3db99f5b	0.09063598
173	0xbb3c7ed9	-0.002876213
174	0xb897604c	-7.218178e-05
175	0x3b044c5a	0.002018711
176	0x3b8fb189	0.0043851775
177	0x3b5c5cb7	0.0033624598
178	0xbb730127	-0.0037079544
179	0xbcc57b50	-0.024106652
180	0x3b12bd39	0.0022390618
181	0x3a5a9950	0.00083388854
182	0x3e037a9e	0.12839743
183	0x3f0be7c2	0.5465051
184	0x3ba629f8	0.005070921
185	0x3b549691	0.0032438377
186	0xbd2d32da	-0.042284824
187	0xbb0e137b	-0.0021679092
188	0x3da0ff86	0.07861237
189	0x3df13059	0.117768
190	0xbdcd54e2	-0.10025956
191	0xb988b3f5	-0.0002607402
192	0x39cc9abf	0.00039025207
193	0x3d07c316	0.033145033
194	0xbdde986d	-0.10868917
195	0x3c9c7acf	0.019101528
196	0xbb05375f	-0.0020327193
197	0xbb9815c8	-0.0046412684
198	0xbd0cb8d0	-0.03435594
199	0xbb06e8a0	-0.0020585433

bias f4 [4]
0	0x3f002719	0.5005966
1	0x3d9b78e9	0.07591421
2	0x3da64588	0.08118731
3	0xbdb685bb	-0.08912226

mask f4 [4, 50]
0	0x00000000	0.0
1	0x00000000	0.0
2	0x00000000	0.0
3	0x00000000	0.0
4	0x00000000	0.0
5	0x00000000	0.0
6	0x00000000	0.0
7	0x00000000	0.0
8	0x00000000	0.0
9	0x00000000	0.0
10	0x00000000	0.0
11	0x00000000	0.0
12	0x00000000	0.0
13	0x00000000	0.0
14	0x00000000	0.0
15	0x00000000	0.0
16	0x00000000	0.0
17	0x00000000	0.0
18	0x00000000	0.0
19	0x00000000	0.0
20	0x00000000	0.0
21	0x00000000	0.0
22	0x00000000	0.0
23	0x00000000	0.0
24	0x00000000	0.0
25	0x00000000	0.0
26	0x00000000	0.0
27	0x00000000	0.0
28	0x00000000	0.0
29	0x00000000	0.0
30	0x00000000	0.0
31	0x00000000	0.0
32	0x00000000	0.0
33	0x00000000	0.0
34	0x00000000	0.0
35	0x00000000	0.0
36	0x00000000	0.0
37	0x00000000	0.0
38	0x00000000	0.0
39	0x00000000	0.0
40	0x00000000	0.0
41	0x00000000	0.0
42	0x00000000	0.0
43	0x00000000	0.0
44	0x00000000	0.0
45	0x00000000	0.0
46	0x00000000	0.0
47	0x00000000	0.0
48	0x00000000	0.0
49	0x00000000	0.0
50	0x00000000	0.0
51	0x00000000	0.0
52	0x00000000	0.0
53	0x00000000	0.0
54	0x00000000	0.0
55	0x00000000	0.0
56	0x00000000	0.0
57	0x00000000	0.0
58	0x00000000	0.0
59	0x00000000	0.0
60	0x00000000	0.0
61	0x00000000	0.0
62	0x00000000	0.0
63	0x00000000	0.0
64	0x00000000	0.0
65	0x00000000	0.0
66	0x00000000	0.0
67	0x00000000	0.0
68	0x00000000	0.0
69	0x00000000	0.0
70	0x00000000	0.0
71	0x00000000	0.0
72	0x00000000	0.0
73	0x00000000	0.0
74	0x00000000	0.0
75	0x00000000	0.0
76	0x00000000	0.0
77	0x00000000	0.0
78	0x00000000	0.0
79	0x00000000	0.0
80	0x00000000	0.0
81	0x00000000	0.0
82	0x00000000	0.0
83	0x00000000	0.0
84	0x00000000	0.0
85	0x00000000	0.0
86	0x00000000	0.0
87	0x00000000	0.0
88	0x00000000	0.0
89	0x00000000	0.0
90	0x00000000	0.0
91	0x00000000	0.0
92	0x00000000	0.0
93	0x00000000	0.0
94	0x00000000	0.0
95	0x00000000	0.0
96	0x00000000	0.0
97	0x00000000	0.0
98	0x00000000	0.0
99	0x00000000	0.0
100	0x3f800000	1.0
101	0x3f800000	1.0
102	0x3f800000	1.0
103	0x3f800000	1.0
104	0x3f800000	1.0
105	0x3f800000	1.0
106	0x3f800000	1.0
107	0x3f800000	1.0
108	0x3f800000	1.0
109	0x3f800000	1.0
110	0x3f800000	1.0
111	0x3f800000	1.0
112	0x3f800000	1.0
113	0x3f800000	1.0
114	0x3f800000	1.0
115	0x3f800000	1.0
116	0x3f800000	1.0
117	0x3f800000	1.0
118	0x3f800000	1.0
119	0x3f800000	1.0
120	0x3f800000	1.0
121	0x3f800000	1.0
122	0x3f800000	1.0
123	0x3f800000	1.0
124	0x3f800000	1.0
125	0x3f800000	1.0
126	0x3f800000	1.0
127	0x3f800000	1.0
128	0x3f800000	1.0
129	0x3f800000	1.0
130	0x3f800000	1.0
131	0x3f800000	1.0
132	0x3f800000	1.0
133	0x3f800000	1.0
134	0x3f800000	1.0
135	0x3f800000	1.0
136	0x3f800000	1.0
137	0x3f800000	1.0
138	0x3f800000	1.0
139	0x3f800000	1.0
140	0x3f800000	1.0
141	0x3f800000	1.0
142	0x3f800000	1.0
143	0x3f800000	1.0
144	0x3f800000	1.0
145	0x3f800000	1.0
146	0x3f800000	1.0
147	0x3f800000	1.0
148	0x3f800000	1.0
149	0x3f800000	1.0
150	0x3f800000	1.0
151	0x3f800000	1.0
152	0x3f800000	1.0
153	0x3f800000	1.0
154	0x3f800000	1.0
155	0x3f800000	1.0
156	0x3f800000	1.0
157	0x3f800000	1.0
158	0x3f800000	1.0
159	0x3f800000	1.0
160	0x3f800000	1.0
161	0x3f800000	1.0
162	0x3f800000	1.0
163	0x3f800000	1.0
164	0x3f800000	1.0
165	0x3f800000	1.0
166	0x3f800000	1.0
167	0x3f800000	1.0
168	0x3f800000	1.0
169	0x3f800000	1.0
170	0x3f800000	1.0
171	0x3f800000	1.0
172	0x3f800000	1.0
173	0x3f800000	1.0
174	0x3f800000	1.0
175	0x3f800000	1.0
176	0x3f800000	1.0
177	0x3f800000	1.0
178	0x3f800000	1.0
179	0x3f800000	1.0
180	0x3f800000	1.0
181	0x3f800000	1.0
182	0x3f800000	1.0
183	0x3f800000	1.0
184	0x3f800000	1.0
185	0x3f800000	1.0
186	0x3f800000	1.0
187	0x3f800000	1.0
188	0x3f800000	1.0
189	0x3f800000	1.0
190	0x3f800000	1.0
191	0x3f800000	1.0
192	0x3f800000	1.0
193	0x3f800000	1.0
194	0x3f800000	1.0
195	0x3f800000	1.0
196	0x3f800000	1.0
197	0x3f800000	1.0
198	0x3f800000	1.0
199	0x3f800000	1.0

weight f4 [50, 2]
0	0x3eb56034	0.3542496
1	0xbea57c64	-0.32321465
2	0x3ee1382f	0.43988177
3	0x3eb4ad02	0.35288244
4	0xbf4290a0	-0.7600193
5	0x3d8700e8	0.0659197
6	0xbebc8db4	-0.3682686
7	0xbf2742bc	-0.65336204
8	0xbf3b7ed3	-0.73240393
9	0x3eed219e	0.4631471
10	0xbf155f88	-0.58348894
11	0xbef2549c	-0.47330177
12	0x3f2cc0b2	0.6748153
13	0xbd9db100	-0.07699776
14	0x3e8f3ba0	0.27975178
15	0xbecceadc	-0.40022933
16	0x3d6b4991	0.057443205
17	0x3eb0211e	0.34400266
18	0xbece7d9d	-0.4033021
19	0x3dde8238	0.10864681
20	0x3e6c1518	0.23054922
21	0xbe5a5394	-0.21320945
22	0xbe1d2d09	-0.15349211
23	0xbeee79f4	-0.46577418
24	0x3ea841d5	0.32862726
25	0xbee16482	-0.44021994
26	0xbf0fad92	-0.5612422
27	0xbdfb5060	-0.1227119
28	0x3ee25c23	0.4421092
29	0x3e35c08c	0.17749232
30	0xbf263efd	-0.6493986
31	0x3eba6052	0.36401612
32	0xbea508fa	-0.3223341
33	0xbc9a9120	-0.01886803
34	0x3e6139e9	0.21994747
35	0x3eb0ca22	0.34529215
36	0x3dcf8d2c	0.10134348
37	0x3eb7e382	0.35915762
38	0x3e400077	0.18750177
39	0xbdc16308	-0.09442717
40	0xbd3ebeae	-0.046568565
41	0x3e014e08	0.12627423
42	0x3ebc2955	0.36750284
43	0xbdf50560	-0.11963916
44	0x3f30e836	0.69104326
45	0xbf3092eb	-0.6897418
46	0xbe38dbb2	-0.18052557
47	0xbe8d5288	-0.2760203
48	0xbf407e2c	-0.75192523
49	0xbe07f090	-0.13275361
50	0x3ea364c4	0.31912816
51	0x3edc39f2	0.4301296
52	0xbc4cde8a	-0.012504229
53	0xbedfcd1b	-0.4371117
54	0x3f137981	0.57607275
55	0xbe5a4d14	-0.21318465
56	0xbe4817e6	-0.19540367
57	0x3e103e28	0.1408621
58	0xbe817018	-0.25280833
59	0x3e9afcf2	0.30271107
60	0xbf06b90c	-0.5262611
61	0x3e302dfc	0.17205042
62	0x3ebf7fb9	0.37402132
63	0xbeac5544	-0.33658803
64	0x3f5e1b61	0.86760527
65	0x3ee9e2c2	0.45680815
66	0x3ca2b772	0.019862864
67	0xbec1368f	-0.37736937
68	0x3ee98519	0.45609358
69	0xbe4fd430	-0.20295787
70	0x3e2bff5f	0.16796635
71	0x3e18ac70	0.1490953
72	0xbf3f8ccc	-0.74824214
73	0xbf1f4c3f	-0.6222572
74	0xbf1c66ac	-0.61094165
75	0xbf269874	-0.65076375
76	0xbed8a8e7	-0.42316362
77	0xbe186604	-0.14882666
78	0x3f38d494	0.7219937
79	0xbd982290	-0.07428467
80	0x3d5b40e8	0.053528696
81	0xbec6eb2e	-0.38851303
82	0xbeba2aee	-0.36360878
83	0xbe222830	-0.15835643
84	0xbef4235c	-0.47683227
85	0x3ee1e122	0.44117075
86	0xba478f94	-0.00076126424
87	0x3ef13116	0.47107762
88	0xbf130211	-0.5742503
89	0xbed4da09	-0.41572598
90	0xbda0aa37	-0.07844966
91	0x3e7ec590	0.24880052
92	0x3f02927f	0.51004785
93	0x3e20a5e8	0.15688288
94	0xbc5c7499	-0.013455533
95	0xbea4bfe4	-0.3217765
96	0xbe94e3a8	-0.29079938
97	0x3e1a6274	0.1507662
98	0x3e851d37	0.25998852
99	0x3ece209a	0.40259248

bias f4 [50]
0	0x3e547f46	0.20751676
1	0x3ec60e2f	0.38682696
2	0xbdb6f129	-0.089327164
3	0x3f08038d	0.5313042
4	0x3e283c05	0.16429146
5	0x3ea2ac78	0.31772208
6	0xbece4a3f	-0.4029102
7	0xbf14f636	-0.5818819
8	0xbeee786d	-0.46576253
9	0x3eb3fa13	0.3515173
10	0x3edcfdd2	0.431624
11	0xbeb7e69c	-0.35918128
12	0xbe4b8c98	-0.19877851
13	0x3e6535e7	0.22383843
14	0xbe924938	-0.28571486
15	0x3e1b041e	0.1513829
16	0x3d242312	0.04007251
17	0x3e132db7	0.14372908
18	0xbf0327f2	-0.51232827
19	0xbeeaf5dd	-0.45890704
20	0x3ed6cae3	0.41951665
21	0xbe8337a7	-0.25628397
22	0x3e86ad2e	0.26304
23	0xbe6454e7	-0.22298013
24	0xbe71d067	-0.23614655
25	0x3cbe94e2	0.023264352
26	0xbf00ad9d	-0.5026491
27	0x3e8e1f04	0.27758038
28	0x3e0aa575	0.1353968
29	0x3d84a3c0	0.06476545
30	0xbf297c9f	-0.6620578
31	0x3c734327	0.014847553
32	0x3f2d059a	0.6758667
33	0xbf1262c4	-0.57181954
34	0x3d618568	0.055058867
35	0x3ec26b44	0.37972462
36	0x3f163d5d	0.5868738
37	0x3ed23f96	0.41064137
38	0xbd00056a	-0.031255163
39	0xbf11129a	-0.5666901
40	0xbe87ab2f	-0.2649779
41	0xbb439255	-0.002984186
42	0xbf0f2134	-0.5591004
43	0xbec43ddf	-0.38328454
44	0xbec886ba	-0.39165288
45	0x3f33b085	0.7019122
46	0x3d81a986	0.06331162
47	0x3e8bd8d5	0.27313867
48	0x3e98b9cd	0.29829255
49	0xbe4cc825	-0.19998224

mask f4 [50, 2]
0	0x3f800000	1.0
1	0x00000000	0.0
2	0x3f800000	1.0
3	0x00000000	0.0
4	0x3f800000	1.0
5	0x00000000	0.0
6	0x3f800000	1.0
7	0x00000000	0.0
8	0x3f800000	1.0
9	0x00000000	0.0
10	0x3f800000	1.0
11	0x00000000	0.0
12	0x3f800000	1.0
13	0x00000000	0.0
14	0x3f800000	1.0
15	0x00000000	0.0
16	0x3f800000	1.0
17	0x00000000	0.0
18	0x3f800000	1.0
19	0x00000000	0.0
20	0x3f800000	1.0
21	0x00000000	0.0
22	0x3f800000	1.0
23	0x00000000	0.0
24	0x3f800000	1.0
25	0x00000000	0.0
26	0x3f800000	1.0
27	0x00000000	0.0
28	0x3f800000	1.0
29	0x00000000	0.0
30	0x3f800000	1.0
31	0x00000000	0.0
32	0x3f800000	1.0
33	0x00000000	0.0
34	0x3f800000	1.0
35	0x00000000	0.0
36	0x3f800000	1.0
37	0x00000000	0.0
38	0x3f800000	1.0
39	0x00000000	0.0
40	0x3f800000	1.0
41	0x00000000	0.0
42	0x3f800000	1.0
43	0x00000000	0.0
44	0x3f800000	1.0
45	0x00000000	0.0
46	0x3f800000	1.0
47	0x00000000	0.0
48	0x3f800000	1.0
49	0x00000000	0.0
50	0x3f800000	1.0
51	0x00000000	0.0
52	0x3f800000	1.0
53	0x00000000	0.0
54	0x3f800000	1.0
55	0x00000000	0.0
56	0x3f800000	1.0
57	0x00000000	0.0
58	0x3f800000	1.0
59	0x00000000	0.0
60	0x3f800000	1.0
61	0x00000000	0.0
62	0x3f800000	1.0
63	0x00000000	0.0
64	0x3f800000	1.0
65	0x00000000	0.0
66	0x3f800000	1.0
67	0x00000000	0.0
68	0x3f800000	1.0
69	0x00000000	0.0
70	0x3f800000	1.0
71	0x00000000	0.0
72	0x3f800000	1.0
73	0x00000000	0.0
74	0x3f800000	1.0
75	0x00000000	0.0
76	0x3f800000	1.0
77	0x00000000	0.0
78	0x3f800000	1.0
79	0x00000000	0.0
80	0x3f800000	1.0
81	0x00000000	0.0
82	0x3f800000	1.0
83	0x00000000	0.0
84	0x3f800000	1.0
85	0x00000000	0.0
86	0x3f800000	1.0
87	0x00000000	0.0
88	0x3f800000	1.0
89	0x00000000	0.0
90	0x3f800000	1.0
91	0x00000000	0.0
92	0x3f800000	1.0
93	0x00000000	0.0
94	0x3f800000	1.0
95	0x00000000	0.0
96	0x3f800000	1.0
97	0x00000000	0.0
98	0x3f800000	1.0
99	0x00000000	0.0
