LMD SNR/03b/ing_net_o3b_gpu_20260129_101125_299.pt (torch, 281292 bytes, 79 tensors)

low f4 [2]
00000000: 0000 50c1 6f12 833a
-13.0 0.001

high f4 [2]
00000000: 0000 a040 0000 803f
5.0 1.0

_shift f4 [2]
00000000: 4404 3f3f 0e0a dfbf
0.74615884 -1.7424943

_scale f4 [2]
00000000: ad17 453e 7aab 5d40
0.19247313 3.463591

weight f4 [50, 2]
00000000: 7910 d5be 7c9f 193e f84e 0bbe 4e8a f33e
00000010: b717 25bf a698 963e 0f6b 303e d8dc 313e
00000020: cd0e e13e 8693 84be eea4 94bd b8b3 8dbd
00000030: 0acb 853e c0fc 2d3c d2ff f8be e197 e0be
00000040: cd00 153f dfcc 2fbf 0e39 11bf deee a13e
00000050: 1421 f43e 4591 303f cf79 a4be 4c19 373e
00000060: 6900 573f 0039 503b d950 223f a7d0 d0be
00000070: 1488 933e a255 883e e3ed 81bd 30a8 3b3d
00000080: 149a 1b3f 68dc 213e fc5f b53c e5a1 173f
00000090: 8389 2b3f 403b c6bc ce10 44be 345c 15be
000000a0: 2c80 c43e c049 90bd fdf4 33be 4581 84be
000000b0: b7ee 933e 9754 0e3f f154 c6be f4a2 02be
000000c0: 4c38 02be 4687 fa3e 5275 263e c3b2 02bf
000000d0: 7db7 093f 3c2f 5e3e 6770 4abf 2a81 a5be
000000e0: 3b65 473e 2449 603e fb5d 9d3e 9c12 08bf
000000f0: 8d7b abbe f03c 06bd 0f89 19be 4a0f 8dbe
00000100: 337a d8bd 9c51 dcbe cd7e 003f 68a7 883d
00000110: d68c 253f 7d4e f0be dc4c 8b3d 01f6 03bf
00000120: 1159 eb3e c825 20bf 8995 f0bd 959f bebe
00000130: 5b13 193f 68f3 053e 7763 9d3d 460c e93e
00000140: 2bf8 a73e 75e2 173f a844 3f3d bf8e 183f
00000150: ee3c e4bd 380f c9bd c151 f4be 069d e63e
00000160: 854e 29bf 6467 04be c283 0dbd 19b1 173f
00000170: 936d 93be 1d32 003f b98e 873e d4e1 8b3e
00000180: f447 3ebd 0b45 93be 8df3 2b3f e832 c0bd
-0.4161413 0.15002245 -0.13604343 0.47566456 -0.6448931 0.29413337 0.1722834 0.17369401
0.43956605 -0.258938 -0.0725802 -0.06919044 0.2613147 0.010619342 -0.48632675 -0.43865874
0.58204347 -0.68671983 -0.56727684 0.31627554 0.47681487 0.68971664 -0.32124183 0.17880744
0.83985 0.0031772256 0.63404614 -0.4078419 0.28814757 0.26627833 -0.063442014 0.045814693
0.6078198 0.15806735 0.022140495 0.59231406 0.670067 -0.024198174 -0.19147035 -0.14585954
0.38379037 -0.07045317 -0.17573924 -0.25879875 0.28893062 0.55597824 -0.3873668 -0.12757474
-0.12716788 0.4893133 0.16255692 -0.5105402 0.53795606 0.21697706 -0.7907776 -0.32325107
0.1947221 0.21902901 0.30735764 -0.53153396 -0.334927 -0.03277296 -0.1499369 -0.27550727
-0.10570183 -0.43031013 0.5019348 0.06672555 0.64668024 -0.46934882 0.06801769 -0.5154725
0.4596639 -0.6255765 -0.117472716 -0.37231126 0.5979516 0.13081133 0.07684987 0.45517176
0.32806525 0.5932992 0.046696335 0.59592813 -0.11144434 -0.09817356 -0.47718623 0.45041674
-0.66135436 -0.12930065 -0.034549482 0.59254605 -0.28794536 0.50076467 0.26476076 0.2732073
-0.04645534 -0.28763613 0.67168504 -0.093847096

bias f4 [50]
00000000: 5f4b 61be 89f3 a9be bca1 213f bede 833e
00000010: 4553 8e3e 8bca 703e 4241 0f3e 3405 2dbf
00000020: 60af 11bf 38a1 18bf 6d39 18bf b610 25be
00000030: d3c6 f73e 254f f1be d597 223e d761 313e
00000040: 8628 b33e f84e 06bf ca9d e8bd 6e40 e23e
00000050: 168c a43e f36e 07bf d237 05bf b30e 103f
00000060: 5dd3 3e3d 2011 43be 3d8a 363f 0c7e 19bf
00000070: 1055 3f3e 4099 303d d04a 35be 15ae 9abe
00000080: 0c18 9b3e 515c 1fbf adc3 2abf 0e6f 2f3f
00000090: 73ce ebbe c622 19bd acbc 5f3e aea6 223f
000000a0: b794 cebe 7e13 a03e 946a 273e 534f da3e
000000b0: 6d04 ab3e cfc9 07bf 15e1 353f a032 103f
000000c0: bd3f 993e b172 d9be
-0.22001408 -0.33193615 0.6313741 0.25755876 0.27797905 0.23514764 0.13989738 -0.67586064
-0.56908226 -0.59621 -0.59462625 -0.16119656 0.48393878 -0.47130695 0.15878232 0.17322479
0.34991854 -0.52464247 -0.11358221 0.4418978 0.32138127 -0.5290367 -0.520383 0.5627243
0.04658829 -0.19049501 0.71304685 -0.5995796 0.18684793 0.0431149 -0.1770432 -0.3021094
0.30291784 -0.6225024 -0.6670483 0.6852883 -0.46055946 -0.03738668 0.21849316 0.63535583
-0.40347835 0.3126487 0.1634925 0.42638645 0.33401814 -0.5304231 0.7104657 0.5632725
0.2993144 -0.42470315

mask f4 [50, 2]
00000000: 0000 803f 0000 0000 0000 803f 0000 0000
00000010: 0000 803f 0000 0000 0000 803f 0000 0000
00000020: 0000 803f 0000 0000 0000 803f 0000 0000
00000030: 0000 803f 0000 0000 0000 803f 0000 0000
00000040: 0000 803f 0000 0000 0000 803f 0000 0000
00000050: 0000 803f 0000 0000 0000 803f 0000 0000
00000060: 0000 803f 0000 0000 0000 803f 0000 0000
00000070: 0000 803f 0000 0000 0000 803f 0000 0000
00000080: 0000 803f 0000 0000 0000 803f 0000 0000
00000090: 0000 803f 0000 0000 0000 803f 0000 0000
000000a0: 0000 803f 0000 0000 0000 803f 0000 0000
000000b0: 0000 803f 0000 0000 0000 803f 0000 0000
000000c0: 0000 803f 0000 0000 0000 803f 0000 0000
000000d0: 0000 803f 0000 0000 0000 803f 0000 0000
000000e0: 0000 803f 0000 0000 0000 803f 0000 0000
000000f0: 0000 803f 0000 0000 0000 803f 0000 0000
00000100: 0000 803f 0000 0000 0000 803f 0000 0000
00000110: 0000 803f 0000 0000 0000 803f 0000 0000
00000120: 0000 803f 0000 0000 0000 803f 0000 0000
00000130: 0000 803f 0000 0000 0000 803f 0000 0000
00000140: 0000 803f 0000 0000 0000 803f 0000 0000
00000150: 0000 803f 0000 0000 0000 803f 0000 0000
00000160: 0000 803f 0000 0000 0000 803f 0000 0000
00000170: 0000 803f 0000 0000 0000 803f 0000 0000
00000180: 0000 803f 0000 0000 0000 803f 0000 0000
1.0 0.0 1.0 0.0 1.0 0.0 1.0 0.0
1.0 0.0 1.0 0.0 1.0 0.0 1.0 0.0
1.0 0.0 1.0 0.0 1.0 0.0 1.0 0.0
1.0 0.0 1.0 0.0 1.0 0.0 1.0 0.0
1.0 0.0 1.0 0.0 1.0 0.0 1.0 0.0
1.0 0.0 1.0 0.0 1.0 0.0 1.0 0.0
1.0 0.0 1.0 0.0 1.0 0.0 1.0 0.0
1.0 0.0 1.0 0.0 1.0 0.0 1.0 0.0
1.0 0.0 1.0 0.0 1.0 0.0 1.0 0.0
1.0 0.0 1.0 0.0 1.0 0.0 1.0 0.0
1.0 0.0 1.0 0.0 1.0 0.0 1.0 0.0
1.0 0.0 1.0 0.0 1.0 0.0 1.0 0.0
1.0 0.0 1.0 0.0

weight f4 [50, 4]
00000000: b1ed d0be e756 c53c ddbf a8be 5a72 42be
00000010: ac2f 5a3e 771b af3e c970 c8be 1b11 09be
00000020: 1cc4 afbe 700a cdbe e540 bebb 0d66 53be
00000030: 89ef f13e 81d9 543e 4a05 033e 8d89 963e
00000040: b56d 853c 636d c8be 19ae 8ebe c7fd a1be
00000050: e69a ec3e d6ea dcbd dfb2 273e f66f 883e
00000060: eb05 f93d ef47 2abe 99e7 ac3e 06e8 4fbe
00000070: 0f48 a439 d821 a23e 02ab a3be 797c 843d
00000080: f63e ad3e b59b 8d3e 43fa a93d 042d 523e
00000090: d0af a0be 4f95 5bbe 7997 b93e 9cae a43d
000000a0: 872b 083f 88a5 03bf 136b e33d a7b3 5abe
000000b0: 5283 73be 127f 9dbe 5981 a93e 097f 72be
000000c0: c7db 2b3f 2fab a63d 2bde 823e 0491 4dbe
000000d0: 3432 33bd e3a6 86be 430d bc3e bba5 c4be
000000e0: 4fdf 28be f553 ecbe 6272 ecbe 44b0 6dbe
000000f0: a68f 123e 68b8 9ebe d76f 8dbe 12d8 e93e
00000100: 4366 c8be 04ba 10be b0c9 cb3d 60c1 abbe
00000110: b11f e3be 0094 b8be d92d 4ebe c55c 18bf
00000120: c19f e33e 9e4e b5be a151 23bd 2b1f 993e
00000130: 14d2 adbe 4a60 993e a32b 94ba 0217 0e3e
00000140: 7017 c53e 9760 8bbe c260 8b3e 876b 4c3e
00000150: e08e e5bd 7b6e 073f 450f 763e 284d 66be
00000160: 6a6b 5b3e db32 d63e 7dd0 dfbe b880 0cbf
00000170: 392c bb3e 0625 033d 3725 04bf b5a8 203e
00000180: 90f0 a13e 4e1e 07bf 5c98 8cbe dc43 4cbd
00000190: 2acb d53e 6366 c3be 5cad 11bf fe49 643d
000001a0: 2c5a 803e e273 ebbe 14e6 ac3e fa4d 95be
000001b0: f7bf e63e 19d2 bb3e 0529 69bc 93a6 37be
000001c0: dbff a1be e30f 94bc 6fe2 dcbe 8a75 03bf
000001d0: 4b1e 21be 664e 843e ab5e d13e a3a0 9a3e
000001e0: 57b0 933e 17fc 9fbe 91c0 dabe a03a 8c3e
000001f0: 9fe2 9d3e 1773 e83d c317 023f 3f21 56bd
00000200: cfe8 7bbe 231f aabe e7bb cebe 8862 9d3e
00000210: 2144 0fbf 8061 a13d 9d0f fb3e 46dd 53bc
00000220: ff8a 4abd 39e8 11bf 39bb 08bf e100 943e
00000230: 9c3d ebbe a42b e33d 82ab e6be 8f9d ea3d
00000240: 5fc4 afbd e629 30be 05b9 443e 6e0e 9ebd
00000250: 7ee7 debe c58f d2bd af7a e73e df42 dfbc
00000260: 22b1 8dbd 36b9 87be 20de c93e a6f0 52bd
00000270: 2f99 0e3f 96a9 a53e 08f5 acbe 8fa1 ccbe
00000280: b88d 9cbe 6602 323e ee23 903e 36e2 7abd
00000290: 2002 b33e af8d 72be 65d5 74be c971 2d3e
000002a0: dbae 1abf 2444 94bd 67b2 e63e 7a7e b33e
000002b0: 2ef1 bbbe 0943 083f 56da bdbe 5cb6 4abd
000002c0: 4c12 99be f765 66bd 62ec a3be 04e5 b73e
000002d0: 213a 05be 61de 90bd 0b78 023f 40fa 6abe
000002e0: 8173 84be 475e e33c 7173 ad3d 6dea 653e
000002f0: c1e3 70bd 6c1a 223e 0ef5 a1be 1984 d93e
00000300: e18e 8e3e f555 bfbe 903d 1abc 1ee9 fe3e
00000310: 89fb 55be 508c 8a3e 3faf aebe a832 7bbe
-0.40806344 0.02408929 -0.3295888 -0.18988934 0.21307248 0.34200642 -0.39148548 -0.13385431
-0.34329307 -0.40047026 -0.005806076 -0.20644398 0.47253063 0.20786096 0.12794986 0.29401818
0.016287664 -0.39145955 -0.278672 -0.3163893 0.46211928 -0.10786979 0.16376828 0.2664792
0.12159332 -0.16629003 0.33770445 -0.20303354 0.00031334205 0.31666446 -0.31966406 0.06469054
0.33837098 0.27657858 0.08299687 0.20524985 -0.31384134 -0.21443675 0.36248377 0.080411166
0.5319142 -0.51424456 0.11104407 -0.21357594 -0.23780563 -0.3076101 0.33106497 -0.23681273
0.6713223 0.081381194 0.25560126 -0.2007485 -0.04374905 -0.262992 0.36728868 -0.38407692
-0.16491435 -0.46157804 -0.46181017 -0.23211771 0.1431261 -0.31000066 -0.2762439 0.4567266
-0.3914052 -0.1413346 0.09950578 -0.3354597 -0.44360116 -0.36050415 -0.20134677 -0.59516555
0.4445782 -0.35411543 -0.03987277 0.29906592 -0.3394934 0.29956275 -0.0011304509 0.13875964
0.38494444 -0.2722213 0.27222258 0.19962893 -0.11208892 0.52902955 0.24029262 -0.2249037
0.21427694 0.41835675 -0.4371375 -0.5488391 0.36557177 0.03201773 -0.51619285 0.15689357
0.31628847 -0.52780616 -0.2745999 -0.049869403 0.41756564 -0.38164052 -0.5690515 0.055734627
0.25068796 -0.4598685 0.33769286 -0.29161054 0.45068333 0.3668373 -0.014230971 -0.17934637
-0.31640515 -0.018073982 -0.43141505 -0.51351225 -0.15734212 0.25841063 0.40892538 0.3020068
0.28845474 -0.31247017 -0.42725042 0.27388477 0.3083696 0.11350077 0.5081751 -0.0522778
-0.24600528 -0.3322688 -0.40377733 0.30739236 -0.5596333 0.07879925 0.4903535 -0.012931174
-0.049448963 -0.5699497 -0.5341068 0.2890692 -0.45945442 0.11092308 -0.45052725 0.11455833
-0.08582377 -0.17203483 0.19211204 -0.07717596 -0.4353599 -0.10281328 0.45210788 -0.027253566
-0.06918551 -0.26508492 0.3942728 -0.05149903 0.5570249 0.32355946 -0.33780694 -0.3996701
-0.30576873 0.17383727 0.28152412 -0.061250888 0.3496256 -0.2368686 -0.23909529 0.16937937
-0.6042306 -0.07239559 0.45057985 0.3505743 -0.36707443 0.5322729 -0.3708064 -0.049490318
-0.29896772 -0.056249585 -0.32016283 0.35916913 -0.13010456 -0.070736654 0.5096442 -0.22947025
-0.25869372 0.027754916 0.08469284 0.22452708 -0.058810953 0.15830392 -0.31632274 0.42483595
0.27843383 -0.37370268 -0.009414092 0.4978723 -0.20896734 0.27060175 -0.34118077 -0.24531043

bias f4 [50]
00000000: 59fb 32be c090 afbe 0a5f 3a3e b35a 893e
00000010: 7838 d63b f541 873d e2a1 e1be 61ee bcbe
00000020: c3cd a53d 7740 ff3e bd33 aa3e 521e 09bc
00000030: 7df0 5d3e 78a8 1cbe f7a1 8f3e 98b2 8dbe
00000040: ec9b e8be b8f6 e9be fee2 a73b eb8a a13e
00000050: a83d acbd 8531 253e 7c47 98be 4c20 dbbe
00000060: d45d f73d 8faa 593d 0f26 083f 0a6a 483e
00000070: 950b 0a3e 9485 d7be 55f2 8e3e 89ac 2a3e
00000080: eb55 b43d 0a20 983e 9708 d43d c184 bf3d
00000090: d396 cdbd 1fd4 ff3d 9861 f9be bd0e 53be
000000a0: 3d48 e83d 5196 29be 827a b0be a1ae b9be
000000b0: ac33 9b3e 5143 a73e 8292 a9be bfb1 dbbe
000000c0: 83ff 1d3e b7fe 0fbe
-0.17478694 -0.34290123 0.18200317 0.2682701 0.0065374933 0.06604377 -0.4406882 -0.3690062
0.080958866 0.4985387 0.33242598 -0.008369045 0.2167377 -0.1529864 0.28053257 -0.2767532
-0.4543146 -0.45696044 0.005123495 0.31551298 -0.084101975 0.16132171 -0.29742038 -0.42798078
0.12078443 0.053141173 0.5318307 0.195717 0.1348098 -0.420941 0.2791926 0.1666738
0.0880545 0.29711944 0.10353201 0.09351493 -0.10038533 0.12491631 -0.4870727 -0.20611091
0.11341903 -0.16561247 -0.34468466 -0.36266044 0.3031286 0.32668546 -0.3311959 -0.42909047
0.15429501 -0.1406201

weight f4 [50, 50]
00000000: ee93 b7bd be70 cabc 7307 be3d e6cc 99bd
00000010: 7368 80bc c1ea d3bd 59ca 59bd 1077 973d
00000020: 4bd3 8dbd c6eb 573d 36f5 ccbd 5701 d8bc
00000030: bf38 30bd c804 a5bd 2242 333e b9e9 56bd
00000040: 4159 46bb c645 06be 1682 9f3d 12d0 4dbd
00000050: a08f c5bd d6fa 593d 6a67 b2bd 696d d63d
00000060: 16e1 a6bc 4146 b83d 93d9 8d3c 4e23 ebbd
00000070: c1a5 953d 14bf 8f3d 94a4 d13d 71c1 16bb
00000080: ef8a c4bd 6aaa b0bd 9c7a b83d 202d e63d
00000090: 0071 12be 229c efbd 7bb8 8bbd d59b 673d
000000a0: de88 0fbe 5f75 143e b347 e93d 474a d2bc
000000b0: d27e 043e 6ef4 2bbe e3c6 f43d 5e9c 0f3e
000000c0: b6f4 9c3c c499 2fbe fcf4 c1bd 4a3c a13d
000000d0: 8c24 f93d fd20 8a3d 3e2a 8fbd e788 11be
000000e0: 1d4c 6e3d 5caf fcbd b39c 163e 0074 cf3d
000000f0: 38e0 35be 95b3 3fbd 8359 893c aff1 ccbd
00000100: a284 9dbe 7d0f 7dbc 51de 5e3d e9e2 9dbc
00000110: 9896 cabd 23f0 ffbd d827 3d3b 15a7 fe3d
00000120: 9828 25bd 7641 ed3c e2b7 80bd f907 51be
00000130: dcfb 123e 5e7c c4bd b82e 31be 72cb 343d
00000140: b565 b7bd 1763 073d 65a8 32be c000 213e
00000150: 700a 0abe 05a8 97bd a444 a4bd 5efd 2e3e
00000160: eaeb 953d f11d 28be 27d2 adbd 5a6f d3bc
00000170: f533 433e 179b 983d c59f 86bd 7551 1fbd
00000180: ac48 87bd d214 a5bd 6383 c03d d7a2 94bc
00000190: 9137 8b3d d27d 32be 762e c33d f700 9f3c
000001a0: 9a31 f23c 07cc 05be 10e8 a63d ef49 24bd
000001b0: 5b38 b9bd 263b 003e e4ac 88be c3ce 83bd
000001c0: 4892 0b3d 6e01 b63c 9d26 b4bd 47eb 97bd
000001d0: 72f9 a53e f2a9 b23c 8cf3 c6bd 0d1f 523e
000001e0: 125f a7bd 39bf 813d f108 dc3c aec4 89be
000001f0: 616b 75be d9ed febd 1033 37bd 6fc9 0fbe
00000200: 2b0e 96bc 1b16 213d 7c33 443c 94f8 0c3e
00000210: bf6e 38be 6366 8a3c a7c2 a2bd 9cc5 333d
00000220: 0dc0 613c af42 cbbb 419d e53c 8ee1 d1bd
00000230: 7007 d13c 4d47 e2bd acf8 643c acc5 cb3d
00000240: fa15 85bd f05f 893c 5d75 4d3c 01e0 bc3d
00000250: 4e63 d13d fb43 c33d c8f0 5ebd 51bf dfbd
00000260: 94f5 0d3e 3922 c0bd df0e 6bbb 747b df3c
00000270: 7bd1 10be 21e7 1ebe 0692 bc3c 1428 f3bb
00000280: 41f7 3abe eb2e 833d 9fc8 d73d cd25 073d
00000290: f8a4 a63d fadf c9bd ec89 27be 914b cebc
000002a0: cde2 fa3d 3691 ffbd 8b63 3a3d f549 0abe
000002b0: 29a3 3bbe 2be8 c43d 04dd e63d 629b d9bd
000002c0: 6bbc 893d 7de9 8ebb ec2a c33d b102 b7bc
000002d0: 6188 c63d 86a7 14bd 1f7a 15be 6a30 1f3c
000002e0: c857 80bd c5fd 55bd 2250 373d 8bdd 943c
000002f0: cbe1 c5bd eafd 02bd 1981 26bd 963a 833d
00000300: 4de2 3e3e 0364 903c 0755 f83c db22 013e
00000310: ec75 43bc 4a54 5cbc 719e 043e 9bba b0bc
00000320: f2fd 61bd c023 153e 42e0 123d 3f49 553d
00000330: a000 403e 1622 173e 8aaf f8bc 88b4 183e
00000340: 3f15 3fbd 7bbc c5bd 1098 8b3e 4cb1 49be
00000350: a2b9 803d 992b c1bc c5db e3bc 9eb0 233e
00000360: e9bd 29bd 43a1 f13c 5cf0 3e3e 191c e5bd
00000370: 88de 923d b98f 2d3d f1eb 073d 1258 173e
00000380: fea5 d03c 099e 663e 9141 cbbd 024b 9abd
00000390: bc64 433e 55e7 87bd b6ac 123e fa4c b3bd
000003a0: bc0a d83d 68fb 6abe 776c 5cbd 278b 7abd
000003b0: 1000 e13d a8df f9bd ad27 973c dcff 233e
000003c0: 8fc6 2dbe f02f 273d 0450 0fbe d684 47be
000003d0: 184b 6c3d 8739 fe3c 5085 f0bd 12cb 383e
000003e0: 3c1c a6bd 22ac f2bd 56e9 afbd b5d0 71bd
000003f0: 7d40 4e3d a3cc f93c 57bc b13d 57af a83d
-0.08963762 -0.024711963 0.092787646 -0.075097844 -0.015674805 -0.1034751 -0.05317149 0.07395756
-0.069250666 0.052715085 -0.10007708 -0.026367826 -0.043022867 -0.080575526 0.17505696 -0.05246899
-0.0030265602 -0.13112554 0.07788484 -0.05024726 -0.09646535 0.05321773 -0.08711131 0.10470087
-0.020371001 0.08997775 0.017315662 -0.11481343 0.07307006 0.07018867 0.10236469 -0.0023003484
-0.09596812 -0.08626254 0.09007761 0.11239076 -0.14300919 -0.11699702 -0.06822296 0.056545097
-0.14017054 0.14497899 0.11390629 -0.025670184 0.12939003 -0.16792461 0.11951997 0.14024493
0.019159656 -0.171485 -0.09470555 0.07872827 0.12165174 0.06744573 -0.06990479 -0.1421238
0.058178056 -0.12338135 0.14708214 0.10129547 -0.17761314 -0.046802122 0.016766315 -0.10007035
-0.30765253 -0.015445587 0.054411236 -0.019273238 -0.09892005 -0.12496974 0.002886286 0.12434212
-0.040321916 0.028961878 -0.06285073 -0.20413198 0.14353889 -0.09594034 -0.17302978 0.044139333
-0.08954946 0.033053484 -0.1744705 0.15722942 -0.13480544 -0.07405094 -0.08020905 0.1708884
0.07320388 -0.16417672 -0.08487349 -0.025809933 0.19062789 0.07451456 -0.06573442 -0.038896043
-0.06605658 -0.08060612 0.0940006 -0.018144054 0.06797708 -0.17430809 0.09530346 0.01940964
0.029564667 -0.13066112 0.08149731 -0.04010957 -0.09043952 0.12522563 -0.26694405 -0.06435921
0.03407505 0.022217479 -0.087964274 -0.074179225 0.32416874 0.021809552 -0.09714422 0.20519657
-0.0817243 0.06335301 0.026859732 -0.26907867 -0.23966743 -0.124477096 -0.04472643 -0.14041685
-0.018317303 0.039327722 0.011975165 0.137667 -0.18010996 0.016894525 -0.07947283 0.043889627
0.013778699 -0.0062030177 0.028029086 -0.10248099 0.025516242 -0.11048756 0.013975304 0.09949812
-0.06498332 0.01676938 0.012540189 0.09222413 0.10224019 0.095344506 -0.054428846 -0.109251626
0.13863212 -0.093815275 -0.0035867018 0.027280547 -0.1414241 -0.15517856 0.023018848 -0.007420549
-0.18258382 0.06405433 0.10536312 0.032995034 0.08136934 -0.09857173 -0.16361207 -0.025182517
0.1225029 -0.12478869 0.045505088 -0.13504775 -0.1832396 0.09614595 0.11272624 -0.1062534
0.06725391 -0.00436133 0.09529671 -0.02234015 0.09693981 -0.036292575 -0.14597367 0.009716133
-0.06266743 -0.052243967 0.044754155 0.018172046 -0.09662207 -0.031980433 -0.04065046 0.06407659
0.18641014 0.017625814 0.030313982 0.12610953 -0.01192997 -0.01344783 0.12951066 -0.021573355
-0.05517382 0.14564419 0.0358584 0.052071806 0.18750238 0.14759097 -0.030357141 0.14912617
-0.04665112 -0.096550904 0.27264452 -0.1969654 0.06285407 -0.02358036 -0.027814755 0.15985343
-0.041440878 0.02949584 0.18646377 -0.11187 0.07171351 0.042373393 0.033183996 0.1477969
0.025469776 0.22521223 -0.09924615 -0.07533838 0.19081396 -0.0663592 0.14323696 -0.087549165
0.105489224 -0.22947466 -0.053814378 -0.061167862 0.1098634 -0.12200862 0.018451536 0.16015571
-0.16970275 0.0408172 -0.13995367 -0.19484267 0.057688802 0.03103329 -0.11744177 0.18046215
-0.08110854 -0.11849238 -0.08589427 -0.05903693 0.05035447 0.030493086 0.08678501 0.082365684

bias f4 [50]
00000000: aa52 053e 7b5e 013e 1cec 9b3d 6798 2c3d
00000010: 2804 a13c 005d 093e 9f78 be3d 2527 0a3d
00000020: 767e b33d d2a1 32bd 7a52 11bb ff7f bfbd
00000030: 879b 25be 4e7d ca3d 7f1f bebd 9e49 1e3e
00000040: f393 b3bd b449 10be 1f14 203e 27c3 abbd
00000050: 5e15 c03d 23e7 0ebe d8e3 993d ea0c adbd
00000060: 21c6 6d3c e4f2 313e 435c d53d 9b68 d13d
00000070: cffb f0bd 33a9 ac3c 6230 1a3e 36e8 9abd
00000080: e23b 293e d645 af3d e3f5 2f3e 4c7a b83c
00000090: 8402 df3d bff0 193e 0a57 1cbd c2dd 103d
000000a0: 39bc b33d 3405 cfbd f2a3 393e 6439 8ebd
000000b0: 5375 df3c 385e e0bd 15f4 86bd 48f6 c6bd
000000c0: 27be 05be f894 9bbd
0.13019815 0.12633698 0.07613394 0.04213753 0.019655302 0.13414383 0.093003504 0.033728737
0.08764355 -0.043611355 -0.0022174404 -0.09350585 -0.1617261 0.09887181 -0.09283351 0.1545777
-0.087684534 -0.14090616 0.15632676 -0.08386832 0.093790755 -0.13955359 0.07514161 -0.08449729
0.01451257 0.17377812 0.10417988 0.1022503 -0.11766779 0.021076774 0.15057519 -0.07563822
0.1652675 0.08558242 0.17183642 0.022519253 0.10889152 0.15033244 -0.038168944 0.035367735
0.08776135 -0.10108414 0.18128946 -0.0694454 0.027277624 -0.10955471 -0.06589524 -0.09714943
-0.13060819 -0.07596773

mask f4 [50, 50]
00000000: 0000 803f 0000 803f 0000 803f 0000 803f
00000010: 0000 803f 0000 803f 0000 803f 0000 803f
00000020: 0000 803f 0000 803f 0000 803f 0000 803f
00000030: 0000 803f 0000 803f 0000 803f 0000 803f
00000040: 0000 803f 0000 803f 0000 803f 0000 803f
00000050: 0000 803f 0000 803f 0000 803f 0000 803f
00000060: 0000 803f 0000 803f 0000 803f 0000 803f
00000070: 0000 803f 0000 803f 0000 803f 0000 803f
00000080: 0000 803f 0000 803f 0000 803f 0000 803f
00000090: 0000 803f 0000 803f 0000 803f 0000 803f
000000a0: 0000 803f 0000 803f 0000 803f 0000 803f
000000b0: 0000 803f 0000 803f 0000 803f 0000 803f
000000c0: 0000 803f 0000 803f 0000 803f 0000 803f
000000d0: 0000 803f 0000 803f 0000 803f 0000 803f
000000e0: 0000 803f 0000 803f 0000 803f 0000 803f
000000f0: 0000 803f 0000 803f 0000 803f 0000 803f
00000100: 0000 803f 0000 803f 0000 803f 0000 803f
00000110: 0000 803f 0000 803f 0000 803f 0000 803f
00000120: 0000 803f 0000 803f 0000 803f 0000 803f
00000130: 0000 803f 0000 803f 0000 803f 0000 803f
00000140: 0000 803f 0000 803f 0000 803f 0000 803f
00000150: 0000 803f 0000 803f 0000 803f 0000 803f
00000160: 0000 803f 0000 803f 0000 803f 0000 803f
00000170: 0000 803f 0000 803f 0000 803f 0000 803f
00000180: 0000 803f 0000 803f 0000 803f 0000 803f
00000190: 0000 803f 0000 803f 0000 803f 0000 803f
000001a0: 0000 803f 0000 803f 0000 803f 0000 803f
000001b0: 0000 803f 0000 803f 0000 803f 0000 803f
000001c0: 0000 803f 0000 803f 0000 803f 0000 803f
000001d0: 0000 803f 0000 803f 0000 803f 0000 803f
000001e0: 0000 803f 0000 803f 0000 803f 0000 803f
000001f0: 0000 803f 0000 803f 0000 803f 0000 803f
00000200: 0000 803f 0000 803f 0000 803f 0000 803f
00000210: 0000 803f 0000 803f 0000 803f 0000 803f
00000220: 0000 803f 0000 803f 0000 803f 0000 803f
00000230: 0000 803f 0000 803f 0000 803f 0000 803f
00000240: 0000 803f 0000 803f 0000 803f 0000 803f
00000250: 0000 803f 0000 803f 0000 803f 0000 803f
00000260: 0000 803f 0000 803f 0000 803f 0000 803f
00000270: 0000 803f 0000 803f 0000 803f 0000 803f
00000280: 0000 803f 0000 803f 0000 803f 0000 803f
00000290: 0000 803f 0000 803f 0000 803f 0000 803f
000002a0: 0000 803f 0000 803f 0000 803f 0000 803f
000002b0: 0000 803f 0000 803f 0000 803f 0000 803f
000002c0: 0000 803f 0000 803f 0000 803f 0000 803f
000002d0: 0000 803f 0000 803f 0000 803f 0000 803f
000002e0: 0000 803f 0000 803f 0000 803f 0000 803f
000002f0: 0000 803f 0000 803f 0000 803f 0000 803f
00000300: 0000 803f 0000 803f 0000 803f 0000 803f
00000310: 0000 803f 0000 803f 0000 803f 0000 803f
00000320: 0000 803f 0000 803f 0000 803f 0000 803f
00000330: 0000 803f 0000 803f 0000 803f 0000 803f
00000340: 0000 803f 0000 803f 0000 803f 0000 803f
00000350: 0000 803f 0000 803f 0000 803f 0000 803f
00000360: 0000 803f 0000 803f 0000 803f 0000 803f
00000370: 0000 803f 0000 803f 0000 803f 0000 803f
00000380: 0000 803f 0000 803f 0000 803f 0000 803f
00000390: 0000 803f 0000 803f 0000 803f 0000 803f
000003a0: 0000 803f 0000 803f 0000 803f 0000 803f
000003b0: 0000 803f 0000 803f 0000 803f 0000 803f
000003c0: 0000 803f 0000 803f 0000 803f 0000 803f
000003d0: 0000 803f 0000 803f 0000 803f 0000 803f
000003e0: 0000 803f 0000 803f 0000 803f 0000 803f
000003f0: 0000 803f 0000 803f 0000 803f 0000 803f
1.0 1.0 1.0 1.0 1.0 1.0 1.0 1.0
1.0 1.0 1.0 1.0 1.0 1.0 1.0 1.0
1.0 1.0 1.0 1.0 1.0 1.0 1.0 1.0
1.0 1.0 1.0 1.0 1.0 1.0 1.0 1.0
1.0 1.0 1.0 1.0 1.0 1.0 1.0 1.0
1.0 1.0 1.0 1.0 1.0 1.0 1.0 1.0
1.0 1.0 1.0 1.0 1.0 1.0 1.0 1.0
1.0 1.0 1.0 1.0 1.0 1.0 1.0 1.0
1.0 1.0 1.0 1.0 1.0 1.0 1.0 1.0
1.0 1.0 1.0 1.0 1.0 1.0 1.0 1.0
1.0 1.0 1.0 1.0 1.0 1.0 1.0 1.0
1.0 1.0 1.0 1.0 1.0 1.0 1.0 1.0
1.0 1.0 1.0 1.0 1.0 1.0 1.0 1.0
1.0 1.0 1.0 1.0 1.0 1.0 1.0 1.0
1.0 1.0 1.0 1.0 1.0 1.0 1.0 1.0
1.0 1.0 1.0 1.0 1.0 1.0 1.0 1.0
1.0 1.0 1.0 1.0 1.0 1.0 1.0 1.0
1.0 1.0 1.0 1.0 1.0 1.0 1.0 1.0
1.0 1.0 1.0 1.0 1.0 1.0 1.0 1.0
1.0 1.0 1.0 1.0 1.0 1.0 1.0 1.0
1.0 1.0 1.0 1.0 1.0 1.0 1.0 1.0
1.0 1.0 1.0 1.0 1.0 1.0 1.0 1.0
1.0 1.0 1.0 1.0 1.0 1.0 1.0 1.0
1.0 1.0 1.0 1.0 1.0 1.0 1.0 1.0
1.0 1.0 1.0 1.0 1.0 1.0 1.0 1.0
1.0 1.0 1.0 1.0 1.0 1.0 1.0 1.0
1.0 1.0 1.0 1.0 1.0 1.0 1.0 1.0
1.0 1.0 1.0 1.0 1.0 1.0 1.0 1.0
1.0 1.0 1.0 1.0 1.0 1.0 1.0 1.0
1.0 1.0 1.0 1.0 1.0 1.0 1.0 1.0
1.0 1.0 1.0 1.0 1.0 1.0 1.0 1.0
1.0 1.0 1.0 1.0 1.0 1.0 1.0 1.0

weight f4 [50, 50]
00000000: 9bc6 d43c 6e2a 573e 47e9 583e bec9 0f3d
00000010: 8105 fdbd 056c f23c 6484 b63c 1b82 5cbe
00000020: a369 a73c 6cfe 213e a08b e43d 8329 37be
00000030: e7bc 033d 8346 e8bc 5cce 97bc 95e3 343e
00000040: 77aa cabe bc47 88be e314 573d 3624 8e3e
00000050: 9782 60bc 4707 52be ded9 36bd 56bd 513e
00000060: b6f7 0f3c 78db 3e3c 459f bfbd bb6a 113d
00000070: a0f1 233d 7048 61bd a2fc cc3c 045a cf3d
00000080: 3f98 1a3e 4b78 ba3e 3fe3 7b3d 952a 333c
00000090: a725 913e 2b41 9d3e b280 813d 2716 c5be
000000a0: d538 35be d336 82bd de5d 3d3e 0e21 5abb
000000b0: fdbe 9dbd 9e1a 203e b2b5 873d 21d6 71be
000000c0: b306 0fbe 23e4 6e3e a00a 0fbe 9082 29bd
000000d0: f1c2 50bd 2969 52be 158f ebbb 1d71 a03d
000000e0: 8571 243e 24cd 2a3e 6f2a 093c 45dc 55bc
000000f0: 3033 ddbd 760e b63c fc1c 283e 2fd4 91bc
00000100: 41f9 683e 8e9e e43b 9d82 6f3d 7549 c6bd
00000110: b992 b5bd 5f4d 0cbe 3d13 50be fa73 9d3d
00000120: d0c3 133e 92ed 723d c049 48bd ee00 29bd
00000130: 8a5a c43d da9f f4bd 1d52 f6bd 7718 e83d
00000140: 8aed 61bc 2fd8 d23d 866f fc3c 89dd 08bd
00000150: 5bc4 29be a3ab 59bd ca79 403b 79da e13d
00000160: c2fe 213d 7056 b93b cede bb3d 5b6c a3bd
00000170: 2ee1 46be 1371 8dbd 2791 0c3e 9b9a 253b
00000180: 49fc 58be fd89 3ebc 3b46 433e ca57 ac3c
00000190: dbf3 e33c e7bf 33bd e618 0a3c 3781 c13c
000001a0: a50e 2e3e aaa4 983d 30fc 77bc 8519 27bd
000001b0: b412 dc3d 040b a83b cb36 a63d 9855 8e3e
000001c0: a3bf bfbc 9f78 c1bd 85d2 33be 2ac9 eebc
000001d0: bec2 ca3d 4bb0 573e 508d d4bc 2570 f8bd
000001e0: f66e 753d 14cc 9c3d 77fe 26be 0937 61be
000001f0: 5f26 e33d 718b 45bd 696c 02bc 962a 5abe
00000200: d50f 99bc 5c25 6cbd d8dc 9abc 6a80 16be
00000210: 1ab3 263d 2fe5 adba fca8 b0bc 928a 12be
00000220: 6899 06be 94bc 16be cb44 2abe 281a 053e
00000230: 737a 583c 1594 113e 5a39 94bd f29e cbbd
00000240: 4fe6 593d bf56 67bd 8b0b 0abe 0d7f b9bc
00000250: 98da 2b3e dcad 97bd 8bb0 bc3d 1fd7 a8bd
00000260: ae0b 20bd c1bd 1bbd 22ae 953d a603 96bd
00000270: b286 eb3d 1883 56bd 0b65 f43d 3fe2 0dbe
00000280: 22b9 0d3c 85ba f93d 48a8 013e 7b2e f63d
00000290: e7ea 973d 3316 2cbe ef19 d1bd 66a1 8abc
000002a0: 43b0 27be 0af3 02be a8f4 5d3c 91b9 cfbd
000002b0: e6c2 163e f79f c13d abd1 1c3e b064 7ebd
000002c0: cfe9 303c 4ce1 bc3d 8dcc 2dbe 9870 063e
000002d0: 2d9d c9bd b090 f73c f5e7 3a3c c016 e2bd
000002e0: 6e1d 9e3c ec69 683c ec9a 08bd ab54 17be
000002f0: 374e b53d 8149 233d 1356 283e c663 34bc
00000300: ed6d 02be 4372 f43d d7df 33bc 08b5 7fbd
00000310: c0c7 163d 5712 883d 99f8 b33d 1492 303b
00000320: eded fdbc 5828 4cbd 6c0c 013d 17fa ef3c
00000330: 18e8 c23d 8837 b5bd 446c 04bd 7e4d 11be
00000340: f29b 703c 2950 c1bd 9738 99bd 03f5 c8bb
00000350: 13c0 903c a0ea 2a3e d15e 5a3e 3ff3 f3bd
00000360: 33eb 093e 2595 ce3d 1113 12bc 1148 0dbe
00000370: 5055 82be bfb2 0f3d 6861 073e f2d0 8dbd
00000380: 0bcd a33d 74e2 6bbd eaa4 f83c 320b 9039
00000390: 0c7a 0cbe b2f1 0dbd 3f67 0a3d b077 d93d
000003a0: ea21 59be c7dd 3dba 9b94 d6bd bb2c 96bd
000003b0: df32 9d3d 97e0 9ebd ff84 96bc 40e4 cdbd
000003c0: 2d65 d83d 2caa 60bb 84c1 803d 8b4e ebbc
000003d0: 14f4 dd3d bd89 05be c3eb 3d3d 4b3a 91bd
000003e0: 3ce6 5a3d 3414 603d 01f3 a0bd c82f b1bd
000003f0: 2a39 c0bc f2d5 9bbc ff83 e3bd 16b4 0b3e
0.025973609 0.2101228 0.21182738 0.035104506 -0.123545654 0.029592523 0.022279926 -0.21534006
0.020436114 0.1581971 0.11159444 -0.17886929 0.032162573 -0.028353935 -0.018531017 0.1766494
-0.3958318 -0.2661723 0.052510154 0.27762002 -0.01370301 -0.20510589 -0.044641368 0.20482382
0.008787086 0.011649005 -0.0935655 0.035502177 0.040025353 -0.055000722 0.025022808 0.10124591
0.1509714 0.364199 0.061496016 0.010935445 0.2834904 0.30713782 0.06323375 -0.38493463
-0.17697461 -0.06358113 0.18492839 -0.0033283862 -0.07702444 0.15635154 0.066264525 -0.2361684
-0.139674 0.23329215 -0.13968897 -0.04138428 -0.05096716 -0.20547928 -0.0071886876 0.07834075
0.1605893 0.16679817 0.008371933 -0.013053005 -0.10800779 0.022223692 0.16417307 -0.017801372
0.22751333 0.006976909 0.058474172 -0.096819796 -0.08865876 -0.1370139 -0.20319839 0.076881364
0.14430165 0.059308596 -0.04889846 -0.041260652 0.095875815 -0.11944552 -0.120273806 0.11332791
-0.013789544 0.1029514 0.030814897 -0.033414397 -0.1657881 -0.0531422 0.0029369467 0.110279985
0.039549597 0.005656056 0.09173356 -0.079796515 -0.19421837 -0.06906333 0.13727246 0.0025269154
-0.21189989 -0.011629579 0.1906976 0.021037955 0.02782624 -0.043884184 0.008428788 0.023621185
0.16997774 0.07453282 -0.01513581 -0.04079582 0.10745755 0.0051282663 0.0811592 0.27799678
-0.02340681 -0.09446835 -0.17560776 -0.029148657 0.099004254 0.21063344 -0.02594629 -0.12130765
0.059920274 0.07656112 -0.16308008 -0.2199365 0.11091303 -0.048228685 -0.007960417 -0.21305308
-0.018684307 -0.057652816 -0.018904135 -0.14697424 0.04069815 -0.0013267155 -0.021564953 -0.14310673
-0.13144457 -0.14720374 -0.16627805 0.12998259 0.013212788 0.14216645 -0.072375014 -0.09942426
0.053198155 -0.056479212 -0.13480966 -0.02264359 0.16782606 -0.07406208 0.092133604 -0.08244156
-0.03907364 -0.03802276 0.07308604 -0.07324915 0.115003005 -0.052371114 0.11933335 -0.13855837
0.008650096 0.12193779 0.1266185 0.12020584 0.07417851 -0.16805343 -0.102100246 -0.016922664
-0.16375832 -0.12788025 0.0135471 -0.10142816 0.14722785 0.09454339 0.15314357 -0.06210774
0.010797932 0.092226595 -0.16972561 0.13128889 -0.09844432 0.03022036 0.011407842 -0.110394955
0.019301143 0.01418541 -0.03335087 -0.14778392 0.08852809 0.03986502 0.16439085 -0.011010116
-0.12737246 0.11935856 -0.010978661 -0.062428504 0.03681159 0.06644123 0.087876506 0.0026942538
-0.03099724 -0.049843162 0.031505987 0.029294057 0.095169246 -0.08848482 -0.032329813 -0.14189717
0.014685618 -0.094391175 -0.07481497 -0.0061327233 0.017669713 0.16691065 0.21325232 -0.1191163
0.13468628 0.10087041 -0.008915679 -0.13797022 -0.25455713 0.035082575 0.13220751 -0.06924619
0.07998093 -0.05758901 0.030352075 0.00027474161 -0.13718432 -0.034654327 0.03378987 0.10618532
-0.21204343 -0.0007242825 -0.10477563 -0.073327504 0.076757185 -0.07757681 -0.018373964 -0.10053301
0.10566173 -0.0034281118 0.0628691 -0.028723976 0.1083757 -0.13040824 0.046367418 -0.070911966
0.053442225 0.054706767 -0.07858849 -0.08651692 -0.023464758 -0.019022916 -0.11109161 0.13642916

bias f4 [50]
00000000: 9b22 743b 049a 09be 8bdc 6ebc 7296 05bd
00000010: fb3a c43a 90f5 0b3d 57d4 44bd 41e2 4ebd
00000020: 10a5 d53d 346a fd3c 2068 b0bd 1eea 893d
00000030: bb21 10be 3cb4 c5bd 8b78 efbc 5c21 c13d
00000040: 604b 30bd 62bd 863d 0df9 2dbd 65cb e63d
00000050: ac4f 8e3d f0d5 fc3c 8dbf 7fbd 0339 3abc
00000060: 42a8 933d 7b15 19bc b441 0c3d 513e 593d
00000070: d25a 98bd 2fb6 04be 89e1 f23d f478 f33d
00000080: ac1b b73d 8f80 d83d 0d5c b03d 9990 8cbc
00000090: f828 86bb 0ac1 283e ab93 8a3d 216e 8abd
000000a0: 78f1 503d 862c 803d 093d ab3d c87f a33d
000000b0: 5bfb 033e bfa3 d2bd f02f 173d d987 833b
000000c0: 022c 0fbb 41e3 c33c
0.0037252072 -0.13437659 -0.014578949 -0.03261418 0.0014971191 0.034169734 -0.048054066 -0.05050874
0.10431874 0.03093443 -0.0861361 0.067341074 -0.14075367 -0.096535176 -0.029232284 0.09430191
-0.043040633 0.06579091 -0.04247384 0.11269263 0.0694879 0.030863732 -0.062438536 -0.011366132
0.07209827 -0.0093435 0.034242347 0.053037945 -0.074391976 -0.12960123 0.11859424 0.11888304
0.08940825 0.105713956 0.08611307 -0.017158793 -0.0040942393 0.16479889 0.06766447 -0.06759287
0.051011533 0.06258492 0.08361251 0.07983357 0.12888853 -0.10285138 0.03691095 0.004013997
-0.00218463 0.023912074

mask f4 [50, 50]
00000000: 0000 803f 0000 803f 0000 803f 0000 803f
00000010: 0000 803f 0000 803f 0000 803f 0000 803f
00000020: 0000 803f 0000 803f 0000 803f 0000 803f
00000030: 0000 803f 0000 803f 0000 803f 0000 803f
00000040: 0000 803f 0000 803f 0000 803f 0000 803f
00000050: 0000 803f 0000 803f 0000 803f 0000 803f
00000060: 0000 803f 0000 803f 0000 803f 0000 803f
00000070: 0000 803f 0000 803f 0000 803f 0000 803f
00000080: 0000 803f 0000 803f 0000 803f 0000 803f
00000090: 0000 803f 0000 803f 0000 803f 0000 803f
000000a0: 0000 803f 0000 803f 0000 803f 0000 803f
000000b0: 0000 803f 0000 803f 0000 803f 0000 803f
000000c0: 0000 803f 0000 803f 0000 803f 0000 803f
000000d0: 0000 803f 0000 803f 0000 803f 0000 803f
000000e0: 0000 803f 0000 803f 0000 803f 0000 803f
000000f0: 0000 803f 0000 803f 0000 803f 0000 803f
00000100: 0000 803f 0000 803f 0000 803f 0000 803f
00000110: 0000 803f 0000 803f 0000 803f 0000 803f
00000120: 0000 803f 0000 803f 0000 803f 0000 803f
00000130: 0000 803f 0000 803f 0000 803f 0000 803f
00000140: 0000 803f 0000 803f 0000 803f 0000 803f
00000150: 0000 803f 0000 803f 0000 803f 0000 803f
00000160: 0000 803f 0000 803f 0000 803f 0000 803f
00000170: 0000 803f 0000 803f 0000 803f 0000 803f
00000180: 0000 803f 0000 803f 0000 803f 0000 803f
00000190: 0000 803f 0000 803f 0000 803f 0000 803f
000001a0: 0000 803f 0000 803f 0000 803f 0000 803f
000001b0: 0000 803f 0000 803f 0000 803f 0000 803f
000001c0: 0000 803f 0000 803f 0000 803f 0000 803f
000001d0: 0000 803f 0000 803f 0000 803f 0000 803f
000001e0: 0000 803f 0000 803f 0000 803f 0000 803f
000001f0: 0000 803f 0000 803f 0000 803f 0000 803f
00000200: 0000 803f 0000 803f 0000 803f 0000 803f
00000210: 0000 803f 0000 803f 0000 803f 0000 803f
00000220: 0000 803f 0000 803f 0000 803f 0000 803f
00000230: 0000 803f 0000 803f 0000 803f 0000 803f
00000240: 0000 803f 0000 803f 0000 803f 0000 803f
00000250: 0000 803f 0000 803f 0000 803f 0000 803f
00000260: 0000 803f 0000 803f 0000 803f 0000 803f
00000270: 0000 803f 0000 803f 0000 803f 0000 803f
00000280: 0000 803f 0000 803f 0000 803f 0000 803f
00000290: 0000 803f 0000 803f 0000 803f 0000 803f
000002a0: 0000 803f 0000 803f 0000 803f 0000 803f
000002b0: 0000 803f 0000 803f 0000 803f 0000 803f
000002c0: 0000 803f 0000 803f 0000 803f 0000 803f
000002d0: 0000 803f 0000 803f 0000 803f 0000 803f
000002e0: 0000 803f 0000 803f 0000 803f 0000 803f
000002f0: 0000 803f 0000 803f 0000 803f 0000 803f
00000300: 0000 803f 0000 803f 0000 803f 0000 803f
00000310: 0000 803f 0000 803f 0000 803f 0000 803f
00000320: 0000 803f 0000 803f 0000 803f 0000 803f
00000330: 0000 803f 0000 803f 0000 803f 0000 803f
00000340: 0000 803f 0000 803f 0000 803f 0000 803f
00000350: 0000 803f 0000 803f 0000 803f 0000 803f
00000360: 0000 803f 0000 803f 0000 803f 0000 803f
00000370: 0000 803f 0000 803f 0000 803f 0000 803f
00000380: 0000 803f 0000 803f 0000 803f 0000 803f
00000390: 0000 803f 0000 803f 0000 803f 0000 803f
000003a0: 0000 803f 0000 803f 0000 803f 0000 803f
000003b0: 0000 803f 0000 803f 0000 803f 0000 803f
000003c0: 0000 803f 0000 803f 0000 803f 0000 803f
000003d0: 0000 803f 0000 803f 0000 803f 0000 803f
000003e0: 0000 803f 0000 803f 0000 803f 0000 803f
000003f0: 0000 803f 0000 803f 0000 803f 0000 803f
1.0 1.0 1.0 1.0 1.0 1.0 1.0 1.0
1.0 1.0 1.0 1.0 1.0 1.0 1.0 1.0
1.0 1.0 1.0 1.0 1.0 1.0 1.0 1.0
1.0 1.0 1.0 1.0 1.0 1.0 1.0 1.0
1.0 1.0 1.0 1.0 1.0 1.0 1.0 1.0
1.0 1.0 1.0 1.0 1.0 1.0 1.0 1.0
1.0 1.0 1.0 1.0 1.0 1.0 1.0 1.0
1.0 1.0 1.0 1.0 1.0 1.0 1.0 1.0
1.0 1.0 1.0 1.0 1.0 1.0 1.0 1.0
1.0 1.0 1.0 1.0 1.0 1.0 1.0 1.0
1.0 1.0 1.0 1.0 1.0 1.0 1.0 1.0
1.0 1.0 1.0 1.0 1.0 1.0 1.0 1.0
1.0 1.0 1.0 1.0 1.0 1.0 1.0 1.0
1.0 1.0 1.0 1.0 1.0 1.0 1.0 1.0
1.0 1.0 1.0 1.0 1.0 1.0 1.0 1.0
1.0 1.0 1.0 1.0 1.0 1.0 1.0 1.0
1.0 1.0 1.0 1.0 1.0 1.0 1.0 1.0
1.0 1.0 1.0 1.0 1.0 1.0 1.0 1.0
1.0 1.0 1.0 1.0 1.0 1.0 1.0 1.0
1.0 1.0 1.0 1.0 1.0 1.0 1.0 1.0
1.0 1.0 1.0 1.0 1.0 1.0 1.0 1.0
1.0 1.0 1.0 1.0 1.0 1.0 1.0 1.0
1.0 1.0 1.0 1.0 1.0 1.0 1.0 1.0
1.0 1.0 1.0 1.0 1.0 1.0 1.0 1.0
1.0 1.0 1.0 1.0 1.0 1.0 1.0 1.0
1.0 1.0 1.0 1.0 1.0 1.0 1.0 1.0
1.0 1.0 1.0 1.0 1.0 1.0 1.0 1.0
1.0 1.0 1.0 1.0 1.0 1.0 1.0 1.0
1.0 1.0 1.0 1.0 1.0 1.0 1.0 1.0
1.0 1.0 1.0 1.0 1.0 1.0 1.0 1.0
1.0 1.0 1.0 1.0 1.0 1.0 1.0 1.0
1.0 1.0 1.0 1.0 1.0 1.0 1.0 1.0

weight f4 [4, 50]
00000000: 6a3c f9bd 4faa 96bd fc46 193d 3acb c53d
00000010: 627a 8c3d 86b0 f03d 00a4 7dba da2b 08be
00000020: c0ea afbd 5394 a2bd e2a2 28bd 548b 02be
00000030: 10fe fcbc 391f 91bd 4dc8 9fbd 4056 c03c
00000040: d89a 19bd a0a8 623c e056 cebb b0b8 bc3c
00000050: 10cc fd3c 04c3 dcbd 0c20 483d a20b d9bd
00000060: 10b9 cd3c 1fae 85bd 18fd 633d 4229 e8bd
00000070: 0048 ea3b 20b8 15bd 68e4 ae3d 1ac7 b73d
00000080: 0c39 d13d d844 8abc 84e8 afbc a1aa 033e
00000090: 344f 683d f426 43bd e281 e53d 7268 d9bd
000000a0: 7c42 94bc 8496 b63d af0e 01be bae0 babd
000000b0: ddc8 ecbd c046 c73d 6788 82bd ee20 00be
000000c0: 1037 083c f8e2 b3bc 5a49 8b3d 33dc d1bd
000000d0: 40a0 3b3b 2a90 c3bd 54b1 8f3d 7ef2 fabd
000000e0: e421 c93d 265b f5bd da6d 2abd 90de 3f3d
000000f0: 46c5 4abd 8092 8fba 1efb ca3d 246a 143d
00000100: c08a 133b 1eca 903d c0f3 713c f233 c2bd
00000110: 5ca0 bbbc d6b5 2fbd ae11 8cbd 84c1 adbd
00000120: 0a8b fa3d 7bae 09be 88c8 9d3d 269c df3d
00000130: 6ef7 d1bd 8c65 d9bd 3a39 e9bd a2d5 0fbd
00000140: d0fd 493c 6866 9dbc 8cfd d33d 5839 b8bc
00000150: 8e3e c8bd 5e59 f13d b9ce 96bd 5f60 96bd
00000160: 8710 e3bd fa9a af3d 5678 c03d e062 dc3c
00000170: a629 70bd 5018 02be ecd6 c7bd eee3 b93d
00000180: a0b9 7e3c 283e 423d 7149 b9bd 74df 0b3d
00000190: 8a63 383e 29d3 29be 4c5d 04be 3330 e4bd
000001a0: f412 14be b2ff 183e 0b43 7cbd caf4 d0bd
000001b0: 5f67 1c3e 9c1a 933d 5f21 313e 0a2a 423e
000001c0: 1e3f 21be fd6a e93c a367 65be 0c1d 2d3e
000001d0: 99a3 68bc 46e5 83bd b0e7 02bd e01c 6cbd
000001e0: df95 a83d e402 0c3e 1ecc 3bbe 3b0d a3bd
000001f0: f1f8 fabd a5bc 5ebd d5e5 833d ec76 25be
00000200: b2c7 00be eb10 b0bd e5a2 163e 2a29 63bd
00000210: 40c4 ebbc 52eb 393e 9c30 0ebe 4d44 0f3e
00000220: 0a57 023e 20c5 363e ac50 873d a687 9a3d
00000230: 98d2 103e b2c8 efbc ff34 6dbd 814c e33d
00000240: 432c fa3d 45b9 9fbc d8ae 74bc 0889 d7bd
00000250: 9802 3b3e f9f6 c13d 52c5 903e 54a3 01bd
00000260: b857 89be bf56 9cbd 24b1 37bc d2a5 1f3e
00000270: 5c44 6f3e 6b8e 86bd 6144 b4bc c433 39be
00000280: 965c f23d 9974 903c 5356 2a3d c0f3 88be
00000290: e3f0 6bbe b95e 2fbd d46d 86be 7188 fa3d
000002a0: af1f 8ebe a873 253d 927b 2bbe e813 79bd
000002b0: 608c 593b e7c1 7ebe 21e3 b7bd 0509 8a3e
000002c0: b3bc 81be 5f55 ff39 e100 76be d2c4 f7bb
000002d0: e93f 873d 606a 733e d552 22be 4ebf 283d
000002e0: 5fba 43be 598c 803e 4437 163e e53a 633b
000002f0: bbe1 e13d 51fe b43d e5b7 1e3d 6efe 503e
00000300: 5c84 803e 4a6c 903e c5bd 5e3d 1ef4 ffbd
00000310: a9e5 663e b3e4 043e 07da e13d 1c20 3e3e
-0.12169726 -0.073567025 0.03742121 0.09657903 0.0685928 0.11752419 -0.0009675622 -0.13297978
-0.08589697 -0.07938447 -0.041170962 -0.12748462 -0.030882865 -0.070860334 -0.07801876 0.023478627
-0.037501186 0.013834149 -0.0062969774 0.023037285 0.030981094 -0.10779384 0.048858687 -0.10597922
0.025112659 -0.065273516 0.05566129 -0.11335994 0.0071496964 -0.03655255 0.08539659 0.089735225
0.10215959 -0.01687853 -0.021473177 0.12858059 0.05671616 -0.04764457 0.11206414 -0.106156245
-0.018098108 0.08915427 -0.12603258 -0.091248944 -0.11561749 0.09730291 -0.06373673 -0.12512562
0.008313909 -0.021958813 0.068011 -0.10247078 0.0028629452 -0.095489815 0.070162445 -0.12253283
0.09820917 -0.11980276 -0.04160867 0.04684311 -0.04950454 -0.0010953695 0.09911178 0.036234036
0.0022513121 0.07069801 0.014767587 -0.09482564 -0.022903614 -0.04289802 -0.0683931 -0.08484176
0.12233551 -0.13445465 0.07704264 0.10918455 -0.102522716 -0.10615072 -0.11387868 -0.035115846
0.01232858 -0.01921387 0.103510946 -0.022488281 -0.09777556 0.117846236 -0.07363648 -0.073426
-0.11087137 0.08574481 0.09397952 0.026902616 -0.05863347 -0.12704587 -0.0975779 0.09076677
0.015547186 0.047422558 -0.09047211 0.03414865 0.18006721 -0.16584457 -0.12926215 -0.11142006
-0.14460355 0.1494129 -0.061587375 -0.1020294 0.15273808 0.0718281 0.17297886 0.18961349
-0.15746734 0.028493399 -0.22402816 0.16905612 -0.014199161 -0.06440215 -0.031959236 -0.057644725
0.08231711 0.13672978 -0.18339583 -0.07961508 -0.12254513 -0.054379124 0.06440321 -0.16158646
-0.12576178 -0.08596977 0.14710577 -0.05545918 -0.028780103 0.18156174 -0.1388573 0.13990898
0.12728515 0.17848635 0.06607184 0.07545404 0.14142835 -0.029270504 -0.05791187 0.11098576
0.122154735 -0.019497523 -0.014934264 -0.105241835 0.18262708 0.094709344 0.28275543 -0.031649902
-0.26824737 -0.07633733 -0.011211667 0.15590599 0.23365921 -0.06570133 -0.022005262 -0.18086153
0.118340656 0.017633723 0.04158623 -0.26748466 -0.2304111 -0.042814944 -0.26255667 0.122330554
-0.27758548 0.0403935 -0.16746357 -0.06081 0.0033195242 -0.24878655 -0.08978868 0.26960006
-0.2533928 0.00048700997 -0.24023773 -0.0075613046 0.06603987 0.23771048 -0.1585191 0.041198067
-0.19114064 0.25107077 0.1466952 0.0034672555 0.11029383 0.088375695 0.038749594 0.20409557
0.25100982 0.28207618 0.054380197 -0.124977335 0.22548546 0.12977867 0.110279135 0.18566936

bias f4 [4]
00000000: b6ae 3cbd f01b 82bc e9a9 2abd 6707 503e
-0.046065055 -0.015882462 -0.041665945 0.20315324

mask f4 [4, 50]
00000000: 0000 0000 0000 0000 0000 0000 0000 0000
00000010: 0000 0000 0000 0000 0000 0000 0000 0000
00000020: 0000 0000 0000 0000 0000 0000 0000 0000
00000030: 0000 0000 0000 0000 0000 0000 0000 0000
00000040: 0000 0000 0000 0000 0000 0000 0000 0000
00000050: 0000 0000 0000 0000 0000 0000 0000 0000
00000060: 0000 0000 0000 0000 0000 0000 0000 0000
00000070: 0000 0000 0000 0000 0000 0000 0000 0000
00000080: 0000 0000 0000 0000 0000 0000 0000 0000
00000090: 0000 0000 0000 0000 0000 0000 0000 0000
000000a0: 0000 0000 0000 0000 0000 0000 0000 0000
000000b0: 0000 0000 0000 0000 0000 0000 0000 0000
000000c0: 0000 0000 0000 0000 0000 0000 0000 0000
000000d0: 0000 0000 0000 0000 0000 0000 0000 0000
000000e0: 0000 0000 0000 0000 0000 0000 0000 0000
000000f0: 0000 0000 0000 0000 0000 0000 0000 0000
00000100: 0000 0000 0000 0000 0000 0000 0000 0000
00000110: 0000 0000 0000 0000 0000 0000 0000 0000
00000120: 0000 0000 0000 0000 0000 0000 0000 0000
00000130: 0000 0000 0000 0000 0000 0000 0000 0000
00000140: 0000 0000 0000 0000 0000 0000 0000 0000
00000150: 0000 0000 0000 0000 0000 0000 0000 0000
00000160: 0000 0000 0000 0000 0000 0000 0000 0000
00000170: 0000 0000 0000 0000 0000 0000 0000 0000
00000180: 0000 0000 0000 0000 0000 0000 0000 0000
00000190: 0000 803f 0000 803f 0000 803f 0000 803f
000001a0: 0000 803f 0000 803f 0000 803f 0000 803f
000001b0: 0000 803f 0000 803f 0000 803f 0000 803f
000001c0: 0000 803f 0000 803f 0000 803f 0000 803f
000001d0: 0000 803f 0000 803f 0000 803f 0000 803f
000001e0: 0000 803f 0000 803f 0000 803f 0000 803f
000001f0: 0000 803f 0000 803f 0000 803f 0000 803f
00000200: 0000 803f 0000 803f 0000 803f 0000 803f
00000210: 0000 803f 0000 803f 0000 803f 0000 803f
00000220: 0000 803f 0000 803f 0000 803f 0000 803f
00000230: 0000 803f 0000 803f 0000 803f 0000 803f
00000240: 0000 803f 0000 803f 0000 803f 0000 803f
00000250: 0000 803f 0000 803f 0000 803f 0000 803f
00000260: 0000 803f 0000 803f 0000 803f 0000 803f
00000270: 0000 803f 0000 803f 0000 803f 0000 803f
00000280: 0000 803f 0000 803f 0000 803f 0000 803f
00000290: 0000 803f 0000 803f 0000 803f 0000 803f
000002a0: 0000 803f 0000 803f 0000 803f 0000 803f
000002b0: 0000 803f 0000 803f 0000 803f 0000 803f
000002c0: 0000 803f 0000 803f 0000 803f 0000 803f
000002d0: 0000 803f 0000 803f 0000 803f 0000 803f
000002e0: 0000 803f 0000 803f 0000 803f 0000 803f
000002f0: 0000 803f 0000 803f 0000 803f 0000 803f
00000300: 0000 803f 0000 803f 0000 803f 0000 803f
00000310: 0000 803f 0000 803f 0000 803f 0000 803f
0.0 0.0 0.0 0.0 0.0 0.0 0.0 0.0
0.0 0.0 0.0 0.0 0.0 0.0 0.0 0.0
0.0 0.0 0.0 0.0 0.0 0.0 0.0 0.0
0.0 0.0 0.0 0.0 0.0 0.0 0.0 0.0
0.0 0.0 0.0 0.0 0.0 0.0 0.0 0.0
0.0 0.0 0.0 0.0 0.0 0.0 0.0 0.0
0.0 0.0 0.0 0.0 0.0 0.0 0.0 0.0
0.0 0.0 0.0 0.0 0.0 0.0 0.0 0.0
0.0 0.0 0.0 0.0 0.0 0.0 0.0 0.0
0.0 0.0 0.0 0.0 0.0 0.0 0.0 0.0
0.0 0.0 0.0 0.0 0.0 0.0 0.0 0.0
0.0 0.0 0.0 0.0 0.0 0.0 0.0 0.0
0.0 0.0 0.0 0.0 1.0 1.0 1.0 1.0
1.0 1.0 1.0 1.0 1.0 1.0 1.0 1.0
1.0 1.0 1.0 1.0 1.0 1.0 1.0 1.0
1.0 1.0 1.0 1.0 1.0 1.0 1.0 1.0
1.0 1.0 1.0 1.0 1.0 1.0 1.0 1.0
1.0 1.0 1.0 1.0 1.0 1.0 1.0 1.0
1.0 1.0 1.0 1.0 1.0 1.0 1.0 1.0
1.0 1.0 1.0 1.0 1.0 1.0 1.0 1.0
1.0 1.0 1.0 1.0 1.0 1.0 1.0 1.0
1.0 1.0 1.0 1.0 1.0 1.0 1.0 1.0
1.0 1.0 1.0 1.0 1.0 1.0 1.0 1.0
1.0 1.0 1.0 1.0 1.0 1.0 1.0 1.0
1.0 1.0 1.0 1.0 1.0 1.0 1.0 1.0

weight f4 [50, 2]
00000000: 1893 053f ce85 d13e b29f 88be 65d3 fcbe
00000010: c46c c93e 9a5c ab3e 0ec1 753f d871 fbbd
00000020: 6149 56bf 0065 24be d848 063f 00a7 a2be
00000030: 0919 13be 5761 033f 2539 18bf d96c bebe
00000040: 7ae7 de3e 8cbd 213e 15a1 abbe 3304 93be
00000050: 2083 c9be 3875 b8bd e1c2 25be b70c 223f
00000060: 7ff3 1ebe 65ba e2be a856 333d 6084 c6bd
00000070: ed25 ef3e 344c 3e3e 9fe6 623e 991c 82be
00000080: 795a 19bf 2e46 23bf 34fb d13e 40b0 4bbc
00000090: 708a 9bbe 047e 21bf ed01 073e 484b 0fbf
000000a0: c152 47bd 9ea5 8bbe d0ad c9be 63ac 153f
000000b0: fa04 293f 90e7 0e3d e1bc 24bd e4a0 363e
000000c0: e97a 66be 704f 36bd 0caa 263d ee69 f53e
000000d0: 6541 c33e 07d2 21bf 7a88 01be 8223 b23e
000000e0: 9e0f b9be c75e 09bf d025 b13e ab23 d4be
000000f0: 0317 4cbe 5450 113e 9ee1 4d3d 801f 29bf
00000100: cd1d b33e 5140 1abf 847c 363e e898 e6be
00000110: 673c 703e db45 e6be dd8e f9be 659e 1dbf
00000120: 8c2d 043f 4463 373e 9f97 c1be 40b1 ea3c
00000130: 48fb a5bc 5a49 1dbf 0a5f a9be c4cd 463e
00000140: f6df e03d c106 0b3f 3971 1c3f 4497 cebe
00000150: ad03 9fbe 1b41 1abf b009 cdbe d058 28bd
00000160: aed9 6c3e 2b7a a1be 9b4a 2b3e 7aad e73e
00000170: b75a d7bd 7f3c 323f a1ac bbbe 646e 073e
00000180: 9c54 98bd 14c1 60be 5f4e a8bd bc22 1fbe
0.5217757 0.40922397 -0.26684338 -0.4938003 0.39340794 0.33469087 0.95997703 -0.12277573
-0.8370572 -0.16054153 0.524549 -0.31768036 -0.14365019 0.51320404 -0.59462196 -0.3719242
0.43535978 0.15794963 -0.33521333 -0.2871414 -0.39357853 -0.09006733 -0.16187622 0.6330065
-0.15522574 -0.44282833 0.043783814 -0.09693217 0.46708623 0.18583757 0.22158287 -0.25412443
-0.59903675 -0.6377896 0.41011965 -0.012432158 -0.30379057 -0.6308291 0.13184328 -0.55974245
-0.048662905 -0.27274793 -0.3939042 0.58466166 0.6602322 0.034888804 -0.04021919 0.17834812
-0.22507824 -0.04450935 0.040689513 0.4793238 0.3813583 -0.632111 -0.12649718 0.34792715
-0.36144727 -0.53660244 0.3459916 -0.41433463 -0.19930653 0.14190799 0.050263993 -0.6606369
0.34983674 -0.6025439 0.17820936 -0.45038533 0.23460542 -0.4497517 -0.4874181 -0.61569816
0.51632 0.1790896 -0.3781099 0.028648973 -0.020261422 -0.6144005 -0.33080322 0.19414431
0.10980217 0.5430718 0.61110264 -0.40349782 -0.31057492 -0.60255593 -0.40046453 -0.041100323
0.23129913 -0.3153852 0.16727678 0.4524954 -0.10515349 0.6962356 -0.36655143 0.13225704
-0.07438013 -0.21948653 -0.08218073 -0.15540594

bias f4 [50]
00000000: d5d1 fcbd 5693 1fbe 3dbd 5e3e d2f7 08bf
00000010: 76dd 573e fd85 d1bd 382b 1ebf 62a6 03bd
00000020: a842 09be 4d63 bd3e b8d3 50be 8544 01bf
00000030: aee8 cfbe 9c44 053f f11f d03d 4297 103f
00000040: a5dd 313e 79fb 10bf 6784 173f 5f5e 133f
00000050: 5b6f f93e 8bcc 163f 71ad be3c 25b9 99be
00000060: 1f93 2dbf 97c3 0abe 81a2 9abe 944d 5e3d
00000070: f984 143f 7643 883e 4090 113f 3afb 8fbe
00000080: d015 003f 31ff 38be 7be9 21bf 2167 203c
00000090: 55e4 1f3f 5c2c 20bf 83b8 04bf 730c 193f
000000a0: f256 203f d984 88be 1169 fb3e 6ce2 b53e
000000b0: 2eee 35be 049c 363f c6f3 153f 5931 ffbe
000000c0: bdb8 d43c a688 663d
-0.1234471 -0.15583548 0.21751876 -0.53503144 0.21080574 -0.10230634 -0.61784697 -0.032141097
-0.13404334 0.36989823 -0.20393264 -0.5049518 -0.40607208 0.52057815 0.10162342 0.564808
0.17369707 -0.56633717 0.59186405 0.57565874 0.4871777 0.5890586 0.023276063 -0.30024067
-0.67802614 -0.13551174 -0.30202106 0.054273203 0.580154 0.2661397 0.56860733 -0.28121358
0.50033283 -0.18066098 -0.6324689 0.009790213 0.6245778 -0.6256769 -0.5184404 0.5978462
0.6263267 -0.26663855 0.49103597 0.3552431 -0.1776664 0.7133181 0.58575094 -0.49842337
0.025966996 0.05628266

mask f4 [50, 2]
00000000: 0000 803f 0000 0000 0000 803f 0000 0000
00000010: 0000 803f 0000 0000 0000 803f 0000 0000
00000020: 0000 803f 0000 0000 0000 803f 0000 0000
00000030: 0000 803f 0000 0000 0000 803f 0000 0000
00000040: 0000 803f 0000 0000 0000 803f 0000 0000
00000050: 0000 803f 0000 0000 0000 803f 0000 0000
00000060: 0000 803f 0000 0000 0000 803f 0000 0000
00000070: 0000 803f 0000 0000 0000 803f 0000 0000
00000080: 0000 803f 0000 0000 0000 803f 0000 0000
00000090: 0000 803f 0000 0000 0000 803f 0000 0000
000000a0: 0000 803f 0000 0000 0000 803f 0000 0000
000000b0: 0000 803f 0000 0000 0000 803f 0000 0000
000000c0: 0000 803f 0000 0000 0000 803f 0000 0000
000000d0: 0000 803f 0000 0000 0000 803f 0000 0000
000000e0: 0000 803f 0000 0000 0000 803f 0000 0000
000000f0: 0000 803f 0000 0000 0000 803f 0000 0000
00000100: 0000 803f 0000 0000 0000 803f 0000 0000
00000110: 0000 803f 0000 0000 0000 803f 0000 0000
00000120: 0000 803f 0000 0000 0000 803f 0000 0000
00000130: 0000 803f 0000 0000 0000 803f 0000 0000
00000140: 0000 803f 0000 0000 0000 803f 0000 0000
00000150: 0000 803f 0000 0000 0000 803f 0000 0000
00000160: 0000 803f 0000 0000 0000 803f 0000 0000
00000170: 0000 803f 0000 0000 0000 803f 0000 0000
00000180: 0000 803f 0000 0000 0000 803f 0000 0000
1.0 0.0 1.0 0.0 1.0 0.0 1.0 0.0
1.0 0.0 1.0 0.0 1.0 0.0 1.0 0.0
1.0 0.0 1.0 0.0 1.0 0.0 1.0 0.0
1.0 0.0 1.0 0.0 1.0 0.0 1.0 0.0
1.0 0.0 1.0 0.0 1.0 0.0 1.0 0.0
1.0 0.0 1.0 0.0 1.0 0.0 1.0 0.0
1.0 0.0 1.0 0.0 1.0 0.0 1.0 0.0
1.0 0.0 1.0 0.0 1.0 0.0 1.0 0.0
1.0 0.0 1.0 0.0 1.0 0.0 1.0 0.0
1.0 0.0 1.0 0.0 1.0 0.0 1.0 0.0
1.0 0.0 1.0 0.0 1.0 0.0 1.0 0.0
1.0 0.0 1.0 0.0 1.0 0.0 1.0 0.0
1.0 0.0 1.0 0.0
