LMD SNR/03b/trad_model_o3b_gpu_20260129_101125_299.pt (torch, 279372 bytes, 79 tensors)

low f4 [2]
-13.0 0.001
00000000: 0000 50c1 6f12 833a

high f4 [2]
5.0 1.0
00000000: 0000 a040 0000 803f

_shift f4 [2]
0.7505555 -1.73882
00000000: 6824 403f a791 debf

_scale f4 [2]
0.19249456 3.4559166
00000000: 4b1d 453e bd2d 5d40

weight f4 [50, 2]
-0.718769 -0.31230426 -0.7053262 -0.4972117 0.37274432 0.28638834 0.29577354 -0.66600853
0.39346978 -0.66587806 -0.3779851 0.40766352 0.21828459 -0.4430006 -0.5931238 -0.16342491
-0.29865208 0.17227155 -0.8206304 -0.02306813 -0.652792 -0.6107943 0.69658077 -0.014600337
0.72370005 0.6504583 -0.11086342 -0.55720234 0.5950502 0.090822816 -0.10801665 -0.47970387
0.1653627 0.5267175 -0.20959902 0.0956952 -0.40489343 -0.103404164 0.34900755 -0.48489022
-0.50917417 0.6020189 -0.69944733 0.21046829 0.41767266 0.20319217 -0.37247828 0.5290753
-0.38669306 -0.13380647 -0.191131 0.065322876 -0.34190527 -0.3673773 0.35085306 0.38698965
0.061991654 -0.6958058 0.2066054 0.43299085 0.5604621 0.09043127 -0.36406094 -0.16091365
0.49379364 0.4405697 0.07949161 -0.29978353 0.71514064 0.5284366 0.40514696 0.27510834
0.69534177 0.43006796 0.37058216 -0.051956296 -0.084014945 -0.65674937 -0.17008385 0.3991136
-0.37170047 0.6318932 -0.27697045 -0.37660518 0.5418675 -0.040703177 -0.2839377 0.45501
0.44396308 0.6771497 0.28995663 0.07189196 -0.23480827 -0.34216303 0.4054959 -0.19505686
0.7928019 0.46016866 0.33145574 -0.30253556
00000000: 3f01 38bf 58e6 9fbe 4290 34bf 8892 febe
00000010: 58d8 be3e 7ea1 923e a16f 973e 897f 2abf
00000020: df74 c93e fc76 2abf 4387 c1be 46b9 d03e
00000030: ff85 5f3e fad0 e2be f6d6 17bf dc58 27be
00000040: ede8 98be f467 303e d514 52bf 60f9 bcbc
00000050: 601d 27bf 045d 1cbf 1e53 323f 4036 6fbc
00000060: 6844 393f 6f84 263f 5c0c e3bd d0a4 0ebf
00000070: 3655 183f 5001 ba3d d537 ddbd bf9b f5be
00000080: d754 293e f5d6 063f 20a1 56be d8fb c33d
00000090: 314e cfbe 90c5 d3bd 1eb1 b23e 8843 f8be
000000a0: 3d59 02bf e91d 1a3f fb0e 33bf 0085 573e
000000b0: 31d9 d53e 9c11 503e 79b5 bebe 7b71 073f
000000c0: a2fc c5be 9004 09be d8b7 43be 00c8 853d
000000d0: 350e afbe e118 bcbe 03a3 b33e 8223 c63e
000000e0: f6ea 7d3d 5420 32bf 5e90 533e fab0 dd3e
000000f0: 727a 0f3f 0834 b93d 3266 babe 8cc6 24be
00000100: 85d2 fc3e 5a92 e13e 7fcc a23d 3a7d 99be
00000110: 7513 373f 9f47 073f 6c6f cf3e 00db 8c3e
00000120: eb01 323f de31 dc3e f2bc bd3e 20d0 54bd
00000130: 0710 acbd ba20 28bf 762a 2ebe 9e58 cc3e
00000140: 864f bebe c1c3 213f 12cf 8dbe 65d2 c0be
00000150: d4b7 0a3f 60b8 26bd 4860 91be 12f7 e83e
00000160: 214f e33e af59 2d3f 3275 943e 183c 933d
00000170: 9471 70be fe2f afbe 299d cf3e fcbc 47be
00000180: 11f5 4a3f 3a9b eb3e 91b4 a93e f1e5 9abe

bias f4 [50]
-0.4239919 0.18759242 -0.649731 -0.06425268 -0.4406818 0.69947666 -0.32751155 -0.5843459
0.08195892 0.37449887 0.52423626 -0.04174601 -0.6877143 0.35578376 0.02951271 0.27124795
0.097830735 0.4179679 0.17102848 0.39219892 -0.35015807 0.30038407 0.6801041 0.39647835
0.19765963 -0.18546683 -0.43784973 0.48949498 0.49535525 0.16585758 -0.4632079 -0.6232985
-0.54870987 0.0908859 -0.3978829 -0.5661482 -0.21670698 -0.31228045 0.40528446 -0.119208604
0.56530976 -0.6705169 -0.49212432 -0.14423555 -0.119989805 -0.47733378 0.05943642 0.095122956
-0.26748562 0.4255879
00000000: 7715 d9be 3a18 403e c554 26bf e996 83bd
00000010: 0ba1 e1be e710 333f 98af a7be b197 15bf
00000020: 14da a73d 51be bf3e 5934 063f ddfd 2abd
00000030: 0b0e 30bf 4a29 b63e a4c4 f13c 03e1 8a3e
00000040: 7b5b c83d e3ff d53e 1722 2f3e 4cce c83e
00000050: eb47 b3be f1cb 993e 4d1b 2e3f 36ff ca3e
00000060: 4967 4a3e 04eb 3dbe d72d e0be 169f fa3e
00000070: 349f fd3e 92d6 293e 9629 edbe 7e90 1fbf
00000080: 4078 0cbf 6322 ba3d 4fb7 cbbe 17ef 10bf
00000090: 6fe8 5dbe 39e3 9fbe 7281 cf3e a423 f4bd
000000a0: 24b8 103f ffa6 2bbf b8f7 fbbe 7cb2 13be
000000b0: 37bd f5bd 1865 f4be 9b73 733d d3cf c23d
000000c0: e0f3 88be a8e6 d93e

mask f4 [50, 2]
1.0 0.0 1.0 0.0 1.0 0.0 1.0 0.0
1.0 0.0 1.0 0.0 1.0 0.0 1.0 0.0
1.0 0.0 1.0 0.0 1.0 0.0 1.0 0.0
1.0 0.0 1.0 0.0 1.0 0.0 1.0 0.0
1.0 0.0 1.0 0.0 1.0 0.0 1.0 0.0
1.0 0.0 1.0 0.0 1.0 0.0 1.0 0.0
1.0 0.0 1.0 0.0 1.0 0.0 1.0 0.0
1.0 0.0 1.0 0.0 1.0 0.0 1.0 0.0
1.0 0.0 1.0 0.0 1.0 0.0 1.0 0.0
1.0 0.0 1.0 0.0 1.0 0.0 1.0 0.0
1.0 0.0 1.0 0.0 1.0 0.0 1.0 0.0
1.0 0.0 1.0 0.0 1.0 0.0 1.0 0.0
1.0 0.0 1.0 0.0
00000000: 0000 803f 0000 0000 0000 803f 0000 0000
00000010: 0000 803f 0000 0000 0000 803f 0000 0000
00000020: 0000 803f 0000 0000 0000 803f 0000 0000
00000030: 0000 803f 0000 0000 0000 803f 0000 0000
00000040: 0000 803f 0000 0000 0000 803f 0000 0000
00000050: 0000 803f 0000 0000 0000 803f 0000 0000
00000060: 0000 803f 0000 0000 0000 803f 0000 0000
00000070: 0000 803f 0000 0000 0000 803f 0000 0000
00000080: 0000 803f 0000 0000 0000 803f 0000 0000
00000090: 0000 803f 0000 0000 0000 803f 0000 0000
000000a0: 0000 803f 0000 0000 0000 803f 0000 0000
000000b0: 0000 803f 0000 0000 0000 803f 0000 0000
000000c0: 0000 803f 0000 0000 0000 803f 0000 0000
000000d0: 0000 803f 0000 0000 0000 803f 0000 0000
000000e0: 0000 803f 0000 0000 0000 803f 0000 0000
000000f0: 0000 803f 0000 0000 0000 803f 0000 0000
00000100: 0000 803f 0000 0000 0000 803f 0000 0000
00000110: 0000 803f 0000 0000 0000 803f 0000 0000
00000120: 0000 803f 0000 0000 0000 803f 0000 0000
00000130: 0000 803f 0000 0000 0000 803f 0000 0000
00000140: 0000 803f 0000 0000 0000 803f 0000 0000
00000150: 0000 803f 0000 0000 0000 803f 0000 0000
00000160: 0000 803f 0000 0000 0000 803f 0000 0000
00000170: 0000 803f 0000 0000 0000 803f 0000 0000
00000180: 0000 803f 0000 0000 0000 803f 0000 0000

weight f4 [50, 2]
0.20690192 -0.2575204 -0.12597907 0.43133464 -0.37277943 0.3063663 -0.5223417 -0.33767912
-0.52666074 -0.14670227 -0.37137395 -0.95040685 0.5140046 0.43613446 0.51022667 -0.13985161
0.19405358 0.6530655 -0.04506985 0.04992476 0.5049455 0.23543307 -0.63527536 0.67311114
-0.20399287 0.16119209 0.122018345 0.5582332 0.14733373 -0.015103102 0.6415653 0.18014161
0.65663254 -0.42402357 -0.35749525 -0.6767326 0.36763915 -0.32490554 -0.34284437 0.49440923
-0.29385203 0.23574512 0.00076635665 0.6330793 0.55232793 -0.5132447 0.68012947 0.023543894
-0.44459984 0.71276337 0.00023585383 -0.27542466 -0.25751936 0.682892 0.5320157 -0.34340045
-0.3025662 0.08549212 0.5776332 -0.32564032 0.41857982 0.2486384 -0.65795404 -0.25045142
0.16920936 0.32410496 -0.6302216 -0.3392032 -0.21263993 -0.114073336 0.425058 0.19427782
0.75713146 0.6191296 -0.52831155 0.26788363 -0.8014467 0.6794475 -0.04078317 -0.0039045531
0.42169005 -0.52823573 -0.17705925 0.5034773 0.17716125 -0.68470794 0.42196554 0.10898781
0.07159181 0.2849236 -0.4732233 0.39384916 -0.58644557 0.3913565 -0.5634274 0.05838695
0.26065874 -0.4471088 0.38880053 0.2838372
00000000: 19de 533e b7d9 83be a800 01be e5d7 dc3e
00000010: f2dc bebe 0bdc 9c3e 30b8 05bf 47e4 acbe
00000020: 3dd3 06bf 1f39 16be ba24 bebe dd4d 73bf
00000030: ce95 033f 044d df3e 379e 023f 4335 0fbe
00000040: fbb5 463e 4d2f 273f 2a9b 38bd e87d 4c3d
00000050: 1c44 013f 5e15 713e 68a1 22bf 0351 2c3f
00000060: 82e3 50be 8a0f 253e c1e4 f93d 5fe8 0e3f
00000070: a7de 163e 0073 77bc a03d 243f 0b77 383e
00000080: 1219 283f 9e19 d9be 9e09 b7be 593e 2dbf
00000090: 333b bc3e 055a a6be 4c89 afbe 3523 fd3e
000000a0: c673 96be 2b67 713e 53e5 483a 7c11 223f
000000b0: 5d65 0d3f 0164 03bf f71c 2e3f 20df c03c
000000c0: 97a2 e3be a977 363f 884f 7739 7604 8dbe
000000d0: 94d9 83be 03d2 2e3f 2e32 083f 2fd2 afbe
000000e0: f5e9 9abe 7e16 af3d c5df 133f 54ba a6be
000000f0: 1850 d63e 119b 7e3e ad6f 28bf 2b3b 80be
00000100: 3845 2d3e 16f1 a53e 3456 21bf 0bac adbe
00000110: 48be 59be 489f e9bd 34a1 d93e c4f0 463e
00000120: 5ed3 413f 477f 1e3f 6d3f 07bf 0b28 893e
00000130: 9c2b 4dbf 45f0 2d3f 410c 27bd 88e3 7fbb
00000140: c2e7 d73e 753a 07bf 054f 35be e3e3 003f
00000150: c269 353e 0549 2fbf de0b d83e 0035 df3d
00000160: ba9e 923d 82e1 913e 534a f2be 99a6 c93e
00000170: 4c21 16bf e15f c83e c73c 10bf 2827 6f3d
00000180: 1075 853e 72eb e4be dd10 c73e 1c53 913e

bias f4 [50]
-0.33951125 0.0057132207 -0.6019926 0.3095811 0.39429516 -0.36312017 0.17371352 0.267298
-0.35430086 -0.28565064 0.2744518 -0.4862659 0.11513166 -0.63351685 -0.557251 -0.20773965
-0.3103904 0.08188948 -0.60867566 -0.0862306 0.3530641 0.16659585 0.16389051 0.2937412
0.50031114 0.094735794 -0.36905733 -0.6526876 0.25965965 -0.4348136 -0.44206458 -0.57670313
-0.08424085 0.18919556 -0.1573068 -0.15800923 0.45994237 0.4245518 -0.73645335 0.55393565
0.46299213 0.57199454 0.7195795 0.6351855 0.09571475 -0.2944617 0.3541378 0.2540986
-0.5794716 0.010755021
00000000: 6bd4 adbe f835 bb3b 301c 1abf 6a81 9e3e
00000010: 0ee1 c93e e3ea b9be f5e1 313e 49db 883e
00000020: ec66 b5be cd40 92be f284 8c3e d8f7 f8be
00000030: 26ca eb3d 292e 22bf 00a8 0ebf b4b9 54be
00000040: 7eeb 9ebe acb5 a73d 2bd2 1bbf ab99 b0bd
00000050: d1c4 b43e 1a98 2a3e ead2 273e 3f65 963e
00000060: 6414 003f d704 c23d 15f5 bcbe 8916 27bf
00000070: 1cf2 843e e39f debe 4a56 e2be d1a2 13bf
00000080: 7786 acbd 7bbc 413e 0915 21be 2ccd 21be
00000090: 917d eb3e db5e d93e 3588 3cbf bace 0d3f
000000a0: 4e0d ed3e 3c6e 123f 5d36 383f 849b 223f
000000b0: 1806 c43d afc3 96be 8d51 b53e 3619 823e
000000c0: 4058 14bf d435 303c

weight f4 [50, 50]
-0.11785637 -0.0023790998 0.10471835 -0.10269733 0.067164965 0.03997354 -0.08350585 -0.11519416
-0.15084186 0.07706062 0.03633475 0.054222554 -0.007822125 -0.16546148 0.02107043 -0.14400727
0.008814197 0.05543975 -0.084359065 0.06731242 0.06984403 0.12205548 0.09761367 0.048535217
-0.07562685 -0.09422667 -0.082706645 0.07015668 0.10900147 0.07089512 -0.018917225 0.042398006
-0.009982119 -0.028245836 -0.033646043 -0.059057057 -0.010246542 0.061896723 0.08391955 0.09305783
-0.004215034 -0.12519139 0.09923453 -0.10216005 -0.047087017 0.049911678 0.06609596 -0.072341934
-0.064378746 -0.060666252 0.063752875 -0.16882151 -0.07153994 -0.029029194 -0.006590098 -0.0023736763
0.018539041 -0.063578114 0.02900124 0.021873504 -0.037408616 0.074797355 0.06260782 -0.06175484
0.06626825 -0.016828958 0.048129417 0.12960306 -0.09213426 0.07407922 0.0032880818 -0.057295788
0.013802953 -0.018625373 0.039636414 -0.09285682 0.06585859 0.12400253 -0.03299105 0.11469168
-0.04295136 0.15624684 0.021618465 0.13027367 -0.015462858 -0.030220494 -0.028814133 -0.14119773
-0.042654596 0.0073762205 0.025505839 -0.048568487 0.10516129 -0.023836233 0.0123701915 -0.048570115
-0.06836198 0.14056243 0.011457836 -0.106335506 -0.09750251 0.035440087 -0.026964001 0.13948393
0.041528087 0.06375149 0.035965674 0.073979326 -0.072687574 -0.116370305 0.023228867 0.039143182
-0.07009892 -0.05544859 0.03641512 -0.13442498 -0.13439946 0.05854504 -0.11122661 0.07068958
0.0031288757 -0.13065238 -0.04729164 -0.0039152773 -0.07235234 0.08779189 -0.049980424 0.019478956
0.11907408 0.11560042 0.022796249 -0.06936852 -0.036425088 0.15672363 0.17803621 0.06850432
-0.03773106 0.075393036 0.028304808 0.060126755 -0.08315779 -0.09705372 0.028858589 -0.09784371
0.063985474 -0.0022297394 0.038703017 0.18966089 0.03786712 0.038966134 -0.0020408633 0.024902979
0.11250785 -0.23618616 -0.21114811 0.0488958 0.011889523 0.17862631 0.060360536 -0.08977859
-0.11633973 -0.009102295 -0.10150714 -0.07453122 -0.037751205 0.009172634 0.13398564 -0.09202
-0.038524672 0.03336331 0.09617096 0.11802911 -0.066970035 -0.03659035 0.15702055 -0.078678004
-0.08863213 0.09070483 0.11420355 0.111657225 0.036338393 0.01859784 -0.11017642 -0.17293833
-0.052258663 0.10201038 0.090716675 -0.18742292 0.19340543 0.123207435 0.06425544 -0.015411388
-0.18078397 0.028600583 0.027336607 0.16586737 0.055386085 -0.12830973 -0.03208957 0.036210362
0.032836694 -0.012891152 -0.09732258 -0.029292952 0.12217266 0.10223489 0.013184375 0.14846697
0.11407777 -0.08977295 -0.11068827 0.028053306 0.04962903 0.03718818 -0.06730975 0.047837853
0.1252893 -0.15946965 0.019326154 0.122746035 -0.07996391 0.025546085 0.08638565 0.040079992
-0.0341283 0.008634439 0.10421443 -0.08039471 0.013499086 0.11776937 -0.025320228 -0.12561345
-0.08996082 -0.09030368 -0.00742459 -0.1306381 -0.16296178 -0.12264118 -0.12303098 0.09084452
-0.00023547767 0.08029774 0.12080432 0.0153154 -0.076220825 0.12310179 0.030639963 0.10132928
0.0054223817 0.0024609026 0.10706576 -0.114044756 0.14473832 0.12605116 0.020956827 0.08749469
00000000: ae5e f1bd acea 1bbb 9376 d63d fa52 d2bd
00000010: c98d 893d 4bbb 233d 1d05 abbd eaea ebbd
00000020: 4a76 1abe f5d1 9d3d bfd3 143d 7818 5e3d
00000030: 5f28 00bc bc6e 29be e59b ac3c a476 13be
00000040: 6c69 103c cb14 633d 72c4 acbd 18db 893d
00000050: 630a 8f3d 39f8 f93d ade9 c73d ddcc 463d
00000060: 40e2 9abd eaf9 c0bd 1a62 a9bd 4eae 8f3d
00000070: 2a3c df3d 7631 913d 4cf8 9abc 88a9 2d3d
00000080: 0b8c 23bc d063 e7bc 6fd0 09bd d0e5 71bd
00000090: 1de1 27bc 6b87 7d3d 03de ab3d 1b95 be3d
000000a0: 451e 8abb 2c32 00be 793b cb3d 4a39 d1bd
000000b0: 51de 40bd 3070 4c3d 525d 873d 0228 94bd
000000c0: 01d9 83bd 2d7d 78bd de90 823d 8cdf 2cbe
000000d0: 8883 92bd a2ce edbc c0f1 d7bb ae8f 1bbb
000000e0: 30df 973c 3e35 82bd 0294 ed3c 1030 b33c
000000f0: c739 19bd 5b2f 993d 8738 803d a5f2 7cbd
00000100: a6b7 873d e2dc 89bc 5a23 453d aab6 043e
00000110: e3b0 bcbd d9b6 973d dc7c 573b fdae 6abd
00000120: c825 623c 3d94 98bc cb59 223d b72b bebd
00000130: dee0 863d 0af5 fd3d a021 07bd 79e3 ea3d
00000140: c4ed 2fbd 2cff 1f3e 3519 b13c 7666 053e
00000150: ed57 7dbc f890 f7bc 9e0b ecbc 2396 10be
00000160: 96b6 2ebd 39b4 f13b 9ff1 d03c c0ef 46bd
00000170: cd5e d73d 3444 c3bc 58ac 4a3c 75f1 46bd
00000180: 5e01 8cbd 99ef 0f3e a6b9 3b3c 6ec6 d9bd
00000190: 65af c7bd a029 113d 9ce3 dcbc e0d4 0e3e
000001a0: 5b19 2a3d 2490 823d be50 133d 7982 973d
000001b0: 39dd 94bd 8e53 eebd 774a be3c 9a54 203d
000001c0: 0690 8fbd 101e 63bd 0528 153d b4a6 09be
000001d0: 03a0 09be edcc 6f3d c7ca e3bd b3c5 903d
000001e0: d30d 4d3b bdc9 05be e1b4 41bd ba4b 80bb
000001f0: 772d 94bd 3ccc b33d 46b8 4cbd 5592 9f3c
00000200: 1cdd f33d eabf ec3d 33bf ba3c 1511 8ebd
00000210: 7932 15bd 297c 203e 204f 363e fe4b 8c3d
00000220: e28b 1abd aa67 9a3d 7cdf e73c 7947 763d
00000230: a24e aabd 1ac4 c6bd d968 ec3c 4862 c8bd
00000240: d10a 833d d220 12bb 0e87 1e3d 7736 423e
00000250: 8e1a 1b3d f49a 1f3d 01c0 05bb 5501 cc3c
00000260: 846a e63d c9da 71be 3637 58be f646 483d
00000270: 46cc 423c d1e9 363e 9c3c 773d d6dd b7bd
00000280: 8643 eebd cb21 15bc fae2 cfbd d3a3 98bd
00000290: 02a1 1abd d148 163c 8833 093e fb74 bcbd
000002a0: 0ccc 1dbd f7a7 083d 48f5 c43d 3fb9 f13d
000002b0: 9627 89bd c3df 15bd ffc9 203e ef21 a1bd
000002c0: c384 b5bd 74c3 b93d 8de3 e93d 8bac e43d
000002d0: 91d7 143d 7f5a 983c 2da4 e1bd bf16 31be
000002e0: 2e0d 56bd d1ea d03d aac9 b93d cbeb 3fbe
000002f0: 130c 463e 2e54 fc3d 5b98 833d 0c80 7cbc
00000300: 6f1f 39be c54b ea3c 05f1 df3c 23d9 293e
00000310: 85dc 623d a063 03be 5a70 03bd 5151 143d
00000320: c57f 063d 6935 53bc 1051 c7bd c6f7 efbc
00000330: a935 fa3d 8760 d13d 4703 583c ba07 183e
00000340: 9ba1 e93d e1da b7bd 88b0 e2bd 0cd0 e53c
00000350: cf47 4b3d a252 183d b2d9 89bd a0f1 433d
00000360: d74b 003e 034c 23be e251 9e3c 4662 fb3d
00000370: 1ec4 a3bd 0646 d13c f6ea b03d eb2a 243d
00000380: 1eca 0bbd 7677 0d3c 606e d53d fba5 a4bd
00000390: 452b 5d3c 1131 f13d 5e6c cfbc d0a0 00be
000003a0: 613d b8bd 23f1 b8bd fa49 f3bb fec5 05be
000003b0: 74df 26be 4d2b fbbd abf7 fbbd b10c ba3d
000003c0: 8eea 76b9 2473 a43d 4168 f73d 72ed 7a3c
000003d0: aa19 9cbd cb1c fc3d a900 fb3c ba85 cf3d
000003e0: 3cae b13b 1847 213b 4b45 db3d 4c90 e9bd
000003f0: 4836 143e 8e13 013e a7ad ab3c 6b30 b33d

bias f4 [50]
0.08525886 0.054570545 0.0040016593 -0.1016705 -0.06992723 0.11668026 -0.055896096 -0.09803309
0.10762767 -0.14069632 -0.14982152 0.06946435 0.12350242 0.04753546 0.041252736 -0.06791089
0.03679644 0.09601185 0.08470847 -0.010464735 0.008248341 0.041481957 0.10060765 -0.03427296
0.0887671 0.094450995 -0.07568778 -0.12062056 -0.059882715 0.06695662 -0.07068077 0.03809929
-0.09606634 0.058396928 -0.0026144157 -0.13226558 -0.111478895 0.09317909 0.04923627 0.1012581
0.03308864 -0.111773595 0.038747374 0.048051234 -0.0027399543 0.021948362 0.10038317 -0.12810384
0.06335627 -0.048845474
00000000: 329c ae3d 5d85 5f3d 5a20 833b a038 d0bd
00000010: 0236 8fbd 0ff6 ee3d 4ef3 64bd 93c5 c8bd
00000020: e56b dc3d b212 10be d06a 19be 5343 8e3d
00000030: d6ee fc3d 8bb4 423d a1f8 283d dd14 8bbd
00000040: ddb7 163d dca1 c43d a27b ad3d 4874 2bbc
00000050: 0d24 073c fce8 293d 620b ce3d ce61 0cbd
00000060: 86cb b53d 866f c13d 3202 9bbd ea07 f7bd
00000070: 9447 75bd 8d20 893d 14c1 90bd 000e 1c3d
00000080: 6ebe c4bd 9e31 6f3d 9e56 2bbb a170 07be
00000090: 0c4f e4bd aed4 be3d f9ab 493d 6860 cf3d
000000a0: f487 073d 8ee9 e4bd 91b5 1e3d 5fd1 443d
000000b0: ce90 33bb 0dcd b33c b195 cd3d a72d 03be
000000c0: efc0 813d 3112 48bd

mask f4 [50, 50]
1.0 1.0 1.0 1.0 1.0 1.0 1.0 1.0
1.0 1.0 1.0 1.0 1.0 1.0 1.0 1.0
1.0 1.0 1.0 1.0 1.0 1.0 1.0 1.0
1.0 1.0 1.0 1.0 1.0 1.0 1.0 1.0
1.0 1.0 1.0 1.0 1.0 1.0 1.0 1.0
1.0 1.0 1.0 1.0 1.0 1.0 1.0 1.0
1.0 1.0 1.0 1.0 1.0 1.0 1.0 1.0
1.0 1.0 1.0 1.0 1.0 1.0 1.0 1.0
1.0 1.0 1.0 1.0 1.0 1.0 1.0 1.0
1.0 1.0 1.0 1.0 1.0 1.0 1.0 1.0
1.0 1.0 1.0 1.0 1.0 1.0 1.0 1.0
1.0 1.0 1.0 1.0 1.0 1.0 1.0 1.0
1.0 1.0 1.0 1.0 1.0 1.0 1.0 1.0
1.0 1.0 1.0 1.0 1.0 1.0 1.0 1.0
1.0 1.0 1.0 1.0 1.0 1.0 1.0 1.0
1.0 1.0 1.0 1.0 1.0 1.0 1.0 1.0
1.0 1.0 1.0 1.0 1.0 1.0 1.0 1.0
1.0 1.0 1.0 1.0 1.0 1.0 1.0 1.0
1.0 1.0 1.0 1.0 1.0 1.0 1.0 1.0
1.0 1.0 1.0 1.0 1.0 1.0 1.0 1.0
1.0 1.0 1.0 1.0 1.0 1.0 1.0 1.0
1.0 1.0 1.0 1.0 1.0 1.0 1.0 1.0
1.0 1.0 1.0 1.0 1.0 1.0 1.0 1.0
1.0 1.0 1.0 1.0 1.0 1.0 1.0 1.0
1.0 1.0 1.0 1.0 1.0 1.0 1.0 1.0
1.0 1.0 1.0 1.0 1.0 1.0 1.0 1.0
1.0 1.0 1.0 1.0 1.0 1.0 1.0 1.0
1.0 1.0 1.0 1.0 1.0 1.0 1.0 1.0
1.0 1.0 1.0 1.0 1.0 1.0 1.0 1.0
1.0 1.0 1.0 1.0 1.0 1.0 1.0 1.0
1.0 1.0 1.0 1.0 1.0 1.0 1.0 1.0
1.0 1.0 1.0 1.0 1.0 1.0 1.0 1.0
00000000: 0000 803f 0000 803f 0000 803f 0000 803f
00000010: 0000 803f 0000 803f 0000 803f 0000 803f
00000020: 0000 803f 0000 803f 0000 803f 0000 803f
00000030: 0000 803f 0000 803f 0000 803f 0000 803f
00000040: 0000 803f 0000 803f 0000 803f 0000 803f
00000050: 0000 803f 0000 803f 0000 803f 0000 803f
00000060: 0000 803f 0000 803f 0000 803f 0000 803f
00000070: 0000 803f 0000 803f 0000 803f 0000 803f
00000080: 0000 803f 0000 803f 0000 803f 0000 803f
00000090: 0000 803f 0000 803f 0000 803f 0000 803f
000000a0: 0000 803f 0000 803f 0000 803f 0000 803f
000000b0: 0000 803f 0000 803f 0000 803f 0000 803f
000000c0: 0000 803f 0000 803f 0000 803f 0000 803f
000000d0: 0000 803f 0000 803f 0000 803f 0000 803f
000000e0: 0000 803f 0000 803f 0000 803f 0000 803f
000000f0: 0000 803f 0000 803f 0000 803f 0000 803f
00000100: 0000 803f 0000 803f 0000 803f 0000 803f
00000110: 0000 803f 0000 803f 0000 803f 0000 803f
00000120: 0000 803f 0000 803f 0000 803f 0000 803f
00000130: 0000 803f 0000 803f 0000 803f 0000 803f
00000140: 0000 803f 0000 803f 0000 803f 0000 803f
00000150: 0000 803f 0000 803f 0000 803f 0000 803f
00000160: 0000 803f 0000 803f 0000 803f 0000 803f
00000170: 0000 803f 0000 803f 0000 803f 0000 803f
00000180: 0000 803f 0000 803f 0000 803f 0000 803f
00000190: 0000 803f 0000 803f 0000 803f 0000 803f
000001a0: 0000 803f 0000 803f 0000 803f 0000 803f
000001b0: 0000 803f 0000 803f 0000 803f 0000 803f
000001c0: 0000 803f 0000 803f 0000 803f 0000 803f
000001d0: 0000 803f 0000 803f 0000 803f 0000 803f
000001e0: 0000 803f 0000 803f 0000 803f 0000 803f
000001f0: 0000 803f 0000 803f 0000 803f 0000 803f
00000200: 0000 803f 0000 803f 0000 803f 0000 803f
00000210: 0000 803f 0000 803f 0000 803f 0000 803f
00000220: 0000 803f 0000 803f 0000 803f 0000 803f
00000230: 0000 803f 0000 803f 0000 803f 0000 803f
00000240: 0000 803f 0000 803f 0000 803f 0000 803f
00000250: 0000 803f 0000 803f 0000 803f 0000 803f
00000260: 0000 803f 0000 803f 0000 803f 0000 803f
00000270: 0000 803f 0000 803f 0000 803f 0000 803f
00000280: 0000 803f 0000 803f 0000 803f 0000 803f
00000290: 0000 803f 0000 803f 0000 803f 0000 803f
000002a0: 0000 803f 0000 803f 0000 803f 0000 803f
000002b0: 0000 803f 0000 803f 0000 803f 0000 803f
000002c0: 0000 803f 0000 803f 0000 803f 0000 803f
000002d0: 0000 803f 0000 803f 0000 803f 0000 803f
000002e0: 0000 803f 0000 803f 0000 803f 0000 803f
000002f0: 0000 803f 0000 803f 0000 803f 0000 803f
00000300: 0000 803f 0000 803f 0000 803f 0000 803f
00000310: 0000 803f 0000 803f 0000 803f 0000 803f
00000320: 0000 803f 0000 803f 0000 803f 0000 803f
00000330: 0000 803f 0000 803f 0000 803f 0000 803f
00000340: 0000 803f 0000 803f 0000 803f 0000 803f
00000350: 0000 803f 0000 803f 0000 803f 0000 803f
00000360: 0000 803f 0000 803f 0000 803f 0000 803f
00000370: 0000 803f 0000 803f 0000 803f 0000 803f
00000380: 0000 803f 0000 803f 0000 803f 0000 803f
00000390: 0000 803f 0000 803f 0000 803f 0000 803f
000003a0: 0000 803f 0000 803f 0000 803f 0000 803f
000003b0: 0000 803f 0000 803f 0000 803f 0000 803f
000003c0: 0000 803f 0000 803f 0000 803f 0000 803f
000003d0: 0000 803f 0000 803f 0000 803f 0000 803f
000003e0: 0000 803f 0000 803f 0000 803f 0000 803f
000003f0: 0000 803f 0000 803f 0000 803f 0000 803f

weight f4 [50, 50]
-0.11955887 -0.041104887 0.11969984 -0.027245242 0.10713892 0.112014376 -0.11802951 0.18236338
0.034250192 -0.05455984 -0.059692897 0.023464952 0.035887692 0.08256794 0.12576799 -0.1076741
0.11742501 0.012660309 0.101777874 -0.035606075 0.08599815 0.028899908 -0.070481084 0.11987599
-0.006905326 -0.071366996 0.059360012 0.13334978 -0.09585385 0.13725223 0.026370388 -0.016423514
-0.037191495 0.07712041 -0.052256506 -0.0017001121 -0.05826238 -0.14372304 0.0022614943 0.083404385
0.097715594 0.08458982 -0.06719412 -0.14078338 -0.09683107 -0.15753962 -0.024364 -0.080689855
0.043969706 -0.037411675 -0.015927052 0.025181519 -0.0057999417 0.11353742 0.107936375 -0.04194505
-0.051780265 0.05843763 0.11437948 -0.03736846 0.15375754 0.022595938 -0.084432855 -0.099547505
-0.011434999 -0.073210716 0.12580612 -0.00041688993 -0.115388826 -0.1509908 -0.009784957 -0.11147026
-0.10967402 -0.009929583 -0.11067715 -0.03162566 -0.10670541 0.088547185 -0.13613553 -0.10851311
-0.25642693 -0.15172103 0.078155346 0.015745362 0.007941202 0.053496383 0.16884865 -0.059121363
0.113477774 -0.12170485 -0.10798488 -0.02951061 0.071629286 -0.049907517 -0.024410307 -0.110417254
0.10113454 0.1415795 -0.13926703 0.13822663 -0.059701417 0.06796037 -0.027556902 -0.018258335
0.09283348 -0.15042108 -0.020535056 -0.03740032 -0.1477796 0.03040801 0.03179194 0.031638745
-0.1056915 -0.08772344 -0.12854454 0.025991194 -0.12999333 -0.004839552 -0.028652288 0.11597257
-0.10736409 0.07609676 0.014537068 0.15863216 0.0021115348 0.08619442 -0.0010236248 0.03625832
-0.13370073 -0.08621058 -0.060582876 -0.11186938 0.0068280743 0.0009850636 -0.124638185 -0.09566878
-0.20727904 0.063053176 0.005140085 0.018432438 0.16262601 -0.08192335 0.070166886 -0.021868495
-0.09904864 0.11755429 -0.18253203 -0.05093225 -0.006831478 0.059778117 0.02308079 0.03717497
-0.06447673 -0.15426451 0.11380142 0.077203944 -0.13812372 -0.1960403 -0.11244149 0.16884497
-0.025123619 -0.054495376 0.068689294 -0.07330478 -0.047260214 0.102080226 0.026362084 -0.13546608
0.031360228 0.120169476 -0.03805345 -0.107197925 0.10923352 -0.14233783 0.061918344 0.05139976
-0.09179087 0.017689826 -0.035980012 0.064015016 0.30073854 0.06966791 -0.094031096 0.037600644
-0.022533514 -0.08739201 0.09033491 0.100129575 -0.06427589 -0.07684998 -0.020615375 -0.031587247
0.07001621 -0.045970023 -0.036394313 0.042610906 -0.025925731 0.1381461 -0.1145312 0.010782403
0.031221947 0.054842394 0.054068778 0.035113852 -0.03452354 -0.08456579 0.18254355 0.20287375
-0.11432648 -0.045055836 0.037098397 -0.02036501 0.032996103 -0.14839745 -0.13531472 0.14830771
0.007046015 0.07317324 -0.058227237 0.05425981 0.08782756 -0.109680854 -0.075887606 -0.11119126
-0.13699453 -0.15611812 0.060292695 0.064421535 -0.08607157 0.15145181 -0.25910956 -0.023361037
-0.06979979 0.15006752 -0.07087361 0.012727981 0.052766476 -0.120344535 -0.07120779 0.10311864
0.044589426 0.14797191 0.09798307 0.14301574 0.066045634 0.04297532 -0.032439765 0.11230531
0.11657332 0.058859248 -0.051482372 0.13821207 0.103808135 -0.0051672217 -0.012952281 0.1654605
00000000: 48db f4bd 995d 28bd 3125 f53d 6a31 dfbc
00000010: a66b db3d cb67 e53d 75b9 f1bd 77bd 3a3e
00000020: ee49 0c3d 247a 5fbd 8a80 74bd 9239 c03c
00000030: f9fe 123d 6119 a93d 53c9 003e 3d84 dcbd
00000040: 867c f03d 2f6d 4f3c eb70 d03d add7 11bd
00000050: cc1f b03d 80bf ec3c 6358 90bd 8b81 f53d
00000060: 1346 e2bb dc28 92bd 7c23 733d d88c 083e
00000070: 064f c4bd d98b 0c3e b606 d83c 9b8a 86bc
00000080: 1c56 18bd 4ef1 9d3d eb0a 56bd 4cd6 deba
00000090: 89a4 6ebd 222c 13be 9435 143b ebcf aa3d
000000a0: 1d1f c83d 6d3d ad3d 129d 89bd 8529 10be
000000b0: 5e4f c6bd 1152 21be 0397 c7bc b940 a5bd
000000c0: 9419 343d fc3c 19bd 7379 82bc 7949 ce3c
000000d0: 700d bebb 4f86 e83d bf0d dd3d 93ce 2bbd
000000e0: 8b17 54bd 4c5c 6f3d ca3f ea3d ac0f 19bd
000000f0: 9e72 1d3e 1e1b b93c 22eb acbd 90df cbbd
00000100: dd59 3bbc 80ef 95bd 52d3 003e 0592 dab9
00000110: fa50 ecbd 559d 1abe 1651 20bc 854a e4bd
00000120: c69c e0bd b1af 22bc b4aa e2bd e889 01bd
00000130: 5e88 dabd 3a58 b53d 1d67 0bbe 1f3c debd
00000140: 644a 83be c25c 1bbe e90f a03d 6bfc 803c
00000150: d11b 023c 061f 5b3d a9e6 2c3e 3e29 72bd
00000160: 0967 e83d 6440 f9bd 2d27 ddbd 3cc0 f1bc
00000170: 60b2 923d d36b 4cbd 20f8 c7bc 7122 e2bd
00000180: a01f cf3d 37fa 103e 049c 0ebe 488b 0d3e
00000190: 7989 74bd ce2e 8b3d 03bf e1bc 8192 95bc
000001a0: 7b1f be3d fc07 1abe 2239 a8bc 1431 19bd
000001b0: 8953 17be 381a f93c 4438 023d a197 013d
000001c0: c974 d8bd 59a8 b3bd 2ea1 03be 7ceb d43c
000001d0: f91c 05be 1b95 9ebb 34b8 eabc 0783 ed3d
000001e0: b4e1 dbbd 9ed8 9b3d e22c 6e3c 7870 223e
000001f0: ad61 0a3b b386 b03d 262b 86ba 9b83 143d
00000200: d8e8 08be 2c8f b0bd c025 78bd c61b e5bd
00000210: 0abe df3b 401d 813a 4e42 ffbd feed c3bd
00000220: f540 54be 0622 813d 286e a83b a0ff 963c
00000230: 6f87 263e 6ec7 a7bd a8b3 8f3d 8f25 b3bc
00000240: 03da cabd 4ec0 f03d ade9 3abe 569e 50bd
00000250: 97da dfbb e6d9 743d ed13 bd3c c844 183d
00000260: 600c 84bd 84f7 1dbe b810 e93d 1a1d 9e3d
00000270: 4e70 0dbe cabe 48be b947 e6bd b2e5 2c3e
00000280: 0cd0 cdbc 8b36 5fbd f9ac 8c3d d120 96bd
00000290: ed93 41bd 700f d13d 4cf5 d73c 9fb7 0abe
000002a0: 9573 003d 6a1b f63d efdd 1bbd 968a dbbd
000002b0: d3b5 df3d 02c1 11be 179e 7d3d 8e88 523d
000002c0: dafc bbbd 41ea 903c c75f 13bd 4e1a 833d
000002d0: 67fa 993e 0dae 8e3d 6093 c0bd 2203 1a3d
000002e0: 3498 b8bc 95fa b2bd 8201 b93d bc10 cd3d
000002f0: 14a3 83bd 8663 9dbd 93e1 a8bc a161 01bd
00000300: a964 8f3d 104b 3cbd 3412 15bd c688 2e3d
00000310: 3362 d4bc 2c76 0d3e 558f eabd ada8 303c
00000320: 2bc5 ff3c 6ba2 603d 3977 5d3d 8bd3 0f3d
00000330: 8e68 0dbd d430 adbd b2ec 3a3e 23be 4f3e
00000340: 0024 eabd 788c 38bd 7df4 173d 85d4 a6bc
00000350: ec26 073d 80f5 17be f18f 0abe fadd 173e
00000360: 42e2 e63b dadb 953d af7f 6ebd 893f 5e3d
00000370: f0de b33d 5ba0 e0bd f66a 9bbd 3eb8 e3bd
00000380: 4b48 0cbe 6edd 1fbe 79f5 763d 70ef 833d
00000390: 4b46 b0bd 2f16 1b3e 02aa 84be a55f bfbc
000003a0: 31f3 8ebd 4dab 193e 2f26 91bd 0689 503c
000003b0: a921 583d 3277 f6bd 64d5 91bd de2f d33d
000003c0: 67a3 363d f385 173e 59ab c83d b872 123e
000003d0: ef42 873d e406 303d 8fdf 04bd 5400 e63d
000003e0: febd ee3d 6516 713d 2edf 52bd 7787 0d3e
000003f0: 5c99 d43d cc51 a9bb ce35 54bc 7a6e 293e

bias f4 [50]
-0.031224566 0.07441515 -0.032928247 -0.11120524 -0.14460199 0.10152629 0.11303119 -0.10154981
0.0768588 -0.0044021127 -0.016641255 0.12465662 -0.083932914 0.051635977 0.04893062 -0.02337822
0.040482916 0.045386232 0.016104674 -0.012941444 -0.06526469 -0.089276195 -0.11835841 0.09114051
0.06558692 0.060933564 -0.103517324 0.030265316 0.11026198 0.050430294 -0.022094626 -0.11938116
-0.0844191 -0.10229772 0.12473114 -0.09134073 -0.031405333 -0.032852527 0.11187569 0.12588137
-0.0033414457 0.14270264 -0.043200023 0.031964876 -0.10271681 0.08070382 -0.023501119 0.07683602
-0.08448907 -0.056941215
00000000: a9ca ffbc f866 983d c5df 06bd 93bf e3bd
00000010: 8b12 14be 04ed cf3d e67c e73d 59f9 cfbd
00000020: 2668 9d3d 993f 90bb 3e53 88bc f84b ff3d
00000030: 05e5 abbd 3f80 533d 796b 483d ae83 bfbc
00000040: 6ad1 253d eae6 393d f3ed 833c 5a08 54bc
00000050: 7ea9 85bd 70d6 b6bd e565 f2bd e0a7 ba3d
00000060: 6f52 863d 7995 793d e400 d4bd f8ee f73c
00000070: 08d1 e13d ff8f 4e3d caff b4bc 1c7e f4bd
00000080: ece3 acbd 7881 d1bd 0a73 ff3d d910 bbbd
00000090: e1a2 00bd 5f90 06bd 151f e53d 0ce7 003e
000000a0: 28fc 5abb a420 123e 82f2 30bd 9aed 023d
000000b0: 315d d2bd 0b48 a53d 6b85 c0bc 345c 9d3d
000000c0: 9b08 adbd 313b 69bd

mask f4 [50, 50]
1.0 1.0 1.0 1.0 1.0 1.0 1.0 1.0
1.0 1.0 1.0 1.0 1.0 1.0 1.0 1.0
1.0 1.0 1.0 1.0 1.0 1.0 1.0 1.0
1.0 1.0 1.0 1.0 1.0 1.0 1.0 1.0
1.0 1.0 1.0 1.0 1.0 1.0 1.0 1.0
1.0 1.0 1.0 1.0 1.0 1.0 1.0 1.0
1.0 1.0 1.0 1.0 1.0 1.0 1.0 1.0
1.0 1.0 1.0 1.0 1.0 1.0 1.0 1.0
1.0 1.0 1.0 1.0 1.0 1.0 1.0 1.0
1.0 1.0 1.0 1.0 1.0 1.0 1.0 1.0
1.0 1.0 1.0 1.0 1.0 1.0 1.0 1.0
1.0 1.0 1.0 1.0 1.0 1.0 1.0 1.0
1.0 1.0 1.0 1.0 1.0 1.0 1.0 1.0
1.0 1.0 1.0 1.0 1.0 1.0 1.0 1.0
1.0 1.0 1.0 1.0 1.0 1.0 1.0 1.0
1.0 1.0 1.0 1.0 1.0 1.0 1.0 1.0
1.0 1.0 1.0 1.0 1.0 1.0 1.0 1.0
1.0 1.0 1.0 1.0 1.0 1.0 1.0 1.0
1.0 1.0 1.0 1.0 1.0 1.0 1.0 1.0
1.0 1.0 1.0 1.0 1.0 1.0 1.0 1.0
1.0 1.0 1.0 1.0 1.0 1.0 1.0 1.0
1.0 1.0 1.0 1.0 1.0 1.0 1.0 1.0
1.0 1.0 1.0 1.0 1.0 1.0 1.0 1.0
1.0 1.0 1.0 1.0 1.0 1.0 1.0 1.0
1.0 1.0 1.0 1.0 1.0 1.0 1.0 1.0
1.0 1.0 1.0 1.0 1.0 1.0 1.0 1.0
1.0 1.0 1.0 1.0 1.0 1.0 1.0 1.0
1.0 1.0 1.0 1.0 1.0 1.0 1.0 1.0
1.0 1.0 1.0 1.0 1.0 1.0 1.0 1.0
1.0 1.0 1.0 1.0 1.0 1.0 1.0 1.0
1.0 1.0 1.0 1.0 1.0 1.0 1.0 1.0
1.0 1.0 1.0 1.0 1.0 1.0 1.0 1.0
00000000: 0000 803f 0000 803f 0000 803f 0000 803f
00000010: 0000 803f 0000 803f 0000 803f 0000 803f
00000020: 0000 803f 0000 803f 0000 803f 0000 803f
00000030: 0000 803f 0000 803f 0000 803f 0000 803f
00000040: 0000 803f 0000 803f 0000 803f 0000 803f
00000050: 0000 803f 0000 803f 0000 803f 0000 803f
00000060: 0000 803f 0000 803f 0000 803f 0000 803f
00000070: 0000 803f 0000 803f 0000 803f 0000 803f
00000080: 0000 803f 0000 803f 0000 803f 0000 803f
00000090: 0000 803f 0000 803f 0000 803f 0000 803f
000000a0: 0000 803f 0000 803f 0000 803f 0000 803f
000000b0: 0000 803f 0000 803f 0000 803f 0000 803f
000000c0: 0000 803f 0000 803f 0000 803f 0000 803f
000000d0: 0000 803f 0000 803f 0000 803f 0000 803f
000000e0: 0000 803f 0000 803f 0000 803f 0000 803f
000000f0: 0000 803f 0000 803f 0000 803f 0000 803f
00000100: 0000 803f 0000 803f 0000 803f 0000 803f
00000110: 0000 803f 0000 803f 0000 803f 0000 803f
00000120: 0000 803f 0000 803f 0000 803f 0000 803f
00000130: 0000 803f 0000 803f 0000 803f 0000 803f
00000140: 0000 803f 0000 803f 0000 803f 0000 803f
00000150: 0000 803f 0000 803f 0000 803f 0000 803f
00000160: 0000 803f 0000 803f 0000 803f 0000 803f
00000170: 0000 803f 0000 803f 0000 803f 0000 803f
00000180: 0000 803f 0000 803f 0000 803f 0000 803f
00000190: 0000 803f 0000 803f 0000 803f 0000 803f
000001a0: 0000 803f 0000 803f 0000 803f 0000 803f
000001b0: 0000 803f 0000 803f 0000 803f 0000 803f
000001c0: 0000 803f 0000 803f 0000 803f 0000 803f
000001d0: 0000 803f 0000 803f 0000 803f 0000 803f
000001e0: 0000 803f 0000 803f 0000 803f 0000 803f
000001f0: 0000 803f 0000 803f 0000 803f 0000 803f
00000200: 0000 803f 0000 803f 0000 803f 0000 803f
00000210: 0000 803f 0000 803f 0000 803f 0000 803f
00000220: 0000 803f 0000 803f 0000 803f 0000 803f
00000230: 0000 803f 0000 803f 0000 803f 0000 803f
00000240: 0000 803f 0000 803f 0000 803f 0000 803f
00000250: 0000 803f 0000 803f 0000 803f 0000 803f
00000260: 0000 803f 0000 803f 0000 803f 0000 803f
00000270: 0000 803f 0000 803f 0000 803f 0000 803f
00000280: 0000 803f 0000 803f 0000 803f 0000 803f
00000290: 0000 803f 0000 803f 0000 803f 0000 803f
000002a0: 0000 803f 0000 803f 0000 803f 0000 803f
000002b0: 0000 803f 0000 803f 0000 803f 0000 803f
000002c0: 0000 803f 0000 803f 0000 803f 0000 803f
000002d0: 0000 803f 0000 803f 0000 803f 0000 803f
000002e0: 0000 803f 0000 803f 0000 803f 0000 803f
000002f0: 0000 803f 0000 803f 0000 803f 0000 803f
00000300: 0000 803f 0000 803f 0000 803f 0000 803f
00000310: 0000 803f 0000 803f 0000 803f 0000 803f
00000320: 0000 803f 0000 803f 0000 803f 0000 803f
00000330: 0000 803f 0000 803f 0000 803f 0000 803f
00000340: 0000 803f 0000 803f 0000 803f 0000 803f
00000350: 0000 803f 0000 803f 0000 803f 0000 803f
00000360: 0000 803f 0000 803f 0000 803f 0000 803f
00000370: 0000 803f 0000 803f 0000 803f 0000 803f
00000380: 0000 803f 0000 803f 0000 803f 0000 803f
00000390: 0000 803f 0000 803f 0000 803f 0000 803f
000003a0: 0000 803f 0000 803f 0000 803f 0000 803f
000003b0: 0000 803f 0000 803f 0000 803f 0000 803f
000003c0: 0000 803f 0000 803f 0000 803f 0000 803f
000003d0: 0000 803f 0000 803f 0000 803f 0000 803f
000003e0: 0000 803f 0000 803f 0000 803f 0000 803f
000003f0: 0000 803f 0000 803f 0000 803f 0000 803f

weight f4 [4, 50]
-0.08106445 -0.11567737 -0.03959091 -0.11450414 -0.06925498 -0.05117739 0.01647681 -0.06671339
-0.013219863 0.053802103 -0.08658656 -0.053614922 0.12637715 0.14068206 0.06498428 -0.052472927
0.09455624 -0.08834005 0.047710508 -0.09005914 0.122437015 -0.10885039 0.07179883 -0.0611689
-0.012951687 0.060094297 -0.0035485178 0.059395134 -0.13189827 0.060958654 -0.10603541 0.03076914
0.12767066 0.12139566 0.08993778 -0.017532907 -0.042665407 0.0721862 0.09921038 -0.101701215
0.045968503 0.068043336 0.012719646 -0.061383247 -0.0136515945 -0.1358429 -0.12697692 0.007597506
0.025983691 -0.04661064 0.041621596 -0.019205295 -0.08622281 0.092299804 -0.07112803 0.081809655
-0.097056255 0.08372451 0.12601136 0.040729806 0.011381358 0.0973921 -0.08607036 -0.00028668344
-0.05137986 0.09133439 0.024576247 -0.08611482 -0.108395964 0.02252458 -0.12954402 -0.10187207
-0.07437322 0.01639238 0.022585824 0.053922296 0.043308303 -0.009985745 0.11000554 -0.06841964
-0.020175561 -0.12224016 -0.09675835 0.05606498 0.118444845 -0.021669365 0.10862993 0.032793716
-0.11210981 -0.04330513 -0.109845534 -0.059858218 0.08658031 0.12229894 -0.13940907 -0.1329836
0.10098462 0.0044745356 0.10788031 0.00010353327 0.050675407 -0.031281818 0.11164978 -0.04551795
-0.047579695 -0.095687985 0.10490067 -0.106404215 -0.012596555 -0.10370207 0.0034015256 0.06852722
0.061531074 0.11244523 -0.074248865 0.07310905 -0.09340395 -0.10605025 -0.06505215 0.022245869
0.08132991 0.0055400985 0.12050788 0.054422326 0.09176322 0.013591279 0.0908792 0.026155869
-0.09275583 0.027350226 0.0035417124 0.13190591 0.090201326 -0.12151283 0.019200664 -0.0023703845
0.010786961 -0.06995278 -0.003968439 0.14378518 -0.16339913 0.12683241 0.04394372 -0.013365485
-0.040054154 0.112914845 0.018667122 0.091184236 0.09016427 -0.1447748 0.04807393 0.15844978
-0.059053298 -0.08161166 0.04709169 0.086629726 -0.1282893 0.10401896 0.019890781 0.06527524
0.07894702 -0.105927706 -0.062153082 0.020736389 -0.107079074 0.057829853 0.042029824 0.11887559
0.081604935 -0.058413614 -0.06553291 -0.30289233 -0.03875257 -0.16928166 0.086767405 -0.06330145
-0.14221169 0.14120871 -0.07002998 0.10868062 0.18079424 0.18772067 -0.14405385 0.06554366
-0.08117884 -0.04827061 0.059750654 -0.20810664 -0.06375207 0.1075461 0.21464664 -0.046152648
-0.076165624 0.104404725 -0.06311775 0.014506629 -0.14173861 0.071627796 -0.02870985 0.06531499
00000000: 1e05 a6bd 42e8 ecbd 142a 22bd 2681 eabd
00000010: 8ed5 8dbd 629f 51bd 60fa 863c 08a1 88bd
00000020: 2098 58bc 985f 5c3d 4b54 b1bd 529b 5bbd
00000030: 0369 013e f50e 103e 7a16 853d daed 56bd
00000040: b4a6 c13d a1eb b4bd 186c 433d ed70 b8bd
00000050: 42c0 fa3d f4ec debd 440b 933d 3e8c 7abd
00000060: 5033 54bc 7025 763d 408e 68bb 5048 733d
00000070: 5710 07be c8af 793d 1829 d9bd 900f fc3c
00000080: 19bc 023e 4a9e f83d 4c31 b83d 2ca1 8fbc
00000090: ecc1 2ebd 5cd6 933d d02e cb3d ba48 d0bd
000000a0: 7849 3c3d 4e5a 8b3d 1066 503c 006d 7bbd
000000b0: f0aa 5fbc 671a 0bbe 3d06 02be 80f4 f83b
000000c0: c0db d43c ccea 3ebd 687b 2a3d 6c54 9dbc
000000d0: 9695 b0bd ae07 bd3d 93ab 91bd d28b a73d
000000e0: 6ec5 c6bd c277 ab3d 1f09 013e 4cd4 263d
000000f0: e078 3a3c 8275 c73d a845 b0bd 004e 96b9
00000100: b073 52bd 860d bb3d 2054 c93c f75c b0bd
00000110: b4fe ddbd 7885 b83c 30a7 04be 4ea2 d0bd
00000120: fd50 98bd 5049 863c e805 b93c a0dd 5c3d
00000130: 0c64 313d 409b 23bc 964a e13d 991f 8cbd
00000140: 3847 a5bc 0d59 fabd 3e29 c6bd 64a4 653d
00000150: 3693 f23d f483 b1bc 5e79 de3d b452 063d
00000160: d499 e5bd b860 31bd b2f6 e0bd e42d 75bd
00000170: 0451 b13d de77 fa3d 40c1 0ebe da2c 08be
00000180: 06d1 ce3d 209f 923b 5af0 dc3d 0020 d938
00000190: 0491 4f3d 5d21 00bd a4a8 e43d 0871 3abd
000001a0: ede2 42bd 10f8 c3bd 2ad6 d63d 74ea d9bd
000001b0: c861 4ebc c061 d4bd 21ec 5e3b 0058 8c3d
000001c0: 0208 7c3d af49 e63d ca0f 98bd 33ba 953d
000001d0: 924a bfbd e030 d9bd 103a 85bd f83c b63c
000001e0: 4c90 a63d b789 b53b d6cc f63d f2e9 5e3d
000001f0: 5bee bb3d f5ad 5e3c e01e ba3d d544 d63c
00000200: c5f6 bdbd 950d e03c 131c 683b 5812 073e
00000210: 79bb b83d b8db f8bd b64a 9d3c 7458 1bbb
00000220: cbbb 303c 6743 8fbd ae09 82bb 6c3c 133e
00000230: 1a52 27be 5be0 013e 55fe 333d e8fa 5abc
00000240: d30f 24bd e63f e73d cbeb 983c cdbe ba3d
00000250: 0ba8 b83d d83f 14be 2be9 443d a940 223e
00000260: dfe1 71bd 0424 a7bd 37e3 403d ed6a b13d
00000270: 455e 03be e407 d53d fef1 a23c 06af 853d
00000280: faae a13d a0f0 d8bd 3b94 7ebd 5cdf a93c
00000290: 464c dbbd ffde 6c3d 7727 2c3d 0c75 f33d
000002a0: 7d20 a73d 1d43 6fbd 1e36 86bd b414 9bbe
000002b0: 04bb 1ebd 2c58 2dbe 1cb3 b13d 31a4 81bd
000002c0: f19f 11be 0499 103e e16b 8fbd f293 de3d
000002d0: 2022 393e d939 403e da82 13be c13b 863d
000002e0: 1741 a6bd 67b7 45bd 1abd 743d e819 55be
000002f0: 7290 82bd 2141 dc3d 54cc 5b3e 8f0a 3dbd
00000300: b9fc 9bbd 25d2 d53d e143 81bd 36ad 6d3c
00000310: ed23 11be 98b1 923d eb30 ebbc dec3 853d

bias f4 [4]
-0.016919224 -0.05159192 0.10263684 -0.064477295
00000000: 2f9a 8abc 0d52 53bd 4333 d23d ac0c 84bd

mask f4 [4, 50]
0.0 0.0 0.0 0.0 0.0 0.0 0.0 0.0
0.0 0.0 0.0 0.0 0.0 0.0 0.0 0.0
0.0 0.0 0.0 0.0 0.0 0.0 0.0 0.0
0.0 0.0 0.0 0.0 0.0 0.0 0.0 0.0
0.0 0.0 0.0 0.0 0.0 0.0 0.0 0.0
0.0 0.0 0.0 0.0 0.0 0.0 0.0 0.0
0.0 0.0 0.0 0.0 0.0 0.0 0.0 0.0
0.0 0.0 0.0 0.0 0.0 0.0 0.0 0.0
0.0 0.0 0.0 0.0 0.0 0.0 0.0 0.0
0.0 0.0 0.0 0.0 0.0 0.0 0.0 0.0
0.0 0.0 0.0 0.0 0.0 0.0 0.0 0.0
0.0 0.0 0.0 0.0 0.0 0.0 0.0 0.0
0.0 0.0 0.0 0.0 1.0 1.0 1.0 1.0
1.0 1.0 1.0 1.0 1.0 1.0 1.0 1.0
1.0 1.0 1.0 1.0 1.0 1.0 1.0 1.0
1.0 1.0 1.0 1.0 1.0 1.0 1.0 1.0
1.0 1.0 1.0 1.0 1.0 1.0 1.0 1.0
1.0 1.0 1.0 1.0 1.0 1.0 1.0 1.0
1.0 1.0 1.0 1.0 1.0 1.0 1.0 1.0
1.0 1.0 1.0 1.0 1.0 1.0 1.0 1.0
1.0 1.0 1.0 1.0 1.0 1.0 1.0 1.0
1.0 1.0 1.0 1.0 1.0 1.0 1.0 1.0
1.0 1.0 1.0 1.0 1.0 1.0 1.0 1.0
1.0 1.0 1.0 1.0 1.0 1.0 1.0 1.0
1.0 1.0 1.0 1.0 1.0 1.0 1.0 1.0
00000000: 0000 0000 0000 0000 0000 0000 0000 0000
00000010: 0000 0000 0000 0000 0000 0000 0000 0000
00000020: 0000 0000 0000 0000 0000 0000 0000 0000
00000030: 0000 0000 0000 0000 0000 0000 0000 0000
00000040: 0000 0000 0000 0000 0000 0000 0000 0000
00000050: 0000 0000 0000 0000 0000 0000 0000 0000
00000060: 0000 0000 0000 0000 0000 0000 0000 0000
00000070: 0000 0000 0000 0000 0000 0000 0000 0000
00000080: 0000 0000 0000 0000 0000 0000 0000 0000
00000090: 0000 0000 0000 0000 0000 0000 0000 0000
000000a0: 0000 0000 0000 0000 0000 0000 0000 0000
000000b0: 0000 0000 0000 0000 0000 0000 0000 0000
000000c0: 0000 0000 0000 0000 0000 0000 0000 0000
000000d0: 0000 0000 0000 0000 0000 0000 0000 0000
000000e0: 0000 0000 0000 0000 0000 0000 0000 0000
000000f0: 0000 0000 0000 0000 0000 0000 0000 0000
00000100: 0000 0000 0000 0000 0000 0000 0000 0000
00000110: 0000 0000 0000 0000 0000 0000 0000 0000
00000120: 0000 0000 0000 0000 0000 0000 0000 0000
00000130: 0000 0000 0000 0000 0000 0000 0000 0000
00000140: 0000 0000 0000 0000 0000 0000 0000 0000
00000150: 0000 0000 0000 0000 0000 0000 0000 0000
00000160: 0000 0000 0000 0000 0000 0000 0000 0000
00000170: 0000 0000 0000 0000 0000 0000 0000 0000
00000180: 0000 0000 0000 0000 0000 0000 0000 0000
00000190: 0000 803f 0000 803f 0000 803f 0000 803f
000001a0: 0000 803f 0000 803f 0000 803f 0000 803f
000001b0: 0000 803f 0000 803f 0000 803f 0000 803f
000001c0: 0000 803f 0000 803f 0000 803f 0000 803f
000001d0: 0000 803f 0000 803f 0000 803f 0000 803f
000001e0: 0000 803f 0000 803f 0000 803f 0000 803f
000001f0: 0000 803f 0000 803f 0000 803f 0000 803f
00000200: 0000 803f 0000 803f 0000 803f 0000 803f
00000210: 0000 803f 0000 803f 0000 803f 0000 803f
00000220: 0000 803f 0000 803f 0000 803f 0000 803f
00000230: 0000 803f 0000 803f 0000 803f 0000 803f
00000240: 0000 803f 0000 803f 0000 803f 0000 803f
00000250: 0000 803f 0000 803f 0000 803f 0000 803f
00000260: 0000 803f 0000 803f 0000 803f 0000 803f
00000270: 0000 803f 0000 803f 0000 803f 0000 803f
00000280: 0000 803f 0000 803f 0000 803f 0000 803f
00000290: 0000 803f 0000 803f 0000 803f 0000 803f
000002a0: 0000 803f 0000 803f 0000 803f 0000 803f
000002b0: 0000 803f 0000 803f 0000 803f 0000 803f
000002c0: 0000 803f 0000 803f 0000 803f 0000 803f
000002d0: 0000 803f 0000 803f 0000 803f 0000 803f
000002e0: 0000 803f 0000 803f 0000 803f 0000 803f
000002f0: 0000 803f 0000 803f 0000 803f 0000 803f
00000300: 0000 803f 0000 803f 0000 803f 0000 803f
00000310: 0000 803f 0000 803f 0000 803f 0000 803f

weight f4 [50, 2]
0.35560757 -0.6043945 0.07236142 0.09139907 -0.14795652 -0.324234 0.06914938 0.22723955
-0.5272044 -0.5511455 0.46377212 -0.29290164 0.4215509 -0.6444834 0.6854894 0.5009194
-0.55285305 0.5629292 0.6375405 0.24831718 -0.2626632 -0.26677933 -0.6676601 0.5371298
0.3595678 -0.35216743 0.35712588 0.60575134 -0.101938054 0.51896816 0.18043843 0.5832594
-0.36127785 -0.46644068 -0.50586224 0.39756542 0.027634077 0.51059383 -0.7033415 -0.55818796
0.11999146 -0.11105263 0.27415138 -0.426801 -0.12044649 -0.19876409 -0.3349848 0.23928303
0.40514708 0.58509904 0.3806681 0.38391536 0.6267968 -0.6699963 -0.6115482 -0.07251823
0.33676115 -0.28181785 -0.0011719476 -0.04550183 -0.23865792 -0.6806074 0.058890104 0.28093797
0.030219004 0.07042116 0.49225858 0.09096074 0.2766512 0.0024219155 -0.6055479 0.45817512
0.30722433 -0.17526865 -0.38351744 0.15848327 0.23067977 -0.35555655 -0.51368415 -0.20192456
-0.5442605 -0.57410324 0.74951893 -0.31731054 -0.54256165 0.28811246 -0.0009493226 -0.6601678
0.44995707 0.64518636 0.41437408 -0.63876295 -0.74044394 0.52026457 -0.5405486 0.01467216
-0.44176528 0.0023233294 0.05450483 0.41770846
00000000: 3212 b63e 99b9 1abf 3932 943d 702f bb3d
00000010: ea81 17be 0002 a6be 319e 8d3d 7cb1 683e
00000020: def6 06bf df17 0dbf 8a73 ed3e 34f7 95be
00000030: 85d5 d73e ddfc 24bf 3c7c 2f3f 413c 003f
00000040: c787 0dbf 211c 103f db35 233f dc46 7e3e
00000050: ca7b 86be 4d97 88be c6eb 2abf 5781 093f
00000060: 4519 b83e 4a4f b4be 34d9 b63e 8512 1b3f
00000070: e6c4 d0bd 19db 043f dac4 383e 7d50 153f
00000080: 69f9 b8be 50d1 eebe 3080 01bf b28d cb3e
00000090: dc60 e23c 47b6 023f 300e 34bf 68e5 0ebf
000000a0: 15be f53d 906f e3bd 925d 8c3e a985 dabe
000000b0: a6ac f6bd d088 4bbe 2183 abbe 9c06 753e
000000c0: 706f cf3e 0dc9 153f eee6 c23e 8e90 c43e
000000d0: c175 203f e184 2bbf 6c8e 1cbf 7084 94bd
000000e0: f56b ac3e 6e4a 90be 099c 99ba 2060 3abd
000000f0: be62 74be 493c 2ebf c036 713d 1ad7 8f3e
00000100: d88d f73c f838 903d 5109 fc3e a049 ba3d
00000110: 3aa5 8d3e 00b9 1e3b 3005 1bbf ee95 ea3e
00000120: 824c 9d3e a079 33be 665c c4be 7049 223e
00000130: 5137 6c3e 820b b6be ce80 03bf 50c5 4ebe
00000140: a854 0bbf 6ef8 12bf 79e0 3f3f 8776 a2be
00000150: 52e5 0abf 7a83 933e f6db 78ba c200 29bf
00000160: c660 e63e ef2a 253f d728 d43e f885 23bf
00000170: bc8d 3dbf 0f30 053f 6561 0abf 8063 703c
00000180: 0f2f e2be 0043 183b 7540 5f3d e2dd d53e

bias f4 [50]
0.11924386 0.3279772 0.24090268 0.5471282 0.37979424 -0.16870725 -0.6155758 0.108544655
0.5633984 -0.20486212 0.6219304 0.16361193 -0.72773975 -0.3101286 0.09212773 0.07815206
-0.14286517 0.6541631 -0.35361168 -0.46932247 -0.31036603 -0.04836797 -0.43733 -0.5105935
0.21908243 -0.50580806 -0.10086688 -0.06802596 0.3604677 -0.4896136 -0.6855638 0.7194445
-0.5800453 0.3113495 0.20872585 0.16044074 0.6979245 -0.28983334 0.005108345 -0.37135988
-0.692088 0.4164116 -0.16414975 0.27654573 0.39900133 0.11888025 0.5426912 -0.54802054
0.18782182 0.62679535
00000000: 2036 f43d a1ec a73e 31af 763e 9810 0c3f
00000010: 6474 c23e 98c1 2cbe 6096 1dbf a94c de3d
00000020: e13a 103f 60c7 51be d536 1f3f e389 273e
00000030: 274d 3abf 2dc9 9ebe 77ad bc3d 300e a03d
00000040: 3f4b 12be 3c77 273f 970c b5be 094b f0be
00000050: 4ce8 9ebe 7e1d 46bd b8e9 dfbe 41b6 02bf
00000060: 2557 603e a37c 01bf 4b93 cebd 3251 8bbd
00000070: 398f b83e a2ae fabe 1c81 2fbf 842d 383f
00000080: d97d 14bf 3469 9f3e 3bbc 553e 944a 243e
00000090: 2eab 323f 0965 94be e763 a73b e222 bebe
000000a0: ae2c 31bf e733 d53e df16 28be 6797 8d3e
000000b0: e749 cc3e 7d77 f33d cfed 0a3f 134b 0cbf
000000c0: 5d54 403e a975 203f

mask f4 [50, 2]
1.0 0.0 1.0 0.0 1.0 0.0 1.0 0.0
1.0 0.0 1.0 0.0 1.0 0.0 1.0 0.0
1.0 0.0 1.0 0.0 1.0 0.0 1.0 0.0
1.0 0.0 1.0 0.0 1.0 0.0 1.0 0.0
1.0 0.0 1.0 0.0 1.0 0.0 1.0 0.0
1.0 0.0 1.0 0.0 1.0 0.0 1.0 0.0
1.0 0.0 1.0 0.0 1.0 0.0 1.0 0.0
1.0 0.0 1.0 0.0 1.0 0.0 1.0 0.0
1.0 0.0 1.0 0.0 1.0 0.0 1.0 0.0
1.0 0.0 1.0 0.0 1.0 0.0 1.0 0.0
1.0 0.0 1.0 0.0 1.0 0.0 1.0 0.0
1.0 0.0 1.0 0.0 1.0 0.0 1.0 0.0
1.0 0.0 1.0 0.0
00000000: 0000 803f 0000 0000 0000 803f 0000 0000
00000010: 0000 803f 0000 0000 0000 803f 0000 0000
00000020: 0000 803f 0000 0000 0000 803f 0000 0000
00000030: 0000 803f 0000 0000 0000 803f 0000 0000
00000040: 0000 803f 0000 0000 0000 803f 0000 0000
00000050: 0000 803f 0000 0000 0000 803f 0000 0000
00000060: 0000 803f 0000 0000 0000 803f 0000 0000
00000070: 0000 803f 0000 0000 0000 803f 0000 0000
00000080: 0000 803f 0000 0000 0000 803f 0000 0000
00000090: 0000 803f 0000 0000 0000 803f 0000 0000
000000a0: 0000 803f 0000 0000 0000 803f 0000 0000
000000b0: 0000 803f 0000 0000 0000 803f 0000 0000
000000c0: 0000 803f 0000 0000 0000 803f 0000 0000
000000d0: 0000 803f 0000 0000 0000 803f 0000 0000
000000e0: 0000 803f 0000 0000 0000 803f 0000 0000
000000f0: 0000 803f 0000 0000 0000 803f 0000 0000
00000100: 0000 803f 0000 0000 0000 803f 0000 0000
00000110: 0000 803f 0000 0000 0000 803f 0000 0000
00000120: 0000 803f 0000 0000 0000 803f 0000 0000
00000130: 0000 803f 0000 0000 0000 803f 0000 0000
00000140: 0000 803f 0000 0000 0000 803f 0000 0000
00000150: 0000 803f 0000 0000 0000 803f 0000 0000
00000160: 0000 803f 0000 0000 0000 803f 0000 0000
00000170: 0000 803f 0000 0000 0000 803f 0000 0000
00000180: 0000 803f 0000 0000 0000 803f 0000 0000

weight f4 [50, 2]
0.6704587 0.30015722 -0.49273175 -0.7016081 -0.4904914 -0.45716614 -0.19976482 -0.42037967
-0.33949572 0.49496076 -0.29283792 -0.48434895 -0.6837939 0.7046098 -0.58930355 0.68147665
-0.37551335 0.095237866 0.27452722 -0.6511347 -0.3487999 -0.23756914 -0.11364561 0.38639113
-0.084586345 0.24896154 0.018493809 -0.3154003 -0.6514049 0.37686762 -0.49623057 0.4179164
0.46038386 0.3758085 -0.008154733 0.0017361834 -0.7231186 -0.40655085 -0.5384519 0.54504794
-0.6352811 -0.50459564 -0.5679857 -0.26679847 -0.15853663 0.45902085 -0.5078588 -0.056829397
0.0044889785 0.08403827 0.42965657 0.32875344 -0.060781993 -0.0024810454 0.2504447 0.4211035
0.7252458 -0.07682975 -0.61986256 0.6161427 -0.42778566 0.07973829 0.55623114 0.5965916
0.20571585 0.55131364 0.5330136 -0.6056816 0.48144233 -0.13446294 -0.4804163 0.31997448
-0.16766426 -0.35387683 0.6063908 0.21186474 0.21002053 0.18715513 -0.3577246 0.20189662
0.67088866 0.31408677 -0.13807938 0.53400433 -0.7058297 0.2905513 -0.4698685 -0.5815678
-0.37646937 -0.1537375 -0.33687878 0.2109907 -0.45920488 0.6790806 -0.6894566 -0.10743524
0.006781631 0.3852251 0.27272475 -0.19240874
00000000: 2ea3 2b3f 35ae 993e 5647 fcbe 979c 33bf
00000010: b021 fbbe ae11 eabe 268f 4cbe 013c d7be
00000020: 62d2 adbe 7f6b fd3e daee 95be 96fc f7be
00000030: 1e0d 2fbf 4f61 343f 99dc 16bf 4175 2e3f
00000040: 4943 c0be 120c c33d d58e 8c3e c4b0 26bf
00000050: e795 b2be 5345 73be 08bf e8bd 0fd5 c53e
00000060: 9b3b adbd c6ef 7e3e 5480 973c 267c a1be
00000070: 79c2 26bf cbf4 c03e ef11 febe 23f9 d53e
00000080: 6fb7 eb3e f969 c03e 6e9b 05bc a690 e33a
00000090: 4d1e 39bf 6f27 d0be fcd7 09bf 4388 0b3f
000000a0: c8a1 22bf 2e2d 01bf 8367 11bf cf99 88be
000000b0: 6d57 22be c804 eb3e 0903 02bf f1c5 68bd
000000c0: 4818 933b 421c ac3d f2fb db3e 5f52 a83e
000000d0: 8af6 78bd 0999 22bb 4a3a 803e e19a d73e
000000e0: b5a9 393f ea58 9dbd 50af 1ebf 87bb 1d3f
000000f0: b906 dbbe d44d a33d 2a65 0e3f 3aba 183f
00000100: 2da7 523e e422 0d3f 9473 083f f30d 1bbf
00000110: 9c7f f63e a7b0 09be 20f9 f5be b2d3 a33e
00000120: 2eb0 2bbe 582f b5be 6d3c 1b3f 12f3 583e
00000130: 9f0f 573e 98a5 3f3e ae27 b7be fdbd 4e3e
00000140: 5cbf 2b3f fbcf a03e ae64 0dbe 82b4 083f
00000150: 41b1 34bf 24c3 943e 9b92 f0be a1e1 14bf
00000160: 98c0 c0be 5d6d 1dbe 607b acbe f20d 583e
00000170: e71c ebbe 3ad8 2d3f 3a80 30bf 0207 dcbd
00000180: 7238 de3b 393c c53e 94a2 8b3e cc06 45be

bias f4 [50]
0.21318026 -0.16211484 -0.3648207 0.3672015 -0.3024943 0.3215082 0.47470742 0.22604533
0.50500894 0.5455727 -0.48934424 -0.09010355 0.16091673 0.18191364 0.60126585 -0.32303673
-0.3630215 0.71906507 -0.092419796 0.607533 0.47657305 -0.05893183 -0.0025214422 -0.36190328
0.4095649 -0.21914014 0.3451594 -0.15502624 -0.040548623 -0.29712856 0.6211393 -0.111469984
-0.6207478 -0.1322883 -0.05430463 -0.6828705 -0.68038845 -0.38455918 0.22169864 -0.2027755
-0.69168806 0.45979655 0.35295492 0.0091630975 -0.17709795 0.4149155 -0.7630026 0.07822278
-0.4244463 0.5673983
00000000: ed4b 5a3e 6f01 26be c7c9 babe d601 bc3e
00000010: 88e0 9abe b99c a43e da0c f33e 6d78 673e
00000020: 4448 013f a7aa 0b3f 548b fabe 3688 b8bd
00000030: 5bc7 243e 9247 3a3e 8fec 193f 1265 a5be
00000040: f4dd b9be a614 383f 9746 bdbd 4887 1b3f
00000050: 6201 f43e 8162 71bd c83e 25bb 634b b9be
00000060: 7eb2 d13e 4666 60be bcb8 b03e 33bf 1ebe
00000070: 5016 26bd 3c21 98be fc02 1f3f 604a e4bd
00000080: 54e9 1ebf 9676 07be 886e 5ebd 9ad0 2ebf
00000090: f02d 2ebf f1e4 c4be f804 633e 61a4 4fbe
000000a0: 7812 31bf 746a eb3e 82b6 b43e d120 163c
000000b0: 2a59 35be ce6f d43e 2354 43bf 4433 a03d
000000c0: 0751 d9be 0441 113f
