LMD SNR/04a/ing_net_o4a_gpu.pt (torch, 281292 bytes, 79 tensors)

low f4 [2]
-13.0 0.001
00000000: 0000 50c1 6f12 833a

high f4 [2]
5.0 1.0
00000000: 0000 a040 0000 803f

_shift f4 [2]
0.78693223 -1.7476463
00000000: 6474 493f e0b2 dfbf

_scale f4 [2]
0.19373518 3.4899707
00000000: 8462 463e ae5b 5f40

weight f4 [50, 2]
0.64620703 -0.124563515 0.1853102 0.13551444 0.23816787 -0.34621754 -0.19372791 -0.27019754
-0.123570055 -0.4206568 -0.12284248 0.57436913 0.5675873 -0.43516123 0.36232847 -0.34976825
0.47597536 0.04494244 0.49238753 0.6290956 0.22803909 0.15089029 0.24134523 0.50543946
-0.5633799 0.32971662 -0.536996 0.17816848 0.47746354 -0.48214957 -0.2528074 -0.24882647
0.9421125 0.13110399 -0.42958447 0.6844354 0.3515213 0.49069363 -0.43803293 -0.23691139
0.39017716 0.58174497 -0.0071310936 0.1448986 0.5262743 -0.49741137 0.43235028 -0.06258273
-0.020508153 -0.23090664 0.64679354 0.6412205 -0.00687737 -0.24927878 0.31050238 -0.57575047
0.12903716 -0.112295985 0.26862147 -0.57239366 -0.25374034 0.66311604 0.32063064 0.18544734
-0.15984553 0.7003198 0.69819653 0.38575977 0.29845795 -0.6555069 0.037141416 0.570944
0.04821697 -0.5375481 -0.032106232 0.21272367 -0.10925354 0.69294876 -0.28175336 -0.2874507
0.22715445 0.61811036 -0.41736168 0.6917352 0.34660438 -0.56442386 -0.3282339 0.19906968
-0.46419173 0.6430622 0.5071463 -0.62232864 -0.5913194 -0.6500428 -0.21706402 0.6491036
0.56225765 0.23079091 0.7533888 0.11669254
00000000: d36d 253f 281b ffbd f5c1 3d3e 4cc4 0a3e
00000010: 47e2 733e 6d43 b1be 9c60 46be 5557 8abe
00000020: 4c12 fdbd 5460 d7be d794 fbbd db09 133f
00000030: 674d 113f 74cd debe 1e83 b93e d314 b3be
00000040: 0bb3 f33e 9015 383d 381a fc3e 690c 213f
00000050: 1483 693e fc82 1a3e 3423 773e 7b64 013f
00000060: aa39 10bf 9ed0 a83e 9278 09bf cc71 363e
00000070: 1a76 f43e 4fdc f6be f96f 81be 5ecc 7ebe
00000080: 492e 713f 2040 063e 7ff2 dbbe 2937 2f3f
00000090: 9afa b33e 323c fb3e da45 e0be e698 72be
000000a0: 4dc5 c73e 3ded 143f f3ab e9bb 4c60 143e
000000b0: eab9 063f b4ac febe 045d dd3e 602b 80bd
000000c0: b700 a8bc ca72 6cbe 4394 253f 0727 243f
000000d0: 905b e1bb f042 7fbe 2bfa 9e3e 6264 13bf
000000e0: 5122 043e 70fb e5bd c188 893e 6488 12bf
000000f0: 41ea 81be f9c1 293f b329 a43e e8e5 3d3e
00000100: 8cae 23be 2948 333f 02bd 323f 4e82 c53e
00000110: 7bcf 983e 4dcf 27bf 9921 183d 6329 123f
00000120: 287f 453d c19c 09bf d381 03bd 3cd4 593e
00000130: 52c0 dfbd 1765 313f fa41 90be bd2c 93be
00000140: 2d9b 683e 7b3c 1e3f 6eb0 d5be 8f15 313f
00000150: 2176 b13e 157e 10bf 460e a8be ecd8 4b3e
00000160: 8aaa edbe b99f 243f 57d4 013f ee50 1fbf
00000170: b560 17bf 3469 26bf 0846 5ebe a72b 263f
00000180: 1ef0 0f3f 7454 6c3e 17de 403f 80fc ee3d

bias f4 [50]
-0.44177765 -0.126631 0.38877162 -0.39311686 -0.20165536 0.32495812 0.29101357 -0.44981682
-0.047117714 0.38839713 -0.6235391 -0.29735106 -0.7123514 -0.30210125 0.16690712 0.29479605
0.49011803 -0.60561836 0.27216342 -0.061236747 0.10399698 -0.56165045 -0.39921728 -0.52254206
0.5295343 -0.33408588 -0.50303835 0.5346705 -0.6342736 0.19397095 -0.49931267 -0.697794
-0.31233785 -0.57691115 0.55228364 0.16655223 -0.23951381 0.5411635 0.49283087 -0.58230436
-0.26383406 0.16586068 -0.5797734 0.004726595 0.27886766 0.7047893 -0.14667945 -0.3520927
0.29807964 0.3727826
00000000: ae30 e2be 8fab 01be 130d c73e 9d46 c9be
00000010: be7e 4ebe e960 a63e bbff 943e 644e e6be
00000020: 81fe 40bd fddb c63e 42a0 1fbf 663e 98be
00000030: a95c 36bf 04ad 9abe b3e9 2a3e 82ef 963e
00000040: c0f0 fa3e ce09 1bbf 0159 8b3e 62d3 7abd
00000050: 5efc d43d 53c8 0fbf 3566 ccbe 51c5 05bf
00000060: 8f8f 073f 4e0d abbe 1fc7 00bf 2ae0 083f
00000070: c15f 22bf 52a0 463e e9a5 ffbe a1a2 32bf
00000080: bfea 9fbe 73b0 13bf 7662 0d3f ab8c 2a3e
00000090: 1c43 75be b189 0a3f 5454 fc3e e611 15bf
000000a0: 4215 87be 62d7 293e 086c 14bf 8de1 9a3b
000000b0: bec7 8e3e 126d 343f 2333 16be 7f45 b4be
000000c0: e59d 983e 5cdd be3e

mask f4 [50, 2]
1.0 0.0 1.0 0.0 1.0 0.0 1.0 0.0
1.0 0.0 1.0 0.0 1.0 0.0 1.0 0.0
1.0 0.0 1.0 0.0 1.0 0.0 1.0 0.0
1.0 0.0 1.0 0.0 1.0 0.0 1.0 0.0
1.0 0.0 1.0 0.0 1.0 0.0 1.0 0.0
1.0 0.0 1.0 0.0 1.0 0.0 1.0 0.0
1.0 0.0 1.0 0.0 1.0 0.0 1.0 0.0
1.0 0.0 1.0 0.0 1.0 0.0 1.0 0.0
1.0 0.0 1.0 0.0 1.0 0.0 1.0 0.0
1.0 0.0 1.0 0.0 1.0 0.0 1.0 0.0
1.0 0.0 1.0 0.0 1.0 0.0 1.0 0.0
1.0 0.0 1.0 0.0 1.0 0.0 1.0 0.0
1.0 0.0 1.0 0.0
00000000: 0000 803f 0000 0000 0000 803f 0000 0000
00000010: 0000 803f 0000 0000 0000 803f 0000 0000
00000020: 0000 803f 0000 0000 0000 803f 0000 0000
00000030: 0000 803f 0000 0000 0000 803f 0000 0000
00000040: 0000 803f 0000 0000 0000 803f 0000 0000
00000050: 0000 803f 0000 0000 0000 803f 0000 0000
00000060: 0000 803f 0000 0000 0000 803f 0000 0000
00000070: 0000 803f 0000 0000 0000 803f 0000 0000
00000080: 0000 803f 0000 0000 0000 803f 0000 0000
00000090: 0000 803f 0000 0000 0000 803f 0000 0000
000000a0: 0000 803f 0000 0000 0000 803f 0000 0000
000000b0: 0000 803f 0000 0000 0000 803f 0000 0000
000000c0: 0000 803f 0000 0000 0000 803f 0000 0000
000000d0: 0000 803f 0000 0000 0000 803f 0000 0000
000000e0: 0000 803f 0000 0000 0000 803f 0000 0000
000000f0: 0000 803f 0000 0000 0000 803f 0000 0000
00000100: 0000 803f 0000 0000 0000 803f 0000 0000
00000110: 0000 803f 0000 0000 0000 803f 0000 0000
00000120: 0000 803f 0000 0000 0000 803f 0000 0000
00000130: 0000 803f 0000 0000 0000 803f 0000 0000
00000140: 0000 803f 0000 0000 0000 803f 0000 0000
00000150: 0000 803f 0000 0000 0000 803f 0000 0000
00000160: 0000 803f 0000 0000 0000 803f 0000 0000
00000170: 0000 803f 0000 0000 0000 803f 0000 0000
00000180: 0000 803f 0000 0000 0000 803f 0000 0000

weight f4 [50, 4]
-0.217342 0.40443385 -0.43929565 0.20510449 -0.031441838 0.06256124 -0.08876778 0.52085125
-0.47763222 -0.45720473 0.42260686 -0.055436537 0.38645098 0.5623203 -0.08311571 0.26393613
0.43447646 0.41133484 0.34420466 -0.5604043 -0.19200908 0.2907284 0.1261101 0.08910616
0.41769123 0.32492206 -0.025776124 0.30268288 -0.4898734 -0.20561199 -0.34447813 -0.3113426
-0.2859388 -0.007039566 -0.075774424 0.48537764 -0.17591865 -0.1091144 -0.3901455 0.1266033
0.34747678 0.12062599 -0.00927932 -0.4128451 -0.4261822 0.40960938 -0.11055416 0.1508405
-0.14025886 -0.25407875 -0.04916656 -0.33099648 -0.43915477 -0.282692 -0.25281996 0.28754747
-0.47526827 0.024949785 0.47855845 0.026407817 -0.60229284 0.2118526 0.5228893 0.14040396
0.123518 0.2030638 -0.33431634 0.44548678 -0.23521727 -0.4419972 -0.38345808 -0.05178242
-0.45258355 0.029878976 0.081330314 0.32603765 -0.42207482 0.11372299 0.17706135 -0.0335132
-0.36866778 -0.007993517 0.6009615 -0.086820446 0.42358923 -0.4980133 -0.2026962 0.23624684
-0.1304425 -0.5072919 -0.26376057 -0.08619945 -0.00976025 0.42661166 0.48740894 -0.16655083
0.38358384 -0.076322146 0.25865668 0.073238716 -0.280108 0.0054113097 0.5187119 -0.40652317
-0.5490164 -0.40237707 -0.13077915 -0.21517883 -0.11364248 -0.44673774 -0.051822938 -0.041156616
0.21147102 -0.36241698 0.26973858 -0.0954012 0.47870898 0.37343594 -0.08135416 0.065258205
0.14141832 0.028856805 -0.018193902 0.02687711 0.27034408 0.26957637 0.5058661 -0.1898409
-0.4861863 0.26659313 0.17450626 -0.28514093 0.59331286 -0.40597105 -0.1521664 -0.13034646
-0.14697345 -0.42662737 0.48340678 -0.060893156 -0.44086045 0.4713086 0.07766056 0.04153352
0.2744989 -0.1506965 0.3811646 -0.56626004 -0.013226485 -0.5728714 -0.60107994 -0.23251936
0.67070913 0.44324234 -0.045787673 0.108485155 0.18450846 -0.21083288 0.043127257 0.032681588
0.39015484 -0.23638412 -0.48909456 -0.16004336 -0.5002567 -0.15058045 -0.41119292 0.14994033
-0.17928836 -0.17428137 -0.048966065 0.55459905 0.16062085 0.53862935 -0.40406957 -0.19730344
-0.011036024 0.22821283 -0.10067503 0.5773061 -0.18882695 0.35384914 -0.16297819 0.03894828
-0.6875165 -0.074640706 -0.3379788 -0.012008124 -0.4229808 -0.34542575 -0.32489613 0.10600432
0.59914404 -0.34812692 -0.33818698 0.0121307885 -0.2335382 -0.55905914 -0.38288015 -0.3077416
00000000: e78e 5ebe f411 cf3e 5ceb e0be e906 523e
00000010: 28c9 00bd 1b20 803d e2cb b5bd 8256 053f
00000020: 368c f4be bd16 eabe ed5f d83e 6c11 63bd
00000030: e7dc c53e 39f4 0f3f 9238 aabd a322 873e
00000040: b373 de3e 7b9a d23e 983b b03e a876 0fbf
00000050: 079e 44be 5ada 943e 0223 013e 4a7d b63d
00000060: a0db d53e 2f5c a63e 7328 d3bc 40f9 9a3e
00000070: b0d0 fabe f38b 52be 705f b0be 4c68 9fbe
00000080: 9266 92be 29ac e6bb 9f2f 9bbd 6b83 f83e
00000090: 0524 34be 5f77 dfbd 27c1 c7be 4ca4 013e
000000a0: 7ae8 b13e c20a f73d 4a08 18bc 6f60 d3be
000000b0: 8e34 dabe 52b8 d13e 386a e2bd ef75 1a3e
000000c0: 05a0 0fbe 9c16 82be e062 49bd 5f78 a9be
000000d0: e5d8 e0be 01bd 90be 9e71 81be 6c39 933e
000000e0: 5d56 f3be 7e63 cc3c 9d05 f53e 3555 d83c
000000f0: dd2f 1abf e3ef 583e 13dc 053f 0ec6 0f3e
00000100: 01f7 fc3d f5ef 4f3e 832b abbe d816 e43e
00000110: ccdc 70be 754d e2be 9e54 c4be ce19 54bd
00000120: 08b9 e7be c1c4 f43c 8290 a63d 68ee a63e
00000130: 311a d8be 99e7 e83d 924f 353e 2345 09bd
00000140: 06c2 bcbe 3ef7 02bc 9dd8 193f ebce b1bd
00000150: b0e0 d83e 99fb febe 988f 4fbe b1ea 713e
00000160: b892 05be e2dd 01bf a00b 87be 5689 b0bd
00000170: 75e9 1fbc d86c da3e aa8d f93e 4d8c 2abe
00000180: 1a65 c43e c94e 9cbd a66e 843e 2efe 953d
00000190: 516a 8fbe 5b51 b13b 4eca 043f ce23 d0be
000001a0: 578c 0cbf 5e04 cebe f8ea 05be d757 5cbe
000001b0: 63bd e8bd cfba e4be 4a44 54bd d793 28bd
000001c0: dc8b 583e b88e b9be 2d1b 8a3e b461 c3bd
000001d0: 5819 f53e ff32 bf3e 039d a6bd 18a6 853d
000001e0: f7cf 103e 1b65 ec3c 610b 95bc 632d dc3c
000001f0: 8a6a 8a3e ea05 8a3e 7180 013f a765 42be
00000200: 69ed f8be e57e 883e c5b1 323e fefd 91be
00000210: 5ae3 173f 70db cfbe 82d1 1bbe 8b79 05be
00000220: 3580 16be e76e dabe 1881 f73e 1a6b 79bd
00000230: 76b8 e1be 5c4f f13e 800c 9f3d 0d1f 2a3d
00000240: 1f8b 8c3e 2f50 1abe 0228 c33e 6bf6 10bf
00000250: e6b3 58bc b3a7 12bf 60e0 19bf 8e19 6ebe
00000260: 98b3 2b3f a9f0 e23e db8b 3bbd 772d de3d
00000270: c9ef 3c3e 93e4 57be 35a6 303d 21dd 053d
00000280: 60c2 c73e ae0e 72be 9a6a fabe 68e2 23be
00000290: d310 00bf c331 1abe e187 d2be f589 193e
000002a0: 5e97 37be d176 32be a490 48bd 34fa 0d3f
000002b0: cb79 243e 9de3 093f 35e2 cebe ea09 4abe
000002c0: 71d0 34bc a0b0 693e b62e cebd 55ca 133f
000002d0: da5b 41be b72b b53e c1e3 26be 3b88 1f3d
000002e0: 1501 30bf 3add 98bd 8f0b adbe b9bd 44bc
000002f0: f090 d8be a5db b0be c958 a6be cb18 d93d
00000300: 8161 193f b13d b2be d826 adbe 37c0 463c
00000310: a324 6fbe 801e 0fbf de08 c4be 4f90 9dbe

bias f4 [50]
-0.320944 -0.1553601 0.05799998 0.37537935 0.3802349 -0.12724936 0.5326937 -0.21865298
0.16660781 -0.13045077 -0.04693434 0.3445377 -0.40443635 -0.44038284 -0.15477401 -0.057130422
0.15963842 -0.68213934 -0.16922353 0.3971111 -0.30335864 0.43568394 0.41861144 -0.08502754
0.119893454 0.16934723 -0.4622767 0.31684893 -0.282217 0.2603288 -0.53660995 0.042353306
0.2757878 -0.28573713 -0.24596182 0.052969772 -0.33900273 0.5152137 0.10845827 -0.09047791
-0.0044306503 -0.580125 -0.20239323 -0.49171636 -0.11183694 0.112029076 -0.4390153 -0.13737066
-0.18501198 -0.15126283
00000000: c652 a4be b816 1fbe 6391 6d3d b931 c03e
00000010: 26ae c23e a84d 02be 9d5e 083f 91e6 5fbe
00000020: 3d9b 2a3e e394 05be 393e 40bd 3f67 b03e
00000030: 4812 cfbe dc79 e1be 147d 1ebe 9701 6abd
00000040: 4178 233e afa0 2ebf ef48 2dbe 2552 cb3e
00000050: d351 9bbe f711 df3e 3d54 d63e eb22 aebd
00000060: b38a f53d 5c69 2d3e 88af ecbe 063a a23e
00000070: bf7e 90be d149 853e 455f 09bf a97a 2d3d
00000080: 0f34 8d3e 234c 92be 6add 7bbe d5f6 583d
00000090: c491 adbe 0ce5 033f 5f1f de3d 7c4c b9bd
000000a0: fd2e 91bb 1283 14bf 2c40 4fbe 3fc2 fbbe
000000b0: c40a e5bd 806f e53d 9dc6 e0be e5aa 0cbe
000000c0: c873 3dbe a5e4 1abe

weight f4 [50, 50]
0.029034127 -0.15718956 0.14491701 -0.06366257 0.041807786 -0.10439414 -0.08628044 0.081988454
-0.09334863 0.030101571 0.10085205 0.049934268 -0.007448416 -0.072077714 0.07227622 0.07584757
-0.032914795 0.013208214 -0.060203608 -0.11207858 0.08387397 0.12639983 0.093927056 0.06706411
0.109935224 0.1158612 0.061207015 0.0040552444 0.058736216 -0.035512533 0.11072584 0.053102124
0.15645687 0.039137937 -0.15988657 -0.0019760323 0.06602956 -0.017930819 -0.14047559 -0.0073295427
-0.041030057 -0.026318796 -0.057958446 0.08426379 -0.15768015 -0.067440145 0.10167808 -0.10093885
-0.11422113 -0.009348145 0.024456318 0.12536676 -0.11860742 0.12673497 0.10894307 -0.116779014
0.062915616 -0.07311966 -0.014041177 -0.038842816 0.12833378 -0.12403223 0.01327653 0.015752586
-0.14242257 -0.33330438 -0.07507886 -0.18119314 -0.13971229 0.038417704 -0.068719335 0.07109211
0.28171083 -0.09065123 0.02798923 -0.075912595 -0.034136217 0.105258904 -0.032579437 0.031250138
0.070579186 0.008484216 -0.021478154 0.05418362 -0.03346733 -0.076901965 0.14623462 0.19021246
-0.12027158 -0.070233375 0.21686856 0.06228635 0.07119486 0.08061657 -0.05938571 0.005083065
-0.086093694 -0.107530445 0.20770216 -0.08244134 0.0833214 0.006757259 -0.06693761 -0.11892282
-0.080989145 -0.13226947 0.1126882 0.01041036 0.031427417 -0.10804363 0.17025892 -0.22661096
0.13018174 -0.111008905 -0.25716835 -0.48590553 0.059858914 -0.10259149 -0.051729612 -0.06922658
-0.23474589 0.0785363 0.33966494 -0.17099768 -0.10123426 -0.0003490729 0.019502457 0.0050543235
-0.010881637 0.085398525 0.04927439 -0.03810023 -0.051778875 0.08270274 0.0015343794 -0.1679837
0.06581826 0.23751539 0.012844869 0.122894146 0.27855393 -0.06829985 0.05702379 0.14234868
-0.024588106 -0.11659283 0.14981547 -0.086575255 0.14425871 0.19368604 0.06005493 0.006247988
-0.07085333 -0.059950665 -0.21499166 0.016027631 0.022124292 -0.09771154 0.18291616 0.17017639
0.03572975 0.057488225 0.0786795 -0.00078329106 -0.02322823 0.12569036 -0.060223427 0.10992392
0.06344555 0.046761256 -0.03175251 -0.09221198 -0.027616661 0.058954153 0.03033501 -0.18392183
-0.14179793 0.15247926 -0.09910663 0.034491315 -0.119293265 -0.07829033 -0.07378731 -0.14952302
0.15606628 0.16975854 -0.21422783 0.06343706 0.14372507 -0.0740702 -0.11323211 -0.07783142
0.031007353 -0.20181976 0.20018098 0.10412056 0.045320924 -0.024641803 0.103856325 -0.037629887
0.035051674 -0.054639626 0.023383565 0.11859063 0.0009903235 0.053676303 -0.08935972 -0.017753903
-0.13004443 0.09308834 0.08410183 -0.16217308 -0.044093337 0.04844333 -0.10192968 -0.29294333
-0.108239315 -0.078658305 -0.012326557 -0.1117355 0.0544557 0.14763078 0.060484454 -0.077950954
-0.0018566565 -0.002916074 0.042161897 -0.120608635 0.1695604 0.03641929 0.18226078 -0.1349342
-0.074936874 0.05018142 0.08248026 0.002505574 0.18823655 0.09787802 -0.15330856 0.14326192
0.11177021 -0.10962375 -0.021896284 0.18694602 -0.20936425 0.088475905 0.028295428 -0.12899482
0.02375612 0.13302201 0.038339186 -0.03439654 0.15107375 -0.08821041 -0.06540947 -0.07999739
00000000: fad8 ed3c 4df6 20be 2065 143e 8661 82bd
00000010: a43e 2b3d 98cc d5bd cdb3 b0bd 90e9 a73d
00000020: 912d bfbd 9297 f63c 858b ce3d e087 4c3d
00000030: d811 f4bb 7b9d 93bd 8e05 943d f955 9b3d
00000040: aad1 06bd 4467 583c 0f98 76bd 7489 e5bd
00000050: 1ec6 ab3d f56e 013e d45c c03d e858 893d
00000060: b825 e13d a348 ed3d 35b4 7a3d dbe1 843b
00000070: 6395 703d 9775 11bd 3bc4 e23d 9d81 593d
00000080: 3b36 203e 1a4f 203d 4eb9 23be 5280 01bb
00000090: 823a 873d a7e3 92bc d5d8 0fbe a92c f0bb
000000a0: 220f 28bd 849a d7bc d665 6dbd 7e92 ac3d
000000b0: e876 21be 0f1e 8abd 993c d03d 07b9 cebd
000000c0: c5ec e9bd f628 19bc 9e58 c83c 2560 003e
000000d0: 72e8 f2bd d0c6 013e 8b1d df3d d629 efbd
000000e0: e7d9 803d c3bf 95bd f70c 66bc a519 1fbd
000000f0: ee69 033e 9c04 febd ce85 593c 910b 813c
00000100: 39d7 11be dfa6 aabe f2c2 99bd b28a 39be
00000110: bd10 0fbe e25b 1d3d b9bc 8cbd bd98 913d
00000120: 673c 903e 5aa7 b9bd ab49 e53c 1078 9bbd
00000130: 6bd2 0bbd fb91 d73d 0472 05bd 2500 003d
00000140: d28b 903d 6201 0b3c f4f2 afbc a5ef 5d3d
00000150: 0a15 09bd c77e 9dbd 87be 153e 0ec7 423e
00000160: f250 f6bd 84d6 8fbd cb12 5e3e f91f 7f3d
00000170: 9cce 913d 4d1a a53d 6e3e 73bd d78f a63b
00000180: e451 b0bd ec38 dcbd e0af 543e 01d7 a8bd
00000190: 69a4 aa3d ff6b dd3b 9616 89bd cf8d f3bd
000001a0: a3dd a5bd a671 07be 12c9 e63d 3790 2a3c
000001b0: 09ba 003d fb45 ddbd 5b58 2e3e b40c 68be
000001c0: 5d4e 053e a358 e3bd 92ab 83be 9cc8 f8be
000001d0: 9f2e 753d 7d1b d2bd 6ee2 53bd aac6 8dbd
000001e0: 3a61 70be a4d7 a03d 90e8 ad3e 041a 2fbe
000001f0: e853 cfbd c603 b7b9 9ec3 9f3c bd9e a53b
00000200: e548 32bc 6ce5 ae3d f1d3 493d fd0e 1cbd
00000210: 1616 54bd 0e60 a93d 3b1d c93a eb03 2cbe
00000220: b9cb 863d 3c37 733e 4973 523c edaf fb3d
00000230: 9f9e 8e3e cbe0 8bbd c791 693d dac3 113e
00000240: ff6c c9bc 39c8 eebd 3a69 193e 5e4e b1bd
00000250: 8eb8 133e a255 463e 29fc 753d ecbb cc3b
00000260: 8d1b 91bd d48e 75bd c626 5cbe 614c 833c
00000270: 013e b53c fd1c c8bd 604e 3b3e b842 2e3e
00000280: 5c59 123d c678 6b3d b822 a13d c655 4dba
00000290: 2149 bebc f9b4 003e d7ac 76bd cb1f e13d
000002a0: beef 813d bb88 3f3d ec0e 02bd a2d9 bcbd
000002b0: 563c e2bc e979 713d 2081 f83c 0156 3cbe
000002c0: 7a33 11be 8623 1c3e 6bf8 cabd c446 0d3d
000002d0: 0750 f4bd ae56 a0bd cd1d 97bd 901c 19be
000002e0: d7cf 1f3e 2fd5 2d3e 8a5e 5bbe 4aeb 813d
000002f0: aa2c 133e 1eb2 97bd 3de6 e7bd 1466 9fbd
00000300: 2203 fe3c d7a9 4ebe 3efc 4c3e 293d d53d
00000310: 6fa2 393d 9bdd c9bc a0b2 d43d cc21 1abd
00000320: 5892 0f3d cdcd 5fbd e48e bf3c a5df f23d
00000330: becd 813a afdb 5b3d 3b02 b7bd a270 91bc
00000340: 5e2a 05be 19a5 be3d 953d ac3d b310 26be
00000350: 379b 34bd 836c 463d 82c0 d0bd abfc 95be
00000360: 93ac ddbd 9b17 a1bd 54f5 49bc 95d5 e4bd
00000370: f10c 5f3d 862c 173e 8cbe 773d c0a4 9fbd
00000380: 0e5b f3ba 9a1b 3fbb f4b1 2c3d a901 f7bd
00000390: 3ea1 2d3e 652c 153d 92a2 3a3e 312c 0abe
000003a0: 8178 99bd 088b 4d3d 69eb a83d 8e34 243b
000003b0: 15c1 403e 4574 c83d ebfc 1cbe 41b3 123e
000003c0: c8e7 e43d 6b82 e0bd d65f b3bc c76e 3f3e
000003d0: 9563 56be db32 b53d d0cb e73c 3817 04be
000003e0: 329c c23c ec36 083e 8d09 1d3d 63e3 0cbd
000003f0: 14b3 1a3e a9a7 b4bd 66f5 85bd acd5 a3bd

bias f4 [50]
-0.1408672 -0.09049707 0.075546354 0.10792913 0.012196919 0.04021288 0.12864465 -0.114844754
0.10151269 0.038918722 -0.08597374 -0.031245792 0.120717816 0.03210388 -0.16675802 0.008141835
0.035381548 0.008395369 0.13121442 0.0659634 0.08719269 -0.026280856 0.099468574 -0.17791505
0.036268722 -0.12879947 0.0790584 -0.10695185 -0.034280773 -0.12501535 -0.03474512 -0.097932585
-0.026274236 -0.018204758 -0.055770062 -0.012461401 -0.12237189 -0.15565687 -0.12534304 0.015856909
-0.10282065 -0.08309364 0.027756901 -0.1162819 0.057441458 -0.06947857 -0.10871444 -0.11455921
0.075931415 0.044938065
00000000: 7e3f 10be 8756 b9bd 0cb8 9a3d f309 dd3d
00000010: 96d5 473c 43b6 243d 6cbb 033e ba33 ebbd
00000020: e3e5 cf3d 3d69 1f3d 0013 b0bd 2df7 ffbc
00000030: e73a f73d 5c7f 033d 9dc2 2abe 5565 053c
00000040: 3eec 103d bb8c 093c 135d 063e d217 873d
00000050: 1592 b23d f34a d7bc 2eb6 cb3d 5d2f 36be
00000060: 838e 143d 02e4 03be 5fe9 a13d 9209 dbbd
00000070: ff69 0cbd 0604 00be e650 0ebd e190 c8bd
00000080: 113d d7bc 2522 95bc 266f 64bd e72a 4cbc
00000090: 1d9e fabd 8464 1fbe ed59 00be 59e6 813c
000000a0: a293 d2bd 002d aabd 7162 e33c 3425 eebd
000000b0: bc47 6b3d c84a 8ebd ada5 debd 059e eabd
000000c0: ee81 9b3d fa10 383d

mask f4 [50, 50]
1.0 1.0 1.0 1.0 1.0 1.0 1.0 1.0
1.0 1.0 1.0 1.0 1.0 1.0 1.0 1.0
1.0 1.0 1.0 1.0 1.0 1.0 1.0 1.0
1.0 1.0 1.0 1.0 1.0 1.0 1.0 1.0
1.0 1.0 1.0 1.0 1.0 1.0 1.0 1.0
1.0 1.0 1.0 1.0 1.0 1.0 1.0 1.0
1.0 1.0 1.0 1.0 1.0 1.0 1.0 1.0
1.0 1.0 1.0 1.0 1.0 1.0 1.0 1.0
1.0 1.0 1.0 1.0 1.0 1.0 1.0 1.0
1.0 1.0 1.0 1.0 1.0 1.0 1.0 1.0
1.0 1.0 1.0 1.0 1.0 1.0 1.0 1.0
1.0 1.0 1.0 1.0 1.0 1.0 1.0 1.0
1.0 1.0 1.0 1.0 1.0 1.0 1.0 1.0
1.0 1.0 1.0 1.0 1.0 1.0 1.0 1.0
1.0 1.0 1.0 1.0 1.0 1.0 1.0 1.0
1.0 1.0 1.0 1.0 1.0 1.0 1.0 1.0
1.0 1.0 1.0 1.0 1.0 1.0 1.0 1.0
1.0 1.0 1.0 1.0 1.0 1.0 1.0 1.0
1.0 1.0 1.0 1.0 1.0 1.0 1.0 1.0
1.0 1.0 1.0 1.0 1.0 1.0 1.0 1.0
1.0 1.0 1.0 1.0 1.0 1.0 1.0 1.0
1.0 1.0 1.0 1.0 1.0 1.0 1.0 1.0
1.0 1.0 1.0 1.0 1.0 1.0 1.0 1.0
1.0 1.0 1.0 1.0 1.0 1.0 1.0 1.0
1.0 1.0 1.0 1.0 1.0 1.0 1.0 1.0
1.0 1.0 1.0 1.0 1.0 1.0 1.0 1.0
1.0 1.0 1.0 1.0 1.0 1.0 1.0 1.0
1.0 1.0 1.0 1.0 1.0 1.0 1.0 1.0
1.0 1.0 1.0 1.0 1.0 1.0 1.0 1.0
1.0 1.0 1.0 1.0 1.0 1.0 1.0 1.0
1.0 1.0 1.0 1.0 1.0 1.0 1.0 1.0
1.0 1.0 1.0 1.0 1.0 1.0 1.0 1.0
00000000: 0000 803f 0000 803f 0000 803f 0000 803f
00000010: 0000 803f 0000 803f 0000 803f 0000 803f
00000020: 0000 803f 0000 803f 0000 803f 0000 803f
00000030: 0000 803f 0000 803f 0000 803f 0000 803f
00000040: 0000 803f 0000 803f 0000 803f 0000 803f
00000050: 0000 803f 0000 803f 0000 803f 0000 803f
00000060: 0000 803f 0000 803f 0000 803f 0000 803f
00000070: 0000 803f 0000 803f 0000 803f 0000 803f
00000080: 0000 803f 0000 803f 0000 803f 0000 803f
00000090: 0000 803f 0000 803f 0000 803f 0000 803f
000000a0: 0000 803f 0000 803f 0000 803f 0000 803f
000000b0: 0000 803f 0000 803f 0000 803f 0000 803f
000000c0: 0000 803f 0000 803f 0000 803f 0000 803f
000000d0: 0000 803f 0000 803f 0000 803f 0000 803f
000000e0: 0000 803f 0000 803f 0000 803f 0000 803f
000000f0: 0000 803f 0000 803f 0000 803f 0000 803f
00000100: 0000 803f 0000 803f 0000 803f 0000 803f
00000110: 0000 803f 0000 803f 0000 803f 0000 803f
00000120: 0000 803f 0000 803f 0000 803f 0000 803f
00000130: 0000 803f 0000 803f 0000 803f 0000 803f
00000140: 0000 803f 0000 803f 0000 803f 0000 803f
00000150: 0000 803f 0000 803f 0000 803f 0000 803f
00000160: 0000 803f 0000 803f 0000 803f 0000 803f
00000170: 0000 803f 0000 803f 0000 803f 0000 803f
00000180: 0000 803f 0000 803f 0000 803f 0000 803f
00000190: 0000 803f 0000 803f 0000 803f 0000 803f
000001a0: 0000 803f 0000 803f 0000 803f 0000 803f
000001b0: 0000 803f 0000 803f 0000 803f 0000 803f
000001c0: 0000 803f 0000 803f 0000 803f 0000 803f
000001d0: 0000 803f 0000 803f 0000 803f 0000 803f
000001e0: 0000 803f 0000 803f 0000 803f 0000 803f
000001f0: 0000 803f 0000 803f 0000 803f 0000 803f
00000200: 0000 803f 0000 803f 0000 803f 0000 803f
00000210: 0000 803f 0000 803f 0000 803f 0000 803f
00000220: 0000 803f 0000 803f 0000 803f 0000 803f
00000230: 0000 803f 0000 803f 0000 803f 0000 803f
00000240: 0000 803f 0000 803f 0000 803f 0000 803f
00000250: 0000 803f 0000 803f 0000 803f 0000 803f
00000260: 0000 803f 0000 803f 0000 803f 0000 803f
00000270: 0000 803f 0000 803f 0000 803f 0000 803f
00000280: 0000 803f 0000 803f 0000 803f 0000 803f
00000290: 0000 803f 0000 803f 0000 803f 0000 803f
000002a0: 0000 803f 0000 803f 0000 803f 0000 803f
000002b0: 0000 803f 0000 803f 0000 803f 0000 803f
000002c0: 0000 803f 0000 803f 0000 803f 0000 803f
000002d0: 0000 803f 0000 803f 0000 803f 0000 803f
000002e0: 0000 803f 0000 803f 0000 803f 0000 803f
000002f0: 0000 803f 0000 803f 0000 803f 0000 803f
00000300: 0000 803f 0000 803f 0000 803f 0000 803f
00000310: 0000 803f 0000 803f 0000 803f 0000 803f
00000320: 0000 803f 0000 803f 0000 803f 0000 803f
00000330: 0000 803f 0000 803f 0000 803f 0000 803f
00000340: 0000 803f 0000 803f 0000 803f 0000 803f
00000350: 0000 803f 0000 803f 0000 803f 0000 803f
00000360: 0000 803f 0000 803f 0000 803f 0000 803f
00000370: 0000 803f 0000 803f 0000 803f 0000 803f
00000380: 0000 803f 0000 803f 0000 803f 0000 803f
00000390: 0000 803f 0000 803f 0000 803f 0000 803f
000003a0: 0000 803f 0000 803f 0000 803f 0000 803f
000003b0: 0000 803f 0000 803f 0000 803f 0000 803f
000003c0: 0000 803f 0000 803f 0000 803f 0000 803f
000003d0: 0000 803f 0000 803f 0000 803f 0000 803f
000003e0: 0000 803f 0000 803f 0000 803f 0000 803f
000003f0: 0000 803f 0000 803f 0000 803f 0000 803f

weight f4 [50, 50]
0.12660833 0.26219633 0.32819286 0.030543344 -0.0011020238 0.009328081 -0.07549273 0.17166558
-0.06227574 0.0018482957 -0.2777655 -0.06434088 -0.14352813 -0.18351786 -0.041708108 0.014105714
0.13601029 -0.22468904 0.10770007 -0.10745991 -0.17882378 0.06853929 0.08751104 -0.119027376
0.11629438 0.10146003 0.08339861 0.061729543 -0.15713832 0.048064232 -0.1417116 -0.004956517
-0.048835278 -0.06996111 0.14301853 0.16169944 0.17412128 0.003621275 -0.17634135 0.25982517
0.17128326 -0.12609735 0.10643912 0.106659256 -0.0017419822 -0.123579346 0.1507095 -0.019492393
0.07341966 -0.19164446 -0.15701184 -0.14235546 0.099751815 0.021330973 0.004486226 0.09417511
-0.01869412 -0.17361073 -0.001135702 0.14234324 -0.21277066 0.03875834 0.25397554 0.08499781
-0.04437295 0.11606419 0.041185964 -0.05980293 0.09470121 0.09880618 -0.055457957 -0.15734467
0.094595656 -0.12538606 0.10733695 -0.08579344 0.12914068 -0.03807423 -0.002458469 0.033156447
0.044885196 -0.2583317 -0.0039728424 -0.0710084 -0.087273754 -0.06270569 -0.03932523 -0.15531698
0.116243586 -0.07383543 0.07580267 -0.1703047 0.22119732 -0.24126053 0.12980786 0.113205366
0.00069624773 -0.14300565 0.19938152 -0.15180145 0.08817127 0.3080395 0.28755018 0.055433422
0.19168916 -0.18504748 -0.17036535 0.0052637644 -0.030786874 0.07980504 -0.1690887 -0.07494418
0.03617147 -0.09572155 0.07000325 -0.017681956 0.11665951 -0.011053428 0.19774087 -0.10937769
-0.3058018 0.0012786397 -0.041976877 0.07674674 0.29708466 0.17974184 -0.029467106 0.104990885
-0.14214244 0.004556397 -0.08885667 0.022913355 0.0139250485 -0.047681637 0.12615502 0.056147054
0.29230687 -0.08327841 0.057850305 0.08212888 0.2258965 -0.09771305 -0.086663105 0.1414766
-0.038345505 0.07906089 0.025523366 0.10788199 -0.17544764 -0.19262189 0.11820085 -0.042199757
-0.3087546 0.041310158 -0.03231673 0.11642225 0.092538506 -0.14561225 0.1298764 -0.052848984
0.0069040405 -0.10382909 0.03323463 0.30922356 -0.047207814 0.014048991 -0.10270049 0.25746658
-0.08626326 0.25317553 0.23851076 -0.081839286 0.0035591403 0.008968681 -0.34087062 -0.17968088
0.049250484 -0.22166038 -0.035848003 0.15660074 -0.08534086 0.09847538 0.020223029 0.15547378
-0.21913588 -0.15398547 0.0773136 0.08613885 -0.068718985 -0.25237393 -0.023838384 0.07247533
-0.15518157 0.019228185 0.025734086 0.022484483 -0.08174443 -0.052102134 -0.017220138 0.029447312
0.15746187 -0.010991426 0.14189805 -0.12466462 0.1254169 -0.07190654 -0.07689182 -0.0033033313
0.036967665 0.05347329 -0.12371274 0.23773174 0.11984206 -0.1303212 0.1806278 -0.23867637
-0.011175484 0.03658161 -0.077077605 -0.122116916 0.017847864 0.09238442 -0.13443959 0.2531782
-0.083038956 -0.1781801 -0.01234779 0.011298713 0.092609525 0.01892289 0.0065275463 0.017302668
0.06970526 0.11692198 0.15925309 -0.18852971 -0.04522973 -0.09633517 -0.18832502 0.031913456
0.057496585 0.16291572 -0.13588785 0.058182906 0.106655605 -0.02092011 -0.09003824 -0.006565198
-0.12234144 -0.0070236167 -0.050076894 0.09874288 -0.10061002 -0.0824932 -0.09973291 0.18702099
00000000: 9da5 013e 993e 863e e508 a83e 0936 fa3c
00000010: c871 90ba cfd4 183c ef9b 9abd 1ac9 2f3e
00000020: d914 7fbd 8342 f23a 4837 8ebe 27c5 83bd
00000030: 0af9 12be 1bec 3bbe 1fd6 2abd a71b 673c
00000040: 4846 0b3e e214 66be db91 dc3d f113 dcbd
00000050: 951d 37be 545e 8c3d fd38 b33d a0c4 f3bd
00000060: bf2b ee3d 47ca cf3d e4cc aa3d 1ed8 7c3d
00000070: dee8 20be 00df 443d d81c 11be 476a a2bb
00000080: 8007 48bd c547 8fbd 7373 123e 8a94 253e
00000090: d94c 323e ea52 6d3b d492 34be ce07 853e
000000a0: e164 2f3e aa1f 01be c1fc d93d 2b70 da3d
000000b0: 3953 e4ba 2b17 fdbd 9753 1a3e 83ae 9fbc
000000c0: 0c5d 963d 723e 44be b6c7 20be a1c5 11be
000000d0: ae4a cc3d 4bbe ae3c 3101 933b e1de c03d
000000e0: 6924 99bc 03c7 31be d6db 94ba 6dc2 113e
000000f0: 8de0 59be 11c1 1e3d 1509 823e 5513 ae3d
00000100: 69c0 35bd 10b3 ed3d 9db2 283d ebf3 74bd
00000110: b5f2 c13d e55a ca3d e227 63bd f61e 21be
00000120: 5ebb c13d 3465 00be 7ad3 db3d 79b4 afbd
00000130: 743d 043e b9f3 1bbd 441e 21bb 0ecf 073d
00000140: 8ad9 373d 0d44 84be 9e2e 82bb da6c 91bd
00000150: 95bc b2bd d76b 80bd 7e13 21bd 6a0b 1fbe
00000160: 1e11 ee3d 0837 97bd 6e3e 9b3d 5b64 2ebe
00000170: 8d81 623e 000d 77be 5aec 043e 37d8 e73d
00000180: 6584 363a 1370 12be ab2a 4c3e d771 1bbe
00000190: 2493 b43d 5ab7 9d3e c739 933e 280e 633d
000001a0: 2a4a 443e 167d 3dbe 4174 2ebe a87b ac3b
000001b0: c134 fcbc d370 a33d 9725 2dbe 567c 99bd
000001c0: 8928 143d a909 c4bd dd5d 8f3d c0d9 90bc
000001d0: 2eeb ee3d 7019 35bc 957c 4a3e 6901 e0bd
000001e0: 0e92 9cbe 0798 a73a f2ef 2bbd 652d 9d3d
000001f0: 7b1b 983e 3f0e 383e 0065 f1bc 7605 d73d
00000200: ca8d 11be d44d 953b 7cfa b5bd cab4 bb3c
00000210: e325 643c d24d 43bd c82e 013e 74fa 653d
00000220: 3fa9 953e df8d aabd 71f4 6c3d 3033 a83d
00000230: 6951 673e c81d c8bd 6d7c b1bd 3edf 103e
00000240: 2d10 1dbd adea a13d 6116 d13c 3cf1 dc3d
00000250: 8ca8 33be ac3e 45be 4a13 f23d a7d9 2cbd
00000260: 1515 9ebe d734 293d 8c5e 04bd ca6e ee3d
00000270: d484 bd3d 611b 15be 52fe 043e 2d78 58bd
00000280: 4a3b e23b 59a4 d4bd 0921 083d 8d52 9e3e
00000290: fb5c 41bd bd2d 663c a254 d2bd a9d2 833e
000002a0: cbaa b0bd 39a0 813e 2a3c 743e 5b9b a7bd
000002b0: 7740 693b 60f1 123c 9886 aebe 44fe 37be
000002c0: e0ba 493d f0fa 62be 5bd5 12bd f25b 203e
000002d0: 30c7 aebd 76ad c93d c4aa a53c 8534 1f3e
000002e0: 2865 60be 5eae 1dbe 9856 9e3d 9169 b03d
000002f0: 8abc 8cbd 2837 81be b748 c3bc f26d 943d
00000300: ebe7 1ebe 6d84 9d3c 4ad0 d23c 6131 b83c
00000310: a069 a7bd 0c69 55bd 3f11 8dbc 7d3b f13c
00000320: af3d 213e 6215 34bc b94d 113e 2a50 ffbd
00000330: 4a6d 003e bc43 93bd 7579 9dbd b47c 58bb
00000340: 686b 173d cf06 5b3d 1b5d fdbd f36f 733e
00000350: c16f f53d ec72 05be 7ef6 383e 9467 74be
00000360: 6119 37bc 99d6 153d ddda 9dbd 6f18 fabd
00000370: af35 923c 0b34 bd3d 88aa 09be 93a0 813e
00000380: 5410 aabd d874 36be 634e 4abc 3d1e 393c
00000390: 10aa bd3d 2d04 9b3c 07e5 d53b 53be 8d3c
000003a0: a2c1 8e3d cb74 ef3d 3e13 233e ef0d 41be
000003b0: cf42 39bd 604b c5bd 46d8 40be afb7 023d
000003c0: 8a81 6b3d 61d3 263e 2f26 0bbe 3351 6e3d
000003d0: 416e da3d a760 abbc f865 b8bd df20 d7bb
000003e0: 268e fabd 5e26 e6bb 6e1d 4dbd b539 ca3d
000003f0: a00c cebd 32f2 a8bd c540 ccbd 6e82 3f3e

bias f4 [50]
-0.13001788 0.12756486 -0.08821214 -0.119503625 -0.09812514 -0.18220729 0.06863315 -0.14353305
0.03657327 0.12609684 -0.015600829 0.01992987 0.04936458 0.121165134 -0.07794875 -0.24005991
0.014937931 0.10303362 -0.08221612 -0.14219046 -0.016979622 -0.18516552 -0.1463434 -0.055841938
0.15571666 -0.08380224 -0.13041954 0.09115723 0.108569376 -0.0054857866 -0.07379061 -0.031512123
-0.1482213 0.05507614 0.0834461 0.039411597 -0.0007611004 0.0051865974 0.012652188 -0.050547987
-0.010113425 0.13042697 0.15828142 0.1134229 -0.008920887 -0.06105018 -0.11897042 -0.14574109
0.057960298 -0.096406735
00000000: 6823 05be 5da0 023e 91a8 b4bd 51be f4bd
00000010: d5f5 c8bd 8c94 3abe 898f 8c3d 54fa 12be
00000020: dacd 153d 881f 013e 9f9a 7fbc f743 a33c
00000030: 8432 4a3d 6d25 f83d 98a3 9fbd 44d2 75be
00000040: 39be 743c 4a03 d33d ed60 a8bd 609a 11be
00000050: d918 8bbc 089c 3dbe 0bdb 15be 84ba 64bd
00000060: 3074 1f3e 82a0 abbd b38c 05be a4b0 ba3d
00000070: 9f59 de3d 1dc2 b3bb 881f 97bd db12 01bd
00000080: 53c7 17be 8597 613d cae5 aa3d 0e6e 213d
00000090: 9584 47ba 55f4 a93b 1f4b 4f3c 680b 4fbd
000000a0: c7b2 25bc a68e 053e 8614 223e 444a e83d
000000b0: e928 12bc c10f 7abd c3a6 f3bd 273d 15be
000000c0: c767 6d3d e570 c5bd

mask f4 [50, 50]
1.0 1.0 1.0 1.0 1.0 1.0 1.0 1.0
1.0 1.0 1.0 1.0 1.0 1.0 1.0 1.0
1.0 1.0 1.0 1.0 1.0 1.0 1.0 1.0
1.0 1.0 1.0 1.0 1.0 1.0 1.0 1.0
1.0 1.0 1.0 1.0 1.0 1.0 1.0 1.0
1.0 1.0 1.0 1.0 1.0 1.0 1.0 1.0
1.0 1.0 1.0 1.0 1.0 1.0 1.0 1.0
1.0 1.0 1.0 1.0 1.0 1.0 1.0 1.0
1.0 1.0 1.0 1.0 1.0 1.0 1.0 1.0
1.0 1.0 1.0 1.0 1.0 1.0 1.0 1.0
1.0 1.0 1.0 1.0 1.0 1.0 1.0 1.0
1.0 1.0 1.0 1.0 1.0 1.0 1.0 1.0
1.0 1.0 1.0 1.0 1.0 1.0 1.0 1.0
1.0 1.0 1.0 1.0 1.0 1.0 1.0 1.0
1.0 1.0 1.0 1.0 1.0 1.0 1.0 1.0
1.0 1.0 1.0 1.0 1.0 1.0 1.0 1.0
1.0 1.0 1.0 1.0 1.0 1.0 1.0 1.0
1.0 1.0 1.0 1.0 1.0 1.0 1.0 1.0
1.0 1.0 1.0 1.0 1.0 1.0 1.0 1.0
1.0 1.0 1.0 1.0 1.0 1.0 1.0 1.0
1.0 1.0 1.0 1.0 1.0 1.0 1.0 1.0
1.0 1.0 1.0 1.0 1.0 1.0 1.0 1.0
1.0 1.0 1.0 1.0 1.0 1.0 1.0 1.0
1.0 1.0 1.0 1.0 1.0 1.0 1.0 1.0
1.0 1.0 1.0 1.0 1.0 1.0 1.0 1.0
1.0 1.0 1.0 1.0 1.0 1.0 1.0 1.0
1.0 1.0 1.0 1.0 1.0 1.0 1.0 1.0
1.0 1.0 1.0 1.0 1.0 1.0 1.0 1.0
1.0 1.0 1.0 1.0 1.0 1.0 1.0 1.0
1.0 1.0 1.0 1.0 1.0 1.0 1.0 1.0
1.0 1.0 1.0 1.0 1.0 1.0 1.0 1.0
1.0 1.0 1.0 1.0 1.0 1.0 1.0 1.0
00000000: 0000 803f 0000 803f 0000 803f 0000 803f
00000010: 0000 803f 0000 803f 0000 803f 0000 803f
00000020: 0000 803f 0000 803f 0000 803f 0000 803f
00000030: 0000 803f 0000 803f 0000 803f 0000 803f
00000040: 0000 803f 0000 803f 0000 803f 0000 803f
00000050: 0000 803f 0000 803f 0000 803f 0000 803f
00000060: 0000 803f 0000 803f 0000 803f 0000 803f
00000070: 0000 803f 0000 803f 0000 803f 0000 803f
00000080: 0000 803f 0000 803f 0000 803f 0000 803f
00000090: 0000 803f 0000 803f 0000 803f 0000 803f
000000a0: 0000 803f 0000 803f 0000 803f 0000 803f
000000b0: 0000 803f 0000 803f 0000 803f 0000 803f
000000c0: 0000 803f 0000 803f 0000 803f 0000 803f
000000d0: 0000 803f 0000 803f 0000 803f 0000 803f
000000e0: 0000 803f 0000 803f 0000 803f 0000 803f
000000f0: 0000 803f 0000 803f 0000 803f 0000 803f
00000100: 0000 803f 0000 803f 0000 803f 0000 803f
00000110: 0000 803f 0000 803f 0000 803f 0000 803f
00000120: 0000 803f 0000 803f 0000 803f 0000 803f
00000130: 0000 803f 0000 803f 0000 803f 0000 803f
00000140: 0000 803f 0000 803f 0000 803f 0000 803f
00000150: 0000 803f 0000 803f 0000 803f 0000 803f
00000160: 0000 803f 0000 803f 0000 803f 0000 803f
00000170: 0000 803f 0000 803f 0000 803f 0000 803f
00000180: 0000 803f 0000 803f 0000 803f 0000 803f
00000190: 0000 803f 0000 803f 0000 803f 0000 803f
000001a0: 0000 803f 0000 803f 0000 803f 0000 803f
000001b0: 0000 803f 0000 803f 0000 803f 0000 803f
000001c0: 0000 803f 0000 803f 0000 803f 0000 803f
000001d0: 0000 803f 0000 803f 0000 803f 0000 803f
000001e0: 0000 803f 0000 803f 0000 803f 0000 803f
000001f0: 0000 803f 0000 803f 0000 803f 0000 803f
00000200: 0000 803f 0000 803f 0000 803f 0000 803f
00000210: 0000 803f 0000 803f 0000 803f 0000 803f
00000220: 0000 803f 0000 803f 0000 803f 0000 803f
00000230: 0000 803f 0000 803f 0000 803f 0000 803f
00000240: 0000 803f 0000 803f 0000 803f 0000 803f
00000250: 0000 803f 0000 803f 0000 803f 0000 803f
00000260: 0000 803f 0000 803f 0000 803f 0000 803f
00000270: 0000 803f 0000 803f 0000 803f 0000 803f
00000280: 0000 803f 0000 803f 0000 803f 0000 803f
00000290: 0000 803f 0000 803f 0000 803f 0000 803f
000002a0: 0000 803f 0000 803f 0000 803f 0000 803f
000002b0: 0000 803f 0000 803f 0000 803f 0000 803f
000002c0: 0000 803f 0000 803f 0000 803f 0000 803f
000002d0: 0000 803f 0000 803f 0000 803f 0000 803f
000002e0: 0000 803f 0000 803f 0000 803f 0000 803f
000002f0: 0000 803f 0000 803f 0000 803f 0000 803f
00000300: 0000 803f 0000 803f 0000 803f 0000 803f
00000310: 0000 803f 0000 803f 0000 803f 0000 803f
00000320: 0000 803f 0000 803f 0000 803f 0000 803f
00000330: 0000 803f 0000 803f 0000 803f 0000 803f
00000340: 0000 803f 0000 803f 0000 803f 0000 803f
00000350: 0000 803f 0000 803f 0000 803f 0000 803f
00000360: 0000 803f 0000 803f 0000 803f 0000 803f
00000370: 0000 803f 0000 803f 0000 803f 0000 803f
00000380: 0000 803f 0000 803f 0000 803f 0000 803f
00000390: 0000 803f 0000 803f 0000 803f 0000 803f
000003a0: 0000 803f 0000 803f 0000 803f 0000 803f
000003b0: 0000 803f 0000 803f 0000 803f 0000 803f
000003c0: 0000 803f 0000 803f 0000 803f 0000 803f
000003d0: 0000 803f 0000 803f 0000 803f 0000 803f
000003e0: 0000 803f 0000 803f 0000 803f 0000 803f
000003f0: 0000 803f 0000 803f 0000 803f 0000 803f

weight f4 [4, 50]
0.10077353 0.0038913637 -0.07210092 0.05318451 -0.11532791 7.644296e-05 -0.11390576 -0.055042543
-0.13779552 0.019674212 -0.04688018 0.06715651 0.043406725 0.13185994 -0.026291966 -0.009130985
-0.053322658 -0.056371123 0.022864342 -0.039094403 -0.09093329 0.11132251 -0.11925541 -0.036582507
0.12620805 -0.08404915 0.07645324 -0.051033698 0.06731966 -0.11533361 0.09136069 -0.13517275
-0.071134865 0.04939522 -0.1405104 0.04695104 0.12158875 0.11913158 -0.015518695 -0.027615428
-0.09297204 0.003782913 0.10080233 -0.13890958 -0.1308687 0.13938098 0.09358765 -0.037296824
0.09743123 0.0136884 -0.05122889 -0.025515601 -0.0017513037 0.11118434 0.009496093 0.036809444
0.10870053 0.09556852 0.081653565 0.015240237 0.09212963 0.06513421 -0.064792134 -0.014601871
0.08488202 -0.013508692 -0.030689463 -0.014911205 -0.012210518 0.091233 0.04916902 -0.10520692
0.079875216 -0.01526621 0.13866822 -0.09592128 -0.010315552 0.09814899 -0.07148111 0.006483227
0.012384206 -0.09018974 0.049775973 -0.10644732 -0.010178596 -0.0014110953 0.056143314 0.06729166
-0.13611172 -0.043968536 -0.13674764 -0.13448656 -0.08638179 0.048803106 0.117660716 -0.01305382
0.053738236 0.08914176 0.13269357 0.11683111 -0.09447959 0.13294041 -0.055733535 0.09331993
-0.19043998 -0.15429091 0.15942883 -0.2023108 0.20768584 0.12765463 -0.14463271 0.17443587
-0.08057821 -0.1427591 -0.14426723 -0.13944173 -0.104039975 0.04162008 -0.11519556 0.17283934
0.10219474 -0.052791223 -0.13569202 0.04176012 0.17789017 -0.123262644 -0.16091879 0.166009
0.18562445 -0.03875722 0.1466145 0.05197388 -0.21186578 0.18715149 -0.062131964 -0.0025168248
0.08193929 0.22390595 -0.11066238 -0.12083048 0.13820314 -0.042969327 0.20200609 0.03343461
0.08658763 -0.009429799 -0.10383872 0.09295379 -0.17896926 -0.15668724 -0.2588844 0.10363469
-0.30722362 0.16274641 0.06318473 -0.10711966 0.06393034 0.04899286 -0.03951853 0.03551938
-0.052179426 0.035995226 0.12391256 0.25133252 -0.026057512 -0.077521555 0.06882272 0.059681565
-0.17021698 0.16062817 -0.16855787 -0.27257678 -0.009590002 -0.25677004 0.014886356 0.21654662
-0.2544934 0.11690171 0.08341368 0.19704577 -0.10590777 0.14740139 -0.11089034 0.14496991
-0.20582962 0.320904 0.03717462 0.19392507 0.18798636 -0.015345465 0.26203218 0.22528437
0.1702228 0.2686665 0.33610865 -0.21575662 0.007464317 -0.1569579 0.1422953 0.012900784
00000000: 5a62 ce3d 4006 7f3b a6a9 93bd 00d8 593d
00000010: 0a31 ecbd 0050 a038 6c47 e9bd 4a74 61bd
00000020: 451a 0dbe d02b a13c 6e05 40bd 5a89 893d
00000030: 40cb 313d 4b06 073e 4062 d7bc 209a 15bc
00000040: dc68 5abd 68e5 66bd 004e bb3c 7421 20bd
00000050: 3c3b babd 0efd e33d 2e3c f4bd 8ad7 15bd
00000060: af3c 013e f621 acbd 8493 9c3d b608 51bd
00000070: e4de 893d 0734 ecbd 501b bb3d ba6a 0abe
00000080: 28af 91bd a452 4a3d f5e1 0fbe bc4f 403d
00000090: 8603 f93d 42fb f33d 2042 7ebc c039 e2bc
000000a0: 2068 bebd c0ea 773b 7471 ce3d 503e 0ebe
000000b0: 7202 06be e3b9 0e3e e2aa bf3d 8ec4 18bd
000000c0: 068a c73d 5045 603c 62d5 51bd 1806 d1bc
000000d0: 008c e5ba 9eb4 e33d 8095 1b3c 80c5 163d
000000e0: 629e de3d 6eb9 c33d fc39 a73d 30b2 793c
000000f0: 76ae bc3d 1665 853d bdb1 84bd b03c 6fbc
00000100: a0d6 ad3d 9053 5dbc 7868 fbbc 204e 74bc
00000110: a00e 48bc 5ed8 ba3d 7465 493d ba76 d7bd
00000120: 9e95 a33d 201f 7abc 0bff 0d3e 6072 c4bd
00000130: 9002 29bc 5602 c93d b064 92bd 4071 d43b
00000140: 20e7 4a3c 66b5 b8bd e4e1 4b3d 0d01 dabd
00000150: 20c4 26bc 80f4 b8ba 88f6 653d 36d0 893d
00000160: df60 0bbe 5a18 34bd 9307 0cbe d8b6 09be
00000170: f0e8 b0bd c4e5 473d 1af8 f03d b0df 55bc
00000180: a01c 5c3d f48f b63d d3e0 073e 2645 ef3d
00000190: 847e c1bd 8821 083e d948 64bd 851e bf3d
000001a0: b302 43be 70fe 1dbe 5041 233e 902a 4fbe
000001b0: 99ab 543e e5b7 023e 991a 14be 519f 323e
000001c0: 3006 a5bd 712f 12be caba 13be d0c9 0ebe
000001d0: e912 d5bd d179 2a3d a6eb ebbd ccfc 303e
000001e0: 7a4b d13d 9c3b 58bd d9f2 0abe a90c 2b3d
000001f0: d728 363e 2071 fcbd e5c7 24be 43fe 293e
00000200: 5614 3e3e e4bf 1ebd 1d22 163e 90e2 543d
00000210: 58f3 58be a4a4 3f3e 167e 7ebd 50f1 24bb
00000220: c9cf a73d 9a47 653e f5a2 e2bd f875 f7bd
00000230: 2085 0d3e 9b00 30bd afda 4e3e bbf2 083d
00000240: db54 b13d 727f 1abc 65a9 d4bd 8f5e be3d
00000250: b843 37be 9f72 20be 7f8c 84be 6d3e d43d
00000260: 6a4c 9dbe ffa6 263e ff66 813d 8d61 dbbd
00000270: e9ed 823d bdac 483d 2fde 21bd c57c 113d
00000280: 18ba 55bd bb6f 133d dec5 fd3d a8ae 803e
00000290: 9076 d5bc 9fc3 9ebd edf2 8c3d a874 743d
000002a0: 5c4d 2ebe b67b 243e 6f9a 2cbe 2f8f 8bbe
000002b0: 621f 1dbc 5d77 83be e7e5 733c 66be 5d3e
000002c0: f54c 82be 2a6a ef3d cbd4 aa3d 5ec6 493e
000002d0: 2ce6 d8bd 64f0 163e 791a e3bd fe72 143e
000002e0: 00c5 52be 874d a43e 6a44 183d 4b94 463e
000002f0: 7f7f 403e 8c6b 7bbc 1529 863e f2b0 663e
00000300: e34e 2e3e a88e 893e 6f16 ac3e 4eef 5cbe
00000310: 3b97 f43b 92b9 20be dcb5 113e cf5d 533c

bias f4 [4]
0.19562943 0.010095245 0.04394885 -0.067431994
00000000: 1553 483e 8766 253c b603 343d c919 8abd

mask f4 [4, 50]
0.0 0.0 0.0 0.0 0.0 0.0 0.0 0.0
0.0 0.0 0.0 0.0 0.0 0.0 0.0 0.0
0.0 0.0 0.0 0.0 0.0 0.0 0.0 0.0
0.0 0.0 0.0 0.0 0.0 0.0 0.0 0.0
0.0 0.0 0.0 0.0 0.0 0.0 0.0 0.0
0.0 0.0 0.0 0.0 0.0 0.0 0.0 0.0
0.0 0.0 0.0 0.0 0.0 0.0 0.0 0.0
0.0 0.0 0.0 0.0 0.0 0.0 0.0 0.0
0.0 0.0 0.0 0.0 0.0 0.0 0.0 0.0
0.0 0.0 0.0 0.0 0.0 0.0 0.0 0.0
0.0 0.0 0.0 0.0 0.0 0.0 0.0 0.0
0.0 0.0 0.0 0.0 0.0 0.0 0.0 0.0
0.0 0.0 0.0 0.0 1.0 1.0 1.0 1.0
1.0 1.0 1.0 1.0 1.0 1.0 1.0 1.0
1.0 1.0 1.0 1.0 1.0 1.0 1.0 1.0
1.0 1.0 1.0 1.0 1.0 1.0 1.0 1.0
1.0 1.0 1.0 1.0 1.0 1.0 1.0 1.0
1.0 1.0 1.0 1.0 1.0 1.0 1.0 1.0
1.0 1.0 1.0 1.0 1.0 1.0 1.0 1.0
1.0 1.0 1.0 1.0 1.0 1.0 1.0 1.0
1.0 1.0 1.0 1.0 1.0 1.0 1.0 1.0
1.0 1.0 1.0 1.0 1.0 1.0 1.0 1.0
1.0 1.0 1.0 1.0 1.0 1.0 1.0 1.0
1.0 1.0 1.0 1.0 1.0 1.0 1.0 1.0
1.0 1.0 1.0 1.0 1.0 1.0 1.0 1.0
00000000: 0000 0000 0000 0000 0000 0000 0000 0000
00000010: 0000 0000 0000 0000 0000 0000 0000 0000
00000020: 0000 0000 0000 0000 0000 0000 0000 0000
00000030: 0000 0000 0000 0000 0000 0000 0000 0000
00000040: 0000 0000 0000 0000 0000 0000 0000 0000
00000050: 0000 0000 0000 0000 0000 0000 0000 0000
00000060: 0000 0000 0000 0000 0000 0000 0000 0000
00000070: 0000 0000 0000 0000 0000 0000 0000 0000
00000080: 0000 0000 0000 0000 0000 0000 0000 0000
00000090: 0000 0000 0000 0000 0000 0000 0000 0000
000000a0: 0000 0000 0000 0000 0000 0000 0000 0000
000000b0: 0000 0000 0000 0000 0000 0000 0000 0000
000000c0: 0000 0000 0000 0000 0000 0000 0000 0000
000000d0: 0000 0000 0000 0000 0000 0000 0000 0000
000000e0: 0000 0000 0000 0000 0000 0000 0000 0000
000000f0: 0000 0000 0000 0000 0000 0000 0000 0000
00000100: 0000 0000 0000 0000 0000 0000 0000 0000
00000110: 0000 0000 0000 0000 0000 0000 0000 0000
00000120: 0000 0000 0000 0000 0000 0000 0000 0000
00000130: 0000 0000 0000 0000 0000 0000 0000 0000
00000140: 0000 0000 0000 0000 0000 0000 0000 0000
00000150: 0000 0000 0000 0000 0000 0000 0000 0000
00000160: 0000 0000 0000 0000 0000 0000 0000 0000
00000170: 0000 0000 0000 0000 0000 0000 0000 0000
00000180: 0000 0000 0000 0000 0000 0000 0000 0000
00000190: 0000 803f 0000 803f 0000 803f 0000 803f
000001a0: 0000 803f 0000 803f 0000 803f 0000 803f
000001b0: 0000 803f 0000 803f 0000 803f 0000 803f
000001c0: 0000 803f 0000 803f 0000 803f 0000 803f
000001d0: 0000 803f 0000 803f 0000 803f 0000 803f
000001e0: 0000 803f 0000 803f 0000 803f 0000 803f
000001f0: 0000 803f 0000 803f 0000 803f 0000 803f
00000200: 0000 803f 0000 803f 0000 803f 0000 803f
00000210: 0000 803f 0000 803f 0000 803f 0000 803f
00000220: 0000 803f 0000 803f 0000 803f 0000 803f
00000230: 0000 803f 0000 803f 0000 803f 0000 803f
00000240: 0000 803f 0000 803f 0000 803f 0000 803f
00000250: 0000 803f 0000 803f 0000 803f 0000 803f
00000260: 0000 803f 0000 803f 0000 803f 0000 803f
00000270: 0000 803f 0000 803f 0000 803f 0000 803f
00000280: 0000 803f 0000 803f 0000 803f 0000 803f
00000290: 0000 803f 0000 803f 0000 803f 0000 803f
000002a0: 0000 803f 0000 803f 0000 803f 0000 803f
000002b0: 0000 803f 0000 803f 0000 803f 0000 803f
000002c0: 0000 803f 0000 803f 0000 803f 0000 803f
000002d0: 0000 803f 0000 803f 0000 803f 0000 803f
000002e0: 0000 803f 0000 803f 0000 803f 0000 803f
000002f0: 0000 803f 0000 803f 0000 803f 0000 803f
00000300: 0000 803f 0000 803f 0000 803f 0000 803f
00000310: 0000 803f 0000 803f 0000 803f 0000 803f

weight f4 [50, 2]
-0.47562265 -0.14473397 -0.036616456 -0.48851332 0.4262962 -0.0674206 0.35501155 -0.1576792
0.43793538 -0.30815104 0.4652169 -0.13284099 -0.56123585 0.6874208 -0.32515228 0.2821653
-0.11029312 0.072221816 0.64602315 -0.54620826 0.23516731 -0.32228 -0.09718238 -0.10536939
0.13385457 -0.5730988 -0.51538384 -0.6644347 -0.45748034 -0.47594857 0.6515285 -0.3229794
0.6109836 -0.3175872 0.04649227 0.66346973 0.4316942 -0.15023667 0.54762447 0.66984993
0.20147572 0.66754824 -0.30053806 -0.3495223 -0.035061296 -0.12887114 -0.53267074 -0.6316536
-0.077816844 -0.4825579 -0.4741465 0.06788248 0.40748483 0.6492998 -0.2584952 0.13102067
-0.28817177 -0.08487278 0.36329493 0.47237474 0.86894953 0.24095023 -0.7056771 -0.081605494
0.20230924 -0.5188057 0.442359 0.011002183 -0.49844745 -0.20089555 0.26574942 -0.1304524
-0.044887096 0.69659024 0.026753139 0.5283491 0.061533663 -0.4067235 -0.36050388 0.23286337
0.12713665 0.13314492 -0.14487246 -0.60526085 0.45042568 -0.017179787 0.34576824 -0.37373415
-0.24680649 -0.38784346 -0.72429895 -0.34093496 0.29400933 -0.513423 0.06496811 0.5163124
0.31446257 0.08018726 0.30954295 -0.09012991
00000000: d084 f3be 2435 14be 23fb 15bd 6b1e fabe
00000010: 7f43 da3e d013 8abd 13c4 b53e a876 21be
00000020: 1139 e03e f9c5 9dbe e930 ee3e 7807 08be
00000030: 27ad 0fbf cffa 2f3f 5c7a a6be f877 903e
00000040: 5ce1 e1bd 08e9 933d c661 253f 4ed4 0bbf
00000050: b3cf 703e e201 a5be 8e07 c7bd e8cb d7bd
00000060: 2c11 093e 9ab6 12bf 32f0 03bf 6418 2abf
00000070: dd3a eabe 88af f3be 92ca 263f 8e5d a5be
00000080: 6c69 1c3f ca9a a2be ae6e 3e3d 27d9 293f
00000090: 0607 dd3e a4d7 19be 1e31 0c3f 497b 2b3f
000000a0: a74f 4e3e 71e4 2a3f 20e0 99be 96f4 b2be
000000b0: 6f9c 0fbd ccf6 03be 1c5d 08bf 0db4 21bf
000000c0: 705e 9fbd d411 f7be 54c3 f2be f805 8b3d
000000d0: daa1 d03e 8338 263f 7c59 84be 482a 063e
000000e0: 408b 93be c8d1 adbd cb01 ba3e 1adb f13e
000000f0: 7a73 5e3f a8bb 763e 41a7 34bf c820 a7bd
00000100: 272a 4f3e 73d0 04bf e17c e23e 8042 343c
00000110: 8134 ffbe 90b7 4dbe 4f10 883e 5095 05be
00000120: 88db 37bd bd53 323f 6629 db3c e341 073f
00000130: b90a 7c3d 103e d0be f793 b8be bc73 6e3e
00000140: 1c30 023e 2457 083e 7259 14be 60f2 1abf
00000150: 329e e63e a0bc 8cbc 8908 b13e 155a bfbe
00000160: d7ba 7cbe 6b93 c6be a86b 39bf 078f aebe
00000170: 6488 963e b16f 03bf 000e 853d 0d2d 043f
00000180: 3d01 a13e 3839 a43d 6a7c 9e3e 0896 b8bd

bias f4 [50]
-0.7031012 -0.48404327 0.37268934 0.04712053 0.07167496 -0.5814974 -0.15587908 0.5949065
0.13374555 0.72532535 0.47344643 -0.010303966 0.010455694 -0.6674852 -0.06835833 -0.13390534
0.072025955 0.08461841 0.2828345 -0.12092595 -0.32783955 0.49282813 0.073277816 -0.60261196
-0.16828024 -0.28882208 -0.04559279 -0.10964041 0.17492694 -0.18220873 -0.7205344 -0.27259228
0.6145514 -0.5895271 -0.67551726 0.5941421 0.31949696 -0.48153016 0.47810102 0.327692
0.38896546 0.3809197 -0.2383409 -0.46849382 0.4569737 -0.2769741 -0.34292606 0.25960314
0.66085887 0.29391637
00000000: 71fe 33bf 85d4 f7be 23d1 be3e 7501 413d
00000010: 52ca 923d 03dd 14bf c49e 1fbe cb4b 183f
00000020: 98f4 083e ecae 393f 9267 f23e f7d1 28bc
00000030: 5c4e 2b3c 4fe0 2abf 74ff 8bbd 7b1e 09be
00000040: 5882 933d 6b4c ad3d afcf 903e 06a8 f7bd
00000050: 96da a7be f853 fc3e ae12 963d c744 1abf
00000060: a851 2cbe 7de0 93be 81bf 3abd 278b e0bd
00000070: 0c20 333e ed94 3abe f174 38bf 3791 8bbe
00000080: 3e53 1d3f 3feb 16bf b3ee 2cbf b219 183f
00000090: 1b95 a33e 1f8b f6be a8c9 f43e 3fc7 a73e
000000a0: 7b26 c73e e807 c33e a30f 74be 6cde efbe
000000b0: 75f8 e93e 8dcf 8dbe 0194 afbe b4ea 843e
000000c0: 0c2e 293f 357c 963e

mask f4 [50, 2]
1.0 0.0 1.0 0.0 1.0 0.0 1.0 0.0
1.0 0.0 1.0 0.0 1.0 0.0 1.0 0.0
1.0 0.0 1.0 0.0 1.0 0.0 1.0 0.0
1.0 0.0 1.0 0.0 1.0 0.0 1.0 0.0
1.0 0.0 1.0 0.0 1.0 0.0 1.0 0.0
1.0 0.0 1.0 0.0 1.0 0.0 1.0 0.0
1.0 0.0 1.0 0.0 1.0 0.0 1.0 0.0
1.0 0.0 1.0 0.0 1.0 0.0 1.0 0.0
1.0 0.0 1.0 0.0 1.0 0.0 1.0 0.0
1.0 0.0 1.0 0.0 1.0 0.0 1.0 0.0
1.0 0.0 1.0 0.0 1.0 0.0 1.0 0.0
1.0 0.0 1.0 0.0 1.0 0.0 1.0 0.0
1.0 0.0 1.0 0.0
00000000: 0000 803f 0000 0000 0000 803f 0000 0000
00000010: 0000 803f 0000 0000 0000 803f 0000 0000
00000020: 0000 803f 0000 0000 0000 803f 0000 0000
00000030: 0000 803f 0000 0000 0000 803f 0000 0000
00000040: 0000 803f 0000 0000 0000 803f 0000 0000
00000050: 0000 803f 0000 0000 0000 803f 0000 0000
00000060: 0000 803f 0000 0000 0000 803f 0000 0000
00000070: 0000 803f 0000 0000 0000 803f 0000 0000
00000080: 0000 803f 0000 0000 0000 803f 0000 0000
00000090: 0000 803f 0000 0000 0000 803f 0000 0000
000000a0: 0000 803f 0000 0000 0000 803f 0000 0000
000000b0: 0000 803f 0000 0000 0000 803f 0000 0000
000000c0: 0000 803f 0000 0000 0000 803f 0000 0000
000000d0: 0000 803f 0000 0000 0000 803f 0000 0000
000000e0: 0000 803f 0000 0000 0000 803f 0000 0000
000000f0: 0000 803f 0000 0000 0000 803f 0000 0000
00000100: 0000 803f 0000 0000 0000 803f 0000 0000
00000110: 0000 803f 0000 0000 0000 803f 0000 0000
00000120: 0000 803f 0000 0000 0000 803f 0000 0000
00000130: 0000 803f 0000 0000 0000 803f 0000 0000
00000140: 0000 803f 0000 0000 0000 803f 0000 0000
00000150: 0000 803f 0000 0000 0000 803f 0000 0000
00000160: 0000 803f 0000 0000 0000 803f 0000 0000
00000170: 0000 803f 0000 0000 0000 803f 0000 0000
00000180: 0000 803f 0000 0000 0000 803f 0000 0000
