LMD SNR/04a/trad_model_o4a_gpu.pt (torch, 279372 bytes, 79 tensors)

low f4 [2]
0	0xc1500000	-13.0
1	0x3a83126f	0.001

high f4 [2]
0	0x40a00000	5.0
1	0x3f800000	1.0

_shift f4 [2]
0	0x3f49bdfc	0.7880552
1	0xbfdf36d9	-1.7438613

_scale f4 [2]
0	0x3e468621	0.19387104
1	0x405efa94	3.484044

weight f4 [50, 2]
0	0xbe669afc	-0.2252006
1	0xbf04b5a6	-0.51839674
2	0x3c99bd9a	0.018767167
3	0x3ed120a6	0.4084522
4	0xbe8337e9	-0.25628594
5	0x3df14980	0.11781597
6	0x3e863d25	0.26218525
7	0x3f091faf	0.5356397
8	0x3e67ffbf	0.22656153
9	0xbf16154b	-0.5862624
10	0x3e72166a	0.23641363
11	0x3e895274	0.2682072
12	0xbc98cb20	-0.018651545
13	0x3d446440	0.04794717
14	0xbe974422	-0.2954417
15	0xbf2bfc98	-0.671823
16	0xbe8894d7	-0.26676056
17	0xbefdb6cc	-0.49553525
18	0x3ee0e007	0.4392092
19	0xbee0bd94	-0.43894637
20	0xbe3bedb1	-0.18352391
21	0x3ece4e1e	0.40293974
22	0x3ed8a455	0.42312875
23	0xbf2f9031	-0.68579394
24	0xbe3a064e	-0.18166468
25	0xbe3c5a88	-0.1839391
26	0xbe5d8e5b	-0.21636336
27	0xbeeba421	-0.46023658
28	0x3f345317	0.70439285
29	0x3f066f6d	0.5251377
30	0xbebefe7b	-0.37303528
31	0xbde988e0	-0.1140306
32	0x3e91ea61	0.2849913
33	0x3e2fad78	0.17156017
34	0xbf26751a	-0.6502243
35	0xbde9ba80	-0.11412525
36	0xbf1e6c54	-0.61884046
37	0x3e0aa1c0	0.13538265
38	0x3e896736	0.26836556
39	0xbf2ce464	-0.67535996
40	0x3f447b7a	0.7675091
41	0xbecea393	-0.40359172
42	0x3f032a33	0.51236266
43	0x3ecebb16	0.4037711
44	0x3e8db191	0.27674535
45	0xbe2f1da4	-0.17101151
46	0x3db4349e	0.087990984
47	0xbeb1c3db	-0.34719738
48	0xbee2ff2e	-0.44335312
49	0x3f1e0aaf	0.6173505
50	0x3dda2d76	0.10653202
51	0x3f063745	0.52428085
52	0x3e2efaa2	0.17087796
53	0x3d8f16a8	0.06986743
54	0x3e893beb	0.26803526
55	0xbe91f6d9	-0.28508642
56	0xbd061fdb	-0.032745223
57	0xbed58182	-0.4170037
58	0xbe8caef9	-0.27477244
59	0xbf1d985e	-0.6156062
60	0x3f20a67d	0.6275404
61	0xbeb71183	-0.35755548
62	0xbe86053e	-0.26175874
63	0xbeea8b4c	-0.458094
64	0x3ed0da4a	0.4079154
65	0xbda6c888	-0.08143717
66	0xbe49e51c	-0.19716305
67	0xbd271c90	-0.040798724
68	0x3f06ca44	0.5265238
69	0xbe990b0d	-0.29891244
70	0xbf03e6a1	-0.51523787
71	0xbe9abf6a	-0.30224162
72	0xbdd4e4bc	-0.1039519
73	0xbd9fb608	-0.077983916
74	0xbe18bb8d	-0.14915295
75	0xbefb8524	-0.49125016
76	0x3eb5fbe5	0.35543743
77	0x3e66333c	0.22480482
78	0xbeac5c68	-0.3366425
79	0xbf142990	-0.5787592
80	0x3f2603f0	0.6484976
81	0xbee2c58b	-0.44291338
82	0x3e8e2f91	0.27770665
83	0x3e2ad528	0.16682875
84	0x3f04b02f	0.51831335
85	0xbf1b77ce	-0.6072968
86	0xbca5ddb4	-0.020247318
87	0xbd86de40	-0.065853596
88	0xbf0dbbc0	-0.5536461
89	0xbf1038cd	-0.5633667
90	0x3e6bd3fe	0.23030087
91	0xbf26b11f	-0.65114015
92	0xbf604b40	-0.8761482
93	0xbeed5ea0	-0.46361256
94	0x3edcba14	0.43110716
95	0x3e0eaed0	0.13933873
96	0xbf302c50	-0.68817616
97	0x3f13d257	0.5774283
98	0x3ec9e662	0.3943358
99	0xbe3bfd5c	-0.18358368

bias f4 [50]
0	0x3ec2e4c3	0.38065156
1	0x3f094c84	0.5363238
2	0xbf074c61	-0.5285092
3	0x3e603fa6	0.2189928
4	0x3ec71358	0.38881946
5	0x3ea3b9f7	0.31977817
6	0x3e94a405	0.29031387
7	0x3ef1d4d9	0.47232702
8	0x3e3d6b30	0.1849792
9	0x3dcdfa8d	0.100575544
10	0x3e92b661	0.2865477
11	0xbf0abdf4	-0.54196095
12	0xbf0d7772	-0.55260384
13	0x3eed8483	0.4639016
14	0x3e8e4ed0	0.27794504
15	0xbf007600	-0.50180054
16	0xbd570843	-0.052498113
17	0xbed9ec66	-0.4256317
18	0x3e9e3e4d	0.30906907
19	0x3f14a6d6	0.5806707
20	0xbee33f73	-0.44384345
21	0x3efc55d3	0.4928423
22	0xbee28255	-0.4424006
23	0xbec3a082	-0.38208395
24	0x3e6e9a7c	0.23301119
25	0xbe22ba79	-0.15891446
26	0xbef48a7a	-0.477619
27	0xbf007279	-0.5017467
28	0xbd362c72	-0.04447598
29	0xbef15f06	-0.4714281
30	0x3f1bb57b	0.6082379
31	0xbeddafcc	-0.43298185
32	0xbf22714c	-0.6345413
33	0x3ee570a5	0.44812503
34	0xbf1c02dc	-0.60941863
35	0x3f1982af	0.5996503
36	0x3f0f36d2	0.55943024
37	0xbec668a1	-0.387517
38	0xbf0b51ce	-0.544217
39	0xbe945214	-0.2896887
40	0xbe1798e5	-0.14804418
41	0x3d01d560	0.03169763
42	0x3ecd852f	0.40140674
43	0x3e4804f6	0.19533142
44	0x3e6cf19c	0.23139042
45	0x3e75055f	0.2392783
46	0x3efe2676	0.49638718
47	0xbe9d2f53	-0.30700168
48	0x3f4b6931	0.79457384
49	0xbef02bff	-0.46908566

mask f4 [50, 2]
0	0x3f800000	1.0
1	0x00000000	0.0
2	0x3f800000	1.0
3	0x00000000	0.0
4	0x3f800000	1.0
5	0x00000000	0.0
6	0x3f800000	1.0
7	0x00000000	0.0
8	0x3f800000	1.0
9	0x00000000	0.0
10	0x3f800000	1.0
11	0x00000000	0.0
12	0x3f800000	1.0
13	0x00000000	0.0
14	0x3f800000	1.0
15	0x00000000	0.0
16	0x3f800000	1.0
17	0x00000000	0.0
18	0x3f800000	1.0
19	0x00000000	0.0
20	0x3f800000	1.0
21	0x00000000	0.0
22	0x3f800000	1.0
23	0x00000000	0.0
24	0x3f800000	1.0
25	0x00000000	0.0
26	0x3f800000	1.0
27	0x00000000	0.0
28	0x3f800000	1.0
29	0x00000000	0.0
30	0x3f800000	1.0
31	0x00000000	0.0
32	0x3f800000	1.0
33	0x00000000	0.0
34	0x3f800000	1.0
35	0x00000000	0.0
36	0x3f800000	1.0
37	0x00000000	0.0
38	0x3f800000	1.0
39	0x00000000	0.0
40	0x3f800000	1.0
41	0x00000000	0.0
42	0x3f800000	1.0
43	0x00000000	0.0
44	0x3f800000	1.0
45	0x00000000	0.0
46	0x3f800000	1.0
47	0x00000000	0.0
48	0x3f800000	1.0
49	0x00000000	0.0
50	0x3f800000	1.0
51	0x00000000	0.0
52	0x3f800000	1.0
53	0x00000000	0.0
54	0x3f800000	1.0
55	0x00000000	0.0
56	0x3f800000	1.0
57	0x00000000	0.0
58	0x3f800000	1.0
59	0x00000000	0.0
60	0x3f800000	1.0
61	0x00000000	0.0
62	0x3f800000	1.0
63	0x00000000	0.0
64	0x3f800000	1.0
65	0x00000000	0.0
66	0x3f800000	1.0
67	0x00000000	0.0
68	0x3f800000	1.0
69	0x00000000	0.0
70	0x3f800000	1.0
71	0x00000000	0.0
72	0x3f800000	1.0
73	0x00000000	0.0
74	0x3f800000	1.0
75	0x00000000	0.0
76	0x3f800000	1.0
77	0x00000000	0.0
78	0x3f800000	1.0
79	0x00000000	0.0
80	0x3f800000	1.0
81	0x00000000	0.0
82	0x3f800000	1.0
83	0x00000000	0.0
84	0x3f800000	1.0
85	0x00000000	0.0
86	0x3f800000	1.0
87	0x00000000	0.0
88	0x3f800000	1.0
89	0x00000000	0.0
90	0x3f800000	1.0
91	0x00000000	0.0
92	0x3f800000	1.0
93	0x00000000	0.0
94	0x3f800000	1.0
95	0x00000000	0.0
96	0x3f800000	1.0
97	0x00000000	0.0
98	0x3f800000	1.0
99	0x00000000	0.0

weight f4 [50, 2]
0	0xbf209544	-0.6272776
1	0x3eb3409c	0.3501023
2	0x3d171e7e	0.036894314
3	0x3f45ecd6	0.7731451
4	0x3f1612dd	0.58622533
5	0x3f3347e5	0.7003158
6	0xbedf2cca	-0.4358886
7	0xbf119fc3	-0.568844
8	0xbe190343	-0.1494265
9	0xbe7a6804	-0.24453741
10	0xbea45976	-0.32099503
11	0xbf1bc506	-0.6084751
12	0x3d3f50d6	0.04670795
13	0xbe42f91a	-0.19040337
14	0x3f1a97cc	0.60387874
15	0x3e916fc0	0.2840557
16	0xbf0d609d	-0.55225545
17	0x3d5ab55f	0.053395625
18	0xbddd86e6	-0.108167455
19	0xbe68a714	-0.22719985
20	0xbd0fcac9	-0.0351055
21	0x3e981982	0.2970696
22	0x3d5efb4f	0.054438885
23	0x3ec1fbb0	0.37887335
24	0x3ef08023	0.4697276
25	0x3d944caf	0.07241189
26	0xbef0fb3a	-0.4706667
27	0x3f09b495	0.5379117
28	0x3e8959e7	0.26826403
29	0x3e769382	0.24079707
30	0x3dc4779c	0.09593126
31	0xbf5bbee6	-0.8583816
32	0xbbeabfa1	-0.007163957
33	0xbd8abcbe	-0.06774281
34	0x3d6d69a0	0.05796206
35	0x3eada9e5	0.33918682
36	0x3e528702	0.20559314
37	0x3e2d0945	0.16898067
38	0xbf1e819c	-0.6191652
39	0xbe33363a	-0.17501155
40	0x3f1b31d8	0.6062293
41	0xbef51c15	-0.47872987
42	0xbf42c47d	-0.7608107
43	0x3f11c474	0.5694039
44	0x3ed62899	0.4182785
45	0xbf278b2d	-0.6544674
46	0x3f047d9f	0.5175418
47	0x3e779936	0.24179539
48	0xbe44b1a2	-0.19208387
49	0x3ea8a3a5	0.3293735
50	0x3e1cbff1	0.15307595
51	0x3eaa3651	0.33244565
52	0xbe3581ae	-0.1772525
53	0x3eb4e897	0.35333702
54	0xbe82977a	-0.25506192
55	0xbe96da05	-0.2946321
56	0xbf2835e7	-0.6570725
57	0x3f0944c3	0.5362055
58	0x3f4a1af9	0.78947407
59	0xbdc31e0d	-0.09527216
60	0xbea31a2d	-0.31855908
61	0xbef674da	-0.48136026
62	0x3f297fc5	0.66210586
63	0xbe1f3e2c	-0.1555106
64	0xbec7896f	-0.3897204
65	0xbd148fae	-0.036269836
66	0x3ebc7a47	0.3681204
67	0xbed9bb0f	-0.42525527
68	0xbe9c095e	-0.30475897
69	0xbd002e87	-0.031294372
70	0x3eb170fe	0.3465652
71	0x3ee868d7	0.45392486
72	0xbe5f7295	-0.21821053
73	0x3f0210bc	0.50806785
74	0xbeec9a7e	-0.46211618
75	0x3c137ebc	0.009002384
76	0x3e618c66	0.22026214
77	0xbe30f8f9	-0.17282476
78	0xbf1aabbd	-0.604183
79	0x3e9fa2f1	0.31179002
80	0x3d1658aa	0.03670565
81	0x3df8d1ed	0.12149415
82	0x3dd51f35	0.10406343
83	0x3e7815fc	0.24227136
84	0xbe7930b6	-0.24334988
85	0xbf0f1261	-0.5588742
86	0xbf0b881b	-0.54504555
87	0xbe912f09	-0.28356197
88	0x3ebad3a6	0.364896
89	0xbf235835	-0.6380647
90	0xbee98a93	-0.45613536
91	0x3e95424a	0.29152137
92	0xbebc9a77	-0.36836597
93	0xbe8860f3	-0.26636466
94	0x3e7c8044	0.24658304
95	0x3e0ceb6a	0.13761678
96	0xbf22a891	-0.6353846
97	0x3f050f6f	0.51976675
98	0x3ee150eb	0.44007048
99	0xbf194905	-0.59877044

bias f4 [50]
0	0xbd872dc3	-0.06600525
1	0x3e617637	0.22017752
2	0xbd0d5191	-0.034501616
3	0x3f160cd4	0.58613324
4	0x3e58b5ab	0.21163051
5	0x3ee03f0b	0.43798098
6	0x3e809549	0.25113896
7	0x3eeda474	0.4641453
8	0xbf07e444	-0.5308268
9	0xbf0673ff	-0.52520746
10	0xbde5c36c	-0.112189144
11	0x3f3f7630	0.74789715
12	0x3f0c515b	0.5481164
13	0x3dcfe3e8	0.101508915
14	0xbf01872f	-0.505969
15	0xbd3e0564	-0.04639186
16	0xbee17b5e	-0.44039434
17	0x3f23f3bf	0.640438
18	0xbc08cfa0	-0.008350283
19	0x3de44cd0	0.11147463
20	0xbeaf72ad	-0.34267178
21	0xbe580675	-0.21096213
22	0x3f2139de	0.62978923
23	0xbc5ea5d6	-0.013589343
24	0x3f0d7bf3	0.55267256
25	0x3d6a21cb	0.057161134
26	0xbe8c1160	-0.27357006
27	0xbf41db43	-0.7572519
28	0x3f116a86	0.56803167
29	0x3f31f599	0.6951538
30	0xbf2f5ea0	-0.6850376
31	0x3dace4c9	0.08442075
32	0x3ee0127b	0.437641
33	0x3e9089bc	0.28230083
34	0x3f08eb6c	0.53484225
35	0xbeaa8c14	-0.33309996
36	0x3f204233	0.6260101
37	0x3eb9873f	0.36235997
38	0xbf09e63d	-0.5386694
39	0x3ee3887d	0.4444007
40	0x3f02fa99	0.5116363
41	0x3ed15d81	0.4089165
42	0x3e2e949f	0.17048882
43	0xbf43c493	-0.76471823
44	0x3e386cf5	0.18010314
45	0xbde0fcad	-0.10985694
46	0xbf08f949	-0.5350538
47	0x3ee9e952	0.45685822
48	0xbe2dd795	-0.1697677
49	0x3f01d9ca	0.50722945

weight f4 [50, 50]
0	0xbcacfef7	-0.02111767
1	0xbcd7d985	-0.026348839
2	0xbdd5ec11	-0.10445417
3	0x3db74e85	0.08950523
4	0xbdd8b887	-0.10582071
5	0x3dcb3da1	0.09923864
6	0x3dbb71d2	0.09152569
7	0xbe15b831	-0.14621045
8	0xbc57c0d3	-0.0131685315
9	0x3d07fd63	0.033200633
10	0xbdd2103b	-0.10257002
11	0xbdffdf20	-0.124937296
12	0xbdbfecdb	-0.093713485
13	0xbe17b87d	-0.1481647
14	0x3e222a1f	0.1583638
15	0x3b5ffbad	0.003417711
16	0x3da7a076	0.08184902
17	0xbdd84069	-0.1055916
18	0xbce9d01a	-0.028541613
19	0x3db21931	0.08696211
20	0x3e45ea2d	0.19327612
21	0xbc4b08c9	-0.012392231
22	0x3e2432e3	0.16035037
23	0xbd00d702	-0.031455047
24	0xbde35cc9	-0.11101682
25	0xbdf4303c	-0.119232625
26	0xbe17deee	-0.14831135
27	0xbcf33eac	-0.02969297
28	0xbd05df18	-0.032683462
29	0xbeb3a7ed	-0.35089055
30	0x3dec782b	0.11546358
31	0xbbe9dd86	-0.0071370034
32	0xbce53355	-0.027978579
33	0xbdedf0bc	-0.11618182
34	0x3c77ccf9	0.015124553
35	0x3b1e56eb	0.0024160694
36	0xbdfc8e59	-0.12331838
37	0x3d96f94c	0.07371768
38	0x3d41b01a	0.047287084
39	0xbc755aa1	-0.014975221
40	0xbd41a47d	-0.04727601
41	0x3bbc900b	0.005754476
42	0x3d9c9177	0.07644933
43	0x3dcad415	0.09903733
44	0x3b094471	0.0020945335
45	0xbb8814d3	-0.004152873
46	0xbe3f9b3b	-0.1871156
47	0x3d27b357	0.040942516
48	0xbd5f3882	-0.05449725
49	0xbc4b0503	-0.012391332
50	0x3dc16cd7	0.09444588
51	0xbddcb062	-0.1077583
52	0x3dffeeab	0.12496694
53	0x3d828017	0.063720874
54	0xbdc251c4	-0.09488252
55	0xbcd8fb47	-0.026487006
56	0x3d240ed5	0.040053207
57	0xbd61e148	-0.055146486
58	0x3db31d87	0.08745866
59	0xbd65fa5d	-0.05614697
60	0xbe04d36d	-0.12971278
61	0x3b958a9b	0.004563642
62	0x3d0e7b88	0.034785777
63	0xbc83edc6	-0.01610459
64	0x3dd56254	0.10419145
65	0xbd4b772b	-0.049674194
66	0x3e09e6d0	0.13466954
67	0xbd87dd1e	-0.06633972
68	0xbc4d3ba4	-0.012526426
69	0xbd9154a5	-0.07096223
70	0x3dc6905d	0.09695504
71	0xbe2b5e12	-0.16735104
72	0x3d802a80	0.06258106
73	0x3dd4cab5	0.10390226
74	0x3cc64df5	0.024207095
75	0x3dee2aef	0.11629283
76	0x3d824db9	0.06362481
77	0x3d987855	0.074448265
78	0xbd84901c	-0.06472799
79	0x3e068d99	0.13139953
80	0x3dfe7c04	0.12425998
81	0xbb6380e6	-0.003471428
82	0x3bde6fc9	0.006788228
83	0xbb0090a8	-0.0019617472
84	0x3d610382	0.054934986
85	0x3c4f71b3	0.012661385
86	0xbe06ec58	-0.13176095
87	0xbddab89a	-0.10679741
88	0xbd1ff769	-0.039054308
89	0xbdc91cc8	-0.09819943
90	0x3de66964	0.112505704
91	0x3c92ba26	0.017911028
92	0xbdc7cae5	-0.09755496
93	0xbb304047	-0.002689378
94	0xbd907e13	-0.07055297
95	0x3ce18577	0.027529461
96	0x3dcf217d	0.10113809
97	0xbcad1ac8	-0.021130934
98	0x3dea5f9f	0.114440195
99	0xbce1a668	-0.027545169
100	0x3db00eab	0.08596548
101	0xbdab966a	-0.083782986
102	0xbe44e88a	-0.19229332
103	0x3e15e851	0.14639403
104	0x3dceb2fa	0.10092731
105	0x3e18f7df	0.14938305
106	0xbd03b9c6	-0.03215959
107	0xbd4eebfc	-0.05051802
108	0x3e0ae3b1	0.1356342
109	0x3dbbaba6	0.09163599
110	0xbe0e53b2	-0.13899115
111	0xbd217c74	-0.03942533
112	0xbe5ae0f3	-0.21374874
113	0xbdf01574	-0.11722842
114	0x3d7f11c8	0.062272817
115	0x3e050594	0.12990409
116	0x3df287ed	0.11842332
117	0xbe477557	-0.19478355
118	0xbdf87f21	-0.12133623
119	0x3e19e013	0.15026884
120	0x3ded27ef	0.11579882
121	0x3e49c4a0	0.19703913
122	0x3e11eb5b	0.14249937
123	0x3d55f06e	0.052231245
124	0xbbd23229	-0.006414671
125	0xbda45853	-0.08024659
126	0xbdc7c9dc	-0.097552985
127	0xbdfb5cb2	-0.122735396
128	0x3de7b266	0.11313324
129	0xbe57b501	-0.21065141
130	0x3dd8e07e	0.105896935
131	0x3d879a40	0.06621218
132	0x3ca87cc1	0.0205673
133	0x3d3b0376	0.045657597
134	0x3d293fd5	0.04132064
135	0xbde4d885	-0.1117411
136	0xbdc0c42d	-0.094124176
137	0xbcc502ed	-0.024049247
138	0xbe1380f5	-0.14404662
139	0xbe0c236b	-0.13685386
140	0xbcfe6952	-0.03105608
141	0xbdacbd35	-0.08434526
142	0x3da700f0	0.08154476
143	0x3e25c4d1	0.16188361
144	0xbd25b423	-0.040454995
145	0x3dda7a51	0.10667861
146	0xbd6a1c83	-0.057156097
147	0xbdb899cf	-0.09013712
148	0xbe7ef446	-0.2489787
149	0x3d43c801	0.04779816
150	0xbc89b02a	-0.016807634
151	0x3caad50a	0.020853538
152	0xbd700919	-0.058602426
153	0x3e142417	0.14466892
154	0x3b944c0b	0.0045256666
155	0x3dc75d58	0.09734601
156	0x3d9e57be	0.07731579
157	0xbd7c0ecf	-0.06153756
158	0x3ce64935	0.02811108
159	0xbdbb4d7a	-0.09145637
160	0x3e022a78	0.12711513
161	0x3db44317	0.08801859
162	0x3d4017d5	0.046897728
163	0x3d807cd6	0.062738106
164	0x3da68873	0.081314944
165	0x3d933f62	0.07189824
166	0xbd560c06	-0.05225756
167	0xbd175440	-0.03694558
168	0x3daff3aa	0.08591397
169	0x3d689f20	0.05679238
170	0xbd74e197	-0.05978545
171	0xbde15aa5	-0.11003617
172	0xbe13cff3	-0.14434795
173	0x3e060d63	0.13091044
174	0x3d466df9	0.04844472
175	0xbd6147d4	-0.05500014
176	0x3c22fa5a	0.009947384
177	0xbc944d02	-0.018103126
178	0xbde3ff2c	-0.111326545
179	0xbcff8dcc	-0.031195544
180	0x3dc709b8	0.097186506
181	0x3d7ee756	0.062232338
182	0xbcdf57de	-0.027263578
183	0x3e111799	0.14169158
184	0x3d713ee1	0.058897857
185	0x3e26a794	0.16274863
186	0x3dec7f32	0.11547698
187	0xbd625f66	-0.05526676
188	0xbe22d4b6	-0.15901455
189	0xbb966197	-0.0045892703
190	0x3dba8264	0.09106901
191	0x3c8d8872	0.017276976
192	0xbdad1d72	-0.08452882
193	0xbe099cdf	-0.13438748
194	0xbd59d72c	-0.05318372
195	0x3da751ea	0.08169921
196	0xbd93d07e	-0.07217501
197	0xbdf87f68	-0.12133676
198	0xbc25c375	-0.010117401
199	0xbdc4f54d	-0.096171
200	0xbe6b1146	-0.22955808
201	0xbdafa7da	-0.08576937
202	0xbc1a1458	-0.009404264
203	0xbb085c7e	-0.0020807083
204	0xbe032c2c	-0.12809819
205	0x3db1a64a	0.08674295
206	0x3d9e7c91	0.07738603
207	0xbd0e159e	-0.034688585
208	0xbdc7670d	-0.09736452
209	0x3df5b9b2	0.11998309
210	0xbe5349d8	-0.20633638
211	0xbcfec937	-0.031101806
212	0xbd1623a3	-0.03665508
213	0xbdc90e60	-0.09817195
214	0xbdae5f57	-0.085142784
215	0xbd9c4977	-0.076312
216	0x3cdb8eac	0.02680143
217	0xbc529180	-0.012852073
218	0xbe5ed450	-0.21760678
219	0x3dbf4a1e	0.093403086
220	0x3e750c76	0.23930535
221	0xbdaeac50	-0.0852896
222	0x3d9ebb2d	0.07750545
223	0x3bfca6c0	0.007710308
224	0xbdc9c886	-0.098527
225	0x3e026451	0.1273358
226	0xbe073b00	-0.132061
227	0x3e0f7dbc	0.14012808
228	0xbd66376d	-0.056205202
229	0x3d7c5b39	0.061610434
230	0x3bfe2e2f	0.0077569704
231	0xbc9e8a4a	-0.01935305
232	0xbd25b298	-0.040453523
233	0xbdbb7567	-0.09153252
234	0x3e120c2b	0.14262454
235	0xbdb16b96	-0.086630985
236	0x3d1d48ba	0.038399436
237	0xbda6c5bd	-0.08143184
238	0x3e08d8ce	0.13363954
239	0x3d33f83b	0.043937903
240	0x3d953681	0.072857864
241	0xbe076633	-0.1322258
242	0xbdedd6d0	-0.11613238
243	0xbdd0c554	-0.10193887
244	0xbb9c9d2a	-0.0047794776
245	0x3c96d4d0	0.018412024
246	0xbdb12165	-0.086489476
247	0xbd2fcf74	-0.042922452
248	0xbeb1633f	-0.3464603
249	0x3dc1bbfc	0.09459683
250	0x3d155f53	0.03646786
251	0xbe2abccb	-0.16673581
252	0xbe966a97	-0.29378197
253	0x3e21e5a2	0.15810254
254	0x3e149cf6	0.14513001
255	0x3e2fb449	0.17158617

bias f4 [50]
0	0x3de3bec1	0.11120368
1	0xbdb7dd1c	-0.0897772
2	0xbd9a7f4e	-0.07543813
3	0x3e0aeb3e	0.135663
4	0x3db19e3a	0.086727574
5	0x3dab1395	0.08353344
6	0x3dbbbe32	0.09167136
7	0x3dd83f80	0.10558987
8	0xbde86526	-0.113474175
9	0xbd78f8e8	-0.06078425
10	0xbe1d61eb	-0.15369384
11	0xbd03ce4f	-0.032179173
12	0xbe2efdc7	-0.17088996
13	0xbd7f0263	-0.062258136
14	0x3e002ed2	0.1251786
15	0x3c80600c	0.015670799
16	0xbdc21fa9	-0.09478695
17	0xbdb16945	-0.08662657
18	0x3cbfc5fe	0.02340984
19	0x3d45a0bd	0.048248995
20	0x3de92a05	0.11384968
21	0x3db5eba0	0.088828325
22	0xbd0c61d3	-0.03427298
23	0xbd6fde07	-0.05856135
24	0x3d696b52	0.056987114
25	0xbda1104e	-0.07864438
26	0x3dced192	0.10098566
27	0x3d8bb46f	0.06821524
28	0x3dab6398	0.083686054
29	0x3e20eecd	0.15716095
30	0x3e25a8ec	0.1617772
31	0xbd406155	-0.046967823
32	0xbb9785fc	-0.0046241265
33	0x3df0e876	0.117630884
34	0xbc93c555	-0.018038431
35	0x3e090119	0.13379325
36	0xbdf3201b	-0.11871358
37	0x3df1ea70	0.118122935
38	0xbd1c34fd	-0.03813647
39	0xbd70428d	-0.058657218
40	0xbdfa0776	-0.12208454
41	0xbdefa3f9	-0.11701197
42	0x3d9b1cbb	0.07573839
43	0x3e009584	0.12557036
44	0xbd267f20	-0.04064858
45	0xbe06b809	-0.13156141
46	0x3e20ea7f	0.15714453
47	0x3d789aa7	0.060694363
48	0x3da6122a	0.08108933
49	0x3c910539	0.017702686

mask f4 [50, 50]
0	0x3f800000	1.0
1	0x3f800000	1.0
2	0x3f800000	1.0
3	0x3f800000	1.0
4	0x3f800000	1.0
5	0x3f800000	1.0
6	0x3f800000	1.0
7	0x3f800000	1.0
8	0x3f800000	1.0
9	0x3f800000	1.0
10	0x3f800000	1.0
11	0x3f800000	1.0
12	0x3f800000	1.0
13	0x3f800000	1.0
14	0x3f800000	1.0
15	0x3f800000	1.0
16	0x3f800000	1.0
17	0x3f800000	1.0
18	0x3f800000	1.0
19	0x3f800000	1.0
20	0x3f800000	1.0
21	0x3f800000	1.0
22	0x3f800000	1.0
23	0x3f800000	1.0
24	0x3f800000	1.0
25	0x3f800000	1.0
26	0x3f800000	1.0
27	0x3f800000	1.0
28	0x3f800000	1.0
29	0x3f800000	1.0
30	0x3f800000	1.0
31	0x3f800000	1.0
32	0x3f800000	1.0
33	0x3f800000	1.0
34	0x3f800000	1.0
35	0x3f800000	1.0
36	0x3f800000	1.0
37	0x3f800000	1.0
38	0x3f800000	1.0
39	0x3f800000	1.0
40	0x3f800000	1.0
41	0x3f800000	1.0
42	0x3f800000	1.0
43	0x3f800000	1.0
44	0x3f800000	1.0
45	0x3f800000	1.0
46	0x3f800000	1.0
47	0x3f800000	1.0
48	0x3f800000	1.0
49	0x3f800000	1.0
50	0x3f800000	1.0
51	0x3f800000	1.0
52	0x3f800000	1.0
53	0x3f800000	1.0
54	0x3f800000	1.0
55	0x3f800000	1.0
56	0x3f800000	1.0
57	0x3f800000	1.0
58	0x3f800000	1.0
59	0x3f800000	1.0
60	0x3f800000	1.0
61	0x3f800000	1.0
62	0x3f800000	1.0
63	0x3f800000	1.0
64	0x3f800000	1.0
65	0x3f800000	1.0
66	0x3f800000	1.0
67	0x3f800000	1.0
68	0x3f800000	1.0
69	0x3f800000	1.0
70	0x3f800000	1.0
71	0x3f800000	1.0
72	0x3f800000	1.0
73	0x3f800000	1.0
74	0x3f800000	1.0
75	0x3f800000	1.0
76	0x3f800000	1.0
77	0x3f800000	1.0
78	0x3f800000	1.0
79	0x3f800000	1.0
80	0x3f800000	1.0
81	0x3f800000	1.0
82	0x3f800000	1.0
83	0x3f800000	1.0
84	0x3f800000	1.0
85	0x3f800000	1.0
86	0x3f800000	1.0
87	0x3f800000	1.0
88	0x3f800000	1.0
89	0x3f800000	1.0
90	0x3f800000	1.0
91	0x3f800000	1.0
92	0x3f800000	1.0
93	0x3f800000	1.0
94	0x3f800000	1.0
95	0x3f800000	1.0
96	0x3f800000	1.0
97	0x3f800000	1.0
98	0x3f800000	1.0
99	0x3f800000	1.0
100	0x3f800000	1.0
101	0x3f800000	1.0
102	0x3f800000	1.0
103	0x3f800000	1.0
104	0x3f800000	1.0
105	0x3f800000	1.0
106	0x3f800000	1.0
107	0x3f800000	1.0
108	0x3f800000	1.0
109	0x3f800000	1.0
110	0x3f800000	1.0
111	0x3f800000	1.0
112	0x3f800000	1.0
113	0x3f800000	1.0
114	0x3f800000	1.0
115	0x3f800000	1.0
116	0x3f800000	1.0
117	0x3f800000	1.0
118	0x3f800000	1.0
119	0x3f800000	1.0
120	0x3f800000	1.0
121	0x3f800000	1.0
122	0x3f800000	1.0
123	0x3f800000	1.0
124	0x3f800000	1.0
125	0x3f800000	1.0
126	0x3f800000	1.0
127	0x3f800000	1.0
128	0x3f800000	1.0
129	0x3f800000	1.0
130	0x3f800000	1.0
131	0x3f800000	1.0
132	0x3f800000	1.0
133	0x3f800000	1.0
134	0x3f800000	1.0
135	0x3f800000	1.0
136	0x3f800000	1.0
137	0x3f800000	1.0
138	0x3f800000	1.0
139	0x3f800000	1.0
140	0x3f800000	1.0
141	0x3f800000	1.0
142	0x3f800000	1.0
143	0x3f800000	1.0
144	0x3f800000	1.0
145	0x3f800000	1.0
146	0x3f800000	1.0
147	0x3f800000	1.0
148	0x3f800000	1.0
149	0x3f800000	1.0
150	0x3f800000	1.0
151	0x3f800000	1.0
152	0x3f800000	1.0
153	0x3f800000	1.0
154	0x3f800000	1.0
155	0x3f800000	1.0
156	0x3f800000	1.0
157	0x3f800000	1.0
158	0x3f800000	1.0
159	0x3f800000	1.0
160	0x3f800000	1.0
161	0x3f800000	1.0
162	0x3f800000	1.0
163	0x3f800000	1.0
164	0x3f800000	1.0
165	0x3f800000	1.0
166	0x3f800000	1.0
167	0x3f800000	1.0
168	0x3f800000	1.0
169	0x3f800000	1.0
170	0x3f800000	1.0
171	0x3f800000	1.0
172	0x3f800000	1.0
173	0x3f800000	1.0
174	0x3f800000	1.0
175	0x3f800000	1.0
176	0x3f800000	1.0
177	0x3f800000	1.0
178	0x3f800000	1.0
179	0x3f800000	1.0
180	0x3f800000	1.0
181	0x3f800000	1.0
182	0x3f800000	1.0
183	0x3f800000	1.0
184	0x3f800000	1.0
185	0x3f800000	1.0
186	0x3f800000	1.0
187	0x3f800000	1.0
188	0x3f800000	1.0
189	0x3f800000	1.0
190	0x3f800000	1.0
191	0x3f800000	1.0
192	0x3f800000	1.0
193	0x3f800000	1.0
194	0x3f800000	1.0
195	0x3f800000	1.0
196	0x3f800000	1.0
197	0x3f800000	1.0
198	0x3f800000	1.0
199	0x3f800000	1.0
200	0x3f800000	1.0
201	0x3f800000	1.0
202	0x3f800000	1.0
203	0x3f800000	1.0
204	0x3f800000	1.0
205	0x3f800000	1.0
206	0x3f800000	1.0
207	0x3f800000	1.0
208	0x3f800000	1.0
209	0x3f800000	1.0
210	0x3f800000	1.0
211	0x3f800000	1.0
212	0x3f800000	1.0
213	0x3f800000	1.0
214	0x3f800000	1.0
215	0x3f800000	1.0
216	0x3f800000	1.0
217	0x3f800000	1.0
218	0x3f800000	1.0
219	0x3f800000	1.0
220	0x3f800000	1.0
221	0x3f800000	1.0
222	0x3f800000	1.0
223	0x3f800000	1.0
224	0x3f800000	1.0
225	0x3f800000	1.0
226	0x3f800000	1.0
227	0x3f800000	1.0
228	0x3f800000	1.0
229	0x3f800000	1.0
230	0x3f800000	1.0
231	0x3f800000	1.0
232	0x3f800000	1.0
233	0x3f800000	1.0
234	0x3f800000	1.0
235	0x3f800000	1.0
236	0x3f800000	1.0
237	0x3f800000	1.0
238	0x3f800000	1.0
239	0x3f800000	1.0
240	0x3f800000	1.0
241	0x3f800000	1.0
242	0x3f800000	1.0
243	0x3f800000	1.0
244	0x3f800000	1.0
245	0x3f800000	1.0
246	0x3f800000	1.0
247	0x3f800000	1.0
248	0x3f800000	1.0
249	0x3f800000	1.0
250	0x3f800000	1.0
251	0x3f800000	1.0
252	0x3f800000	1.0
253	0x3f800000	1.0
254	0x3f800000	1.0
255	0x3f800000	1.0

weight f4 [50, 50]
0	0x3d8274c4	0.063699275
1	0x3cbae46c	0.022813998
2	0x3ce48f78	0.027900442
3	0xbe251053	-0.16119508
4	0xbd2306bb	-0.03980134
5	0x3d4b57c0	0.04964423
6	0x3dbddb19	0.09270305
7	0xbc6713a0	-0.0141038
8	0x3d591351	0.052996937
9	0xbc83e4a1	-0.01610023
10	0xbd66c767	-0.05634251
11	0xbc81550d	-0.015787626
12	0x3d9bb347	0.07602554
13	0x3d768551	0.060185734
14	0x3b56c044	0.0032768408
15	0x3da159ba	0.07878442
16	0x3dc44aee	0.09584604
17	0x3bafbfb1	0.0053634276
18	0x3dbb966b	0.09159549
19	0x3e1f6f20	0.15569735
20	0x3dc788df	0.09742903
21	0xbd319018	-0.04335031
22	0x3e090cf7	0.13383852
23	0x3e20ae75	0.1569155
24	0x3d88d0ae	0.066804275
25	0x3dcaf61e	0.099102244
26	0xbde73b72	-0.11290635
27	0x3df8ac08	0.12142187
28	0xbcf0a5da	-0.02937596
29	0xbb2d2463	-0.0026419393
30	0xbd1a0a88	-0.0376077
31	0x3e052fa5	0.13006456
32	0xbcc20d61	-0.02368802
33	0xbc87e1e3	-0.016587203
34	0x3d74a478	0.059727162
35	0xbdbf303b	-0.09335371
36	0x3e19e516	0.15028796
37	0xbd2e490e	-0.04255014
38	0xbd4a01bd	-0.049318064
39	0xbdf494c3	-0.119424365
40	0xbdfa414e	-0.12219487
41	0xbd66d5fd	-0.05635642
42	0xbdec5912	-0.11540426
43	0x3db69b89	0.08916385
44	0xbde9fcd4	-0.11425176
45	0xbd662764	-0.05618991
46	0xbc23aed4	-0.009990413
47	0x3cf5f327	0.03002317
48	0x3c784afc	0.015154596
49	0x3c99adfd	0.018759722
50	0xbdba05ad	-0.09083114
51	0xbc9f30ee	-0.019432511
52	0x3cbab09e	0.022789296
53	0xbcf09add	-0.02937072
54	0xbdc74930	-0.09730756
55	0x3de02b14	0.109457165
56	0x3d66a630	0.056310833
57	0x3e183094	0.14862281
58	0xbccd21ee	-0.025040593
59	0x3d9bff38	0.076170385
60	0x3cd6a755	0.026202837
61	0x3d8fde38	0.07024807
62	0x3e0c2f01	0.13689806
63	0xbd87b125	-0.066255845
64	0xbb123cba	-0.0022314028
65	0x3e14d463	0.14534144
66	0xbdce4a80	-0.100728035
67	0x3d0ba7fd	0.034095753
68	0x3e1c2960	0.15250158
69	0x3dd4ebe3	0.10396554
70	0x3d270591	0.040776793
71	0x3d778c34	0.060436442
72	0xbd52df2e	-0.051482372
73	0x3d614593	0.05499799
74	0xbe253520	-0.16133547
75	0x3da4e63f	0.080517285
76	0xbd4c09d5	-0.049814064
77	0x3e1e6c9b	0.15471117
78	0x3d2f0df1	0.042737905
79	0xbd6dbc1b	-0.05804072
80	0x3dcd87aa	0.100356415
81	0xbd8629b8	-0.06550926
82	0x3cc8116e	0.024422374
83	0xbbcba567	-0.006214786
84	0xbe1abbe7	-0.15110742
85	0xbdee94a8	-0.11649448
86	0x3d8e93f5	0.06961814
87	0xbe13e47c	-0.14442629
88	0xbdca2455	-0.09870211
89	0x3cc44501	0.023958685
90	0xbe1ae3bb	-0.15125935
91	0x3cf3fbbc	0.029783122
92	0xbe2002c4	-0.15626055
93	0x3dce3c5b	0.10070106
94	0xbdd2d3d1	-0.10294307
95	0xbdc0bac8	-0.09410626
96	0xbdd517b6	-0.10404913
97	0xbd87230d	-0.06598482
98	0x3d9a31b0	0.075290084
99	0x3d354e0e	0.044263892
100	0x3cb62e7d	0.022238964
101	0x3dabe0ce	0.083924875
102	0xbd97bf89	-0.07409579
103	0x3dac4488	0.08411509
104	0xbdb4079a	-0.087905124
105	0xbcf505a4	-0.029909916
106	0x3d355d45	0.044278402
107	0x3e5cbae5	0.2155567
108	0x3cea39a5	0.02859194
109	0xbd73de55	-0.059538204
110	0x3e003f57	0.12524162
111	0x3e10b2b1	0.14130665
112	0xbd82afd6	-0.06381194
113	0xbd73101c	-0.059341535
114	0xbc21c15b	-0.00987276
115	0xbd1f520e	-0.038896613
116	0x3d05f20b	0.032701533
117	0x3cd0bcf6	0.025480729
118	0xbb9c1324	-0.004763024
119	0x3c199e06	0.009376055
120	0xbdd3b279	-0.10336775
121	0x3d0e43da	0.034732677
122	0x3df86b24	0.121298105
123	0x3d20629b	0.039156538
124	0xbb455ccd	-0.0030115128
125	0x3de322a8	0.110905945
126	0x3d61c142	0.055115946
127	0x3c673bd0	0.0141133815
128	0xbd97aa77	-0.074055605
129	0xbde0a4ab	-0.10968908
130	0xbe07f523	-0.13277106
131	0xbdd28af9	-0.10280413
132	0xbdf8838e	-0.12134467
133	0x3d37eff5	0.044906575
134	0x3dd28394	0.10279003
135	0xbda1114f	-0.078646295
136	0x3c7a6aa3	0.015284213
137	0xbd36729d	-0.044542897
138	0xbd838068	-0.06420976
139	0xbd0e9256	-0.034807526
140	0x3d80ca1d	0.0628855
141	0xbcbff468	-0.023431972
142	0xbdb850ee	-0.08999811
143	0x3c1261a6	0.008934414
144	0x3e014fe3	0.1262813
145	0xbd5de59b	-0.054174047
146	0x3dc79e0d	0.09746943
147	0x3c874f66	0.016517352
148	0x3d2df3d9	0.04246888
149	0xbdb16c7d	-0.086632706
150	0xbe10511f	-0.14093445
151	0xbdb7c222	-0.08972575
152	0x3e7e4aa4	0.2483316
153	0x3d04d6cc	0.03243141
154	0x3c831ad7	0.01600401
155	0x3d456e56	0.048200928
156	0x3c4077c6	0.011747306
157	0xbe6ace93	-0.22930364
158	0x3d4ff962	0.05077494
159	0xbe23a560	-0.15981054
160	0x3db9bbf8	0.09069055
161	0x3df4796e	0.119372234
162	0xbbf714a3	-0.007540302
163	0xbcc4c1d0	-0.024018198
164	0x3e1fc375	0.15601905
165	0xbd932c64	-0.07186201
166	0xbcbdb39f	-0.02315694
167	0x3dc9bc1b	0.098503314
168	0x3e235de7	0.1595379
169	0xbdb087e8	-0.08619672
170	0xbe1a992b	-0.15097491
171	0x3d8d20e1	0.06891037
172	0xbe0db882	-0.13839915
173	0x3d1e1490	0.03859383
174	0xbd0802a9	-0.033205662
175	0x3d8ff8c6	0.07029872
176	0x3dcaa544	0.09894803
177	0xbdfb5e98	-0.12273902
178	0xbdcdfee9	-0.10058386
179	0x3d988bf5	0.0744857
180	0x3db67ce4	0.0891054
181	0xbcd36ac6	-0.02580775
182	0x3d29a838	0.04142019
183	0x3d23bb8f	0.03997379
184	0xbdd1178c	-0.10209569
185	0x3e081751	0.13290145
186	0x3cb06474	0.021532275
187	0x3dccb8cd	0.099961855
188	0x3b87cac4	0.0041440446
189	0x3e14133e	0.14460465
190	0x3bb0e826	0.005398768
191	0xbd611994	-0.054956034
192	0xbc000b21	-0.007815153
193	0xbdab6d38	-0.08370441
194	0xbd413dfc	-0.047178254
195	0x3dca096e	0.0986508
196	0x3e43e017	0.19128452
197	0x3d815269	0.063145466
198	0x3e085ef0	0.13317466
199	0x3cc6fc4c	0.024290226
200	0x3e96ace9	0.29428795
201	0x3c5580b9	0.013031178
202	0x3ead9dc2	0.33909422
203	0xbdede8c8	-0.11616665
204	0x3e10891e	0.14114806
205	0x3d8a6c43	0.067589305
206	0xbe824d5c	-0.25449646
207	0xbf2409ee	-0.6407765
208	0xbd39dbe6	-0.045375727
209	0xbe508bc9	-0.20365824
210	0xbc848bb0	-0.01617989
211	0xbb5b5643	-0.0033468164
212	0x3a7eb264	0.00097159133
213	0x3d6f00da	0.05835042
214	0x3d26437b	0.0405917
215	0xbe08f063	-0.1337295
216	0xbe89d18e	-0.2691769
217	0x3f0219cd	0.5082062
218	0x3df74c96	0.120751545
219	0xbe01666c	-0.12636727
220	0x3e3d3286	0.18476304
221	0xbd9ba9b0	-0.07600725
222	0xbd0e9492	-0.034809656
223	0xbd54036c	-0.051761076
224	0xbe7ac74b	-0.24490087
225	0x3d7724b3	0.060337733
226	0xbe1eed98	-0.15520322
227	0xbdcbf0f0	-0.099580646
228	0xbcbc223f	-0.022965549
229	0xbdb4d30b	-0.08829316
230	0xbd1f3cc3	-0.038876306
231	0xbd9eec63	-0.07759931
232	0x3c5c9045	0.013462131
233	0xbc93c542	-0.018038396
234	0x3dd16b9e	0.102256045
235	0x3e2573fe	0.16157529
236	0x3dac14f9	0.08402438
237	0x3ccc704f	0.024955897
238	0x3dff9c96	0.12481038
239	0x3dd08fff	0.10183715
240	0x3e64e6bb	0.22353642
241	0xbc576a4c	-0.013147902
242	0x3d5b0ae8	0.053477198
243	0xbbddf987	-0.0067741307
244	0x3dbad0f9	0.091218896
245	0xbd077701	-0.033072475
246	0x3db2ac60	0.08724284
247	0x3d8c4c14	0.06850448
248	0x3e49552b	0.19661395
249	0x3e50d854	0.20395023
250	0xbdec9698	-0.11552161
251	0xbcd80877	-0.026371224
252	0x3e27c244	0.163827
253	0xbd094674	-0.033514455
254	0x3e0ea8e9	0.13931622
255	0xbd7be14e	-0.061494164

bias f4 [50]
0	0xbd55d61d	-0.052206147
1	0x3bad2757	0.0052842307
2	0x3dc8ae46	0.09798865
3	0xbe162142	-0.14661124
4	0xbd8628fc	-0.06550786
5	0x3dc030e1	0.09384323
6	0x3d892faf	0.06698548
7	0x3deb0c8d	0.11477003
8	0xbd2f22ae	-0.042757683
9	0x3c45571b	0.012044693
10	0xbe13c28e	-0.14429685
11	0xbde605d4	-0.112315804
12	0x3da83061	0.082123525
13	0xbe0a9f09	-0.1353723
14	0xbddfb624	-0.109234124
15	0x3da17ffb	0.078857385
16	0x3d4b3778	0.049613446
17	0x3e080933	0.13284759
18	0xbe0ed993	-0.13950185
19	0xbdc06988	-0.093951285
20	0xbcf94e37	-0.030432804
21	0x3d52993f	0.051415678
22	0x3d0f6109	0.03500465
23	0xbde6b7d9	-0.11265535
24	0xbdbcf913	-0.09227195
25	0xbe28aedb	-0.16472952
26	0x3dbb2024	0.0913699
27	0x3d18b0eb	0.037278097
28	0x3e0b0ec5	0.13579853
29	0x3d671bb1	0.056422893
30	0x3ce4ed5b	0.027945211
31	0x3da79636	0.08182947
32	0x3dcddae6	0.10051517
33	0xbad54d19	-0.0016273587
34	0x3dc226fc	0.09480092
35	0x3d0b2df7	0.033979382
36	0x3d178d6e	0.037000112
37	0x3dfa0389	0.122077055
38	0x3dc7823a	0.097416356
39	0x3cee98e9	0.029125648
40	0xba75379d	-0.00093542953
41	0xbd74ea04	-0.059793487
42	0x3de68ffa	0.1125793
43	0xbd9ae367	-0.07562905
44	0xbb10f003	-0.0022115714
45	0xbb48656f	-0.0030578037
46	0xbdef52de	-0.116857275
47	0x3c6b5cdb	0.0143654
48	0xbd29aa38	-0.0414221
49	0xbcd90440	-0.026491284

mask f4 [50, 50]
0	0x3f800000	1.0
1	0x3f800000	1.0
2	0x3f800000	1.0
3	0x3f800000	1.0
4	0x3f800000	1.0
5	0x3f800000	1.0
6	0x3f800000	1.0
7	0x3f800000	1.0
8	0x3f800000	1.0
9	0x3f800000	1.0
10	0x3f800000	1.0
11	0x3f800000	1.0
12	0x3f800000	1.0
13	0x3f800000	1.0
14	0x3f800000	1.0
15	0x3f800000	1.0
16	0x3f800000	1.0
17	0x3f800000	1.0
18	0x3f800000	1.0
19	0x3f800000	1.0
20	0x3f800000	1.0
21	0x3f800000	1.0
22	0x3f800000	1.0
23	0x3f800000	1.0
24	0x3f800000	1.0
25	0x3f800000	1.0
26	0x3f800000	1.0
27	0x3f800000	1.0
28	0x3f800000	1.0
29	0x3f800000	1.0
30	0x3f800000	1.0
31	0x3f800000	1.0
32	0x3f800000	1.0
33	0x3f800000	1.0
34	0x3f800000	1.0
35	0x3f800000	1.0
36	0x3f800000	1.0
37	0x3f800000	1.0
38	0x3f800000	1.0
39	0x3f800000	1.0
40	0x3f800000	1.0
41	0x3f800000	1.0
42	0x3f800000	1.0
43	0x3f800000	1.0
44	0x3f800000	1.0
45	0x3f800000	1.0
46	0x3f800000	1.0
47	0x3f800000	1.0
48	0x3f800000	1.0
49	0x3f800000	1.0
50	0x3f800000	1.0
51	0x3f800000	1.0
52	0x3f800000	1.0
53	0x3f800000	1.0
54	0x3f800000	1.0
55	0x3f800000	1.0
56	0x3f800000	1.0
57	0x3f800000	1.0
58	0x3f800000	1.0
59	0x3f800000	1.0
60	0x3f800000	1.0
61	0x3f800000	1.0
62	0x3f800000	1.0
63	0x3f800000	1.0
64	0x3f800000	1.0
65	0x3f800000	1.0
66	0x3f800000	1.0
67	0x3f800000	1.0
68	0x3f800000	1.0
69	0x3f800000	1.0
70	0x3f800000	1.0
71	0x3f800000	1.0
72	0x3f800000	1.0
73	0x3f800000	1.0
74	0x3f800000	1.0
75	0x3f800000	1.0
76	0x3f800000	1.0
77	0x3f800000	1.0
78	0x3f800000	1.0
79	0x3f800000	1.0
80	0x3f800000	1.0
81	0x3f800000	1.0
82	0x3f800000	1.0
83	0x3f800000	1.0
84	0x3f800000	1.0
85	0x3f800000	1.0
86	0x3f800000	1.0
87	0x3f800000	1.0
88	0x3f800000	1.0
89	0x3f800000	1.0
90	0x3f800000	1.0
91	0x3f800000	1.0
92	0x3f800000	1.0
93	0x3f800000	1.0
94	0x3f800000	1.0
95	0x3f800000	1.0
96	0x3f800000	1.0
97	0x3f800000	1.0
98	0x3f800000	1.0
99	0x3f800000	1.0
100	0x3f800000	1.0
101	0x3f800000	1.0
102	0x3f800000	1.0
103	0x3f800000	1.0
104	0x3f800000	1.0
105	0x3f800000	1.0
106	0x3f800000	1.0
107	0x3f800000	1.0
108	0x3f800000	1.0
109	0x3f800000	1.0
110	0x3f800000	1.0
111	0x3f800000	1.0
112	0x3f800000	1.0
113	0x3f800000	1.0
114	0x3f800000	1.0
115	0x3f800000	1.0
116	0x3f800000	1.0
117	0x3f800000	1.0
118	0x3f800000	1.0
119	0x3f800000	1.0
120	0x3f800000	1.0
121	0x3f800000	1.0
122	0x3f800000	1.0
123	0x3f800000	1.0
124	0x3f800000	1.0
125	0x3f800000	1.0
126	0x3f800000	1.0
127	0x3f800000	1.0
128	0x3f800000	1.0
129	0x3f800000	1.0
130	0x3f800000	1.0
131	0x3f800000	1.0
132	0x3f800000	1.0
133	0x3f800000	1.0
134	0x3f800000	1.0
135	0x3f800000	1.0
136	0x3f800000	1.0
137	0x3f800000	1.0
138	0x3f800000	1.0
139	0x3f800000	1.0
140	0x3f800000	1.0
141	0x3f800000	1.0
142	0x3f800000	1.0
143	0x3f800000	1.0
144	0x3f800000	1.0
145	0x3f800000	1.0
146	0x3f800000	1.0
147	0x3f800000	1.0
148	0x3f800000	1.0
149	0x3f800000	1.0
150	0x3f800000	1.0
151	0x3f800000	1.0
152	0x3f800000	1.0
153	0x3f800000	1.0
154	0x3f800000	1.0
155	0x3f800000	1.0
156	0x3f800000	1.0
157	0x3f800000	1.0
158	0x3f800000	1.0
159	0x3f800000	1.0
160	0x3f800000	1.0
161	0x3f800000	1.0
162	0x3f800000	1.0
163	0x3f800000	1.0
164	0x3f800000	1.0
165	0x3f800000	1.0
166	0x3f800000	1.0
167	0x3f800000	1.0
168	0x3f800000	1.0
169	0x3f800000	1.0
170	0x3f800000	1.0
171	0x3f800000	1.0
172	0x3f800000	1.0
173	0x3f800000	1.0
174	0x3f800000	1.0
175	0x3f800000	1.0
176	0x3f800000	1.0
177	0x3f800000	1.0
178	0x3f800000	1.0
179	0x3f800000	1.0
180	0x3f800000	1.0
181	0x3f800000	1.0
182	0x3f800000	1.0
183	0x3f800000	1.0
184	0x3f800000	1.0
185	0x3f800000	1.0
186	0x3f800000	1.0
187	0x3f800000	1.0
188	0x3f800000	1.0
189	0x3f800000	1.0
190	0x3f800000	1.0
191	0x3f800000	1.0
192	0x3f800000	1.0
193	0x3f800000	1.0
194	0x3f800000	1.0
195	0x3f800000	1.0
196	0x3f800000	1.0
197	0x3f800000	1.0
198	0x3f800000	1.0
199	0x3f800000	1.0
200	0x3f800000	1.0
201	0x3f800000	1.0
202	0x3f800000	1.0
203	0x3f800000	1.0
204	0x3f800000	1.0
205	0x3f800000	1.0
206	0x3f800000	1.0
207	0x3f800000	1.0
208	0x3f800000	1.0
209	0x3f800000	1.0
210	0x3f800000	1.0
211	0x3f800000	1.0
212	0x3f800000	1.0
213	0x3f800000	1.0
214	0x3f800000	1.0
215	0x3f800000	1.0
216	0x3f800000	1.0
217	0x3f800000	1.0
218	0x3f800000	1.0
219	0x3f800000	1.0
220	0x3f800000	1.0
221	0x3f800000	1.0
222	0x3f800000	1.0
223	0x3f800000	1.0
224	0x3f800000	1.0
225	0x3f800000	1.0
226	0x3f800000	1.0
227	0x3f800000	1.0
228	0x3f800000	1.0
229	0x3f800000	1.0
230	0x3f800000	1.0
231	0x3f800000	1.0
232	0x3f800000	1.0
233	0x3f800000	1.0
234	0x3f800000	1.0
235	0x3f800000	1.0
236	0x3f800000	1.0
237	0x3f800000	1.0
238	0x3f800000	1.0
239	0x3f800000	1.0
240	0x3f800000	1.0
241	0x3f800000	1.0
242	0x3f800000	1.0
243	0x3f800000	1.0
244	0x3f800000	1.0
245	0x3f800000	1.0
246	0x3f800000	1.0
247	0x3f800000	1.0
248	0x3f800000	1.0
249	0x3f800000	1.0
250	0x3f800000	1.0
251	0x3f800000	1.0
252	0x3f800000	1.0
253	0x3f800000	1.0
254	0x3f800000	1.0
255	0x3f800000	1.0

weight f4 [4, 50]
0	0xbcf2d098	-0.02964048
1	0xbd4ded2a	-0.050275005
2	0x3d05da2c	0.032678768
3	0x3d18b878	0.037285298
4	0x3db1bb40	0.08678293
5	0xbc1e3830	-0.009656951
6	0xbdc3a43c	-0.095528096
7	0x3da260f8	0.079286516
8	0xbce689f8	-0.02814196
9	0xbe0937e0	-0.13400221
10	0x3d7d0344	0.061770692
11	0xbcec904c	-0.0288774
12	0x3db84840	0.089981556
13	0x3dd03a12	0.10167326
14	0xbdc08b1a	-0.094015315
15	0xbd2c3896	-0.042046152
16	0x3d94245e	0.07233499
17	0x3dc95cc4	0.09832147
18	0x3de1e172	0.110293284
19	0xbcb78ff4	-0.02240751
20	0xbdf7e874	-0.12104884
21	0x3baf11c0	0.005342692
22	0x3ceb8568	0.028750136
23	0xbd4e5106	-0.05037024
24	0x3e071fe1	0.13195755
25	0x3de2740a	0.11057289
26	0x3d988e24	0.07448986
27	0xbe066a17	-0.13126408
28	0x3e080e9d	0.13286825
29	0xbe06c5bc	-0.13161367
30	0x3dc0b852	0.09410156
31	0x3db6e406	0.08930211
32	0xbd4f5fb0	-0.050628364
33	0xbdc6c6bd	-0.09705875
34	0x3d839cb2	0.06426372
35	0x3c965f80	0.018356085
36	0x3c7d0560	0.015443176
37	0x3da30692	0.079602376
38	0xbd8dedef	-0.06930148
39	0x3dbaa1a6	0.09112863
40	0xbdb14d17	-0.08657282
41	0xbe0ead48	-0.13933289
42	0x3b0d2340	0.0021535903
43	0x3d620a9c	0.0551859
44	0x3e08afb7	0.1334828
45	0x3c24b2e0	0.010052413
46	0xbc160c10	-0.009158149
47	0xbd099460	-0.033588767
48	0x3c28b910	0.010298029
49	0xba95aa80	-0.0011418611
50	0xbdbc0c4a	-0.091820315
51	0x3dd8e08a	0.105897024
52	0x3dac0d5c	0.084009856
53	0x3caa8da8	0.0208195
54	0x3e0aa1bd	0.13538261
55	0xbd7a218a	-0.06106714
56	0xbdcab0e5	-0.09897021
57	0x3d25b390	0.040454447
58	0xbd984fe9	-0.07437117
59	0x3dcc5f6c	0.09979138
60	0x3db36652	0.087597504
61	0xbd7d6b48	-0.06186989
62	0x3d837638	0.06419033
63	0x3da6c36a	0.08142741
64	0xbde3ca80	-0.11122608
65	0x3d03339c	0.03203164
66	0x3e08bfd1	0.13354422
67	0x3d5fd008	0.054641753
68	0x3cb88a68	0.022526935
69	0x3d0951e0	0.033525348
70	0x3d4fbaf8	0.050715417
71	0xbdd02616	-0.10163514
72	0x3bccd5c0	0.006251067
73	0xbcda3410	-0.026636153
74	0x3e00192f	0.12509607
75	0xbc144130	-0.009048745
76	0x3d91d1b0	0.07120073
77	0x3c846d60	0.016165435
78	0xbd8d7736	-0.06907503
79	0x3ace1c80	0.0015725046
80	0x3e0229e5	0.12711294
81	0xbc517b20	-0.012785703
82	0x3e0ee1cb	0.1395332
83	0xbe0e4ab1	-0.1389568
84	0xbdd829e8	-0.10554868
85	0x3df926da	0.121656135
86	0x3dfc1546	0.12308745
87	0xbddbe389	-0.10736758
88	0x3db01d68	0.08599359
89	0xbd723f32	-0.0591423
90	0x3db15b04	0.08659938
91	0xbdc61396	-0.096717045
92	0x3cf09948	0.029369965
93	0x3db9cf6a	0.09072764
94	0x3aa0bf80	0.0012264103
95	0xbcf91fa0	-0.030410588
96	0x3e0a343f	0.13496493
97	0xbd844c84	-0.06459907
98	0x3dc9018c	0.09814748
99	0x3c9ae7b0	0.018909305
100	0xbe089898	-0.1333946
101	0xbd3441e9	-0.04400817
102	0xbdd7825e	-0.105229124
103	0xbd3d075b	-0.046149593
104	0x3daf3192	0.08554377
105	0xbd5402f3	-0.051760625
106	0xbdf7165e	-0.12064813
107	0x3d468950	0.048470795
108	0x3da1e452	0.07904877
109	0x3dfafd49	0.122553416
110	0xbdfb5444	-0.12271932
111	0x3dad8af2	0.08473767
112	0x3ddb2b9a	0.10701676
113	0xbe10ade0	-0.14128828
114	0xbe28086d	-0.16409464
115	0x3e1a7bff	0.15086363
116	0x3d5ef84b	0.05443601
117	0x3e04f57e	0.12984273
118	0xbd718575	-0.058965165
119	0xbdf719b1	-0.12065447
120	0x3d8aa8a1	0.06770445
121	0x3de4527c	0.11148545
122	0xbd99e692	-0.07514681
123	0xbddf0085	-0.10888771
124	0xbdfd7d97	-0.1237747
125	0xbe29056e	-0.16505978
126	0xbe2246d9	-0.15847339
127	0x3d2e477a	0.042548634
128	0x3e254cc1	0.1614256
129	0xbd629233	-0.055315208
130	0xbde085e6	-0.10963039
131	0x3da853bd	0.08219097
132	0x3d8a1966	0.067431256
133	0xbe17d908	-0.14828885
134	0x3dc2b884	0.0950785
135	0x3e03d985	0.12875946
136	0x3e268b7f	0.16264151
137	0x3db96814	0.090530545
138	0x3dbf678c	0.09345922
139	0x3daa1fc8	0.08306843
140	0x3e1e2bf6	0.15446457
141	0x3d238928	0.039925724
142	0xbd6b28d6	-0.05741199
143	0xbe0515c6	-0.12996587
144	0x3e0ba9dd	0.13639016
145	0x3dd11f58	0.102110565
146	0xbdcbc803	-0.099502586
147	0xbe1773ec	-0.14790314
148	0xbd8f3e42	-0.069942966
149	0x3daa3272	0.08310403
150	0x3cbfdeaf	0.023421613
151	0x3d7c9e5b	0.061674457
152	0x3dbaf760	0.09129214
153	0xbd68572c	-0.05672376
154	0xbed5f785	-0.41790405
155	0xbd004348	-0.031314164
156	0x3e2f02f9	0.17090978
157	0xbdf50bde	-0.11965154
158	0xbe907787	-0.28216192
159	0x3dd3cde8	0.10342008
160	0x3df93d68	0.121699154
161	0x3dcd648a	0.10028942
162	0xbcda47af	-0.02664551
163	0x3e0b02f9	0.13575353
164	0x3e2ca6e0	0.16860533
165	0xbda3c634	-0.079967886
166	0x3db07dfd	0.0861778
167	0xbcc5cf38	-0.024146661
168	0xbd2ac27e	-0.04168939
169	0xbf05cedc	-0.5226877
170	0xbd880798	-0.066420734
171	0xbe0f249a	-0.13978806
172	0x3e9af186	0.30262393
173	0xbdaf4039	-0.085571714
174	0x3d9841b6	0.07434408
175	0x3d2170f6	0.03941437
176	0xbf00d3a9	-0.5032297
177	0xbdda3143	-0.10653927
178	0xbda31fd7	-0.07965057
179	0x3d264292	0.04059083
180	0xbed44fac	-0.41467035
181	0xbe709c68	-0.23497164
182	0x3e1269d6	0.14298186
183	0x3e1860a9	0.14880623
184	0xbe33cfc1	-0.1755972
185	0xbd31a47b	-0.04336975
186	0xbdc655f3	-0.09684362
187	0xbe6df1b3	-0.23236732
188	0xbe7808f3	-0.24222164
189	0xbe0fb983	-0.14035611
190	0x3dbadf8a	0.09124668
191	0x3cbd3176	0.023094874
192	0x3e9bdd4d	0.30442277
193	0xbd14eefb	-0.036360722
194	0x3c586773	0.013208258
195	0xbd6889a7	-0.0567719
196	0xbcd0590d	-0.025433088
197	0x3e3df276	0.18549523
198	0x3e256580	0.16152
199	0x3e0308be	0.12796304

bias f4 [4]
0	0x3d3b1ed1	0.045683686
1	0x3db4a899	0.0882122
2	0xbd99c43b	-0.07508131
3	0xbd76b659	-0.060232494

mask f4 [4, 50]
0	0x00000000	0.0
1	0x00000000	0.0
2	0x00000000	0.0
3	0x00000000	0.0
4	0x00000000	0.0
5	0x00000000	0.0
6	0x00000000	0.0
7	0x00000000	0.0
8	0x00000000	0.0
9	0x00000000	0.0
10	0x00000000	0.0
11	0x00000000	0.0
12	0x00000000	0.0
13	0x00000000	0.0
14	0x00000000	0.0
15	0x00000000	0.0
16	0x00000000	0.0
17	0x00000000	0.0
18	0x00000000	0.0
19	0x00000000	0.0
20	0x00000000	0.0
21	0x00000000	0.0
22	0x00000000	0.0
23	0x00000000	0.0
24	0x00000000	0.0
25	0x00000000	0.0
26	0x00000000	0.0
27	0x00000000	0.0
28	0x00000000	0.0
29	0x00000000	0.0
30	0x00000000	0.0
31	0x00000000	0.0
32	0x00000000	0.0
33	0x00000000	0.0
34	0x00000000	0.0
35	0x00000000	0.0
36	0x00000000	0.0
37	0x00000000	0.0
38	0x00000000	0.0
39	0x00000000	0.0
40	0x00000000	0.0
41	0x00000000	0.0
42	0x00000000	0.0
43	0x00000000	0.0
44	0x00000000	0.0
45	0x00000000	0.0
46	0x00000000	0.0
47	0x00000000	0.0
48	0x00000000	0.0
49	0x00000000	0.0
50	0x00000000	0.0
51	0x00000000	0.0
52	0x00000000	0.0
53	0x00000000	0.0
54	0x00000000	0.0
55	0x00000000	0.0
56	0x00000000	0.0
57	0x00000000	0.0
58	0x00000000	0.0
59	0x00000000	0.0
60	0x00000000	0.0
61	0x00000000	0.0
62	0x00000000	0.0
63	0x00000000	0.0
64	0x00000000	0.0
65	0x00000000	0.0
66	0x00000000	0.0
67	0x00000000	0.0
68	0x00000000	0.0
69	0x00000000	0.0
70	0x00000000	0.0
71	0x00000000	0.0
72	0x00000000	0.0
73	0x00000000	0.0
74	0x00000000	0.0
75	0x00000000	0.0
76	0x00000000	0.0
77	0x00000000	0.0
78	0x00000000	0.0
79	0x00000000	0.0
80	0x00000000	0.0
81	0x00000000	0.0
82	0x00000000	0.0
83	0x00000000	0.0
84	0x00000000	0.0
85	0x00000000	0.0
86	0x00000000	0.0
87	0x00000000	0.0
88	0x00000000	0.0
89	0x00000000	0.0
90	0x00000000	0.0
91	0x00000000	0.0
92	0x00000000	0.0
93	0x00000000	0.0
94	0x00000000	0.0
95	0x00000000	0.0
96	0x00000000	0.0
97	0x00000000	0.0
98	0x00000000	0.0
99	0x00000000	0.0
100	0x3f800000	1.0
101	0x3f800000	1.0
102	0x3f800000	1.0
103	0x3f800000	1.0
104	0x3f800000	1.0
105	0x3f800000	1.0
106	0x3f800000	1.0
107	0x3f800000	1.0
108	0x3f800000	1.0
109	0x3f800000	1.0
110	0x3f800000	1.0
111	0x3f800000	1.0
112	0x3f800000	1.0
113	0x3f800000	1.0
114	0x3f800000	1.0
115	0x3f800000	1.0
116	0x3f800000	1.0
117	0x3f800000	1.0
118	0x3f800000	1.0
119	0x3f800000	1.0
120	0x3f800000	1.0
121	0x3f800000	1.0
122	0x3f800000	1.0
123	0x3f800000	1.0
124	0x3f800000	1.0
125	0x3f800000	1.0
126	0x3f800000	1.0
127	0x3f800000	1.0
128	0x3f800000	1.0
129	0x3f800000	1.0
130	0x3f800000	1.0
131	0x3f800000	1.0
132	0x3f800000	1.0
133	0x3f800000	1.0
134	0x3f800000	1.0
135	0x3f800000	1.0
136	0x3f800000	1.0
137	0x3f800000	1.0
138	0x3f800000	1.0
139	0x3f800000	1.0
140	0x3f800000	1.0
141	0x3f800000	1.0
142	0x3f800000	1.0
143	0x3f800000	1.0
144	0x3f800000	1.0
145	0x3f800000	1.0
146	0x3f800000	1.0
147	0x3f800000	1.0
148	0x3f800000	1.0
149	0x3f800000	1.0
150	0x3f800000	1.0
151	0x3f800000	1.0
152	0x3f800000	1.0
153	0x3f800000	1.0
154	0x3f800000	1.0
155	0x3f800000	1.0
156	0x3f800000	1.0
157	0x3f800000	1.0
158	0x3f800000	1.0
159	0x3f800000	1.0
160	0x3f800000	1.0
161	0x3f800000	1.0
162	0x3f800000	1.0
163	0x3f800000	1.0
164	0x3f800000	1.0
165	0x3f800000	1.0
166	0x3f800000	1.0
167	0x3f800000	1.0
168	0x3f800000	1.0
169	0x3f800000	1.0
170	0x3f800000	1.0
171	0x3f800000	1.0
172	0x3f800000	1.0
173	0x3f800000	1.0
174	0x3f800000	1.0
175	0x3f800000	1.0
176	0x3f800000	1.0
177	0x3f800000	1.0
178	0x3f800000	1.0
179	0x3f800000	1.0
180	0x3f800000	1.0
181	0x3f800000	1.0
182	0x3f800000	1.0
183	0x3f800000	1.0
184	0x3f800000	1.0
185	0x3f800000	1.0
186	0x3f800000	1.0
187	0x3f800000	1.0
188	0x3f800000	1.0
189	0x3f800000	1.0
190	0x3f800000	1.0
191	0x3f800000	1.0
192	0x3f800000	1.0
193	0x3f800000	1.0
194	0x3f800000	1.0
195	0x3f800000	1.0
196	0x3f800000	1.0
197	0x3f800000	1.0
198	0x3f800000	1.0
199	0x3f800000	1.0

weight f4 [50, 2]
0	0xbf1e3d40	-0.6181221
1	0xbf269d6e	-0.6508397
2	0xbeba87ce	-0.36431736
3	0xbeba851c	-0.3642968
4	0x3eacb2ad	0.3373007
5	0xbe72a4a8	-0.23695624
6	0x3daf4521	0.08558107
7	0xbe917206	-0.28407305
8	0xbec86ebd	-0.39146987
9	0xbe86ae54	-0.26304877
10	0x3ecfea22	0.40608317
11	0xbde08b48	-0.10964066
12	0xbe55cdb1	-0.20879246
13	0xbece3bad	-0.40279904
14	0xbe75b699	-0.23995437
15	0xbec31dc5	-0.3810865
16	0x3e8f91d8	0.28040957
17	0xbde43998	-0.11143798
18	0x3da1627c	0.078801125
19	0xbf0e0d3f	-0.5548896
20	0xbea20e6b	-0.31651625
21	0x3e2fe6b4	0.1717785
22	0x3eb48b41	0.35262492
23	0x3ed9e04e	0.42553943
24	0x3f0fd377	0.56182045
25	0x3e0cf74c	0.13766211
26	0x3c420682	0.011842372
27	0xbf0423aa	-0.5161692
28	0x3efa7302	0.4891587
29	0x3daa6188	0.08319384
30	0x3da6cc46	0.08144431
31	0x3eb249f2	0.3482204
32	0xbf1e973d	-0.6194952
33	0x3f1e6327	0.61870044
34	0xbe567d70	-0.20946288
35	0x3e5cc898	0.21560895
36	0x3f1c686f	0.61096853
37	0xbeef69c3	-0.46760377
38	0xbed47f6f	-0.41503474
39	0x3eb09566	0.34488982
40	0xbe30b7af	-0.1725757
41	0x3f2e466b	0.680762
42	0x3ea9dbe5	0.3317558
43	0x3e4d2f28	0.2003752
44	0xbf06299b	-0.52407235
45	0x3cc53ba0	0.024076283
46	0x3ee8f1fe	0.45497125
47	0xbedc2548	-0.42997193
48	0x3d986648	0.074413836
49	0xbeb665eb	-0.35624632
50	0xbdbe750e	-0.0929967
51	0xbd01e660	-0.031713843
52	0xbe233f53	-0.15942125
53	0x3e7118b8	0.23544586
54	0xbee5fad7	-0.44917938
55	0xbf2f3c58	-0.6845145
56	0xbf1c2bb3	-0.6100418
57	0xbf1a9d58	-0.6039634
58	0xbe7031ef	-0.23456548
59	0xbdef9c38	-0.11699718
60	0x3e25b9e5	0.16184194
61	0xbefa1efe	-0.4885177
62	0x3ddf4e86	0.10903649
63	0xbe88df43	-0.26732835
64	0xbdff3a17	-0.12462252
65	0xbede6b68	-0.4344132
66	0x3f19d8dd	0.6009653
67	0x3f1e33eb	0.6179797
68	0xbea0fbce	-0.31442112
69	0x3d721fa0	0.05911219
70	0xbef26106	-0.47339648
71	0x3a681000	0.0008852482
72	0x3d7a0c12	0.061046667
73	0xbefd68fe	-0.49494165
74	0xbe01dd5c	-0.12682098
75	0xbecb4eb4	-0.39708483
76	0x3f0b03af	0.54302496
77	0x3f04a015	0.51806766
78	0x3dc4411b	0.095827304
79	0xbed133ae	-0.4085974
80	0x3ebc36cb	0.36760554
81	0xbe946bc6	-0.28988475
82	0xbe8af4fb	-0.2714003
83	0x3d9a2a68	0.075276196
84	0xbee27b74	-0.44234812
85	0x3f051909	0.51991326
86	0x3e13b981	0.14426233
87	0xbe203508	-0.1564523
88	0xbf090f34	-0.53538823
89	0xbf0b4138	-0.5439639
90	0x3dd7b7f3	0.105331324
91	0xbe17ce04	-0.14824682
92	0x3e405fd7	0.1878656
93	0xbe7b5910	-0.24545693
94	0x3f00b215	0.5027173
95	0x3e082e88	0.13299
96	0xbedb8098	-0.42871547
97	0x3e8a30aa	0.26990253
98	0x3d897989	0.06712634
99	0xbf158498	-0.58405447

bias f4 [50]
0	0x3f14126c	0.5784061
1	0xbf2659a7	-0.6498055
2	0xbf00c6b1	-0.5030318
3	0xbf03b697	-0.51450485
4	0x3ec7c237	0.39015362
5	0xbea71e8a	-0.32640487
6	0xbf247d89	-0.6425405
7	0xbe992655	-0.29912058
8	0xbf1947d7	-0.59875244
9	0xbe940359	-0.28908804
10	0xbf26178e	-0.6487969
11	0xbf171c51	-0.5902758
12	0x3e236cae	0.15959427
13	0xbebd7a0d	-0.3700718
14	0x3ec1db10	0.37862444
15	0x3ead49c4	0.3384534
16	0xbe032e04	-0.12810522
17	0xbd62df2b	-0.05538861
18	0xbf14cc02	-0.5812379
19	0x3ea5e29d	0.32399455
20	0x3efd3322	0.49453074
21	0xbe8f8d11	-0.28037313
22	0x3e50d5b1	0.20394017
23	0xbf200c2f	-0.6251859
24	0xbf1b34bb	-0.60627335
25	0x3f1933cc	0.5984466
26	0xbedbd853	-0.4293848
27	0x3d64c1ff	0.05584907
28	0x3f056fbf	0.52123636
29	0xbc11d0d4	-0.008899886
30	0xbd229984	-0.039697185
31	0x3e728134	0.236821
32	0x3ebb9eeb	0.36644682
33	0x3f2b5ebf	0.66941446
34	0x3f18607b	0.5952222
35	0x3ee1fd12	0.4413839
36	0x3f0389c2	0.51382077
37	0xbf0bd13e	-0.54616153
38	0x3dd9820b	0.10620507
39	0x3dd14657	0.102184944
40	0x3edf93a3	0.43667325
41	0x3f212826	0.62951887
42	0xbe3cbd4c	-0.18431586
43	0xbe8fe44d	-0.28103867
44	0x3f05b7c9	0.5223356
45	0x3e2ea37c	0.17054552
46	0x3f2500a1	0.64454085
47	0xbec65507	-0.38736746
48	0x3e7520c3	0.23938279
49	0x3f27185a	0.6527153

mask f4 [50, 2]
0	0x3f800000	1.0
1	0x00000000	0.0
2	0x3f800000	1.0
3	0x00000000	0.0
4	0x3f800000	1.0
5	0x00000000	0.0
6	0x3f800000	1.0
7	0x00000000	0.0
8	0x3f800000	1.0
9	0x00000000	0.0
10	0x3f800000	1.0
11	0x00000000	0.0
12	0x3f800000	1.0
13	0x00000000	0.0
14	0x3f800000	1.0
15	0x00000000	0.0
16	0x3f800000	1.0
17	0x00000000	0.0
18	0x3f800000	1.0
19	0x00000000	0.0
20	0x3f800000	1.0
21	0x00000000	0.0
22	0x3f800000	1.0
23	0x00000000	0.0
24	0x3f800000	1.0
25	0x00000000	0.0
26	0x3f800000	1.0
27	0x00000000	0.0
28	0x3f800000	1.0
29	0x00000000	0.0
30	0x3f800000	1.0
31	0x00000000	0.0
32	0x3f800000	1.0
33	0x00000000	0.0
34	0x3f800000	1.0
35	0x00000000	0.0
36	0x3f800000	1.0
37	0x00000000	0.0
38	0x3f800000	1.0
39	0x00000000	0.0
40	0x3f800000	1.0
41	0x00000000	0.0
42	0x3f800000	1.0
43	0x00000000	0.0
44	0x3f800000	1.0
45	0x00000000	0.0
46	0x3f800000	1.0
47	0x00000000	0.0
48	0x3f800000	1.0
49	0x00000000	0.0
50	0x3f800000	1.0
51	0x00000000	0.0
52	0x3f800000	1.0
53	0x00000000	0.0
54	0x3f800000	1.0
55	0x00000000	0.0
56	0x3f800000	1.0
57	0x00000000	0.0
58	0x3f800000	1.0
59	0x00000000	0.0
60	0x3f800000	1.0
61	0x00000000	0.0
62	0x3f800000	1.0
63	0x00000000	0.0
64	0x3f800000	1.0
65	0x00000000	0.0
66	0x3f800000	1.0
67	0x00000000	0.0
68	0x3f800000	1.0
69	0x00000000	0.0
70	0x3f800000	1.0
71	0x00000000	0.0
72	0x3f800000	1.0
73	0x00000000	0.0
74	0x3f800000	1.0
75	0x00000000	0.0
76	0x3f800000	1.0
77	0x00000000	0.0
78	0x3f800000	1.0
79	0x00000000	0.0
80	0x3f800000	1.0
81	0x00000000	0.0
82	0x3f800000	1.0
83	0x00000000	0.0
84	0x3f800000	1.0
85	0x00000000	0.0
86	0x3f800000	1.0
87	0x00000000	0.0
88	0x3f800000	1.0
89	0x00000000	0.0
90	0x3f800000	1.0
91	0x00000000	0.0
92	0x3f800000	1.0
93	0x00000000	0.0
94	0x3f800000	1.0
95	0x00000000	0.0
96	0x3f800000	1.0
97	0x00000000	0.0
98	0x3f800000	1.0
99	0x00000000	0.0
