04a/Results_O4a_MultiSeed_Final/Models_Seed_1024_20260210/model_trad_seed_1024.pth (torch, 276498 bytes, 76 tensors)

_shift f4 [2]
000000 57 62 26 40 36 fb dd bf
       2.5997522 -1.7342288

_scale f4 [2]
000000 f2 ec 30 3e 58 57 5d 40
       0.17277887 3.458456

weight f4 [50, 2]
000000 14 b5 17 bf e2 56 a1 3e 58 e3 29 bf a5 d0 ac be
       -0.5926068 0.315116 -0.66362524 -0.33752933
000010 48 85 dc 3e df f3 23 3f d9 d5 1f 3f 44 07 16 bf
       0.43070436 0.6404399 0.6243568 -0.58604836
000020 5b b2 19 bf 7b 4b 0a 3f 49 94 18 be 82 a9 0e bf
       -0.60037774 0.54021424 -0.14900316 -0.557274
000030 b0 e0 2f be 5f e2 83 be 64 47 11 3e 65 87 05 3f
       -0.17175555 -0.25758645 0.1418739 0.5215972
000040 b1 ce bd be 0f 06 0f 3f 01 3e b7 3e b0 c2 60 3e
       -0.37071756 0.5586862 0.35789493 0.21949267
000050 fe a4 cf be 77 f1 ce be b8 03 36 3b bc 13 21 3e
       -0.40555567 -0.40418598 0.0027773213 0.15730184
000060 2c 5f 0a bf 37 bd a7 be 5b 81 eb 3e 80 e2 82 3e
       -0.5405147 -0.32761547 0.45997128 0.2556343
000070 2b 83 24 bf cb 3c 0f 3f 2e 7e 9a be 4b 0a d3 be
       -0.64262646 0.5595214 -0.30174392 -0.4121879
000080 12 17 0c 3e 00 6b c6 bc 30 46 15 3f ee 55 eb be
       0.13680676 -0.024220943 0.5831022 -0.45963997
000090 72 56 08 be ae 73 97 be d4 51 b5 3e 10 b7 9a be
       -0.13314226 -0.29580444 0.35413992 -0.3021779
0000a0 69 f9 58 be 10 1d 10 bf 6b 33 19 bf 5e b5 01 bf
       -0.21188892 -0.56294346 -0.5984408 -0.5066737
0000b0 4b 68 26 3d b2 03 d8 be 85 af 2b 3e 7a 80 19 bf
       0.040626805 -0.4219032 0.16766174 -0.59961665
0000c0 aa 6d 12 bd d0 d7 83 bd 9a b4 67 3e 68 a9 25 bf
       -0.035749115 -0.06437647 0.22627488 -0.6471162
0000d0 0b 2c de bb ca da e9 3e df a6 1f 3f c2 80 9a be
       -0.0067801527 0.45674735 0.62364 -0.3017636
0000e0 15 72 1a bf fa f9 e1 3e 16 a1 1f 3f ac af 5f be
       -0.60330325 0.4413603 0.6235517 -0.21844357
0000f0 6f 3e 19 bf 67 b6 0f 3f f1 65 ee be f0 54 da bd
       -0.5986089 0.561377 -0.4656215 -0.10660732
000100 3b 11 de be 1b 8f 01 3f 91 be 0f 3e 60 d3 98 bc
       -0.4337252 0.50608987 0.14037539 -0.018655479
000110 6b 49 0b 3f 52 bb f1 be be 8b a0 3e 26 96 fa 3e
       0.544089 -0.47213227 0.31356615 0.4894268
000120 d0 eb 3e be 85 86 99 be d9 fb 5e be e2 15 cc 3e
       -0.18644643 -0.29985443 -0.2177576 0.39860445
000130 45 9c 42 3d 14 6b 2d be 8e fa 8b be d8 e2 41 be
       0.04751231 -0.16935378 -0.27339596 -0.1893419
000140 12 1f bc 3e 4e dd d1 3e 98 45 23 3d a8 1a 18 bf
       0.36742455 0.40989155 0.03986129 -0.59415674
000150 3e 06 ef 3e 64 8d 53 3e a6 14 70 3d 0f 70 03 3f
       0.4668445 0.20659405 0.058613442 0.5134286
000160 26 57 28 bf 8e 20 f1 3e f7 13 c0 3d da 74 e6 3e
       -0.6575798 0.4709515 0.09378808 0.45011026
000170 7e 92 27 bc 5d ac 31 3f 6f d7 e4 bd fb 55 ca be
       -0.010227798 0.6940363 -0.11173903 -0.39518723
000180 81 7d 8c be 37 c3 b1 be 9a 51 3d 3d a7 56 0d 3f
       -0.27439502 -0.3471925 0.0462204 0.55210346

bias f4 [50]
000000 f4 05 e3 be be fe 02 3f cc 25 0a 3e 3c 4d cd bd
       -0.4434048 0.51169956 0.13490981 -0.10024497
000010 aa ed 13 3f fe ee 0d bf 5a bb 1d bf 4b cc 69 3d
       0.5778452 -0.554428 -0.61614 0.057079595
000020 86 09 80 3e 08 20 8b be 80 08 32 bf 69 be fa 3e
       0.25007266 -0.27172875 -0.6954422 0.48973396
000030 f5 cb 31 bf f7 6d 9e 3e 27 aa e8 3d 34 59 34 bf
       -0.6945184 0.30943272 0.11360579 -0.70448613
000040 22 dd d9 3c 9a 2c f2 be 51 ea 35 3f e7 ea 89 3e
       0.026594702 -0.47299653 0.71060663 0.2693703
000050 39 60 69 be dc 87 a0 bd 9f ee 28 3f 88 f6 54 be
       -0.22790612 -0.07838413 0.65989107 -0.20797169
000060 68 5a 9d bd 36 70 7b be da da 00 3f 67 22 bb 3e
       -0.07683259 -0.24554524 0.5033394 0.36549684
000070 5e ab 8d be d3 ac 26 bc a8 33 22 3d 52 01 b6 3e
       -0.27669805 -0.01017304 0.039600044 0.35547882
000080 da 6b 03 3f 48 3b 37 bf e1 d9 37 bf c2 89 65 3e
       0.51336443 -0.7157483 -0.7181683 0.22415832
000090 7a 97 93 3e 63 8f ca be 86 1a a9 3e 7d bb b8 bd
       0.28826505 -0.3956252 0.33028048 -0.090201356
0000a0 16 0d 50 3e 42 fe ab bd 2d f6 7d 3e 38 f0 a4 bc
       0.20317492 -0.08398105 0.2480094 -0.020134076
0000b0 d2 59 be be 69 2b 0a bf a9 d5 90 3e 97 7a 17 3f
       -0.37177902 -0.5397249 0.2828801 0.5917143
0000c0 e4 f4 d0 3e 02 4b 84 3e
       0.40811837 0.25838476

mask f4 [50, 2]
000000 00 00 80 3f 00 00 00 00 00 00 80 3f 00 00 00 00
       1.0 0.0 1.0 0.0
000010 00 00 80 3f 00 00 00 00 00 00 80 3f 00 00 00 00
       1.0 0.0 1.0 0.0
000020 00 00 80 3f 00 00 00 00 00 00 80 3f 00 00 00 00
       1.0 0.0 1.0 0.0
000030 00 00 80 3f 00 00 00 00 00 00 80 3f 00 00 00 00
       1.0 0.0 1.0 0.0
000040 00 00 80 3f 00 00 00 00 00 00 80 3f 00 00 00 00
       1.0 0.0 1.0 0.0
000050 00 00 80 3f 00 00 00 00 00 00 80 3f 00 00 00 00
       1.0 0.0 1.0 0.0
000060 00 00 80 3f 00 00 00 00 00 00 80 3f 00 00 00 00
       1.0 0.0 1.0 0.0
000070 00 00 80 3f 00 00 00 00 00 00 80 3f 00 00 00 00
       1.0 0.0 1.0 0.0
000080 00 00 80 3f 00 00 00 00 00 00 80 3f 00 00 00 00
       1.0 0.0 1.0 0.0
000090 00 00 80 3f 00 00 00 00 00 00 80 3f 00 00 00 00
       1.0 0.0 1.0 0.0
0000a0 00 00 80 3f 00 00 00 00 00 00 80 3f 00 00 00 00
       1.0 0.0 1.0 0.0
0000b0 00 00 80 3f 00 00 00 00 00 00 80 3f 00 00 00 00
       1.0 0.0 1.0 0.0
0000c0 00 00 80 3f 00 00 00 00 00 00 80 3f 00 00 00 00
       1.0 0.0 1.0 0.0
0000d0 00 00 80 3f 00 00 00 00 00 00 80 3f 00 00 00 00
       1.0 0.0 1.0 0.0
0000e0 00 00 80 3f 00 00 00 00 00 00 80 3f 00 00 00 00
       1.0 0.0 1.0 0.0
0000f0 00 00 80 3f 00 00 00 00 00 00 80 3f 00 00 00 00
       1.0 0.0 1.0 0.0
000100 00 00 80 3f 00 00 00 00 00 00 80 3f 00 00 00 00
       1.0 0.0 1.0 0.0
000110 00 00 80 3f 00 00 00 00 00 00 80 3f 00 00 00 00
       1.0 0.0 1.0 0.0
000120 00 00 80 3f 00 00 00 00 00 00 80 3f 00 00 00 00
       1.0 0.0 1.0 0.0
000130 00 00 80 3f 00 00 00 00 00 00 80 3f 00 00 00 00
       1.0 0.0 1.0 0.0
000140 00 00 80 3f 00 00 00 00 00 00 80 3f 00 00 00 00
       1.0 0.0 1.0 0.0
000150 00 00 80 3f 00 00 00 00 00 00 80 3f 00 00 00 00
       1.0 0.0 1.0 0.0
000160 00 00 80 3f 00 00 00 00 00 00 80 3f 00 00 00 00
       1.0 0.0 1.0 0.0
000170 00 00 80 3f 00 00 00 00 00 00 80 3f 00 00 00 00
       1.0 0.0 1.0 0.0
000180 00 00 80 3f 00 00 00 00 00 00 80 3f 00 00 00 00
       1.0 0.0 1.0 0.0

weight f4 [50, 2]
000000 d3 4f cf bd 3b 73 32 3f 7d 63 0a bf 35 f9 df 3e
       -0.10122647 0.6970708 -0.5405806 0.43744817
000010 c6 b3 06 bf f3 84 09 bf be c5 fa 3e 51 c1 3c be
       -0.5261806 -0.5371849 0.4897899 -0.1843312
000020 a7 c1 42 3e 34 7d 12 3f 70 48 d8 be 82 ad d5 be
       0.19019185 0.57222295 -0.42242765 -0.41733938
000030 3b 11 d5 37 92 5c 28 3f ac 2f 19 bf f6 b2 4e bb
       2.5399602e-05 0.6576625 -0.59838367 -0.0031539774
000040 dc 70 f5 3e 55 62 08 bf 31 f3 d8 be f1 c9 df bd
       0.47937667 -0.5327504 -0.4237304 -0.10927189
000050 ec 8e 03 3f f4 15 f0 3e 4b a7 e3 3e 97 4d 17 3f
       0.51389956 0.4689175 0.44463572 0.5910277
000060 b5 5a 77 be 9f 18 e1 3e 13 f2 53 3c a1 85 bf 3d
       -0.24155696 0.43964097 0.012936133 0.093516596
000070 3f f9 2c be 27 94 32 3e 14 ae 68 3e 0a 2c 14 3e
       -0.16891955 0.17439328 0.22722656 0.14469925
000080 47 60 af be 55 19 ba 3e 79 dc 20 bf 21 5a 80 bd
       -0.3425314 0.36347452 -0.62836415 -0.06267191
000090 b4 7d ca 3e c1 b7 d5 be f2 23 03 bf b3 fc 19 bf
       0.3954903 -0.41741756 -0.51226723 -0.60151213
0000a0 4c 6d 26 3f 37 b3 0c bf 68 6c d2 be 41 90 4d be
       0.65010524 -0.5496096 -0.41098332 -0.2007456
0000b0 cd 2f 84 be 72 da 1e bf b4 b6 b8 3e ce 54 ef be
       -0.2581772 -0.6205207 0.3607689 -0.46744388
0000c0 8d b4 19 3f 9c 57 1e bf 7a 3b c4 3e c2 65 d9 bc
       0.60041124 -0.6185243 0.38326627 -0.02653778
0000d0 9c 2e df 3e a1 2e a0 bc c0 fd 8a 3e 24 a0 2c bf
       0.43590248 -0.019553484 0.2714672 -0.67431855
0000e0 87 37 fc be ef 49 db be 5c be 31 bf e6 a2 21 3f
       -0.49261114 -0.42829844 -0.6943109 0.6313919
0000f0 79 75 ec be a0 0b c7 3e 6c 11 5c be 1f d7 1d 3f
       -0.46183375 0.38876057 -0.21491021 0.61656374
000100 97 9a 90 be 76 dc 29 3f 5a fe f9 be 96 af 0c bf
       -0.28242943 0.6635202 -0.48826867 -0.5495542
000110 b2 f6 50 be 46 28 02 3f 27 0c 60 bd 86 81 24 bf
       -0.20406607 0.508427 -0.05469909 -0.6426014
000120 7f c5 09 bf dc 0f ed be 0d 15 af 3e bf 49 25 bf
       -0.5381698 -0.46301162 0.34195748 -0.6456565
000130 8b 59 b3 be 04 9e 42 be f9 e2 0d bf 69 bf da be
       -0.35029253 -0.1900559 -0.5542446 -0.4272416
000140 48 17 21 bf 50 c0 da bd f6 94 f7 be 22 51 02 bf
       -0.6292615 -0.10681212 -0.48355836 -0.5090505
000150 66 f9 66 3e 16 f1 1a 3f b0 5a 17 3e 48 e2 a4 3e
       0.22556075 0.6052412 0.14780688 0.3220389
000160 9a ba ee be 80 ad b2 bd 71 98 0c be 1c fe 02 bf
       -0.4662674 -0.08724499 -0.13730027 -0.5116899
000170 7c c5 8e 3d 53 8c e5 bd 0e b0 15 3e 6a 73 ce be
       0.06971261 -0.11208405 0.14617941 -0.4032243
000180 f3 2f db 3e 72 41 33 bd 64 86 40 3d ba 9b 80 bd
       0.4281002 -0.043763585 0.047003165 -0.062797025

bias f4 [50]
000000 4a fe 45 3e 9a 3a bd 3e da 56 08 bf 74 9d 37 3f
       0.19335285 0.36958772 -0.53257525 0.7172463
000010 43 f6 d0 3c 77 32 18 bd 9a 2a 02 3f fc d2 9e be
       0.025508052 -0.037157502 0.50846255 -0.31020343
000020 4a 93 39 bf ec 25 ec 3e 69 07 d6 3e 75 4b cb be
       -0.7249037 0.46122682 0.41802529 -0.39706007
000030 4e eb b9 be 5b ec 36 bf b2 d0 24 3f 6b bb f8 3d
       -0.36312336 -0.714544 0.64380944 0.12145122
000040 93 fc 24 bf d7 64 2b 3e 33 b3 11 3d f0 de 8d 3e
       -0.644479 0.16737686 0.03557129 0.2770915
000050 44 b2 3d 3f 78 dc ff be be e1 18 3f 67 7c b3 bd
       0.74100137 -0.49972892 0.59719455 -0.08763962
000060 90 0b d5 be d8 dd ab 3e 60 a5 13 3f 20 c1 e4 bd
       -0.41610384 0.3356769 0.5767422 -0.11169648
000070 99 cd 6d 3d 77 94 ec 3e 8e 5a 1f bf 47 b7 0a 3f
       0.0580574 0.4620702 -0.6224755 0.5418591
000080 d7 94 29 bc 8f ee ab be 3a c3 c0 3e 29 c6 f2 3d
       -0.010350428 -0.33580443 0.37648946 0.11854202
000090 f1 15 ff bd 00 d9 6f bd a6 c9 22 be fd 0b 34 bf
       -0.12455357 -0.058556557 -0.15897235 -0.7033079
0000a0 f4 16 b8 3e 64 38 cd be 14 10 8e be 26 81 3e bf
       0.35955012 -0.40082085 -0.27746642 -0.74415815
0000b0 3a 6a 68 bd e4 73 7c be a9 ff 9f 3e 78 01 a2 3e
       -0.05674193 -0.24653584 0.3124974 0.31641746
0000c0 3a 0e 77 bd 60 1f ce bd
       -0.060316302 -0.10064578

weight f4 [50, 50]
000000 52 ad fa 3c c8 2b d1 3d 78 fe f7 bd d7 be 99 3d
       0.030600224 0.10213429 -0.12109083 0.07507103
000010 6b 5c 70 bd 4a b6 85 3d e9 9f 27 3e 9e ca 07 be
       -0.058681887 0.065289095 0.16369595 -0.13260886
000020 ee d4 a7 bb 63 d3 61 bd 71 72 19 bd 32 46 d3 bd
       -0.0051218187 -0.055133235 -0.037462655 -0.10316123
000030 f5 fa 83 bd ed 7f a7 bd 7e 95 e8 3d 9e bd e3 bd
       -0.06444351 -0.08178697 0.11356638 -0.11120151
000040 cf 63 12 3d da a8 b5 3d 07 61 d7 3d 3d 14 ae 3d
       0.035739716 0.088700965 0.10516553 0.08499954
000050 a8 74 2c bd 5d c4 a6 3d 5a 32 43 bd 0c 3a 53 3d
       -0.04210344 0.08142922 -0.04765544 0.05156903
000060 bf f1 a7 3d ac a7 b5 bd 10 42 a0 3d 42 d2 c7 bd
       0.08200406 -0.088698715 0.078251004 -0.097569
000070 cc 62 9d 3d ee 9b dd 3c c8 2c cf 3b 78 4b ff bd
       0.0768486 0.027051892 0.006322477 -0.124655664
000080 39 61 1c 3e 94 43 8f bc 27 9d 70 3b 8d e8 a5 3c
       0.15271463 -0.017488278 0.0036714764 0.02025249
000090 ba bb a5 bd 8c 2c fc 3d 57 03 67 3d c5 f4 57 bd
       -0.080924466 0.12313184 0.05639967 -0.052723665
0000a0 c5 0d a6 bd 8d 6f 33 bc 0c 9e 06 3d 3a dc 55 bd
       -0.08108095 -0.010951889 0.03286557 -0.052211978
0000b0 e1 c1 96 3d 6e ae fa bd 94 5b 49 3d e9 41 08 bd
       0.07361198 -0.12240301 0.0491596 -0.03326598
0000c0 ee 57 2c bd 84 26 04 3b 99 c4 f2 bd 66 24 82 3d
       -0.042076044 0.0020164559 -0.11853904 0.06354599
0000d0 53 46 2e 3c e9 bb f3 3c 1f 41 03 3d c1 c4 37 3d
       0.010636884 0.029752688 0.032044526 0.044865374
0000e0 e6 b7 c1 bd a9 f7 61 3d 31 f9 28 3d 40 f4 8f 3d
       -0.09458904 0.055167828 0.041253272 0.07029009
0000f0 c3 38 03 3e 29 5c 4f bc 93 d9 7a bd 57 4a f4 bd
       0.12814622 -0.01265625 -0.06124265 -0.11928242
000100 36 ea 85 bd 91 c7 ba 3d b8 ac 0d 3d a7 77 84 3c
       -0.06538813 0.091200955 0.034588546 0.016170336
000110 67 e8 6c bd 13 44 b1 bd 27 ea 96 bd d9 47 2b bd
       -0.057838824 -0.08655562 -0.0736888 -0.041816566
000120 ed c4 07 be 1c fd 7f 3c 78 3b 84 bc 85 11 23 3d
       -0.13258715 0.015624311 -0.016141638 0.03981163
000130 e7 c3 dc bc 9c 32 83 bc 03 e4 e7 3d cc ff 5d 3d
       -0.026948882 -0.016015343 0.11322787 0.054199025
000140 a7 19 8b bd ab 1e f0 3b 54 81 54 3c 65 ab 9d 3d
       -0.06792002 0.0073278747 0.012970287 0.076987065
000150 48 2a bb 3d b0 79 0b be fd f7 33 3d 3b cb 2c 3e
       0.09138924 -0.13620639 0.043937672 0.16874401
000160 07 11 da bb 64 3a f8 3d 77 e1 a6 3b af fe c4 3d
       -0.006654862 0.12120512 0.0050927955 0.096188895
000170 e3 81 e1 bc 44 42 37 3e 4f 75 98 bc f2 f5 11 3e
       -0.027527755 0.17896372 -0.018610625 0.14253977
000180 25 37 0e be cf 0a 57 3d f2 6a b5 3d 58 f9 0d be
       -0.13888223 0.052500542 0.08858289 -0.13864648
000190 4d d8 a0 3d 90 6f 08 3d 4a 57 94 3c 12 7a 7e bd
       0.07853756 0.03330952 0.018108029 -0.062128134
0001a0 ef 1c 21 be 35 04 e0 bd 28 56 c0 bd 21 06 62 bc
       -0.15733694 -0.109383024 -0.09391433 -0.013795407
0001b0 7c cf 97 bd 4b 11 2f 3e 0a 37 9b 3d 03 09 93 3d
       -0.074126214 0.1709644 0.07578857 0.07179453
0001c0 b4 e7 ce 3d e6 5b 35 3e 12 84 78 bd 58 cd 09 3d
       0.101027876 0.17710838 -0.060672827 0.033643097
0001d0 14 33 17 3d 24 96 42 3e d7 b7 90 bd 6b bb 77 3d
       0.036913946 0.19002587 -0.07066315 0.06048147
0001e0 42 e1 31 3d 63 db dc bd 34 45 8c 3d 56 97 6b 3c
       0.043427713 -0.10784032 0.06849137 0.014379343
0001f0 ab 46 ab 3d f3 0d a7 bd 43 87 15 3d b4 75 92 bd
       0.08363088 -0.081569575 0.03650595 -0.07151356
000200 df 79 9b 3d c1 84 97 bd 58 52 e0 3d 1f 7a aa b9
       0.075916044 -0.07398368 0.10953206 -0.00032515914
000210 72 d4 12 bd 94 0f a1 bd 60 26 3d 3e e9 16 39 bd
       -0.035847135 -0.078642994 0.1847167 -0.045187864
000220 0a 17 c9 bd 27 f9 aa b9 57 7e c7 bd ed 03 0a 3e
       -0.098188475 -0.0003261056 -0.09740894 0.1347806
000230 01 2f e7 bd 45 7b 8d 3d 7c 49 30 3e 38 34 ce 3d
       -0.11288262 0.069082774 0.17215532 0.10068554
000240 14 22 a1 bd 08 ac 58 bd 06 3a 22 bb c2 d4 28 3d
       -0.07867828 -0.052898437 -0.0024753823 0.041218527
000250 71 83 ac bd f9 b9 c3 3d 5b aa 07 be 5e 7a 19 be
       -0.08423508 0.09556956 -0.13248579 -0.14988086
000260 6f ac 98 bd 88 cf b0 bd f3 19 84 3d dc 16 93 bd
       -0.07454764 -0.086333334 0.06450262 -0.071820945
000270 91 fe 0e 3d f1 27 1d 3e 32 74 c1 bd fd 16 b1 3d
       0.034910742 0.15347268 -0.094459906 0.08646963
000280 50 fc f5 bd 48 65 28 3e 04 7c 83 3c 80 42 d5 bd
       -0.120110154 0.16444886 0.016050346 -0.104130745
000290 d5 aa d3 bd 45 08 c9 3c 2b f8 54 ba 8a 76 89 bd
       -0.10335318 0.024540076 -0.0008124138 -0.06712063
0002a0 83 d1 0f 3e 6d fd 88 bd b7 0f 89 bd 6f 11 8a 3c
       0.14044766 -0.06688962 -0.066924505 0.016854016
0002b0 3c 84 5a 3d 0d 11 06 3c 5a 5e 48 bc 3e ba b0 3d
       0.053348765 0.008182776 -0.012229526 0.08629273
0002c0 25 60 12 3e b2 c3 1a bd cc a7 19 3d c5 ab 4f 3d
       0.14294489 -0.037784286 0.03751354 0.05070092
0002d0 78 f4 d4 3c d8 f1 ce 3d 76 99 0a be e3 15 c8 bd
       0.025995478 0.10104722 -0.13535103 -0.097697996
0002e0 67 3e bb bd f6 62 7c bd 44 2c 84 3d 15 d5 27 bd
       -0.09142762 -0.061617814 0.064537555 -0.040974695
0002f0 35 4d 49 3d d5 d4 18 be 2d 7b 08 bd 26 45 bc 3d
       0.049145896 -0.14924939 -0.033320595 0.091928765
000300 e4 16 1c 3e 4a 30 19 be d0 cb c2 bc da f2 a3 3d
       0.15243107 -0.14959827 -0.023778826 0.08005305
000310 27 b5 8e bd e7 c5 d9 bd c1 60 20 3c 63 9e 0c 3e
       -0.06968146 -0.1063345 0.009788693 0.13732295
000320 01 06 63 bd 3a f2 1d be 8d 8d bf 3d 6b 11 4a 3d
       -0.055425648 -0.15424433 0.093531705 0.049333017
000330 ec b0 3b be fc 98 dd 3d af b8 30 3d 8a 0d 11 3e
       -0.18329209 0.10820195 0.043144878 0.14165321
000340 5a cf a1 bc a5 6e 77 bd f1 55 e5 bd 8e eb b5 3d
       -0.019752193 -0.060408253 -0.11198033 0.08882819
000350 d7 ec 10 3e cf 7e 1c 3e 7b 38 03 be 47 24 d3 3d
       0.14152847 0.15282749 -0.12814514 0.10309654
000360 9c 3d 19 3d 00 5f 5c 3e a7 76 ca 3c df c5 87 3c
       0.03741227 0.21520615 0.024714781 0.016573844
000370 5e ca 48 bd 5e 11 a3 3d 6b 75 20 be bd e9 54 3e
       -0.049021117 0.07962297 -0.15669791 0.20792289
000380 f1 71 2d 3e e6 4e 95 3d 71 b5 04 3d 8c d7 a4 bc
       0.16937996 0.07290439 0.0323996 -0.020122312
000390 08 b0 4a bd c5 f1 e5 bd 05 3f 22 bd cd 5a 4d bb
       -0.049484283 -0.112277545 -0.03961088 -0.003133464
0003a0 3f 13 dc bd df f3 62 3d 65 3c 34 3e f5 e6 5b 3c
       -0.107458584 0.055408355 0.17601164 0.013421764
0003b0 a2 53 bc bc b5 22 6a 3d fa fc 85 3d 40 0d 84 bd
       -0.022989098 0.057162005 0.06542392 -0.0644784
0003c0 a6 ff 94 3d 2d df ec 3d ba 26 01 3d ba 9a a9 bc
       0.072753236 0.11566005 0.031531073 -0.020703662
0003d0 ac 86 f7 bc f8 26 3e 3c 63 ef b9 bc 3c 60 dc bd
       -0.030215584 0.011605971 -0.022697156 -0.10760543
0003e0 c2 4e 27 3d 89 c4 37 3c 4b cb 88 3d 9f 32 38 bd
       0.040846594 0.011216291 0.066794 -0.04497015
0003f0 70 72 07 bc ad ed d9 bd 45 21 a9 bd a4 9b e5 3d
       -0.00826703 -0.10641036 -0.08258299 0.11211327

bias f4 [50]
000000 b0 a5 95 bd 68 04 16 be fd 5d ae bd 8b e3 a8 3d
       -0.07306993 -0.14650118 -0.085140206 0.082465254
000010 c7 75 1f bd 3f 86 5c bc 63 cc b5 3d 93 d1 11 be
       -0.03893068 -0.013459741 0.08876874 -0.14240102
000020 83 c4 07 3e 9d f0 0d 3e 48 ac 1c 3d 50 d6 8e bd
       0.13258557 0.13861318 0.038250238 -0.069744706
000030 09 7b 7d 3d 3d 34 79 bd 21 45 d1 3d d0 7a 27 be
       0.061884914 -0.060840834 0.102182634 -0.16355443
000040 37 d4 d7 3c 00 bd 08 be d0 e7 e3 bd 3f 7f 45 3c
       0.02634631 -0.13353348 -0.11128199 0.012054264
000050 31 90 b7 3d b3 ae c9 3d 6c 1e 3d be 1f 3b 1b 3d
       0.08963049 0.09847774 -0.18468636 0.03789818
000060 44 eb 51 3d 4e 5c c1 bd f3 41 03 3e 15 cb 09 be
       0.051249757 -0.09441434 0.12818126 -0.13456376
000070 05 60 11 bd f1 e4 1f bd 68 1f 1d 3e 2a 65 9a bd
       -0.035491962 -0.039036695 0.15344012 -0.07538827
000080 d1 ff 71 bc 96 3d eb bc 7d a8 18 3c 5c e6 0d 3e
       -0.014770464 -0.02871589 0.0093175145 0.13857406
000090 76 06 b0 3d bc 7b 0f be 94 f5 eb bd 3c 6a e8 bd
       0.08594982 -0.14012045 -0.1152145 -0.113483876
0000a0 c0 61 5a 3d 82 16 d0 bd 7b 96 9e bd 72 4e 57 3d
       0.053315878 -0.10160543 -0.077435456 0.052565046
0000b0 35 cd 06 3e 2a 8a eb 3d 7c 30 84 3d c1 c6 96 bd
       0.13164218 0.11500962 0.0645456 -0.07362128
0000c0 b0 d2 3e 3d d2 5d bb 3d
       0.046587646 0.09148754

mask f4 [50, 50]
000000 00 00 80 3f 00 00 80 3f 00 00 80 3f 00 00 80 3f
       1.0 1.0 1.0 1.0
000010 00 00 80 3f 00 00 80 3f 00 00 80 3f 00 00 80 3f
       1.0 1.0 1.0 1.0
000020 00 00 80 3f 00 00 80 3f 00 00 80 3f 00 00 80 3f
       1.0 1.0 1.0 1.0
000030 00 00 80 3f 00 00 80 3f 00 00 80 3f 00 00 80 3f
       1.0 1.0 1.0 1.0
000040 00 00 80 3f 00 00 80 3f 00 00 80 3f 00 00 80 3f
       1.0 1.0 1.0 1.0
000050 00 00 80 3f 00 00 80 3f 00 00 80 3f 00 00 80 3f
       1.0 1.0 1.0 1.0
000060 00 00 80 3f 00 00 80 3f 00 00 80 3f 00 00 80 3f
       1.0 1.0 1.0 1.0
000070 00 00 80 3f 00 00 80 3f 00 00 80 3f 00 00 80 3f
       1.0 1.0 1.0 1.0
000080 00 00 80 3f 00 00 80 3f 00 00 80 3f 00 00 80 3f
       1.0 1.0 1.0 1.0
000090 00 00 80 3f 00 00 80 3f 00 00 80 3f 00 00 80 3f
       1.0 1.0 1.0 1.0
0000a0 00 00 80 3f 00 00 80 3f 00 00 80 3f 00 00 80 3f
       1.0 1.0 1.0 1.0
0000b0 00 00 80 3f 00 00 80 3f 00 00 80 3f 00 00 80 3f
       1.0 1.0 1.0 1.0
0000c0 00 00 80 3f 00 00 80 3f 00 00 80 3f 00 00 80 3f
       1.0 1.0 1.0 1.0
0000d0 00 00 80 3f 00 00 80 3f 00 00 80 3f 00 00 80 3f
       1.0 1.0 1.0 1.0
0000e0 00 00 80 3f 00 00 80 3f 00 00 80 3f 00 00 80 3f
       1.0 1.0 1.0 1.0
0000f0 00 00 80 3f 00 00 80 3f 00 00 80 3f 00 00 80 3f
       1.0 1.0 1.0 1.0
000100 00 00 80 3f 00 00 80 3f 00 00 80 3f 00 00 80 3f
       1.0 1.0 1.0 1.0
000110 00 00 80 3f 00 00 80 3f 00 00 80 3f 00 00 80 3f
       1.0 1.0 1.0 1.0
000120 00 00 80 3f 00 00 80 3f 00 00 80 3f 00 00 80 3f
       1.0 1.0 1.0 1.0
000130 00 00 80 3f 00 00 80 3f 00 00 80 3f 00 00 80 3f
       1.0 1.0 1.0 1.0
000140 00 00 80 3f 00 00 80 3f 00 00 80 3f 00 00 80 3f
       1.0 1.0 1.0 1.0
000150 00 00 80 3f 00 00 80 3f 00 00 80 3f 00 00 80 3f
       1.0 1.0 1.0 1.0
000160 00 00 80 3f 00 00 80 3f 00 00 80 3f 00 00 80 3f
       1.0 1.0 1.0 1.0
000170 00 00 80 3f 00 00 80 3f 00 00 80 3f 00 00 80 3f
       1.0 1.0 1.0 1.0
000180 00 00 80 3f 00 00 80 3f 00 00 80 3f 00 00 80 3f
       1.0 1.0 1.0 1.0
000190 00 00 80 3f 00 00 80 3f 00 00 80 3f 00 00 80 3f
       1.0 1.0 1.0 1.0
0001a0 00 00 80 3f 00 00 80 3f 00 00 80 3f 00 00 80 3f
       1.0 1.0 1.0 1.0
0001b0 00 00 80 3f 00 00 80 3f 00 00 80 3f 00 00 80 3f
       1.0 1.0 1.0 1.0
0001c0 00 00 80 3f 00 00 80 3f 00 00 80 3f 00 00 80 3f
       1.0 1.0 1.0 1.0
0001d0 00 00 80 3f 00 00 80 3f 00 00 80 3f 00 00 80 3f
       1.0 1.0 1.0 1.0
0001e0 00 00 80 3f 00 00 80 3f 00 00 80 3f 00 00 80 3f
       1.0 1.0 1.0 1.0
0001f0 00 00 80 3f 00 00 80 3f 00 00 80 3f 00 00 80 3f
       1.0 1.0 1.0 1.0
000200 00 00 80 3f 00 00 80 3f 00 00 80 3f 00 00 80 3f
       1.0 1.0 1.0 1.0
000210 00 00 80 3f 00 00 80 3f 00 00 80 3f 00 00 80 3f
       1.0 1.0 1.0 1.0
000220 00 00 80 3f 00 00 80 3f 00 00 80 3f 00 00 80 3f
       1.0 1.0 1.0 1.0
000230 00 00 80 3f 00 00 80 3f 00 00 80 3f 00 00 80 3f
       1.0 1.0 1.0 1.0
000240 00 00 80 3f 00 00 80 3f 00 00 80 3f 00 00 80 3f
       1.0 1.0 1.0 1.0
000250 00 00 80 3f 00 00 80 3f 00 00 80 3f 00 00 80 3f
       1.0 1.0 1.0 1.0
000260 00 00 80 3f 00 00 80 3f 00 00 80 3f 00 00 80 3f
       1.0 1.0 1.0 1.0
000270 00 00 80 3f 00 00 80 3f 00 00 80 3f 00 00 80 3f
       1.0 1.0 1.0 1.0
000280 00 00 80 3f 00 00 80 3f 00 00 80 3f 00 00 80 3f
       1.0 1.0 1.0 1.0
000290 00 00 80 3f 00 00 80 3f 00 00 80 3f 00 00 80 3f
       1.0 1.0 1.0 1.0
0002a0 00 00 80 3f 00 00 80 3f 00 00 80 3f 00 00 80 3f
       1.0 1.0 1.0 1.0
0002b0 00 00 80 3f 00 00 80 3f 00 00 80 3f 00 00 80 3f
       1.0 1.0 1.0 1.0
0002c0 00 00 80 3f 00 00 80 3f 00 00 80 3f 00 00 80 3f
       1.0 1.0 1.0 1.0
0002d0 00 00 80 3f 00 00 80 3f 00 00 80 3f 00 00 80 3f
       1.0 1.0 1.0 1.0
0002e0 00 00 80 3f 00 00 80 3f 00 00 80 3f 00 00 80 3f
       1.0 1.0 1.0 1.0
0002f0 00 00 80 3f 00 00 80 3f 00 00 80 3f 00 00 80 3f
       1.0 1.0 1.0 1.0
000300 00 00 80 3f 00 00 80 3f 00 00 80 3f 00 00 80 3f
       1.0 1.0 1.0 1.0
000310 00 00 80 3f 00 00 80 3f 00 00 80 3f 00 00 80 3f
       1.0 1.0 1.0 1.0
000320 00 00 80 3f 00 00 80 3f 00 00 80 3f 00 00 80 3f
       1.0 1.0 1.0 1.0
000330 00 00 80 3f 00 00 80 3f 00 00 80 3f 00 00 80 3f
       1.0 1.0 1.0 1.0
000340 00 00 80 3f 00 00 80 3f 00 00 80 3f 00 00 80 3f
       1.0 1.0 1.0 1.0
000350 00 00 80 3f 00 00 80 3f 00 00 80 3f 00 00 80 3f
       1.0 1.0 1.0 1.0
000360 00 00 80 3f 00 00 80 3f 00 00 80 3f 00 00 80 3f
       1.0 1.0 1.0 1.0
000370 00 00 80 3f 00 00 80 3f 00 00 80 3f 00 00 80 3f
       1.0 1.0 1.0 1.0
000380 00 00 80 3f 00 00 80 3f 00 00 80 3f 00 00 80 3f
       1.0 1.0 1.0 1.0
000390 00 00 80 3f 00 00 80 3f 00 00 80 3f 00 00 80 3f
       1.0 1.0 1.0 1.0
0003a0 00 00 80 3f 00 00 80 3f 00 00 80 3f 00 00 80 3f
       1.0 1.0 1.0 1.0
0003b0 00 00 80 3f 00 00 80 3f 00 00 80 3f 00 00 80 3f
       1.0 1.0 1.0 1.0
0003c0 00 00 80 3f 00 00 80 3f 00 00 80 3f 00 00 80 3f
       1.0 1.0 1.0 1.0
0003d0 00 00 80 3f 00 00 80 3f 00 00 80 3f 00 00 80 3f
       1.0 1.0 1.0 1.0
0003e0 00 00 80 3f 00 00 80 3f 00 00 80 3f 00 00 80 3f
       1.0 1.0 1.0 1.0
0003f0 00 00 80 3f 00 00 80 3f 00 00 80 3f 00 00 80 3f
       1.0 1.0 1.0 1.0

weight f4 [50, 50]
000000 4e 91 d3 3d bb db b7 bc 99 cb 01 be 6f b5 16 bd
       0.10330449 -0.022443643 -0.12675323 -0.036794122
000010 c5 ab ea 3d 93 33 2d 3d 69 87 a8 bd 9d 81 bd bd
       0.11458544 0.042285513 -0.082289524 -0.092532374
000020 69 89 24 bd 01 ef 98 bd 6b 86 75 bd 33 a8 0f 3d
       -0.040170107 -0.074674614 -0.059942644 0.035072517
000030 e9 09 0c bd 5e 2a 1b 3e 30 72 93 bd 7f b0 c9 3d
       -0.03418914 0.1515288 -0.07199514 0.09848117
000040 4b 0a 02 bd 05 42 c8 bc 9b ff ff bd 3d a4 ff bb
       -0.031748097 -0.024445543 -0.12499925 -0.007801561
000050 72 c4 e9 3d 29 6d cf 3d d7 b9 83 bd 37 7d 53 3d
       0.11414422 0.101282425 -0.064319305 0.051633086
000060 24 46 1b be 36 37 52 3b b2 6c c8 3d ca d8 3b 3d
       -0.15163475 0.0032076365 0.09786357 0.045861043
000070 b9 94 86 3d fc 91 31 bd 84 28 0e be 27 01 24 3d
       0.06571335 -0.043352112 -0.13882643 0.04004016
000080 f1 15 ee 3d 4c 0a 13 3e 44 b0 4d 3d da 9f 0b be
       0.11625279 0.14359397 0.050216928 -0.13635197
000090 6a c6 1c bb b3 8f de 3c 89 4a c7 3c 89 6d 0c be
       -0.0023921975 0.02716813 0.024327533 -0.1371366
0000a0 a5 c9 e4 3d 87 bc bf 3d 36 2b 92 bd 81 dc a4 bd
       0.11171273 0.093621306 -0.07137148 -0.0804987
0000b0 01 33 12 3e f6 ac e5 3d 07 fb 00 be f1 3c 47 bb
       0.14277269 0.1121463 -0.1259576 -0.0030401314
0000c0 6e 04 df bd 88 62 03 be a5 65 fa bd 69 96 e0 3d
       -0.10889517 -0.12830555 -0.122264184 0.109661885
0000d0 0c 84 fb 3a fc 61 d7 bd 01 66 0c be b4 1b ee 3b
       0.0019189133 -0.10516736 -0.13710786 0.007266486
0000e0 e6 3f 2d 3d 8a 02 c4 bd 54 48 34 3d 10 1b 7f bd
       0.042297266 -0.09570797 0.04401429 -0.06228167
0000f0 f7 8e 02 be 40 7b f4 bd 40 f6 ac 3d 8b 6c 3e 3d
       -0.1274985 -0.119375706 0.08445406 0.046490233
000100 f9 95 1f 3d 2c 0b 20 39 9c a6 5f 3d 3b f1 fd 3c
       0.038961384 0.00015262951 0.05460225 0.030998817
000110 b9 2b 0e be 52 50 1d 3d a9 d1 3e bd 6e 43 89 3d
       -0.13883866 0.038406678 -0.046586666 0.06702314
000120 d9 5c 7b 3d 30 b6 d4 3c 3c 75 39 bd 22 d7 28 be
       0.061367843 0.02596578 -0.04527782 -0.16488317
000130 09 32 dd 3c 34 6c 30 bd a6 0e cc bb 69 62 ee bd
       0.027001398 -0.04307194 -0.006227332 -0.11639864
000140 1c 51 c2 bb cc 4c 0c 3d 73 d4 bc bd 06 b5 f0 3c
       -0.005930079 0.034252927 -0.09220209 0.029383194
000150 1d f4 bd bc 4f 52 fd bc c3 70 15 bd fb b6 52 bd
       -0.023187691 -0.030923037 -0.03648449 -0.051444035
000160 a1 62 ff bc 08 fd 99 bd f5 5f 71 3b bc be d3 bd
       -0.03117496 -0.07518965 0.0036830876 -0.10339114
000170 fc 95 d8 3d 0d bf 85 bd 4d 30 40 3d 85 40 4e bd
       0.10575482 -0.06530581 0.046921063 -0.0503545
000180 85 6a 25 be 26 92 54 bd bf d9 50 3d c6 2f 09 3e
       -0.16153915 -0.05189719 0.05098891 0.1339713
000190 f8 0a 9f 3d 2b 76 bd bd 89 68 75 3d 37 8d 8d bd
       0.07765764 -0.092510544 0.059914146 -0.069117
0001a0 a1 c9 0b 3e f8 3f 0e be 42 a5 f3 3d 75 e6 cb bc
       0.13651134 -0.1389159 0.11896755 -0.024890164
0001b0 04 2c 2a 3d 6e 65 27 3d 35 63 3e bd a7 61 98 3d
       0.041545883 0.040868215 -0.04648133 0.07440501
0001c0 8e b3 48 3c 06 d4 6d bd 58 8e 7f 3d 96 92 f1 3d
       0.01224984 -0.05806353 0.06239161 0.11795537
0001d0 ec f5 95 3c f6 22 72 3d 09 14 bf bc 78 14 fc bc
       0.018305741 0.059115373 -0.023324983 -0.030771479
0001e0 85 fe fd bd dc 87 0e be fd e0 8b bd ea c3 59 3e
       -0.124020614 -0.13919014 -0.068300225 0.21266142
0001f0 c5 e9 e2 3d 73 4a 1f 3e 6f 5e c3 bd 58 2e eb bd
       0.11079744 0.15555744 -0.09539496 -0.11483449
000200 70 40 8e bd 6e 02 b6 3d 0e 46 e5 3d fe 87 16 3c
       -0.06945884 0.08887182 0.111950025 0.0091876965
000210 58 71 59 bd 6b c7 0f be fe 05 a9 bd f3 26 b0 3d
       -0.05308661 -0.14040916 -0.08253096 0.08601179
000220 ea 99 71 3d b1 ce f0 3d 2c ae 13 3e 53 80 6e bd
       0.058984675 0.11758173 0.1442191 -0.05822785
000230 4b c4 ec 3d e9 54 c8 3d 94 c9 0a be 78 39 55 3d
       0.115608774 0.0978182 -0.13553458 0.05205676
000240 4c d0 ff bd c9 50 00 3e e2 45 b6 bd 12 af 8d 3d
       -0.12490901 0.12530817 -0.08900048 0.06918158
000250 60 72 7e 3d 6d 65 a7 bd 38 a2 85 bc 6e d1 be 3d
       0.062120795 -0.08173642 -0.016312703 0.09317289
000260 a0 1f 84 3c 4d fe d2 3d e1 18 15 3e f5 7c 23 be
       0.016128361 0.1030241 0.14560272 -0.15965636
000270 fd fd fa bd f6 c2 57 3c b4 aa fc bd 74 12 f7 bd
       -0.12255476 0.013169041 -0.123372465 -0.120640665
000280 37 57 d0 3d e0 70 3b bd 5d f0 41 3d 39 d9 0f be
       0.10172885 -0.045761943 0.04734837 -0.14047708
000290 87 68 0e 3e a9 e6 5e 3c 13 25 06 bc 9a 9c 58 bd
       0.13907062 0.013604798 -0.00818755 -0.052883722
0002a0 ff b3 99 bd d8 b9 b3 bd 19 05 05 bd 36 f9 a7 bd
       -0.07505035 -0.08775681 -0.032475565 -0.0820183
0002b0 b2 17 9e 3d 93 95 f1 3d fa 7d ee bc cd 45 b0 3d
       0.07719363 0.11796107 -0.029112805 0.086070634
0002c0 8c 6d c0 3d 17 bf e5 bd 99 c6 d9 bd 29 ed a5 3d
       0.093958944 -0.11218088 -0.106335826 0.08101875
0002d0 d5 2c aa bd a0 ad e7 3d 63 f9 8f bd 76 64 39 be
       -0.08309332 0.11312413 -0.070299886 -0.18104729
0002e0 ee a2 94 3d 95 7b 19 3d ab ea d8 3d bf 2c e4 3d
       0.07257639 0.037471373 0.10591634 0.11141347
0002f0 32 65 ff 3c e7 4d 78 bd 4a e7 d5 bd 7a d2 8f bd
       0.031176183 -0.06062117 -0.104445055 -0.07022567
000300 3e 86 87 3d 5e 86 de bd 1d 30 e8 3d b3 18 e7 3d
       0.066174015 -0.10865472 0.11337302 0.11284008
000310 5b b8 0a bd f7 97 d6 bd 81 8c d8 bd e2 d2 d2 3d
       -0.03386722 -0.10478204 -0.10573674 0.10294129
000320 6a b4 a0 bc 16 6c ca 3b d1 f4 38 3d b6 05 d5 3c
       -0.019617278 0.0061774356 0.04515535 0.0260037
000330 90 52 26 3e 13 ed e4 3d c2 3f 7b 3c 4c d0 03 be
       0.16242433 0.11178031 0.015335025 -0.12872428
000340 80 bc ca 3d 66 7c 02 3d 93 fd 3f 3d 6c 12 ab 3d
       0.09899235 0.031856917 0.046872687 0.08353123
000350 3c 7b c3 bd 52 56 39 3d 65 81 0d bd 84 d0 fd 3c
       -0.095449895 0.045248337 -0.03454723 0.030983217
000360 ee ba 0e be e9 f5 a4 bc 6b a0 ff bc c3 ba e6 3d
       -0.13938496 -0.02013679 -0.031204423 0.11266091
000370 19 d5 7a bb 0d d9 fd bc fa d3 c8 3d 48 b9 bc 3d
       -0.0038273989 -0.030987287 0.09806056 0.09215027
000380 37 f5 18 3e ba a9 86 3c bc 97 05 3e 46 a8 90 3d
       0.14937292 0.016438354 0.13046163 0.070633456
000390 fa 5e 80 3d 9c 6b 87 bd 8f 92 da 3d 83 6f 83 3c
       0.06268115 -0.06612322 0.10672485 0.016044384
0003a0 28 55 00 3e 05 bf 64 3d fc 1c 32 bc 8b fa 08 3e
       0.12532485 0.055846233 -0.010871168 0.13376825
0003b0 e3 11 fe 3d 0a 99 a2 3d 6b 4c 20 3e e5 2d 17 bd
       0.12405755 0.07939346 0.15654151 -0.036909003
0003c0 cf 0c a8 ba 9e 65 3a bd 97 ac 03 3e 2c f0 c6 3c
       -0.00128212 -0.045507066 0.12858807 0.024284445
0003d0 76 1b 1b 3d 34 d5 bf 3d 27 72 7f 3b c5 00 a8 3d
       0.037867986 0.09366837 0.0038977952 0.08203272
0003e0 f3 55 70 3d 56 25 03 be 25 db 0c be ac ae 5e bd
       0.058675718 -0.12807211 -0.13755472 -0.0543658
0003f0 bc 8d c0 3d e6 8b 02 3c 0c a6 9c 3d e8 1e 6b 3d
       0.09402034 0.007967925 0.076488584 0.05740252

bias f4 [50]
000000 5f 1b 8e bd 90 bf a0 3d 90 fe 1f 3e 2c 18 c2 3d
       -0.06938814 0.07849038 0.15624452 0.09477267
000010 6c c8 d1 3d 7d 7a b4 bd c8 95 a1 3d f3 a8 4f 3d
       0.102433056 -0.08812425 0.07889897 0.050698232
000020 8f fd cc 3d c1 72 16 be 43 26 10 3e 4a 7f 18 be
       0.100093 -0.14692213 0.14077096 -0.14892307
000030 22 b7 96 3d 66 5e d9 3c fe 55 d7 bc 60 4a af 3d
       0.073591486 0.02653427 -0.026286121 0.08559108
000040 2e 33 5b 3d 25 80 f0 bd b7 45 e6 bd d5 fe bb 3b
       0.053515606 -0.11743192 -0.11243766 0.0057371655
000050 20 f0 0d be b6 09 be 3d b2 1a 11 be 29 8d c1 bd
       -0.13861132 0.09279196 -0.1417034 -0.09450752
000060 59 ba 54 bd d6 d5 8f bd 48 07 0b be 34 13 b2 3d
       -0.051935527 -0.07023208 -0.13576996 0.08695069
000070 b1 d2 29 be 6e d3 75 3d e1 18 db bd 07 b5 c5 3d
       -0.16584279 0.06001609 -0.10698105 0.09653669
000080 90 27 13 be c1 0b 7e 3d 94 a6 ad bd 47 56 97 3c
       -0.1437056 0.06202293 -0.08479038 0.018473757
000090 9e d5 16 bd c2 75 83 3c f3 82 3b 3d 4b 9d 0d 3e
       -0.036824815 0.016047362 0.04577918 0.13829534
0000a0 73 01 ff bd 33 9e 89 3c fb 9a 95 bd 51 b1 6d 3b
       -0.12451448 0.016799068 -0.07304951 0.003626902
0000b0 9f b1 3d 3d e6 d7 c8 bd 58 c3 cf 3d 29 0b 06 3d
       0.04631197 -0.09806804 0.10144681 0.032725487
0000c0 2f f0 d2 bd 7e f5 86 bd
       -0.10299718 -0.06589793

mask f4 [50, 50]
000000 00 00 80 3f 00 00 80 3f 00 00 80 3f 00 00 80 3f
       1.0 1.0 1.0 1.0
000010 00 00 80 3f 00 00 80 3f 00 00 80 3f 00 00 80 3f
       1.0 1.0 1.0 1.0
000020 00 00 80 3f 00 00 80 3f 00 00 80 3f 00 00 80 3f
       1.0 1.0 1.0 1.0
000030 00 00 80 3f 00 00 80 3f 00 00 80 3f 00 00 80 3f
       1.0 1.0 1.0 1.0
000040 00 00 80 3f 00 00 80 3f 00 00 80 3f 00 00 80 3f
       1.0 1.0 1.0 1.0
000050 00 00 80 3f 00 00 80 3f 00 00 80 3f 00 00 80 3f
       1.0 1.0 1.0 1.0
000060 00 00 80 3f 00 00 80 3f 00 00 80 3f 00 00 80 3f
       1.0 1.0 1.0 1.0
000070 00 00 80 3f 00 00 80 3f 00 00 80 3f 00 00 80 3f
       1.0 1.0 1.0 1.0
000080 00 00 80 3f 00 00 80 3f 00 00 80 3f 00 00 80 3f
       1.0 1.0 1.0 1.0
000090 00 00 80 3f 00 00 80 3f 00 00 80 3f 00 00 80 3f
       1.0 1.0 1.0 1.0
0000a0 00 00 80 3f 00 00 80 3f 00 00 80 3f 00 00 80 3f
       1.0 1.0 1.0 1.0
0000b0 00 00 80 3f 00 00 80 3f 00 00 80 3f 00 00 80 3f
       1.0 1.0 1.0 1.0
0000c0 00 00 80 3f 00 00 80 3f 00 00 80 3f 00 00 80 3f
       1.0 1.0 1.0 1.0
0000d0 00 00 80 3f 00 00 80 3f 00 00 80 3f 00 00 80 3f
       1.0 1.0 1.0 1.0
0000e0 00 00 80 3f 00 00 80 3f 00 00 80 3f 00 00 80 3f
       1.0 1.0 1.0 1.0
0000f0 00 00 80 3f 00 00 80 3f 00 00 80 3f 00 00 80 3f
       1.0 1.0 1.0 1.0
000100 00 00 80 3f 00 00 80 3f 00 00 80 3f 00 00 80 3f
       1.0 1.0 1.0 1.0
000110 00 00 80 3f 00 00 80 3f 00 00 80 3f 00 00 80 3f
       1.0 1.0 1.0 1.0
000120 00 00 80 3f 00 00 80 3f 00 00 80 3f 00 00 80 3f
       1.0 1.0 1.0 1.0
000130 00 00 80 3f 00 00 80 3f 00 00 80 3f 00 00 80 3f
       1.0 1.0 1.0 1.0
000140 00 00 80 3f 00 00 80 3f 00 00 80 3f 00 00 80 3f
       1.0 1.0 1.0 1.0
000150 00 00 80 3f 00 00 80 3f 00 00 80 3f 00 00 80 3f
       1.0 1.0 1.0 1.0
000160 00 00 80 3f 00 00 80 3f 00 00 80 3f 00 00 80 3f
       1.0 1.0 1.0 1.0
000170 00 00 80 3f 00 00 80 3f 00 00 80 3f 00 00 80 3f
       1.0 1.0 1.0 1.0
000180 00 00 80 3f 00 00 80 3f 00 00 80 3f 00 00 80 3f
       1.0 1.0 1.0 1.0
000190 00 00 80 3f 00 00 80 3f 00 00 80 3f 00 00 80 3f
       1.0 1.0 1.0 1.0
0001a0 00 00 80 3f 00 00 80 3f 00 00 80 3f 00 00 80 3f
       1.0 1.0 1.0 1.0
0001b0 00 00 80 3f 00 00 80 3f 00 00 80 3f 00 00 80 3f
       1.0 1.0 1.0 1.0
0001c0 00 00 80 3f 00 00 80 3f 00 00 80 3f 00 00 80 3f
       1.0 1.0 1.0 1.0
0001d0 00 00 80 3f 00 00 80 3f 00 00 80 3f 00 00 80 3f
       1.0 1.0 1.0 1.0
0001e0 00 00 80 3f 00 00 80 3f 00 00 80 3f 00 00 80 3f
       1.0 1.0 1.0 1.0
0001f0 00 00 80 3f 00 00 80 3f 00 00 80 3f 00 00 80 3f
       1.0 1.0 1.0 1.0
000200 00 00 80 3f 00 00 80 3f 00 00 80 3f 00 00 80 3f
       1.0 1.0 1.0 1.0
000210 00 00 80 3f 00 00 80 3f 00 00 80 3f 00 00 80 3f
       1.0 1.0 1.0 1.0
000220 00 00 80 3f 00 00 80 3f 00 00 80 3f 00 00 80 3f
       1.0 1.0 1.0 1.0
000230 00 00 80 3f 00 00 80 3f 00 00 80 3f 00 00 80 3f
       1.0 1.0 1.0 1.0
000240 00 00 80 3f 00 00 80 3f 00 00 80 3f 00 00 80 3f
       1.0 1.0 1.0 1.0
000250 00 00 80 3f 00 00 80 3f 00 00 80 3f 00 00 80 3f
       1.0 1.0 1.0 1.0
000260 00 00 80 3f 00 00 80 3f 00 00 80 3f 00 00 80 3f
       1.0 1.0 1.0 1.0
000270 00 00 80 3f 00 00 80 3f 00 00 80 3f 00 00 80 3f
       1.0 1.0 1.0 1.0
000280 00 00 80 3f 00 00 80 3f 00 00 80 3f 00 00 80 3f
       1.0 1.0 1.0 1.0
000290 00 00 80 3f 00 00 80 3f 00 00 80 3f 00 00 80 3f
       1.0 1.0 1.0 1.0
0002a0 00 00 80 3f 00 00 80 3f 00 00 80 3f 00 00 80 3f
       1.0 1.0 1.0 1.0
0002b0 00 00 80 3f 00 00 80 3f 00 00 80 3f 00 00 80 3f
       1.0 1.0 1.0 1.0
0002c0 00 00 80 3f 00 00 80 3f 00 00 80 3f 00 00 80 3f
       1.0 1.0 1.0 1.0
0002d0 00 00 80 3f 00 00 80 3f 00 00 80 3f 00 00 80 3f
       1.0 1.0 1.0 1.0
0002e0 00 00 80 3f 00 00 80 3f 00 00 80 3f 00 00 80 3f
       1.0 1.0 1.0 1.0
0002f0 00 00 80 3f 00 00 80 3f 00 00 80 3f 00 00 80 3f
       1.0 1.0 1.0 1.0
000300 00 00 80 3f 00 00 80 3f 00 00 80 3f 00 00 80 3f
       1.0 1.0 1.0 1.0
000310 00 00 80 3f 00 00 80 3f 00 00 80 3f 00 00 80 3f
       1.0 1.0 1.0 1.0
000320 00 00 80 3f 00 00 80 3f 00 00 80 3f 00 00 80 3f
       1.0 1.0 1.0 1.0
000330 00 00 80 3f 00 00 80 3f 00 00 80 3f 00 00 80 3f
       1.0 1.0 1.0 1.0
000340 00 00 80 3f 00 00 80 3f 00 00 80 3f 00 00 80 3f
       1.0 1.0 1.0 1.0
000350 00 00 80 3f 00 00 80 3f 00 00 80 3f 00 00 80 3f
       1.0 1.0 1.0 1.0
000360 00 00 80 3f 00 00 80 3f 00 00 80 3f 00 00 80 3f
       1.0 1.0 1.0 1.0
000370 00 00 80 3f 00 00 80 3f 00 00 80 3f 00 00 80 3f
       1.0 1.0 1.0 1.0
000380 00 00 80 3f 00 00 80 3f 00 00 80 3f 00 00 80 3f
       1.0 1.0 1.0 1.0
000390 00 00 80 3f 00 00 80 3f 00 00 80 3f 00 00 80 3f
       1.0 1.0 1.0 1.0
0003a0 00 00 80 3f 00 00 80 3f 00 00 80 3f 00 00 80 3f
       1.0 1.0 1.0 1.0
0003b0 00 00 80 3f 00 00 80 3f 00 00 80 3f 00 00 80 3f
       1.0 1.0 1.0 1.0
0003c0 00 00 80 3f 00 00 80 3f 00 00 80 3f 00 00 80 3f
       1.0 1.0 1.0 1.0
0003d0 00 00 80 3f 00 00 80 3f 00 00 80 3f 00 00 80 3f
       1.0 1.0 1.0 1.0
0003e0 00 00 80 3f 00 00 80 3f 00 00 80 3f 00 00 80 3f
       1.0 1.0 1.0 1.0
0003f0 00 00 80 3f 00 00 80 3f 00 00 80 3f 00 00 80 3f
       1.0 1.0 1.0 1.0

weight f4 [4, 50]
000000 e0 53 80 3b 14 84 34 3d 76 cb 5b bd 73 57 ef bd
       0.0039162487 0.044071272 -0.053660832 -0.116866015
000010 ce 21 df 3d b2 8a fa 3d 44 1f 47 3d ba 20 b1 bd
       0.108951196 0.12233485 0.0486138 -0.0864882
000020 90 de 08 be b0 fb db 3d 23 79 ce bd 80 ae 8e 3b
       -0.13366151 0.10741365 -0.10081699 0.004354298
000030 40 f8 08 3c 28 b0 ba 3d 68 d6 55 3d d8 2e 6c 3d
       0.008359969 0.091156304 0.052206427 0.05766186
000040 e0 e5 44 3c ae ba f3 bd 9e e8 e6 3d c8 ff 14 bd
       0.012017697 -0.11900841 0.11274837 -0.036376745
000050 42 5a bf 3d fd d4 da bd 78 78 ea 3c 05 85 04 3e
       0.09343387 -0.106851555 0.028621897 0.12941368
000060 e8 67 0c be e4 95 d8 3d 98 b0 48 3d 07 96 0d 3e
       -0.13711512 0.10575464 0.048996538 0.13826762
000070 e6 b1 80 3d 52 db 6d bd cd f7 86 bd 79 f1 01 3e
       0.062839314 -0.05807049 -0.06590233 0.12689771
000080 60 b6 ad bb 7c 1b 15 3d ac da 46 3d a0 b8 94 3c
       -0.005301282 0.036403164 0.048548386 0.018154442
000090 ce 51 05 be 12 2a a1 3d 40 cf 22 3d e8 32 b4 3c
       -0.13019487 0.078693524 0.03974843 0.02199693
0000a0 b0 a9 0c bc 36 45 80 3d ec 8b a7 bd 46 9f e8 3d
       -0.0085853785 0.06263201 -0.08180985 0.11358504
0000b0 08 25 60 3d f4 09 c0 bd d9 39 f0 bd 36 73 c7 bd
       0.054722816 -0.093768984 -0.117297836 -0.097387716
0000c0 4a 63 d6 3d 87 81 f5 bd 9f e5 b1 bd 2e 1c ea 3d
       0.10468157 -0.11987596 -0.08686375 0.11431156
0000d0 b0 b9 4d 3c 40 ab da bc 2e be e9 3d 12 e7 83 3d
       0.012556478 -0.026692986 0.11413227 0.064405575
0000e0 94 3f 8a bd e2 53 c4 3d 00 a0 5e b8 62 f3 58 bd
       -0.06750408 0.09586312 -5.3077936e-05 -0.052966483
0000f0 42 47 06 be 44 a8 ac 3d be 36 e1 bd a8 59 8f 3d
       -0.1311312 0.084305316 -0.10996769 0.069995224
000100 c8 5f dc 3c a2 08 78 bd 5d 4e c5 bd 94 cf 18 3d
       0.02690114 -0.060555108 -0.09634087 0.037307337
000110 f4 e2 71 bd 50 6b 76 bc b0 58 e6 3c 3f 3a 0e 3e
       -0.05905433 -0.015040234 0.028118461 0.13889407
000120 b3 a3 0a 3e 1a 0d 0c be 40 9e d6 3c 84 28 0b 3d
       0.13539009 -0.13676873 0.026198506 0.033974186
000130 f6 f6 bb 3d ae 35 b5 3d 1f a6 10 3e e6 b1 f0 bd
       0.091779634 0.08848129 0.1412587 -0.117526814
000140 e6 a3 f3 3d 72 67 80 3d 30 d6 6d 3c e5 22 0a 3e
       0.118964955 0.06269731 0.014516398 0.13489874
000150 4e 7d c5 bd 5a a6 73 bd b0 b0 91 3c 46 ad fc bd
       -0.096430406 -0.059484817 0.017784446 -0.12337737
000160 46 7a a3 3d be 93 e3 bd cc 5c ba 3d 7e 12 ee bd
       0.07982306 -0.11112164 0.09099731 -0.11624621
000170 74 48 43 bd 92 57 a2 3d 96 53 c8 bd fc ad 05 be
       -0.04767652 0.07926859 -0.09781568 -0.13054651
000180 fe f2 c0 bd 3c e9 6b 3d 34 b2 19 3d 0c 1b d7 bd
       -0.09421347 0.057595477 0.037523463 -0.10503206
000190 86 40 b8 bd 86 57 00 bd 1c 5f 17 3e b4 c1 07 3e
       -0.08996682 -0.03133347 0.14782375 0.13257486
0001a0 0b b4 b9 3c c7 ab d0 bb 5e 2a 11 bd bc 78 8a 3c
       0.022668859 -0.0063681337 -0.035440795 0.016903274
0001b0 9a b0 9b bd 54 01 46 bc 3a 7f 41 3d 0f fb b0 bd
       -0.076020434 -0.012085278 0.047240473 -0.086416356
0001c0 7b e9 b2 3d 2b 3b 04 be 34 ba fe 3d e6 74 73 3d
       0.08735939 -0.12913196 0.12437859 0.059437655
0001d0 58 4a b9 3d b7 47 07 be 5b a9 6b bc e8 30 70 bd
       0.09047383 -0.13210951 -0.014383639 -0.05864039
0001e0 59 e0 f0 3d 69 f4 03 be 42 df 02 be 1c 24 14 3d
       0.11761541 -0.12886204 -0.12780479 0.03616725
0001f0 ff 24 a9 3d b8 0d 44 3e fb 5d fd bc 5f 5f f0 bc
       0.082590096 0.19145858 -0.030928602 -0.029342351
000200 67 19 10 be 38 bc ae 3d 8c 85 c7 bd 21 8c 18 3e
       -0.1407219 0.08531994 -0.09742269 0.14897205
000210 1f a7 7c bd 15 c3 eb bc 98 c3 aa bc 8c ad 0d 3c
       -0.061682817 -0.028779546 -0.02084522 0.008647334
000220 f3 5a 1b be d0 88 8a bc 5a 45 f3 3d 30 50 cd 3d
       -0.15171413 -0.01691094 0.11878462 0.1002506
000230 35 9b 12 bc 80 cb 9c ba 95 5c e1 bb 40 3a ca 3d
       -0.008948137 -0.0011962503 -0.0068774917 0.098743916
000240 44 72 db 3d 9b af 1c bd 1a 7a aa 3d cb 02 e0 3d
       0.10715154 -0.038253408 0.0832407 0.10938033
000250 8c 81 28 3c 38 ff 0a be 19 d2 9d bb b1 df 0c 3e
       0.010284793 -0.1357392 -0.0048163054 0.13757206
000260 bc 47 d0 3d a4 6d e0 3c 89 35 8b bc 37 06 93 3d
       0.10169932 0.02739603 -0.016993301 0.0717892
000270 68 c3 33 bd 4d c0 20 be e4 eb 41 bd 94 8f 1d bc
       -0.043887526 -0.15698357 -0.047344103 -0.009616751
000280 ef 4f 4a 3c f0 c9 06 3e 4c 0b 8c 3d 10 0a ed 3d
       0.012348159 0.1316297 0.06838092 0.11574185
000290 38 24 c4 bd 34 73 30 bd 35 d6 54 3d 41 f0 69 3c
       -0.09577221 -0.043078616 0.051962096 0.014278472
0002a0 04 d5 cc 3a 53 33 55 3d 30 12 19 be 0e 5b 1b be
       0.0015627448 0.0520509 -0.14948344 -0.15171453
0002b0 11 2c b3 bd d9 4f 77 3c 57 4b 98 bd 5d 3b 4e 3e
       -0.087486394 0.015094721 -0.07436245 0.20139833
0002c0 78 20 89 3d 5c 07 15 3e b2 fa 03 bd 02 71 61 bd
       0.06695646 0.14553589 -0.032221504 -0.055039413
0002d0 ac 2b a8 3d be 9d 83 3c 0f f6 2d 3d 48 10 b4 3b
       0.08211455 0.016066428 0.042470988 0.005495105
0002e0 96 41 6a 3d 4f 7d 91 bd 50 9e f4 3c d6 d6 46 bd
       0.057191454 -0.07103979 0.029860646 -0.048544727
0002f0 92 3a 93 3c fb b6 f9 bd ec e6 07 be 94 92 fd bd
       0.017972264 -0.12193104 -0.13271683 -0.12381473
000300 14 de 39 bd dd 86 f7 bc a5 e3 4d bd 1a c9 d7 bd
       -0.045377806 -0.030215675 -0.050265927 -0.10536404
000310 8d c2 c3 bd 02 0c 59 bd fb f2 6c 3d 06 22 8d bd
       -0.09558592 -0.052989967 0.05784891 -0.06891255

bias f4 [4]
000000 b0 78 b8 3d 44 5f e5 bd 9a be 4c bd a8 2c 20 bd
       0.09007394 -0.11199811 -0.04998646 -0.039105088

mask f4 [4, 50]
000000 00 00 00 00 00 00 00 00 00 00 00 00 00 00 00 00
       0.0 0.0 0.0 0.0
000010 00 00 00 00 00 00 00 00 00 00 00 00 00 00 00 00
       0.0 0.0 0.0 0.0
000020 00 00 00 00 00 00 00 00 00 00 00 00 00 00 00 00
       0.0 0.0 0.0 0.0
000030 00 00 00 00 00 00 00 00 00 00 00 00 00 00 00 00
       0.0 0.0 0.0 0.0
000040 00 00 00 00 00 00 00 00 00 00 00 00 00 00 00 00
       0.0 0.0 0.0 0.0
000050 00 00 00 00 00 00 00 00 00 00 00 00 00 00 00 00
       0.0 0.0 0.0 0.0
000060 00 00 00 00 00 00 00 00 00 00 00 00 00 00 00 00
       0.0 0.0 0.0 0.0
000070 00 00 00 00 00 00 00 00 00 00 00 00 00 00 00 00
       0.0 0.0 0.0 0.0
000080 00 00 00 00 00 00 00 00 00 00 00 00 00 00 00 00
       0.0 0.0 0.0 0.0
000090 00 00 00 00 00 00 00 00 00 00 00 00 00 00 00 00
       0.0 0.0 0.0 0.0
0000a0 00 00 00 00 00 00 00 00 00 00 00 00 00 00 00 00
       0.0 0.0 0.0 0.0
0000b0 00 00 00 00 00 00 00 00 00 00 00 00 00 00 00 00
       0.0 0.0 0.0 0.0
0000c0 00 00 00 00 00 00 00 00 00 00 00 00 00 00 00 00
       0.0 0.0 0.0 0.0
0000d0 00 00 00 00 00 00 00 00 00 00 00 00 00 00 00 00
       0.0 0.0 0.0 0.0
0000e0 00 00 00 00 00 00 00 00 00 00 00 00 00 00 00 00
       0.0 0.0 0.0 0.0
0000f0 00 00 00 00 00 00 00 00 00 00 00 00 00 00 00 00
       0.0 0.0 0.0 0.0
000100 00 00 00 00 00 00 00 00 00 00 00 00 00 00 00 00
       0.0 0.0 0.0 0.0
000110 00 00 00 00 00 00 00 00 00 00 00 00 00 00 00 00
       0.0 0.0 0.0 0.0
000120 00 00 00 00 00 00 00 00 00 00 00 00 00 00 00 00
       0.0 0.0 0.0 0.0
000130 00 00 00 00 00 00 00 00 00 00 00 00 00 00 00 00
       0.0 0.0 0.0 0.0
000140 00 00 00 00 00 00 00 00 00 00 00 00 00 00 00 00
       0.0 0.0 0.0 0.0
000150 00 00 00 00 00 00 00 00 00 00 00 00 00 00 00 00
       0.0 0.0 0.0 0.0
000160 00 00 00 00 00 00 00 00 00 00 00 00 00 00 00 00
       0.0 0.0 0.0 0.0
000170 00 00 00 00 00 00 00 00 00 00 00 00 00 00 00 00
       0.0 0.0 0.0 0.0
000180 00 00 00 00 00 00 00 00 00 00 00 00 00 00 00 00
       0.0 0.0 0.0 0.0
000190 00 00 80 3f 00 00 80 3f 00 00 80 3f 00 00 80 3f
       1.0 1.0 1.0 1.0
0001a0 00 00 80 3f 00 00 80 3f 00 00 80 3f 00 00 80 3f
       1.0 1.0 1.0 1.0
0001b0 00 00 80 3f 00 00 80 3f 00 00 80 3f 00 00 80 3f
       1.0 1.0 1.0 1.0
0001c0 00 00 80 3f 00 00 80 3f 00 00 80 3f 00 00 80 3f
       1.0 1.0 1.0 1.0
0001d0 00 00 80 3f 00 00 80 3f 00 00 80 3f 00 00 80 3f
       1.0 1.0 1.0 1.0
0001e0 00 00 80 3f 00 00 80 3f 00 00 80 3f 00 00 80 3f
       1.0 1.0 1.0 1.0
0001f0 00 00 80 3f 00 00 80 3f 00 00 80 3f 00 00 80 3f
       1.0 1.0 1.0 1.0
000200 00 00 80 3f 00 00 80 3f 00 00 80 3f 00 00 80 3f
       1.0 1.0 1.0 1.0
000210 00 00 80 3f 00 00 80 3f 00 00 80 3f 00 00 80 3f
       1.0 1.0 1.0 1.0
000220 00 00 80 3f 00 00 80 3f 00 00 80 3f 00 00 80 3f
       1.0 1.0 1.0 1.0
000230 00 00 80 3f 00 00 80 3f 00 00 80 3f 00 00 80 3f
       1.0 1.0 1.0 1.0
000240 00 00 80 3f 00 00 80 3f 00 00 80 3f 00 00 80 3f
       1.0 1.0 1.0 1.0
000250 00 00 80 3f 00 00 80 3f 00 00 80 3f 00 00 80 3f
       1.0 1.0 1.0 1.0
000260 00 00 80 3f 00 00 80 3f 00 00 80 3f 00 00 80 3f
       1.0 1.0 1.0 1.0
000270 00 00 80 3f 00 00 80 3f 00 00 80 3f 00 00 80 3f
       1.0 1.0 1.0 1.0
000280 00 00 80 3f 00 00 80 3f 00 00 80 3f 00 00 80 3f
       1.0 1.0 1.0 1.0
000290 00 00 80 3f 00 00 80 3f 00 00 80 3f 00 00 80 3f
       1.0 1.0 1.0 1.0
0002a0 00 00 80 3f 00 00 80 3f 00 00 80 3f 00 00 80 3f
       1.0 1.0 1.0 1.0
0002b0 00 00 80 3f 00 00 80 3f 00 00 80 3f 00 00 80 3f
       1.0 1.0 1.0 1.0
0002c0 00 00 80 3f 00 00 80 3f 00 00 80 3f 00 00 80 3f
       1.0 1.0 1.0 1.0
0002d0 00 00 80 3f 00 00 80 3f 00 00 80 3f 00 00 80 3f
       1.0 1.0 1.0 1.0
0002e0 00 00 80 3f 00 00 80 3f 00 00 80 3f 00 00 80 3f
       1.0 1.0 1.0 1.0
0002f0 00 00 80 3f 00 00 80 3f 00 00 80 3f 00 00 80 3f
       1.0 1.0 1.0 1.0
000300 00 00 80 3f 00 00 80 3f 00 00 80 3f 00 00 80 3f
       1.0 1.0 1.0 1.0
000310 00 00 80 3f 00 00 80 3f 00 00 80 3f 00 00 80 3f
       1.0 1.0 1.0 1.0

weight f4 [50, 2]
000000 7a 69 52 3d 00 f3 1f 3e 64 bc e6 3c 23 e7 17 bf
       0.05137012 0.15620041 0.028166004 -0.5933706
000010 b3 00 1e bf 5c b4 23 be 2c 95 25 3f 9b 9a 1c bf
       -0.61719817 -0.1598677 0.64680743 -0.6117341
000020 d8 47 9b 3d 95 0f 16 3f 01 4e a2 be 38 c9 80 3d
       0.075820625 0.58617526 -0.31700137 0.062883794
000030 ec c1 93 3d b6 e6 f3 be ab de 0e 3f 2f 98 20 3f
       0.07214722 -0.47636956 0.55808514 0.62732214
000040 28 ba 7a be 25 5e 16 3f 25 37 cd 3e f5 06 23 3f
       -0.24485075 0.58737403 0.40081134 0.6368249
000050 1b d7 4b 3e c0 3a f3 bd d9 88 09 bf 9f fc a9 be
       0.19906275 -0.1187644 -0.5372444 -0.33200547
000060 54 29 08 3d 82 ae 5e be 3e d3 bb bc 07 60 17 3f
       0.03324254 -0.21746257 -0.022927877 0.591309
000070 a4 6a 03 bf 14 53 01 3e 95 95 2e be e0 4b df bd
       -0.51334596 0.12629348 -0.17049249 -0.10903144
000080 25 0a 88 be e0 19 10 bf a6 b9 21 3f 48 0a 6e 3e
       -0.2657024 -0.5628948 0.631739 0.2324611
000090 05 ab a1 be 7c b9 6b be 2d c2 05 3e 48 50 4a be
       -0.3157579 -0.23019975 0.13062353 -0.19757187
0000a0 a7 fc ba 3e f0 78 10 3e 5d 93 b3 bd 7c 46 b6 be
       0.36520883 0.14108634 -0.08768342 -0.3560065
0000b0 6f f7 40 3f ee bf e5 3e d3 b1 0f 3e 80 c6 d6 bb
       0.75377554 0.44872993 0.14032678 -0.0065544248
0000c0 a4 fe af be c0 c2 1a bc e2 0b dd bd 69 38 23 3f
       -0.34373963 -0.009445846 -0.10793282 0.6375795
0000d0 3f f8 76 be bc 98 5c 3e ee f5 93 3c 56 61 70 be
       -0.24118136 0.21542639 0.018061604 -0.2347463
0000e0 6b 15 f6 be 80 b4 72 bd c0 16 3a bf a2 77 f9 3e
       -0.48063216 -0.05925417 -0.72690964 0.48724085
0000f0 1e 61 c7 bd 80 7e 44 3d 1e 71 31 3f 8c 97 1a 3e
       -0.097353205 0.047972202 0.6931323 0.15096873
000100 9b a7 51 3d 07 08 04 3f 98 57 28 3f cc c4 2a bf
       0.05118523 0.5157475 0.6575866 -0.6670654
000110 23 1e bc 3d 38 5e 36 3e 0e 4e c7 3e 29 74 b8 be
       0.091854356 0.17809379 0.38926739 -0.36026123
000120 c9 10 aa bc 1e 64 6c be bf 72 b8 3d 0a 29 bc 3e
       -0.020759957 -0.23085067 0.09006261 0.3675006
000130 77 76 04 3f c0 c0 03 be 83 6d 07 bf e8 17 16 bf
       0.51743263 -0.12866497 -0.52901477 -0.5863023
000140 9b 4a 0d be db ae 25 3f 2f 2c 93 bd e4 8c 91 be
       -0.13797991 0.64719933 -0.07186162 -0.28427804
000150 02 22 83 3e 34 7d 2c be 13 3a 1d 3f e0 88 bb bd
       0.25611883 -0.16844636 0.6141674 -0.09156966
000160 ec c0 d8 3e 00 12 23 3e 93 a1 ee be 00 3e c7 bd
       0.42334688 0.15924835 -0.46607646 -0.097286224
000170 be cc 2c 3d df 89 23 3f 56 2c 0e bf a8 1b b7 be
       0.042187445 0.6388225 -0.555364 -0.35763288
000180 e7 a3 11 be 30 5f 62 bd 8c ee 08 3f fd 25 03 bf
       -0.1422268 -0.05526656 0.53488994 -0.5122984
