04a/Results_O4a_MultiSeed_Final/Models_Seed_1024_20260210/model_ai_seed_1024.pth (torch, 278418 bytes, 76 tensors)

_shift f4 [2]
00000000: c4ad 2540 cec5 debf
2.5887308 -1.7404115

_scale f4 [2]
00000000: 0890 303e a910 5e40
0.17242444 3.4697669

weight f4 [50, 2]
00000000: 0684 4bbe 6b2c 0c3f 64b4 1bbf ca5b df3e
00000010: 2da2 0dbf b094 7f3d 8ae6 243f 6b72 dfbe
00000020: 1af5 71be ebe9 263f ab4a a8be 200a b6be
00000030: b4cd 673e 0af5 a33e b888 1fbf 5c0d e5be
00000040: 50b6 8abd 0938 1d3f 8cd4 e039 90da 01be
00000050: 711a 9bbc 50c4 843d 6a96 413e 1926 06bf
00000060: 7896 3a3f 70a5 563d 1167 14be 77ce 25bf
00000070: df54 f7bd daac 0fbf 6ec2 413f 4036 a83c
00000080: c047 37bf 1653 cf3e a45f dfbe 5ac4 fdbe
00000090: 21c3 593e 5207 8e3e 3ef2 0a3e 0046 ee3d
000000a0: 2bee 21be a0b7 2c3e 8d55 63be 7b43 a9be
000000b0: b60c 92bd 00eb 6fbc 544b d43e e854 593e
000000c0: 6cfe 413c dc08 8f3e 7f12 683e 1e32 aa3e
000000d0: 4104 b1be a352 183f 7b8d 3fbf 8d4f 023f
000000e0: cbe6 5fbf d4fa 2bbe cd3c 9f3e 8028 873c
000000f0: 2200 9dbe 3b1f 213f f0b7 373f ebf1 0b3f
00000100: 3b54 87be f6da 12bf ef5a 7cbe 5431 02bf
00000110: e7ca 343f 87ac 143f 87ac a7bc 3024 ebbe
00000120: b74d e8be 80e2 b23c 3a2c fabe 263e eebe
00000130: 6319 0cbe a6ba 0cbf 2274 42be 28ac debd
00000140: b5c8 eabe a039 8d3d c643 c43e cb7c 113f
00000150: f6b1 993b 405b 2a3c c03f 05bf 28e4 49be
00000160: 4bf1 23bf e033 bd3c 89d3 efbe 3e68 e1be
00000170: 9589 cbbe fe80 91be 42f7 dabe 2802 72be
00000180: e0ec fbbd 8abd 03bf df81 febe fae8 dd3e
-0.19874582 0.54755276 -0.6082213 0.43624717 -0.55325586 0.06239766 0.64414275 -0.4364198
-0.23628655 0.6520068 -0.32869467 -0.355546 0.22637063 0.32022887 -0.6231799 -0.44736755
-0.067730546 0.6141363 0.0004288297 -0.12681031 -0.018933507 0.06482756 0.18905035 -0.5240188
0.7288585 0.052403867 -0.14492442 -0.64768165 -0.12076735 -0.56123126 0.756873 0.02053368
-0.71593857 0.40493077 -0.43627656 -0.49563867 0.21265842 0.2773996 0.1356897 0.11634445
-0.1581351 0.16866922 -0.22200604 -0.33059296 -0.07131331 -0.014643431 0.4146372 0.21223795
0.011840444 0.27936447 0.22663306 0.3324136 -0.34573558 0.59501094 -0.7482526 0.50902635
-0.8746154 -0.16794902 0.31101075 0.016498804 -0.30664164 0.6293828 0.7176504 0.5466601
-0.2643145 -0.5736536 -0.24644063 -0.5085652 0.70622104 0.58075756 -0.02046801 -0.45926046
-0.45371792 0.02183652 -0.48861867 -0.4653179 -0.1368156 -0.549723 -0.18989614 -0.1087268
-0.45856252 0.06895757 0.38332957 0.56831044 0.004690404 0.010397732 -0.520504 -0.19715941
-0.6404006 0.023096025 -0.46841076 -0.44024843 -0.39753404 -0.28418726 -0.42766768 -0.23633635
-0.1230104 -0.5146109 -0.4970846 0.4334181

bias f4 [50]
00000000: 4802 24bf 25d8 1e3f 789c ea3e b366 4fbf
00000010: b7ef 07bf eabd 073c 2dee 2ebf 6ad9 f939
00000020: 339e c63e 6ad6 0e3f 4b8f a53e a081 04bd
00000030: e103 11bf 420e b0be e8c6 39bf 81f4 0cbe
00000040: b382 ab3e 3e62 fa3d a46e 073f 8e87 0cbf
00000050: 107f fc3d 9a83 8a3e e619 95be 9f9d d13e
00000060: f4be b5be 2170 8d3e caa0 113e 6a8c 1f3f
00000070: 4257 dc3e 83ba fd3e 6d56 22bf 2943 7fbe
00000080: ecc3 0cbf e32a 083d 8a82 c2bb cb30 24bf
00000090: f855 e6be 81ff b33e 1989 4a3e de80 12bf
000000a0: 77d9 1f3e 56f7 003e aecb 13bf 2ee5 84be
000000b0: 3c8c f43e fbbd 57be 6b74 6d3d 9678 4abd
000000c0: b161 333f fd28 703d
-0.6406598 0.6204856 0.458225 -0.8101608 -0.5310015 0.008285025 -0.6833218 0.00047654967
0.3879257 0.5579592 0.32335886 -0.032350183 -0.56646544 -0.34385878 -0.7256913 -0.13765146
0.33498153 0.122257695 0.529032 -0.5489434 0.12328923 0.2705353 -0.2912132 0.40940568
-0.35497248 0.2762461 0.14221492 0.6232363 0.43035322 0.4955636 -0.63413125 -0.24927963
-0.54986453 0.033244025 -0.0059359716 -0.6413695 -0.44987464 0.35155872 0.19778861 -0.57227886
0.156103 0.12594351 -0.57732666 -0.259561 0.4776324 -0.21068566 0.057972353 -0.049431406
0.7007094 0.05863284

mask f4 [50, 2]
00000000: 0000 803f 0000 0000 0000 803f 0000 0000
00000010: 0000 803f 0000 0000 0000 803f 0000 0000
00000020: 0000 803f 0000 0000 0000 803f 0000 0000
00000030: 0000 803f 0000 0000 0000 803f 0000 0000
00000040: 0000 803f 0000 0000 0000 803f 0000 0000
00000050: 0000 803f 0000 0000 0000 803f 0000 0000
00000060: 0000 803f 0000 0000 0000 803f 0000 0000
00000070: 0000 803f 0000 0000 0000 803f 0000 0000
00000080: 0000 803f 0000 0000 0000 803f 0000 0000
00000090: 0000 803f 0000 0000 0000 803f 0000 0000
000000a0: 0000 803f 0000 0000 0000 803f 0000 0000
000000b0: 0000 803f 0000 0000 0000 803f 0000 0000
000000c0: 0000 803f 0000 0000 0000 803f 0000 0000
000000d0: 0000 803f 0000 0000 0000 803f 0000 0000
000000e0: 0000 803f 0000 0000 0000 803f 0000 0000
000000f0: 0000 803f 0000 0000 0000 803f 0000 0000
00000100: 0000 803f 0000 0000 0000 803f 0000 0000
00000110: 0000 803f 0000 0000 0000 803f 0000 0000
00000120: 0000 803f 0000 0000 0000 803f 0000 0000
00000130: 0000 803f 0000 0000 0000 803f 0000 0000
00000140: 0000 803f 0000 0000 0000 803f 0000 0000
00000150: 0000 803f 0000 0000 0000 803f 0000 0000
00000160: 0000 803f 0000 0000 0000 803f 0000 0000
00000170: 0000 803f 0000 0000 0000 803f 0000 0000
00000180: 0000 803f 0000 0000 0000 803f 0000 0000
1.0 0.0 1.0 0.0 1.0 0.0 1.0 0.0
1.0 0.0 1.0 0.0 1.0 0.0 1.0 0.0
1.0 0.0 1.0 0.0 1.0 0.0 1.0 0.0
1.0 0.0 1.0 0.0 1.0 0.0 1.0 0.0
1.0 0.0 1.0 0.0 1.0 0.0 1.0 0.0
1.0 0.0 1.0 0.0 1.0 0.0 1.0 0.0
1.0 0.0 1.0 0.0 1.0 0.0 1.0 0.0
1.0 0.0 1.0 0.0 1.0 0.0 1.0 0.0
1.0 0.0 1.0 0.0 1.0 0.0 1.0 0.0
1.0 0.0 1.0 0.0 1.0 0.0 1.0 0.0
1.0 0.0 1.0 0.0 1.0 0.0 1.0 0.0
1.0 0.0 1.0 0.0 1.0 0.0 1.0 0.0
1.0 0.0 1.0 0.0

weight f4 [50, 4]
00000000: 4d77 88be a760 1a3d 2800 1f3f 4fdb 60be
00000010: 8983 b33a 2306 153f 7f8c 4b3d cb9e 7abe
00000020: 2ccf 8bbe 486d 803e 2301 a13d fd0e c8be
00000030: 5e55 763e bb83 c3be d1f0 0f3e c6e4 033e
00000040: d9dd 363e 70d4 183e e7b3 e83e c90b 0bbe
00000050: d50b 1dbe 175b b43e 023e 873d 5305 f83e
00000060: 739a f03d 56b7 9e3d 805a dbbd 9a8e c93e
00000070: b98d 77be cc0e 2d3f 126e 033c a4b6 c43e
00000080: d7ed 4fbe 4ef0 1bbf 97ac 12be 27e0 7d3d
00000090: 046e 8bbe 7858 c23e 1897 b8bd 6150 a53e
000000a0: 3997 813e 7b82 c93e 2d54 96bd 2b0a da3e
000000b0: 0414 9fbe 4fba 19bf 21a4 76be e825 a73e
000000c0: 24cc febc 2edc 533d 75bb 1abf 9459 fbbe
000000d0: 0ea1 66bd c1cd debe dd53 f6be 90d9 dcbe
000000e0: f896 283e 8471 9b3e d9a0 77be 3638 b83e
000000f0: d6f2 65be 00d7 cc3d bfaf 553f c2df 9e3e
00000100: b6f8 d73e 5861 f0be f84e 063f b35a 5d3d
00000110: 630f 203d e3a1 edbe 22db 49bf bbf3 3c3e
00000120: 2933 8f3e d3a0 31be f301 cc3e f1cc 99be
00000130: ebd9 a33d a92e 0bbf 1328 d9be bbad 9bbe
00000140: 5f20 7fbe 22de 99be ed01 033f ea17 2ebd
00000150: 1a02 1fbe 2693 c9be ce32 09bf 4d3c e43e
00000160: 2ed4 cd3e ab1f 3dbe 9709 243e 85bb 83be
00000170: bf16 d63e 74a9 663e cbcd 90be b8c2 4c3e
00000180: 9c9e ce3e 4d18 4e3e 4dec ea3d c286 623d
00000190: 16e6 e43d 2471 143e 0430 ee3d a6c4 363e
000001a0: fded 86be a574 1a3f cbe0 773b 4f93 e43e
000001b0: b99c d8be fbaf 66be 33b7 353e fef4 bc3e
000001c0: 26a5 513e f01c 583e a386 153f eee3 59be
000001d0: 3661 993d d90f 21bd dfd4 f13e 16e4 a83e
000001e0: 15f8 55bd aff8 34bd ce30 86be c182 c63e
000001f0: 0de3 88be 2892 12bf 9075 75be 6ee9 d8bc
00000200: 9391 b53c dc4c 0f3f 697a d13d d917 f73e
00000210: b0ea a53e 6bf4 88be d647 1bbf a50b c03e
00000220: 3bdc a93d 2245 b3be ded3 a4bd 90ff ae3e
00000230: a6af c53e 97ab 64be 0a75 abbe a337 c93e
00000240: e6d9 093e 13db 6e3e 0af5 353e 740f 5fbd
00000250: d168 993e a413 933e 2884 1b3d 6dfe 0cbd
00000260: 3a34 863e fe50 2c3d 6e57 fa3c 7116 94be
00000270: 7f03 8bbe 82ee 523d 0b7a 933d c0a7 52be
00000280: 8d57 043f f651 793e e828 02bf fbf6 613e
00000290: 25d0 033e d0b2 acbe 399f b53e b86e a33e
000002a0: 3e45 43be 7040 0f3f 872f 9bbe e508 5cbe
000002b0: 67e6 bf3e 1a73 2abe 46db 6d3e 3791 f5be
000002c0: e745 2ebe 3c1a 9abd 80f0 06be 30e3 3fbe
000002d0: 52fb 11be a794 02be 2922 32be 519e fabe
000002e0: cee0 233e 0506 053f cee8 353f fab0 c7bd
000002f0: db79 a8be c513 53be c7bd f63e ef78 dabd
00000300: 9c31 5cbe 4a1a 1cbf add4 0ebf 2e59 aa3e
00000310: cfe9 d43c c1bb 403d c16c 2e3f be5d 1a3d
-0.2665352 0.03768983 0.62109613 -0.2195866 0.0013695817 0.5821249 0.049694534 -0.24474637
-0.27306497 0.25083375 0.07861545 -0.39073935 0.24056002 -0.3818644 0.14056708 0.12880239
0.17858066 0.14924788 0.45449755 -0.13578714 -0.15336545 0.35225746 0.06603624 0.48441562
0.11748209 0.07749812 -0.10710621 0.3936661 -0.24175157 0.67600703 0.008021848 0.38420594
-0.20305572 -0.6091355 -0.1432365 0.061981346 -0.27232373 0.3795812 -0.09013194 0.32287887
0.25310686 0.3935736 -0.07340274 0.42585883 -0.31069958 -0.6004991 -0.24086048 0.32646108
-0.031103201 0.05172365 -0.60442287 -0.4909178 -0.056305937 -0.43516353 -0.48110858 -0.43134737
0.1646384 0.30360043 -0.24182452 0.35980386 -0.22455916 0.100019455 0.8347129 0.3103009
0.4218194 -0.46949267 0.52464247 0.054041576 0.039077174 -0.46412572 -0.78849995 0.18452351
0.2796872 -0.17346506 0.39845237 -0.3003917 0.08000549 -0.5436807 -0.42413387 -0.30405983
-0.24914692 -0.30052286 0.51174814 -0.042503275 -0.15528145 -0.39370078 -0.53593147 0.44577256
0.40200943 -0.18469112 0.16019283 -0.25729004 0.4181423 0.22525579 -0.28282008 0.19996154
0.40355384 0.20126458 0.11470852 0.055304296 0.11176698 0.14496285 0.11630252 0.17848453
-0.26353446 0.60334235 0.0037823196 0.44643638 -0.4230707 -0.22528069 0.17745666 0.36905664
0.20473155 0.21104789 0.58408564 -0.21278355 0.07489245 -0.039321754 0.4723272 0.32986516
-0.052238543 -0.044182476 -0.2620911 0.38771632 -0.26735726 -0.57254267 -0.23970628 -0.026478495
0.022164142 0.55976653 0.10228426 0.48260382 0.32405615 -0.26748976 -0.6065649 0.37508884
0.08293959 -0.35013682 -0.08048223 0.34179354 0.38610572 -0.22331081 -0.3348773 0.3930026
0.13462028 0.23325758 0.17769256 -0.054458097 0.2996278 0.28725922 0.03796783 -0.034422327
0.2621172 0.042069428 0.030559268 -0.2892337 -0.27151105 0.05149699 0.07201012 -0.20571804
0.5169609 0.24347672 -0.5084367 0.22066872 0.1287237 -0.33730173 0.3547304 0.3192041
-0.19069383 0.559577 -0.30309698 -0.21487768 0.3748047 -0.1664547 0.23228177 -0.47962353
-0.17018853 -0.07524535 -0.13177681 -0.18739009 -0.14256027 -0.12752019 -0.17395844 -0.4894891
0.16003725 0.5196231 0.71058357 -0.097505525 -0.32905468 -0.2061301 0.48191664 -0.106675975
-0.215033 -0.60977614 -0.5579327 0.33271164 0.025990395 0.047054056 0.68134695 0.037687056

bias f4 [50]
00000000: 65fd 2d3c 4561 bb3e 7af2 ec3e dcc0 c4bd
00000010: 8bf5 02bf f75f 6e3d 06aa 02bf bf9c b53e
00000020: 25f9 ee3e bb9d 003f 2402 933e c2e4 b33e
00000030: 3f86 82be e6fd 973c bd48 fabe 4bd9 743e
00000040: c73b a0be 0cfb 723e 9295 d4be 579b 003f
00000050: 58f0 08bf dea4 b33e 853c 70be 2790 9bbd
00000060: f594 d1be 3b48 003d dbc6 03bf a350 a33e
00000070: 507e b63e 32d9 033f 9058 b9be d469 b1be
00000080: 37fe 293e 7894 e63e 5733 15bf e8f9 a2be
00000090: 1e8f 113d d765 e03e fdd1 843e 4997 6bbe
000000a0: 6a30 4f3e e075 e43e 1569 5c3e c6b9 923d
000000b0: 0839 7d3e 1088 bd3d 3a9a b63e d4fd 9b3e
000000c0: 4fbc ac3e 4e91 15be
0.010619496 0.36597648 0.46278745 -0.096070975 -0.5115592 0.058196988 -0.51040685 0.3547115
0.46674457 0.5024068 0.2871257 0.35135466 -0.25493047 0.018553685 -0.4888362 0.23911016
-0.31295606 0.2372858 -0.41520363 0.5023703 -0.53491735 0.3508672 -0.23460586 -0.07595854
-0.40933958 0.031318884 -0.51475304 0.31897458 0.35643244 0.5150329 -0.3620038 -0.34651053
0.16600882 0.45035148 -0.58281463 -0.31831288 0.035536878 0.43827698 0.25941458 -0.2300693
0.20233312 0.4462118 0.2152446 0.0716434 0.24728787 0.092544675 0.3566454 0.30467093
0.33737418 -0.1460621

weight f4 [50, 50]
00000000: ddb3 043d 1f1a e03d e495 333d f4b5 cd3d
00000010: 5cae 49bd 3718 2cbb dc8b 373e 6990 de3d
00000020: 8339 97bc eaec 4ebd 3715 b2bd a4ab 27be
00000030: 3a1e 073e 7192 613d 3111 363e 5513 e63d
00000040: 6ff5 463d ea38 d6bc 5fdf 3bbe 900b f73b
00000050: 0e99 f93d bb85 38be 479d b43c 6d71 85bd
00000060: c0d0 39bd 72e3 90bd a614 853c 064f 26be
00000070: aa83 663c a749 22be 39c3 5c3d 5021 1bbe
00000080: 6827 213e 70c4 38be ccad bfbc 1dfe 9abd
00000090: 7c91 633e bcf2 acbd 7265 c23d b340 393e
000000a0: ecca e3bd 7cca d03d 658d 5b3c 8b08 2c3d
000000b0: a6d6 8bbd 4750 d53d a970 c63d 9782 3dbd
000000c0: 1612 933c ede7 2b3e 768d 1a3c b8e9 0ebe
000000d0: 07f8 b93b 6449 253d ea26 823d 03b5 b1bd
000000e0: 3ef8 db3d cbf9 b6bd 444d 363d 80b8 cd3d
000000f0: 3d48 ed3a 33a3 af3d 21e0 103b 641a febd
00000100: ce8b 1dbd 9bde 21be 647c dd3d 7d9a 8c3d
00000110: 65a4 163d 93e1 603d 60ab b5bd 7b01 093e
00000120: ca0b 333d 61f5 1f3e 5539 06be e35c 97bc
00000130: 4eea fbbd e51f e0bc bda6 f13d 025d e13d
00000140: 1200 b9bd 4e95 513d c206 e63d 3a49 453c
00000150: 300c 1f3e 6813 58bc 85c0 e4bd 78ce 9dbd
00000160: 1c71 ea3c bacd ae3d 01c2 e63d 3cf6 88bd
00000170: e1ae 4ebd e02f 3dbd 1924 243d 5863 0b3d
00000180: 546f 65bc e31a 60bd 2ede 47bd b304 f9bd
00000190: bc19 093e 4346 51bd 8d00 87bd 3880 7d3d
000001a0: 7abf dabb 2b41 83bd 1391 1bbd 81c4 a8bd
000001b0: db4a 63bd c4e1 ba3d 7f6e dd3c a867 cabd
000001c0: 017a 28be 153b 8bbc 4677 223e 542d b83d
000001d0: 982f 56bd 73c2 38be bf8d acbd e347 40bc
000001e0: e905 f4bd f306 3abe ea5d 603d 94c0 b3bd
000001f0: b888 103e 790e 11be 95c4 53bd f7c1 073e
00000200: 8988 2c3e 2f51 d7bc 2f85 773d 66e1 893d
00000210: b3e5 ebbc d1ba 673d 21f6 84bb f079 293d
00000220: 930a 723d 83a1 0b3e 0825 16be 967c 3bbd
00000230: 7fd7 423b 05e3 863d fe5f 1c3d 084b 3c3d
00000240: 11a1 273d 827f bd3d 5b69 0cbd 3361 403e
00000250: 556f d8bd bdd3 083e 02c2 36ba 5735 3dbd
00000260: 2d68 6d3c 1d0f 86bd e472 04be 0385 fbbd
00000270: c6c0 bc3d 9773 1fbe c39d 183e 8cdf 0bbe
00000280: a030 d63d 5c2b 3e3e ad88 f43c c547 3d3e
00000290: 7b27 adbd d667 b2bd 3cd1 adb9 f3e3 41bd
000002a0: 337c 773d bd6f f83c 42d1 303c 61de a63d
000002b0: aae4 e1bc 81aa 9a3d 6298 bbbc 6c80 243d
000002c0: 0fc5 853d 68c4 8fbd 970e c13c 989b 3c3d
000002d0: ded0 123e 45f1 e33d 864c d83d 64d7 d1bc
000002e0: aa24 503e 9cb7 05bc 76eb c63d 79a4 a5bc
000002f0: 396f 493d de29 d03d 55d6 2fbd 0319 eebd
00000300: d4ec fcbd 816a f1bd b03c db3c 3aca cf3d
00000310: a820 a0bd 3c44 4bbd cf44 91bc 5c63 a4bd
00000320: 363c 233e 3114 303d 252b 413b 85be 0e3e
00000330: e2e5 953d 1699 323e 0ee7 1c3e 3cf1 6f3d
00000340: b793 793d e682 0cbe fc31 cf3d 6e76 c9bc
00000350: 9723 373d 4b11 ffbc 512d 243e 40f9 03be
00000360: fa83 06bd da93 f4bd ac85 bfbd 07d4 aa3d
00000370: 9921 db3a 8f79 003d d9f6 ac3d 6891 67bd
00000380: aa7b 1a3e 099a dbbd e4bc c53c d9bb 98bc
00000390: f415 ea3d 4c0d 2cbe c9a9 c63c 1f06 a2bd
000003a0: 3b30 39bd 7614 a03d fb5b 11be 3491 9cbd
000003b0: ce50 083e 2b8b 36bd 70e2 20bc f9e7 8a3d
000003c0: 4878 01bd be4d c13d 4078 6e3d 99ca 3cbd
000003d0: c6e9 29bb 6b46 f3bd e595 e7bd 8c8a f03d
000003e0: 27d2 ae3d 1a0f 563e 71e6 9abc 0a39 27be
000003f0: 55e0 983d a34a 0e3e 67fd 24bd f37f 673b
0.032398093 0.10942482 0.04384412 0.100444704 -0.049238548 -0.002625955 0.17924446 0.10867388
-0.01846004 -0.050518908 -0.08695453 -0.1637407 0.13195124 0.055071298 0.17779996 0.11234156
0.048573907 -0.026150186 -0.18346928 0.00753922 0.12187396 -0.18019764 0.022047652 -0.06515775
-0.045365095 -0.07074632 0.016245198 -0.16241083 0.014069477 -0.15848409 0.053897116 -0.15149426
0.15737689 -0.18043685 -0.023398302 -0.075679995 0.22223467 -0.084447354 0.094920054 0.18091087
-0.11122689 0.10194871 0.01340041 0.042000335 -0.0682805 0.10415702 0.09689457 -0.04626712
0.01795296 0.16787691 0.009433141 -0.13956344 0.005675319 0.040353194 0.063550785 -0.08677103
0.10740708 -0.08934363 0.04450728 0.10044956 0.0018103194 0.0857605 0.0022106247 -0.12407377
-0.038463406 -0.15807573 0.10814741 0.06865404 0.036777873 0.054902624 -0.08870578 0.13379471
0.043712415 0.15620948 -0.13107808 -0.018476909 -0.123005494 -0.027358958 0.11799381 0.11004068
-0.090332165 0.05116778 0.11231758 0.012041384 0.15531993 -0.013188221 -0.11169533 -0.077053964
0.028618388 0.08535333 0.11267472 -0.066875905 -0.050459746 -0.046188235 0.040073488 0.03403029
-0.0140035935 -0.05471314 -0.04879587 -0.121590994 0.13388723 -0.051092397 -0.06591902 0.061889857
-0.006675658 -0.06408914 -0.03798015 -0.08240605 -0.05549131 0.091250926 0.027030228 -0.09883052
-0.16452791 -0.016995946 0.15865812 0.08993021 -0.052291483 -0.18042926 -0.084254734 -0.011735889
-0.1191519 -0.18166713 0.054777063 -0.08776966 0.14114654 -0.14165677 -0.051701147 0.13257585
0.16848959 -0.026283829 0.06042975 0.067324445 -0.028796053 0.056574646 -0.004057661 0.041376054
0.059092116 0.1363583 -0.14662564 -0.04577311 0.0029730496 0.06586269 0.038177483 0.045969993
0.04092509 0.09252836 -0.034280162 0.18787079 -0.1056811 0.13362022 -0.00069716584 -0.046193447
0.0144901695 -0.065458514 -0.12934452 -0.12281229 0.09216456 -0.15571438 0.14903931 -0.13659495
0.10458493 0.18571228 0.029850328 0.18484409 -0.08454796 -0.087112114 -0.00033153023 -0.04733653
0.06042118 0.030326718 0.010792078 0.08147884 -0.027574856 0.07552052 -0.02289981 0.040161535
0.065317266 -0.070198834 0.023566527 0.046046823 0.14337489 0.11130003 0.10561471 -0.025615402
0.20326486 -0.008161452 0.09712879 -0.020220028 0.049178336 0.101642355 -0.042929012 -0.11625864
-0.12349859 -0.11787892 0.026762336 0.101459935 -0.07818729 -0.04962562 -0.017733006 -0.08026764
0.15940937 0.042988006 0.002947518 0.13939865 0.07319237 0.1744121 0.15322515 0.05857967
0.060931887 -0.13721809 0.10116956 -0.024592604 0.044711675 -0.031136176 0.16032912 -0.1288805
-0.032840706 -0.11942263 -0.09351668 0.08341222 0.0016718387 0.031365927 0.0844552 -0.056535155
0.15086237 -0.10722739 0.024137922 -0.01864426 0.114299685 -0.16801947 0.024250882 -0.07911324
-0.04521201 0.078164026 -0.14195244 -0.07644883 0.13312075 -0.044566315 -0.009819612 0.067825265
-0.03160885 0.09438656 0.058220148 -0.04609165 -0.0025926693 -0.118786655 -0.11307887 0.11745176
0.08536177 0.20904198 -0.018908711 -0.16330352 0.07464663 0.13895659 -0.040280726 0.0035324066

bias f4 [50]
00000000: a67e 24be 4d38 5c3d 9c6e 85bd 4950 d33d
00000010: 9979 2cbe 3730 3d3b 08e4 ed3d a8ea 00be
00000020: 63b7 d3bd afc3 0cbe df00 67bc bede f53d
00000030: 4cf0 703d c56a 32be 99b9 33be d40a c0bd
00000040: 185b 02bd 9d78 3d3e 37f5 293d 182f b93d
00000050: af1e 1a3e 5f6a b43d 4782 89bd 9c41 30bd
00000060: 75aa b63d 148a 103c f2dd 2a3e 9619 a03d
00000070: 56ca ff3b d1de e03c 8392 ec3d 7ea3 71bd
00000080: 5741 00be 0bce 263e 8793 1c3e 770c 1e3e
00000090: 81c2 16be 46c8 f93d 89fd 263e f8c6 d4bb
000000a0: 3f70 a7bd 26b7 06bd 3a42 4ebd ba4d 8d3d
000000b0: 3811 1f3e 168f 39be 94d9 17bd 0f6d efbd
000000c0: 267b 0ebd a5b0 a1bc
-0.16063938 0.05376463 -0.06515238 0.103180476 -0.16843261 0.002886785 0.11615759 -0.12589514
-0.103377126 -0.13746522 -0.014099329 0.12005375 0.058822915 -0.17423542 -0.17551269 -0.09377065
-0.031825155 0.18503042 0.04149362 0.090421855 0.15050767 0.08809351 -0.067143016 -0.04303132
0.08919231 0.008821983 0.16686228 0.0781738 0.0078061027 0.027449997 0.115513824 -0.05899381
-0.12524925 0.16289537 0.15290652 0.15434442 -0.14722635 0.12196402 0.16307653 -0.0064934455
-0.08175706 -0.032889508 -0.050356127 0.06899591 0.15533912 -0.18120989 -0.037072733 -0.11690723
-0.034785412 -0.019737551

mask f4 [50, 50]
00000000: 0000 803f 0000 803f 0000 803f 0000 803f
00000010: 0000 803f 0000 803f 0000 803f 0000 803f
00000020: 0000 803f 0000 803f 0000 803f 0000 803f
00000030: 0000 803f 0000 803f 0000 803f 0000 803f
00000040: 0000 803f 0000 803f 0000 803f 0000 803f
00000050: 0000 803f 0000 803f 0000 803f 0000 803f
00000060: 0000 803f 0000 803f 0000 803f 0000 803f
00000070: 0000 803f 0000 803f 0000 803f 0000 803f
00000080: 0000 803f 0000 803f 0000 803f 0000 803f
00000090: 0000 803f 0000 803f 0000 803f 0000 803f
000000a0: 0000 803f 0000 803f 0000 803f 0000 803f
000000b0: 0000 803f 0000 803f 0000 803f 0000 803f
000000c0: 0000 803f 0000 803f 0000 803f 0000 803f
000000d0: 0000 803f 0000 803f 0000 803f 0000 803f
000000e0: 0000 803f 0000 803f 0000 803f 0000 803f
000000f0: 0000 803f 0000 803f 0000 803f 0000 803f
00000100: 0000 803f 0000 803f 0000 803f 0000 803f
00000110: 0000 803f 0000 803f 0000 803f 0000 803f
00000120: 0000 803f 0000 803f 0000 803f 0000 803f
00000130: 0000 803f 0000 803f 0000 803f 0000 803f
00000140: 0000 803f 0000 803f 0000 803f 0000 803f
00000150: 0000 803f 0000 803f 0000 803f 0000 803f
00000160: 0000 803f 0000 803f 0000 803f 0000 803f
00000170: 0000 803f 0000 803f 0000 803f 0000 803f
00000180: 0000 803f 0000 803f 0000 803f 0000 803f
00000190: 0000 803f 0000 803f 0000 803f 0000 803f
000001a0: 0000 803f 0000 803f 0000 803f 0000 803f
000001b0: 0000 803f 0000 803f 0000 803f 0000 803f
000001c0: 0000 803f 0000 803f 0000 803f 0000 803f
000001d0: 0000 803f 0000 803f 0000 803f 0000 803f
000001e0: 0000 803f 0000 803f 0000 803f 0000 803f
000001f0: 0000 803f 0000 803f 0000 803f 0000 803f
00000200: 0000 803f 0000 803f 0000 803f 0000 803f
00000210: 0000 803f 0000 803f 0000 803f 0000 803f
00000220: 0000 803f 0000 803f 0000 803f 0000 803f
00000230: 0000 803f 0000 803f 0000 803f 0000 803f
00000240: 0000 803f 0000 803f 0000 803f 0000 803f
00000250: 0000 803f 0000 803f 0000 803f 0000 803f
00000260: 0000 803f 0000 803f 0000 803f 0000 803f
00000270: 0000 803f 0000 803f 0000 803f 0000 803f
00000280: 0000 803f 0000 803f 0000 803f 0000 803f
00000290: 0000 803f 0000 803f 0000 803f 0000 803f
000002a0: 0000 803f 0000 803f 0000 803f 0000 803f
000002b0: 0000 803f 0000 803f 0000 803f 0000 803f
000002c0: 0000 803f 0000 803f 0000 803f 0000 803f
000002d0: 0000 803f 0000 803f 0000 803f 0000 803f
000002e0: 0000 803f 0000 803f 0000 803f 0000 803f
000002f0: 0000 803f 0000 803f 0000 803f 0000 803f
00000300: 0000 803f 0000 803f 0000 803f 0000 803f
00000310: 0000 803f 0000 803f 0000 803f 0000 803f
00000320: 0000 803f 0000 803f 0000 803f 0000 803f
00000330: 0000 803f 0000 803f 0000 803f 0000 803f
00000340: 0000 803f 0000 803f 0000 803f 0000 803f
00000350: 0000 803f 0000 803f 0000 803f 0000 803f
00000360: 0000 803f 0000 803f 0000 803f 0000 803f
00000370: 0000 803f 0000 803f 0000 803f 0000 803f
00000380: 0000 803f 0000 803f 0000 803f 0000 803f
00000390: 0000 803f 0000 803f 0000 803f 0000 803f
000003a0: 0000 803f 0000 803f 0000 803f 0000 803f
000003b0: 0000 803f 0000 803f 0000 803f 0000 803f
000003c0: 0000 803f 0000 803f 0000 803f 0000 803f
000003d0: 0000 803f 0000 803f 0000 803f 0000 803f
000003e0: 0000 803f 0000 803f 0000 803f 0000 803f
000003f0: 0000 803f 0000 803f 0000 803f 0000 803f
1.0 1.0 1.0 1.0 1.0 1.0 1.0 1.0
1.0 1.0 1.0 1.0 1.0 1.0 1.0 1.0
1.0 1.0 1.0 1.0 1.0 1.0 1.0 1.0
1.0 1.0 1.0 1.0 1.0 1.0 1.0 1.0
1.0 1.0 1.0 1.0 1.0 1.0 1.0 1.0
1.0 1.0 1.0 1.0 1.0 1.0 1.0 1.0
1.0 1.0 1.0 1.0 1.0 1.0 1.0 1.0
1.0 1.0 1.0 1.0 1.0 1.0 1.0 1.0
1.0 1.0 1.0 1.0 1.0 1.0 1.0 1.0
1.0 1.0 1.0 1.0 1.0 1.0 1.0 1.0
1.0 1.0 1.0 1.0 1.0 1.0 1.0 1.0
1.0 1.0 1.0 1.0 1.0 1.0 1.0 1.0
1.0 1.0 1.0 1.0 1.0 1.0 1.0 1.0
1.0 1.0 1.0 1.0 1.0 1.0 1.0 1.0
1.0 1.0 1.0 1.0 1.0 1.0 1.0 1.0
1.0 1.0 1.0 1.0 1.0 1.0 1.0 1.0
1.0 1.0 1.0 1.0 1.0 1.0 1.0 1.0
1.0 1.0 1.0 1.0 1.0 1.0 1.0 1.0
1.0 1.0 1.0 1.0 1.0 1.0 1.0 1.0
1.0 1.0 1.0 1.0 1.0 1.0 1.0 1.0
1.0 1.0 1.0 1.0 1.0 1.0 1.0 1.0
1.0 1.0 1.0 1.0 1.0 1.0 1.0 1.0
1.0 1.0 1.0 1.0 1.0 1.0 1.0 1.0
1.0 1.0 1.0 1.0 1.0 1.0 1.0 1.0
1.0 1.0 1.0 1.0 1.0 1.0 1.0 1.0
1.0 1.0 1.0 1.0 1.0 1.0 1.0 1.0
1.0 1.0 1.0 1.0 1.0 1.0 1.0 1.0
1.0 1.0 1.0 1.0 1.0 1.0 1.0 1.0
1.0 1.0 1.0 1.0 1.0 1.0 1.0 1.0
1.0 1.0 1.0 1.0 1.0 1.0 1.0 1.0
1.0 1.0 1.0 1.0 1.0 1.0 1.0 1.0
1.0 1.0 1.0 1.0 1.0 1.0 1.0 1.0

weight f4 [50, 50]
00000000: 2e05 04be e413 663b ab70 e1bd 793f 563c
00000010: 6926 603c ec17 dabd da92 acbb cc91 913d
00000020: 7d76 783c 1a9b 183e 58de d3bd 401d 073e
00000030: 1f8a 09bb 5289 17be 7261 36be d5e3 dcbd
00000040: 7812 933d 153d 1c3e 6462 0a3d 1e06 69bc
00000050: ba0a 9cbc 5232 2cbd 36ac 8a3d cddd 563d
00000060: 383d 8e3d 165d f53d f76b 88bd cd97 973c
00000070: 01e7 92bd fedc 9fbc dd0f 8bbd d73f d5bd
00000080: 6a2e bdbb b108 1a3c 592d 5dbc 8c32 a53d
00000090: 6a6d 8b3d 484d 023e b07f 183e 065b 10be
000000a0: 8d54 ef3d c8cf b5ba 327a e5bc fbdc 32be
000000b0: 267c 793d a5b7 ecbd b277 cf3d 8364 a23d
000000c0: 168b 05bb 1ae0 243e 5969 713d cbec 293c
000000d0: 1e19 8b3d a860 0b3e 6d68 6cbc 028d 4d3d
000000e0: 84d8 9b3d 9dad 8bbc dff2 ed3d 15bb f0bd
000000f0: b1d1 b6bc 8bba c3bc 5d75 1c3d a504 cd3b
00000100: dac3 323d 7511 a53d 4c29 553c 9eb6 bbbd
00000110: 49a9 dbbc 5c93 7d3d a51c aebd a15f 3a3d
00000120: 6ac6 623d c8f8 b93d f196 d73d ba96 623d
00000130: f51d 923d 889a 633d f19c 943d 6fd5 23bd
00000140: b12a efbd aa60 013e a70c 1dbe b520 12bd
00000150: fc20 9bbd e343 05be 9d46 82bc 3e8e ddbc
00000160: 9e11 0a3d 80e1 ad3d 0262 d03d 4a7d ff3c
00000170: db59 dfbb ad39 423d 23f3 ffbd 7770 0cbd
00000180: b7e6 e73c b913 763d c086 a33d 85f4 93bd
00000190: cc8a 783d d437 08bd f566 d9bc fcb3 0dbd
000001a0: 825a f3bd 899f fc3c fa28 a93d 8420 dc3d
000001b0: 92d1 853d e815 d43d 24fa f8bc 5fff f33c
000001c0: 51b6 42bd 9b9c e9bd 659c bf3c 37bd ce3c
000001d0: 25ea d53d a6f8 2c3e 4f7f 03be ebea 273d
000001e0: 95ca 33bd af1d 9f3d 9ca7 bdbc fa7b 753c
000001f0: 2479 0c3d ace8 b73d b4da d23d bc3e 843d
00000200: 2892 ed3d 7bf1 0e3d 4ced f7bb 7f7e 1bbe
00000210: a87b e9bc eec2 18be 023e ddbc d49a 073e
00000220: 80c2 c6bc 9456 c1bd c529 3e3e 2a5e 16be
00000230: dac2 00be d39f c7bd 28c5 babd 7dc8 233d
00000240: d476 0c3d b866 0fbe ed77 8ebd 5c1b 44bd
00000250: 463e 12be a90c 1a3d c392 893b 0dcd 813d
00000260: 6be0 853d 06d3 0b3e 6e4d f3bc 742a 633d
00000270: 5be6 b73d b3a0 813d eb1b 193e a140 afbc
00000280: aaf9 13be 0117 73bc 5825 e2bd 6ffe b23d
00000290: d25c c8bd 80b6 a4bd 46c9 c7bd 2d59 883d
000002a0: 0b01 aabd 8193 e6bc 5d80 64be a7f2 ae3d
000002b0: 30dc 9c3d 7ed7 413d c9ae 203d 8057 973d
000002c0: c650 26be cb95 d63d 2431 f13d 8f87 853c
000002d0: 612e 263e 137f 4bbd 5d4a 153d c969 49be
000002e0: 2319 c43d e3ed 123e fb4e c0bb 9723 c9bd
000002f0: abeb 87b9 1de6 3bbd 5c8d e53c 8140 7fbd
00000300: e0b4 d83d c707 383c d8bd 85bc 6753 553d
00000310: 168b 033d 1bea f6bd 4488 a4bd 1613 103e
00000320: 45f9 83bd b472 0ebe cf85 1c3e 1e0c d53d
00000330: f3ee bf3d 8be7 e0bc fbfb 3a3d df24 0fbe
00000340: 596c 06be 57a6 a53d fee2 92bc da65 bc3d
00000350: 1de6 79bd 0270 0f3c aa92 1f3d 2c64 59bd
00000360: 6d8c 10be a09d 213c fb10 cc3d 2211 06be
00000370: 3caf 943d 75f3 ad3c 60b6 d93d 7744 163d
00000380: aa24 1bbe ac32 edbd 7789 dd3d 691f 61bd
00000390: 3616 e9bd 809c 0d3e e0c2 c6bd cb5d 22bd
000003a0: eeb3 efbd 7c9d 4f3d b555 70bd ef20 e4bd
000003b0: 7f6d fb3d 2d42 993c c15c 703d ee5e 5a3e
000003c0: 8371 f8bd ab59 2dbd a1bf 4b3c 2e85 df3d
000003d0: 850e 953d ce05 70bc a5d5 85bb d14b bcbd
000003e0: 7728 723d 1c5a e6bd cd19 32bd e08c 903d
000003f0: 59c0 bb3d b90a 55bd 613d 5b3d e8b5 0d3b
-0.12892601 0.003510707 -0.11007818 0.0130766565 0.013681033 -0.10649094 -0.0052665295 0.07107887
0.015164969 0.14902917 -0.10345143 0.13194752 -0.0020986868 -0.14798477 -0.1781061 -0.10785643
0.07181257 0.15257676 0.03378524 -0.01422265 -0.019048084 -0.042040177 0.06771128 0.05245762
0.0694527 0.11980645 -0.06661218 0.018505001 -0.07172967 -0.019514557 -0.06790135 -0.10412567
-0.0057733553 0.009401486 -0.013499581 0.08066282 0.068079785 0.12724793 0.14892459 -0.14097223
0.11686049 -0.0013871128 -0.028012369 -0.1746711 0.060909413 -0.11558465 0.10130252 0.07929327
-0.002037709 0.16101113 0.058938358 0.010371397 0.067919 0.1361109 -0.014429194 0.050183304
0.076096565 -0.017050559 0.116185896 -0.11754433 -0.022316786 -0.023892662 0.038197864 0.006256657
0.04364381 0.0805997 0.013010334 -0.09165691 -0.02681412 0.06190811 -0.08501557 0.045501355
0.055365004 0.090806544 0.10526837 0.055319525 0.0713462 0.055567294 0.07256497 -0.039998468
-0.116780646 0.1263453 -0.15336858 -0.035675723 -0.07574651 -0.13014178 -0.015902812 -0.027045365
0.033708207 0.08490276 0.101749435 0.031187672 -0.0068161315 0.047418285 -0.124975465 -0.034286942
0.028308256 0.060077403 0.07984686 -0.07224373 0.060679242 -0.033256367 -0.026538352 -0.034595475
-0.11882497 0.030837791 0.08259769 0.10748389 0.06534113 0.10355741 -0.030392714 0.029784856
-0.04753715 -0.11406823 0.023390004 0.025236709 0.1044505 0.16891727 -0.12841533 0.04099552
-0.04389437 0.077693336 -0.023151211 0.014983172 0.034295216 0.089799255 0.102956206 0.06457278
0.11600143 0.034898262 -0.00756613 -0.15184973 -0.028501347 -0.1491811 -0.027007107 0.13242656
-0.024262667 -0.094403416 0.18570621 -0.14684358 -0.1257433 -0.09747281 -0.09119636 0.039986122
0.03429301 -0.14004028 -0.06956468 -0.047877654 -0.14281568 0.03760973 0.0041984036 0.063379385
0.06536945 0.13654718 -0.029700007 0.05546041 0.08979484 0.06329479 0.14952056 -0.021393122
-0.14450708 -0.0148370275 -0.11042279 0.087399356 -0.09783329 -0.080426216 -0.09755187 0.06657634
-0.0830098 -0.028146507 -0.22314592 0.08542376 0.07659185 0.04732465 0.039229188 0.07389736
-0.1624175 0.104777895 0.11776951 0.016299991 0.1622863 -0.049681734 0.03644787 -0.1966926
0.09575107 0.14348559 -0.00586879 -0.09821241 -0.00025924793 -0.04587375 0.028021507 -0.062317375
0.10581374 0.011232323 -0.016325876 0.05208149 0.032115065 -0.12056371 -0.08033803 0.1406978
-0.06444029 -0.13910943 0.15285419 0.10402702 0.09371748 -0.027454158 0.045650464 -0.13978909
-0.13127269 0.080883674 -0.017930504 0.09199114 -0.06101047 0.008754732 0.03895823 -0.053074047
-0.14116068 0.009864241 0.09964176 -0.13092473 0.07259986 0.021234253 0.106304884 0.036686387
-0.15150705 -0.115819305 0.10817235 -0.054961596 -0.113811895 0.13829231 -0.09705138 -0.03964023
-0.11704241 0.0506873 -0.058675487 -0.11139094 0.12276744 0.018708313 0.058682207 0.21325275
-0.12131026 -0.042321842 0.012435825 0.10914074 0.0727816 -0.014649821 -0.0040843063 -0.09194148
0.05912062 -0.11247656 -0.043481637 0.0705812 0.09167547 -0.05201218 0.053525332 0.0021623317

bias f4 [50]
00000000: ed62 2d3e bc14 34bb 7d44 ea3d 77d0 6abd
00000010: 5482 893c 68e1 973d 5818 2e3d 12a8 303e
00000020: 700c 983d 4877 90bc 8adb aa3d 2cdd f4bc
00000030: c159 693d cd98 7fbd de2b f83b 2cc2 ddbd
00000040: 8f8d e43d 1978 373e 22f6 583e a958 4d3b
00000050: 8413 873d 7678 d9bc 515f 173e 9dad 3e3d
00000060: 02c8 bd3d 6d72 fcbd 569f bd3d 730d 65bd
00000070: d00d 383e fa39 0dbe 2615 003e ded6 4b38
00000080: 232e c3bc 36ad ddbd 9e29 d8bc b91e c03d
00000090: 3b93 bc3d bec1 8e3d 40a7 ba3d c61f 17be
000000a0: a2cf 0b3e 9978 143e fc6e 07bc ae9c 913c
000000b0: 5385 aebd 0268 c8bd 7939 dc3c 5e42 e73d
000000c0: daef 3abe f85e b7bc
0.16932268 -0.002747818 0.11438844 -0.057327714 0.016785778 0.0741604 0.042503685 0.17251614
0.07424247 -0.017635003 0.08342655 -0.02989062 0.05697036 -0.06240158 0.0075735888 -0.10828051
0.11159813 0.17916907 0.21187642 0.0031333363 0.06595519 -0.026546698 0.14782454 0.04655229
0.09266664 -0.123265125 0.092589065 -0.05592103 0.17974019 -0.13791648 0.12508067 4.8599082e-05
-0.02382571 -0.10824053 -0.026387032 0.0938086 0.092077695 0.06970547 0.09113932 -0.14758214
0.13653424 0.1449913 -0.008266207 0.017774906 -0.08521523 -0.09785463 0.026882874 0.112919554
-0.18255559 -0.022384152

mask f4 [50, 50]
00000000: 0000 803f 0000 803f 0000 803f 0000 803f
00000010: 0000 803f 0000 803f 0000 803f 0000 803f
00000020: 0000 803f 0000 803f 0000 803f 0000 803f
00000030: 0000 803f 0000 803f 0000 803f 0000 803f
00000040: 0000 803f 0000 803f 0000 803f 0000 803f
00000050: 0000 803f 0000 803f 0000 803f 0000 803f
00000060: 0000 803f 0000 803f 0000 803f 0000 803f
00000070: 0000 803f 0000 803f 0000 803f 0000 803f
00000080: 0000 803f 0000 803f 0000 803f 0000 803f
00000090: 0000 803f 0000 803f 0000 803f 0000 803f
000000a0: 0000 803f 0000 803f 0000 803f 0000 803f
000000b0: 0000 803f 0000 803f 0000 803f 0000 803f
000000c0: 0000 803f 0000 803f 0000 803f 0000 803f
000000d0: 0000 803f 0000 803f 0000 803f 0000 803f
000000e0: 0000 803f 0000 803f 0000 803f 0000 803f
000000f0: 0000 803f 0000 803f 0000 803f 0000 803f
00000100: 0000 803f 0000 803f 0000 803f 0000 803f
00000110: 0000 803f 0000 803f 0000 803f 0000 803f
00000120: 0000 803f 0000 803f 0000 803f 0000 803f
00000130: 0000 803f 0000 803f 0000 803f 0000 803f
00000140: 0000 803f 0000 803f 0000 803f 0000 803f
00000150: 0000 803f 0000 803f 0000 803f 0000 803f
00000160: 0000 803f 0000 803f 0000 803f 0000 803f
00000170: 0000 803f 0000 803f 0000 803f 0000 803f
00000180: 0000 803f 0000 803f 0000 803f 0000 803f
00000190: 0000 803f 0000 803f 0000 803f 0000 803f
000001a0: 0000 803f 0000 803f 0000 803f 0000 803f
000001b0: 0000 803f 0000 803f 0000 803f 0000 803f
000001c0: 0000 803f 0000 803f 0000 803f 0000 803f
000001d0: 0000 803f 0000 803f 0000 803f 0000 803f
000001e0: 0000 803f 0000 803f 0000 803f 0000 803f
000001f0: 0000 803f 0000 803f 0000 803f 0000 803f
00000200: 0000 803f 0000 803f 0000 803f 0000 803f
00000210: 0000 803f 0000 803f 0000 803f 0000 803f
00000220: 0000 803f 0000 803f 0000 803f 0000 803f
00000230: 0000 803f 0000 803f 0000 803f 0000 803f
00000240: 0000 803f 0000 803f 0000 803f 0000 803f
00000250: 0000 803f 0000 803f 0000 803f 0000 803f
00000260: 0000 803f 0000 803f 0000 803f 0000 803f
00000270: 0000 803f 0000 803f 0000 803f 0000 803f
00000280: 0000 803f 0000 803f 0000 803f 0000 803f
00000290: 0000 803f 0000 803f 0000 803f 0000 803f
000002a0: 0000 803f 0000 803f 0000 803f 0000 803f
000002b0: 0000 803f 0000 803f 0000 803f 0000 803f
000002c0: 0000 803f 0000 803f 0000 803f 0000 803f
000002d0: 0000 803f 0000 803f 0000 803f 0000 803f
000002e0: 0000 803f 0000 803f 0000 803f 0000 803f
000002f0: 0000 803f 0000 803f 0000 803f 0000 803f
00000300: 0000 803f 0000 803f 0000 803f 0000 803f
00000310: 0000 803f 0000 803f 0000 803f 0000 803f
00000320: 0000 803f 0000 803f 0000 803f 0000 803f
00000330: 0000 803f 0000 803f 0000 803f 0000 803f
00000340: 0000 803f 0000 803f 0000 803f 0000 803f
00000350: 0000 803f 0000 803f 0000 803f 0000 803f
00000360: 0000 803f 0000 803f 0000 803f 0000 803f
00000370: 0000 803f 0000 803f 0000 803f 0000 803f
00000380: 0000 803f 0000 803f 0000 803f 0000 803f
00000390: 0000 803f 0000 803f 0000 803f 0000 803f
000003a0: 0000 803f 0000 803f 0000 803f 0000 803f
000003b0: 0000 803f 0000 803f 0000 803f 0000 803f
000003c0: 0000 803f 0000 803f 0000 803f 0000 803f
000003d0: 0000 803f 0000 803f 0000 803f 0000 803f
000003e0: 0000 803f 0000 803f 0000 803f 0000 803f
000003f0: 0000 803f 0000 803f 0000 803f 0000 803f
1.0 1.0 1.0 1.0 1.0 1.0 1.0 1.0
1.0 1.0 1.0 1.0 1.0 1.0 1.0 1.0
1.0 1.0 1.0 1.0 1.0 1.0 1.0 1.0
1.0 1.0 1.0 1.0 1.0 1.0 1.0 1.0
1.0 1.0 1.0 1.0 1.0 1.0 1.0 1.0
1.0 1.0 1.0 1.0 1.0 1.0 1.0 1.0
1.0 1.0 1.0 1.0 1.0 1.0 1.0 1.0
1.0 1.0 1.0 1.0 1.0 1.0 1.0 1.0
1.0 1.0 1.0 1.0 1.0 1.0 1.0 1.0
1.0 1.0 1.0 1.0 1.0 1.0 1.0 1.0
1.0 1.0 1.0 1.0 1.0 1.0 1.0 1.0
1.0 1.0 1.0 1.0 1.0 1.0 1.0 1.0
1.0 1.0 1.0 1.0 1.0 1.0 1.0 1.0
1.0 1.0 1.0 1.0 1.0 1.0 1.0 1.0
1.0 1.0 1.0 1.0 1.0 1.0 1.0 1.0
1.0 1.0 1.0 1.0 1.0 1.0 1.0 1.0
1.0 1.0 1.0 1.0 1.0 1.0 1.0 1.0
1.0 1.0 1.0 1.0 1.0 1.0 1.0 1.0
1.0 1.0 1.0 1.0 1.0 1.0 1.0 1.0
1.0 1.0 1.0 1.0 1.0 1.0 1.0 1.0
1.0 1.0 1.0 1.0 1.0 1.0 1.0 1.0
1.0 1.0 1.0 1.0 1.0 1.0 1.0 1.0
1.0 1.0 1.0 1.0 1.0 1.0 1.0 1.0
1.0 1.0 1.0 1.0 1.0 1.0 1.0 1.0
1.0 1.0 1.0 1.0 1.0 1.0 1.0 1.0
1.0 1.0 1.0 1.0 1.0 1.0 1.0 1.0
1.0 1.0 1.0 1.0 1.0 1.0 1.0 1.0
1.0 1.0 1.0 1.0 1.0 1.0 1.0 1.0
1.0 1.0 1.0 1.0 1.0 1.0 1.0 1.0
1.0 1.0 1.0 1.0 1.0 1.0 1.0 1.0
1.0 1.0 1.0 1.0 1.0 1.0 1.0 1.0
1.0 1.0 1.0 1.0 1.0 1.0 1.0 1.0

weight f4 [4, 50]
00000000: d44e a63d b7cc 023e b8d4 143d b0c4 f3bd
00000010: f879 5e3d 5bc3 84bd b46d a83d b8a9 fa3c
00000020: 9499 0f3d 8a95 8b3d e806 2b3d 201d 8d3d
00000030: ba7b aebd d01c aa3c ab96 95bd b6f2 ef3d
00000040: be34 f53d 7b22 033e b45d 7fbd 7571 10be
00000050: 9fd4 c0bd fef2 b83d c992 04be 0487 febd
00000060: 023c da3d c59b 063e 4aeb e93d de2a a3bd
00000070: e0d7 a73c 97ed 0f3e 24db 10bd 0bf9 8bbd
00000080: 3c60 c5bc 945a cfbc 520d a33d ee3c f83d
00000090: dc74 a13d f4d8 03be 00e5 f03b e091 dcbd
000000a0: a40d a23d f2bc 933d f0cd dd3c f6ce fd3d
000000b0: 0008 11b9 2037 863b 74d3 80bd ed24 e5bd
000000c0: 164c cb3d 40a6 a5bc 4fb4 e7bd 34bf 8c3d
000000d0: 3c0a 363d 18c8 af3c 0c55 b7bc 1ca3 b6bc
000000e0: f99d c7bd 60f6 3ebd 905d 523d 003c 283d
000000f0: 7a57 acbd 0274 813d aa78 11bd 543b c43d
00000100: f23f 64bd 7a8f debd 7caa a7bc d8b0 f7bc
00000110: 8a9f ea3d b0f3 e83c c9f3 a1bd 88d9 bb3d
00000120: 10e8 e13c 2a3b 87bd 242d 3e3d d851 c53d
00000130: f88b fdbd b949 d1bd 20bb 8f3b dbe7 013e
00000140: 8060 d23d b0d6 bd3c 0698 48bd 60ed 953c
00000150: a877 633d 6aac a03d a0e7 8d3c 1180 07be
00000160: 1ea7 b4bd 1845 adbc c40f b0bd 3799 0a3e
00000170: e6e4 2fbd 3865 0abe 7490 443d 1494 233d
00000180: b587 083e d233 fe3d 3c91 afbc 00f6 a3bd
00000190: 04a3 7d3d ab8f 75bb e0a1 313e f715 0f3e
000001a0: 84f9 30be 9774 343e 3fd6 9bbd f80c 2b3e
000001b0: 6032 09be c57e 27bd ace1 ae3d ed48 fcbd
000001c0: a11a 1f3e 8772 b9bd 17f1 babd 781f da3d
000001d0: eb08 3b3e bd1b 063e ed9e 953d 28bf a1bc
000001e0: 4e98 0dbe f0e0 353e 4bc0 873d 5d9c ddbb
000001f0: 288b 403e 287a c0bd 0f49 c3bd b88a 2a3d
00000200: 051e ce3d fed2 dfbd b2d1 3dbe 371f 3e3e
00000210: 594e 2f3e 070f 503e 2789 aabd 0361 143e
00000220: c6e0 223e 5ffe 793d ebd8 ff3d d104 adbd
00000230: 9be0 b13d 3fc6 9c3d ac9a 2cbe 301a 07be
00000240: 39d3 33be b6aa 38bd 38ff 2fbe 9ec5 ef3d
00000250: cd33 2abe 554e 2abe 8d72 093e 94b3 b1bc
00000260: 4efa cf3d 947d 103e f0eb 18be 4e84 153d
00000270: de0b b5bd e8e7 b03d e637 bbbc e4a5 23be
00000280: 65ca 40bc c6ae c3bd f9f5 db3c 2ac4 dd3b
00000290: 2d89 d63c 1893 75bd 02d6 1d3e c349 d5bd
000002a0: 1d13 c43d 0ec6 723d a033 d7bb 57ee 0ebd
000002b0: 99c6 243c 4a95 db3c 6868 003e f75f b6bd
000002c0: 3914 5c3b afaa d83d 20ed 363e f722 813d
000002d0: 19fb 433c d8a2 a23d 12f6 2d3e a290 8e3e
000002e0: bc9d 58be aa35 113e 3ee4 023e 3f7c 973d
000002f0: b171 093e 1c86 2cbe 5a3b 33bd 6569 9d3d
00000300: 87d3 00be 331e 53be 1fb0 c4bd 8fb8 63bd
00000310: 4236 0f3d f573 9d3d 04cb 16be 1c1d d3bd
0.08120504 0.12773405 0.036335677 -0.119027495 0.054315537 -0.064825736 0.08224049 0.030598506
0.035058573 0.06815632 0.041754633 0.06890321 -0.08519693 0.020765692 -0.07304128 0.11716215
0.119729504 0.12806122 -0.06234522 -0.1410578 -0.09415554 0.09030722 -0.12946619 -0.12428096
0.10655977 0.13145359 0.11421831 -0.07967161 0.02048868 0.14055477 -0.03536524 -0.068346106
-0.02409374 -0.025311746 0.07961525 0.121209964 0.07883617 -0.1287573 0.0073515177 -0.10770011
0.07912758 0.07213773 0.027075738 0.1239299 -0.00013831258 0.004095927 -0.062903315 -0.11188684
0.099266216 -0.020220876 -0.11313688 0.068724066 0.044443354 0.021457717 -0.02237942 -0.022294573
-0.09746928 -0.04662168 0.05135876 0.041072845 -0.08415122 0.06320955 -0.035515465 0.095816284
-0.055725046 -0.1086721 -0.020467035 -0.030235693 0.11456211 0.028436512 -0.079078265 0.0917235
0.027576476 -0.066030815 0.04642977 0.09634751 -0.123802125 -0.102191396 0.0043863207 0.12686102
0.10272312 0.02317366 -0.048973106 0.018301666 0.055534035 0.078453854 0.017322361 -0.13232447
-0.088209376 -0.02115111 -0.08596757 0.1353501 -0.042942904 -0.13515174 0.047989324 0.03993614
0.13333018 0.12412228 -0.021431558 -0.08005905 0.061923042 -0.0037469666 0.17346907 0.13973223
-0.17282683 0.176226 -0.076092236 0.16704166 -0.13398123 -0.04089238 0.08539137 -0.12318597
0.15537502 -0.090550475 -0.091280155 0.106505334 0.1826512 0.13096519 0.07305703 -0.01974447
-0.13827631 0.17761588 0.06628474 -0.0067630247 0.18803084 -0.093982995 -0.09535419 0.0416362
0.100643195 -0.109289154 -0.18537024 0.18566595 0.17119731 0.20318232 -0.08326941 0.14490132
0.15906057 0.061033603 0.12492546 -0.08448184 0.08685418 0.07655 -0.16855878 -0.13193583
-0.17561044 -0.045084678 -0.17187202 0.11707614 -0.16621323 -0.16631444 0.13422604 -0.021692075
0.10155164 0.14110404 -0.14933753 0.03650313 -0.08840154 0.086379826 -0.022853803 -0.15981251
-0.011767005 -0.0955482 0.026850687 0.0067677693 0.026188457 -0.059954733 0.15413669 -0.104144596
0.09573958 0.05927091 -0.0065674335 -0.034895267 0.010057115 0.026804585 0.12539828 -0.089050226
0.003358139 0.1057943 0.17863894 0.06305497 0.011961722 0.07941216 0.169884 0.2784472
-0.21153921 0.14180627 0.1278238 0.07396745 0.13422276 -0.16848034 -0.043757774 0.07686118
-0.12580691 -0.20616989 -0.09603905 -0.05559593 0.034963854 0.07688133 -0.14725882 -0.103082865

bias f4 [4]
00000000: fb74 efbc 5258 f5bd ef93 243e c5da ce3d
-0.029230585 -0.119797364 0.16072057 0.10100321

mask f4 [4, 50]
00000000: 0000 0000 0000 0000 0000 0000 0000 0000
00000010: 0000 0000 0000 0000 0000 0000 0000 0000
00000020: 0000 0000 0000 0000 0000 0000 0000 0000
00000030: 0000 0000 0000 0000 0000 0000 0000 0000
00000040: 0000 0000 0000 0000 0000 0000 0000 0000
00000050: 0000 0000 0000 0000 0000 0000 0000 0000
00000060: 0000 0000 0000 0000 0000 0000 0000 0000
00000070: 0000 0000 0000 0000 0000 0000 0000 0000
00000080: 0000 0000 0000 0000 0000 0000 0000 0000
00000090: 0000 0000 0000 0000 0000 0000 0000 0000
000000a0: 0000 0000 0000 0000 0000 0000 0000 0000
000000b0: 0000 0000 0000 0000 0000 0000 0000 0000
000000c0: 0000 0000 0000 0000 0000 0000 0000 0000
000000d0: 0000 0000 0000 0000 0000 0000 0000 0000
000000e0: 0000 0000 0000 0000 0000 0000 0000 0000
000000f0: 0000 0000 0000 0000 0000 0000 0000 0000
00000100: 0000 0000 0000 0000 0000 0000 0000 0000
00000110: 0000 0000 0000 0000 0000 0000 0000 0000
00000120: 0000 0000 0000 0000 0000 0000 0000 0000
00000130: 0000 0000 0000 0000 0000 0000 0000 0000
00000140: 0000 0000 0000 0000 0000 0000 0000 0000
00000150: 0000 0000 0000 0000 0000 0000 0000 0000
00000160: 0000 0000 0000 0000 0000 0000 0000 0000
00000170: 0000 0000 0000 0000 0000 0000 0000 0000
00000180: 0000 0000 0000 0000 0000 0000 0000 0000
00000190: 0000 803f 0000 803f 0000 803f 0000 803f
000001a0: 0000 803f 0000 803f 0000 803f 0000 803f
000001b0: 0000 803f 0000 803f 0000 803f 0000 803f
000001c0: 0000 803f 0000 803f 0000 803f 0000 803f
000001d0: 0000 803f 0000 803f 0000 803f 0000 803f
000001e0: 0000 803f 0000 803f 0000 803f 0000 803f
000001f0: 0000 803f 0000 803f 0000 803f 0000 803f
00000200: 0000 803f 0000 803f 0000 803f 0000 803f
00000210: 0000 803f 0000 803f 0000 803f 0000 803f
00000220: 0000 803f 0000 803f 0000 803f 0000 803f
00000230: 0000 803f 0000 803f 0000 803f 0000 803f
00000240: 0000 803f 0000 803f 0000 803f 0000 803f
00000250: 0000 803f 0000 803f 0000 803f 0000 803f
00000260: 0000 803f 0000 803f 0000 803f 0000 803f
00000270: 0000 803f 0000 803f 0000 803f 0000 803f
00000280: 0000 803f 0000 803f 0000 803f 0000 803f
00000290: 0000 803f 0000 803f 0000 803f 0000 803f
000002a0: 0000 803f 0000 803f 0000 803f 0000 803f
000002b0: 0000 803f 0000 803f 0000 803f 0000 803f
000002c0: 0000 803f 0000 803f 0000 803f 0000 803f
000002d0: 0000 803f 0000 803f 0000 803f 0000 803f
000002e0: 0000 803f 0000 803f 0000 803f 0000 803f
000002f0: 0000 803f 0000 803f 0000 803f 0000 803f
00000300: 0000 803f 0000 803f 0000 803f 0000 803f
00000310: 0000 803f 0000 803f 0000 803f 0000 803f
0.0 0.0 0.0 0.0 0.0 0.0 0.0 0.0
0.0 0.0 0.0 0.0 0.0 0.0 0.0 0.0
0.0 0.0 0.0 0.0 0.0 0.0 0.0 0.0
0.0 0.0 0.0 0.0 0.0 0.0 0.0 0.0
0.0 0.0 0.0 0.0 0.0 0.0 0.0 0.0
0.0 0.0 0.0 0.0 0.0 0.0 0.0 0.0
0.0 0.0 0.0 0.0 0.0 0.0 0.0 0.0
0.0 0.0 0.0 0.0 0.0 0.0 0.0 0.0
0.0 0.0 0.0 0.0 0.0 0.0 0.0 0.0
0.0 0.0 0.0 0.0 0.0 0.0 0.0 0.0
0.0 0.0 0.0 0.0 0.0 0.0 0.0 0.0
0.0 0.0 0.0 0.0 0.0 0.0 0.0 0.0
0.0 0.0 0.0 0.0 1.0 1.0 1.0 1.0
1.0 1.0 1.0 1.0 1.0 1.0 1.0 1.0
1.0 1.0 1.0 1.0 1.0 1.0 1.0 1.0
1.0 1.0 1.0 1.0 1.0 1.0 1.0 1.0
1.0 1.0 1.0 1.0 1.0 1.0 1.0 1.0
1.0 1.0 1.0 1.0 1.0 1.0 1.0 1.0
1.0 1.0 1.0 1.0 1.0 1.0 1.0 1.0
1.0 1.0 1.0 1.0 1.0 1.0 1.0 1.0
1.0 1.0 1.0 1.0 1.0 1.0 1.0 1.0
1.0 1.0 1.0 1.0 1.0 1.0 1.0 1.0
1.0 1.0 1.0 1.0 1.0 1.0 1.0 1.0
1.0 1.0 1.0 1.0 1.0 1.0 1.0 1.0
1.0 1.0 1.0 1.0 1.0 1.0 1.0 1.0

weight f4 [50, 2]
00000000: 0a4f af3e 2917 0b3f 282b eb3e 3abb 9b3e
00000010: 3c9e 15bd 70ef 8cbe 2434 1d3d 6818 82bd
00000020: d4b5 fe3c 28dc 33be 3f48 99be b572 28bf
00000030: 1c83 fa3e adba 143f b12b 93be 8cbe c9be
00000040: 25e1 b0bd a0e2 213e 8d8a a83e 0bbe 0f3f
00000050: 8989 01bf 71ab 8dbe bcdb c23e 1d90 203f
00000060: e1cc 8ebe 17ce c3be a9b2 c6be 2097 cf3c
00000070: 3215 ec3d 9fea 25bf 170e cf3e 9293 0fbf
00000080: d765 ee3e 899c 2e3f 79d1 82be 680d f3be
00000090: 80a5 4bbe 7cb4 42be 5c75 5a3e 88ee 603e
000000a0: bfc9 93be de1e e33e e416 e93b 1e9a aabe
000000b0: aeea 12bf 8694 ef3e 2034 893d 7601 c83e
000000c0: 7e29 d33a 82a9 27bf 52c8 313e f81b 5d3e
000000d0: aa59 1b3f 921b f5be 9b69 863d 58e6 e9be
000000e0: e189 9fbe 80b5 b63c b56f 273e 20f4 943c
000000f0: 0da5 7abe 5530 1dbf a438 713d 068a ac3e
00000100: 003b 2bbd 2b27 2e3f aba8 5c3e c0d9 94be
00000110: 8315 04bc 2ef5 82be 48dc e13e e2f5 f43e
00000120: a792 bbbe f100 86be a0ac 023f 8ad9 7ebe
00000130: aa50 c6be bb34 1f3f 0a11 f9bd ce16 9a3e
00000140: 5868 9dbe 9f86 163f 82e9 833e 189c 36be
00000150: b0ae 2bbf 0e95 c0be f891 25bf a5cc 1a3f
00000160: 97be 953d 08c2 5bbe 32df 31be 9280 55be
00000170: 9010 00bf 2c0c 6c3e de20 0a3e 081d fc3d
00000180: d10a 67bd 32f5 f7be b76a babe 13d6 143f
0.3423999 0.54332215 0.45931363 0.3041628 -0.036527857 -0.27526426 0.038379803 -0.063523114
0.031092562 -0.17564452 -0.29937932 -0.6580003 0.48928154 0.58097345 -0.2874427 -0.39403188
-0.08636693 0.15809107 0.32918206 0.5614936 -0.50600487 -0.27669862 0.3805827 0.627199
-0.27890685 -0.38243172 -0.38808182 0.025340617 0.1152748 -0.6481113 0.40440437 -0.5608455
0.46562073 0.68207604 -0.2555044 -0.47471166 -0.19887352 -0.19014162 0.21333832 0.21965992
-0.28864858 0.44359487 0.0071133245 -0.33320707 -0.5738934 0.46793002 0.06699395 0.39063615
0.0016110388 -0.65493023 0.17361572 0.215927 0.6068369 -0.47872597 0.065631114 -0.4568355
-0.3115988 0.022303343 0.16351207 0.018182814 -0.24477024 -0.61401874 0.058891907 0.33699054
-0.041804314 0.68028516 0.21548717 -0.2907238 -0.008061769 -0.25577682 0.44113374 0.47843844
-0.36635324 -0.26172593 0.51044655 -0.24887672 -0.38733417 0.62189835 -0.12161453 0.30095524
-0.3074367 0.58799165 0.2576409 -0.17832983 -0.67063427 -0.3761372 -0.64675856 0.6046851
0.07311743 -0.21460736 -0.17370299 -0.20849827 -0.5002527 0.23051518 0.134891 0.12310225
-0.0564068 -0.48429257 -0.36409542 0.5813915

bias f4 [50]
00000000: 3888 803e 1f1f b83e 739c 1b3d 9c00 403e
00000010: 9f9d 2cbf 61bd 9a3c 8f5a 8cbe e0f3 15bf
00000020: 34bc 22bf 68ea 14bf 7013 8b3d 7af2 353f
00000030: 6fa4 2f3f ca11 2cbf abe0 e3be d7e0 d43d
00000040: 3b76 543e eda6 c0be 3c39 ae3e bb8a 2cbf
00000050: ead4 0fbf eb75 0b3f d554 2b3f a1c4 093f
00000060: c505 a9be b50c 9aba fa99 da3e 43e6 023f
00000070: ad52 85bd b1f8 0b3f 5164 4bbe 0a52 4b3e
00000080: fba0 3dbf b77b 133f ede9 ac3d f266 2e3f
00000090: 3110 fd3e be55 143f c62e c8be cafa 24bd
000000a0: 3558 99be 9f3e 24bf cbe6 a63d 72d0 d73e
000000b0: 39ea dfbd 3946 823e 4a43 053f 4f3e 4a3f
000000c0: 0532 1bbf 6955 003f
0.25103927 0.35961244 0.037991 0.18750232 -0.6742801 0.018889131 -0.2741284 -0.5857525
-0.63568425 -0.58170176 0.06790817 0.71073115 0.6861028 -0.67214644 -0.44507346 0.10394447
0.20748226 -0.37627354 0.3402804 -0.67399186 -0.56184256 0.54476804 0.6692632 0.53815657
-0.33012214 -0.0011753055 0.426956 0.511326 -0.0650991 0.5467635 -0.19862486 0.19855514
-0.7407376 0.5761065 0.08443055 0.6812583 0.49426416 0.5794333 -0.39098185 -0.040278234
-0.2995011 -0.6415805 0.08149489 0.4215122 -0.10933346 0.254442 0.520558 0.79001325
-0.606232 0.50130326

mask f4 [50, 2]
00000000: 0000 803f 0000 0000 0000 803f 0000 0000
00000010: 0000 803f 0000 0000 0000 803f 0000 0000
00000020: 0000 803f 0000 0000 0000 803f 0000 0000
00000030: 0000 803f 0000 0000 0000 803f 0000 0000
00000040: 0000 803f 0000 0000 0000 803f 0000 0000
00000050: 0000 803f 0000 0000 0000 803f 0000 0000
00000060: 0000 803f 0000 0000 0000 803f 0000 0000
00000070: 0000 803f 0000 0000 0000 803f 0000 0000
00000080: 0000 803f 0000 0000 0000 803f 0000 0000
00000090: 0000 803f 0000 0000 0000 803f 0000 0000
000000a0: 0000 803f 0000 0000 0000 803f 0000 0000
000000b0: 0000 803f 0000 0000 0000 803f 0000 0000
000000c0: 0000 803f 0000 0000 0000 803f 0000 0000
000000d0: 0000 803f 0000 0000 0000 803f 0000 0000
000000e0: 0000 803f 0000 0000 0000 803f 0000 0000
000000f0: 0000 803f 0000 0000 0000 803f 0000 0000
00000100: 0000 803f 0000 0000 0000 803f 0000 0000
00000110: 0000 803f 0000 0000 0000 803f 0000 0000
00000120: 0000 803f 0000 0000 0000 803f 0000 0000
00000130: 0000 803f 0000 0000 0000 803f 0000 0000
00000140: 0000 803f 0000 0000 0000 803f 0000 0000
00000150: 0000 803f 0000 0000 0000 803f 0000 0000
00000160: 0000 803f 0000 0000 0000 803f 0000 0000
00000170: 0000 803f 0000 0000 0000 803f 0000 0000
00000180: 0000 803f 0000 0000 0000 803f 0000 0000
1.0 0.0 1.0 0.0 1.0 0.0 1.0 0.0
1.0 0.0 1.0 0.0 1.0 0.0 1.0 0.0
1.0 0.0 1.0 0.0 1.0 0.0 1.0 0.0
1.0 0.0 1.0 0.0 1.0 0.0 1.0 0.0
1.0 0.0 1.0 0.0 1.0 0.0 1.0 0.0
1.0 0.0 1.0 0.0 1.0 0.0 1.0 0.0
1.0 0.0 1.0 0.0 1.0 0.0 1.0 0.0
1.0 0.0 1.0 0.0 1.0 0.0 1.0 0.0
1.0 0.0 1.0 0.0 1.0 0.0 1.0 0.0
1.0 0.0 1.0 0.0 1.0 0.0 1.0 0.0
1.0 0.0 1.0 0.0 1.0 0.0 1.0 0.0
1.0 0.0 1.0 0.0 1.0 0.0 1.0 0.0
1.0 0.0 1.0 0.0
