03b/GPS_1256775418/model_trad_seed_42.pth (torch, 276498 bytes, 76 tensors)

_shift f4 [2]
00000000: 3bde 2740 4a09 e0bf
2.6229389 -1.7502835

_scale f4 [2]
00000000: 297f 323e 6f1b 5f40
0.1743132 3.4860494

weight f4 [50, 2]
00000000: e456 04bf a006 48be a6a8 053f 5034 903e
00000010: 4eb9 50be e279 ff3e 80fc ccbe d203 adbe
00000020: bb7c a7be 51c7 133f d52f 31be c090 423e
00000030: efb3 fbbe d112 213f e57d 53be faf2 d9be
00000040: bcc7 a3bc 00f1 76be 5a32 fb3e 70d0 4bbe
00000050: 17ec 253e a2de f43e 8d30 6fbe 480a 90bd
00000060: 2d7b 3ebf 0ed0 b93e bd19 89be 562a 85be
00000070: 1b35 073f 5955 b1be eb7b 02bf a496 07bf
00000080: 436f 163f 0256 f13e c40a 053f 7857 90bd
00000090: ae54 96be 00a5 69bb 30ce 8cbb 4d4f 2e3f
000000a0: 67fb 78be 6273 983e 5927 963e 80c4 8a3e
000000b0: 49e2 8fbe 00de 5a3b a726 14bd 8083 59bd
000000c0: 2f46 ec3d 39ed 26bf 998b 63be e418 7b3e
000000d0: 6ed6 39be e176 063f 28ea 4e3e 7d6a c7be
000000e0: e524 0bbf edda 1e3f d1a8 263f c1bc 0f3f
000000f0: b649 8dbe e0f0 813d 3b75 09bd 3e71 f3be
00000100: d754 44be 2eb2 87be b669 2abf d083 4b3d
00000110: 0f8a 3a3d 40a8 10bc 7b8c 2abf 18c9 25bf
00000120: 3b2f fe3b 3244 f43e d865 04bd 08c9 933d
00000130: d050 973d b8a3 cc3d d58d 03bf 0bf1 abbe
00000140: 9a65 02bf a8bf a2bd ea0c d73d 80b1 fcbc
00000150: ec9e f03e 1afb b7be ca3c ca3e cdc5 24bf
00000160: 6cf4 153f 2894 02be eaaa 2a3f 5b8e 1d3f
00000170: 6cb5 373f 8f71 1e3f 47bc ce3c c587 09bf
00000180: c544 4bbe 0078 71be 289c 50bd 95cb 26bf
-0.51695085 -0.19533777 0.5221046 0.2816491 -0.20383188 0.49897677 -0.40036392 -0.33791977
-0.3271235 0.5772601 -0.17303403 0.1900053 -0.49160716 0.62919337 -0.20653494 -0.4256819
-0.019992702 -0.24115372 0.49061853 -0.19903731 0.16203342 0.47826105 -0.23358364 -0.07033211
-0.744067 0.36291546 -0.2677745 -0.26008862 0.5281541 -0.34635428 -0.50970334 -0.52964234
0.5876352 0.4713593 0.5196955 -0.07047933 -0.2936148 -0.0035651326 -0.0042970404 0.68089753
-0.24314652 0.2977553 0.29326895 0.27103043 -0.2810233 0.0033396482 -0.036169674 -0.053103924
0.11536824 -0.65205723 -0.22221221 0.24521214 -0.18148205 0.52525145 0.20206511 -0.38948432
-0.5435317 0.62052804 0.65101343 0.5614739 -0.275953 0.063447714 -0.033559065 -0.47547334
-0.19172989 -0.26503128 -0.6656755 0.049686253 0.04554182 -0.008829176 -0.66620606 -0.6475997
0.007757095 0.4770828 -0.03232369 0.07216078 0.07388461 0.099921644 -0.51388294 -0.3358234
-0.5093628 -0.07946712 0.1050051 -0.030846357 0.46996248 -0.35933763 0.39499503 -0.6436432
0.58576083 -0.1275183 0.66667044 0.6154534 0.717612 0.61892027 0.025236262 -0.5372279
-0.19850452 -0.23580933 -0.050930172 -0.6515439

bias f4 [50]
00000000: 2a43 b1be 816b a0be eec0 493d 204e 833b
00000010: 340a 313f c830 e4be ef31 ff3e 22f4 4c3d
00000020: f7b3 42bd 2d1d dfbc 6577 dcbd de26 2dbf
00000030: 8763 c93e d06b 36bf d223 683e 2ae3 09bf
00000040: e06e 06bf b7e8 803d 2223 103f 728e 913e
00000050: 5d41 213f 29c3 df3e d4e0 5fbe db7c b53e
00000060: b9f8 0cbd 1ae7 f23e c8ac 12bf d18c 263f
00000070: b0b8 00bf bcde dfbc a871 3c3e 9676 41bf
00000080: 8c85 0e3f bbf2 273d 5a30 ee3e a389 ff3e
00000090: 20b6 543d b82f 143f 52e9 f93d 64e6 023e
000000a0: cfe4 453f ef68 a13e de44 71be c0bc a83e
000000b0: fdfd e03d f3eb b73e 5ece 963b 97e8 3e3e
000000c0: c479 53be f852 1a3e
-0.34621555 -0.3133202 0.049256258 0.004007116 0.69156194 -0.44568467 0.49842784 0.05003751
-0.04753491 -0.027235592 -0.1076496 -0.6763743 0.39333746 -0.7125826 0.22669914 -0.5386225
-0.5251293 0.06294387 0.5630361 0.2842899 0.6299036 0.43703583 -0.21863109 0.3544682
-0.034416888 0.47441941 -0.57294893 0.6505862 -0.5028181 -0.027327888 0.18402731 -0.7557157
0.55672526 0.04100297 0.46521264 0.49909696 0.0519315 0.57885313 0.122027054 0.127832
0.7730226 0.3152537 -0.23561427 0.32956505 0.109859444 0.35922202 0.0046022376 0.18643413
-0.20651919 0.15070713

mask f4 [50, 2]
00000000: 0000 803f 0000 0000 0000 803f 0000 0000
00000010: 0000 803f 0000 0000 0000 803f 0000 0000
00000020: 0000 803f 0000 0000 0000 803f 0000 0000
00000030: 0000 803f 0000 0000 0000 803f 0000 0000
00000040: 0000 803f 0000 0000 0000 803f 0000 0000
00000050: 0000 803f 0000 0000 0000 803f 0000 0000
00000060: 0000 803f 0000 0000 0000 803f 0000 0000
00000070: 0000 803f 0000 0000 0000 803f 0000 0000
00000080: 0000 803f 0000 0000 0000 803f 0000 0000
00000090: 0000 803f 0000 0000 0000 803f 0000 0000
000000a0: 0000 803f 0000 0000 0000 803f 0000 0000
000000b0: 0000 803f 0000 0000 0000 803f 0000 0000
000000c0: 0000 803f 0000 0000 0000 803f 0000 0000
000000d0: 0000 803f 0000 0000 0000 803f 0000 0000
000000e0: 0000 803f 0000 0000 0000 803f 0000 0000
000000f0: 0000 803f 0000 0000 0000 803f 0000 0000
00000100: 0000 803f 0000 0000 0000 803f 0000 0000
00000110: 0000 803f 0000 0000 0000 803f 0000 0000
00000120: 0000 803f 0000 0000 0000 803f 0000 0000
00000130: 0000 803f 0000 0000 0000 803f 0000 0000
00000140: 0000 803f 0000 0000 0000 803f 0000 0000
00000150: 0000 803f 0000 0000 0000 803f 0000 0000
00000160: 0000 803f 0000 0000 0000 803f 0000 0000
00000170: 0000 803f 0000 0000 0000 803f 0000 0000
00000180: 0000 803f 0000 0000 0000 803f 0000 0000
1.0 0.0 1.0 0.0 1.0 0.0 1.0 0.0
1.0 0.0 1.0 0.0 1.0 0.0 1.0 0.0
1.0 0.0 1.0 0.0 1.0 0.0 1.0 0.0
1.0 0.0 1.0 0.0 1.0 0.0 1.0 0.0
1.0 0.0 1.0 0.0 1.0 0.0 1.0 0.0
1.0 0.0 1.0 0.0 1.0 0.0 1.0 0.0
1.0 0.0 1.0 0.0 1.0 0.0 1.0 0.0
1.0 0.0 1.0 0.0 1.0 0.0 1.0 0.0
1.0 0.0 1.0 0.0 1.0 0.0 1.0 0.0
1.0 0.0 1.0 0.0 1.0 0.0 1.0 0.0
1.0 0.0 1.0 0.0 1.0 0.0 1.0 0.0
1.0 0.0 1.0 0.0 1.0 0.0 1.0 0.0
1.0 0.0 1.0 0.0

weight f4 [50, 2]
00000000: cd11 0cbe e310 36bd 5710 a93d bc08 d8be
00000010: 902e 09bf cd79 c43e fcfa 61be a5e0 ad3e
00000020: e0a8 15bf e939 8fbc 24b9 463f a614 00bf
00000030: e8cb 33bf 9295 77be e76d 11bf 040c c23e
00000040: 97e4 0b3f df3e c23e 61b6 c5be e98b d63e
00000050: d970 313f f8a5 043f 631a b8be 2590 e13e
00000060: bac9 92bd 4bdc 9b3d 2399 f83e 37da 163f
00000070: 9317 92be 322c fc3e 4454 123d afe7 6e3e
00000080: 748f 8f3e c624 eabe d480 ed3e 3034 1d3f
00000090: 745c 40bf 073a 203f b9c9 5f3d 747c 013f
000000a0: b49e 96be 6033 813e bad2 cdbd 3898 073f
000000b0: 0668 86be df74 e03d 2ab7 9d3e 5ff0 193f
000000c0: 67b6 143f a46e b73e 6813 9b3d 4e6e b23e
000000d0: bd66 07bc 011b f03d e88b ef3e bf3f be3e
000000e0: 4f96 14bf 0361 8d3e aa4a 32bf d3b3 353d
000000f0: 128e 153f 7d3c c4be f3f6 e5bd 7870 17bf
00000100: 0c92 cb3e 56c8 493e 9fe7 223f 629a 0b3f
00000110: fb72 8cbe 30ff c6be e792 1fbe 1a13 00bf
00000120: b091 3c3f 8fc6 65bd 9a2c 42be baf5 2f3f
00000130: 469f 87be 89a2 393e 3a2b c6be 3bbb 8ebd
00000140: 3660 593f 937d 1cbf 0a16 ecbe f17e b5be
00000150: 8f4c fe3e 3b34 8d3c 2a54 0e3f b926 97be
00000160: 5792 09bf 53d3 d13e 04d8 7f3d 08d9 80be
00000170: 773f de3e ed8f d93e 5ece 273f 26b6 16bf
00000180: 250f 133e 8fe3 9e3d 1d27 28bf e19d c8be
-0.13678665 -0.0444497 0.0825507 -0.42194164 -0.53586674 0.38374177 -0.22068399 0.33960453
-0.5846081 -0.017483668 0.7762625 -0.50031507 -0.7023301 -0.2417815 -0.5680832 0.37899792
0.54645675 0.37938592 -0.38615707 0.41903618 0.69312817 0.5181575 -0.3595763 0.44055286
-0.071673825 0.07610377 0.48554334 0.5892672 -0.2853361 0.49252468 0.035724893 0.23330568
0.28039134 -0.4573118 0.4638735 0.61407757 -0.7514107 0.6258854 0.054635737 0.50580525
-0.29417956 0.2523451 -0.100499585 0.5296664 -0.2625124 0.109597914 0.30803806 0.601324
0.58090824 0.358266 0.07572061 0.3484978 -0.008264241 0.117239006 0.46786427 0.3715801
-0.5804185 0.27613077 -0.6964518 0.044360947 0.5841991 -0.383274 -0.112287425 -0.5915599
0.39759862 0.19705328 0.63634676 0.54532444 -0.27431473 -0.38866568 -0.15583383 -0.50029147
0.736598 -0.056097563 -0.18962327 0.68734324 -0.26488703 0.18128408 -0.38704854 -0.06969305
0.8491243 -0.6112911 -0.46110564 -0.3544841 0.49667785 0.01723682 0.55597174 -0.2952173
-0.5373892 0.4098154 0.062461868 -0.25165582 0.43407795 0.4249262 0.65549266 -0.58871686
0.14361246 0.07758247 -0.6568468 -0.39182952

bias f4 [50]
00000000: 3564 3dbf d80c aabd f9ef a23b 25d2 93bd
00000010: a2b1 bdbd 0a47 013f 51f4 283f fc64 3abf
00000020: 4ea4 b5be aa39 aabd 3183 22bf e5a6 8d3e
00000030: ed58 353f 451e a43e eee8 ec3e 9ddd c3bd
00000040: 9266 f03e a512 12bf ee45 af3e 8a6d 403e
00000050: eb65 2ebe ce4c bd3d e867 9d3e 649e 3fbf
00000060: d5a7 10bf e085 e33e 4f05 f0be b5e7 cebe
00000070: 40d5 233f ca8f 10bf 6d90 f5bd b806 85be
00000080: 6288 dc3e c559 03bf 658a 44bc 30da 69be
00000090: e78f 923e bc98 ddbd a3e6 413f 51b5 013f
000000a0: f816 1fbf 58e7 72be b8c5 863e 5b94 e93e
000000b0: 630a b23e 5c2a 243f 39e0 b23e ff5b 863e
000000c0: 9736 9bbe 476b 9ebe
-0.7398103 -0.08303231 0.0049724546 -0.07217816 -0.092623964 0.5049902 0.659978 -0.7281034
-0.35476917 -0.0831178 -0.6348143 0.27666393 0.70838815 0.32054344 0.4627146 -0.09563754
0.46953255 -0.570597 0.3423304 0.18791786 -0.17031066 0.09243165 0.30743337 -0.7485106
-0.5650609 0.44438076 -0.4687905 -0.40411153 0.6399727 -0.56469405 -0.11990438 -0.25981688
0.43072802 -0.5130885 -0.011995886 -0.22837138 0.28625414 -0.108201474 0.7574255 0.5066729
-0.6214442 -0.23721063 0.26322722 0.45621 0.3477355 0.64127135 0.34936693 0.26242062
-0.30315086 -0.3094122

weight f4 [50, 50]
00000000: e593 833d ad4a ea3d 1d78 b7bd 859c 163e
00000010: 746b eb3d 06f5 e73d 2048 d7bd f6d8 3bbd
00000020: 3cd8 4d3d 2533 d13d e1c7 5dbc f31a 59bd
00000030: 8126 633b abe2 003d 1b77 4fbd f55f 933d
00000040: 8669 1ebd dd7a 5ebd 246c 743d a31e 093d
00000050: b6c6 e2bd 86ec 14bd 431e a7bd 5de6 293c
00000060: 42ae e03d e666 753d a892 d8bd c429 cd3c
00000070: 2b7e ad3c bf0a c93d c1e0 65bc 8f0f cbbc
00000080: 3554 86bd 2c9b ce3d 5da0 ff3d e127 963d
00000090: 9765 56bd 8fd5 8a3d dbc5 1a3e d254 49bd
000000a0: 88e0 bdbd 3763 c73d 2f00 003c f3a9 c83d
000000b0: 6db7 883d e8ac b1bc c86a 56bd 4f5d 113e
000000c0: bdac 0a3e 696e 193d 2ad1 eb3d 9397 c53d
000000d0: bde6 88bd 5635 e8bc 16fa 0bbd bb3c 183e
000000e0: 7ce8 b43d e6c7 c4bd 942e 35bd c2e8 1abd
000000f0: 0351 ae3d b52a 093e 8cfc c03c d411 1d3d
00000100: f62c 153e 3a5a dfbd a822 e4bd 0109 d6bd
00000110: a9c8 f93d 8ca4 d2bd 0288 febc 7d20 5ebd
00000120: d38b f7bd 182f 683c edc0 b8bd b50e e13c
00000130: edf2 a63c cfb7 e13d b49a f4bd e9f7 123d
00000140: 9690 6d3d 8630 4ebd be9b 5abd b816 b6bd
00000150: ad4e f63c 47ff ff3c 89de 13bd 798f c0bd
00000160: 2f54 b8ba 026e 123d c58c 7d3d 23f8 54bd
00000170: e7f2 51bd 701c 1a3d 41f6 4ebd db72 08bd
00000180: b74b c03d c4f2 ebbb 0541 a63d 0792 cc3d
00000190: 8400 dd3d 6497 d6bd 5efb c03d 4693 1f3d
000001a0: 690d 833d 7d51 a2bd 918b a33a 7263 44bc
000001b0: a9dc ae3d ec89 3d3c 45c4 b4bd 0a1c 06be
000001c0: a5c4 503d bc8b 26bd 4e17 053e 63f4 56bd
000001d0: 0b40 94bc 5ad3 bebd c98c b4bd 509c 203e
000001e0: 5ff2 13bd c772 d63d 0ba5 92bd 5bdb 9e3d
000001f0: 2a35 683d 59e5 123e e6a2 47be eb1b 973d
00000200: ba64 8a3c 0031 f1bd 6cd1 24bd 91a8 06be
00000210: a4d1 253e f7bc 3d3c dd7f 8dbd 2e8f 283d
00000220: 1d5e 153d 30e2 e83d c1a5 b93a c64b 9d3d
00000230: 2e77 2cbd c77f 603d dd5e 353d 1455 85bd
00000240: 05ba 06bd ebf6 b6bd 7f30 863d a94b dc3d
00000250: a4c5 cdbd 7f9f 583d 0a50 693d ebf3 043e
00000260: 769a e23d 2cc5 a0bc ee75 2bbd ba75 4dbd
00000270: 8a38 f33d e6ec 2bbd 11df ed3d f7cc 423c
00000280: 205a 193c 4d11 05be a2a2 813d a953 29be
00000290: 7403 cd3d b7d0 e03b 5efb f93c 2ec9 0b3c
000002a0: a1d4 833d 0588 073e 5313 283e 7510 803d
000002b0: cfb3 823d 50c0 6b3d 7955 c53d cd5a ebbc
000002c0: e9fe e0bc e9e7 93bb 825e 34be 3450 223e
000002d0: c97b 0b3e 3cf9 09be bc25 a5bd 0b05 dc3d
000002e0: 2dda 0d3e 2f1a 013d 570f bfbd 200a c13c
000002f0: 8ac2 ae3d e74f bf3d d983 5c3e d7d8 10bd
00000300: dca8 f2bd 410e 2c3d dbf5 aabd cfb4 96bc
00000310: 1af9 39bc 0456 d43c 8c3e 8f3d fd21 303b
00000320: ddea b4bb 9127 6cbd 7b97 183e c4d3 d33d
00000330: b932 843a 1ebf c9bd 3e74 2ebe 0402 083c
00000340: 8000 453d 4692 10be b26c 193d 6e55 a4bd
00000350: 09fd d9bd 3773 063e 4220 91bd 1156 053d
00000360: ce20 e8bd 488a 223e 8e4f c2bd 7a0a 253e
00000370: 1566 3cbc 7d9a 4dbd e722 df39 2f9f 9ebc
00000380: 8646 f0bc 944b 173e 7e89 0fbe ec60 b13d
00000390: 9ad6 38bd 7ee1 233e 8adf cabc 936b 90bd
000003a0: b733 1c3d c342 553e 38d0 cd3c 693f d8bd
000003b0: de5b 2dbe a1c9 72bd 4587 9c3d 5072 b53c
000003c0: 9727 633d 3822 e6ba 4d3c c4bd 4f43 b53d
000003d0: 2ae5 8d3b e779 df3d 7422 003d 9707 3dbe
000003e0: 2713 e3bd 7ffc f83c 459b debd 9dbe 88bd
000003f0: 21cd a5bd 026f 6d3d 9640 0b3e 9c21 efbd
0.06424693 0.114400245 -0.08958457 0.14708145 0.114951044 0.113260314 -0.105118036 -0.045861207
0.050255045 0.10214833 -0.013536424 -0.053004216 0.0034660401 0.031466167 -0.050650697 0.07196037
-0.038674854 -0.05431639 0.059673443 0.033476483 -0.11073057 -0.03635838 -0.08160069 0.010369864
0.10970737 0.059912585 -0.105748475 0.02504433 0.021178326 0.09816503 -0.014030636 -0.024787692
-0.0655903 0.100881904 0.12481759 0.07331825 -0.052342977 0.06779014 0.15114538 -0.049153157
-0.092713416 0.097357206 0.007812544 0.0979804 0.06675611 -0.021688893 -0.05234793 0.1419575
0.13542457 0.03745881 0.11514504 0.09648051 -0.06684635 -0.028345745 -0.034174047 0.14866917
0.088334054 -0.0960844 -0.044233873 -0.03781963 0.085115455 0.13395198 0.023557924 0.03834708
0.14567932 -0.10905881 -0.11139423 -0.10450936 0.12196476 -0.10285291 -0.031070713 -0.054230202
-0.12087216 0.014171384 -0.09021173 0.027472833 0.020379508 0.11021387 -0.1194357 0.035880957
0.057999216 -0.050339244 -0.053371184 -0.08891052 0.030066812 0.031249655 -0.036100898 -0.09402365
-0.0014063175 0.035749443 0.061901826 -0.051994454 -0.05125704 0.037624776 -0.050527815 -0.03331266
0.093894415 -0.007200571 0.0811787 0.0998879 0.10791114 -0.10478094 0.094229445 0.03895881
0.06399042 -0.07925699 0.0012477507 -0.0119866 0.08538181 0.011568528 -0.08826498 -0.13096634
0.050968785 -0.040660605 0.12997171 -0.05247916 -0.018096944 -0.09317656 -0.08815915 0.15684628
-0.036119815 0.10471111 -0.07160386 0.077566825 0.056691326 0.14345302 -0.19495735 0.07378372
0.016893733 -0.11776924 -0.040238783 -0.1315024 0.16193253 0.011580697 -0.069091536 0.04115217
0.036466707 0.11371267 0.0014163778 0.07680468 -0.042105846 0.054809358 0.04427992 -0.06510368
-0.032892246 -0.089338146 0.06552219 0.107566185 -0.100474626 0.052886482 0.056961097 0.12983672
0.11064617 -0.019625269 -0.041860513 -0.0501611 0.11876018 -0.04197397 0.11614812 0.011889688
0.009359866 -0.12994881 0.06329848 -0.1653582 0.10010424 0.0068608182 0.030515369 0.008531852
0.0643704 0.13235481 0.16413622 0.06253139 0.06381952 0.05755645 0.09635443 -0.02872982
-0.0274653 -0.00451373 -0.17614177 0.15850908 0.13621439 -0.13473982 -0.08063838 0.10743149
0.13852759 0.03151911 -0.09329098 0.023564398 0.08533199 0.09341412 0.21534671 -0.035363045
-0.118486136 0.04200578 -0.083476745 -0.018396763 -0.011350894 0.025919922 0.06994352 0.0026875727
-0.005521162 -0.05765492 0.14901535 0.103431255 0.0010085917 -0.09850906 -0.1703653 0.008301262
0.04809618 -0.14118299 0.037457176 -0.08024107 -0.10643966 0.13129888 -0.07086231 0.032552782
-0.11334382 0.15873063 -0.0948783 0.16117278 -0.011498948 -0.05019616 0.0004255988 -0.019363014
-0.029330503 0.14774925 -0.14017293 0.086610645 -0.045126535 0.16003987 -0.024764795 -0.07051768
0.038135257 0.20826249 0.0251237 -0.105589695 -0.16929576 -0.05927432 0.07642988 0.022149235
0.055457678 -0.0017557805 -0.09581814 0.08850729 0.004330297 0.10911923 0.031282857 -0.18459927
-0.110876374 0.030393837 -0.10869459 -0.066769816 -0.08095766 0.057967193 0.13598856 -0.11676332

bias f4 [50]
00000000: 16ad b13a 4024 0abd 3ad8 083e 3a6d 253d
00000010: 6f46 d43c 4cc6 3d3d 5c8e 24bc a228 0dbd
00000020: eeab 8c3c b468 373d ec20 0b3b 17d4 c23c
00000030: 470e 923d 96e4 bebd 4680 09be fcff 8f3d
00000040: 5f69 23bd 7ca3 1f3e a850 1a3e ec50 d13d
00000050: 1dd4 31bc 3b23 ab3d fa00 ee3c ed9a 353e
00000060: f3f8 b2bd 403c aa3d ed9d fb3b a69c efbc
00000070: d6d2 03be db8d f3bc 5773 373d 722c c5bd
00000080: 2897 16bd f17b 0d3e feca b7bd 5ffe 88bd
00000090: 9a52 21be 3156 b7bd 14cc 353e abeb a13d
000000a0: dba9 1fbd 70cf b23a c7ca 163e 34d5 68bd
000000b0: e52b 4d3c 08e3 a33d 3332 483e 4dc4 23be
000000c0: 57ae 7f3d eb2c be3d
0.0013555612 -0.033725977 0.13363734 0.04038737 0.025912492 0.04633169 -0.010043707 -0.03446258
0.017171826 0.044777587 0.002122934 0.023782773 0.071316294 -0.09320943 -0.13427839 0.07031247
-0.03989541 0.15589708 0.1506983 0.10220513 -0.010853794 0.08356329 0.0290532 0.17734881
-0.087388895 0.08312273 0.0076787383 -0.0292495 -0.12873396 -0.029730728 0.04478773 -0.09627618
-0.036765248 0.13816811 -0.089742646 -0.066891424 -0.15754166 -0.089519866 0.17753631 0.07906278
-0.038980346 0.0013642143 0.14725791 -0.05684395 0.012522672 0.08002287 0.195504 -0.15992852
0.062422123 0.09285911

mask f4 [50, 50]
00000000: 0000 803f 0000 803f 0000 803f 0000 803f
00000010: 0000 803f 0000 803f 0000 803f 0000 803f
00000020: 0000 803f 0000 803f 0000 803f 0000 803f
00000030: 0000 803f 0000 803f 0000 803f 0000 803f
00000040: 0000 803f 0000 803f 0000 803f 0000 803f
00000050: 0000 803f 0000 803f 0000 803f 0000 803f
00000060: 0000 803f 0000 803f 0000 803f 0000 803f
00000070: 0000 803f 0000 803f 0000 803f 0000 803f
00000080: 0000 803f 0000 803f 0000 803f 0000 803f
00000090: 0000 803f 0000 803f 0000 803f 0000 803f
000000a0: 0000 803f 0000 803f 0000 803f 0000 803f
000000b0: 0000 803f 0000 803f 0000 803f 0000 803f
000000c0: 0000 803f 0000 803f 0000 803f 0000 803f
000000d0: 0000 803f 0000 803f 0000 803f 0000 803f
000000e0: 0000 803f 0000 803f 0000 803f 0000 803f
000000f0: 0000 803f 0000 803f 0000 803f 0000 803f
00000100: 0000 803f 0000 803f 0000 803f 0000 803f
00000110: 0000 803f 0000 803f 0000 803f 0000 803f
00000120: 0000 803f 0000 803f 0000 803f 0000 803f
00000130: 0000 803f 0000 803f 0000 803f 0000 803f
00000140: 0000 803f 0000 803f 0000 803f 0000 803f
00000150: 0000 803f 0000 803f 0000 803f 0000 803f
00000160: 0000 803f 0000 803f 0000 803f 0000 803f
00000170: 0000 803f 0000 803f 0000 803f 0000 803f
00000180: 0000 803f 0000 803f 0000 803f 0000 803f
00000190: 0000 803f 0000 803f 0000 803f 0000 803f
000001a0: 0000 803f 0000 803f 0000 803f 0000 803f
000001b0: 0000 803f 0000 803f 0000 803f 0000 803f
000001c0: 0000 803f 0000 803f 0000 803f 0000 803f
000001d0: 0000 803f 0000 803f 0000 803f 0000 803f
000001e0: 0000 803f 0000 803f 0000 803f 0000 803f
000001f0: 0000 803f 0000 803f 0000 803f 0000 803f
00000200: 0000 803f 0000 803f 0000 803f 0000 803f
00000210: 0000 803f 0000 803f 0000 803f 0000 803f
00000220: 0000 803f 0000 803f 0000 803f 0000 803f
00000230: 0000 803f 0000 803f 0000 803f 0000 803f
00000240: 0000 803f 0000 803f 0000 803f 0000 803f
00000250: 0000 803f 0000 803f 0000 803f 0000 803f
00000260: 0000 803f 0000 803f 0000 803f 0000 803f
00000270: 0000 803f 0000 803f 0000 803f 0000 803f
00000280: 0000 803f 0000 803f 0000 803f 0000 803f
00000290: 0000 803f 0000 803f 0000 803f 0000 803f
000002a0: 0000 803f 0000 803f 0000 803f 0000 803f
000002b0: 0000 803f 0000 803f 0000 803f 0000 803f
000002c0: 0000 803f 0000 803f 0000 803f 0000 803f
000002d0: 0000 803f 0000 803f 0000 803f 0000 803f
000002e0: 0000 803f 0000 803f 0000 803f 0000 803f
000002f0: 0000 803f 0000 803f 0000 803f 0000 803f
00000300: 0000 803f 0000 803f 0000 803f 0000 803f
00000310: 0000 803f 0000 803f 0000 803f 0000 803f
00000320: 0000 803f 0000 803f 0000 803f 0000 803f
00000330: 0000 803f 0000 803f 0000 803f 0000 803f
00000340: 0000 803f 0000 803f 0000 803f 0000 803f
00000350: 0000 803f 0000 803f 0000 803f 0000 803f
00000360: 0000 803f 0000 803f 0000 803f 0000 803f
00000370: 0000 803f 0000 803f 0000 803f 0000 803f
00000380: 0000 803f 0000 803f 0000 803f 0000 803f
00000390: 0000 803f 0000 803f 0000 803f 0000 803f
000003a0: 0000 803f 0000 803f 0000 803f 0000 803f
000003b0: 0000 803f 0000 803f 0000 803f 0000 803f
000003c0: 0000 803f 0000 803f 0000 803f 0000 803f
000003d0: 0000 803f 0000 803f 0000 803f 0000 803f
000003e0: 0000 803f 0000 803f 0000 803f 0000 803f
000003f0: 0000 803f 0000 803f 0000 803f 0000 803f
1.0 1.0 1.0 1.0 1.0 1.0 1.0 1.0
1.0 1.0 1.0 1.0 1.0 1.0 1.0 1.0
1.0 1.0 1.0 1.0 1.0 1.0 1.0 1.0
1.0 1.0 1.0 1.0 1.0 1.0 1.0 1.0
1.0 1.0 1.0 1.0 1.0 1.0 1.0 1.0
1.0 1.0 1.0 1.0 1.0 1.0 1.0 1.0
1.0 1.0 1.0 1.0 1.0 1.0 1.0 1.0
1.0 1.0 1.0 1.0 1.0 1.0 1.0 1.0
1.0 1.0 1.0 1.0 1.0 1.0 1.0 1.0
1.0 1.0 1.0 1.0 1.0 1.0 1.0 1.0
1.0 1.0 1.0 1.0 1.0 1.0 1.0 1.0
1.0 1.0 1.0 1.0 1.0 1.0 1.0 1.0
1.0 1.0 1.0 1.0 1.0 1.0 1.0 1.0
1.0 1.0 1.0 1.0 1.0 1.0 1.0 1.0
1.0 1.0 1.0 1.0 1.0 1.0 1.0 1.0
1.0 1.0 1.0 1.0 1.0 1.0 1.0 1.0
1.0 1.0 1.0 1.0 1.0 1.0 1.0 1.0
1.0 1.0 1.0 1.0 1.0 1.0 1.0 1.0
1.0 1.0 1.0 1.0 1.0 1.0 1.0 1.0
1.0 1.0 1.0 1.0 1.0 1.0 1.0 1.0
1.0 1.0 1.0 1.0 1.0 1.0 1.0 1.0
1.0 1.0 1.0 1.0 1.0 1.0 1.0 1.0
1.0 1.0 1.0 1.0 1.0 1.0 1.0 1.0
1.0 1.0 1.0 1.0 1.0 1.0 1.0 1.0
1.0 1.0 1.0 1.0 1.0 1.0 1.0 1.0
1.0 1.0 1.0 1.0 1.0 1.0 1.0 1.0
1.0 1.0 1.0 1.0 1.0 1.0 1.0 1.0
1.0 1.0 1.0 1.0 1.0 1.0 1.0 1.0
1.0 1.0 1.0 1.0 1.0 1.0 1.0 1.0
1.0 1.0 1.0 1.0 1.0 1.0 1.0 1.0
1.0 1.0 1.0 1.0 1.0 1.0 1.0 1.0
1.0 1.0 1.0 1.0 1.0 1.0 1.0 1.0

weight f4 [50, 50]
00000000: a01c 9ebd 9bbc c23a 5b1a 8d3d 271a ed3d
00000010: fdd0 9b3d ceb7 8d3d 7105 8f3d a8bc a1bc
00000020: 26c1 f1bd d877 d73d c620 80bd 8ad8 38bd
00000030: 2148 63bc e54e 483d 6f1f cb3d 18d1 d83d
00000040: 35e2 3a3d b7e2 e0bc bb64 b9bc c95f fcbd
00000050: b524 8d3d 1a8c c4bd 2fc4 ffbb cfbc f7bd
00000060: 6a7a f23d 57ff a3bd 05cb fb3d eb72 5ebd
00000070: 2bcc acbd 62d3 223e 7eb4 b1bd 0ebf ad3d
00000080: b232 b3bd 6493 803d 6223 983d a8d4 e83d
00000090: c389 203d 28a8 e1bb d23d 81bd 1985 b93d
000000a0: 376d c93d 9b0b 203c aa35 f3bd ffe9 73bd
000000b0: 3e32 e93a c790 0b3e a35d f1bd fecc 0a3d
000000c0: 5458 baba 328a 94bd fdea 08bc edf9 e8bd
000000d0: 0ff8 9c3d fafe e5bd b114 023e c5a0 84bd
000000e0: d321 bbbd 3a4a e03d 76f3 c0b9 9f00 2e3d
000000f0: ba2f 8f3d f562 d5ba 2318 f5bd bbae c9bd
00000100: 3ec5 133d 7ea3 da3d cf28 343c fba0 1c3d
00000110: 75eb 8c3d b092 ffbd 05de da3d ddf7 c1bd
00000120: 1c37 ccbd 863e b23d 221f 033e 1c99 c73c
00000130: a140 1abd 1b7c fa3c cf93 3dbc dc55 9d3a
00000140: 29ea 193d 72b2 0ebe ec31 1cbe b16a f7bc
00000150: 25d5 08be ecfc a6bd eb04 103e fd88 01be
00000160: ac10 e93d 58cd ef3c 639b 60bc 351b 083d
00000170: 7633 9fbc 212b b23d 3b1d ae3c 9c6b f9bd
00000180: 754f e5bc 409a 953d 22fe 193d ff8c 903d
00000190: f913 9dbd 980b e5bd 99e0 2dbe 7b8a 98bd
000001a0: 423e ccbd 994c cdbc aec2 da3d 8934 d93d
000001b0: 1e11 213e 311f 00bd 1f01 a0bd 975b 043e
000001c0: 7ca4 153d b32b 4e3e dda1 853b 80db 54bc
000001d0: 665d 163e 1707 02bd 47a6 17be d4ce dc3d
000001e0: 5abf 383d 640e 263e 88ba 29bd 9d7c 08be
000001f0: 9472 fb3d fc20 e23c fe8a cbbd 0721 313c
00000200: bc60 f93d dc00 8cbd 3241 21be dbc4 e13d
00000210: 7cae f93d cf11 d2bd 5088 8a3d 1f6d 02be
00000220: c737 f4bd 240a 96bd 79f4 57bd f661 8c3b
00000230: 6a0d 463d 6ecc b33d 18ae 08be 2540 033e
00000240: 1d69 4d3c 1ec6 fc3d 8627 5fbd cbd2 973d
00000250: 0f20 c83c 7e03 c1bd 1f33 b63d 92ab b7bd
00000260: d99f c7bd b6ef a93c 5165 e2bd 2d34 debd
00000270: 9eb1 c8bc beca 8f3d 0a2c 913d b619 653c
00000280: d60b 2d3e e8bf fa3d 89de 6a3c 5c3d 98bd
00000290: 45c9 b83d 1eaa f33d 6fbd 703d 89cf 16be
000002a0: 64d9 2e3d 8dec 8f3d 8b26 06be fb32 7b3c
000002b0: 7295 733c 51b8 893b 6744 cd3d 0f37 87bd
000002c0: 5911 d5bd 0d76 78be e0e9 81bb 4f89 abbc
000002d0: 6aaf a9bd dc53 d2bc b137 3b3e 8455 30bd
000002e0: 36c5 c03d 59b5 1cbd f0af 10be 4892 c03c
000002f0: 0353 debd cc59 d7bb c008 f5bd 8cc4 a2bd
00000300: 1d8c a43d cd7b 5cbd ed8e 1e3e 10db f7bb
00000310: e38b bdbb e28a e43d 8085 a13d 291d d0bd
00000320: 41dc 853c c759 c3bd 0eb7 243e 451c a2bd
00000330: dded 87bd 40ac b3bd e80a 02be 2b4e d3ba
00000340: b55c cebd 998f f33c 0454 803d 2874 8e3b
00000350: 733e 023e b298 ba3d eef4 413b 975a ddbd
00000360: 472e 0abe e080 fabc eec2 8c3d 5b81 56bd
00000370: dc94 bebd 5692 e33d f8b6 efbd c741 9fbb
00000380: c752 b43d 2f21 1d3e cc74 243e 39cc b7bc
00000390: 6244 c5bd bea9 0dbe 4393 fdbc c7e2 9d3b
000003a0: f8e6 34be 565c be3d d644 27be 8eb0 443d
000003b0: 34ff b0bd 9ead abbd 2ae1 89bd f86b c8bc
000003c0: 5710 c8bd 650e f0bb cf58 c1bd 0fed 17be
000003d0: 69fd 1abe 50d4 0abd 77f6 b9bc a366 be3c
000003e0: 1cec df3d ae8d e33d 0c1b 0c3e 45a3 7a3c
000003f0: b0c3 9d3d 3e3a 973c af78 12bd 2026 04bd
-0.077203035 0.0014857234 0.068897925 0.11577254 0.07608221 0.069198236 0.0698346 -0.019743279
-0.11804418 0.10520905 -0.06256251 -0.045128383 -0.013872177 0.048903365 0.09918105 0.105867565
0.045625884 -0.027451856 -0.02263104 -0.12322957 0.06891767 -0.09597035 -0.0078053693 -0.12096559
0.11839755 -0.080076866 0.12294582 -0.054308813 -0.084373794 0.15900949 -0.08677004 0.084837064
-0.08749904 0.062781125 0.07428624 0.11368686 0.03919388 -0.006886501 -0.063106194 0.090585895
0.09835284 0.009768392 -0.1187547 -0.059549328 0.0017791463 0.13629447 -0.11785438 0.033886902
-0.0014216998 -0.07252921 -0.008356807 -0.113757946 0.07664501 -0.112302735 0.12703206 -0.06475977
-0.09137311 0.109516576 -0.00036802486 0.04248106 0.06991525 -0.0016280102 -0.11967494 -0.0984778
0.036076777 0.10675715 0.010996058 0.03823946 0.06880847 -0.1247915 0.10686878 -0.09471104
-0.09971449 0.08703332 0.12804845 0.024365 -0.03765929 0.030576756 -0.011570885 0.0012003738
0.03757683 -0.13935259 -0.15253419 -0.030202242 -0.13362558 -0.0815371 0.14064376 -0.12649913
0.11380133 0.02927272 -0.013708922 0.03322907 -0.019433718 0.086996324 0.021254173 -0.12178728
-0.02799199 0.073048115 0.037595876 0.07058143 -0.07669825 -0.11183852 -0.16980208 -0.07448288
-0.09972812 -0.025060939 0.106816635 0.106057234 0.15729186 -0.031279746 -0.07812714 0.12925564
0.036533818 0.20133857 0.0040781335 -0.012991786 0.14684066 -0.031745043 -0.14809524 0.10781637
0.045104362 0.16216427 -0.041437656 -0.13328786 0.122777134 0.027603619 -0.0993862 0.010811097
0.12176654 -0.068361014 -0.15747526 0.11023875 0.121914834 -0.10257303 0.06764281 -0.12736939
-0.11924701 -0.07326153 -0.05272338 0.004284139 0.048352636 0.08779226 -0.13347661 0.12817438
0.012537268 0.12342475 -0.05448105 0.074132524 0.02442935 -0.09424494 0.08896469 -0.08968271
-0.097472854 0.020744186 -0.11054481 -0.108497955 -0.024498757 0.07021092 0.07088478 0.013983181
0.16899046 0.122436345 0.014335283 -0.07433578 0.09022764 0.11897682 0.058774408 -0.14727606
0.04268779 0.0702754 -0.1310064 0.015331979 0.0148671735 0.0042028804 0.10022812 -0.066022985
-0.104036994 -0.24263783 -0.0039646477 -0.020939497 -0.08285411 -0.025674753 0.18282963 -0.043050304
0.09412615 -0.038258884 -0.14129615 0.023507252 -0.10855677 -0.006571984 -0.119645596 -0.079476446
0.08034537 -0.053829003 0.1548421 -0.007563956 -0.005784498 0.11159302 0.07886791 -0.10161812
0.016340377 -0.09538608 0.16085455 -0.07915548 -0.06637166 -0.087730885 -0.12699473 -0.0016121318
-0.10076276 0.029731559 0.06266025 0.004347343 0.12719135 0.091111556 0.0029595452 -0.10808294
-0.13494216 -0.03057903 0.068731174 -0.052369457 -0.093057364 0.11111896 -0.117048204 -0.004860136
0.08804851 0.1534469 0.1606018 -0.022436248 -0.096321836 -0.13834283 -0.030954009 0.0048182937
-0.17666233 0.092949554 -0.16334853 0.04801994 -0.08642426 -0.08382724 -0.067324 -0.024465546
-0.097687416 -0.0073259347 -0.09440767 -0.14836524 -0.15135731 -0.033893883 -0.022700531 0.0232423
0.10933706 0.11111008 0.13682193 0.015297716 0.0770334 0.01846039 -0.035759624 -0.03226292

bias f4 [50]
00000000: 85d3 893d c3af 893d 9a09 4fbe 6531 8ebd
00000010: fee5 e43d 5d79 063d e6b8 ddbc 0140 dbbc
00000020: 46e1 d9bd cc7f 87bd e9f6 903d a9b1 d23d
00000030: 836c 263c 7318 f9bc b5c7 b9bd 1fc0 da3d
00000040: 4565 db3d 9307 3a3d 962f 7d3c e52b 0f3d
00000050: b447 8abd b6e5 603d 06f2 4bbd 30f0 cfbd
00000060: eae0 23bd 8073 f23d 9dd5 71bc 5a65 a0bd
00000070: 03c4 e5bd 41a7 f4bc 01cc 493d 78b8 92bd
00000080: 54c0 90bd 5c63 b83d 8981 c23d ee2a 5b3d
00000090: a752 e73d 7c4d 3a3d a130 803d 5b2d e0bc
000000a0: 8076 b5bc 7d38 fd3c 28af d43d 8985 283e
000000b0: df79 e4bd 7795 763d c0c8 48bd 4285 abbc
000000c0: 0177 87bd 0377 e7bd
0.06729797 0.06722977 -0.20218506 -0.06943015 0.1117668 0.032830585 -0.027065706 -0.026763918
-0.106386706 -0.06616172 0.070783444 0.10287792 0.010157707 -0.030407166 -0.09071294 0.106811754
0.10712675 0.04541738 0.01545324 0.03495397 -0.067519575 0.05490657 -0.04979136 -0.10153234
-0.040009417 0.11838436 -0.014760402 -0.07831831 -0.11219027 -0.02986491 0.04926682 -0.07164091
-0.07067934 0.09003326 0.09497363 0.053507738 0.112950616 0.04548405 0.06259275 -0.027365377
-0.022151232 0.030910725 0.10384971 0.1645719 -0.111560576 0.060201135 -0.049019575 -0.020937566
-0.06614495 -0.113019966

mask f4 [50, 50]
00000000: 0000 803f 0000 803f 0000 803f 0000 803f
00000010: 0000 803f 0000 803f 0000 803f 0000 803f
00000020: 0000 803f 0000 803f 0000 803f 0000 803f
00000030: 0000 803f 0000 803f 0000 803f 0000 803f
00000040: 0000 803f 0000 803f 0000 803f 0000 803f
00000050: 0000 803f 0000 803f 0000 803f 0000 803f
00000060: 0000 803f 0000 803f 0000 803f 0000 803f
00000070: 0000 803f 0000 803f 0000 803f 0000 803f
00000080: 0000 803f 0000 803f 0000 803f 0000 803f
00000090: 0000 803f 0000 803f 0000 803f 0000 803f
000000a0: 0000 803f 0000 803f 0000 803f 0000 803f
000000b0: 0000 803f 0000 803f 0000 803f 0000 803f
000000c0: 0000 803f 0000 803f 0000 803f 0000 803f
000000d0: 0000 803f 0000 803f 0000 803f 0000 803f
000000e0: 0000 803f 0000 803f 0000 803f 0000 803f
000000f0: 0000 803f 0000 803f 0000 803f 0000 803f
00000100: 0000 803f 0000 803f 0000 803f 0000 803f
00000110: 0000 803f 0000 803f 0000 803f 0000 803f
00000120: 0000 803f 0000 803f 0000 803f 0000 803f
00000130: 0000 803f 0000 803f 0000 803f 0000 803f
00000140: 0000 803f 0000 803f 0000 803f 0000 803f
00000150: 0000 803f 0000 803f 0000 803f 0000 803f
00000160: 0000 803f 0000 803f 0000 803f 0000 803f
00000170: 0000 803f 0000 803f 0000 803f 0000 803f
00000180: 0000 803f 0000 803f 0000 803f 0000 803f
00000190: 0000 803f 0000 803f 0000 803f 0000 803f
000001a0: 0000 803f 0000 803f 0000 803f 0000 803f
000001b0: 0000 803f 0000 803f 0000 803f 0000 803f
000001c0: 0000 803f 0000 803f 0000 803f 0000 803f
000001d0: 0000 803f 0000 803f 0000 803f 0000 803f
000001e0: 0000 803f 0000 803f 0000 803f 0000 803f
000001f0: 0000 803f 0000 803f 0000 803f 0000 803f
00000200: 0000 803f 0000 803f 0000 803f 0000 803f
00000210: 0000 803f 0000 803f 0000 803f 0000 803f
00000220: 0000 803f 0000 803f 0000 803f 0000 803f
00000230: 0000 803f 0000 803f 0000 803f 0000 803f
00000240: 0000 803f 0000 803f 0000 803f 0000 803f
00000250: 0000 803f 0000 803f 0000 803f 0000 803f
00000260: 0000 803f 0000 803f 0000 803f 0000 803f
00000270: 0000 803f 0000 803f 0000 803f 0000 803f
00000280: 0000 803f 0000 803f 0000 803f 0000 803f
00000290: 0000 803f 0000 803f 0000 803f 0000 803f
000002a0: 0000 803f 0000 803f 0000 803f 0000 803f
000002b0: 0000 803f 0000 803f 0000 803f 0000 803f
000002c0: 0000 803f 0000 803f 0000 803f 0000 803f
000002d0: 0000 803f 0000 803f 0000 803f 0000 803f
000002e0: 0000 803f 0000 803f 0000 803f 0000 803f
000002f0: 0000 803f 0000 803f 0000 803f 0000 803f
00000300: 0000 803f 0000 803f 0000 803f 0000 803f
00000310: 0000 803f 0000 803f 0000 803f 0000 803f
00000320: 0000 803f 0000 803f 0000 803f 0000 803f
00000330: 0000 803f 0000 803f 0000 803f 0000 803f
00000340: 0000 803f 0000 803f 0000 803f 0000 803f
00000350: 0000 803f 0000 803f 0000 803f 0000 803f
00000360: 0000 803f 0000 803f 0000 803f 0000 803f
00000370: 0000 803f 0000 803f 0000 803f 0000 803f
00000380: 0000 803f 0000 803f 0000 803f 0000 803f
00000390: 0000 803f 0000 803f 0000 803f 0000 803f
000003a0: 0000 803f 0000 803f 0000 803f 0000 803f
000003b0: 0000 803f 0000 803f 0000 803f 0000 803f
000003c0: 0000 803f 0000 803f 0000 803f 0000 803f
000003d0: 0000 803f 0000 803f 0000 803f 0000 803f
000003e0: 0000 803f 0000 803f 0000 803f 0000 803f
000003f0: 0000 803f 0000 803f 0000 803f 0000 803f
1.0 1.0 1.0 1.0 1.0 1.0 1.0 1.0
1.0 1.0 1.0 1.0 1.0 1.0 1.0 1.0
1.0 1.0 1.0 1.0 1.0 1.0 1.0 1.0
1.0 1.0 1.0 1.0 1.0 1.0 1.0 1.0
1.0 1.0 1.0 1.0 1.0 1.0 1.0 1.0
1.0 1.0 1.0 1.0 1.0 1.0 1.0 1.0
1.0 1.0 1.0 1.0 1.0 1.0 1.0 1.0
1.0 1.0 1.0 1.0 1.0 1.0 1.0 1.0
1.0 1.0 1.0 1.0 1.0 1.0 1.0 1.0
1.0 1.0 1.0 1.0 1.0 1.0 1.0 1.0
1.0 1.0 1.0 1.0 1.0 1.0 1.0 1.0
1.0 1.0 1.0 1.0 1.0 1.0 1.0 1.0
1.0 1.0 1.0 1.0 1.0 1.0 1.0 1.0
1.0 1.0 1.0 1.0 1.0 1.0 1.0 1.0
1.0 1.0 1.0 1.0 1.0 1.0 1.0 1.0
1.0 1.0 1.0 1.0 1.0 1.0 1.0 1.0
1.0 1.0 1.0 1.0 1.0 1.0 1.0 1.0
1.0 1.0 1.0 1.0 1.0 1.0 1.0 1.0
1.0 1.0 1.0 1.0 1.0 1.0 1.0 1.0
1.0 1.0 1.0 1.0 1.0 1.0 1.0 1.0
1.0 1.0 1.0 1.0 1.0 1.0 1.0 1.0
1.0 1.0 1.0 1.0 1.0 1.0 1.0 1.0
1.0 1.0 1.0 1.0 1.0 1.0 1.0 1.0
1.0 1.0 1.0 1.0 1.0 1.0 1.0 1.0
1.0 1.0 1.0 1.0 1.0 1.0 1.0 1.0
1.0 1.0 1.0 1.0 1.0 1.0 1.0 1.0
1.0 1.0 1.0 1.0 1.0 1.0 1.0 1.0
1.0 1.0 1.0 1.0 1.0 1.0 1.0 1.0
1.0 1.0 1.0 1.0 1.0 1.0 1.0 1.0
1.0 1.0 1.0 1.0 1.0 1.0 1.0 1.0
1.0 1.0 1.0 1.0 1.0 1.0 1.0 1.0
1.0 1.0 1.0 1.0 1.0 1.0 1.0 1.0

weight f4 [4, 50]
00000000: d270 debd 0053 383a 5448 f5bc d824 8abc
00000010: 37f9 0c3e 98c0 c3bc 14d4 51bd e097 cfbb
00000020: 987a dbbd e259 b5bd a282 dc3d 0082 d93a
00000030: e203 923d 8007 debb 7aa1 e03d 90d1 6cbc
00000040: ce6e f53d 009b 42bc 98a3 a8bd 2aec aa3d
00000050: bf55 083e 2878 3f3d 86bc d6bd d8b6 e8bd
00000060: 89bd b3bd 488c d9bd 34cf a93d 2ee6 923d
00000070: 7e8a 933d 3e21 c83d f73e 8ebd 804f b1bb
00000080: aad2 63bd 20aa 583c bbc0 80bd 9933 063e
00000090: 4811 fd3c 434a 093e 60f4 193c 4c2b 47bd
000000a0: 4010 c53d da1c e93d 3086 5f3d 76f8 b8bd
000000b0: a262 01be dd7e 0f3e 7069 2e3c 308d 213d
000000c0: 30b8 ccbd d62d f53d ace4 6dbd 5113 b4bd
000000d0: 9cce 953d 3cc6 9fbc c458 d6bc e081 433c
000000e0: 60fc aabb 48d3 ddbc ec2c 363d 6ca5 473d
000000f0: d22a f73d fa9a 0abe 5444 703d d08d 80bc
00000100: d82e 413d bc5f 2d3d 80a3 a9bb 5c3a b3bc
00000110: baae 77bd 8eed 07be e0f7 91bc 043c 8ebd
00000120: 8aaf 11bd 2cc9 77bd baea b4bd 35e4 fdbd
00000130: 3815 9cbd 007f b83b 8079 8a3c c86e ccbc
00000140: dc8a 1f3d 5401 773d 6077 e4bd 25a6 ccbd
00000150: ac4c c0bd 1056 2abc 082a 3f3d 50a7 c93c
00000160: b44d 563d a014 9dbb 662e df3d 70d9 3c3c
00000170: 2053 753d f8ba e83c a0e3 bc3d e00f 81bd
00000180: e2ed 57bd df3e 0abe 8481 d5bc 681b 64bd
00000190: d73a 503d 3c2f 073e 79d3 1ebe 8eb8 78bd
000001a0: 5d67 003e 6f9f 9f3c ce1d b43d 6dfd 9f3d
000001b0: 019c d2bd 7e26 c43d acd5 243e 4051 e63c
000001c0: 39f5 6cbd 0fa4 713d ef34 0b3e 9e06 d53c
000001d0: 01fd 0a3e 1aa4 10be a96b 7cbd d768 ad3d
000001e0: 5019 3e3e 46d0 e3ba da3d e7bd 5c05 aabc
000001f0: 4a93 bdbd 7aeb a23c 6d62 683b cada 17be
00000200: 7311 03be fc47 9bbd 7908 c23d 1f7c cb3d
00000210: 8091 82bd 9c5b 083e 51e5 473b b449 b63d
00000220: 92e0 25bc b195 ac3d cde2 3bbc 6824 6c3c
00000230: 0c0e f3bd acaf 9b3d 8cb6 9cbd e599 043e
00000240: d1fa 0bbe cca0 4e3d 9fbc 02bd 1efd 2a3e
00000250: 69da 9f3d 5f13 d6bd b0a3 aebd 5650 cfbd
00000260: 9636 813d 2500 55bb 7fc3 803d 2fb1 15ba
00000270: 3180 a5bd 6771 4abe cb87 063e 5dcb f03d
00000280: dbb4 143d 62d7 99bd 999d 0d3e c833 283e
00000290: 6225 e9bd 4dbd 65bd 06a7 9e3d 49cd aabd
000002a0: 6018 423b bb0a 2d3d 1f85 e03d 9fe0 7a3c
000002b0: 4b3d 693e 577b 18be b142 48be 8d56 033d
000002c0: 20ab 4f3a b877 19bd bd05 be3d 2a31 123d
000002d0: 0e9d 12bd 689c 8c3d 1cb2 963d e990 c63d
000002e0: d65e 2238 99b0 32bd 4c49 e53d 24f6 16bd
000002f0: d8da ebbc cf53 d23d b4a0 d2bd b417 6dbd
00000300: df8a d4bd 2fc6 923d 3021 b23d 2f8d e33d
00000310: f6d7 e13d 6fa2 003e 15c1 8f3c 4542 9fbd
-0.108613625 0.0007031411 -0.029941715 -0.016863272 0.13766943 -0.023895547 -0.051227644 -0.0063352436
-0.10716742 -0.088550344 0.10767104 0.0016594529 0.07129647 -0.0067757964 0.10968299 -0.0144542605
0.11984025 -0.011877775 -0.08234328 0.08345826 0.1331396 0.04674545 -0.10485177 -0.11363
-0.08776385 -0.1062246 0.08291474 0.071728095 0.0720415 0.097719654 -0.06945603 -0.0054110885
-0.055620827 0.013224155 -0.062867604 0.1310562 0.03089203 0.13407235 0.009396642 -0.048625275
0.0962224 0.11382456 0.05457133 -0.09031765 -0.12635282 0.14013238 0.010645255 0.039441288
-0.099960685 0.11971633 -0.058079407 -0.08792747 0.07314798 -0.019503705 -0.026165374 0.01193282
-0.0052180737 -0.027078286 0.044476435 0.048741743 0.12068714 -0.13535681 0.058658913 -0.015692621
0.047163814 0.042327628 -0.0051769614 -0.021878414 -0.060469367 -0.13274214 -0.017818391 -0.06945041
-0.035567798 -0.060494587 -0.08833833 -0.12397043 -0.07621235 0.005630374 0.016903639 -0.024955168
0.038950786 0.060304 -0.111555815 -0.09992627 -0.09389624 -0.010396495 0.046670943 0.024615914
0.052320197 -0.0047937185 0.10897522 0.0115264505 0.059893727 0.028409466 0.092231035 -0.06301856
-0.052717097 -0.13500546 -0.026062734 -0.0556902 0.050837364 0.13201612 -0.15510358 -0.06072288
0.1253943 0.019485204 0.08794747 0.07812009 -0.10283662 0.09577654 0.16097134 0.028114915
-0.05785105 0.05899435 0.13594411 0.026004132 0.13573076 -0.141251 -0.06162611 0.08467262
0.18564343 -0.0017380796 -0.11291094 -0.020754509 -0.09256609 0.019887675 0.0035459057 -0.14829555
-0.12799625 -0.07582089 0.09474272 0.099357836 -0.06375408 0.13316196 0.0030501673 0.089007765
-0.0101243425 0.08426989 -0.011467648 0.014412977 -0.118679136 0.07601866 -0.076520056 0.12949331
-0.13669898 0.050446317 -0.031918164 0.16698119 0.0780533 -0.104529135 -0.08527315 -0.10122745
0.063092396 -0.0032501307 0.06287288 -0.00057103013 -0.08081091 -0.19769822 0.13137738 0.117575385
0.03630529 -0.07511784 0.1382965 0.16426003 -0.11384083 -0.056088734 0.07746701 -0.08339936
0.002961658 0.04224656 0.10962891 0.015312343 0.22777288 -0.148908 -0.19556691 0.032064963
0.0007921923 -0.03746769 0.09278438 0.035691418 -0.03579431 0.068657696 0.073581904 0.09695608
3.8712133e-05 -0.043625448 0.11195621 -0.03685583 -0.028790876 0.102698915 -0.10284558 -0.057883933
-0.1037805 0.07166707 0.08697736 0.11110913 0.110275194 0.12561963 0.017548123 -0.07776312

bias f4 [4]
00000000: 8710 943c 9b73 b6bc 919f 953d 143e db3c
0.018074287 -0.022271922 0.073058255 0.026763

mask f4 [4, 50]
00000000: 0000 0000 0000 0000 0000 0000 0000 0000
00000010: 0000 0000 0000 0000 0000 0000 0000 0000
00000020: 0000 0000 0000 0000 0000 0000 0000 0000
00000030: 0000 0000 0000 0000 0000 0000 0000 0000
00000040: 0000 0000 0000 0000 0000 0000 0000 0000
00000050: 0000 0000 0000 0000 0000 0000 0000 0000
00000060: 0000 0000 0000 0000 0000 0000 0000 0000
00000070: 0000 0000 0000 0000 0000 0000 0000 0000
00000080: 0000 0000 0000 0000 0000 0000 0000 0000
00000090: 0000 0000 0000 0000 0000 0000 0000 0000
000000a0: 0000 0000 0000 0000 0000 0000 0000 0000
000000b0: 0000 0000 0000 0000 0000 0000 0000 0000
000000c0: 0000 0000 0000 0000 0000 0000 0000 0000
000000d0: 0000 0000 0000 0000 0000 0000 0000 0000
000000e0: 0000 0000 0000 0000 0000 0000 0000 0000
000000f0: 0000 0000 0000 0000 0000 0000 0000 0000
00000100: 0000 0000 0000 0000 0000 0000 0000 0000
00000110: 0000 0000 0000 0000 0000 0000 0000 0000
00000120: 0000 0000 0000 0000 0000 0000 0000 0000
00000130: 0000 0000 0000 0000 0000 0000 0000 0000
00000140: 0000 0000 0000 0000 0000 0000 0000 0000
00000150: 0000 0000 0000 0000 0000 0000 0000 0000
00000160: 0000 0000 0000 0000 0000 0000 0000 0000
00000170: 0000 0000 0000 0000 0000 0000 0000 0000
00000180: 0000 0000 0000 0000 0000 0000 0000 0000
00000190: 0000 803f 0000 803f 0000 803f 0000 803f
000001a0: 0000 803f 0000 803f 0000 803f 0000 803f
000001b0: 0000 803f 0000 803f 0000 803f 0000 803f
000001c0: 0000 803f 0000 803f 0000 803f 0000 803f
000001d0: 0000 803f 0000 803f 0000 803f 0000 803f
000001e0: 0000 803f 0000 803f 0000 803f 0000 803f
000001f0: 0000 803f 0000 803f 0000 803f 0000 803f
00000200: 0000 803f 0000 803f 0000 803f 0000 803f
00000210: 0000 803f 0000 803f 0000 803f 0000 803f
00000220: 0000 803f 0000 803f 0000 803f 0000 803f
00000230: 0000 803f 0000 803f 0000 803f 0000 803f
00000240: 0000 803f 0000 803f 0000 803f 0000 803f
00000250: 0000 803f 0000 803f 0000 803f 0000 803f
00000260: 0000 803f 0000 803f 0000 803f 0000 803f
00000270: 0000 803f 0000 803f 0000 803f 0000 803f
00000280: 0000 803f 0000 803f 0000 803f 0000 803f
00000290: 0000 803f 0000 803f 0000 803f 0000 803f
000002a0: 0000 803f 0000 803f 0000 803f 0000 803f
000002b0: 0000 803f 0000 803f 0000 803f 0000 803f
000002c0: 0000 803f 0000 803f 0000 803f 0000 803f
000002d0: 0000 803f 0000 803f 0000 803f 0000 803f
000002e0: 0000 803f 0000 803f 0000 803f 0000 803f
000002f0: 0000 803f 0000 803f 0000 803f 0000 803f
00000300: 0000 803f 0000 803f 0000 803f 0000 803f
00000310: 0000 803f 0000 803f 0000 803f 0000 803f
0.0 0.0 0.0 0.0 0.0 0.0 0.0 0.0
0.0 0.0 0.0 0.0 0.0 0.0 0.0 0.0
0.0 0.0 0.0 0.0 0.0 0.0 0.0 0.0
0.0 0.0 0.0 0.0 0.0 0.0 0.0 0.0
0.0 0.0 0.0 0.0 0.0 0.0 0.0 0.0
0.0 0.0 0.0 0.0 0.0 0.0 0.0 0.0
0.0 0.0 0.0 0.0 0.0 0.0 0.0 0.0
0.0 0.0 0.0 0.0 0.0 0.0 0.0 0.0
0.0 0.0 0.0 0.0 0.0 0.0 0.0 0.0
0.0 0.0 0.0 0.0 0.0 0.0 0.0 0.0
0.0 0.0 0.0 0.0 0.0 0.0 0.0 0.0
0.0 0.0 0.0 0.0 0.0 0.0 0.0 0.0
0.0 0.0 0.0 0.0 1.0 1.0 1.0 1.0
1.0 1.0 1.0 1.0 1.0 1.0 1.0 1.0
1.0 1.0 1.0 1.0 1.0 1.0 1.0 1.0
1.0 1.0 1.0 1.0 1.0 1.0 1.0 1.0
1.0 1.0 1.0 1.0 1.0 1.0 1.0 1.0
1.0 1.0 1.0 1.0 1.0 1.0 1.0 1.0
1.0 1.0 1.0 1.0 1.0 1.0 1.0 1.0
1.0 1.0 1.0 1.0 1.0 1.0 1.0 1.0
1.0 1.0 1.0 1.0 1.0 1.0 1.0 1.0
1.0 1.0 1.0 1.0 1.0 1.0 1.0 1.0
1.0 1.0 1.0 1.0 1.0 1.0 1.0 1.0
1.0 1.0 1.0 1.0 1.0 1.0 1.0 1.0
1.0 1.0 1.0 1.0 1.0 1.0 1.0 1.0

weight f4 [50, 2]
00000000: a418 79bd 0050 3fbd 8289 14bf ac8a b9be
00000010: 9842 f6bd 5058 693e 8c75 86be 1cc0 313e
00000020: 90b9 c3be 2d6f 09bf 1cf6 fa3d 3607 d23e
00000030: 4db7 afbc dcb2 0e3e e773 20bf 75c3 263f
00000040: d650 0b3f d03c e7bd 6b9d 93be 3c4c 0cbe
00000050: be37 4ebd 1899 efbd 8afb 91be 024d 873e
00000060: 6de4 3d3f 908b f4bd 1710 873e 7a73 b13e
00000070: 3d47 1b3f a343 233f aa47 8ebd 577b 21bf
00000080: cf8b 3ebf 9099 603e e5e8 b13e 2e9a d43e
00000090: e9ab 18bd 7035 87bd 6013 073f a077 543e
000000a0: ab63 343e 3c13 21bf 8f04 c1be d633 c53e
000000b0: 61fc eb3e 431e 253f f17a 0c3c 855b 113f
000000c0: ece4 203e 5ad0 c0be 8966 f13e ca08 d93e
000000d0: 3459 10bd fa0a ea3e 7c98 22bd 6896 47be
000000e0: b84b a1be b51d 07bf c9e5 0a3f 956d 30bf
000000f0: 8761 d5bd 83b6 0c3f a892 78be fcf9 06bf
00000100: 5020 e23d 3042 dc3d 9f55 1d3f d2dc 983e
00000110: eee3 d1bd 5161 0ebf 4e33 133e 40b5 b23c
00000120: ad46 213e 40c4 acbc aa1b c93e f8a3 173e
00000130: 7020 a63e 12e8 babe 3a40 f4be 80c2 78bd
00000140: 1bec 383d e098 30be 84a0 fbbe ad21 0bbf
00000150: 36a0 05bf a0a2 8d3c 80ca b53e 20fd b0bc
00000160: 77bf 87bc 1115 1d3f 26d2 4dbd e6a4 bd3e
00000170: 7a7b d33b 4ea1 c13e b469 cfbe 7ac7 f33e
00000180: 4366 be3d 40b6 0a3c 839b 863e 9000 073d
-0.060814515 -0.046707153 -0.5802232 -0.3623861 -0.120244205 0.22787595 -0.26261556 0.1735844
-0.3822751 -0.53685266 0.12253973 0.41021127 -0.02144971 0.13935417 -0.6267685 0.65141994
0.5442022 -0.11290896 -0.28831038 -0.13700956 -0.05034613 -0.11699122 -0.28512222 0.2642594
0.74176675 -0.11940682 0.26379463 0.34658414 0.60655576 0.6377508 -0.069472626 -0.63078827
-0.7443208 0.2193358 0.34747997 0.4152388 -0.03727332 -0.06601989 0.5276394 0.20748758
0.17616145 -0.62919974 -0.3769879 0.3851611 0.46090987 0.644993 0.008574233 0.5678027
0.15712327 -0.3765896 0.4714854 0.42389518 -0.03524132 0.457115 -0.0396962 -0.19490969
-0.3150308 -0.52779704 0.54256874 -0.6891721 -0.104189925 0.5496599 -0.24274695 -0.52725196
0.11041319 0.10754812 0.6145877 0.29855973 -0.10248552 -0.55617243 0.1437504 0.021814942
0.15749617 -0.021089673 0.39278919 0.14808643 0.32446623 -0.3650518 -0.4770525 -0.060732365
0.045147043 -0.17245817 -0.491459 -0.5434826 -0.5219759 0.01728946 0.35506058 -0.021605074
-0.01657079 0.6136027 -0.05024924 0.3703987 0.0064539285 0.37818378 -0.40510333 0.47613126
0.092968486 0.008466303 0.2629052 0.03295952

bias f4 [50]
00000000: 0972 b6be 9c7b 893b c3d9 d63e 6684 033f
00000010: 6cca b63c 275e 7a3e d57d 2cbe caa1 7d3d
00000020: 9058 57bc 33b6 19bf 80dc 33bf fdfb f5be
00000030: 8682 e13e b7ee 0c3e 2bf0 893e 2eae 313f
00000040: 2c01 8a3d e03a 023f cb71 393e 109b 1e3d
00000050: 2d78 96be e49e e0be 6981 b6bc 2370 c93e
00000060: eb41 a8be b28d 85be 4211 34bf edaf a63e
00000070: 71d8 e43d 35ad 3b3f 5d34 813e 4184 e1bd
00000080: 5474 0fbf cb61 543e a3d8 083f ea34 19bf
00000090: dd32 80be a8b8 d9be 271b cebd d013 9d3e
000000a0: e214 113f 9f06 f7be ea06 8b3e 2311 223e
000000b0: 6bd4 a23e 1892 39bc dd3c 8bbe a0e9 87be
000000c0: d844 37bd 77be f33e
-0.35633877 0.0041956436 0.41963014 0.513739 0.02231332 0.24449979 -0.16844876 0.061921872
-0.013143674 -0.6004364 -0.7025833 -0.48043814 0.44044894 0.13762937 0.26941046 0.694064
0.06738505 0.50871086 0.18109815 0.038722098 -0.29388562 -0.43871224 -0.022278504 0.39343366
-0.3286279 -0.26084667 -0.70338833 0.32556096 0.111740954 0.7331117 0.25235263 -0.110115536
-0.5603688 0.2074043 0.5345556 -0.59846365 -0.25038806 -0.42523694 -0.10063773 0.30679178
0.5667249 -0.4824724 0.27153713 0.1582685 0.31802687 -0.011326335 -0.27194872 -0.2654543
-0.04474339 0.4760625

mask f4 [50, 2]
00000000: 0000 803f 0000 0000 0000 803f 0000 0000
00000010: 0000 803f 0000 0000 0000 803f 0000 0000
00000020: 0000 803f 0000 0000 0000 803f 0000 0000
00000030: 0000 803f 0000 0000 0000 803f 0000 0000
00000040: 0000 803f 0000 0000 0000 803f 0000 0000
00000050: 0000 803f 0000 0000 0000 803f 0000 0000
00000060: 0000 803f 0000 0000 0000 803f 0000 0000
00000070: 0000 803f 0000 0000 0000 803f 0000 0000
00000080: 0000 803f 0000 0000 0000 803f 0000 0000
00000090: 0000 803f 0000 0000 0000 803f 0000 0000
000000a0: 0000 803f 0000 0000 0000 803f 0000 0000
000000b0: 0000 803f 0000 0000 0000 803f 0000 0000
000000c0: 0000 803f 0000 0000 0000 803f 0000 0000
000000d0: 0000 803f 0000 0000 0000 803f 0000 0000
000000e0: 0000 803f 0000 0000 0000 803f 0000 0000
000000f0: 0000 803f 0000 0000 0000 803f 0000 0000
00000100: 0000 803f 0000 0000 0000 803f 0000 0000
00000110: 0000 803f 0000 0000 0000 803f 0000 0000
00000120: 0000 803f 0000 0000 0000 803f 0000 0000
00000130: 0000 803f 0000 0000 0000 803f 0000 0000
00000140: 0000 803f 0000 0000 0000 803f 0000 0000
00000150: 0000 803f 0000 0000 0000 803f 0000 0000
00000160: 0000 803f 0000 0000 0000 803f 0000 0000
00000170: 0000 803f 0000 0000 0000 803f 0000 0000
00000180: 0000 803f 0000 0000 0000 803f 0000 0000
1.0 0.0 1.0 0.0 1.0 0.0 1.0 0.0
1.0 0.0 1.0 0.0 1.0 0.0 1.0 0.0
1.0 0.0 1.0 0.0 1.0 0.0 1.0 0.0
1.0 0.0 1.0 0.0 1.0 0.0 1.0 0.0
1.0 0.0 1.0 0.0 1.0 0.0 1.0 0.0
1.0 0.0 1.0 0.0 1.0 0.0 1.0 0.0
1.0 0.0 1.0 0.0 1.0 0.0 1.0 0.0
1.0 0.0 1.0 0.0 1.0 0.0 1.0 0.0
1.0 0.0 1.0 0.0 1.0 0.0 1.0 0.0
1.0 0.0 1.0 0.0 1.0 0.0 1.0 0.0
1.0 0.0 1.0 0.0 1.0 0.0 1.0 0.0
1.0 0.0 1.0 0.0 1.0 0.0 1.0 0.0
1.0 0.0 1.0 0.0

weight f4 [50, 2]
00000000: 8196 243f c02c 0cbf e880 f53d 2546 71be
00000010: 0fc5 f3bd 0583 88be e92c b6be 0c08 ec3e
00000020: 5b1f 153e 3d13 b33b 8db1 163c c1f6 9dbe
00000030: 247b 1c3f 45f4 593e cff3 8abe bb26 ffbc
00000040: 1be3 bc3e c20d af3e 214a cbbe 78d0 963e
00000050: dc14 d23d 9ea6 f5be 1d9e 1dbe dba6 8cbe
00000060: f825 2e3f 991b 673d 764b 0b3f dc09 c63d
00000070: e8f6 08bf 7f7a d6bd 3d92 303f 5874 133f
00000080: 435f 88be 0077 05bf af97 313e 6ecb 7cbe
00000090: 0501 a2bd 01f0 2d3e 54aa e73d 897f bfbe
000000a0: c5e7 63bd 6b97 113f c0ed ad3e 1c37 0dbe
000000b0: 6a80 15bf 85ce 813e dc92 913e 117f 273e
000000c0: 8ef3 17bf e9bd 36be 6341 0cbf cd9f 153f
000000d0: 308a 76be a806 493e 13d7 e0be 2c68 633e
000000e0: 3a5d da3d b0e0 1f3f 001a 1f3e 76ed bebe
000000f0: f5c7 073e aacd 013f c65b 693d c698 91be
00000100: 38e1 023f fa76 a0be 503f 993e e422 a53e
00000110: 7271 153f 6725 90be 7ebb a53b 8902 823e
00000120: 8e1f cf3c 47cf 663d 81ce 443f 295a b03e
00000130: 0fd9 2d3f f646 7ebe 5806 113f 53c2 273f
00000140: 9fb2 2abf b863 14bf 9eda 2c3f 14f1 163e
00000150: 9dc6 4f3f 36e1 f23d 3a94 163d f365 0dbf
00000160: 94d5 2fbe 13bb f4be 1087 efbe 9f8a ccbe
00000170: 91bf 45bf 872e e1be 5926 363e 612c 20bf
00000180: 9cd0 ef3e 9551 15bb 882b 94be b99a 093e
0.6429215 -0.54755783 0.119874775 -0.23561914 -0.1190282 -0.2666246 -0.3558114 0.4609989
0.14562742 0.00546494 0.009197605 -0.3085232 0.611254 0.21284588 -0.27139136 -0.031146398
0.36892018 0.34190184 -0.39704993 0.29455924 0.10257885 -0.4797868 -0.15392347 -0.2747105
0.68026686 0.056422804 0.5441202 0.09669849 -0.5350175 -0.10472583 0.6897314 0.575994
-0.2663518 -0.52134705 0.17343019 -0.24686977 -0.07910351 0.16986085 0.113117844 -0.3740199
-0.055640955 0.5687167 0.3397045 -0.13790554 -0.5839907 0.25352874 0.28432357 0.16357066
-0.5935601 -0.17845882 -0.5478727 0.5844696 -0.24076152 0.19631445 -0.4391409 0.22207707
0.10662313 0.6245222 0.15537262 -0.37290543 0.13259871 0.50704443 0.056972288 -0.2843687
0.51124907 -0.31340772 0.29931116 0.32253182 0.5837623 -0.28153536 0.005057751 0.2539256
0.025283601 0.05635002 0.768776 0.34443787 0.6790933 -0.24831757 0.56650305 0.6553089
-0.66678804 -0.5796466 0.67521083 0.14740402 0.81162435 0.11859362 0.036762454 -0.5523369
-0.17171317 -0.47798976 -0.46782732 -0.3994951 -0.7724543 -0.4398081 0.17788066 -0.62567717
0.46838844 -0.0022784222 -0.28939462 0.13437928

bias f4 [50]
00000000: eefe 3b3f 7dc0 303e 2080 ecbd 92fc 7c3e
00000010: c713 843e d07a cabd 36c8 71be aa9a 0f3e
00000020: cf32 ccbe bc5f 2c3f dd33 12bf dfe1 253f
00000030: bea9 c23e c7db afbe 2287 f7be 7cfc 2a3e
00000040: db8b 6dbe 06ad 923e 5e3a ef3d e5a2 a13e
00000050: 9fb4 c03e cebd 1b3f 2068 543e b486 06bf
00000060: e731 8ebd 60d4 07bf cfc4 a5be b8e6 853d
00000070: 651a a0be ea32 3d3f 9906 183f 1f95 1cbf
00000080: 596d 32bf d2fb 503e b3c8 a63e 6afa 05bf
00000090: af7d d13e 7990 003f 1d07 2dbf 02df 863e
000000a0: 6adb f4be d403 2a3f 2cf9 f63e fd49 8e3e
000000b0: d493 413f 0f67 f93b c992 243f 2aef a93e
000000c0: 3926 42be 24cf 813e
0.73435867 0.17260928 -0.115478754 0.24705723 0.2579634 -0.09886706 -0.2361153 0.14023843
-0.39882514 0.6733358 -0.5711039 0.64797777 0.38020128 -0.34347364 -0.48345286 0.16697878
-0.23197882 0.2864763 0.116810545 0.3156959 0.37637803 0.60836494 0.20742846 -0.5254929
-0.06943112 -0.53058434 -0.32376716 0.06538147 -0.31270137 0.73905814 0.5938507 -0.6116504
-0.696981 0.20408562 0.32574996 -0.52335227 0.409162 0.5022045 -0.6758898 0.26342016
-0.4782365 0.6641209 0.48236978 0.27790824 0.7561619 0.0076111625 0.64286476 0.3319028
-0.18959893 0.25353348
