03b/GPS_1256775418/model_trad_seed_5678.pth (torch, 276498 bytes, 76 tensors)

_shift f4 [2]
2.6031306 -1.7499856
00000000: b199 2640 87ff dfbf

_scale f4 [2]
0.17389683 3.4761271
00000000: 0312 323e de78 5e40

weight f4 [50, 2]
0.06407507 0.5312157 -0.45883033 -0.5024672 -0.63681144 0.5784059 0.5208933 -0.25269008
0.53128374 0.20457661 -0.13006754 0.4515615 0.19898209 -0.2914811 0.44668478 0.12386477
-0.5738393 0.56606644 0.31386483 -0.6175799 0.12575552 -0.024315536 0.32588398 -0.65742666
0.08240287 -0.6386325 -0.20894799 -0.3132834 0.8045843 -0.35741344 -0.2434833 -0.5572519
-0.16277179 -0.1792453 -0.44243017 -0.47383958 -0.6648227 -0.10721195 0.049347542 0.27953094
0.5878217 0.024103284 0.27093115 -0.5247221 -0.257078 -0.41661593 -0.5377687 -0.61001074
0.29084444 0.6416239 -0.6774583 0.58625716 -0.22454976 0.23067248 -0.07955024 -0.5084776
-0.41949645 0.3735314 -0.5979876 -0.5273951 0.46098676 -0.10050458 0.40598133 -0.0052143335
0.54646254 0.19768715 -0.36026567 -0.6622101 0.75444365 0.48497003 -0.21069051 -0.15138465
0.057173602 0.36653453 0.0027554892 -0.66408277 -0.47270605 0.10739142 0.13180457 0.41314036
-0.16176175 0.44386214 0.15692891 0.53642493 0.20204923 -0.42328796 -0.22989824 -0.44246316
0.47592703 0.5750653 -0.12629955 -0.51047605 -0.39420325 -0.0011319518 0.699169 -0.03776604
0.07382321 -0.14208478 0.52054787 -0.095700085
00000000: ca39 833d c1fd 073f cfeb eabe b1a1 00bf
00000010: 1306 23bf 6912 143f 4359 053f 9860 81be
00000020: 3602 083f 887c 513e 6d30 05be 1233 e73e
00000030: f6c1 4b3e 033d 95be deb3 e43e d0ac fd3d
00000040: 22e7 12bf bbe9 103f e4b2 a03e b719 1ebf
00000050: 0ec6 003e 6031 c7bc 44da a63e 1d4d 28bf
00000060: d6c2 a83d 6b7d 23bf 76f6 55be af66 a0be
00000070: 3df9 4d3f e5fe b6be b053 79be 0fa8 0ebf
00000080: a6ad 26be 148c 37be 3586 e2be 1a9b f2be
00000090: d231 2abf f091 dbbd a620 4a3d ae1e 8f3e
000000a0: 7c7b 163f 4074 c53c 7db7 8a3e 3054 06bf
000000b0: ba9f 83be af4e d5be 36ab 09bf aa29 1cbf
000000c0: 90e9 943e 7741 243f e86d 2dbf f314 163f
000000d0: 5ff0 65be 6835 6c3e 3ceb a2bd 972b 02bf
000000e0: 3dc8 d6be 823f bf3e b715 19bf 5e03 07bf
000000f0: 7506 ec3e 58d5 cdbd c9dc cf3e 00dd aabb
00000100: f8e4 0b3f 806e 4a3e be74 b8be 9a86 29bf
00000110: 3823 413f fe4d f83e 41bf 57be 9404 1bbe
00000120: de2e 6a3d 6aaa bb3e 7095 343b 5401 2abf
00000130: 8706 f2be 08f0 db3d c7f7 063e 2287 d33e
00000140: dfa4 25be e641 e33e f9b1 203e 2553 093f
00000150: fee5 4e3e 33b9 d8be 726a 6bbe 888a e2be
00000160: b5ac f33e 7b37 133f ab54 01be 8fae 02bf
00000170: 02d5 c9be 005e 94ba bdfc 323f 90b0 1abd
00000180: a030 973d ac7e 11be a042 053f 68fe c3bd

bias f4 [50]
0.17064543 0.05915725 0.2029024 0.20151642 -0.01850918 -0.49291843 -0.49442023 0.026476696
-0.4100874 0.59332377 0.18752462 -0.37903804 0.4649357 -0.008469426 0.39123833 -0.284946
-0.5785582 -0.47197118 0.33756933 0.6115376 0.5100713 0.42409152 0.10606732 -0.2370428
-0.09803003 -0.19810833 0.69021493 -0.5322477 0.15677033 -0.5952777 -0.026851928 -0.23405151
0.57683486 -0.10673895 0.28191298 0.40167138 -0.47676793 0.34803176 0.028034486 -0.64896566
0.022665035 0.55334735 0.2806158 0.49671212 -0.16978979 0.47976297 -0.18439934 -0.65013623
-0.0039737774 0.3333084
00000000: adbd 2e3e df4e 723d a6c5 4f3e 525a 4e3e
00000010: 90a0 97bc ce5f fcbe a624 fdbe a8e5 d83c
00000020: faf6 d1be 11e4 173f 7406 403e 4611 c2be
00000030: 0d0c ee3e 59c3 0abc 6450 c83e 71e4 91be
00000040: 641c 14bf 35a6 f1be e3d5 ac3e ba8d 1c3f
00000050: 0894 023f 8622 d93e d339 d93d 59bb 72be
00000060: f8c3 c8bd e9dc 4abe edb1 303f 6341 08bf
00000070: 6788 203e 1f64 18bf 93f8 dbbc 33ab 6fbe
00000080: 73ab 133f f399 dabd e656 903e dfa7 cd3e
00000090: ed1a f4be 3831 b23e 94a8 e53c 9d22 26bf
000000a0: 06ac b93c 2ca8 0d3f e0ac 8f3e 0d51 fe3e
000000b0: 60dd 2dbe 7ea3 f53e 2ed3 3cbe 546f 26bf
000000c0: 7636 82bb 66a7 aa3e

mask f4 [50, 2]
1.0 0.0 1.0 0.0 1.0 0.0 1.0 0.0
1.0 0.0 1.0 0.0 1.0 0.0 1.0 0.0
1.0 0.0 1.0 0.0 1.0 0.0 1.0 0.0
1.0 0.0 1.0 0.0 1.0 0.0 1.0 0.0
1.0 0.0 1.0 0.0 1.0 0.0 1.0 0.0
1.0 0.0 1.0 0.0 1.0 0.0 1.0 0.0
1.0 0.0 1.0 0.0 1.0 0.0 1.0 0.0
1.0 0.0 1.0 0.0 1.0 0.0 1.0 0.0
1.0 0.0 1.0 0.0 1.0 0.0 1.0 0.0
1.0 0.0 1.0 0.0 1.0 0.0 1.0 0.0
1.0 0.0 1.0 0.0 1.0 0.0 1.0 0.0
1.0 0.0 1.0 0.0 1.0 0.0 1.0 0.0
1.0 0.0 1.0 0.0
00000000: 0000 803f 0000 0000 0000 803f 0000 0000
00000010: 0000 803f 0000 0000 0000 803f 0000 0000
00000020: 0000 803f 0000 0000 0000 803f 0000 0000
00000030: 0000 803f 0000 0000 0000 803f 0000 0000
00000040: 0000 803f 0000 0000 0000 803f 0000 0000
00000050: 0000 803f 0000 0000 0000 803f 0000 0000
00000060: 0000 803f 0000 0000 0000 803f 0000 0000
00000070: 0000 803f 0000 0000 0000 803f 0000 0000
00000080: 0000 803f 0000 0000 0000 803f 0000 0000
00000090: 0000 803f 0000 0000 0000 803f 0000 0000
000000a0: 0000 803f 0000 0000 0000 803f 0000 0000
000000b0: 0000 803f 0000 0000 0000 803f 0000 0000
000000c0: 0000 803f 0000 0000 0000 803f 0000 0000
000000d0: 0000 803f 0000 0000 0000 803f 0000 0000
000000e0: 0000 803f 0000 0000 0000 803f 0000 0000
000000f0: 0000 803f 0000 0000 0000 803f 0000 0000
00000100: 0000 803f 0000 0000 0000 803f 0000 0000
00000110: 0000 803f 0000 0000 0000 803f 0000 0000
00000120: 0000 803f 0000 0000 0000 803f 0000 0000
00000130: 0000 803f 0000 0000 0000 803f 0000 0000
00000140: 0000 803f 0000 0000 0000 803f 0000 0000
00000150: 0000 803f 0000 0000 0000 803f 0000 0000
00000160: 0000 803f 0000 0000 0000 803f 0000 0000
00000170: 0000 803f 0000 0000 0000 803f 0000 0000
00000180: 0000 803f 0000 0000 0000 803f 0000 0000

weight f4 [50, 2]
-0.6779825 0.076533325 0.08043334 -0.20311613 -0.6930464 0.04467402 0.4584478 0.37530515
0.110922605 -0.7053977 0.11525065 -0.5335612 0.5911693 -0.580984 -0.5579714 0.0063985866
-0.53610444 0.35131592 -0.41705963 -0.22608979 -0.7145718 0.24146098 0.5451283 -0.14742064
0.08077601 0.6747865 0.53620464 -0.6080552 0.037424646 -0.41953418 0.07567602 0.36589143
0.15682237 0.53061694 -0.16425346 0.3398635 -0.66111887 0.073929675 -0.7843052 -0.31442365
-0.6010134 0.1975352 0.15601991 0.0074105537 -0.09548512 -0.43392968 0.43476745 -0.67006993
0.051402275 -0.40314698 -0.3850283 -0.36853257 -0.43425885 0.536384 -0.13452877 -0.4587121
0.38409984 -0.28866267 0.42304885 -0.15356173 0.5145153 0.31315494 -0.27964997 0.5945672
0.29437652 -0.08136169 0.62073046 0.6127275 0.44068253 -0.67757773 -0.09228257 -0.23788005
-0.34899762 -0.45499325 -0.46957284 -0.3017651 -0.097409256 -0.030805925 -0.2936428 -0.2531051
0.24249524 -0.08767433 0.15309437 -0.08034769 0.63797855 0.5942579 0.06926973 0.025453491
-0.34122443 0.6102222 0.41642037 -0.6079509 -0.5451277 -0.6753534 0.016872318 0.42683068
0.2012544 -0.11121043 0.26777974 0.40982923
00000000: 4390 2dbf 81bd 9c3d 3cba a43d adfd 4fbe
00000010: 7d6b 31bf 1bfc 363d acb9 ea3e ff27 c03e
00000020: 642b e33d f294 34bf 8808 ec3d 7897 08bf
00000030: df56 173f 5ebb 14bf 37d7 0ebf 3cab d13b
00000040: 243e 09bf aedf b33e d788 d5be 1584 67be
00000050: 2dee 36bf 8c41 773e 878d 0b3f 70f5 16be
00000060: e56d a53d cfbe 2c3f b544 093f 81a9 1bbf
00000070: 964a 193d 2fcd d6be 07fc 9a3d 1f56 bb3e
00000080: 0b96 203e 83d6 073f 0f32 28be 9702 ae3e
00000090: 163f 29bf 7168 973d 3ac8 48bf 23fc a0be
000000a0: 04dc 19bf ab46 4a3e afc3 1f3e 3bd4 f23b
000000b0: b48d c3bd 082c debe d799 de3e b489 2bbf
000000c0: 318b 523d 4869 cebe 6e22 c5be 4db0 bcbe
000000d0: 2d57 debe 7650 093f e9c1 09be 50dc eabe
000000e0: bca8 c43e 98cb 93be dc99 d83e 493f 1dbe
000000f0: 46b7 033f d855 a03e 482e 8fbe 8e35 183f
00000100: 85b8 963e f5a0 a6bd 31e8 1e3f b6db 1c3f
00000110: 24a1 e13e bc75 2dbf a5fe bcbd d496 73be
00000120: d1af b2be e0f4 e8be da6b f0be f580 9abe
00000130: 817e c7bd b55c fcbc 5958 96be fe96 81be
00000140: ac50 783e 998e b3bd c5c4 1c3e 548d a4bd
00000150: 9052 233f 4921 183f 4add 8d3d d783 d03c
00000160: f8b4 aebe 8637 1c3f 0d35 d53e aca2 1bbf
00000170: 7d8d 0bbf f6e3 2cbf d137 8a3c 8d89 da3e
00000180: a215 4e3e 4bc2 e3bd 6d1a 893e 23d5 d13e

bias f4 [50]
0.57160556 -0.7062483 0.70849925 -0.25128204 -0.4813212 0.2192269 -0.11476923 -0.45897728
-0.71952665 0.095170446 0.5302229 -0.4634078 0.08731692 0.5946061 0.71540016 -0.21741624
-0.22572145 0.17974976 0.45212668 0.6015737 -0.3254617 0.65293133 0.34035525 -0.12693156
-0.48914015 -0.27949917 -0.3792824 -0.49584553 0.43811515 0.38235545 -0.059225943 0.36810222
0.310696 0.57304746 0.80693364 -0.002373503 -0.697631 0.41061008 0.11182848 -0.1376641
0.04487164 0.049129356 0.61697674 0.38906315 0.58125603 0.10154713 -0.10114111 0.24415141
0.57680136 0.70211387
00000000: be54 123f b0cc 34bf 3560 353f 0aa8 80be
00000010: bb6f f6be 047d 603e 210c ebbd 12ff eabe
00000020: e632 38bf b9e8 c23d b0bc 073f ca43 edbe
00000030: 37d3 b23d 1b38 183f 7724 373f 5da2 5ebe
00000040: 8623 67be 5210 383e 267d e73e bc00 1a3f
00000050: eaa2 a6be 8226 273f 0b43 ae3e 59fa 01be
00000060: 9470 fabe 841a 8fbe 4d31 c2be 77df fdbe
00000070: a150 e03e 18c4 c33e e796 72bd e577 bc3e
00000080: 8c13 9f3e 3db3 123f 3493 4e3f c68c 1bbb
00000090: f297 32bf 7c3b d23e 5506 e53d d1f7 0cbe
000000a0: 53cb 373d dd3b 493d 30f2 1d3f 4933 c73e
000000b0: 32cd 143f f1f7 cf3d 1223 cfbd d402 7a3e
000000c0: 41a9 133f bcbd 333f

weight f4 [50, 50]
0.0258656 0.08985933 -0.07408166 -0.0075415038 0.07126808 -0.13894624 -0.12335706 -0.13802737
0.06830589 0.03385902 0.040577106 0.105348736 -0.08507138 0.11360357 0.039328825 -0.06472514
-0.079125494 -0.13146955 -0.009033503 -0.06289852 -0.049401935 -0.0060130456 0.08509142 -0.11666229
-0.016266724 -0.09675316 -0.06558884 0.094844535 -0.1415068 -0.09589222 -0.13579974 -0.136122
-0.10911343 0.05513191 0.11921741 0.05041964 0.0071233725 -0.09409747 0.0050107487 0.07620481
0.09042775 -0.027043648 0.041190177 -0.1407844 0.07325946 -0.04647631 0.09166592 -0.10386546
0.12302367 0.08129737 -0.022400532 0.13280809 0.013013317 0.09480636 -0.040171597 0.12480973
-0.1183426 0.0399885 -0.0037557324 0.057789464 -0.10381936 -0.008208032 0.10193052 -0.07305921
-0.21612231 0.07591646 -0.04558334 -0.04252533 0.03394667 0.100336835 0.080596946 -0.004223854
-0.03327723 0.07208696 0.03481243 0.1139544 0.06823593 -0.04139435 0.060058564 -0.012066086
0.049186587 -0.03402386 -0.045780893 0.057204563 -0.2074559 0.08048957 -0.017568966 0.007992132
-0.11188782 -0.123679854 -0.035998628 0.05765649 0.02208418 0.018085815 -0.07765646 0.014988773
-0.053909626 0.13127683 0.080689475 -0.03152008 -0.18362032 0.026599549 -0.18865265 0.14332654
0.12641658 -0.015537379 -0.04227849 -0.089615986 0.11926892 -0.15176477 -0.18658045 0.19310823
0.03049819 -0.035332732 0.025392843 0.08091636 -0.04753545 0.11947812 -0.003659481 0.012190709
-0.106842145 0.082982354 0.017465075 0.09567768 -0.049851377 0.0472137 -0.13855399 0.082304485
0.035454854 -0.083699875 -0.053046573 0.01803669 -0.12263402 -0.121002935 -0.07473538 0.04957903
-0.044120718 -0.013671541 -0.030862104 -2.348229e-05 0.091463685 -0.047288444 0.0553795 -0.114573054
0.053830814 -0.13013434 -0.09909835 0.007540087 0.028091757 -0.07124963 -0.009866848 -0.17023608
-0.102535576 0.021233663 0.10781749 0.11917921 -0.039499123 -0.052044354 0.01967858 -0.05588287
-0.007321728 0.10975613 -0.11087439 0.018167164 0.056122858 -0.094581224 -0.076443315 -0.079256155
-0.03620716 0.004584929 0.16221578 0.13009347 0.043665107 -0.13885146 -0.043597694 -0.1828331
0.083078556 -0.08535314 0.12147408 0.040706232 0.054890886 0.20690015 0.14019656 -0.10712516
0.017776389 0.095457606 0.033059474 -0.03469849 -0.12097024 -0.054413788 -0.00062148133 0.024781736
0.00010799722 0.12569723 -0.046141777 -0.008630561 -0.08945884 0.10863623 0.10040875 0.1731329
0.10189485 0.14374214 -0.0039983224 0.06867438 0.14339094 -0.1537792 -0.11621964 -0.08710469
0.010113998 0.107221924 -0.10006906 -0.15333652 0.089965664 0.06294976 -0.16267867 0.008860757
0.04566117 0.10993305 0.11331128 -0.06297221 -0.074638635 -0.008891803 -0.102175795 0.006101805
0.08680075 0.039590716 -0.053760115 0.09561409 -0.07463338 0.07569013 0.11713617 0.07169346
0.10086478 -0.1644048 -0.08793707 -0.0025454452 -0.044900972 -0.04832951 0.035366267 -0.046428256
-0.06894043 0.07230243 -0.0067244354 0.097737454 0.044079263 -0.100542195 -0.087748736 -0.07626248
0.004277714 -0.071371034 -0.09015059 -0.2296107 0.019774575 0.0037078122 -0.16122974 -0.16180061
00000000: 18e4 d33c 2b08 b83d 20b8 97bd b81e f7bb
00000010: 00f5 913d ec47 0ebe a0a2 fcbd 0c57 0dbe
00000020: f5e3 8b3d c1af 0a3d 2e34 263d 14c1 d73d
00000030: e739 aebd fda8 e83d 4317 213d 9d8e 84bd
00000040: 8c0c a2bd f49f 06be 4201 14bc f0d0 80bd
00000050: af59 4abd 1509 c5bb 6944 ae3d a4ec eebd
00000060: cb41 85bc 8526 c6bd 7153 86bd da3d c23d
00000070: 29e7 10be 2463 c4bd 160f 0bbe 9163 0bbe
00000080: dd76 dfbd ffd1 613d 4228 f43d d384 4e3d
00000090: 2e6b e93b 2db6 c0bd 3531 a43b 4411 9c3d
000000a0: 2f32 b93d a48a ddbc 08b7 283d c929 10be
000000b0: 0e09 963d f15d 3ebd 58bb bb3d 6ab7 d4bd
000000c0: d5f3 fb3d 3c7f a63d 5281 b7bc d8fe 073e
000000d0: cf35 553c d629 c23d f98a 24bd 3e9c ff3d
000000e0: 9b5d f2bd fbca 233d bc22 76bb a5b4 6c3d
000000f0: 3f9f d4bd fb7a 06bc f3c0 d03d 11a0 95bd
00000100: 2b4f 5dbe 177a 9b3d 99b5 3abd 0a2f 2ebd
00000110: aa0b 0b3d 667d cd3d 0310 a53d 4168 8abb
00000120: b44d 08bd 54a2 933d 7b97 0e3d ed60 e93d
00000130: 47bf 8b3d 1f8d 29bd f8ff 753d d5b0 45bc
00000140: e077 493d 9a5c 0bbd bf84 3bbd 554f 6a3d
00000150: 526f 54be b7d7 a43d cbec 8fbc 6ef1 023c
00000160: 7125 e5bd dd4b fdbd 4c73 13bd 3629 6c3d
00000170: e2e9 b43c b428 943c 5a0a 9fbd 7893 753c
00000180: 57d0 5cbd 6f6d 063e 8640 a53d 331b 01bd
00000190: f706 3cbe 4ce7 d93c 292e 41be 31c4 123e
000001a0: 5973 013e 7e90 7ebc 362c 2dbd 9688 b7bd
000001b0: 4343 f43d 3968 1bbe f20e 3fbe 2abe 453e
000001c0: 57d7 f93c 0eb9 10bd a704 d03c 7ab7 a53d
000001d0: 88b4 42bd f2b0 f43d e7d3 6fbb 8abb 473c
000001e0: 0ed0 dabd a7f2 a93d eb12 8f3c a9f2 c33d
000001f0: f530 4cbd 2763 413d 19e1 0dbe 418f a83d
00000200: 1c39 113d d76a abbd 5d47 59bd aec1 933c
00000210: 8c27 fbbd 63d0 f7bd dd0e 99bd 6213 4b3d
00000220: edb7 34bd 99fe 5fbc 86d2 fcbc d5fb c4b7
00000230: 5051 bb3d 87b1 41bd 9dd5 623d 47a5 eabd
00000240: b37d 5c3d f041 05be 13f4 cabd d612 f73b
00000250: af20 e63c 53eb 91bd 8fa8 21bc 5e52 2ebe
00000260: 2cfe d1bd 38f2 ad3c 6bcf dc3d 3b14 f43d
00000270: d5c9 21bd 762c 55bd f934 a13c 70e5 64bd
00000280: 1beb efbb d2c7 e03d 1d12 e3bd 4ed3 943c
00000290: 15e1 653d cdb3 c1bd 508e 9cbd 0d51 a2bd
000002a0: f64d 14bd 2c3d 963b e51b 263e 3937 053e
000002b0: 2fda 323d 142f 0ebe 7f93 32bd 9a38 3bbe
000002c0: 1725 aa3d a1cd aebd 67c7 f83d 94bb 263d
000002d0: 44d5 603d a2dd 533e b08f 0f3e 7064 dbbd
000002e0: ca9f 913c 477f c33d 5f69 073d 0120 0ebd
000002f0: 3fbf f7bd fee0 5ebd e8ea 22ba 1103 cb3c
00000300: 917c e238 c6b6 003e 29ff 3cbd 3267 0dbc
00000310: 3236 b7bd ac7c de3d 1aa3 cd3d c049 313e
00000320: 3fae d03d 2431 133e 5c04 83bb 27a5 8c3d
00000330: 13d5 123e 4b78 1dbe 9004 eebd f263 b2bd
00000340: 2fb5 253c 2b97 db3d 02f1 ccbd 4004 1dbe
00000350: eb3f b83d ceeb 803d 3d95 26be b52c 113c
00000360: 3507 3b3d 9424 e13d bf0f e83d 93f7 80bd
00000370: 24dc 98bd edae 11bc 8b41 d1bd a6f1 c73b
00000380: 97c4 b13d e029 223d 9133 5cbd 52d1 c33d
00000390: 63d9 98bd 6d03 9b3d 17e5 ef3d 05d4 923d
000003a0: 3292 ce3d bb59 28be 5a18 b4bd 7cd1 26bb
000003b0: 15ea 37bd 2af5 45bd 38dc 103d 8e2b 3ebd
000003c0: a430 8dbd 4c13 943d a758 dcbb 932a c83d
000003d0: 758c 343d 11e9 cdbd 9cb5 b3bd 812f 9cbd
000003e0: 112c 8c3b fa2a 92bd dfa0 b8bd 111f 6bbe
000003f0: 4afe a13c c4fe 723b 6919 25be 0faf 25be

bias f4 [50]
0.02412132 0.08860547 0.12151396 0.036813844 0.14740543 0.054884467 0.074962236 0.1482171
-0.05413137 -0.0873331 -0.076655425 -0.11102613 -0.05106777 0.07017738 -0.029666515 -0.13518539
-0.004301213 -0.12350601 -0.046129324 -0.04464811 0.04379586 -0.008753682 -0.12339728 -0.06351541
0.023776751 0.113547176 0.08578546 -0.004010801 0.03376979 0.010872075 0.0873946 -0.07536087
-0.06113208 0.09003435 -0.11974058 0.025089994 0.08561739 -0.059744377 0.046224125 0.06110555
0.024923034 0.119323805 -0.114878915 0.112726815 0.0925474 0.124907434 0.041992996 0.06539496
-0.15109758 0.10143516
00000000: 139a c53c c976 b53d 50dc f83d 1dca 163d
00000010: 73f1 163e 89ce 603d cd85 993d 39c6 173e
00000020: dbb8 5dbd b2db b2bd 85fd 9cbd ab61 e3bd
00000030: 702c 51bd 29b9 8f3d 3107 f3bc 0a6e 0abe
00000040: 31f1 8cbb b8f0 fcbd 1af2 3cbd f0e0 36bd
00000050: 4a63 333d 9a6b 0fbc b7b7 fcbd 5e14 82bd
00000060: 76c7 c23c 6c8b e83d 4ab0 af3d 0a6d 83bb
00000070: 3152 0a3d ca20 323c f1fb b23d cd56 9abd
00000080: a265 7abd ee63 b83d 8d3a f5bd 8889 cd3c
00000090: 2c58 af3d 85b6 74bd 8255 3d3d d049 7a3d
000000a0: 642b cc3c 0a60 f43d a345 ebbd 51dd e63d
000000b0: 7e89 bd3d 78cf ff3d d900 2c3d cbed 853d
000000c0: 53b9 1abe 3dbd cf3d

mask f4 [50, 50]
1.0 1.0 1.0 1.0 1.0 1.0 1.0 1.0
1.0 1.0 1.0 1.0 1.0 1.0 1.0 1.0
1.0 1.0 1.0 1.0 1.0 1.0 1.0 1.0
1.0 1.0 1.0 1.0 1.0 1.0 1.0 1.0
1.0 1.0 1.0 1.0 1.0 1.0 1.0 1.0
1.0 1.0 1.0 1.0 1.0 1.0 1.0 1.0
1.0 1.0 1.0 1.0 1.0 1.0 1.0 1.0
1.0 1.0 1.0 1.0 1.0 1.0 1.0 1.0
1.0 1.0 1.0 1.0 1.0 1.0 1.0 1.0
1.0 1.0 1.0 1.0 1.0 1.0 1.0 1.0
1.0 1.0 1.0 1.0 1.0 1.0 1.0 1.0
1.0 1.0 1.0 1.0 1.0 1.0 1.0 1.0
1.0 1.0 1.0 1.0 1.0 1.0 1.0 1.0
1.0 1.0 1.0 1.0 1.0 1.0 1.0 1.0
1.0 1.0 1.0 1.0 1.0 1.0 1.0 1.0
1.0 1.0 1.0 1.0 1.0 1.0 1.0 1.0
1.0 1.0 1.0 1.0 1.0 1.0 1.0 1.0
1.0 1.0 1.0 1.0 1.0 1.0 1.0 1.0
1.0 1.0 1.0 1.0 1.0 1.0 1.0 1.0
1.0 1.0 1.0 1.0 1.0 1.0 1.0 1.0
1.0 1.0 1.0 1.0 1.0 1.0 1.0 1.0
1.0 1.0 1.0 1.0 1.0 1.0 1.0 1.0
1.0 1.0 1.0 1.0 1.0 1.0 1.0 1.0
1.0 1.0 1.0 1.0 1.0 1.0 1.0 1.0
1.0 1.0 1.0 1.0 1.0 1.0 1.0 1.0
1.0 1.0 1.0 1.0 1.0 1.0 1.0 1.0
1.0 1.0 1.0 1.0 1.0 1.0 1.0 1.0
1.0 1.0 1.0 1.0 1.0 1.0 1.0 1.0
1.0 1.0 1.0 1.0 1.0 1.0 1.0 1.0
1.0 1.0 1.0 1.0 1.0 1.0 1.0 1.0
1.0 1.0 1.0 1.0 1.0 1.0 1.0 1.0
1.0 1.0 1.0 1.0 1.0 1.0 1.0 1.0
00000000: 0000 803f 0000 803f 0000 803f 0000 803f
00000010: 0000 803f 0000 803f 0000 803f 0000 803f
00000020: 0000 803f 0000 803f 0000 803f 0000 803f
00000030: 0000 803f 0000 803f 0000 803f 0000 803f
00000040: 0000 803f 0000 803f 0000 803f 0000 803f
00000050: 0000 803f 0000 803f 0000 803f 0000 803f
00000060: 0000 803f 0000 803f 0000 803f 0000 803f
00000070: 0000 803f 0000 803f 0000 803f 0000 803f
00000080: 0000 803f 0000 803f 0000 803f 0000 803f
00000090: 0000 803f 0000 803f 0000 803f 0000 803f
000000a0: 0000 803f 0000 803f 0000 803f 0000 803f
000000b0: 0000 803f 0000 803f 0000 803f 0000 803f
000000c0: 0000 803f 0000 803f 0000 803f 0000 803f
000000d0: 0000 803f 0000 803f 0000 803f 0000 803f
000000e0: 0000 803f 0000 803f 0000 803f 0000 803f
000000f0: 0000 803f 0000 803f 0000 803f 0000 803f
00000100: 0000 803f 0000 803f 0000 803f 0000 803f
00000110: 0000 803f 0000 803f 0000 803f 0000 803f
00000120: 0000 803f 0000 803f 0000 803f 0000 803f
00000130: 0000 803f 0000 803f 0000 803f 0000 803f
00000140: 0000 803f 0000 803f 0000 803f 0000 803f
00000150: 0000 803f 0000 803f 0000 803f 0000 803f
00000160: 0000 803f 0000 803f 0000 803f 0000 803f
00000170: 0000 803f 0000 803f 0000 803f 0000 803f
00000180: 0000 803f 0000 803f 0000 803f 0000 803f
00000190: 0000 803f 0000 803f 0000 803f 0000 803f
000001a0: 0000 803f 0000 803f 0000 803f 0000 803f
000001b0: 0000 803f 0000 803f 0000 803f 0000 803f
000001c0: 0000 803f 0000 803f 0000 803f 0000 803f
000001d0: 0000 803f 0000 803f 0000 803f 0000 803f
000001e0: 0000 803f 0000 803f 0000 803f 0000 803f
000001f0: 0000 803f 0000 803f 0000 803f 0000 803f
00000200: 0000 803f 0000 803f 0000 803f 0000 803f
00000210: 0000 803f 0000 803f 0000 803f 0000 803f
00000220: 0000 803f 0000 803f 0000 803f 0000 803f
00000230: 0000 803f 0000 803f 0000 803f 0000 803f
00000240: 0000 803f 0000 803f 0000 803f 0000 803f
00000250: 0000 803f 0000 803f 0000 803f 0000 803f
00000260: 0000 803f 0000 803f 0000 803f 0000 803f
00000270: 0000 803f 0000 803f 0000 803f 0000 803f
00000280: 0000 803f 0000 803f 0000 803f 0000 803f
00000290: 0000 803f 0000 803f 0000 803f 0000 803f
000002a0: 0000 803f 0000 803f 0000 803f 0000 803f
000002b0: 0000 803f 0000 803f 0000 803f 0000 803f
000002c0: 0000 803f 0000 803f 0000 803f 0000 803f
000002d0: 0000 803f 0000 803f 0000 803f 0000 803f
000002e0: 0000 803f 0000 803f 0000 803f 0000 803f
000002f0: 0000 803f 0000 803f 0000 803f 0000 803f
00000300: 0000 803f 0000 803f 0000 803f 0000 803f
00000310: 0000 803f 0000 803f 0000 803f 0000 803f
00000320: 0000 803f 0000 803f 0000 803f 0000 803f
00000330: 0000 803f 0000 803f 0000 803f 0000 803f
00000340: 0000 803f 0000 803f 0000 803f 0000 803f
00000350: 0000 803f 0000 803f 0000 803f 0000 803f
00000360: 0000 803f 0000 803f 0000 803f 0000 803f
00000370: 0000 803f 0000 803f 0000 803f 0000 803f
00000380: 0000 803f 0000 803f 0000 803f 0000 803f
00000390: 0000 803f 0000 803f 0000 803f 0000 803f
000003a0: 0000 803f 0000 803f 0000 803f 0000 803f
000003b0: 0000 803f 0000 803f 0000 803f 0000 803f
000003c0: 0000 803f 0000 803f 0000 803f 0000 803f
000003d0: 0000 803f 0000 803f 0000 803f 0000 803f
000003e0: 0000 803f 0000 803f 0000 803f 0000 803f
000003f0: 0000 803f 0000 803f 0000 803f 0000 803f

weight f4 [50, 50]
-0.08505824 -0.02475916 -0.045949895 -0.019420538 0.040006578 0.0013570709 0.05548149 0.070639744
0.097828925 -0.029074235 0.107183635 -0.11924623 0.042558875 -0.040456317 0.030434612 0.06910527
0.035201166 0.011027793 -0.011948442 -0.034078658 -0.0466085 0.10015941 0.020144276 0.01650044
0.06944455 0.061144006 0.18865058 0.0025128569 -0.07261004 -0.0006543872 0.032734398 0.15108603
-0.2285996 -0.07142841 -0.09778002 0.12492012 -0.01632548 -0.14799227 -0.11830692 -0.0055974564
0.011623949 -0.010593801 -0.049960848 0.091025785 0.06225624 0.14835982 0.12605637 -0.037968867
-0.01372252 0.07638865 0.17284542 0.081304565 0.08377093 -0.1430257 0.1319871 0.028048249
0.07072933 0.0235342 0.020141559 -0.073475815 0.10359535 0.05592944 -0.17812343 0.04370057
0.012307835 -0.015028645 -0.12955803 -0.13251638 -0.09724144 -0.11575525 -0.00079937384 0.03029229
-0.061140582 0.007847672 -0.037030872 0.0066790855 0.11567941 0.12708005 -0.16023207 -0.051274747
-0.033561144 0.09714689 -0.020819252 0.09949713 -0.12554504 0.07119339 -0.10598996 -0.022076584
0.05724708 -0.039565563 0.047542613 -0.061513416 0.13539293 -0.12660114 -0.10225866 -0.117791206
-0.018360863 -0.0124614425 0.042549655 0.10676543 -0.1446195 -0.05351302 -0.16704264 0.04800239
-0.0061601666 0.11414175 0.18648057 0.080863446 0.10853216 0.037431918 -0.033638746 -0.1064221
0.07117283 0.12634532 0.14074281 -0.066244595 -0.000643683 -0.17161566 -0.078132905 0.0602238
-0.09897253 -0.14758964 0.16965896 0.05267559 -0.09256937 0.11378944 0.13544057 -0.056603096
0.19579136 0.018659037 -0.051606625 0.056089833 -0.010691623 -0.2333206 -0.084958896 -0.1466082
-0.16495302 -0.17156863 -0.16216731 0.08639968 0.14063261 0.13575174 -0.063710056 -0.09676793
0.1273899 -0.047004204 -0.11030079 0.11494097 -0.03641861 -0.05225602 0.08196826 -0.040949725
0.13194934 0.09421359 -0.036999274 0.08964563 0.051723853 -0.076911025 -0.026558591 -0.054786723
-0.09002397 0.1862104 -0.07350199 0.008791585 -0.052758746 -0.0074294526 0.0552216 -0.015813773
-0.046809237 0.07133259 0.16261761 -0.018790837 -0.08321013 -0.081677355 0.11003286 0.073229335
-0.13999021 0.17476249 0.086088635 0.018782692 0.020720243 -0.1290747 -0.020701753 0.09356652
-0.10519179 0.053520557 -0.01987061 -0.01046514 -0.075197786 -0.11038714 0.059245564 -0.13994445
0.1070103 0.044167854 0.011518179 0.034446385 -0.077176824 -0.060496826 -0.06950227 -0.11866547
0.015813604 0.087380424 -0.07529427 0.13679726 -0.02174244 -0.101744734 -0.094002604 0.08997108
-0.15751018 -0.09567637 0.01582779 -0.04134298 0.15856741 -0.0862051 0.014030486 0.11065407
0.08114932 -0.07753364 0.12989298 0.014292465 -0.08830461 -0.0019795299 -0.038482405 -0.117873974
0.06564352 0.046607405 0.1367099 -0.15734807 0.12770285 0.080514 0.09489991 0.095614724
-0.124600634 -0.15386459 0.029947832 0.13443814 0.047430497 -0.18148682 0.0060694246 -0.0536867
-0.14850692 0.035859387 -0.11144891 -0.011801703 -0.0122417165 0.031667862 -0.058889225 0.033545323
0.008973873 0.04402764 0.049707223 0.037629835 -0.04544661 0.033094257 0.0025966482 0.09035051
00000000: 0433 aebd b9d3 cabc f535 3cbd d217 9fbc
00000010: f0dd 233d bedf b13a 8f40 633d 92ab 903d
00000020: 885a c83d 172d eebc 1883 db3d 5e37 f4bd
00000030: 3752 2e3d 86b5 25bd 0252 f93c 1087 8d3d
00000040: 192f 103d ebad 343c 66c3 43bc 1096 0bbd
00000050: 8ee8 3ebd 6020 cd3d 9c05 a53c ee2b 873c
00000060: f238 8e3d 2372 7a3d 9e2d 413e beae 243b
00000070: 93b4 94bd 2e8b 2bba 8114 063d 4cb6 1a3e
00000080: 0316 6abe 0f49 92bd e440 c8bd 1fd6 ff3d
00000090: 03bd 85bc 498b 17be e64a f2bd de6a b7bb
000000a0: 6072 3e3c 9f91 2dbc bfa3 4cbd ba6b ba3d
000000b0: 6600 7f3d a3eb 173e ec14 013e 3e85 1bbd
000000c0: 6cd4 60bc a771 9c3d 64fe 303e 0283 a63d
000000d0: 1890 ab3d 5475 12be a027 073e 71c5 e53c
000000e0: 8ada 903d cbca c03c e9ff a43c 7d7a 96bd
000000f0: cd29 d43d 4516 653d fd65 36be 5eff 323d
00000100: cda6 493c b53a 76bc dcaa 04be 60b2 07be
00000110: 8526 c7bd 1711 edbd 128d 51ba 8927 f83c
00000120: 8c6e 7abd 8693 003c afad 17bd 3bdc da3b
00000130: 54e9 ec3d 4621 023e e013 24be 7805 52bd
00000140: 6977 09bd f3f4 c63d 238d aabc 27c5 cb3d
00000150: e18e 00be d7cd 913d 4411 d9bd f4d9 b4bc
00000160: ea7b 6a3d 800f 22bd 0bbc 423d 7ef5 7bbd
00000170: 72a4 0a3e bba3 01be fd6c d1bd 843c f1bd
00000180: 8569 96bc 142b 4cbc 8c48 2e3d d5a7 da3d
00000190: 2217 14be 7830 5bbd 3a0d 2bbe 279e 443d
000001a0: 39db c9bb 26c3 e93d c3f4 3e3e bc9b a53d
000001b0: 1c46 de3d 3652 193d c8c8 09bd d4f3 d9bd
000001c0: 10c3 913d ab60 013e e21e 103e 3fab 87bd
000001d0: d6bc 28ba 04bc 2fbe 2504 a0bd 3bad 763d
000001e0: 1cb2 cabd bd21 17be 14bb 2d3e 5cc2 573d
000001f0: 0395 bdbd 700a e93d efb0 0a3e a6d8 67bd
00000200: 887d 483e d6da 983c 7861 53bd 74be 653d
00000210: eb2b 2fbc 98eb 6ebe eefe adbd 7620 16be
00000220: 72e9 28be b0af 2fbe 300f 26be 51f2 b03d
00000230: ff01 103e 8102 0b3e 6b7a 82bd 442e c6bd
00000240: 7f72 023e 7b87 40bd 61e5 e1bd 2c66 eb3d
00000250: ae2b 15bd 690a 56bd fade a73d e6ba 27bd
00000260: ba1d 073e 0ef3 c03d 8d8c 17bd 2198 b73d
00000270: 64dc 533d 8783 9dbd 6791 d9bc 0b68 60bd
00000280: 7d5e b8bd f0ad 3e3e 3688 96bd 950a 103c
00000290: 8e19 58bd c472 f3bb 0b30 623d e38b 81bc
000002a0: 0bbb 3fbd d216 923d 3b85 263e 3eef 99bc
000002b0: 136a aabd 7546 a7bd e858 e13d 43f9 953d
000002c0: 9859 0fbe f0f4 323e 3d4f b03d 29de 993c
000002d0: 80bd a93c 282c 04be b996 a9bc ce9f bf3d
000002e0: cb6e d7bd 5f38 5b3d b1c7 a2bc fb75 2bbc
000002f0: 4c01 9abd a712 e2bd 7aab 723d 994d 0fbe
00000300: 3728 db3d 5ae9 343d bfb6 3c3c a717 0d3d
00000310: e20e 9ebd 85cb 77bd 3557 8ebd e206 f3bd
00000320: 888b 813c 82f4 b23d e233 9abd 9514 0c3e
00000330: 341d b2bc 8b5f d0bd 7084 c0bd c242 b83d
00000340: 594a 21be f9f1 c3bd 48a9 813c 4257 29bd
00000350: 7f5f 223e 4d8c b0bd 20e0 653c 9a9e e23d
00000360: 9d31 a63d f5c9 9ebd aa02 053e f12a 6a3c
00000370: 0cd9 b4bd 00bb 01bb ba9f 1dbd e967 f1bd
00000380: 1c70 863d 68e7 3e3d aefd 0b3e da1f 21be
00000390: 89c4 023e 86e4 a43d e25a c23d a7d1 c33d
000003a0: 9e2e ffbd ae8e 1dbe 2855 f53c 27aa 093e
000003b0: 7b46 423d aed7 39be 06e2 c63b 96e6 5bbd
000003c0: 3312 18be 4be1 123d 533f e4bd ee5b 41bc
000003d0: 7b91 48bc 29b6 013d d435 71bd d266 093d
000003e0: 2707 133c 5456 343d cd99 4b3d be21 1a3d
000003f0: 3926 3abd d88d 073d 872c 2a3b b009 b93d

bias f4 [50]
-0.0418223 0.10277874 0.050058465 -0.11392957 -0.021037843 0.096508466 -0.019898694 0.0019701647
0.0061201747 -0.16301265 0.13036852 0.080047645 -0.08949335 0.04292712 0.14103559 -0.17679368
-0.12999423 0.12335566 -0.086899094 -0.03319809 0.082556374 -0.0017875979 0.07568703 -0.112944104
0.04860792 0.13589658 0.056625932 -0.09092204 0.06496042 -0.068191 -0.13204615 -0.10315617
-0.08274208 0.044751313 -0.16670439 0.039061863 -0.07101467 -0.10745054 -0.011462186 0.13842557
0.07488437 0.052191768 -0.13489148 0.15788655 0.15966356 0.04149269 0.049856663 0.062035553
-0.09108485 -0.031295914
00000000: dc4d 2bbd a97d d23d 1b0a 4d3d e853 e9bd
00000010: 8e57 acbc 3ba6 c53d 9602 a3bc e11d 013b
00000020: bf8b c83b caec 26be 537f 053e 05f0 a33d
00000030: 4a48 b7bd 59d4 2f3d a26b 103e 6709 35be
00000040: 351d 05be e4a1 fc3d 27f8 b1bd b8fa 07bd
00000050: 5113 a93d d54d eaba cd01 9b3d 3d4f e7bd
00000060: 1919 473d 7928 0b3e 98f0 673d 5635 babd
00000070: f809 853d b9a7 8bbd 1b37 07be 8b43 d3bd
00000080: ae74 a9bd 274d 373d 8eb4 2abe 55ff 1f3d
00000090: 2470 91bd 070f dcbd e5cb 3bbc 6fbf 0d3e
000000a0: fa5c 993d 09c7 553d fe20 0abe 03ad 213e
000000b0: d87e 233e 3df4 293d 8036 4c3d fe18 7e3d
000000c0: b28a babd 2530 00bd

mask f4 [50, 50]
1.0 1.0 1.0 1.0 1.0 1.0 1.0 1.0
1.0 1.0 1.0 1.0 1.0 1.0 1.0 1.0
1.0 1.0 1.0 1.0 1.0 1.0 1.0 1.0
1.0 1.0 1.0 1.0 1.0 1.0 1.0 1.0
1.0 1.0 1.0 1.0 1.0 1.0 1.0 1.0
1.0 1.0 1.0 1.0 1.0 1.0 1.0 1.0
1.0 1.0 1.0 1.0 1.0 1.0 1.0 1.0
1.0 1.0 1.0 1.0 1.0 1.0 1.0 1.0
1.0 1.0 1.0 1.0 1.0 1.0 1.0 1.0
1.0 1.0 1.0 1.0 1.0 1.0 1.0 1.0
1.0 1.0 1.0 1.0 1.0 1.0 1.0 1.0
1.0 1.0 1.0 1.0 1.0 1.0 1.0 1.0
1.0 1.0 1.0 1.0 1.0 1.0 1.0 1.0
1.0 1.0 1.0 1.0 1.0 1.0 1.0 1.0
1.0 1.0 1.0 1.0 1.0 1.0 1.0 1.0
1.0 1.0 1.0 1.0 1.0 1.0 1.0 1.0
1.0 1.0 1.0 1.0 1.0 1.0 1.0 1.0
1.0 1.0 1.0 1.0 1.0 1.0 1.0 1.0
1.0 1.0 1.0 1.0 1.0 1.0 1.0 1.0
1.0 1.0 1.0 1.0 1.0 1.0 1.0 1.0
1.0 1.0 1.0 1.0 1.0 1.0 1.0 1.0
1.0 1.0 1.0 1.0 1.0 1.0 1.0 1.0
1.0 1.0 1.0 1.0 1.0 1.0 1.0 1.0
1.0 1.0 1.0 1.0 1.0 1.0 1.0 1.0
1.0 1.0 1.0 1.0 1.0 1.0 1.0 1.0
1.0 1.0 1.0 1.0 1.0 1.0 1.0 1.0
1.0 1.0 1.0 1.0 1.0 1.0 1.0 1.0
1.0 1.0 1.0 1.0 1.0 1.0 1.0 1.0
1.0 1.0 1.0 1.0 1.0 1.0 1.0 1.0
1.0 1.0 1.0 1.0 1.0 1.0 1.0 1.0
1.0 1.0 1.0 1.0 1.0 1.0 1.0 1.0
1.0 1.0 1.0 1.0 1.0 1.0 1.0 1.0
00000000: 0000 803f 0000 803f 0000 803f 0000 803f
00000010: 0000 803f 0000 803f 0000 803f 0000 803f
00000020: 0000 803f 0000 803f 0000 803f 0000 803f
00000030: 0000 803f 0000 803f 0000 803f 0000 803f
00000040: 0000 803f 0000 803f 0000 803f 0000 803f
00000050: 0000 803f 0000 803f 0000 803f 0000 803f
00000060: 0000 803f 0000 803f 0000 803f 0000 803f
00000070: 0000 803f 0000 803f 0000 803f 0000 803f
00000080: 0000 803f 0000 803f 0000 803f 0000 803f
00000090: 0000 803f 0000 803f 0000 803f 0000 803f
000000a0: 0000 803f 0000 803f 0000 803f 0000 803f
000000b0: 0000 803f 0000 803f 0000 803f 0000 803f
000000c0: 0000 803f 0000 803f 0000 803f 0000 803f
000000d0: 0000 803f 0000 803f 0000 803f 0000 803f
000000e0: 0000 803f 0000 803f 0000 803f 0000 803f
000000f0: 0000 803f 0000 803f 0000 803f 0000 803f
00000100: 0000 803f 0000 803f 0000 803f 0000 803f
00000110: 0000 803f 0000 803f 0000 803f 0000 803f
00000120: 0000 803f 0000 803f 0000 803f 0000 803f
00000130: 0000 803f 0000 803f 0000 803f 0000 803f
00000140: 0000 803f 0000 803f 0000 803f 0000 803f
00000150: 0000 803f 0000 803f 0000 803f 0000 803f
00000160: 0000 803f 0000 803f 0000 803f 0000 803f
00000170: 0000 803f 0000 803f 0000 803f 0000 803f
00000180: 0000 803f 0000 803f 0000 803f 0000 803f
00000190: 0000 803f 0000 803f 0000 803f 0000 803f
000001a0: 0000 803f 0000 803f 0000 803f 0000 803f
000001b0: 0000 803f 0000 803f 0000 803f 0000 803f
000001c0: 0000 803f 0000 803f 0000 803f 0000 803f
000001d0: 0000 803f 0000 803f 0000 803f 0000 803f
000001e0: 0000 803f 0000 803f 0000 803f 0000 803f
000001f0: 0000 803f 0000 803f 0000 803f 0000 803f
00000200: 0000 803f 0000 803f 0000 803f 0000 803f
00000210: 0000 803f 0000 803f 0000 803f 0000 803f
00000220: 0000 803f 0000 803f 0000 803f 0000 803f
00000230: 0000 803f 0000 803f 0000 803f 0000 803f
00000240: 0000 803f 0000 803f 0000 803f 0000 803f
00000250: 0000 803f 0000 803f 0000 803f 0000 803f
00000260: 0000 803f 0000 803f 0000 803f 0000 803f
00000270: 0000 803f 0000 803f 0000 803f 0000 803f
00000280: 0000 803f 0000 803f 0000 803f 0000 803f
00000290: 0000 803f 0000 803f 0000 803f 0000 803f
000002a0: 0000 803f 0000 803f 0000 803f 0000 803f
000002b0: 0000 803f 0000 803f 0000 803f 0000 803f
000002c0: 0000 803f 0000 803f 0000 803f 0000 803f
000002d0: 0000 803f 0000 803f 0000 803f 0000 803f
000002e0: 0000 803f 0000 803f 0000 803f 0000 803f
000002f0: 0000 803f 0000 803f 0000 803f 0000 803f
00000300: 0000 803f 0000 803f 0000 803f 0000 803f
00000310: 0000 803f 0000 803f 0000 803f 0000 803f
00000320: 0000 803f 0000 803f 0000 803f 0000 803f
00000330: 0000 803f 0000 803f 0000 803f 0000 803f
00000340: 0000 803f 0000 803f 0000 803f 0000 803f
00000350: 0000 803f 0000 803f 0000 803f 0000 803f
00000360: 0000 803f 0000 803f 0000 803f 0000 803f
00000370: 0000 803f 0000 803f 0000 803f 0000 803f
00000380: 0000 803f 0000 803f 0000 803f 0000 803f
00000390: 0000 803f 0000 803f 0000 803f 0000 803f
000003a0: 0000 803f 0000 803f 0000 803f 0000 803f
000003b0: 0000 803f 0000 803f 0000 803f 0000 803f
000003c0: 0000 803f 0000 803f 0000 803f 0000 803f
000003d0: 0000 803f 0000 803f 0000 803f 0000 803f
000003e0: 0000 803f 0000 803f 0000 803f 0000 803f
000003f0: 0000 803f 0000 803f 0000 803f 0000 803f

weight f4 [4, 50]
-0.09103613 0.10925551 -0.026738971 0.030227259 0.037689716 0.09622434 -0.11243684 0.066145346
-0.012733296 -0.017062463 -0.0037375987 -0.045622766 0.07300976 -0.007447809 -0.11583622 -0.029293172
0.019628718 0.043473706 -0.0001887232 -0.09003208 0.020357996 -0.07758192 0.11724909 0.12274177
-0.08675593 -0.06451459 -0.12983115 -0.07095969 0.09567313 -0.059825182 0.01172401 -0.076840095
0.13632102 -0.12777506 -0.10573591 0.12893142 -0.045061506 0.0510467 0.13666259 0.054076716
0.060523048 -0.034593597 0.093089715 -0.07132987 0.097800925 -0.06287631 0.13653089 0.047110736
0.12027858 0.050433844 -0.08540255 0.095378414 0.10185616 0.10375516 0.1258793 -0.043278933
-0.016895697 0.09214571 -0.032593206 0.13273074 0.041601673 0.08445148 0.08483648 0.06433219
-0.01734218 -0.04570335 0.07443343 -0.1303273 -0.1391358 0.046105444 -0.0053438544 -0.018665172
0.05944556 0.10537401 -0.09395027 -0.014876679 -0.12871298 0.025120571 0.057923213 -0.06290458
0.08138317 -0.08857897 0.09792234 0.065926075 -0.02810084 -0.0404073 0.00883545 0.117211506
0.019627512 -0.013473168 -0.010680333 -0.019463234 0.01652141 0.07143614 -0.00012619793 0.0686094
0.13389201 0.088408306 0.059248 -0.119180016 0.057394456 -0.0010175182 0.050071795 -0.067209855
0.09405447 -0.071036294 -0.15603863 0.025867622 0.08160066 -0.13659127 0.097134866 0.072029136
-0.068088345 0.031114098 0.10637053 -0.13569367 -0.111642964 0.042353865 -0.11928609 0.17290492
0.14516395 -0.09634092 0.110813275 -0.038000934 0.118755214 0.14979787 0.08734767 0.02148118
-0.110469244 -0.08016457 -0.08279678 0.052327257 0.12806195 -0.14467238 -0.15775348 -0.08860969
-0.038870316 -0.047994636 0.033386815 0.12578341 -0.020472674 -0.0723932 0.17416584 0.17118405
-0.1987511 -0.08431071 -0.09111169 0.1510955 0.06338271 -0.09192064 0.14601138 0.0014799965
0.14424282 -0.077855684 0.064211056 0.011106547 -0.13442665 0.007446335 0.052944977 -0.0048780567
0.073500626 -0.07235954 0.020669786 -0.033139475 -0.071137756 -0.0740706 0.013333499 0.06726387
-0.0905644 -0.02582277 0.086825475 -0.13205557 -0.065885164 0.031217102 0.10503182 0.061401945
0.04758147 0.009271059 0.12864737 0.06451377 -0.10679187 -0.07363711 0.016687356 0.07951685
-0.016079735 0.017687248 -0.029590435 -0.043644294 0.010263814 0.052954588 -0.02019746 0.06078921
0.036492784 0.049455747 0.022256445 -0.08495911 0.016009957 -0.07197355 0.056143213 0.06347565
00000000: 2771 babd 5ac1 df3d b00b dbbc 289f f73c
00000010: 8860 1a3d 4411 c53d 4945 e6bd 3677 873d
00000020: 509f 50bc 94c6 8bbc 80f2 74bb f0de 3abd
00000030: 2486 953d c00c f4bb 8a3b edbd 3cf8 efbc
00000040: 68cc a03c 7c11 323d 00e4 45b9 bd62 b8bd
00000050: d0c5 a63c 45e3 9ebd 4a20 f03d 0a60 fb3d
00000060: 18ad b1bd 3a20 84bd 75f2 04be 5053 91bd
00000070: 46f0 c33d 400b 75bd 1016 403c 575e 9dbd
00000080: bd97 0b3e 77d7 02be 128c d8bd 9906 043e
00000090: 6a92 38bd 5816 513d 47f1 0b3e 8c7f 5d3d
000000a0: 04e7 773d 04b2 0dbd d2a5 be3d 6515 92bd
000000b0: da4b c83d 4bc5 80bd c1ce 0b3e 30f7 403d
000000c0: 9e54 f63d b893 4e3d 88e7 aebd c255 c33d
000000d0: f699 d03d 967d d43d 81e6 003e 4045 31bd
000000e0: d868 8abc e4b6 bc3d 7480 05bd 91ea 073e
000000f0: 8466 2a3d e6f4 ac3d c0be ad3d 98c0 833d
00000100: 3011 8ebc 7033 3bbd 8e70 983d 8574 05be
00000110: 9d79 0ebe 10d9 3c3d 801b afbb b4e7 98bc
00000120: 307d 733d 54ce d73d 0069 c0bd 50bd 73bc
00000130: 56cd 03be a8c9 cd3c e440 6d3d 1ed4 80bd
00000140: 38ac a63d e468 b5bd 828b c83d 4004 873d
00000150: bc33 e6bc 2082 25bd 90c2 103c 960c f03d
00000160: e0c9 a03c 90be 5cbc 90fc 2ebc 5c71 9fbc
00000170: e857 873c 1c4d 923d 0054 04b9 1683 8c3d
00000180: fd1a 093e 6a0f b53d 08ae 723d a714 f4bd
00000190: 7316 6b3d 3f5e 85ba 1518 4d3d 52a5 89bd
000001a0: a19f c03d 7a7b 91bd 97c8 1fbe 56e8 d33c
000001b0: 3f1e a73d 95de 0bbe a5ee c63d 0384 933d
000001c0: e771 8bbd fee2 fe3c cbd8 d93d 48f3 0abe
000001d0: 11a5 e4bd 3f7b 2d3d 444c f4bd fd0d 313e
000001e0: dca5 143e 634e c5bd 12f2 e23d dea6 1bbd
000001f0: ef35 f33d 9d64 193e 56e3 b23d 4df9 af3c
00000200: b33d e2bd 522d a4bd 5c91 a9bd 1b55 563d
00000210: ac22 033e ff24 14be 218a 21be ff78 b5bd
00000220: 7b36 1fbd 0696 44bd 9dc0 083d 5ecd 003e
00000230: 4fb6 a7bc e342 94bd 8858 323e df4a 2f3e
00000240: 6985 4bbe 18ab acbd c498 babd c7b8 1a3e
00000250: cbce 813d e340 bcbd 0284 153e 71fc c13a
00000260: 64b4 133e cd72 9fbd 1681 833d 3cf8 353c
00000270: 24a7 09be 6300 f43b d5dc 583d 1bd8 9fbb
00000280: 7f87 963d 3d31 94bd af53 a93c 42bd 07bd
00000290: acb0 91bd 54b2 97bd c074 5a3c a4c1 893d
000002a0: d479 b9bd 468a d3bc 8ed1 b13d 9339 07be
000002b0: cdee 86bd 02bb ff3c ec1a d73d 9b80 7b3d
000002c0: cae4 423d a4e5 173c 23bc 033e cc1f 843d
000002d0: b2b5 dabd 0ecf 96bd ecb3 883c bbd9 a23d
000002e0: a6b9 83bc d9e4 903c a467 f2bc 5cc4 32bd
000002f0: 8e29 283c e9e6 583d 2575 a5bc 1bfe 783d
00000300: 7579 153d 1c92 4a3d 2653 b63c 0bff adbd
00000310: 5027 833c de66 93bd 6df6 653d 86ff 813d

bias f4 [4]
0.071796484 -0.07484133 0.13334958 0.009200753
00000000: 090a 933d 6946 99bd cb8c 083e c1be 163c

mask f4 [4, 50]
0.0 0.0 0.0 0.0 0.0 0.0 0.0 0.0
0.0 0.0 0.0 0.0 0.0 0.0 0.0 0.0
0.0 0.0 0.0 0.0 0.0 0.0 0.0 0.0
0.0 0.0 0.0 0.0 0.0 0.0 0.0 0.0
0.0 0.0 0.0 0.0 0.0 0.0 0.0 0.0
0.0 0.0 0.0 0.0 0.0 0.0 0.0 0.0
0.0 0.0 0.0 0.0 0.0 0.0 0.0 0.0
0.0 0.0 0.0 0.0 0.0 0.0 0.0 0.0
0.0 0.0 0.0 0.0 0.0 0.0 0.0 0.0
0.0 0.0 0.0 0.0 0.0 0.0 0.0 0.0
0.0 0.0 0.0 0.0 0.0 0.0 0.0 0.0
0.0 0.0 0.0 0.0 0.0 0.0 0.0 0.0
0.0 0.0 0.0 0.0 1.0 1.0 1.0 1.0
1.0 1.0 1.0 1.0 1.0 1.0 1.0 1.0
1.0 1.0 1.0 1.0 1.0 1.0 1.0 1.0
1.0 1.0 1.0 1.0 1.0 1.0 1.0 1.0
1.0 1.0 1.0 1.0 1.0 1.0 1.0 1.0
1.0 1.0 1.0 1.0 1.0 1.0 1.0 1.0
1.0 1.0 1.0 1.0 1.0 1.0 1.0 1.0
1.0 1.0 1.0 1.0 1.0 1.0 1.0 1.0
1.0 1.0 1.0 1.0 1.0 1.0 1.0 1.0
1.0 1.0 1.0 1.0 1.0 1.0 1.0 1.0
1.0 1.0 1.0 1.0 1.0 1.0 1.0 1.0
1.0 1.0 1.0 1.0 1.0 1.0 1.0 1.0
1.0 1.0 1.0 1.0 1.0 1.0 1.0 1.0
00000000: 0000 0000 0000 0000 0000 0000 0000 0000
00000010: 0000 0000 0000 0000 0000 0000 0000 0000
00000020: 0000 0000 0000 0000 0000 0000 0000 0000
00000030: 0000 0000 0000 0000 0000 0000 0000 0000
00000040: 0000 0000 0000 0000 0000 0000 0000 0000
00000050: 0000 0000 0000 0000 0000 0000 0000 0000
00000060: 0000 0000 0000 0000 0000 0000 0000 0000
00000070: 0000 0000 0000 0000 0000 0000 0000 0000
00000080: 0000 0000 0000 0000 0000 0000 0000 0000
00000090: 0000 0000 0000 0000 0000 0000 0000 0000
000000a0: 0000 0000 0000 0000 0000 0000 0000 0000
000000b0: 0000 0000 0000 0000 0000 0000 0000 0000
000000c0: 0000 0000 0000 0000 0000 0000 0000 0000
000000d0: 0000 0000 0000 0000 0000 0000 0000 0000
000000e0: 0000 0000 0000 0000 0000 0000 0000 0000
000000f0: 0000 0000 0000 0000 0000 0000 0000 0000
00000100: 0000 0000 0000 0000 0000 0000 0000 0000
00000110: 0000 0000 0000 0000 0000 0000 0000 0000
00000120: 0000 0000 0000 0000 0000 0000 0000 0000
00000130: 0000 0000 0000 0000 0000 0000 0000 0000
00000140: 0000 0000 0000 0000 0000 0000 0000 0000
00000150: 0000 0000 0000 0000 0000 0000 0000 0000
00000160: 0000 0000 0000 0000 0000 0000 0000 0000
00000170: 0000 0000 0000 0000 0000 0000 0000 0000
00000180: 0000 0000 0000 0000 0000 0000 0000 0000
00000190: 0000 803f 0000 803f 0000 803f 0000 803f
000001a0: 0000 803f 0000 803f 0000 803f 0000 803f
000001b0: 0000 803f 0000 803f 0000 803f 0000 803f
000001c0: 0000 803f 0000 803f 0000 803f 0000 803f
000001d0: 0000 803f 0000 803f 0000 803f 0000 803f
000001e0: 0000 803f 0000 803f 0000 803f 0000 803f
000001f0: 0000 803f 0000 803f 0000 803f 0000 803f
00000200: 0000 803f 0000 803f 0000 803f 0000 803f
00000210: 0000 803f 0000 803f 0000 803f 0000 803f
00000220: 0000 803f 0000 803f 0000 803f 0000 803f
00000230: 0000 803f 0000 803f 0000 803f 0000 803f
00000240: 0000 803f 0000 803f 0000 803f 0000 803f
00000250: 0000 803f 0000 803f 0000 803f 0000 803f
00000260: 0000 803f 0000 803f 0000 803f 0000 803f
00000270: 0000 803f 0000 803f 0000 803f 0000 803f
00000280: 0000 803f 0000 803f 0000 803f 0000 803f
00000290: 0000 803f 0000 803f 0000 803f 0000 803f
000002a0: 0000 803f 0000 803f 0000 803f 0000 803f
000002b0: 0000 803f 0000 803f 0000 803f 0000 803f
000002c0: 0000 803f 0000 803f 0000 803f 0000 803f
000002d0: 0000 803f 0000 803f 0000 803f 0000 803f
000002e0: 0000 803f 0000 803f 0000 803f 0000 803f
000002f0: 0000 803f 0000 803f 0000 803f 0000 803f
00000300: 0000 803f 0000 803f 0000 803f 0000 803f
00000310: 0000 803f 0000 803f 0000 803f 0000 803f

weight f4 [50, 2]
-0.42538553 0.08864057 -0.8366807 -0.37012964 -0.044941988 -0.09403223 0.0527952 -0.518735
-0.78702354 -0.3111685 0.25904897 -0.17974484 0.47140515 0.5878791 -0.30300447 -0.4696784
-0.06991151 -0.120245695 -0.42787912 0.6874996 0.04083199 -0.027117968 0.20452406 -0.5664111
-0.012366921 0.3128206 0.3740353 -0.2597034 0.18004444 0.02767098 0.56081706 0.098570526
-0.011963593 -0.59594476 0.71040124 0.15165937 -0.1085702 -0.565647 -0.33068258 0.3346508
0.33108738 -0.063259244 0.3402084 0.31382793 0.24415813 0.52707225 0.7477755 -0.16005027
-0.05470901 -0.17005217 0.12635353 0.0686295 -0.67703176 -0.6913538 0.1377265 -0.40848768
0.19517744 -0.07896829 -0.029293464 0.16034812 0.25720873 -0.21018016 -0.5695059 0.15188265
0.39774832 0.3686604 0.59943134 -0.29846746 0.22482361 -0.36444202 -0.6632431 0.2530808
-0.53603756 -0.2027809 0.12592937 -0.13610566 -0.20261121 -0.055048645 0.00028229682 0.6570335
-0.4209531 -0.0075252056 0.05827178 -0.4929726 0.004478085 0.22418702 -0.7901393 -0.36413065
0.45462918 -0.021167994 0.014719259 -0.06940466 -0.54552627 -0.14946729 0.5548967 0.40523225
-0.36536077 -0.3346705 0.6956693 -0.42018637
00000000: 22cc d9be 3089 b53d b530 56bf a281 bdbe
00000010: 1715 38bd f893 c0bd c83f 583d d1cb 04bf
00000020: 607a 49bf 7a51 9fbe 11a2 843e 080f 38be
00000030: 045c f13e 3f7f 163f 6723 9bbe b079 f0be
00000040: c42d 8fbd 6043 f6bd f912 dbbe f9ff 2f3f
00000050: 723f 273d 8026 debc c16e 513e 5100 11bf
00000060: a09e 4abc 062a a03e 8e81 bf3e d8f7 84be
00000070: 925d 383e 40ae e23c b591 0f3f 58df c93d
00000080: f202 44bc d68f 18bf dbdc 353f 984c 1b3e
00000090: 0e5a debd 3ece 10bf 3a4f a9be 5a57 ab3e
000000a0: 4984 a93e 108e 81bd cc2f ae3e 0eae a03e
000000b0: 9704 7a3e 35ee 063f 376e 3f3f 38e4 23be
000000c0: 8e16 60bd 2822 2ebe d262 013e a08d 8c3d
000000d0: f451 2dbf 90fc 30bf 2d08 0d3e 4c25 d1be
000000e0: 98dc 473e 20ba a1bd d9f8 efbc 4c32 243e
000000f0: ddb0 833e 7839 57be 23cb 11bf 2087 1b3e
00000100: aba5 cb3e 0ec1 bc3e 5574 193f bad0 98be
00000110: 2938 663e 2598 babe 4dca 29bf ce93 813e
00000120: c239 09bf cca5 4fbe a1f3 003e 485f 0bbe
00000130: 5079 4fbe b07a 61bd 3d01 9439 5933 283f
00000140: 2a87 d7be 0096 f6bb 64ae 6e3d e866 fcbe
00000150: e6bc 923b 4891 653e 9246 4abf 556f babe
00000160: 28c5 e83e 8068 adbc 0c29 713c 0824 8ebd
00000170: 9ca7 0bbf f40d 19be b60d 0e3f 9a7a cf3e
00000180: 9110 bbbe ef59 abbe 6217 323f ab22 d7be

bias f4 [50]
0.2823766 -0.64857846 -0.17077495 0.5926762 -0.65944904 -0.42463872 0.35491216 -0.46953908
0.223179 -0.050227202 0.48851308 0.19986102 0.74787205 0.11474238 0.38405034 -0.34287643
0.17371906 0.64367664 -0.7015618 0.15332673 -0.32260174 -0.43086624 0.4219436 0.51583546
0.7045096 0.32360092 -0.14785062 0.37261033 0.7318859 -0.7181628 -0.17515022 0.21153438
-0.0123775 0.40348685 0.22732039 -0.29127234 -0.6490441 -0.50106794 0.013559902 0.6735323
0.42026252 -0.515457 0.33883792 -0.32139108 -0.070806086 -0.50723106 -0.5001226 0.46383992
0.23398365 0.09996409
00000000: aa93 903e 3d09 26bf a1df 2ebe a1b9 173f
00000010: a7d1 28bf 3f6a d9be 0cb7 b53e 6d67 f0be
00000020: 0989 643e 0abb 4dbd 631e fa3e 5ea8 4c3e
00000030: 8b74 3f3f 0efe ea3d 3fa2 c43e 808d afbe
00000040: 69e3 313e fec7 243f 8e99 33bf af01 1d3e
00000050: 0e2c a5be 809a dcbe fe08 d83e cb0d 043f
00000060: be5a 343f 05af a53e 2766 17be c8c6 be3e
00000070: e05c 3b3f 84d9 37bf 945a 33be 789c 583e
00000080: ffca 4abc d495 ce3e adc6 683e a621 95be
00000090: c127 26bf fd45 00bf 5a2a 5e3c 9d6c 2c3f
000000a0: a62c d73e fdf4 03bf 2a7c ad3e 5f8d a4be
000000b0: c802 91bd e5d9 01bf 0908 00bf 6d7c ed3e
000000c0: 6999 6f3e f9b9 cc3d

mask f4 [50, 2]
1.0 0.0 1.0 0.0 1.0 0.0 1.0 0.0
1.0 0.0 1.0 0.0 1.0 0.0 1.0 0.0
1.0 0.0 1.0 0.0 1.0 0.0 1.0 0.0
1.0 0.0 1.0 0.0 1.0 0.0 1.0 0.0
1.0 0.0 1.0 0.0 1.0 0.0 1.0 0.0
1.0 0.0 1.0 0.0 1.0 0.0 1.0 0.0
1.0 0.0 1.0 0.0 1.0 0.0 1.0 0.0
1.0 0.0 1.0 0.0 1.0 0.0 1.0 0.0
1.0 0.0 1.0 0.0 1.0 0.0 1.0 0.0
1.0 0.0 1.0 0.0 1.0 0.0 1.0 0.0
1.0 0.0 1.0 0.0 1.0 0.0 1.0 0.0
1.0 0.0 1.0 0.0 1.0 0.0 1.0 0.0
1.0 0.0 1.0 0.0
00000000: 0000 803f 0000 0000 0000 803f 0000 0000
00000010: 0000 803f 0000 0000 0000 803f 0000 0000
00000020: 0000 803f 0000 0000 0000 803f 0000 0000
00000030: 0000 803f 0000 0000 0000 803f 0000 0000
00000040: 0000 803f 0000 0000 0000 803f 0000 0000
00000050: 0000 803f 0000 0000 0000 803f 0000 0000
00000060: 0000 803f 0000 0000 0000 803f 0000 0000
00000070: 0000 803f 0000 0000 0000 803f 0000 0000
00000080: 0000 803f 0000 0000 0000 803f 0000 0000
00000090: 0000 803f 0000 0000 0000 803f 0000 0000
000000a0: 0000 803f 0000 0000 0000 803f 0000 0000
000000b0: 0000 803f 0000 0000 0000 803f 0000 0000
000000c0: 0000 803f 0000 0000 0000 803f 0000 0000
000000d0: 0000 803f 0000 0000 0000 803f 0000 0000
000000e0: 0000 803f 0000 0000 0000 803f 0000 0000
000000f0: 0000 803f 0000 0000 0000 803f 0000 0000
00000100: 0000 803f 0000 0000 0000 803f 0000 0000
00000110: 0000 803f 0000 0000 0000 803f 0000 0000
00000120: 0000 803f 0000 0000 0000 803f 0000 0000
00000130: 0000 803f 0000 0000 0000 803f 0000 0000
00000140: 0000 803f 0000 0000 0000 803f 0000 0000
00000150: 0000 803f 0000 0000 0000 803f 0000 0000
00000160: 0000 803f 0000 0000 0000 803f 0000 0000
00000170: 0000 803f 0000 0000 0000 803f 0000 0000
00000180: 0000 803f 0000 0000 0000 803f 0000 0000

weight f4 [50, 2]
0.32172996 -0.49208406 -0.34648865 -0.26378626 0.031889584 0.17234595 -0.003569252 0.44441438
-0.39467496 -0.3781467 -0.0832742 -0.5441941 -0.3753416 -0.62543863 -0.20987925 0.54967105
0.083070144 -0.13360964 0.20953678 -0.4932773 -0.026818262 0.6499312 -0.34096232 -0.511986
0.023600262 0.23277052 -0.210449 -0.6422122 0.39481744 -0.5406113 0.7062411 -0.3097303
0.5209076 0.7013082 -0.09685542 -0.45695132 0.054106694 -0.5173322 -0.2616166 -0.5060191
-0.37586278 -0.6737794 -0.43642485 -0.4019493 0.61975896 -0.10379728 0.48425478 0.10759101
0.09684031 -0.58071196 0.61831236 0.4145813 0.5734777 -0.42531976 0.029323563 -0.15342395
-0.4004801 0.07351635 -0.19446126 0.090017684 0.060100425 0.4234165 0.1138888 0.6864698
0.123822086 -0.47749463 -0.57893616 0.6491695 0.21252352 -0.50041234 -0.20865804 -0.6664148
-0.4675988 0.56550425 -0.62624395 -0.52066433 0.43676695 -0.34192446 0.26182148 0.3456866
0.060634878 0.18373524 0.6930184 -0.13017927 0.20885672 -0.2558441 -0.017798245 0.6067657
-0.6123694 -0.0513704 -0.027703166 -0.14110395 -0.65628034 -0.08355262 -0.1780401 -0.54787064
-0.56208277 0.56785387 -0.43551522 -0.37803787
00000000: cab9 a43e 71f2 fbbe f666 b1be fe0e 87be
00000010: a79e 023d 757b 303e 1dea 69bb 488a e33e
00000020: d612 cabe 729c c1be aa8b aabd 4e50 0bbf
00000030: c62c c0be bf1c 20bf 96ea 56be 3eb7 0c3f
00000040: ae20 aa3d f7d0 08be cf90 563e d88e fcbe
00000050: f9b1 dbbc e461 263f 9d92 aebe 8411 03bf
00000060: 5655 c13c 655b 6e3e f17f 57be 0568 24bf
00000070: 8325 ca3e 8165 0abf 37cc 343f f894 9ebe
00000080: 335a 053f ef88 333f 225c c6bd 86f5 e9be
00000090: fb9e 5d3d e26f 04bf 9cf2 85be 788a 01bf
000000a0: 1671 c0be cf7c 2cbf 1473 dfbe 4ccc cdbe
000000b0: 86a8 1e3f ab93 d4bd 3ef0 f73e ad58 dc3d
000000c0: 3654 c63d 8aa9 14bf b849 1e3f 0044 d43e
000000d0: 6fcf 123f 83c3 d9be f837 f03c 2b1b 1dbe
000000e0: ba0b cdbe bd8f 963d da20 47be 315b b83d
000000f0: dd2b 763d 0cca d83e 883e e93d 7cbc 2f3f
00000100: 6f96 fd3d 2d7a f4be 2935 14bf f92f 263f
00000110: c49f 593e 061b 00bf 74aa 55be 299a 2abf
00000120: 1c69 efbe e3c4 103f 8651 20bf 424a 05bf
00000130: eb9f df3e b910 afbe 770d 863e d6fd b03e
00000140: 475c 783d 1725 3c3e a769 313f b74d 05be
00000150: 89de 553e fffd 82be a0cd 91bc ff54 1b3f
00000160: 3ec4 1cbf c569 52bd c0f1 e2bc 8e7d 10be
00000170: fd01 28bf a31d abbd 2550 36be 4041 0cbf
00000180: a8e4 0fbf df5e 113f dafb debe 2e8e c1be

bias f4 [50]
0.49862206 -0.0040740496 -0.005629857 0.28238964 -0.34451696 -0.436712 0.16982879 -0.5356351
-0.5105377 0.552627 0.17792992 -0.5543771 0.7534526 0.13896136 -0.59681255 0.75831616
-0.61858296 -0.25006288 0.6010627 0.23012085 -0.5682642 -0.54966235 0.63569367 -0.07294631
0.8095085 -0.70597357 0.3720547 -0.4143863 0.3097011 0.062474534 -0.16287671 -0.44581044
-0.7023543 0.1960429 0.27906445 0.5315352 -0.22953233 0.68230873 0.3185917 0.5948608
-0.5733565 0.7771066 0.6987555 -0.582922 0.505502 -0.39483398 0.32282114 0.30540535
0.6062249 -0.6342736
00000000: 644b ff3e 9b7f 85bb aa7a b8bb 6095 903e
00000010: 8764 b0be b798 dfbe 99e7 2d3e 621f 09bf
00000020: 99b2 02bf f778 0d3f 4333 363e a8eb 0dbf
00000030: 45e2 403f e34b 0e3e b5c8 18bf 0221 423f
00000040: 745b 1ebf 3e08 80be 3fdf 193f cda4 6b3e
00000050: c379 11bf acb6 0cbf d2bc 223f e064 95bd
00000060: f33b 4f3f afba 34bf f47d be3e 712a d4be
00000070: 2591 9e3e 4ce5 7f3d 27c9 26be 4441 e4be
00000080: 7ecd 33bf 78bf 483e 89e1 8e3e b112 083f
00000090: 860a 6bbe c9ab 2e3f 741e a33e cc48 183f
000000a0: 7ec7 12bf 75f0 463f a4e1 323f 603a 15bf
000000b0: 9468 013f ae27 cabe d048 a53e 175e 9c3e
000000c0: 8e31 1b3f c15f 22bf
