03b/GPS_1256775418/model_ai_seed_98765.pth (torch, 278418 bytes, 76 tensors)

_shift f4 [2]
00000000: 6ff6 2540 8728 debf
2.593166 -1.7356118

_scale f4 [2]
00000000: 4304 313e b768 5d40
0.17286782 3.4595163

weight f4 [50, 2]
00000000: ed7e 0bbf a612 ef3e 6702 943e 895e 22bf
00000010: 2b84 d8be 3291 22bf 2acb 8fbe d159 263f
00000020: d6b1 6abe 08e0 863e 1ad6 093f 9601 ed3e
00000030: 262e 0f3d b4d3 213e 8ca2 1abd 421d ed3e
00000040: 1e3f 16bf e07b 17be 41f0 063e ce71 dabe
00000050: 1679 a43d 7dba 133f 6214 f6be 709c 12bd
00000060: dd85 f5bd 02c0 de3e f2f1 a7be 4059 333d
00000070: 68e4 473c e3e4 09bf f082 fe3d 9358 273f
00000080: 8d97 cebe 169d 81be cfa7 15bf e83c 003e
00000090: 2ddc 05bf 1ecb d53e 1ff0 bb3e 315b f9be
000000a0: 0e41 1a3f c073 37bd a3e0 26bf 325e b93e
000000b0: 7d32 2dbf a0c3 d93c 2574 0cbf 52b0 973e
000000c0: 7c4f 4cbf 64ff 44be a364 2c3f 203a e53d
000000d0: 7c53 973e a013 6bbd ffbf 2bbf 506c 3b3e
000000e0: 3b8c f8be 44b5 1fbf d255 b4be 9299 ff3e
000000f0: c669 19bf a130 32bf 44d4 49be 2f63 15bf
00000100: dcc9 193f 1869 2c3e 35e0 f6bd 4f08 103f
00000110: 84db 633e 757f 14bf bc20 aa3e ca2e c03e
00000120: be98 16bd a770 bbbe e954 1fbf 287b 01bf
00000130: df9c 01bf 7571 143f a89b 23bf a89f 8a3e
00000140: c985 12be 821c 30bf 688a 5f3e 1708 c1be
00000150: 1e01 f1be 595c 06bf c193 28bf e0c7 88bd
00000160: f5ce f7be 5596 a7be debd aebe 1825 443e
00000170: 3bdc 7bbe 2d75 01bf cbeb 043f b80f cf3d
00000180: 9755 b2be 11df 16bf d686 173f c020 a6bc
-0.5449055 0.46693915 0.28908083 -0.634255 -0.42288336 -0.635028 -0.2808469 0.649808
-0.22919402 0.26342797 0.5384232 0.46290272 0.03495612 0.15803415 -0.037752673 0.46311384
-0.5869006 -0.14793348 0.13177587 -0.4266495 0.08030908 0.57706434 -0.48062426 -0.03579372
-0.11988423 0.43505865 -0.32801777 0.043786287 0.012200452 -0.5386488 0.12427318 0.6536953
-0.4035 -0.2531516 -0.5845918 0.12523234 -0.52289087 0.4175653 0.36706635 -0.48702386
0.60255516 -0.044788122 -0.6518652 0.36204678 -0.67655164 0.02658254 -0.5486472 0.2962671
-0.79808784 -0.19238049 0.6734106 0.11192727 0.2955588 -0.057391763 -0.6708984 0.18303037
-0.48544487 -0.62385964 -0.35221726 0.49921852 -0.5992702 -0.6960545 -0.19709879 -0.5835447
0.6007364 0.16836965 -0.12054483 0.5626268 0.22251707 -0.58006984 0.332281 0.37535697
-0.03676676 -0.36609384 -0.6223894 -0.50578547 -0.5062999 0.5798562 -0.6390939 0.27074933
-0.14308847 -0.687935 0.21830142 -0.37701485 -0.47071165 -0.5248466 -0.65850455 -0.06678748
-0.48400083 -0.32731882 -0.34129232 0.19154775 -0.2459573 -0.5056942 0.5192229 0.1011042
-0.34830925 -0.5893412 0.5919012 -0.020279288

bias f4 [50]
00000000: 94ec e03d bbf2 debd bac2 053e 80d9 5abc
00000010: d36f bc3e 8612 cebe b43d 9fbe d3b3 b7bd
00000020: 4509 d4be 772d d6be 4177 2fbf 673c d1be
00000030: 7160 b639 af8f efbe 3dfa 10bf 45d5 003f
00000040: b63c d53e 143e 3bbf 0cbd 1cbf 12a3 f7bd
00000050: fba2 0ebf 2fd9 923e ce0f 16bf 6223 acbe
00000060: 3195 003f 2ebd d5be fcc1 003f 0a06 6ebe
00000070: b0e4 7a3e e71f f7be d917 4fbe 4297 94bc
00000080: ffad 103f 5ebd ff3e b2fe b9bd ba8d 0ebe
00000090: 48a4 cebe e599 5b3e 4367 1abf 91a9 44be
000000a0: 2d34 12bf e244 c73e 7c74 81be 9e20 f63d
000000b0: 84a0 7c3e c38c 513e aef7 2c3f 2436 4ebf
000000c0: ac34 e8be e26f 3e3e
0.10982624 -0.10886141 0.13062564 -0.01335752 0.36804065 -0.40248507 -0.31101763 -0.089698456
-0.41413322 -0.41831562 -0.6854134 -0.40866396 0.000347856 -0.4678931 -0.56631833 0.50325423
0.4164788 -0.731416 -0.6122596 -0.1209165 -0.5571744 0.28681323 -0.58617866 -0.33620745
0.5022765 -0.41745895 0.50295997 -0.23244491 0.245013 -0.48266527 -0.20223941 -0.018138532
0.56515497 0.49949163 -0.090817824 -0.13921252 -0.40359712 0.21445425 -0.60313815 -0.1920531
-0.57110864 0.3891974 -0.25284183 0.1201794 0.24670607 0.20463853 0.6756543 -0.8055136
-0.45352685 0.18597367

mask f4 [50, 2]
00000000: 0000 803f 0000 0000 0000 803f 0000 0000
00000010: 0000 803f 0000 0000 0000 803f 0000 0000
00000020: 0000 803f 0000 0000 0000 803f 0000 0000
00000030: 0000 803f 0000 0000 0000 803f 0000 0000
00000040: 0000 803f 0000 0000 0000 803f 0000 0000
00000050: 0000 803f 0000 0000 0000 803f 0000 0000
00000060: 0000 803f 0000 0000 0000 803f 0000 0000
00000070: 0000 803f 0000 0000 0000 803f 0000 0000
00000080: 0000 803f 0000 0000 0000 803f 0000 0000
00000090: 0000 803f 0000 0000 0000 803f 0000 0000
000000a0: 0000 803f 0000 0000 0000 803f 0000 0000
000000b0: 0000 803f 0000 0000 0000 803f 0000 0000
000000c0: 0000 803f 0000 0000 0000 803f 0000 0000
000000d0: 0000 803f 0000 0000 0000 803f 0000 0000
000000e0: 0000 803f 0000 0000 0000 803f 0000 0000
000000f0: 0000 803f 0000 0000 0000 803f 0000 0000
00000100: 0000 803f 0000 0000 0000 803f 0000 0000
00000110: 0000 803f 0000 0000 0000 803f 0000 0000
00000120: 0000 803f 0000 0000 0000 803f 0000 0000
00000130: 0000 803f 0000 0000 0000 803f 0000 0000
00000140: 0000 803f 0000 0000 0000 803f 0000 0000
00000150: 0000 803f 0000 0000 0000 803f 0000 0000
00000160: 0000 803f 0000 0000 0000 803f 0000 0000
00000170: 0000 803f 0000 0000 0000 803f 0000 0000
00000180: 0000 803f 0000 0000 0000 803f 0000 0000
1.0 0.0 1.0 0.0 1.0 0.0 1.0 0.0
1.0 0.0 1.0 0.0 1.0 0.0 1.0 0.0
1.0 0.0 1.0 0.0 1.0 0.0 1.0 0.0
1.0 0.0 1.0 0.0 1.0 0.0 1.0 0.0
1.0 0.0 1.0 0.0 1.0 0.0 1.0 0.0
1.0 0.0 1.0 0.0 1.0 0.0 1.0 0.0
1.0 0.0 1.0 0.0 1.0 0.0 1.0 0.0
1.0 0.0 1.0 0.0 1.0 0.0 1.0 0.0
1.0 0.0 1.0 0.0 1.0 0.0 1.0 0.0
1.0 0.0 1.0 0.0 1.0 0.0 1.0 0.0
1.0 0.0 1.0 0.0 1.0 0.0 1.0 0.0
1.0 0.0 1.0 0.0 1.0 0.0 1.0 0.0
1.0 0.0 1.0 0.0

weight f4 [50, 4]
00000000: a95b e23e f6b5 ee3d dfbe 61be e081 fd3e
00000010: 2a4a d3bd 3929 ebbe 4fb5 89be ef7a f23d
00000020: a8f9 cb3e 1896 91be c4c8 09bf 799a ad3e
00000030: b623 b4be 5e47 68ba a635 9f3d 719e 99bc
00000040: daa6 0cbf b2a9 35bc 1dad 9dbe 5ea8 5ebe
00000050: e33d cebe 5d74 b93e a0ea 283e c8fe 29be
00000060: 983c 073e 4ee3 013e 0765 a1be 3d37 4c3e
00000070: 97f7 29be 0bf8 adbe ce92 343e 0511 b6be
00000080: 10d7 993e 0a7a d2bd f258 90bd edf6 fd3e
00000090: 5968 893e c9e6 0d3f 73c0 05be 4f18 313e
000000a0: c221 033e b33b 99bd 926f c9be d057 bebe
000000b0: acf5 973e e754 eb3e 66f2 bebd 5d34 9fbd
000000c0: 9857 bb3e aecd 973e f573 a33e be9a b43e
000000d0: d629 dabd 3175 43be 01b6 a43e db60 8bbe
000000e0: 78c4 493e 65a9 39be a198 ea3e 150d 323e
000000f0: d765 08be 4139 ddbe 86cf 8a3e 333c d33e
00000100: 3c66 9c3d 1590 a3be 6998 143e 61e6 963b
00000110: ae3a 0bbe 3beb 9abe ef59 0abe 5e3b 193e
00000120: 791d 9abe 5df4 383e 2e4d 8cbe da3f 6e3e
00000130: 95f8 13bd ac61 5dbe dd15 88be bf11 ddbe
00000140: a8c9 60bd 9afa 933c dd62 5e3d 4447 bb3e
00000150: 3183 673e ef6d ad3d 6482 b23e 4625 9dbe
00000160: fd16 84be 8c29 fd3d 6df8 aabd e3a7 f13e
00000170: 45ae f1be a677 e1be 01d4 69be c51b c03e
00000180: 6451 8f3e f988 cebc cd07 cc3e 857f d7be
00000190: 594c 3ebe 0548 1abf 093c d9be 521d 8cbe
000001a0: a25d f03d 54cf fa3e 5c4b 563e f82f 8fbe
000001b0: 31dc 29bf dace ccbd 660a 57be f48b cdbe
000001c0: bf87 893d 0257 0bbd fb77 2ebe e3d5 3abe
000001d0: 0ba3 f43d a8c1 153f ef5c f33e a677 43be
000001e0: 6bd8 c4be d286 bdbd 9def ff3d 9e69 883d
000001f0: 0ccc 25bd 0914 e13e 4c32 8ebc b2e0 d63d
00000200: df4c ddbe 8376 8dbe 3944 1bbe 5c8d d4be
00000210: cdda 84bc 7b19 8bbe 1bf7 823e c464 953d
00000220: 0f35 cebe a8e1 39be 22f6 a03e 1cd6 8c3e
00000230: 1639 9a3e c629 4dbe 6176 e53d 59c7 f7be
00000240: 0bd5 e33d de30 b6be 4889 c7bd 7135 aebe
00000250: a2ae bd3c 60e8 3dbe 4033 193f 8ead 873d
00000260: 650a 433e c349 9e3e d675 0e3e b12e f2bd
00000270: c2f0 493e 9466 f2be f066 f9be ddf6 193e
00000280: 1f8c 6c3e e6af 91ba bb6b a1ba 1202 9a3c
00000290: 66b1 c4be f42f 8abd 74d1 76be 33f3 d63e
000002a0: e5e4 c83e 3770 743a 712b 75be e157 e53d
000002b0: 0a49 963e f5c7 3bbe 24c1 71be 982f 0e3e
000002c0: ca0b a6be 96f1 c63c 9018 aebe 2216 843e
000002d0: 4f03 f1be 2ba4 05be 4887 cfbe c3bf dbbe
000002e0: e2bd d03c 2414 7c3d 1036 0a3e da37 da3e
000002f0: b15f 5a3e 498d c63e f26f 8f3e e12f fbbe
00000300: bcea 53be d9fb 91be 3b09 403e bbd6 a13b
00000310: 1b33 103f cae0 873e f9fc 91be f1af ce3e
0.44210556 0.116558 -0.22045468 0.4951315 -0.1031688 -0.45929888 -0.2689614 0.11839854
0.3983891 -0.28434825 -0.5382197 0.33906916 -0.35183495 -0.0008860732 0.077739045 -0.018752309
-0.54942095 -0.011087822 -0.30796137 -0.21743914 -0.4028159 0.3622159 0.16495752 -0.16601098
0.13206708 0.12684366 -0.3152239 0.19942947 -0.16598354 -0.33978304 0.17634127 -0.3555986
0.30046892 -0.10277183 -0.07048215 0.49602452 0.26837423 0.55430275 -0.13061695 0.17294429
0.12805846 -0.0748209 -0.39342934 -0.3717637 0.2967962 0.45963213 -0.093235776 -0.077736594
0.36590266 0.2964911 0.31924406 0.3527431 -0.10652511 -0.19087674 0.32170108 -0.27222332
0.19703853 -0.18131025 0.45819572 0.17387803 -0.13320099 -0.43207744 0.27111453 0.41256866
0.07636687 -0.31945863 0.14511265 0.0046051 -0.13596603 -0.30257592 -0.1351087 0.14964053
-0.3010061 0.18061967 -0.27402633 0.23266545 -0.03612574 -0.2161929 -0.2657918 -0.43177602
-0.054879814 0.018063832 0.054293502 0.3657781 0.2260864 0.08468234 0.34865105 -0.306925
-0.2579879 0.1236144 -0.08348165 0.471984 -0.4720327 -0.44036597 -0.2283478 0.37521186
0.27991784 -0.025211798 0.39849702 -0.42089477 -0.18583812 -0.60266143 -0.42428616 -0.2736612
0.11736609 0.48986304 0.20927185 -0.27966285 -0.6635161 -0.10000391 -0.2100006 -0.40145838
0.06715345 -0.034018524 -0.17037956 -0.18245654 0.119451605 0.5849862 0.4753184 -0.19088611
-0.38446364 -0.092542306 0.124968745 0.0666077 -0.040477797 0.43960598 -0.017357968 0.10492076
-0.4322271 -0.2762948 -0.15162744 -0.415141 -0.016217614 -0.27167878 0.25579152 0.0729461
-0.40274855 -0.18152487 0.31437784 0.27507102 0.30121678 -0.20035467 0.112042196 -0.48394278
0.11124619 -0.35584158 -0.09742981 -0.34025148 0.02315456 -0.18545675 0.59843826 0.066249
0.19046934 0.3091565 0.13912138 -0.11825312 0.19720748 -0.47343886 -0.48711348 0.15035577
0.23100327 -0.0011115044 -0.0012315431 0.018799815 -0.38416594 -0.067474276 -0.24103338 0.4198242
0.39237133 0.00093245826 -0.23942353 0.11198402 0.293526 -0.18337996 -0.23608834 0.13885343
-0.3243087 0.024285119 -0.34003115 0.25798136 -0.47072837 -0.13050906 -0.405329 -0.4291974
0.025481168 0.061542645 0.13497186 0.42620736 0.21325566 0.38779667 0.28015095 -0.49059966
-0.20695013 -0.28512457 0.18753521 0.004938928 0.5632798 0.26538688 -0.28513315 0.40368608

bias f4 [50]
00000000: 5a9f e83e 4b59 a93e 54f1 0bbe 8def 1e3d
00000010: c2bd 1a3e 51bf ecbe af8c 10be 5472 6abe
00000020: 8336 723d 28f5 453d f2a1 f9bc 1feb 1f3e
00000030: 82b1 82be 6ab1 f5be f3be c53e be90 ff3e
00000040: 1ac6 a1bb f9f2 d73d 38f0 4bbe ced4 e1bd
00000050: 2c5f c6bd 8bc9 a73e 6be2 fdbc 9a86 b1be
00000060: a703 3c3e 9c4f a8be b653 e9bc d15b 803e
00000070: 3d56 d33e 43f2 90be 947c 29bd 2e05 96be
00000080: 8d37 c1be 35e4 30be b37d 17be c7ee ed3e
00000090: b4ae ef3e c315 1a3e 0980 19be 18c7 d23d
000000a0: 2b5d 01bf 8932 a7be 68d8 f33d 6569 7abd
000000b0: 5ac0 fc3e fb17 f23d 309f 9bbd c9df f0be
000000c0: 1969 f5bd 55db e4be
0.45434076 0.33075938 -0.13666278 0.038802672 0.1511145 -0.46239713 -0.14116167 -0.22895175
0.059134018 0.048329502 -0.03047273 0.15617035 -0.25526053 -0.4798692 0.38622245 0.49915117
-0.0049369456 0.1054439 -0.19915855 -0.110269174 -0.09686121 0.32770953 -0.030991754 -0.34673005
0.18360768 -0.32873237 -0.0284823 0.2507005 0.41276732 -0.2830983 -0.041378573 -0.29300827
-0.37737694 -0.17274554 -0.14794044 0.46471235 0.46812975 0.15047364 -0.14990248 0.1029188
-0.5053279 -0.32655743 0.119065106 -0.06113567 0.49365503 0.1182098 -0.07598722 -0.47045735
-0.119829364 -0.44698587

weight f4 [50, 50]
00000000: 99dd 7bbd 5c36 2a3d b5ff 93bc 7025 063e
00000010: 010c 1f3e a755 37be e2da 94bc 74fa 313d
00000020: 7934 3c3c 16b3 e3bd 7634 b4bd 9a12 66bd
00000030: 8928 8a3d adbf 393c 5ef7 f63c 124d d0b9
00000040: 1496 e5bd 5936 f0bd 300e 7c3d 7c0b 58bd
00000050: 6038 9c3d d953 8bbc 4258 923d 0e60 d8bd
00000060: c9b8 d9bc 829b a0bd 0979 b4bb 3f40 cc3a
00000070: 3ca3 ccbb adb4 c63d 29c7 a83c f5d2 1e3d
00000080: b30b fabd c66a f8bd e682 93bd e598 943c
00000090: aa6d 9b3b 3a75 c0bd 63fa 95bd d93b c9bd
000000a0: 600e 2bbd 0728 143d 3e76 c6bc 465b 23bd
000000b0: 892c 3c3e a585 8dbd 18bc 66bc 7b77 94bd
000000c0: 5a74 1b3e de7b 6bbe dfe3 1b3d 5a9d 2f3e
000000d0: 673c 333e c5f5 c13d 90eb a8bc 88e7 19bd
000000e0: 5927 133e c843 b7bd f8cb 4ebd 7243 d23c
000000f0: 66e9 b4bd 4cab d03d 57f8 be3d 0f02 ffbd
00000100: b2c1 cfbc c217 28bd a2f5 e43d f508 15bd
00000110: 83ed f7bd 9af1 d33a 29cb 123e ce01 66bd
00000120: 6205 2f3d 983a 763d aa24 1bbe 9bca ae3c
00000130: f517 293d 4d80 c03d 3c1b 03be 3a44 443d
00000140: 794d e93d 2090 0dbd b6e6 133e b7ce 553d
00000150: 61ac 893d 9289 d23d 6a76 013e bfc1 fcbd
00000160: ac4f 94bd 2350 e23c 859a b83d 6490 b93c
00000170: 3500 11be 7e53 f33c b666 03bd ad2b ac3d
00000180: 7cc1 a0bc a0e9 afbc a196 debc 2779 0b3e
00000190: 1475 273e ac79 38ba 7c3a 56bd 671c 44bd
000001a0: a4bf 6ebd eefa 153d 2d17 1ebd 992d 303d
000001b0: 22de 1a3c 3c74 0b3e e7cb b63d fb7a cabd
000001c0: 4611 153e fc10 093e 804a 273e 2e44 ac3c
000001d0: 2c22 97bd c5c4 023e c82b c93d b4bd 763d
000001e0: a7a9 d9bd e56b cd3d d81f 973d 4cea f43d
000001f0: 6e44 0c3e bd86 bc3d bdcd 003d d992 783c
00000200: 1e92 4dbd 8eb3 2e3d 95aa e53c e7ae 923d
00000210: e436 9f3d 94ba d13d 60b3 5f3d 635d 06be
00000220: 4601 2fbd de0f 37bd 0b30 2c3d 7e08 4bbd
00000230: 1778 763d 6e2e b93d 6635 253e dab2 a4bc
00000240: 36b1 f73d 6296 88bc f236 f1bd dfb6 003e
00000250: 2e79 683d 2c0a 13be 1b96 0fbe e47f 073e
00000260: 2bba 06be a072 353e 879c 3ebc 750e f3bc
00000270: 437a 033e 2f37 d93c 816e 803d fe08 073c
00000280: 1189 f73d 664f b93d 314c 133e fde8 dd3d
00000290: 1b0b 873d f378 36be 0899 993d 644d 493e
000002a0: 6acb e43d faab d2bb 81df 3b3e 0aa7 dd3d
000002b0: f1e7 863d 4b90 8e3d 01f2 08be 8380 20bd
000002c0: 6456 5abd cc6a 693d fb18 733c bff2 a03d
000002d0: b3a4 12bd a8fd 1a3e ef6d 0ebe 90f1 873d
000002e0: b3d3 113e 9521 e53c 6d65 a2bc 3c38 2cbe
000002f0: af46 423e 14fb b33d 33e8 1bbd e9b2 7cbd
00000300: 9e77 ef3d 12ba aabd dbdb 3bbd 65cf b2bd
00000310: 9db8 5abd 5e01 42bd fad1 573d 9bcb bfbd
00000320: 16cf a3ba 605d abbd 0b7d 08bd c6f5 2e3d
00000330: 1106 ac3d 046d 4ebe f50f 25be 053f 573d
00000340: 0a31 ef3d ea7f b63c aed3 bc3d 9034 84bc
00000350: 895f c03d 7d17 67bd c6a2 16be 6155 903d
00000360: 7d43 ec3c 06e2 b83d 7314 8dbd d3d0 51bd
00000370: 185d dfbd e3c0 9d3c 57fb 1fbe 6c06 953d
00000380: 1098 4c3d 8778 37be f86a 223e 15fc 27be
00000390: aae5 623d 4b5c 3b3d 0d50 e7bd 3eb0 f33c
000003a0: dbd4 d03c 4691 cebc af92 3b3c d687 9c3d
000003b0: ca51 cf3c af4e 453e 042b e43d 4b1b 593d
000003c0: b7c0 bf3c 02d2 80bd 701c ce3c adf7 c03d
000003d0: b612 983d 4485 eb3d bdf1 01bd 6bcd d0bd
000003e0: f199 e13d 098b 333d e65f 0d3e db77 36bd
000003f0: 5b36 b6bd 9f93 1b3e 216a 66bd 5b91 0abe
-0.06149063 0.041555747 -0.018066267 0.13100219 0.15531923 -0.17903768 -0.018170778 0.04345174
0.01148712 -0.11118142 -0.08799069 -0.056170084 0.06746013 0.011337203 0.03014725 -0.00039730273
-0.11210266 -0.11729116 0.061536968 -0.052745327 0.0762794 -0.017007755 0.0714574 -0.10565196
-0.02657737 -0.07842161 -0.0055075926 0.0015583112 -0.006245045 0.0970243 0.02060278 0.038775403
-0.12209263 -0.121297404 -0.07202701 0.018139312 0.0047432976 -0.09397359 -0.07323148 -0.09825868
-0.041761756 0.036170986 -0.024226304 -0.039881967 0.18376364 -0.06910256 -0.014082931 -0.072493516
0.15181103 -0.2299647 0.03805911 0.17149869 0.1750351 0.09470705 -0.020620137 -0.03757432
0.14370479 -0.08948475 -0.05048749 0.025666926 -0.0883358 0.10188922 0.09324711 -0.124515645
-0.025360916 -0.041038282 0.11179663 -0.036385495 -0.12105849 0.0016170025 0.14335312 -0.056154065
0.042729743 0.060114473 -0.15150705 0.021336844 0.041282613 0.093994714 -0.12803358 0.04791663
0.1139173 -0.034561276 0.14443478 0.05219909 0.06722332 0.10280146 0.12642828 -0.12341642
-0.07241759 0.027626103 0.09013847 0.022651859 -0.14160235 0.029702898 -0.032080375 0.08406768
-0.01962351 -0.021473706 -0.027171435 0.13620435 0.16353256 -0.00070371735 -0.05230187 -0.04787865
-0.05828823 0.03661626 -0.03859632 0.043012235 0.009452375 0.13618559 0.0892561 -0.09886738
0.1455737 0.13385385 0.16337013 0.021028604 -0.07379565 0.12770374 0.09822804 0.06023951
-0.10628062 0.10030345 0.073791206 0.11958751 0.13697979 0.09205387 0.031446207 0.01517173
-0.050188176 0.042651705 0.028035441 0.07162266 0.077741414 0.10240665 0.054614425 -0.13121562
-0.042725824 -0.044692867 0.042038005 -0.049568646 0.06017312 0.09042059 0.16133651 -0.020104814
0.12094347 -0.01667327 -0.11778058 0.1256976 0.05675619 -0.14359349 -0.14022104 0.1323238
-0.13156955 0.17719507 -0.011633999 -0.02966998 0.12839608 0.026515571 0.06271077 0.00824189
0.1208669 0.09048347 0.14384533 0.108354546 0.06593915 -0.17819576 0.074998915 0.19658428
0.11171611 -0.0064291926 0.18346979 0.10822876 0.06587208 0.069611154 -0.13373567 -0.03918506
-0.053305045 0.056986615 0.014837499 0.078588 -0.0358016 0.15135825 -0.13909124 0.06637871
0.14240913 0.027970115 -0.019823754 -0.16818327 0.18972276 0.08788124 -0.03806324 -0.06169406
0.11692737 -0.08336271 -0.045863967 -0.087309636 -0.053398717 -0.047364585 0.052690484 -0.093650065
-0.001249763 -0.08367419 -0.033322375 0.042714857 0.083995946 -0.20158774 -0.16119368 0.052550334
0.11679275 0.022277791 0.09220062 -0.016138345 0.09393222 -0.056418885 -0.1471053 0.07047535
0.028840775 0.090274855 -0.06888666 -0.05122454 -0.10906428 0.019257015 -0.15623222 0.072766155
0.049949706 -0.17917071 0.15861118 -0.16404755 0.055394806 0.045742314 -0.11294565 0.029747125
0.025492122 -0.025215756 0.011448546 0.07643096 0.025307555 0.19268297 0.11141017 0.053004544
0.023407323 -0.06290056 0.025160044 0.094222404 0.07425444 0.11500028 -0.03172468 -0.1019543
0.1101569 0.043833766 0.13806114 -0.044547897 -0.08897086 0.15193032 -0.056253556 -0.13532011

bias f4 [50]
00000000: 5998 0cbe f81d 873d f8ae 12be ac7e 36be
00000010: e9e0 e9bd b156 a53d 8187 253e 42ee 1cbe
00000020: d3e1 263c 3eb5 a3bd 0909 4fbd 9ddf 013d
00000030: f623 993d ee2c 25bd b4ca 0dbd ddab 293d
00000040: f97d bfbd 242c 0fbd 9141 e7bd 5801 debd
00000050: a7c8 183e 7484 87bd 581f 00bd 653a 0ebe
00000060: 39e5 af3d 3127 febb 7803 18be 2f77 23bd
00000070: f138 513e a6e6 0c3d d1ab 473d e5d4 073c
00000080: 68b5 c63b 1f8c a43d 68be 0bbd c445 8a3d
00000090: 99ca 8a3d d531 ef3c 51fe cb3d 13e9 88bd
000000a0: 7aa0 2cbd e6c5 e6bd eb17 b23d c23e c3bd
000000b0: 4ee8 f0bd 2f91 df3d d362 0ebe ccf5 c53c
000000c0: db09 b13c 6093 a13d
-0.13729991 0.06597513 -0.14324558 -0.17821759 -0.11419851 0.08073176 0.16164972 -0.15325263
0.010185677 -0.079935536 -0.050545726 0.031707395 0.07477562 -0.04032605 -0.03461714 0.041423667
-0.09350199 -0.034954205 -0.11291803 -0.108401 0.14920293 -0.0661706 -0.03127989 -0.13889463
0.085886426 -0.007756137 -0.14845073 -0.039908584 0.20431878 0.03439965 0.04874784 0.008290504
0.006064106 0.080345385 -0.034117132 0.06751588 0.06776924 0.029198566 0.099606164 -0.066850804
-0.04214523 -0.11268215 0.08695968 -0.095334545 -0.117630586 0.109163634 -0.13904886 0.024165057
0.021611145 0.07889438

mask f4 [50, 50]
00000000: 0000 803f 0000 803f 0000 803f 0000 803f
00000010: 0000 803f 0000 803f 0000 803f 0000 803f
00000020: 0000 803f 0000 803f 0000 803f 0000 803f
00000030: 0000 803f 0000 803f 0000 803f 0000 803f
00000040: 0000 803f 0000 803f 0000 803f 0000 803f
00000050: 0000 803f 0000 803f 0000 803f 0000 803f
00000060: 0000 803f 0000 803f 0000 803f 0000 803f
00000070: 0000 803f 0000 803f 0000 803f 0000 803f
00000080: 0000 803f 0000 803f 0000 803f 0000 803f
00000090: 0000 803f 0000 803f 0000 803f 0000 803f
000000a0: 0000 803f 0000 803f 0000 803f 0000 803f
000000b0: 0000 803f 0000 803f 0000 803f 0000 803f
000000c0: 0000 803f 0000 803f 0000 803f 0000 803f
000000d0: 0000 803f 0000 803f 0000 803f 0000 803f
000000e0: 0000 803f 0000 803f 0000 803f 0000 803f
000000f0: 0000 803f 0000 803f 0000 803f 0000 803f
00000100: 0000 803f 0000 803f 0000 803f 0000 803f
00000110: 0000 803f 0000 803f 0000 803f 0000 803f
00000120: 0000 803f 0000 803f 0000 803f 0000 803f
00000130: 0000 803f 0000 803f 0000 803f 0000 803f
00000140: 0000 803f 0000 803f 0000 803f 0000 803f
00000150: 0000 803f 0000 803f 0000 803f 0000 803f
00000160: 0000 803f 0000 803f 0000 803f 0000 803f
00000170: 0000 803f 0000 803f 0000 803f 0000 803f
00000180: 0000 803f 0000 803f 0000 803f 0000 803f
00000190: 0000 803f 0000 803f 0000 803f 0000 803f
000001a0: 0000 803f 0000 803f 0000 803f 0000 803f
000001b0: 0000 803f 0000 803f 0000 803f 0000 803f
000001c0: 0000 803f 0000 803f 0000 803f 0000 803f
000001d0: 0000 803f 0000 803f 0000 803f 0000 803f
000001e0: 0000 803f 0000 803f 0000 803f 0000 803f
000001f0: 0000 803f 0000 803f 0000 803f 0000 803f
00000200: 0000 803f 0000 803f 0000 803f 0000 803f
00000210: 0000 803f 0000 803f 0000 803f 0000 803f
00000220: 0000 803f 0000 803f 0000 803f 0000 803f
00000230: 0000 803f 0000 803f 0000 803f 0000 803f
00000240: 0000 803f 0000 803f 0000 803f 0000 803f
00000250: 0000 803f 0000 803f 0000 803f 0000 803f
00000260: 0000 803f 0000 803f 0000 803f 0000 803f
00000270: 0000 803f 0000 803f 0000 803f 0000 803f
00000280: 0000 803f 0000 803f 0000 803f 0000 803f
00000290: 0000 803f 0000 803f 0000 803f 0000 803f
000002a0: 0000 803f 0000 803f 0000 803f 0000 803f
000002b0: 0000 803f 0000 803f 0000 803f 0000 803f
000002c0: 0000 803f 0000 803f 0000 803f 0000 803f
000002d0: 0000 803f 0000 803f 0000 803f 0000 803f
000002e0: 0000 803f 0000 803f 0000 803f 0000 803f
000002f0: 0000 803f 0000 803f 0000 803f 0000 803f
00000300: 0000 803f 0000 803f 0000 803f 0000 803f
00000310: 0000 803f 0000 803f 0000 803f 0000 803f
00000320: 0000 803f 0000 803f 0000 803f 0000 803f
00000330: 0000 803f 0000 803f 0000 803f 0000 803f
00000340: 0000 803f 0000 803f 0000 803f 0000 803f
00000350: 0000 803f 0000 803f 0000 803f 0000 803f
00000360: 0000 803f 0000 803f 0000 803f 0000 803f
00000370: 0000 803f 0000 803f 0000 803f 0000 803f
00000380: 0000 803f 0000 803f 0000 803f 0000 803f
00000390: 0000 803f 0000 803f 0000 803f 0000 803f
000003a0: 0000 803f 0000 803f 0000 803f 0000 803f
000003b0: 0000 803f 0000 803f 0000 803f 0000 803f
000003c0: 0000 803f 0000 803f 0000 803f 0000 803f
000003d0: 0000 803f 0000 803f 0000 803f 0000 803f
000003e0: 0000 803f 0000 803f 0000 803f 0000 803f
000003f0: 0000 803f 0000 803f 0000 803f 0000 803f
1.0 1.0 1.0 1.0 1.0 1.0 1.0 1.0
1.0 1.0 1.0 1.0 1.0 1.0 1.0 1.0
1.0 1.0 1.0 1.0 1.0 1.0 1.0 1.0
1.0 1.0 1.0 1.0 1.0 1.0 1.0 1.0
1.0 1.0 1.0 1.0 1.0 1.0 1.0 1.0
1.0 1.0 1.0 1.0 1.0 1.0 1.0 1.0
1.0 1.0 1.0 1.0 1.0 1.0 1.0 1.0
1.0 1.0 1.0 1.0 1.0 1.0 1.0 1.0
1.0 1.0 1.0 1.0 1.0 1.0 1.0 1.0
1.0 1.0 1.0 1.0 1.0 1.0 1.0 1.0
1.0 1.0 1.0 1.0 1.0 1.0 1.0 1.0
1.0 1.0 1.0 1.0 1.0 1.0 1.0 1.0
1.0 1.0 1.0 1.0 1.0 1.0 1.0 1.0
1.0 1.0 1.0 1.0 1.0 1.0 1.0 1.0
1.0 1.0 1.0 1.0 1.0 1.0 1.0 1.0
1.0 1.0 1.0 1.0 1.0 1.0 1.0 1.0
1.0 1.0 1.0 1.0 1.0 1.0 1.0 1.0
1.0 1.0 1.0 1.0 1.0 1.0 1.0 1.0
1.0 1.0 1.0 1.0 1.0 1.0 1.0 1.0
1.0 1.0 1.0 1.0 1.0 1.0 1.0 1.0
1.0 1.0 1.0 1.0 1.0 1.0 1.0 1.0
1.0 1.0 1.0 1.0 1.0 1.0 1.0 1.0
1.0 1.0 1.0 1.0 1.0 1.0 1.0 1.0
1.0 1.0 1.0 1.0 1.0 1.0 1.0 1.0
1.0 1.0 1.0 1.0 1.0 1.0 1.0 1.0
1.0 1.0 1.0 1.0 1.0 1.0 1.0 1.0
1.0 1.0 1.0 1.0 1.0 1.0 1.0 1.0
1.0 1.0 1.0 1.0 1.0 1.0 1.0 1.0
1.0 1.0 1.0 1.0 1.0 1.0 1.0 1.0
1.0 1.0 1.0 1.0 1.0 1.0 1.0 1.0
1.0 1.0 1.0 1.0 1.0 1.0 1.0 1.0
1.0 1.0 1.0 1.0 1.0 1.0 1.0 1.0

weight f4 [50, 50]
00000000: ef01 c43d a766 89bd e5cd 2c3e a3c8 bc3d
00000010: e33d 0a3e 454e 56bc 76be b2bd ea81 fc3d
00000020: 9ce3 e13d d8ba ec3d 4eb0 d0bd 6f2d 43bc
00000030: 316f b23d ff83 1d3e 6a8d 75bd c8e4 5a3c
00000040: 1822 e9bc 1b18 373d 26d1 503d 4734 353e
00000050: 68a2 c83c b689 853d c2c9 c3bd b5ea c63d
00000060: a74c ccbc 104b 233e 8f1e 0cbd fef4 b33d
00000070: a4b2 aebd 995c e03c b535 aabd 14e9 8fbd
00000080: eebd c4bc 82a1 45bd 90b9 c9bc 4309 ca3d
00000090: 06c9 07be d6e3 5d3d 79b7 99bd bd52 003e
000000a0: 3d75 49bc df20 f7bd 10bc 81bd e9fe a53d
000000b0: 4416 be3d 1316 1ebd 4694 173e c499 d9bd
000000c0: a81b cb3d d2e1 8cbc fab1 8d3d 7a23 b0bd
000000d0: 1635 8bbc cfbf c6bd ff56 003e f4a9 203c
000000e0: 3c09 2cbc 7522 de3d 77e7 30bd 9820 c93c
000000f0: ccb4 8b3c 6f45 813d 27a2 1a3d 26f5 073d
00000100: d56a 8fbd 8796 1bbd 9bf7 22bc 145e 27bd
00000110: f4b1 97bc 077b 83bd caf5 01be 942f c03d
00000120: 6c9d eb3c 572c 1ebd cf6d ff3c 607e 223d
00000130: 1c37 e2bd 2e79 9bbd f22f a03d 1bcb 02bd
00000140: 292a ddbb 4b3d 0bbd 9207 89bd 12fd 253b
00000150: 7bf8 773d af0a d3bd 9638 b13d 923b f23c
00000160: ec1c 52ba 0bd5 1bbe 93fe ad3d e72f c8bd
00000170: 63fa b7bd 455d 65bd 1a78 9dbd e05b f4bd
00000180: 44de dc3d d9aa 2fbe 2941 bebd 5bd7 113d
00000190: 379a 9fbd 1f63 0c3e 3db9 62bc c43b 39be
000001a0: d859 193c b4c2 793d f07d 9a3d 8584 073d
000001b0: 403f 02be 81bd f5bc 6e41 cb3d 31da 25bd
000001c0: 3c3e 9cbd a3c7 a93d 24e7 a23b 5ef0 82bc
000001d0: 13f8 5cbb aeb2 1f3c a8a8 143d 87f8 78bd
000001e0: 2b78 a03d 2b68 ae3c 2ef2 24be 0a27 3c3c
000001f0: dfd1 5abd 9527 edbd 925f 86bc 7ee6 043e
00000200: 7468 1d3e 6319 acbc de13 25bd 6c88 883d
00000210: 7b4a 84ba 77f1 053e 6726 243e 44ee e1bd
00000220: 755a c73d 1e9b 03bd 3d34 e23d 32a6 e0bd
00000230: 2a23 3ebe dd85 7e3c ab6c 87bd 0f51 4a3d
00000240: be65 c3bd 34dc c13d 6d8d 96bd 3d27 1e3d
00000250: 4949 e63c 4a2d 8f3a d558 043e db3e e03d
00000260: 80ae 973d 418b ba3d da62 563d c97f cd3d
00000270: f0f7 e33d 2b23 9dbd e58f 62bd 4a62 acbd
00000280: 1f04 063e 6c97 bc3d 6749 1abd 8bcf ae3b
00000290: d99f acbd 4050 e5bd 56bf a1bd e2c5 60be
000002a0: 5c0e cbbc 7150 393d 8d7c 11bd 3196 903d
000002b0: 068b 033e 89ff 23be 7eee 23be 15b6 e2bd
000002c0: 7753 ce3d 5ff4 963d e3a5 afbd 2c0d 1a3d
000002d0: bf65 573d ad12 33bd a4c9 89bd 9fb7 753c
000002e0: cfd2 63bd 7dcc 8dbd a031 9dbd cd00 6f3d
000002f0: e918 d33d 6c24 e5bd 37ba 8e3d 1352 d63b
00000300: 9ba6 b73d 2093 f93d 0bb0 b2bd 6e22 05bd
00000310: 02eb c33d 19b6 843d c9f8 523c 3956 06be
00000320: 9f49 29bd 82e7 df3c 86ca d1bd 1dc9 ddbd
00000330: 5e4d d23d 219b 17bd 1a3d 6abd 1ad4 f13d
00000340: f2d9 dbbd d3ec d5bd 9d66 e0bd 9829 81bd
00000350: 68ad 6bbd 3652 06be 6968 d5bc 0394 233e
00000360: 4a8f cdbd 4fbc 033e 9acc 11be 9745 a93c
00000370: 1614 bc3d 02d5 efbd ef77 75bd 3bd7 7fbd
00000380: 3e26 a23d 0622 753d c1f5 b93d 2f4f 1fbd
00000390: 10de d33d beab d03d 1fd4 073e 948a 5c3c
000003a0: 248a b8bd 1bd6 633c 674f 46bd 80ab ac3c
000003b0: dc45 cd3a b2e4 ea3c 63a8 fc3d 2050 eb3c
000003c0: 8d5c e5bd 80c4 eb3c 95f0 dc3d 8fcf 26bc
000003d0: ae23 093e 2771 95bd d6cf c23d 3643 ef3d
000003e0: 1a56 58be a287 d6bd 2455 6e3c 02ed 4abd
000003f0: 3565 153e 18fa f2bd adbf 6ebd e99f f53d
0.09570681 -0.067090325 0.16875418 0.09217956 0.1350017 -0.013080184 -0.08727734 0.12329467
0.11029741 0.11559075 -0.101898775 -0.011912688 0.08712614 0.15382384 -0.059949316 0.01336021
-0.02845864 0.044700723 0.05098071 0.17695723 0.024491504 0.06520407 -0.095599666 0.097127356
-0.024938894 0.15946603 -0.03420883 0.08786963 -0.08530167 0.027387904 -0.08311025 -0.07026878
-0.024016347 -0.04824973 -0.024624616 0.09865048 -0.13260278 0.05417236 -0.07505698 0.12531562
-0.012296018 -0.120668165 -0.06334698 0.08105261 0.092815906 -0.03859527 0.14802656 -0.106250316
0.099173844 -0.017197523 0.06918712 -0.086005166 -0.016993087 -0.09704553 0.12533186 0.009806145
-0.0105002485 0.10846416 -0.043189492 0.024551675 0.017053984 0.063120715 0.037752297 0.033192776
-0.070027985 -0.03798535 -0.009946729 -0.040861204 -0.018517472 -0.0641995 -0.12691417 0.09384075
0.028761588 -0.038616505 0.03118029 0.0396713 -0.110456675 -0.075914726 0.07821645 -0.031931978
-0.0067494106 -0.033994 -0.06690897 0.0025327844 0.060539704 -0.10304772 0.08653371 0.029569421
-0.0008015174 -0.15217988 0.08495822 -0.09774762 -0.08983304 -0.055997152 -0.07688923 -0.11931586
0.10784581 -0.17155017 -0.09289772 0.03560577 -0.07793086 0.13709687 -0.01383811 -0.18089205
0.009359799 0.0609767 0.07543552 0.033085365 -0.1271944 -0.029997589 0.09924589 -0.040491287
-0.07629058 0.08290031 0.0049714018 -0.015983757 -0.00337172 0.00974719 0.036293656 -0.06078389
0.0783542 0.021289906 -0.16108009 0.011483917 -0.053422805 -0.11579815 -0.016402993 0.12978551
0.15371877 -0.0210082 -0.04030215 0.066666454 -0.0010092998 0.13080393 0.16030274 -0.11031774
0.0973405 -0.032130353 0.1104512 -0.10969199 -0.18568102 0.015534845 -0.06612524 0.04939371
-0.0954089 0.094658285 -0.073511936 0.03861164 0.028111117 0.0010923531 0.12924512 0.10949489
0.0740633 0.09108592 0.052340366 0.10034139 0.11131275 -0.076727234 -0.05531301 -0.08417185
0.1308751 0.09208569 -0.03766766 0.0053347996 -0.08428926 -0.11196947 -0.078978226 -0.21950486
-0.02478712 0.04524273 -0.03551917 0.07059897 0.12846002 -0.16015448 -0.16008946 -0.11069886
0.100745134 0.07370829 -0.08576562 0.037610218 0.052587267 -0.043718982 -0.06727913 0.014997392
-0.055620965 -0.06923769 -0.07675481 0.058350373 0.103074856 -0.111885875 0.069691114 0.0065405457
0.08967324 0.12186265 -0.08724984 -0.032503538 0.095663086 0.06480045 0.012876698 -0.13118829
-0.041329976 0.027332071 -0.102437064 -0.10829375 0.10268663 -0.037013177 -0.057187177 0.11808033
-0.10734929 -0.10445561 -0.10957072 -0.063067615 -0.05753842 -0.13117298 -0.026050763 0.1597443
-0.10037096 0.12864803 -0.14238206 0.020663066 0.091835186 -0.1171055 -0.05992883 -0.06246112
0.0791745 0.0598469 0.09080077 -0.038893875 0.103450894 0.10189007 0.13264512 0.013460774
-0.09010723 0.013906027 -0.048415568 0.021077871 0.0015661079 0.028673504 0.12336805 0.02872473
-0.11199293 0.028780222 0.10788075 -0.010181322 0.13392517 -0.07296973 0.09512298 0.11682741
-0.21126595 -0.10475089 0.014546666 -0.049542435 0.14589389 -0.11864108 -0.058288265 0.11993391

bias f4 [50]
00000000: 32d1 0fbd 899c ec3d f86b 473e 150f 1cbe
00000010: 99bf 0e3e ae8f 863c c91a e83c f085 a93c
00000020: 8d52 6b3d c27e 1b3e a536 e7bc 0f95 3dbe
00000030: 4165 e53c 62fd 86bd 09b7 c4bd 43ca 083e
00000040: 68ce e1bd 1799 34be 3821 173e 4856 31bd
00000050: 72d2 f8bd 27c6 553e c900 94bd 32aa 273d
00000060: 3695 5abd 3d6b 1b3e 200f b2bd 1610 ad3d
00000070: 6da2 03be 0542 03bc d188 37bd adfb f23d
00000080: 5a80 07be bdba 623d dc84 753c 6c91 d1bd
00000090: 9896 61bc 6d45 663d 6dfa c63d 9bff a9bd
000000a0: 4633 a9bd 4da5 6bbd 6e3f 1ebe eb0d eab9
000000b0: 2115 b33d f84f e2bd f75c dcbd 7265 a1bd
000000c0: e192 b63d d036 1f3e
-0.035111614 0.11553294 0.1947478 -0.15240128 0.13940276 0.016425934 0.028333085 0.02069375
0.057451773 0.15185073 -0.028224299 -0.18513893 0.028002383 -0.06591298 -0.09605224 0.13358407
-0.11025697 -0.17636524 0.14758766 -0.043295175 -0.12149514 0.2087637 -0.07226712 0.040933795
-0.053364955 0.15177627 -0.08694291 0.08450334 -0.1285493 -0.008011346 -0.044808213 0.118644096
-0.13232556 0.05535387 0.014985289 -0.10232815 -0.0137688145 0.056218553 0.09715734 -0.08300706
-0.08261733 -0.05753069 -0.15453884 -0.00044642328 0.087442644 -0.11050409 -0.10759919 -0.07880677
0.08914734 0.15548253

mask f4 [50, 50]
00000000: 0000 803f 0000 803f 0000 803f 0000 803f
00000010: 0000 803f 0000 803f 0000 803f 0000 803f
00000020: 0000 803f 0000 803f 0000 803f 0000 803f
00000030: 0000 803f 0000 803f 0000 803f 0000 803f
00000040: 0000 803f 0000 803f 0000 803f 0000 803f
00000050: 0000 803f 0000 803f 0000 803f 0000 803f
00000060: 0000 803f 0000 803f 0000 803f 0000 803f
00000070: 0000 803f 0000 803f 0000 803f 0000 803f
00000080: 0000 803f 0000 803f 0000 803f 0000 803f
00000090: 0000 803f 0000 803f 0000 803f 0000 803f
000000a0: 0000 803f 0000 803f 0000 803f 0000 803f
000000b0: 0000 803f 0000 803f 0000 803f 0000 803f
000000c0: 0000 803f 0000 803f 0000 803f 0000 803f
000000d0: 0000 803f 0000 803f 0000 803f 0000 803f
000000e0: 0000 803f 0000 803f 0000 803f 0000 803f
000000f0: 0000 803f 0000 803f 0000 803f 0000 803f
00000100: 0000 803f 0000 803f 0000 803f 0000 803f
00000110: 0000 803f 0000 803f 0000 803f 0000 803f
00000120: 0000 803f 0000 803f 0000 803f 0000 803f
00000130: 0000 803f 0000 803f 0000 803f 0000 803f
00000140: 0000 803f 0000 803f 0000 803f 0000 803f
00000150: 0000 803f 0000 803f 0000 803f 0000 803f
00000160: 0000 803f 0000 803f 0000 803f 0000 803f
00000170: 0000 803f 0000 803f 0000 803f 0000 803f
00000180: 0000 803f 0000 803f 0000 803f 0000 803f
00000190: 0000 803f 0000 803f 0000 803f 0000 803f
000001a0: 0000 803f 0000 803f 0000 803f 0000 803f
000001b0: 0000 803f 0000 803f 0000 803f 0000 803f
000001c0: 0000 803f 0000 803f 0000 803f 0000 803f
000001d0: 0000 803f 0000 803f 0000 803f 0000 803f
000001e0: 0000 803f 0000 803f 0000 803f 0000 803f
000001f0: 0000 803f 0000 803f 0000 803f 0000 803f
00000200: 0000 803f 0000 803f 0000 803f 0000 803f
00000210: 0000 803f 0000 803f 0000 803f 0000 803f
00000220: 0000 803f 0000 803f 0000 803f 0000 803f
00000230: 0000 803f 0000 803f 0000 803f 0000 803f
00000240: 0000 803f 0000 803f 0000 803f 0000 803f
00000250: 0000 803f 0000 803f 0000 803f 0000 803f
00000260: 0000 803f 0000 803f 0000 803f 0000 803f
00000270: 0000 803f 0000 803f 0000 803f 0000 803f
00000280: 0000 803f 0000 803f 0000 803f 0000 803f
00000290: 0000 803f 0000 803f 0000 803f 0000 803f
000002a0: 0000 803f 0000 803f 0000 803f 0000 803f
000002b0: 0000 803f 0000 803f 0000 803f 0000 803f
000002c0: 0000 803f 0000 803f 0000 803f 0000 803f
000002d0: 0000 803f 0000 803f 0000 803f 0000 803f
000002e0: 0000 803f 0000 803f 0000 803f 0000 803f
000002f0: 0000 803f 0000 803f 0000 803f 0000 803f
00000300: 0000 803f 0000 803f 0000 803f 0000 803f
00000310: 0000 803f 0000 803f 0000 803f 0000 803f
00000320: 0000 803f 0000 803f 0000 803f 0000 803f
00000330: 0000 803f 0000 803f 0000 803f 0000 803f
00000340: 0000 803f 0000 803f 0000 803f 0000 803f
00000350: 0000 803f 0000 803f 0000 803f 0000 803f
00000360: 0000 803f 0000 803f 0000 803f 0000 803f
00000370: 0000 803f 0000 803f 0000 803f 0000 803f
00000380: 0000 803f 0000 803f 0000 803f 0000 803f
00000390: 0000 803f 0000 803f 0000 803f 0000 803f
000003a0: 0000 803f 0000 803f 0000 803f 0000 803f
000003b0: 0000 803f 0000 803f 0000 803f 0000 803f
000003c0: 0000 803f 0000 803f 0000 803f 0000 803f
000003d0: 0000 803f 0000 803f 0000 803f 0000 803f
000003e0: 0000 803f 0000 803f 0000 803f 0000 803f
000003f0: 0000 803f 0000 803f 0000 803f 0000 803f
1.0 1.0 1.0 1.0 1.0 1.0 1.0 1.0
1.0 1.0 1.0 1.0 1.0 1.0 1.0 1.0
1.0 1.0 1.0 1.0 1.0 1.0 1.0 1.0
1.0 1.0 1.0 1.0 1.0 1.0 1.0 1.0
1.0 1.0 1.0 1.0 1.0 1.0 1.0 1.0
1.0 1.0 1.0 1.0 1.0 1.0 1.0 1.0
1.0 1.0 1.0 1.0 1.0 1.0 1.0 1.0
1.0 1.0 1.0 1.0 1.0 1.0 1.0 1.0
1.0 1.0 1.0 1.0 1.0 1.0 1.0 1.0
1.0 1.0 1.0 1.0 1.0 1.0 1.0 1.0
1.0 1.0 1.0 1.0 1.0 1.0 1.0 1.0
1.0 1.0 1.0 1.0 1.0 1.0 1.0 1.0
1.0 1.0 1.0 1.0 1.0 1.0 1.0 1.0
1.0 1.0 1.0 1.0 1.0 1.0 1.0 1.0
1.0 1.0 1.0 1.0 1.0 1.0 1.0 1.0
1.0 1.0 1.0 1.0 1.0 1.0 1.0 1.0
1.0 1.0 1.0 1.0 1.0 1.0 1.0 1.0
1.0 1.0 1.0 1.0 1.0 1.0 1.0 1.0
1.0 1.0 1.0 1.0 1.0 1.0 1.0 1.0
1.0 1.0 1.0 1.0 1.0 1.0 1.0 1.0
1.0 1.0 1.0 1.0 1.0 1.0 1.0 1.0
1.0 1.0 1.0 1.0 1.0 1.0 1.0 1.0
1.0 1.0 1.0 1.0 1.0 1.0 1.0 1.0
1.0 1.0 1.0 1.0 1.0 1.0 1.0 1.0
1.0 1.0 1.0 1.0 1.0 1.0 1.0 1.0
1.0 1.0 1.0 1.0 1.0 1.0 1.0 1.0
1.0 1.0 1.0 1.0 1.0 1.0 1.0 1.0
1.0 1.0 1.0 1.0 1.0 1.0 1.0 1.0
1.0 1.0 1.0 1.0 1.0 1.0 1.0 1.0
1.0 1.0 1.0 1.0 1.0 1.0 1.0 1.0
1.0 1.0 1.0 1.0 1.0 1.0 1.0 1.0
1.0 1.0 1.0 1.0 1.0 1.0 1.0 1.0

weight f4 [4, 50]
00000000: 870e 073e 3876 b73d acaf 563d dc93 66bd
00000010: 086b 2e3d 540c 91bd ecfb af3d 0ca6 28bd
00000020: 585a 323d 1ce2 c83d 80e3 373c 4c09 173d
00000030: 8a44 d53d 775a 01be 0cf4 dcbd fab9 b93d
00000040: 406b e83b 9823 efbd ffeb 043e 5a50 07bd
00000050: 2732 0cbe 82af f33d 9859 6f3d 4efc 47bd
00000060: 36ee 3cbd 46b5 b43d fc75 493d e28b e2bd
00000070: 84a3 91bd acd0 a4bc 5ef2 a2bd ecf4 353d
00000080: 4801 b7bd a034 2abc 7499 debd 0f90 10be
00000090: 3435 c83d 34fe 8e3d 38ea 5f3d f058 583d
000000a0: 3811 b5bd ea02 f0bd 60ed a73c f849 553d
000000b0: 60e4 c8bd 20ab f13b 0843 4e3d e0e9 0ebe
000000c0: 6c27 12bd e0b7 1f3c 9280 d93d 92b0 fbbd
000000d0: a01f 883c cc16 f9bd b6e2 943d c486 edbd
000000e0: c0f1 e73b e006 82bc 1779 efbd 31c6 033e
000000f0: 481a 02be e616 64bd ec3c 6fbd 62c2 a2bd
00000100: dc21 623d e050 8dbb ca7c 06be d899 debc
00000110: f496 f7bd 9afd a2bd bceb 4b3d d2d1 40bd
00000120: 70d9 313d 365e e23d a46c a03d 6287 08be
00000130: 3a04 dd3d 5e74 ffbd dc90 04be d08a b53d
00000140: 6ba5 103e f4cc acbc 94d2 b63d 05f9 033e
00000150: 9a8c f23d 16b8 76bd 5c57 6d3d 0c0e c73d
00000160: e4e7 653d ca63 09be 2824 aabc d0a9 d4bd
00000170: 2e97 5abd 5043 f83c 3063 05bc 4862 eabd
00000180: 5462 d63d a009 b9bd f918 ebbd f44d 893d
00000190: 6636 24bd a4d2 233c 2054 e93d d2e6 14be
000001a0: 48a3 873d a0fc d4bd 8a80 b7bc 84de f03b
000001b0: 6ea6 ce3d 62ee dc3d a291 9e3d 156e 0cbe
000001c0: 542c 993a 99e8 2cbc 6512 a6bd d466 363e
000001d0: f780 febd 16a0 15be 3f66 323d 6897 27be
000001e0: 0d5d a73d dc98 c93d ddad 13bd e409 953c
000001f0: 5ddc c83d 1818 183e 4769 a739 314e 033d
00000200: b763 2d3e 2077 213e 5e52 053e da63 a73d
00000210: 6e11 bfbd b609 e23d 9d21 2bbe ffa3 66bd
00000220: aa14 2cbe 3d7f 143b bedb 3dbc ebf5 ae3d
00000230: 9f36 ec3d c4b9 cdbd dd19 20be 815c be3d
00000240: ea25 1e3e 76ba c3bc 5178 adbd 00d6 fe3c
00000250: 7a07 163e c0f8 8e3d 989a b3bd fee5 133b
00000260: 9633 0f3e 20c0 19be 0c23 0d3e b4f8 95bd
00000270: 9412 fa3b fe9b 75bc 692c 333e 293d 153e
00000280: 6f4c 243e 4a50 22be 5a19 db3d eed6 13be
00000290: e00a 18be 718a f43b 5b74 0a3b 84ef 35be
000002a0: b41e cebb 536b 19be 9c3e 2ebe 0801 153e
000002b0: 3b6a 0abe b1a1 ebbd c8eb 9fbd 1e53 dd3d
000002c0: 19d5 83bc 881e 883d 90e0 303e 5a8b 8b3c
000002d0: 2e08 193d daac 093e 26af 01be 3547 b4bd
000002e0: 0ffd b3bd 63d4 393d b602 a9bd df2b d8b9
000002f0: 8681 babd a842 7ebb 7a4d 2abe 9a9c b9bc
00000300: 3d00 70bd 70e9 f73b af9e cd3d 7091 0f3d
00000310: f946 27be 7c9c 7abd f87b 2bbe 5649 71bd
0.13189135 0.08958095 0.052413628 -0.056293353 0.04258254 -0.070824295 0.08592972 -0.04117398
0.04354319 0.09808752 0.011223674 0.0368741 0.104134634 -0.12632166 -0.10788736 0.09068675
0.0070928633 -0.11676711 0.1298065 -0.033035614 -0.13691007 0.1189871 0.058435053 -0.0488246
-0.046125613 0.08823638 0.049184784 -0.11061837 -0.07111266 -0.020119034 -0.07956384 0.04442303
-0.08935791 -0.010388523 -0.108691126 -0.14117454 0.09775773 0.06982079 0.054666728 0.052819192
-0.08841175 -0.11719306 0.020498931 0.052072495 -0.09809184 0.007375136 0.050356895 -0.13956404
-0.035682127 0.009748429 0.10620226 -0.122895375 0.016616642 -0.12162551 0.07269804 -0.1159797
0.0070783794 -0.015872419 -0.11693018 0.12868573 -0.12705338 -0.0556859 -0.05840771 -0.07947232
0.055208072 -0.0043126196 -0.13133541 -0.027172968 -0.12089339 -0.07958527 0.04978536 -0.0470751
0.043420255 0.110531256 0.078332216 -0.13332894 0.10791822 -0.12473367 -0.12945884 0.08864367
0.14125602 -0.021093823 0.08926883 0.12887962 0.11843224 -0.06023415 0.05794464 0.09719476
0.05612935 -0.13416973 -0.020769194 -0.10383952 -0.053366832 0.030305535 -0.008141324 -0.11444527
0.10467973 -0.09035039 -0.114793725 0.067043215 -0.04009094 0.009998951 0.11392999 -0.14541176
0.0662294 -0.10399747 -0.02240016 0.0073507447 0.10090338 0.107876554 0.07742621 -0.13713868
0.0011686184 -0.0105535025 -0.08108977 0.17812663 -0.12426942 -0.14611849 0.04355454 -0.1636635
0.08172045 0.09843609 -0.03605448 0.018193193 0.09807656 0.14852941 0.0003193116 0.03205699
0.1693257 0.15768099 0.13019702 0.08173342 -0.09329496 0.110370085 -0.16712041 -0.056308743
-0.16804758 0.0022658848 -0.011588035 0.08542999 0.11533856 -0.100451976 -0.15634866 0.092949875
0.1544415 -0.023892622 -0.08470214 0.031107903 0.1465129 0.06981039 -0.08769721 0.0022567506
0.13984522 -0.15014696 0.137829 -0.07322827 0.007631609 -0.014990805 0.1749741 0.14574112
0.16044782 -0.1585094 0.10698195 -0.14437458 -0.14847898 0.0074627926 0.0021126482 -0.17767149
-0.006290281 -0.14982347 -0.17016071 0.14551175 -0.13517086 -0.115054496 -0.078086436 0.10806869
-0.016092824 0.066464484 0.17273164 0.017034221 0.037361316 0.13444844 -0.1266447 -0.08802644
-0.087885015 0.045368563 -0.0825247 -0.00041231417 -0.09106736 -0.0038797054 -0.16631117 -0.022657681
-0.058593977 0.0075656697 0.10040032 0.03505081 -0.16335668 -0.06118439 -0.16746509 -0.05890783

bias f4 [4]
00000000: f3ad 3c3e 336d 09bd 2655 2cbc 9b7d b8bd
0.18425731 -0.033551406 -0.010518348 -0.09008332

mask f4 [4, 50]
00000000: 0000 0000 0000 0000 0000 0000 0000 0000
00000010: 0000 0000 0000 0000 0000 0000 0000 0000
00000020: 0000 0000 0000 0000 0000 0000 0000 0000
00000030: 0000 0000 0000 0000 0000 0000 0000 0000
00000040: 0000 0000 0000 0000 0000 0000 0000 0000
00000050: 0000 0000 0000 0000 0000 0000 0000 0000
00000060: 0000 0000 0000 0000 0000 0000 0000 0000
00000070: 0000 0000 0000 0000 0000 0000 0000 0000
00000080: 0000 0000 0000 0000 0000 0000 0000 0000
00000090: 0000 0000 0000 0000 0000 0000 0000 0000
000000a0: 0000 0000 0000 0000 0000 0000 0000 0000
000000b0: 0000 0000 0000 0000 0000 0000 0000 0000
000000c0: 0000 0000 0000 0000 0000 0000 0000 0000
000000d0: 0000 0000 0000 0000 0000 0000 0000 0000
000000e0: 0000 0000 0000 0000 0000 0000 0000 0000
000000f0: 0000 0000 0000 0000 0000 0000 0000 0000
00000100: 0000 0000 0000 0000 0000 0000 0000 0000
00000110: 0000 0000 0000 0000 0000 0000 0000 0000
00000120: 0000 0000 0000 0000 0000 0000 0000 0000
00000130: 0000 0000 0000 0000 0000 0000 0000 0000
00000140: 0000 0000 0000 0000 0000 0000 0000 0000
00000150: 0000 0000 0000 0000 0000 0000 0000 0000
00000160: 0000 0000 0000 0000 0000 0000 0000 0000
00000170: 0000 0000 0000 0000 0000 0000 0000 0000
00000180: 0000 0000 0000 0000 0000 0000 0000 0000
00000190: 0000 803f 0000 803f 0000 803f 0000 803f
000001a0: 0000 803f 0000 803f 0000 803f 0000 803f
000001b0: 0000 803f 0000 803f 0000 803f 0000 803f
000001c0: 0000 803f 0000 803f 0000 803f 0000 803f
000001d0: 0000 803f 0000 803f 0000 803f 0000 803f
000001e0: 0000 803f 0000 803f 0000 803f 0000 803f
000001f0: 0000 803f 0000 803f 0000 803f 0000 803f
00000200: 0000 803f 0000 803f 0000 803f 0000 803f
00000210: 0000 803f 0000 803f 0000 803f 0000 803f
00000220: 0000 803f 0000 803f 0000 803f 0000 803f
00000230: 0000 803f 0000 803f 0000 803f 0000 803f
00000240: 0000 803f 0000 803f 0000 803f 0000 803f
00000250: 0000 803f 0000 803f 0000 803f 0000 803f
00000260: 0000 803f 0000 803f 0000 803f 0000 803f
00000270: 0000 803f 0000 803f 0000 803f 0000 803f
00000280: 0000 803f 0000 803f 0000 803f 0000 803f
00000290: 0000 803f 0000 803f 0000 803f 0000 803f
000002a0: 0000 803f 0000 803f 0000 803f 0000 803f
000002b0: 0000 803f 0000 803f 0000 803f 0000 803f
000002c0: 0000 803f 0000 803f 0000 803f 0000 803f
000002d0: 0000 803f 0000 803f 0000 803f 0000 803f
000002e0: 0000 803f 0000 803f 0000 803f 0000 803f
000002f0: 0000 803f 0000 803f 0000 803f 0000 803f
00000300: 0000 803f 0000 803f 0000 803f 0000 803f
00000310: 0000 803f 0000 803f 0000 803f 0000 803f
0.0 0.0 0.0 0.0 0.0 0.0 0.0 0.0
0.0 0.0 0.0 0.0 0.0 0.0 0.0 0.0
0.0 0.0 0.0 0.0 0.0 0.0 0.0 0.0
0.0 0.0 0.0 0.0 0.0 0.0 0.0 0.0
0.0 0.0 0.0 0.0 0.0 0.0 0.0 0.0
0.0 0.0 0.0 0.0 0.0 0.0 0.0 0.0
0.0 0.0 0.0 0.0 0.0 0.0 0.0 0.0
0.0 0.0 0.0 0.0 0.0 0.0 0.0 0.0
0.0 0.0 0.0 0.0 0.0 0.0 0.0 0.0
0.0 0.0 0.0 0.0 0.0 0.0 0.0 0.0
0.0 0.0 0.0 0.0 0.0 0.0 0.0 0.0
0.0 0.0 0.0 0.0 0.0 0.0 0.0 0.0
0.0 0.0 0.0 0.0 1.0 1.0 1.0 1.0
1.0 1.0 1.0 1.0 1.0 1.0 1.0 1.0
1.0 1.0 1.0 1.0 1.0 1.0 1.0 1.0
1.0 1.0 1.0 1.0 1.0 1.0 1.0 1.0
1.0 1.0 1.0 1.0 1.0 1.0 1.0 1.0
1.0 1.0 1.0 1.0 1.0 1.0 1.0 1.0
1.0 1.0 1.0 1.0 1.0 1.0 1.0 1.0
1.0 1.0 1.0 1.0 1.0 1.0 1.0 1.0
1.0 1.0 1.0 1.0 1.0 1.0 1.0 1.0
1.0 1.0 1.0 1.0 1.0 1.0 1.0 1.0
1.0 1.0 1.0 1.0 1.0 1.0 1.0 1.0
1.0 1.0 1.0 1.0 1.0 1.0 1.0 1.0
1.0 1.0 1.0 1.0 1.0 1.0 1.0 1.0

weight f4 [50, 2]
00000000: 49fa 633d 14dd 21be 8867 973e 6b97 063f
00000010: 5aa1 a93e 1688 c93e f69b b0be 5893 b83d
00000020: 19b6 16bf 694f 103f 43d2 ca3e f0c6 8d3d
00000030: e0db 20bd 7a0f ef3e d3cb 81be ac05 1dbe
00000040: f4a3 073f 6519 0e3f 7f75 7dbe c06d 09bf
00000050: 6974 133f 82d9 c83e 6868 9b3d 2fc7 0ebf
00000060: 3baf bbbd ccef 583e 62a6 50be d053 b1bd
00000070: 1155 f63d a66e da3e 47a4 c13e b0a5 20be
00000080: 84f3 99be 98f1 de3d 4f20 ff3e 0d03 073f
00000090: 4658 0fbe 411d 273f b244 943e a8df 1dbf
000000a0: 0f84 8f3e 15ff 113f a44b 69be 0db0 99be
000000b0: 9730 7abe e024 08be 0da3 97be f35e 0cbf
000000c0: bd2b ec3e 00a0 663c 7d31 d23e 8555 1ebf
000000d0: cf4d 1b3f a725 c2be ab9a 9fbe c398 a1be
000000e0: 7c9d 933e 0cb6 063e f06a be3e 072e 0f3f
000000f0: 463c 76bd 8659 19bf dcf5 3a3f 599a 26bf
00000100: f6c2 06bc ebc8 d0be db4f 173f 54bc 4bbe
00000110: 890b 633f 2b53 283f 3f8c 10bf d049 f0be
00000120: 0f7d 2bbd cf47 143f fe8e 29bd dcfc 9bbe
00000130: 3ed0 edbd 1c4f 733e 7133 413f 3c44 f6be
00000140: d30d 98bd f051 023d b9a3 56be 8a24 01bf
00000150: ee8d cebc c08a c13c a814 eebe 1de8 e4be
00000160: a960 933d 2ac9 fb3e cffc a23c 59fc 173f
00000170: 31e1 60be a45b 2abf a0a9 dabd ec4a 1cbe
00000180: bc95 d5be 4f38 103f 47b0 0ebf c163 2e3f
0.055658612 -0.15806991 0.29571176 0.52574795 0.33130914 0.39361638 -0.3449399 0.090124786
-0.5887161 0.5637117 0.39613542 0.0692271 -0.03927219 0.46691495 -0.25350818 -0.15334195
0.5298455 0.555075 -0.24751852 -0.5368309 0.575995 0.39228445 0.07588273 -0.5577268
-0.09164282 0.21185225 -0.2037597 -0.08658564 0.12027944 0.42662543 0.37820646 -0.15688205
-0.300686 0.10885924 0.49829337 0.5273903 -0.13998517 0.6527901 0.2895866 -0.616694
0.2803044 0.5702985 -0.22782761 -0.3001713 -0.24432598 -0.13295317 -0.29616585 -0.5483238
0.4612712 0.014076233 0.41053382 -0.6184924 0.606656 -0.3791935 -0.3117269 -0.3156186
0.2883109 0.13155383 0.37190962 0.5592961 -0.060116075 -0.59902227 0.730314 -0.65079266
-0.008225193 -0.40778288 0.59106225 -0.1989606 0.88689476 0.65751904 -0.56464 -0.46931314
-0.041867312 0.5792207 -0.041396134 -0.30466354 -0.11611985 0.23760647 0.7546912 -0.48098934
-0.07424512 0.031816423 -0.20960893 -0.5044638 -0.025214162 0.023625731 -0.46500134 -0.44708338
0.07196171 0.49176913 0.01989594 0.59369427 -0.21960904 -0.6654608 -0.10676885 -0.15262955
-0.417158 0.5633592 -0.5573773 0.6812096

bias f4 [50]
00000000: 2b82 133f 4ac4 e13c 16e2 5dbd 1299 2d3f
00000010: 3224 af3e ea9c 153d 234c cfbe 704a e73e
00000020: 9769 f53e 1f3d 323e 312d 6bbd 5793 36bf
00000030: 2333 223f 5501 0a3f 38b9 0f3f fe26 e03e
00000040: d2fd 4bbd 9028 353f 3608 8dbe ff62 0d3f
00000050: 63fd 27bf ead0 f03d 70a6 cdbe b16b f53c
00000060: 5c1a dfbe deb8 4dbe e388 71be dedf 0fbf
00000070: b5ea 27be 26d3 a3be e7b0 21bd 0994 3abf
00000080: 18b0 163f 6738 253e 1646 e93d cf06 6c3e
00000090: b07b 923e 5a3d 1abf dff6 cd3e 8d61 a73e
000000a0: 7aaf 08bf 873d 183f 1697 07bf 87f3 133f
000000b0: 72bd acbe d62b 27bf a2ff ef3e ca47 f43e
000000c0: 394d 92be 9a3d 72be
0.57620496 0.027559418 -0.05417069 0.6781169 0.34207302 0.036526598 -0.40487775 0.4517398
0.4793212 0.17406128 -0.057416145 -0.7131857 0.6335928 0.5390828 0.56141996 0.4377975
-0.04980261 0.7076502 -0.27545327 0.5522918 -0.6562101 0.11758597 -0.40166044 0.029958578
-0.43574798 -0.20090052 -0.23587374 -0.5620097 -0.16398127 -0.3199703 -0.039475348 -0.72882134
0.5886245 0.16134797 0.11390321 0.23049472 0.2860999 -0.60249865 0.4022741 0.32691613
-0.53392756 0.59468883 -0.52964914 0.5779347 -0.33738285 -0.65301263 0.4687472 0.4771102
-0.2857454 -0.23656312

mask f4 [50, 2]
00000000: 0000 803f 0000 0000 0000 803f 0000 0000
00000010: 0000 803f 0000 0000 0000 803f 0000 0000
00000020: 0000 803f 0000 0000 0000 803f 0000 0000
00000030: 0000 803f 0000 0000 0000 803f 0000 0000
00000040: 0000 803f 0000 0000 0000 803f 0000 0000
00000050: 0000 803f 0000 0000 0000 803f 0000 0000
00000060: 0000 803f 0000 0000 0000 803f 0000 0000
00000070: 0000 803f 0000 0000 0000 803f 0000 0000
00000080: 0000 803f 0000 0000 0000 803f 0000 0000
00000090: 0000 803f 0000 0000 0000 803f 0000 0000
000000a0: 0000 803f 0000 0000 0000 803f 0000 0000
000000b0: 0000 803f 0000 0000 0000 803f 0000 0000
000000c0: 0000 803f 0000 0000 0000 803f 0000 0000
000000d0: 0000 803f 0000 0000 0000 803f 0000 0000
000000e0: 0000 803f 0000 0000 0000 803f 0000 0000
000000f0: 0000 803f 0000 0000 0000 803f 0000 0000
00000100: 0000 803f 0000 0000 0000 803f 0000 0000
00000110: 0000 803f 0000 0000 0000 803f 0000 0000
00000120: 0000 803f 0000 0000 0000 803f 0000 0000
00000130: 0000 803f 0000 0000 0000 803f 0000 0000
00000140: 0000 803f 0000 0000 0000 803f 0000 0000
00000150: 0000 803f 0000 0000 0000 803f 0000 0000
00000160: 0000 803f 0000 0000 0000 803f 0000 0000
00000170: 0000 803f 0000 0000 0000 803f 0000 0000
00000180: 0000 803f 0000 0000 0000 803f 0000 0000
1.0 0.0 1.0 0.0 1.0 0.0 1.0 0.0
1.0 0.0 1.0 0.0 1.0 0.0 1.0 0.0
1.0 0.0 1.0 0.0 1.0 0.0 1.0 0.0
1.0 0.0 1.0 0.0 1.0 0.0 1.0 0.0
1.0 0.0 1.0 0.0 1.0 0.0 1.0 0.0
1.0 0.0 1.0 0.0 1.0 0.0 1.0 0.0
1.0 0.0 1.0 0.0 1.0 0.0 1.0 0.0
1.0 0.0 1.0 0.0 1.0 0.0 1.0 0.0
1.0 0.0 1.0 0.0 1.0 0.0 1.0 0.0
1.0 0.0 1.0 0.0 1.0 0.0 1.0 0.0
1.0 0.0 1.0 0.0 1.0 0.0 1.0 0.0
1.0 0.0 1.0 0.0 1.0 0.0 1.0 0.0
1.0 0.0 1.0 0.0
