03b/GPS_1256775418/model_trad_seed_73737.pth (torch, 276498 bytes, 76 tensors)

_shift f4 [2]
000000 39 0b 27 40 63 9b df bf
       2.61006 -1.7469295

_scale f4 [2]
000000 94 3f 32 3e 66 6f 5e 40
       0.17407066 3.4755492

weight f4 [50, 2]
000000 f9 04 5c 3e 50 a1 80 bd 0f ce c1 be 4b 16 27 bf
       0.21486272 -0.06280768 -0.37852523 -0.6526839
000010 cb ad 0b be 94 eb 4b be d6 29 07 3f 78 d5 d0 be
       -0.13640516 -0.19914085 0.5279821 -0.40787864
000020 e8 be 38 3d c8 c2 26 bf b3 ed 8b 3e d4 c7 38 3e
       0.045103937 -0.6514096 0.27329788 0.18044978
000030 58 62 0e 3f 58 f3 ec be af 1e 10 3f 60 a0 98 3c
       0.5561881 -0.46279407 0.5629682 0.01863116
000040 3e 1b f3 bd f8 d3 fe be b8 6d a8 3e b1 8d 2f 3f
       -0.118704304 -0.49771094 0.3289621 0.6857558
000050 fb 06 ff 3e d6 87 d7 3e 65 39 84 be 78 fc d6 3d
       0.49810013 0.42095822 -0.2582504 0.10497373
000060 1f 66 29 bf 82 72 f5 3e fe 1b 99 bd 0d f0 2f bf
       -0.6617145 0.47938925 -0.07476042 -0.68725663
000070 18 e1 2d bf 9c ec f3 be 68 6d 94 be 22 3c 07 bf
       -0.6792159 -0.47641456 -0.2898972 -0.5282613
000080 64 1d 29 3f 23 91 2c 3f 73 d1 33 bf 14 2b 65 3e
       0.6606047 0.6740896 -0.7024147 0.22379714
000090 c1 be c5 be da 24 05 bf 76 bc 92 be 88 d9 28 be
       -0.38622096 -0.52009356 -0.2865941 -0.16489232
0000a0 2e 1e 17 3f 4d a1 2e bf 8b 40 33 3f 4c f7 59 be
       0.59030426 -0.68214875 0.7002036 -0.21285743
0000b0 73 88 23 bf 40 6e 6c 3c 7f 4f a7 3c 38 57 9c 3d
       -0.6388008 0.0144305825 0.020423649 0.07633823
0000c0 9a ac bd bc 00 4d 61 bd e6 1f 1f bf c0 2f 0e bf
       -0.023153592 -0.055005074 -0.6215805 -0.5554161
0000d0 76 5d 59 be 60 9f 08 3e 01 e7 23 3f 02 76 a7 3e
       -0.21227059 0.13342047 0.6402436 0.3270722
0000e0 75 ce 31 bf d4 21 fb be a3 d0 03 3f 80 64 39 3d
       -0.69455653 -0.49049246 0.5149023 0.04526186
0000f0 cd 0c 29 bf ed c6 27 3f 76 5f c3 3d cd bc e7 be
       -0.6603516 0.6553791 0.09539692 -0.4526123
000100 32 9f e0 be 3e 45 da 3e e5 0b fa 3e 10 03 5c bd
       -0.43871456 0.42630953 0.488372 -0.053713858
000110 57 4a e3 bd a0 1c 55 be 4d 72 ce 3e 46 c1 13 bf
       -0.110981636 -0.20811701 0.4032158 -0.57716787
000120 4a 7d 8f 3e 70 6f bd be 18 1e 23 be 9a b5 d1 3e
       0.28025275 -0.36999083 -0.15929449 0.40958863
000130 5d c8 03 bd d3 1e c6 be f4 f0 03 be 6a 2b 88 be
       -0.032173503 -0.38695392 -0.12884885 -0.26595622
000140 73 38 dd 3d 83 83 31 3f 93 c0 ae bd 6e 21 99 3e
       0.108017825 0.69341296 -0.08532824 0.29908317
000150 de 81 81 bd e0 9f 52 be 13 a5 b1 bd 53 af 0f bf
       -0.06323598 -0.205688 -0.086740635 -0.561269
000160 ce 36 3b 3f d0 c5 41 be e3 be 2b bf 6c d2 2b be
       0.731305 -0.18923116 -0.67088145 -0.16779488
000170 68 e5 5b 3e 45 a0 25 bf b1 17 1e 3e 6a 2b f3 be
       0.2147423 -0.64697677 0.15438725 -0.4749406
000180 cf a2 07 3f 00 81 0a bb e9 c5 c5 be a8 02 0f bf
       0.529828 -0.002113402 -0.38627556 -0.5586343

bias f4 [50]
000000 0b 10 b8 3e 15 b0 8d 3e 4b 7e 1d 3f d8 d3 c1 be
       0.3594974 0.27673402 0.6152083 -0.37856936
000010 80 64 a0 3e a5 03 7b be 67 ea 06 bf e6 de 3f 3c
       0.31326675 -0.24513109 -0.5270142 0.011710858
000020 4e d2 b3 3e 86 1c b9 3d 35 4f ff 3e a0 b5 cd be
       0.35121387 0.090386435 0.49865118 -0.4017763
000030 66 03 5f 3e 86 ab 1b be af 38 4b bf 67 a4 68 be
       0.2177864 -0.1520215 -0.7938337 -0.22718965
000040 5d 47 19 3f a9 23 a0 3e 6f ba 49 3f ee a0 96 3e
       0.59874517 0.31277207 0.788001 0.29419655
000050 79 fc 2a bf a8 3f e0 be f7 42 4c bf e0 3d de 3d
       -0.6679149 -0.43798566 -0.7978968 0.108516455
000060 e1 ed 2c 3f 37 76 f8 be e0 04 ef ba e9 8a 96 3e
       0.67550474 -0.4852769 -0.0018235706 0.29402855
000070 3f d7 ea be 58 41 79 3e 2a aa 98 be 95 10 27 be
       -0.45867345 0.24341333 -0.29817325 -0.1631492
000080 08 52 e8 3e c2 f7 a8 be 43 7b 24 3f d4 fd 4c 3e
       0.45375085 -0.33001524 0.6425058 0.20018703
000090 ec cb a5 3d ec 45 44 3e d9 8f 25 bf c6 fb f7 be
       0.08095536 0.19167298 -0.6467262 -0.48434275
0000a0 bd d2 de 3c 94 49 b5 3e 5e a0 43 3d de 21 10 3f
       0.027200097 0.35407698 0.04776036 0.5630168
0000b0 64 e1 2e 3f 6a 4f 28 3e 3b 75 ea be c9 4e 2d bf
       0.6831267 0.16436544 -0.45792565 -0.6769834
0000c0 4b d4 d9 3e 80 6a 1c bf
       0.4254478 -0.61100006

mask f4 [50, 2]
000000 00 00 80 3f 00 00 00 00 00 00 80 3f 00 00 00 00
       1.0 0.0 1.0 0.0
000010 00 00 80 3f 00 00 00 00 00 00 80 3f 00 00 00 00
       1.0 0.0 1.0 0.0
000020 00 00 80 3f 00 00 00 00 00 00 80 3f 00 00 00 00
       1.0 0.0 1.0 0.0
000030 00 00 80 3f 00 00 00 00 00 00 80 3f 00 00 00 00
       1.0 0.0 1.0 0.0
000040 00 00 80 3f 00 00 00 00 00 00 80 3f 00 00 00 00
       1.0 0.0 1.0 0.0
000050 00 00 80 3f 00 00 00 00 00 00 80 3f 00 00 00 00
       1.0 0.0 1.0 0.0
000060 00 00 80 3f 00 00 00 00 00 00 80 3f 00 00 00 00
       1.0 0.0 1.0 0.0
000070 00 00 80 3f 00 00 00 00 00 00 80 3f 00 00 00 00
       1.0 0.0 1.0 0.0
000080 00 00 80 3f 00 00 00 00 00 00 80 3f 00 00 00 00
       1.0 0.0 1.0 0.0
000090 00 00 80 3f 00 00 00 00 00 00 80 3f 00 00 00 00
       1.0 0.0 1.0 0.0
0000a0 00 00 80 3f 00 00 00 00 00 00 80 3f 00 00 00 00
       1.0 0.0 1.0 0.0
0000b0 00 00 80 3f 00 00 00 00 00 00 80 3f 00 00 00 00
       1.0 0.0 1.0 0.0
0000c0 00 00 80 3f 00 00 00 00 00 00 80 3f 00 00 00 00
       1.0 0.0 1.0 0.0
0000d0 00 00 80 3f 00 00 00 00 00 00 80 3f 00 00 00 00
       1.0 0.0 1.0 0.0
0000e0 00 00 80 3f 00 00 00 00 00 00 80 3f 00 00 00 00
       1.0 0.0 1.0 0.0
0000f0 00 00 80 3f 00 00 00 00 00 00 80 3f 00 00 00 00
       1.0 0.0 1.0 0.0
000100 00 00 80 3f 00 00 00 00 00 00 80 3f 00 00 00 00
       1.0 0.0 1.0 0.0
000110 00 00 80 3f 00 00 00 00 00 00 80 3f 00 00 00 00
       1.0 0.0 1.0 0.0
000120 00 00 80 3f 00 00 00 00 00 00 80 3f 00 00 00 00
       1.0 0.0 1.0 0.0
000130 00 00 80 3f 00 00 00 00 00 00 80 3f 00 00 00 00
       1.0 0.0 1.0 0.0
000140 00 00 80 3f 00 00 00 00 00 00 80 3f 00 00 00 00
       1.0 0.0 1.0 0.0
000150 00 00 80 3f 00 00 00 00 00 00 80 3f 00 00 00 00
       1.0 0.0 1.0 0.0
000160 00 00 80 3f 00 00 00 00 00 00 80 3f 00 00 00 00
       1.0 0.0 1.0 0.0
000170 00 00 80 3f 00 00 00 00 00 00 80 3f 00 00 00 00
       1.0 0.0 1.0 0.0
000180 00 00 80 3f 00 00 00 00 00 00 80 3f 00 00 00 00
       1.0 0.0 1.0 0.0

weight f4 [50, 2]
000000 da 44 28 bf 38 74 06 3e 41 94 b6 3e b4 f0 1d bf
       -0.6573006 0.13130271 0.35659984 -0.6169541
000010 5f 05 42 be 88 4f 43 bd 13 23 4b bc 43 63 13 3e
       -0.18947361 -0.04768327 -0.012398499 0.14393334
000020 4d 04 d1 bd 8a 4a 25 be aa 70 8e be d7 9f f0 be
       -0.102058984 -0.16141716 -0.2782033 -0.46996948
000030 d8 0a 14 3f ea d2 31 bd 67 8d c2 3e 1a 85 5b be
       0.57829046 -0.043414034 0.37998506 -0.21437493
000040 22 76 00 bf f8 35 30 3f 99 df 32 3f b0 69 c1 3d
       -0.50180256 0.6883235 0.6987243 0.094439864
000050 26 a8 a5 bc 32 80 81 be b3 82 16 3f e7 4b a6 3d
       -0.020221781 -0.25293118 0.5879318 0.08119946
000060 53 e0 98 3e c6 73 f5 be f1 d2 3e bd 7a 4f f7 3d
       0.29858646 -0.4793989 -0.04658789 0.12075706
000070 70 4b 3c 3e b1 d0 ab be c8 f7 10 3d 94 29 84 bd
       0.18388152 -0.33557656 0.035392553 -0.06453243
000080 48 fd 0a 3f 29 63 2e bf ce b7 86 be 4c 1e 23 3e
       0.54292727 -0.68120056 -0.26312107 0.15929526
000090 5c 91 1c bf a7 55 0f bf 64 9c 18 bd 0e 2b 01 bf
       -0.611593 -0.5599007 -0.03725852 -0.5045632
0000a0 f5 e8 17 3f bd ee e0 be 1f fd 27 be 43 f9 c6 3e
       0.5933984 -0.43932143 -0.16405152 0.38862047
0000b0 44 6d 23 bf 80 fb 0e 3f cc 4e 28 bf 42 06 d3 be
       -0.638386 0.5585251 -0.65745234 -0.41215712
0000c0 63 40 fb 3e bb 94 a1 be db 9b a2 3e 98 b9 e7 bd
       0.4907256 -0.31558785 0.31759533 -0.11314696
0000d0 f6 4b 0d bf 06 75 b0 3e 5b d6 bc 3e be 68 ea 3e
       -0.5519403 0.34464282 0.3688229 0.45783037
0000e0 82 13 0d 3f ee e3 50 be 2c ad 33 be 79 d1 31 3f
       0.5510789 -0.20399448 -0.17546529 0.69460255
0000f0 4e 72 25 bd 4b 80 0b 3f fe 53 09 3f e8 9a ad 3e
       -0.040392213 0.54492635 0.53643787 0.33907247
000100 b5 85 4a 3d 53 fb 7f 3d 5a bd 41 bd 52 c9 0e be
       0.04944392 0.06249554 -0.04729972 -0.13943985
000110 e7 9c b0 3d e8 84 20 3f b9 c2 84 3e 7c db e3 3e
       0.08623677 0.627028 0.25929812 0.4450339
000120 40 0b 26 bf 52 35 00 3e ad 53 b9 3b 09 10 b8 be
       -0.64860916 0.1252034 0.005655727 -0.35949734
000130 9b 12 7e 3e 86 47 10 3f 27 32 25 3f c7 30 03 bf
       0.24811785 0.56359136 0.6452965 -0.51246303
000140 d4 8e ec be f2 16 0d bf 7c 62 f0 be 75 7c b3 3e
       -0.4620272 -0.55113137 -0.46950138 0.3505589
000150 c4 4a b8 be 02 a0 b3 be e5 5e af 3e e6 39 3c bd
       -0.35994542 -0.35083014 0.34252086 -0.045953654
000160 3b 26 e5 3e 77 a7 61 be fd 53 1b 3e 65 07 87 bd
       0.4475573 -0.22036539 0.15168758 -0.06593207
000170 7a b3 ea bc 1e 87 e3 be 38 90 23 be 08 35 21 3f
       -0.028650034 -0.44439024 -0.15972984 0.62971544
000180 c4 15 82 be 6d 72 2e 3f 56 82 e3 3e 59 9d ad bd
       -0.2540723 0.6814335 0.44435376 -0.08477277

bias f4 [50]
000000 36 77 15 3f 01 d8 9f be 16 e3 9e bc 06 48 39 3f
       0.58385026 -0.31219485 -0.019395392 0.72375524
000010 79 82 3c 3f c0 76 67 be 1c 48 65 3d d5 12 dd be
       0.73636585 -0.22603893 0.055976972 -0.4317843
000020 c1 36 a8 be ac 10 b3 be 81 a2 8b 3e 5c d0 29 3f
       -0.32854274 -0.34973657 0.27272418 0.66333556
000030 b0 e3 14 bf 56 df 31 bf 5f 89 bf 3c 71 ca e9 3c
       -0.58159924 -0.6948141 0.023380933 0.028538914
000040 7b 82 8b bb ee da a9 3e 7b 7b 9b 3e 33 63 fa 3e
       -0.004257498 0.33174843 0.30367646 0.48903808
000050 5a eb 46 be c0 22 43 be 61 1e 12 3f 75 1c 04 bf
       -0.19425717 -0.19056225 0.57077605 -0.5160592
000060 49 23 a4 3d bd 00 07 bf ce 6b e0 be 37 a7 25 3f
       0.080145426 -0.527355 -0.43832248 0.64708275
000070 18 c6 af 3e ed 7c e0 3b 58 a4 48 be bf fb 31 bf
       0.3433082 0.00685083 -0.19593942 -0.6952476
000080 23 70 0d bf 9c c7 5b be b3 38 b6 bd 5d a0 6d bc
       -0.5524923 -0.21462864 -0.08897533 -0.014503566
000090 ae a1 db 3e 64 92 45 bf 93 b0 61 3e eb 01 12 bf
       0.4289679 -0.771765 0.22040014 -0.57034177
0000a0 7f b5 02 3f 0c 31 68 bd cb 56 09 3f c6 29 14 3f
       0.5105819 -0.0566874 0.5364806 0.5787624
0000b0 31 c8 35 3f 9a 0a 41 bf f9 e8 b4 bb b1 3b 04 bf
       0.7100859 -0.754068 -0.0055209366 -0.5165358
0000c0 97 97 17 bb 0e 65 be be
       -0.0023131126 -0.37186474

weight f4 [50, 50]
000000 4e 59 8d 3c 18 28 fb bc f2 78 11 3e 29 6d 11 bd
       0.017254498 -0.030658767 0.14206293 -0.035504494
000010 f8 1f 06 3e 25 a5 ad bb 6b 27 99 3d 62 73 96 3d
       0.13098133 -0.005299228 0.074782215 0.07346226
000020 ec e5 75 3d 6a f4 8c 3d b6 4d 7c 3d dd 3c 9c 3c
       0.060033724 0.06882556 0.06159755 0.01907199
000030 fe b9 1d 3e a2 3b e8 bd 1d 93 d2 3d f0 48 43 3d
       0.15402982 -0.11339499 0.10281966 0.04767698
000040 4a 55 94 bd a9 37 a5 3c 89 a3 40 3d 88 f0 96 bc
       -0.0724283 0.020168142 0.04703096 -0.018425241
000050 70 d2 af bd d7 18 1f be 6c 15 0e 3e 2b 1e cd 3d
       -0.0858506 -0.1553682 0.1387536 0.1001552
000060 24 50 61 bd 33 88 bd bd ee 1b c7 3d 46 f4 7a bd
       -0.05500807 -0.092544936 0.09722124 -0.061268114
000070 3f 94 83 3d 9b 3d a1 bc 6d aa b1 bd 97 b8 09 be
       0.0642476 -0.019682696 -0.08675084 -0.13449322
000080 6f 88 49 3e c5 09 03 bc 57 83 03 3e 4d 40 4e 3d
       0.19680952 -0.007997935 0.12843071 0.05035429
000090 cf 7f 04 be 5b ce 59 3d 79 b8 87 bd f0 c0 5f bd
       -0.1293938 0.05317531 -0.06626982 -0.05462736
0000a0 81 3c 1d bd a2 79 c2 bd d7 3b 48 3d 86 a5 12 3d
       -0.03838778 -0.09495856 0.048885193 0.035802387
0000b0 d6 37 f2 3c 03 82 74 3d 66 99 9d 3d e7 65 c4 3d
       0.02956764 0.0596943 0.07695274 0.09589749
0000c0 ef ca f7 bd b6 56 9e 3c 72 bf f1 3d 82 0a 39 bd
       -0.120992534 0.019328456 0.118040934 -0.045176037
0000d0 45 55 69 bc 07 15 6d bd 51 ca dd 3c e4 85 19 be
       -0.014241521 -0.05788138 0.027074011 -0.14992481
0000e0 a9 06 31 3d bf 79 34 be e2 a4 14 bd fb a0 01 be
       0.043219242 -0.17624567 -0.036290057 -0.12659065
0000f0 d7 8f 2e 3d 5a 9f 35 3c 35 21 da bd b2 89 0a be
       0.042617645 0.011085356 -0.10650865 -0.13529089
000100 fd 15 87 3c 89 0b cf bb 57 6b 05 3d 4e a5 f6 3d
       0.016489977 -0.006318514 0.03257307 0.12043248
000110 70 83 89 3d a7 68 12 3e 15 51 fc 3c 07 2a 25 be
       0.06714523 0.14297734 0.030800382 -0.16129313
000120 31 1d d9 bc 83 d6 0d bd 1e 45 56 bd fc 40 bd 3d
       -0.026503177 -0.034628402 -0.05231201 0.092409104
000130 77 e0 89 bb 79 44 20 bd e6 41 0a 3d d2 3f 18 be
       -0.0042076665 -0.0391278 0.033754252 -0.14868096
000140 d9 8c dd 3b 86 02 d6 3d 01 94 af 3d 95 a3 0f be
       0.006761175 0.104497 0.085731514 -0.14027245
000150 f3 e3 d1 3d b6 01 a5 3d 1a 5b e8 bd c6 b1 d5 3d
       0.10248556 0.08056967 -0.11345501 0.10434298
000160 0c a6 58 bc 24 c7 e9 3d 36 43 4d bd c9 78 78 3c
       -0.013223182 0.11414936 -0.050112925 0.015165516
000170 7f bf 2f bd 95 6a 88 bd d8 83 0e 3e 13 5e 01 3b
       -0.042907234 -0.06660954 0.13917482 0.001973991
000180 67 fc 05 be ca fa 2a be bb d1 f2 bc 2e 5d e3 3d
       -0.13084565 -0.16697231 -0.029641023 0.11101757
000190 d7 a4 28 3d 05 21 1a 3e f2 02 8d 3d 16 54 b5 bd
       0.04117283 0.15051658 0.068853274 -0.08853929
0001a0 9a 6c 22 3c f6 bd b3 3c e3 78 f4 3d b6 13 4e 3d
       0.009913588 0.021941166 0.1193712 0.050311767
0001b0 65 55 48 bd 4c 2c a4 bc 8b e1 fc bd 04 5e c4 bb
       -0.048909564 -0.020040654 -0.123477064 -0.005992653
0001c0 78 28 24 3e cd 6d ca bd 8c e6 e1 3d 1b 14 8a 3d
       0.16031063 -0.09884224 0.110303015 0.06742116
0001d0 e5 ce 21 bd c0 f6 b8 bd e3 26 85 3d 8f 13 3f bd
       -0.03950395 -0.09031439 0.06501558 -0.046649512
0001e0 47 90 ae 3d 11 c8 10 3d 7b 8b fe 3d 64 6c b4 bd
       0.085236125 0.03534705 0.124289475 -0.08809736
0001f0 16 88 62 bd 13 65 13 bc 46 72 95 3c 6e e4 48 3d
       -0.055305563 -0.008996266 0.018242966 0.049045973
000200 eb f6 ee 3c 99 b1 ab bc 2d 50 d8 3c 8f 4a b9 bd
       0.029170474 -0.020958709 0.026405418 -0.09047424
000210 ea ae d0 3c 26 90 0b 3d ed 29 b1 3d 21 78 19 bd
       0.02547403 0.034073018 0.08650575 -0.03746808
000220 f1 88 ce 3d 38 93 2d 3c a1 ce ac 39 0c a2 25 be
       0.10084713 0.010594182 0.00032960347 -0.16175097
000230 f1 ee ad bd 30 0d fb 3c 0e 90 02 3d 9c 1d 99 3c
       -0.0849284 0.030645937 0.031875663 0.018690877
000240 0d 94 04 3d f5 b5 7a bd af 47 bf bd 4d 9b 15 3d
       0.032367755 -0.061208684 -0.093398444 0.03652506
000250 49 3a 91 bc de 73 6d bc 2a ae 54 39 db 1e a0 3d
       -0.017727988 -0.014492957 0.00020282777 0.07818385
000260 c8 f9 a0 3d 58 be 76 3e 83 29 b3 bc 78 72 b0 3d
       0.07860142 0.24096048 -0.02187038 0.08615583
000270 51 06 94 3d b4 b3 a7 3d c9 bd 24 bc 4c 96 22 3e
       0.07227767 0.081885725 -0.010055014 0.15877646
000280 b0 d6 91 3d 0c ec 8d 3c 16 27 0c bc 11 7e 1d 3d
       0.071210265 0.01732447 -0.008554241 0.038450304
000290 76 25 11 be bf 16 fe bd 84 d5 29 3e 5d 84 93 3d
       -0.14174446 -0.12406682 0.16585356 0.07202981
0002a0 26 b4 21 bd 8e c3 0a 3e 61 6e cc bd d4 32 ef 3d
       -0.039478444 0.1355116 -0.099819906 0.116796166
0002b0 5d 55 e5 bd c1 a4 be 3d bf b8 94 bb 40 dc b7 bd
       -0.111979224 0.09308768 -0.004538625 -0.08977556
0002c0 d9 c1 71 bd 6e b2 8f 3e b0 15 f1 bd 66 df 9c 3e
       -0.05902276 0.2806582 -0.11771715 0.3063919
0002d0 39 fb ca be 84 54 c8 3d 8b 33 7f bd 44 85 6a bd
       -0.39644793 0.09781745 -0.062305015 -0.057256
0002e0 36 e6 d5 bc cc 2f 78 3d 1a cb e8 3d 32 9c 1b be
       -0.02611075 0.060592458 0.113668635 -0.15196303
0002f0 41 f6 d8 bd 94 50 98 3d 9c a0 ee bd d8 b9 81 bd
       -0.10593844 0.07437244 -0.116517276 -0.06334275
000300 0c 73 f8 bb 71 e2 fe bd 32 1c 57 3e 65 0e 9c be
       -0.007582074 -0.12445534 0.2100685 -0.30479732
000310 bd 97 f4 3d 5a 5c 87 3d f9 77 93 3e be 5e ed bd
       0.11943004 0.066094115 0.2880247 -0.11590336
000320 0d 03 66 3d 4f 8b 81 bd 74 6a 3b bd 94 4e 5a bd
       0.056155253 -0.06325399 -0.04575582 -0.053297594
000330 a7 f9 2f 3e 51 fb 51 bc 42 02 9d bd de 4d 25 bc
       0.17185079 -0.012816266 -0.07666446 -0.010089366
000340 f9 f5 9f 3d cd 65 b9 3d 3c 56 17 bd 2a dc cd 3d
       0.078105874 0.0905262 -0.036947474 0.100517586
000350 83 71 81 3d 06 82 1d be 9f 3e b7 bc 0c 3b ed 3b
       0.06320479 -0.15381631 -0.022368727 0.007239705
000360 9d ac fc bd 96 58 89 3d 8b b9 6a 3d 75 84 c8 3d
       -0.12337611 0.067063496 0.057305854 0.09790889
000370 3e 88 17 bd ef dd 91 3d 76 94 0e 3e f8 72 41 be
       -0.036995165 0.071224086 0.13923821 -0.18891513
000380 5e 5a b8 3d 18 45 f9 bd cc 60 1d be a8 49 e4 bb
       0.09001611 -0.12171382 -0.15368956 -0.0069667883
000390 28 af 60 bc 2f f4 0b be 69 e7 25 3d 76 b2 ee 39
       -0.0137136355 -0.13667367 0.040503893 0.0004552786
0003a0 0c 7a 8c bd fe 05 b5 bd 51 25 c6 3c 88 ae 39 3d
       -0.06859216 -0.088390335 0.024187716 0.04533246
0003b0 69 87 1e 3e f6 31 1c be 62 fd 94 3d 09 a6 a5 3c
       0.15481342 -0.15253434 0.072748914 0.020220773
0003c0 ea 94 9c 3d 45 6d b5 bc bd 08 87 bd 92 2f 9b 3d
       0.076455906 -0.02214683 -0.065934636 0.07577433
0003d0 3b 47 75 3d 17 94 de 3d 05 89 7d 3d 2f ad e3 bd
       0.059882384 0.1086809 0.06189825 -0.111170165
0003e0 48 2c 04 be 16 a9 19 be 85 bd f0 bd ba 32 2c bd
       -0.12907517 -0.15005907 -0.11754898 -0.042040564
0003f0 4d fd a5 bd 27 61 44 be 08 df 2e bd 51 23 d7 3d
       -0.08104954 -0.19177686 -0.042693168 0.10504783

bias f4 [50]
000000 eb e9 93 3d 2c 15 2c 3e df 47 a1 3d f4 05 2e 3c
       0.07222351 0.16804951 0.078750364 0.0106215365
000010 39 02 75 3d d0 a6 b9 3d b6 f7 ab bd 4a eb 44 3d
       0.059816573 0.0906502 -0.083968565 0.04807595
000020 84 e0 67 bd 49 33 0e be 47 76 75 3d 49 16 9f bd
       -0.0566106 -0.13886751 0.05992725 -0.077679224
000030 bb cc b8 bd 9d 95 ee bc 47 75 2d 3e f1 82 7a bd
       -0.09023424 -0.029124076 0.16939269 -0.06116003
000040 10 b4 fc 3c e0 03 14 be 35 55 01 3d 57 61 27 be
       0.03084758 -0.14454603 0.0315754 -0.16345726
000050 ec ba 06 3e 72 1d b9 3d 0b f3 d0 bd 97 15 91 bd
       0.13157243 0.090388194 -0.10202607 -0.07084196
000060 27 f5 09 be d2 fe ec bd 17 19 60 3c a1 b7 1f bd
       -0.13472424 -0.115720406 0.013677857 -0.03899348
000070 85 2c 91 bd 2a 90 46 3d 3a a8 8d bd 27 16 d3 3c
       -0.070885696 0.04847733 -0.06916852 0.025767399
000080 e2 65 a3 3d aa 20 15 bd bd df 05 bd 12 7c a1 bc
       0.07978417 -0.036408104 -0.032684077 -0.019712482
000090 a7 57 67 bd bf 6a 26 be 8b f1 15 3c ca 4c c8 bd
       -0.056480076 -0.16251658 0.009151827 -0.09780271
0000a0 01 2c c1 ba cd 73 b5 bd e7 c5 0e 3c 84 68 2b be
       -0.0014737846 -0.08859978 0.008714176 -0.16739088
0000b0 aa 58 3b be d1 5a f4 bc ac 35 37 3e 78 f1 e9 3c
       -0.18295541 -0.02982846 0.17891568 0.028557524
0000c0 f6 34 4f bd 41 13 b5 bb
       -0.050587617 -0.005525977

mask f4 [50, 50]
000000 00 00 80 3f 00 00 80 3f 00 00 80 3f 00 00 80 3f
       1.0 1.0 1.0 1.0
000010 00 00 80 3f 00 00 80 3f 00 00 80 3f 00 00 80 3f
       1.0 1.0 1.0 1.0
000020 00 00 80 3f 00 00 80 3f 00 00 80 3f 00 00 80 3f
       1.0 1.0 1.0 1.0
000030 00 00 80 3f 00 00 80 3f 00 00 80 3f 00 00 80 3f
       1.0 1.0 1.0 1.0
000040 00 00 80 3f 00 00 80 3f 00 00 80 3f 00 00 80 3f
       1.0 1.0 1.0 1.0
000050 00 00 80 3f 00 00 80 3f 00 00 80 3f 00 00 80 3f
       1.0 1.0 1.0 1.0
000060 00 00 80 3f 00 00 80 3f 00 00 80 3f 00 00 80 3f
       1.0 1.0 1.0 1.0
000070 00 00 80 3f 00 00 80 3f 00 00 80 3f 00 00 80 3f
       1.0 1.0 1.0 1.0
000080 00 00 80 3f 00 00 80 3f 00 00 80 3f 00 00 80 3f
       1.0 1.0 1.0 1.0
000090 00 00 80 3f 00 00 80 3f 00 00 80 3f 00 00 80 3f
       1.0 1.0 1.0 1.0
0000a0 00 00 80 3f 00 00 80 3f 00 00 80 3f 00 00 80 3f
       1.0 1.0 1.0 1.0
0000b0 00 00 80 3f 00 00 80 3f 00 00 80 3f 00 00 80 3f
       1.0 1.0 1.0 1.0
0000c0 00 00 80 3f 00 00 80 3f 00 00 80 3f 00 00 80 3f
       1.0 1.0 1.0 1.0
0000d0 00 00 80 3f 00 00 80 3f 00 00 80 3f 00 00 80 3f
       1.0 1.0 1.0 1.0
0000e0 00 00 80 3f 00 00 80 3f 00 00 80 3f 00 00 80 3f
       1.0 1.0 1.0 1.0
0000f0 00 00 80 3f 00 00 80 3f 00 00 80 3f 00 00 80 3f
       1.0 1.0 1.0 1.0
000100 00 00 80 3f 00 00 80 3f 00 00 80 3f 00 00 80 3f
       1.0 1.0 1.0 1.0
000110 00 00 80 3f 00 00 80 3f 00 00 80 3f 00 00 80 3f
       1.0 1.0 1.0 1.0
000120 00 00 80 3f 00 00 80 3f 00 00 80 3f 00 00 80 3f
       1.0 1.0 1.0 1.0
000130 00 00 80 3f 00 00 80 3f 00 00 80 3f 00 00 80 3f
       1.0 1.0 1.0 1.0
000140 00 00 80 3f 00 00 80 3f 00 00 80 3f 00 00 80 3f
       1.0 1.0 1.0 1.0
000150 00 00 80 3f 00 00 80 3f 00 00 80 3f 00 00 80 3f
       1.0 1.0 1.0 1.0
000160 00 00 80 3f 00 00 80 3f 00 00 80 3f 00 00 80 3f
       1.0 1.0 1.0 1.0
000170 00 00 80 3f 00 00 80 3f 00 00 80 3f 00 00 80 3f
       1.0 1.0 1.0 1.0
000180 00 00 80 3f 00 00 80 3f 00 00 80 3f 00 00 80 3f
       1.0 1.0 1.0 1.0
000190 00 00 80 3f 00 00 80 3f 00 00 80 3f 00 00 80 3f
       1.0 1.0 1.0 1.0
0001a0 00 00 80 3f 00 00 80 3f 00 00 80 3f 00 00 80 3f
       1.0 1.0 1.0 1.0
0001b0 00 00 80 3f 00 00 80 3f 00 00 80 3f 00 00 80 3f
       1.0 1.0 1.0 1.0
0001c0 00 00 80 3f 00 00 80 3f 00 00 80 3f 00 00 80 3f
       1.0 1.0 1.0 1.0
0001d0 00 00 80 3f 00 00 80 3f 00 00 80 3f 00 00 80 3f
       1.0 1.0 1.0 1.0
0001e0 00 00 80 3f 00 00 80 3f 00 00 80 3f 00 00 80 3f
       1.0 1.0 1.0 1.0
0001f0 00 00 80 3f 00 00 80 3f 00 00 80 3f 00 00 80 3f
       1.0 1.0 1.0 1.0
000200 00 00 80 3f 00 00 80 3f 00 00 80 3f 00 00 80 3f
       1.0 1.0 1.0 1.0
000210 00 00 80 3f 00 00 80 3f 00 00 80 3f 00 00 80 3f
       1.0 1.0 1.0 1.0
000220 00 00 80 3f 00 00 80 3f 00 00 80 3f 00 00 80 3f
       1.0 1.0 1.0 1.0
000230 00 00 80 3f 00 00 80 3f 00 00 80 3f 00 00 80 3f
       1.0 1.0 1.0 1.0
000240 00 00 80 3f 00 00 80 3f 00 00 80 3f 00 00 80 3f
       1.0 1.0 1.0 1.0
000250 00 00 80 3f 00 00 80 3f 00 00 80 3f 00 00 80 3f
       1.0 1.0 1.0 1.0
000260 00 00 80 3f 00 00 80 3f 00 00 80 3f 00 00 80 3f
       1.0 1.0 1.0 1.0
000270 00 00 80 3f 00 00 80 3f 00 00 80 3f 00 00 80 3f
       1.0 1.0 1.0 1.0
000280 00 00 80 3f 00 00 80 3f 00 00 80 3f 00 00 80 3f
       1.0 1.0 1.0 1.0
000290 00 00 80 3f 00 00 80 3f 00 00 80 3f 00 00 80 3f
       1.0 1.0 1.0 1.0
0002a0 00 00 80 3f 00 00 80 3f 00 00 80 3f 00 00 80 3f
       1.0 1.0 1.0 1.0
0002b0 00 00 80 3f 00 00 80 3f 00 00 80 3f 00 00 80 3f
       1.0 1.0 1.0 1.0
0002c0 00 00 80 3f 00 00 80 3f 00 00 80 3f 00 00 80 3f
       1.0 1.0 1.0 1.0
0002d0 00 00 80 3f 00 00 80 3f 00 00 80 3f 00 00 80 3f
       1.0 1.0 1.0 1.0
0002e0 00 00 80 3f 00 00 80 3f 00 00 80 3f 00 00 80 3f
       1.0 1.0 1.0 1.0
0002f0 00 00 80 3f 00 00 80 3f 00 00 80 3f 00 00 80 3f
       1.0 1.0 1.0 1.0
000300 00 00 80 3f 00 00 80 3f 00 00 80 3f 00 00 80 3f
       1.0 1.0 1.0 1.0
000310 00 00 80 3f 00 00 80 3f 00 00 80 3f 00 00 80 3f
       1.0 1.0 1.0 1.0
000320 00 00 80 3f 00 00 80 3f 00 00 80 3f 00 00 80 3f
       1.0 1.0 1.0 1.0
000330 00 00 80 3f 00 00 80 3f 00 00 80 3f 00 00 80 3f
       1.0 1.0 1.0 1.0
000340 00 00 80 3f 00 00 80 3f 00 00 80 3f 00 00 80 3f
       1.0 1.0 1.0 1.0
000350 00 00 80 3f 00 00 80 3f 00 00 80 3f 00 00 80 3f
       1.0 1.0 1.0 1.0
000360 00 00 80 3f 00 00 80 3f 00 00 80 3f 00 00 80 3f
       1.0 1.0 1.0 1.0
000370 00 00 80 3f 00 00 80 3f 00 00 80 3f 00 00 80 3f
       1.0 1.0 1.0 1.0
000380 00 00 80 3f 00 00 80 3f 00 00 80 3f 00 00 80 3f
       1.0 1.0 1.0 1.0
000390 00 00 80 3f 00 00 80 3f 00 00 80 3f 00 00 80 3f
       1.0 1.0 1.0 1.0
0003a0 00 00 80 3f 00 00 80 3f 00 00 80 3f 00 00 80 3f
       1.0 1.0 1.0 1.0
0003b0 00 00 80 3f 00 00 80 3f 00 00 80 3f 00 00 80 3f
       1.0 1.0 1.0 1.0
0003c0 00 00 80 3f 00 00 80 3f 00 00 80 3f 00 00 80 3f
       1.0 1.0 1.0 1.0
0003d0 00 00 80 3f 00 00 80 3f 00 00 80 3f 00 00 80 3f
       1.0 1.0 1.0 1.0
0003e0 00 00 80 3f 00 00 80 3f 00 00 80 3f 00 00 80 3f
       1.0 1.0 1.0 1.0
0003f0 00 00 80 3f 00 00 80 3f 00 00 80 3f 00 00 80 3f
       1.0 1.0 1.0 1.0

weight f4 [50, 50]
000000 60 f8 de bd d9 e2 f4 3d 65 63 9e bd 33 0a 12 be
       -0.108872175 0.1195733 -0.07733802 -0.14261703
000010 26 cc 88 bd 01 f9 24 3e f3 ca cd bd 8d 77 be bc
       -0.06679563 0.16110612 -0.10048475 -0.023250366
000020 66 fc 2f bc 67 71 65 3d a9 ff 74 bd ea 79 a1 3d
       -0.010741329 0.056016352 -0.05981413 0.078845814
000030 47 b5 8a bc da ba 09 3e 7f 7b c6 bb f2 6d 35 bd
       -0.016932143 0.13450184 -0.0060572024 -0.044294305
000040 a6 cf d3 3d 2a 27 7a 3d bd de 95 bd 89 b8 87 3a
       0.1034234 0.061072506 -0.073178746 0.0010354678
000050 67 ab 93 bc 39 84 9b 3d 00 25 11 3d 22 e5 b0 3d
       -0.018026067 0.07593579 0.035435677 0.086374536
000060 98 12 be bc 37 e8 12 3d 40 8b 11 3e a8 93 f9 3c
       -0.023202226 0.03586599 0.14213276 0.030465916
000070 f4 a2 7f bd 27 f6 7f bd 74 5c df 3d 07 d7 ec 3d
       -0.062411264 -0.06249061 0.10906306 0.11564451
000080 c6 12 a2 bd c0 6d 03 bd 89 3c ab bc 63 b1 0d be
       -0.07913737 -0.032087088 -0.020902889 -0.13837199
000090 86 13 ea 3d 2e 4d 63 bd a3 d7 20 bd 1f 09 03 be
       0.11429505 -0.055493526 -0.039268147 -0.12796448
0000a0 69 be 37 3e ba b9 e1 bd 79 cd e5 3d b1 e5 11 bd
       0.1794373 -0.11021753 0.112208314 -0.03561944
0000b0 97 4e b7 bd 41 40 ca bd 3c ed 01 be e4 6a 4e bd
       -0.08950537 -0.09875537 -0.12688154 -0.050394908
0000c0 51 3a e1 3d 6f 9f c4 bd 4f 6e d1 bc 00 2e b1 3d
       0.10997451 -0.09600722 -0.025565295 0.08651352
0000d0 35 64 1e bd 07 49 e7 bd b1 c5 63 3c b0 d9 4f 3d
       -0.038669784 -0.11293226 0.013902114 0.050744712
0000e0 76 8e 8c 3d be 2b 81 bc 29 81 f9 bd f6 8b 37 bd
       0.0686311 -0.015767928 -0.121828385 -0.04481121
0000f0 33 33 3d be 1f e3 ea 3c ba c1 44 bd 49 75 be 3c
       -0.18476562 0.028672753 -0.048036315 0.023249285
000100 1e 25 58 bd 5b 32 9b bd d5 25 9e bc 10 ea af 3d
       -0.052769773 -0.07577964 -0.01930515 0.08589566
000110 b8 5c b5 3d 6e c4 df bc 64 35 8f 3c f3 44 94 3d
       0.08855575 -0.027315345 0.017481513 0.072397135
000120 2b 0a 11 bd 1e 04 d6 3c 44 70 54 3c d2 bb 18 3d
       -0.035410088 0.02612501 0.012966219 0.037288494
000130 2c 12 dc bd af 56 14 be d4 5c 02 be 2e 23 21 bb
       -0.107456535 -0.14486192 -0.12730724 -0.002458762
000140 ce f5 91 3d 54 24 3e 3e b6 24 32 bd c5 8b 04 be
       0.07126962 0.18568546 -0.04349204 -0.12943943
000150 bc 8a a6 bd 21 25 dd 3d f2 5f 0a be 6f ee d8 bd
       -0.0813193 0.107980974 -0.13513163 -0.105923526
000160 56 8d 54 3c 1d 2f 91 3d 1c f8 57 bd db a2 f3 3d
       0.01297315 0.07089064 -0.05272685 0.118962966
000170 4b 43 b3 bd 9d 8f 01 be ee 7c 33 bc 91 59 9b 3d
       -0.087530695 -0.1265244 -0.0109550785 0.07585443
000180 b6 ee 91 bd ec 28 33 be 8c c7 00 3e 06 6a d6 3d
       -0.071256086 -0.17496079 0.12576121 0.10469441
000190 a2 b2 8e bd d3 e8 53 3c 44 6a e0 3c 26 40 85 bd
       -0.06967665 0.012933928 0.027394421 -0.06506376
0001a0 85 fb 0d bd e8 b6 67 bc d7 88 b4 3b e2 9d 83 bd
       -0.034663696 -0.014142729 0.0055094766 -0.06426598
0001b0 ac cd 7f 3d d4 98 07 3e ea 18 99 bd b3 bd d8 3d
       0.062452003 0.13241893 -0.07475455 0.10583057
0001c0 dc 91 ec bd 13 98 92 bd 43 71 97 3d 39 a8 de bd
       -0.11551258 -0.07157912 0.0739465 -0.1087193
0001d0 31 b0 27 be 82 12 ee 3d 67 a8 c2 3d da 84 f2 3c
       -0.16375805 0.11624624 0.095047764 0.029604364
0001e0 91 c2 0a 3e 0c 24 c2 3b 8a 84 b9 bd 52 ba 60 bd
       0.13550784 0.0059247073 -0.09058483 -0.05486519
0001f0 e6 57 85 bb bf 4c 63 3c 74 6e ef 3d ba 55 15 3e
       -0.004069316 0.013873278 0.11690989 0.14583483
000200 05 29 d8 bc ee df 0b be 04 b6 87 3d 97 60 8f bd
       -0.026386747 -0.13659641 0.066265136 -0.07000845
000210 f7 1d 97 3d 54 a3 e9 bb 8b 61 70 bd 51 d3 c9 3d
       0.07378762 -0.007130066 -0.058686774 0.098547585
000220 1a a7 cb bd be 41 c3 3c cf ee 95 bd 2b 61 e3 3d
       -0.099439815 0.02383506 -0.0732094 0.11102518
000230 29 41 0d be 97 27 94 3c 97 33 8d bd 11 d8 03 be
       -0.13794388 0.018085284 -0.068946056 -0.12875392
000240 3c fc 16 bd 69 c9 85 bd 96 f4 9e 3c 3a 06 0b 3e
       -0.036861643 -0.065325566 0.019403737 0.13576594
000250 e2 ca ec 3c 9e 88 d6 3d 75 28 ad 3c d6 0f e5 bd
       0.028905336 0.104752764 0.021137455 -0.11184661
000260 45 81 54 bd 27 15 10 be 96 46 9a 3d 81 96 29 3e
       -0.051881094 -0.14070569 0.075329944 0.16561319
000270 dc 5e 86 bd 28 23 ba 3d 2b f2 04 3e 47 df e5 bb
       -0.06561062 0.09088737 0.12983005 -0.007015142
000280 9a f8 20 bd e0 10 e1 3d 3a 2a 58 bd db 41 ff bd
       -0.039299585 0.10989547 -0.052774645 -0.12463733
000290 ec ca 86 bc e3 b3 67 3d 7d b6 fd bd 06 0d 9d 3d
       -0.016454183 0.056568038 -0.123883225 0.076685
0002a0 e9 3b a0 bd 52 cc 89 3d ff ce fb bd 22 87 cc 3d
       -0.07823927 0.06728424 -0.12295341 0.09986712
0002b0 c5 0b b6 bd 97 93 3a bd ac d8 c1 bd 6b d6 1a 3d
       -0.088889636 -0.04555091 -0.09465155 0.03780214
0002c0 07 4a 12 3e d6 b3 c0 bd c9 af a4 3d d5 37 a0 bd
       0.14286052 -0.09409301 0.08041341 -0.07823149
0002d0 91 d3 7f bd 67 c1 00 bd be 66 10 3d f0 5f e0 bc
       -0.062457625 -0.031434443 0.035254233 -0.027389497
0002e0 d6 05 2b bd 53 07 d3 3a b3 f5 7d 3d 32 79 c2 bd
       -0.041753612 0.0016100205 0.062001895 -0.094957724
0002f0 0c 50 24 3c 61 ec 55 3d 4d 83 09 3e 40 a3 91 bb
       0.01002885 0.05222738 0.13428994 -0.0044445097
000300 24 50 a9 3d 32 aa af 3d 76 6b aa 3c c1 c9 9e bd
       0.08267239 0.08577384 0.020803194 -0.07753325
000310 c1 de 5f be 07 18 aa bd 4b 9f fb bd a0 af 5a 3c
       -0.21862318 -0.08305364 -0.12286242 0.013347536
000320 ea ce 12 be bd cc 9f bd 95 b7 ca bd 0b bf ee bd
       -0.14336744 -0.078027226 -0.09898297 -0.11657532
000330 8f 75 6c bd 5f b7 aa 3d 22 76 81 3d 51 07 9e 3d
       -0.0577293 0.083357565 0.0632136 0.07716239
000340 5e 28 e7 3c 20 3e 7c 3d 39 2d 7a 3d d8 ce d6 3d
       0.02821749 0.061582685 0.061078284 0.10488671
000350 a3 32 bc 3d c9 3c 70 3a 1d ea a5 bd e3 6b 01 3e
       0.09189346 0.0009164331 -0.08101294 0.12638812
000360 2c 0b d9 bd c1 dd 25 3d 5b 0f fc bd 74 9b 67 3d
       -0.10597834 0.040494684 -0.12307616 0.056544736
000370 ea 28 d2 bd 4c b0 a1 bd f3 f4 03 3e 28 8a 43 bd
       -0.1026171 -0.07894954 0.1288641 -0.047739178
000380 1b e1 f2 3c ae 71 f6 bb 76 2d 38 bc b1 3d ca 3c
       0.029648354 -0.007520876 -0.0112413075 0.02468762
000390 05 58 22 ba e1 06 ee bd 99 36 ba bd fa 4b 1d be
       -0.00061929255 -0.11622406 -0.09092445 -0.15361014
0003a0 c3 a5 e1 3d 4a 8d 67 bc 38 00 b3 3d ff e4 09 3e
       0.11017945 -0.014132807 0.08740276 0.13466261
0003b0 86 5a 60 bd f4 34 4f bd ca c2 1d be e3 30 03 bd
       -0.05477383 -0.05058761 -0.15406337 -0.032029044
0003c0 46 ee e2 3c 8c a8 0e be ba 38 fa bd c4 6b 13 bd
       0.027701508 -0.13931483 -0.12217851 -0.035991445
0003d0 69 b7 29 bd 0a 49 94 bd c6 d6 16 be 5a cb 0c be
       -0.04143468 -0.072404936 -0.14730367 -0.13749447
0003e0 40 02 7d bd 90 ab fc 3d 20 e6 ec 3d 8d 7b 85 3d
       -0.061769724 0.123374104 0.1156733 0.06517706
0003f0 81 49 f0 bc 42 66 8e bd bd d3 e7 3c b3 4c b6 3d
       -0.029331924 -0.06953098 0.028299207 0.08901348

bias f4 [50]
000000 99 13 e8 bc e6 6e 03 3e 61 ef e9 bd 4a 85 27 3e
       -0.028329657 0.12835273 -0.11422611 0.1635944
000010 0c 91 63 3d 5b ee 84 3d 01 c4 0a be b0 db 91 3d
       0.05555825 0.06490775 -0.13551332 0.0712198
000020 0c e7 33 be 95 1f ad bd 55 bb f0 bd 7b f7 d1 b9
       -0.17568606 -0.084532894 -0.11754481 -0.00040047974
000030 f3 4c 68 bc 7a d1 b8 3d a0 a6 cf bd 26 4c b6 3d
       -0.014178502 0.090243295 -0.10139203 0.08901243
000040 31 45 2c be 0f 41 81 bd 25 98 88 3c 2a 35 cc bd
       -0.1682327 -0.06311237 0.01667411 -0.09971078
000050 fd 16 79 bd 0c db 3f 3b 8a e2 93 bc 6e 3b 88 bd
       -0.06081294 0.002927485 -0.018052358 -0.0665196
000060 56 d5 fe 3b 1d 60 33 bd 90 a2 d7 bd e6 f8 86 3d
       0.0077768965 -0.043792833 -0.10529053 0.06590442
000070 76 88 2a 3e 8a 11 a9 3c 61 82 1e 3e ab e4 3f bb
       0.16653618 0.020638246 0.15479423 -0.0029280584
000080 f7 e8 07 3e 7f d3 1d 3e 09 7d b0 3d 21 14 ac 3d
       0.13272463 0.1541271 0.086175986 0.08402277
000090 7e 6a eb 3a 6a 44 a3 bd 13 e6 73 3d ed 27 a4 3d
       0.0017960814 -0.07972033 0.059545588 0.08015428
0000a0 bc 86 3a bc fe 64 bd 3d 71 25 9d 3a 45 70 e5 3d
       -0.011384662 0.09247778 0.0011989308 0.11203054
0000b0 9e 55 7b 3c e1 9c 51 3d f0 52 25 be ab cb 10 be
       0.015340237 0.051175002 -0.1614492 -0.14140193
0000c0 3a fa d4 3d ca 67 80 3c
       0.103992894 0.01567449

mask f4 [50, 50]
000000 00 00 80 3f 00 00 80 3f 00 00 80 3f 00 00 80 3f
       1.0 1.0 1.0 1.0
000010 00 00 80 3f 00 00 80 3f 00 00 80 3f 00 00 80 3f
       1.0 1.0 1.0 1.0
000020 00 00 80 3f 00 00 80 3f 00 00 80 3f 00 00 80 3f
       1.0 1.0 1.0 1.0
000030 00 00 80 3f 00 00 80 3f 00 00 80 3f 00 00 80 3f
       1.0 1.0 1.0 1.0
000040 00 00 80 3f 00 00 80 3f 00 00 80 3f 00 00 80 3f
       1.0 1.0 1.0 1.0
000050 00 00 80 3f 00 00 80 3f 00 00 80 3f 00 00 80 3f
       1.0 1.0 1.0 1.0
000060 00 00 80 3f 00 00 80 3f 00 00 80 3f 00 00 80 3f
       1.0 1.0 1.0 1.0
000070 00 00 80 3f 00 00 80 3f 00 00 80 3f 00 00 80 3f
       1.0 1.0 1.0 1.0
000080 00 00 80 3f 00 00 80 3f 00 00 80 3f 00 00 80 3f
       1.0 1.0 1.0 1.0
000090 00 00 80 3f 00 00 80 3f 00 00 80 3f 00 00 80 3f
       1.0 1.0 1.0 1.0
0000a0 00 00 80 3f 00 00 80 3f 00 00 80 3f 00 00 80 3f
       1.0 1.0 1.0 1.0
0000b0 00 00 80 3f 00 00 80 3f 00 00 80 3f 00 00 80 3f
       1.0 1.0 1.0 1.0
0000c0 00 00 80 3f 00 00 80 3f 00 00 80 3f 00 00 80 3f
       1.0 1.0 1.0 1.0
0000d0 00 00 80 3f 00 00 80 3f 00 00 80 3f 00 00 80 3f
       1.0 1.0 1.0 1.0
0000e0 00 00 80 3f 00 00 80 3f 00 00 80 3f 00 00 80 3f
       1.0 1.0 1.0 1.0
0000f0 00 00 80 3f 00 00 80 3f 00 00 80 3f 00 00 80 3f
       1.0 1.0 1.0 1.0
000100 00 00 80 3f 00 00 80 3f 00 00 80 3f 00 00 80 3f
       1.0 1.0 1.0 1.0
000110 00 00 80 3f 00 00 80 3f 00 00 80 3f 00 00 80 3f
       1.0 1.0 1.0 1.0
000120 00 00 80 3f 00 00 80 3f 00 00 80 3f 00 00 80 3f
       1.0 1.0 1.0 1.0
000130 00 00 80 3f 00 00 80 3f 00 00 80 3f 00 00 80 3f
       1.0 1.0 1.0 1.0
000140 00 00 80 3f 00 00 80 3f 00 00 80 3f 00 00 80 3f
       1.0 1.0 1.0 1.0
000150 00 00 80 3f 00 00 80 3f 00 00 80 3f 00 00 80 3f
       1.0 1.0 1.0 1.0
000160 00 00 80 3f 00 00 80 3f 00 00 80 3f 00 00 80 3f
       1.0 1.0 1.0 1.0
000170 00 00 80 3f 00 00 80 3f 00 00 80 3f 00 00 80 3f
       1.0 1.0 1.0 1.0
000180 00 00 80 3f 00 00 80 3f 00 00 80 3f 00 00 80 3f
       1.0 1.0 1.0 1.0
000190 00 00 80 3f 00 00 80 3f 00 00 80 3f 00 00 80 3f
       1.0 1.0 1.0 1.0
0001a0 00 00 80 3f 00 00 80 3f 00 00 80 3f 00 00 80 3f
       1.0 1.0 1.0 1.0
0001b0 00 00 80 3f 00 00 80 3f 00 00 80 3f 00 00 80 3f
       1.0 1.0 1.0 1.0
0001c0 00 00 80 3f 00 00 80 3f 00 00 80 3f 00 00 80 3f
       1.0 1.0 1.0 1.0
0001d0 00 00 80 3f 00 00 80 3f 00 00 80 3f 00 00 80 3f
       1.0 1.0 1.0 1.0
0001e0 00 00 80 3f 00 00 80 3f 00 00 80 3f 00 00 80 3f
       1.0 1.0 1.0 1.0
0001f0 00 00 80 3f 00 00 80 3f 00 00 80 3f 00 00 80 3f
       1.0 1.0 1.0 1.0
000200 00 00 80 3f 00 00 80 3f 00 00 80 3f 00 00 80 3f
       1.0 1.0 1.0 1.0
000210 00 00 80 3f 00 00 80 3f 00 00 80 3f 00 00 80 3f
       1.0 1.0 1.0 1.0
000220 00 00 80 3f 00 00 80 3f 00 00 80 3f 00 00 80 3f
       1.0 1.0 1.0 1.0
000230 00 00 80 3f 00 00 80 3f 00 00 80 3f 00 00 80 3f
       1.0 1.0 1.0 1.0
000240 00 00 80 3f 00 00 80 3f 00 00 80 3f 00 00 80 3f
       1.0 1.0 1.0 1.0
000250 00 00 80 3f 00 00 80 3f 00 00 80 3f 00 00 80 3f
       1.0 1.0 1.0 1.0
000260 00 00 80 3f 00 00 80 3f 00 00 80 3f 00 00 80 3f
       1.0 1.0 1.0 1.0
000270 00 00 80 3f 00 00 80 3f 00 00 80 3f 00 00 80 3f
       1.0 1.0 1.0 1.0
000280 00 00 80 3f 00 00 80 3f 00 00 80 3f 00 00 80 3f
       1.0 1.0 1.0 1.0
000290 00 00 80 3f 00 00 80 3f 00 00 80 3f 00 00 80 3f
       1.0 1.0 1.0 1.0
0002a0 00 00 80 3f 00 00 80 3f 00 00 80 3f 00 00 80 3f
       1.0 1.0 1.0 1.0
0002b0 00 00 80 3f 00 00 80 3f 00 00 80 3f 00 00 80 3f
       1.0 1.0 1.0 1.0
0002c0 00 00 80 3f 00 00 80 3f 00 00 80 3f 00 00 80 3f
       1.0 1.0 1.0 1.0
0002d0 00 00 80 3f 00 00 80 3f 00 00 80 3f 00 00 80 3f
       1.0 1.0 1.0 1.0
0002e0 00 00 80 3f 00 00 80 3f 00 00 80 3f 00 00 80 3f
       1.0 1.0 1.0 1.0
0002f0 00 00 80 3f 00 00 80 3f 00 00 80 3f 00 00 80 3f
       1.0 1.0 1.0 1.0
000300 00 00 80 3f 00 00 80 3f 00 00 80 3f 00 00 80 3f
       1.0 1.0 1.0 1.0
000310 00 00 80 3f 00 00 80 3f 00 00 80 3f 00 00 80 3f
       1.0 1.0 1.0 1.0
000320 00 00 80 3f 00 00 80 3f 00 00 80 3f 00 00 80 3f
       1.0 1.0 1.0 1.0
000330 00 00 80 3f 00 00 80 3f 00 00 80 3f 00 00 80 3f
       1.0 1.0 1.0 1.0
000340 00 00 80 3f 00 00 80 3f 00 00 80 3f 00 00 80 3f
       1.0 1.0 1.0 1.0
000350 00 00 80 3f 00 00 80 3f 00 00 80 3f 00 00 80 3f
       1.0 1.0 1.0 1.0
000360 00 00 80 3f 00 00 80 3f 00 00 80 3f 00 00 80 3f
       1.0 1.0 1.0 1.0
000370 00 00 80 3f 00 00 80 3f 00 00 80 3f 00 00 80 3f
       1.0 1.0 1.0 1.0
000380 00 00 80 3f 00 00 80 3f 00 00 80 3f 00 00 80 3f
       1.0 1.0 1.0 1.0
000390 00 00 80 3f 00 00 80 3f 00 00 80 3f 00 00 80 3f
       1.0 1.0 1.0 1.0
0003a0 00 00 80 3f 00 00 80 3f 00 00 80 3f 00 00 80 3f
       1.0 1.0 1.0 1.0
0003b0 00 00 80 3f 00 00 80 3f 00 00 80 3f 00 00 80 3f
       1.0 1.0 1.0 1.0
0003c0 00 00 80 3f 00 00 80 3f 00 00 80 3f 00 00 80 3f
       1.0 1.0 1.0 1.0
0003d0 00 00 80 3f 00 00 80 3f 00 00 80 3f 00 00 80 3f
       1.0 1.0 1.0 1.0
0003e0 00 00 80 3f 00 00 80 3f 00 00 80 3f 00 00 80 3f
       1.0 1.0 1.0 1.0
0003f0 00 00 80 3f 00 00 80 3f 00 00 80 3f 00 00 80 3f
       1.0 1.0 1.0 1.0

weight f4 [4, 50]
000000 35 86 04 be e0 e6 23 3d 3e 79 82 bd 5c 7a 4e bd
       -0.12941821 0.0400151 -0.06370781 -0.05040966
000010 80 5e 05 3b 68 ac 6f 3d 56 68 e3 3d 8a 34 16 bd
       0.0020350516 0.05851403 0.11103885 -0.0366712
000020 c8 01 62 3d 10 5c 81 bc 20 86 58 3d 29 39 e3 bd
       0.05517748 -0.01579097 0.052862287 -0.11094887
000030 d8 6b 4c bd 74 89 b9 bc 6f 0d d0 bd 64 fe 78 3d
       -0.049907535 -0.02264855 -0.10158812 0.06078948
000040 f0 f4 05 3d f8 55 9c 3d fe ed bb 3d 00 4d 44 3c
       0.032704294 0.07633585 0.09176253 0.011981249
000050 a3 44 ea bd d8 be af bc e9 7f bf bd 34 28 f3 bc
       -0.11438873 -0.021453306 -0.09350569 -0.029682256
000060 04 da 2e 3d de 71 dc 3d ea c7 af bd 31 43 af bd
       0.042688385 0.10763906 -0.085830525 -0.085577376
000070 ad c9 d9 bd 74 7b 8a 3d da fa ed 3d c4 3c 69 3d
       -0.1063417 0.06761828 0.11620112 0.056942716
000080 94 c9 c6 bd c4 11 f8 bc c6 0d de 3d 8c 6b c1 bc
       -0.09706417 -0.030281909 0.10842471 -0.023610853
000090 12 a0 69 bd 48 5e f3 bd 04 b4 f7 bd 16 62 ae bd
       -0.05703742 -0.11883217 -0.12094882 -0.08514802
0000a0 7c 65 37 bd 74 7f a2 3d 74 7d d4 3d 10 2a 5c 3c
       -0.044774517 0.07934466 0.10375491 0.013437763
0000b0 e6 e0 75 bd 04 6a da bc 47 5b 0d 3e 88 f0 1d 3d
       -0.060028933 -0.02666188 0.13804351 0.038559467
0000c0 9b 49 05 3e 9c 45 04 bd bc 6a 74 3d b8 bc f9 3c
       0.1301636 -0.032292947 0.059672102 0.030485496
0000d0 20 24 c5 3c 18 56 ef 3c ae 36 fa 3d d4 b6 a4 bd
       0.024065077 0.029215857 0.122174606 -0.08042684
0000e0 c6 26 2f bd 57 7d ff bd 43 d5 ae bd b9 bf 0e 3e
       -0.042761587 -0.124750786 -0.0853677 0.13940324
0000f0 60 d4 b2 bd 7a ab 2a bd 4a e5 88 3d 46 46 be bd
       -0.087319136 -0.04166744 0.066843584 -0.09290747
000100 f5 d0 b0 bd 9b b9 90 bd e4 6f 57 bd f8 16 71 3d
       -0.086336054 -0.070666514 -0.05259694 0.058859795
000110 c0 a0 da 3b f4 97 89 bc ea 50 ac 3d cc 84 82 3d
       0.006671995 -0.01679609 0.08413871 0.06372985
000120 3b 9e 98 bd 5b 4e da bd 80 52 d1 ba de 40 8c bd
       -0.07452055 -0.10659476 -0.0015970021 -0.0684831
000130 d1 b3 0d be 90 30 00 3d 24 72 7a 3d 30 7a 52 3d
       -0.13838126 0.031296313 0.06114401 0.05138606
000140 20 28 88 bc 75 b0 f0 bd cd 66 90 bd fc a6 2c 3d
       -0.016620696 -0.117524065 -0.07050858 0.042151436
000150 b6 17 fc bd 00 a5 13 bb a0 46 54 3c 9c 73 bc 3d
       -0.1230921 -0.0022528768 0.012956291 0.09201738
000160 41 3c 0c 3e f4 1a 05 3d 40 f1 47 bc b0 23 07 bc
       0.1369486 0.032496408 -0.012203515 -0.008248255
000170 a0 0f c9 bb 10 2f fd 3c 57 e8 80 bd 9f 72 af bd
       -0.006135896 0.03090623 -0.06294315 -0.08566784
000180 c2 97 e5 3d 55 dd 05 3e d0 4f 06 bd 40 4a 63 3c
       0.11210586 0.13072713 -0.03279096 0.013872683
000190 56 73 1e 3e 93 65 0d 3e 65 76 c6 bc bc 19 2f 3e
       0.15473685 0.13808279 -0.024226377 0.1709966
0001a0 80 9f 89 3c 10 74 2d be 40 9d ea bd 30 a2 94 3c
       0.016799688 -0.16938806 -0.11455774 0.018143743
0001b0 ef ee 76 bd f8 90 8d 3d bd d9 f7 3d d1 48 39 be
       -0.06028646 0.06912416 0.12102077 -0.18094184
0001c0 5a d1 48 3e 99 79 98 3d 5d c5 1f 3e 61 2a cb bc
       0.19611111 0.07445068 0.15602632 -0.024800481
0001d0 56 03 24 be 03 c4 c5 3d 7a 3e bc 3d 58 a7 62 bd
       -0.16016898 0.09656527 0.09191604 -0.055335373
0001e0 ca c3 73 3e 1b 9d 01 3d e4 ce 15 bd 08 7e 9e bd
       0.23805156 0.031643968 -0.03657426 -0.07738882
0001f0 10 93 e3 bd bf cd 7a 3d 10 6e e7 bd 39 9e 01 be
       -0.11112034 0.06123137 -0.1130029 -0.12658013
000200 15 53 e6 3d 5e f1 34 3e 42 37 9f 3d 1c c9 30 be
       0.112463154 0.176702 0.077742115 -0.17264217
000210 b0 e4 d3 3d 11 86 4a be e0 d6 da bd 0d 73 07 3e
       0.10346353 -0.19777705 -0.106855154 0.13227482
000220 aa 29 be 3d c1 94 39 be 13 d6 02 be b7 e5 a8 3d
       0.092852905 -0.18123151 -0.12776975 0.0824694
000230 f5 dc 0e be 06 9d 91 bd 03 34 2a be e5 a0 49 be
       -0.13951476 -0.07110028 -0.16621403 -0.19690283
000240 1f f4 2e 3e d2 16 39 3d be 29 9e bd 96 6d b9 bd
       0.17085312 0.04518778 -0.077228054 -0.09054105
000250 5c ef eb 3d 36 8c 3d be 8b 68 31 be 25 d0 0f be
       0.115202636 -0.18510517 -0.17325036 -0.14044245
000260 d1 a8 bc bc 9e d9 51 bd 18 0c f3 3d 56 47 7c 3d
       -0.023029717 -0.051232927 0.11867541 0.06159147
000270 75 c4 c4 3d e0 73 e0 bd 2b c9 43 3a 27 82 d1 bd
       0.09607784 -0.109596014 0.0007468636 -0.10229903
000280 0a 0d 78 3d 64 3b b7 bc 8a 93 93 3d 62 db b9 bd
       0.06055931 -0.022367187 0.07205875 -0.09075047
000290 9d 91 ca 3d 00 7d 47 bd a9 70 a0 bc 3b 0b 21 be
       0.09891055 -0.048703194 -0.01958497 -0.1572694
0002a0 fe 7f 19 be ff 94 d2 3d 2e e4 92 3d f9 08 1c bd
       -0.14990231 0.10282325 0.07172428 -0.038094494
0002b0 45 a4 03 3e 21 87 cd 3d 43 fc b0 3d 5a 5d 9a 3c
       0.12855633 0.100355394 0.08641865 0.018843342
0002c0 f5 01 8d bc d4 66 ee 3c 82 7a ca bd 78 37 1a 3c
       -0.017212847 0.029101767 -0.09886648 0.009412639
0002d0 a4 b4 be bd 1b fc 30 3d 46 41 be bc 0d 4c b0 3b
       -0.09311798 0.043209177 -0.023224484 0.0053801597
0002e0 d5 ec ec 3d 62 cd 26 be 36 84 1a bd ab 24 f1 bc
       0.115686096 -0.16289285 -0.037723742 -0.02943643
0002f0 a0 39 4a 3d 8f 94 2c be ff 76 b9 3d 04 f7 29 3d
       0.04937136 -0.16853546 0.090559 0.041495338
000300 32 b7 8d 3c 89 1f 38 bd 92 11 6c 3c b0 8d 17 bc
       0.017299268 -0.04495195 0.014408486 -0.0092500895
000310 d9 7e 88 3d 3e d4 03 3e 46 2f 1c 3d ea 5a 2e 3e
       0.06664819 0.12873933 0.03813102 0.17026868

bias f4 [4]
000000 8d 7d 06 3e f8 5c 34 bd 1d 65 b8 3d f6 bb fb bd
       0.13133831 -0.044033974 0.09003661 -0.1229171

mask f4 [4, 50]
000000 00 00 00 00 00 00 00 00 00 00 00 00 00 00 00 00
       0.0 0.0 0.0 0.0
000010 00 00 00 00 00 00 00 00 00 00 00 00 00 00 00 00
       0.0 0.0 0.0 0.0
000020 00 00 00 00 00 00 00 00 00 00 00 00 00 00 00 00
       0.0 0.0 0.0 0.0
000030 00 00 00 00 00 00 00 00 00 00 00 00 00 00 00 00
       0.0 0.0 0.0 0.0
000040 00 00 00 00 00 00 00 00 00 00 00 00 00 00 00 00
       0.0 0.0 0.0 0.0
000050 00 00 00 00 00 00 00 00 00 00 00 00 00 00 00 00
       0.0 0.0 0.0 0.0
000060 00 00 00 00 00 00 00 00 00 00 00 00 00 00 00 00
       0.0 0.0 0.0 0.0
000070 00 00 00 00 00 00 00 00 00 00 00 00 00 00 00 00
       0.0 0.0 0.0 0.0
000080 00 00 00 00 00 00 00 00 00 00 00 00 00 00 00 00
       0.0 0.0 0.0 0.0
000090 00 00 00 00 00 00 00 00 00 00 00 00 00 00 00 00
       0.0 0.0 0.0 0.0
0000a0 00 00 00 00 00 00 00 00 00 00 00 00 00 00 00 00
       0.0 0.0 0.0 0.0
0000b0 00 00 00 00 00 00 00 00 00 00 00 00 00 00 00 00
       0.0 0.0 0.0 0.0
0000c0 00 00 00 00 00 00 00 00 00 00 00 00 00 00 00 00
       0.0 0.0 0.0 0.0
0000d0 00 00 00 00 00 00 00 00 00 00 00 00 00 00 00 00
       0.0 0.0 0.0 0.0
0000e0 00 00 00 00 00 00 00 00 00 00 00 00 00 00 00 00
       0.0 0.0 0.0 0.0
0000f0 00 00 00 00 00 00 00 00 00 00 00 00 00 00 00 00
       0.0 0.0 0.0 0.0
000100 00 00 00 00 00 00 00 00 00 00 00 00 00 00 00 00
       0.0 0.0 0.0 0.0
000110 00 00 00 00 00 00 00 00 00 00 00 00 00 00 00 00
       0.0 0.0 0.0 0.0
000120 00 00 00 00 00 00 00 00 00 00 00 00 00 00 00 00
       0.0 0.0 0.0 0.0
000130 00 00 00 00 00 00 00 00 00 00 00 00 00 00 00 00
       0.0 0.0 0.0 0.0
000140 00 00 00 00 00 00 00 00 00 00 00 00 00 00 00 00
       0.0 0.0 0.0 0.0
000150 00 00 00 00 00 00 00 00 00 00 00 00 00 00 00 00
       0.0 0.0 0.0 0.0
000160 00 00 00 00 00 00 00 00 00 00 00 00 00 00 00 00
       0.0 0.0 0.0 0.0
000170 00 00 00 00 00 00 00 00 00 00 00 00 00 00 00 00
       0.0 0.0 0.0 0.0
000180 00 00 00 00 00 00 00 00 00 00 00 00 00 00 00 00
       0.0 0.0 0.0 0.0
000190 00 00 80 3f 00 00 80 3f 00 00 80 3f 00 00 80 3f
       1.0 1.0 1.0 1.0
0001a0 00 00 80 3f 00 00 80 3f 00 00 80 3f 00 00 80 3f
       1.0 1.0 1.0 1.0
0001b0 00 00 80 3f 00 00 80 3f 00 00 80 3f 00 00 80 3f
       1.0 1.0 1.0 1.0
0001c0 00 00 80 3f 00 00 80 3f 00 00 80 3f 00 00 80 3f
       1.0 1.0 1.0 1.0
0001d0 00 00 80 3f 00 00 80 3f 00 00 80 3f 00 00 80 3f
       1.0 1.0 1.0 1.0
0001e0 00 00 80 3f 00 00 80 3f 00 00 80 3f 00 00 80 3f
       1.0 1.0 1.0 1.0
0001f0 00 00 80 3f 00 00 80 3f 00 00 80 3f 00 00 80 3f
       1.0 1.0 1.0 1.0
000200 00 00 80 3f 00 00 80 3f 00 00 80 3f 00 00 80 3f
       1.0 1.0 1.0 1.0
000210 00 00 80 3f 00 00 80 3f 00 00 80 3f 00 00 80 3f
       1.0 1.0 1.0 1.0
000220 00 00 80 3f 00 00 80 3f 00 00 80 3f 00 00 80 3f
       1.0 1.0 1.0 1.0
000230 00 00 80 3f 00 00 80 3f 00 00 80 3f 00 00 80 3f
       1.0 1.0 1.0 1.0
000240 00 00 80 3f 00 00 80 3f 00 00 80 3f 00 00 80 3f
       1.0 1.0 1.0 1.0
000250 00 00 80 3f 00 00 80 3f 00 00 80 3f 00 00 80 3f
       1.0 1.0 1.0 1.0
000260 00 00 80 3f 00 00 80 3f 00 00 80 3f 00 00 80 3f
       1.0 1.0 1.0 1.0
000270 00 00 80 3f 00 00 80 3f 00 00 80 3f 00 00 80 3f
       1.0 1.0 1.0 1.0
000280 00 00 80 3f 00 00 80 3f 00 00 80 3f 00 00 80 3f
       1.0 1.0 1.0 1.0
000290 00 00 80 3f 00 00 80 3f 00 00 80 3f 00 00 80 3f
       1.0 1.0 1.0 1.0
0002a0 00 00 80 3f 00 00 80 3f 00 00 80 3f 00 00 80 3f
       1.0 1.0 1.0 1.0
0002b0 00 00 80 3f 00 00 80 3f 00 00 80 3f 00 00 80 3f
       1.0 1.0 1.0 1.0
0002c0 00 00 80 3f 00 00 80 3f 00 00 80 3f 00 00 80 3f
       1.0 1.0 1.0 1.0
0002d0 00 00 80 3f 00 00 80 3f 00 00 80 3f 00 00 80 3f
       1.0 1.0 1.0 1.0
0002e0 00 00 80 3f 00 00 80 3f 00 00 80 3f 00 00 80 3f
       1.0 1.0 1.0 1.0
0002f0 00 00 80 3f 00 00 80 3f 00 00 80 3f 00 00 80 3f
       1.0 1.0 1.0 1.0
000300 00 00 80 3f 00 00 80 3f 00 00 80 3f 00 00 80 3f
       1.0 1.0 1.0 1.0
000310 00 00 80 3f 00 00 80 3f 00 00 80 3f 00 00 80 3f
       1.0 1.0 1.0 1.0

weight f4 [50, 2]
000000 8f 79 96 3e c2 d8 cb 3e ce b3 0a bf 79 d1 21 3f
       0.29389617 0.3981381 -0.5418061 0.63210255
000010 ef 97 05 3f 23 20 2b bf d1 b7 07 3f 84 cf d6 be
       0.5218496 -0.6684591 0.53014857 -0.41955197
000020 1e 88 32 3e fc d9 29 bf 32 79 54 bf 3a 2e b8 3e
       0.17434737 -0.6634824 -0.8299743 0.35972768
000030 d3 9a 2b bf 60 4b cc be f1 bc 6f bd 43 db 18 3f
       -0.6703312 -0.39901257 -0.058529798 0.59709567
000040 de 15 9d bd da 95 25 bf 31 7d 0a 3f 35 65 20 3f
       -0.076701865 -0.6468178 0.54097277 0.6265443
000050 5f ce 09 3f 4a 33 06 bf 3b 74 3e 3d f4 00 2d be
       0.5383052 -0.5242201 0.046497565 -0.16894895
000060 2d c5 94 be 5e 72 f2 3e a2 88 4b 3f 49 89 05 3f
       -0.29056683 0.4735288 0.7950536 0.52162606
000070 3f 46 db be d0 ab 3c be 27 19 f3 be 18 a7 26 bf
       -0.4282703 -0.18424916 -0.47480127 -0.65098715
000080 b6 2b 5b 3d 07 37 1a 3f 4e 7e 53 be 84 30 43 be
       0.053508483 0.60240215 -0.2065365 -0.19061476
000090 95 47 38 3e 89 59 33 3f 44 ee 33 bf 41 8a 0e 3f
       0.17996056 0.70058495 -0.7028544 0.5567971
0000a0 cd 73 22 bf f3 40 34 bf 35 4b 27 bf bc 5b b3 be
       -0.6345795 -0.70411605 -0.6534913 -0.35030925
0000b0 36 1a 20 bf e3 cd 2d 3f 16 cd a7 3e f5 e7 26 3f
       -0.62539995 0.67892283 0.32773656 0.6519769
0000c0 a8 d6 2f 3f 6e 6c b4 3e f9 9a e4 3e 80 45 e5 bb
       0.68686914 0.35238975 0.44649485 -0.0069968104
0000d0 40 80 e1 be 4a 45 a0 3e 08 41 80 3e 32 66 a4 3e
       -0.4404316 0.31302863 0.25049615 0.3210922
0000e0 8d de f0 3e 58 1b cf bd 68 49 f8 be e0 f0 b1 bc
       0.47044793 -0.10112637 -0.48493505 -0.021721303
0000f0 5f 69 b2 3d df 57 1b bf 96 6d 29 bd df b9 21 3f
       0.08711504 -0.60680956 -0.041364275 0.6317424
000100 67 3e 9b ba 60 95 19 3d 05 7f 08 bd 10 10 08 be
       -0.0011844159 0.03749597 -0.03332426 -0.13287377
000110 84 41 9a 3e 30 cd 13 be 77 86 ff be 2f ff 17 bf
       0.3012811 -0.14433742 -0.49907276 -0.59373754
000120 29 14 0e bd a3 ec 0f bf ec c3 4c be da ae c5 3e
       -0.034687195 -0.56220454 -0.19996613 0.38609964
000130 3a c9 be be 50 d5 08 be e6 10 e0 be 8c db ac be
       -0.372629 -0.13362622 -0.43762892 -0.3376125
000140 0e 77 39 3e 5f 11 2d bf aa 06 47 3e d8 d9 eb bd
       0.18111822 -0.6760463 0.19436136 -0.1151616
000150 ce ba 07 bf 60 6c b0 bc 0a be ec be 26 24 ed 3e
       -0.53019416 -0.021536052 -0.46238738 0.46316642
000160 98 a0 03 3e dc 02 27 3e b0 5b 26 3e ab 76 31 3f
       0.1285423 0.16309685 0.16245914 0.693217
000170 e5 b0 b4 be 2e 50 a6 3e 8c 38 15 bf 7d 96 83 be
       -0.3529121 0.32483047 -0.5828941 -0.2570075
000180 4f 99 c1 be 80 dc 1a be 76 6d 2f be 40 84 f5 bc
       -0.37812278 -0.15123177 -0.171316 -0.029970288
