03b/GPS_1256775418/model_ai_seed_73737.pth (torch, 278418 bytes, 76 tensors)

_shift f4 [2]
0	0x4026d0f5	2.6065037
1	0xbfdfe669	-1.7492191

_scale f4 [2]
0	0x3e320dde	0.17388102
1	0x405e6d25	3.4754117

weight f4 [50, 2]
0	0x3df54ea1	0.11977888
1	0x3d289770	0.041160047
2	0x3f1215e6	0.57064664
3	0x3f20ac35	0.6276277
4	0x3f1c6c1b	0.61102456
5	0x3db9ff48	0.09081894
6	0xbdc2d9ac	-0.09514174
7	0xbd281390	-0.04103428
8	0xbdb85bda	-0.09001894
9	0x3eb854ce	0.360022
10	0x3f206963	0.6266081
11	0x3f10662b	0.56405896
12	0xbdfa8d9b	-0.1223404
13	0xbf1bd097	-0.6086516
14	0x3e15ea79	0.14640225
15	0x3e380428	0.17970335
16	0x3dc33270	0.095311046
17	0x3cad9160	0.021187484
18	0xbf3e45c9	-0.74325234
19	0xbf2337f6	-0.63757265
20	0xbf149c96	-0.5805143
21	0xbdf9f7e0	-0.122054815
22	0xbe05da8b	-0.13071649
23	0xbebd61e4	-0.36988747
24	0xbc61cd57	-0.013781867
25	0xbef6fb5e	-0.48238653
26	0xbe87b9a9	-0.26508835
27	0xbeda5952	-0.4264627
28	0xbf03db07	-0.51506084
29	0xbd4f1630	-0.05055827
30	0x3c98e29b	0.018662741
31	0x3ebbd492	0.36685616
32	0x3db46c7e	0.08809756
33	0xbd711270	-0.058855474
34	0x3f1ba2d4	0.6079533
35	0x3f04b457	0.51837677
36	0x3f34382b	0.70398206
37	0xbf03f11e	-0.5153979
38	0xbf03d812	-0.5150157
39	0xbf2a2fb1	-0.6647902
40	0xbf2c4909	-0.6729894
41	0xbc0d7e40	-0.008636057
42	0x3dbea8f0	0.09309566
43	0xbe8d3015	-0.27575746
44	0x3e834ba1	0.25643638
45	0x3eb88712	0.3604055
46	0xbe7c7068	-0.24652255
47	0x3ec94cca	0.39316398
48	0xbd98842f	-0.07447087
49	0xbda9c968	-0.08290368
50	0xbdbf066f	-0.09327399
51	0x3cabe2e0	0.020982206
52	0xbee52c56	-0.44760388
53	0xbf2cbcd7	-0.67475647
54	0x3d0d0673	0.03442998
55	0xbc072540	-0.008248627
56	0xbea9ee52	-0.33189636
57	0xbdfd23e0	-0.12360358
58	0xbe4ad155	-0.19806416
59	0x3e54dcf8	0.20787418
60	0x3e480414	0.19532806
61	0xbf1f0e2b	-0.62130994
62	0xbf2daf8c	-0.6784599
63	0xbc274700	-0.010209799
64	0x3e86a188	0.26295114
65	0xbce00a80	-0.027348757
66	0x3f0a741b	0.5408341
67	0x3efc5c2a	0.49289066
68	0x3e2717c0	0.16317654
69	0xbe4d1578	-0.20027721
70	0xbec7746f	-0.3895602
71	0x3f119cb5	0.5687974
72	0x3f1b183a	0.6058384
73	0x3f0e150d	0.5550087
74	0xbe5990b2	-0.21246603
75	0x3f31ae73	0.69406813
76	0xbf183e39	-0.59469944
77	0x3f10b73f	0.5652961
78	0x3f4b95bd	0.7952536
79	0xbec50d49	-0.38486698
80	0x3da75411	0.08170331
81	0x3f2efaa7	0.68351215
82	0x3d38c960	0.04511392
83	0x3ea9a506	0.33133715
84	0xbe57655d	-0.21034761
85	0xbddb6b68	-0.107138455
86	0xbeddef89	-0.43346813
87	0x3f1c0945	0.60951644
88	0x3f4e055a	0.80476916
89	0xbdaf5928	-0.08561927
90	0xbef82904	-0.48468792
91	0x3e2accac	0.16679639
92	0x3ef6ba44	0.48188984
93	0xbf1e990b	-0.61952275
94	0xbe434e3d	-0.19072814
95	0xbeb80048	-0.35937715
96	0x3f1e1ee3	0.6176588
97	0x3de41528	0.11136848
98	0xbf27ab4c	-0.65495753
99	0x3f0db8c3	0.5536005

bias f4 [50]
0	0xbd3db0b2	-0.046311088
1	0x3f091f04	0.5356295
2	0x3e9c2689	0.3049815
3	0x3eddfeab	0.4335836
4	0xbe6e12fa	-0.23249426
5	0x3e60c8d8	0.21951616
6	0x3f008355	0.50200397
7	0x3dd9253e	0.106028065
8	0x3e04e4d1	0.12977912
9	0xbec21702	-0.3790818
10	0x3e8f5cc4	0.28000462
11	0x3eddd745	0.433283
12	0x3e1ef477	0.15522943
13	0xbe977570	-0.29581785
14	0x3e48ca21	0.19608356
15	0x3eb3a346	0.35085505
16	0xbf2c4214	-0.6728833
17	0xbf18c9a7	-0.596827
18	0xbdc0a370	-0.09406173
19	0x3ecd54e9	0.40103844
20	0xbefd67a7	-0.49493143
21	0x3f1f75be	0.62289035
22	0x3e0a15dd	0.13484903
23	0xbdebfbbd	-0.11522625
24	0x3ca5973c	0.020213716
25	0x3f343119	0.7038742
26	0xbf1873de	-0.595518
27	0x3eae723f	0.34071538
28	0x3f286cc2	0.6579095
29	0x3ee638f0	0.44965315
30	0xbf2a44ab	-0.6651103
31	0xbeae8941	-0.3408909
32	0xbe4160b2	-0.18884543
33	0xbe949cf6	-0.29026002
34	0xbedb40a8	-0.42822766
35	0x3f276ebb	0.65403336
36	0xbd92179d	-0.0713341
37	0x3e0bb03e	0.1364145
38	0x3ee19d34	0.4406525
39	0x3f2bd9eb	0.6712939
40	0xbe6dd746	-0.23226652
41	0xbe319087	-0.17340289
42	0x3f0ccf0d	0.55003434
43	0xbd890109	-0.066896506
44	0xbf2994f1	-0.6624289
45	0xbf0ae535	-0.5425599
46	0xbebe0e35	-0.37120214
47	0x3e7ced2e	0.24699852
48	0x3e0a327f	0.13495825
49	0xbedd2701	-0.4319382

mask f4 [50, 2]
0	0x3f800000	1.0
1	0x00000000	0.0
2	0x3f800000	1.0
3	0x00000000	0.0
4	0x3f800000	1.0
5	0x00000000	0.0
6	0x3f800000	1.0
7	0x00000000	0.0
8	0x3f800000	1.0
9	0x00000000	0.0
10	0x3f800000	1.0
11	0x00000000	0.0
12	0x3f800000	1.0
13	0x00000000	0.0
14	0x3f800000	1.0
15	0x00000000	0.0
16	0x3f800000	1.0
17	0x00000000	0.0
18	0x3f800000	1.0
19	0x00000000	0.0
20	0x3f800000	1.0
21	0x00000000	0.0
22	0x3f800000	1.0
23	0x00000000	0.0
24	0x3f800000	1.0
25	0x00000000	0.0
26	0x3f800000	1.0
27	0x00000000	0.0
28	0x3f800000	1.0
29	0x00000000	0.0
30	0x3f800000	1.0
31	0x00000000	0.0
32	0x3f800000	1.0
33	0x00000000	0.0
34	0x3f800000	1.0
35	0x00000000	0.0
36	0x3f800000	1.0
37	0x00000000	0.0
38	0x3f800000	1.0
39	0x00000000	0.0
40	0x3f800000	1.0
41	0x00000000	0.0
42	0x3f800000	1.0
43	0x00000000	0.0
44	0x3f800000	1.0
45	0x00000000	0.0
46	0x3f800000	1.0
47	0x00000000	0.0
48	0x3f800000	1.0
49	0x00000000	0.0
50	0x3f800000	1.0
51	0x00000000	0.0
52	0x3f800000	1.0
53	0x00000000	0.0
54	0x3f800000	1.0
55	0x00000000	0.0
56	0x3f800000	1.0
57	0x00000000	0.0
58	0x3f800000	1.0
59	0x00000000	0.0
60	0x3f800000	1.0
61	0x00000000	0.0
62	0x3f800000	1.0
63	0x00000000	0.0
64	0x3f800000	1.0
65	0x00000000	0.0
66	0x3f800000	1.0
67	0x00000000	0.0
68	0x3f800000	1.0
69	0x00000000	0.0
70	0x3f800000	1.0
71	0x00000000	0.0
72	0x3f800000	1.0
73	0x00000000	0.0
74	0x3f800000	1.0
75	0x00000000	0.0
76	0x3f800000	1.0
77	0x00000000	0.0
78	0x3f800000	1.0
79	0x00000000	0.0
80	0x3f800000	1.0
81	0x00000000	0.0
82	0x3f800000	1.0
83	0x00000000	0.0
84	0x3f800000	1.0
85	0x00000000	0.0
86	0x3f800000	1.0
87	0x00000000	0.0
88	0x3f800000	1.0
89	0x00000000	0.0
90	0x3f800000	1.0
91	0x00000000	0.0
92	0x3f800000	1.0
93	0x00000000	0.0
94	0x3f800000	1.0
95	0x00000000	0.0
96	0x3f800000	1.0
97	0x00000000	0.0
98	0x3f800000	1.0
99	0x00000000	0.0

weight f4 [50, 4]
0	0xbee8bc3b	-0.45456108
1	0xbd0568de	-0.032570712
2	0xbe4a10e5	-0.19733007
3	0x3e97fc96	0.29684895
4	0x3e089ee0	0.13341856
5	0xbe4db33c	-0.20087904
6	0xbd7e351b	-0.062062364
7	0xbebe4401	-0.37161258
8	0xbe933d49	-0.28757694
9	0x3df5648a	0.11982067
10	0xbe4cf553	-0.20015459
11	0x3ecefceb	0.40427336
12	0x3dbce0ca	0.092225626
13	0x3ea6a3ce	0.32546848
14	0x3d82536f	0.0636357
15	0x3d262ace	0.040568165
16	0x3eefe2e0	0.4685278
17	0x3c1c6a79	0.009546869
18	0xbcfe4d31	-0.031042667
19	0x3ed845a8	0.42240644
20	0x3ea00941	0.3125706
21	0x3e134154	0.1438039
22	0x3e6cd84a	0.23129383
23	0xbd9ca678	-0.07648939
24	0x3ed9f119	0.42566755
25	0xbd80c65e	-0.062878355
26	0xbe85cddc	-0.2613362
27	0x3e9c4ad2	0.30525833
28	0x3f1bf6c0	0.60923386
29	0x3c04924b	0.00809152
30	0xbecbf37a	-0.39834195
31	0xbed10a39	-0.40828112
32	0x3e74584a	0.23861805
33	0xbd015023	-0.031570565
34	0xbf100eff	-0.5627288
35	0xbc809002	-0.015693668
36	0xbe8abd7e	-0.27097696
37	0x3e5c99a1	0.2154298
38	0x3e07a213	0.1324542
39	0xbe3aa6eb	-0.18227737
40	0x3e6a52f4	0.22883207
41	0xbebaf48e	-0.36514705
42	0xbef8cd1e	-0.48593992
43	0xbd8e80ab	-0.06958135
44	0xbdba4e24	-0.090969354
45	0xbdbdb3e2	-0.092628255
46	0xbdf9f23d	-0.122044064
47	0xbe5d0729	-0.21584763
48	0x3e3a25a1	0.18178417
49	0xbe485304	-0.19562918
50	0xbeb51b22	-0.35372263
51	0x3d044edd	0.032301772
52	0xbe58e49d	-0.21180959
53	0x3d55177a	0.052024342
54	0xbf0e6b04	-0.5563204
55	0xbde1fb1e	-0.11034225
56	0xbe1fd56d	-0.15608759
57	0x3ef2cda1	0.47422507
58	0xbe7b1036	-0.24517903
59	0x3e6ce830	0.23135448
60	0xbe20760b	-0.1567003
61	0xbd49955d	-0.04921471
62	0xbdc77733	-0.09739532
63	0xbe1f403e	-0.1555185
64	0xbecc2a10	-0.3987584
65	0xbd914c41	-0.070946224
66	0x3e149da1	0.14513256
67	0x3e98702e	0.29773086
68	0x3f0024a9	0.5005594
69	0xbe13365d	-0.14376207
70	0x3e57a14d	0.21057625
71	0x3eba369e	0.36369795
72	0x3ecea2aa	0.40358478
73	0xbdb0a41e	-0.08625053
74	0x3e33f083	0.17572217
75	0xbeb10cfd	-0.34580222
76	0x3edcb955	0.43110147
77	0xbf138801	-0.576294
78	0xbe34c975	-0.17654975
79	0xbe6a3eb1	-0.22875477
80	0x3e8b9490	0.27261782
81	0x3eaf6ffc	0.34265125
82	0xbea1dffd	-0.31616202
83	0x3de55c3d	0.11199234
84	0x3f2799d4	0.654691
85	0xbe2c4d32	-0.16826323
86	0x3eaf2c4a	0.34213477
87	0xbe29082d	-0.16507025
88	0x3eae0b48	0.33992982
89	0x3e356295	0.17713387
90	0x3e32e77e	0.1747112
91	0xbefb4c4e	-0.49081653
92	0x3cb0f512	0.021601234
93	0xbe72db57	-0.23716484
94	0xbcf14691	-0.029452594
95	0xbe7ab3a2	-0.24482587
96	0xbdecfeed	-0.11572061
97	0xbbf725cd	-0.007542348
98	0x3eee616e	0.46558708
99	0x3eb7b6e3	0.3588172
100	0xbec509a0	-0.38483906
101	0xbd02b445	-0.0319102
102	0xbc13a0af	-0.009010478
103	0xbded0721	-0.11573625
104	0x3e8d0122	0.27539927
105	0x3e811d5d	0.25217715
106	0xbe90e057	-0.28296158
107	0x3dd1f5f4	0.1025199
108	0x3e94cb60	0.29061413
109	0x3e633c2d	0.22190924
110	0xbebc5784	-0.3678552
111	0x3e694060	0.22778463
112	0xbdd71aef	-0.10503184
113	0xbeac85a8	-0.33695722
114	0xbd9b2de9	-0.07577116
115	0xbce119cf	-0.027478127
116	0xbec9a52f	-0.39383838
117	0x3ea542d5	0.3227755
118	0xbcce9b95	-0.025220672
119	0x3efc0e43	0.4922963
120	0xbec1c740	-0.37847328
121	0xbd44d33e	-0.04805302
122	0xbf00b57e	-0.50276935
123	0x3d0db011	0.034591738
124	0x3e31845f	0.17335652
125	0x3e82fc85	0.25583282
126	0x3e0131c6	0.12616643
127	0xbe7a3ee1	-0.24438049
128	0x3e212635	0.15737231
129	0xbee319d7	-0.44355652
130	0xbf1f21b4	-0.621608
131	0xbe684e49	-0.22686113
132	0x3c55853f	0.013032257
133	0x3eace4d0	0.3376832
134	0x3de41d94	0.11138454
135	0xbdf88b6d	-0.12135968
136	0x3ef7f6fd	0.48430625
137	0x3d5b9328	0.053607136
138	0x3d4db63c	0.05022262
139	0x3eb891bf	0.36048695
140	0xbeac002d	-0.33593884
141	0xbf035929	-0.5130792
142	0xbe16da58	-0.14731729
143	0xbedaa3f2	-0.42703205
144	0x3e33e429	0.17567505
145	0x3f0f20e4	0.5590956
146	0xbf313412	-0.6922008
147	0x3eced8d5	0.40399805
148	0xbebc5915	-0.36786714
149	0xbe42b0d8	-0.19012773
150	0xbe619c10	-0.2203219
151	0x3e9dffb3	0.30859146
152	0x3df3fcf1	0.11913479
153	0xbe96abea	-0.29428035
154	0xbe0e8e04	-0.13921362
155	0x3da528be	0.080644116
156	0x3e16f8ee	0.14743397
157	0x3f07f213	0.5310375
158	0x3c75f2ee	0.015011532
159	0x3e1d1d59	0.15343226
160	0xbe59254a	-0.21205631
161	0xbed71047	-0.42004606
162	0x3de695fa	0.112590745
163	0xbd889f62	-0.06671025
164	0xbf03c68a	-0.5147482
165	0x3ec2242c	0.37918222
166	0xbf1d9de8	-0.6156907
167	0xbce563eb	-0.028001746
168	0xbe79225c	-0.24329513
169	0x3e5bce6a	0.2146546
170	0xbecb11fa	-0.39662153
171	0xbe56024e	-0.20899317
172	0x3f04e155	0.5190633
173	0xbef7c6b0	-0.48393774
174	0xbd2f9127	-0.042863037
175	0x3ebb622e	0.36598343
176	0xbe427aac	-0.18992108
177	0xbe77f30a	-0.24213806
178	0x3ca43999	0.020046996
179	0x3e72c323	0.23707251
180	0xbea9d2ff	-0.3316879
181	0xbee466c5	-0.44609657
182	0xbeea6e36	-0.4578721
183	0x3ea91076	0.3302037
184	0x3e9fbcb5	0.3119866
185	0x3e76856d	0.24074335
186	0xbefce99b	-0.49396977
187	0xbed15b98	-0.40890193
188	0xbcc41c9a	-0.02393942
189	0xbefcc69c	-0.49370277
190	0xbec4583c	-0.38348567
191	0xbe838c30	-0.25692892
192	0x3d9279a8	0.0715211
193	0xbd5d6480	-0.054050922
194	0x3eef5702	0.4674607
195	0x3c154e16	0.009112855
196	0xbd8847a0	-0.066542864
197	0xbe74d4f5	-0.23909362
198	0xbca6f585	-0.020380745
199	0x3e1663dd	0.14686532

bias f4 [50]
0	0xbedcf4b4	-0.43155444
1	0xbc9ca9a1	-0.019123854
2	0x3e032707	0.12807857
3	0x3e69e77d	0.22842212
4	0xbeeec873	-0.46637306
5	0x3e92b63d	0.28654662
6	0xbdf89529	-0.12137825
7	0x3eaa687b	0.33282837
8	0xbe4ba600	-0.19887543
9	0xbf15d3e8	-0.5852647
10	0x3e8814b8	0.26578307
11	0x3e383ffc	0.17993158
12	0xbedffca2	-0.4374743
13	0x3ecf28f1	0.40460923
14	0xbf06740d	-0.5252083
15	0x3f05a5c5	0.5220607
16	0xbef92127	-0.48658106
17	0xbf065387	-0.524712
18	0x3ea35d11	0.31906942
19	0xbe9da52f	-0.30790088
20	0xbed7e55c	-0.42167175
21	0xbd89a6f5	-0.06721298
22	0xbe73815c	-0.23779815
23	0x3e9b3e76	0.3032109
24	0xbf08b67c	-0.5340345
25	0x3e71382d	0.23556586
26	0x3d89f5e8	0.06736356
27	0xbcbc5a80	-0.022992373
28	0x3ea985c9	0.33109882
29	0x3ee2dc73	0.44308814
30	0xbe5e8243	-0.21729378
31	0xbf1164c6	-0.56794393
32	0x3c19ec6a	0.009394744
33	0x3ed90e56	0.4239375
34	0xbedec5a9	-0.43510178
35	0x3eff8c03	0.49911508
36	0x3e22ace9	0.15886272
37	0x3ee066b4	0.43828356
38	0xbefe5fdd	-0.49682513
39	0x3f116256	0.56790674
40	0xbed8874f	-0.42290732
41	0x3f029d3e	0.5102118
42	0xbed13ac0	-0.40865135
43	0x3eef506a	0.4674104
44	0xbc6ed69f	-0.014577537
45	0xbe666759	-0.22500362
46	0x3efeacb8	0.4974115
47	0x3e08253c	0.13295454
48	0xbefcc9e6	-0.49372786
49	0xbe4a9763	-0.19784312

weight f4 [50, 50]
0	0x3dcc1344	0.09964612
1	0x3dbb4374	0.09143725
2	0xbd8e841c	-0.069587916
3	0xbe591e7f	-0.2120304
4	0x3e247ed1	0.16064002
5	0x3d84638e	0.06464301
6	0xbe6cc986	-0.2312375
7	0xbe41b9c4	-0.1891852
8	0x3c969cf1	0.018385382
9	0x3e2f137d	0.17097278
10	0xbdbbe720	-0.09174943
11	0xbca7cd7a	-0.020483721
12	0x3e16ae02	0.14714816
13	0x3e276381	0.16346551
14	0x3d08aaa9	0.03336588
15	0xbe080ca6	-0.13286075
16	0x3e3b2ac4	0.18278033
17	0xbdaa3488	-0.08310801
18	0x3c97008a	0.018432874
19	0xbd82a6f3	-0.06379499
20	0xbce30b53	-0.02771536
21	0xbca9813a	-0.020691503
22	0xbd006b77	-0.031352486
23	0xbde1aa4c	-0.1101881
24	0xbd3ac4ce	-0.045597844
25	0xbc6fe67f	-0.014642357
26	0xbcdb3bb0	-0.02676186
27	0xbe4ff558	-0.20308435
28	0xbdffa046	-0.124817416
29	0x3baab18d	0.005209154
30	0x3e2a39af	0.16623567
31	0xbc45c565	-0.012070988
32	0x3e348ec8	0.17632592
33	0xbd9bb095	-0.0760204
34	0x3e3def70	0.1854837
35	0xbd491913	-0.04909618
36	0xbdfb7571	-0.122782595
37	0xbe56a93f	-0.20963
38	0xbd829a72	-0.06377114
39	0xbb7b4bda	-0.0038344772
40	0x3e31f14f	0.17377208
41	0x3dc1ed78	0.09469122
42	0x3cb71ace	0.022351649
43	0xbcc87b85	-0.024472961
44	0x3e03bab5	0.12864192
45	0x3c450f70	0.012027606
46	0xbca134a5	-0.019678423
47	0xbba64055	-0.005073587
48	0x3dce9b10	0.100881696
49	0x3cf8a563	0.0303523
50	0xbb36f6c6	-0.0027918085
51	0xbda7b0aa	-0.08187993
52	0xbe2d3a12	-0.16916683
53	0x3ce8023b	0.028321376
54	0xbd6dd591	-0.058065
55	0xbe45bf15	-0.19311173
56	0x3c819f36	0.015822988
57	0xbe041531	-0.12898709
58	0xbd619d8f	-0.0550819
59	0x3d077938	0.033074588
60	0x3d105d4c	0.035245225
61	0x3dd172aa	0.102269486
62	0x3d62bf18	0.055358022
63	0xbd556055	-0.052093823
64	0xbd863100	-0.06552315
65	0x3da96954	0.08272043
66	0x3e0b1da0	0.1358552
67	0x3d932227	0.071842484
68	0xbca9f1df	-0.020745216
69	0x3dfd7450	0.123757005
70	0x3e1057c1	0.14095975
71	0xbd059153	-0.032609295
72	0x3b9e7878	0.0048361383
73	0xbbe724ec	-0.007053962
74	0x3da237f1	0.07920826
75	0x3dd2decb	0.10296401
76	0x3d13f750	0.036124527
77	0xbcb3a371	-0.02192852
78	0xbe052d56	-0.13005576
79	0xbdd1af34	-0.102384955
80	0xbdc6cf02	-0.09707452
81	0x3d94243a	0.07233472
82	0xbe868c80	-0.26279068
83	0x3d163a28	0.036676556
84	0x3c91477e	0.017734285
85	0xbc840724	-0.016116686
86	0xbe7b4615	-0.24538453
87	0xbdf0ee0b	-0.11764153
88	0x3ce990ed	0.028511489
89	0x3d48d0c4	0.04902722
90	0xbde04343	-0.10950329
91	0xbe608626	-0.21926174
92	0xbd24fbae	-0.040279083
93	0xbdf51ece	-0.11968766
94	0xbe0e5de5	-0.13903005
95	0xbd634edf	-0.05549514
96	0x3cd44235	0.025910476
97	0xbe2b2909	-0.16714872
98	0x3e1366af	0.1439464
99	0x3e5167ab	0.20449702
100	0x3d00a940	0.03141141
101	0xbd676542	-0.05649305
102	0xbc9d5bbd	-0.019208783
103	0x3d7dbe72	0.0619492
104	0x3e068a65	0.13138731
105	0x3dc32584	0.0952864
106	0x3e155af0	0.14585471
107	0x3d79e1aa	0.061006226
108	0x3dee7fb2	0.1164545
109	0x3d37f81b	0.044914346
110	0x3d62debc	0.055388197
111	0xbd72a21c	-0.05923663
112	0x3c013a68	0.00788746
113	0x3d32ba4b	0.043634694
114	0xbe40050f	-0.1875193
115	0xbd31fbba	-0.043452956
116	0x3dcc671e	0.099806055
117	0x3e4852de	0.19562861
118	0x3dc952ec	0.09830269
119	0x3e527bcc	0.20555037
120	0xbd9b20bd	-0.07574604
121	0xbe136e38	-0.14397514
122	0x3c9b0ee4	0.018927999
123	0xbce139f0	-0.027493447
124	0xbe040c8a	-0.12895408
125	0x3d404cd8	0.046948284
126	0xbcafb132	-0.021446798
127	0x3d240ec0	0.04005313
128	0x3d8221ea	0.06354125
129	0xbe2a7860	-0.16647482
130	0xbdc356af	-0.09538018
131	0x3dde9ef9	0.108701654
132	0x3dbef865	0.09324721
133	0x3d59da07	0.053186443
134	0x3df1cee2	0.11807038
135	0xbdd75480	-0.10514164
136	0x3e2f828f	0.17139648
137	0xbb10c547	-0.0022090243
138	0x3e0f5c80	0.1400013
139	0xbe024c1d	-0.12724347
140	0xbc7301ac	-0.014831942
141	0xbddfd817	-0.10929888
142	0x3d9b07bd	0.07569835
143	0x3cd6e084	0.026230104
144	0xbd57b4b3	-0.052662563
145	0x3d65c229	0.05609337
146	0xbd6a2257	-0.057161655
147	0x3e331766	0.17489395
148	0xbdaf03c4	-0.0854564
149	0xbc83c0a7	-0.016083075
150	0xbdf5b957	-0.119982414
151	0x3cf306de	0.02966636
152	0x3d81786a	0.06321795
153	0x3e0013e0	0.12507582
154	0xbdf200ff	-0.11816596
155	0x3d43f389	0.047839675
156	0x3e831363	0.25600728
157	0x3dd13c36	0.102165624
158	0x3e12c31f	0.14332245
159	0xbe07039d	-0.13184972
160	0x3e4fcb81	0.20292474
161	0x3e3bd577	0.18343149
162	0x3b005bcb	0.0019585963
163	0x3b8f26c5	0.0043686354
164	0xbc1dc1b7	-0.009628705
165	0x3e3808d3	0.17972116
166	0xbcc80c3b	-0.024419894
167	0xbe0ddb56	-0.13853201
168	0xbd8316c4	-0.064008266
169	0x3daba6fb	0.08381458
170	0xbde8a9b9	-0.11360497
171	0x3b6535af	0.0034974625
172	0xbd81ea32	-0.06343497
173	0x3d84f3ed	0.06491838
174	0xbee069bb	-0.43830666
175	0x3df177fd	0.11790464
176	0xbe01ff4f	-0.12695049
177	0x3e7fe8f5	0.2499121
178	0x3d15d7d8	0.036582798
179	0x3da970b4	0.082734495
180	0xbd8e1278	-0.069371164
181	0xbd58b8b2	-0.052910514
182	0xbd87dba8	-0.06633693
183	0xbd383a9a	-0.04497776
184	0xbe2af1b0	-0.16693759
185	0x3e8e956a	0.2784837
186	0xbe00bb87	-0.12571536
187	0x3e9ffdcf	0.31248328
188	0x3dfde359	0.12396879
189	0x3d83451a	0.064096645
190	0xbe36a1f8	-0.17835224
191	0x3e19aa60	0.15006399
192	0x3e48f2c9	0.19623865
193	0x3e032770	0.12808013
194	0xbe1fb828	-0.15597594
195	0xbe1d9aa0	-0.15391016
196	0x3e2f8634	0.17141038
197	0x3e8a016d	0.26954213
198	0xbc77148b	-0.015080581
199	0x3df2b3b2	0.118506804
200	0x3ccf3a82	0.025296453
201	0x3c85e4af	0.016344396
202	0xbe09b5c6	-0.13448247
203	0x3c2d4ef1	0.010577903
204	0x3da6a1c8	0.08136326
205	0xbdcd3556	-0.10019939
206	0x3e411875	0.18856986
207	0x3e48b8ff	0.1960182
208	0xbe1c0859	-0.1523756
209	0x3d019c54	0.031643227
210	0xbd44a2a7	-0.04800668
211	0x3dd6f1e0	0.10495353
212	0x3d1faa47	0.03898075
213	0xbd48b78a	-0.04900316
214	0x3e322300	0.17396164
215	0xbdae1705	-0.085004844
216	0xbe1b568b	-0.15169732
217	0x3df07f8c	0.11743078
218	0x3d05202f	0.032501396
219	0xbc8d8c72	-0.017278884
220	0x3d6c2b0e	0.057658248
221	0x3e01aab7	0.12662779
222	0xbd828c1f	-0.06374382
223	0x3dcb5f63	0.09930303
224	0xbd80831d	-0.06275008
225	0x3e4422ff	0.19153975
226	0xbd9a1a36	-0.075245306
227	0x3de8ad0c	0.11361131
228	0x3c1ef401	0.00970173
229	0x3e1c9af6	0.15293488
230	0xbe17f365	-0.14838941
231	0x3d2b16df	0.04176986
232	0xbc39551d	-0.0113117965
233	0x3a8c6a70	0.0010712873
234	0xbc289f5a	-0.010291899
235	0x3e5e85d4	0.21730739
236	0xbe2a3f11	-0.1662562
237	0x3dd08f6d	0.10183606
238	0xbdb151aa	-0.08658154
239	0xbda0aef9	-0.078458734
240	0xbc8e2965	-0.017353723
241	0xbcca0ce1	-0.024664344
242	0x3e31764c	0.17330283
243	0xbdc551cb	-0.096347414
244	0xbd9a70ba	-0.07541032
245	0x3d731340	0.05934453
246	0x3d33d402	0.04390336
247	0x3d9eaa81	0.07747365
248	0x3c8ebe07	0.017424596
249	0xbd7f8b20	-0.06238854
250	0x3c7caed3	0.015422541
251	0xbb9f974e	-0.004870332
252	0x3d8e5865	0.06950454
253	0xbd950e50	-0.072781205
254	0x3cb36e5a	0.021903206
255	0xbda930e5	-0.08261279

bias f4 [50]
0	0xbc153aaa	-0.009108225
1	0x3d0fa811	0.03507239
2	0x3d3af12d	0.04564016
3	0x3a84450e	0.0010091381
4	0x3e0cc911	0.13748576
5	0x3d8b1027	0.0679019
6	0x3dbda0ac	0.09259161
7	0x3d842759	0.064528175
8	0xbe2c95b2	-0.16853979
9	0x3a0e4eb2	0.00054285966
10	0xbd44824c	-0.047975823
11	0x3db458d9	0.08806009
12	0x3ccf5553	0.02530924
13	0xbded3c55	-0.11583773
14	0xbe0ee3c6	-0.13954076
15	0x3d9e828b	0.07739743
16	0x3c07cb77	0.008288256
17	0x3c4a5472	0.012349235
18	0x3d3657ef	0.044517454
19	0x3e296228	0.1654135
20	0x3e0a1380	0.13484001
21	0xbdaf82e8	-0.0856989
22	0xbcbc5fcc	-0.022994898
23	0xbe2b3c2e	-0.16722175
24	0x3e08f6b7	0.13375364
25	0x3e4d1c49	0.20030321
26	0xbe3115bc	-0.17293447
27	0x3e27352f	0.16328882
28	0xbdeb0928	-0.11476356
29	0xbe18aa09	-0.14908613
30	0xbdc0252c	-0.0938209
31	0x3dba1eac	0.090878814
32	0xbcf6da4d	-0.03013339
33	0x3e025cbe	0.12730691
34	0x3df7254e	0.12067662
35	0xbcbb0cc6	-0.02283324
36	0xbc40cfde	-0.011768309
37	0xbd95c01b	-0.07312032
38	0xbd244d6b	-0.040112894
39	0x3e034c12	0.12821987
40	0x3da6fecc	0.081540674
41	0xbe286f1a	-0.16448632
42	0xbc20ae3a	-0.009807164
43	0x3d919f94	0.07110515
44	0xbcccb66f	-0.024989335
45	0xbdd7e2ff	-0.10541343
46	0xbd63a829	-0.055580292
47	0x3cfe4985	0.031040916
48	0xbdde132c	-0.108435005
49	0xbd1cfa76	-0.038324796

mask f4 [50, 50]
0	0x3f800000	1.0
1	0x3f800000	1.0
2	0x3f800000	1.0
3	0x3f800000	1.0
4	0x3f800000	1.0
5	0x3f800000	1.0
6	0x3f800000	1.0
7	0x3f800000	1.0
8	0x3f800000	1.0
9	0x3f800000	1.0
10	0x3f800000	1.0
11	0x3f800000	1.0
12	0x3f800000	1.0
13	0x3f800000	1.0
14	0x3f800000	1.0
15	0x3f800000	1.0
16	0x3f800000	1.0
17	0x3f800000	1.0
18	0x3f800000	1.0
19	0x3f800000	1.0
20	0x3f800000	1.0
21	0x3f800000	1.0
22	0x3f800000	1.0
23	0x3f800000	1.0
24	0x3f800000	1.0
25	0x3f800000	1.0
26	0x3f800000	1.0
27	0x3f800000	1.0
28	0x3f800000	1.0
29	0x3f800000	1.0
30	0x3f800000	1.0
31	0x3f800000	1.0
32	0x3f800000	1.0
33	0x3f800000	1.0
34	0x3f800000	1.0
35	0x3f800000	1.0
36	0x3f800000	1.0
37	0x3f800000	1.0
38	0x3f800000	1.0
39	0x3f800000	1.0
40	0x3f800000	1.0
41	0x3f800000	1.0
42	0x3f800000	1.0
43	0x3f800000	1.0
44	0x3f800000	1.0
45	0x3f800000	1.0
46	0x3f800000	1.0
47	0x3f800000	1.0
48	0x3f800000	1.0
49	0x3f800000	1.0
50	0x3f800000	1.0
51	0x3f800000	1.0
52	0x3f800000	1.0
53	0x3f800000	1.0
54	0x3f800000	1.0
55	0x3f800000	1.0
56	0x3f800000	1.0
57	0x3f800000	1.0
58	0x3f800000	1.0
59	0x3f800000	1.0
60	0x3f800000	1.0
61	0x3f800000	1.0
62	0x3f800000	1.0
63	0x3f800000	1.0
64	0x3f800000	1.0
65	0x3f800000	1.0
66	0x3f800000	1.0
67	0x3f800000	1.0
68	0x3f800000	1.0
69	0x3f800000	1.0
70	0x3f800000	1.0
71	0x3f800000	1.0
72	0x3f800000	1.0
73	0x3f800000	1.0
74	0x3f800000	1.0
75	0x3f800000	1.0
76	0x3f800000	1.0
77	0x3f800000	1.0
78	0x3f800000	1.0
79	0x3f800000	1.0
80	0x3f800000	1.0
81	0x3f800000	1.0
82	0x3f800000	1.0
83	0x3f800000	1.0
84	0x3f800000	1.0
85	0x3f800000	1.0
86	0x3f800000	1.0
87	0x3f800000	1.0
88	0x3f800000	1.0
89	0x3f800000	1.0
90	0x3f800000	1.0
91	0x3f800000	1.0
92	0x3f800000	1.0
93	0x3f800000	1.0
94	0x3f800000	1.0
95	0x3f800000	1.0
96	0x3f800000	1.0
97	0x3f800000	1.0
98	0x3f800000	1.0
99	0x3f800000	1.0
100	0x3f800000	1.0
101	0x3f800000	1.0
102	0x3f800000	1.0
103	0x3f800000	1.0
104	0x3f800000	1.0
105	0x3f800000	1.0
106	0x3f800000	1.0
107	0x3f800000	1.0
108	0x3f800000	1.0
109	0x3f800000	1.0
110	0x3f800000	1.0
111	0x3f800000	1.0
112	0x3f800000	1.0
113	0x3f800000	1.0
114	0x3f800000	1.0
115	0x3f800000	1.0
116	0x3f800000	1.0
117	0x3f800000	1.0
118	0x3f800000	1.0
119	0x3f800000	1.0
120	0x3f800000	1.0
121	0x3f800000	1.0
122	0x3f800000	1.0
123	0x3f800000	1.0
124	0x3f800000	1.0
125	0x3f800000	1.0
126	0x3f800000	1.0
127	0x3f800000	1.0
128	0x3f800000	1.0
129	0x3f800000	1.0
130	0x3f800000	1.0
131	0x3f800000	1.0
132	0x3f800000	1.0
133	0x3f800000	1.0
134	0x3f800000	1.0
135	0x3f800000	1.0
136	0x3f800000	1.0
137	0x3f800000	1.0
138	0x3f800000	1.0
139	0x3f800000	1.0
140	0x3f800000	1.0
141	0x3f800000	1.0
142	0x3f800000	1.0
143	0x3f800000	1.0
144	0x3f800000	1.0
145	0x3f800000	1.0
146	0x3f800000	1.0
147	0x3f800000	1.0
148	0x3f800000	1.0
149	0x3f800000	1.0
150	0x3f800000	1.0
151	0x3f800000	1.0
152	0x3f800000	1.0
153	0x3f800000	1.0
154	0x3f800000	1.0
155	0x3f800000	1.0
156	0x3f800000	1.0
157	0x3f800000	1.0
158	0x3f800000	1.0
159	0x3f800000	1.0
160	0x3f800000	1.0
161	0x3f800000	1.0
162	0x3f800000	1.0
163	0x3f800000	1.0
164	0x3f800000	1.0
165	0x3f800000	1.0
166	0x3f800000	1.0
167	0x3f800000	1.0
168	0x3f800000	1.0
169	0x3f800000	1.0
170	0x3f800000	1.0
171	0x3f800000	1.0
172	0x3f800000	1.0
173	0x3f800000	1.0
174	0x3f800000	1.0
175	0x3f800000	1.0
176	0x3f800000	1.0
177	0x3f800000	1.0
178	0x3f800000	1.0
179	0x3f800000	1.0
180	0x3f800000	1.0
181	0x3f800000	1.0
182	0x3f800000	1.0
183	0x3f800000	1.0
184	0x3f800000	1.0
185	0x3f800000	1.0
186	0x3f800000	1.0
187	0x3f800000	1.0
188	0x3f800000	1.0
189	0x3f800000	1.0
190	0x3f800000	1.0
191	0x3f800000	1.0
192	0x3f800000	1.0
193	0x3f800000	1.0
194	0x3f800000	1.0
195	0x3f800000	1.0
196	0x3f800000	1.0
197	0x3f800000	1.0
198	0x3f800000	1.0
199	0x3f800000	1.0
200	0x3f800000	1.0
201	0x3f800000	1.0
202	0x3f800000	1.0
203	0x3f800000	1.0
204	0x3f800000	1.0
205	0x3f800000	1.0
206	0x3f800000	1.0
207	0x3f800000	1.0
208	0x3f800000	1.0
209	0x3f800000	1.0
210	0x3f800000	1.0
211	0x3f800000	1.0
212	0x3f800000	1.0
213	0x3f800000	1.0
214	0x3f800000	1.0
215	0x3f800000	1.0
216	0x3f800000	1.0
217	0x3f800000	1.0
218	0x3f800000	1.0
219	0x3f800000	1.0
220	0x3f800000	1.0
221	0x3f800000	1.0
222	0x3f800000	1.0
223	0x3f800000	1.0
224	0x3f800000	1.0
225	0x3f800000	1.0
226	0x3f800000	1.0
227	0x3f800000	1.0
228	0x3f800000	1.0
229	0x3f800000	1.0
230	0x3f800000	1.0
231	0x3f800000	1.0
232	0x3f800000	1.0
233	0x3f800000	1.0
234	0x3f800000	1.0
235	0x3f800000	1.0
236	0x3f800000	1.0
237	0x3f800000	1.0
238	0x3f800000	1.0
239	0x3f800000	1.0
240	0x3f800000	1.0
241	0x3f800000	1.0
242	0x3f800000	1.0
243	0x3f800000	1.0
244	0x3f800000	1.0
245	0x3f800000	1.0
246	0x3f800000	1.0
247	0x3f800000	1.0
248	0x3f800000	1.0
249	0x3f800000	1.0
250	0x3f800000	1.0
251	0x3f800000	1.0
252	0x3f800000	1.0
253	0x3f800000	1.0
254	0x3f800000	1.0
255	0x3f800000	1.0

weight f4 [50, 50]
0	0xbda160d6	-0.07879798
1	0x3a4ceffc	0.0007817743
2	0x3d813aff	0.06310081
3	0xbc003b09	-0.007826575
4	0xbd9d345a	-0.07676001
5	0xbddaeca3	-0.10689666
6	0x3dd07cf1	0.10180081
7	0x3e4dba95	0.20090707
8	0x3d257449	0.0403941
9	0xbda01fe6	-0.07818584
10	0xbe2b580e	-0.16732809
11	0x3d9e16c4	0.07719186
12	0x3cb66fe1	0.022270145
13	0xbc93f2c3	-0.018060094
14	0xbd261834	-0.040550426
15	0x3df38e36	0.11892359
16	0xbcc7818c	-0.024353765
17	0x3d91f17c	0.071261376
18	0xbd136cce	-0.035992436
19	0x3e4b6383	0.1986218
20	0x3d8a5733	0.06754913
21	0x3c9c8a66	0.019108962
22	0xbcf93cbf	-0.030424474
23	0xbda8757c	-0.08225533
24	0x3e0fc535	0.14040072
25	0xbc2fae76	-0.010722747
26	0xb9e652ea	-0.00043930794
27	0x3e163865	0.1466995
28	0xbdf0ec56	-0.117638275
29	0xbdec919c	-0.1155121
30	0xbe1381ed	-0.14405032
31	0xbd5ac722	-0.053412564
32	0xbd398075	-0.04528852
33	0xbe246a30	-0.16056132
34	0xbd2f3f01	-0.042784695
35	0x3cd11654	0.025523342
36	0x3d6b4e28	0.057447582
37	0x3d782917	0.06058606
38	0x3c5a36de	0.013318745
39	0xbd39b4de	-0.045338504
40	0x3dacbf71	0.08434952
41	0x3d1831c0	0.03715682
42	0x3deb5b00	0.11491966
43	0x3cfe2bb9	0.031026708
44	0x3e09b928	0.13449538
45	0xbdbac39a	-0.09119339
46	0xbd35b793	-0.044364523
47	0xbb971d29	-0.0046116305
48	0x3cdd0756	0.026981037
49	0x3d6d38d7	0.057915535
50	0xbc9d833f	-0.019227622
51	0xbddef656	-0.108868286
52	0xbd34ff17	-0.044188585
53	0x3e4ddf10	0.20104623
54	0x3e3e3e16	0.18578371
55	0x3d99d29c	0.07510874
56	0x3e262bff	0.1622772
57	0xbd924e35	-0.07143823
58	0xbe58d447	-0.21174727
59	0xbd60d746	-0.0548928
60	0xbe3f5c7b	-0.18687622
61	0x3de301c3	0.110843204
62	0x3e262e8d	0.16228695
63	0x3dfa444d	0.122200586
64	0xbe46c03e	-0.19409272
65	0x3a485871	0.00076425733
66	0xbd9c0398	-0.07617873
67	0x3d935479	0.07193846
68	0xbd92401e	-0.07141136
69	0xbd962968	-0.07332116
70	0x3decd966	0.11564903
71	0x3d6d2798	0.057899088
72	0xbd0616d8	-0.03273663
73	0xbe1ca5ee	-0.15297672
74	0x3e17ec7c	0.14836305
75	0x3e4454f8	0.19173038
76	0xbe685df9	-0.22692098
77	0x3dc763c7	0.09735828
78	0xbe051a3a	-0.12998286
79	0xbdf7d941	-0.12101985
80	0xbdcc7ebe	-0.09985112
81	0xbe3d0746	-0.18459806
82	0x3d839da9	0.06426556
83	0x3e00ae78	0.12566555
84	0xbd6968ed	-0.05698483
85	0x3e0a2a67	0.13492738
86	0x3e170b4e	0.14750406
87	0xbe2dc7f9	-0.16970815
88	0x3e1accd5	0.151172
89	0xbc9246ad	-0.017855966
90	0x3d0953ea	0.033527292
91	0xbe286f6b	-0.16448753
92	0x3d7e72fc	0.062121376
93	0xbe210da6	-0.15727863
94	0x3d40cfdb	0.047073226
95	0xbe1a9c46	-0.15098676
96	0x3a406bce	0.0007340283
97	0xbe4651ac	-0.19367093
98	0xbd9a329d	-0.07529185
99	0xbe0c9766	-0.13729629
100	0x3e0621fd	0.13098903
101	0x3dd5f5c4	0.10447267
102	0xbda26749	-0.07929856
103	0xbda798c4	-0.081834346
104	0xbdaea71f	-0.085279696
105	0x3de21f34	0.11041108
106	0x3c020102	0.007934811
107	0x3ec4ab43	0.38411912
108	0xbbffc636	-0.007805611
109	0x3e28d656	0.16488013
110	0xbdf1b587	-0.11802202
111	0xbdbefbf3	-0.09325399
112	0xbdfe064c	-0.12403545
113	0xbdb40ddb	-0.08791705
114	0x3d433da0	0.047666192
115	0xbdf84e51	-0.12124313
116	0xbdcdf144	-0.100557834
117	0x3e871c01	0.26388553
118	0xbe207275	-0.15668662
119	0x3de82418	0.11335009
120	0x3d88ec1b	0.066856585
121	0xbe30fe56	-0.17284521
122	0x3d7b74b6	0.0613906
123	0x3e34567b	0.17611115
124	0x3db29090	0.08718979
125	0xbdad7927	-0.084703736
126	0x3d8aab98	0.0677101
127	0x3bee739b	0.007276965
128	0xbda34fe1	-0.0797422
129	0xbe9098af	-0.28241488
130	0xbd3fa62c	-0.046789333
131	0x3e126553	0.14296465
132	0xbd935f4a	-0.07195909
133	0xbec81a01	-0.3908234
134	0xbe130d30	-0.143605
135	0xbcc9a170	-0.024613112
136	0xbdcf9cb6	-0.10137312
137	0x3d07b0a6	0.03312745
138	0xbea59690	-0.32341433
139	0xbe168568	-0.14699328
140	0xbda50a57	-0.08058613
141	0x3d211666	0.039328
142	0x3db98772	0.09059037
143	0x3e22650c	0.15858859
144	0x3e0cab35	0.13737185
145	0x3df2b232	0.11850394
146	0xbddf74c8	-0.10910946
147	0x3de341e6	0.110965535
148	0xbe516d19	-0.20451774
149	0xbcd5283d	-0.026020164
150	0x3e61bc2d	0.2204444
151	0xbd3b1ed9	-0.045683715
152	0x3e3648b6	0.17801175
153	0xbe396b0d	-0.18107243
154	0xbd8ed595	-0.06974331
155	0xbd80824e	-0.06274854
156	0xbe235f69	-0.15954365
157	0xbdd6121b	-0.10452672
158	0x3da08632	0.07838096
159	0x3d925512	0.07145132
160	0x3d1a1ede	0.037627093
161	0xbdf4d84d	-0.119553186
162	0xbe3ac396	-0.18238673
163	0x3d6df640	0.05809617
164	0x3e116046	0.14196882
165	0xbe1a42e2	-0.15064576
166	0x3ddc7af3	0.10765638
167	0x3cfd786e	0.030941214
168	0xbddaff19	-0.10693187
169	0xbd857f5d	-0.06518433
170	0xbda0dc09	-0.078544684
171	0xbba01455	-0.0048852363
172	0x3d247e66	0.040159605
173	0xbbfdd06c	-0.007745793
174	0x3d5e85ae	0.054326706
175	0xbe152caa	-0.14567819
176	0x3d72bf67	0.059264567
177	0xbe009690	-0.12557435
178	0x3de96435	0.11396066
179	0xbdaecb29	-0.085348435
180	0x3df45784	0.11930755
181	0x3d81e826	0.06343107
182	0xbe22d172	-0.1590021
183	0xbdeaa195	-0.114566006
184	0xbd07928f	-0.033098754
185	0xbda3c1c3	-0.079959415
186	0xbde138c9	-0.10997159
187	0x3d419544	0.04726149
188	0x3ada1f5f	0.0016641429
189	0x3af371d4	0.0018573352
190	0xbde8043a	-0.11328931
191	0x3cae682d	0.02128991
192	0xbe3c1f53	-0.18371324
193	0x3cdcc09b	0.02694731
194	0xbe365ea7	-0.17809545
195	0xbdb18426	-0.086677834
196	0xbded4e0d	-0.11587153
197	0x3d62999b	0.05532227
198	0xbdd75120	-0.1051352
199	0x3e23ec85	0.16008194
200	0x3dcadb6d	0.099051334
201	0x3c951278	0.018197283
202	0x3c8106c5	0.015750298
203	0xbca67139	-0.02031766
204	0x3ce138ac	0.027492844
205	0x3dd13cb2	0.10216655
206	0x3de07c94	0.109612614
207	0xbe5bb6da	-0.21456471
208	0x3e1801c5	0.14844425
209	0xbe2e9daf	-0.17052339
210	0xb9b8d1af	-0.0003525144
211	0x3e0b2c2e	0.13591072
212	0x3d2f7186	0.042832874
213	0x3daa4a4b	0.083149515
214	0xbdaf3d43	-0.085566066
215	0xbe1027ea	-0.14077726
216	0x3d727d76	0.05920168
217	0xbc9c8105	-0.01910449
218	0xbb957beb	-0.0045618913
219	0x3b1ffb57	0.0024411285
220	0x3d88ef7f	0.06686305
221	0x3cc6cacc	0.024266623
222	0xbe087f40	-0.13329792
223	0xbdc0bcd9	-0.0941102
224	0x3d5bd0f8	0.053666085
225	0x3d17aff6	0.037033044
226	0x3e276162	0.16345742
227	0xbc0dfffa	-0.008666987
228	0xbc1316f3	-0.0089776395
229	0x3e1e4572	0.15456179
230	0x3a0d84f0	0.00053985324
231	0x3de583df	0.11206793
232	0x3e0317a4	0.12801987
233	0x3dba05bc	0.09083125
234	0xbc81ee80	-0.015860796
235	0x3d6abd6b	0.05730955
236	0x3d468151	0.04846317
237	0x3d8e83bc	0.0695872
238	0xba9fdd43	-0.0012196678
239	0xbd527009	-0.051376376
240	0x3d911f77	0.070860796
241	0x3dc1ffef	0.094726436
242	0xbcee6729	-0.029101925
243	0xbe1b6171	-0.1517389
244	0xbd31f81f	-0.043449517
245	0xbdf324ae	-0.118722305
246	0x3cd2bbbd	0.025724286
247	0xbdcc5cb2	-0.09978618
248	0x3e0a8ab3	0.13529472
249	0x3d630061	0.055420283
250	0xbbb9cc2f	-0.0056700925
251	0x3da7c2b3	0.08191433
252	0x3b865753	0.0040997653
253	0xbe363a80	-0.17795753
254	0xbbc9a83d	-0.006154089
255	0x3d2a19e3	0.041528594

bias f4 [50]
0	0xbd7c3f29	-0.06158367
1	0x3e23b385	0.1598645
2	0x3dc753e5	0.097327985
3	0x3b21b070	0.0024671815
4	0xbe453ee2	-0.19262269
5	0xbd3e4a12	-0.046457358
6	0xbc966373	-0.018357968
7	0x3e25c4b0	0.16188312
8	0x3d8333b3	0.06406345
9	0x3cae725c	0.021294765
10	0xbd784371	-0.060611192
11	0x3dd8c18d	0.10583792
12	0x3e1a406f	0.15063642
13	0x3d899966	0.067187116
14	0x3d98ee9b	0.074673854
15	0x3d8bb1f2	0.0682105
16	0xbd80d458	-0.06290501
17	0xbe041946	-0.12900266
18	0x3dbed413	0.09317794
19	0xbd89ca3f	-0.067280285
20	0xbdd012f3	-0.10159864
21	0xbd7f0df7	-0.062269177
22	0xbe2f21fe	-0.1710281
23	0xbe07d72d	-0.13265677
24	0x3e1c887f	0.15286444
25	0x3d4ebfd0	0.050475895
26	0xbddc751c	-0.10764524
27	0xbd51f4d5	-0.05125888
28	0xbe1e2587	-0.15444003
29	0xbc557b56	-0.013029894
30	0x3e2b941e	0.16755721
31	0x3d8a7df8	0.06762308
32	0xbd04acfd	-0.032391537
33	0xbdcc444c	-0.09973964
34	0x3db88a8c	0.09010801
35	0xbe339a3f	-0.17539309
36	0x3e11c9b9	0.14237107
37	0xbb39eb1d	-0.0028368898
38	0x3a070399	0.00051503774
39	0x3d468587	0.048467185
40	0x3dd9de70	0.1063813
41	0x3dbd335b	0.09238311
42	0x3df88770	0.12135208
43	0x3dc10260	0.09424281
44	0xbd3f6045	-0.04672267
45	0x3e05112f	0.12994836
46	0xbe0f661f	-0.140038
47	0x3d421833	0.04738636
48	0x3d8b38af	0.06797921
49	0xbd07c87d	-0.033150185

mask f4 [50, 50]
0	0x3f800000	1.0
1	0x3f800000	1.0
2	0x3f800000	1.0
3	0x3f800000	1.0
4	0x3f800000	1.0
5	0x3f800000	1.0
6	0x3f800000	1.0
7	0x3f800000	1.0
8	0x3f800000	1.0
9	0x3f800000	1.0
10	0x3f800000	1.0
11	0x3f800000	1.0
12	0x3f800000	1.0
13	0x3f800000	1.0
14	0x3f800000	1.0
15	0x3f800000	1.0
16	0x3f800000	1.0
17	0x3f800000	1.0
18	0x3f800000	1.0
19	0x3f800000	1.0
20	0x3f800000	1.0
21	0x3f800000	1.0
22	0x3f800000	1.0
23	0x3f800000	1.0
24	0x3f800000	1.0
25	0x3f800000	1.0
26	0x3f800000	1.0
27	0x3f800000	1.0
28	0x3f800000	1.0
29	0x3f800000	1.0
30	0x3f800000	1.0
31	0x3f800000	1.0
32	0x3f800000	1.0
33	0x3f800000	1.0
34	0x3f800000	1.0
35	0x3f800000	1.0
36	0x3f800000	1.0
37	0x3f800000	1.0
38	0x3f800000	1.0
39	0x3f800000	1.0
40	0x3f800000	1.0
41	0x3f800000	1.0
42	0x3f800000	1.0
43	0x3f800000	1.0
44	0x3f800000	1.0
45	0x3f800000	1.0
46	0x3f800000	1.0
47	0x3f800000	1.0
48	0x3f800000	1.0
49	0x3f800000	1.0
50	0x3f800000	1.0
51	0x3f800000	1.0
52	0x3f800000	1.0
53	0x3f800000	1.0
54	0x3f800000	1.0
55	0x3f800000	1.0
56	0x3f800000	1.0
57	0x3f800000	1.0
58	0x3f800000	1.0
59	0x3f800000	1.0
60	0x3f800000	1.0
61	0x3f800000	1.0
62	0x3f800000	1.0
63	0x3f800000	1.0
64	0x3f800000	1.0
65	0x3f800000	1.0
66	0x3f800000	1.0
67	0x3f800000	1.0
68	0x3f800000	1.0
69	0x3f800000	1.0
70	0x3f800000	1.0
71	0x3f800000	1.0
72	0x3f800000	1.0
73	0x3f800000	1.0
74	0x3f800000	1.0
75	0x3f800000	1.0
76	0x3f800000	1.0
77	0x3f800000	1.0
78	0x3f800000	1.0
79	0x3f800000	1.0
80	0x3f800000	1.0
81	0x3f800000	1.0
82	0x3f800000	1.0
83	0x3f800000	1.0
84	0x3f800000	1.0
85	0x3f800000	1.0
86	0x3f800000	1.0
87	0x3f800000	1.0
88	0x3f800000	1.0
89	0x3f800000	1.0
90	0x3f800000	1.0
91	0x3f800000	1.0
92	0x3f800000	1.0
93	0x3f800000	1.0
94	0x3f800000	1.0
95	0x3f800000	1.0
96	0x3f800000	1.0
97	0x3f800000	1.0
98	0x3f800000	1.0
99	0x3f800000	1.0
100	0x3f800000	1.0
101	0x3f800000	1.0
102	0x3f800000	1.0
103	0x3f800000	1.0
104	0x3f800000	1.0
105	0x3f800000	1.0
106	0x3f800000	1.0
107	0x3f800000	1.0
108	0x3f800000	1.0
109	0x3f800000	1.0
110	0x3f800000	1.0
111	0x3f800000	1.0
112	0x3f800000	1.0
113	0x3f800000	1.0
114	0x3f800000	1.0
115	0x3f800000	1.0
116	0x3f800000	1.0
117	0x3f800000	1.0
118	0x3f800000	1.0
119	0x3f800000	1.0
120	0x3f800000	1.0
121	0x3f800000	1.0
122	0x3f800000	1.0
123	0x3f800000	1.0
124	0x3f800000	1.0
125	0x3f800000	1.0
126	0x3f800000	1.0
127	0x3f800000	1.0
128	0x3f800000	1.0
129	0x3f800000	1.0
130	0x3f800000	1.0
131	0x3f800000	1.0
132	0x3f800000	1.0
133	0x3f800000	1.0
134	0x3f800000	1.0
135	0x3f800000	1.0
136	0x3f800000	1.0
137	0x3f800000	1.0
138	0x3f800000	1.0
139	0x3f800000	1.0
140	0x3f800000	1.0
141	0x3f800000	1.0
142	0x3f800000	1.0
143	0x3f800000	1.0
144	0x3f800000	1.0
145	0x3f800000	1.0
146	0x3f800000	1.0
147	0x3f800000	1.0
148	0x3f800000	1.0
149	0x3f800000	1.0
150	0x3f800000	1.0
151	0x3f800000	1.0
152	0x3f800000	1.0
153	0x3f800000	1.0
154	0x3f800000	1.0
155	0x3f800000	1.0
156	0x3f800000	1.0
157	0x3f800000	1.0
158	0x3f800000	1.0
159	0x3f800000	1.0
160	0x3f800000	1.0
161	0x3f800000	1.0
162	0x3f800000	1.0
163	0x3f800000	1.0
164	0x3f800000	1.0
165	0x3f800000	1.0
166	0x3f800000	1.0
167	0x3f800000	1.0
168	0x3f800000	1.0
169	0x3f800000	1.0
170	0x3f800000	1.0
171	0x3f800000	1.0
172	0x3f800000	1.0
173	0x3f800000	1.0
174	0x3f800000	1.0
175	0x3f800000	1.0
176	0x3f800000	1.0
177	0x3f800000	1.0
178	0x3f800000	1.0
179	0x3f800000	1.0
180	0x3f800000	1.0
181	0x3f800000	1.0
182	0x3f800000	1.0
183	0x3f800000	1.0
184	0x3f800000	1.0
185	0x3f800000	1.0
186	0x3f800000	1.0
187	0x3f800000	1.0
188	0x3f800000	1.0
189	0x3f800000	1.0
190	0x3f800000	1.0
191	0x3f800000	1.0
192	0x3f800000	1.0
193	0x3f800000	1.0
194	0x3f800000	1.0
195	0x3f800000	1.0
196	0x3f800000	1.0
197	0x3f800000	1.0
198	0x3f800000	1.0
199	0x3f800000	1.0
200	0x3f800000	1.0
201	0x3f800000	1.0
202	0x3f800000	1.0
203	0x3f800000	1.0
204	0x3f800000	1.0
205	0x3f800000	1.0
206	0x3f800000	1.0
207	0x3f800000	1.0
208	0x3f800000	1.0
209	0x3f800000	1.0
210	0x3f800000	1.0
211	0x3f800000	1.0
212	0x3f800000	1.0
213	0x3f800000	1.0
214	0x3f800000	1.0
215	0x3f800000	1.0
216	0x3f800000	1.0
217	0x3f800000	1.0
218	0x3f800000	1.0
219	0x3f800000	1.0
220	0x3f800000	1.0
221	0x3f800000	1.0
222	0x3f800000	1.0
223	0x3f800000	1.0
224	0x3f800000	1.0
225	0x3f800000	1.0
226	0x3f800000	1.0
227	0x3f800000	1.0
228	0x3f800000	1.0
229	0x3f800000	1.0
230	0x3f800000	1.0
231	0x3f800000	1.0
232	0x3f800000	1.0
233	0x3f800000	1.0
234	0x3f800000	1.0
235	0x3f800000	1.0
236	0x3f800000	1.0
237	0x3f800000	1.0
238	0x3f800000	1.0
239	0x3f800000	1.0
240	0x3f800000	1.0
241	0x3f800000	1.0
242	0x3f800000	1.0
243	0x3f800000	1.0
244	0x3f800000	1.0
245	0x3f800000	1.0
246	0x3f800000	1.0
247	0x3f800000	1.0
248	0x3f800000	1.0
249	0x3f800000	1.0
250	0x3f800000	1.0
251	0x3f800000	1.0
252	0x3f800000	1.0
253	0x3f800000	1.0
254	0x3f800000	1.0
255	0x3f800000	1.0

weight f4 [4, 50]
0	0x3e075d23	0.13219123
1	0xbdddf7fa	-0.108383134
2	0x3defe79e	0.11714099
3	0x3c894750	0.016757637
4	0xbdcd52bc	-0.10025546
5	0x3dfbfffe	0.12304686
6	0xbd32e902	-0.043679245
7	0x3ddc702a	0.10763581
8	0x3df9de16	0.12200563
9	0x3e0606ef	0.13088582
10	0xbd8a84b5	-0.06763593
11	0xbe05a0ec	-0.13049668
12	0x3d448c48	0.047985345
13	0xbd96e1e3	-0.07367303
14	0xbe027620	-0.12740374
15	0xbdd4f03a	-0.10397382
16	0xbde4bcd0	-0.111688256
17	0x3cdf01b8	0.0272225
18	0x3de2c88a	0.11073406
19	0x3dd05b8a	0.1017371
20	0xbc13d970	-0.009024009
21	0x3d3a87e4	0.04553975
22	0xbdc01ed5	-0.09380881
23	0x3c44bb40	0.0120075345
24	0xbe100fce	-0.14068529
25	0xbdbaa86c	-0.09114155
26	0xbd2cfcea	-0.042233385
27	0x3df458ee	0.119310245
28	0x3d766cf4	0.0601625
29	0x3dc936ee	0.0982493
30	0xbdf81b2e	-0.12114559
31	0x3caabda0	0.020842373
32	0xbdbdd1ba	-0.09268518
33	0xbddc2ee6	-0.10751133
34	0x3d02206c	0.0317692
35	0xbdbe5026	-0.09292631
36	0xbdda48d2	-0.106584206
37	0xbde9ddce	-0.11419259
38	0xbdfce56d	-0.12348447
39	0xbe0928a1	-0.13394405
40	0x3d6c53e8	0.057697207
41	0x3d1f2658	0.038854927
42	0xbdd6a1d8	-0.10480088
43	0xbe03e1f2	-0.1287916
44	0xbda75398	-0.08170241
45	0x3d92d47c	0.071694344
46	0xbe049626	-0.12947902
47	0x3ca24020	0.019805968
48	0xbbdcbf40	-0.006736666
49	0x3b81a380	0.0039562583
50	0xbdbb6e99	-0.09151954
51	0x3d433cb8	0.047665328
52	0xbdc56ec8	-0.096402705
53	0xbd5353aa	-0.05159346
54	0xbc3c32d0	-0.011486724
55	0x3d98123e	0.074253544
56	0xbb8f4d60	-0.0043732375
57	0x3d820296	0.063481495
58	0x3df87b56	0.121328995
59	0x3a9c9600	0.0011946559
60	0xbdd4dc9a	-0.10393639
61	0x3d63d1bc	0.05561994
62	0x3cad5cb8	0.021162376
63	0x3db5de02	0.08880235
64	0xbd2b0638	-0.041753978
65	0xbb1eb200	-0.0024214983
66	0x3d599600	0.053121567
67	0x3c261070	0.010135755
68	0xbc8e01bc	-0.017334811
69	0x3c783e50	0.015151575
70	0x3c5957a0	0.01326552
71	0x3e0dfc7d	0.13865848
72	0xbd5157aa	-0.051108994
73	0xbdb7bba0	-0.089713335
74	0xbda05a4d	-0.078297235
75	0x3d7dea9c	0.06199132
76	0xbd37047e	-0.04468202
77	0xbd2b1f40	-0.04177785
78	0x3dd680e4	0.10473803
79	0x3de7134a	0.11282976
80	0xbd9955ea	-0.0748709
81	0xbe06ce11	-0.13164546
82	0x3da9b790	0.08286965
83	0xbdfbac9a	-0.122887805
84	0xbe0ba8a1	-0.13638546
85	0x3dc2b55e	0.09507249
86	0x3df4cd9e	0.11953281
87	0x3d30e790	0.043189585
88	0x3df1d5fe	0.11808394
89	0xbd9828a6	-0.07429628
90	0xbda77361	-0.08176304
91	0x3b267c40	0.0025403649
92	0x3bcdcd20	0.0062805563
93	0x3c0704e0	0.008240908
94	0xbcf0f834	-0.029415227
95	0xbc8d15d8	-0.01722233
96	0x3ce11e68	0.02748032
97	0xbcfbca44	-0.030736096
98	0xbdeddfef	-0.116149776
99	0x3d335c3c	0.043789133
100	0x3dd02e5e	0.10165094
101	0x3e4a480b	0.19754045
102	0x3e8520e4	0.26001656
103	0xbe3c00a0	-0.18359613
104	0xbe3d8eb0	-0.18511462
105	0xbddcb997	-0.10777586
106	0xbe29f116	-0.16595873
107	0x3de6a64c	0.11262187
108	0xbe06511c	-0.13116878
109	0x3de9677e	0.11396693
110	0x3d3716d1	0.044699494
111	0xbe6ec711	-0.23318125
112	0x3ded39ea	0.11583312
113	0x3cc8d6a9	0.02451642
114	0xbdcf863f	-0.10133027
115	0x3e1dff54	0.15429431
116	0xbd88462f	-0.066540115
117	0x3e8519e4	0.25996315
118	0x3dce6e25	0.10079602
119	0x3e055ac8	0.13022912
120	0xbe088b08	-0.13334286
121	0xbe556199	-0.20838012
122	0xbd90eac3	-0.07076027
123	0xbe4e42d4	-0.2014268
124	0x3d21b762	0.039481528
125	0xbdb7c280	-0.08972645
126	0xbdc2de5a	-0.095150664
127	0x3de2d2fc	0.11075398
128	0xbe4e8f76	-0.20171914
129	0x3e0b3195	0.13593133
130	0x3e4de2e3	0.20106082
131	0x3dd4d44b	0.10392054
132	0xbdd603a2	-0.10449912
133	0x3e1f16ae	0.15535995
134	0x3d2e7bd1	0.04259855
135	0xbdfa0c64	-0.122093946
136	0x3e091e70	0.13390517
137	0x3e06d683	0.13167767
138	0x3e0d6dae	0.1381137
139	0xbe4764ee	-0.19472095
140	0x3e21c816	0.15798983
141	0x3de0a229	0.109684296
142	0x3e3ea759	0.18618526
143	0x3e2666d6	0.16250166
144	0x3db2fa2b	0.08739122
145	0x3dacd81a	0.084396556
146	0xbe5538b6	-0.20822415
147	0x3e0644a1	0.13112117
148	0x3e32adf0	0.17449164
149	0x3e3edd02	0.18638995
150	0xbe01816d	-0.12647028
151	0x3db1161d	0.08646796
152	0x3c67d24d	0.014149261
153	0xbd0bd215	-0.034135897
154	0xbd307bc9	-0.0430868
155	0x3e4a48a7	0.19754277
156	0x3e443104	0.19159323
157	0xbe261120	-0.1621747
158	0xbc8e570f	-0.017375497
159	0xbe16513b	-0.14679424
160	0x3dabd060	0.08389354
161	0x3dab516c	0.08365139
162	0xbdd093a2	-0.10184409
163	0xbde47e4e	-0.11156903
164	0x3e0fc938	0.14041603
165	0xbe174945	-0.14774044
166	0x3e0ea436	0.13929829
167	0x3e06b300	0.1315422
168	0xbdee46cf	-0.116345994
169	0xbe523509	-0.20528044
170	0xbcbb89a0	-0.022892773
171	0x3ca3da3e	0.020001527
172	0x3dc039e4	0.09386042
173	0xbd14734b	-0.036242764
174	0xbdf2db49	-0.118582316
175	0x3b4be397	0.0031110996
176	0x3d87364c	0.06602153
177	0xbe35f954	-0.17770892
178	0x3e2b2cb7	0.16716276
179	0xbe386fd5	-0.1801141
180	0xbd6f5699	-0.058432195
181	0xbd255648	-0.040365487
182	0xbc5fac25	-0.013651882
183	0xbcca1836	-0.024669748
184	0x3d820326	0.06348257
185	0x3ce3c2fe	0.02780294
186	0xbc57572d	-0.013143343
187	0xbe299c28	-0.16563475
188	0xbe277c22	-0.16355947
189	0x3de648a3	0.11244323
190	0x3d699509	0.057026897
191	0xbde56de2	-0.11202599
192	0x3d8f3dc8	0.06994206
193	0xbdf856ce	-0.12125932
194	0xbd187147	-0.037217405
195	0x3d87cda1	0.066310175
196	0x3d2f0c12	0.04273612
197	0xbd37b732	-0.044852443
198	0x3d7f23bf	0.06228995
199	0xbc2fdb78	-0.010733478

bias f4 [4]
0	0x3db4870e	0.08814822
1	0x3ddaebc7	0.10689502
2	0xbcc76c23	-0.024343556
3	0xbe0d22dc	-0.13782829

mask f4 [4, 50]
0	0x00000000	0.0
1	0x00000000	0.0
2	0x00000000	0.0
3	0x00000000	0.0
4	0x00000000	0.0
5	0x00000000	0.0
6	0x00000000	0.0
7	0x00000000	0.0
8	0x00000000	0.0
9	0x00000000	0.0
10	0x00000000	0.0
11	0x00000000	0.0
12	0x00000000	0.0
13	0x00000000	0.0
14	0x00000000	0.0
15	0x00000000	0.0
16	0x00000000	0.0
17	0x00000000	0.0
18	0x00000000	0.0
19	0x00000000	0.0
20	0x00000000	0.0
21	0x00000000	0.0
22	0x00000000	0.0
23	0x00000000	0.0
24	0x00000000	0.0
25	0x00000000	0.0
26	0x00000000	0.0
27	0x00000000	0.0
28	0x00000000	0.0
29	0x00000000	0.0
30	0x00000000	0.0
31	0x00000000	0.0
32	0x00000000	0.0
33	0x00000000	0.0
34	0x00000000	0.0
35	0x00000000	0.0
36	0x00000000	0.0
37	0x00000000	0.0
38	0x00000000	0.0
39	0x00000000	0.0
40	0x00000000	0.0
41	0x00000000	0.0
42	0x00000000	0.0
43	0x00000000	0.0
44	0x00000000	0.0
45	0x00000000	0.0
46	0x00000000	0.0
47	0x00000000	0.0
48	0x00000000	0.0
49	0x00000000	0.0
50	0x00000000	0.0
51	0x00000000	0.0
52	0x00000000	0.0
53	0x00000000	0.0
54	0x00000000	0.0
55	0x00000000	0.0
56	0x00000000	0.0
57	0x00000000	0.0
58	0x00000000	0.0
59	0x00000000	0.0
60	0x00000000	0.0
61	0x00000000	0.0
62	0x00000000	0.0
63	0x00000000	0.0
64	0x00000000	0.0
65	0x00000000	0.0
66	0x00000000	0.0
67	0x00000000	0.0
68	0x00000000	0.0
69	0x00000000	0.0
70	0x00000000	0.0
71	0x00000000	0.0
72	0x00000000	0.0
73	0x00000000	0.0
74	0x00000000	0.0
75	0x00000000	0.0
76	0x00000000	0.0
77	0x00000000	0.0
78	0x00000000	0.0
79	0x00000000	0.0
80	0x00000000	0.0
81	0x00000000	0.0
82	0x00000000	0.0
83	0x00000000	0.0
84	0x00000000	0.0
85	0x00000000	0.0
86	0x00000000	0.0
87	0x00000000	0.0
88	0x00000000	0.0
89	0x00000000	0.0
90	0x00000000	0.0
91	0x00000000	0.0
92	0x00000000	0.0
93	0x00000000	0.0
94	0x00000000	0.0
95	0x00000000	0.0
96	0x00000000	0.0
97	0x00000000	0.0
98	0x00000000	0.0
99	0x00000000	0.0
100	0x3f800000	1.0
101	0x3f800000	1.0
102	0x3f800000	1.0
103	0x3f800000	1.0
104	0x3f800000	1.0
105	0x3f800000	1.0
106	0x3f800000	1.0
107	0x3f800000	1.0
108	0x3f800000	1.0
109	0x3f800000	1.0
110	0x3f800000	1.0
111	0x3f800000	1.0
112	0x3f800000	1.0
113	0x3f800000	1.0
114	0x3f800000	1.0
115	0x3f800000	1.0
116	0x3f800000	1.0
117	0x3f800000	1.0
118	0x3f800000	1.0
119	0x3f800000	1.0
120	0x3f800000	1.0
121	0x3f800000	1.0
122	0x3f800000	1.0
123	0x3f800000	1.0
124	0x3f800000	1.0
125	0x3f800000	1.0
126	0x3f800000	1.0
127	0x3f800000	1.0
128	0x3f800000	1.0
129	0x3f800000	1.0
130	0x3f800000	1.0
131	0x3f800000	1.0
132	0x3f800000	1.0
133	0x3f800000	1.0
134	0x3f800000	1.0
135	0x3f800000	1.0
136	0x3f800000	1.0
137	0x3f800000	1.0
138	0x3f800000	1.0
139	0x3f800000	1.0
140	0x3f800000	1.0
141	0x3f800000	1.0
142	0x3f800000	1.0
143	0x3f800000	1.0
144	0x3f800000	1.0
145	0x3f800000	1.0
146	0x3f800000	1.0
147	0x3f800000	1.0
148	0x3f800000	1.0
149	0x3f800000	1.0
150	0x3f800000	1.0
151	0x3f800000	1.0
152	0x3f800000	1.0
153	0x3f800000	1.0
154	0x3f800000	1.0
155	0x3f800000	1.0
156	0x3f800000	1.0
157	0x3f800000	1.0
158	0x3f800000	1.0
159	0x3f800000	1.0
160	0x3f800000	1.0
161	0x3f800000	1.0
162	0x3f800000	1.0
163	0x3f800000	1.0
164	0x3f800000	1.0
165	0x3f800000	1.0
166	0x3f800000	1.0
167	0x3f800000	1.0
168	0x3f800000	1.0
169	0x3f800000	1.0
170	0x3f800000	1.0
171	0x3f800000	1.0
172	0x3f800000	1.0
173	0x3f800000	1.0
174	0x3f800000	1.0
175	0x3f800000	1.0
176	0x3f800000	1.0
177	0x3f800000	1.0
178	0x3f800000	1.0
179	0x3f800000	1.0
180	0x3f800000	1.0
181	0x3f800000	1.0
182	0x3f800000	1.0
183	0x3f800000	1.0
184	0x3f800000	1.0
185	0x3f800000	1.0
186	0x3f800000	1.0
187	0x3f800000	1.0
188	0x3f800000	1.0
189	0x3f800000	1.0
190	0x3f800000	1.0
191	0x3f800000	1.0
192	0x3f800000	1.0
193	0x3f800000	1.0
194	0x3f800000	1.0
195	0x3f800000	1.0
196	0x3f800000	1.0
197	0x3f800000	1.0
198	0x3f800000	1.0
199	0x3f800000	1.0

weight f4 [50, 2]
0	0xbeb0b351	-0.34511808
1	0x3f0fe739	0.5621219
2	0x3e371338	0.17878425
3	0x3ed2da9a	0.41182405
4	0x3e30ae55	0.17254002
5	0x3f184273	0.59476393
6	0xbe4607bc	-0.19338888
7	0xbeaa9635	-0.33317724
8	0x3ee736ee	0.45159096
9	0x3ee088a2	0.43854243
10	0xbf0e8088	-0.55664873
11	0x3f212535	0.629474
12	0x3d64a705	0.055823345
13	0xbf122504	-0.5708773
14	0xbec4d446	-0.38443202
15	0x3f094127	0.5361504
16	0x3c01a200	0.007912159
17	0x3e914be8	0.28378224
18	0xbe8da246	-0.27662867
19	0x3e4480e0	0.19189787
20	0x3f051e0e	0.51998985
21	0x3eeefc26	0.4667675
22	0x3f05ab2d	0.5221432
23	0x3e8d328c	0.27577627
24	0x3ed0cc33	0.40780792
25	0xbf11a731	-0.5689574
26	0x3f1e5b4c	0.6185806
27	0x3f256c57	0.6461844
28	0x3caa0516	0.020754378
29	0x3bb6b580	0.0055758357
30	0x3f0100c7	0.5039181
31	0x3eacb47a	0.33731443
32	0x3eef79ff	0.46772763
33	0x3ec675a6	0.38761634
34	0xbdc2bea8	-0.09509021
35	0x3edd0962	0.4317122
36	0x3e6f054f	0.23341869
37	0x3e52d7f4	0.20590192
38	0xbefc0501	-0.49222568
39	0xbe386858	-0.18008554
40	0xbe23c572	-0.15993288
41	0x3f0049b5	0.5011247
42	0x3e95bd9c	0.29246223
43	0x3f06a45f	0.5259456
44	0x3e9977db	0.29974255
45	0x3f1e0523	0.6172659
46	0x3f23a1bf	0.6391868
47	0xbddee728	-0.10883933
48	0x3d8d7163	0.069063924
49	0x3f233c59	0.6376396
50	0x3e0900a8	0.13379157
51	0xbe3b998c	-0.18320292
52	0x3e6adccc	0.2293579
53	0x3e064d64	0.1311546
54	0xbe0b1b0c	-0.13584536
55	0xbe68abfa	-0.22721854
56	0x3ed5280d	0.4163212
57	0x3e051894	0.12997657
58	0xbd6ca5df	-0.057775375
59	0xbddc3e68	-0.107540905
60	0xbd36c2fe	-0.044619553
61	0xbd5431b0	-0.0518052
62	0xbe11e8e8	-0.14249003
63	0xbe041534	-0.12898713
64	0x3e76b686	0.24093065
65	0xbc8bdf20	-0.017074168
66	0x3e8e1f62	0.27758318
67	0xbe637aaa	-0.22214761
68	0xbcf14558	-0.029452011
69	0x3eab2002	0.33422858
70	0x3efe0100	0.49610138
71	0x3ec4290e	0.38312572
72	0x3e983e3e	0.29734987
73	0x3f2207df	0.6329326
74	0x3f020f61	0.50804716
75	0xbee1db04	-0.44112408
76	0xbeb7a896	-0.35870808
77	0xbad13800	-0.0015962124
78	0xbf28d19a	-0.65944827
79	0xbeeb0fd0	-0.459105
80	0xbeae37b4	-0.34026873
81	0xbe6d0020	-0.23144579
82	0x3d63806e	0.055542402
83	0x3e4683bc	0.1938619
84	0xbd148efa	-0.036269166
85	0xbe8f62d4	-0.28005087
86	0x3f209cda	0.62739336
87	0xbf062258	-0.52396154
88	0xbf217111	-0.6306315
89	0x3f2ac8bb	0.6671254
90	0x3ecc58e8	0.3991158
91	0xbd2d62f0	-0.042330682
92	0xbe12d81e	-0.14340255
93	0x3dfe8f98	0.12429732
94	0xbea6db0d	-0.32588997
95	0x3f11a843	0.5689737
96	0x3e2354e8	0.15950358
97	0xbbf1a600	-0.007374525
98	0xbef267e1	-0.47344878
99	0xbe042e2c	-0.12908238
