03b/GPS_1256775418/model_trad_seed_31415.pth (torch, 276498 bytes, 76 tensors)

_shift f4 [2]
0	0x4026c106	2.6055312
1	0xbfdcde4f	-1.7255343

_scale f4 [2]
0	0x3e32266a	0.17397466
1	0x405d4be6	3.4577575

weight f4 [50, 2]
0	0xbeec239b	-0.46120915
1	0xbf049982	-0.51796734
2	0x3f23fc69	0.6405702
3	0xbf25a304	-0.6470187
4	0x3e369edc	0.17834038
5	0xbeab8d43	-0.33506212
6	0xbcf01a08	-0.029309288
7	0xbea0ec2c	-0.31430185
8	0xbeb6bb09	-0.35689571
9	0xbeca4100	-0.39502716
10	0x3f21b4d0	0.6316652
11	0x3ea590ae	0.32336944
12	0xbead5727	-0.33855554
13	0x3f03cd09	0.51484734
14	0xbd6a1026	-0.057144307
15	0x3f1661cb	0.5874297
16	0xbe3446b5	-0.17605098
17	0xbe2f9b78	-0.1714915
18	0x3e2bdd6a	0.16783682
19	0x3f2fd217	0.68679947
20	0x3e878816	0.26471013
21	0x3f128223	0.5722982
22	0x3e407ed3	0.1879838
23	0xbd669c40	-0.056301355
24	0x3f152e5e	0.58273876
25	0xbe5141dc	-0.2043528
26	0x3e1f76f7	0.15572725
27	0x3e1e1f8c	0.15441722
28	0x3f2e0f2a	0.6799189
29	0xbeb0cead	-0.3453268
30	0xbf1cedef	-0.6130056
31	0x3e02732c	0.12739247
32	0xbe092486	-0.13392839
33	0xbec6d43b	-0.38833794
34	0x3ec96446	0.39334315
35	0x3e41e750	0.18935895
36	0xbe593309	-0.21210875
37	0xbeb63222	-0.35585123
38	0x3edf8356	0.4365489
39	0x3eea2446	0.457308
40	0x3ed4f555	0.41593423
41	0x3ec3f70a	0.38274413
42	0x3dc74388	0.097296774
43	0xbf05505c	-0.52075744
44	0xbf05259f	-0.5201053
45	0x3f017d05	0.5058139
46	0x3ece0ffa	0.40246564
47	0x3e75ddb0	0.24010348
48	0xbf061127	-0.5236992
49	0xbea4e10f	-0.32202956
50	0x3e2c1602	0.1680527
51	0x3f0f797b	0.5604474
52	0xbf2fbd57	-0.68648285
53	0xbede987a	-0.43475705
54	0x3d985f2a	0.07440026
55	0x3c0c0940	0.008547127
56	0xbd842bed	-0.06453691
57	0xbd66eed0	-0.056380093
58	0xbe712ceb	-0.23552291
59	0xbe701f44	-0.23449427
60	0xbba6c5f8	-0.0050895177
61	0xbe36c5f0	-0.17848945
62	0x3e2d868d	0.16945858
63	0xbf05f2d7	-0.5232367
64	0x3ea12f1c	0.31481254
65	0x3eb79f9a	0.35863954
66	0xbf181f28	-0.5942254
67	0xbeed771e	-0.46379942
68	0x3d374dec	0.044752046
69	0xbf095e7e	-0.5365981
70	0xbf20911b	-0.62721413
71	0xbee48cb6	-0.44638604
72	0xbe15fcdf	-0.14647244
73	0xbee207f6	-0.441467
74	0x3e817421	0.25283912
75	0x3e583e44	0.21117502
76	0x3eeb5e42	0.4597035
77	0xbe8f354c	-0.2797035
78	0x3f291194	0.6604245
79	0x3e4e0bd4	0.201217
80	0xbe8e0015	-0.27734438
81	0xbe21b980	-0.15793419
82	0x3d97dbed	0.074149944
83	0xbf13e175	-0.57765895
84	0xbe85d1d5	-0.26136652
85	0xbedc3fa5	-0.43017307
86	0x3e8ada7d	0.27119818
87	0x3f0e81fd	0.55667096
88	0xbd9fed4c	-0.07808933
89	0x3f1dd83d	0.6165808
90	0x3f1624ee	0.586501
91	0x3ec708ea	0.38873988
92	0xbeef033c	-0.46682155
93	0xbf0d7282	-0.5525285
94	0xbeb0e60b	-0.3455051
95	0xbf13010e	-0.57423484
96	0x3db408ac	0.087907165
97	0x3eb5d47e	0.3551368
98	0x3ea5e03d	0.32397643
99	0xbedec864	-0.4351226

bias f4 [50]
0	0xbe944b2d	-0.28963605
1	0x3c34fbc5	0.011046355
2	0x3ec96c41	0.39340404
3	0x3e8eaacd	0.27864686
4	0x3cb27636	0.021784883
5	0xbdb0990f	-0.086229436
6	0x3cfdc289	0.03097655
7	0x3b03362b	0.00200213
8	0x3f27ca73	0.6554329
9	0x3f454455	0.7705739
10	0x3f01bacb	0.5067565
11	0x3efe74d4	0.49698508
12	0x3ea44c50	0.32089472
13	0xbee944f2	-0.45560414
14	0xbe9f41a0	-0.31104755
15	0xbf1f2c35	-0.6217683
16	0xbf08a355	-0.53374225
17	0xbf224da2	-0.6339971
18	0x3d9c2992	0.076251164
19	0x3e2b258e	0.16713545
20	0x3e3cc1bf	0.18433283
21	0x3f10d5cd	0.56576234
22	0xbf030694	-0.5118191
23	0xbdba04c2	-0.09082939
24	0xbee60abe	-0.4493007
25	0x3f413b51	0.75481135
26	0xbef0a58b	-0.470013
27	0xbee638b9	-0.4496515
28	0x3e26926e	0.16266796
29	0x3e70b89e	0.23507926
30	0x3e65a321	0.2242551
31	0x3da5d6df	0.08097624
32	0xbf268258	-0.6504264
33	0xbef21000	-0.47277832
34	0xbe228637	-0.15871511
35	0x3ddae69f	0.10688519
36	0x3f2cdff4	0.67529225
37	0xbe9a7b20	-0.30172062
38	0x3eddba92	0.43306404
39	0x3f08ed17	0.5348677
40	0xbf080be9	-0.53143173
41	0x3c86e36a	0.016465861
42	0xbea275ef	-0.317306
43	0xbf007ca3	-0.5019018
44	0x3e99ba82	0.30025107
45	0xbda3773d	-0.07981727
46	0xbe86c4e3	-0.26322088
47	0xbf3b7d7f	-0.73238367
48	0x3efdaccb	0.49545893
49	0xbd5819d8	-0.05275902

mask f4 [50, 2]
0	0x3f800000	1.0
1	0x00000000	0.0
2	0x3f800000	1.0
3	0x00000000	0.0
4	0x3f800000	1.0
5	0x00000000	0.0
6	0x3f800000	1.0
7	0x00000000	0.0
8	0x3f800000	1.0
9	0x00000000	0.0
10	0x3f800000	1.0
11	0x00000000	0.0
12	0x3f800000	1.0
13	0x00000000	0.0
14	0x3f800000	1.0
15	0x00000000	0.0
16	0x3f800000	1.0
17	0x00000000	0.0
18	0x3f800000	1.0
19	0x00000000	0.0
20	0x3f800000	1.0
21	0x00000000	0.0
22	0x3f800000	1.0
23	0x00000000	0.0
24	0x3f800000	1.0
25	0x00000000	0.0
26	0x3f800000	1.0
27	0x00000000	0.0
28	0x3f800000	1.0
29	0x00000000	0.0
30	0x3f800000	1.0
31	0x00000000	0.0
32	0x3f800000	1.0
33	0x00000000	0.0
34	0x3f800000	1.0
35	0x00000000	0.0
36	0x3f800000	1.0
37	0x00000000	0.0
38	0x3f800000	1.0
39	0x00000000	0.0
40	0x3f800000	1.0
41	0x00000000	0.0
42	0x3f800000	1.0
43	0x00000000	0.0
44	0x3f800000	1.0
45	0x00000000	0.0
46	0x3f800000	1.0
47	0x00000000	0.0
48	0x3f800000	1.0
49	0x00000000	0.0
50	0x3f800000	1.0
51	0x00000000	0.0
52	0x3f800000	1.0
53	0x00000000	0.0
54	0x3f800000	1.0
55	0x00000000	0.0
56	0x3f800000	1.0
57	0x00000000	0.0
58	0x3f800000	1.0
59	0x00000000	0.0
60	0x3f800000	1.0
61	0x00000000	0.0
62	0x3f800000	1.0
63	0x00000000	0.0
64	0x3f800000	1.0
65	0x00000000	0.0
66	0x3f800000	1.0
67	0x00000000	0.0
68	0x3f800000	1.0
69	0x00000000	0.0
70	0x3f800000	1.0
71	0x00000000	0.0
72	0x3f800000	1.0
73	0x00000000	0.0
74	0x3f800000	1.0
75	0x00000000	0.0
76	0x3f800000	1.0
77	0x00000000	0.0
78	0x3f800000	1.0
79	0x00000000	0.0
80	0x3f800000	1.0
81	0x00000000	0.0
82	0x3f800000	1.0
83	0x00000000	0.0
84	0x3f800000	1.0
85	0x00000000	0.0
86	0x3f800000	1.0
87	0x00000000	0.0
88	0x3f800000	1.0
89	0x00000000	0.0
90	0x3f800000	1.0
91	0x00000000	0.0
92	0x3f800000	1.0
93	0x00000000	0.0
94	0x3f800000	1.0
95	0x00000000	0.0
96	0x3f800000	1.0
97	0x00000000	0.0
98	0x3f800000	1.0
99	0x00000000	0.0

weight f4 [50, 2]
0	0x3ed4351f	0.41446778
1	0x3ca0ef3a	0.019645322
2	0x3f1e0fd9	0.6174293
3	0xbe18d46b	-0.14924781
4	0xbdc618bc	-0.096726865
5	0x3e90243f	0.28152654
6	0x3d71c524	0.0590259
7	0x3ed10bdc	0.4082936
8	0x3d82dde4	0.063899785
9	0x3e35063b	0.17678158
10	0x3eb08beb	0.3448175
11	0xbf164137	-0.5869326
12	0x3d26a7a9	0.040687237
13	0x3f21b7f9	0.63171345
14	0x3f372795	0.7154477
15	0x3f340e19	0.7033401
16	0xbeff742a	-0.49893314
17	0x3f04dd16	0.5189985
18	0xbef8a00f	-0.48559615
19	0xbf273d00	-0.65327454
20	0x3eb4c43c	0.35305965
21	0x3e183493	0.14863805
22	0xbf260977	-0.6485819
23	0xbe648277	-0.22315393
24	0x3eb921dd	0.36158648
25	0xbe89df3f	-0.26928136
26	0xbd84ccdd	-0.06484387
27	0xbe5c5fe3	-0.21520953
28	0x3cdac375	0.02670453
29	0x3eb83afd	0.35982504
30	0x3e2b47da	0.16726628
31	0xbec2cff3	-0.38049278
32	0xbf098bae	-0.5372876
33	0x3d956c49	0.072960444
34	0x3e1f176c	0.15536278
35	0x3e7943f7	0.24342333
36	0xbf063e32	-0.5243865
37	0xbecf747e	-0.40518564
38	0x3e3a1949	0.18173708
39	0x3f10be70	0.56540585
40	0xbe6a300c	-0.22869891
41	0x3e1d8d84	0.15386015
42	0x3f0606bc	0.52354026
43	0xbcb7ab22	-0.02242047
44	0x3e5d396d	0.21603937
45	0xbdf0aa1e	-0.11751197
46	0x3da76e92	0.081753865
47	0x3ee3037f	0.44338605
48	0xbee749e5	-0.45173565
49	0xbe8f11ef	-0.2794337
50	0xbe72598a	-0.23666969
51	0xbec574b8	-0.38565612
52	0x3d9525be	0.072825894
53	0xbf1b544a	-0.6067549
54	0xbeee3c14	-0.4653021
55	0xbe4125dc	-0.18862098
56	0xbe3231df	-0.17401837
57	0x3ec720b6	0.38892144
58	0x3d3ef63d	0.04662155
59	0xbf27ceae	-0.65549743
60	0x3f20c2f9	0.62797505
61	0x3e188dc4	0.1489783
62	0xbf05d0d0	-0.5227175
63	0xbe428799	-0.18997039
64	0xbef49497	-0.47769615
65	0x3dbe6f21	0.0929854
66	0x3f09a272	0.53763497
67	0xbec86666	-0.39140624
68	0xbf134ed5	-0.57542163
69	0xbf2c11b2	-0.672145
70	0xbe87a04b	-0.2648948
71	0x3e79df13	0.24401502
72	0xbe89a756	-0.2688548
73	0xbf08816b	-0.53322476
74	0x3d2d017a	0.042237736
75	0xbeddf3a4	-0.43349946
76	0x3f2916d8	0.6605048
77	0x3eb2f885	0.3495523
78	0xbec62205	-0.3869783
79	0xbde84e45	-0.11343054
80	0x3e128bbe	0.1431112
81	0xbe151d70	-0.14562011
82	0xbed6330c	-0.4183582
83	0x3ddd3403	0.10800936
84	0xbf0455ab	-0.5169322
85	0x3e860a8f	0.2617993
86	0xbf1644ff	-0.5869903
87	0xbf16c7f1	-0.58898836
88	0x3e837348	0.2567389
89	0x3ed8a4e4	0.42313302
90	0x3f19ee5b	0.60129327
91	0x3ec4df56	0.38451642
92	0xbeeca0b3	-0.46216354
93	0x3eeb9740	0.46013832
94	0xbf0075d0	-0.5017977
95	0xbe60c171	-0.21948792
96	0xbe480fba	-0.19537249
97	0xbf144fcb	-0.57934254
98	0xbdc1dd88	-0.09466082
99	0xbece84f6	-0.40335816

bias f4 [50]
0	0x3e8abd81	0.27097705
1	0x3ee9d3f7	0.4566953
2	0xbef89baf	-0.48556277
3	0xbefd1b35	-0.4943482
4	0x3e0d7550	0.13814282
5	0x3f0cb950	0.54970264
6	0xbe80561f	-0.25065705
7	0x3f338963	0.7013151
8	0x3e744b73	0.23856907
9	0xbef62ffa	-0.48083478
10	0x3e0ad93a	0.13559428
11	0x3dcd38c8	0.10020596
12	0x3ef607a3	0.480527
13	0x3d5ce5f1	0.053930227
14	0xbe82df44	-0.25560963
15	0x3ee6c698	0.4507339
16	0x3ef9c469	0.48782662
17	0x3f09bc5f	0.53803056
18	0xbea64dc3	-0.32481202
19	0x3e369f65	0.17834242
20	0x3f34db0b	0.70646733
21	0x3e44eceb	0.19231002
22	0x3e6a3085	0.22870071
23	0xbe120d15	-0.14262803
24	0x3db74c75	0.0895013
25	0xbf036784	-0.5132983
26	0xbee86a54	-0.45393622
27	0x3e45f388	0.19331181
28	0x3ddb113c	0.106966466
29	0xbe056f9c	-0.13030857
30	0xbf3eac2d	-0.7448147
31	0x3e09c83a	0.13455287
32	0x3e4b2d90	0.198416
33	0xbf020ad9	-0.507978
34	0x3eaf1219	0.34193495
35	0x3f007402	0.50177014
36	0xbe086f35	-0.13323672
37	0x3f364b96	0.71209085
38	0xbe91278a	-0.28350478
39	0x3ef973f3	0.48721275
40	0x3f214482	0.6299516
41	0xbf072458	-0.5278983
42	0xbe71a09e	-0.23596427
43	0xbe616b46	-0.22013578
44	0x3e587b07	0.21140681
45	0x3f37c50b	0.7178504
46	0x3f08aae4	0.5338576
47	0xbdc5035b	-0.09619781
48	0xbe864307	-0.26223013
49	0xbec0a16e	-0.3762316

weight f4 [50, 50]
0	0xbcfab169	-0.030602174
1	0x3df31589	0.11869342
2	0xbe3690b2	-0.17828634
3	0xbe1c95e9	-0.15291561
4	0x3ce70095	0.02819852
5	0xbd159f56	-0.036528908
6	0xbc29e1ce	-0.010368777
7	0x3e145e12	0.1448901
8	0x3dba52cd	0.09097824
9	0x3d8d594a	0.06901796
10	0xbcb30a83	-0.021855598
11	0xbc9094e9	-0.01764913
12	0x3dda0c52	0.10646881
13	0x3d82c90d	0.06386004
14	0x3df52b3e	0.119711384
15	0x3e0edcfc	0.13951486
16	0x3df6cc9b	0.12050744
17	0xbde5fc20	-0.1122973
18	0xbdcabbf3	-0.0989913
19	0x3ccb965a	0.024851967
20	0x3b95b62f	0.004568837
21	0x3e12c81f	0.14334153
22	0x3dc9f000	0.098602295
23	0xbdd22a64	-0.102619916
24	0xbd91102f	-0.07083165
25	0xbd7a605a	-0.061127044
26	0x3e1e9c5a	0.15489331
27	0xbdda19b1	-0.106494315
28	0x3e24e738	0.16103828
29	0x3dac5d64	0.0841625
30	0x3d176679	0.03696296
31	0x3dab7bed	0.08373246
32	0x3d9fd59b	0.07804414
33	0xbdce1fe9	-0.1006468
34	0x3dcf9c59	0.10137243
35	0xbbd79929	-0.0065795374
36	0x3e13b231	0.14423443
37	0x3b02a184	0.0019932697
38	0x3d21fc9f	0.03954756
39	0xbe0470f5	-0.12933715
40	0x3e2fe0db	0.1717562
41	0xba164387	-0.0005732108
42	0x3d3e21c3	0.046418916
43	0x3da25fa6	0.079284
44	0xbcbc731b	-0.023004105
45	0x3d478fcd	0.048721123
46	0x3dd33701	0.103132255
47	0xbcf8ab62	-0.03035516
48	0xbde2c656	-0.11072986
49	0x3d8a8a0c	0.067646116
50	0x3d988cb5	0.07448713
51	0xbc42ec6a	-0.011897186
52	0x3dae0f53	0.084990166
53	0xbe19632e	-0.1497924
54	0x3cdc8372	0.026918147
55	0x3baa3dc6	0.0051953522
56	0xbd0b2a73	-0.03397603
57	0xbbc82a17	-0.006108533
58	0x3da35608	0.079753935
59	0x3cece4ee	0.028917756
60	0x3d774cae	0.06037586
61	0x3de24f15	0.1105024
62	0xbe0261b7	-0.12732588
63	0x3d9399d2	0.07207073
64	0xbd2bd9f9	-0.04195592
65	0x3d761f9a	0.06008873
66	0x3b25de67	0.0025309564
67	0x3b18b22f	0.0023299565
68	0x3cf73116	0.030174773
69	0x3dc5480d	0.09632883
70	0x3df8115d	0.12112687
71	0x3cc939ad	0.024563635
72	0x3e159503	0.14607625
73	0xbbabd678	-0.0052440725
74	0xbd2d9172	-0.042375036
75	0x3e2223d1	0.15833975
76	0x3deb76f6	0.114972994
77	0xbe298ae3	-0.16556887
78	0xbd37d6c4	-0.04488255
79	0x3de73a33	0.112903975
80	0x3b8b6f75	0.00425523
81	0x3bfc7cdf	0.0077053155
82	0x3c4121aa	0.011787811
83	0x3c835865	0.01603336
84	0x3e1a7b0a	0.15085998
85	0xbd805c29	-0.06267578
86	0xbdbe637c	-0.09296319
87	0x3d0fd54f	0.035115536
88	0x3e0e985e	0.13925311
89	0xbdf68ae3	-0.12038209
90	0xbaee57b9	-0.0018184102
91	0x3d703aeb	0.05864994
92	0xbdd519ac	-0.10405287
93	0xbdab16e8	-0.083539784
94	0x3db029bd	0.08601711
95	0xbc9240f4	-0.017853238
96	0x3daae2b0	0.083440185
97	0x3d1f6043	0.03891016
98	0x3d9b4a37	0.07582515
99	0x3c83d26d	0.01609155
100	0xbe02860d	-0.12746449
101	0x3d1bb5b8	0.038015097
102	0x3d5c1d54	0.053738907
103	0x3d892118	0.06695765
104	0x3db53ead	0.08849845
105	0xbd8191d7	-0.06326645
106	0xbdabc57d	-0.08387277
107	0xbc443fc0	-0.01197809
108	0xbde8e945	-0.11372618
109	0xbe0730d6	-0.13202223
110	0xbd17beb1	-0.037047092
111	0x3c0a7feb	0.00845335
112	0x3bccd116	0.006250511
113	0x3dfffc4e	0.12499295
114	0x3b655149	0.0034991077
115	0xbe2172d0	-0.15766454
116	0x3d87a3bf	0.06623029
117	0xbdb063ac	-0.08612761
118	0xbcae7920	-0.021297991
119	0xbd282028	-0.04104629
120	0xbdd3be5c	-0.103390425
121	0x3d698283	0.05700923
122	0x3ca6ed7a	0.02037691
123	0xbd53bd1c	-0.05169402
124	0x3d9cedfb	0.07662579
125	0x3dbf79a9	0.09349377
126	0x3dd41320	0.1035521
127	0xbdb0aa08	-0.08626181
128	0xbda23e01	-0.079219826
129	0x3d5a7f5e	0.053344123
130	0x3e32aaf1	0.17448021
131	0x3d8d1f1b	0.068906985
132	0xbd0fe75d	-0.035132755
133	0xbd751f5b	-0.059844356
134	0x3c85f294	0.016351022
135	0xbe14469e	-0.14480063
136	0xbe1e4e27	-0.154595
137	0xbd69b495	-0.057056982
138	0xbdf9de5c	-0.12200615
139	0xbd58e49c	-0.052952394
140	0xbe0f193d	-0.13974471
141	0x3e2e773c	0.17037672
142	0xbdb1eed1	-0.08688129
143	0x3dfa776f	0.122298114
144	0xbd59f317	-0.053210344
145	0x3cf21141	0.029549243
146	0x3d64e925	0.055886406
147	0x3d8b798c	0.068102926
148	0xbdfc1e72	-0.123104945
149	0xbdca0409	-0.09864051
150	0x39aba8f4	0.00032741542
151	0x3ce195c2	0.02753723
152	0x3d837bfc	0.064201325
153	0x3ca7d6db	0.020488193
154	0x3b6d1bc2	0.0036179875
155	0xbc668c29	-0.014071503
156	0xbdecbd22	-0.11559512
157	0xbcb1af0f	-0.02168992
158	0xbe0883f1	-0.13331582
159	0x3d9701de	0.07373403
160	0xbdad29a8	-0.08455211
161	0x3bc2d125	0.005945342
162	0xbe019bfc	-0.1265716
163	0xbacbe636	-0.0015556279
164	0x3de50420	0.111824274
165	0xbd34deeb	-0.044157904
166	0x3d4bd43f	0.04976296
167	0x3d88bbc9	0.06676442
168	0xba06f391	-0.00051479886
169	0x3ca18679	0.019717442
170	0x3cb6de86	0.022322904
171	0xbde22384	-0.1104193
172	0x3ccdaf86	0.02510811
173	0xbc864cf9	-0.016394125
174	0xbd926e70	-0.071499705
175	0xbddbbd6f	-0.10729491
176	0x3dfa28dd	0.12214825
177	0x3d90be79	0.0706758
178	0xbc2e0750	-0.010621861
179	0xbe2764a5	-0.16346987
180	0x3e2b8f8e	0.1675398
181	0xbc83c5a9	-0.016085463
182	0x3da63062	0.08114697
183	0x3dd4906d	0.103791095
184	0xbdd07450	-0.10178435
185	0x3dbdec3d	0.092735745
186	0xbe422fa1	-0.18963481
187	0xbdb5201c	-0.08844015
188	0x3d3f61a8	0.04672399
189	0xbdb153ab	-0.086585365
190	0xbe28b677	-0.16475855
191	0x3e2b3b2b	0.1672179
192	0x3d4dc95f	0.05024087
193	0x3e4a72c6	0.19770345
194	0x3ba15fa3	0.004924731
195	0xbd29d96b	-0.04146711
196	0x3c5de423	0.013543162
197	0x3da1f97b	0.07908913
198	0x3cb9ed82	0.02269626
199	0xbdbc92aa	-0.092076614
200	0xbe108fa4	-0.14117295
201	0x3e138136	0.14404759
202	0x3ccbf85a	0.024898697
203	0xbd227b97	-0.039668646
204	0x3d91b181	0.07113934
205	0x3e0d3a84	0.13791853
206	0xbdf2bd42	-0.11852504
207	0x3d92acdd	0.07161877
208	0xbde3262a	-0.110912636
209	0x3d2fe5a2	0.042943604
210	0xbe16860c	-0.14699572
211	0x3b893819	0.0041875956
212	0xbdf8f2f2	-0.12155713
213	0xbd89a20b	-0.0672036
214	0x3d3d1a0d	0.046167422
215	0xbe1bfed0	-0.15233922
216	0xbd3b52e2	-0.04573334
217	0x3bf4597e	0.0074569574
218	0x3e181c96	0.14854655
219	0xbd078e6c	-0.03309481
220	0xbdfb7a5a	-0.12279196
221	0x3c529eb3	0.01285522
222	0x3d9ac046	0.075562045
223	0xbdde1fc0	-0.108458996
224	0xbcb915bb	-0.02259337
225	0x3d04771b	0.03234015
226	0x3d9db269	0.07700045
227	0xbbff6384	-0.0077938456
228	0x3e117132	0.14203337
229	0xbe0ef904	-0.1396218
230	0xb8e9a9de	-0.00011141946
231	0x3ca03237	0.019555194
232	0xbd12c055	-0.035827953
233	0xbdd594d0	-0.10428774
234	0xbd7b6420	-0.061374784
235	0xbd37c7e9	-0.044868384
236	0x3d90323b	0.07040831
237	0xbe000fa6	-0.1250597
238	0x3d03de40	0.032194376
239	0xbde2fe6c	-0.11083683
240	0x3d282d24	0.041058674
241	0x3dbb3e95	0.09142796
242	0xbd904c1d	-0.070457675
243	0xbbdc287e	-0.006718694
244	0xbd249f6e	-0.040191106
245	0x3dac2300	0.08405113
246	0x3cc14cb2	0.023596141
247	0xbd8c3b9c	-0.06847307
248	0x3c81bd3a	0.0158373
249	0xbdb8eed8	-0.09029931
250	0xbc7c6906	-0.015405899
251	0xbe0f8377	-0.14014994
252	0xbd8d1bd3	-0.06890073
253	0x3dea9fbe	0.1145625
254	0xbd29876a	-0.041388907
255	0x3c9a1a43	0.01881135

bias f4 [50]
0	0x3e04b747	0.1296054
1	0x3dc30496	0.09522359
2	0xbd95cfa2	-0.073149934
3	0xbdbb8561	-0.091562994
4	0x3d269f0f	0.040679034
5	0x3e065bc7	0.13120948
6	0x3d8cf3dd	0.06882451
7	0x3deb3504	0.11484721
8	0xbdfecf4b	-0.12441882
9	0x3d27cc1b	0.040966135
10	0x3d81286a	0.063065365
11	0xbd05a41f	-0.03262722
12	0xbdb2dbf7	-0.08733361
13	0x3dd04e8c	0.101712316
14	0x3e077c9b	0.13231127
15	0xbdd58dcf	-0.104274385
16	0x3d85d4fe	0.06534766
17	0x3e318577	0.17336069
18	0xbe0a49e0	-0.13504744
19	0xbd884124	-0.066530496
20	0xbdc7955f	-0.09745287
21	0xbaaf2b6e	-0.0013364383
22	0x3e314f61	0.17315437
23	0x3d0b58a4	0.03402008
24	0x3d5f9935	0.05458947
25	0x3ded4046	0.11584525
26	0xbe61b2d6	-0.22040877
27	0xbdda592b	-0.10661539
28	0x3d32ed48	0.04368332
29	0x3d08181a	0.03322611
30	0x3d5d8381	0.05408049
31	0xbc459947	-0.01206047
32	0x3caf49a9	0.021397429
33	0x3d1dd8fc	0.03853701
34	0xbdba0bf1	-0.09084309
35	0xbd0c8cde	-0.03431403
36	0xbe03a124	-0.12854439
37	0xbdd25548	-0.10270172
38	0x3de1a483	0.11017706
39	0x3ddb9027	0.10720854
40	0x3d6244d8	0.055241436
41	0xbe0273ce	-0.12739488
42	0x3c78a4e7	0.0151760345
43	0xbe0fe9b5	-0.14053996
44	0xbd3171ec	-0.043321535
45	0x3da48608	0.08033377
46	0xbe163c82	-0.1467152
47	0xbe16f12c	-0.14740437
48	0x3d68100a	0.05665592
49	0x3d60fc9c	0.054928407

mask f4 [50, 50]
0	0x3f800000	1.0
1	0x3f800000	1.0
2	0x3f800000	1.0
3	0x3f800000	1.0
4	0x3f800000	1.0
5	0x3f800000	1.0
6	0x3f800000	1.0
7	0x3f800000	1.0
8	0x3f800000	1.0
9	0x3f800000	1.0
10	0x3f800000	1.0
11	0x3f800000	1.0
12	0x3f800000	1.0
13	0x3f800000	1.0
14	0x3f800000	1.0
15	0x3f800000	1.0
16	0x3f800000	1.0
17	0x3f800000	1.0
18	0x3f800000	1.0
19	0x3f800000	1.0
20	0x3f800000	1.0
21	0x3f800000	1.0
22	0x3f800000	1.0
23	0x3f800000	1.0
24	0x3f800000	1.0
25	0x3f800000	1.0
26	0x3f800000	1.0
27	0x3f800000	1.0
28	0x3f800000	1.0
29	0x3f800000	1.0
30	0x3f800000	1.0
31	0x3f800000	1.0
32	0x3f800000	1.0
33	0x3f800000	1.0
34	0x3f800000	1.0
35	0x3f800000	1.0
36	0x3f800000	1.0
37	0x3f800000	1.0
38	0x3f800000	1.0
39	0x3f800000	1.0
40	0x3f800000	1.0
41	0x3f800000	1.0
42	0x3f800000	1.0
43	0x3f800000	1.0
44	0x3f800000	1.0
45	0x3f800000	1.0
46	0x3f800000	1.0
47	0x3f800000	1.0
48	0x3f800000	1.0
49	0x3f800000	1.0
50	0x3f800000	1.0
51	0x3f800000	1.0
52	0x3f800000	1.0
53	0x3f800000	1.0
54	0x3f800000	1.0
55	0x3f800000	1.0
56	0x3f800000	1.0
57	0x3f800000	1.0
58	0x3f800000	1.0
59	0x3f800000	1.0
60	0x3f800000	1.0
61	0x3f800000	1.0
62	0x3f800000	1.0
63	0x3f800000	1.0
64	0x3f800000	1.0
65	0x3f800000	1.0
66	0x3f800000	1.0
67	0x3f800000	1.0
68	0x3f800000	1.0
69	0x3f800000	1.0
70	0x3f800000	1.0
71	0x3f800000	1.0
72	0x3f800000	1.0
73	0x3f800000	1.0
74	0x3f800000	1.0
75	0x3f800000	1.0
76	0x3f800000	1.0
77	0x3f800000	1.0
78	0x3f800000	1.0
79	0x3f800000	1.0
80	0x3f800000	1.0
81	0x3f800000	1.0
82	0x3f800000	1.0
83	0x3f800000	1.0
84	0x3f800000	1.0
85	0x3f800000	1.0
86	0x3f800000	1.0
87	0x3f800000	1.0
88	0x3f800000	1.0
89	0x3f800000	1.0
90	0x3f800000	1.0
91	0x3f800000	1.0
92	0x3f800000	1.0
93	0x3f800000	1.0
94	0x3f800000	1.0
95	0x3f800000	1.0
96	0x3f800000	1.0
97	0x3f800000	1.0
98	0x3f800000	1.0
99	0x3f800000	1.0
100	0x3f800000	1.0
101	0x3f800000	1.0
102	0x3f800000	1.0
103	0x3f800000	1.0
104	0x3f800000	1.0
105	0x3f800000	1.0
106	0x3f800000	1.0
107	0x3f800000	1.0
108	0x3f800000	1.0
109	0x3f800000	1.0
110	0x3f800000	1.0
111	0x3f800000	1.0
112	0x3f800000	1.0
113	0x3f800000	1.0
114	0x3f800000	1.0
115	0x3f800000	1.0
116	0x3f800000	1.0
117	0x3f800000	1.0
118	0x3f800000	1.0
119	0x3f800000	1.0
120	0x3f800000	1.0
121	0x3f800000	1.0
122	0x3f800000	1.0
123	0x3f800000	1.0
124	0x3f800000	1.0
125	0x3f800000	1.0
126	0x3f800000	1.0
127	0x3f800000	1.0
128	0x3f800000	1.0
129	0x3f800000	1.0
130	0x3f800000	1.0
131	0x3f800000	1.0
132	0x3f800000	1.0
133	0x3f800000	1.0
134	0x3f800000	1.0
135	0x3f800000	1.0
136	0x3f800000	1.0
137	0x3f800000	1.0
138	0x3f800000	1.0
139	0x3f800000	1.0
140	0x3f800000	1.0
141	0x3f800000	1.0
142	0x3f800000	1.0
143	0x3f800000	1.0
144	0x3f800000	1.0
145	0x3f800000	1.0
146	0x3f800000	1.0
147	0x3f800000	1.0
148	0x3f800000	1.0
149	0x3f800000	1.0
150	0x3f800000	1.0
151	0x3f800000	1.0
152	0x3f800000	1.0
153	0x3f800000	1.0
154	0x3f800000	1.0
155	0x3f800000	1.0
156	0x3f800000	1.0
157	0x3f800000	1.0
158	0x3f800000	1.0
159	0x3f800000	1.0
160	0x3f800000	1.0
161	0x3f800000	1.0
162	0x3f800000	1.0
163	0x3f800000	1.0
164	0x3f800000	1.0
165	0x3f800000	1.0
166	0x3f800000	1.0
167	0x3f800000	1.0
168	0x3f800000	1.0
169	0x3f800000	1.0
170	0x3f800000	1.0
171	0x3f800000	1.0
172	0x3f800000	1.0
173	0x3f800000	1.0
174	0x3f800000	1.0
175	0x3f800000	1.0
176	0x3f800000	1.0
177	0x3f800000	1.0
178	0x3f800000	1.0
179	0x3f800000	1.0
180	0x3f800000	1.0
181	0x3f800000	1.0
182	0x3f800000	1.0
183	0x3f800000	1.0
184	0x3f800000	1.0
185	0x3f800000	1.0
186	0x3f800000	1.0
187	0x3f800000	1.0
188	0x3f800000	1.0
189	0x3f800000	1.0
190	0x3f800000	1.0
191	0x3f800000	1.0
192	0x3f800000	1.0
193	0x3f800000	1.0
194	0x3f800000	1.0
195	0x3f800000	1.0
196	0x3f800000	1.0
197	0x3f800000	1.0
198	0x3f800000	1.0
199	0x3f800000	1.0
200	0x3f800000	1.0
201	0x3f800000	1.0
202	0x3f800000	1.0
203	0x3f800000	1.0
204	0x3f800000	1.0
205	0x3f800000	1.0
206	0x3f800000	1.0
207	0x3f800000	1.0
208	0x3f800000	1.0
209	0x3f800000	1.0
210	0x3f800000	1.0
211	0x3f800000	1.0
212	0x3f800000	1.0
213	0x3f800000	1.0
214	0x3f800000	1.0
215	0x3f800000	1.0
216	0x3f800000	1.0
217	0x3f800000	1.0
218	0x3f800000	1.0
219	0x3f800000	1.0
220	0x3f800000	1.0
221	0x3f800000	1.0
222	0x3f800000	1.0
223	0x3f800000	1.0
224	0x3f800000	1.0
225	0x3f800000	1.0
226	0x3f800000	1.0
227	0x3f800000	1.0
228	0x3f800000	1.0
229	0x3f800000	1.0
230	0x3f800000	1.0
231	0x3f800000	1.0
232	0x3f800000	1.0
233	0x3f800000	1.0
234	0x3f800000	1.0
235	0x3f800000	1.0
236	0x3f800000	1.0
237	0x3f800000	1.0
238	0x3f800000	1.0
239	0x3f800000	1.0
240	0x3f800000	1.0
241	0x3f800000	1.0
242	0x3f800000	1.0
243	0x3f800000	1.0
244	0x3f800000	1.0
245	0x3f800000	1.0
246	0x3f800000	1.0
247	0x3f800000	1.0
248	0x3f800000	1.0
249	0x3f800000	1.0
250	0x3f800000	1.0
251	0x3f800000	1.0
252	0x3f800000	1.0
253	0x3f800000	1.0
254	0x3f800000	1.0
255	0x3f800000	1.0

weight f4 [50, 50]
0	0xbdfda788	-0.1238547
1	0x3daabf39	0.08337254
2	0xbdcc0fcf	-0.09963953
3	0x3d5d9307	0.054095294
4	0x3d133549	0.03593949
5	0xbdf4c273	-0.11951151
6	0x3ddd3961	0.1080196
7	0xbe0e4662	-0.13894036
8	0xbdeba6bd	-0.11506412
9	0x3e0e24e8	0.13881266
10	0x3dd443c9	0.103644915
11	0xbf012c27	-0.50457996
12	0xbd3fab23	-0.046794068
13	0x3c7e596d	0.01552425
14	0x3d1ca318	0.038241476
15	0xbe57fac0	-0.21091747
16	0x3e539e3d	0.20665832
17	0x3db07a61	0.08617092
18	0x3c968846	0.018375527
19	0x3d47d6ff	0.04878902
20	0xbd9cc10d	-0.07654009
21	0x3d9c874e	0.07642995
22	0x3d9fee88	0.07809168
23	0xbda77841	-0.081772335
24	0x3e9beca4	0.3045398
25	0x3d8c2207	0.06842428
26	0xbec31e48	-0.3810904
27	0xbdf211a8	-0.11819774
28	0xbe93af35	-0.2884461
29	0x3cddc281	0.027070286
30	0x3d8d3c91	0.06896318
31	0x3ecdfe83	0.4023324
32	0xbdb06f60	-0.08614993
33	0xbd1c2a60	-0.03812635
34	0x3c856bf0	0.01628682
35	0xbdb4ee21	-0.08834482
36	0x3cd9847f	0.026552437
37	0x3d54d6b6	0.051962577
38	0x3de0b6e6	0.10972385
39	0xbd9fd15b	-0.07803603
40	0x3e46af62	0.1940284
41	0xbe0507b6	-0.12991223
42	0xbdd8fc65	-0.105950154
43	0xbcb9a807	-0.02266313
44	0x3d286cb2	0.041119285
45	0x3d8c13d4	0.068397194
46	0x3df26c7d	0.11837099
47	0x3e2581e5	0.16162832
48	0x3eab531e	0.3346185
49	0xbd7f9f97	-0.062408056
50	0xbc903876	-0.017605048
51	0x3e23e183	0.16003995
52	0xbd6fbb5c	-0.05852829
53	0xbd86f0a2	-0.06588866
54	0xbdaa1a02	-0.08305742
55	0x3d9b6c21	0.07588983
56	0xbdc0b664	-0.09409788
57	0xbc697a9d	-0.014250425
58	0x3ca3cbc9	0.019994633
59	0x3daa9798	0.083296955
60	0x3d6b2807	0.05741122
61	0xb99ee1bd	-0.00030304297
62	0x3df4a00a	0.119445875
63	0x3d9bd5de	0.07609151
64	0x3d9c3d39	0.07628865
65	0x3cbd752f	0.023127167
66	0x3cd6af57	0.026206655
67	0x3c2cbdd7	0.010543308
68	0x3db27670	0.087139964
69	0xbdf1f6de	-0.11814664
70	0x3d46f8f6	0.04857727
71	0x3d0e0b13	0.03467853
72	0x3e1ec372	0.15504244
73	0xbcd82ea8	-0.026389435
74	0x3bb41e70	0.0054967925
75	0x3c801346	0.01563419
76	0x3ca3afb4	0.019981243
77	0x3dd3b546	0.103373095
78	0xbdc2bc60	-0.09508586
79	0xbe0cee84	-0.13762861
80	0x3dd009a3	0.10158088
81	0xbca41402	-0.020029072
82	0xbd7ec0f9	-0.06219575
83	0xbde46761	-0.111525305
84	0x3d0a648b	0.03378729
85	0xbc6025f6	-0.013680926
86	0xbd8bccf9	-0.06826205
87	0x3d33d607	0.043905284
88	0xbdce3949	-0.1006952
89	0x3c9254d2	0.017862711
90	0xbb8304df	-0.0039983834
91	0xbb0be8ca	-0.002134847
92	0x3dd26947	0.10273986
93	0x3c5a0ef9	0.013309234
94	0xbd69814c	-0.057008073
95	0xbd93c7ad	-0.072158195
96	0xbd5ea8a9	-0.054360066
97	0x3dc6b4e0	0.09702468
98	0xbda82aff	-0.08211326
99	0x3b4f2e26	0.00316132
100	0xbe07d4ca	-0.13264766
101	0xbe2a31e7	-0.16620599
102	0x3dd877bc	0.105697125
103	0x3de059dd	0.1095464
104	0xbe02e077	-0.12780939
105	0x3d27f161	0.04100168
106	0xbd6852c4	-0.056719556
107	0x3d369800	0.044578552
108	0x3e196678	0.14980495
109	0xbe2d42aa	-0.16919962
110	0xbe12761b	-0.14302866
111	0xbd8c7792	-0.06858744
112	0xbe243000	-0.16033936
113	0xbd5be605	-0.05368616
114	0xbd833085	-0.06405739
115	0xbd93c667	-0.072155766
116	0xbde28360	-0.11060214
117	0xbcd2f3b0	-0.025750965
118	0xbabde40b	-0.0014487518
119	0xbe1ce348	-0.15321076
120	0x3d815ee7	0.06316929
121	0xbe0b82c0	-0.13624096
122	0xbdf8cf99	-0.12148971
123	0x3dcfa3ae	0.10138641
124	0xbd15bccc	-0.036557004
125	0xbd3e77fe	-0.046501152
126	0x3b66f304	0.0035240063
127	0xbcff43ec	-0.031160317
128	0xbcb91b61	-0.022596063
129	0xbdff5b37	-0.1246857
130	0x3d926a63	0.07149198
131	0xbda6daf3	-0.0814723
132	0xbe0bfd36	-0.13670811
133	0xbe4396a4	-0.19100434
134	0x3e001b71	0.12510468
135	0x3cf97f17	0.030456109
136	0xbca47422	-0.020074908
137	0xbdf1c126	-0.11804418
138	0x3d1d0b1f	0.038340684
139	0xbd6a86f6	-0.057257615
140	0xbdc6deb0	-0.09710443
141	0xbd92b36f	-0.071631305
142	0xbddaceca	-0.10683973
143	0x3c692976	0.014231076
144	0x3d2129ee	0.039346628
145	0x3de3cbf1	0.11122883
146	0xbde58ddc	-0.11208698
147	0x3d340093	0.04394586
148	0xbb9b8691	-0.004746266
149	0xbd10b1a3	-0.035325658
150	0x3e286950	0.16446424
151	0xbd343811	-0.04399878
152	0xbb23810e	-0.0024948749
153	0x3db6e625	0.08930615
154	0xbd733ff0	-0.059387147
155	0xbcd7d210	-0.026345283
156	0xbc02dc55	-0.007987102
157	0x3dd57a38	0.10423702
158	0x3cbd3756	0.023097675
159	0x3d583984	0.052789226
160	0x3d4efc32	0.05053348
161	0x3c3159ab	0.010824601
162	0xbd8be1f1	-0.06830204
163	0x3e0ce852	0.13760498
164	0x3db15579	0.08658881
165	0xbd341f37	-0.04397508
166	0xbe173fe1	-0.14770462
167	0xba57bebf	-0.00082300225
168	0x3dc16647	0.09443336
169	0xbe04042f	-0.12892221
170	0xbe26cc0e	-0.16288778
171	0xbd497f57	-0.049193706
172	0xbdbc359e	-0.09189914
173	0xbd3b6ad5	-0.04575618
174	0xbd6edbe8	-0.058315188
175	0x3dfa2b4a	0.12215288
176	0xb9b8a99e	-0.0003522159
177	0xbd4811c1	-0.048845056
178	0xbd44a1ea	-0.048005976
179	0xbdd5c24e	-0.10437451
180	0xbc8fb814	-0.01754383
181	0xbdb09081	-0.08621312
182	0x3dbc72ad	0.0920156
183	0x3e01cb07	0.12675105
184	0x3da2328b	0.079197966
185	0xbd6969e2	-0.056985743
186	0xbdd760be	-0.10516499
187	0x3db3b3ed	0.087745525
188	0xbd80e5c3	-0.062938236
189	0x3e24e7c3	0.16104035
190	0xbdac44cd	-0.0841156
191	0x3dbc0138	0.0917992
192	0xbdea9a04	-0.114551574
193	0xbe1f39ce	-0.15549394
194	0xbdbae157	-0.091250114
195	0xbe0b2cd2	-0.13591316
196	0x3dd8c5bc	0.1058459
197	0xbd94f7c7	-0.07273822
198	0xbe24d2c3	-0.16096024
199	0xbceceb61	-0.028920831
200	0xbdb42485	-0.08796028
201	0x3dbf210f	0.09332477
202	0xbcd848c8	-0.026401892
203	0x3e12d89a	0.1434044
204	0x3bd2cf3a	0.0064333947
205	0xbdbf7637	-0.093487196
206	0x3db0016a	0.0859402
207	0xbe08ef2b	-0.13372485
208	0x3ccfec86	0.025381338
209	0xbd9b078a	-0.07569797
210	0xbd082e84	-0.033247486
211	0xbe2b3c42	-0.16722205
212	0xbe0ecef5	-0.13946135
213	0xbdd86fc6	-0.10568194
214	0xbc0c9aba	-0.008581812
215	0xbdd9e121	-0.10638643
216	0x3cd30342	0.02575839
217	0xbdc8769b	-0.09788247
218	0xbd886ed2	-0.06661762
219	0xbd960e76	-0.07326977
220	0xbdd4bcf4	-0.103876024
221	0xbdc18604	-0.094493896
222	0xbd7f4065	-0.06231727
223	0xbbd48bb3	-0.00648638
224	0xbe0614c6	-0.13093862
225	0xbde698f2	-0.11259641
226	0xbe15ae3b	-0.14617245
227	0x3deb9cab	0.115044914
228	0x3c2d026c	0.010559659
229	0x3e11b93b	0.14230816
230	0xba0614fe	-0.00051148224
231	0xbdc427de	-0.095779166
232	0xbe17900b	-0.14801042
233	0xbe21d735	-0.15804751
234	0x3d6a47a0	0.057197213
235	0xbd7c07d5	-0.061530907
236	0x3e1b0f29	0.15142502
237	0xbdda9c81	-0.10674382
238	0x3da2f00d	0.07955942
239	0x3dc44e9d	0.09585307
240	0x3d4f980b	0.05068211
241	0x3d3e86ac	0.04651515
242	0x3dbef1c9	0.093234606
243	0xbceefe7a	-0.029174078
244	0x3cccc7be	0.024997588
245	0xbd8dd0e0	-0.06924605
246	0x3b81fb4b	0.003966724
247	0xbe010ecb	-0.126033
248	0x3d8dae1a	0.06917973
249	0x3d0dc5e8	0.034612566
250	0x3b356c98	0.0027683135
251	0x3cdb0142	0.026733998
252	0x3dc3c8fb	0.09559818
253	0x3988176c	0.00025957392
254	0x3db78c76	0.08962338
255	0xbdbb6a09	-0.09151084

bias f4 [50]
0	0x3e1023b1	0.14076115
1	0xbdf09287	-0.11746698
2	0xbd8f7802	-0.070053115
3	0xbd321ff0	-0.04348749
4	0x3dbe84b2	0.09302653
5	0x3e0a6492	0.13514927
6	0xbac52eb5	-0.0015043827
7	0x3e209796	0.15682825
8	0xbdf44c35	-0.11928598
9	0xbc8c627c	-0.017136805
10	0xbcb95191	-0.022621902
11	0x3c5d3e66	0.0135036465
12	0xbe086453	-0.1331952
13	0xbd09d2e5	-0.03364839
14	0xbe2134b3	-0.1574276
15	0x3ceb1614	0.028697051
16	0xbe092db0	-0.13396335
17	0x3dc3ea04	0.09566119
18	0x3c641bc4	0.0139226355
19	0x3db40aa6	0.087910935
20	0xbdde9199	-0.10867614
21	0xbdc268a5	-0.094926156
22	0x3d76b341	0.060229544
23	0x3d62ad44	0.05534102
24	0x3c947306	0.018121254
25	0xbe15c50c	-0.14625949
26	0xbdc62bad	-0.09676299
27	0x3d9d9c76	0.07695858
28	0xbdbd26e2	-0.09235932
29	0x3cb6e875	0.022327641
30	0xbda8494e	-0.08217107
31	0x3e1de453	0.1541913
32	0x3d43ce4a	0.047804154
33	0x3dbf9ffc	0.093566865
34	0x3d05c60c	0.032659575
35	0xbdb0350a	-0.086038664
36	0x3bb29d6c	0.005450895
37	0xbd92898a	-0.0715514
38	0xbda0ae7f	-0.078457825
39	0x3a86e1c8	0.0010290677
40	0x3e0d20f5	0.13782103
41	0x3cade543	0.021227485
42	0x3d840058	0.06445378
43	0x3c89181f	0.016735135
44	0x3e1ccd47	0.15312682
45	0x3b4cf2bd	0.0031272613
46	0x3e263dbc	0.16234487
47	0xbd1fcc42	-0.039013155
48	0xbd3e47c1	-0.04645515
49	0x3e0626b4	0.13100702

mask f4 [50, 50]
0	0x3f800000	1.0
1	0x3f800000	1.0
2	0x3f800000	1.0
3	0x3f800000	1.0
4	0x3f800000	1.0
5	0x3f800000	1.0
6	0x3f800000	1.0
7	0x3f800000	1.0
8	0x3f800000	1.0
9	0x3f800000	1.0
10	0x3f800000	1.0
11	0x3f800000	1.0
12	0x3f800000	1.0
13	0x3f800000	1.0
14	0x3f800000	1.0
15	0x3f800000	1.0
16	0x3f800000	1.0
17	0x3f800000	1.0
18	0x3f800000	1.0
19	0x3f800000	1.0
20	0x3f800000	1.0
21	0x3f800000	1.0
22	0x3f800000	1.0
23	0x3f800000	1.0
24	0x3f800000	1.0
25	0x3f800000	1.0
26	0x3f800000	1.0
27	0x3f800000	1.0
28	0x3f800000	1.0
29	0x3f800000	1.0
30	0x3f800000	1.0
31	0x3f800000	1.0
32	0x3f800000	1.0
33	0x3f800000	1.0
34	0x3f800000	1.0
35	0x3f800000	1.0
36	0x3f800000	1.0
37	0x3f800000	1.0
38	0x3f800000	1.0
39	0x3f800000	1.0
40	0x3f800000	1.0
41	0x3f800000	1.0
42	0x3f800000	1.0
43	0x3f800000	1.0
44	0x3f800000	1.0
45	0x3f800000	1.0
46	0x3f800000	1.0
47	0x3f800000	1.0
48	0x3f800000	1.0
49	0x3f800000	1.0
50	0x3f800000	1.0
51	0x3f800000	1.0
52	0x3f800000	1.0
53	0x3f800000	1.0
54	0x3f800000	1.0
55	0x3f800000	1.0
56	0x3f800000	1.0
57	0x3f800000	1.0
58	0x3f800000	1.0
59	0x3f800000	1.0
60	0x3f800000	1.0
61	0x3f800000	1.0
62	0x3f800000	1.0
63	0x3f800000	1.0
64	0x3f800000	1.0
65	0x3f800000	1.0
66	0x3f800000	1.0
67	0x3f800000	1.0
68	0x3f800000	1.0
69	0x3f800000	1.0
70	0x3f800000	1.0
71	0x3f800000	1.0
72	0x3f800000	1.0
73	0x3f800000	1.0
74	0x3f800000	1.0
75	0x3f800000	1.0
76	0x3f800000	1.0
77	0x3f800000	1.0
78	0x3f800000	1.0
79	0x3f800000	1.0
80	0x3f800000	1.0
81	0x3f800000	1.0
82	0x3f800000	1.0
83	0x3f800000	1.0
84	0x3f800000	1.0
85	0x3f800000	1.0
86	0x3f800000	1.0
87	0x3f800000	1.0
88	0x3f800000	1.0
89	0x3f800000	1.0
90	0x3f800000	1.0
91	0x3f800000	1.0
92	0x3f800000	1.0
93	0x3f800000	1.0
94	0x3f800000	1.0
95	0x3f800000	1.0
96	0x3f800000	1.0
97	0x3f800000	1.0
98	0x3f800000	1.0
99	0x3f800000	1.0
100	0x3f800000	1.0
101	0x3f800000	1.0
102	0x3f800000	1.0
103	0x3f800000	1.0
104	0x3f800000	1.0
105	0x3f800000	1.0
106	0x3f800000	1.0
107	0x3f800000	1.0
108	0x3f800000	1.0
109	0x3f800000	1.0
110	0x3f800000	1.0
111	0x3f800000	1.0
112	0x3f800000	1.0
113	0x3f800000	1.0
114	0x3f800000	1.0
115	0x3f800000	1.0
116	0x3f800000	1.0
117	0x3f800000	1.0
118	0x3f800000	1.0
119	0x3f800000	1.0
120	0x3f800000	1.0
121	0x3f800000	1.0
122	0x3f800000	1.0
123	0x3f800000	1.0
124	0x3f800000	1.0
125	0x3f800000	1.0
126	0x3f800000	1.0
127	0x3f800000	1.0
128	0x3f800000	1.0
129	0x3f800000	1.0
130	0x3f800000	1.0
131	0x3f800000	1.0
132	0x3f800000	1.0
133	0x3f800000	1.0
134	0x3f800000	1.0
135	0x3f800000	1.0
136	0x3f800000	1.0
137	0x3f800000	1.0
138	0x3f800000	1.0
139	0x3f800000	1.0
140	0x3f800000	1.0
141	0x3f800000	1.0
142	0x3f800000	1.0
143	0x3f800000	1.0
144	0x3f800000	1.0
145	0x3f800000	1.0
146	0x3f800000	1.0
147	0x3f800000	1.0
148	0x3f800000	1.0
149	0x3f800000	1.0
150	0x3f800000	1.0
151	0x3f800000	1.0
152	0x3f800000	1.0
153	0x3f800000	1.0
154	0x3f800000	1.0
155	0x3f800000	1.0
156	0x3f800000	1.0
157	0x3f800000	1.0
158	0x3f800000	1.0
159	0x3f800000	1.0
160	0x3f800000	1.0
161	0x3f800000	1.0
162	0x3f800000	1.0
163	0x3f800000	1.0
164	0x3f800000	1.0
165	0x3f800000	1.0
166	0x3f800000	1.0
167	0x3f800000	1.0
168	0x3f800000	1.0
169	0x3f800000	1.0
170	0x3f800000	1.0
171	0x3f800000	1.0
172	0x3f800000	1.0
173	0x3f800000	1.0
174	0x3f800000	1.0
175	0x3f800000	1.0
176	0x3f800000	1.0
177	0x3f800000	1.0
178	0x3f800000	1.0
179	0x3f800000	1.0
180	0x3f800000	1.0
181	0x3f800000	1.0
182	0x3f800000	1.0
183	0x3f800000	1.0
184	0x3f800000	1.0
185	0x3f800000	1.0
186	0x3f800000	1.0
187	0x3f800000	1.0
188	0x3f800000	1.0
189	0x3f800000	1.0
190	0x3f800000	1.0
191	0x3f800000	1.0
192	0x3f800000	1.0
193	0x3f800000	1.0
194	0x3f800000	1.0
195	0x3f800000	1.0
196	0x3f800000	1.0
197	0x3f800000	1.0
198	0x3f800000	1.0
199	0x3f800000	1.0
200	0x3f800000	1.0
201	0x3f800000	1.0
202	0x3f800000	1.0
203	0x3f800000	1.0
204	0x3f800000	1.0
205	0x3f800000	1.0
206	0x3f800000	1.0
207	0x3f800000	1.0
208	0x3f800000	1.0
209	0x3f800000	1.0
210	0x3f800000	1.0
211	0x3f800000	1.0
212	0x3f800000	1.0
213	0x3f800000	1.0
214	0x3f800000	1.0
215	0x3f800000	1.0
216	0x3f800000	1.0
217	0x3f800000	1.0
218	0x3f800000	1.0
219	0x3f800000	1.0
220	0x3f800000	1.0
221	0x3f800000	1.0
222	0x3f800000	1.0
223	0x3f800000	1.0
224	0x3f800000	1.0
225	0x3f800000	1.0
226	0x3f800000	1.0
227	0x3f800000	1.0
228	0x3f800000	1.0
229	0x3f800000	1.0
230	0x3f800000	1.0
231	0x3f800000	1.0
232	0x3f800000	1.0
233	0x3f800000	1.0
234	0x3f800000	1.0
235	0x3f800000	1.0
236	0x3f800000	1.0
237	0x3f800000	1.0
238	0x3f800000	1.0
239	0x3f800000	1.0
240	0x3f800000	1.0
241	0x3f800000	1.0
242	0x3f800000	1.0
243	0x3f800000	1.0
244	0x3f800000	1.0
245	0x3f800000	1.0
246	0x3f800000	1.0
247	0x3f800000	1.0
248	0x3f800000	1.0
249	0x3f800000	1.0
250	0x3f800000	1.0
251	0x3f800000	1.0
252	0x3f800000	1.0
253	0x3f800000	1.0
254	0x3f800000	1.0
255	0x3f800000	1.0

weight f4 [4, 50]
0	0x3dd9eb90	0.10640633
1	0xbdaae1d8	-0.083438575
2	0xbe0936c1	-0.13399793
3	0x3dcedb46	0.10100417
4	0xbdae6b7d	-0.085165955
5	0xbc66c5d0	-0.014085248
6	0x3d745494	0.059650972
7	0x3d3e2dd4	0.046430424
8	0xbe02d6ad	-0.12777205
9	0xbc977da0	-0.01849252
10	0xbdd4064a	-0.10352762
11	0xbd6306ce	-0.05542641
12	0x3d750c54	0.05982621
13	0xbb2a9300	-0.002602756
14	0x3d744a10	0.059640944
15	0x3baf8040	0.0053558648
16	0x3db43bea	0.0880049
17	0xbc0f9c30	-0.008765265
18	0xbe0d2745	-0.13784511
19	0xbd539b22	-0.051661618
20	0x3dfcd216	0.12344758
21	0xbc822738	-0.015887842
22	0x3d5750d0	0.052567303
23	0x3d903b4c	0.0704256
24	0xbdd19c2e	-0.10234867
25	0xbe0d7dd1	-0.13817526
26	0x3d9405ea	0.072276905
27	0x3d95935c	0.07303497
28	0xbc76daa0	-0.015066773
29	0x3dd6dba4	0.10491112
30	0x3dde7626	0.10862379
31	0xbc261680	-0.0101372
32	0x3d8f7ef4	0.07006636
33	0x3d8ce43c	0.0687947
34	0xbdf68f33	-0.12039032
35	0xbd0f80b6	-0.035034858
36	0xbdc78944	-0.09742978
37	0x3c82ec30	0.015981764
38	0x3db67f3a	0.08910985
39	0x3dbf6eec	0.093473285
40	0xbde050a8	-0.10952884
41	0x3dec541a	0.115394786
42	0x3c533fc0	0.012893617
43	0x3e0c2601	0.13686372
44	0xbd9617bc	-0.07328746
45	0xbd80767f	-0.06272601
46	0x3cba5020	0.022743285
47	0xbd931e67	-0.07183533
48	0x3d0e67b4	0.034766868
49	0x3cd641a0	0.02615434
50	0xbb5efcc0	-0.0034025162
51	0x3dd7ced4	0.10537496
52	0x3d78dd34	0.06075783
53	0xbd9dbe6b	-0.07702335
54	0xbdc7ffb0	-0.097655654
55	0xbc2233f0	-0.009900078
56	0xbdf00e9c	-0.117215365
57	0xbdb53c74	-0.08849421
58	0x3cfc7440	0.030817151
59	0xbde933a8	-0.11386806
60	0x3d4269c4	0.047464147
61	0xbd0af162	-0.033921607
62	0xbd7e53de	-0.0620917
63	0xbe1024e9	-0.1407658
64	0xbdedf8fe	-0.11619757
65	0xbe10d065	-0.14141996
66	0xbd001f10	-0.031279624
67	0xbd465566	-0.048421286
68	0xbcb9b18c	-0.022667669
69	0x3de11376	0.1099004
70	0x3e07523f	0.13214968
71	0x3aab7780	0.0013081878
72	0xbcf36be8	-0.02971454
73	0x3d766bf0	0.06016153
74	0x3d13dff8	0.036102265
75	0xbde9d490	-0.11417496
76	0xbdec3ba3	-0.11534812
77	0x3ddf423a	0.109013036
78	0xbce22b6c	-0.027608596
79	0x3d041ad0	0.032252133
80	0x3dd50d5a	0.10402937
81	0xbded34d9	-0.115823455
82	0xbd46874e	-0.04846888
83	0xbd7ad032	-0.061233707
84	0xbde9cfc3	-0.114165805
85	0xbda793ee	-0.08182512
86	0x3d066b88	0.032817394
87	0xbc865b10	-0.016400844
88	0x3df022fa	0.11725421
89	0x3dce019e	0.10058902
90	0xbba9a4c0	-0.0051771104
91	0x3d56f52c	0.052479908
92	0x3def2542	0.11677028
93	0x3df642a2	0.12024428
94	0x3d505954	0.05086644
95	0x3caa9948	0.020825043
96	0xbd1e96a4	-0.03871788
97	0xbe0167ad	-0.12637205
98	0xbda6ee78	-0.08150953
99	0xbc621a10	-0.013800159
100	0xbe3e03fb	-0.18556206
101	0x3b6d86e9	0.0036243743
102	0xbe10319d	-0.14081426
103	0x3e11851e	0.14210936
104	0xbdcec2bf	-0.100957386
105	0x3cf25f7a	0.029586542
106	0xbd370aee	-0.044688158
107	0x3e3d66a2	0.18496183
108	0xbe0ce4a5	-0.13759096
109	0x3d29a549	0.041417394
110	0xbd7850d9	-0.060623977
111	0x3d869720	0.065717936
112	0xbe28d3e7	-0.16487084
113	0xbe26d0e9	-0.1629063
114	0xbe258fb7	-0.16168104
115	0x3ba161a5	0.00492497
116	0xbe153a0d	-0.14572926
117	0x3df96a8e	0.12178527
118	0xbdaf99bd	-0.08574245
119	0x3dc19d3b	0.094538175
120	0x3ac46794	0.0014984482
121	0xbd887cc0	-0.06664419
122	0x3e0289bb	0.12747853
123	0x3d685774	0.056724027
124	0xbdd9dd2e	-0.1063789
125	0xbdbaeee9	-0.091276
126	0x3d7b2912	0.061318465
127	0x3e07361d	0.13204236
128	0xbe1a2f53	-0.15057115
129	0xbe063e43	-0.13109688
130	0xbd3a7112	-0.04551799
131	0x3e267fac	0.1625964
132	0x3e196435	0.14979632
133	0x3e3e45d3	0.18581323
134	0x3e180dcc	0.14849013
135	0x3d971fbf	0.07379102
136	0x3e0707ea	0.13186613
137	0x3e0133ef	0.12617467
138	0x3d14e424	0.036350384
139	0xbd9ad66c	-0.07560429
140	0x3dd2b6b7	0.10288756
141	0xbe00d158	-0.12579858
142	0x3dc31b63	0.09526708
143	0xbdf8fdd1	-0.12157787
144	0x3df3f748	0.119123995
145	0xbe249c60	-0.16075277
146	0x3da3f91e	0.080065
147	0x3c52a328	0.012856282
148	0x3e19fc32	0.15037611
149	0x3dd40617	0.10352724
150	0x3d7f0052	0.062256165
151	0xbc8b1233	-0.016976452
152	0xbce2e24a	-0.027695794
153	0xbdf9c1f4	-0.12195197
154	0xbdede4c8	-0.11615902
155	0x3c146dd6	0.00905939
156	0xbd4808d6	-0.04883655
157	0x3d9ff678	0.07810682
158	0x3c23cc67	0.009997464
159	0xbdb36851	-0.08760131
160	0xbd4f85d4	-0.050664738
161	0xbdfff163	-0.12497213
162	0xbdbec834	-0.093155295
163	0xbcb9e214	-0.02269081
164	0x3e14061e	0.14455459
165	0x3d791514	0.060811117
166	0x3e056592	0.13027027
167	0x3b945da6	0.0045277653
168	0x3dc2248a	0.094796255
169	0xbb68a03e	-0.0035495902
170	0xbc5723e3	-0.013131115
171	0x3d8ee16c	0.069765896
172	0xbb584ee1	-0.0033006
173	0x3c88a4f4	0.016680218
174	0xbc98af67	-0.018638326
175	0x3bfe3326	0.007757562
176	0xbd80296d	-0.06257901
177	0x3e118f46	0.1421481
178	0x3d269e5f	0.04067838
179	0xbd5f3b34	-0.05449982
180	0xbdb2aa6b	-0.08723911
181	0xbde7627a	-0.1129808
182	0xbcde01c8	-0.027100459
183	0xbdf13a70	-0.11778724
184	0x3cc04dd2	0.023474608
185	0xbdd9cd4d	-0.10634861
186	0xbb184497	-0.0023234242
187	0xbbedfe8a	-0.0072630094
188	0x3dd8bd98	0.10583037
189	0x3dabd5f6	0.08390419
190	0x3e114fb1	0.14190556
191	0x3d388fb6	0.04505893
192	0xbcab8e0a	-0.020941753
193	0xbd1fcc87	-0.03901341
194	0xbcb4a490	-0.022051126
195	0x3e0b5342	0.13605979
196	0x3db14486	0.08655648
197	0x3c357d1e	0.011077194
198	0x3d244219	0.040102098
199	0xbda73339	-0.08164067

bias f4 [4]
0	0xbc83580f	-0.0160332
1	0xbc809e20	-0.0157004
2	0x3db0c1a9	0.08630688
3	0x3d1ea03d	0.038727034

mask f4 [4, 50]
0	0x00000000	0.0
1	0x00000000	0.0
2	0x00000000	0.0
3	0x00000000	0.0
4	0x00000000	0.0
5	0x00000000	0.0
6	0x00000000	0.0
7	0x00000000	0.0
8	0x00000000	0.0
9	0x00000000	0.0
10	0x00000000	0.0
11	0x00000000	0.0
12	0x00000000	0.0
13	0x00000000	0.0
14	0x00000000	0.0
15	0x00000000	0.0
16	0x00000000	0.0
17	0x00000000	0.0
18	0x00000000	0.0
19	0x00000000	0.0
20	0x00000000	0.0
21	0x00000000	0.0
22	0x00000000	0.0
23	0x00000000	0.0
24	0x00000000	0.0
25	0x00000000	0.0
26	0x00000000	0.0
27	0x00000000	0.0
28	0x00000000	0.0
29	0x00000000	0.0
30	0x00000000	0.0
31	0x00000000	0.0
32	0x00000000	0.0
33	0x00000000	0.0
34	0x00000000	0.0
35	0x00000000	0.0
36	0x00000000	0.0
37	0x00000000	0.0
38	0x00000000	0.0
39	0x00000000	0.0
40	0x00000000	0.0
41	0x00000000	0.0
42	0x00000000	0.0
43	0x00000000	0.0
44	0x00000000	0.0
45	0x00000000	0.0
46	0x00000000	0.0
47	0x00000000	0.0
48	0x00000000	0.0
49	0x00000000	0.0
50	0x00000000	0.0
51	0x00000000	0.0
52	0x00000000	0.0
53	0x00000000	0.0
54	0x00000000	0.0
55	0x00000000	0.0
56	0x00000000	0.0
57	0x00000000	0.0
58	0x00000000	0.0
59	0x00000000	0.0
60	0x00000000	0.0
61	0x00000000	0.0
62	0x00000000	0.0
63	0x00000000	0.0
64	0x00000000	0.0
65	0x00000000	0.0
66	0x00000000	0.0
67	0x00000000	0.0
68	0x00000000	0.0
69	0x00000000	0.0
70	0x00000000	0.0
71	0x00000000	0.0
72	0x00000000	0.0
73	0x00000000	0.0
74	0x00000000	0.0
75	0x00000000	0.0
76	0x00000000	0.0
77	0x00000000	0.0
78	0x00000000	0.0
79	0x00000000	0.0
80	0x00000000	0.0
81	0x00000000	0.0
82	0x00000000	0.0
83	0x00000000	0.0
84	0x00000000	0.0
85	0x00000000	0.0
86	0x00000000	0.0
87	0x00000000	0.0
88	0x00000000	0.0
89	0x00000000	0.0
90	0x00000000	0.0
91	0x00000000	0.0
92	0x00000000	0.0
93	0x00000000	0.0
94	0x00000000	0.0
95	0x00000000	0.0
96	0x00000000	0.0
97	0x00000000	0.0
98	0x00000000	0.0
99	0x00000000	0.0
100	0x3f800000	1.0
101	0x3f800000	1.0
102	0x3f800000	1.0
103	0x3f800000	1.0
104	0x3f800000	1.0
105	0x3f800000	1.0
106	0x3f800000	1.0
107	0x3f800000	1.0
108	0x3f800000	1.0
109	0x3f800000	1.0
110	0x3f800000	1.0
111	0x3f800000	1.0
112	0x3f800000	1.0
113	0x3f800000	1.0
114	0x3f800000	1.0
115	0x3f800000	1.0
116	0x3f800000	1.0
117	0x3f800000	1.0
118	0x3f800000	1.0
119	0x3f800000	1.0
120	0x3f800000	1.0
121	0x3f800000	1.0
122	0x3f800000	1.0
123	0x3f800000	1.0
124	0x3f800000	1.0
125	0x3f800000	1.0
126	0x3f800000	1.0
127	0x3f800000	1.0
128	0x3f800000	1.0
129	0x3f800000	1.0
130	0x3f800000	1.0
131	0x3f800000	1.0
132	0x3f800000	1.0
133	0x3f800000	1.0
134	0x3f800000	1.0
135	0x3f800000	1.0
136	0x3f800000	1.0
137	0x3f800000	1.0
138	0x3f800000	1.0
139	0x3f800000	1.0
140	0x3f800000	1.0
141	0x3f800000	1.0
142	0x3f800000	1.0
143	0x3f800000	1.0
144	0x3f800000	1.0
145	0x3f800000	1.0
146	0x3f800000	1.0
147	0x3f800000	1.0
148	0x3f800000	1.0
149	0x3f800000	1.0
150	0x3f800000	1.0
151	0x3f800000	1.0
152	0x3f800000	1.0
153	0x3f800000	1.0
154	0x3f800000	1.0
155	0x3f800000	1.0
156	0x3f800000	1.0
157	0x3f800000	1.0
158	0x3f800000	1.0
159	0x3f800000	1.0
160	0x3f800000	1.0
161	0x3f800000	1.0
162	0x3f800000	1.0
163	0x3f800000	1.0
164	0x3f800000	1.0
165	0x3f800000	1.0
166	0x3f800000	1.0
167	0x3f800000	1.0
168	0x3f800000	1.0
169	0x3f800000	1.0
170	0x3f800000	1.0
171	0x3f800000	1.0
172	0x3f800000	1.0
173	0x3f800000	1.0
174	0x3f800000	1.0
175	0x3f800000	1.0
176	0x3f800000	1.0
177	0x3f800000	1.0
178	0x3f800000	1.0
179	0x3f800000	1.0
180	0x3f800000	1.0
181	0x3f800000	1.0
182	0x3f800000	1.0
183	0x3f800000	1.0
184	0x3f800000	1.0
185	0x3f800000	1.0
186	0x3f800000	1.0
187	0x3f800000	1.0
188	0x3f800000	1.0
189	0x3f800000	1.0
190	0x3f800000	1.0
191	0x3f800000	1.0
192	0x3f800000	1.0
193	0x3f800000	1.0
194	0x3f800000	1.0
195	0x3f800000	1.0
196	0x3f800000	1.0
197	0x3f800000	1.0
198	0x3f800000	1.0
199	0x3f800000	1.0

weight f4 [50, 2]
0	0x3d763c58	0.060116142
1	0xbf046c3e	-0.51727664
2	0xbeab999f	-0.3351564
3	0x3f3211ab	0.6955821
4	0xbefc61f5	-0.49293485
5	0x3f2a1d77	0.6645121
6	0xbdca607c	-0.09881684
7	0xbeb0bd4f	-0.3451943
8	0xbf1e37ca	-0.6180388
9	0x3e826f7c	0.2547568
10	0xbe82b9e4	-0.25532448
11	0xbbea0680	-0.007141888
12	0xbf27918e	-0.65456474
13	0xbeaf72a6	-0.34267157
14	0x3eba1832	0.36346585
15	0x3ef7cbae	0.48397583
16	0xbf3b4029	-0.73144776
17	0x3f1b9a0d	0.6078194
18	0x3ec84032	0.39111477
19	0xbeeff13a	-0.4686373
20	0xbea68227	-0.32521173
21	0xbe143e44	-0.14476877
22	0x3ce12d01	0.02748728
23	0x3eb459e6	0.35224837
24	0xbe9424bc	-0.28934276
25	0xbf1e5e1b	-0.61862344
26	0xbe87c895	-0.2652022
27	0xbdf91988	-0.12163073
28	0xbf0f4693	-0.5596706
29	0x3f24fe33	0.6445038
30	0x3c456570	0.01204811
31	0xbe94eb93	-0.2908598
32	0xbf155b43	-0.5834238
33	0x3ef43f3e	0.477045
34	0x3e84b964	0.25922692
35	0xbe8e8540	-0.27836037
36	0x3e98d1d7	0.29847595
37	0xbe71cd2a	-0.2361342
38	0x3f0c8e96	0.5490507
39	0x3e73ee9c	0.23821491
40	0xbf0bc082	-0.5459062
41	0xbe108eb4	-0.14116937
42	0xbee0adbb	-0.43882546
43	0xbf1343dc	-0.5752542
44	0xbe7f0505	-0.24904259
45	0xbebd3517	-0.36954567
46	0xbe0c35f2	-0.13692454
47	0x3f1f0bb5	0.6212724
48	0xbef35229	-0.4752362
49	0x3e691a84	0.22764021
50	0xbec1d85e	-0.37860388
51	0xbf2fc72a	-0.68663275
52	0x3f1d3153	0.6140339
53	0xbef1f4cc	-0.47257078
54	0x39b132b5	0.0003379785
55	0x3ec9d6aa	0.39421588
56	0xbe8633a7	-0.26211283
57	0xbf18161a	-0.59408724
58	0xbd463033	-0.04838581
59	0xbed2fc79	-0.41208246
60	0x3f13e039	0.5776401
61	0xbe7f0bec	-0.24906892
62	0x3eddeb22	0.43343455
63	0xbeead060	-0.45862103
64	0xbed76d6c	-0.4207567
65	0xbd746830	-0.059669673
66	0xbd6e0dbb	-0.058118563
67	0x3e2a4e20	0.16631365
68	0x3db5a0b4	0.08868542
69	0x3ee93bd6	0.45553464
70	0xbc2926e7	-0.010324216
71	0x3f19b361	0.60039335
72	0x3f26166a	0.6487795
73	0xbe7f7c16	-0.24949679
74	0xbec87cb0	-0.3915763
75	0xbe5e194e	-0.2168934
76	0xbf171a04	-0.5902407
77	0x3f2a275f	0.66466326
78	0xbf21405e	-0.6298884
79	0xbe240d08	-0.16020596
80	0xbe3d1628	-0.18465483
81	0x3eefadd6	0.46812314
82	0xbf0a10a7	-0.5393166
83	0x3e4f830c	0.20264834
84	0xbed08115	-0.40723482
85	0x3f186083	0.59522265
86	0x3c080a78	0.008303277
87	0xbe63e9ec	-0.22257203
88	0xbeab85ce	-0.33500522
89	0x3ecbcc0e	0.3980412
90	0xbe0ca6bb	-0.13735478
91	0x3ea91c4a	0.33029395
92	0x3ef04bd9	0.46932867
93	0xbde2fbb0	-0.11083162
94	0xbedcde4c	-0.4313835
95	0xbe67c5fe	-0.22634122
96	0x3eebf246	0.46083277
97	0x3ed43b26	0.41451377
98	0x3f13e20f	0.57766813
99	0xbd7f3cf0	-0.062313974

bias f4 [50]
0	0x39bf9066	0.00036537944
1	0xbf2a8d13	-0.6662151
2	0x3f2c1062	0.672125
3	0xbf256d07	-0.6461949
4	0x3e7fb459	0.24971141
5	0x3e4a8d37	0.19780432
6	0xbee7e066	-0.4528839
7	0x3ed8cd9f	0.42344376
8	0xbf2f65d0	-0.6851473
9	0x3ea63a6b	0.32466444
10	0x3ecb2003	0.3967286
11	0xbe74d4b9	-0.23909272
12	0xbe32bd7e	-0.17455098
13	0xbf31b980	-0.69423676
14	0xbf006a15	-0.5016187
15	0x3f2f82f8	0.6855922
16	0xbf1ac22e	-0.60452545
17	0x3e9f0ef6	0.31066102
18	0xbf0e7d05	-0.55659515
19	0xbf37e497	-0.71833175
20	0xbe0b1f0c	-0.13586062
21	0x3ec73f24	0.3891536
22	0x3eb1859c	0.34672248
23	0x3e69dca1	0.2283807
24	0x3f524376	0.8213419
25	0x3e4f6a4e	0.20255396
26	0xbe65d4d0	-0.22444463
27	0xbf3e6098	-0.7436614
28	0xbeb02c19	-0.34408644
29	0x3e817c23	0.2529002
30	0xbf305c3c	-0.6889074
31	0xbf218d73	-0.6310646
32	0x3ef92c9f	0.48666856
33	0x3d7d751f	0.061879274
34	0xbd9948cc	-0.07484588
35	0x3e12dd8d	0.14342327
36	0xbf240dde	-0.6408366
37	0x3f1eae45	0.61984664
38	0xbf1f1251	-0.62137324
39	0x3ed42ae2	0.41438967
40	0x3f014e99	0.50510556
41	0x3f37efd2	0.7185031
42	0x3d22cb35	0.039744575
43	0xbf3c9bd6	-0.73675287
44	0x3f0c60af	0.5483503
45	0xbf161147	-0.58620113
46	0x3e61a5dd	0.22035928
47	0x3f36518a	0.7121817
48	0xbf1889e4	-0.59585404
49	0x3e1be87f	0.15225409

mask f4 [50, 2]
0	0x3f800000	1.0
1	0x00000000	0.0
2	0x3f800000	1.0
3	0x00000000	0.0
4	0x3f800000	1.0
5	0x00000000	0.0
6	0x3f800000	1.0
7	0x00000000	0.0
8	0x3f800000	1.0
9	0x00000000	0.0
10	0x3f800000	1.0
11	0x00000000	0.0
12	0x3f800000	1.0
13	0x00000000	0.0
14	0x3f800000	1.0
15	0x00000000	0.0
16	0x3f800000	1.0
17	0x00000000	0.0
18	0x3f800000	1.0
19	0x00000000	0.0
20	0x3f800000	1.0
21	0x00000000	0.0
22	0x3f800000	1.0
23	0x00000000	0.0
24	0x3f800000	1.0
25	0x00000000	0.0
26	0x3f800000	1.0
27	0x00000000	0.0
28	0x3f800000	1.0
29	0x00000000	0.0
30	0x3f800000	1.0
31	0x00000000	0.0
32	0x3f800000	1.0
33	0x00000000	0.0
34	0x3f800000	1.0
35	0x00000000	0.0
36	0x3f800000	1.0
37	0x00000000	0.0
38	0x3f800000	1.0
39	0x00000000	0.0
40	0x3f800000	1.0
41	0x00000000	0.0
42	0x3f800000	1.0
43	0x00000000	0.0
44	0x3f800000	1.0
45	0x00000000	0.0
46	0x3f800000	1.0
47	0x00000000	0.0
48	0x3f800000	1.0
49	0x00000000	0.0
50	0x3f800000	1.0
51	0x00000000	0.0
52	0x3f800000	1.0
53	0x00000000	0.0
54	0x3f800000	1.0
55	0x00000000	0.0
56	0x3f800000	1.0
57	0x00000000	0.0
58	0x3f800000	1.0
59	0x00000000	0.0
60	0x3f800000	1.0
61	0x00000000	0.0
62	0x3f800000	1.0
63	0x00000000	0.0
64	0x3f800000	1.0
65	0x00000000	0.0
66	0x3f800000	1.0
67	0x00000000	0.0
68	0x3f800000	1.0
69	0x00000000	0.0
70	0x3f800000	1.0
71	0x00000000	0.0
72	0x3f800000	1.0
73	0x00000000	0.0
74	0x3f800000	1.0
75	0x00000000	0.0
76	0x3f800000	1.0
77	0x00000000	0.0
78	0x3f800000	1.0
79	0x00000000	0.0
80	0x3f800000	1.0
81	0x00000000	0.0
82	0x3f800000	1.0
83	0x00000000	0.0
84	0x3f800000	1.0
85	0x00000000	0.0
86	0x3f800000	1.0
87	0x00000000	0.0
88	0x3f800000	1.0
89	0x00000000	0.0
90	0x3f800000	1.0
91	0x00000000	0.0
92	0x3f800000	1.0
93	0x00000000	0.0
94	0x3f800000	1.0
95	0x00000000	0.0
96	0x3f800000	1.0
97	0x00000000	0.0
98	0x3f800000	1.0
99	0x00000000	0.0
