03b/GPS_1256775418/model_ai_seed_27182.pth (torch, 278418 bytes, 76 tensors)

_shift f4 [2]
00000000: a80f 2540 19f8 dfbf
2.5790806 -1.7497588

_scale f4 [2]
00000000: 5d07 303e 364e 5e40
0.17190309 3.4735236

weight f4 [50, 2]
00000000: ac8f 6c3e 6230 c1be 7201 973d 22b6 77be
00000010: 2c43 61be 6c4d 8a3e 9918 7d3d 801a 733e
00000020: 1289 233f 0b79 1a3f a1c5 27bf ba86 cf3e
00000030: b3e8 25bf a082 043d bd1d 2a3f fd59 96be
00000040: 9dfc 42bf 4028 febc fc47 433e 631b 16bf
00000050: 9c02 753e 74cc 2bbe df97 403e 009a 49be
00000060: 457e 3e3e 3211 bf3e 41a3 2dbf b851 efbd
00000070: f244 ba3d 05d9 0cbf dec8 90be 80c2 9a3b
00000080: 36d1 913e 716d 22bf c8c4 0dbf d34a 093f
00000090: c306 0b3f 10c4 833e b1fc efbe 3f05 223f
000000a0: d02f a4be 8422 21be bede 9dbe 428c 92be
000000b0: f7bf 3e3f 3c27 383e eb32 d33e ce24 983e
000000c0: 4224 613e 42b9 cbbe c48b 28bf 5cd0 2abf
000000d0: 38b4 55bf 50eb 633e 29ce 303e a2f6 6abe
000000e0: d689 ad3d ea1f bcbe 28b2 d33e 9125 93be
000000f0: 9a17 cfbe 6049 ce3d 7992 c23e a6f9 dd3e
00000100: 52d0 7f3e 042c 8bbe 0b7f ff3d 6078 f33d
00000110: 6915 333f 72c3 ce3e e8cb dabe fd0a 20bf
00000120: 5597 a6be a5a0 2fbf 2bbc 84bd e902 2fbf
00000130: 9f52 ffbd c29b 70be 4063 f03d 8817 5b3e
00000140: 530f 08bf b98b 163f e429 18bf e1f2 0e3f
00000150: a55a 22bf 6873 58be 4783 c7be 9007 13bd
00000160: 93ca 0f3e 11bd 253f e255 ecbc 0d59 153f
00000170: 47e5 1e3e 045f 733e 4184 213f f097 31bf
00000180: a527 f6bd 841a 10be bd92 953e 0257 9b3e
0.23101681 -0.37732226 0.073733225 -0.24190572 -0.2199828 0.27012193 0.061791036 0.23740578
0.6388103 0.60340947 -0.6553593 0.40532476 -0.64808196 0.032351136 0.66451627 -0.2936553
-0.7616671 -0.031025052 0.19070429 -0.5863554 0.23926777 -0.16777211 0.18807934 -0.19687653
0.18602856 0.37317806 -0.6782723 -0.116855085 0.090951815 -0.55018646 -0.2827825 0.0047228932
0.28479928 -0.63448244 -0.5537839 0.536298 0.5430719 0.2573552 -0.46872476 0.63289255
-0.32067728 -0.15735823 -0.30834 -0.28622633 0.74511665 0.17983717 0.41249785 0.2971558
0.21986488 -0.39789778 -0.65838265 -0.6672418 -0.83478117 0.22257733 0.17266144 -0.22945645
0.08473556 -0.36743098 0.4134686 -0.28739598 -0.40447694 0.10072589 0.38002375 0.4335453
0.24981812 -0.2718202 0.124754034 0.11888194 0.69954544 0.40383488 -0.42733693 -0.62516767
-0.32537332 -0.686045 -0.06481203 -0.68363816 -0.124669306 -0.23496917 0.117376804 0.21395695
-0.5314838 0.5880695 -0.5943892 0.55839354 -0.6341956 -0.21137774 -0.38967344 -0.035895884
0.1404212 0.6474162 -0.028849546 0.58339006 0.1551715 0.23766714 0.6309243 -0.69372463
-0.1201928 -0.14072615 0.29213515 0.3033982

bias f4 [50]
00000000: d4ac 393f ec34 53be 8ce4 26be 7701 fa3d
00000010: 0a72 2bbf 7621 0d3f 3411 f43e 6e35 ab3e
00000020: d1b9 5abd 85f0 ba3e 72e5 6d3e 5778 863c
00000030: ebc1 393e 2cb1 28bf 97c3 36bf 522a 2c3f
00000040: cca4 6b3c edc7 47be 8940 423d 0396 5c3d
00000050: 74b3 3a3f 56fa a3be 655d 15bf 8ab9 ff3d
00000060: bac2 073f 90c1 573f ee06 273f 578b cb3e
00000070: 07b3 883e 38f2 2abf 68e9 383f 14d9 203e
00000080: cfb8 003e 6f3f 2cbe 96d6 3ebe 4305 10bf
00000090: 896d b9be 9162 c2be bbab 4cbe 1691 b3be
000000a0: e98f 93be 87b8 803e 2587 183e c460 ad3e
000000b0: 6839 ca3e f3d4 373f fdca a03e 1a0e 203e
000000c0: 8c18 a4bd 6064 a9be
0.7252934 -0.20625657 -0.16298121 0.12207311 -0.66970885 0.5512918 0.47669375 0.334392
-0.053399865 0.36511627 0.23232058 0.016414804 0.1814038 -0.6589534 -0.71392196 0.67252076
0.014382552 -0.1950986 0.047424827 0.053854 0.72930074 -0.3202693 -0.58345634 0.12486561
0.53031504 0.8427973 0.6524495 0.39754745 0.26699087 -0.66775846 0.7223115 0.15707809
0.12570499 -0.16821073 -0.18636546 -0.5625803 -0.3621638 -0.37965825 -0.19987385 -0.3507163
-0.28820732 0.25140783 0.14895304 0.3386289 0.39496922 0.7180931 0.31404868 0.1563038
-0.080124944 -0.33084393

mask f4 [50, 2]
00000000: 0000 803f 0000 0000 0000 803f 0000 0000
00000010: 0000 803f 0000 0000 0000 803f 0000 0000
00000020: 0000 803f 0000 0000 0000 803f 0000 0000
00000030: 0000 803f 0000 0000 0000 803f 0000 0000
00000040: 0000 803f 0000 0000 0000 803f 0000 0000
00000050: 0000 803f 0000 0000 0000 803f 0000 0000
00000060: 0000 803f 0000 0000 0000 803f 0000 0000
00000070: 0000 803f 0000 0000 0000 803f 0000 0000
00000080: 0000 803f 0000 0000 0000 803f 0000 0000
00000090: 0000 803f 0000 0000 0000 803f 0000 0000
000000a0: 0000 803f 0000 0000 0000 803f 0000 0000
000000b0: 0000 803f 0000 0000 0000 803f 0000 0000
000000c0: 0000 803f 0000 0000 0000 803f 0000 0000
000000d0: 0000 803f 0000 0000 0000 803f 0000 0000
000000e0: 0000 803f 0000 0000 0000 803f 0000 0000
000000f0: 0000 803f 0000 0000 0000 803f 0000 0000
00000100: 0000 803f 0000 0000 0000 803f 0000 0000
00000110: 0000 803f 0000 0000 0000 803f 0000 0000
00000120: 0000 803f 0000 0000 0000 803f 0000 0000
00000130: 0000 803f 0000 0000 0000 803f 0000 0000
00000140: 0000 803f 0000 0000 0000 803f 0000 0000
00000150: 0000 803f 0000 0000 0000 803f 0000 0000
00000160: 0000 803f 0000 0000 0000 803f 0000 0000
00000170: 0000 803f 0000 0000 0000 803f 0000 0000
00000180: 0000 803f 0000 0000 0000 803f 0000 0000
1.0 0.0 1.0 0.0 1.0 0.0 1.0 0.0
1.0 0.0 1.0 0.0 1.0 0.0 1.0 0.0
1.0 0.0 1.0 0.0 1.0 0.0 1.0 0.0
1.0 0.0 1.0 0.0 1.0 0.0 1.0 0.0
1.0 0.0 1.0 0.0 1.0 0.0 1.0 0.0
1.0 0.0 1.0 0.0 1.0 0.0 1.0 0.0
1.0 0.0 1.0 0.0 1.0 0.0 1.0 0.0
1.0 0.0 1.0 0.0 1.0 0.0 1.0 0.0
1.0 0.0 1.0 0.0 1.0 0.0 1.0 0.0
1.0 0.0 1.0 0.0 1.0 0.0 1.0 0.0
1.0 0.0 1.0 0.0 1.0 0.0 1.0 0.0
1.0 0.0 1.0 0.0 1.0 0.0 1.0 0.0
1.0 0.0 1.0 0.0

weight f4 [50, 4]
00000000: d209 8dbe 226d 93bc 0ed1 d3bd b063 c53e
00000010: c6bf debe b120 27be 9b7f 1a3f e7d9 b4be
00000020: bcb4 883e 0b5e 8cbd 628e 933e a79e 893e
00000030: 8b1c 843d 0378 733e 629c 813d 98b5 a33d
00000040: d835 a2be b946 4f3c b864 d9bd 624c 96be
00000050: 0b4d 463e 1bce 8b3e dbe6 a2bd 4363 d7bd
00000060: b56c 8abe 160c 763d 9164 b53e a852 bfbe
00000070: 9ba9 953e 08f9 26bd d76f 093f 3e0e adbc
00000080: bd34 7fbe 7262 babe 7257 a53e 28a4 64be
00000090: b4a6 e03d 30de 80bd 3bf9 b53e 7c5b c7be
000000a0: f30e 553d 31bb 09be cfd9 4a3f 005f 93be
000000b0: e109 a6be da83 113d e78a 753e b44d e5be
000000c0: 7e48 c53e 2811 97bc ee66 96be fd9f fdbe
000000d0: 4480 bbbd 707e 55be 67de aebe e42f 713e
000000e0: 5c36 d5be 11ed c3be 10d8 133e 1120 773d
000000f0: 203f fbbd 4876 d83d 0b5b c3be 286d a73e
00000100: a790 073e 73c5 b93e bea1 9ebe ac21 e5bd
00000110: 1055 5c3e 30c3 9a3e 4026 2bbe 584e 963e
00000120: fbd1 c9be 217f 3bbd 3dfe 303e 28c9 ee3e
00000130: ebad d5be 7e68 c1be 92c6 1dbd c4ab fabe
00000140: 0629 3dbe b9e3 853e 3a90 7abe 34b2 8cbe
00000150: 5e21 003e c42f e53e aac2 203e 21ff 86be
00000160: da3a b13e f2f7 a23e 8084 b4be 02cf efbd
00000170: e208 083f f1bd 82be 615c 663e 4c32 aabe
00000180: df28 c1be f97f 69be 98f3 973e 52be 0b3c
00000190: 33c2 9dbe d2f9 25bc 52a9 2abe 44c1 60be
000001a0: 5e28 8f3b 7af6 66be 2811 ae3e d644 fbbe
000001b0: e63f 5ebe 079b 28be 1025 aebd 3388 363d
000001c0: fe19 593d ee4a c13e 7e60 a4be 2d59 5fbe
000001d0: 634a 03bd 7395 fd3c 9856 773d 53f1 d0be
000001e0: b63b 0e3d 51e4 a8be 190e 82be efd9 df3e
000001f0: 43bf 8b3d 9c87 63be c5a0 ae3e 8c37 96be
00000200: 6678 113f 1a69 58be bae8 95be 8898 20be
00000210: c984 923e 7638 d63e 6985 783e ca55 6f3e
00000220: dbc8 6ebc a5f8 bc3e 93cd 343e a05d 843e
00000230: 70a4 adbd d402 943e 0a3f a43e d72d b0be
00000240: f4a6 a8be 627f 09bc 7928 bebd 5559 643e
00000250: 4246 603e 027d 11bf 233c 8bbe f7b8 babe
00000260: 449d bfbd 9851 06bf 862d d4bc c72b 2e3d
00000270: 28cb 6b3d 27f2 143f e9ea 653e 24a6 de3e
00000280: 2b24 bfbe 793a 693e 6086 473e bd9c f73e
00000290: ae71 0c3f 3432 a5be 94c2 b0bb 1357 93be
000002a0: 4924 193d 391f e3be 48a5 c7be 5b87 b03e
000002b0: 3ab3 efbe 4f84 033f 4c84 21be e1a7 b3be
000002c0: 5cdd 973e 9ece a03e 0f58 9c3e 93be 3d3e
000002d0: 437d 603e 957a cabd c1c4 92be 8b65 7fbe
000002e0: 4d42 5b3e 4b9d 32bf d6ee 0d3f 1bb2 373e
000002f0: 1cd7 d83e a846 f93e 730a 823e 20be e63e
00000300: 17f9 fbbc c1fc 8dbc c677 b23e e231 c5be
00000310: 7f5a 1cbd 4a1a 41bf e86d b2be b7a4 2dbe
-0.27546555 -0.017996375 -0.103426084 0.38552618 -0.43505687 -0.16321065 0.6035096 -0.35322496
0.2670039 -0.06853875 0.28819567 0.26878855 0.06450757 0.2377625 0.06328656 0.07993621
-0.31681705 0.012651139 -0.10614914 -0.2935515 0.19365327 0.27305683 -0.079541884 -0.105169795
-0.27036062 0.06007012 0.3542829 -0.3736775 0.2923096 -0.04076484 0.5368628 -0.021124955
-0.24922462 -0.36403233 0.32293278 -0.22328246 0.10969296 -0.06292379 0.3554171 -0.38936985
0.05201621 -0.13450314 0.792386 -0.28783417 -0.32429412 0.035526134 0.23978768 -0.44785845
0.3853187 -0.018440798 -0.29375404 -0.49536124 -0.09155324 -0.20849013 -0.34154055 0.23553425
-0.41643035 -0.38266805 0.1443789 0.060333315 -0.122678995 0.10569435 -0.38155398 0.32700467
0.13238774 0.36283454 -0.30982774 -0.11188063 0.21516824 0.3022704 -0.1671381 0.29356647
-0.39418015 -0.045775536 0.17284484 0.46637845 -0.4173425 -0.37775034 -0.03851945 -0.48959172
-0.1847268 0.261503 -0.2446908 -0.27479708 0.12512729 0.44763005 0.15699258 -0.26366523
0.34615213 0.31829792 -0.3525734 -0.117094055 0.53138554 -0.2553554 0.22496177 -0.33241498
-0.37726495 -0.22802724 0.29678035 0.008529263 -0.30812225 -0.010130363 -0.16666153 -0.21948725
0.004368826 -0.22554961 0.33997464 -0.49075955 -0.21704063 -0.16465388 -0.08503163 0.044563483
0.053003304 0.3775248 -0.32104868 -0.21811362 -0.032053363 0.030955052 0.060385317 -0.40809116
0.034724914 -0.32986692 -0.2540138 0.43720958 0.0682359 -0.222197 0.34107032 -0.29339254
0.5682434 -0.21133843 -0.2927912 -0.15683186 0.28616932 0.4183995 0.24269642 0.2337257
-0.014574255 0.3690845 0.17656545 0.2585268 -0.084786296 0.28908408 0.32079345 -0.34409973
-0.32939875 -0.008392187 -0.09285063 0.22299702 0.21901801 -0.5683137 -0.27194318 -0.36469242
-0.09356168 -0.5246825 -0.025900614 0.042522218 0.05756679 0.58181995 0.22452892 0.4348613
-0.3733228 0.22776212 0.19484854 0.4836177 0.5486096 -0.32264864 -0.0053942893 -0.2877737
0.03738812 -0.44359758 -0.38993287 0.34478268 -0.46816427 0.5137376 -0.15773124 -0.3508902
0.2966107 0.31407636 0.30535933 0.1852973 0.21922784 -0.09886662 -0.28665736 -0.2494108
0.2141201 -0.6977126 0.5544256 0.17939036 0.42351615 0.4868672 0.25398597 0.4506693
-0.030758424 -0.017332437 0.34857005 -0.3851462 -0.03817224 -0.7543074 -0.34849477 -0.16957365

bias f4 [50]
00000000: a63a be3e 5cb4 d3be 0796 ffbe 9f69 b7be
00000010: 3927 bf3e 1bd0 f93e eee2 63be 72de d5bc
00000020: 0a2e ffbe 7d6f 67bd e2bb 593e 7d36 56be
00000030: 0b0f 6c3e 158e 803e deb3 f33d b227 2c3e
00000040: 98a2 653e 22af 113f 395e 1dbf 98bd d93e
00000050: 1450 8e3e 6560 f9be 5b80 993c 7de1 07bf
00000060: 0127 01bf 05f7 793d 7455 ff3d 6ace 4b3e
00000070: 9c55 b7bd 1583 803e 01e5 8c3e a0fe 1cbf
00000080: 5197 b03e e191 9bbe 2fa7 303d e3b6 d23e
00000090: 20ca 82be 8480 22bd 4673 1ebe f9c2 d9be
000000a0: 6e3e 9b3e 5c4a 8a3e 1270 b9bd bba4 9abe
000000b0: b1db cf3e 8879 1d3e 4018 0a3e c9e7 46bd
000000c0: d73c 9dbe 59f2 05bf
0.3715412 -0.4134854 -0.4991915 -0.3582277 0.37334612 0.48791584 -0.22254536 -0.026107047
-0.49839813 -0.056502808 0.21263078 -0.20919223 0.23052613 0.251084 0.11899541 0.16812018
0.22425306 0.56907856 -0.614719 0.4252746 0.2779547 -0.48706356 0.018737962 -0.5307844
-0.5045014 0.06102659 0.12467471 0.1990296 -0.089518756 0.25100008 0.27518466 -0.61326027
0.34490445 -0.30384734 0.04312819 0.41155156 -0.25544834 -0.039673343 -0.15473661 -0.42531565
0.30321068 0.27009857 -0.09054579 -0.30203804 0.405973 0.15378392 0.13485813 -0.04856089
-0.3071048 -0.5232292

weight f4 [50, 50]
00000000: dd31 c03d 3b03 3e3e 2c2e ee3d e4da 0abd
00000010: 05ed 443d 546b 6f3d 6b67 6cbe 9172 ccbd
00000020: ab68 943c 67be 113c 4dd9 c5bd 0301 3e3e
00000030: 335f ae3d 747f bdbd a275 f03d ab82 2cbe
00000040: 6c7b 693c 3e1d e6bd 3ccb 0a3e 844f ad3d
00000050: 088d 8a3d 3a0c 203e 49bb 123d b5c6 303e
00000060: f0cc b23d 2ded 303d 2a46 4fbe 651a 373d
00000070: cdd7 efbc 5b0f ed3c ab45 efbd 1635 0f3e
00000080: 3be2 20be 8c01 dc3d 1c39 903c 0139 223c
00000090: 9cfd ce3d 2bb8 6fbd 5f47 6c3d 3dd4 6dbd
000000a0: 2660 0bbe df84 2dbe fd31 a43d 1e60 b53d
000000b0: 31f0 a0bb a005 4a3d 2087 0abe 5510 11be
000000c0: 9395 8d3c f325 743c c421 92bd 42c6 b7bd
000000d0: 4604 b73d a1e9 a83d 2263 0e3e 1f27 873c
000000e0: 42de 03be 78a6 ea3c 62ee 003e 0050 be3d
000000f0: 2dde 36bd 89ce da3d 8922 983c c610 1bbd
00000100: 596e 133e 2785 7fbc 509a cebd 0cd0 1ebe
00000110: dc8f 82bd 13a0 1bbd 1272 22be 6ad5 343e
00000120: 47af 6b3e 772b fe3d f793 84bd 8ce2 b2bd
00000130: 0cdf 12be a0ee 993d d565 97bd 8e58 0e3e
00000140: e778 b93b 95f5 763d 8595 ce3d 61cf c13c
00000150: 4a58 de3c ad27 813d 50a8 95bd 419e 0c3e
00000160: 14d9 fabd 7414 5d3d a482 35be 1e32 333d
00000170: 93af 62bd 66f2 0b3d 1a2a f83c 6ca8 11bd
00000180: d03d 09be 32b5 713d 0755 05be 97f9 823d
00000190: b6c9 003e a33b 793d cdaa 02be 0b70 0f3e
000001a0: 6587 4abd 5cec 0cbd e1e5 393d 9600 b83d
000001b0: 3865 863d 91ab 093e 1b69 12be 084c c43d
000001c0: 1b68 65bd 3ffe a23d 3d2c 14be f37d 073d
000001d0: 8465 c4bd 540e 433d 273f 75bb 1523 f33b
000001e0: 7c65 8f3c 3323 17be 13f6 16bc 9544 d83d
000001f0: 1c7f 6bbd acd3 6cbc 2dcb 20bd 68ef 02bd
00000200: 8c99 3e3e e8c6 b33d 8554 0abe eaa5 363d
00000210: a27c 0f3e d6bd 0b3d 2831 0fbd 5514 16be
00000220: 8cca ce3c 12bf 53bc 3421 493d 7e4d 0d3e
00000230: 9302 8c3d 17e9 90bd 4e41 ef3d 96aa b13d
00000240: d6e2 533a 76db d0bd ea20 b63c 2c9b e4bc
00000250: 4164 733d e370 1dbe b663 35bd 1c8a 393d
00000260: 39c7 dc3d e4c0 ba3d 9166 89bb 06c2 a83d
00000270: a119 bdbd e3b9 c53d 6196 9c3d 4710 8ebd
00000280: 260c aebd f4eb 5a3d 6a6c a33d 4f45 053e
00000290: 2e6b 52bb f377 bcbd d094 89bd a468 903d
000002a0: 51d5 c13d f300 a7bd 36a9 15be f019 323e
000002b0: 5067 ab3d 91b1 1cbd 910d 3ebe a2c0 01be
000002c0: c236 d3bd 0bba 2abe 24d3 44bd ff04 0a3e
000002d0: f804 253d 93da d13d c9a1 213d 4fa4 2d3e
000002e0: 6977 193e 8071 103e 4b7c 523d 4eae 3f3d
000002f0: 4fe0 ea3d 07ed 3b3e 9470 f93c 42f3 8f3d
00000300: 7d4c 893d 46d5 efbc 36b9 6cbd ef77 f13b
00000310: c9c4 eabd 174b babd 6cf0 b83d cef9 57bd
00000320: eacb 963d 8bb8 17bd 4fde 28be 93ab b83d
00000330: 12d6 9abc 67b7 26bc fd40 4bbd ad69 6d3d
00000340: 833d e4bc 0eee a83d b6ef 5bbd 88a4 f3ba
00000350: c123 d93d b042 dbbd fd51 0cbe 529e 0e3d
00000360: 4635 5bbd 81a2 183e fd68 8fbc 7166 c43d
00000370: 9fb3 f83d 96ff 53bc e974 0c3e 50e0 e63d
00000380: 1372 043e 6ac6 293d d3bf 5f3d e2f6 51bd
00000390: 76fe b7bd 5d27 c13d 0272 39bd 8e46 7dbd
000003a0: e8cc 1d3d 69f6 a5bd 5129 3abe 0542 e2bd
000003b0: ab92 1dbe f5b5 a1bd 7d87 0cbe cad6 10be
000003c0: 2d3c ab3d a570 b03d 644d 5dbd 651d ccbd
000003d0: 0362 9b3d 34c7 61bd 1dc0 d83d 333e 6c3c
000003e0: 8e4d 1e3c aaa8 c0bd 999b a9bd 04c4 413d
000003f0: a771 ca3d b321 263e 484e 5fbd cac2 11be
0.09384511 0.1855592 0.116299 -0.033900157 0.048077602 0.058451965 -0.23086326 -0.09982789
0.018116316 0.008895493 -0.096605875 0.18555073 0.085142516 -0.092528254 0.11741187 -0.16846721
0.0142506175 -0.11236046 0.1355409 0.08462432 0.06765181 0.15629664 0.03582314 0.172633
0.08730495 0.04319494 -0.20241609 0.044702906 -0.029277707 0.028937986 -0.1168321 0.13985094
-0.157113 0.107424825 0.017605357 0.009901286 0.10106966 -0.058525246 0.057685252 -0.058063734
-0.13610896 -0.16945218 0.08017347 0.088562235 -0.0049114455 0.04932177 -0.13528109 -0.14166386
0.017283237 0.014901626 -0.071353465 -0.089733616 0.08936362 0.08247686 0.13905004 0.016498147
-0.12877753 0.028643832 0.12590936 0.092926025 -0.044645477 0.10683925 0.018571155 -0.037857793
0.14397563 -0.015595711 -0.100880265 -0.15509051 -0.06375095 -0.037994456 -0.15863827 0.17659536
0.23016082 0.12410634 -0.064735346 -0.08734617 -0.14342898 0.07516217 -0.0739247 0.13900968
0.0056601646 0.0602928 0.10087112 0.023658456 0.027141709 0.06306396 -0.07307494 0.13732244
-0.122484356 0.053974584 -0.17725617 0.043748967 -0.055343222 0.034166716 0.030293513 -0.03556101
-0.13402486 0.059010692 -0.13020717 0.06395262 0.12576947 0.06084789 -0.12760468 0.14007585
-0.04944553 -0.034405097 0.045385245 0.08984487 0.06562275 0.13444354 -0.14297907 0.09584814
-0.056007486 0.0795865 -0.1447 0.0330791 -0.09589675 0.047621086 -0.0037421675 0.0074199536
0.017504446 -0.14759521 -0.009213942 0.10559956 -0.057494268 -0.014454763 -0.039256264 -0.031966597
0.18613261 0.08778173 -0.13508804 0.04459182 0.14012387 0.03411659 -0.03495899 -0.14656194
0.025243066 -0.012923973 0.04910393 0.13799092 0.068364285 -0.07075708 0.11682378 0.08675115
0.00080828124 -0.10198109 0.022232492 -0.027906023 0.05942178 -0.15375094 -0.044284545 0.045297727
0.10780186 0.09118822 -0.004193135 0.08240132 -0.09233404 0.09654596 0.0764587 -0.069366984
-0.08498411 0.05344768 0.07979663 0.1301472 -0.003210734 -0.09202566 -0.06717837 0.070512086
0.09464515 -0.08154478 -0.1461533 0.17392707 0.08369315 -0.038255278 -0.18559863 -0.1267114
-0.103131786 -0.16672532 -0.048052922 0.13478468 0.04028794 0.10246768 0.03946093 0.1695721
0.14986958 0.14105797 0.051388066 0.04679709 0.11468565 0.18352138 0.03044919 0.070288196
0.06704042 -0.029276501 -0.05779382 0.0073690335 -0.11463315 -0.090963535 0.09030232 -0.052728467
0.07363112 -0.03704123 -0.16491054 0.090171 -0.018900905 -0.010175562 -0.049622525 0.05796211
-0.027861362 0.0824853 -0.053695403 -0.0018588463 0.10602523 -0.10706079 -0.13703151 0.034818955
-0.053517602 0.1490574 -0.017506117 0.09589852 0.12143635 -0.012939354 0.13716473 0.11273253
0.12934141 0.041448988 0.054626297 -0.051260836 -0.089840814 0.09431336 -0.045274742 -0.061834864
0.038525492 -0.0810364 -0.18179823 -0.110477485 -0.1538798 -0.07896034 -0.1372356 -0.14144436
0.08361087 0.08615235 -0.054028884 -0.09966544 0.075870536 -0.055121616 0.10583518 0.014419126
0.009662045 -0.0940717 -0.08281631 0.047306076 0.09884959 0.16223793 -0.054518014 -0.14234462

bias f4 [50]
00000000: a231 353d 7789 af3d 350c 593a fd1b 56bd
00000010: 3999 c43d 0b3b 44be b31f 0fbd a2b6 2a3d
00000020: b696 48bb 539b 293e 9a39 1bbe 7298 773d
00000030: a19c 0bbe 6015 ba3c 16d5 18be 4b80 a8bd
00000040: d429 6cbd 7e99 783c 721f f6bd 1c0c 10be
00000050: fd81 103d 7ac2 353b dc92 d7bd f017 10bd
00000060: eaaf edbb 2763 f9bd ca21 2abd 825f 1bbe
00000070: e6a1 af3c 44f3 3b3d e9a7 9a3d 7d08 38be
00000080: 7de3 4bbe 8435 ca3c 05f5 1cbe 3d38 f13d
00000090: 636d c4bd bffc fdbc 2536 20bc a26d 29be
000000a0: 7663 c7bd dbdf 793d 9f67 83bd 3594 33be
000000b0: 2d47 753d eb50 ecbd 60c4 613d 37af c83c
000000c0: 9f8d cabd d9e8 293e
0.044236787 0.08571141 0.0008279712 -0.052272785 0.095995374 -0.19163148 -0.03494234 0.04167808
-0.003060741 0.16563158 -0.15158692 0.060448118 -0.13633968 0.02271527 -0.14925036 -0.08227595
-0.057657078 0.015173314 -0.120177165 -0.1406712 0.035280216 0.0027734325 -0.10526058 -0.03517908
-0.0072536366 -0.12177115 -0.04153613 -0.15173152 0.021439504 0.045886293 0.075515576 -0.17971988
-0.19910999 0.024683721 -0.15327843 0.11778305 -0.09591176 -0.031004308 -0.009778534 -0.16545728
-0.097357675 0.0610045 -0.064162485 -0.17537005 0.05988233 -0.115388714 0.05511892 0.024497611
-0.09890293 0.1659273

mask f4 [50, 50]
00000000: 0000 803f 0000 803f 0000 803f 0000 803f
00000010: 0000 803f 0000 803f 0000 803f 0000 803f
00000020: 0000 803f 0000 803f 0000 803f 0000 803f
00000030: 0000 803f 0000 803f 0000 803f 0000 803f
00000040: 0000 803f 0000 803f 0000 803f 0000 803f
00000050: 0000 803f 0000 803f 0000 803f 0000 803f
00000060: 0000 803f 0000 803f 0000 803f 0000 803f
00000070: 0000 803f 0000 803f 0000 803f 0000 803f
00000080: 0000 803f 0000 803f 0000 803f 0000 803f
00000090: 0000 803f 0000 803f 0000 803f 0000 803f
000000a0: 0000 803f 0000 803f 0000 803f 0000 803f
000000b0: 0000 803f 0000 803f 0000 803f 0000 803f
000000c0: 0000 803f 0000 803f 0000 803f 0000 803f
000000d0: 0000 803f 0000 803f 0000 803f 0000 803f
000000e0: 0000 803f 0000 803f 0000 803f 0000 803f
000000f0: 0000 803f 0000 803f 0000 803f 0000 803f
00000100: 0000 803f 0000 803f 0000 803f 0000 803f
00000110: 0000 803f 0000 803f 0000 803f 0000 803f
00000120: 0000 803f 0000 803f 0000 803f 0000 803f
00000130: 0000 803f 0000 803f 0000 803f 0000 803f
00000140: 0000 803f 0000 803f 0000 803f 0000 803f
00000150: 0000 803f 0000 803f 0000 803f 0000 803f
00000160: 0000 803f 0000 803f 0000 803f 0000 803f
00000170: 0000 803f 0000 803f 0000 803f 0000 803f
00000180: 0000 803f 0000 803f 0000 803f 0000 803f
00000190: 0000 803f 0000 803f 0000 803f 0000 803f
000001a0: 0000 803f 0000 803f 0000 803f 0000 803f
000001b0: 0000 803f 0000 803f 0000 803f 0000 803f
000001c0: 0000 803f 0000 803f 0000 803f 0000 803f
000001d0: 0000 803f 0000 803f 0000 803f 0000 803f
000001e0: 0000 803f 0000 803f 0000 803f 0000 803f
000001f0: 0000 803f 0000 803f 0000 803f 0000 803f
00000200: 0000 803f 0000 803f 0000 803f 0000 803f
00000210: 0000 803f 0000 803f 0000 803f 0000 803f
00000220: 0000 803f 0000 803f 0000 803f 0000 803f
00000230: 0000 803f 0000 803f 0000 803f 0000 803f
00000240: 0000 803f 0000 803f 0000 803f 0000 803f
00000250: 0000 803f 0000 803f 0000 803f 0000 803f
00000260: 0000 803f 0000 803f 0000 803f 0000 803f
00000270: 0000 803f 0000 803f 0000 803f 0000 803f
00000280: 0000 803f 0000 803f 0000 803f 0000 803f
00000290: 0000 803f 0000 803f 0000 803f 0000 803f
000002a0: 0000 803f 0000 803f 0000 803f 0000 803f
000002b0: 0000 803f 0000 803f 0000 803f 0000 803f
000002c0: 0000 803f 0000 803f 0000 803f 0000 803f
000002d0: 0000 803f 0000 803f 0000 803f 0000 803f
000002e0: 0000 803f 0000 803f 0000 803f 0000 803f
000002f0: 0000 803f 0000 803f 0000 803f 0000 803f
00000300: 0000 803f 0000 803f 0000 803f 0000 803f
00000310: 0000 803f 0000 803f 0000 803f 0000 803f
00000320: 0000 803f 0000 803f 0000 803f 0000 803f
00000330: 0000 803f 0000 803f 0000 803f 0000 803f
00000340: 0000 803f 0000 803f 0000 803f 0000 803f
00000350: 0000 803f 0000 803f 0000 803f 0000 803f
00000360: 0000 803f 0000 803f 0000 803f 0000 803f
00000370: 0000 803f 0000 803f 0000 803f 0000 803f
00000380: 0000 803f 0000 803f 0000 803f 0000 803f
00000390: 0000 803f 0000 803f 0000 803f 0000 803f
000003a0: 0000 803f 0000 803f 0000 803f 0000 803f
000003b0: 0000 803f 0000 803f 0000 803f 0000 803f
000003c0: 0000 803f 0000 803f 0000 803f 0000 803f
000003d0: 0000 803f 0000 803f 0000 803f 0000 803f
000003e0: 0000 803f 0000 803f 0000 803f 0000 803f
000003f0: 0000 803f 0000 803f 0000 803f 0000 803f
1.0 1.0 1.0 1.0 1.0 1.0 1.0 1.0
1.0 1.0 1.0 1.0 1.0 1.0 1.0 1.0
1.0 1.0 1.0 1.0 1.0 1.0 1.0 1.0
1.0 1.0 1.0 1.0 1.0 1.0 1.0 1.0
1.0 1.0 1.0 1.0 1.0 1.0 1.0 1.0
1.0 1.0 1.0 1.0 1.0 1.0 1.0 1.0
1.0 1.0 1.0 1.0 1.0 1.0 1.0 1.0
1.0 1.0 1.0 1.0 1.0 1.0 1.0 1.0
1.0 1.0 1.0 1.0 1.0 1.0 1.0 1.0
1.0 1.0 1.0 1.0 1.0 1.0 1.0 1.0
1.0 1.0 1.0 1.0 1.0 1.0 1.0 1.0
1.0 1.0 1.0 1.0 1.0 1.0 1.0 1.0
1.0 1.0 1.0 1.0 1.0 1.0 1.0 1.0
1.0 1.0 1.0 1.0 1.0 1.0 1.0 1.0
1.0 1.0 1.0 1.0 1.0 1.0 1.0 1.0
1.0 1.0 1.0 1.0 1.0 1.0 1.0 1.0
1.0 1.0 1.0 1.0 1.0 1.0 1.0 1.0
1.0 1.0 1.0 1.0 1.0 1.0 1.0 1.0
1.0 1.0 1.0 1.0 1.0 1.0 1.0 1.0
1.0 1.0 1.0 1.0 1.0 1.0 1.0 1.0
1.0 1.0 1.0 1.0 1.0 1.0 1.0 1.0
1.0 1.0 1.0 1.0 1.0 1.0 1.0 1.0
1.0 1.0 1.0 1.0 1.0 1.0 1.0 1.0
1.0 1.0 1.0 1.0 1.0 1.0 1.0 1.0
1.0 1.0 1.0 1.0 1.0 1.0 1.0 1.0
1.0 1.0 1.0 1.0 1.0 1.0 1.0 1.0
1.0 1.0 1.0 1.0 1.0 1.0 1.0 1.0
1.0 1.0 1.0 1.0 1.0 1.0 1.0 1.0
1.0 1.0 1.0 1.0 1.0 1.0 1.0 1.0
1.0 1.0 1.0 1.0 1.0 1.0 1.0 1.0
1.0 1.0 1.0 1.0 1.0 1.0 1.0 1.0
1.0 1.0 1.0 1.0 1.0 1.0 1.0 1.0

weight f4 [50, 50]
00000000: 34d3 283e d788 8c3d e2bc 053d f4dc dbbd
00000010: 4309 37bd dc63 0c3d 514f 9a3c 8e2a d23d
00000020: 4465 853c 5432 b3bd 3762 7fbd c70c 1abd
00000030: 4ad2 48be ab5b 373d 4654 40bc 7b3f df3d
00000040: 75c0 bcbd 489a 6e3d fedf e0bd 3cf2 ed3d
00000050: 4cc6 29bb 9476 243c 68ee 0e3d 0692 16be
00000060: f2f5 bdbd 47f3 0a3c ea63 92bc accd 31bd
00000070: ccbb 0a3e 3899 a9bd b079 163d f892 d4bd
00000080: 251f ea3c 1d7b 173e 5439 41bd 3530 2bbd
00000090: 7959 8abd 3f5f 76bd 41b5 d53d ad40 71bd
000000a0: 9440 a53b 579a 6f3b 8418 c23c 013a 2bbe
000000b0: 28fd fa3d 73fa 8c3d 70ab 9f3d cfca 6dbd
000000c0: 01e9 913d 0948 083e 5fc3 07bd 17dd 35be
000000d0: 2c40 babc 2dbf ab3d 01b2 8bbc 95ab cc3d
000000e0: a296 003e 2e81 7f3d 6cbf 2b3c 6c63 89bd
000000f0: 8986 173c 2176 5bbd e844 6d3e 3d82 cb3d
00000100: 732e 29bc 7f2f fabb 8c52 fbbd be0c 803d
00000110: eaf6 a8bc 275e 8ebb c97a 923e d8b7 c43b
00000120: e948 ce3d 604a 2b3e 6565 543e 5357 eb3d
00000130: 275e 9c3d e10c 093d 9add a6be c868 603d
00000140: e5bd 73be 9e18 8b3d e690 e0bd 891e e4bd
00000150: 3d3a ea3d 3042 3a3d a2ff 643e 6690 5d3e
00000160: 132c 2fbe 036c 95bd 9059 243c dceb a1bd
00000170: 98c8 d7bd 502d 08be 16b7 1cbe e2e3 0f3e
00000180: a38f f93c eed7 32bd eb83 c83d 975a 29bd
00000190: a495 943d b802 c83d c1f9 ad3b 5023 a63d
000001a0: 344c 0d3d c163 bcb7 2e06 003e acab b4bc
000001b0: 377b 9f3d bdb3 4e3d ee74 a63c 3cbb b03d
000001c0: 7015 bbbd aa54 18be e011 a0bc 4855 5d3c
000001d0: daf7 30bb fd74 81bd d9a3 fc3b cb61 193e
000001e0: 6399 f2bd e50f 06bc 6a7a 693d 5609 f53b
000001f0: e287 5dbe 934d bdbc 88a4 c83d 77f4 f6bd
00000200: 3216 843e dba1 b1bc 5ba2 3fbd a828 2cbe
00000210: 80ba 1bbe 0f3a 44bd fcb8 0dbe 7555 08be
00000220: 871a ed3c 4d98 11bd 1fba 27bd 908c ec3d
00000230: 03f7 313d 8d8e be3d 4368 fb3c c9b2 12be
00000240: 65f5 033d ad04 1abd bdd5 84bd f885 3ebd
00000250: 3aad fd3d 7c95 e53d b43b 403d 2f6b b7bd
00000260: 81a6 e93c e0bc d03d b5c8 86bd b89b a63d
00000270: 1d2c 89bd e11f aa3c 68df 73bc c888 c2bc
00000280: 65ec ad3d d8ae fc3d cbfa 9ebc 7555 b83d
00000290: 8e68 9d3d 8edd 623d b5f8 913d afda c2bd
000002a0: c35b aebd 86ce 72bd 2bf7 043e eaef bdbc
000002b0: c530 8e3d a027 2d3d 0390 ac3c 8864 13be
000002c0: c4f5 aebd 54d4 ed3d f2b5 a73c 03cc 96bd
000002d0: 69a3 d43c 1488 b1bd 8836 fa3d 2b53 d3bd
000002e0: 915a ff3c ba6d 38bd 9871 91bd db76 e33d
000002f0: a0e1 66bd 3ae8 01be d0c8 dc3d 63dc 47bd
00000300: 1a44 b93d cfb1 f93d 89ed ffbd cad9 13be
00000310: 5967 22be dc9f 823c 1b48 b93d e772 99bd
00000320: b151 bebd a1ae 183e a5a4 123d 2b7d 15be
00000330: de17 90bd 5f41 5e3d 50e9 5b3d c967 adbd
00000340: 063c 243e d5f0 dcbd 4627 8f3c 9fa7 0e3d
00000350: 1bd8 da3c b3a7 00be 8852 93bd a639 263d
00000360: cbc8 b83d 6748 a53d 7afb 02be 0908 d73d
00000370: 0361 8a3d 600f 0d3e 9062 d1bc 57b0 b53c
00000380: e2a4 13be e94b a1bd aea3 10bd e113 31bd
00000390: 8eb9 4cbc e1c3 423c 2321 cbbc 5373 503d
000003a0: a305 15bc c8e8 d23d 44bc 703d 4332 093e
000003b0: 87ab 6ebd ced4 023e 049c 5d3d 843a 0a3d
000003c0: 064e 3fbd 5503 92bd 1b2c 33bd 5578 edbd
000003d0: 5b0b e83d 282b ae3c ee60 8cbd 6d08 74bd
000003e0: 6c10 213d d65f d4bc f34d c03d adc2 debd
000003f0: da38 fabd 66bb 7c3b 566f 67bc 67fb d0bd
0.16486818 0.06862038 0.032650836 -0.10735503 -0.044686567 0.03427492 0.01883665 0.10262023
0.016283639 -0.08749834 -0.062349524 -0.03760984 -0.19611469 0.044765156 -0.011738842 0.1090078
-0.09216396 0.058252603 -0.10980223 0.11618468 -0.0025905548 0.010038037 0.03489533 -0.14704141
-0.09275426 0.008480853 -0.017869908 -0.043409035 0.13548201 -0.08281177 0.036737144 -0.103795946
0.028579304 0.14793058 -0.047173813 -0.04179402 -0.06755347 -0.060149428 0.10434962 -0.05889957
0.0050430987 0.00365605 0.02369333 -0.16721345 0.12255317 0.06883707 0.07796371 -0.05805474
0.0712452 0.13308729 -0.033145305 -0.1776012 -0.022735678 0.08386073 -0.017052652 0.09993664
0.12557462 0.062379055 0.01048265 -0.06708416 0.009248384 -0.053579453 0.23170817 0.0993695
-0.010326016 -0.0076350565 -0.12271604 0.062524304 -0.02062555 -0.00434472 0.28609303 0.006003361
0.100725 0.1672759 0.20741804 0.11491265 0.07635146 0.033459548 -0.32590944 0.054787427
-0.23802908 0.06791805 -0.10965137 -0.111386366 0.11436889 0.045473278 0.22363141 0.21637115
-0.17106657 -0.07295992 0.010031119 -0.07906315 -0.10536307 -0.13298535 -0.15304217 0.14051774
0.030464 -0.043662958 0.09790786 -0.04134616 0.07255104 0.097661436 0.005309314 0.08112204
0.0344965 -2.2457798e-05 0.12502357 -0.022054516 0.07787173 0.05046438 0.020319428 0.08629462
-0.09134948 -0.14876047 -0.019539773 0.013509102 -0.00270032 -0.06321142 0.007709962 0.14978711
-0.118456624 -0.0081825005 0.05700151 0.0074779196 -0.21633866 -0.02310828 0.09797007 -0.12058347
0.25798184 -0.021683624 -0.046785694 -0.16812384 -0.15207863 -0.04790693 -0.13840097 -0.1331385
0.028943313 -0.035545636 -0.040948983 0.11550248 0.04344846 0.09304533 0.030689364 -0.14326014
0.03221645 -0.037602115 -0.0648608 -0.04651448 0.12386556 0.112101525 0.046931937 -0.089559905
0.028521778 0.10192275 -0.065812506 0.0813517 -0.06697867 0.020767154 -0.014884807 -0.023746863
0.08492354 0.12338036 -0.019406697 0.09000675 0.07685958 0.055387072 0.07127515 -0.09514367
-0.08513596 -0.059278987 0.12984912 -0.023185689 0.06942896 0.042274117 0.021064764 -0.14393818
-0.0854297 0.11612764 0.0204725 -0.07363131 0.025956826 -0.08668533 0.12217432 -0.103185974
0.031171115 -0.04502652 -0.071017444 0.11106654 -0.056367517 -0.12686244 0.107804894 -0.04879416
0.090461925 0.121921174 -0.12496478 -0.14438549 -0.15859737 0.015945368 0.09046956 -0.07492619
-0.09292925 0.14910366 0.03580155 -0.14598529 -0.07035802 0.05426156 0.0536893 -0.08467061
0.16038522 -0.107881226 0.017474782 0.034827825 0.026714375 -0.12563972 -0.07193476 0.04058232
0.09022673 0.0807045 -0.12791243 0.104995795 0.06756785 0.13775396 -0.025559694 0.022178812
-0.14418367 -0.07875807 -0.035312347 -0.04323185 -0.012495412 0.0118875215 -0.024796074 0.05089123
-0.009095582 0.10298306 0.058773294 0.1339808 -0.05826905 0.12776491 0.054103866 0.03374721
-0.04670527 -0.07129542 -0.043743234 -0.11595217 0.11330291 0.021260813 -0.06854425 -0.059578348
0.0393223 -0.025924604 0.09389868 -0.10876975 -0.12217875 0.0038563847 -0.014125666 -0.10204201

bias f4 [50]
00000000: 6a4d c13c 4f88 4a3d 5114 94bc e576 4cbd
00000010: 11f3 80bd 65d0 0b3e abfc bc3d b512 28bd
00000020: c39d 18bd 97f5 45bd 85fe db3d 3c15 a5bb
00000030: 4ba2 c33d 1bcc 3eb9 8fb2 de3d e7a2 35be
00000040: 8ed3 fb3d 9ec4 20be 629b 45bd 0184 0cbd
00000050: 7e24 17be ad5d 82bd 2ded b13d 38da f9bd
00000060: af42 0e3e e7dc 3d3e dec0 3e3d 3f16 9fbd
00000070: 49a7 293d f4bc 113a f22b a4bd d250 043e
00000080: 6ca1 be3d a04d a6bd 8c36 513d 2ce2 b4bd
00000090: c957 cdbc 0086 f1bc dc65 133d 86db 9d3d
000000a0: 973b f6bc 2bd0 9fbc 1549 c1bc a2a7 28be
000000b0: 676d 11be caea c8bd 7b7e 04be 3d37 e93d
000000c0: 1d07 173e 55b3 9abd
0.023596484 0.0494464 -0.018076094 -0.049918074 -0.06296361 0.13653715 0.0922788 -0.041033465
-0.03725983 -0.048329916 0.10741905 -0.0050379317 0.09552439 -0.00018195847 0.10873901 -0.17737924
0.1229621 -0.15700004 -0.048243888 -0.034305576 -0.14760014 -0.063655235 0.08687816 -0.12199825
0.13892625 0.18541299 0.04657065 -0.07767915 0.0414193 0.0005559467 -0.080161944 0.12921456
0.093081325 -0.081202745 0.05107741 -0.08832201 -0.025066273 -0.029482841 0.035985813 0.077078864
-0.030057712 -0.019508442 -0.023594419 -0.16470197 -0.1420189 -0.098104075 -0.12938873 0.11387489
0.14748807 -0.07553736

mask f4 [50, 50]
00000000: 0000 803f 0000 803f 0000 803f 0000 803f
00000010: 0000 803f 0000 803f 0000 803f 0000 803f
00000020: 0000 803f 0000 803f 0000 803f 0000 803f
00000030: 0000 803f 0000 803f 0000 803f 0000 803f
00000040: 0000 803f 0000 803f 0000 803f 0000 803f
00000050: 0000 803f 0000 803f 0000 803f 0000 803f
00000060: 0000 803f 0000 803f 0000 803f 0000 803f
00000070: 0000 803f 0000 803f 0000 803f 0000 803f
00000080: 0000 803f 0000 803f 0000 803f 0000 803f
00000090: 0000 803f 0000 803f 0000 803f 0000 803f
000000a0: 0000 803f 0000 803f 0000 803f 0000 803f
000000b0: 0000 803f 0000 803f 0000 803f 0000 803f
000000c0: 0000 803f 0000 803f 0000 803f 0000 803f
000000d0: 0000 803f 0000 803f 0000 803f 0000 803f
000000e0: 0000 803f 0000 803f 0000 803f 0000 803f
000000f0: 0000 803f 0000 803f 0000 803f 0000 803f
00000100: 0000 803f 0000 803f 0000 803f 0000 803f
00000110: 0000 803f 0000 803f 0000 803f 0000 803f
00000120: 0000 803f 0000 803f 0000 803f 0000 803f
00000130: 0000 803f 0000 803f 0000 803f 0000 803f
00000140: 0000 803f 0000 803f 0000 803f 0000 803f
00000150: 0000 803f 0000 803f 0000 803f 0000 803f
00000160: 0000 803f 0000 803f 0000 803f 0000 803f
00000170: 0000 803f 0000 803f 0000 803f 0000 803f
00000180: 0000 803f 0000 803f 0000 803f 0000 803f
00000190: 0000 803f 0000 803f 0000 803f 0000 803f
000001a0: 0000 803f 0000 803f 0000 803f 0000 803f
000001b0: 0000 803f 0000 803f 0000 803f 0000 803f
000001c0: 0000 803f 0000 803f 0000 803f 0000 803f
000001d0: 0000 803f 0000 803f 0000 803f 0000 803f
000001e0: 0000 803f 0000 803f 0000 803f 0000 803f
000001f0: 0000 803f 0000 803f 0000 803f 0000 803f
00000200: 0000 803f 0000 803f 0000 803f 0000 803f
00000210: 0000 803f 0000 803f 0000 803f 0000 803f
00000220: 0000 803f 0000 803f 0000 803f 0000 803f
00000230: 0000 803f 0000 803f 0000 803f 0000 803f
00000240: 0000 803f 0000 803f 0000 803f 0000 803f
00000250: 0000 803f 0000 803f 0000 803f 0000 803f
00000260: 0000 803f 0000 803f 0000 803f 0000 803f
00000270: 0000 803f 0000 803f 0000 803f 0000 803f
00000280: 0000 803f 0000 803f 0000 803f 0000 803f
00000290: 0000 803f 0000 803f 0000 803f 0000 803f
000002a0: 0000 803f 0000 803f 0000 803f 0000 803f
000002b0: 0000 803f 0000 803f 0000 803f 0000 803f
000002c0: 0000 803f 0000 803f 0000 803f 0000 803f
000002d0: 0000 803f 0000 803f 0000 803f 0000 803f
000002e0: 0000 803f 0000 803f 0000 803f 0000 803f
000002f0: 0000 803f 0000 803f 0000 803f 0000 803f
00000300: 0000 803f 0000 803f 0000 803f 0000 803f
00000310: 0000 803f 0000 803f 0000 803f 0000 803f
00000320: 0000 803f 0000 803f 0000 803f 0000 803f
00000330: 0000 803f 0000 803f 0000 803f 0000 803f
00000340: 0000 803f 0000 803f 0000 803f 0000 803f
00000350: 0000 803f 0000 803f 0000 803f 0000 803f
00000360: 0000 803f 0000 803f 0000 803f 0000 803f
00000370: 0000 803f 0000 803f 0000 803f 0000 803f
00000380: 0000 803f 0000 803f 0000 803f 0000 803f
00000390: 0000 803f 0000 803f 0000 803f 0000 803f
000003a0: 0000 803f 0000 803f 0000 803f 0000 803f
000003b0: 0000 803f 0000 803f 0000 803f 0000 803f
000003c0: 0000 803f 0000 803f 0000 803f 0000 803f
000003d0: 0000 803f 0000 803f 0000 803f 0000 803f
000003e0: 0000 803f 0000 803f 0000 803f 0000 803f
000003f0: 0000 803f 0000 803f 0000 803f 0000 803f
1.0 1.0 1.0 1.0 1.0 1.0 1.0 1.0
1.0 1.0 1.0 1.0 1.0 1.0 1.0 1.0
1.0 1.0 1.0 1.0 1.0 1.0 1.0 1.0
1.0 1.0 1.0 1.0 1.0 1.0 1.0 1.0
1.0 1.0 1.0 1.0 1.0 1.0 1.0 1.0
1.0 1.0 1.0 1.0 1.0 1.0 1.0 1.0
1.0 1.0 1.0 1.0 1.0 1.0 1.0 1.0
1.0 1.0 1.0 1.0 1.0 1.0 1.0 1.0
1.0 1.0 1.0 1.0 1.0 1.0 1.0 1.0
1.0 1.0 1.0 1.0 1.0 1.0 1.0 1.0
1.0 1.0 1.0 1.0 1.0 1.0 1.0 1.0
1.0 1.0 1.0 1.0 1.0 1.0 1.0 1.0
1.0 1.0 1.0 1.0 1.0 1.0 1.0 1.0
1.0 1.0 1.0 1.0 1.0 1.0 1.0 1.0
1.0 1.0 1.0 1.0 1.0 1.0 1.0 1.0
1.0 1.0 1.0 1.0 1.0 1.0 1.0 1.0
1.0 1.0 1.0 1.0 1.0 1.0 1.0 1.0
1.0 1.0 1.0 1.0 1.0 1.0 1.0 1.0
1.0 1.0 1.0 1.0 1.0 1.0 1.0 1.0
1.0 1.0 1.0 1.0 1.0 1.0 1.0 1.0
1.0 1.0 1.0 1.0 1.0 1.0 1.0 1.0
1.0 1.0 1.0 1.0 1.0 1.0 1.0 1.0
1.0 1.0 1.0 1.0 1.0 1.0 1.0 1.0
1.0 1.0 1.0 1.0 1.0 1.0 1.0 1.0
1.0 1.0 1.0 1.0 1.0 1.0 1.0 1.0
1.0 1.0 1.0 1.0 1.0 1.0 1.0 1.0
1.0 1.0 1.0 1.0 1.0 1.0 1.0 1.0
1.0 1.0 1.0 1.0 1.0 1.0 1.0 1.0
1.0 1.0 1.0 1.0 1.0 1.0 1.0 1.0
1.0 1.0 1.0 1.0 1.0 1.0 1.0 1.0
1.0 1.0 1.0 1.0 1.0 1.0 1.0 1.0
1.0 1.0 1.0 1.0 1.0 1.0 1.0 1.0

weight f4 [4, 50]
00000000: 3880 90bc 587a d63d c840 b43d 90a5 5a3c
00000010: d420 dbbd a6f0 07bd b76a 02be 869f 2abd
00000020: 90de 403c 6683 ebbd f251 e03d 8078 f8bc
00000030: e948 053e a6e5 bebd d835 883d ead7 48bd
00000040: b8a9 b73c 8417 12bd e23e 9c3d 007b 123c
00000050: fdb3 9ebd 3a33 07be bccb 603d cc1c 1fbd
00000060: d0aa 433d 768f 10be 236d 88bd 00e6 81bc
00000070: 6061 0abc 528c ebbd 1468 243d 5eb5 a0bd
00000080: a0df b9bc 6c83 07be 40c2 ef3c 8056 023b
00000090: bd40 d6bd 24e2 babc a058 49bd c40d 703d
000000a0: c38a 103e ce58 db3d 766c ed3d a4da 9f3d
000000b0: 5039 14bc c019 2fbc 4048 463d ce47 c73d
000000c0: 989d 7a3d 0ad5 f63d 4013 783c 5bfc 003e
000000d0: 44c0 583d 5df6 033e 6082 613d c800 eb3c
000000e0: 8f45 9bbd 9a86 ddbd 0472 af3d e87f ae3c
000000f0: e84a b93c 406e a93b c15e 063e c84f 39bd
00000100: 2015 153d 76e6 e73d 905a da3c 5066 493c
00000110: 067a fe3d f892 65bd 9e8d 79bd a6d4 ffbd
00000120: f1ad 093e 70c9 593c bcc0 383d 1a6b 973d
00000130: e80e dbbd b054 9cbc 949e 0abe 22f1 de3d
00000140: 24b0 dabd d613 cfbd 0c8b 1c3d aee2 e73d
00000150: ed58 98bd b869 dc3c 363e f03d d6c2 0abd
00000160: c0a8 d83d c076 6e3c 8b4a 0fbe fefa f73d
00000170: aabc fc3d 9081 75bd 9ef6 e33d e0fc bf3b
00000180: 3eb6 cd3d c845 ab3c e025 77bc 7ca3 82bd
00000190: 2968 ed3d bd76 c5bd 767b 0e3e f7eb 59bd
000001a0: afb7 9e3c 1007 1d3e 6c46 113e f398 053e
000001b0: 518c a83d ef1a 3ebd 8ab4 7fbd b52f 193e
000001c0: 510d 92bd e3f5 2a3c 22b3 31be 7586 f8bd
000001d0: f71f 683b 1064 85bd 6ecf 24be 1dbb ef3a
000001e0: d49a f2bd 4c0a e93d c06c 203d 9def f33a
000001f0: c2e8 9a3d 7473 2f3e 476a b63d 68b5 6ebd
00000200: 7106 cfbd f1ff b03d cb0d 193d eca1 7c3c
00000210: 5613 81be 054a 9c3d b1ff 6ebe f5cb 0d3d
00000220: 5a1d f73c 2d37 073e 815c 203e b23d 103d
00000230: ebf3 32be 92ce 13be 57e3 85bd 7415 24be
00000240: e4dd e1bd 6928 afbd bd77 29be cf67 113e
00000250: ed85 323e e3b9 05bd 5b0c 093d fdd4 e2bc
00000260: bd33 42bc 41be 873a 2c54 32b9 a756 02bd
00000270: 2619 10bc 4dcd ee3d 3cba 29bd f05b 4fbd
00000280: 217b 473d d5f8 033d 99f2 8a3c 6366 8bbd
00000290: b14b 5e3d 1270 1dbd 8881 12ba 29f3 2a3d
000002a0: d4c3 fdbb fd50 a6ba 8e55 9ebc 5492 8d3d
000002b0: 4efe fc3b dd05 43bd a3a1 e43c c6f4 d83d
000002c0: 28c9 613d 1c5f 653d bf60 74bd 6ab2 373d
000002d0: 5862 50bc c254 86bd fe82 9e3c 97c7 61bd
000002e0: 25a9 eabd ba23 a0bb 14b7 fcbc 1e36 10bd
000002f0: 5322 383d 08fb 283a 610e 473d 31b6 0dbd
00000300: 87fc 89bd 22aa 11bc 22aa 563d 01f0 8d3b
00000310: 74f2 cabd 0f48 8b3c cf05 433d a401 373c
-0.017639264 0.10472554 0.088014185 0.013345137 -0.10699621 -0.033188485 -0.12736021 -0.04165604
0.011771813 -0.11499672 0.1095313 -0.030330896 0.13016094 -0.09321146 0.06650895 -0.049034037
0.022419795 -0.035666957 0.076291814 0.008940458 -0.07749174 -0.13203135 0.054881796 -0.038845822
0.04777032 -0.14117226 -0.06661441 -0.015856743 -0.008446068 -0.11501373 0.04013832 -0.07847093
-0.02268964 -0.13233727 0.02926743 0.0019887984 -0.104615666 -0.02281291 -0.049156785 0.058606878
0.14115433 0.107102975 0.11592953 0.07805374 -0.0090468675 -0.010687292 0.048408747 0.097304925
0.06118545 0.12052353 0.015141308 0.12596266 0.052917734 0.12886949 0.055055976 0.028686896
-0.075816266 -0.10816689 0.08566669 0.021301225 0.022618726 0.0051706135 0.13122083 -0.0452421
0.0363971 0.11323254 0.026654512 0.01229246 0.12425618 -0.056048363 -0.060926072 -0.12491731
0.1344526 0.013292655 0.04510568 0.07393475 -0.106962025 -0.01908335 -0.13537055 0.10885836
-0.106781274 -0.10111205 0.038218543 0.113225326 -0.07438836 0.02690588 0.11730616 -0.033877216
0.105790615 0.014554679 -0.1399328 0.1210842 0.12340672 -0.059938014 0.11131023 0.0058590025
0.100445256 0.020907298 -0.015084714 -0.063788384 0.115921326 -0.09641788 0.13914284 -0.05320355
0.019374697 0.15334725 0.1418702 0.13046627 0.08229888 -0.046412405 -0.062428035 0.14959605
-0.07131446 0.0104346005 -0.1735349 -0.12135021 0.0035419443 -0.06513226 -0.16094753 0.0018290017
-0.11845937 0.11378917 0.039166212 0.0018610839 0.07563926 0.17133886 0.089069895 -0.05827847
-0.101086505 0.08642567 0.03736667 0.015419465 -0.25210065 0.076313056 -0.23339726 0.034618337
0.030165363 0.13204642 0.15660287 0.035215087 -0.1747586 -0.14434269 -0.06537502 -0.16023809
-0.110286504 -0.085526295 -0.16549583 0.14199756 0.17433901 -0.03264798 0.03345905 -0.027689451
-0.011853156 0.0010356383 -0.0001700676 -0.03182092 -0.008795058 0.11660252 -0.041437373 -0.050624788
0.04870141 0.032219727 0.016961383 -0.06806638 0.054271404 -0.038436957 -0.00055887597 0.0417358
-0.007744292 -0.0012688931 -0.019327905 0.069126755 0.007720745 -0.047613014 0.027909106 0.10593562
0.05512348 0.055998906 -0.059662577 0.044847883 -0.0127187595 -0.06559135 0.019349571 -0.055121984
-0.11458043 -0.0048870714 -0.030849017 -0.03520786 0.04495461 0.0006446098 0.048597697 -0.03459758
-0.06737619 -0.0088906605 0.052408345 0.004331589 -0.099095255 0.017002134 0.04761296 0.011169825

bias f4 [4]
00000000: 8cc2 a43d 020e 06be 0eb6 36bb 1046 c73d
0.08044919 -0.13091281 -0.002787951 0.0973016

mask f4 [4, 50]
00000000: 0000 0000 0000 0000 0000 0000 0000 0000
00000010: 0000 0000 0000 0000 0000 0000 0000 0000
00000020: 0000 0000 0000 0000 0000 0000 0000 0000
00000030: 0000 0000 0000 0000 0000 0000 0000 0000
00000040: 0000 0000 0000 0000 0000 0000 0000 0000
00000050: 0000 0000 0000 0000 0000 0000 0000 0000
00000060: 0000 0000 0000 0000 0000 0000 0000 0000
00000070: 0000 0000 0000 0000 0000 0000 0000 0000
00000080: 0000 0000 0000 0000 0000 0000 0000 0000
00000090: 0000 0000 0000 0000 0000 0000 0000 0000
000000a0: 0000 0000 0000 0000 0000 0000 0000 0000
000000b0: 0000 0000 0000 0000 0000 0000 0000 0000
000000c0: 0000 0000 0000 0000 0000 0000 0000 0000
000000d0: 0000 0000 0000 0000 0000 0000 0000 0000
000000e0: 0000 0000 0000 0000 0000 0000 0000 0000
000000f0: 0000 0000 0000 0000 0000 0000 0000 0000
00000100: 0000 0000 0000 0000 0000 0000 0000 0000
00000110: 0000 0000 0000 0000 0000 0000 0000 0000
00000120: 0000 0000 0000 0000 0000 0000 0000 0000
00000130: 0000 0000 0000 0000 0000 0000 0000 0000
00000140: 0000 0000 0000 0000 0000 0000 0000 0000
00000150: 0000 0000 0000 0000 0000 0000 0000 0000
00000160: 0000 0000 0000 0000 0000 0000 0000 0000
00000170: 0000 0000 0000 0000 0000 0000 0000 0000
00000180: 0000 0000 0000 0000 0000 0000 0000 0000
00000190: 0000 803f 0000 803f 0000 803f 0000 803f
000001a0: 0000 803f 0000 803f 0000 803f 0000 803f
000001b0: 0000 803f 0000 803f 0000 803f 0000 803f
000001c0: 0000 803f 0000 803f 0000 803f 0000 803f
000001d0: 0000 803f 0000 803f 0000 803f 0000 803f
000001e0: 0000 803f 0000 803f 0000 803f 0000 803f
000001f0: 0000 803f 0000 803f 0000 803f 0000 803f
00000200: 0000 803f 0000 803f 0000 803f 0000 803f
00000210: 0000 803f 0000 803f 0000 803f 0000 803f
00000220: 0000 803f 0000 803f 0000 803f 0000 803f
00000230: 0000 803f 0000 803f 0000 803f 0000 803f
00000240: 0000 803f 0000 803f 0000 803f 0000 803f
00000250: 0000 803f 0000 803f 0000 803f 0000 803f
00000260: 0000 803f 0000 803f 0000 803f 0000 803f
00000270: 0000 803f 0000 803f 0000 803f 0000 803f
00000280: 0000 803f 0000 803f 0000 803f 0000 803f
00000290: 0000 803f 0000 803f 0000 803f 0000 803f
000002a0: 0000 803f 0000 803f 0000 803f 0000 803f
000002b0: 0000 803f 0000 803f 0000 803f 0000 803f
000002c0: 0000 803f 0000 803f 0000 803f 0000 803f
000002d0: 0000 803f 0000 803f 0000 803f 0000 803f
000002e0: 0000 803f 0000 803f 0000 803f 0000 803f
000002f0: 0000 803f 0000 803f 0000 803f 0000 803f
00000300: 0000 803f 0000 803f 0000 803f 0000 803f
00000310: 0000 803f 0000 803f 0000 803f 0000 803f
0.0 0.0 0.0 0.0 0.0 0.0 0.0 0.0
0.0 0.0 0.0 0.0 0.0 0.0 0.0 0.0
0.0 0.0 0.0 0.0 0.0 0.0 0.0 0.0
0.0 0.0 0.0 0.0 0.0 0.0 0.0 0.0
0.0 0.0 0.0 0.0 0.0 0.0 0.0 0.0
0.0 0.0 0.0 0.0 0.0 0.0 0.0 0.0
0.0 0.0 0.0 0.0 0.0 0.0 0.0 0.0
0.0 0.0 0.0 0.0 0.0 0.0 0.0 0.0
0.0 0.0 0.0 0.0 0.0 0.0 0.0 0.0
0.0 0.0 0.0 0.0 0.0 0.0 0.0 0.0
0.0 0.0 0.0 0.0 0.0 0.0 0.0 0.0
0.0 0.0 0.0 0.0 0.0 0.0 0.0 0.0
0.0 0.0 0.0 0.0 1.0 1.0 1.0 1.0
1.0 1.0 1.0 1.0 1.0 1.0 1.0 1.0
1.0 1.0 1.0 1.0 1.0 1.0 1.0 1.0
1.0 1.0 1.0 1.0 1.0 1.0 1.0 1.0
1.0 1.0 1.0 1.0 1.0 1.0 1.0 1.0
1.0 1.0 1.0 1.0 1.0 1.0 1.0 1.0
1.0 1.0 1.0 1.0 1.0 1.0 1.0 1.0
1.0 1.0 1.0 1.0 1.0 1.0 1.0 1.0
1.0 1.0 1.0 1.0 1.0 1.0 1.0 1.0
1.0 1.0 1.0 1.0 1.0 1.0 1.0 1.0
1.0 1.0 1.0 1.0 1.0 1.0 1.0 1.0
1.0 1.0 1.0 1.0 1.0 1.0 1.0 1.0
1.0 1.0 1.0 1.0 1.0 1.0 1.0 1.0

weight f4 [50, 2]
00000000: 213c 153f 8288 e5be f1ed 2bbf a7a3 a2be
00000010: 8c37 c9be cab7 c2be 451e 2bbe bc2f dcbe
00000020: 6241 1abe e202 ff3e 5ad7 8b3e 8ccf 32bf
00000030: 9748 8bbe 3fce d6be 47ce 323f 12fc f6be
00000040: abcf 533c e808 bfbd a1b3 5abd 39e0 0a3f
00000050: 262f 2c3f 1d6c dcbe b5b4 ad3e 16de e33e
00000060: 66b5 74be 800a 87bc 6672 6dbe 400d 27bf
00000070: c7db dabe c626 db3e 2108 113f 7f22 063f
00000080: 5fc5 02ba d8e1 0abf 0f64 c23e 9095 f8be
00000090: 8677 9b3e e56e 033f 9756 ae3e d050 6fbe
000000a0: 98f9 563e afc0 113f 963b 82be d887 f33d
000000b0: 0f79 b13e b8e1 9fbd 7048 e2be f2a8 99be
000000c0: c4ac 8e3e 26d4 65be 1f97 0a3e 30e5 98be
000000d0: 5bc4 123f 5c26 083e f3a4 b7be 7adb ee3e
000000e0: aa81 923e b692 e73e c837 243f bd39 293f
000000f0: bdc3 bbbe 2875 03be a3eb 57be 2115 06bf
00000100: 1cb7 263e 1c89 afbe f7d8 fbbd 3d00 cbbe
00000110: b673 233f a13e 073f 8e6e 5d3e 6822 82bd
00000120: 1594 79bd a442 2ebf ad75 d5be 38ed 2c3e
00000130: 8036 21bf 4c80 5b3e 955e 3ebf 957e 213f
00000140: 9e5e 43bd bebb b0be 7fb6 143f 6c4f 9dbe
00000150: d45e ea3e dcb2 073e c994 15bf d9d7 1fbf
00000160: f7cf d4be d81a 853e e1ec a33e 729d 1bbf
00000170: 82c0 853e 1593 97be 3fb7 2abe 290b 0f3f
00000180: 07cc 0cbf bca9 113e 7562 b03d 0128 03bf
0.58294874 -0.4483071 -0.67159945 -0.31765482 -0.3930019 -0.38030845 -0.16710766 -0.43005168
-0.15064004 0.49806887 0.27312738 -0.6984794 -0.2720382 -0.41954228 0.69846004 -0.4823919
0.01292793 -0.093278706 -0.053393964 0.54248387 0.6725944 -0.43051234 0.3392693 0.44505376
-0.23897323 -0.016484499 -0.23188171 -0.6525459 -0.42745802 0.4280302 0.5665303 0.52396387
-0.0004988517 -0.5425086 0.37966964 -0.48551607 0.30364627 0.51341087 0.34050438 -0.23370671
0.2099365 0.56934637 -0.25436085 0.118911445 0.34662673 -0.07806724 -0.4419589 -0.30011708
0.27866185 -0.2244421 0.1353421 -0.29862356 0.57330865 0.13295883 -0.35868034 0.46651822
0.2861455 0.4522912 0.64147615 0.66103727 -0.36672774 -0.1283766 -0.21085982 -0.5237599
0.16280788 -0.34284294 -0.12297242 -0.3964862 0.63848436 0.5282994 0.21624205 -0.06354219
-0.060932238 -0.68070436 -0.41691342 0.16887367 -0.62973785 0.2143566 -0.7436307 0.63083774
-0.047697656 -0.34518236 0.58090967 -0.30724657 0.45775473 0.13251823 -0.58430153 -0.6243873
-0.41564915 0.25997043 0.32016662 -0.6078712 0.26123434 -0.29604402 -0.16671465 0.55876404
-0.5499882 0.14224905 0.08612529 -0.51232916

bias f4 [50]
00000000: 8222 aa3e 1953 3bbe 897a 243f 2626 b43e
00000010: 300b 00bf 537f bd3b 1a40 26bf 6746 7ebe
00000020: 53ec afbe b1f8 07bf 906c e0be f243 ed3e
00000030: f0e2 8abd 9a82 2e3f 8a3d d6be 0cc9 113f
00000040: 9933 b2be 9740 de3c 4488 05be 2a90 2c3f
00000050: 0e3f 2b3f ed38 23bf 1c87 023f 3f2a 8fbe
00000060: 9468 11bd 681e 18bf aa4f 103e 8028 2bbd
00000070: 47db ba3d 6678 92bd 0225 65be 6d25 cdbe
00000080: 6e59 563d f9b4 a43e 13f4 af3e ccf6 c03e
00000090: 050e 043b 222f d0be 6758 813e a876 06bf
000000a0: fe44 8fbe d14f 0f3f 2901 ccbd 56a5 023f
000000b0: 6a7f 98be e7fa 2e3f 19d3 0fbf 01ac dfbe
000000c0: ea91 353d 74d5 eb3e
0.33229452 -0.18293418 0.64249474 0.35185355 -0.5001707 0.0057830005 -0.6494156 -0.24831544
-0.3435999 -0.5311385 -0.43832827 0.463409 -0.06781566 0.6816803 -0.41843826 0.569474
-0.3480499 0.027130408 -0.13040262 0.67407477 0.6689309 -0.63758737 0.5098741 -0.2796192
-0.035500124 -0.59421396 0.1409289 -0.04178667 0.09123855 -0.071518704 -0.22377399 -0.40067616
0.05233138 0.3216932 0.343659 0.3768829 0.0020149958 -0.4066096 0.25262758 -0.52524805
-0.27982324 0.55981165 -0.09961159 0.5103353 -0.2978471 0.68351597 -0.56181484 -0.43685916
0.044328608 0.4606129

mask f4 [50, 2]
00000000: 0000 803f 0000 0000 0000 803f 0000 0000
00000010: 0000 803f 0000 0000 0000 803f 0000 0000
00000020: 0000 803f 0000 0000 0000 803f 0000 0000
00000030: 0000 803f 0000 0000 0000 803f 0000 0000
00000040: 0000 803f 0000 0000 0000 803f 0000 0000
00000050: 0000 803f 0000 0000 0000 803f 0000 0000
00000060: 0000 803f 0000 0000 0000 803f 0000 0000
00000070: 0000 803f 0000 0000 0000 803f 0000 0000
00000080: 0000 803f 0000 0000 0000 803f 0000 0000
00000090: 0000 803f 0000 0000 0000 803f 0000 0000
000000a0: 0000 803f 0000 0000 0000 803f 0000 0000
000000b0: 0000 803f 0000 0000 0000 803f 0000 0000
000000c0: 0000 803f 0000 0000 0000 803f 0000 0000
000000d0: 0000 803f 0000 0000 0000 803f 0000 0000
000000e0: 0000 803f 0000 0000 0000 803f 0000 0000
000000f0: 0000 803f 0000 0000 0000 803f 0000 0000
00000100: 0000 803f 0000 0000 0000 803f 0000 0000
00000110: 0000 803f 0000 0000 0000 803f 0000 0000
00000120: 0000 803f 0000 0000 0000 803f 0000 0000
00000130: 0000 803f 0000 0000 0000 803f 0000 0000
00000140: 0000 803f 0000 0000 0000 803f 0000 0000
00000150: 0000 803f 0000 0000 0000 803f 0000 0000
00000160: 0000 803f 0000 0000 0000 803f 0000 0000
00000170: 0000 803f 0000 0000 0000 803f 0000 0000
00000180: 0000 803f 0000 0000 0000 803f 0000 0000
1.0 0.0 1.0 0.0 1.0 0.0 1.0 0.0
1.0 0.0 1.0 0.0 1.0 0.0 1.0 0.0
1.0 0.0 1.0 0.0 1.0 0.0 1.0 0.0
1.0 0.0 1.0 0.0 1.0 0.0 1.0 0.0
1.0 0.0 1.0 0.0 1.0 0.0 1.0 0.0
1.0 0.0 1.0 0.0 1.0 0.0 1.0 0.0
1.0 0.0 1.0 0.0 1.0 0.0 1.0 0.0
1.0 0.0 1.0 0.0 1.0 0.0 1.0 0.0
1.0 0.0 1.0 0.0 1.0 0.0 1.0 0.0
1.0 0.0 1.0 0.0 1.0 0.0 1.0 0.0
1.0 0.0 1.0 0.0 1.0 0.0 1.0 0.0
1.0 0.0 1.0 0.0 1.0 0.0 1.0 0.0
1.0 0.0 1.0 0.0
