03b/GPS_1256775418/model_ai_seed_8888.pth (torch, 278418 bytes, 76 tensors)

_shift f4 [2]
00000000: 7a18 2640 1609 ddbf
2.595244 -1.7268398

_scale f4 [2]
00000000: 03f0 303e b610 5d40
0.17279057 3.454145

weight f4 [50, 2]
00000000: 1d83 8bbe d080 cf3d 36dc 8a3e d06b 17bf
00000010: e872 083d 0d16 053f 8475 543e d4e9 f3be
00000020: 901e 9d3e 98ad 9ebd f49b 57be 1c9f 0cbe
00000030: 76e8 883e 706b f23d 9b91 023f 547a 1f3e
00000040: 042b cdbe 305d 8c3d a628 febe 6691 ba3e
00000050: ac5f fc3e e3d6 dcbe 4afa 6fbe 1a2a eb3e
00000060: b093 0fbf bc62 0f3e e169 d8be 00ce b2bb
00000070: ee17 cdbe 60b9 d43d 40fc c7be 07e4 0b3f
00000080: 2ccf 0f3f 8963 123f c66a fe3d dce2 76be
00000090: 28a2 c63d fa28 a23e 6c9c 28bf 9a4b fc3e
000000a0: 1e2b 473f af65 193f ef1a 4c3e cabb 9b3e
000000b0: aa4c c33e 40a0 2ebf ba9c 973e 22dd 00bf
000000c0: 050c a9bb fe50 c53e ae68 903c e05e e6bd
000000d0: b34e 0abf 044a 01be 2391 043e e8bb 82be
000000e0: 9b21 3c3e 00ca 893b 83f1 20bf 3bab 223f
000000f0: 3f5f 7d3c 8c73 07be 48c8 9f3e 9481 3cbe
00000100: 8976 863d d7a0 2abf 3219 143f 15b9 05bf
00000110: a562 2fbe 4121 033f 7a72 d43e 6b01 c7be
00000120: 4225 0ebf 30d6 033e 7314 0bbe 289a c0be
00000130: 7550 2ebd be84 ca3e b3d3 01be 10c1 68be
00000140: a981 8f3e d422 663e bf2b 8a3e 8faf 02bf
00000150: 0876 933d f382 223f 3787 97be 20b7 52be
00000160: 1df2 433d f0ad 013d b55a 05bf 869c d9be
00000170: 3a76 96bc 22df eebe 9223 a73e c084 a83c
00000180: bf15 22bf 2572 1a3f 81e0 bcbe f582 233f
-0.2724847 0.10131991 0.27121133 -0.59148884 0.03331271 0.5198677 0.20747954 -0.47639334
0.3068738 -0.07747954 -0.21055585 -0.1373257 0.26739854 0.11836898 0.51003426 0.15574008
-0.4007188 0.068537116 -0.49640387 0.36439055 0.49291742 -0.43132696 -0.23435321 0.45930558
-0.5608473 0.14002508 -0.4226828 -0.005456686 -0.4005732 0.1038692 -0.3905964 0.5464482
0.56175494 0.5718313 0.12422709 -0.24109977 0.096988976 0.31671888 -0.6586368 0.4927643
0.77800167 0.5992078 0.1993215 0.3041671 0.38144428 -0.6821327 0.2961176 -0.5033742
-0.0051589035 0.38538355 0.01762804 -0.11248565 -0.54026335 -0.12625891 0.1294599 -0.25533986
0.18372194 0.0042049885 -0.6286852 0.63542527 0.015464603 -0.13227671 0.3120749 -0.18408805
0.065655775 -0.6665167 0.57850945 -0.5223554 -0.17127474 0.51222616 0.4149359 -0.3886827
-0.555256 0.12874675 -0.1358202 -0.37617612 -0.0425572 0.395544 -0.12678413 -0.22729897
0.2802861 0.22474223 0.269865 -0.5104913 0.07200247 0.6348106 -0.29595348 -0.20577669
0.04783832 0.03166002 -0.5209153 -0.4250223 -0.018366922 -0.46654612 0.32644325 0.020571113
-0.6331443 0.6033042 -0.36890033 0.638717

bias f4 [50]
00000000: 1722 083f 3fcb 963e 2947 0ebf 0c64 12bf
00000010: 66ef 21be 4045 2bbf 7b88 e1be a997 45be
00000020: e322 1e3f df0c 0d3d 9b07 fe3e 5e37 1e3e
00000030: 996d f7be 76af f73e b038 f8be ce4e febe
00000040: d4e4 e4be 27dc 20bf 2b95 ae3e 0497 0e3c
00000050: e1ee 69be aea9 5e3d 0621 e93e 4323 43bf
00000060: 84fa 303f 087f 573e 7ab0 edbe f29f 88be
00000070: 3eca 033f 10b3 02bd ddb7 d3be 2445 77be
00000080: 7456 d4be 020d 9ebe 2de8 0f3f 071f 163f
00000090: 888b 4abe 3602 1bbf 2aea b63e 18c7 383f
000000a0: 32a0 643e eedd b73e d70f 50be 0e43 07bf
000000b0: e89a f3be 92c3 cd3c a28d 063f fc87 4ebe
000000c0: 1d57 d1be 62c2 22bf
0.53177017 0.2945194 -0.5557733 -0.5718391 -0.1581398 -0.6690254 -0.4404944 -0.19296135
0.6177198 0.034436103 0.49615178 0.15450808 -0.48325804 0.48376054 -0.4848075 -0.49669498
-0.44705832 -0.62835926 0.3409818 0.008702997 -0.22845031 0.054361038 0.45533007 -0.7622568
0.69132257 0.21044552 -0.46423703 -0.2668453 0.5148047 -0.03190905 -0.41351214 -0.24147469
-0.41472208 -0.308693 0.5621365 0.58641094 -0.1977979 -0.6055025 0.35725528 0.7217879
0.22326735 0.35911506 -0.20318542 -0.5283669 -0.47579122 0.02511767 0.52559865 -0.20169061
-0.40886775 -0.63577855

mask f4 [50, 2]
00000000: 0000 803f 0000 0000 0000 803f 0000 0000
00000010: 0000 803f 0000 0000 0000 803f 0000 0000
00000020: 0000 803f 0000 0000 0000 803f 0000 0000
00000030: 0000 803f 0000 0000 0000 803f 0000 0000
00000040: 0000 803f 0000 0000 0000 803f 0000 0000
00000050: 0000 803f 0000 0000 0000 803f 0000 0000
00000060: 0000 803f 0000 0000 0000 803f 0000 0000
00000070: 0000 803f 0000 0000 0000 803f 0000 0000
00000080: 0000 803f 0000 0000 0000 803f 0000 0000
00000090: 0000 803f 0000 0000 0000 803f 0000 0000
000000a0: 0000 803f 0000 0000 0000 803f 0000 0000
000000b0: 0000 803f 0000 0000 0000 803f 0000 0000
000000c0: 0000 803f 0000 0000 0000 803f 0000 0000
000000d0: 0000 803f 0000 0000 0000 803f 0000 0000
000000e0: 0000 803f 0000 0000 0000 803f 0000 0000
000000f0: 0000 803f 0000 0000 0000 803f 0000 0000
00000100: 0000 803f 0000 0000 0000 803f 0000 0000
00000110: 0000 803f 0000 0000 0000 803f 0000 0000
00000120: 0000 803f 0000 0000 0000 803f 0000 0000
00000130: 0000 803f 0000 0000 0000 803f 0000 0000
00000140: 0000 803f 0000 0000 0000 803f 0000 0000
00000150: 0000 803f 0000 0000 0000 803f 0000 0000
00000160: 0000 803f 0000 0000 0000 803f 0000 0000
00000170: 0000 803f 0000 0000 0000 803f 0000 0000
00000180: 0000 803f 0000 0000 0000 803f 0000 0000
1.0 0.0 1.0 0.0 1.0 0.0 1.0 0.0
1.0 0.0 1.0 0.0 1.0 0.0 1.0 0.0
1.0 0.0 1.0 0.0 1.0 0.0 1.0 0.0
1.0 0.0 1.0 0.0 1.0 0.0 1.0 0.0
1.0 0.0 1.0 0.0 1.0 0.0 1.0 0.0
1.0 0.0 1.0 0.0 1.0 0.0 1.0 0.0
1.0 0.0 1.0 0.0 1.0 0.0 1.0 0.0
1.0 0.0 1.0 0.0 1.0 0.0 1.0 0.0
1.0 0.0 1.0 0.0 1.0 0.0 1.0 0.0
1.0 0.0 1.0 0.0 1.0 0.0 1.0 0.0
1.0 0.0 1.0 0.0 1.0 0.0 1.0 0.0
1.0 0.0 1.0 0.0 1.0 0.0 1.0 0.0
1.0 0.0 1.0 0.0

weight f4 [50, 4]
00000000: eea9 86be 3ada fabe 0115 1abe fd2d 743e
00000010: ee7d 76be 8e73 d6bd b390 0fbe 5740 dc3e
00000020: e5da a0bd 6ca1 87bf f46f a63e 0ffb 843d
00000030: f151 363f 0b05 f63c d4b4 893d 690b adbe
00000040: 53fc 8cbe c14a 013f 3f80 793d 26c5 a23e
00000050: 298f 43be 4453 50be ad1a 4b3e 628b fe3e
00000060: 5503 a33e 60f9 82bd 631c 66bd 0e4e 6ebc
00000070: be4d 09bf 3d67 5d3d 965b a2be e7c5 33be
00000080: da0a 82be 901e 143e 80e1 bdbe ef49 d33d
00000090: b2ae acbc 6645 ee3e def2 a3be 6e24 083e
000000a0: c55c 773e 10f2 0f3f 0fcf a8be a2d2 ed3e
000000b0: beff d3bd ae10 07bf 23fe aabd 63ba e43e
000000c0: c2cf c03c 3fe1 7e3e 527c a2be fecb 183e
000000d0: cce6 403f 99fd b93d 2bb9 0c3d be83 563e
000000e0: 1ba4 58bf 24af 54be 1357 75be 45b9 b13d
000000f0: a752 d7bd 1303 83be 362b 0b3f 361f 28be
00000100: 7e51 7fbe 8c61 ea3e 6d90 1a3e e6b0 4b3e
00000110: 0891 9a3c 6e30 a83e eeb2 633e 9d15 dd3d
00000120: 3a57 16bf 6894 0cbf 77af 1ebe ef53 eb3d
00000130: b96e 80be 0f1e 833e 1759 273f 0f0d cf3e
00000140: 8c14 c0bd 04d3 90be ca3f 2bbf 7a1a 153e
00000150: 7393 68bb ab91 583e a329 223f 1ded 9dbd
00000160: 7cc3 34bf 4665 583e d387 03bf ef16 b2be
00000170: 01a2 8d3e beb8 c73d c4ca 833e af01 1a3d
00000180: 9f1a 933e 583e c03e a9a7 163f e980 f6be
00000190: e140 873d 322b d5be 51fd 013f 081f 85be
000001a0: 507f 72bc 4ef1 263f 6ec4 0dbf 15ce df3e
000001b0: 747b eabe cba5 a6bd c22a 1e3f 4a18 a03d
000001c0: 7a63 0e3e 9c61 01bf 6696 b2bd b26c 93be
000001d0: 4a80 153c d5e3 093f 9a3b cbbe 21f4 ca3d
000001e0: 02fb 253f b2a7 5bbe 2bef 7b3e 884f 1ebe
000001f0: f97f a0be 7fa2 213f 58c8 643e b4ab 54be
00000200: c31a 323f 97a6 8e3c b4e1 963e e4a3 d0be
00000210: 446e 6cbc aa5e 2dbf f2de c43d c11e ee3e
00000220: 12cb f9bd b20f e6bd 8695 88be 0195 3b3e
00000230: 9a1f eb3e 4d7b 88be 91c0 31be b775 bd3d
00000240: 5e36 09bf 9043 7d3e d333 e1be a60a 1cbe
00000250: 71a2 d53e 9c1f 0fbe 6c48 27be 4c54 c33e
00000260: 2fdb cc3c 02f4 a53e 7b8b e3be 54b7 fe3d
00000270: 2a95 c43e 9b6e 1abe 2c7e a1be 6dd9 ee3e
00000280: 7038 93be 335e be3e 130d d43e 2729 d2be
00000290: 8674 753e a6c4 dcbe 1602 803e 4e85 313e
000002a0: 64cf 0bbc 591c 57bf b435 20bf 851f 96be
000002b0: 60b8 e6bd 8463 90bd bd2c 453e d9a3 fc3e
000002c0: a824 313e 022f 083e add9 ae3e cfd8 cebe
000002d0: e81c 6a3e 9425 e3bc bc23 9c3e 6456 fdbe
000002e0: 7ba0 40be 5a7f 73be 9d38 a5be aa03 a83e
000002f0: 9e5b 1e3f b2a9 9f3c 4d23 a6bd 3550 eabd
00000300: 60e4 443e 77d4 14bc d639 d73e fe90 fe3c
00000310: 15c9 ca3d dcc1 553e a46a d33e 16aa d33e
-0.2630152 -0.4899462 -0.15047075 0.23845668 -0.24071476 -0.10471259 -0.14020042 0.43017837
-0.07854251 -1.0596137 0.32507288 0.06493198 0.7121878 0.030031702 0.06723943 -0.33797768
-0.27536258 0.5050469 0.06091332 0.31791037 -0.1909758 -0.20344263 0.19834395 0.49715716
0.3183848 -0.06395221 -0.056179415 -0.014544977 -0.5363425 0.054053534 -0.317105 -0.17555963
-0.25398904 0.14464784 -0.37086105 0.10316836 -0.021079395 0.46537322 -0.3202123 0.13295147
0.24156483 0.56228733 -0.32970473 0.46449763 -0.10351513 -0.52759826 -0.08349254 0.44673452
0.023536567 0.24890612 -0.31735474 0.14921567 0.7535217 0.09081573 0.034356277 0.20948693
-0.84625405 -0.20769936 -0.23958997 0.086779155 -0.105138116 -0.25588283 0.5436281 -0.16418156
-0.2493343 0.45777547 0.15094157 0.198917 0.018867984 0.3284945 0.22236225 0.10795138
-0.5872685 -0.5491395 -0.15496622 0.114906184 -0.25084475 0.2560887 0.65370315 0.4043965
-0.09378919 -0.28285992 -0.6689421 0.14560881 -0.0035488277 0.21149318 0.6334478 -0.077112414
-0.70610785 0.21132383 -0.51379126 -0.34783122 0.27662662 0.09752034 0.25740635 0.03759926
0.28731248 0.37547565 0.5884958 -0.48145226 0.066041715 -0.41634518 0.50777155 -0.26000237
-0.0148008615 0.6521195 -0.5537785 0.43711916 -0.45797312 -0.08137091 0.61783993 0.07817133
0.13905135 -0.50539565 -0.087200925 -0.28793865 0.009124825 0.5386327 -0.3969391 0.09909845
0.6483613 -0.2145069 0.24602954 -0.15460026 -0.31347635 0.63138574 0.2234205 -0.20768625
0.69572085 0.01741342 0.29469073 -0.4075004 -0.014430586 -0.6772257 0.09612836 0.46507838
-0.12196936 -0.112334624 -0.26676577 0.18318559 0.45922548 -0.2665657 -0.17358615 0.09250968
-0.5359858 0.24732804 -0.4398485 -0.15238437 0.41725495 -0.13976902 -0.1633622 0.3815025
0.025006859 0.32412726 -0.44442353 0.12437311 0.38395053 -0.15081255 -0.31541574 0.46650258
-0.28753996 0.37181243 0.41416225 -0.41047022 0.23970231 -0.4311878 0.2500159 0.17336008
-0.0085333325 -0.8402763 -0.62581944 -0.29320922 -0.112656355 -0.07050231 0.19255348 0.49343756
0.1729914 0.13299182 0.34150448 -0.40399787 0.2286259 -0.02772788 0.30496013 -0.49479973
-0.18811218 -0.2377905 -0.32269755 0.32815295 0.61858547 0.019490097 -0.08112202 -0.114410795
0.19227743 -0.009083859 0.42036313 0.031074997 0.099016346 0.20874733 0.41292298 0.41340703

bias f4 [50]
00000000: 1760 bf3e 59af ebbd 14c9 95be 8b02 e7be
00000010: 6d85 93be 2050 b03e 8fef ddbe 625c 94be
00000020: 2363 f23e 4a17 b4be e9a4 72be 7b5d a33e
00000030: 831f 003d f036 1a3f 08a2 44be 2205 05bf
00000040: 59d4 b3bd 905f bb3e 8d28 4f3d 082f 4a3e
00000050: 5ddb 493e 6a0a 84be f773 263e 1734 d93d
00000060: 2f0d 10bd 6100 c93e a87f 81be e0ae 11be
00000070: 81a7 a53e 80e3 7dbe a877 f4be ee3b 81be
00000080: 5a54 9cbe 486c 883e ed33 94be a901 e13e
00000090: 723c 78bd 4a12 fbbd c60e 013f 2479 31bd
000000a0: b8f6 e2be 2816 053e 8de3 ec3d 9985 083f
000000b0: ed5e 67be f56f 8b3e 8d88 c0be cac3 eebe
000000c0: 18e6 803e a994 dabe
0.37377998 -0.11508054 -0.29254973 -0.45119128 -0.28812733 0.3443613 -0.4334683 -0.28976732
0.4734126 -0.35174018 -0.2369572 0.31907257 0.031280052 0.6024008 -0.19202435 -0.5196096
-0.087807365 0.36596346 0.05057578 0.19744503 0.19712587 -0.25789195 0.16255175 0.106056385
-0.035168823 0.39258102 -0.25292706 -0.14226866 0.32354358 -0.24793816 -0.4774754 -0.25241035
-0.30533105 0.26645112 -0.28945866 0.4394658 -0.06060452 -0.12259348 0.5041317 -0.04332842
-0.44328856 0.12996733 0.11566839 0.53328854 -0.22594805 0.27233854 -0.3760418 -0.4663375
0.25175548 -0.42691544

weight f4 [50, 50]
00000000: 7ff2 883e b1a3 9d3d b88c 33be 96b0 b4bc
00000010: ce20 72be b84a b33d deae 8cbc 6e11 803d
00000020: 2679 853d 04ca d43d a8c1 5c3c 546b b63e
00000030: f486 0abe 3b0f 76bd 215e c13d 2a75 623d
00000040: e39c 44be f8dd 8fbe a447 483e ec3e 0c3e
00000050: c714 e83d 88e2 3dbe b0a3 0fbe bd77 84be
00000060: aad2 64bd a0fe 213e f356 df3c 3f4a 7ebd
00000070: 4aa6 e63c cba1 b8bc 9c6b eebd 3d69 b2be
00000080: fadf c1bd ecab dcbd e7d2 9c3e 330a 093e
00000090: 0ea7 2f3e dc0a 80bd ef37 0b3e c049 223e
000000a0: 0971 85be 8826 753b 124f d6bc bda9 ccbd
000000b0: 0afb 0ebe 2cf8 a33b 5910 353e 3caa 5a3d
000000c0: 7319 113d 38b1 a2bd 5bb0 fdbd d2b9 6bbe
000000d0: ae5a 733e 4252 0b3d bb70 82bd 3d66 c83b
000000e0: 1af4 ad3c 739b 42bc f8f9 aabc 747e 9b3d
000000f0: eb77 c3bb 6466 eebd e7d3 fcbd 98d9 57bc
00000100: b63c 983d 2492 943d 47b0 c0bd c0cb 743a
00000110: b16e 65bd d02b d33d 7d62 debd aa57 453e
00000120: 55b5 773c e9e3 c5bd 2fe8 113d e761 a9bd
00000130: 54b6 96bd 6b8d e33d 3c17 68be 198f 303e
00000140: 41d8 303e 5a0e 033e 24a7 8c3c c118 0dbe
00000150: 2c95 01bd 3b79 24be 0d0c 0bbd 8d2d 133c
00000160: 2145 46be 8f28 bbbd 81bb 5c3e a9b0 01bd
00000170: 970a 9a3d ff62 0e3e 1579 a33c 64e8 bbbd
00000180: 5067 60be 107d 773d cd42 953c 1e35 053e
00000190: e9fe 663d f9c5 3cbe 82b5 0dbd 9c1f 853d
000001a0: 0b14 9ebd b054 12bd c8c7 853d 16b9 8abd
000001b0: 8152 34be 65b9 3f3d 71c4 4b3d d7c5 d8bd
000001c0: c273 213d 423b 8cbd 094a 62bc 2fa3 403e
000001d0: cda4 27bd 8662 94bd 18e6 56bd 8a63 443e
000001e0: 3549 3b3d 69cb 05bd 4f8c 38be 9d81 fd3d
000001f0: e160 23be b0bd 093c 0e6e 88bd 3a5d cf3d
00000200: adc6 f8bd ef49 153e c767 f33d 302e e63d
00000210: c077 98bc 2b90 a53d bbfd 14be 0431 fdbd
00000220: bb71 3abd cc9a 093c d3b1 1bbe c619 1abe
00000230: 8fb0 1d3e b85b ba3c ef35 e63d 6e04 a73d
00000240: 51de 903d 4375 5c3d f48a e6bc e2a7 81bd
00000250: 6d47 333c 104a 97bc 96a0 183c 2341 20bd
00000260: 80fa a2bd 7b8c 6c3d bf3f bebd 8e03 bd3d
00000270: 8a22 c23d 187e 773e 92b0 3bbd ae05 8cbd
00000280: 684c 1abc 52b9 fcbd d291 6c3c 3ab3 93bd
00000290: a9b4 143e 2db0 ff3b a3e4 5c3d 840c 41bd
000002a0: 69c6 2fbe 20a8 3d3b 4f11 d63b 5a2c aebd
000002b0: 3b4e 08bc fb81 f63d 4d54 d2bc 4ae6 2e3e
000002c0: bee0 3fbe a68d 2d3d c015 583d c179 75be
000002d0: f302 273e b600 61bc 175f 7c3d 24ff 203d
000002e0: 1783 d3bd 4d81 a4ba 2bc6 ff3d e9e6 b43c
000002f0: e45a c9bd f812 cb3d dfa6 153d 65e1 e0bd
00000300: d00c fabd 3a98 fcbd 3d05 4cbd bcc4 22bd
00000310: 6b8d 103d d7a0 6ebd eb01 943d 54bd a8bd
00000320: 57b9 6ebd ba66 4dbd 5398 843d ba22 78be
00000330: 0a75 a63d e9ab e03d 64c0 63be 5aeb b0bb
00000340: 8b0b b63d 1daa ca3d 2eab c7bd ae5f 1f3e
00000350: 57e4 fd3d 5f45 b13d a445 c2bd 44ee cc3a
00000360: 9e4f 70bc e60d 30be 106d 963e ae9d 913e
00000370: b759 8dbe 61a6 01bc 87de 823e 9751 17be
00000380: ffce 123b 9392 c7bd 8af0 ef3c e805 dcbc
00000390: 213c 1f3e 3213 183d fd44 9fbe 4bfd a53d
000003a0: 5459 89be bcd5 66be 4fa9 593e adcd a53d
000003b0: 8e09 d1bd 2800 37be 7ccd 72bd 94fe 883d
000003c0: a0ac 2f3d b2db a2bc 0e72 1bbe 8586 8e3d
000003d0: 48a2 15bd 53c0 243e 0e28 a13b d81b babe
000003e0: c4a4 863d eb93 dcbd 0167 21bc db55 d6bd
000003f0: 2d5e 423e 89ed 3a3d b2c4 eb3d a9e3 d03c
0.2674751 0.07697237 -0.17534149 -0.022056859 -0.23645326 0.08754486 -0.017173227 0.062533244
0.06517248 0.10390094 0.013473906 0.3562876 -0.13528043 -0.06007312 0.09441782 0.055287518
-0.19200473 -0.28099036 0.19558579 0.13695878 0.11332088 -0.18543446 -0.14027286 -0.25872603
-0.055864967 0.15819788 0.02726314 -0.062082525 0.028155465 -0.022538086 -0.116416186 -0.34845915
-0.09466548 -0.10774979 0.30629656 0.13382797 0.1715357 -0.06252071 0.13595556 0.15848446
-0.260628 0.0037407 -0.02616075 -0.099933125 -0.13962951 0.0050039496 0.17682017 0.053385004
0.03542466 -0.07943958 -0.12387153 -0.23020104 0.2376506 0.034013994 -0.06369158 0.0061157034
0.02123456 -0.011877882 -0.020871148 0.075924784 -0.005965223 -0.11640623 -0.12345105 -0.013174437
0.07433455 0.072544366 -0.09408622 0.00093382224 -0.056013767 0.10311091 -0.10858629 0.19271722
0.0151189165 -0.09662611 0.03562182 -0.082706265 -0.07358995 0.11110958 -0.22665113 0.17242087
0.17269994 0.12798443 0.017169543 -0.13778974 -0.031636402 -0.16061871 -0.03394704 0.008983028
-0.19362308 -0.09138595 0.21555902 -0.031662617 0.07521551 0.13904952 0.019955197 -0.09175184
-0.2191441 0.060422003 0.01822033 0.13008544 0.056395445 -0.18434896 -0.034596927 0.0650017
-0.07718667 -0.035725296 0.06532246 -0.067735836 -0.17609598 0.046807665 0.049747888 -0.1058461
0.039417036 -0.0684724 -0.013811597 0.1881225 -0.04092865 -0.07245354 -0.05246553 0.19178596
0.045724113 -0.03266469 -0.18022273 0.123782374 -0.15954925 0.008407041 -0.06661616 0.101252034
-0.121472694 0.14578985 0.11885028 0.11239278 -0.018611789 0.080841385 -0.14549915 -0.123628646
-0.045518618 0.008398723 -0.15204553 -0.15048894 0.15399383 0.022748813 0.11240756 0.08155142
0.070736535 0.053822767 -0.02814243 -0.06330849 0.010942322 -0.018467933 0.00931563 -0.03912462
-0.07957935 0.05775116 -0.09289502 0.09229194 0.09479244 0.24169195 -0.045822687 -0.06837021
-0.009417631 -0.123400345 0.014439063 -0.07211919 0.14522041 0.007802984 0.053928982 -0.047131076
-0.17165531 0.0028939322 0.006532825 -0.08504553 -0.008319433 0.120365106 -0.025674963 0.17080036
-0.18738076 0.042371415 0.052755117 -0.23972227 0.16309719 -0.01373308 0.061614122 0.03930582
-0.10327738 -0.0012550742 0.124889694 0.022082763 -0.09831789 0.099157274 0.036536094 -0.109804906
-0.12209475 -0.123337224 -0.049809683 -0.0397384 0.035291117 -0.058258858 0.07226928 -0.082392365
-0.058282223 -0.050146796 0.06474366 -0.24231997 0.08127792 0.10970289 -0.2224136 -0.00539915
0.088889204 0.09895728 -0.09749447 0.15563843 0.12397068 0.086558096 -0.09485939 0.0015634974
-0.01466742 -0.17192802 0.29380083 0.28440613 -0.2760751 -0.007913203 0.255604 -0.14777218
0.0022401211 -0.09744754 0.029289503 -0.026858285 0.15550281 0.03712768 -0.3110732 0.081049524
-0.26825964 -0.2254247 0.21255992 0.0809587 -0.102069005 -0.17871153 -0.059277996 0.06689182
0.042889237 -0.01988015 -0.15180227 0.06959251 -0.036531717 0.16088991 0.004918105 -0.36349368
0.06574395 -0.107704006 -0.009851218 -0.104655944 0.18981238 0.045636687 0.11512126 0.025499182

bias f4 [50]
00000000: a8f0 24bd 1c3e 71bd 1be0 833d d7f8 0a3e
00000010: 15de 0b3d 822a 453d 3204 b0bd 0832 65bd
00000020: bc24 35bd cf57 c53d 66ce dbbc 7e4a 3d3c
00000030: bec1 503d 0fea ccba 2cd1 c4bb cd54 f4bd
00000040: aa56 873d bfe5 903d 4e1a b33d 844d 70bd
00000050: 600b a1bd 2b6a dbbd 99ff 56bd ad85 71bd
00000060: 09f7 9c3d 508b 1fbd 9958 0f3e 1544 fa3d
00000070: a5ab fb3c ad4a bebd 04f3 503d eda4 07bd
00000080: b01a be3d 2e5b cbbd a324 033d 2139 f23c
00000090: bc43 16be 9db7 f33c 2b07 75bd 6ed5 71bb
000000a0: 18bd 6f3d 381b b13d 1d21 6cbc 1a81 f9bc
000000b0: a9e8 2d3e 292c bf3d 9abc 14be 10c4 abbd
000000c0: bdd3 e9bd 35a6 bcbd
-0.04026857 -0.058897123 0.06439229 0.13571487 0.03414734 0.04813624 -0.0859455 -0.055955917
-0.044224486 0.09635889 -0.026831817 0.011553405 0.050966017 -0.001563372 -0.0060063805 -0.11930237
0.06608327 0.070750706 0.087452516 -0.058667675 -0.07863498 -0.10713609 -0.05248985 -0.058965374
0.07664306 -0.038951218 0.13998641 0.12220017 0.030721495 -0.09291587 0.051013008 -0.03311627
0.09282434 -0.099295005 0.03201736 0.029568257 -0.14674276 0.02975064 -0.05982129 -0.0036900896
0.058529943 0.0864777 -0.014412192 -0.030457068 0.16983284 0.09334595 -0.14525071 -0.08387005
-0.11417339 -0.09211389

mask f4 [50, 50]
00000000: 0000 803f 0000 803f 0000 803f 0000 803f
00000010: 0000 803f 0000 803f 0000 803f 0000 803f
00000020: 0000 803f 0000 803f 0000 803f 0000 803f
00000030: 0000 803f 0000 803f 0000 803f 0000 803f
00000040: 0000 803f 0000 803f 0000 803f 0000 803f
00000050: 0000 803f 0000 803f 0000 803f 0000 803f
00000060: 0000 803f 0000 803f 0000 803f 0000 803f
00000070: 0000 803f 0000 803f 0000 803f 0000 803f
00000080: 0000 803f 0000 803f 0000 803f 0000 803f
00000090: 0000 803f 0000 803f 0000 803f 0000 803f
000000a0: 0000 803f 0000 803f 0000 803f 0000 803f
000000b0: 0000 803f 0000 803f 0000 803f 0000 803f
000000c0: 0000 803f 0000 803f 0000 803f 0000 803f
000000d0: 0000 803f 0000 803f 0000 803f 0000 803f
000000e0: 0000 803f 0000 803f 0000 803f 0000 803f
000000f0: 0000 803f 0000 803f 0000 803f 0000 803f
00000100: 0000 803f 0000 803f 0000 803f 0000 803f
00000110: 0000 803f 0000 803f 0000 803f 0000 803f
00000120: 0000 803f 0000 803f 0000 803f 0000 803f
00000130: 0000 803f 0000 803f 0000 803f 0000 803f
00000140: 0000 803f 0000 803f 0000 803f 0000 803f
00000150: 0000 803f 0000 803f 0000 803f 0000 803f
00000160: 0000 803f 0000 803f 0000 803f 0000 803f
00000170: 0000 803f 0000 803f 0000 803f 0000 803f
00000180: 0000 803f 0000 803f 0000 803f 0000 803f
00000190: 0000 803f 0000 803f 0000 803f 0000 803f
000001a0: 0000 803f 0000 803f 0000 803f 0000 803f
000001b0: 0000 803f 0000 803f 0000 803f 0000 803f
000001c0: 0000 803f 0000 803f 0000 803f 0000 803f
000001d0: 0000 803f 0000 803f 0000 803f 0000 803f
000001e0: 0000 803f 0000 803f 0000 803f 0000 803f
000001f0: 0000 803f 0000 803f 0000 803f 0000 803f
00000200: 0000 803f 0000 803f 0000 803f 0000 803f
00000210: 0000 803f 0000 803f 0000 803f 0000 803f
00000220: 0000 803f 0000 803f 0000 803f 0000 803f
00000230: 0000 803f 0000 803f 0000 803f 0000 803f
00000240: 0000 803f 0000 803f 0000 803f 0000 803f
00000250: 0000 803f 0000 803f 0000 803f 0000 803f
00000260: 0000 803f 0000 803f 0000 803f 0000 803f
00000270: 0000 803f 0000 803f 0000 803f 0000 803f
00000280: 0000 803f 0000 803f 0000 803f 0000 803f
00000290: 0000 803f 0000 803f 0000 803f 0000 803f
000002a0: 0000 803f 0000 803f 0000 803f 0000 803f
000002b0: 0000 803f 0000 803f 0000 803f 0000 803f
000002c0: 0000 803f 0000 803f 0000 803f 0000 803f
000002d0: 0000 803f 0000 803f 0000 803f 0000 803f
000002e0: 0000 803f 0000 803f 0000 803f 0000 803f
000002f0: 0000 803f 0000 803f 0000 803f 0000 803f
00000300: 0000 803f 0000 803f 0000 803f 0000 803f
00000310: 0000 803f 0000 803f 0000 803f 0000 803f
00000320: 0000 803f 0000 803f 0000 803f 0000 803f
00000330: 0000 803f 0000 803f 0000 803f 0000 803f
00000340: 0000 803f 0000 803f 0000 803f 0000 803f
00000350: 0000 803f 0000 803f 0000 803f 0000 803f
00000360: 0000 803f 0000 803f 0000 803f 0000 803f
00000370: 0000 803f 0000 803f 0000 803f 0000 803f
00000380: 0000 803f 0000 803f 0000 803f 0000 803f
00000390: 0000 803f 0000 803f 0000 803f 0000 803f
000003a0: 0000 803f 0000 803f 0000 803f 0000 803f
000003b0: 0000 803f 0000 803f 0000 803f 0000 803f
000003c0: 0000 803f 0000 803f 0000 803f 0000 803f
000003d0: 0000 803f 0000 803f 0000 803f 0000 803f
000003e0: 0000 803f 0000 803f 0000 803f 0000 803f
000003f0: 0000 803f 0000 803f 0000 803f 0000 803f
1.0 1.0 1.0 1.0 1.0 1.0 1.0 1.0
1.0 1.0 1.0 1.0 1.0 1.0 1.0 1.0
1.0 1.0 1.0 1.0 1.0 1.0 1.0 1.0
1.0 1.0 1.0 1.0 1.0 1.0 1.0 1.0
1.0 1.0 1.0 1.0 1.0 1.0 1.0 1.0
1.0 1.0 1.0 1.0 1.0 1.0 1.0 1.0
1.0 1.0 1.0 1.0 1.0 1.0 1.0 1.0
1.0 1.0 1.0 1.0 1.0 1.0 1.0 1.0
1.0 1.0 1.0 1.0 1.0 1.0 1.0 1.0
1.0 1.0 1.0 1.0 1.0 1.0 1.0 1.0
1.0 1.0 1.0 1.0 1.0 1.0 1.0 1.0
1.0 1.0 1.0 1.0 1.0 1.0 1.0 1.0
1.0 1.0 1.0 1.0 1.0 1.0 1.0 1.0
1.0 1.0 1.0 1.0 1.0 1.0 1.0 1.0
1.0 1.0 1.0 1.0 1.0 1.0 1.0 1.0
1.0 1.0 1.0 1.0 1.0 1.0 1.0 1.0
1.0 1.0 1.0 1.0 1.0 1.0 1.0 1.0
1.0 1.0 1.0 1.0 1.0 1.0 1.0 1.0
1.0 1.0 1.0 1.0 1.0 1.0 1.0 1.0
1.0 1.0 1.0 1.0 1.0 1.0 1.0 1.0
1.0 1.0 1.0 1.0 1.0 1.0 1.0 1.0
1.0 1.0 1.0 1.0 1.0 1.0 1.0 1.0
1.0 1.0 1.0 1.0 1.0 1.0 1.0 1.0
1.0 1.0 1.0 1.0 1.0 1.0 1.0 1.0
1.0 1.0 1.0 1.0 1.0 1.0 1.0 1.0
1.0 1.0 1.0 1.0 1.0 1.0 1.0 1.0
1.0 1.0 1.0 1.0 1.0 1.0 1.0 1.0
1.0 1.0 1.0 1.0 1.0 1.0 1.0 1.0
1.0 1.0 1.0 1.0 1.0 1.0 1.0 1.0
1.0 1.0 1.0 1.0 1.0 1.0 1.0 1.0
1.0 1.0 1.0 1.0 1.0 1.0 1.0 1.0
1.0 1.0 1.0 1.0 1.0 1.0 1.0 1.0

weight f4 [50, 50]
00000000: 7dab db3c 6fdc 603d f0f8 983d d860 a2bd
00000010: 0cc1 dabd 1b46 93b8 9dab 033e a22d 483e
00000020: 8359 1a3e 563f 72bd ca7e 343e 61c0 073d
00000030: 65ed 42bb 8b7f 653d e054 ae3d c7b6 0d3e
00000040: faaf 10be 6c95 bf3c 4137 e3bb 64fb 26be
00000050: bd1c b3bd f39c 21bd 0ef3 d93d 3b72 e33d
00000060: b4b6 1b3e 0768 043e 4d9c 48bd 70f9 843d
00000070: f756 653d aa22 2d3d e38f 9d3d ae4a 3b3e
00000080: eedf 043d 1590 81bd 3f28 5d3c acb3 a13d
00000090: 82c0 943d 7903 0a3e 406c 393d ccec 55be
000000a0: 1eff 1c3d e507 00bd 55e2 94bd 08ad a33d
000000b0: e1be 60bd 04d7 883e a3e4 1f3d 79ce edbb
000000c0: 0379 233e be5c 5ebc 73b6 0cbe 37e7 383e
000000d0: fb07 283e 017a 08bd eb54 dabd 5483 453d
000000e0: 3a47 dc3d eef7 e93c 1e75 57bd e098 89bd
000000f0: 3d92 d53c 67fa 763d 3850 03bd a93c 41bd
00000100: 0fdb acbc f8c1 b8bc f535 fabc 22cc 1ebe
00000110: 832d 26be 5d91 a2bd 8e30 633c a1b0 413e
00000120: cfe0 203e 9254 eabd 6663 3f3d aed1 9ebc
00000130: 53ce a4bd 7aa6 283d 9dbd b53d c0fc fbbb
00000140: fdae 8c3d fbbe 7a3c 8330 a33d 72bc 10bd
00000150: fc70 853d 58cd 943d 544d 883c 3784 d13c
00000160: ad3b 0b3d 61f7 42be 898d 09be 6264 c13d
00000170: 141b 363e bf77 193e 0b3c 04be 4858 8d3d
00000180: 707e 493e 8f69 61bc d42e e93d fd85 603d
00000190: 813e bb3c 4c94 77bd 3767 663d 6c0f f0bd
000001a0: c701 173e 36d3 063d de4d d4bc c0d2 7f3d
000001b0: 3032 64bd 86ce 80bd 299a 1b3e b82c 1abe
000001c0: 466d d2bc d96b 0e3d f5bf 3fbd e91d 543e
000001d0: 7c60 1cbe 15e7 3cbe ae6d f9bd 2091 1abe
000001e0: 0b66 3abe 3de3 253e 9b95 fd3d af48 743d
000001f0: f5f5 b03d 119c 803d 8b49 743d 17d8 56be
00000200: 37e8 5d3d 83a9 3e3c 2422 a93d 6537 573c
00000210: 29b4 d1bd 3e1e 00be 813a 303d 875d 143e
00000220: 28fa b73d f0f1 89bd ce2b e73d 30ff f6bd
00000230: 6bb2 ddbd cbff 343b 3d0b 063e 91a5 143d
00000240: 9890 b6bd cd96 203e 5598 353d d23c b83d
00000250: cd5e f9bb 9e1b 30be 12eb 55be c637 643d
00000260: 0c4e ae3d 150c 83bc b581 abbc 1eb4 243e
00000270: a968 553e d203 1ebd b622 8fbc 443e 0e3d
00000280: 06ff fe3d 1151 2b3d a90d 5d3b 05a3 e9bc
00000290: 4ddf 0a3e cf40 3a3e c7ea d8bd f492 adbd
000002a0: bd43 2dbe cb61 a8bd 86f1 253b cf31 713d
000002b0: d1d1 5c3e 7f46 66bd 0a93 c73c 959f 183e
000002c0: acc5 a9bd 09fa 27be 1398 993d a002 863d
000002d0: 0b31 e63d b40d 9c3b d04d e93d 1169 053e
000002e0: 7504 953d 8f09 103e 25bf 873c 21f3 513e
000002f0: e21c 11bc 0bef 5ebe df02 ffbd 9c8d b23d
00000300: 029a a43d e213 fdbc 8a28 f9bd bd6b 563d
00000310: b5d6 063d 8900 3d3e d3cf 4c3e e88e 0bbe
00000320: d0bc 7f3c e679 9d3d 1867 623d 8e23 33be
00000330: 5cd8 d53e 9f94 a93e 94f2 63bc e2f9 a23d
00000340: 89a8 003e 4d0b 24be 04e3 a63c 7cdb 64bd
00000350: fafc 123f a422 0dbe bf92 fd3d fb20 5abd
00000360: c8f2 b73c 7f37 4fbe d419 643c 7f1e 2fbd
00000370: 281f cc3d 54e3 143e 2177 323e e218 773e
00000380: b254 9ebd ce66 47bd 2405 41bd c94a 673d
00000390: 7787 873e 195f 1ebd 0202 c73d fefd 793d
000003a0: ab4d fa3d 42ab a83e fa87 81be 5feb 17be
000003b0: e609 debd f595 56bd fb64 83bd 9436 15be
000003c0: 501d 703d d968 3a3d 9ee0 ebbc 9e7e 4e3e
000003d0: b40d 993d 9490 2c3f 28ab 503d 4667 453d
000003e0: e736 e63c 7215 be3c 9819 af3a f45d 3abe
000003f0: f851 1cbe f64f b5bd 30c4 10be 7fd2 49be
0.02681517 0.05489772 0.07469356 -0.07928628 -0.10681352 -7.0225644e-05 0.12858434 0.19548658
0.15073209 -0.059142433 0.17626491 0.03314245 -0.002974355 0.056029838 0.08512282 0.13839255
-0.1412963 0.02338668 -0.006934077 -0.16306835 -0.08745716 -0.03945632 0.10642062 0.11105772
0.15206414 0.12930308 -0.048977185 0.06492889 0.05599114 0.042269386 0.0769346 0.18290207
0.03244012 -0.063263096 0.013498365 0.07895598 0.072632805 0.13477887 0.04526925 -0.20891112
0.038329236 -0.03125753 -0.07269732 0.079919875 -0.054869536 0.26726544 0.039036404 -0.0072572795
0.15964131 -0.013571916 -0.13741474 0.18056951 0.16409294 -0.033319477 -0.10660728 0.048220947
0.10755773 0.028560605 -0.052601926 -0.06718612 0.026070708 0.060297396 -0.032058924 -0.04717699
-0.021100549 -0.022553429 -0.030543307 -0.15507558 -0.16228299 -0.07937882 0.013866557 0.18915035
0.15710758 -0.11441912 0.046725653 -0.019387092 -0.08047166 0.04117439 0.088740565 -0.0076900423
0.06869314 0.015304322 0.07968237 -0.035335965 0.06515691 0.07265729 0.016638435 0.02557574
0.033992458 -0.1903968 -0.13432898 0.094429746 0.17783767 0.14987086 -0.1291353 0.06901604
0.19677138 -0.013758077 0.11385885 0.05481528 0.022856953 -0.06044416 0.056250777 -0.117216915
0.14746772 0.03291627 -0.025916036 0.062456846 -0.055711925 -0.06289391 0.15195526 -0.15056121
-0.025686871 0.03477082 -0.046813924 0.20714535 -0.15271181 -0.18447526 -0.12179123 -0.15094423
-0.18202989 0.16199966 0.123820506 0.05963963 0.086406626 0.06279767 0.05964045 -0.20980869
0.054176535 0.011637094 0.08258465 0.013135766 -0.10239441 -0.12511536 0.043024544 0.14488803
0.089832604 -0.06735599 0.11287652 -0.12060392 -0.10825046 0.0027618285 0.13090225 0.03629071
-0.08914298 0.15682526 0.04433473 0.089959756 -0.007610178 -0.17198035 -0.20890453 0.055717252
0.0851098 -0.015996972 -0.020935873 0.16084334 0.20840706 -0.038577862 -0.017472606 0.03472735
0.124509856 0.041825358 0.0033730066 -0.028520117 0.13561745 0.18188785 -0.10591655 -0.08475295
-0.16920371 -0.082217775 0.002532096 0.05888539 0.21564414 -0.056219574 0.024362106 0.14904626
-0.08289656 -0.16403975 0.07499709 0.065434694 0.11239823 0.0047623757 0.11391795 0.13028361
0.07276241 0.14066146 0.016570637 0.20502903 -0.008856984 -0.21770875 -0.124517195 0.08718416
0.08037187 -0.03089327 -0.12165935 0.05234884 0.032919604 0.18457235 0.20001154 -0.13628733
0.015608981 0.07689266 0.0552741 -0.17494032 0.41766632 0.331212 -0.013912816 0.079578176
0.12564291 -0.16019936 0.020371921 -0.05587338 0.5741726 -0.13782746 0.12381505 -0.05325411
0.022454634 -0.20236014 0.0139221735 -0.042753693 0.0996688 0.14539844 0.17428257 0.24130586
-0.07730998 -0.048682027 -0.047124043 0.056467805 0.2647054 -0.03866491 0.0971718 0.06103324
0.12221845 0.3294316 -0.25299054 -0.1483588 -0.10841732 -0.052389104 -0.06415745 -0.14571601
0.058621705 0.045510147 -0.02879363 0.20165488 0.07473317 0.6740811 0.050944477 0.048194192
0.028102351 0.023203585 0.0013359068 -0.18199903 -0.15265644 -0.08853142 -0.1413734 -0.19709204

bias f4 [50]
00000000: ca95 32be d001 64bd 6a3a 6ebd ac0b 08bd
00000010: b754 483d 3243 193e 6fed 2c3d 7ce9 9f3b
00000020: c7c5 39bd ef9c 963d d679 aeb9 54fb 483e
00000030: 458d 1a3e d59c f0bd 32e4 f53d 3997 d9bc
00000040: 41f7 c43d cc10 0e3c 5425 943b af67 3b3e
00000050: 7686 bc3d 5d10 8d3c b72f 553d f718 883d
00000060: 6ef8 eabd a187 fd3b 0610 debd 04a9 cb3d
00000070: 0d02 233e dc1d d93c d14c 19be 1ae5 063e
00000080: 9bc1 aa3d 9ccc 8c3d b6e9 8bbd ca0b 1d3e
00000090: 6e60 3d3e a4af cbbd d449 a1bc 1cfd 06bd
000000a0: d343 28be aa0d 29bd f0df 41bd e6ca 5abd
000000b0: 604b 1fbe 3476 293e 36fc a2bd 59d0 33bd
000000c0: 2f0c fabd 6300 acbb
-0.17439952 -0.05566579 -0.058161177 -0.033214256 0.048908915 0.14967039 0.04221862 0.0048801284
-0.04535463 0.073541515 -0.0003327864 0.19627124 0.15092953 -0.11748663 0.120064154 -0.026561366
0.096174724 0.008670997 0.0045210514 0.18301271 0.09205334 0.017219717 0.052047458 0.06645387
-0.114731655 0.0077371155 -0.108429 0.099443465 0.15918751 0.026503496 -0.1497071 0.13173333
0.083377086 0.06874964 -0.06831686 0.15336528 0.18493816 -0.0994561 -0.019688524 -0.032956228
-0.16432123 -0.041272797 -0.047332704 -0.053416155 -0.15556097 0.16548997 -0.07958262 -0.043899868
-0.12209355 -0.0052490695

mask f4 [50, 50]
00000000: 0000 803f 0000 803f 0000 803f 0000 803f
00000010: 0000 803f 0000 803f 0000 803f 0000 803f
00000020: 0000 803f 0000 803f 0000 803f 0000 803f
00000030: 0000 803f 0000 803f 0000 803f 0000 803f
00000040: 0000 803f 0000 803f 0000 803f 0000 803f
00000050: 0000 803f 0000 803f 0000 803f 0000 803f
00000060: 0000 803f 0000 803f 0000 803f 0000 803f
00000070: 0000 803f 0000 803f 0000 803f 0000 803f
00000080: 0000 803f 0000 803f 0000 803f 0000 803f
00000090: 0000 803f 0000 803f 0000 803f 0000 803f
000000a0: 0000 803f 0000 803f 0000 803f 0000 803f
000000b0: 0000 803f 0000 803f 0000 803f 0000 803f
000000c0: 0000 803f 0000 803f 0000 803f 0000 803f
000000d0: 0000 803f 0000 803f 0000 803f 0000 803f
000000e0: 0000 803f 0000 803f 0000 803f 0000 803f
000000f0: 0000 803f 0000 803f 0000 803f 0000 803f
00000100: 0000 803f 0000 803f 0000 803f 0000 803f
00000110: 0000 803f 0000 803f 0000 803f 0000 803f
00000120: 0000 803f 0000 803f 0000 803f 0000 803f
00000130: 0000 803f 0000 803f 0000 803f 0000 803f
00000140: 0000 803f 0000 803f 0000 803f 0000 803f
00000150: 0000 803f 0000 803f 0000 803f 0000 803f
00000160: 0000 803f 0000 803f 0000 803f 0000 803f
00000170: 0000 803f 0000 803f 0000 803f 0000 803f
00000180: 0000 803f 0000 803f 0000 803f 0000 803f
00000190: 0000 803f 0000 803f 0000 803f 0000 803f
000001a0: 0000 803f 0000 803f 0000 803f 0000 803f
000001b0: 0000 803f 0000 803f 0000 803f 0000 803f
000001c0: 0000 803f 0000 803f 0000 803f 0000 803f
000001d0: 0000 803f 0000 803f 0000 803f 0000 803f
000001e0: 0000 803f 0000 803f 0000 803f 0000 803f
000001f0: 0000 803f 0000 803f 0000 803f 0000 803f
00000200: 0000 803f 0000 803f 0000 803f 0000 803f
00000210: 0000 803f 0000 803f 0000 803f 0000 803f
00000220: 0000 803f 0000 803f 0000 803f 0000 803f
00000230: 0000 803f 0000 803f 0000 803f 0000 803f
00000240: 0000 803f 0000 803f 0000 803f 0000 803f
00000250: 0000 803f 0000 803f 0000 803f 0000 803f
00000260: 0000 803f 0000 803f 0000 803f 0000 803f
00000270: 0000 803f 0000 803f 0000 803f 0000 803f
00000280: 0000 803f 0000 803f 0000 803f 0000 803f
00000290: 0000 803f 0000 803f 0000 803f 0000 803f
000002a0: 0000 803f 0000 803f 0000 803f 0000 803f
000002b0: 0000 803f 0000 803f 0000 803f 0000 803f
000002c0: 0000 803f 0000 803f 0000 803f 0000 803f
000002d0: 0000 803f 0000 803f 0000 803f 0000 803f
000002e0: 0000 803f 0000 803f 0000 803f 0000 803f
000002f0: 0000 803f 0000 803f 0000 803f 0000 803f
00000300: 0000 803f 0000 803f 0000 803f 0000 803f
00000310: 0000 803f 0000 803f 0000 803f 0000 803f
00000320: 0000 803f 0000 803f 0000 803f 0000 803f
00000330: 0000 803f 0000 803f 0000 803f 0000 803f
00000340: 0000 803f 0000 803f 0000 803f 0000 803f
00000350: 0000 803f 0000 803f 0000 803f 0000 803f
00000360: 0000 803f 0000 803f 0000 803f 0000 803f
00000370: 0000 803f 0000 803f 0000 803f 0000 803f
00000380: 0000 803f 0000 803f 0000 803f 0000 803f
00000390: 0000 803f 0000 803f 0000 803f 0000 803f
000003a0: 0000 803f 0000 803f 0000 803f 0000 803f
000003b0: 0000 803f 0000 803f 0000 803f 0000 803f
000003c0: 0000 803f 0000 803f 0000 803f 0000 803f
000003d0: 0000 803f 0000 803f 0000 803f 0000 803f
000003e0: 0000 803f 0000 803f 0000 803f 0000 803f
000003f0: 0000 803f 0000 803f 0000 803f 0000 803f
1.0 1.0 1.0 1.0 1.0 1.0 1.0 1.0
1.0 1.0 1.0 1.0 1.0 1.0 1.0 1.0
1.0 1.0 1.0 1.0 1.0 1.0 1.0 1.0
1.0 1.0 1.0 1.0 1.0 1.0 1.0 1.0
1.0 1.0 1.0 1.0 1.0 1.0 1.0 1.0
1.0 1.0 1.0 1.0 1.0 1.0 1.0 1.0
1.0 1.0 1.0 1.0 1.0 1.0 1.0 1.0
1.0 1.0 1.0 1.0 1.0 1.0 1.0 1.0
1.0 1.0 1.0 1.0 1.0 1.0 1.0 1.0
1.0 1.0 1.0 1.0 1.0 1.0 1.0 1.0
1.0 1.0 1.0 1.0 1.0 1.0 1.0 1.0
1.0 1.0 1.0 1.0 1.0 1.0 1.0 1.0
1.0 1.0 1.0 1.0 1.0 1.0 1.0 1.0
1.0 1.0 1.0 1.0 1.0 1.0 1.0 1.0
1.0 1.0 1.0 1.0 1.0 1.0 1.0 1.0
1.0 1.0 1.0 1.0 1.0 1.0 1.0 1.0
1.0 1.0 1.0 1.0 1.0 1.0 1.0 1.0
1.0 1.0 1.0 1.0 1.0 1.0 1.0 1.0
1.0 1.0 1.0 1.0 1.0 1.0 1.0 1.0
1.0 1.0 1.0 1.0 1.0 1.0 1.0 1.0
1.0 1.0 1.0 1.0 1.0 1.0 1.0 1.0
1.0 1.0 1.0 1.0 1.0 1.0 1.0 1.0
1.0 1.0 1.0 1.0 1.0 1.0 1.0 1.0
1.0 1.0 1.0 1.0 1.0 1.0 1.0 1.0
1.0 1.0 1.0 1.0 1.0 1.0 1.0 1.0
1.0 1.0 1.0 1.0 1.0 1.0 1.0 1.0
1.0 1.0 1.0 1.0 1.0 1.0 1.0 1.0
1.0 1.0 1.0 1.0 1.0 1.0 1.0 1.0
1.0 1.0 1.0 1.0 1.0 1.0 1.0 1.0
1.0 1.0 1.0 1.0 1.0 1.0 1.0 1.0
1.0 1.0 1.0 1.0 1.0 1.0 1.0 1.0
1.0 1.0 1.0 1.0 1.0 1.0 1.0 1.0

weight f4 [4, 50]
00000000: 8453 57bd 3042 743c e788 0abe 6067 ddbb
00000010: d2ba 943d b0b8 6d3d d0e2 ee3c 42d1 10bd
00000020: 6ef1 f93d 3f35 0c3e 6e43 963d 3f82 febd
00000030: acd1 11bd ca72 d33d 988a 333d 82e2 08be
00000040: c1c6 04be 0cdb dbbc 003b da3b a738 093e
00000050: 1e7f dabd 885e b23c be2a c13d 2a65 df3d
00000060: 3b4a 09be f6b2 953d 98cc b03c dc15 873d
00000070: 24d7 26bd 0256 bf3d 0451 e8bc a06e 32bd
00000080: 0487 913d 46ff 66bd a010 5bbc a087 a53b
00000090: 7c6c 29bd 32c3 ae3d 5670 be3d 4000 a73b
000000a0: 1a74 b43d cf2a 04be 3c3c 75bd 22b6 ae3d
000000b0: 72ce fa3d 4ead eb3d 005e b9bb 80aa 5dbb
000000c0: b032 09bd 081c 5e3d a44d cdbd b2fa bf3d
000000d0: b0af 6abc ee15 26bd b26e 69bd d8b4 40bd
000000e0: 14d2 b3bd 1a66 25bd ff00 0abe 08a8 c53c
000000f0: 209a 813c d085 5bbc af83 cbbd 662a f0bd
00000100: b613 5cbd f04e 5abc f80a 1b3d 679c 07be
00000110: ee5a 913d b04e 94bd 08ed 85bc b072 173c
00000120: da01 fb3d 0cb1 f5bd 975d 0cbe f8a2 873c
00000130: 40e3 f0bc 5840 7dbd be3d d7bd 248e d5bd
00000140: f457 da3d e8cf 373d 3009 093c fb90 023e
00000150: b0ac 323c b0b3 043c 966b 08be 313e 013e
00000160: 902d d83c 28a7 323d 46f3 fb3d f2e0 f93d
00000170: dc8d 843d de21 d0bd 9acb 82bd e8aa 8c3c
00000180: 3ed6 b8bd c022 dcbc b0b7 a9bc b2da e73d
00000190: 7f0c 50be 37f9 0bbe 9155 22be ac65 33be
000001a0: 8584 75be a3dc 433e 45ef 48be 56f2 293e
000001b0: e058 67be 8548 0ebe 8d2d 16be 5744 fc3d
000001c0: c8bb 563e 4dc7 643e c870 5a3e 8cda 093e
000001d0: 3994 5e3e 9f8e cd3d ff7f 0bbe bd23 333e
000001e0: 070d 19be 2205 523e d6e9 fe3d 9c67 10be
000001f0: d2c5 e9bd f1a0 2bbe 9ffc 4cbe b593 5a3e
00000200: 693c da3d d144 f43d a8ee 5cbe 9807 3e3e
00000210: 3dc9 1abe d9a7 45be b71c 0abe b193 d73d
00000220: 9ab5 463e 324b f6bd 24d6 2bbe 2bc6 203e
00000230: 0449 59be fcb2 383e 392f 8dbe 5f5d 14be
00000240: eceb c7bd 9d0e d13d cecb 2dbe c9e9 583e
00000250: 0613 d3bd e39b 673e d5c6 3abd 57db ecbd
00000260: 5072 773d 2429 9b3d 82a2 72bc 1187 bbbd
00000270: 8d9d 813d 2732 093e 7376 94bd e077 a43d
00000280: bc4e 023d c7a9 acbb 23ed acbb a691 42bd
00000290: 508d 68bd d6fd 6a3d 9629 28bd 26b4 003d
000002a0: 7ec0 cfbd cfd2 a2bb 1a22 e53d bfef ec3d
000002b0: 884a 0ebe 3cd9 913d 4b99 92bd 466b 653b
000002c0: 32ba 2abd f638 8b3d b9a6 19bd b03e ccbd
000002d0: 6c1c a9bb a248 493d a473 efbc c15d a63d
000002e0: 075e b93d 766e 06be 5cc7 003e 640d 053e
000002f0: cd0f 063d 807e 0d3d 1fc8 c83b 8601 fdbd
00000300: 6a3c f93d 0db1 adbd 5e13 21bd 2016 20bd
00000310: 3b81 d2bd 6a7b 203e e44b d3bd 7772 63bd
-0.05256988 0.014908358 -0.13528787 -0.006756708 0.07262196 0.05803746 0.029160887 -0.035355814
0.12204252 0.13692187 0.0733708 -0.12427186 -0.03560035 0.10324629 0.043833345 -0.13367656
-0.12966444 -0.026837848 0.0066598654 0.13400517 -0.10668777 0.021773592 0.094319806 0.109079674
-0.13407223 0.07309525 0.021581933 0.06595966 -0.040732518 0.093425766 -0.028358944 -0.04356253
0.0710583 -0.05639579 -0.013370663 0.005051568 -0.041363224 0.08533324 0.0929877 0.0050964653
0.08811207 -0.12906955 -0.059871897 0.08530833 0.122464076 0.115076646 -0.0056569576 -0.003382355
-0.033495605 0.05422595 -0.100245744 0.09373988 -0.014324114 -0.040548258 -0.056990333 -0.047047466
-0.087803036 -0.040380575 -0.13476942 0.024127975 0.015820563 -0.013398603 -0.09937226 -0.11726837
-0.053729735 -0.013324484 0.037852257 -0.13243257 0.070974216 -0.07241571 -0.016348377 0.009243652
0.122562125 -0.1199666 -0.13707577 0.016557202 -0.029405236 -0.06182894 -0.10509823 -0.10427502
0.10661307 0.04487601 0.008364007 0.12750618 0.01090543 0.008099481 -0.13322291 0.1262138
0.026388913 0.043616444 0.1230226 0.12201108 0.0647237 -0.1016271 -0.0638649 0.017171338
-0.090252385 -0.026872039 -0.020717472 0.1132101 -0.20317267 -0.13669287 -0.15852953 -0.17519253
-0.23976333 0.19127135 -0.19622524 0.1659635 -0.22592497 -0.13894852 -0.14665814 0.12317722
0.2097007 0.22341652 0.21332085 0.13462275 0.2173623 0.100369684 -0.13623045 0.17494102
-0.14946376 0.2050977 0.124469444 -0.14102024 -0.11414684 -0.16760613 -0.20018242 0.21345408
0.106560536 0.11927188 -0.21575415 0.18557584 -0.15115829 -0.1930231 -0.13487516 0.10526217
0.19405213 -0.12026061 -0.16780907 0.15700595 -0.2121926 0.18037027 -0.2757509 -0.14488743
-0.097617954 0.102078654 -0.16972277 0.21182932 -0.10306363 0.2261806 -0.045599777 -0.11565273
0.06041175 0.07576206 -0.014809253 -0.09156621 0.063288786 0.13398038 -0.07249155 0.08030677
0.03181337 -0.0052692625 -0.0052772923 -0.047502182 -0.05677539 0.057370983 -0.041055284 0.031421803
-0.10144137 -0.004968978 0.11188145 0.115691654 -0.13895619 0.07121512 -0.071581446 0.0035006567
-0.041681476 0.06797974 -0.037512515 -0.09972894 -0.005160859 0.049141534 -0.029229946 0.08123351
0.090511374 -0.13128075 0.1257605 0.1299339 0.032729913 0.034544468 0.006127372 -0.12353806
0.12169726 -0.084810354 -0.03932511 -0.0390836 -0.10278555 0.15672079 -0.10317209 -0.055529084

bias f4 [4]
00000000: 4701 d73d 74f2 913d 6a4a aebd f6ac aabd
0.104982905 0.071263224 -0.08510287 -0.08333771

mask f4 [4, 50]
00000000: 0000 0000 0000 0000 0000 0000 0000 0000
00000010: 0000 0000 0000 0000 0000 0000 0000 0000
00000020: 0000 0000 0000 0000 0000 0000 0000 0000
00000030: 0000 0000 0000 0000 0000 0000 0000 0000
00000040: 0000 0000 0000 0000 0000 0000 0000 0000
00000050: 0000 0000 0000 0000 0000 0000 0000 0000
00000060: 0000 0000 0000 0000 0000 0000 0000 0000
00000070: 0000 0000 0000 0000 0000 0000 0000 0000
00000080: 0000 0000 0000 0000 0000 0000 0000 0000
00000090: 0000 0000 0000 0000 0000 0000 0000 0000
000000a0: 0000 0000 0000 0000 0000 0000 0000 0000
000000b0: 0000 0000 0000 0000 0000 0000 0000 0000
000000c0: 0000 0000 0000 0000 0000 0000 0000 0000
000000d0: 0000 0000 0000 0000 0000 0000 0000 0000
000000e0: 0000 0000 0000 0000 0000 0000 0000 0000
000000f0: 0000 0000 0000 0000 0000 0000 0000 0000
00000100: 0000 0000 0000 0000 0000 0000 0000 0000
00000110: 0000 0000 0000 0000 0000 0000 0000 0000
00000120: 0000 0000 0000 0000 0000 0000 0000 0000
00000130: 0000 0000 0000 0000 0000 0000 0000 0000
00000140: 0000 0000 0000 0000 0000 0000 0000 0000
00000150: 0000 0000 0000 0000 0000 0000 0000 0000
00000160: 0000 0000 0000 0000 0000 0000 0000 0000
00000170: 0000 0000 0000 0000 0000 0000 0000 0000
00000180: 0000 0000 0000 0000 0000 0000 0000 0000
00000190: 0000 803f 0000 803f 0000 803f 0000 803f
000001a0: 0000 803f 0000 803f 0000 803f 0000 803f
000001b0: 0000 803f 0000 803f 0000 803f 0000 803f
000001c0: 0000 803f 0000 803f 0000 803f 0000 803f
000001d0: 0000 803f 0000 803f 0000 803f 0000 803f
000001e0: 0000 803f 0000 803f 0000 803f 0000 803f
000001f0: 0000 803f 0000 803f 0000 803f 0000 803f
00000200: 0000 803f 0000 803f 0000 803f 0000 803f
00000210: 0000 803f 0000 803f 0000 803f 0000 803f
00000220: 0000 803f 0000 803f 0000 803f 0000 803f
00000230: 0000 803f 0000 803f 0000 803f 0000 803f
00000240: 0000 803f 0000 803f 0000 803f 0000 803f
00000250: 0000 803f 0000 803f 0000 803f 0000 803f
00000260: 0000 803f 0000 803f 0000 803f 0000 803f
00000270: 0000 803f 0000 803f 0000 803f 0000 803f
00000280: 0000 803f 0000 803f 0000 803f 0000 803f
00000290: 0000 803f 0000 803f 0000 803f 0000 803f
000002a0: 0000 803f 0000 803f 0000 803f 0000 803f
000002b0: 0000 803f 0000 803f 0000 803f 0000 803f
000002c0: 0000 803f 0000 803f 0000 803f 0000 803f
000002d0: 0000 803f 0000 803f 0000 803f 0000 803f
000002e0: 0000 803f 0000 803f 0000 803f 0000 803f
000002f0: 0000 803f 0000 803f 0000 803f 0000 803f
00000300: 0000 803f 0000 803f 0000 803f 0000 803f
00000310: 0000 803f 0000 803f 0000 803f 0000 803f
0.0 0.0 0.0 0.0 0.0 0.0 0.0 0.0
0.0 0.0 0.0 0.0 0.0 0.0 0.0 0.0
0.0 0.0 0.0 0.0 0.0 0.0 0.0 0.0
0.0 0.0 0.0 0.0 0.0 0.0 0.0 0.0
0.0 0.0 0.0 0.0 0.0 0.0 0.0 0.0
0.0 0.0 0.0 0.0 0.0 0.0 0.0 0.0
0.0 0.0 0.0 0.0 0.0 0.0 0.0 0.0
0.0 0.0 0.0 0.0 0.0 0.0 0.0 0.0
0.0 0.0 0.0 0.0 0.0 0.0 0.0 0.0
0.0 0.0 0.0 0.0 0.0 0.0 0.0 0.0
0.0 0.0 0.0 0.0 0.0 0.0 0.0 0.0
0.0 0.0 0.0 0.0 0.0 0.0 0.0 0.0
0.0 0.0 0.0 0.0 1.0 1.0 1.0 1.0
1.0 1.0 1.0 1.0 1.0 1.0 1.0 1.0
1.0 1.0 1.0 1.0 1.0 1.0 1.0 1.0
1.0 1.0 1.0 1.0 1.0 1.0 1.0 1.0
1.0 1.0 1.0 1.0 1.0 1.0 1.0 1.0
1.0 1.0 1.0 1.0 1.0 1.0 1.0 1.0
1.0 1.0 1.0 1.0 1.0 1.0 1.0 1.0
1.0 1.0 1.0 1.0 1.0 1.0 1.0 1.0
1.0 1.0 1.0 1.0 1.0 1.0 1.0 1.0
1.0 1.0 1.0 1.0 1.0 1.0 1.0 1.0
1.0 1.0 1.0 1.0 1.0 1.0 1.0 1.0
1.0 1.0 1.0 1.0 1.0 1.0 1.0 1.0
1.0 1.0 1.0 1.0 1.0 1.0 1.0 1.0

weight f4 [50, 2]
00000000: f66b 33be d732 8ebe 0a41 203e e735 323f
00000010: 74d1 eabe 643b 04bf 6480 16bf 066c d53e
00000020: 32cd 81be 34b1 b8be b3f7 97bd fee1 08bf
00000030: 2d81 273e c690 ff3e 9a38 6d3d ed2e 213f
00000040: 2499 223f 1871 0dbf b9ff 12bf 8bdb 113f
00000050: efed 0b3f 7845 103e 90e8 a23c 4091 4dbd
00000060: 73b7 063f 985c 8ebd 85c1 d9be 801d 833b
00000070: 7275 d6be 400a bcbd 242c 343e b89a fcbd
00000080: 510f 68be 7ae9 a33e 4b81 c0be a0a3 213e
00000090: e080 08bf 809b 133d da6b 8c3e 199d 1abf
000000a0: cf3e 0c3f 22d0 c03e de83 fbbc 90df 31bd
000000b0: 59d3 78be d85e 8d3d a280 2a3e 58d9 d03d
000000c0: 6cad f13e cf6d 163f 1c1f d5be fde6 e6be
000000d0: 02ff 12be 5c0b 163e 8e49 b53e 42c5 2cbf
000000e0: 8edb 0cbf afc1 003f f79e dd3e bbd9 2a3f
000000f0: 4910 073f acba eebe 7708 8b3e 8140 0f3f
00000100: fa2e efbd e81f 543e 1bb9 11bf c0c8 683e
00000110: bfe7 d23e e2f6 15bf 3458 2a3f f345 17bf
00000120: a273 143e e7c1 093f 4366 8bbe 66a1 d6be
00000130: 9b06 a53e 5672 bb3e 0711 ba3e b9b4 1f3f
00000140: 543a 6a3b d830 e2bd 6b29 ce3e 6567 043f
00000150: ef6e 0ebf bd68 313f c8b4 923d 787f 59be
00000160: 4e11 72be 18b5 26be 67c8 113f 00ac bcbe
00000170: a868 86be b9b0 99be da44 bb3e d9f0 b7be
00000180: 15b9 af3c 5a78 c53e 38d6 1ebe 2463 01bf
-0.17521653 -0.27773163 0.1564981 0.696135 -0.45862925 -0.5165312 -0.5878966 0.41683978
-0.25351864 -0.36072695 -0.07420292 -0.53469837 0.1635787 0.4991514 0.057915308 0.6296223
0.63514924 -0.5525069 -0.5742145 0.5697562 0.5465993 0.14089 0.019886285 -0.05018735
0.5262367 -0.069512546 -0.42530456 0.0040013194 -0.4188648 -0.091816425 0.17594963 -0.12334198
-0.22662093 0.32014066 -0.37598643 0.15785074 -0.5332165 0.03603697 0.27426034 -0.6039596
0.5478334 0.37658793 -0.030702528 -0.043426096 -0.24299373 0.06902856 0.16650632 0.10197705
0.47202623 0.58761305 -0.41625297 -0.45098105 -0.1435509 0.14652771 0.3540768 -0.6748849
-0.55022514 0.5029554 0.43285343 0.6673848 0.52759224 -0.46626794 0.27154896 0.559578
-0.11678882 0.20715296 -0.56923074 0.2273283 0.41192433 -0.5857984 0.6654084 -0.5909111
0.14497235 0.53811496 -0.27226457 -0.41920012 0.32231602 0.3661067 0.36341116 0.62385136
0.0035740333 -0.110444725 0.40265974 0.5172027 -0.5563802 0.6930044 0.071633875 -0.21240032
-0.23639414 -0.1628002 0.56946415 -0.36849976 -0.2625172 -0.3001764 0.36575967 -0.3592594
0.021450559 0.38568383 -0.15511405 -0.505419

bias f4 [50]
00000000: c032 29be 70e4 41bf 9bc2 ee3e 951b 383f
00000010: ca43 8bbd 6b03 c5be 8d49 31bf fc7c 01bf
00000020: 3f0b 26bf b1c1 5cbe 9e88 ed3e 9afe c1bd
00000030: 2172 28bf 5419 3bbf 9c40 223d 7fcf 2bbf
00000040: e9ee 073f f5a1 e1bc 9f81 4d3c e836 8c3d
00000050: a239 1f3e 1502 58be 922f 813e 3bff cf3e
00000060: e282 f13e d106 1d3d 310e 2dbf a3bd cfbe
00000070: 9465 27bf 2680 98be 0c26 033f 2502 bcbe
00000080: 9c6f 3e3f d2f9 b33e cf78 09bd 12db 14bf
00000090: 03c8 ee3e 4484 eb3e 19da 0ebf b9d3 d13e
000000a0: 2579 a3be 1782 dbbe 3961 333e 8903 90be
000000b0: 5ed1 db3e ff51 fe3e 04f4 e5be 9111 bc3e
000000c0: 8064 003e 275c 993e
-0.16523266 -0.7573919 0.46632847 0.71917087 -0.06800039 -0.3847917 -0.69252855 -0.50581336
-0.6486091 -0.21558262 0.46393293 -0.094723895 -0.65799147 -0.7308552 0.039612398 -0.6711349
0.5309892 -0.027543047 0.012543111 0.0684641 0.15549329 -0.21094544 0.25231606 0.40624413
0.47170168 0.03833658 -0.6759978 -0.4057437 -0.6538937 -0.2978527 0.5122993 -0.36720386
0.7438905 0.35151535 -0.033562478 -0.58146775 0.46636972 0.45999348 -0.5580154 0.40981844
-0.31928363 -0.42872688 0.17517556 -0.28127697 0.42933172 0.49671933 -0.44912732 0.36732152
0.12538338 0.2995312

mask f4 [50, 2]
00000000: 0000 803f 0000 0000 0000 803f 0000 0000
00000010: 0000 803f 0000 0000 0000 803f 0000 0000
00000020: 0000 803f 0000 0000 0000 803f 0000 0000
00000030: 0000 803f 0000 0000 0000 803f 0000 0000
00000040: 0000 803f 0000 0000 0000 803f 0000 0000
00000050: 0000 803f 0000 0000 0000 803f 0000 0000
00000060: 0000 803f 0000 0000 0000 803f 0000 0000
00000070: 0000 803f 0000 0000 0000 803f 0000 0000
00000080: 0000 803f 0000 0000 0000 803f 0000 0000
00000090: 0000 803f 0000 0000 0000 803f 0000 0000
000000a0: 0000 803f 0000 0000 0000 803f 0000 0000
000000b0: 0000 803f 0000 0000 0000 803f 0000 0000
000000c0: 0000 803f 0000 0000 0000 803f 0000 0000
000000d0: 0000 803f 0000 0000 0000 803f 0000 0000
000000e0: 0000 803f 0000 0000 0000 803f 0000 0000
000000f0: 0000 803f 0000 0000 0000 803f 0000 0000
00000100: 0000 803f 0000 0000 0000 803f 0000 0000
00000110: 0000 803f 0000 0000 0000 803f 0000 0000
00000120: 0000 803f 0000 0000 0000 803f 0000 0000
00000130: 0000 803f 0000 0000 0000 803f 0000 0000
00000140: 0000 803f 0000 0000 0000 803f 0000 0000
00000150: 0000 803f 0000 0000 0000 803f 0000 0000
00000160: 0000 803f 0000 0000 0000 803f 0000 0000
00000170: 0000 803f 0000 0000 0000 803f 0000 0000
00000180: 0000 803f 0000 0000 0000 803f 0000 0000
1.0 0.0 1.0 0.0 1.0 0.0 1.0 0.0
1.0 0.0 1.0 0.0 1.0 0.0 1.0 0.0
1.0 0.0 1.0 0.0 1.0 0.0 1.0 0.0
1.0 0.0 1.0 0.0 1.0 0.0 1.0 0.0
1.0 0.0 1.0 0.0 1.0 0.0 1.0 0.0
1.0 0.0 1.0 0.0 1.0 0.0 1.0 0.0
1.0 0.0 1.0 0.0 1.0 0.0 1.0 0.0
1.0 0.0 1.0 0.0 1.0 0.0 1.0 0.0
1.0 0.0 1.0 0.0 1.0 0.0 1.0 0.0
1.0 0.0 1.0 0.0 1.0 0.0 1.0 0.0
1.0 0.0 1.0 0.0 1.0 0.0 1.0 0.0
1.0 0.0 1.0 0.0 1.0 0.0 1.0 0.0
1.0 0.0 1.0 0.0
