03b/GPS_1256775418/model_ai_seed_101.pth (torch, 278418 bytes, 76 tensors)

_shift f4 [2]
000000 70 e9 25 40 a5 d1 dc bf
       2.592373 -1.7251478

_scale f4 [2]
000000 9e 1e 32 3e 99 ea 5d 40
       0.17394492 3.4674437

weight f4 [50, 2]
000000 c1 79 8c 3e 8d cf 22 3f ab e8 b6 bd 88 a4 fc 3d
       0.2743664 0.6359795 -0.08931097 0.12336069
000010 de e5 da 3e 51 a7 2c bf b1 ec a8 3c a9 35 21 3f
       0.427535 -0.67442805 0.020620676 0.62972504
000020 90 1d 14 3f 20 8f 68 bd e3 dd 0b bf 5c 12 65 3e
       0.5785761 -0.05677712 -0.5463545 0.22370285
000030 68 02 1c bf 40 b5 93 bd 41 d3 1a 3c 82 eb e7 3e
       -0.6094117 -0.07212305 0.009449781 0.45296866
000040 45 91 1d be 50 12 8a 3d c6 a5 1c 3f fa be 90 3e
       -0.15387447 0.06741774 0.6119045 0.28270704
000050 87 95 74 3e a2 45 c3 3e 3c cb be 3e e0 37 ce bc
       0.23885165 0.38139063 0.3726443 -0.025173128
000060 95 77 17 bf 45 14 1a 3f 9b 6d 92 be 31 53 32 3f
       -0.5916684 0.6018718 -0.28599247 0.6965819
000070 17 d6 22 bd 36 cb d2 3e 16 4b 03 bd 09 cc bf be
       -0.039754953 0.41170663 -0.03205403 -0.37460354
000080 a9 99 a3 3d d0 c4 12 bf d3 1d c0 3e e0 28 04 bf
       0.07988293 -0.5733156 0.37522754 -0.5162487
000090 00 aa 30 be 6d f3 0f 3f b9 f6 e7 be 9c 60 64 3e
       -0.1725235 0.56230813 -0.45305422 0.22302479
0000a0 9b f5 87 be 70 b3 75 3d 3b 59 ea be 57 2f 0a 3f
       -0.2655457 0.059985578 -0.45771202 0.53978485
0000b0 ca 3d 59 3d 38 ce c7 3d 26 f7 7e be fc de 1e 3e
       0.053037442 0.0975613 -0.24898967 0.1551475
0000c0 7f 5d 91 be b8 81 b9 3d 24 32 33 3f 5e 00 e4 3e
       -0.28391644 0.09057945 0.69998384 0.4453153
0000d0 16 e8 5a 3e 50 c6 1a 3e b2 78 01 3f 18 45 f0 be
       0.21377596 0.15114713 0.5057479 -0.46927714
0000e0 fc 79 5f 3c 60 21 94 3c b8 19 e6 be 98 e5 01 bf
       0.013639923 0.01808232 -0.44941497 -0.5074096
0000f0 27 ec 3a be d0 75 d2 bd ce 2a d3 3b 0a 71 f6 be
       -0.18254147 -0.10276377 0.0064443117 -0.48133117
000100 ba 2c b4 3e 78 16 b0 3d 14 69 1b be 65 9e 29 bf
       0.35190374 0.085980356 -0.15176803 -0.66257316
000110 28 eb 15 bf f1 af 23 3f a0 09 3b bf d8 a4 8d 3d
       -0.58561945 0.6394034 -0.7306156 0.06916207
000120 92 2c 20 bf d7 ee 2a bf 1d 63 16 3f a0 1b 71 3d
       -0.6256801 -0.6677069 0.58744985 0.058864236
000130 73 ab 48 bf c0 0c 9e be be 4f 3e 3f a0 91 b5 3c
       -0.7838661 -0.30869102 0.74340427 0.022164166
000140 51 99 51 3e 86 8e 31 bf cc 90 c7 be 28 71 70 be
       0.20468642 -0.693581 -0.3897766 -0.23480666
000150 84 55 22 3f 72 23 a9 3e e0 e1 16 3f d3 fc e5 be
       0.63411736 0.33034855 0.5893841 -0.44919452
000160 b9 5e a5 bc c2 6e 98 3e 3b 10 fe be 44 29 9c be
       -0.020186769 0.29772002 -0.49621758 -0.30500233
000170 6b 44 1b 3f 09 e4 0d 3f f3 35 75 3d 9d 2a 1e bf
       0.6065127 0.5542608 0.059865903 -0.6178377
000180 fc 0d c6 3e 6b f0 07 3f a0 49 0b bf 56 01 f3 3e
       0.38682544 0.53101224 -0.5440922 0.47461957

bias f4 [50]
000000 35 67 8a 3e c8 83 ce be 35 fa 93 be 71 c5 03 bf
       0.27031866 -0.40334916 -0.2890183 -0.51473147
000010 dd a5 57 be 15 55 23 bf ed 1d df 3e ec 55 a8 3e
       -0.21059366 -0.638017 0.4357752 0.32878053
000020 bf e2 24 bf 91 93 44 3f 61 32 00 bf a7 40 9f 3e
       -0.6440849 0.7678767 -0.5007687 0.31104013
000030 1d d6 48 3f 11 72 57 be ad 49 aa bd 68 1e f9 be
       0.7845171 -0.21039607 -0.08314834 -0.4865601
000040 e9 6a 12 be 77 4a 36 3f c0 5f 19 bf e3 5e 46 be
       -0.14298595 0.71207374 -0.5991173 -0.19372134
000050 5a 47 b1 be 10 32 01 3e e0 06 2e 3f e4 1f ca be
       -0.3462475 0.12616754 0.6797924 -0.39477456
000060 9f 1d 5c bd 9f 23 05 be a8 60 c1 3d 25 84 0b be
       -0.053739186 -0.1300187 0.09442264 -0.13624628
000070 73 48 6e 3d e2 6f 20 3f d4 0c 91 be 6c 2a 1d bf
       0.05817456 0.6267072 -0.283301 -0.61392856
000080 86 a9 f9 be 81 22 24 3f f0 bd e3 be 4f 57 13 3f
       -0.4876215 0.6411515 -0.44480848 0.575551
000090 f1 cc c9 bd 9b 15 00 bf 0a c6 1a bf 51 01 2c be
       -0.098535426 -0.5003297 -0.60458434 -0.16797377
0000a0 6f 4c 72 bc ce b6 ba 3d 0d 8d a8 be be 19 bb be
       -0.014788731 0.091168985 -0.32920113 -0.36543077
0000b0 8b 39 9f be 0d bc d1 3e a1 0c 14 be 5c bc 37 3d
       -0.3109859 0.40963784 -0.14457943 0.044857368
0000c0 d5 bc 16 3f 2b 69 4c 3e
       0.58881885 0.19961993

mask f4 [50, 2]
000000 00 00 80 3f 00 00 00 00 00 00 80 3f 00 00 00 00
       1.0 0.0 1.0 0.0
000010 00 00 80 3f 00 00 00 00 00 00 80 3f 00 00 00 00
       1.0 0.0 1.0 0.0
000020 00 00 80 3f 00 00 00 00 00 00 80 3f 00 00 00 00
       1.0 0.0 1.0 0.0
000030 00 00 80 3f 00 00 00 00 00 00 80 3f 00 00 00 00
       1.0 0.0 1.0 0.0
000040 00 00 80 3f 00 00 00 00 00 00 80 3f 00 00 00 00
       1.0 0.0 1.0 0.0
000050 00 00 80 3f 00 00 00 00 00 00 80 3f 00 00 00 00
       1.0 0.0 1.0 0.0
000060 00 00 80 3f 00 00 00 00 00 00 80 3f 00 00 00 00
       1.0 0.0 1.0 0.0
000070 00 00 80 3f 00 00 00 00 00 00 80 3f 00 00 00 00
       1.0 0.0 1.0 0.0
000080 00 00 80 3f 00 00 00 00 00 00 80 3f 00 00 00 00
       1.0 0.0 1.0 0.0
000090 00 00 80 3f 00 00 00 00 00 00 80 3f 00 00 00 00
       1.0 0.0 1.0 0.0
0000a0 00 00 80 3f 00 00 00 00 00 00 80 3f 00 00 00 00
       1.0 0.0 1.0 0.0
0000b0 00 00 80 3f 00 00 00 00 00 00 80 3f 00 00 00 00
       1.0 0.0 1.0 0.0
0000c0 00 00 80 3f 00 00 00 00 00 00 80 3f 00 00 00 00
       1.0 0.0 1.0 0.0
0000d0 00 00 80 3f 00 00 00 00 00 00 80 3f 00 00 00 00
       1.0 0.0 1.0 0.0
0000e0 00 00 80 3f 00 00 00 00 00 00 80 3f 00 00 00 00
       1.0 0.0 1.0 0.0
0000f0 00 00 80 3f 00 00 00 00 00 00 80 3f 00 00 00 00
       1.0 0.0 1.0 0.0
000100 00 00 80 3f 00 00 00 00 00 00 80 3f 00 00 00 00
       1.0 0.0 1.0 0.0
000110 00 00 80 3f 00 00 00 00 00 00 80 3f 00 00 00 00
       1.0 0.0 1.0 0.0
000120 00 00 80 3f 00 00 00 00 00 00 80 3f 00 00 00 00
       1.0 0.0 1.0 0.0
000130 00 00 80 3f 00 00 00 00 00 00 80 3f 00 00 00 00
       1.0 0.0 1.0 0.0
000140 00 00 80 3f 00 00 00 00 00 00 80 3f 00 00 00 00
       1.0 0.0 1.0 0.0
000150 00 00 80 3f 00 00 00 00 00 00 80 3f 00 00 00 00
       1.0 0.0 1.0 0.0
000160 00 00 80 3f 00 00 00 00 00 00 80 3f 00 00 00 00
       1.0 0.0 1.0 0.0
000170 00 00 80 3f 00 00 00 00 00 00 80 3f 00 00 00 00
       1.0 0.0 1.0 0.0
000180 00 00 80 3f 00 00 00 00 00 00 80 3f 00 00 00 00
       1.0 0.0 1.0 0.0

weight f4 [50, 4]
000000 c7 3a 4b bd b7 b6 84 be 63 97 01 3f 40 5a f8 3e
       -0.0496166 -0.2592065 0.5062162 0.48506355
000010 17 1f d6 3d b4 9c 84 3e 44 55 1c 3f 05 a4 47 be
       0.10455149 0.25900805 0.61067605 -0.19496162
000020 f8 10 6f be 4a 61 8d 3e 92 76 0b 3d 63 59 bc 3e
       -0.23346317 0.27613288 0.034048624 0.36786947
000030 d6 ca d4 bd df 09 c2 3b 67 79 3c 3f 0b 17 42 bd
       -0.103902504 0.005921587 0.73622745 -0.047385257
000040 eb 0c e0 be e3 6c 85 3d f5 27 7c bb 2a 11 88 bd
       -0.43759856 0.06514909 -0.0038475965 -0.06643899
000050 f5 ac ba 3d ad c8 3b 3f 70 3c b9 3e 03 aa 8a bd
       0.0911502 0.7335308 0.36178923 -0.067707084
000060 58 99 1f 3f ac 35 27 3e c9 17 92 3d 97 00 af 3e
       0.6234336 0.16329068 0.07133443 0.34180138
000070 9d 94 ac be a2 39 c3 3e 7d 73 9a be 9d 91 d8 bd
       -0.33707133 0.38129908 -0.30166236 -0.105746485
000080 41 19 4d 3e df 41 71 be 69 fb 77 3c 8e 69 a6 be
       0.20029165 -0.23560284 0.015135624 -0.32502407
000090 5a 7d df be 58 0d 15 3d 3b e1 6f 3e da 30 63 3e
       -0.43650323 0.03638968 0.23425762 0.22186604
0000a0 a9 ba 27 3e e4 3c 11 3f ca d7 97 be 3f 3e b8 3e
       0.16379799 0.56733537 -0.2965682 0.3598499
0000b0 2a b1 41 bd ad 4d de 3e 14 45 04 3d 73 b3 91 3e
       -0.047288097 0.43418637 0.03229244 0.2845722
0000c0 63 d7 9a be 2d d7 d7 bd ce b7 81 be 2c 9f 62 bd
       -0.30242452 -0.105390884 -0.25335544 -0.05532758
0000d0 d8 65 0f be 16 83 a0 3e 31 12 92 3e b1 7a e3 3e
       -0.14003694 0.3135001 0.28529504 0.44429544
0000e0 2a 08 22 be 8b 9f bd be d5 ad 37 3e 3c 67 df 3e
       -0.15823427 -0.37035784 0.17937405 0.4363345
0000f0 cf 5f 9c 3d 22 fb 09 bd 7c ab 92 3e ab 1f 05 3e
       0.076354615 -0.033686765 0.28646457 0.13000362
000100 ac f9 e2 be 95 77 5b 3e 87 8e 09 be e7 21 80 bc
       -0.4433111 0.21432336 -0.13433276 -0.015641166
000110 59 b6 f1 bd 2a c3 03 bf 53 78 c3 3d b5 05 4f 3e
       -0.11802358 -0.5146967 0.095444344 0.20217021
000120 36 9a 94 3e 6c c8 03 be e6 f9 6f 3e 3b 22 95 3d
       0.29023904 -0.12869424 0.23435172 0.072819196
000130 01 8a 31 3e c3 39 84 bd 8b a4 a2 be d6 54 67 be
       0.173378 -0.0645633 -0.3176616 -0.22590956
000140 22 ac e0 bb 7f 40 cf 3e de 75 9c be cc 8b e8 bd
       -0.0068564573 0.40478894 -0.30558676 -0.11354789
000150 a3 a9 84 be f5 6d 28 bf 5e 15 56 bc 63 a9 8d bd
       -0.25910673 -0.6579278 -0.013066618 -0.069170736
000160 62 a4 af 3d 67 b9 9c 3e ca 7d a6 bd 05 cf 5e 3d
       0.085762754 0.306102 -0.08129461 0.054396648
000170 df ed 4b 3e 6a 29 d3 be 53 a9 6e 3c 7f a4 f4 3e
       0.1991496 -0.41242534 0.014566737 0.4778175
000180 9c 7b 1a bf c1 1f 5e 3d 7c df 19 bf 51 2a 20 bd
       -0.6034486 0.0542295 -0.60106635 -0.039102856
000190 71 c0 e7 3e 5b 16 44 3e 4f 5f df be c3 e8 a8 be
       0.4526401 0.19149153 -0.43627402 -0.32990083
0001a0 96 d1 c1 be 73 60 bd 3e b5 e5 ba 3b 24 f2 b3 3d
       -0.37855214 0.36987647 0.0057036527 0.08786419
0001b0 30 61 84 3e d3 2b 81 be b9 13 00 bf 47 2e d7 be
       0.25855398 -0.25228748 -0.50030094 -0.42027494
0001c0 ec c5 8b 3d 9d c0 1b 3d e0 04 ff be f3 3a 6e 3d
       0.0682486 0.038025487 -0.49808407 0.058161687
0001d0 20 8a e8 be b3 75 84 be 28 b6 58 bd 8e bf 73 3e
       -0.4541788 -0.25871047 -0.052908093 0.23803541
0001e0 3f 7b 9f bd 22 aa a8 3e d4 40 72 3e 74 1b 89 3e
       -0.07787179 0.329423 0.23657542 0.26778758
0001f0 c4 c1 d6 be 35 b3 18 bd 61 f2 03 3e 8c a0 38 be
       -0.41944706 -0.03728028 0.12885429 -0.18029994
000200 de c3 e5 3d b2 92 06 3e 13 01 b7 3e da 55 49 be
       0.11218999 0.13141897 0.35743007 -0.19661656
000210 48 d4 8f be 19 65 b8 3e a3 10 bd bc f9 c2 c1 be
       -0.28091645 0.3601463 -0.023079222 -0.37844065
000220 e8 e9 2a 3e fb 1a da 3e 94 fc 0f 3e 8f ce ea 3e
       0.1669079 0.4259871 0.14061195 0.45860717
000230 fd a0 00 3f b2 24 e4 be ca 45 d5 3c 27 e6 fe 3e
       0.5024565 -0.44559246 0.026034255 0.49784967
000240 f5 2e 1a 3e 77 48 69 3d e4 a7 9e be 1f bb 61 be
       0.15056975 0.056953873 -0.30987465 -0.22044037
000250 c3 b0 08 be 92 9c f7 bd ab d7 be bd cc af 86 3e
       -0.13348679 -0.1209041 -0.09318479 0.26305997
000260 ef 3d 87 3d 97 cc 23 be 17 18 a3 be 24 9e af be
       0.0660361 -0.15996014 -0.31854317 -0.3430034
000270 5f 1c 86 bd 84 63 ac be 7d e2 bc bd 27 8b 6a be
       -0.0654838 -0.33669674 -0.09222887 -0.22904645
000280 69 79 a4 3e 8b 08 8b bd 9c 9d ee 3d fd c4 43 be
       0.3212388 -0.06788739 0.11651155 -0.19118114
000290 51 a7 c8 3e 56 b7 16 bf 8c 88 57 be e4 17 69 bd
       0.39190152 -0.588735 -0.21048182 -0.05690755
0002a0 e5 25 bc be 5d c7 e3 3e 82 dc d5 bd 2b b0 32 be
       -0.3674766 0.4448804 -0.10442449 -0.17450015
0002b0 3f 3f 86 bd 06 bd e1 3e f7 5a 83 3d c5 a8 d3 3e
       -0.06555032 0.44089526 0.064138345 0.41339698
0002c0 92 4a a4 bd ac 1d 67 3e 6e 78 e5 bd a2 3c 96 3e
       -0.08022036 0.22569913 -0.11204611 0.29343134
0002d0 31 37 e9 3e f5 83 3b 3d 60 bf 2e be 80 a5 05 3e
       0.4554992 0.04578014 -0.17065191 0.13051414
0002e0 f6 6a 71 39 2f fe 22 bd 86 31 a0 bc 6e a7 9e be
       0.00023023397 -0.03979319 -0.019554865 -0.30987114
0002f0 59 51 1d bf 3a bd 02 bd fd 6c 2c 3e 09 3a 8c 3e
       -0.6145225 -0.03191874 0.1683845 0.27388027
000300 ed 4b 39 3c e5 8e 83 3e 0d 5d 75 3e 01 25 c0 be
       0.011309606 0.25694957 0.23961277 -0.37528232
000310 68 d9 19 3e d3 a1 a2 3e 5b 42 9d 3e 5c 70 80 bd
       0.1502434 0.31764087 0.30714688 -0.06271431

bias f4 [50]
000000 2b 38 80 3e 94 27 94 bd a8 f8 66 3e 76 91 94 bd
       0.25042853 -0.072341114 0.22555792 -0.07254307
000010 c1 c0 9e be 94 cd 80 be 98 6e f4 3e 8f 19 cb bd
       -0.31006435 -0.25156844 0.47740626 -0.09916984
000020 b6 a8 ee 3e 6b 7b a1 be d3 77 8c 3e 42 23 42 bd
       0.4661309 -0.31539473 0.2743517 -0.047396906
000030 c1 e1 e7 3e 97 d8 a3 3e b6 14 47 bc 0a 1e b0 be
       0.45289424 0.32001182 -0.012150934 -0.34397918
000040 18 71 7a 3e c6 bd 93 3e 73 de ae 3e 9d 80 77 be
       0.24457204 0.28855723 0.3415409 -0.24170156
000050 0a a7 d3 be 2d ff 55 be 22 1b d9 3b 04 5e f7 3e
       -0.41338378 -0.20898123 0.006625549 0.48313916
000060 dc d4 4e bd a0 09 0e bf 29 d0 dc be e8 8f 94 be
       -0.050495967 -0.55483437 -0.43127564 -0.29016042
000070 6c b4 38 3e 73 44 01 3f e9 ab ee 3d 81 1c 44 bd
       0.18037575 0.5049507 0.11653883 -0.047878746
000080 a4 9d 4b 3e 08 41 88 3d fd 2b f4 be f8 72 db 3e
       0.19884354 0.06653029 -0.4768981 0.42861152
000090 9d d1 4c be 82 f6 8d bd 43 ad e7 be 76 cd 8f 3d
       -0.20001836 -0.06931783 -0.45249376 0.070216104
0000a0 c0 f8 65 be 09 7b b7 bd 5f 4d ae 3e b8 27 31 3e
       -0.22458172 -0.08959014 0.34043404 0.17300308
0000b0 aa 27 c2 be 9c 2b 84 3e e9 e6 37 be 83 9c 59 3e
       -0.37920886 0.2581452 -0.17959179 0.2125111
0000c0 fd dc d8 3e 9c 8d 03 be
       0.423561 -0.12846988

weight f4 [50, 50]
000000 11 fc a1 3d 62 0b 55 3e 05 0c ae 3d 69 4c c2 3d
       0.07909406 0.20805123 0.08498386 0.0948723
000010 26 6d 89 3e f7 0c 04 3d 7e 21 3a be a5 3e f3 bc
       0.26841086 0.032238927 -0.18176839 -0.029692957
000020 02 b6 8d 3d f0 75 ea 3b 6d fb 3a 3e a1 24 0f 3e
       0.06919481 0.0071551725 0.18259974 0.13978817
000030 ef 29 89 3b 23 54 ec bd 50 ac f0 bd d1 70 85 3d
       0.004185907 -0.11539485 -0.11751616 0.06515659
000040 0e fb b3 bc d7 a7 39 bd 0a f4 ec 3c b6 bc 1e bd
       -0.021970298 -0.04532608 0.02892496 -0.038754188
000050 58 57 86 3d 32 10 0f be 6d 3c 25 bd be 19 49 bd
       0.06559628 -0.13971022 -0.04034083 -0.049096815
000060 e3 86 35 bd 33 af 86 3e d4 81 24 3e 76 05 3b 3e
       -0.04431809 0.2630554 0.1606515 0.18263802
000070 d3 b6 75 be 3e f7 93 bd 09 b3 19 bd 60 8f dc 3d
       -0.23995523 -0.07224892 -0.037524257 0.10769534
000080 f1 b5 a1 3e 96 57 b7 3d 87 7e f6 bd ba f4 34 be
       0.31584123 0.089522526 -0.12035852 -0.17671481
000090 8f f6 27 be d9 e2 a5 3d e4 39 80 3d 59 6c 94 3e
       -0.16402648 0.080999084 0.06261042 0.28988913
0000a0 cf de ec 3c ae ad 64 be 3e dc a0 3e 0f 82 79 3e
       0.028914837 -0.22331879 0.3141803 0.2436602
0000b0 ea 0a 38 bd e4 e7 83 be 59 10 1e 3e e1 ee 28 3d
       -0.044932283 -0.25762856 0.15435924 0.041243438
0000c0 58 84 95 bc b1 ef 2f be a4 85 ca 3c e9 d4 56 3d
       -0.018251583 -0.17181279 0.024721928 0.05244914
0000d0 5c ec b8 3d 1b 99 28 3c 81 19 0c 3d f4 2f 4f be
       0.09029457 0.010290409 0.03420401 -0.20233136
0000e0 ab 9c bb bd 12 92 66 bd 13 8e 18 be ec 2e 35 3c
       -0.091607414 -0.056291647 -0.14897947 0.01105855
0000f0 f7 2f c9 3d 8c c7 71 bc 87 20 70 3d db 91 db bd
       0.09823602 -0.014757048 0.05862477 -0.10721179
000100 65 d0 34 ba e6 da 01 3e be 1b 35 3d 7d f0 fc 3d
       -0.0006897508 0.1268116 0.04421591 0.12350557
000110 93 38 96 bd f5 2b a7 3b 36 38 7a 3c 38 73 4b bb
       -0.073350094 0.0051016756 0.015272191 -0.0031044018
000120 bd d6 84 bd 43 fc 6b bd be 43 fc bc 16 ca 97 bd
       -0.064862706 -0.057613622 -0.03079402 -0.07411592
000130 b9 3f d5 3d 3d 02 d8 bd 3f 44 b7 3d dd 01 3e 3d
       0.10412545 -0.10547302 0.08948564 0.046388496
000140 3a fd ec bd d2 f3 f3 bc a8 4a b6 bc f5 ab c4 bc
       -0.11571737 -0.029779349 -0.022252396 -0.024007777
000150 d0 d0 16 bd 0e 4a 99 3c a1 5c 29 3d 29 d5 2e bd
       -0.036820233 0.01871207 0.041348103 -0.042683754
000160 fa a6 8a bd 8d cc f5 bd 6c 1e 21 3e 3d 3c 08 bd
       -0.067701295 -0.120019056 0.15734261 -0.033260573
000170 67 ff ba 3d d0 31 f0 bd 16 a6 d1 3d 72 cf 9d 3d
       0.091307454 -0.11728251 0.102367565 0.07705583
000180 68 f3 e8 bd 66 6c ed bd 6c c2 05 bd 13 ea 5c 3d
       -0.11374551 -0.11592941 -0.03265612 0.053934168
000190 b3 43 0f bd fe 77 bb 3d 3a 88 87 3d e0 34 ca 3d
       -0.034976672 0.09153746 0.0661778 0.09873366
0001a0 fa b8 4f 3d 45 6f ce 3d 9f 81 6e 3d 59 16 30 3d
       0.050713517 0.10079817 0.058229085 0.042990062
0001b0 03 47 fd 3d 7e 0b 01 3e 77 ec 0b 3e 3e ae a0 3c
       0.1236706 0.1260204 0.13664423 0.019614335
0001c0 aa 31 3f 3b e2 81 9a bc 42 6b c2 3c 00 52 00 3e
       0.002917389 -0.018860761 0.023732785 0.1253128
0001d0 51 a5 a7 bd e4 2c 0f 3e 81 28 3a 3d 7c d3 a3 3d
       -0.081858285 0.13981968 0.045448784 0.07999322
0001e0 d2 0a 04 be d9 bd c3 bc 63 59 d5 3c de 57 b8 3d
       -0.12894753 -0.023894237 0.0260436 0.09001134
0001f0 c6 04 43 be 9f 7b 44 bd a7 00 c3 3d 82 98 bb 3c
       -0.1904479 -0.047969457 0.09521609 0.02289987
000200 b5 c4 ef bd 37 06 98 3d 50 f5 c8 bd 3d 3b cf 3c
       -0.11707441 0.074230604 -0.09812415 0.025296802
000210 9b 53 2f 3e b0 7c ea bd bb d6 6c bd 25 23 35 3e
       0.17121737 -0.114495635 -0.05782197 0.17689188
000220 d5 da 32 3b 75 3b 12 3d d5 e7 5f be 46 0f d3 bd
       0.0027291079 0.035701234 -0.2186578 -0.103056476
000230 5f b3 bd 3d a7 73 87 bc 98 1e cf 3d e1 c7 df bb
       0.09262728 -0.01653464 0.10113257 -0.0068292473
000240 c1 0b b1 bc f2 06 bc 3d 25 5e 74 bd df da c1 bc
       -0.02161205 0.09181012 -0.059660096 -0.023663936
000250 7f 06 d7 3d 56 a9 e0 3d d9 d2 0e 3d fa 2b 0e 3e
       0.10499286 0.10969798 0.03486905 0.13883963
000260 69 51 49 3d b7 c5 03 3e 2e ab 18 be 4c 7e d0 3b
       0.049149904 0.12868391 -0.1490905 0.006362712
000270 30 af b9 3a 8f 9f 81 bb 96 fc dc 3d 4f 17 1c bd
       0.001416659 -0.0039557884 0.107903644 -0.038108166
000280 75 49 de bd 9f 90 c1 3d 5b b5 27 3e a8 04 c5 3d
       -0.108538546 0.094514124 0.16377775 0.09620029
000290 a6 d8 d2 3d a0 43 03 3e 21 c2 2c 3c 17 f1 0d be
       0.10295229 0.12818766 0.010544331 -0.138615
0002a0 56 ba a8 3d ee cd fd 3c 58 39 15 3c 4f 2a 58 be
       0.08238666 0.030981984 0.00910791 -0.2110989
0002b0 ca 46 b9 bd 5b d4 97 3d ef a6 2b bd a3 f9 37 bd
       -0.09046705 0.074135505 -0.041907247 -0.044915807
0002c0 6b 88 b9 3c 62 1b cc 3c 3b 56 69 3d b7 cb d0 bd
       0.022648057 0.0249154 0.056967 -0.101951055
0002d0 a0 d5 8c bd ba e9 a9 3d 3e cf a7 bd c9 a0 c3 bd
       -0.06876683 0.08296533 -0.08193825 -0.09552152
0002e0 b9 d2 91 bd ff b6 47 3e 76 d3 09 be 04 79 24 bd
       -0.0712027 0.19503401 -0.13459572 -0.040154472
0002f0 57 91 db bd 5e 5e 1c be c4 67 5d bd c2 c7 10 be
       -0.10721081 -0.15270373 -0.054054037 -0.14138702
000300 f1 e5 05 bd de 8f d6 bd bc 3b d3 3d 4a a4 55 bd
       -0.032689992 -0.10476659 0.10314128 -0.05215863
000310 f0 81 4f 3d e7 23 bb 3d d4 d4 e2 3d 08 1b 2c be
       0.050661027 0.09137707 0.1107575 -0.16807187
000320 5c 04 23 bd ce f3 43 be b4 62 24 3d b1 9f 52 be
       -0.03979908 -0.19135973 0.040133193 -0.2056873
000330 80 57 12 3e bc 30 8f bd 0b 62 d1 bc da 7a 5e bd
       0.14291191 -0.06991717 -0.025559446 -0.05431638
000340 d6 7f ad 3d 84 e9 6a bd e0 39 ee 3d 6e e5 1b 3d
       0.084716484 -0.057351604 0.116321325 0.038060598
000350 ea 65 a0 bd bb bd 11 3e 56 98 08 be 99 8a ba bd
       -0.078319386 0.14232533 -0.13339362 -0.09108467
000360 25 0d c4 bd 7e f7 86 3d 87 6a 0d be 82 bd cd 3d
       -0.095728196 0.06590174 -0.13810168 0.10045911
000370 39 9b 26 be f9 43 9d 3b a0 3a 2f 3e 69 a4 64 3b
       -0.1627015 0.0047993627 0.17112207 0.0034888035
000380 b0 d0 6e 3d 35 66 ec 3d 49 6f d1 ba 61 c9 da bd
       0.05830449 0.11542932 -0.00159786 -0.10682941
000390 32 ba d9 3d 92 52 ee 3c 5e 3b ea 3c 22 dd 1a bd
       0.10631217 0.029092107 0.028592762 -0.037808545
0003a0 75 7f 53 bd 66 f8 b6 bc 05 43 b8 3d 54 61 78 3d
       -0.051635224 -0.022335242 0.08997158 0.060639694
0003b0 07 47 87 3d e8 2a cf 3d 79 8b f0 3d e8 13 26 3e
       0.06605344 0.101156056 0.11745352 0.16218531
0003c0 4e 71 6d bd 2f 45 3f 3e fe 15 11 bb a5 10 26 be
       -0.057969384 0.18678735 -0.0022138353 -0.16217287
0003d0 d9 5f a0 bb 0a d0 03 be f8 05 14 3e 49 3e 05 be
       -0.0048942384 -0.1287233 0.14455402 -0.13012041
0003e0 aa 38 fb 3d 3d a5 88 3d 2c 2f f0 3d d5 57 8f bc
       0.12266667 0.06672142 0.11727747 -0.017497936
0003f0 84 0b d6 3c f7 45 32 3d aa 17 9a 3c 51 12 d5 3d
       0.026128538 0.043523755 0.018810112 0.10403884

bias f4 [50]
000000 aa dd 9d bc 6c 00 24 be da fd 16 bd 2c 13 9d 3d
       -0.019270737 -0.16015786 -0.036863185 0.07669672
000010 4e ca 33 3d 47 5a 13 be d1 6d aa 3d 77 7d 10 3e
       0.043894105 -0.14389907 0.08321727 0.14110361
000020 1c 0f 97 bd a5 e2 2b ba 19 1c 13 3e 10 86 e7 3d
       -0.07375929 -0.0006556905 0.14366187 0.11304867
000030 67 1f 4b bc bb 17 c9 bd cd 26 e7 bd 7f 54 13 be
       -0.012397624 -0.09818979 -0.112866975 -0.14387701
000040 16 7c 3d bc 24 c3 19 3d 21 ed 2b bd ef 9f 18 be
       -0.011565229 0.037539616 -0.04197419 -0.1490476
000050 52 93 36 be 12 ef 99 bd 57 55 be bd 97 0a 15 3e
       -0.17829636 -0.07516302 -0.09293621 0.14554821
000060 74 5c d1 3c 83 18 75 3d d7 48 11 be b6 e4 15 bc
       0.02555678 0.05983783 -0.14187942 -0.009148767
000070 c1 a3 20 bc 32 e0 9e 3d 51 cc a7 3d 52 e5 ca bd
       -0.009804667 0.077576056 0.08193267 -0.09907021
000080 cc 84 7a bd 24 d6 3b bd c0 c0 f9 bd 63 5a 02 3e
       -0.0611618 -0.045858517 -0.12194967 0.12729792
000090 b3 0e ea bc 3a 88 cd bd 31 2d 64 3d 55 29 88 3d
       -0.028571462 -0.10035749 0.05570716 0.066485085
0000a0 31 ea 0f 3d 21 d6 78 3d 20 cf bc bd a0 18 b4 3d
       0.03513545 0.060751084 -0.092191935 0.08793759
0000b0 c4 91 d8 3d e2 96 5c 3d 9a c9 2f 3e ad 75 2d 3e
       0.105746776 0.05385483 0.17166749 0.16939421
0000c0 9b 59 21 be 2f 1b af 3d
       -0.15756838 0.08550107

mask f4 [50, 50]
000000 00 00 80 3f 00 00 80 3f 00 00 80 3f 00 00 80 3f
       1.0 1.0 1.0 1.0
000010 00 00 80 3f 00 00 80 3f 00 00 80 3f 00 00 80 3f
       1.0 1.0 1.0 1.0
000020 00 00 80 3f 00 00 80 3f 00 00 80 3f 00 00 80 3f
       1.0 1.0 1.0 1.0
000030 00 00 80 3f 00 00 80 3f 00 00 80 3f 00 00 80 3f
       1.0 1.0 1.0 1.0
000040 00 00 80 3f 00 00 80 3f 00 00 80 3f 00 00 80 3f
       1.0 1.0 1.0 1.0
000050 00 00 80 3f 00 00 80 3f 00 00 80 3f 00 00 80 3f
       1.0 1.0 1.0 1.0
000060 00 00 80 3f 00 00 80 3f 00 00 80 3f 00 00 80 3f
       1.0 1.0 1.0 1.0
000070 00 00 80 3f 00 00 80 3f 00 00 80 3f 00 00 80 3f
       1.0 1.0 1.0 1.0
000080 00 00 80 3f 00 00 80 3f 00 00 80 3f 00 00 80 3f
       1.0 1.0 1.0 1.0
000090 00 00 80 3f 00 00 80 3f 00 00 80 3f 00 00 80 3f
       1.0 1.0 1.0 1.0
0000a0 00 00 80 3f 00 00 80 3f 00 00 80 3f 00 00 80 3f
       1.0 1.0 1.0 1.0
0000b0 00 00 80 3f 00 00 80 3f 00 00 80 3f 00 00 80 3f
       1.0 1.0 1.0 1.0
0000c0 00 00 80 3f 00 00 80 3f 00 00 80 3f 00 00 80 3f
       1.0 1.0 1.0 1.0
0000d0 00 00 80 3f 00 00 80 3f 00 00 80 3f 00 00 80 3f
       1.0 1.0 1.0 1.0
0000e0 00 00 80 3f 00 00 80 3f 00 00 80 3f 00 00 80 3f
       1.0 1.0 1.0 1.0
0000f0 00 00 80 3f 00 00 80 3f 00 00 80 3f 00 00 80 3f
       1.0 1.0 1.0 1.0
000100 00 00 80 3f 00 00 80 3f 00 00 80 3f 00 00 80 3f
       1.0 1.0 1.0 1.0
000110 00 00 80 3f 00 00 80 3f 00 00 80 3f 00 00 80 3f
       1.0 1.0 1.0 1.0
000120 00 00 80 3f 00 00 80 3f 00 00 80 3f 00 00 80 3f
       1.0 1.0 1.0 1.0
000130 00 00 80 3f 00 00 80 3f 00 00 80 3f 00 00 80 3f
       1.0 1.0 1.0 1.0
000140 00 00 80 3f 00 00 80 3f 00 00 80 3f 00 00 80 3f
       1.0 1.0 1.0 1.0
000150 00 00 80 3f 00 00 80 3f 00 00 80 3f 00 00 80 3f
       1.0 1.0 1.0 1.0
000160 00 00 80 3f 00 00 80 3f 00 00 80 3f 00 00 80 3f
       1.0 1.0 1.0 1.0
000170 00 00 80 3f 00 00 80 3f 00 00 80 3f 00 00 80 3f
       1.0 1.0 1.0 1.0
000180 00 00 80 3f 00 00 80 3f 00 00 80 3f 00 00 80 3f
       1.0 1.0 1.0 1.0
000190 00 00 80 3f 00 00 80 3f 00 00 80 3f 00 00 80 3f
       1.0 1.0 1.0 1.0
0001a0 00 00 80 3f 00 00 80 3f 00 00 80 3f 00 00 80 3f
       1.0 1.0 1.0 1.0
0001b0 00 00 80 3f 00 00 80 3f 00 00 80 3f 00 00 80 3f
       1.0 1.0 1.0 1.0
0001c0 00 00 80 3f 00 00 80 3f 00 00 80 3f 00 00 80 3f
       1.0 1.0 1.0 1.0
0001d0 00 00 80 3f 00 00 80 3f 00 00 80 3f 00 00 80 3f
       1.0 1.0 1.0 1.0
0001e0 00 00 80 3f 00 00 80 3f 00 00 80 3f 00 00 80 3f
       1.0 1.0 1.0 1.0
0001f0 00 00 80 3f 00 00 80 3f 00 00 80 3f 00 00 80 3f
       1.0 1.0 1.0 1.0
000200 00 00 80 3f 00 00 80 3f 00 00 80 3f 00 00 80 3f
       1.0 1.0 1.0 1.0
000210 00 00 80 3f 00 00 80 3f 00 00 80 3f 00 00 80 3f
       1.0 1.0 1.0 1.0
000220 00 00 80 3f 00 00 80 3f 00 00 80 3f 00 00 80 3f
       1.0 1.0 1.0 1.0
000230 00 00 80 3f 00 00 80 3f 00 00 80 3f 00 00 80 3f
       1.0 1.0 1.0 1.0
000240 00 00 80 3f 00 00 80 3f 00 00 80 3f 00 00 80 3f
       1.0 1.0 1.0 1.0
000250 00 00 80 3f 00 00 80 3f 00 00 80 3f 00 00 80 3f
       1.0 1.0 1.0 1.0
000260 00 00 80 3f 00 00 80 3f 00 00 80 3f 00 00 80 3f
       1.0 1.0 1.0 1.0
000270 00 00 80 3f 00 00 80 3f 00 00 80 3f 00 00 80 3f
       1.0 1.0 1.0 1.0
000280 00 00 80 3f 00 00 80 3f 00 00 80 3f 00 00 80 3f
       1.0 1.0 1.0 1.0
000290 00 00 80 3f 00 00 80 3f 00 00 80 3f 00 00 80 3f
       1.0 1.0 1.0 1.0
0002a0 00 00 80 3f 00 00 80 3f 00 00 80 3f 00 00 80 3f
       1.0 1.0 1.0 1.0
0002b0 00 00 80 3f 00 00 80 3f 00 00 80 3f 00 00 80 3f
       1.0 1.0 1.0 1.0
0002c0 00 00 80 3f 00 00 80 3f 00 00 80 3f 00 00 80 3f
       1.0 1.0 1.0 1.0
0002d0 00 00 80 3f 00 00 80 3f 00 00 80 3f 00 00 80 3f
       1.0 1.0 1.0 1.0
0002e0 00 00 80 3f 00 00 80 3f 00 00 80 3f 00 00 80 3f
       1.0 1.0 1.0 1.0
0002f0 00 00 80 3f 00 00 80 3f 00 00 80 3f 00 00 80 3f
       1.0 1.0 1.0 1.0
000300 00 00 80 3f 00 00 80 3f 00 00 80 3f 00 00 80 3f
       1.0 1.0 1.0 1.0
000310 00 00 80 3f 00 00 80 3f 00 00 80 3f 00 00 80 3f
       1.0 1.0 1.0 1.0
000320 00 00 80 3f 00 00 80 3f 00 00 80 3f 00 00 80 3f
       1.0 1.0 1.0 1.0
000330 00 00 80 3f 00 00 80 3f 00 00 80 3f 00 00 80 3f
       1.0 1.0 1.0 1.0
000340 00 00 80 3f 00 00 80 3f 00 00 80 3f 00 00 80 3f
       1.0 1.0 1.0 1.0
000350 00 00 80 3f 00 00 80 3f 00 00 80 3f 00 00 80 3f
       1.0 1.0 1.0 1.0
000360 00 00 80 3f 00 00 80 3f 00 00 80 3f 00 00 80 3f
       1.0 1.0 1.0 1.0
000370 00 00 80 3f 00 00 80 3f 00 00 80 3f 00 00 80 3f
       1.0 1.0 1.0 1.0
000380 00 00 80 3f 00 00 80 3f 00 00 80 3f 00 00 80 3f
       1.0 1.0 1.0 1.0
000390 00 00 80 3f 00 00 80 3f 00 00 80 3f 00 00 80 3f
       1.0 1.0 1.0 1.0
0003a0 00 00 80 3f 00 00 80 3f 00 00 80 3f 00 00 80 3f
       1.0 1.0 1.0 1.0
0003b0 00 00 80 3f 00 00 80 3f 00 00 80 3f 00 00 80 3f
       1.0 1.0 1.0 1.0
0003c0 00 00 80 3f 00 00 80 3f 00 00 80 3f 00 00 80 3f
       1.0 1.0 1.0 1.0
0003d0 00 00 80 3f 00 00 80 3f 00 00 80 3f 00 00 80 3f
       1.0 1.0 1.0 1.0
0003e0 00 00 80 3f 00 00 80 3f 00 00 80 3f 00 00 80 3f
       1.0 1.0 1.0 1.0
0003f0 00 00 80 3f 00 00 80 3f 00 00 80 3f 00 00 80 3f
       1.0 1.0 1.0 1.0

weight f4 [50, 50]
000000 bf c8 c6 bc db ea f0 3d ab 0e 95 3d 84 6f 04 be
       -0.024265645 0.11763545 0.07278188 -0.12933165
000010 0c 0c da 3c b9 a7 6a bd b8 5d a7 bd b5 20 97 3d
       0.026617073 -0.05728886 -0.08172172 0.07379285
000020 0f fa 44 bd cc 0a fa 3c e9 78 23 bd 34 8b f7 3b
       -0.048090037 0.030522726 -0.03991023 0.007554436
000030 67 55 03 be ab 5b b3 3c cf dc dc 3c b2 f9 10 be
       -0.12825547 0.021894297 0.026960758 -0.14157751
000040 20 be c8 bd c7 61 05 bd df 2d 6a 3d 09 0d 22 3d
       -0.098018885 -0.03256395 0.057172652 0.039563213
000050 50 f6 3c bc 37 b9 0e bc 9b ea e1 bc 82 7c 12 3d
       -0.011533335 -0.008711151 -0.027577689 0.03576327
000060 9d 4d 2d 3e 57 f9 33 bd 30 3f e4 bd 9e d0 32 3d
       0.16924138 -0.04393896 -0.111448646 0.043655984
000070 7a 68 1f be f3 2e 80 bd f9 07 a3 bc 95 2f 61 3c
       -0.15567198 -0.06258955 -0.019901263 0.013744255
000080 00 b0 0f 3d 28 ec 57 3d 03 7f 79 bb b1 b0 5c 3d
       0.035079956 0.05271545 -0.003807009 0.053879444
000090 5d 2c 08 3d 64 5c 9b 3d 3a 08 90 3c b1 4e fc bd
       0.033245433 0.075859815 0.017582048 -0.12319697
0000a0 ad 6d b8 3d 9d 96 0c 3e 09 f5 66 bd de d8 3b 3d
       0.09005294 0.1372933 -0.056386027 0.045861118
0000b0 2a d3 8b 3d 18 4e bd 3c 2c 91 f6 3b ba cd ee bd
       0.06827386 0.023108527 0.00752463 -0.11660333
0000c0 f8 61 11 3d da e1 d1 bd 56 0d 2b 3e fa 0a 81 bd
       0.03549382 -0.10248156 0.16704306 -0.06300922
0000d0 6b 2c 3d bc 68 2b 04 3e a1 c2 70 be 30 7f 3e 3d
       -0.011546235 0.12907183 -0.23511745 0.046508014
0000e0 0c b0 d3 3d 62 be 04 be 87 b3 d7 bc 57 3d 17 bd
       0.10336313 -0.1296325 -0.026330722 -0.036923733
0000f0 3b 7b e7 3d 73 55 06 3e 20 91 28 be ac 5d 0d be
       0.11302801 0.13118534 -0.16461611 -0.13805264
000100 bf f3 1b bd bf de 47 3d 0f cc 00 be 13 4d 45 3b
       -0.03807425 0.04879641 -0.12577842 0.0030105754
000110 cd 89 ca bd 3a 87 10 3e df 57 ac 3d 44 9b 87 bc
       -0.09889565 0.14114085 0.084151976 -0.016553529
000120 77 76 3e 3e fd b9 68 3b 2a b4 00 3e 5a 1c 1b be
       0.18599878 0.0035511248 0.12568727 -0.15147534
000130 9c dc fa bd cc 5e 05 bd 87 78 31 bd 7a f9 ba 3c
       -0.12249109 -0.03256111 -0.043327834 0.022824038
000140 e6 da 5c bc fb 42 5c bd af 0c 1b be 52 ac bf bd
       -0.013479924 -0.053774815 -0.15141557 -0.09359039
000150 66 bd d3 3d e9 5c 24 be 3d e8 12 be 9f 06 66 3e
       0.10338859 -0.16051067 -0.14346404 0.22463463
000160 02 09 0c 3e 6e ea 87 3d 75 ff d3 bd 28 d9 74 be
       0.13675311 0.06636511 -0.10351459 -0.23910964
000170 9c fb d6 bd 2c 03 da bd 6a f7 4c be 74 9d f8 bd
       -0.104972094 -0.10645136 -0.20016256 -0.12139407
000180 ca ad 37 be 00 78 9e bd f0 a6 a4 3d a7 89 39 3c
       -0.17937389 -0.07737732 0.08039653 0.011324323
000190 86 75 e3 3d 46 7e e6 bd 08 ea 2f 3d 16 98 9c 3d
       0.111064 -0.112545535 0.0429478 0.076461956
0001a0 e8 24 02 bd b3 78 28 be 58 5a 3f 3d 84 26 f7 3a
       -0.031773478 -0.16452293 0.046717018 0.0018856083
0001b0 bd 20 a9 3d 22 74 79 bd 1e 3f 7c 3d a8 ed c7 3d
       0.082581975 -0.06090177 0.06158363 0.09762126
0001c0 b6 37 1f 3b fb 8c ff 3d c2 72 24 bd 06 53 d3 bd
       0.002429468 0.12478062 -0.040148504 -0.1031857
0001d0 b6 8c ad 3d dc 1b ba 3d 84 bd c1 3d 3f 5a 8f bd
       0.08474104 0.09087345 0.09459975 -0.06999635
0001e0 36 68 52 3c f8 d7 e9 bd f1 30 0d be 16 ea 03 3e
       0.012842229 -0.11418146 -0.13788201 0.12882265
0001f0 ef d5 d0 bd 22 64 bb bd b1 e6 14 3e d4 81 d3 bc
       -0.101970546 -0.09149958 0.14541127 -0.025818743
000200 0d b1 d1 3d 56 2c 73 3c 54 87 25 3d 9b 43 d7 3a
       0.10238848 0.0148421135 0.040412262 0.0016423346
000210 d4 7c 13 bd b8 aa 1a bc 66 45 3e be 17 e5 01 be
       -0.036007717 -0.009440117 -0.18581161 -0.12685047
000220 9c 56 e9 3d ed fa 82 bd a6 4e 4e bc 3c 3c 2e bd
       0.113934726 -0.063955165 -0.012591993 -0.042537913
000230 64 5e 81 bd 80 2f 9c bd 00 8e 07 be ff 54 cd bb
       -0.06316832 -0.076262474 -0.13237762 -0.006266236
000240 a2 30 15 bd f2 72 b2 bd 66 cc f9 3d c2 b5 17 3e
       -0.036423333 -0.0871333 0.12197189 0.14815429
000250 dc 96 67 bd 3c 0e 74 bd b2 2d ec 3d 8a a0 21 be
       -0.056540355 -0.059583887 0.11532153 -0.15783897
000260 45 22 c7 bd ce f0 64 be f8 67 c9 3c d7 12 8c 3c
       -0.09723333 -0.22357485 0.024585709 0.017098827
000270 e4 56 03 bd 83 6e dc 3d ba a2 b2 bd 3b 1a 21 be
       -0.032065287 0.10763266 -0.08722444 -0.15732662
000280 16 30 2c 3d ac 3c 68 bd 56 69 15 3e 05 2d f1 bc
       0.042038046 -0.056698486 0.14590964 -0.029440412
000290 6b 9a 99 ba c8 fc 28 3d 5e ff a2 b9 c3 0b 9e bd
       -0.0011718994 0.041256696 -0.0003108931 -0.07717087
0002a0 81 41 58 bd ff b9 8e bd 04 b0 db bc f0 56 b7 3d
       -0.052796844 -0.0696907 -0.02681733 0.08952129
0002b0 0e d7 df 3d 1c 6b d7 bd 86 38 22 3e c4 61 f2 bd
       0.1092969 -0.10518476 0.15841874 -0.118350536
0002c0 e0 23 ff bb 4f 76 8d bd 51 bc 4a bd 8e 32 d8 3d
       -0.007786259 -0.06907331 -0.049496 0.105565175
0002d0 be 07 04 3d 43 04 41 3d 69 f7 f8 bd 38 1b e9 3d
       0.032233946 0.047123205 -0.12156565 0.11382145
0002e0 4a fb 94 bc a3 8a bc 3d 67 b8 9a bd 8b da 7c 3c
       -0.01818623 0.0920613 -0.07554703 0.015432964
0002f0 26 f8 62 be b6 02 84 bd 75 15 a2 3d 5c f8 09 3e
       -0.22164974 -0.064458296 0.07914249 0.13473648
000300 19 c1 87 3d 35 d6 4a bd 75 94 98 3c 1f d7 6f 3d
       0.06628627 -0.04952069 0.018625477 0.058554765
000310 3f 75 2f 3d de d6 99 bb 64 9a c9 bd 37 1f 1b be
       0.042836424 -0.0046948036 -0.09843901 -0.15148626
000320 8a d3 56 3d 3a b2 54 3c b8 01 e6 bd 27 7e ad 3d
       0.052447833 0.012981946 -0.112307966 0.08471327
000330 6d 21 73 3d 1b 67 27 3e 9c 46 b3 bd 9d f3 23 3d
       0.05935805 0.16347925 -0.08753702 0.04002725
000340 ad 5a 0b 3d 62 bf 4c 3d d3 f7 0b 3e a0 5d 83 bc
       0.034022022 0.049987204 0.13668756 -0.016035855
000350 75 a9 b0 bd df aa c3 bd 6c 22 70 bd 72 63 8d 3d
       -0.08626071 -0.095540754 -0.058626577 0.06903733
000360 33 57 00 be ad 63 7f bd 67 f0 02 be f8 0b 06 3e
       -0.12533264 -0.062350918 -0.12787019 0.13090503
000370 e3 60 7b 3b b3 2c 7b bc ae 20 07 3a 33 27 4f 3d
       0.003835731 -0.015330481 0.0005154711 0.050574493
000380 55 b4 87 bc 2c d4 cd 3c d3 c0 9f 3d 31 46 dc bd
       -0.016565481 0.025125585 0.0780045 -0.107555754
000390 a6 ff ec 3d bb 33 a4 3d 6f e4 08 be c7 f1 ef bd
       0.115721986 0.08017679 -0.1336839 -0.11716037
0003a0 97 53 5f bc ae 62 9f 3b 21 c3 f8 3d c9 95 12 3e
       -0.013630769 0.0048640585 0.12146593 0.14314951
0003b0 8f cd 89 3c 8f 50 0f be 9c 6c 83 3d c2 e0 84 bd
       0.01682165 -0.13995574 0.064172 -0.06488182
0003c0 9b ab c3 3c 00 95 8e 3d bb 52 37 3d 71 3d 79 3c
       0.023885539 0.06962013 0.044756632 0.015212403
0003d0 1b 87 49 3d 52 5c 73 bd cf 04 0f 3e 83 5a 64 bd
       0.049201112 -0.059414215 0.13966678 -0.05575038
0003e0 52 94 ff 3d 3d 96 2b bd 31 03 05 be 96 d3 97 3d
       0.12479462 -0.041891325 -0.12989499 0.07413404
0003f0 d1 21 26 be 3e 76 c5 3c b8 3a 4e 3d d8 6b bf bd
       -0.16223837 0.024104234 0.050348967 -0.093467414

bias f4 [50]
000000 6c 85 7c 3d 31 2e 36 be ea 15 b3 bd 42 ec 40 3c
       0.06165068 -0.17791058 -0.08744414 0.011775078
000010 04 69 6b bd d3 d9 8e bd ab 6f ac 3a a2 63 0a 3e
       -0.057473198 -0.069751404 0.0013155838 0.1351457
000020 ac 87 6a 3d 86 78 c6 bd 0e 0f b4 3c 0f 6c bb bc
       0.057258293 -0.09690957 0.021979835 -0.022878675
000030 4b 8f b3 bc 7e f9 7c bd 46 2d c8 3d ad 80 3a 3d
       -0.021918913 -0.06176137 0.0977426 0.04553287
000040 46 9f c8 bd 05 99 cf bc 03 fc f6 3d ed 91 88 3d
       -0.09796004 -0.02534152 0.12059786 0.06668458
000050 b7 84 17 3e 51 40 d7 bd e1 9d ed 3c f6 46 6e 3d
       0.1479672 -0.10510314 0.029005947 0.058173142
000060 ad c3 84 bd 80 48 0c 3d 61 76 ae bc b3 0a a5 3d
       -0.06482635 0.03424883 -0.021296682 0.08058681
000070 12 43 29 3d a5 22 0b bd 83 28 87 3c 45 fe 8c bc
       0.04132373 -0.033968586 0.01649881 -0.017211089
000080 eb ba eb 3d 71 29 39 be 07 a0 ff bd d7 55 8c bc
       0.11510261 -0.18082215 -0.12481695 -0.017130775
000090 35 e3 bd 3d 96 41 16 be 4a 73 a3 bd 70 d5 c8 bc
       0.09271852 -0.14673457 -0.07980974 -0.024515837
0000a0 7c 17 9a 3d 0b cf da bd c5 a0 36 bd 7d cd 41 3d
       0.075240105 -0.106840216 -0.044586916 0.04731511
0000b0 e9 d2 55 3d 3e 39 84 3d 65 42 da 3d b3 84 99 3b
       0.052203093 0.064562306 0.10657195 0.0046850084
0000c0 84 57 08 3d ea f2 9a bd
       0.033286586 -0.075658634

mask f4 [50, 50]
000000 00 00 80 3f 00 00 80 3f 00 00 80 3f 00 00 80 3f
       1.0 1.0 1.0 1.0
000010 00 00 80 3f 00 00 80 3f 00 00 80 3f 00 00 80 3f
       1.0 1.0 1.0 1.0
000020 00 00 80 3f 00 00 80 3f 00 00 80 3f 00 00 80 3f
       1.0 1.0 1.0 1.0
000030 00 00 80 3f 00 00 80 3f 00 00 80 3f 00 00 80 3f
       1.0 1.0 1.0 1.0
000040 00 00 80 3f 00 00 80 3f 00 00 80 3f 00 00 80 3f
       1.0 1.0 1.0 1.0
000050 00 00 80 3f 00 00 80 3f 00 00 80 3f 00 00 80 3f
       1.0 1.0 1.0 1.0
000060 00 00 80 3f 00 00 80 3f 00 00 80 3f 00 00 80 3f
       1.0 1.0 1.0 1.0
000070 00 00 80 3f 00 00 80 3f 00 00 80 3f 00 00 80 3f
       1.0 1.0 1.0 1.0
000080 00 00 80 3f 00 00 80 3f 00 00 80 3f 00 00 80 3f
       1.0 1.0 1.0 1.0
000090 00 00 80 3f 00 00 80 3f 00 00 80 3f 00 00 80 3f
       1.0 1.0 1.0 1.0
0000a0 00 00 80 3f 00 00 80 3f 00 00 80 3f 00 00 80 3f
       1.0 1.0 1.0 1.0
0000b0 00 00 80 3f 00 00 80 3f 00 00 80 3f 00 00 80 3f
       1.0 1.0 1.0 1.0
0000c0 00 00 80 3f 00 00 80 3f 00 00 80 3f 00 00 80 3f
       1.0 1.0 1.0 1.0
0000d0 00 00 80 3f 00 00 80 3f 00 00 80 3f 00 00 80 3f
       1.0 1.0 1.0 1.0
0000e0 00 00 80 3f 00 00 80 3f 00 00 80 3f 00 00 80 3f
       1.0 1.0 1.0 1.0
0000f0 00 00 80 3f 00 00 80 3f 00 00 80 3f 00 00 80 3f
       1.0 1.0 1.0 1.0
000100 00 00 80 3f 00 00 80 3f 00 00 80 3f 00 00 80 3f
       1.0 1.0 1.0 1.0
000110 00 00 80 3f 00 00 80 3f 00 00 80 3f 00 00 80 3f
       1.0 1.0 1.0 1.0
000120 00 00 80 3f 00 00 80 3f 00 00 80 3f 00 00 80 3f
       1.0 1.0 1.0 1.0
000130 00 00 80 3f 00 00 80 3f 00 00 80 3f 00 00 80 3f
       1.0 1.0 1.0 1.0
000140 00 00 80 3f 00 00 80 3f 00 00 80 3f 00 00 80 3f
       1.0 1.0 1.0 1.0
000150 00 00 80 3f 00 00 80 3f 00 00 80 3f 00 00 80 3f
       1.0 1.0 1.0 1.0
000160 00 00 80 3f 00 00 80 3f 00 00 80 3f 00 00 80 3f
       1.0 1.0 1.0 1.0
000170 00 00 80 3f 00 00 80 3f 00 00 80 3f 00 00 80 3f
       1.0 1.0 1.0 1.0
000180 00 00 80 3f 00 00 80 3f 00 00 80 3f 00 00 80 3f
       1.0 1.0 1.0 1.0
000190 00 00 80 3f 00 00 80 3f 00 00 80 3f 00 00 80 3f
       1.0 1.0 1.0 1.0
0001a0 00 00 80 3f 00 00 80 3f 00 00 80 3f 00 00 80 3f
       1.0 1.0 1.0 1.0
0001b0 00 00 80 3f 00 00 80 3f 00 00 80 3f 00 00 80 3f
       1.0 1.0 1.0 1.0
0001c0 00 00 80 3f 00 00 80 3f 00 00 80 3f 00 00 80 3f
       1.0 1.0 1.0 1.0
0001d0 00 00 80 3f 00 00 80 3f 00 00 80 3f 00 00 80 3f
       1.0 1.0 1.0 1.0
0001e0 00 00 80 3f 00 00 80 3f 00 00 80 3f 00 00 80 3f
       1.0 1.0 1.0 1.0
0001f0 00 00 80 3f 00 00 80 3f 00 00 80 3f 00 00 80 3f
       1.0 1.0 1.0 1.0
000200 00 00 80 3f 00 00 80 3f 00 00 80 3f 00 00 80 3f
       1.0 1.0 1.0 1.0
000210 00 00 80 3f 00 00 80 3f 00 00 80 3f 00 00 80 3f
       1.0 1.0 1.0 1.0
000220 00 00 80 3f 00 00 80 3f 00 00 80 3f 00 00 80 3f
       1.0 1.0 1.0 1.0
000230 00 00 80 3f 00 00 80 3f 00 00 80 3f 00 00 80 3f
       1.0 1.0 1.0 1.0
000240 00 00 80 3f 00 00 80 3f 00 00 80 3f 00 00 80 3f
       1.0 1.0 1.0 1.0
000250 00 00 80 3f 00 00 80 3f 00 00 80 3f 00 00 80 3f
       1.0 1.0 1.0 1.0
000260 00 00 80 3f 00 00 80 3f 00 00 80 3f 00 00 80 3f
       1.0 1.0 1.0 1.0
000270 00 00 80 3f 00 00 80 3f 00 00 80 3f 00 00 80 3f
       1.0 1.0 1.0 1.0
000280 00 00 80 3f 00 00 80 3f 00 00 80 3f 00 00 80 3f
       1.0 1.0 1.0 1.0
000290 00 00 80 3f 00 00 80 3f 00 00 80 3f 00 00 80 3f
       1.0 1.0 1.0 1.0
0002a0 00 00 80 3f 00 00 80 3f 00 00 80 3f 00 00 80 3f
       1.0 1.0 1.0 1.0
0002b0 00 00 80 3f 00 00 80 3f 00 00 80 3f 00 00 80 3f
       1.0 1.0 1.0 1.0
0002c0 00 00 80 3f 00 00 80 3f 00 00 80 3f 00 00 80 3f
       1.0 1.0 1.0 1.0
0002d0 00 00 80 3f 00 00 80 3f 00 00 80 3f 00 00 80 3f
       1.0 1.0 1.0 1.0
0002e0 00 00 80 3f 00 00 80 3f 00 00 80 3f 00 00 80 3f
       1.0 1.0 1.0 1.0
0002f0 00 00 80 3f 00 00 80 3f 00 00 80 3f 00 00 80 3f
       1.0 1.0 1.0 1.0
000300 00 00 80 3f 00 00 80 3f 00 00 80 3f 00 00 80 3f
       1.0 1.0 1.0 1.0
000310 00 00 80 3f 00 00 80 3f 00 00 80 3f 00 00 80 3f
       1.0 1.0 1.0 1.0
000320 00 00 80 3f 00 00 80 3f 00 00 80 3f 00 00 80 3f
       1.0 1.0 1.0 1.0
000330 00 00 80 3f 00 00 80 3f 00 00 80 3f 00 00 80 3f
       1.0 1.0 1.0 1.0
000340 00 00 80 3f 00 00 80 3f 00 00 80 3f 00 00 80 3f
       1.0 1.0 1.0 1.0
000350 00 00 80 3f 00 00 80 3f 00 00 80 3f 00 00 80 3f
       1.0 1.0 1.0 1.0
000360 00 00 80 3f 00 00 80 3f 00 00 80 3f 00 00 80 3f
       1.0 1.0 1.0 1.0
000370 00 00 80 3f 00 00 80 3f 00 00 80 3f 00 00 80 3f
       1.0 1.0 1.0 1.0
000380 00 00 80 3f 00 00 80 3f 00 00 80 3f 00 00 80 3f
       1.0 1.0 1.0 1.0
000390 00 00 80 3f 00 00 80 3f 00 00 80 3f 00 00 80 3f
       1.0 1.0 1.0 1.0
0003a0 00 00 80 3f 00 00 80 3f 00 00 80 3f 00 00 80 3f
       1.0 1.0 1.0 1.0
0003b0 00 00 80 3f 00 00 80 3f 00 00 80 3f 00 00 80 3f
       1.0 1.0 1.0 1.0
0003c0 00 00 80 3f 00 00 80 3f 00 00 80 3f 00 00 80 3f
       1.0 1.0 1.0 1.0
0003d0 00 00 80 3f 00 00 80 3f 00 00 80 3f 00 00 80 3f
       1.0 1.0 1.0 1.0
0003e0 00 00 80 3f 00 00 80 3f 00 00 80 3f 00 00 80 3f
       1.0 1.0 1.0 1.0
0003f0 00 00 80 3f 00 00 80 3f 00 00 80 3f 00 00 80 3f
       1.0 1.0 1.0 1.0

weight f4 [4, 50]
000000 16 20 f6 bd f4 d8 bb 3d 32 6f 0b bd 22 10 c3 bd
       -0.12017839 0.0917224 -0.03404159 -0.095245615
000010 86 ec 07 be 14 8e ac bd 60 e7 6a 3d 9a 61 93 3d
       -0.1327382 -0.08425537 0.057349563 0.071963504
000020 30 ae 0b 3c 92 bf ba bd 86 37 96 3d 9c a6 24 3d
       0.008525416 -0.091185704 0.07334809 0.040197954
000030 25 5e 96 bd 1e 0a 8a 3d f6 3d 0b be 94 c1 b2 bd
       -0.073421754 0.06740211 -0.13597855 -0.08728328
000040 44 68 39 bd 19 39 90 bd 88 d1 a4 3d 07 75 b6 bd
       -0.04526545 -0.070421405 0.080477774 -0.0890904
000050 16 89 9e 3d e0 66 b7 bb 46 83 81 3d bc dd d6 bc
       0.07740991 -0.0055969805 0.063238665 -0.026228778
000060 80 f6 a5 bb ed af 03 3e 23 42 04 3e 0a 56 e8 3d
       -0.0050647855 0.12860079 0.12915854 0.11344536
000070 68 18 0d 3d 32 0b e3 3d 4e 7f 9f 3d 6e 0b e0 3d
       0.034447104 0.1108612 0.07787953 0.1093968
000080 ab 60 9a bd c0 9a 0d bc f8 95 6f bd 36 bf ab 3d
       -0.07537969 -0.008642852 -0.05849263 0.0838608
000090 b4 ed cc 3d 42 f0 fa bd 18 91 d3 3c 81 c4 98 bd
       0.10006276 -0.12252857 0.025826022 -0.07459355
0000a0 40 b9 04 be 70 ff 4f bd 7b 2a c2 bd db d4 ae bd
       -0.12961292 -0.050780714 -0.09480759 -0.08536693
0000b0 ba 2d b7 bd c8 ee 81 bd b2 18 b8 bd 86 fe 85 3d
       -0.089442685 -0.06344372 -0.08989085 0.06542687
0000c0 c6 81 9e bd 40 00 a3 bc 30 34 bc 3d 63 92 0c 3e
       -0.07739596 -0.01989758 0.091896415 0.13727717
0000d0 df 91 0e 3e 7a 8f 05 be cd 94 d9 bd 1b 00 06 be
       0.13922833 -0.13043013 -0.106240846 -0.13085978
0000e0 ad 1c 0a be fc 54 bd 3d 56 74 2e bd 6a dd c3 3d
       -0.13487501 0.09244725 -0.042591415 0.09563716
0000f0 34 16 ee bc be e0 90 bd 08 af 71 bd 00 49 fb bb
       -0.029063322 -0.07074116 -0.059004813 -0.0076686144
000100 80 bd 3d bb bc 48 8f bd c5 6a 00 be 80 fc f7 bd
       -0.0028952062 -0.06996295 -0.1254073 -0.121087074
000110 b0 0e 5a bd f0 ad b0 3c 98 75 13 3d cd 26 b0 bd
       -0.053236663 0.021567315 0.036000818 -0.08601151
000120 a0 ae b9 3c a8 d3 45 3d 6a b9 ff bd e8 3c 9c bd
       0.022666276 0.048297554 -0.12486537 -0.076288044
000130 c2 d0 eb 3d 5c d3 7c 3d f6 85 a6 bd 6e 06 0c bd
       0.11514427 0.061725006 -0.0813102 -0.03418582
000140 56 b3 e8 bd f7 97 ce bd 94 1f 85 3d a4 20 0b be
       -0.113623306 -0.10087579 0.06500164 -0.1358667
000150 c4 cb bc bd 0c 6a 23 3d 2c 95 b2 bd 60 6c fb 3b
       -0.09218553 0.039896056 -0.087198585 0.0076728314
000160 8e c4 a9 3d 70 45 6d 3d 53 2b 0d 3e aa f6 07 be
       0.08289443 0.05792755 0.13786058 -0.13277689
000170 4e db c4 3d 34 95 b5 3d a8 29 9b 3c 9c 7f 80 bd
       0.096121415 0.08866349 0.018940762 -0.062743396
000180 38 2a 8a 3c 42 62 c6 bd 19 b0 d6 bd 42 75 58 bd
       0.016865835 -0.0968671 -0.10482807 -0.0528462
000190 8d 44 0a 3d 0e 26 3d be 6e 25 86 3c cf 24 18 3e
       0.03375678 -0.18471548 0.01637527 0.14857791
0001a0 43 4a e6 bb b2 08 4e 3d c1 ca 5d 3d 41 c4 70 39
       -0.0070278957 0.05030126 0.05414844 0.00022961294
0001b0 e1 a9 d4 3d 04 40 96 3d 5f 10 87 bd 67 0f 19 3e
       0.10383964 0.07336429 -0.065949194 0.14947282
0001c0 cf 5f 9f bd f9 3d 15 be d5 47 00 3e 65 ea 85 bd
       -0.07781946 -0.14574422 0.12527402 -0.06538848
0001d0 b4 c2 68 bd 82 d2 d9 bd 63 14 76 3d 2f 63 4a 3d
       -0.05682631 -0.10635854 0.060078036 0.049410995
0001e0 cc df f2 3d 09 85 b0 bc 36 e7 03 3d f2 d6 84 3d
       0.11859092 -0.021547811 0.03220292 0.0648631
0001f0 62 cb a2 bd f0 0a b5 3c 2b 78 e5 bc 76 a9 c8 bc
       -0.079489484 0.022099942 -0.028011402 -0.024494868
000200 b3 47 2b 3e 42 45 2f bd 1b f0 a8 bd 29 f1 06 3e
       0.1672657 -0.04279066 -0.082489215 0.13177933
000210 1f 12 0e 3d 2e cf 24 be 6b 01 bf bd 2d f9 e4 3d
       0.03468525 -0.16094658 -0.09326442 0.11180339
000220 20 c1 6e 3d 16 d4 30 be b7 57 7d be 19 e0 89 3d
       0.058289647 -0.17268404 -0.24740492 0.06732196
000230 1b d2 2c be c3 3d 86 bc 52 73 a3 bc 1f e2 2b 3d
       -0.16877024 -0.016386872 -0.01995245 0.041963693
000240 47 99 19 be c6 07 ee bd 2b cf cb 3d 3d 00 e0 bc
       -0.14999877 -0.116225764 0.099516235 -0.027343864
000250 50 33 e4 3c a1 32 4b 3e 28 66 ef 3c e0 f7 3e 3d
       0.027856499 0.19843532 0.029223517 0.04662311
000260 8d 90 98 3d 1a d4 9e bd b9 f2 97 bd f7 31 06 bb
       0.07449446 -0.07755299 -0.074193425 -0.0020476559
000270 6c 18 d1 3c 83 37 b1 3d 0b df 1b bd 30 44 e4 bd
       0.02552434 0.08653166 -0.038054507 -0.11145818
000280 05 69 87 bd d0 91 5f 3d c8 10 af bb 0f 3c 22 3e
       -0.06611828 0.054582417 -0.0053425767 0.15843223
000290 da 32 b3 bd b0 e1 2a bd a8 cd 35 3c 3e 09 23 bd
       -0.087499335 -0.04171914 0.011096396 -0.039803736
0002a0 5b 1b 14 be ba 45 6e bd bc 5c 9c 3d 65 af 9e bd
       -0.1446356 -0.058171965 0.07634875 -0.077482976
0002b0 f3 52 22 bd 6a 61 dc ba 2c 7a b4 bb 6c c1 96 3d
       -0.039629888 -0.00168137 -0.005507728 0.07361111
0002c0 de 1b c5 bd 5a 77 85 bd ce 87 c5 bc 6f 89 e0 3d
       -0.09624456 -0.06516905 -0.024112608 0.109637134
0002d0 c1 67 ab 3d bc ac ae bd e4 74 18 bc 90 20 de 3c
       0.08369399 -0.0852904 -0.009305213 0.027115136
0002e0 ab 3f b6 bd 1e be 62 bc 3d fb eb bd 2e fc 69 bd
       -0.088988625 -0.013839273 -0.11522529 -0.057125263
0002f0 08 30 04 be 3b 11 72 bb f0 b1 88 bd 54 bc 20 bd
       -0.12908947 -0.003693654 -0.06674564 -0.039242104
000300 b2 fe bf bd bd e2 40 be a0 45 64 bc d2 02 9d 3d
       -0.09374751 -0.18836494 -0.0139326155 0.076665536
000310 58 95 cc bc 82 1e c9 3c 76 86 26 ba 1c a4 ee bd
       -0.024973556 0.02455068 -0.00063524337 -0.11652395

bias f4 [4]
000000 64 62 14 bc 77 11 8b bd 1f 49 94 3d 77 fc c3 3c
       -0.009056661 -0.067904405 0.07240509 0.023924096

mask f4 [4, 50]
000000 00 00 00 00 00 00 00 00 00 00 00 00 00 00 00 00
       0.0 0.0 0.0 0.0
000010 00 00 00 00 00 00 00 00 00 00 00 00 00 00 00 00
       0.0 0.0 0.0 0.0
000020 00 00 00 00 00 00 00 00 00 00 00 00 00 00 00 00
       0.0 0.0 0.0 0.0
000030 00 00 00 00 00 00 00 00 00 00 00 00 00 00 00 00
       0.0 0.0 0.0 0.0
000040 00 00 00 00 00 00 00 00 00 00 00 00 00 00 00 00
       0.0 0.0 0.0 0.0
000050 00 00 00 00 00 00 00 00 00 00 00 00 00 00 00 00
       0.0 0.0 0.0 0.0
000060 00 00 00 00 00 00 00 00 00 00 00 00 00 00 00 00
       0.0 0.0 0.0 0.0
000070 00 00 00 00 00 00 00 00 00 00 00 00 00 00 00 00
       0.0 0.0 0.0 0.0
000080 00 00 00 00 00 00 00 00 00 00 00 00 00 00 00 00
       0.0 0.0 0.0 0.0
000090 00 00 00 00 00 00 00 00 00 00 00 00 00 00 00 00
       0.0 0.0 0.0 0.0
0000a0 00 00 00 00 00 00 00 00 00 00 00 00 00 00 00 00
       0.0 0.0 0.0 0.0
0000b0 00 00 00 00 00 00 00 00 00 00 00 00 00 00 00 00
       0.0 0.0 0.0 0.0
0000c0 00 00 00 00 00 00 00 00 00 00 00 00 00 00 00 00
       0.0 0.0 0.0 0.0
0000d0 00 00 00 00 00 00 00 00 00 00 00 00 00 00 00 00
       0.0 0.0 0.0 0.0
0000e0 00 00 00 00 00 00 00 00 00 00 00 00 00 00 00 00
       0.0 0.0 0.0 0.0
0000f0 00 00 00 00 00 00 00 00 00 00 00 00 00 00 00 00
       0.0 0.0 0.0 0.0
000100 00 00 00 00 00 00 00 00 00 00 00 00 00 00 00 00
       0.0 0.0 0.0 0.0
000110 00 00 00 00 00 00 00 00 00 00 00 00 00 00 00 00
       0.0 0.0 0.0 0.0
000120 00 00 00 00 00 00 00 00 00 00 00 00 00 00 00 00
       0.0 0.0 0.0 0.0
000130 00 00 00 00 00 00 00 00 00 00 00 00 00 00 00 00
       0.0 0.0 0.0 0.0
000140 00 00 00 00 00 00 00 00 00 00 00 00 00 00 00 00
       0.0 0.0 0.0 0.0
000150 00 00 00 00 00 00 00 00 00 00 00 00 00 00 00 00
       0.0 0.0 0.0 0.0
000160 00 00 00 00 00 00 00 00 00 00 00 00 00 00 00 00
       0.0 0.0 0.0 0.0
000170 00 00 00 00 00 00 00 00 00 00 00 00 00 00 00 00
       0.0 0.0 0.0 0.0
000180 00 00 00 00 00 00 00 00 00 00 00 00 00 00 00 00
       0.0 0.0 0.0 0.0
000190 00 00 80 3f 00 00 80 3f 00 00 80 3f 00 00 80 3f
       1.0 1.0 1.0 1.0
0001a0 00 00 80 3f 00 00 80 3f 00 00 80 3f 00 00 80 3f
       1.0 1.0 1.0 1.0
0001b0 00 00 80 3f 00 00 80 3f 00 00 80 3f 00 00 80 3f
       1.0 1.0 1.0 1.0
0001c0 00 00 80 3f 00 00 80 3f 00 00 80 3f 00 00 80 3f
       1.0 1.0 1.0 1.0
0001d0 00 00 80 3f 00 00 80 3f 00 00 80 3f 00 00 80 3f
       1.0 1.0 1.0 1.0
0001e0 00 00 80 3f 00 00 80 3f 00 00 80 3f 00 00 80 3f
       1.0 1.0 1.0 1.0
0001f0 00 00 80 3f 00 00 80 3f 00 00 80 3f 00 00 80 3f
       1.0 1.0 1.0 1.0
000200 00 00 80 3f 00 00 80 3f 00 00 80 3f 00 00 80 3f
       1.0 1.0 1.0 1.0
000210 00 00 80 3f 00 00 80 3f 00 00 80 3f 00 00 80 3f
       1.0 1.0 1.0 1.0
000220 00 00 80 3f 00 00 80 3f 00 00 80 3f 00 00 80 3f
       1.0 1.0 1.0 1.0
000230 00 00 80 3f 00 00 80 3f 00 00 80 3f 00 00 80 3f
       1.0 1.0 1.0 1.0
000240 00 00 80 3f 00 00 80 3f 00 00 80 3f 00 00 80 3f
       1.0 1.0 1.0 1.0
000250 00 00 80 3f 00 00 80 3f 00 00 80 3f 00 00 80 3f
       1.0 1.0 1.0 1.0
000260 00 00 80 3f 00 00 80 3f 00 00 80 3f 00 00 80 3f
       1.0 1.0 1.0 1.0
000270 00 00 80 3f 00 00 80 3f 00 00 80 3f 00 00 80 3f
       1.0 1.0 1.0 1.0
000280 00 00 80 3f 00 00 80 3f 00 00 80 3f 00 00 80 3f
       1.0 1.0 1.0 1.0
000290 00 00 80 3f 00 00 80 3f 00 00 80 3f 00 00 80 3f
       1.0 1.0 1.0 1.0
0002a0 00 00 80 3f 00 00 80 3f 00 00 80 3f 00 00 80 3f
       1.0 1.0 1.0 1.0
0002b0 00 00 80 3f 00 00 80 3f 00 00 80 3f 00 00 80 3f
       1.0 1.0 1.0 1.0
0002c0 00 00 80 3f 00 00 80 3f 00 00 80 3f 00 00 80 3f
       1.0 1.0 1.0 1.0
0002d0 00 00 80 3f 00 00 80 3f 00 00 80 3f 00 00 80 3f
       1.0 1.0 1.0 1.0
0002e0 00 00 80 3f 00 00 80 3f 00 00 80 3f 00 00 80 3f
       1.0 1.0 1.0 1.0
0002f0 00 00 80 3f 00 00 80 3f 00 00 80 3f 00 00 80 3f
       1.0 1.0 1.0 1.0
000300 00 00 80 3f 00 00 80 3f 00 00 80 3f 00 00 80 3f
       1.0 1.0 1.0 1.0
000310 00 00 80 3f 00 00 80 3f 00 00 80 3f 00 00 80 3f
       1.0 1.0 1.0 1.0
