03b/GPS_1256775418/model_ai_seed_42.pth (torch, 278418 bytes, 76 tensors)

_shift f4 [2]
00000000: deab 2740 50e3 dfbf
2.619865 -1.7491245

_scale f4 [2]
00000000: a51a 323e 251f 5f40
0.17392977 3.486276

weight f4 [50, 2]
00000000: e2ed 90bd 1af6 efbe 87c6 233f 79dd d6be
00000010: ee6b c23e c230 c23e 600d 52bf d4af bfbe
00000020: 9612 803d ae5b fabe 4e42 213e 3719 253f
00000030: 12b5 1abf a8cd 1c3e 1dcb 753f 92ee bb3e
00000040: ee55 133f 3027 34bf b80e 2bbe 986c a43d
00000050: d6af 15bf 2694 a33e b34c b3bd f8e5 aa3d
00000060: 8020 37be c046 293e 2306 843f 0236 a63e
00000070: f0b1 0b3f c011 f9bd be68 59bf d81c fdbd
00000080: c114 ee3e ad69 053f 933e 9f3e ccdb 473e
00000090: 43a7 b2be c02f 45bc 55ae efbe 56ae fd3e
000000a0: 6201 1b3f 943b 863e b7c7 153e 72b3 d63e
000000b0: a20c e8be 449f 113e cd6e 11bf 638a 86be
000000c0: 8808 bf3e 0ec7 30bf 6d95 15be 4428 30bf
000000d0: 3605 13be 6e7a 23bf 7ba1 1bbe 3f9c 2ebf
000000e0: c117 16bf ded7 bdbe 4b8d 6bbe c2fd b33e
000000f0: 27c6 0dbf d8aa b5be 9951 81be 20a6 0a3d
00000100: e8ea b43c 80d9 9d3b 6647 7abe 1833 02bf
00000110: 8a95 0b3e 10a2 893e 33e4 7abd fff6 f5be
00000120: f012 1e3f 0fc3 17bf c604 ba3e 8462 19bf
00000130: 9489 7abf 74ff 1dbe 58f2 0abf 085f 21be
00000140: d69f 8d3e 0bbd 0c3f da56 60bf 72f9 993e
00000150: 8dad 31be 4209 afbe db7c b93b 5768 98be
00000160: 87c3 8b3e 062f e1be 97e9 03bf fae2 813e
00000170: c7cf 78be dddd 9cbe b6b0 a0bd 4bf2 83be
00000180: 2444 1dbf 6ad2 e13e 1bd7 8abc fa9d 9d3e
-0.070766225 -0.46867448 0.63974804 -0.41965845 0.3797297 0.37927824 -0.8205166 -0.37438834
0.06253545 -0.4889807 0.1574795 0.644916 -0.6043254 0.15312827 0.9601305 0.36705452
0.57552993 -0.70372295 -0.16704834 0.08028525 -0.5847143 0.31948966 -0.087548636 0.08344644
-0.17883492 0.16530895 1.0314373 0.3246308 0.54568386 -0.12161589 -0.8492545 -0.12359017
0.4650021 0.52114373 0.31102428 0.1951744 -0.34893236 -0.01203531 -0.46812692 0.4954707
0.60548985 0.2621733 0.14626966 0.4193378 -0.45322138 0.14220911 -0.56809694 -0.26277456
0.37311196 -0.69053733 -0.14607783 -0.6881144 -0.14357457 -0.6385869 -0.15198319 -0.6820716
-0.58629996 -0.37078756 -0.23003118 0.3515454 -0.5538048 -0.35481906 -0.25257567 0.033849835
0.022084668 0.004817188 -0.24441299 -0.5085921 0.13631263 0.26881456 -0.061252784 -0.48040006
0.61747646 -0.5928201 0.36331767 -0.5991595 -0.9786618 -0.15429479 -0.5427604 -0.15758908
0.27661008 0.54975957 -0.87632525 0.30073124 -0.1735136 -0.3418675 0.005660636 -0.29767105
0.27297613 -0.4398119 -0.51528305 0.25368482 -0.24298011 -0.30638018 -0.07846205 -0.25770792
-0.614321 0.44105846 -0.016948273 0.3078459

bias f4 [50]
00000000: 2e6a ed3e 1df8 1abe ce1c 263e 8b16 0bbe
00000010: b6f7 1b3e e5a1 18bf 4b01 223f befc 103e
00000020: 97cb 12be 2a55 b0be 4648 6e3e 6061 7f3d
00000030: ba73 0dbf c784 bfbe dda7 66be ac1c 623d
00000040: adae afbe 9cf7 babe 77df 0d3f 08fc 95be
00000050: 4288 ac3c 9d20 273f 6d7a f6be 400a a5bd
00000060: b1e7 29bf 7fc1 77bd f7d1 0f3f 1bce d93b
00000070: c8d2 10be 9ddc 193f 16bc d1be 32ca 353e
00000080: 6fa7 c5be b70b b0bc d489 c2be d6a7 f5be
00000090: 58c9 203f 8be2 853e feeb cc3d 8543 8bbd
000000a0: 584a 0bbf 6024 a53e 8058 6f3e 0c01 653e
000000b0: b511 9d3e bb00 293f 1994 c73e 2afb 0e3f
000000c0: e059 fa3e b9d4 c03e
0.4637007 -0.1513371 0.16221926 -0.13582818 0.15231213 -0.5962203 0.6328322 0.14158913
-0.14335476 -0.34439975 0.23269758 0.062348723 -0.5525471 -0.3740599 -0.22524972 0.055203125
-0.34312955 -0.36517036 0.55419105 -0.29293847 0.021061067 0.6528414 -0.48140278 -0.08058596
-0.6636916 -0.060487267 0.56179756 0.006646884 -0.14142907 0.60102254 -0.4096381 0.17752913
-0.38604304 -0.021489961 -0.3799578 -0.4797961 0.62807226 0.261494 0.100059494 -0.06799988
-0.54410315 0.32254314 0.23373604 0.2236368 0.30677572 0.6601674 0.38980177 0.55851996
0.48896694 0.37662295

mask f4 [50, 2]
00000000: 0000 803f 0000 0000 0000 803f 0000 0000
00000010: 0000 803f 0000 0000 0000 803f 0000 0000
00000020: 0000 803f 0000 0000 0000 803f 0000 0000
00000030: 0000 803f 0000 0000 0000 803f 0000 0000
00000040: 0000 803f 0000 0000 0000 803f 0000 0000
00000050: 0000 803f 0000 0000 0000 803f 0000 0000
00000060: 0000 803f 0000 0000 0000 803f 0000 0000
00000070: 0000 803f 0000 0000 0000 803f 0000 0000
00000080: 0000 803f 0000 0000 0000 803f 0000 0000
00000090: 0000 803f 0000 0000 0000 803f 0000 0000
000000a0: 0000 803f 0000 0000 0000 803f 0000 0000
000000b0: 0000 803f 0000 0000 0000 803f 0000 0000
000000c0: 0000 803f 0000 0000 0000 803f 0000 0000
000000d0: 0000 803f 0000 0000 0000 803f 0000 0000
000000e0: 0000 803f 0000 0000 0000 803f 0000 0000
000000f0: 0000 803f 0000 0000 0000 803f 0000 0000
00000100: 0000 803f 0000 0000 0000 803f 0000 0000
00000110: 0000 803f 0000 0000 0000 803f 0000 0000
00000120: 0000 803f 0000 0000 0000 803f 0000 0000
00000130: 0000 803f 0000 0000 0000 803f 0000 0000
00000140: 0000 803f 0000 0000 0000 803f 0000 0000
00000150: 0000 803f 0000 0000 0000 803f 0000 0000
00000160: 0000 803f 0000 0000 0000 803f 0000 0000
00000170: 0000 803f 0000 0000 0000 803f 0000 0000
00000180: 0000 803f 0000 0000 0000 803f 0000 0000
1.0 0.0 1.0 0.0 1.0 0.0 1.0 0.0
1.0 0.0 1.0 0.0 1.0 0.0 1.0 0.0
1.0 0.0 1.0 0.0 1.0 0.0 1.0 0.0
1.0 0.0 1.0 0.0 1.0 0.0 1.0 0.0
1.0 0.0 1.0 0.0 1.0 0.0 1.0 0.0
1.0 0.0 1.0 0.0 1.0 0.0 1.0 0.0
1.0 0.0 1.0 0.0 1.0 0.0 1.0 0.0
1.0 0.0 1.0 0.0 1.0 0.0 1.0 0.0
1.0 0.0 1.0 0.0 1.0 0.0 1.0 0.0
1.0 0.0 1.0 0.0 1.0 0.0 1.0 0.0
1.0 0.0 1.0 0.0 1.0 0.0 1.0 0.0
1.0 0.0 1.0 0.0 1.0 0.0 1.0 0.0
1.0 0.0 1.0 0.0

weight f4 [50, 4]
00000000: 483b 9abe e519 d8bd ee3c 1b3e f52b ce3d
00000010: ce56 b1be 460f 09be bde5 75be 7648 d9bd
00000020: 8e47 23bd eb77 44bd 8cb4 28bd a557 ed3e
00000030: 6492 bebe 922b 873e 5f8c fdbd 2b7b 013e
00000040: 5bda 85be e0a3 0f3f ad7e 0cbf e239 b7be
00000050: c6d6 1bbf 45f3 d2be e17b a0be 992d 6a3e
00000060: 786c a7b9 5ed4 f43b dde4 8fbd 5140 b9bd
00000070: ae64 88bd 628c 1a3c c5f0 d7be 7492 d5be
00000080: 5dc0 9f3e ffef debb 4f80 6fbe 6db8 8dbe
00000090: ab2a a13d 730b 89be 31f7 2d3e a651 293e
000000a0: 135a 9f3e c8d6 cc3e bc17 c5be 5573 3c3e
000000b0: 67fe 583e 7b03 8fbd f8c6 63bd 09fd eb3e
000000c0: d545 f3bd 2bf6 e8be e835 503e 8a53 c23e
000000d0: d383 e23c da7e fabc c732 9d3d a9ae 8b3e
000000e0: 9269 eebe 7377 07bf f0e4 ecbd a105 58be
000000f0: e73f 1e3d a3f1 89bd 4c83 953e d898 bc3e
00000100: 6dd3 033f 3dfe bb3c 8deb 99bd 068e adbe
00000110: 2d79 b33e b7b2 e3be 85dc fe3e 7a3a a0bd
00000120: d5d0 653e e5fb 4abf bc92 803e 90cd a9be
00000130: fb13 303d 0f72 63be 15f7 703e 49aa 5a3e
00000140: 07fb 21bf ba45 b7be 0054 e53e cd87 e03e
00000150: 7425 b53e 7b50 083c 135a cbbd 8881 c8be
00000160: 4d50 92be adf2 b83e 7b67 cb3e 50f1 edbd
00000170: a8c5 9a3e 04e2 babe 90c3 bbbe d698 2abc
00000180: 7a40 a63e 26bc 4ebd 6baa 9c3e 3c39 f0be
00000190: 28cf 9c3e 5410 0f3e b4e3 c8be 57cb df3d
000001a0: 6bfb 26be 01d6 253e 3f86 a93e 97e1 bf3e
000001b0: d0ab 8ebe d360 10bd 9bb7 223d 8ab2 713e
000001c0: f993 1b3f 0d2d a3be a324 963e 344a b2bd
000001d0: d9e4 5b3e d2b7 8a3e 95e4 593e c959 e03e
000001e0: 1bbd 30be 5539 3b3f 1b05 d63e d680 8d3b
000001f0: 9e11 363e b617 7e3d 20a1 dfbd c416 19bd
00000200: f5f3 c93e fa24 69be 3e3e 79bd acca abbe
00000210: b0e2 15be 546d a7bd 50d8 6cbf 8cc7 9bbe
00000220: 9a3a d8be 2dd3 2b3d ca3f 983e b468 afbe
00000230: 7004 2fbe 65ae fcbc ff38 0f3d 6ca5 12bd
00000240: 68f1 173f 3886 2cbd 71f1 ec3c f048 b03d
00000250: e1f8 383e 61c1 36bd 3a2c 6abe 0b00 773e
00000260: a7f0 a2be 7292 01be bfc7 bbbe 4183 a03e
00000270: 23c7 d83e dbac a33d 72a3 e8bd e80c 533e
00000280: c9c3 c63e 73a3 1b3f 7bae f13e 7d1d a3be
00000290: b10f 123f 0925 98be e27b 8abe ba93 803e
000002a0: 0fed adbe b2ed fd3d 3a2c 5a3e 5784 41be
000002b0: 8f64 c6be a4c4 db3d 51e1 9fbe a259 243e
000002c0: dd33 dfbe dea4 fabd c96c 173e 0ebe 4fbd
000002d0: aad0 023f 524f 8d3d 77c3 55bd 3e49 9a3e
000002e0: ad62 a23d 300f cf3e a95c f6bd de76 733e
000002f0: acec ad3e d236 ac3d 32b8 d73d 019c e13e
00000300: 8e42 febe a56c 07be 4291 cabd 2b7f e6be
00000310: 31e6 e83d 4077 4e3b adaf 853d 9c91 fdbe
-0.30123353 -0.10551814 0.15159962 0.10066978 -0.3463654 -0.13384733 -0.2401342 -0.10609524
-0.03986316 -0.047965925 -0.041187808 0.4635593 -0.37221062 0.2640043 -0.12380289 0.12644641
-0.26143155 0.5610943 -0.5488079 -0.3578635 -0.60874593 -0.41201225 -0.31344512 0.22868957
-0.00031933538 0.007471605 -0.07026074 -0.090454705 -0.06659828 0.009432884 -0.4217588 -0.41713297
0.3120145 -0.006803512 -0.2338879 -0.27679768 0.078694664 -0.26766548 0.16988827 0.16535053
0.3112341 0.40007615 -0.3849467 0.1840337 0.21190797 -0.06983086 -0.055609673 0.46091488
-0.11878554 -0.4550031 0.20333064 0.3795436 0.02765075 -0.030578066 0.07675701 0.27281693
-0.4656492 -0.5291664 -0.11567104 -0.21095897 0.03863516 -0.06735542 0.29201734 0.3683536
0.51494485 0.022948379 -0.07515631 -0.33897418 0.35053387 -0.44472286 0.49777618 -0.078236535
0.22442944 -0.7929061 0.2511195 -0.33164644 0.042987805 -0.22211479 0.23531754 0.21354021
-0.6327366 -0.35795385 0.4479065 0.43853608 0.35380137 0.008319969 -0.0992929 -0.39161325
-0.2857689 0.36122647 0.39727387 -0.11618292 0.30228925 -0.3650056 -0.3667264 -0.0104124155
0.32471067 -0.0504724 0.3059877 -0.46918666 0.30626798 0.13971072 -0.39236224 0.10927456
-0.16306846 0.16194917 0.33110234 0.374768 -0.27865458 -0.03524859 0.03972588 0.23603263
0.60772663 -0.3187031 0.29324827 -0.087055594 0.21474017 0.2709337 0.21278603 0.438185
-0.17259638 0.73134357 0.4180077 0.004318337 0.17780158 0.06203433 -0.10919404 -0.037375227
0.39443937 -0.22768012 -0.060850374 -0.33553064 -0.14637256 -0.081751496 -0.92517567 -0.3042568
-0.4223221 0.04194944 0.29736167 -0.3425957 -0.17091537 -0.030844877 0.034966465 -0.03580229
0.5935273 -0.04212019 0.028923722 0.08607662 0.1806369 -0.044618014 -0.22868434 0.2412111
-0.31824228 -0.1265352 -0.36675832 0.3135014 0.4233943 0.07991954 -0.113593 0.20610392
0.38821247 0.6079628 0.4720343 -0.31858435 0.57055193 -0.29715756 -0.2704764 0.25112706
-0.33969924 0.123988524 0.21305934 -0.1889814 -0.38748595 0.107308656 -0.3122659 0.16049817
-0.43594256 -0.12238477 0.14787592 -0.05071836 0.51099646 0.06899895 -0.052188363 0.30134004
0.07928977 0.40441275 -0.12029392 0.23775813 0.3396963 0.08408894 0.10533179 0.44064334
-0.49660152 -0.13225038 -0.09890987 -0.45018896 0.113720305 0.0031504184 0.06527648 -0.49525154

bias f4 [50]
00000000: 5976 d93e 2f9d a8be 67cf 033e 5a9a 453c
00000010: be6e a9be 376c bb3e 5251 3f3e d830 a73e
00000020: 8ce9 06bc 5586 ebbd d429 97be 0880 8cbe
00000030: 43a4 013e 84ae a63e 1d31 06be 3850 92bc
00000040: f875 0d3e d368 3cbe 64bf a7be d381 073f
00000050: eeb3 c03e 034b 893e b130 a7be 29e5 91be
00000060: a0e8 ac3e dde7 043f a731 04bf 539f 99be
00000070: c18a 5c3e 1f14 bb3d e371 d4be 5b05 eabe
00000080: 1d6e 47be 8baa 3fbe abf2 13be d34e 0abf
00000090: 5dcc a33e c1f1 6f3e 7f0c 2bbd 37cb c63e
000000a0: 0adb b23e 6fa1 b6be cb89 a9bd 594c 173e
000000b0: b65e efbe 0382 8dbd 5ea4 83bc 1e58 b03e
000000c0: 710d 173d 7aef ea3e
0.42473105 -0.32932422 0.12872086 0.012060726 -0.33092302 0.36606 0.18683365 0.32654452
-0.008234393 -0.11500231 -0.295241 -0.2744143 0.12660317 0.3255502 -0.13104673 -0.017860517
0.13814533 -0.18399362 -0.32763207 0.5293247 0.37637275 0.26815042 -0.32654336 -0.28495148
0.3377123 0.51916295 -0.51638263 -0.30004367 0.21537305 0.09134697 -0.4149314 -0.4570721
-0.19475599 -0.187174 -0.14448039 -0.54026526 0.31991854 0.23432066 -0.041759964 0.38826916
0.3493274 -0.3567004 -0.08278235 0.14775218 -0.46751946 -0.069095634 -0.016069587 0.34442228
0.036878053 0.4588583

weight f4 [50, 50]
00000000: 7369 1bbe c560 8ebd 9efa c7bc e391 0cbe
00000010: 8f10 053e e13b 163e 31d9 e53d e9d8 423d
00000020: cb9d 103d a99b a23d 3c70 5ebd 3bcd 953d
00000030: a4b4 71bd 1ca7 dcbd 9b7e 533d a6b8 e43c
00000040: 710e 4f3c ead8 9c3d f358 a4bd ccf0 683d
00000050: 1226 913d 180d 14be cbc1 383d 2be9 b8bd
00000060: 159a 9b3d d8b2 383d 2b8d 8bbd e0d8 2dbd
00000070: afc0 073e 5f51 803d ab5d e43c 5ff1 203e
00000080: 6b80 84bc 2f4d 29be ebcf eebd 7627 993d
00000090: 5db0 b43d 97ee ee3c 8280 18be d58d 353d
000000a0: 4afb 9cbd 52ea 0abd c52c 673d ca61 adbd
000000b0: d9bb c63c 86a7 213e 014d e43b 7508 493d
000000c0: 756a dfbc feb8 763c 01c1 0dbe 6941 e43d
000000d0: 5ff9 8e3d ee80 013e 885f 19bd 2aea ff3d
000000e0: ee26 55be f2a0 57bd f37d 84bd 5c18 03be
000000f0: fe57 003e 2e2e f73d a4a8 083d 3f79 39bc
00000100: 30d1 e63d bffa 283d fc80 223e c1c4 1f3d
00000110: 6150 c5bd 2ddc b5bd f06e 6fbd 6405 1d3e
00000120: 9a30 183e 3ef8 e13c 8b3b 1f3e 0830 7dbd
00000130: 749c 74bd ec12 d9bc 6efc 1bbd 1c07 23be
00000140: 6033 153e 82e5 c1bd 317d bc3d eae4 0b3d
00000150: 5ff9 20bd a4df f53d e08d ed3c f53b 8a3c
00000160: 8441 5b3d fd71 1c3d 4097 a9bd d75b 68bd
00000170: 15a7 03be 696e f3bc 444e 093e b7cc 2cbd
00000180: 95cd ac3d 1435 023e c32b f8bd e92c e43d
00000190: 9eda 0a3e 0de6 c5bd 22c8 0a3e 09ea bfbd
000001a0: 672f bc3d 9c57 d1bd f9c4 25bd 15a3 c43d
000001b0: 2a3b 213e c326 663d db8b 013e af94 1f3d
000001c0: 313b bdbd 5bd3 edbd dc37 fbbd 3aaa bdbd
000001d0: 0e80 313e 5709 0d3d 3b53 0d3e 89c6 eebd
000001e0: 1917 92bd 931b 32bd 4580 4b3d d45f 263e
000001f0: bbe0 31bd 8035 27be 6753 b33d d97b 223d
00000200: d2cc 47be f86b cd3d f98f 3ebd f18d 1bbd
00000210: dd74 efbd 6afc 04bd 5c0b 9fbc 7fdc c1bd
00000220: 0a87 01be c4d4 9dbd 732c 463e e245 9cbd
00000230: 7ba6 25bd 4390 34bc e7af 9ebd 754f 53bd
00000240: 3278 8d3d 1ede 90bd 325e 3c3d 2200 ab3c
00000250: f781 993c b575 9b3d 510b 533d bc51 853d
00000260: 5552 813d b2c3 223d b0e0 ba3d 5440 29be
00000270: d3bd 133c aa9d ddbd 7841 0f3e 60ab 993d
00000280: 1120 bb3d bb41 4e3d 9c1d 173c fbff a3bc
00000290: 2f4a 0fbc 086f a1bd fddb 363c e7d1 70bd
000002a0: 3adb d93d 83db edbd 5d73 f0bc a1b6 893d
000002b0: 9d3a 57bc e92b f03d c20b afbc 0a16 b2bd
000002c0: e472 d03c 887d 07bd 4bc9 7bbd cc32 663c
000002d0: 67cc 88bd 937a debd a800 f03d 8435 253a
000002e0: 62b2 34bd a220 e6bc b347 21bc 813f 1f3c
000002f0: 7d03 a83d 432f 12be daea 423d 9724 a73d
00000300: 6793 a63d d64c ad3d 0ff7 c43d 012b d03b
00000310: b7a7 c1bd e4ac cfbd b731 b8bd 820c 0d3e
00000320: 024c fa3d 28f6 a83d 74f5 283d cba2 163e
00000330: 9fe5 16be 0823 d83d 194d 41bc afae a3bd
00000340: 736a 733d 8dda 593d 455d 333c 3bea 03be
00000350: d240 ecbd 8ff2 60bc a8d2 05bd ab6c ae3d
00000360: 7223 7d3d 2e7f d9bc 7fcf 4c3d 042f 03be
00000370: 7b3c 2a3d 6fac 953d 4e1f d8bc f90a d53d
00000380: 0672 003e dfc4 04be 0361 2cbd 9b31 c538
00000390: 2828 54be f611 8f3d 90ed 213e 62c0 a03d
000003a0: e81a 593d 19a0 8dbd 4c2a cdbc 9cd6 06bd
000003b0: f000 0bbe 18e2 ce3d 0634 8a3c 480e 11be
000003c0: 42f2 a9bd b9d2 1c3e 9311 b4bd 1f27 0c3d
000003d0: 98c6 81bd 93a0 893d 2144 4cbc d0d0 113e
000003e0: 6dc6 f3bd ad25 b3bd dccf a9bd 6d9b bfbd
000003f0: 65e1 d9bd 8d67 02be 0b0b b2bc 0327 503d
-0.15176944 -0.06952051 -0.024411496 -0.13727526 0.12994598 0.1467128 0.112230666 0.047570143
0.035306733 0.07939846 -0.054306254 0.07314535 -0.059010163 -0.10774061 0.051634412 0.027920078
0.01263772 0.076585606 -0.08024778 0.056870267 0.070873395 -0.1445812 0.04510669 -0.09028848
0.07597748 0.045092434 -0.06814035 -0.042443156 0.13257097 0.0626552 0.027876696 0.15717076
-0.016174516 -0.1653335 -0.11660751 0.0747823 0.08822701 0.029166503 -0.14892772 0.044324715
-0.07665117 -0.03391487 0.05643918 -0.084659174 0.024259495 0.15786561 0.0069671874 0.04908033
-0.027272442 0.015058754 -0.13843156 0.111452885 0.069811575 0.12646839 -0.03744462 0.12495835
-0.20815632 -0.052643724 -0.064693354 -0.12802261 0.12533566 0.12069355 0.033363953 -0.011320411
0.11270368 0.041254755 0.15869516 0.039006 -0.09634472 -0.08879886 -0.058455408 0.15334088
0.1486229 0.027584191 0.15550058 -0.061813384 -0.059719518 -0.02649828 -0.038082533 -0.15920681
0.1457038 -0.09467603 0.09203566 0.034153856 -0.03930032 0.12005547 0.028998315 0.016874293
0.053529277 0.038194645 -0.08280802 -0.05672821 -0.12856705 -0.029715734 0.13408762 -0.04218742
0.08437649 0.1271556 -0.12117722 0.111413784 0.13559958 -0.09663019 0.13552907 -0.093708105
0.09188729 -0.10221788 -0.04047105 0.09601418 0.15745226 0.05618931 0.12651007 0.038960155
-0.092398055 -0.116125785 -0.12266514 -0.09260984 0.17334005 0.034432735 0.13801281 -0.11658961
-0.07133312 -0.043483328 0.049682874 0.16247493 -0.04342721 -0.16329002 0.08756142 0.03966889
-0.19511726 0.10030359 -0.04652402 -0.037977163 -0.11692212 -0.032467283 -0.019414596 -0.094658844
-0.1264917 -0.077065974 0.19352894 -0.076305166 -0.04044197 -0.011020723 -0.077483945 -0.051589448
0.06907691 -0.070736155 0.04598827 0.020874087 0.01873873 0.0759081 0.051524464 0.0650973
0.06314532 0.03973741 0.09124887 -0.16528445 0.009017426 -0.10821088 0.13989818 0.0750339
0.091369756 0.050355654 0.009223368 -0.020019522 -0.008745714 -0.07882506 0.011160848 -0.05879393
0.10637517 -0.11614134 -0.029351884 0.06724287 -0.013136533 0.11727125 -0.021367911 -0.0869561
0.02544541 -0.0330787 -0.061471265 0.014050197 -0.06679612 -0.10863223 0.11718875 0.0006302225
-0.04411543 -0.028091732 -0.009843755 0.00971973 0.0820379 -0.14275841 0.047587253 0.08161276
0.081335835 0.08461921 0.09617435 0.0063527827 -0.09455817 -0.10140398 -0.08993857 0.13774303
0.122215286 0.082500756 0.041249707 0.14710538 -0.14736031 0.10553557 -0.011798167 -0.079923026
0.05942769 0.053186942 0.01094753 -0.1288232 -0.11535801 -0.0137297055 -0.0326716 0.085168205
0.06180138 -0.026549902 0.05000257 -0.12810904 0.041561585 0.0730828 -0.026382115 0.104024835
0.12543496 -0.12965725 -0.042084705 9.402932e-05 -0.20718443 0.06985848 0.15813279 0.07849194
0.053004175 -0.06915302 -0.025044583 -0.03291951 -0.13574576 0.10101718 0.01687051 -0.14165604
-0.0829816 0.1531476 -0.087924145 0.034216996 -0.06336707 0.0672008 -0.012467415 0.14239812
-0.11903081 -0.087474205 -0.08291599 -0.09355817 -0.10638694 -0.12734814 -0.021733781 0.050818454

bias f4 [50]
00000000: 6e91 fbbd 3c8b a93d 8188 ddbc 36e9 723d
00000010: eeae bf3d 674e 9abd 58b8 153e 61b9 a93c
00000020: 71ee 96bd 7218 f6bc c396 643c 27ff ec3d
00000030: be97 163e fa27 f03d 67fc 2bbe 95f3 9fbd
00000040: 9e6b 333e fff3 dcbd c06c 993d f401 2b3e
00000050: 3e06 293e 5520 bc3d 7f76 26be 59fb 61bd
00000060: 294a 3e3e 0c78 05be 7250 a8bd 2e5c d2bd
00000070: e861 463d 2e86 3ebe 2022 babd 385a 50bd
00000080: da95 e33d 6772 e0bd fcea e1bd 3f91 03be
00000090: d32b 3a3e 5c06 5f3e 0984 23be bcd0 083d
000000a0: 6d25 493e 6a66 38bd 53e5 c5bc 7a38 a33d
000000b0: 5e37 0bbe 5f67 713d 624c 32be 7783 21be
000000c0: a4ce d23d 5956 3f3d
-0.12283598 0.0827851 -0.02704263 0.05930444 0.09359537 -0.07534485 0.14621103 0.020718278
-0.07369698 -0.030040953 0.01395196 0.11572104 0.14706323 0.11726375 -0.16795503 -0.078101315
0.17521521 -0.10788726 0.074914455 0.16699964 0.16506287 0.09185854 -0.1625614 -0.055171344
0.18582977 -0.13034075 -0.08218469 -0.10271488 0.048433214 -0.18605873 -0.0908854 -0.05086729
0.11112566 -0.109593205 -0.11031148 -0.12848376 0.1818078 0.2177977 -0.15968336 0.03340219
0.19643183 -0.045019545 -0.024157202 0.079697564 -0.1359534 0.058936473 -0.1741195 -0.15772806
0.1029332 0.046713207

mask f4 [50, 50]
00000000: 0000 803f 0000 803f 0000 803f 0000 803f
00000010: 0000 803f 0000 803f 0000 803f 0000 803f
00000020: 0000 803f 0000 803f 0000 803f 0000 803f
00000030: 0000 803f 0000 803f 0000 803f 0000 803f
00000040: 0000 803f 0000 803f 0000 803f 0000 803f
00000050: 0000 803f 0000 803f 0000 803f 0000 803f
00000060: 0000 803f 0000 803f 0000 803f 0000 803f
00000070: 0000 803f 0000 803f 0000 803f 0000 803f
00000080: 0000 803f 0000 803f 0000 803f 0000 803f
00000090: 0000 803f 0000 803f 0000 803f 0000 803f
000000a0: 0000 803f 0000 803f 0000 803f 0000 803f
000000b0: 0000 803f 0000 803f 0000 803f 0000 803f
000000c0: 0000 803f 0000 803f 0000 803f 0000 803f
000000d0: 0000 803f 0000 803f 0000 803f 0000 803f
000000e0: 0000 803f 0000 803f 0000 803f 0000 803f
000000f0: 0000 803f 0000 803f 0000 803f 0000 803f
00000100: 0000 803f 0000 803f 0000 803f 0000 803f
00000110: 0000 803f 0000 803f 0000 803f 0000 803f
00000120: 0000 803f 0000 803f 0000 803f 0000 803f
00000130: 0000 803f 0000 803f 0000 803f 0000 803f
00000140: 0000 803f 0000 803f 0000 803f 0000 803f
00000150: 0000 803f 0000 803f 0000 803f 0000 803f
00000160: 0000 803f 0000 803f 0000 803f 0000 803f
00000170: 0000 803f 0000 803f 0000 803f 0000 803f
00000180: 0000 803f 0000 803f 0000 803f 0000 803f
00000190: 0000 803f 0000 803f 0000 803f 0000 803f
000001a0: 0000 803f 0000 803f 0000 803f 0000 803f
000001b0: 0000 803f 0000 803f 0000 803f 0000 803f
000001c0: 0000 803f 0000 803f 0000 803f 0000 803f
000001d0: 0000 803f 0000 803f 0000 803f 0000 803f
000001e0: 0000 803f 0000 803f 0000 803f 0000 803f
000001f0: 0000 803f 0000 803f 0000 803f 0000 803f
00000200: 0000 803f 0000 803f 0000 803f 0000 803f
00000210: 0000 803f 0000 803f 0000 803f 0000 803f
00000220: 0000 803f 0000 803f 0000 803f 0000 803f
00000230: 0000 803f 0000 803f 0000 803f 0000 803f
00000240: 0000 803f 0000 803f 0000 803f 0000 803f
00000250: 0000 803f 0000 803f 0000 803f 0000 803f
00000260: 0000 803f 0000 803f 0000 803f 0000 803f
00000270: 0000 803f 0000 803f 0000 803f 0000 803f
00000280: 0000 803f 0000 803f 0000 803f 0000 803f
00000290: 0000 803f 0000 803f 0000 803f 0000 803f
000002a0: 0000 803f 0000 803f 0000 803f 0000 803f
000002b0: 0000 803f 0000 803f 0000 803f 0000 803f
000002c0: 0000 803f 0000 803f 0000 803f 0000 803f
000002d0: 0000 803f 0000 803f 0000 803f 0000 803f
000002e0: 0000 803f 0000 803f 0000 803f 0000 803f
000002f0: 0000 803f 0000 803f 0000 803f 0000 803f
00000300: 0000 803f 0000 803f 0000 803f 0000 803f
00000310: 0000 803f 0000 803f 0000 803f 0000 803f
00000320: 0000 803f 0000 803f 0000 803f 0000 803f
00000330: 0000 803f 0000 803f 0000 803f 0000 803f
00000340: 0000 803f 0000 803f 0000 803f 0000 803f
00000350: 0000 803f 0000 803f 0000 803f 0000 803f
00000360: 0000 803f 0000 803f 0000 803f 0000 803f
00000370: 0000 803f 0000 803f 0000 803f 0000 803f
00000380: 0000 803f 0000 803f 0000 803f 0000 803f
00000390: 0000 803f 0000 803f 0000 803f 0000 803f
000003a0: 0000 803f 0000 803f 0000 803f 0000 803f
000003b0: 0000 803f 0000 803f 0000 803f 0000 803f
000003c0: 0000 803f 0000 803f 0000 803f 0000 803f
000003d0: 0000 803f 0000 803f 0000 803f 0000 803f
000003e0: 0000 803f 0000 803f 0000 803f 0000 803f
000003f0: 0000 803f 0000 803f 0000 803f 0000 803f
1.0 1.0 1.0 1.0 1.0 1.0 1.0 1.0
1.0 1.0 1.0 1.0 1.0 1.0 1.0 1.0
1.0 1.0 1.0 1.0 1.0 1.0 1.0 1.0
1.0 1.0 1.0 1.0 1.0 1.0 1.0 1.0
1.0 1.0 1.0 1.0 1.0 1.0 1.0 1.0
1.0 1.0 1.0 1.0 1.0 1.0 1.0 1.0
1.0 1.0 1.0 1.0 1.0 1.0 1.0 1.0
1.0 1.0 1.0 1.0 1.0 1.0 1.0 1.0
1.0 1.0 1.0 1.0 1.0 1.0 1.0 1.0
1.0 1.0 1.0 1.0 1.0 1.0 1.0 1.0
1.0 1.0 1.0 1.0 1.0 1.0 1.0 1.0
1.0 1.0 1.0 1.0 1.0 1.0 1.0 1.0
1.0 1.0 1.0 1.0 1.0 1.0 1.0 1.0
1.0 1.0 1.0 1.0 1.0 1.0 1.0 1.0
1.0 1.0 1.0 1.0 1.0 1.0 1.0 1.0
1.0 1.0 1.0 1.0 1.0 1.0 1.0 1.0
1.0 1.0 1.0 1.0 1.0 1.0 1.0 1.0
1.0 1.0 1.0 1.0 1.0 1.0 1.0 1.0
1.0 1.0 1.0 1.0 1.0 1.0 1.0 1.0
1.0 1.0 1.0 1.0 1.0 1.0 1.0 1.0
1.0 1.0 1.0 1.0 1.0 1.0 1.0 1.0
1.0 1.0 1.0 1.0 1.0 1.0 1.0 1.0
1.0 1.0 1.0 1.0 1.0 1.0 1.0 1.0
1.0 1.0 1.0 1.0 1.0 1.0 1.0 1.0
1.0 1.0 1.0 1.0 1.0 1.0 1.0 1.0
1.0 1.0 1.0 1.0 1.0 1.0 1.0 1.0
1.0 1.0 1.0 1.0 1.0 1.0 1.0 1.0
1.0 1.0 1.0 1.0 1.0 1.0 1.0 1.0
1.0 1.0 1.0 1.0 1.0 1.0 1.0 1.0
1.0 1.0 1.0 1.0 1.0 1.0 1.0 1.0
1.0 1.0 1.0 1.0 1.0 1.0 1.0 1.0
1.0 1.0 1.0 1.0 1.0 1.0 1.0 1.0

weight f4 [50, 50]
00000000: ff18 023e 8027 9f3d 11a4 01bd c52a 91bb
00000010: 56bd a6bd 7788 633e feb7 4d3d 1724 37bb
00000020: 3950 76bd ab74 2fbd 9ad6 f53c 76f2 183d
00000030: 5a9b b53d 8828 fdbc cb19 b43d 1c19 8f3d
00000040: 9594 883d 31a1 6bbd 33e5 01be b8f7 dfbd
00000050: 098e b7bd 861b 8abd aa5a 443d eb3e be3d
00000060: 95db 1abe 6170 fabd 0108 1ebe a802 f83d
00000070: 712f 353d 4209 233e f7dd ad3d 002f 14be
00000080: eeb3 9d3c 28cb 4e3c 4f2c f2bc a825 98bc
00000090: c3f3 c33d e259 05be 0cba ea3d b7dc 02be
000000a0: 5bd7 8cbd 0557 863d 97bb 303e fa44 d5bd
000000b0: e83d 213d 3848 e4bc c01c 033e ef88 edbb
000000c0: cbe5 833d 0ecd df3d 711b 39bd 4541 803b
000000d0: 7ebb 8cbd ce77 0ebe 636a 623d e5d2 ff3d
000000e0: 1b15 f6bd add4 1d3e 238f 5ebe 5ca8 71bd
000000f0: 36cd 4bbe 0fbe df3d 0b81 4c3b b2d2 a7bd
00000100: 3180 1f3e 64b0 963d ee7c 073d 9422 443b
00000110: da43 193d 9946 2fbe 4a12 1abc 23a5 163d
00000120: 2eb6 6cbe 7b49 eabd cfc5 95bd b0bb 44be
00000130: 0e30 f63b f175 b9bd 33f9 ae3d c524 103e
00000140: 2d4b 0ebe a04b 8ebd 91f2 19be 6462 173d
00000150: 4a16 b5bd b9a2 98bd 093a 573a 5e75 cbbc
00000160: 077c 253d e0a7 263e 50df 92bd a382 4e3d
00000170: cc09 093e 0a00 1d3b cdc6 f53d dba4 57bd
00000180: b8f2 113d 927e eabc 0194 9c3d 5119 24be
00000190: 9b9b 423d fcc3 19bc 5579 71bd f614 173e
000001a0: 63dc fb3d 3604 a5bd c995 1e3d 7289 f1bd
000001b0: 74bf b23c 1f96 9b3d a36e a53b 300c 183e
000001c0: e056 6abd 23a6 27bd c52b 37be be2b ef3d
000001d0: a724 ef3d 4149 9fbd d8f8 ad3d d262 8bbd
000001e0: 794e 30bd 656e fe3b 6305 d33b 7719 043d
000001f0: 8919 debd 552a aa3c e647 87bd d095 b53d
00000200: 4b27 0e3e 2f0d 3c3d 4c7a b03d 6337 5a3d
00000210: 556f a63d 8c31 063d 3cd0 92ba 478b 5bbd
00000220: f85e c7bd 7463 40bd 8029 0abe 2c11 d63c
00000230: 8d02 dbbd bfb9 f5bc 3ef4 cdbd 3f29 a5bd
00000240: c38c ad3c fa77 ec3d a0aa d3bd 9169 46be
00000250: a425 70b8 5dfd 21bd fc8a f5bd 3f9c 87bd
00000260: 110b 5b3d 3a0c e53c f50e 223e a4d4 4dbe
00000270: 5d60 933d 5eca 9a3c 89d3 7a3d a3e7 35bd
00000280: b6de f33c f560 9cbd d133 9b3d 7942 dcbc
00000290: 9154 763d 875d 12bc 2271 4b3d 6d74 093e
000002a0: e1a1 183d f421 bc3d 304d 603d 2a0e 0c3d
000002b0: 1efd a4bd 850a 13be 9de1 d93d 8ddf 923c
000002c0: 63a9 363d 89cb d9bd b03f 0dbd 8c0d 23be
000002d0: a522 f1bd f12b af3d 286c 6c3c fdc1 973d
000002e0: d04f a93d 6123 de3c a428 aebd 0971 df3d
000002f0: e469 f8bd a6d1 82bd 00a7 99bd a642 ecbc
00000300: dc96 03bd 597c 99bd 83ea 1ebd af82 81bd
00000310: 2a3d e8bc 0a00 45bd e92b 1f3c 7668 a73d
00000320: f03f bebd 8b6d 513d 2374 e5bd 886b 38bd
00000330: 9deb 7bbd 9d42 f5bd 5d54 3f3d cbd9 8dbd
00000340: 6ed4 a13d 3cc4 a03a 221e 75bd 0ad9 743d
00000350: b610 99bc bb4a 0abe d37e 0abe e3fe e23d
00000360: 04e8 84bd bda3 a6bd 719a b0bc fbf1 e9bd
00000370: 2a2e 84bd bad3 b93d 75b1 763d 78c3 f4bd
00000380: db0b de3d f892 c4bd 56f8 a7bd 6423 b13d
00000390: f236 30bb 9222 02bc 568e bcbb 95f1 11bc
000003a0: 1ad7 99bc 1df2 32bd c0fd a3bd d3ea 79bd
000003b0: 822c 1e3d ec99 873c 68d5 8c3d ce0c 45bd
000003c0: e2fa 8abd 0e28 833d 13a6 8c3c e400 0f3e
000003d0: 6048 18bd d78e d7bd ce28 f03d 2029 d33a
000003e0: 4ccc 4f3d caf1 d53d 0add 413e c906 1dbd
000003f0: bd35 0bbe ea62 ad3c 597d f03d 128d eb3d
0.12704848 0.07771206 -0.031650607 -0.0044301474 -0.08141582 0.22220026 0.050224297 -0.0027945095
-0.0601351 -0.042835873 0.030009557 0.037340604 0.088675216 -0.030903116 0.08793982 0.06987211
0.06668965 -0.05752677 -0.12685089 -0.109359205 -0.08962638 -0.06743531 0.047938026 0.092893444
-0.15122826 -0.12228466 -0.15432741 0.12109882 0.044234697 0.159215 0.08489602 -0.14471054
0.019250836 0.012621678 -0.029562144 -0.018572643 0.09567978 -0.13022569 0.11461267 -0.12779509
-0.06877013 0.065595664 0.1725906 -0.10413547 0.03936568 -0.027866468 0.12803936 -0.00724899
0.06440314 0.10927783 -0.045192186 0.0039140307 -0.06871699 -0.1391289 0.05527724 0.12491397
-0.12015744 0.1541316 -0.2173429 -0.05899845 -0.199025 0.10924923 0.0031204845 -0.08194484
0.15576245 0.073578626 0.033078127 0.0029927837 0.037418224 -0.17116775 -0.0094037745 0.03677858
-0.23116371 -0.114397965 -0.073131196 -0.19212222 0.007513053 -0.09055699 0.08543625 0.14076526
-0.13895865 -0.06948018 -0.15033938 0.036959067 -0.08842142 -0.07452912 0.0008210247 -0.024836238
0.040401485 0.16274977 -0.071715 0.050417554 0.13382643 0.0023956322 0.12000809 -0.052647453
0.035631865 -0.028624807 0.07645417 -0.16025282 0.04751168 -0.009385105 -0.058953602 0.1475409
0.12297895 -0.08057444 0.038717065 -0.11793794 0.021819808 0.07596993 0.0050485893 0.14848399
-0.057211757 -0.040929925 -0.1788779 0.11678265 0.11676913 -0.07777644 0.08494729 -0.06805958
-0.043043587 0.007764625 0.006439851 0.032250848 -0.10844714 0.020772139 -0.066055104 0.08866465
0.13882177 0.04591101 0.08617076 0.053275477 0.08126704 0.032762095 -0.0011200975 -0.053599622
-0.09734911 -0.046969846 -0.13492393 0.026131235 -0.10693846 -0.029995797 -0.10056351 -0.08064508
0.021185284 0.11546321 -0.103352785 -0.19376208 -5.7255515e-05 -0.039548267 -0.119894 -0.066215985
0.05347735 0.027959932 0.15826018 -0.20100647 0.07196114 0.018895324 0.061236892 -0.04441036
0.029769283 -0.076356806 0.075782426 -0.026887165 0.060139243 -0.0089334315 0.04966844 0.13423319
0.037263755 0.091861635 0.05476111 0.034193195 -0.08056091 -0.14359482 0.106387354 0.017928863
0.044595134 -0.106345244 -0.034484565 -0.15923136 -0.11774186 0.08553303 0.014430083 0.07410047
0.08267176 0.02711648 -0.08503845 0.109102316 -0.12129572 -0.063876435 -0.07502556 -0.028840374
-0.032126293 -0.074944206 -0.038797867 -0.06323754 -0.028349478 -0.04809574 0.009715059 0.08174221
-0.09289539 0.05112986 -0.11203792 -0.045024425 -0.061503995 -0.11975596 0.046711314 -0.06926306
0.07901846 0.0012265514 -0.05984319 0.059777297 -0.018684726 -0.1350507 -0.13524942 0.11083772
-0.06489566 -0.08136699 -0.021558018 -0.11423107 -0.064541176 0.09073587 0.06022783 -0.11951345
0.10842105 -0.095983446 -0.08201663 0.08649328 -0.0026888219 -0.0079428125 -0.0057542725 -0.008907695
-0.018779326 -0.04368793 -0.08007383 -0.06101496 0.038616665 0.016552888 0.068766415 -0.048107915
-0.06786133 0.06404124 0.017169034 0.13965183 -0.037178397 -0.105252914 0.11726533 0.0016110279
0.050731942 0.10446508 0.18931976 -0.03833655 -0.13594718 0.02116533 0.11742658 0.115015164

bias f4 [50]
00000000: f8f5 f1bd 2ad7 05be 3d6d 4d3d 690e 0e3d
00000010: bb94 afbc 5729 833d 622e 0e3e 677b ff3c
00000020: c49f 233c dbfc 793d aebc ffbd 5b10 1cbd
00000030: 62ad 58bc a1e7 2b3e 2d59 eebc bf00 efbc
00000040: 2608 383e 49aa ff3d a3ae 9cbc c7b8 23bd
00000050: a2f5 7a3d ad48 59bc c7de 8d3d 1224 ae3c
00000060: e234 a93d 4acd d7bc 8b78 103e 61cf bbbd
00000070: b0cf ac3d 6e2c a9bd e793 2dbd 351d 053e
00000080: 7f2c f0bd 7790 883d 6749 04bd f2af 00bd
00000090: dc81 07bd 3960 95bd 8a9a 43bb ba24 d83d
000000a0: 6816 35bd 52e2 3f3d dd44 d03c 0cf4 14be
000000b0: e0f9 47be a675 123d b5c9 473e 4897 f13b
000000c0: 2356 05bd cc69 cfbd
-0.11814493 -0.1307036 0.050153006 0.03468171 -0.021433225 0.06404369 0.13884881 0.031186773
0.009986822 0.061032157 -0.1248716 -0.038101535 -0.013224931 0.16787578 -0.029095257 -0.02917516
0.17971858 0.12483651 -0.019126242 -0.03997114 0.06126941 -0.013261956 0.06927257 0.021257434
0.0826204 -0.026343007 0.14108483 -0.09170414 0.08438051 -0.082604274 -0.04237738 0.12999423
-0.11727237 0.066681795 -0.032296564 -0.031417795 -0.033082828 -0.07293744 -0.002984675 0.1055388
-0.04421082 0.046846695 0.025423462 -0.14546221 -0.19528913 0.03575673 0.19510539 0.0073727705
-0.03255285 -0.10127601

mask f4 [50, 50]
00000000: 0000 803f 0000 803f 0000 803f 0000 803f
00000010: 0000 803f 0000 803f 0000 803f 0000 803f
00000020: 0000 803f 0000 803f 0000 803f 0000 803f
00000030: 0000 803f 0000 803f 0000 803f 0000 803f
00000040: 0000 803f 0000 803f 0000 803f 0000 803f
00000050: 0000 803f 0000 803f 0000 803f 0000 803f
00000060: 0000 803f 0000 803f 0000 803f 0000 803f
00000070: 0000 803f 0000 803f 0000 803f 0000 803f
00000080: 0000 803f 0000 803f 0000 803f 0000 803f
00000090: 0000 803f 0000 803f 0000 803f 0000 803f
000000a0: 0000 803f 0000 803f 0000 803f 0000 803f
000000b0: 0000 803f 0000 803f 0000 803f 0000 803f
000000c0: 0000 803f 0000 803f 0000 803f 0000 803f
000000d0: 0000 803f 0000 803f 0000 803f 0000 803f
000000e0: 0000 803f 0000 803f 0000 803f 0000 803f
000000f0: 0000 803f 0000 803f 0000 803f 0000 803f
00000100: 0000 803f 0000 803f 0000 803f 0000 803f
00000110: 0000 803f 0000 803f 0000 803f 0000 803f
00000120: 0000 803f 0000 803f 0000 803f 0000 803f
00000130: 0000 803f 0000 803f 0000 803f 0000 803f
00000140: 0000 803f 0000 803f 0000 803f 0000 803f
00000150: 0000 803f 0000 803f 0000 803f 0000 803f
00000160: 0000 803f 0000 803f 0000 803f 0000 803f
00000170: 0000 803f 0000 803f 0000 803f 0000 803f
00000180: 0000 803f 0000 803f 0000 803f 0000 803f
00000190: 0000 803f 0000 803f 0000 803f 0000 803f
000001a0: 0000 803f 0000 803f 0000 803f 0000 803f
000001b0: 0000 803f 0000 803f 0000 803f 0000 803f
000001c0: 0000 803f 0000 803f 0000 803f 0000 803f
000001d0: 0000 803f 0000 803f 0000 803f 0000 803f
000001e0: 0000 803f 0000 803f 0000 803f 0000 803f
000001f0: 0000 803f 0000 803f 0000 803f 0000 803f
00000200: 0000 803f 0000 803f 0000 803f 0000 803f
00000210: 0000 803f 0000 803f 0000 803f 0000 803f
00000220: 0000 803f 0000 803f 0000 803f 0000 803f
00000230: 0000 803f 0000 803f 0000 803f 0000 803f
00000240: 0000 803f 0000 803f 0000 803f 0000 803f
00000250: 0000 803f 0000 803f 0000 803f 0000 803f
00000260: 0000 803f 0000 803f 0000 803f 0000 803f
00000270: 0000 803f 0000 803f 0000 803f 0000 803f
00000280: 0000 803f 0000 803f 0000 803f 0000 803f
00000290: 0000 803f 0000 803f 0000 803f 0000 803f
000002a0: 0000 803f 0000 803f 0000 803f 0000 803f
000002b0: 0000 803f 0000 803f 0000 803f 0000 803f
000002c0: 0000 803f 0000 803f 0000 803f 0000 803f
000002d0: 0000 803f 0000 803f 0000 803f 0000 803f
000002e0: 0000 803f 0000 803f 0000 803f 0000 803f
000002f0: 0000 803f 0000 803f 0000 803f 0000 803f
00000300: 0000 803f 0000 803f 0000 803f 0000 803f
00000310: 0000 803f 0000 803f 0000 803f 0000 803f
00000320: 0000 803f 0000 803f 0000 803f 0000 803f
00000330: 0000 803f 0000 803f 0000 803f 0000 803f
00000340: 0000 803f 0000 803f 0000 803f 0000 803f
00000350: 0000 803f 0000 803f 0000 803f 0000 803f
00000360: 0000 803f 0000 803f 0000 803f 0000 803f
00000370: 0000 803f 0000 803f 0000 803f 0000 803f
00000380: 0000 803f 0000 803f 0000 803f 0000 803f
00000390: 0000 803f 0000 803f 0000 803f 0000 803f
000003a0: 0000 803f 0000 803f 0000 803f 0000 803f
000003b0: 0000 803f 0000 803f 0000 803f 0000 803f
000003c0: 0000 803f 0000 803f 0000 803f 0000 803f
000003d0: 0000 803f 0000 803f 0000 803f 0000 803f
000003e0: 0000 803f 0000 803f 0000 803f 0000 803f
000003f0: 0000 803f 0000 803f 0000 803f 0000 803f
1.0 1.0 1.0 1.0 1.0 1.0 1.0 1.0
1.0 1.0 1.0 1.0 1.0 1.0 1.0 1.0
1.0 1.0 1.0 1.0 1.0 1.0 1.0 1.0
1.0 1.0 1.0 1.0 1.0 1.0 1.0 1.0
1.0 1.0 1.0 1.0 1.0 1.0 1.0 1.0
1.0 1.0 1.0 1.0 1.0 1.0 1.0 1.0
1.0 1.0 1.0 1.0 1.0 1.0 1.0 1.0
1.0 1.0 1.0 1.0 1.0 1.0 1.0 1.0
1.0 1.0 1.0 1.0 1.0 1.0 1.0 1.0
1.0 1.0 1.0 1.0 1.0 1.0 1.0 1.0
1.0 1.0 1.0 1.0 1.0 1.0 1.0 1.0
1.0 1.0 1.0 1.0 1.0 1.0 1.0 1.0
1.0 1.0 1.0 1.0 1.0 1.0 1.0 1.0
1.0 1.0 1.0 1.0 1.0 1.0 1.0 1.0
1.0 1.0 1.0 1.0 1.0 1.0 1.0 1.0
1.0 1.0 1.0 1.0 1.0 1.0 1.0 1.0
1.0 1.0 1.0 1.0 1.0 1.0 1.0 1.0
1.0 1.0 1.0 1.0 1.0 1.0 1.0 1.0
1.0 1.0 1.0 1.0 1.0 1.0 1.0 1.0
1.0 1.0 1.0 1.0 1.0 1.0 1.0 1.0
1.0 1.0 1.0 1.0 1.0 1.0 1.0 1.0
1.0 1.0 1.0 1.0 1.0 1.0 1.0 1.0
1.0 1.0 1.0 1.0 1.0 1.0 1.0 1.0
1.0 1.0 1.0 1.0 1.0 1.0 1.0 1.0
1.0 1.0 1.0 1.0 1.0 1.0 1.0 1.0
1.0 1.0 1.0 1.0 1.0 1.0 1.0 1.0
1.0 1.0 1.0 1.0 1.0 1.0 1.0 1.0
1.0 1.0 1.0 1.0 1.0 1.0 1.0 1.0
1.0 1.0 1.0 1.0 1.0 1.0 1.0 1.0
1.0 1.0 1.0 1.0 1.0 1.0 1.0 1.0
1.0 1.0 1.0 1.0 1.0 1.0 1.0 1.0
1.0 1.0 1.0 1.0 1.0 1.0 1.0 1.0

weight f4 [4, 50]
00000000: 8003 bf3d 808a 11bb 06ca ef3d 2627 3dbd
00000010: 3822 9d3d b4ae 09be 7dfb 013e f63a db3d
00000020: 5c4b dc3d b8aa a4bd d455 233d 8072 2fbb
00000030: 3010 a83d 16d5 bcbd 1071 5fbc 7684 f63d
00000040: 980b ce3c 983e 063d 72f3 db3d 143f 903d
00000050: a0ee 243d 3d1c 0f3e 3eaf c73d c983 05be
00000060: 4cb9 9b3d 5466 c7bc da7e 9dbd 9636 f63d
00000070: a0a2 e23b ed6b 9cbd b1e2 093e a8cd 88bc
00000080: d07a 77bc c41b 48bd 8dae d7bd ce7a d83d
00000090: 4096 dc3d 5413 443d d432 ae3d b43d d7bd
000000a0: 40a0 1e3b 1208 13bd 686b bbbd 0043 44bd
000000b0: fe46 e2bd 8eca 2abd 0fb5 063e f496 d73d
000000c0: 8040 313c 000b 333a 6ebd fa3d 5098 2abc
000000d0: 6bf7 033e 7c12 01bd 041f 9bbc e07e a83d
000000e0: 0096 7e3d 35f3 f0bd e6c8 a3bd 807b 3cbd
000000f0: e064 a23b 788c c33c 7830 193d a890 d63d
00000100: 54e4 21bd c437 313d b893 ef3c 0081 823b
00000110: 8095 863b 57c8 cfbd 462e 9b3d d2f1 47bd
00000120: a6b7 1ebd a63e d33d 28f2 c93d 5853 b33c
00000130: bfff 0c3e 1a19 db3d 0806 a7bd 38ce a23d
00000140: ce0c 0fbe 236d 86bd 11f8 fdbd 3cf0 b63d
00000150: 708b d3bd 0aab fabd 6436 c9bd 7d68 013e
00000160: 148f e9bd 2099 543d 4834 c9bc a034 b33c
00000170: 7694 f03d 0002 743d 4cc0 9a3d ec8c 3a3d
00000180: b4b9 e7bc 1a12 2abd 6c12 9e3d 7081 58bc
00000190: 56b7 14be db9e 04be 883a 6a3d 7b17 c33d
000001a0: 5840 a4bb 3ee6 a8bd b0b5 8e3d 1b7f 43bd
000001b0: 5f05 313b 2dc8 4cbc 0adb e93c 9bb5 123d
000001c0: cfba 343d 2f1a 2f3e 220f aa3d b41e c6bd
000001d0: d8cd 0e3e 1bbf d53d a797 263d 0ea0 adbc
000001e0: d3f7 c0bc f063 9cbd bbcd 313e e854 953d
000001f0: 03c5 2d3d bc84 103a 2548 a73d 2f04 463b
00000200: a885 f53d 4660 9d3c 7cf4 19be c875 7a3d
00000210: c745 0abe d98d 963d f4d1 d03c 58c0 803c
00000220: 6ccc 1e3c 2040 97bd 7d0b a7bc e228 893c
00000230: b217 51bd 1f47 9c3d 62dd 09be 1955 84bd
00000240: d098 54bd d68b a13d e586 3a3e fa92 dc3d
00000250: ace0 8bbd 722c d8bb 7254 063d ef6b d5bd
00000260: 10a5 8ebd fcf0 83bd 7ff8 86bc 2bc7 4f3d
00000270: 201c 43be de7b 3dbd e364 5a3d ef7e 6d3c
00000280: 5a28 ab3d bef5 21bd 3937 983d 8d4c d2bd
00000290: 8e06 cc3c 3d71 1c3e f7ad 0abe c617 f4bd
000002a0: 1a77 4e3d 57d0 433d 76c6 75bd 61aa 283d
000002b0: d110 463e 4c40 dabc 071b d03d 3d0e fbb9
000002c0: 5dc6 e7bd 9ebf 373d f415 37bd 9cff b8bd
000002d0: f3e5 223e a63a 96bc 321b f3bd f6b2 8c3d
000002e0: 7d3e 2b3e ac5a 67bc 8dbd 543d eb76 bc3d
000002f0: a16c 54bd fc45 fa3d 99f8 9b3d 01b9 97bd
00000300: aa15 d0bc 8e8b 60bd fbf5 203d d785 b03d
00000310: 4da6 c4bd e999 9dbd 849f 253e b136 233e
0.093268394 -0.0022207797 0.11708455 -0.046179913 0.07672542 -0.1344555 0.12693591 0.10704605
0.10756561 -0.080403745 0.039876774 -0.0026771128 0.082062125 -0.092203304 -0.013637796 0.12036984
0.025152013 0.032774538 0.10739793 0.07043281 0.040266633 0.13975616 0.09750222 -0.13038553
0.07603702 -0.024340786 -0.07690211 0.1202213 0.006916359 -0.07637773 0.13465382 -0.016699627
-0.015104964 -0.048854604 -0.1053134 0.10570298 0.107708454 0.047869995 0.085057884 -0.10509816
0.0024204403 -0.03589637 -0.091513455 -0.04791546 -0.11048697 -0.041697077 0.13155006 0.10526839
0.010818601 0.0006829947 0.12243162 -0.010412291 0.12887351 -0.03151177 -0.018935688 0.082273245
0.06215477 -0.11765138 -0.07997303 -0.046016216 0.004955873 0.023870692 0.03739974 0.1047681
-0.03952439 0.043266073 0.029245242 0.003982663 0.0041071773 -0.10145634 0.07577185 -0.048814602
-0.03874936 0.103146836 0.09860641 0.021890327 0.13769434 0.10698147 -0.08155447 0.07949489
-0.13969728 -0.06563785 -0.124008305 0.0893254 -0.1032933 -0.12239654 -0.09824827 0.12637515
-0.11404243 0.051903844 -0.024561062 0.02187568 0.11747067 0.05957222 0.07556209 0.04554455
-0.028286792 -0.04152117 0.077183574 -0.013214454 -0.14523062 -0.12951224 0.057184726 0.09525963
-0.005012553 -0.0824704 0.06968248 -0.04772864 0.0027011258 -0.0124988975 0.028546829 0.035817724
0.044123467 0.17099832 0.083036676 -0.09673825 0.1394571 0.10436841 0.04067197 -0.021194484
-0.023555672 -0.07636249 0.17363636 0.07291585 0.042424213 0.0005512943 0.08168057 0.0030214896
0.119883835 0.019210946 -0.1503467 0.06114748 -0.1350318 0.07351274 0.025490738 0.015716717
0.009692293 -0.07385278 -0.02039122 0.016743127 -0.05104799 0.07630753 -0.13463357 -0.064615436
-0.051903546 0.07888 0.1821552 0.10770221 -0.06829962 -0.006597095 0.032795377 -0.10420977
-0.06965077 -0.064424485 -0.016475914 0.05072705 -0.19053698 -0.046260707 0.05331887 0.014495595
0.08357306 -0.039541 0.07432408 -0.10268507 0.02490547 0.15277572 -0.13542925 -0.11918597
0.050406553 0.04780611 -0.06000372 0.04117811 0.19342352 -0.026641987 0.10161405 -0.0004788506
-0.11317132 0.044860475 -0.04469867 -0.090331286 0.15908031 -0.018338513 -0.118704215 0.068700716
0.16723056 -0.014120739 0.051938582 0.09202369 -0.05186141 0.1222038 0.076157756 -0.074083336
-0.025400955 -0.05482059 0.039297085 0.08619278 -0.09602032 -0.07695372 0.16174132 0.15938832

bias f4 [4]
00000000: 4744 a53d b284 8dbd f58a 793c 5ab6 adbd
0.080696635 -0.06910075 0.015230884 -0.084820464

mask f4 [4, 50]
00000000: 0000 0000 0000 0000 0000 0000 0000 0000
00000010: 0000 0000 0000 0000 0000 0000 0000 0000
00000020: 0000 0000 0000 0000 0000 0000 0000 0000
00000030: 0000 0000 0000 0000 0000 0000 0000 0000
00000040: 0000 0000 0000 0000 0000 0000 0000 0000
00000050: 0000 0000 0000 0000 0000 0000 0000 0000
00000060: 0000 0000 0000 0000 0000 0000 0000 0000
00000070: 0000 0000 0000 0000 0000 0000 0000 0000
00000080: 0000 0000 0000 0000 0000 0000 0000 0000
00000090: 0000 0000 0000 0000 0000 0000 0000 0000
000000a0: 0000 0000 0000 0000 0000 0000 0000 0000
000000b0: 0000 0000 0000 0000 0000 0000 0000 0000
000000c0: 0000 0000 0000 0000 0000 0000 0000 0000
000000d0: 0000 0000 0000 0000 0000 0000 0000 0000
000000e0: 0000 0000 0000 0000 0000 0000 0000 0000
000000f0: 0000 0000 0000 0000 0000 0000 0000 0000
00000100: 0000 0000 0000 0000 0000 0000 0000 0000
00000110: 0000 0000 0000 0000 0000 0000 0000 0000
00000120: 0000 0000 0000 0000 0000 0000 0000 0000
00000130: 0000 0000 0000 0000 0000 0000 0000 0000
00000140: 0000 0000 0000 0000 0000 0000 0000 0000
00000150: 0000 0000 0000 0000 0000 0000 0000 0000
00000160: 0000 0000 0000 0000 0000 0000 0000 0000
00000170: 0000 0000 0000 0000 0000 0000 0000 0000
00000180: 0000 0000 0000 0000 0000 0000 0000 0000
00000190: 0000 803f 0000 803f 0000 803f 0000 803f
000001a0: 0000 803f 0000 803f 0000 803f 0000 803f
000001b0: 0000 803f 0000 803f 0000 803f 0000 803f
000001c0: 0000 803f 0000 803f 0000 803f 0000 803f
000001d0: 0000 803f 0000 803f 0000 803f 0000 803f
000001e0: 0000 803f 0000 803f 0000 803f 0000 803f
000001f0: 0000 803f 0000 803f 0000 803f 0000 803f
00000200: 0000 803f 0000 803f 0000 803f 0000 803f
00000210: 0000 803f 0000 803f 0000 803f 0000 803f
00000220: 0000 803f 0000 803f 0000 803f 0000 803f
00000230: 0000 803f 0000 803f 0000 803f 0000 803f
00000240: 0000 803f 0000 803f 0000 803f 0000 803f
00000250: 0000 803f 0000 803f 0000 803f 0000 803f
00000260: 0000 803f 0000 803f 0000 803f 0000 803f
00000270: 0000 803f 0000 803f 0000 803f 0000 803f
00000280: 0000 803f 0000 803f 0000 803f 0000 803f
00000290: 0000 803f 0000 803f 0000 803f 0000 803f
000002a0: 0000 803f 0000 803f 0000 803f 0000 803f
000002b0: 0000 803f 0000 803f 0000 803f 0000 803f
000002c0: 0000 803f 0000 803f 0000 803f 0000 803f
000002d0: 0000 803f 0000 803f 0000 803f 0000 803f
000002e0: 0000 803f 0000 803f 0000 803f 0000 803f
000002f0: 0000 803f 0000 803f 0000 803f 0000 803f
00000300: 0000 803f 0000 803f 0000 803f 0000 803f
00000310: 0000 803f 0000 803f 0000 803f 0000 803f
0.0 0.0 0.0 0.0 0.0 0.0 0.0 0.0
0.0 0.0 0.0 0.0 0.0 0.0 0.0 0.0
0.0 0.0 0.0 0.0 0.0 0.0 0.0 0.0
0.0 0.0 0.0 0.0 0.0 0.0 0.0 0.0
0.0 0.0 0.0 0.0 0.0 0.0 0.0 0.0
0.0 0.0 0.0 0.0 0.0 0.0 0.0 0.0
0.0 0.0 0.0 0.0 0.0 0.0 0.0 0.0
0.0 0.0 0.0 0.0 0.0 0.0 0.0 0.0
0.0 0.0 0.0 0.0 0.0 0.0 0.0 0.0
0.0 0.0 0.0 0.0 0.0 0.0 0.0 0.0
0.0 0.0 0.0 0.0 0.0 0.0 0.0 0.0
0.0 0.0 0.0 0.0 0.0 0.0 0.0 0.0
0.0 0.0 0.0 0.0 1.0 1.0 1.0 1.0
1.0 1.0 1.0 1.0 1.0 1.0 1.0 1.0
1.0 1.0 1.0 1.0 1.0 1.0 1.0 1.0
1.0 1.0 1.0 1.0 1.0 1.0 1.0 1.0
1.0 1.0 1.0 1.0 1.0 1.0 1.0 1.0
1.0 1.0 1.0 1.0 1.0 1.0 1.0 1.0
1.0 1.0 1.0 1.0 1.0 1.0 1.0 1.0
1.0 1.0 1.0 1.0 1.0 1.0 1.0 1.0
1.0 1.0 1.0 1.0 1.0 1.0 1.0 1.0
1.0 1.0 1.0 1.0 1.0 1.0 1.0 1.0
1.0 1.0 1.0 1.0 1.0 1.0 1.0 1.0
1.0 1.0 1.0 1.0 1.0 1.0 1.0 1.0
1.0 1.0 1.0 1.0 1.0 1.0 1.0 1.0

weight f4 [50, 2]
00000000: 9c0a cc3c 9479 ccbe 3eb4 ce3e 3f51 22bf
00000010: 6ceb 383e c008 083d 7ffe 39be be1b c13e
00000020: 5c2f 18bf 007c 293b 720d 143f 01d6 b6be
00000030: 4d90 9dbe 36f6 c63e 18b2 02bd c23b e8be
00000040: 0fad b83e 00ad 0dbb 5187 a0be d7f2 2b3f
00000050: e8ac 243f e022 91bc 6288 6bbf 90d2 e3bd
00000060: 0e04 19bd 26c0 aebe 385e 4b3e e847 4e3e
00000070: 99cb d13e 86be b23e fa5b 0abf c3b6 abbe
00000080: 7f27 dc3d f4db 0f3e f0da be3e b888 aebd
00000090: 75bb 143e a247 b13e 97cd fabe c371 00bf
000000a0: 995d 9ebe 2804 133e 8b81 f2bd 704b 853e
000000b0: c3ef d6be 269f dabe a17c bb3e 6a26 943e
000000c0: 7aa3 c3be 19be 333f 8a5c a4bd f0cd a3be
000000d0: e5ab 19bf ff89 093f daf6 193f fd94 dfbe
000000e0: 7628 ea3d 92e7 0ebf eea8 46be 550d 003f
000000f0: 28e1 f23d e612 67be fcd5 f1be 5c6f 503e
00000100: 596d b43e 0093 a7bb 046e c0be c878 b2bd
00000110: 6c65 20be 499a 0e3f 18be 25bf 2426 0c3e
00000120: 4320 1b3f 4c86 013e 1742 e33e 2ae6 ad3e
00000130: 22be 183e 7308 0a3f 729d f23e 508b cebd
00000140: 0825 033f 0146 0bbf 60a4 f3be 3d28 013f
00000150: 3516 1cbd ab7b 0e3f b1f6 0c3e 4859 1f3e
00000160: 8e22 883e ba4a d63e c06a bd3e c006 93be
00000170: 75c6 503e 205d 2abd d375 b9bd d562 193f
00000180: 9552 a1be ab38 1c3f a477 43bd 4d22 90be
0.024907403 -0.39936507 0.4037189 -0.6340522 0.18058556 0.03321147 -0.18163489 0.37716478
-0.59447265 0.0025861263 0.57833016 -0.35710147 -0.30774155 0.3885972 -0.031908125 -0.45358092
0.36069533 -0.0021618009 -0.31353238 0.6716742 0.64326334 -0.017716825 -0.9200498 -0.11124146
-0.037357382 -0.34130973 0.1986016 0.20144618 0.40975645 0.34910983 -0.54046595 -0.33537874
0.10749721 0.14048749 0.3727641 -0.08522171 0.14524634 0.34624964 -0.48984978 -0.50173587
-0.30930784 0.14357054 -0.118411146 0.26034117 -0.419798 -0.42699546 0.36618522 0.28935558
-0.3821066 0.7021194 -0.08025463 -0.31993055 -0.60027915 0.5372619 0.6014229 -0.43668357
0.114334986 -0.558221 -0.19400379 0.50020343 0.118593514 -0.22565803 -0.4723357 0.2035498
0.35239676 -0.0051139593 -0.37583935 -0.087144434 -0.1566369 0.5570417 -0.64743185 0.13686424
0.605961 0.12648886 0.4438636 0.33964664 0.1491628 0.5391914 0.47385746 -0.100851655
0.5122838 -0.5440369 -0.47586346 0.50452024 -0.038107116 0.5565745 0.1376598 0.15561402
0.26588863 0.41853887 0.36995506 -0.28716087 0.20388205 -0.041592717 -0.09055676 0.5991643
-0.31508318 0.6102397 -0.04772152 -0.2815117

bias f4 [50]
00000000: b50b 67be 626c 76be f837 ffbe cb4d 5c3d
00000010: fb4d 0cbe 3507 063e 21c9 213f cd67 d6be
00000020: fd77 b33e b4d7 debe ba88 14bf bac0 043f
00000030: 14a6 cabd e34f d43e 9fed 273f 0d9e 99bc
00000040: 6d0c 97be c1c1 1e3f a468 30bf a171 373e
00000050: ec74 04bf 4cd1 72be 15a1 01bf 73c3 733e
00000060: 6b97 333f 3018 373f b295 e73c 264e 91be
00000070: 83ff ed3e e35d 11be d269 453e 0fa9 02be
00000080: a5a2 4c3e 6c84 9a3e c218 fd3e ee0f 0c3c
00000090: 6e95 3bbd b8d0 d83e 49da e4bd 11a1 82bd
000000a0: a514 e43c e473 1e3f 660b 4e3e 9e7e f7be
000000b0: bed9 503e ade6 083f 82df 3e3f b3ca 3c3f
000000c0: d7be fe3e 6e06 bfbb
-0.2256306 -0.24064782 -0.49847388 0.053785127 -0.13701622 0.13088687 0.63197523 -0.4187607
0.3505248 -0.43523943 -0.5802113 0.5185658 -0.09894958 0.414672 0.65596956 -0.018752122
-0.29501668 0.62014395 -0.6890967 0.1791444 -0.5174091 -0.23712653 -0.50636417 0.23805027
0.7015292 0.7152128 0.028269622 -0.28379935 0.46484002 -0.14195971 0.19278648 -0.12759803
0.19983919 0.30179155 0.4943295 0.00854872 -0.045796804 0.4234674 -0.11174447 -0.06378377
0.027841875 0.61895585 0.20121536 -0.4833879 0.20395562 0.53476983 0.74559796 0.73746794
0.49754974 -0.005829624

mask f4 [50, 2]
00000000: 0000 803f 0000 0000 0000 803f 0000 0000
00000010: 0000 803f 0000 0000 0000 803f 0000 0000
00000020: 0000 803f 0000 0000 0000 803f 0000 0000
00000030: 0000 803f 0000 0000 0000 803f 0000 0000
00000040: 0000 803f 0000 0000 0000 803f 0000 0000
00000050: 0000 803f 0000 0000 0000 803f 0000 0000
00000060: 0000 803f 0000 0000 0000 803f 0000 0000
00000070: 0000 803f 0000 0000 0000 803f 0000 0000
00000080: 0000 803f 0000 0000 0000 803f 0000 0000
00000090: 0000 803f 0000 0000 0000 803f 0000 0000
000000a0: 0000 803f 0000 0000 0000 803f 0000 0000
000000b0: 0000 803f 0000 0000 0000 803f 0000 0000
000000c0: 0000 803f 0000 0000 0000 803f 0000 0000
000000d0: 0000 803f 0000 0000 0000 803f 0000 0000
000000e0: 0000 803f 0000 0000 0000 803f 0000 0000
000000f0: 0000 803f 0000 0000 0000 803f 0000 0000
00000100: 0000 803f 0000 0000 0000 803f 0000 0000
00000110: 0000 803f 0000 0000 0000 803f 0000 0000
00000120: 0000 803f 0000 0000 0000 803f 0000 0000
00000130: 0000 803f 0000 0000 0000 803f 0000 0000
00000140: 0000 803f 0000 0000 0000 803f 0000 0000
00000150: 0000 803f 0000 0000 0000 803f 0000 0000
00000160: 0000 803f 0000 0000 0000 803f 0000 0000
00000170: 0000 803f 0000 0000 0000 803f 0000 0000
00000180: 0000 803f 0000 0000 0000 803f 0000 0000
1.0 0.0 1.0 0.0 1.0 0.0 1.0 0.0
1.0 0.0 1.0 0.0 1.0 0.0 1.0 0.0
1.0 0.0 1.0 0.0 1.0 0.0 1.0 0.0
1.0 0.0 1.0 0.0 1.0 0.0 1.0 0.0
1.0 0.0 1.0 0.0 1.0 0.0 1.0 0.0
1.0 0.0 1.0 0.0 1.0 0.0 1.0 0.0
1.0 0.0 1.0 0.0 1.0 0.0 1.0 0.0
1.0 0.0 1.0 0.0 1.0 0.0 1.0 0.0
1.0 0.0 1.0 0.0 1.0 0.0 1.0 0.0
1.0 0.0 1.0 0.0 1.0 0.0 1.0 0.0
1.0 0.0 1.0 0.0 1.0 0.0 1.0 0.0
1.0 0.0 1.0 0.0 1.0 0.0 1.0 0.0
1.0 0.0 1.0 0.0
