03b/GPS_1256775418/model_trad_seed_98765.pth (torch, 276498 bytes, 76 tensors)

_shift f4 [2]
00000000: 89c3 2540 7276 dfbf
2.5900595 -1.7458022

_scale f4 [2]
00000000: 54fe 303e ca4e 5e40
0.17284518 3.473559

weight f4 [50, 2]
00000000: 64f6 a9bd 8ea5 a03e 4ae9 a3be e41c 32be
00000010: 93f8 aebe 088e c3be 5a83 27bf 89f6 0bbf
00000020: 544f 32bf cbde 063f 858b 5dbe c28a d63e
00000030: 993f 1abf 7843 b93d 981a 253f 6cb2 2cbe
00000040: 9376 fa3e f08f 103e 33ba 8c3e c713 0e3f
00000050: 1184 02bf a5c6 06bf de01 0f3d c819 debd
00000060: 8b66 1f3f 60f4 f93d f073 cd3e 46dd b93e
00000070: 8376 a8bd 0a57 d83e 2a5d 013f d187 11bf
00000080: be0a 443f 00a0 553c 3335 9c3d 87a5 073f
00000090: 8a95 1ebf e5e3 223f 735e c2be b0cd adbd
000000a0: 3b41 f53d 3cab 203e 4b4e 8ebd dbc1 243f
000000b0: 0e24 4fbe 6ac4 a53e 3aef d33d 0602 fb3e
000000c0: e3e1 883e 600d 863e 2c65 23bf c61f e13e
000000d0: 9e22 13be e8aa 90bd b5d9 79be 1c57 033e
000000e0: f29e 1abf 36b8 e13e 6b66 333f 4299 9a3e
000000f0: bdf3 0abf ec37 263e f006 5dbe 06df 2bbf
00000100: 8a45 49be 24cb 6e3e e056 423e 2e46 b83e
00000110: bde1 cdbe c080 123d 0e4f 6abe 00d0 b5ba
00000120: e8fb c33b 2857 8cbe a0fe 313e 0044 e83d
00000130: 0c59 7a3e 4037 903e 99bf ab3e 0f38 04bf
00000140: ac62 f2bd 0425 f6be b215 73be e8e5 f53d
00000150: 3033 fc3e 153f 013f 83af 1d3e 403f f83d
00000160: c213 fc3c 4c37 8d3e 68eb e33d 6828 f2be
00000170: f2f2 533e e8fd 563e 377e 06be 72f0 ca3e
00000180: e6ae 1bbf ecb7 723e 1f29 683e 809d 33bf
-0.082989484 0.31376308 -0.32013923 -0.17393833 -0.34174022 -0.381943 -0.654348 -0.5467306
-0.69652295 0.52683705 -0.21635254 0.4190274 -0.6025329 0.09046072 0.64493704 -0.16864938
0.4891859 0.14117408 0.2748581 0.5549893 -0.5098277 -0.5264686 0.03491389 -0.10844761
0.62265843 0.12204814 0.40127516 0.3630163 -0.08225729 0.42253906 0.5053278 -0.56847864
0.7657889 0.013038635 0.076273344 0.5298695 -0.6194693 0.6362899 -0.37962684 -0.084864974
0.11975332 0.1569032 -0.06948527 0.643583 -0.20228598 0.32376415 0.10348363 0.4902498
0.26734838 0.2618208 -0.6382625 0.43969554 -0.14368674 -0.07063848 -0.24399455 0.12826198
-0.6039878 0.44085854 0.7007815 0.3019505 -0.54278165 0.1623227 -0.21584678 -0.6713718
-0.19655433 0.2331968 0.18978453 0.35991043 -0.40211287 0.035767317 -0.2288172 -0.0013871193
0.0059809573 -0.27410245 0.17382288 0.11341095 0.24448031 0.28167152 0.33544615 -0.5164804
-0.118352264 -0.48075116 -0.23738745 0.12006742 0.49257803 0.5048688 0.15398984 0.12121439
0.03077114 0.2758125 0.111288846 -0.47296453 0.20698145 0.20995295 -0.13134085 0.3963657
-0.6081375 0.23702973 0.22671936 -0.701622

bias f4 [50]
00000000: 5f79 1b3f 2fd2 083f 86da f03e 5b06 04bf
00000010: 40a8 53bf b862 bdbc 9183 073e e201 3a3e
00000020: 30c9 373f a770 90bd 98c2 913c c46d c83e
00000030: 2ef1 413f c8e1 003f 734a dfbe c8ad 9c3e
00000040: ec75 9cbe 3e3a 32bf 89ec 1d3e c611 87bd
00000050: 30a6 a5be c29a efbe a025 aabe 64eb 753e
00000060: 5732 26bf c62e d13b 43d3 cabd dcb5 a73e
00000070: 69ad be3d 4e26 2a3f edb4 6fbe 70f4 6dbe
00000080: 10f1 18bf f88c 833e 72f9 15bf 5243 ef3e
00000090: e569 2fbf 6a37 07bf c7a4 dfbd cd45 58bd
000000a0: ed52 cf3e 2e8c 353f 67a9 fc3e 2e28 bf3e
000000b0: 40cb 25bf b730 76be 4b5b 863e b11e 343f
000000c0: 6c54 4f3e 90f7 25bf
0.6073207 0.53445715 0.4704172 -0.515722 -0.82678604 -0.023118362 0.13233782 0.1816478
0.7179136 -0.07052737 0.017792985 0.39146245 0.75758636 0.50344515 -0.43611488 0.30601335
-0.30558717 -0.6962012 0.15422262 -0.06595187 -0.32353354 -0.46797758 -0.3323183 0.24015576
-0.6492056 0.0063837497 -0.09903576 0.32755935 0.09310419 0.664647 -0.23408861 -0.23237777
-0.5974283 0.25693488 -0.5858375 0.4673105 -0.6852096 -0.5281893 -0.10920101 -0.052800942
0.40492955 0.7091702 0.49347994 0.37335342 -0.6476326 -0.2404202 0.26241526 0.7035933
0.20247048 -0.64830875

mask f4 [50, 2]
00000000: 0000 803f 0000 0000 0000 803f 0000 0000
00000010: 0000 803f 0000 0000 0000 803f 0000 0000
00000020: 0000 803f 0000 0000 0000 803f 0000 0000
00000030: 0000 803f 0000 0000 0000 803f 0000 0000
00000040: 0000 803f 0000 0000 0000 803f 0000 0000
00000050: 0000 803f 0000 0000 0000 803f 0000 0000
00000060: 0000 803f 0000 0000 0000 803f 0000 0000
00000070: 0000 803f 0000 0000 0000 803f 0000 0000
00000080: 0000 803f 0000 0000 0000 803f 0000 0000
00000090: 0000 803f 0000 0000 0000 803f 0000 0000
000000a0: 0000 803f 0000 0000 0000 803f 0000 0000
000000b0: 0000 803f 0000 0000 0000 803f 0000 0000
000000c0: 0000 803f 0000 0000 0000 803f 0000 0000
000000d0: 0000 803f 0000 0000 0000 803f 0000 0000
000000e0: 0000 803f 0000 0000 0000 803f 0000 0000
000000f0: 0000 803f 0000 0000 0000 803f 0000 0000
00000100: 0000 803f 0000 0000 0000 803f 0000 0000
00000110: 0000 803f 0000 0000 0000 803f 0000 0000
00000120: 0000 803f 0000 0000 0000 803f 0000 0000
00000130: 0000 803f 0000 0000 0000 803f 0000 0000
00000140: 0000 803f 0000 0000 0000 803f 0000 0000
00000150: 0000 803f 0000 0000 0000 803f 0000 0000
00000160: 0000 803f 0000 0000 0000 803f 0000 0000
00000170: 0000 803f 0000 0000 0000 803f 0000 0000
00000180: 0000 803f 0000 0000 0000 803f 0000 0000
1.0 0.0 1.0 0.0 1.0 0.0 1.0 0.0
1.0 0.0 1.0 0.0 1.0 0.0 1.0 0.0
1.0 0.0 1.0 0.0 1.0 0.0 1.0 0.0
1.0 0.0 1.0 0.0 1.0 0.0 1.0 0.0
1.0 0.0 1.0 0.0 1.0 0.0 1.0 0.0
1.0 0.0 1.0 0.0 1.0 0.0 1.0 0.0
1.0 0.0 1.0 0.0 1.0 0.0 1.0 0.0
1.0 0.0 1.0 0.0 1.0 0.0 1.0 0.0
1.0 0.0 1.0 0.0 1.0 0.0 1.0 0.0
1.0 0.0 1.0 0.0 1.0 0.0 1.0 0.0
1.0 0.0 1.0 0.0 1.0 0.0 1.0 0.0
1.0 0.0 1.0 0.0 1.0 0.0 1.0 0.0
1.0 0.0 1.0 0.0

weight f4 [50, 2]
00000000: d30d 19bf 5311 b4be 471a 063f 31d5 273c
00000010: d240 9d3e 202a 20bf 9f4a 053f 4916 b0bc
00000020: 323f d7be 0414 3abd c609 f43d 702c 173f
00000030: 52ca 123f 7e2d d3be f1cf 173f aea3 1f3f
00000040: 7e4a 8f3e d388 083f 76ba e53e df46 a9bd
00000050: eeab 0ebe a68a 22bf a7dd b2be a49d af3e
00000060: 1578 c33e 076a b2be 4b93 d6bd ffed 253f
00000070: 0ba9 adbe a373 03bf db4c b8be a179 1a3f
00000080: 26c7 053e deeb 02bd 9ac8 39bf 5212 2d3f
00000090: a448 143f 3eeb 1ebf f507 09bf 3d3f 0fbe
000000a0: ee25 0ebf c538 6e3e 7cb4 12bf 23e9 69bc
000000b0: c6d8 01bd c6d2 04bf 53ac 1e3f ca6c 2e3d
000000c0: 2605 2e3f f682 45be a82d 073f c1c7 2fbf
000000d0: a885 a93e c340 043f 3ab5 05bf e856 48be
000000e0: 8339 a9be 3649 e53e 80fa 813e 4868 ca3d
000000f0: 201c c43e 2a60 0a3f 0b7a 46bf 5042 423d
00000100: a0b4 913e 5006 34bf 5eeb b83e 0a9a a1bd
00000110: 934a 813e e0ed b13d 7724 823e 7ef1 27be
00000120: ff53 e23e a5dc 2d3f d5ad c7bd f3e4 70bc
00000130: 14b8 d2bd 564a 4a3e 96bd 3d3e c66b 1bbe
00000140: 9775 e63e 464d 113f b28b f7be 4932 5b3d
00000150: 0517 ed3e e7ce 0e3e 3f7e 80be 6d1c a4be
00000160: 2cc3 813b dab6 4ebe 0901 0c3e 62d1 d1be
00000170: e0f6 41bf 783a 7f3e fbd1 15bf 799c 1f3f
00000180: 7c9f 55bd 7894 313e 7949 00bf 924e 2f3e
-0.5978672 -0.35169467 0.52383846 0.0102437 0.30713516 -0.6256428 0.5206699 -0.021495001
-0.42040402 -0.045429245 0.11915927 0.5905218 0.57339966 -0.41245645 0.5930167 0.6235913
0.2798652 0.5333378 0.4486882 -0.08265471 -0.13932773 -0.6349281 -0.34934732 0.34299958
0.38177553 -0.34846517 -0.10477313 0.6481628 -0.33918032 -0.5134832 -0.35996136 0.6034184
0.1306425 -0.03196322 -0.7257172 0.6760608 0.5792334 -0.620777 -0.53527766 -0.13988967
-0.55526626 0.23263843 -0.5730665 -0.0142767755 -0.031700872 -0.51884115 0.61981696 0.042584218
0.67976606 -0.19288239 0.5280404 -0.68664175 0.33109784 0.5166132 -0.52229655 -0.19564402
-0.3305169 0.44782418 0.2538643 0.09883171 0.38302708 0.54052985 -0.7752997 0.04742652
0.28458118 -0.7032213 0.3611707 -0.07890709 0.25252208 0.08687949 0.25418445 -0.16400716
0.4420471 0.679148 -0.09749953 -0.014703023 -0.10289016 0.1975492 0.18529353 -0.15177831
0.4501159 0.56758535 -0.48348767 0.053514753 0.46306625 0.13946114 -0.25096318 -0.32052937
0.003960034 -0.2018694 0.1367227 -0.4098006 -0.75767326 0.24924648 -0.5852353 0.62348133
-0.05215405 0.17341793 -0.5011211 0.17119816

bias f4 [50]
00000000: 6fa2 103f dd92 e43d 66f6 9c3d b0d6 2ebf
00000010: c6ba 983e e1b6 79be 6437 abbc 48b4 4e3f
00000020: 4e11 e7be 281a 043f 9fd3 a4be 2cfb 1e3e
00000030: 32bf 5b3e a6d1 e1be 080b 09be 0878 26bf
00000040: 946e d5be 24bd d2be 9814 4cbf 6e2a fb3e
00000050: 499f 283f 58dd 803e a24e 233e d0bb 2bbf
00000060: 5916 a2be f3e9 b33e 7f22 b53e 25af 193f
00000070: c301 e33e 206c 243e 384d 15bd 8d25 393f
00000080: 3ff2 813e 7282 c03e 7a69 e33e 5785 d7bd
00000090: cd96 95be e80d 8d3e 83b7 23bf f5aa fd3e
000000a0: 14d0 02bf 96f5 15bf 3300 86be 7fc4 0bbf
000000b0: 07bc 363e 50ba 2ebf a747 f23e fdd2 19be
000000c0: 9f18 993e 97cf acbe
0.56497854 0.111608244 0.07664184 -0.6829634 0.29829997 -0.24386169 -0.020900436 0.8074384
-0.4513039 0.5160241 -0.32192704 0.15525502 0.21459654 -0.44105262 -0.13383114 -0.65026903
-0.41685927 -0.41159928 -0.79718924 0.4905581 0.6586805 0.25168872 0.15947965 -0.67083454
-0.31657675 0.35139427 0.3537788 0.60032874 0.44337282 0.16056871 -0.036450595 0.7232292
0.25380132 0.37599522 0.4441641 -0.105234794 -0.29216614 0.27549672 -0.6395189 0.49544492
-0.5109875 -0.5857786 -0.26172027 -0.54596704 0.17845164 -0.6825304 0.4732029 -0.15021892
0.29901597 -0.33752128

weight f4 [50, 50]
00000000: d82a 0f3e a711 b5bd d511 173d 3a8a f8bd
00000010: 19a5 9c3d ffb8 ccbb f362 e93d e27c d93d
00000020: 8f07 293c 2582 f93d 88d7 ecbb b1bd df3b
00000030: df07 1ebe fc1a e9bd 29fb fbbd 222d c8bd
00000040: cdba 823d 1fb5 ee3d 3dc2 32bd db13 483d
00000050: cff0 153e cd42 a33d da7a 78bd 35cd b73d
00000060: df66 3fbd 9e2d 893d 0270 8abd 6dca 013e
00000070: 86fa f0bd 6102 a13d 89db f93d 6fc4 b13c
00000080: fd5f 10be f672 ba3d 24bf 073e dac9 fa3d
00000090: 9244 cabd 3bef f73d b11e 123e 6df7 a5bd
000000a0: 6839 05be 4eee afbd a4e0 84bd 8f27 e43d
000000b0: 807c b33d bada 4e3d 5da4 ccbd 8b0f 15be
000000c0: a4c8 61bc 3c68 9b3c 0c96 a73d 71cb 793d
000000d0: 7626 fd3d 7c83 003e 0863 a4bb d8df 01be
000000e0: 9d6c 26bd b985 22be f643 f9bd ce7d cabd
000000f0: 4d88 493e 613f 223e 16ae 8cbd 2416 7b3d
00000100: f400 513d 80c5 943b 631f b13d f81c f3bb
00000110: 6a91 413d 3d7b bcbd d68c 683c 8ebd 893c
00000120: 037d 09bd 249a 133d 235a 4f3d ace3 9bbd
00000130: ab8d 873d 9b0b 70bd 2ecf 9ebd 3436 963d
00000140: 1430 c43d c2ff 04be 2eee 9dbd 1712 a1bc
00000150: 3afd 18bd 8b02 a53b b62b 953c 56be bcbb
00000160: 7e46 27be 5141 18be 02b8 393c e073 f7bc
00000170: fc10 653d 5b85 80bb 0523 25be e517 18be
00000180: fbec 633d 2121 63bd 59ce babb 43b9 ba3d
00000190: 08e6 e83d e023 00be 3bac 4cbd b069 58bd
000001a0: a0db 97bc d3fe 90bd 6337 1abe 411d 2abe
000001b0: c848 febc a2b1 dc3c a834 e93d 19cb 0abe
000001c0: 8a69 b13d e559 a8bd 7679 e43c f2a8 4cbd
000001d0: 9fa7 bbbc c893 17be 936f b2bd fba4 fb3d
000001e0: d549 d4bd 0813 a4bd 14a8 913d 0c29 b93d
000001f0: 1854 dd3d 5cad 2ebe 8c52 d03d 7562 c5bd
00000200: 5c88 693a 9407 25be 003f 0c3e 5c83 e43d
00000210: 2c04 ff3d 5a0d 1dbd cb94 843d 26e1 b7bb
00000220: aa3a e53d cff4 2a3d a412 90bd 605a e53d
00000230: 5eaa 043c a3d9 eb3d effd 1a3b fbf2 10be
00000240: 5329 19be 047e d5bd 2bc5 003e 5738 b83b
00000250: ea18 c8bd 6cd1 b5bd 0b5b 143d bad6 14bd
00000260: b680 06be 2413 543d 95a3 e83d 0ce7 0ebd
00000270: 2202 1e3e 47b7 143d 326f 0dbe d39a 3f3d
00000280: 19b1 533d c8c9 8d3d 8992 203c 1443 18be
00000290: 533b 113d 20e4 c13d 01db 943d 6442 ea3c
000002a0: 015a 68bd ab33 0c39 2e67 d23d efc4 f7bd
000002b0: 39cb e0bd 91e8 513d 91f7 0a3e a9c7 a33d
000002c0: 2734 9f3d 2f36 c2bd 7ae1 9b3d 57d6 c03c
000002d0: f5b3 d9bb bcb5 163d 07c3 123d 1ed5 583d
000002e0: d8f7 eabd 4e7c ecbd 3083 26be c1af 833d
000002f0: d871 253d e898 0b3e ce1a a4bd f223 bb3d
00000300: fab7 e8bd 867e c7bd 36b7 8dbc 3868 ebbd
00000310: f9d0 ccbd d60f c3bd a6dc dfbd 0cd1 a23b
00000320: 03f3 3cbe fea8 1cbe 8d21 d7bd 1d69 1a3f
00000330: e444 d63e 145d c03e dc7d 223e 27b2 f7be
00000340: 9e1d b7be 8ce5 aabe c284 b23e 276f b2bd
00000350: 9bfb d7be 7ba4 94be 6c81 a13e f49a 4ebd
00000360: 500d 603e 92b4 ec3d 7e7d ca3e b79e 93bc
00000370: 077b 64be 2dfb 893d 8d3c 0e3f d76e 923d
00000380: 4022 283c 9abe 463d d625 883d df89 11be
00000390: 4ebc 9c3b 9be6 31bf f6f6 813e e654 24be
000003a0: 9490 ac3e da89 29be 78f0 ae3e a258 323d
000003b0: 53e0 3c3e 5cac 083e 61cc 123d b836 00bf
000003c0: 4d6f 383e 0a23 2bbe c0bf 7ebe d203 03be
000003d0: 1d7c 3a3e d81c 963c 2ab4 c2be a9f1 19bd
000003e0: a5d6 d33b d676 053e 8d05 29be 10da 0abe
000003f0: 4c2e 81bd fbaf dc3d b906 e3bc 4b6f 3dbd
0.13981187 -0.088412575 0.03688224 -0.121357396 0.076486774 -0.006247639 0.11395826 0.10619523
0.0103167435 0.12183026 -0.0072278418 0.006828033 -0.1543269 -0.113821 -0.123037644 -0.097742334
0.06383286 0.1165564 -0.04364227 0.04884706 0.14642642 0.079717256 -0.060664035 0.08974687
-0.046728965 0.06698154 -0.06759645 0.12674876 -0.117665336 0.07861782 0.12200076 0.021700112
-0.14099117 0.09103958 0.13256508 0.122455314 -0.0987636 0.121061765 0.1426952 -0.08103833
-0.1301018 -0.08590375 -0.06488159 0.11140358 0.08763981 0.050501563 -0.09992287 -0.1455671
-0.013780747 0.018970601 0.08182916 0.060985032 0.123608515 0.12550157 -0.0050166883 -0.12683046
-0.040630925 -0.15871324 -0.12171166 -0.098872766 0.19680901 0.1584449 -0.06869142 0.06130041
0.0510263 0.0045401454 0.08648565 -0.007419225 0.04725782 -0.09203193 0.014193734 0.01681402
-0.033566486 0.03603567 0.05062307 -0.07611784 0.06618818 -0.058604818 -0.0775436 0.07334557
0.09579483 -0.12988189 -0.07711445 -0.019661946 -0.03735087 0.0050357035 0.01820932 -0.0057599945
-0.16335484 -0.14868666 0.011335375 -0.03020662 0.0559244 -0.003922147 -0.1612664 -0.14852865
0.055645924 -0.055451516 -0.005700868 0.09117367 0.11372 -0.12513685 -0.04996894 -0.052835166
-0.018537343 -0.07079854 -0.15060191 -0.16612722 -0.031040564 0.02694017 0.113869965 -0.13554038
0.08662708 -0.08220271 0.027889948 -0.049965806 -0.022907076 -0.14802468 -0.08712687 0.12287327
-0.10365645 -0.080114424 0.071121365 0.09041032 0.10807055 -0.17058319 0.101719946 -0.0963792
0.0008908564 -0.16116172 0.13695908 0.11157867 0.124519676 -0.03834281 0.064736925 -0.0056115566
0.1119283 0.041737374 -0.070348054 0.11198878 0.008097259 0.1151612 0.0023649891 -0.1415519
-0.1495717 -0.10424426 0.12575214 0.0056219506 -0.09770377 -0.08877835 0.036219638 -0.03633759
-0.13135037 0.051776066 0.11359326 -0.034888312 0.15430501 0.0363076 -0.13811949 0.04677851
0.051682565 0.06923252 0.009800562 -0.14869338 0.035456967 0.094673395 0.07268334 0.02859611
-0.05672646 0.00013370688 0.10273586 -0.12098109 -0.10976262 0.051247183 0.13571002 0.079970665
0.07773619 -0.09482991 0.076113656 0.023539705 -0.006643767 0.03679441 0.035830524 0.05293762
-0.11473054 -0.11547147 -0.16260982 0.06430007 0.040391773 0.13632548 -0.08012925 0.091377154
-0.11363216 -0.09740929 -0.017299276 -0.114944875 -0.10000796 -0.09524505 -0.10930757 0.004968768
-0.18452077 -0.1529884 -0.10504446 0.6031664 0.41849434 0.37571013 0.15868324 -0.48378107
-0.35764784 -0.33378255 0.3486691 -0.08712607 -0.42184147 -0.2903174 0.31544054 -0.050440744
0.21880078 0.115578786 0.39548868 -0.018020017 -0.22312556 0.06737361 0.55561143 0.07150047
0.010262072 0.048521616 0.06647842 -0.1421275 0.00478319 -0.694925 0.2538373 -0.16048011
0.33704054 -0.16556492 0.34167838 0.043541558 0.18444948 0.13347 0.035839442 -0.50083494
0.18011208 -0.16712585 -0.24877834 -0.12794426 0.18211408 0.0183243 -0.3802808 -0.03758398
0.0064647966 0.13033614 -0.16506024 -0.13559747 -0.063076586 0.10775753 -0.027713167 -0.046248715

bias f4 [50]
00000000: 21b5 923c 8fc6 963d 4c7e 583d a9b3 dc3d
00000010: 952a b0bc e084 7ebd 051d e53c b537 9a3c
00000020: 349e 163e 29f5 e13d 710d 40be d3b7 d9bd
00000030: b5b0 6dbd 1338 18be 53fb 143e adf9 523e
00000040: 7d28 05be d1da 12bc f941 743d 1129 8fbd
00000050: d1a0 273d 231f 11bc ab1a 05be cf9b 88bd
00000060: ca70 0a3d df60 9fbb 1c9d bebd 442b b7bc
00000070: 5e2b ae3d 3751 dd3d 3b88 1c3d 3e84 18bd
00000080: e99b 0d3e c722 5b3d a1d6 bc3d 8e0a 573d
00000090: 0be7 d1bb bb1c 2fbd 94c3 babc 3894 0d3e
000000a0: 9f41 c83d 25d1 263d 91a7 c5bd bb87 a43d
000000b0: e150 473b b891 4b3b ecc0 d5bd c3d3 053e
000000c0: 38af cebd f385 443d
0.017908635 0.07362091 0.05285482 0.10776455 -0.02150468 -0.06213844 0.02796794 0.018825391
0.14708787 0.11033089 -0.18755127 -0.10630765 -0.05802985 -0.1486514 0.14548998 0.20603056
-0.13003726 -0.008963303 0.05963323 -0.06990255 0.04092485 -0.008857521 -0.12998454 -0.06670343
0.03379897 -0.004863843 -0.0930731 -0.022359498 0.085043654 0.10806506 0.038215857 -0.03723549
0.13829006 0.053499963 0.09220625 0.0525003 -0.0064057163 -0.04275201 -0.022798337 0.13826072
0.09778141 0.0407268 -0.096511014 0.08033701 0.0030413198 0.0031062197 -0.104371876 0.13069062
-0.10092014 0.047979306

mask f4 [50, 50]
00000000: 0000 803f 0000 803f 0000 803f 0000 803f
00000010: 0000 803f 0000 803f 0000 803f 0000 803f
00000020: 0000 803f 0000 803f 0000 803f 0000 803f
00000030: 0000 803f 0000 803f 0000 803f 0000 803f
00000040: 0000 803f 0000 803f 0000 803f 0000 803f
00000050: 0000 803f 0000 803f 0000 803f 0000 803f
00000060: 0000 803f 0000 803f 0000 803f 0000 803f
00000070: 0000 803f 0000 803f 0000 803f 0000 803f
00000080: 0000 803f 0000 803f 0000 803f 0000 803f
00000090: 0000 803f 0000 803f 0000 803f 0000 803f
000000a0: 0000 803f 0000 803f 0000 803f 0000 803f
000000b0: 0000 803f 0000 803f 0000 803f 0000 803f
000000c0: 0000 803f 0000 803f 0000 803f 0000 803f
000000d0: 0000 803f 0000 803f 0000 803f 0000 803f
000000e0: 0000 803f 0000 803f 0000 803f 0000 803f
000000f0: 0000 803f 0000 803f 0000 803f 0000 803f
00000100: 0000 803f 0000 803f 0000 803f 0000 803f
00000110: 0000 803f 0000 803f 0000 803f 0000 803f
00000120: 0000 803f 0000 803f 0000 803f 0000 803f
00000130: 0000 803f 0000 803f 0000 803f 0000 803f
00000140: 0000 803f 0000 803f 0000 803f 0000 803f
00000150: 0000 803f 0000 803f 0000 803f 0000 803f
00000160: 0000 803f 0000 803f 0000 803f 0000 803f
00000170: 0000 803f 0000 803f 0000 803f 0000 803f
00000180: 0000 803f 0000 803f 0000 803f 0000 803f
00000190: 0000 803f 0000 803f 0000 803f 0000 803f
000001a0: 0000 803f 0000 803f 0000 803f 0000 803f
000001b0: 0000 803f 0000 803f 0000 803f 0000 803f
000001c0: 0000 803f 0000 803f 0000 803f 0000 803f
000001d0: 0000 803f 0000 803f 0000 803f 0000 803f
000001e0: 0000 803f 0000 803f 0000 803f 0000 803f
000001f0: 0000 803f 0000 803f 0000 803f 0000 803f
00000200: 0000 803f 0000 803f 0000 803f 0000 803f
00000210: 0000 803f 0000 803f 0000 803f 0000 803f
00000220: 0000 803f 0000 803f 0000 803f 0000 803f
00000230: 0000 803f 0000 803f 0000 803f 0000 803f
00000240: 0000 803f 0000 803f 0000 803f 0000 803f
00000250: 0000 803f 0000 803f 0000 803f 0000 803f
00000260: 0000 803f 0000 803f 0000 803f 0000 803f
00000270: 0000 803f 0000 803f 0000 803f 0000 803f
00000280: 0000 803f 0000 803f 0000 803f 0000 803f
00000290: 0000 803f 0000 803f 0000 803f 0000 803f
000002a0: 0000 803f 0000 803f 0000 803f 0000 803f
000002b0: 0000 803f 0000 803f 0000 803f 0000 803f
000002c0: 0000 803f 0000 803f 0000 803f 0000 803f
000002d0: 0000 803f 0000 803f 0000 803f 0000 803f
000002e0: 0000 803f 0000 803f 0000 803f 0000 803f
000002f0: 0000 803f 0000 803f 0000 803f 0000 803f
00000300: 0000 803f 0000 803f 0000 803f 0000 803f
00000310: 0000 803f 0000 803f 0000 803f 0000 803f
00000320: 0000 803f 0000 803f 0000 803f 0000 803f
00000330: 0000 803f 0000 803f 0000 803f 0000 803f
00000340: 0000 803f 0000 803f 0000 803f 0000 803f
00000350: 0000 803f 0000 803f 0000 803f 0000 803f
00000360: 0000 803f 0000 803f 0000 803f 0000 803f
00000370: 0000 803f 0000 803f 0000 803f 0000 803f
00000380: 0000 803f 0000 803f 0000 803f 0000 803f
00000390: 0000 803f 0000 803f 0000 803f 0000 803f
000003a0: 0000 803f 0000 803f 0000 803f 0000 803f
000003b0: 0000 803f 0000 803f 0000 803f 0000 803f
000003c0: 0000 803f 0000 803f 0000 803f 0000 803f
000003d0: 0000 803f 0000 803f 0000 803f 0000 803f
000003e0: 0000 803f 0000 803f 0000 803f 0000 803f
000003f0: 0000 803f 0000 803f 0000 803f 0000 803f
1.0 1.0 1.0 1.0 1.0 1.0 1.0 1.0
1.0 1.0 1.0 1.0 1.0 1.0 1.0 1.0
1.0 1.0 1.0 1.0 1.0 1.0 1.0 1.0
1.0 1.0 1.0 1.0 1.0 1.0 1.0 1.0
1.0 1.0 1.0 1.0 1.0 1.0 1.0 1.0
1.0 1.0 1.0 1.0 1.0 1.0 1.0 1.0
1.0 1.0 1.0 1.0 1.0 1.0 1.0 1.0
1.0 1.0 1.0 1.0 1.0 1.0 1.0 1.0
1.0 1.0 1.0 1.0 1.0 1.0 1.0 1.0
1.0 1.0 1.0 1.0 1.0 1.0 1.0 1.0
1.0 1.0 1.0 1.0 1.0 1.0 1.0 1.0
1.0 1.0 1.0 1.0 1.0 1.0 1.0 1.0
1.0 1.0 1.0 1.0 1.0 1.0 1.0 1.0
1.0 1.0 1.0 1.0 1.0 1.0 1.0 1.0
1.0 1.0 1.0 1.0 1.0 1.0 1.0 1.0
1.0 1.0 1.0 1.0 1.0 1.0 1.0 1.0
1.0 1.0 1.0 1.0 1.0 1.0 1.0 1.0
1.0 1.0 1.0 1.0 1.0 1.0 1.0 1.0
1.0 1.0 1.0 1.0 1.0 1.0 1.0 1.0
1.0 1.0 1.0 1.0 1.0 1.0 1.0 1.0
1.0 1.0 1.0 1.0 1.0 1.0 1.0 1.0
1.0 1.0 1.0 1.0 1.0 1.0 1.0 1.0
1.0 1.0 1.0 1.0 1.0 1.0 1.0 1.0
1.0 1.0 1.0 1.0 1.0 1.0 1.0 1.0
1.0 1.0 1.0 1.0 1.0 1.0 1.0 1.0
1.0 1.0 1.0 1.0 1.0 1.0 1.0 1.0
1.0 1.0 1.0 1.0 1.0 1.0 1.0 1.0
1.0 1.0 1.0 1.0 1.0 1.0 1.0 1.0
1.0 1.0 1.0 1.0 1.0 1.0 1.0 1.0
1.0 1.0 1.0 1.0 1.0 1.0 1.0 1.0
1.0 1.0 1.0 1.0 1.0 1.0 1.0 1.0
1.0 1.0 1.0 1.0 1.0 1.0 1.0 1.0

weight f4 [50, 50]
00000000: 79e2 1f3e ce5b 0bbd b54a e9bd 359c 96bd
00000010: f899 5dbe a95f db3d 98a6 593c 53cf f03d
00000020: 2bc7 f4bd 8bb9 8d3d 0463 663d 64d4 983c
00000030: 7fb9 c63c 4782 0b3e 3903 a8bc b4e8 35bd
00000040: 5cdc e93d 49d8 3c3e 8812 08be 3b93 d23d
00000050: 9a4a 1e3e 7752 9bbc 4d19 d03d 9c41 8b3c
00000060: 7083 513d 3eac bdbc f3d9 32bc 63d0 c6bc
00000070: 75bd 013e 02ff 5bbd 6490 0a3d 1f74 bd3c
00000080: 23b5 f83d fb90 bcbc 4162 b6bc 623a ae3d
00000090: 37dd 2abd 88af 293d 60c4 eb3d 3a84 fcbd
000000a0: a459 07be 3a3d 593d 4b2a c4bd 0926 c53d
000000b0: e6d1 f13c 1b6f c6bd e6c3 c33d 1640 0bbd
000000c0: 4f07 a03d 1993 013d 4819 983c bca5 a4bd
000000d0: b766 c8bd 23d7 643d 47d6 1abe d893 9fbd
000000e0: c62d ddbd b8c4 bb3d 5ecf 12be be7d 983d
000000f0: ae0a d5bd dc99 9a3d 15ed e53a cc04 de3d
00000100: 01fa 03bd 6c79 4f3d 08f8 12bd 3579 c93c
00000110: a08f 05be 4d60 523d ecc1 8e3d 7e46 463c
00000120: 3657 b63c c800 e23d abda 0abd f2c3 32bd
00000130: 18ba 80bd 5ef6 debd 1e33 803d fd47 033e
00000140: bbb7 303e 7126 cfbd ab05 f63d 9a22 89bd
00000150: 3e8a 21be 9b1e 08be 44a5 f9bc 857b 01be
00000160: cb29 363d 3618 a43d 54e8 453d 8e8c e1bd
00000170: cb2d 01bd bd02 ad3d 5b14 babd 1b81 203e
00000180: bcc0 c83c 7ba4 b2bd 34b8 c83c e9bd f6bd
00000190: 2b7a a8bb 06fe 3ebe 77e4 3c3d 23a6 7bbd
000001a0: 1f31 afbe a77a 97bd 6f5e 86bd c60f 233d
000001b0: cbe4 9ebd a733 9e3c b24c b53c d8d9 5fbd
000001c0: cac4 8d3d 3b24 4c3c 1c84 c9bd a5fd 053e
000001d0: b1ad 163c 10a4 573e e901 4c3b 6c37 fbbd
000001e0: 1f0f 833e 6970 acbd 5f25 17bd 6775 d7bd
000001f0: 20a5 183e d636 b53a e758 23be 434f b73d
00000200: 2467 e3ba 4498 d23b d55d b53d f419 b93d
00000210: c5d2 68bd 502f 5abe 066b 44be 0e59 c3bd
00000220: a1ff 9bba f23b d2bd d246 cebd 3392 80be
00000230: a921 093d 1c6f d53d 7738 133e e069 ad3c
00000240: cbb9 813d c50c 8a3d 0d33 a03d 331b 1cbe
00000250: a873 80bb 8d41 de3d d8dd e3bd f96a 1e3d
00000260: da47 643a dbc6 543c affa 83bd efab 033e
00000270: d2cf 373c 9a37 d2bd 2d8e 0c3d f86a 2b3d
00000280: f1b9 173e 288c bcbc 6d60 153e 566c a43d
00000290: 9959 823d b77d 3cbd 019f 3ebd bbbd e2bd
000002a0: 1153 debd c975 7abd 9f6a 9d3d 0ff5 e83d
000002b0: abf8 ecbd fea4 983d d683 a6bd 0cab 153e
000002c0: e559 913b dd06 f83c 6dbd 993d d254 debd
000002d0: 9c91 143e 8f9e 2d3d d8c7 b93c 828c 5ebb
000002e0: 062e 57bd 4f40 65bd 7475 fbbb 133a d8bd
000002f0: 361a 0bbe 78cf eb3d 8656 d3bc a0ab ea3d
00000300: 8614 1d3d c989 01bd cd85 ff3c ebcf 12bd
00000310: 80e4 96bc 1e0a 38bd 269a e43d f2a2 3abc
00000320: 96b3 88bc 5fdc f93d 26a8 893d 794d 443d
00000330: d4f0 6c3d 18fb 1abe 4369 893c 7841 28bd
00000340: 2816 343e 5c9e 82bd 6918 d1bb ca4d 9dbc
00000350: 0f23 303d 7c6e ac3c 7cc0 923d 33fe 1a3e
00000360: 9153 d93d b65b 79bd a6c1 07be f15d 0b3e
00000370: 7135 4d3c f319 8ebd f514 59bb 3e49 5fbd
00000380: 53d0 b2bb 49a8 913d af8d 513d 15fd 8c3c
00000390: afd3 fdbc 71f2 b53d 404c ef3d b5c4 ccbd
000003a0: 90a0 cf3d 856c 23bc d475 6dbd 43ad 5d3d
000003b0: ce23 d838 915a 853d 9659 dabd fc38 b43d
000003c0: 6b28 1e3d df3e e8bd cf6b 77bd dfbb cfbd
000003d0: 2b7a 003e 08f9 c93d a961 f93d d64e 143d
000003e0: 4707 a13d ee4f 0cbe 2ff5 c4bc 80b9 923c
000003f0: da66 dd3d f4b4 0c3d c653 083d db20 a03c
0.15613736 -0.0340231 -0.11391202 -0.07354013 -0.21640766 0.10711605 0.013284348 0.11758294
-0.11952051 0.06920155 0.056246772 0.018655963 0.024258373 0.13623916 -0.02050935 -0.044411376
0.11418983 0.18441881 -0.13288319 0.10281988 0.15458146 -0.01896022 0.10161076 0.016999058
0.05115074 -0.02315342 -0.010916221 -0.024269288 0.12669928 -0.05370999 0.033829108 0.02312666
0.12143924 -0.02301835 -0.022263648 0.085072294 -0.041714873 0.041427165 0.11512065 -0.12329908
-0.13217789 0.053036906 -0.09578379 0.09626395 0.029519033 -0.096891604 0.09558849 -0.033996664
0.07813894 0.031634424 0.018566743 -0.08039424 -0.09785216 0.055869233 -0.15120803 -0.07791871
-0.10799746 0.091683805 -0.14336917 0.074458584 -0.104024276 0.075488776 0.001754197 0.10840759
-0.032220844 0.050652906 -0.035881072 0.024593929 -0.1304307 0.05136137 0.069705814 0.012101768
0.022258382 0.11035305 -0.033899944 -0.0436439 -0.062854946 -0.108868346 0.0625975 0.1282043
0.17257588 -0.10114754 0.120128 -0.06696053 -0.15775391 -0.13292925 -0.030474313 -0.12644775
0.04447345 0.0801243 0.04831727 -0.11013137 -0.031537812 0.08447788 -0.09085914 0.1567425
0.024505965 -0.087227784 0.024501897 -0.12047941 -0.0051415167 -0.1865159 0.04611632 -0.061437737
-0.34217164 -0.07396441 -0.065609805 0.039809965 -0.077584825 0.01931174 0.022131298 -0.05465111
0.069223 0.01245981 -0.09839651 0.13085039 0.009196685 0.21058679 0.0031129068 -0.1226643
0.25597474 -0.08419878 -0.036900874 -0.105204396 0.1490674 0.0013825546 -0.15951882 0.08950665
-0.0017349464 0.006426843 0.08855788 0.09038153 -0.05684163 -0.21307111 -0.19181451 -0.0953847
-0.0011901745 -0.1026534 -0.10072102 -0.2511154 0.033479366 0.10421583 0.14377008 0.02116865
0.06334265 0.06740717 0.07822237 -0.1524475 -0.0039200373 0.108523466 -0.11126298 0.038676236
0.00087082165 0.012986864 -0.064442985 0.12858556 0.011218982 -0.102645114 0.034315277 0.04185006
0.14817025 -0.02301605 0.14587565 0.08028476 0.06364746 -0.04601833 -0.046538357 -0.110713445
-0.108556874 -0.061147485 0.07686352 0.11374866 -0.11570867 0.07453345 -0.081306145 0.1461603
0.004435765 0.03027671 0.07506833 -0.10856022 0.1450867 0.04238754 0.0226783 -0.003395826
-0.052534126 -0.055969533 -0.0076739136 -0.10557952 -0.13584217 0.11514181 -0.025798094 0.11458516
0.03834965 -0.031625543 0.03119173 -0.035842817 -0.018419504 -0.044931524 0.11162214 -0.011391388
-0.016687196 0.122002356 0.06721525 0.047925446 0.05784686 -0.15134847 0.016773826 -0.04107806
0.17586577 -0.06377861 -0.0063810837 -0.019202132 0.043002184 0.021048777 0.0716562 0.15136032
0.10611642 -0.060878478 -0.13257465 0.13610055 0.012524948 -0.06938543 -0.0033124064 -0.05451321
-0.005456963 0.07112176 0.05116051 0.017210523 -0.030984728 0.08884133 0.116844654 -0.099984564
0.10138047 -0.009974604 -0.057973698 0.054120313 0.00010306352 0.06511415 -0.106616184 0.087999314
0.038612764 -0.11340117 -0.06040555 -0.101432554 0.12546603 0.09861952 0.1217683 0.036207996
0.07862716 -0.13702366 -0.024042694 0.017910719 0.10810633 0.034352258 0.033283018 0.019546917

bias f4 [50]
00000000: d3fe 0fbe 86c1 a9bd 9fe5 cb3b d5b4 38be
00000010: 2f1b 2a3e 1db9 28be 202f a93d e123 0cbd
00000020: 30e1 f0ba 90d3 d2bd 2b40 20be 4517 34be
00000030: 6005 5dbd 8c0b 2f3e cf05 e43c c476 223e
00000040: 36b3 353d 3f74 013d d7c5 873d d55c 093e
00000050: a8cb 4d3e b2c1 783d 4784 a6bd 39a3 1abe
00000060: 3e99 a3bd eeb0 65bd e33b 6dbc d746 7a3d
00000070: 0a57 36bd e10d 8f3d 824e 19be 77a2 d53d
00000080: b6e9 343e 38bd 8338 3968 f73c 06c0 10be
00000090: 0308 723d 902b 173e cdb3 20be 9e71 fcbd
000000a0: a21b 47be 885f 14be d4cd 7dbc be4a 113e
000000b0: ba9e c4bd 122d d7bc 6483 c93a a36d 833d
000000c0: 4215 883d 6ca3 38be
-0.14062051 -0.08288865 0.0062224413 -0.18037732 0.16611932 -0.16476865 0.082609415 -0.034213904
-0.0018377658 -0.102942586 -0.15649478 -0.17587002 -0.053960204 0.17094249 0.027834801 0.15865618
0.044360362 0.031605 0.06629532 0.13414319 0.2009722 0.060731597 -0.08130699 -0.15101327
-0.07988213 -0.056076936 -0.01447961 0.061102714 -0.0445166 0.06985069 -0.14971355 0.10431378
0.17667279 6.2818115e-05 0.030201064 -0.14135751 0.05908967 0.14762712 -0.15693589 -0.12326358
-0.19444135 -0.14489567 -0.015490968 0.14188668 -0.09600587 -0.026266608 0.001537424 0.06417396
0.066446796 -0.1803109

mask f4 [50, 50]
00000000: 0000 803f 0000 803f 0000 803f 0000 803f
00000010: 0000 803f 0000 803f 0000 803f 0000 803f
00000020: 0000 803f 0000 803f 0000 803f 0000 803f
00000030: 0000 803f 0000 803f 0000 803f 0000 803f
00000040: 0000 803f 0000 803f 0000 803f 0000 803f
00000050: 0000 803f 0000 803f 0000 803f 0000 803f
00000060: 0000 803f 0000 803f 0000 803f 0000 803f
00000070: 0000 803f 0000 803f 0000 803f 0000 803f
00000080: 0000 803f 0000 803f 0000 803f 0000 803f
00000090: 0000 803f 0000 803f 0000 803f 0000 803f
000000a0: 0000 803f 0000 803f 0000 803f 0000 803f
000000b0: 0000 803f 0000 803f 0000 803f 0000 803f
000000c0: 0000 803f 0000 803f 0000 803f 0000 803f
000000d0: 0000 803f 0000 803f 0000 803f 0000 803f
000000e0: 0000 803f 0000 803f 0000 803f 0000 803f
000000f0: 0000 803f 0000 803f 0000 803f 0000 803f
00000100: 0000 803f 0000 803f 0000 803f 0000 803f
00000110: 0000 803f 0000 803f 0000 803f 0000 803f
00000120: 0000 803f 0000 803f 0000 803f 0000 803f
00000130: 0000 803f 0000 803f 0000 803f 0000 803f
00000140: 0000 803f 0000 803f 0000 803f 0000 803f
00000150: 0000 803f 0000 803f 0000 803f 0000 803f
00000160: 0000 803f 0000 803f 0000 803f 0000 803f
00000170: 0000 803f 0000 803f 0000 803f 0000 803f
00000180: 0000 803f 0000 803f 0000 803f 0000 803f
00000190: 0000 803f 0000 803f 0000 803f 0000 803f
000001a0: 0000 803f 0000 803f 0000 803f 0000 803f
000001b0: 0000 803f 0000 803f 0000 803f 0000 803f
000001c0: 0000 803f 0000 803f 0000 803f 0000 803f
000001d0: 0000 803f 0000 803f 0000 803f 0000 803f
000001e0: 0000 803f 0000 803f 0000 803f 0000 803f
000001f0: 0000 803f 0000 803f 0000 803f 0000 803f
00000200: 0000 803f 0000 803f 0000 803f 0000 803f
00000210: 0000 803f 0000 803f 0000 803f 0000 803f
00000220: 0000 803f 0000 803f 0000 803f 0000 803f
00000230: 0000 803f 0000 803f 0000 803f 0000 803f
00000240: 0000 803f 0000 803f 0000 803f 0000 803f
00000250: 0000 803f 0000 803f 0000 803f 0000 803f
00000260: 0000 803f 0000 803f 0000 803f 0000 803f
00000270: 0000 803f 0000 803f 0000 803f 0000 803f
00000280: 0000 803f 0000 803f 0000 803f 0000 803f
00000290: 0000 803f 0000 803f 0000 803f 0000 803f
000002a0: 0000 803f 0000 803f 0000 803f 0000 803f
000002b0: 0000 803f 0000 803f 0000 803f 0000 803f
000002c0: 0000 803f 0000 803f 0000 803f 0000 803f
000002d0: 0000 803f 0000 803f 0000 803f 0000 803f
000002e0: 0000 803f 0000 803f 0000 803f 0000 803f
000002f0: 0000 803f 0000 803f 0000 803f 0000 803f
00000300: 0000 803f 0000 803f 0000 803f 0000 803f
00000310: 0000 803f 0000 803f 0000 803f 0000 803f
00000320: 0000 803f 0000 803f 0000 803f 0000 803f
00000330: 0000 803f 0000 803f 0000 803f 0000 803f
00000340: 0000 803f 0000 803f 0000 803f 0000 803f
00000350: 0000 803f 0000 803f 0000 803f 0000 803f
00000360: 0000 803f 0000 803f 0000 803f 0000 803f
00000370: 0000 803f 0000 803f 0000 803f 0000 803f
00000380: 0000 803f 0000 803f 0000 803f 0000 803f
00000390: 0000 803f 0000 803f 0000 803f 0000 803f
000003a0: 0000 803f 0000 803f 0000 803f 0000 803f
000003b0: 0000 803f 0000 803f 0000 803f 0000 803f
000003c0: 0000 803f 0000 803f 0000 803f 0000 803f
000003d0: 0000 803f 0000 803f 0000 803f 0000 803f
000003e0: 0000 803f 0000 803f 0000 803f 0000 803f
000003f0: 0000 803f 0000 803f 0000 803f 0000 803f
1.0 1.0 1.0 1.0 1.0 1.0 1.0 1.0
1.0 1.0 1.0 1.0 1.0 1.0 1.0 1.0
1.0 1.0 1.0 1.0 1.0 1.0 1.0 1.0
1.0 1.0 1.0 1.0 1.0 1.0 1.0 1.0
1.0 1.0 1.0 1.0 1.0 1.0 1.0 1.0
1.0 1.0 1.0 1.0 1.0 1.0 1.0 1.0
1.0 1.0 1.0 1.0 1.0 1.0 1.0 1.0
1.0 1.0 1.0 1.0 1.0 1.0 1.0 1.0
1.0 1.0 1.0 1.0 1.0 1.0 1.0 1.0
1.0 1.0 1.0 1.0 1.0 1.0 1.0 1.0
1.0 1.0 1.0 1.0 1.0 1.0 1.0 1.0
1.0 1.0 1.0 1.0 1.0 1.0 1.0 1.0
1.0 1.0 1.0 1.0 1.0 1.0 1.0 1.0
1.0 1.0 1.0 1.0 1.0 1.0 1.0 1.0
1.0 1.0 1.0 1.0 1.0 1.0 1.0 1.0
1.0 1.0 1.0 1.0 1.0 1.0 1.0 1.0
1.0 1.0 1.0 1.0 1.0 1.0 1.0 1.0
1.0 1.0 1.0 1.0 1.0 1.0 1.0 1.0
1.0 1.0 1.0 1.0 1.0 1.0 1.0 1.0
1.0 1.0 1.0 1.0 1.0 1.0 1.0 1.0
1.0 1.0 1.0 1.0 1.0 1.0 1.0 1.0
1.0 1.0 1.0 1.0 1.0 1.0 1.0 1.0
1.0 1.0 1.0 1.0 1.0 1.0 1.0 1.0
1.0 1.0 1.0 1.0 1.0 1.0 1.0 1.0
1.0 1.0 1.0 1.0 1.0 1.0 1.0 1.0
1.0 1.0 1.0 1.0 1.0 1.0 1.0 1.0
1.0 1.0 1.0 1.0 1.0 1.0 1.0 1.0
1.0 1.0 1.0 1.0 1.0 1.0 1.0 1.0
1.0 1.0 1.0 1.0 1.0 1.0 1.0 1.0
1.0 1.0 1.0 1.0 1.0 1.0 1.0 1.0
1.0 1.0 1.0 1.0 1.0 1.0 1.0 1.0
1.0 1.0 1.0 1.0 1.0 1.0 1.0 1.0

weight f4 [4, 50]
00000000: 33c3 8bbd 4c3c 13bd 0002 50bc e45d 053d
00000010: 6f95 01be a881 bb3d 6c2c 113d db53 093e
00000020: 41e3 013e 227a fdbd 38e6 953c 7ab7 f43d
00000030: 2e23 25bd 6417 80bd 20ee ba3b cece 69bd
00000040: c4c4 093d 9068 7b3c 505a ad3c 8a01 c23d
00000050: 6a50 ae3d f060 e5bc a490 b53d f0f4 723d
00000060: 006a 17ba 104e ce3d 2052 c83b c07d 8cbc
00000070: d005 1fbc 5440 d1bc dc1f e8bd eb57 0f3e
00000080: 1a36 983d 5c19 a93d ce08 e1bd d0cd ca3d
00000090: 2996 8fbd 8f92 01be c0c9 d9bc e890 cf3c
000000a0: 908e a4bc e6dd 0ebd 9801 ffbd 0a42 e53d
000000b0: 5cca acbd c0c5 d33b a40d 6f3d bc21 dc3d
000000c0: 6543 83bd 88ec a43d e874 783d 2826 433d
000000d0: 6ab1 04be 4ed7 a63d 8484 613d 804f ec3b
000000e0: ce71 853d 6402 333d 7e2f cc3d 0e0c f33d
000000f0: 6083 4b3c 9083 143d 386e 42bd 2ee0 d13d
00000100: f0ac 6dbc 85c7 98bd c4f7 91bc 40f0 27bd
00000110: e03e 69bd 02fe d83d 569b d23d b528 063e
00000120: 08a5 703d f890 80bd b81f 7cbd 6070 d3bb
00000130: dc20 9f3d 0888 a23c 14e7 a73d 76a2 823d
00000140: ae5e ac3d b090 223d fcd2 073d 9a8c b6bd
00000150: 071e 93bd 2057 963d 39da 0bbe f467 f3bc
00000160: f6e0 5ebd 1e92 e83d 80e6 6bbb 0394 9abd
00000170: 3e9f f53d ae39 a53d e8bb 36bd ee7d a8bd
00000180: 5475 443d 724d 65bd b032 dcbd 32b3 f83d
00000190: 45c3 71be c9d3 34be 5899 2fbe df61 f6bd
000001a0: afed d23d 74a4 acbd 757a dbbd 1f80 fbbd
000001b0: 2cdb a43d 2bec 0dbe e49d 21be 7b3e debd
000001c0: 19b2 b3bd 5f36 373e 3733 023e f89e 2c3d
000001d0: e3c3 823d 89d7 dfbd ac78 063e 50ab 253e
000001e0: 77b6 243e 1161 17bd 3a7a 3cbe db7d e5bd
000001f0: ae39 43be 05d2 ccbd c418 d73c 807b 163e
00000200: 66d0 0abe d93f 27bc f400 edbc ae86 c23c
00000210: 051f 123e b2a7 29be fcce 9f3d 4e4f 24be
00000220: 9dfd 2a3e 2e8b ed3d 6239 21be 54e4 05be
00000230: 9965 21be ba70 77bd a343 e2bb b6fd c03d
00000240: cd38 863d 8520 a43d ebb0 263e e561 7c3e
00000250: 0492 363e 1f32 5bbe d3cf 9abd ab6b 423d
00000260: 8ca5 96bd feb5 14bd e3e2 bf3d 9faa fe3d
00000270: f4a3 e83c 9b32 063e 1a5e 4ebd ac5f b7bd
00000280: d9d5 1d3d 2a3c 52bd 51eb 98bc 132d 0b3d
00000290: 9a29 873b 776d f9bd a03b 0ebe 8639 56bd
000002a0: 8341 bbbc f5f7 0f3e 0af5 6d3d 4456 b93d
000002b0: 2954 7c3d 4c72 9dbd 4bc0 a9bd fe3c 3a3c
000002c0: 2034 f83c db3b 34bb fdc4 5639 f04e 1e3d
000002d0: 0c71 92bd 9039 a63d 9bda 94bd 78e3 31bc
000002e0: a508 9d3c 91f2 fe3d dd5b c5bd 1478 5b3a
000002f0: f200 903d 6f0a c33d 8e95 063d 0cf5 063e
00000300: 7055 be3b b0bc d03a 344b 3bbc 2a1e 753c
00000310: 919f bebc 9013 bfbd 6400 313d 189c bbbd
-0.06824341 -0.035946175 -0.012695789 0.032560244 -0.1265466 0.09155589 0.035442755 0.13410895
0.12684347 -0.123768106 0.018298253 0.11949058 -0.040316753 -0.062544614 0.0057046562 -0.05708199
0.033634916 0.015344754 0.021161228 0.0947295 0.085114315 -0.028000325 0.08865479 0.05931562
-0.0005775988 0.10073483 0.0061133057 -0.017149806 -0.009705976 -0.02554337 -0.11334202 0.13998382
0.07432194 0.0825679 -0.109880075 0.09902537 -0.07011063 -0.12653564 -0.02658546 0.025337651
-0.02008751 -0.034879588 -0.12451476 0.111942366 -0.084370345 0.0064627826 0.058362618 0.10748622
-0.06409339 0.08052927 0.060658365 0.04764381 -0.12958303 0.08146535 0.055058017 0.0072116256
0.06515847 0.04370345 0.09969996 0.118675336 0.012421459 0.03625828 -0.047468394 0.10247837
-0.014506564 -0.0745993 -0.01781834 -0.041000605 -0.056944728 0.10595323 0.10283534 0.13101466
0.058751136 -0.062776506 -0.061553687 -0.006452605 0.07769939 0.019840255 0.081983715 0.06378643
0.08416496 0.039688766 0.033160195 -0.08913536 -0.07183462 0.073408365 -0.13657464 -0.029712655
-0.05441376 0.11355995 -0.0035995543 -0.07547762 0.11993264 0.08067642 -0.044612795 -0.08227144
0.047963455 -0.05598206 -0.107518554 0.12143554 -0.23609646 -0.17658915 -0.1714834 -0.12030386
0.10299241 -0.084298044 -0.10716716 -0.122802965 0.08049616 -0.13859622 -0.15782887 -0.10851761
-0.08774204 0.17891835 0.1271485 0.042143792 0.06385019 -0.10929782 0.1313197 0.16178632
0.1608523 -0.036957804 -0.18406 -0.11205646 -0.19064972 -0.100009955 0.026256926 0.14695549
-0.1355606 -0.010208094 -0.028931119 0.02374586 0.14269646 -0.16567877 0.07803151 -0.16045877
0.16698308 0.11598812 -0.15744546 -0.13075382 -0.15761413 -0.06041024 -0.0069050356 0.094233915
0.06553803 0.08014015 0.16278426 0.24646719 0.17829138 -0.21405838 -0.075591706 0.04746596
-0.07355794 -0.036306374 0.09369447 0.12434887 0.028398491 0.13105242 -0.05038271 -0.08953795
0.03853402 -0.05132691 -0.018666895 0.033978533 0.0041248323 -0.12179082 -0.13889933 -0.052300952
-0.022858387 0.14059432 0.058095016 0.09049657 0.0616037 -0.07687816 -0.0828863 0.011367081
0.030298293 -0.0027501497 0.00020482014 0.0386495 -0.07150468 0.08116448 -0.07268258 -0.010857455
0.019169161 0.124486096 -0.09636662 0.000837208 0.0703143 0.095234744 0.03285747 0.13179415
0.005808525 0.0015925374 -0.011431504 0.014960805 -0.023269447 -0.09329903 0.043213263 -0.09160632

bias f4 [4]
00000000: 6e06 1d3e 7867 72bd d450 c43d f6ec d73c
0.15334484 -0.059180707 0.09585729 0.026358109

mask f4 [4, 50]
00000000: 0000 0000 0000 0000 0000 0000 0000 0000
00000010: 0000 0000 0000 0000 0000 0000 0000 0000
00000020: 0000 0000 0000 0000 0000 0000 0000 0000
00000030: 0000 0000 0000 0000 0000 0000 0000 0000
00000040: 0000 0000 0000 0000 0000 0000 0000 0000
00000050: 0000 0000 0000 0000 0000 0000 0000 0000
00000060: 0000 0000 0000 0000 0000 0000 0000 0000
00000070: 0000 0000 0000 0000 0000 0000 0000 0000
00000080: 0000 0000 0000 0000 0000 0000 0000 0000
00000090: 0000 0000 0000 0000 0000 0000 0000 0000
000000a0: 0000 0000 0000 0000 0000 0000 0000 0000
000000b0: 0000 0000 0000 0000 0000 0000 0000 0000
000000c0: 0000 0000 0000 0000 0000 0000 0000 0000
000000d0: 0000 0000 0000 0000 0000 0000 0000 0000
000000e0: 0000 0000 0000 0000 0000 0000 0000 0000
000000f0: 0000 0000 0000 0000 0000 0000 0000 0000
00000100: 0000 0000 0000 0000 0000 0000 0000 0000
00000110: 0000 0000 0000 0000 0000 0000 0000 0000
00000120: 0000 0000 0000 0000 0000 0000 0000 0000
00000130: 0000 0000 0000 0000 0000 0000 0000 0000
00000140: 0000 0000 0000 0000 0000 0000 0000 0000
00000150: 0000 0000 0000 0000 0000 0000 0000 0000
00000160: 0000 0000 0000 0000 0000 0000 0000 0000
00000170: 0000 0000 0000 0000 0000 0000 0000 0000
00000180: 0000 0000 0000 0000 0000 0000 0000 0000
00000190: 0000 803f 0000 803f 0000 803f 0000 803f
000001a0: 0000 803f 0000 803f 0000 803f 0000 803f
000001b0: 0000 803f 0000 803f 0000 803f 0000 803f
000001c0: 0000 803f 0000 803f 0000 803f 0000 803f
000001d0: 0000 803f 0000 803f 0000 803f 0000 803f
000001e0: 0000 803f 0000 803f 0000 803f 0000 803f
000001f0: 0000 803f 0000 803f 0000 803f 0000 803f
00000200: 0000 803f 0000 803f 0000 803f 0000 803f
00000210: 0000 803f 0000 803f 0000 803f 0000 803f
00000220: 0000 803f 0000 803f 0000 803f 0000 803f
00000230: 0000 803f 0000 803f 0000 803f 0000 803f
00000240: 0000 803f 0000 803f 0000 803f 0000 803f
00000250: 0000 803f 0000 803f 0000 803f 0000 803f
00000260: 0000 803f 0000 803f 0000 803f 0000 803f
00000270: 0000 803f 0000 803f 0000 803f 0000 803f
00000280: 0000 803f 0000 803f 0000 803f 0000 803f
00000290: 0000 803f 0000 803f 0000 803f 0000 803f
000002a0: 0000 803f 0000 803f 0000 803f 0000 803f
000002b0: 0000 803f 0000 803f 0000 803f 0000 803f
000002c0: 0000 803f 0000 803f 0000 803f 0000 803f
000002d0: 0000 803f 0000 803f 0000 803f 0000 803f
000002e0: 0000 803f 0000 803f 0000 803f 0000 803f
000002f0: 0000 803f 0000 803f 0000 803f 0000 803f
00000300: 0000 803f 0000 803f 0000 803f 0000 803f
00000310: 0000 803f 0000 803f 0000 803f 0000 803f
0.0 0.0 0.0 0.0 0.0 0.0 0.0 0.0
0.0 0.0 0.0 0.0 0.0 0.0 0.0 0.0
0.0 0.0 0.0 0.0 0.0 0.0 0.0 0.0
0.0 0.0 0.0 0.0 0.0 0.0 0.0 0.0
0.0 0.0 0.0 0.0 0.0 0.0 0.0 0.0
0.0 0.0 0.0 0.0 0.0 0.0 0.0 0.0
0.0 0.0 0.0 0.0 0.0 0.0 0.0 0.0
0.0 0.0 0.0 0.0 0.0 0.0 0.0 0.0
0.0 0.0 0.0 0.0 0.0 0.0 0.0 0.0
0.0 0.0 0.0 0.0 0.0 0.0 0.0 0.0
0.0 0.0 0.0 0.0 0.0 0.0 0.0 0.0
0.0 0.0 0.0 0.0 0.0 0.0 0.0 0.0
0.0 0.0 0.0 0.0 1.0 1.0 1.0 1.0
1.0 1.0 1.0 1.0 1.0 1.0 1.0 1.0
1.0 1.0 1.0 1.0 1.0 1.0 1.0 1.0
1.0 1.0 1.0 1.0 1.0 1.0 1.0 1.0
1.0 1.0 1.0 1.0 1.0 1.0 1.0 1.0
1.0 1.0 1.0 1.0 1.0 1.0 1.0 1.0
1.0 1.0 1.0 1.0 1.0 1.0 1.0 1.0
1.0 1.0 1.0 1.0 1.0 1.0 1.0 1.0
1.0 1.0 1.0 1.0 1.0 1.0 1.0 1.0
1.0 1.0 1.0 1.0 1.0 1.0 1.0 1.0
1.0 1.0 1.0 1.0 1.0 1.0 1.0 1.0
1.0 1.0 1.0 1.0 1.0 1.0 1.0 1.0
1.0 1.0 1.0 1.0 1.0 1.0 1.0 1.0

weight f4 [50, 2]
00000000: 4993 ffbe 0e44 d33e f86a ffbe 3cee 48be
00000010: 610e 593d 4fe5 fdbe 2ea3 253f 0cc0 163e
00000020: 7347 e93e 8844 6abe c850 b1bd c09d 163c
00000030: 7ac2 203f 2bfb 0d3f 528a 8c3e b3cf 1a3f
00000040: d8ca dabe 1005 91be 7264 09bf 3f41 133f
00000050: faee a73e c015 9bbd 106f 883c 5c62 723e
00000060: 5bc7 bfbe e814 f6bd 8526 b3bd 88ba f9be
00000070: aea8 aabe d1b6 afbe cf70 8cbe 0119 14bf
00000080: ce38 bfbc d77a 2bbf fcda 243f 71f5 113f
00000090: 2284 4abe 308e f23d b861 aabd 801f 4b3d
000000a0: f6be 8dbe de17 c63e 1eaa 61be aba7 2d3f
000000b0: fcc0 ffbe a0f4 2bbe e05f 6abd daff ccbe
000000c0: d9dd 913c 2545 c1be 38a7 ab3d f27e f23e
000000d0: b6e0 8c3e afba 87be 6223 b93d 280a a73d
000000e0: a901 0cbd 6bd1 2f3f e9ce 8dbe b68d 2dbf
000000f0: e845 1ebd 8247 8fbe aca7 cd3c aa6b 02bf
00000100: fc9c 213f cf19 273f e9e5 c5be 0032 08bb
00000110: d0e2 0abf 8988 81be 08f7 093f 7295 bd3e
00000120: f537 83be d034 ef3d 40bb 463f a0da e4bd
00000130: 7f26 dc3e 32b2 b2be eb32 653e 9e57 823e
00000140: 5fb7 b23e 4ecc 833e d799 e6be 1648 dcbe
00000150: cfd6 353f bb15 e8be 8ae1 5ebe 9c18 3e3e
00000160: 2739 aabc c274 bc3e 2831 1fbf a0f3 b2be
00000170: 848c ea3e 06f2 90be 1bc4 26bf 85f4 093f
00000180: f15e 05be 8082 0abd 2811 94be f71b 023f
-0.49917057 0.4126286 -0.49886298 -0.19622129 0.05299223 -0.4958901 0.6470212 0.14721698
0.45562324 -0.22877705 -0.08657986 0.009192884 0.6279675 0.55461377 0.2744928 0.60473174
-0.42732882 -0.28324175 -0.5366889 0.5752143 0.32799512 -0.07572508 0.016654521 0.23670334
-0.37456784 -0.12015706 -0.087475814 -0.48775125 -0.33331817 -0.34319165 -0.27429816 -0.5785065
-0.023342516 -0.66984314 0.64396644 0.5701514 -0.19776967 0.11843526 -0.083194196 0.049590588
-0.27684754 0.38690084 -0.22037551 0.67833966 -0.49951923 -0.16792536 -0.05722034 -0.4003895
0.01780598 -0.37748066 0.08381504 0.47362477 0.2751519 -0.26509616 0.09039952 0.08156234
-0.03418127 0.6867892 -0.27696922 -0.6779436 -0.038640887 -0.27984244 0.025104366 -0.5094553
0.63130164 0.65273756 -0.3865197 -0.0020781755 -0.5425234 -0.2529948 0.53892565 0.3702808
-0.2562863 0.11679995 0.7762947 -0.11174512 0.4299812 -0.34901577 0.22382705 0.25457472
0.34905526 0.2574181 -0.45039245 -0.43023747 0.71030897 -0.4532908 -0.21765724 0.18564075
-0.020779205 0.3680783 -0.6218438 -0.34951496 0.4581033 -0.2830965 -0.65142983 0.5388873
-0.13024499 -0.03381586 -0.2891934 0.5082392

bias f4 [50]
00000000: 27e9 3bbf 56b5 063f a974 f63d 37ce 80be
00000010: 03cf bb3e e138 0e3f feb9 ecbd 7532 873d
00000020: e412 a73e 15cf 133f b403 b0bd 5d9b 12bf
00000030: d90d d2be 42d9 0a3e 1bf9 dd3e b410 19be
00000040: 730d fa3e 62aa 0dbf 7cc7 173e c7d9 1bbe
00000050: d51b 85bd c208 24bf e5f0 db3e 600a 873e
00000060: 79a1 38bf 7d17 5dbe 94bb ab3e 496c 00bf
00000070: 1b23 313f 1f85 36bd 1c0c 353f 4e4f cfbe
00000080: 9f98 813e 340a ddbe dccf c9bd a2de 483f
00000090: 19c5 b13c eee5 e6be fe78 f83d 40b4 ecbe
000000a0: 78b9 31bf 399c 8dbe 8e22 603c 632b 3abd
000000b0: 1575 123f 1dc7 173e 9c97 eebe a4cc f03e
000000c0: fcfc 0d3f 93b5 91bc
-0.7340264 0.52620447 0.1203397 -0.2515733 0.36681375 0.5555554 -0.11558913 0.06601421
0.326316 0.5773786 -0.08594456 -0.57268316 -0.4102619 0.1355944 0.43354115 -0.14947778
0.48838386 -0.5533811 0.14822191 -0.15219794 -0.06499449 -0.64075863 0.42957225 0.26375103
-0.7212139 -0.21590991 0.33541548 -0.5016523 0.6919419 -0.044560548 0.707216 -0.40490192
0.25311753 -0.43171847 -0.09854099 0.7846471 0.021700429 -0.45097297 0.121324524 -0.4623127
-0.6942363 -0.2765825 0.0136801135 -0.045451533 0.57209903 0.1482205 -0.46600044 0.47031128
0.5546415 -0.017786777

mask f4 [50, 2]
00000000: 0000 803f 0000 0000 0000 803f 0000 0000
00000010: 0000 803f 0000 0000 0000 803f 0000 0000
00000020: 0000 803f 0000 0000 0000 803f 0000 0000
00000030: 0000 803f 0000 0000 0000 803f 0000 0000
00000040: 0000 803f 0000 0000 0000 803f 0000 0000
00000050: 0000 803f 0000 0000 0000 803f 0000 0000
00000060: 0000 803f 0000 0000 0000 803f 0000 0000
00000070: 0000 803f 0000 0000 0000 803f 0000 0000
00000080: 0000 803f 0000 0000 0000 803f 0000 0000
00000090: 0000 803f 0000 0000 0000 803f 0000 0000
000000a0: 0000 803f 0000 0000 0000 803f 0000 0000
000000b0: 0000 803f 0000 0000 0000 803f 0000 0000
000000c0: 0000 803f 0000 0000 0000 803f 0000 0000
000000d0: 0000 803f 0000 0000 0000 803f 0000 0000
000000e0: 0000 803f 0000 0000 0000 803f 0000 0000
000000f0: 0000 803f 0000 0000 0000 803f 0000 0000
00000100: 0000 803f 0000 0000 0000 803f 0000 0000
00000110: 0000 803f 0000 0000 0000 803f 0000 0000
00000120: 0000 803f 0000 0000 0000 803f 0000 0000
00000130: 0000 803f 0000 0000 0000 803f 0000 0000
00000140: 0000 803f 0000 0000 0000 803f 0000 0000
00000150: 0000 803f 0000 0000 0000 803f 0000 0000
00000160: 0000 803f 0000 0000 0000 803f 0000 0000
00000170: 0000 803f 0000 0000 0000 803f 0000 0000
00000180: 0000 803f 0000 0000 0000 803f 0000 0000
1.0 0.0 1.0 0.0 1.0 0.0 1.0 0.0
1.0 0.0 1.0 0.0 1.0 0.0 1.0 0.0
1.0 0.0 1.0 0.0 1.0 0.0 1.0 0.0
1.0 0.0 1.0 0.0 1.0 0.0 1.0 0.0
1.0 0.0 1.0 0.0 1.0 0.0 1.0 0.0
1.0 0.0 1.0 0.0 1.0 0.0 1.0 0.0
1.0 0.0 1.0 0.0 1.0 0.0 1.0 0.0
1.0 0.0 1.0 0.0 1.0 0.0 1.0 0.0
1.0 0.0 1.0 0.0 1.0 0.0 1.0 0.0
1.0 0.0 1.0 0.0 1.0 0.0 1.0 0.0
1.0 0.0 1.0 0.0 1.0 0.0 1.0 0.0
1.0 0.0 1.0 0.0 1.0 0.0 1.0 0.0
1.0 0.0 1.0 0.0

weight f4 [50, 2]
00000000: 8639 a1be 4a03 f33e 2f65 10bf 20f7 bc3d
00000010: 83e9 023e f56c 553d ab22 293f e6a0 103f
00000020: 38b6 113f 42a3 28bf 63ba 233f 105c 2abf
00000030: 6273 31be ec18 563e 1891 eebe 1b00 1fbf
00000040: ac39 d5be 5406 9dbe 8005 96bf 1276 993e
00000050: cf4e 2e3e 36f9 063e 24ae 903e 817d 0a3f
00000060: 6f84 dfbd 5585 08bf 3646 213f 1889 93be
00000070: 4cee 863e 2413 2a3f 86a3 06bf 14bf 02bf
00000080: b6f8 8a3d d08f 193e aa94 17bf 28f6 b7be
00000090: 1984 0b3f 6a0d c43e fddf a03e 1525 913e
000000a0: ad4b 833e f036 91be 64a9 01bf 80ae d23e
000000b0: 120f 86be 16e8 0dbe 6158 81be ae53 d3be
000000c0: 22c9 91bd 6b47 2d3f 2908 41be f5c9 f6be
000000d0: 8a6b 063c 61d9 11bf 02b3 3d3f cc21 b8be
000000e0: 0c6a 4dbe eec9 173f 841d ea3e d9fa 88be
000000f0: 5070 273e fd71 c9bd bf27 3bbf d108 cebe
00000100: 34b0 35bf 6bbc 293f 0801 143f 6945 973d
00000110: e426 17bf 2c1a 30bf e955 51be 6dc1 103f
00000120: fd61 a3be a399 a7be c87c 9a3e 4f6c 353e
00000130: ce39 6ebd a41d 043f 23f7 a1be 9735 1a3f
00000140: 0661 efbb b899 0abf ca06 d1be 8bca c9be
00000150: 4aa0 40be 8a7c 2a3f f4cf 0a3e fcce 7ebe
00000160: 6875 31bf 612b 263e d852 de3e 2574 0abf
00000170: 6348 b03e 12d2 c93e e9bb 163f 6910 fb3e
00000180: 1324 fc3e 841b 833d b05a 043f d959 c83e
-0.314892 0.47463447 -0.56404394 0.09226823 0.1278439 0.052105863 0.66068524 0.5649551
0.5691867 -0.6587411 0.6395628 -0.66546726 -0.17329171 0.20907944 -0.46595073 -0.62109536
-0.41645563 -0.3066889 -1.1720428 0.29972893 0.1702225 0.13181004 0.2825786 0.54097754
-0.109139316 -0.5332845 0.6299776 -0.28815532 0.2635368 0.66435456 -0.52593267 -0.5107281
0.06785719 0.14996266 -0.5921122 -0.3592999 0.5449844 0.38291484 0.3142089 0.28348604
0.25643674 -0.28362226 -0.50649095 0.41148758 -0.26183373 -0.13858065 -0.2526274 -0.4127478
-0.07118441 0.676871 -0.18850769 -0.48200956 0.00820435 -0.5697232 0.7410127 -0.35963285
-0.20059985 0.59292495 0.45725644 -0.26753882 0.16351438 -0.09836195 -0.7310752 -0.402411
-0.7097199 0.6630313 0.57814074 0.07386286 -0.5904372 -0.68789935 -0.20442928 0.56545144
-0.31910697 -0.32734403 0.30173326 0.17717098 -0.058160596 0.5160773 -0.31633863 0.6023802
-0.0073052673 -0.54140806 -0.40825492 -0.3941234 -0.18811145 0.6659628 0.1355589 -0.24883646
-0.6931977 0.16227485 0.4342258 -0.5408347 0.34430227 0.39418083 0.5888048 0.49035957
0.49246272 0.064017326 0.5170088 0.39131048

bias f4 [50]
00000000: e1f9 c93e af01 5d3e f1b5 22bf 61a7 113d
00000010: 923d 273f 949b 38bf cc23 2ebf 307f 5a3e
00000020: d22c 163e cfc9 0abf 3256 30bf 0ced 463e
00000030: cc03 173d 264a 21bf 7c09 133e 666a d3be
00000040: 6a29 e03e dc99 33bf 5d1a 0abf 0500 0a3f
00000050: 8476 8e3e 325b 0abf bd2a 06be a575 2d3f
00000060: f4a0 b13d ff18 043d 02bf 0d3f 4835 e6bc
00000070: bb38 3d3f 0cc9 29bf 2474 d43e 6738 4d3f
00000080: a0bb a23e c6e8 23bf 2d3e 363e e5c7 04be
00000090: 89ea 72be 4a15 283f 23d0 fdbe 0af6 0d3f
000000a0: c791 9abe 6fac dabe fc40 9b3e 78a9 08bf
000000b0: b2ac 47bf 1229 0a3f 241b babd c582 14bd
000000c0: ab5b 10bf 3606 0a3f
0.39448455 0.21582673 -0.6355887 0.035560016 0.65328324 -0.72112393 -0.6802337 0.2133758
0.14665535 -0.54214185 -0.68881524 0.19426364 0.036868855 -0.63003767 0.14359087 -0.41292113
0.43781596 -0.70156646 -0.5394648 0.5390628 0.27824795 -0.54045403 -0.13102241 0.67757636
0.086732775 0.0322504 0.5536958 -0.028101578 0.7391469 -0.663224 0.41494858 0.8016419
0.31783772 -0.6402706 0.17797156 -0.12966879 -0.2372228 0.65657485 -0.49572858 0.5545355
-0.30189344 -0.4270968 0.30323017 -0.5338359 -0.7799789 0.5396892 -0.09087208 -0.036257524
-0.56389874 0.5391573
