03b/GPS_1256775418/model_trad_seed_2024.pth (torch, 276498 bytes, 76 tensors)

_shift f4 [2]
2.5834842 -1.7288469
00000000: ce57 2540 db4a ddbf

_scale f4 [2]
0.17337371 3.4562325
00000000: e188 313e ea32 5d40

weight f4 [50, 2]
-0.1696438 0.19141519 0.06951135 -0.11851275 -0.4293164 0.11888516 0.0050131623 -0.3143232
-0.1964238 0.46119243 0.4208106 0.61164874 0.88875234 -0.10737264 -0.1272365 -0.40248764
0.55704564 -0.055165827 0.50146496 0.554779 0.18110184 -0.4018783 0.09346821 0.5592863
-0.025892233 -0.47229928 0.58405596 0.42611426 0.10916255 -0.2831957 0.26358795 -0.006101966
-0.017153757 0.6635918 -0.5663956 0.10414958 0.39827886 0.66255563 0.34288606 0.51049167
-0.5218128 -0.4516505 -0.5034169 -0.11265904 -0.3079261 -0.53886896 0.29125062 -0.41629967
-0.9081284 -0.042301536 -0.022366216 -0.2090585 -0.18640448 -0.3491214 0.16959968 0.29675716
0.3768772 0.24267077 0.24490319 0.5051542 0.5961492 0.024981856 0.5421519 -0.57051474
0.20893939 -0.54066837 0.07114703 -0.5013368 0.58792007 -0.4930897 0.19583277 -0.69880176
-0.5712157 -0.26788434 0.5135186 -0.6844917 -0.5453386 0.15543377 -0.32905298 -0.061313808
0.34444717 -0.38397634 0.40716597 0.4798469 -0.7906444 0.6810984 -0.572557 0.06673652
0.5216088 0.55606884 -0.20534866 0.60102004 0.9193838 -0.02879715 0.40907645 -0.102977574
0.22845876 0.51370305 -0.44874552 0.26120114
00000000: 1bb7 2dbe 5802 443e f75b 8e3d d0b6 f2bd
00000010: 5ccf dbbe 107a f33d 7445 a43b f8ee a0be
00000020: 5223 49be 6a21 ec3e 7d74 d73e 0395 1c3f
00000030: 4685 633f 30e6 dbbd 494a 02be dc12 cebe
00000040: 8b9a 0e3f 90f5 61bd 0260 003f ff05 0e3f
00000050: c372 393e fec2 cdbe 436c bf3d 632d 0f3f
00000060: f31b d4bc 36d1 f1be b184 153f a62b da3e
00000070: 9d90 df3d 07ff 90be 00f5 863e 00f3 c7bb
00000080: 0986 8cbc 27e1 293f 4dff 10bf 604c d53d
00000090: 35eb cb3e 3f9d 293f c38e af3e 95af 023f
000000a0: 8695 05bf bc3e e7be eedf 00bf c8b9 e6bd
000000b0: 7da8 9dbe 51f3 09bf cd1e 953e 3b25 d5be
000000c0: 1a7b 68bf 6044 2dbd 5b39 b7bc 6e13 56be
000000d0: d1e0 3ebe 0ac0 b2be 8aab 2d3e 8ef0 973e
000000e0: 0cf6 c03e b07e 783e e7c7 7a3e c951 013f
000000f0: 3c9d 183f c0a6 cc3c 78ca 0a3f 410d 12bf
00000100: 35f4 553e 3e69 0abf 89b5 913d 9c57 00bf
00000110: ee81 163f 4176 fcbe 6388 483e ace4 32bf
00000120: 313b 12bf 2328 89be f475 033f d93a 2fbf
00000130: 4f9b 0bbf 082a 1f3e a279 a8be 3024 7bbd
00000140: 615b b03e 8c98 c4be 0f78 d03e 7eae f53e
00000150: ac67 4abf 775c 2e3f 1893 12bf 28ad 883d
00000160: 2888 053f 875a 0e3f eb46 52be 73dc 193f
00000170: bd5c 6b3f 00e8 ebbc 7872 d13e e8e5 d2bd
00000180: 18f1 693e 0b82 033f f9c1 e5be 28bc 853e

bias f4 [50]
-0.0707893 0.657236 0.14872645 -0.32407722 0.6084558 -0.65888447 -0.6247708 -0.050827462
0.27109474 0.25228056 -0.28895545 -0.21078439 0.47363585 -0.39395353 0.4357445 -0.1588967
-0.24052308 0.068995886 0.2812581 0.12844753 -0.73180616 -0.45544073 0.111265846 0.08596078
0.7397764 -0.4499367 -0.738431 -0.70781475 0.47431475 0.6378479 -0.30179635 0.46659294
-0.57307273 -0.07503425 -0.436738 -0.30955195 -0.74819726 0.5671746 -0.42603743 -0.6855973
-0.69899476 0.13181141 0.67712706 -0.11605315 -0.31740886 0.54482955 -0.4852029 -0.20338736
0.17372908 0.2665905
00000000: fbf9 90bd 9e40 283f bf4b 183e 73ed a5be
00000010: c2c3 1b3f a7ac 28bf fbf0 1fbf 7530 50bd
00000020: eecc 8a3e eb2a 813e f8f1 93be ddd7 57be
00000030: 6680 f23e 47b4 c9be e719 df3e d1b5 22be
00000040: af4b 76be b74d 8d3d 1001 903e c087 033e
00000050: a657 3bbf 872f e9be 59df e33d 350c b03d
00000060: fc61 3d3f 1a5e e6be d009 3dbf 5933 35bf
00000070: 62d9 f23e 004a 233f 0d85 9abe 45e5 ee3e
00000080: e5b4 12bf 8fab 99bd 209c dfbe 987d 9ebe
00000090: db89 3fbf 5b32 113f 9421 dabe 4e83 2fbf
000000a0: 52f1 32bf 92f9 063e 3358 2d3f 46ad edbd
000000b0: 6a83 a2be f379 0b3f 846c f8be c744 50be
000000c0: 09e6 313e 8d7e 883e

mask f4 [50, 2]
1.0 0.0 1.0 0.0 1.0 0.0 1.0 0.0
1.0 0.0 1.0 0.0 1.0 0.0 1.0 0.0
1.0 0.0 1.0 0.0 1.0 0.0 1.0 0.0
1.0 0.0 1.0 0.0 1.0 0.0 1.0 0.0
1.0 0.0 1.0 0.0 1.0 0.0 1.0 0.0
1.0 0.0 1.0 0.0 1.0 0.0 1.0 0.0
1.0 0.0 1.0 0.0 1.0 0.0 1.0 0.0
1.0 0.0 1.0 0.0 1.0 0.0 1.0 0.0
1.0 0.0 1.0 0.0 1.0 0.0 1.0 0.0
1.0 0.0 1.0 0.0 1.0 0.0 1.0 0.0
1.0 0.0 1.0 0.0 1.0 0.0 1.0 0.0
1.0 0.0 1.0 0.0 1.0 0.0 1.0 0.0
1.0 0.0 1.0 0.0
00000000: 0000 803f 0000 0000 0000 803f 0000 0000
00000010: 0000 803f 0000 0000 0000 803f 0000 0000
00000020: 0000 803f 0000 0000 0000 803f 0000 0000
00000030: 0000 803f 0000 0000 0000 803f 0000 0000
00000040: 0000 803f 0000 0000 0000 803f 0000 0000
00000050: 0000 803f 0000 0000 0000 803f 0000 0000
00000060: 0000 803f 0000 0000 0000 803f 0000 0000
00000070: 0000 803f 0000 0000 0000 803f 0000 0000
00000080: 0000 803f 0000 0000 0000 803f 0000 0000
00000090: 0000 803f 0000 0000 0000 803f 0000 0000
000000a0: 0000 803f 0000 0000 0000 803f 0000 0000
000000b0: 0000 803f 0000 0000 0000 803f 0000 0000
000000c0: 0000 803f 0000 0000 0000 803f 0000 0000
000000d0: 0000 803f 0000 0000 0000 803f 0000 0000
000000e0: 0000 803f 0000 0000 0000 803f 0000 0000
000000f0: 0000 803f 0000 0000 0000 803f 0000 0000
00000100: 0000 803f 0000 0000 0000 803f 0000 0000
00000110: 0000 803f 0000 0000 0000 803f 0000 0000
00000120: 0000 803f 0000 0000 0000 803f 0000 0000
00000130: 0000 803f 0000 0000 0000 803f 0000 0000
00000140: 0000 803f 0000 0000 0000 803f 0000 0000
00000150: 0000 803f 0000 0000 0000 803f 0000 0000
00000160: 0000 803f 0000 0000 0000 803f 0000 0000
00000170: 0000 803f 0000 0000 0000 803f 0000 0000
00000180: 0000 803f 0000 0000 0000 803f 0000 0000

weight f4 [50, 2]
-0.3033377 0.56565064 -0.5175644 0.4208261 0.3912434 -0.2840864 -0.4041655 -0.069057904
0.61995506 0.33723858 -0.41861156 0.1531102 -0.13102786 0.60421604 0.017135832 -0.2650124
0.04238988 -0.33556187 0.012323794 -0.060885806 -0.4763062 -0.35832593 -0.2957369 -0.053037666
-0.031398144 -0.6209559 -0.09331425 0.45750502 0.43959054 -0.59872705 -0.6134363 -0.5959966
-0.38335577 -0.46617812 -0.1711959 -0.59135205 0.48695502 0.27750674 -0.21074258 0.55592525
-0.11643261 0.52760285 -0.7213508 0.51081574 0.66892433 -0.65456814 -0.50250727 0.20693915
-0.3298404 0.15761398 0.5653954 -0.31101045 0.14931947 0.17976403 -0.5668151 -0.39994946
-0.20408612 0.46726716 -0.000996966 -0.55967236 0.42034847 0.39259496 -0.21276285 -0.27736807
0.2848072 0.17764695 0.3158368 -0.5863904 0.54381186 0.04704884 0.41627783 -0.6651095
-0.42574936 0.12621275 -0.07744216 -0.61173254 0.5383246 0.7045742 -0.049010266 0.26707184
-0.17471896 -0.18931784 -0.33505315 0.0040884493 0.6324842 0.042945545 -0.24146008 -0.6306649
-0.1063135 -0.5413089 -0.13061486 -0.009433219 0.52773976 0.057766277 -0.7089621 0.033892
0.4857125 -0.41025543 -0.02015523 0.3803124
00000000: 144f 9bbe 7bce 103f 1a7f 04bf 8576 d73e
00000010: 0e51 c83e c673 91be c8ee cebe 3b6e 8dbd
00000020: 60b5 1e3f 89aa ac3e 4154 d6be ecc8 1c3e
00000030: 2b2c 06be e7ad 1a3f 7260 8c3c b5af 87be
00000040: 03a1 2d3d c4ce abbe bde9 493c 6563 79bd
00000050: 68de f3be 7f76 b7be d46a 97be 063e 59bd
00000060: 579b 00bd f7f6 1ebf 8b1b bfbd 193e ea3e
00000070: 0312 e13e 2d46 19bf 290a 1dbf 3c93 18bf
00000080: 3547 c4be e6ae eebe fa4d 2fbe d962 17bf
00000090: 2b52 f93e 5d15 8e3e e7cc 57be 1e51 0e3f
000000a0: 3874 eebd fb10 073f 72aa 38bf d2c4 023f
000000b0: a03e 2b3f c791 27bf 51a4 00bf dbe7 533e
000000c0: d7e0 a8be 8f65 213e c1bd 103f c33c 9fbe
000000d0: 34e7 183e 1014 383e cb1a 11bf 2dc6 ccbe
000000e0: f4fb 50be a43d ef3e a1ac 82ba b046 0fbf
000000f0: ea37 d73e 3502 c93e 81de 59be 3003 8ebe
00000100: 40d2 913e 15e9 353e 5cb5 a13e ae1d 16bf
00000110: 4137 0b3f 49b6 403d 5e22 d53e 9e44 2abf
00000120: d2fb d9be ea3d 013e ff99 9ebd 819a 1cbf
00000130: a4cf 093f fa5e 343f fdbe 48bd a4bd 883e
00000140: 87e9 32be 89dc 41be 168c abbe 66f8 853b
00000150: 7cea 213f abe7 2f3d 5041 77be 4173 21bf
00000160: e4ba d9bd 3893 0abf e7bf 05be ca8d 1abc
00000170: f419 073f 559c 6c3d 8a7e 35bf 56d2 0a3d
00000180: 4faf f83e 000d d2be 951c a5bc 4fb8 c23e

bias f4 [50]
0.2626845 -0.5881987 0.022392096 0.1668312 0.6563151 -0.39710432 0.16113514 -0.56586885
0.072065115 0.46971822 -0.268963 -0.38768122 0.52861637 0.53383064 0.5799624 0.5505129
-0.29794973 0.17995858 -0.34435955 0.10480617 0.46735728 0.61888313 -0.3325469 -0.39878535
-0.4146314 -0.6006302 -0.2546986 -0.30728883 -0.13537107 0.61657465 0.7936087 0.0036797477
0.5743655 0.26676908 -0.13297176 -0.03910677 0.35693184 0.0042753355 -0.27336523 -0.6963838
-0.51585793 0.0023301546 0.2575621 -0.5491439 0.68142635 0.09675375 -0.03304943 0.22441141
0.11728151 -0.49102056
00000000: 957e 863e 3194 16bf a16f b73c ccd5 2a3e
00000010: 4404 283f 4251 cbbe 9c00 253e c8dc 10bf
00000020: e096 933d e87e f03e 85b5 89be 277e c6be
00000030: 6753 073f 20a9 083f 6a78 143f 6aee 0c3f
00000040: de8c 98be 1047 383e e54f b0be 9ea4 d63d
00000050: 7449 ef3e 206f 1e3f 9643 aabe 982d ccbe
00000060: 914a d4be e7c2 19bf db67 82be f654 9dbe
00000070: b79e 0abe d6d7 1d3f f129 4b3f ec27 713b
00000080: 9e09 133f f595 883e c029 08be 6c2e 20bd
00000090: c5bf b63e 1d18 8c3b 87f6 8bbe 3546 32bf
000000a0: 440f 04bf 82b5 183b 2edf 833e b294 0cbf
000000b0: f571 2e3f d526 c63d d75e 07bd 1bcc 653e
000000c0: 4a31 f03d 0c67 fbbe

weight f4 [50, 50]
0.11987415 0.13423093 -0.15213811 -0.022870773 0.07034348 -0.07165464 0.015675422 -0.033746082
0.032831553 0.08791743 0.0051609646 -0.0774473 0.003038892 -0.109846 -0.016593117 0.13181579
-0.032890193 -0.10599572 0.12006704 -0.054875083 0.15669176 -0.037265297 -0.096719176 0.0074531883
-0.11047404 -0.08520473 0.08139415 -0.007889943 -0.07029305 0.07919584 -0.030588904 -0.18149424
-0.084583364 0.12309346 0.032081187 0.10869089 0.12690412 -0.11683151 0.15518516 0.10028477
-0.080914654 -0.058751907 -0.12873432 -0.041210383 0.11380784 0.12357078 -0.006210269 -0.12352971
-0.09550839 0.0023202053 0.11168521 -0.050087426 0.08941463 0.038011935 0.07821583 -0.16418098
-0.15466446 -0.15270583 -0.014136296 -0.044947598 -0.05624239 0.058388162 0.03159745 0.024896631
0.18829286 0.073823065 -0.14498371 0.14642784 -0.056991383 -0.113493435 0.09818784 0.05758136
0.087333016 0.052538175 0.0125401495 -0.108246565 0.09057612 -0.12018429 -0.085466444 0.16838074
0.065819696 -0.08577552 0.09362875 -0.07930271 0.04902395 0.08528348 0.011921338 0.08314007
-0.15547311 -0.14848581 -0.025642345 0.03962606 0.17935856 -0.09043788 0.051563095 0.022552986
0.1076115 0.14136584 0.030633248 0.103314996 -0.093334384 -0.028800027 -0.1628275 0.014604498
0.0063003423 0.0034955284 0.14367357 0.15008777 0.102835655 -0.007074867 0.090765364 0.19690385
-0.009633001 0.022105217 -0.111617915 -0.15389615 0.059163734 0.004265037 -0.09899101 0.035176322
-0.040317588 0.07904814 0.04172232 0.12737879 -0.15678562 0.066688254 -0.0446656 0.107407264
-0.072914705 -0.15796277 -0.10232483 -0.11265122 0.13741168 -0.028396642 -0.042891856 -0.012245504
0.07895157 -0.13751878 -0.06516207 0.002482272 0.15367083 0.01450332 -0.16549903 -0.08931191
0.008946281 0.059681397 0.09351799 -0.10819055 -0.037628982 -0.12997618 0.08390027 0.12759165
0.019710392 0.006440261 0.03702117 -0.18128933 0.043549977 -0.040157005 -0.09263658 -0.08943562
0.051386777 -0.17844866 0.12310398 -0.103518516 0.13409792 -0.07945008 -0.07817782 -0.08925571
0.036837716 0.06912423 -0.039850667 0.12924856 -0.036551423 0.023296475 0.019641139 -0.05548709
-0.17271776 -0.18564157 -0.08444716 -0.05671352 0.059804175 0.030896083 0.027928444 0.0609472
0.099083975 -0.13550068 0.01608429 0.10346162 -0.008680888 -0.086561985 -0.13617373 -0.09943036
-0.030180607 -0.11146889 -0.11780189 -0.030328434 0.049624845 0.028661236 0.14910235 0.17578213
-0.16480587 -0.06788122 0.0946847 0.10552951 -0.2050956 -0.07648173 0.124153934 -0.0029092147
0.065713584 0.11348033 0.13344906 0.07296945 -0.06490899 0.14624931 -0.156996 0.090188414
-0.032551166 -0.12930432 0.056802496 0.009924579 -0.041038293 0.10223776 0.016296348 -0.0055372845
-0.010686224 -0.0238487 0.0982448 0.04967894 -0.1479594 -0.020946907 0.10152276 -0.015662726
0.119838834 -0.15341498 -0.045841947 -0.10510996 0.13181032 0.04655185 0.14795059 0.032388188
-0.05387478 -0.030394353 0.05617728 0.09886978 -0.1196171 -0.17913407 0.07358269 0.10529306
-0.063062266 -0.11954876 -0.10228065 -0.08320761 0.025979156 -0.15777719 -0.11388336 0.10608495
00000000: 9480 f53d d573 093e 18ca 1bbe 7d5b bbbc
00000010: 3e10 903d abbf 92bd be69 803c 5539 0abd
00000020: 617a 063d 0e0e b43d 4f1d a93b b19c 9ebd
00000030: 2628 473b f1f6 e0bd 4aee 87bc b8fa 063e
00000040: deb7 06bd 4914 d9bd b5e5 f53d b2c4 60bd
00000050: ce73 203e 7fa3 18bd b414 c6bd e039 f43b
00000060: 3740 e2bd d17f aebd fab1 a63d d244 01bc
00000070: cdf5 8fbd 6e31 a23d 9595 fabc a0d9 39be
00000080: 0b3a adbd 6d18 fc3d 9067 033d 5499 de3d
00000090: 27f3 013e 5c45 efbd dce8 1e3e 1a62 cd3d
000000a0: 95b6 a5bd d7a5 70bd eed2 03be 38cc 28bd
000000b0: 1614 e93d ad12 fd3d 837f cbbb 25fd fcbd
000000c0: e799 c3bd 960e 183b 37bb e43d 7928 4dbd
000000d0: 041f b73d 67b2 1b3d 9f2f a03d 0f1f 28be
000000e0: 5c60 1ebe eb5e 1cbe ec9b 67bc f91a 38bd
000000f0: 6c5e 66bd 6d28 6f3d 546c 013d 05f4 cb3c
00000100: d8cf 403e 8c30 973d 9c76 14be 2ef1 153e
00000110: cc6f 69bd 3f6f e8bd b516 c93d 6fda 6b3d
00000120: a7db b23d 4532 573d 3375 4d3c 60b0 ddbd
00000130: f97f b93d 2e23 f6bd 0809 afbd 006c 2c3e
00000140: 7acc 863d 13ab afbd 6ec0 bf3d 7669 a2bd
00000150: 56cd 483d 1ba9 ae3d b751 433c 5745 aa3d
00000160: 5834 1fbe aa0c 18be e50f d2bc ef4e 223d
00000170: c5a9 373e 7f37 b9bd d333 533d 0ac1 b83c
00000180: 6b63 dc3d 35c2 103e 94f2 fa3c d096 d33d
00000190: 1926 bfbd 09ee ebbc 41bc 26be b447 6f3c
000001a0: 1a73 ce3b 3c15 653b 2a1f 133e 9cb0 193e
000001b0: 809b d23d 49d4 e7bb 31e3 b93d 2aa1 493e
000001c0: bcd3 1dbc 0016 b53c ef97 e4bd f496 1dbe
000001d0: ac55 723d b9c1 8b3b ccbb cabd 0c15 103d
000001e0: 0e24 25bd fee3 a13d 06e5 2a3d 966f 023e
000001f0: 698c 20be da93 883d 47f3 36bd 57f8 db3d
00000200: 4e54 95bd fec0 21be ae8f d1bd afb5 e6bd
00000210: a6b5 0c3e 13a0 e8bc 5faf 2fbd 5ea1 48bc
00000220: 5cb1 a13d b9d1 0cbe b173 85bd 9dad 223b
00000230: e35b 1d3e 559f 6d3c 9478 29be 2ae9 b6bd
00000240: 6c93 123c 7b74 743d 5c86 bf3d 0293 ddbd
00000250: d920 1abd 7a18 05be e8d3 ab3d 63a7 023e
00000260: b077 a13c d308 d33b 83a3 173d e9a3 39be
00000270: 7661 323d ac7b 24bd 3fb8 bdbd 062a b7bd
00000280: f17a 523d 3fbb 36be f11d fc3d 8401 d4bd
00000290: f750 093e b9b6 a2bd b11b a0bd b3cb b6bd
000002a0: 25e3 163d 0191 8d3d 743a 23bd bc59 043e
000002b0: f2b6 15bd 40d8 be3c 74e6 a03c 6e46 63bd
000002c0: eddc 30be d318 3ebe a2f2 acbd 704c 68bd
000002d0: 39f5 743d c819 fd3c 31ca e43c c5a3 793d
000002e0: 8aec ca3d b1c0 0abe 33c3 833c b0e3 d33d
000002f0: 493a 0ebc 6947 b1bd 2071 0bbe 25a2 cbbd
00000300: 523d f7bc cd49 e4bd 1e42 f1bd 5673 f8bc
00000310: 6c43 4b3d f8ca ea3c 49ae 183e 3b00 343e
00000320: dfc2 28be 4f05 8bbd 0dea c13d db1f d83d
00000330: 9504 52be 74a2 9cbd 6b44 fe3d 86a8 3ebb
00000340: d894 863d 6068 e83d dfa6 083e 0271 953d
00000350: 01ef 84bd 61c2 153e 8fc3 20be b4b4 b83d
00000360: 5f54 05bd 5a68 04be bca9 683d b49a 223c
00000370: c517 28bd 0862 d13d eb7f 853c 1c72 b5bb
00000380: 4615 2fbc 595e c3bc 9234 c93d 257c 4b3d
00000390: ab82 17be d998 abbc 2aeb cf3d 1e4f 80bc
000003a0: 106e f53d d118 1dbe c4c4 3bbd e443 d7bd
000003b0: 49f9 063e 27ad 3e3d 5c80 173e 7aa9 043d
000003c0: cdab 5cbd 94fd f8bc 261a 663d 3d7c ca3d
000003d0: cff9 f4bd ec6e 37be 85b2 963d e3a3 d73d
000003e0: ca26 81bd fbd5 f4bd 8478 d1bd c068 aabd
000003f0: 3dd2 d43c 5890 21be ae3b e9bd 1143 d93d

bias f4 [50]
0.067583516 -0.028423285 -0.043153547 0.14680378 0.007669852 0.07499591 -0.016203914 -0.008145528
0.02972935 0.1367806 0.14551868 -0.060328685 0.15284073 0.06465139 -0.16122304 -0.08605609
-0.10249183 0.059917867 -0.034589298 -0.10663343 -0.025743576 -0.036387388 -0.04943428 -0.120390326
0.12369094 0.032422774 0.17042083 -0.13633692 0.019736592 -0.10603142 -0.08649252 0.1195619
-0.14263491 -0.09328014 -0.07694024 0.06732504 0.07781638 0.01409386 0.0406804 -0.0545447
-0.03633302 0.08572212 0.10818627 -0.18282026 0.046559744 -0.081807256 -0.1039917 0.1497048
0.06562179 -0.09692843
00000000: 3a69 8a3d f3d7 e8bc c6c1 30bd bb53 163e
00000010: 6253 fb3b 7597 993d 12be 84bc d274 05bc
00000020: f78a f33c 3710 0c3e d902 153e 361b 77bd
00000030: 4882 1c3e f367 843d a717 25be 2d3e b0bd
00000040: 3de7 d1bd 706c 753d 82ad 0dbd a162 dabd
00000050: 31e4 d2bc f10a 15bd 997b 4abd 348f f6bd
00000060: ad51 fd3d becd 043d cc82 2e3e e89b 0bbe
00000070: a2ae a13c 0027 d9bd fe22 b1bd dfdc f43d
00000080: e30e 12be a809 bfbd d892 9dbd b6e1 893d
00000090: 325e 9f3d efe9 663c 7ea0 263d 436a 5fbd
000000a0: efd1 14bd 148f af3d c390 dd3d 3c35 3bbe
000000b0: 6eb5 3e3d 908a a7bd 9af9 d4bd 374c 193e
000000c0: b864 863d 6a82 c6bd

mask f4 [50, 50]
1.0 1.0 1.0 1.0 1.0 1.0 1.0 1.0
1.0 1.0 1.0 1.0 1.0 1.0 1.0 1.0
1.0 1.0 1.0 1.0 1.0 1.0 1.0 1.0
1.0 1.0 1.0 1.0 1.0 1.0 1.0 1.0
1.0 1.0 1.0 1.0 1.0 1.0 1.0 1.0
1.0 1.0 1.0 1.0 1.0 1.0 1.0 1.0
1.0 1.0 1.0 1.0 1.0 1.0 1.0 1.0
1.0 1.0 1.0 1.0 1.0 1.0 1.0 1.0
1.0 1.0 1.0 1.0 1.0 1.0 1.0 1.0
1.0 1.0 1.0 1.0 1.0 1.0 1.0 1.0
1.0 1.0 1.0 1.0 1.0 1.0 1.0 1.0
1.0 1.0 1.0 1.0 1.0 1.0 1.0 1.0
1.0 1.0 1.0 1.0 1.0 1.0 1.0 1.0
1.0 1.0 1.0 1.0 1.0 1.0 1.0 1.0
1.0 1.0 1.0 1.0 1.0 1.0 1.0 1.0
1.0 1.0 1.0 1.0 1.0 1.0 1.0 1.0
1.0 1.0 1.0 1.0 1.0 1.0 1.0 1.0
1.0 1.0 1.0 1.0 1.0 1.0 1.0 1.0
1.0 1.0 1.0 1.0 1.0 1.0 1.0 1.0
1.0 1.0 1.0 1.0 1.0 1.0 1.0 1.0
1.0 1.0 1.0 1.0 1.0 1.0 1.0 1.0
1.0 1.0 1.0 1.0 1.0 1.0 1.0 1.0
1.0 1.0 1.0 1.0 1.0 1.0 1.0 1.0
1.0 1.0 1.0 1.0 1.0 1.0 1.0 1.0
1.0 1.0 1.0 1.0 1.0 1.0 1.0 1.0
1.0 1.0 1.0 1.0 1.0 1.0 1.0 1.0
1.0 1.0 1.0 1.0 1.0 1.0 1.0 1.0
1.0 1.0 1.0 1.0 1.0 1.0 1.0 1.0
1.0 1.0 1.0 1.0 1.0 1.0 1.0 1.0
1.0 1.0 1.0 1.0 1.0 1.0 1.0 1.0
1.0 1.0 1.0 1.0 1.0 1.0 1.0 1.0
1.0 1.0 1.0 1.0 1.0 1.0 1.0 1.0
00000000: 0000 803f 0000 803f 0000 803f 0000 803f
00000010: 0000 803f 0000 803f 0000 803f 0000 803f
00000020: 0000 803f 0000 803f 0000 803f 0000 803f
00000030: 0000 803f 0000 803f 0000 803f 0000 803f
00000040: 0000 803f 0000 803f 0000 803f 0000 803f
00000050: 0000 803f 0000 803f 0000 803f 0000 803f
00000060: 0000 803f 0000 803f 0000 803f 0000 803f
00000070: 0000 803f 0000 803f 0000 803f 0000 803f
00000080: 0000 803f 0000 803f 0000 803f 0000 803f
00000090: 0000 803f 0000 803f 0000 803f 0000 803f
000000a0: 0000 803f 0000 803f 0000 803f 0000 803f
000000b0: 0000 803f 0000 803f 0000 803f 0000 803f
000000c0: 0000 803f 0000 803f 0000 803f 0000 803f
000000d0: 0000 803f 0000 803f 0000 803f 0000 803f
000000e0: 0000 803f 0000 803f 0000 803f 0000 803f
000000f0: 0000 803f 0000 803f 0000 803f 0000 803f
00000100: 0000 803f 0000 803f 0000 803f 0000 803f
00000110: 0000 803f 0000 803f 0000 803f 0000 803f
00000120: 0000 803f 0000 803f 0000 803f 0000 803f
00000130: 0000 803f 0000 803f 0000 803f 0000 803f
00000140: 0000 803f 0000 803f 0000 803f 0000 803f
00000150: 0000 803f 0000 803f 0000 803f 0000 803f
00000160: 0000 803f 0000 803f 0000 803f 0000 803f
00000170: 0000 803f 0000 803f 0000 803f 0000 803f
00000180: 0000 803f 0000 803f 0000 803f 0000 803f
00000190: 0000 803f 0000 803f 0000 803f 0000 803f
000001a0: 0000 803f 0000 803f 0000 803f 0000 803f
000001b0: 0000 803f 0000 803f 0000 803f 0000 803f
000001c0: 0000 803f 0000 803f 0000 803f 0000 803f
000001d0: 0000 803f 0000 803f 0000 803f 0000 803f
000001e0: 0000 803f 0000 803f 0000 803f 0000 803f
000001f0: 0000 803f 0000 803f 0000 803f 0000 803f
00000200: 0000 803f 0000 803f 0000 803f 0000 803f
00000210: 0000 803f 0000 803f 0000 803f 0000 803f
00000220: 0000 803f 0000 803f 0000 803f 0000 803f
00000230: 0000 803f 0000 803f 0000 803f 0000 803f
00000240: 0000 803f 0000 803f 0000 803f 0000 803f
00000250: 0000 803f 0000 803f 0000 803f 0000 803f
00000260: 0000 803f 0000 803f 0000 803f 0000 803f
00000270: 0000 803f 0000 803f 0000 803f 0000 803f
00000280: 0000 803f 0000 803f 0000 803f 0000 803f
00000290: 0000 803f 0000 803f 0000 803f 0000 803f
000002a0: 0000 803f 0000 803f 0000 803f 0000 803f
000002b0: 0000 803f 0000 803f 0000 803f 0000 803f
000002c0: 0000 803f 0000 803f 0000 803f 0000 803f
000002d0: 0000 803f 0000 803f 0000 803f 0000 803f
000002e0: 0000 803f 0000 803f 0000 803f 0000 803f
000002f0: 0000 803f 0000 803f 0000 803f 0000 803f
00000300: 0000 803f 0000 803f 0000 803f 0000 803f
00000310: 0000 803f 0000 803f 0000 803f 0000 803f
00000320: 0000 803f 0000 803f 0000 803f 0000 803f
00000330: 0000 803f 0000 803f 0000 803f 0000 803f
00000340: 0000 803f 0000 803f 0000 803f 0000 803f
00000350: 0000 803f 0000 803f 0000 803f 0000 803f
00000360: 0000 803f 0000 803f 0000 803f 0000 803f
00000370: 0000 803f 0000 803f 0000 803f 0000 803f
00000380: 0000 803f 0000 803f 0000 803f 0000 803f
00000390: 0000 803f 0000 803f 0000 803f 0000 803f
000003a0: 0000 803f 0000 803f 0000 803f 0000 803f
000003b0: 0000 803f 0000 803f 0000 803f 0000 803f
000003c0: 0000 803f 0000 803f 0000 803f 0000 803f
000003d0: 0000 803f 0000 803f 0000 803f 0000 803f
000003e0: 0000 803f 0000 803f 0000 803f 0000 803f
000003f0: 0000 803f 0000 803f 0000 803f 0000 803f

weight f4 [50, 50]
-0.13957801 -0.002697645 -0.124647334 0.13106379 -0.09156339 0.12417174 -0.029905573 0.04919313
-0.039832674 0.0027553528 -0.025283547 -0.02337834 0.003931778 -0.04647598 0.1217907 -0.11288104
-0.017749619 0.09388194 0.064481795 -0.1284698 -0.0019215841 -0.035287015 -0.0679436 -0.099775515
0.064653166 0.08383789 -0.086535834 0.07950238 -0.040470157 -0.058508873 -0.07396961 0.023178076
-0.031386424 0.13455772 -0.126934 -0.17302573 0.020415436 0.11705629 -0.08796685 0.0714527
0.012234125 -0.006359484 -0.09495293 -0.112985805 -0.121165544 -0.004085306 0.14532612 -0.1690483
-0.0007818958 0.020969678 0.13473745 -0.06855112 -0.13404368 -0.10454812 0.10945438 -0.15286791
-0.018619463 -0.08462717 -0.13004708 -0.0014803695 -0.017802386 -0.046769366 0.07034311 -0.09860321
0.1532133 -0.16392858 0.09948347 -0.039219864 0.055847775 -0.018354414 0.07671929 -0.14369175
-0.03216655 -0.051114246 -0.115224965 -0.051094122 -0.11601378 0.061067097 0.069587424 0.056525882
-0.06327567 0.018897085 0.03145843 -0.094676316 -0.026928486 0.13583024 -0.09114346 0.03982045
0.08181349 -0.14274819 0.13705455 -0.10068133 -0.15421768 -0.06790561 0.05233559 -0.09829429
-0.102010086 0.09546382 -0.07812636 0.029889746 -0.095074005 0.16633967 0.023447482 0.036639262
-0.005991785 -0.0672709 0.07705165 -0.08278829 -0.11917285 -0.050585378 -0.009370784 0.10939546
0.09877171 -0.0630703 0.07801675 -0.117601775 -0.12346973 0.041194078 0.082559474 -0.03308748
0.06104466 -0.010667468 -0.08296347 -0.026153993 -0.13258831 -0.052756708 0.010609954 -0.0776034
-0.088669516 0.041064296 0.0838083 -0.05838493 0.024655417 -0.11801181 -0.054074965 -0.097210154
0.053389188 0.053626504 -0.030401088 -0.03967043 0.037388295 0.03222966 0.060173273 0.049750183
0.07588612 -0.010059597 0.04792505 0.048677746 0.02928961 -0.10399088 -0.060434725 -0.09162498
0.124868914 0.04196648 0.106338196 0.003781229 -0.07735432 -0.03883511 -0.049626723 0.13452552
-0.154763 0.096922934 -0.03948233 -0.047768377 -0.030682052 0.069396555 0.10854757 -2.855706e-05
0.042254675 -0.034775067 -0.014058131 -0.024252953 -0.03137036 0.10465547 -0.008467905 0.03870592
-0.1298638 -0.028596051 0.0025638044 0.00016060949 -0.07148795 -0.19037382 -0.021631598 0.025038427
-0.015607903 -0.074658155 -0.1469323 0.03373595 0.057373 -0.11353887 -0.030415026 0.051528085
-0.012190319 0.14088851 -0.0551496 -0.07458127 -0.07193869 0.13840616 0.009185589 0.079933845
-0.07796245 0.108709306 0.07132269 0.13698663 -0.13547474 0.1349107 -0.143131 -0.070516236
0.03750021 -0.01674636 -0.054085787 0.035924036 -0.1216388 -0.044865016 -0.1285347 -0.013097552
0.0077388003 0.10009208 -0.10512823 0.05542778 -0.18373537 -0.08610303 0.03447852 -0.11506742
0.08644205 -0.13770655 -0.069399096 0.017172376 -0.045540255 -0.095265456 -0.07551504 -0.045395877
-0.037696734 0.09754453 -0.017746702 -0.028814731 -0.05481452 -0.20384267 -0.010448717 0.0947948
-0.10764309 -0.086822614 0.02947341 0.09402559 0.09471395 0.04892672 -0.10113164 0.06618876
-0.06402275 0.08858236 0.07763641 -0.0073721963 0.088177785 -0.06472803 0.10103895 -0.041715313
00000000: 8aed 0ebe f9ca 30bb 1a47 ffbd 9635 063e
00000010: 9685 bbbd c14d fe3d 88fc f4bc bc7e 493d
00000020: 9627 23bd 2693 343b 711f cfbc ef83 bfbc
00000030: 25d6 803b 995d 3ebd 676d f93d 2d2e e7bd
00000040: a667 91bc 2d45 c03d 080f 843d 968d 03be
00000050: aadd fbba 1e89 10bd 0426 8bbd 1b57 ccbd
00000060: e168 843d 33b3 ab3d b339 b1bd 25d2 a23d
00000070: 09c4 25bd 00a7 6fbd 617d 97bd f3df bd3c
00000080: 0d8f 00bd 80c9 093e fdfa 01be a82d 31be
00000090: 463e a73c 35bb ef3d f727 b4bd cb55 923d
000000a0: a471 483c 3863 d0bb af76 c2bd 1a65 e7bd
000000b0: a425 f8bd 08de 85bb 5fd0 143e ff1a 2dbe
000000c0: 24f8 4cba 9ac8 ab3c 9df8 093e 8864 8cbd
000000d0: bf42 09be 531d d6bd 9e29 e03d 6889 1cbe
000000e0: d887 98bc 0251 adbd 102b 05be f508 c2ba
000000f0: 4fd6 91bc 3c91 3fbd 0c10 903d 7bf0 c9bd
00000100: f3e3 1c3e e5dc 27be fdbd cb3d 02a5 20bd
00000110: a3c0 643d ff5b 96bc 011f 9d3d ee23 13be
00000120: 13c1 03bd 2c5d 51bd 11fb ebbd 1248 51bd
00000130: a298 edbd 7e21 7a3d da83 8e3d af87 673d
00000140: ad96 81bd 0fce 9a3c 8eda 003d a8e5 c1bd
00000150: 2199 dcbc 1517 0b3e 6ca9 babd c51a 233d
00000160: d58d a73d 952c 12be 0758 0c3e 0332 cebd
00000170: 3deb 1dbe 1912 8bbd d85d 563d 844e c9bd
00000180: aaea d0bd 8982 c33d b700 a0bd 57db f43c
00000190: 29b6 c2bd f254 2a3e ef14 c03c 0d13 163d
000001a0: bc56 c4bb 53c5 89bd 41cd 9d3d e88c a9bd
000001b0: e510 f4bd 9d32 4fbd eb87 19bc ba0a e03d
000001c0: d348 ca3d 002b 81bd 3fc7 9f3d 33d9 f0bd
000001d0: b3dd fcbd 1fbb 283d f114 a93d bd86 07bd
000001e0: f709 7a3d 9bc6 2ebc c0e8 a9bd e640 d6bc
000001f0: 3bc5 07be 6b17 58bd 5fd5 2d3c 88ee 9ebd
00000200: 5d98 b5bd 0933 283d b0a3 ab3d 0925 6fbd
00000210: 28fa c93c 2db0 f1bd b67d 5dbd 1e16 c7bd
00000220: 9fae 5a3d 77a7 5b3d b40b f9bc 767d 22bd
00000230: 7824 193d 3f03 043d 4078 763d d9c6 4b3d
00000240: 2f6a 9b3d 02d1 24bc 0f4d 443d 5162 473d
00000250: c4f0 ef3c 2cf9 d4bd 678a 77bd e1a5 bbbd
00000260: 46bb ff3d 0be5 2b3d d7c7 d93d 7fce 773b
00000270: f16b 9ebd 9011 1fbd 6445 4bbd 0fc1 093e
00000280: 317a 1ebe 887f c63d 39b8 21bd c6a8 43bd
00000290: ed58 fbbc c81f 8e3d 304e de3d d28d efb7
000002a0: 3d13 2d3d 4d70 0ebd 1354 66bc 21ae c6bc
000002b0: 357e 00bd 9b55 d63d f8bc 0abc 198a 1e3d
000002c0: 04fb 04be 4442 eabc 8005 283b 4869 2839
000002d0: 4668 92bd 5bf1 42be c034 b1bc 631d cd3c
000002e0: 4ab8 7fbc 60e6 98bd 6c75 16be b52e 0a3d
000002f0: f3ff 6a3d 1187 e8bd ef28 f9bc 1d0f 533d
00000300: e7b9 47bc 1445 103e 8ce4 61bd 11be 98bd
00000310: 9854 93bd 58ba 0d3e 277f 163c 5bb4 a33d
00000320: c7aa 9fbd fca2 de3d a111 923d 3946 0c3e
00000330: e4b9 0abe 0826 0a3e ef90 12be d16a 90bd
00000340: d299 193d aa2f 89bc 0f89 5dbd 1525 133d
00000350: c31d f9bd 61c4 37bd 9a9e 03be 1d97 56bc
00000360: c395 fd3b 14fd cc3d 784d d7bd 3d08 633d
00000370: 2025 3cbe c956 b0bd 5939 0d3d 78a8 ebbd
00000380: 8808 b13d f202 0dbe 1d21 8ebd 15ad 8c3c
00000390: 6b88 3abd 891a c3bd a1a7 9abd 07f1 39bd
000003a0: e467 1abd 6dc5 c73d 8861 91bc df0c ecbc
000003b0: 3185 60bd 22bc 50be 1831 2bbc c723 c23d
000003c0: fb73 dcbd 0ed0 b1bd 3972 f13c 7d90 c03d
000003d0: 63f9 c13d 6267 483d 1b1e cfbd f98d 873d
000003e0: 5c1e 83bd ab6a b53d d7ff 9e3d 7792 f1bb
000003f0: 8e96 b43d 2190 84bd 82ed ce3d addd 2abd

bias f4 [50]
0.10248759 0.016610814 0.012025759 -0.08787464 0.12687194 -0.050522882 -0.027863348 0.12899064
-0.051695623 0.08485517 -0.13434814 -0.074661255 -0.041036554 0.036949623 -0.062792525 0.10506881
0.01953335 -0.008506988 -0.06284558 0.081583686 0.00966192 -0.009180341 -0.018804925 -0.004971911
0.056429286 -0.11036563 -0.005029095 -0.066015884 0.06827483 -0.02500558 -0.048814148 0.12705901
-0.0027106863 -0.082648546 -0.0730836 -0.100123 -0.025330734 -0.020110669 0.110406175 -0.037493616
0.13233717 0.12816063 -0.19747157 -0.03488117 0.061278284 -0.113854654 0.11800899 -0.06442169
-0.05991474 -0.0523632
00000000: 03e5 d13d 6713 883c b007 453c 9ff7 b3bd
00000010: b8ea 013e 15f1 4ebd ad41 e4bc 1f16 043e
00000020: cabe 53bd 8cc8 ad3d 8f92 09be 00e8 98bd
00000030: f215 28bd 7d58 173d 5e99 80bd 512e d73d
00000040: 6704 a03c e560 0bbc 2fb5 80bd 5915 a73d
00000050: 084d 1e3c 2469 16bc c90c 9abc 6aeb a2bb
00000060: 6522 673d 6007 e2bd 1bcb a4bb 5633 87bd
00000070: add3 8b3d 81d8 ccbc 58f1 47bd c21b 023e
00000080: c5a5 31bb a443 a9bd dbac 95bd 4a0d cdbd
00000090: 6682 cfbc 21bf a4bc a21c e23d e892 19bd
000000a0: 6583 073e 8a3c 033e fd35 4abe 8fdf 0ebd
000000b0: f0fe 7a3d a12c e9bd b3ae f13d 85ef 83bd
000000c0: 2969 75bd cb7a 56bd

mask f4 [50, 50]
1.0 1.0 1.0 1.0 1.0 1.0 1.0 1.0
1.0 1.0 1.0 1.0 1.0 1.0 1.0 1.0
1.0 1.0 1.0 1.0 1.0 1.0 1.0 1.0
1.0 1.0 1.0 1.0 1.0 1.0 1.0 1.0
1.0 1.0 1.0 1.0 1.0 1.0 1.0 1.0
1.0 1.0 1.0 1.0 1.0 1.0 1.0 1.0
1.0 1.0 1.0 1.0 1.0 1.0 1.0 1.0
1.0 1.0 1.0 1.0 1.0 1.0 1.0 1.0
1.0 1.0 1.0 1.0 1.0 1.0 1.0 1.0
1.0 1.0 1.0 1.0 1.0 1.0 1.0 1.0
1.0 1.0 1.0 1.0 1.0 1.0 1.0 1.0
1.0 1.0 1.0 1.0 1.0 1.0 1.0 1.0
1.0 1.0 1.0 1.0 1.0 1.0 1.0 1.0
1.0 1.0 1.0 1.0 1.0 1.0 1.0 1.0
1.0 1.0 1.0 1.0 1.0 1.0 1.0 1.0
1.0 1.0 1.0 1.0 1.0 1.0 1.0 1.0
1.0 1.0 1.0 1.0 1.0 1.0 1.0 1.0
1.0 1.0 1.0 1.0 1.0 1.0 1.0 1.0
1.0 1.0 1.0 1.0 1.0 1.0 1.0 1.0
1.0 1.0 1.0 1.0 1.0 1.0 1.0 1.0
1.0 1.0 1.0 1.0 1.0 1.0 1.0 1.0
1.0 1.0 1.0 1.0 1.0 1.0 1.0 1.0
1.0 1.0 1.0 1.0 1.0 1.0 1.0 1.0
1.0 1.0 1.0 1.0 1.0 1.0 1.0 1.0
1.0 1.0 1.0 1.0 1.0 1.0 1.0 1.0
1.0 1.0 1.0 1.0 1.0 1.0 1.0 1.0
1.0 1.0 1.0 1.0 1.0 1.0 1.0 1.0
1.0 1.0 1.0 1.0 1.0 1.0 1.0 1.0
1.0 1.0 1.0 1.0 1.0 1.0 1.0 1.0
1.0 1.0 1.0 1.0 1.0 1.0 1.0 1.0
1.0 1.0 1.0 1.0 1.0 1.0 1.0 1.0
1.0 1.0 1.0 1.0 1.0 1.0 1.0 1.0
00000000: 0000 803f 0000 803f 0000 803f 0000 803f
00000010: 0000 803f 0000 803f 0000 803f 0000 803f
00000020: 0000 803f 0000 803f 0000 803f 0000 803f
00000030: 0000 803f 0000 803f 0000 803f 0000 803f
00000040: 0000 803f 0000 803f 0000 803f 0000 803f
00000050: 0000 803f 0000 803f 0000 803f 0000 803f
00000060: 0000 803f 0000 803f 0000 803f 0000 803f
00000070: 0000 803f 0000 803f 0000 803f 0000 803f
00000080: 0000 803f 0000 803f 0000 803f 0000 803f
00000090: 0000 803f 0000 803f 0000 803f 0000 803f
000000a0: 0000 803f 0000 803f 0000 803f 0000 803f
000000b0: 0000 803f 0000 803f 0000 803f 0000 803f
000000c0: 0000 803f 0000 803f 0000 803f 0000 803f
000000d0: 0000 803f 0000 803f 0000 803f 0000 803f
000000e0: 0000 803f 0000 803f 0000 803f 0000 803f
000000f0: 0000 803f 0000 803f 0000 803f 0000 803f
00000100: 0000 803f 0000 803f 0000 803f 0000 803f
00000110: 0000 803f 0000 803f 0000 803f 0000 803f
00000120: 0000 803f 0000 803f 0000 803f 0000 803f
00000130: 0000 803f 0000 803f 0000 803f 0000 803f
00000140: 0000 803f 0000 803f 0000 803f 0000 803f
00000150: 0000 803f 0000 803f 0000 803f 0000 803f
00000160: 0000 803f 0000 803f 0000 803f 0000 803f
00000170: 0000 803f 0000 803f 0000 803f 0000 803f
00000180: 0000 803f 0000 803f 0000 803f 0000 803f
00000190: 0000 803f 0000 803f 0000 803f 0000 803f
000001a0: 0000 803f 0000 803f 0000 803f 0000 803f
000001b0: 0000 803f 0000 803f 0000 803f 0000 803f
000001c0: 0000 803f 0000 803f 0000 803f 0000 803f
000001d0: 0000 803f 0000 803f 0000 803f 0000 803f
000001e0: 0000 803f 0000 803f 0000 803f 0000 803f
000001f0: 0000 803f 0000 803f 0000 803f 0000 803f
00000200: 0000 803f 0000 803f 0000 803f 0000 803f
00000210: 0000 803f 0000 803f 0000 803f 0000 803f
00000220: 0000 803f 0000 803f 0000 803f 0000 803f
00000230: 0000 803f 0000 803f 0000 803f 0000 803f
00000240: 0000 803f 0000 803f 0000 803f 0000 803f
00000250: 0000 803f 0000 803f 0000 803f 0000 803f
00000260: 0000 803f 0000 803f 0000 803f 0000 803f
00000270: 0000 803f 0000 803f 0000 803f 0000 803f
00000280: 0000 803f 0000 803f 0000 803f 0000 803f
00000290: 0000 803f 0000 803f 0000 803f 0000 803f
000002a0: 0000 803f 0000 803f 0000 803f 0000 803f
000002b0: 0000 803f 0000 803f 0000 803f 0000 803f
000002c0: 0000 803f 0000 803f 0000 803f 0000 803f
000002d0: 0000 803f 0000 803f 0000 803f 0000 803f
000002e0: 0000 803f 0000 803f 0000 803f 0000 803f
000002f0: 0000 803f 0000 803f 0000 803f 0000 803f
00000300: 0000 803f 0000 803f 0000 803f 0000 803f
00000310: 0000 803f 0000 803f 0000 803f 0000 803f
00000320: 0000 803f 0000 803f 0000 803f 0000 803f
00000330: 0000 803f 0000 803f 0000 803f 0000 803f
00000340: 0000 803f 0000 803f 0000 803f 0000 803f
00000350: 0000 803f 0000 803f 0000 803f 0000 803f
00000360: 0000 803f 0000 803f 0000 803f 0000 803f
00000370: 0000 803f 0000 803f 0000 803f 0000 803f
00000380: 0000 803f 0000 803f 0000 803f 0000 803f
00000390: 0000 803f 0000 803f 0000 803f 0000 803f
000003a0: 0000 803f 0000 803f 0000 803f 0000 803f
000003b0: 0000 803f 0000 803f 0000 803f 0000 803f
000003c0: 0000 803f 0000 803f 0000 803f 0000 803f
000003d0: 0000 803f 0000 803f 0000 803f 0000 803f
000003e0: 0000 803f 0000 803f 0000 803f 0000 803f
000003f0: 0000 803f 0000 803f 0000 803f 0000 803f

weight f4 [4, 50]
0.06585455 0.11239062 -0.06865766 -0.011543244 -0.13019721 -0.10638303 -0.044231117 -0.093884945
-0.12581064 0.08133589 0.09004417 0.038929075 0.102144346 0.0106241405 -0.119052395 -0.09195839
0.030379653 -0.045971677 -0.08241618 0.08556925 -0.12605254 0.006093949 0.06819643 -0.022729069
0.0021836758 -0.046317384 0.10057971 -0.11291547 -0.04170166 0.03227584 0.08868341 -0.091256276
0.029209822 -0.12892577 0.0018561035 0.0605572 -0.10880523 0.113290206 -0.13252105 0.025214687
-0.107358195 0.009772509 -0.13819002 -0.100871 -0.07583478 -0.122827485 0.10044137 0.11329891
-0.030598357 -0.07639847 -0.028464936 0.06841469 -0.060639188 -0.09843149 -0.10411417 0.00093254447
-0.04733231 0.10365994 -0.081673026 -0.052331775 0.062253743 -0.0742113 -0.06825443 0.1094584
-0.0031257272 -0.079463705 -0.113659754 -0.045217365 -0.035234094 -0.111064605 0.01477097 -0.093678035
0.12616386 -0.076903164 -0.025707856 -0.1342288 -0.1234065 0.09156969 -0.13269563 0.061988413
0.10579996 -0.017531417 -0.06987855 0.037262693 0.025115073 0.04943575 0.060065836 0.030682117
0.13670982 0.06707245 0.11451243 0.08777867 0.007885292 0.037000686 0.019643739 -0.0913813
-0.055234395 -0.016374856 0.038356364 0.046641573 0.042949963 0.110842235 0.046581842 -0.051168583
-0.042695135 -0.007126101 -0.07987006 0.10929781 0.03542235 -0.0055934996 -0.06053458 0.0009496991
0.16399904 -0.13923006 -0.1463282 0.011643129 0.13869925 -0.014403875 0.022247858 -0.07807766
0.2570152 0.13062902 -0.08761012 0.06325516 -0.13845342 0.16251764 -0.021535954 0.09940455
-0.033680223 -0.045667633 0.01091943 0.039040137 -0.020587692 0.09721921 -0.10552247 -0.07617863
-0.016583635 -0.07713317 0.041202627 -0.053114425 0.030982539 0.16432166 -0.12696002 -0.13629082
-0.08863848 -0.1462456 0.10180874 0.110999875 0.083659 -0.0013798068 0.028843656 0.10085523
0.09381312 -0.020637179 0.09046435 0.0036944817 0.03586552 0.0001454017 0.011843236 0.00034015637
-0.062406227 -0.00015219598 0.1443794 0.0053488845 0.07866716 0.0034649537 0.10043492 -0.004525084
0.008756896 0.026929986 -0.06467491 -0.06891776 0.044981934 0.15050891 -0.0031610692 0.008249878
0.077050574 -0.02190867 -0.08237224 -0.06294236 -0.011183822 0.055551164 -0.035810206 0.12192169
-0.043114293 -0.060980633 -0.007961926 0.034627687 0.042334024 -0.016046083 0.031297684 0.031744648
-0.09280829 0.06190425 -0.074104056 0.053156674 0.096914664 0.0062010135 0.114126176 0.039153364
00000000: c0de 863d 0e2d e63d 639c 8cbd e01f 3dbc
00000010: 6b52 05be 59df d9bd b02b 35bd c046 c0bd
00000020: 81d4 00be 6e93 a63d 1469 b83d 1874 1f3d
00000030: 0e31 d13d e010 2e3c bed1 f3bd ae54 bcbd
00000040: c0de f83c cc4c 3cbd d0c9 a8bd ee3e af3d
00000050: eb13 01be c0af c73b 92aa 8b3d 5032 babc
00000060: 001c 0f3b 4cb7 3dbd bcfc cd3d 3a40 e7bd
00000070: 5ccf 2abd ac33 043d a69f b53d 92e4 babd
00000080: 7049 ef3c 1e05 04be 8048 f33a d40a 783d
00000090: 47d5 debd b204 e83d 99b3 07be 088f ce3c
000000a0: 9dde dbbd e01c 203c af81 0dbe 7495 cebd
000000b0: 444f 9bbd fa8c fbbd 34b4 cd3d 4209 e83d
000000c0: 68a9 fabc cd76 9cbd 4c2f e9bc 001d 8c3d
000000d0: cc60 78bd 7396 c9bd cf39 d5bd 0076 743a
000000e0: 86df 41bd aa4b d43d 3044 a7bd d859 56bd
000000f0: c8fd 7e3d 18fc 97bd fbc8 8bbd ba2b e03d
00000100: 00d9 4cbb debd a2bd 72c6 e8bd d835 39bd
00000110: a051 10bd d775 e3bd f001 723c 45da bfbd
00000120: 1931 013e 687f 9dbd 4899 d2bc 4673 09be
00000130: 8cbc fcbd e488 bb3d 5de1 07be 90e7 7d3d
00000140: a6ad d83d 0c9e 8fbc 7c1c 8fbd c4a0 183d
00000150: 20be cd3c 247d 4a3d 9807 763d 1059 fb3c
00000160: a9fd 0b3e 485d 893d 7e85 ea3d 4ec5 b33d
00000170: 5031 013c 088e 173d e8eb a03c 1e26 bbbd
00000180: 763d 62bd 9024 86bc 901b 1d3d 3c0b 3f3d
00000190: 4dec 2f3d 4101 e33d 9acc 3e3d 2696 51bd
000001a0: 18e1 2ebd 1182 e9bb ea92 a3bd 88d7 df3d
000001b0: 0717 113d ad49 b7bb 1cf3 77bd 3af5 783a
000001c0: 5def 273e 5392 0ebe 0fd7 15be d3c2 3e3c
000001d0: 2d07 0e3e 3bfe 6bbc 2441 b63c 2ee7 9fbd
000001e0: 7f97 833e 9dc3 053e ef6c b3bd ec8b 813d
000001f0: bcc6 0dbe 066b 263e 2b6c b0bc 9d94 cb3d
00000200: 46f4 09bd fc0d 3bbd 69e7 323c 8de8 1f3d
00000210: 85a7 a8bc dd1a c73d 2a1c d8bd 8b03 9cbd
00000220: 67da 87bc fff7 9dbd 16c4 283d 838e 59bd
00000230: 18cf fd3c f043 283e cf01 02be d28f 0bbe
00000240: 1788 b5bd 68c1 15be 1a81 d03d e753 e33d
00000250: 6955 ab3d a2da b4ba 8849 ec3c 308d ce3d
00000260: 1821 c03d 4d0f a9bc 6045 b93d 1e1f 723b
00000270: b9e7 123d f976 1839 220a 423c 0457 b239
00000280: ac9d 7fbd cc96 1fb9 32d8 133e b245 af3b
00000290: 3f1c a13d 4714 633b d3b0 cd3d 2847 94bb
000002a0: 1579 0f3c 469c dc3c 4774 84bd c124 8dbd
000002b0: fa3e 383d 021f 1a3e f129 4fbb 7f2a 073c
000002c0: b1cc 9d3d d079 b3bc c7b2 a8bd ede7 80bd
000002d0: 593c 37bc 9e89 633d b9ad 12bd 14b2 f93d
000002e0: 9d98 30bd d4c6 79bd bd72 02bc c3d5 0d3d
000002f0: 7166 2d3d 1373 83bc 0032 003d ad06 023d
00000300: 4612 bebd 508f 7d3d dec3 97bd d0ba 593d
00000310: 327b c63d df31 cb3b fcba e93d 475f 203d

bias f4 [4]
0.027410181 0.13163215 0.18198192 0.10938429
00000000: 518b e03c 94ca 063e 7859 3a3e df04 e03d

mask f4 [4, 50]
0.0 0.0 0.0 0.0 0.0 0.0 0.0 0.0
0.0 0.0 0.0 0.0 0.0 0.0 0.0 0.0
0.0 0.0 0.0 0.0 0.0 0.0 0.0 0.0
0.0 0.0 0.0 0.0 0.0 0.0 0.0 0.0
0.0 0.0 0.0 0.0 0.0 0.0 0.0 0.0
0.0 0.0 0.0 0.0 0.0 0.0 0.0 0.0
0.0 0.0 0.0 0.0 0.0 0.0 0.0 0.0
0.0 0.0 0.0 0.0 0.0 0.0 0.0 0.0
0.0 0.0 0.0 0.0 0.0 0.0 0.0 0.0
0.0 0.0 0.0 0.0 0.0 0.0 0.0 0.0
0.0 0.0 0.0 0.0 0.0 0.0 0.0 0.0
0.0 0.0 0.0 0.0 0.0 0.0 0.0 0.0
0.0 0.0 0.0 0.0 1.0 1.0 1.0 1.0
1.0 1.0 1.0 1.0 1.0 1.0 1.0 1.0
1.0 1.0 1.0 1.0 1.0 1.0 1.0 1.0
1.0 1.0 1.0 1.0 1.0 1.0 1.0 1.0
1.0 1.0 1.0 1.0 1.0 1.0 1.0 1.0
1.0 1.0 1.0 1.0 1.0 1.0 1.0 1.0
1.0 1.0 1.0 1.0 1.0 1.0 1.0 1.0
1.0 1.0 1.0 1.0 1.0 1.0 1.0 1.0
1.0 1.0 1.0 1.0 1.0 1.0 1.0 1.0
1.0 1.0 1.0 1.0 1.0 1.0 1.0 1.0
1.0 1.0 1.0 1.0 1.0 1.0 1.0 1.0
1.0 1.0 1.0 1.0 1.0 1.0 1.0 1.0
1.0 1.0 1.0 1.0 1.0 1.0 1.0 1.0
00000000: 0000 0000 0000 0000 0000 0000 0000 0000
00000010: 0000 0000 0000 0000 0000 0000 0000 0000
00000020: 0000 0000 0000 0000 0000 0000 0000 0000
00000030: 0000 0000 0000 0000 0000 0000 0000 0000
00000040: 0000 0000 0000 0000 0000 0000 0000 0000
00000050: 0000 0000 0000 0000 0000 0000 0000 0000
00000060: 0000 0000 0000 0000 0000 0000 0000 0000
00000070: 0000 0000 0000 0000 0000 0000 0000 0000
00000080: 0000 0000 0000 0000 0000 0000 0000 0000
00000090: 0000 0000 0000 0000 0000 0000 0000 0000
000000a0: 0000 0000 0000 0000 0000 0000 0000 0000
000000b0: 0000 0000 0000 0000 0000 0000 0000 0000
000000c0: 0000 0000 0000 0000 0000 0000 0000 0000
000000d0: 0000 0000 0000 0000 0000 0000 0000 0000
000000e0: 0000 0000 0000 0000 0000 0000 0000 0000
000000f0: 0000 0000 0000 0000 0000 0000 0000 0000
00000100: 0000 0000 0000 0000 0000 0000 0000 0000
00000110: 0000 0000 0000 0000 0000 0000 0000 0000
00000120: 0000 0000 0000 0000 0000 0000 0000 0000
00000130: 0000 0000 0000 0000 0000 0000 0000 0000
00000140: 0000 0000 0000 0000 0000 0000 0000 0000
00000150: 0000 0000 0000 0000 0000 0000 0000 0000
00000160: 0000 0000 0000 0000 0000 0000 0000 0000
00000170: 0000 0000 0000 0000 0000 0000 0000 0000
00000180: 0000 0000 0000 0000 0000 0000 0000 0000
00000190: 0000 803f 0000 803f 0000 803f 0000 803f
000001a0: 0000 803f 0000 803f 0000 803f 0000 803f
000001b0: 0000 803f 0000 803f 0000 803f 0000 803f
000001c0: 0000 803f 0000 803f 0000 803f 0000 803f
000001d0: 0000 803f 0000 803f 0000 803f 0000 803f
000001e0: 0000 803f 0000 803f 0000 803f 0000 803f
000001f0: 0000 803f 0000 803f 0000 803f 0000 803f
00000200: 0000 803f 0000 803f 0000 803f 0000 803f
00000210: 0000 803f 0000 803f 0000 803f 0000 803f
00000220: 0000 803f 0000 803f 0000 803f 0000 803f
00000230: 0000 803f 0000 803f 0000 803f 0000 803f
00000240: 0000 803f 0000 803f 0000 803f 0000 803f
00000250: 0000 803f 0000 803f 0000 803f 0000 803f
00000260: 0000 803f 0000 803f 0000 803f 0000 803f
00000270: 0000 803f 0000 803f 0000 803f 0000 803f
00000280: 0000 803f 0000 803f 0000 803f 0000 803f
00000290: 0000 803f 0000 803f 0000 803f 0000 803f
000002a0: 0000 803f 0000 803f 0000 803f 0000 803f
000002b0: 0000 803f 0000 803f 0000 803f 0000 803f
000002c0: 0000 803f 0000 803f 0000 803f 0000 803f
000002d0: 0000 803f 0000 803f 0000 803f 0000 803f
000002e0: 0000 803f 0000 803f 0000 803f 0000 803f
000002f0: 0000 803f 0000 803f 0000 803f 0000 803f
00000300: 0000 803f 0000 803f 0000 803f 0000 803f
00000310: 0000 803f 0000 803f 0000 803f 0000 803f

weight f4 [50, 2]
-0.35156527 0.32263666 -0.05936776 -0.13751578 -0.56888497 0.6120686 0.28875226 -0.17762399
-0.4143053 0.48229486 -0.25757298 0.19294989 -0.3875375 0.21857828 0.21999136 -0.19613945
0.60363615 0.64871186 -0.47670957 -0.5159979 0.048454013 -0.4685401 -0.506047 0.45286912
0.4785929 -0.23944536 0.08735945 -0.066275895 0.09228561 0.65930945 -0.5614828 -0.5184452
-0.15371035 0.33203477 -0.3156508 0.57893497 0.25329527 -0.3696168 -0.2515481 -0.3123174
-0.49481478 0.16868198 -0.118782096 -0.6132669 -0.0882644 -0.34534597 0.12563899 -0.47769988
0.5079041 -0.031478643 -0.36774793 -0.35009548 0.5737351 0.42997974 -0.20997158 0.62831885
0.5896474 -0.2942075 0.443422 -0.5335882 -0.6357366 -0.23602623 -0.048815716 -0.5580469
-0.94208825 0.3654068 -0.53986335 -0.119374454 -0.18466106 -0.6762743 -0.29090488 0.051879883
0.1508372 0.051811934 0.23348223 -0.21317175 -0.41143024 -0.31023484 -0.03237277 0.2167682
0.015943252 -0.5837876 0.14827962 0.15557808 0.08713709 0.69767016 0.35076898 -0.15659559
-0.5355681 -0.4601007 -0.3346014 -0.50423765 -0.5536722 0.47792548 -0.25599164 0.5207519
-0.56704986 -0.6929883 -0.40287104 0.55815846
00000000: 5d00 b4be a230 a53e 9c2b 73bd f0d0 0cbe
00000010: 72a2 11bf 87b0 1c3f 56d7 933e 10e3 35be
00000020: d31f d4be 5aef f63e 9be0 83be a894 453e
00000030: 516b c6be fcd2 5f3e 6a45 613e c8d8 48be
00000040: e687 1a3f fb11 263f 4713 f4be 7018 04bf
00000050: b777 463d 7de4 efbe 4c8c 01bf 76de e73e
00000060: 210a f53e 2a31 75be 83e9 b23d a8bb 87bd
00000070: 3d00 bd3d 81c8 283f 56bd 0fbf d3b8 04bf
00000080: 3f66 1dbe 7600 aa3e fb9c a1be 1535 143f
00000090: ebaf 813e 6a3e bdbe eaca 80be 11e8 9fbe
000000a0: 5d58 fdbe f8ba 2c3e 0744 f3bd 0fff 1cbf
000000b0: f7c3 b4bd 30d1 b0be 82a7 003e 1495 f4be
000000c0: 0106 023f c0ef 00bd 7549 bcbe b73f b3be
000000d0: 4ee0 123f 4e26 dc3e ca02 57be 81d9 203f
000000e0: 22f3 163f 5ea2 96be 3508 e33e 3c99 08bf
000000f0: a2bf 22bf dcb0 71be fdf2 47bd 29dc 0ebf
00000100: b22c 71bf 9a16 bb3e 7c34 0abf 987a f4bd
00000110: ca17 3dbe 5020 2dbf 7cf1 94be 0080 543d
00000120: 1175 1a3e c038 543d f715 6f3e b249 5abe
00000130: fca6 d2be 1ad7 9ebe 4f99 04bd 7cf8 5d3e
00000140: 6c9b 823c 1b73 15bf 9dd6 173e dc4f 1f3e
00000150: ee74 b23d 839a 323f fe97 b33e 985a 20be
00000160: fe1a 09bf 5292 ebbe e050 abbe b815 01bf
00000170: 76bd 0dbf a6b2 f43e 5611 83be ff4f 053f
00000180: 2e2a 11bf ae67 31bf 1d45 cebe 79e3 0e3f

bias f4 [50]
-0.22715153 0.38212368 -0.3897551 -0.4452031 -0.36771384 0.6404407 0.17164762 -0.6424188
0.5645253 0.33563462 -0.44329262 0.6319147 0.2313321 -0.42292938 0.023826238 -0.3738137
-0.73073596 -0.18399902 0.49636802 0.42033675 0.7086579 0.6150262 0.16585767 -0.12102707
-0.06466704 -0.013325675 0.031521615 0.6618381 -0.24419993 -0.19052859 -0.4803425 0.16412923
-0.26431137 0.4741142 -0.22398633 -0.6128431 0.20374721 0.4068603 -0.7118099 -0.19612247
0.1746485 0.49298218 -0.64625037 0.5753351 0.3746129 0.18151078 0.1833175 0.19875114
-0.5858848 0.47950286
00000000: 699a 68be b7a5 c33e fb8d c7be a9f1 e3be
00000010: fd44 bcbe ecf3 233f 65c4 2f3e 8f75 24bf
00000020: bb84 103f 4dd8 ab3e 40f7 e2be 29c5 213f
00000030: 52e2 6c3e 338a d8be 3e2f c33c 8264 bfbe
00000040: 8311 3bbf 3d6a 3cbe f323 fe3e 6136 d73e
00000050: 9b6a 353f 5b72 1d3f 98d6 293e 0add f7bd
00000060: 2770 84bd ef53 5abc cf1c 013d 396e 293f
00000070: 8c0f 7abe ed19 43be 74ef f5be 7e11 283e
00000080: d253 87be 19bf f23e ac5c 65be 49e3 1cbf
00000090: 1ca3 503e fe4f d03e 2c39 36bf 54d4 48be
000000a0: 0ed7 323e 2968 fc3e aa70 25bf 2949 133f
000000b0: 43cd bf3e f6dd 393e 95b7 3b3e 6b85 4b3e
000000c0: 8cfc 15bf 6681 f53e

mask f4 [50, 2]
1.0 0.0 1.0 0.0 1.0 0.0 1.0 0.0
1.0 0.0 1.0 0.0 1.0 0.0 1.0 0.0
1.0 0.0 1.0 0.0 1.0 0.0 1.0 0.0
1.0 0.0 1.0 0.0 1.0 0.0 1.0 0.0
1.0 0.0 1.0 0.0 1.0 0.0 1.0 0.0
1.0 0.0 1.0 0.0 1.0 0.0 1.0 0.0
1.0 0.0 1.0 0.0 1.0 0.0 1.0 0.0
1.0 0.0 1.0 0.0 1.0 0.0 1.0 0.0
1.0 0.0 1.0 0.0 1.0 0.0 1.0 0.0
1.0 0.0 1.0 0.0 1.0 0.0 1.0 0.0
1.0 0.0 1.0 0.0 1.0 0.0 1.0 0.0
1.0 0.0 1.0 0.0 1.0 0.0 1.0 0.0
1.0 0.0 1.0 0.0
00000000: 0000 803f 0000 0000 0000 803f 0000 0000
00000010: 0000 803f 0000 0000 0000 803f 0000 0000
00000020: 0000 803f 0000 0000 0000 803f 0000 0000
00000030: 0000 803f 0000 0000 0000 803f 0000 0000
00000040: 0000 803f 0000 0000 0000 803f 0000 0000
00000050: 0000 803f 0000 0000 0000 803f 0000 0000
00000060: 0000 803f 0000 0000 0000 803f 0000 0000
00000070: 0000 803f 0000 0000 0000 803f 0000 0000
00000080: 0000 803f 0000 0000 0000 803f 0000 0000
00000090: 0000 803f 0000 0000 0000 803f 0000 0000
000000a0: 0000 803f 0000 0000 0000 803f 0000 0000
000000b0: 0000 803f 0000 0000 0000 803f 0000 0000
000000c0: 0000 803f 0000 0000 0000 803f 0000 0000
000000d0: 0000 803f 0000 0000 0000 803f 0000 0000
000000e0: 0000 803f 0000 0000 0000 803f 0000 0000
000000f0: 0000 803f 0000 0000 0000 803f 0000 0000
00000100: 0000 803f 0000 0000 0000 803f 0000 0000
00000110: 0000 803f 0000 0000 0000 803f 0000 0000
00000120: 0000 803f 0000 0000 0000 803f 0000 0000
00000130: 0000 803f 0000 0000 0000 803f 0000 0000
00000140: 0000 803f 0000 0000 0000 803f 0000 0000
00000150: 0000 803f 0000 0000 0000 803f 0000 0000
00000160: 0000 803f 0000 0000 0000 803f 0000 0000
00000170: 0000 803f 0000 0000 0000 803f 0000 0000
00000180: 0000 803f 0000 0000 0000 803f 0000 0000

weight f4 [50, 2]
0.31565675 -0.281532 0.038345728 0.49538323 0.16053434 0.65081805 -0.3630946 0.59863454
0.053134132 -0.11444758 0.31945753 -0.38601568 -0.5271331 0.10758158 0.31751406 0.039560914
-0.30003703 -0.65415794 0.38606656 -0.1862383 0.40874118 -0.5632711 0.6157729 0.64045316
-0.47330698 -0.12330323 -0.3834269 0.3141649 0.22805224 0.572777 -0.0748618 -0.5100681
-0.33949247 0.3140907 -0.20772405 0.48901004 -0.29999357 0.25362822 -0.58193487 0.14287928
0.586495 -0.09985857 0.32678515 -0.57748264 0.022602236 0.18469818 0.5771526 -0.377455
0.085783385 -0.6580035 -0.5095069 0.36670095 0.32013917 0.11493258 -0.54371154 -0.6528162
0.09529156 0.16187124 -0.40691963 0.39525524 0.30723932 0.4386551 -0.6626805 -0.648853
0.23568313 0.34301692 -0.6428529 0.5319875 -0.06776201 -0.11869368 0.22120455 -0.028925339
-0.6227184 -0.7014094 -0.5645464 -0.51202667 -0.62902015 -0.63479 -0.33424097 0.18219835
-0.05722089 -0.66233987 0.43781134 -0.51641476 0.17759506 0.5690831 -0.62908864 0.3261702
-0.3005776 -0.24066247 0.44662672 -0.024341678 -0.20459536 -0.25915837 -0.5081992 -0.15548201
0.36240822 0.38030776 -0.6318408 0.41993597
00000000: c39d a13e f624 90be 6910 1d3d dfa2 fd3e
00000010: 1d63 243e 039c 263f 89e7 b9be 1d40 193f
00000020: 2da3 593d 7e63 eabd f08f a33e d9a3 c5be
00000030: 32f2 06bf bb53 dc3d 3491 a23e a00a 223d
00000040: 749e 99be e576 27bf 84aa c53e 41b5 3ebe
00000050: 8646 d13e 8932 10bf 4ba3 1d3f bdf4 233f
00000060: 4b55 f2be 6786 fcbd 8850 c4be 39da a03e
00000070: 8786 693e 83a1 123f 2551 99bd d393 02bf
00000080: f5d1 adbe 7fd0 a03e 9db5 54be 865f fa3e
00000090: c298 99be 8fdb 813e aff9 14bf f24e 123e
000000a0: 8924 163f a682 ccbd 6250 a73e e7d5 13bf
000000b0: 5328 b93c 8521 3d3e 46c0 133f c841 c1be
000000c0: 33af af3d eb72 28bf 0b6f 02bf 3ac0 bb3e
000000d0: 48e9 a33e c661 eb3d ae30 0bbf f61e 27bf
000000e0: 3928 c33d 93c1 253e c557 d0be e55e ca3e
000000f0: 794e 9d3e 6797 e03e 6ea5 29bf 3b1b 26bf
00000100: eb56 713e ea9f af3e 0292 24bf 5530 083f
00000110: cfc6 8abd ac15 f3bd 7283 623e d5f4 ecbc
00000120: 796a 1fbf 918f 33bf 1d86 10bf 2e14 03bf
00000130: 7707 21bf 9981 22bf a221 abbe 3492 3a3e
00000140: 7460 6abd 1b8f 29bf cf28 e03e c233 04bf
00000150: 7bdb 353e 6eaf 113f f40b 21bf c8ff a63e
00000160: 4fe5 99be 3970 76be 42ac e43e 3368 c7bc
00000170: 7281 51be 68b0 84be 5819 02bf ad36 1fbe
00000180: 928d b93e b3b7 c23e 52c0 21bf d901 d73e

bias f4 [50]
-0.05798154 -0.3892736 0.006535459 0.4194032 0.4728955 -0.43695325 -0.51957405 0.0061372165
0.00047913642 0.574671 -0.71013033 0.2552474 -0.6375283 0.07144936 -0.085163556 0.651281
0.10138311 0.14615236 0.2611692 -0.661168 -0.49439645 -0.42040804 0.14960428 0.3923302
-0.5454189 -0.16911441 0.1573228 -0.24466169 -0.018228985 -0.17172617 0.29784346 0.68951106
-0.518256 0.3925056 0.50622165 0.55470985 0.030032232 0.57090825 -0.3465978 0.10895246
0.4776282 -0.1309548 -0.61764663 0.25047475 0.056933217 0.59919107 -0.015913768 0.27139845
0.0097390525 0.48411703
00000000: 0d7e 6dbd df4e c7be 6727 d63b 04bc d63e
00000010: 5c1f f23e 56b8 dfbe ce02 05bf b41a c93b
00000020: 9a34 fb39 a31d 133f 1acb 35bf caaf 823e
00000030: 0e35 23bf 0b54 923d 3b6a aebd 5aba 263f
00000040: f3a1 cf3d f7a8 153e f8b7 853e 4e42 29bf
00000050: 8821 fdbe b93f d7be dd31 193e 81df c83e
00000060: 93a0 0bbf 542c 2dbe 3a19 213e 9888 7abe
00000070: f454 95bc fcd8 2fbe f07e 983e cc83 303f
00000080: 6dac 04bf 7ef6 c83e be97 013f 7701 0e3f
00000090: 2806 f63c 0b27 123f 4475 b1be 7822 df3d
000000a0: af8b f43e 0419 06be 171e 1ebf 3a3e 803e
000000b0: ce32 693d 9664 193f 975d 82bc bdf4 8a3e
000000c0: 8c90 1f3c 30de f73e
