03b/GPS_1256775418/model_ai_seed_31415.pth (torch, 278418 bytes, 76 tensors)

_shift f4 [2]
000000 d7 86 26 40 7e bc dc bf
       2.60198 -1.7245023

_scale f4 [2]
000000 90 f2 31 3e 51 20 5d 40
       0.17377687 3.4550974

weight f4 [50, 2]
000000 50 1e 09 3f 80 6f 88 bd cf 37 7b 3e e6 96 a1 3e
       0.5356188 -0.06661892 0.24533008 0.3156044
000010 5a ca 30 bf 36 54 a2 3e 9c 4c e0 3d 07 66 1b 3f
       -0.69058764 0.31704873 0.10952112 0.60702556
000020 0f bd c9 3e e9 3b 19 3f 5e cb 23 bf 79 04 21 bf
       0.39402053 0.5985704 -0.6398219 -0.6289745
000030 ba 1c ca be be d3 a1 3e 8b b6 75 bd 0d 53 25 bf
       -0.39475042 0.3160686 -0.05998854 -0.6457985
000040 47 09 f1 be 30 c6 23 3d 31 45 f2 3e 1e 1f c9 3e
       -0.4707739 0.03998393 0.47318414 0.39281553
000050 6a 28 10 3f 5e 9f be 3e 9b 09 0b bf 0c 28 4c be
       0.56311667 0.37230963 -0.5431153 -0.19937152
000060 db 54 1d bf 32 45 e0 3e 92 90 ff 3e ce 63 9b 3e
       -0.61457604 0.43802792 0.49914986 0.30349582
000070 e1 43 27 3e 70 f2 05 bd f2 22 bd bd 2c 3d 08 bf
       0.16334487 -0.03270191 -0.09235181 -0.5321834
000080 15 0f 5c be b6 4f a2 3e 2a 0b 1d be 98 22 2f be
       -0.21490128 0.3170144 -0.1533629 -0.1710304
000090 5f 95 22 3f 10 22 e6 3d 4e 7e 5b 3e 73 8b e6 be
       0.6350917 0.11236966 0.214349 -0.45028266
0000a0 38 d1 3c bd 8b fe 15 bf af 0b 11 bf a6 e1 df 3e
       -0.046097964 -0.58591527 -0.5665845 0.43726844
0000b0 b5 3a b7 bd 07 2a 16 3f 85 7c 02 3e 30 88 ac be
       -0.08946744 0.5865788 0.12742813 -0.33697653
0000c0 22 f2 e2 bd 50 44 11 3d 53 64 48 bf 08 3a 86 3d
       -0.110813394 0.03546554 -0.7827808 0.06554037
0000d0 4e e7 00 bd ce 66 ad be c5 21 b5 be 81 ab e8 be
       -0.03147059 -0.33867496 -0.35377327 -0.45443347
0000e0 94 b5 0d 3f 10 4f 87 be 4a 39 95 3c 39 4a 22 3f
       0.5535519 -0.26427507 0.018215794 0.63394505
0000f0 d0 ac 8a 3d 7e 78 b5 3e bb 07 31 3f b0 bc e3 bd
       0.067712426 0.3544349 0.6915242 -0.11119974
000100 39 72 01 be 56 f3 bc 3e 22 60 75 3e 14 87 06 bf
       -0.12641229 0.369044 0.23962453 -0.5254986
000110 1f 54 53 be 8c d7 34 bf fa cc fc 3e 20 4b 6a 3d
       -0.20637558 -0.706414 0.49375135 0.05720055
000120 72 83 98 3e 0d f0 b5 be d6 8f 49 be 33 22 13 3f
       0.29787785 -0.35534707 -0.19683775 0.5747406
000130 3e de d9 be ca 03 a2 be a4 3a 1e bf 90 85 04 bd
       -0.4255237 -0.31643516 -0.6180823 -0.032353938
000140 62 25 26 3f 18 21 2d be 59 33 05 3f b4 12 3b be
       0.6490079 -0.16907156 0.52031475 -0.18268853
000150 3a ed a6 3e 06 1c 77 be 5c bc 1b bf 52 ad bb 3e
       0.32602865 -0.24131784 -0.6083429 0.3665567
000160 58 46 a9 be 80 ba 4e 3e f3 1c a0 3c 00 70 b6 3c
       -0.3306148 0.20188332 0.019545054 0.022270203
000170 23 c9 00 be 38 5f 7f 3e 7b fb 9a 3d b6 95 ad 3e
       -0.12576728 0.24938667 0.07567497 0.33903283
000180 4d 49 a8 be da c9 b6 be a5 78 09 3f 8c 88 23 3e
       -0.32868424 -0.35700876 0.53699714 0.15970057

bias f4 [50]
000000 56 e9 57 bd 0a 83 15 3f f3 38 28 3f 7f 07 c6 be
       -0.05271276 0.58403075 0.657119 -0.38677594
000010 15 ac dd bd 2c 73 9e 3e e2 a5 0e 3f bd bd 94 bd
       -0.10823838 0.30947244 0.5572187 -0.07262752
000020 6e bf 51 be 04 a5 a3 3e 15 9a ee 3d b0 85 d6 be
       -0.20483181 0.31961834 0.116504826 -0.4189887
000030 b0 6b 2d 3e 6b 0a 19 bf c8 f4 e3 3e 6a 37 3d be
       0.16935611 -0.5978152 0.4452269 -0.1847817
000040 2c 99 d1 be 1d 46 b9 be ce 96 db bd 54 77 65 3c
       -0.40937173 -0.36186305 -0.10722123 0.014005501
000050 f9 c4 02 3f 60 fd 19 bf 48 70 2c 3f 90 91 64 3e
       0.51081806 -0.60152245 0.6735883 0.22321153
000060 db 06 06 3f 78 ae 2d 3f 53 34 2c 3e 60 76 36 3e
       0.5235421 0.67844343 0.16816835 0.17818594
000070 a0 9a 4d bf ab e8 1f bf fb 3a 82 3e c8 88 b2 bb
       -0.80314064 -0.624644 0.25435624 -0.0054484345
000080 07 2f 97 3e 0b bd b7 be 6e 7e 10 3f dd a0 d3 3e
       0.29528067 -0.35886416 0.56442916 0.41333666
000090 3f c1 64 3c 20 bc 74 be 2a 95 40 3f d4 8b d9 3d
       0.013962089 -0.23899889 0.75227606 0.10622373
0000a0 74 b1 1f 3f cb 11 8f 3e 74 15 e7 be f1 a7 2a bf
       0.62380147 0.27943262 -0.45133555 -0.6666251
0000b0 f2 d8 5e be de 57 b7 3d 40 d3 06 bf d6 81 6b 3d
       -0.21762446 0.08952306 -0.5266609 0.057496868
0000c0 b8 2e 1b bf 3d 56 12 3f
       -0.6061816 0.5716284

mask f4 [50, 2]
000000 00 00 80 3f 00 00 00 00 00 00 80 3f 00 00 00 00
       1.0 0.0 1.0 0.0
000010 00 00 80 3f 00 00 00 00 00 00 80 3f 00 00 00 00
       1.0 0.0 1.0 0.0
000020 00 00 80 3f 00 00 00 00 00 00 80 3f 00 00 00 00
       1.0 0.0 1.0 0.0
000030 00 00 80 3f 00 00 00 00 00 00 80 3f 00 00 00 00
       1.0 0.0 1.0 0.0
000040 00 00 80 3f 00 00 00 00 00 00 80 3f 00 00 00 00
       1.0 0.0 1.0 0.0
000050 00 00 80 3f 00 00 00 00 00 00 80 3f 00 00 00 00
       1.0 0.0 1.0 0.0
000060 00 00 80 3f 00 00 00 00 00 00 80 3f 00 00 00 00
       1.0 0.0 1.0 0.0
000070 00 00 80 3f 00 00 00 00 00 00 80 3f 00 00 00 00
       1.0 0.0 1.0 0.0
000080 00 00 80 3f 00 00 00 00 00 00 80 3f 00 00 00 00
       1.0 0.0 1.0 0.0
000090 00 00 80 3f 00 00 00 00 00 00 80 3f 00 00 00 00
       1.0 0.0 1.0 0.0
0000a0 00 00 80 3f 00 00 00 00 00 00 80 3f 00 00 00 00
       1.0 0.0 1.0 0.0
0000b0 00 00 80 3f 00 00 00 00 00 00 80 3f 00 00 00 00
       1.0 0.0 1.0 0.0
0000c0 00 00 80 3f 00 00 00 00 00 00 80 3f 00 00 00 00
       1.0 0.0 1.0 0.0
0000d0 00 00 80 3f 00 00 00 00 00 00 80 3f 00 00 00 00
       1.0 0.0 1.0 0.0
0000e0 00 00 80 3f 00 00 00 00 00 00 80 3f 00 00 00 00
       1.0 0.0 1.0 0.0
0000f0 00 00 80 3f 00 00 00 00 00 00 80 3f 00 00 00 00
       1.0 0.0 1.0 0.0
000100 00 00 80 3f 00 00 00 00 00 00 80 3f 00 00 00 00
       1.0 0.0 1.0 0.0
000110 00 00 80 3f 00 00 00 00 00 00 80 3f 00 00 00 00
       1.0 0.0 1.0 0.0
000120 00 00 80 3f 00 00 00 00 00 00 80 3f 00 00 00 00
       1.0 0.0 1.0 0.0
000130 00 00 80 3f 00 00 00 00 00 00 80 3f 00 00 00 00
       1.0 0.0 1.0 0.0
000140 00 00 80 3f 00 00 00 00 00 00 80 3f 00 00 00 00
       1.0 0.0 1.0 0.0
000150 00 00 80 3f 00 00 00 00 00 00 80 3f 00 00 00 00
       1.0 0.0 1.0 0.0
000160 00 00 80 3f 00 00 00 00 00 00 80 3f 00 00 00 00
       1.0 0.0 1.0 0.0
000170 00 00 80 3f 00 00 00 00 00 00 80 3f 00 00 00 00
       1.0 0.0 1.0 0.0
000180 00 00 80 3f 00 00 00 00 00 00 80 3f 00 00 00 00
       1.0 0.0 1.0 0.0

weight f4 [50, 4]
000000 b6 66 70 be 35 a7 87 3e 7b b1 48 bd 83 67 6b 3d
       -0.23476681 0.26494756 -0.048997384 0.057471763
000010 b3 b6 a6 be a1 a3 39 bd e9 5b df bd eb d0 71 3e
       -0.32561263 -0.045322064 -0.10906202 0.23614852
000020 45 c7 72 be 44 b6 22 3d e2 e5 e8 3d cc 79 70 be
       -0.23708828 0.039724603 0.11371972 -0.23483962
000030 b7 09 56 be 6c 52 f9 bc 65 db 3b be f0 01 e1 3d
       -0.20902143 -0.03043481 -0.18345411 0.10986698
000040 a4 c3 11 bf 27 fc 5d be 74 ed a4 3e e1 f8 81 3e
       -0.5693915 -0.2167822 0.32212412 0.25385192
000050 2b 19 98 3e 30 6c 42 3e 23 dc 05 be 0b ba 63 3e
       0.29706702 0.18986583 -0.13072257 0.22238939
000060 b7 73 43 3e 0d 5e f9 be 9d be 85 3e 6c 5d 75 be
       0.1908711 -0.48704568 0.2612199 -0.23961419
000070 e6 0c 1b bf 0f 62 65 bd 54 c0 f7 be b8 89 78 3e
       -0.60566556 -0.05600172 -0.48388922 0.24271286
000080 0e dc e6 3e 68 28 bf 3e 8a 70 f5 3d fd 25 be be
       0.45089763 0.37335515 0.11984356 -0.37138358
000090 73 c8 76 3e 9f 26 92 3e fa 9a fa be 2d 2e b0 3e
       0.24099903 0.2854509 -0.48946363 0.3441023
0000a0 1c 69 2f bd eb 24 61 3b 18 18 0d 3f d9 a0 bc be
       -0.04282485 0.003435428 0.5511489 -0.36841467
0000b0 00 1b c1 be 03 9a 2b bc 29 75 f8 3e 28 86 97 bd
       -0.37715912 -0.010473731 0.48526886 -0.07398635
0000c0 b6 53 60 3e 57 ed 9b be 60 5c 78 3e 27 f8 cb bd
       0.21906933 -0.30454513 0.24253988 -0.09959441
0000d0 1a 94 5f be df da 6e 3e 64 11 8e be 98 d6 8c be
       -0.2183384 0.2332568 -0.27747643 -0.27507472
0000e0 f5 42 ab bd ff 7d 5a 3f fb dd fc 3d 4d 98 d9 3c
       -0.083623804 0.85348505 0.12347027 0.02656188
0000f0 37 b9 d6 bd 78 60 0d 3f 59 ea e7 3d a2 50 b8 be
       -0.10484546 0.55225325 0.11323995 -0.35999018
000100 ea a3 a8 3e 30 d9 05 3e 6d 6a c0 be 48 ec c9 3e
       0.32937557 0.13071132 -0.37581196 0.3943808
000110 c8 0e 6b 3d 75 58 4c 3e 31 27 22 3e 75 d6 e1 bd
       0.057387143 0.19955619 0.15835263 -0.110272326
000120 0e 4a 51 3e 97 7b bf be cd ed 19 be 52 60 ef 3e
       0.20438406 -0.3739898 -0.1503212 0.46753174
000130 1c 75 1c be 3b 69 db 3d 82 00 9b be 10 7a 95 3d
       -0.15279049 0.107134305 -0.30273825 0.07298672
000140 5c 1f a4 be 86 73 cc bb 43 69 0b 3e 78 27 ea be
       -0.32055175 -0.0062393574 0.13614373 -0.45733237
000150 62 bd 5d be c6 a1 05 3f d4 d5 07 3d b0 12 41 3e
       -0.21654275 0.5219997 0.033162907 0.18854785
000160 b9 7f 06 be 3c b0 cd 3e 16 bf 7c 3d e4 82 12 be
       -0.1313466 0.4017352 0.06170567 -0.14307743
000170 0a e9 eb 3d b0 3c a8 3e 18 c3 f8 ba 37 ac ba 3e
       0.11519058 0.328588 -0.0018979041 0.36459514
000180 33 65 26 be cc 27 c8 3e 2d 6e a9 3e 8f 2e 5b be
       -0.16249542 0.39092863 0.3309187 -0.2140448
000190 95 b8 21 be 9a 8d 3e 3e 85 47 c3 3e 0d 21 1a be
       -0.15793069 0.18608704 0.38140503 -0.1505167
0001a0 82 44 8f bb 44 4a 25 be 2f e4 0b be fc 04 cf bd
       -0.0043721804 -0.16141611 -0.13661264 -0.101083726
0001b0 95 3e c7 3e 01 63 ad bd ec b8 e9 be 6e fc bb 3e
       0.38914934 -0.08466149 -0.45648897 0.36716026
0001c0 14 9c f6 3e 1d b0 cf 3e 3f 2a 09 be b3 38 9c be
       0.48165953 0.4056405 -0.13395022 -0.30512008
0001d0 e7 43 81 bd c2 c0 b1 be 1d b9 79 3d 9a e7 78 3e
       -0.063117795 -0.34717375 0.060967553 0.24307099
0001e0 50 7c 96 3e 80 04 a1 ba 79 dc c7 3e 3c a0 d0 be
       0.29391718 -0.0012284666 0.39035395 -0.4074725
0001f0 a4 ee 1c 3e 07 ab 2d 3e 61 4c b8 be 9a 54 e9 3e
       0.15325409 0.16959773 -0.35995772 0.45572358
000200 db 12 3a be 13 83 26 bd f4 d2 71 be 7f cb da be
       -0.18171255 -0.040652346 -0.23615628 -0.4273338
000210 8d 00 b6 3d 1b db 81 3d 80 ff 11 3f bb 43 43 be
       0.08886824 0.06340619 0.5703049 -0.19068806
000220 39 8e 36 3b 60 fd fc be 8f 65 92 be 28 f1 99 3e
       0.0027855767 -0.4941206 -0.28593108 0.300668
000230 0d 20 98 be 49 28 78 3a da 75 f8 be 76 59 41 be
       -0.29711953 0.0009466452 -0.48527414 -0.18881783
000240 8c 91 fa 3e e7 5f eb be 92 cc 6e 3e fc 14 d2 3e
       0.48939168 -0.45971605 0.23320225 0.41031635
000250 64 f4 a1 3d c4 45 83 be d1 83 12 be 77 8f ed be
       0.07907942 -0.25639164 -0.14308096 -0.46398517
000260 3f bf 73 3e ea 92 ae be cb 16 9a be 7e 46 d5 be
       0.23803423 -0.34096462 -0.30095515 -0.41655344
000270 42 80 c0 be 01 8f 21 bf 72 c6 f9 3c fb 0e db be
       -0.37597853 -0.6310883 0.030490134 -0.42784867
000280 b4 35 f8 3e 65 c4 91 3e 8a ca 88 3e f0 25 88 bd
       0.48478472 0.2847015 0.26717025 -0.06647861
000290 da 07 ef be 60 c6 da bc 9b ef 44 bd b9 72 95 3e
       -0.46685678 -0.02670592 -0.048080068 0.2918909
0002a0 df 7a 9d be 82 4b cc be aa 3a c3 3d b2 3f b2 3e
       -0.30757806 -0.39901358 0.09532674 0.3481422
0002b0 19 b2 82 3d c5 c5 69 3b 60 a6 61 bf b9 40 a7 be
       0.06381626 0.0035670858 -0.88144493 -0.32666567
0002c0 4e 31 8f be 9b 65 1e 3e b4 6e 03 be ed 1a db be
       -0.27967304 0.15468447 -0.12835199 -0.4279398
0002d0 59 aa e2 3d 79 fa 87 be f0 82 65 3e 7c c2 c9 3e
       0.110676475 -0.26558283 0.2241323 0.39406192
0002e0 52 38 af bc 96 ca 8e 3d e9 13 79 3e c7 7e cc bc
       -0.02138916 0.06972234 0.24324001 -0.024962796
0002f0 70 f6 fe 3d ac a8 7d 3e c6 55 23 bf 2c aa 91 bd
       0.12449348 0.24771374 -0.63802755 -0.07112536
000300 9a 38 32 be 57 d8 40 bf 5c d2 ad be ef 87 64 3e
       -0.17404404 -0.7533011 -0.33949554 0.2231748
000310 50 e8 f2 3e 9a b0 87 be 61 4f 7f be 42 48 c3 3c
       0.47442865 -0.26501924 -0.24932624 0.023838166

bias f4 [50]
000000 7b ee 13 bf 63 ea ef be 04 cb 13 be 86 d8 6c be
       -0.5778577 -0.4685851 -0.14432913 -0.23129472
000010 5a da f3 be 0a a5 1a 3f 2e 6e 02 3f a6 fd a6 3e
       -0.47627527 0.6040808 0.5094937 0.32615393
000020 36 73 10 bc af 08 72 be d9 c9 5c 3d 8b 96 58 3d
       -0.008816531 -0.23636125 0.053903434 0.052877944
000030 f4 6a 14 3f a6 3a 86 3d 5b 6e d6 3e 63 85 f3 be
       0.579757 0.06554155 0.4188107 -0.47562703
000040 c5 29 a0 be 65 32 81 3e aa 46 96 be f5 92 02 3e
       -0.31281868 0.2523376 -0.29350787 0.12751372
000050 09 2b 57 3e 4e 42 e7 3e a0 99 ce be 4b 57 02 bd
       0.2101251 0.45167774 -0.40351582 -0.03182153
000060 3e 8c f8 39 48 f4 71 be e1 eb 9e 3d b1 f6 9f 3e
       0.00047406735 -0.23628342 0.07759834 0.31242898
000070 f5 e1 09 bd 1f 04 e5 be dc ac 12 bf 26 5b 0b bf
       -0.033662755 -0.44729707 -0.5729501 -0.54435956
000080 6e 91 2d 3c 7e 39 4f be c4 86 c3 3e 7c 1a 0d be
       0.010593755 -0.20236775 0.38188756 -0.13779634
000090 ad a1 f6 be fa 13 14 3f e5 71 a6 3e 1b 63 03 bf
       -0.48170224 0.5784298 0.3250877 -0.513231
0000a0 ff 56 bf 3e 9e 85 06 bf c6 cb 88 be 46 d4 ad 3d
       0.3737106 -0.52547634 -0.26717967 0.084877536
0000b0 11 12 e5 be 52 1e e2 3d e2 4e f3 be ed ea 03 be
       -0.44740346 0.110409394 -0.4752112 -0.12882586
0000c0 eb 06 5e bb c1 1c 77 be
       -0.0033878635 -0.24132062

weight f4 [50, 50]
000000 53 d8 c6 3d 55 94 2c 3d d2 63 7e bb ae 70 e3 3c
       0.09709229 0.042133648 -0.0038816822 0.02776369
000010 42 b8 50 bd 71 90 e5 3c b7 34 f9 bd e4 d1 38 3d
       -0.050956972 0.028022977 -0.12168258 0.045122042
000020 72 c5 9c 3c 5e 96 04 bd e8 17 f4 bd 08 92 c6 3b
       0.019137118 -0.032369964 -0.11918622 0.0060598888
000030 16 bd 36 be 40 62 a1 3d 2d cb dd bc 78 74 05 3e
       -0.17845568 0.07880068 -0.02707442 0.1303271
000040 9d cd 6f 3d 2b 5d ff 3b 8e 73 75 3d 67 18 b4 bd
       0.058545697 0.007793089 0.059924655 -0.08793717
000050 b6 1c d1 bd 67 dc f4 bd 11 e2 9f 3c 03 a9 a5 3d
       -0.10210554 -0.11956101 0.019516977 0.08088877
000060 f2 25 fe 3c c0 fa 93 be 56 a3 f7 bd 89 ac 3d 3d
       0.031023953 -0.28902245 -0.12091701 0.04630712
000070 8a f0 98 3d 64 df d4 3d 37 1a 1f 3e 7e e7 a6 3d
       0.07467754 0.10394171 0.15537344 0.081496224
000080 e5 1e 08 be f0 40 12 3d 00 d6 fb bd 62 03 a4 3d
       -0.13293035 0.03570646 -0.12296677 0.08008458
000090 1b b6 10 3d 36 89 03 be ea bd a7 3c df 50 12 3e
       0.03532992 -0.1284531 0.0204763 0.14288662
0000a0 5b 55 ea bc 1a ba 12 3e 8b 61 09 3d 46 ef db bc
       -0.028605154 0.14328805 0.03354029 -0.026847493
0000b0 fe a1 35 bc 39 4c 37 3d bf 7a 1e 3e 19 22 90 3e
       -0.011085985 0.044750426 0.15476511 0.28151014
0000c0 9a 39 17 3d f7 cc 91 bd 50 f7 47 3d 94 99 84 3d
       0.036920168 -0.07119172 0.04881984 0.06474605
0000d0 7e 69 25 bd c3 82 3d 3d 9d 5f 30 be f9 a4 95 3d
       -0.04038381 0.046267282 -0.17223974 0.07306857
0000e0 4a 56 0a bd ee e6 72 3d 02 f8 48 3d d2 5e b1 bc
       -0.033773698 0.059302263 0.049064644 -0.02165166
0000f0 49 e3 92 3d f7 5d 07 3c c2 01 4c 3c 2a 41 0b be
       0.071722575 0.008262149 0.012451591 -0.13599077
000100 af 54 91 3c c8 be 04 3d 0a 5e 25 3d 15 0d 8c 3d
       0.017740576 0.032408506 0.040372886 0.06838433
000110 14 71 dc bc bd 2b 02 3e ae f6 49 bd 2a e4 b8 bd
       -0.026909389 0.12711997 -0.049307518 -0.09027894
000120 f4 49 34 bd 85 00 66 bd 94 79 03 3e 55 c6 2c 3e
       -0.04401584 -0.05615284 0.12839347 0.16872533
000130 f5 5f d9 bd 5c 0f eb bd 0d 64 be bc de 0d db 3d
       -0.106140055 -0.11477539 -0.023241067 0.10696004
000140 c2 8a 1d 3e f0 97 fc bd 99 35 04 be 88 70 9c bd
       0.15384963 -0.12333667 -0.12911071 -0.07638651
000150 64 0c d9 3d d3 f9 bd bd 6d 15 0a bd 94 fe c6 3d
       0.105980664 -0.09276166 -0.03371184 0.09716526
000160 23 24 a9 3c a1 c4 11 be 66 e2 c9 bd 88 d2 b8 bd
       0.020647114 -0.14235164 -0.09857635 -0.09024531
000170 65 cd a5 3d 04 72 0f bd 3a ec eb 3d 22 27 79 bd
       0.080958165 -0.035020843 0.11519666 -0.060828336
000180 4a ca bc 3d 56 13 e4 3b ac e1 ba 3d 1e 4f f7 bd
       0.09218271 0.006960313 0.09125075 -0.12075637
000190 f6 eb a8 bc 0b 4f 83 bd 4b bf b4 bd a5 26 33 bd
       -0.020620327 -0.064115606 -0.08825549 -0.043738026
0001a0 bb c6 28 bd 23 28 ca 3c d9 21 7b bd aa af 32 bd
       -0.04120515 0.024677342 -0.061311577 -0.043624558
0001b0 fe b2 12 bc 1e cf 8f bc 95 09 30 3e fd fe 3a 3e
       -0.008953808 -0.017554816 0.17191155 0.18261333
0001c0 a8 d5 0d 3e 40 6b 5b bd 8b 10 e2 bd 49 ec 81 3e
       0.13851035 -0.05356908 -0.110383116 0.25375584
0001d0 b1 ba c9 3d 61 cc 3b 3e 90 92 4a 3d 6a 54 c7 bd
       0.09850062 0.18339683 0.04945618 -0.097328976
0001e0 88 bd bf 3d 5c 9a 77 bd 4b ef 16 bd 9a ca 2c 3d
       0.09362322 -0.060449943 -0.0368493 0.042185403
0001f0 49 e0 bc bd 55 8c cb 3d 6d 5d 19 3b 18 c5 25 be
       -0.092224665 0.099388756 0.0023401633 -0.16188467
000200 11 4f 6a 3b 23 1c e2 3d bc fa 7a 3c f8 79 16 3e
       0.0035752694 0.11040523 0.015318569 0.14694965
000210 18 28 6c bd ff 09 35 3e 3a 3e 81 be 5b 4b 55 bd
       -0.057655424 0.17679594 -0.25242788 -0.052073818
000220 43 a8 9d 3d a9 90 32 be d6 45 0b be 89 6f c0 bd
       0.07698109 -0.17437996 -0.13600859 -0.09396274
000230 c2 5f a5 bd b7 93 a4 bd 89 c6 74 bc 54 55 c0 3c
       -0.08074905 -0.08035987 -0.014939913 0.023478188
000240 b0 73 d8 3d 0d 6f 7e bd fc 71 ae 3d 5b c2 c2 bc
       0.10568941 -0.062117625 0.085178345 -0.023774317
000250 38 1f da bd 67 d0 35 be 59 58 b8 bd 51 a5 3b be
       -0.10650486 -0.1775528 -0.09001226 -0.18324782
000260 50 94 0a be 81 b7 43 3d c1 a5 8b bd cc 83 ac bd
       -0.13533139 0.047782425 -0.068187244 -0.08423576
000270 54 ed ed bc 04 0c 9f bd ba 03 04 3e c7 c2 a4 bd
       -0.02904383 -0.07765964 0.12892047 -0.08044963
000280 77 1c b6 bd b7 28 5e 3e a0 64 ed 3c 03 74 6b bd
       -0.08892148 0.21695219 0.028978646 -0.057483684
000290 98 74 14 be 4d a9 3c 3e 18 68 d4 bd 7c 08 be 3d
       -0.14497602 0.18423958 -0.10371417 0.09278962
0002a0 58 f8 09 be 0c 6f f7 3c bb 2f 4a bd 0e a1 96 3d
       -0.13473642 0.030204318 -0.049361926 0.073549375
0002b0 ff e1 d9 3c b1 d3 e3 bd 08 a6 9c bc 5c 09 13 bd
       0.026597021 -0.11124361 -0.019122139 -0.035897598
0002c0 a9 32 ea 3c 72 4d f2 bd e1 0e ff 3d 56 01 3a 3e
       0.02858861 -0.11831178 0.1245401 0.18164572
0002d0 4c 25 84 bc 0e 6e 07 be 42 35 21 bd f4 a4 3e 3e
       -0.016131066 -0.13225576 -0.03935743 0.18617612
0002e0 f9 41 32 bd e1 30 2e bc d9 2b 12 bd 6f 6e 45 be
       -0.043519948 -0.010631771 -0.035686348 -0.19280408
0002f0 97 31 1a be 13 fc 00 be 1f 43 97 bd e7 61 e7 3c
       -0.1505798 -0.12596159 -0.07385849 0.028244926
000300 ba 25 c0 bd 69 b5 01 3d c5 ca fd 3d 03 24 b0 bd
       -0.09382196 0.031667147 0.12392191 -0.08600619
000310 41 cb 3d 3c dd 22 0d bd 0c 3a 35 3d fd 92 40 be
       0.011584104 -0.034457076 0.04424481 -0.18806072
000320 c8 a8 d7 bd a6 3a 52 3c a5 07 7a bc d2 80 6d bc
       -0.10530239 0.012831366 -0.015260612 -0.014496045
000330 3e dc 3a 3e 70 ba 3a 3d 9a 01 b3 bd 40 c6 18 3e
       0.18248078 0.045587957 -0.0874054 0.14919376
000340 50 51 76 3c 41 11 21 3e 22 c6 4f bd ca cd d4 3c
       0.015034035 0.15729238 -0.050726064 0.025977034
000350 92 6c 55 bd 8c a0 a6 bd 08 10 e4 3d 85 dd 7c 3c
       -0.052105494 -0.08136091 0.1113587 0.015433674
000360 3a aa c9 3c 87 f2 27 be 68 57 be bd fd db 8a 3c
       0.024617303 -0.1640111 -0.09294015 0.016950602
000370 c9 cb b5 3d ff cb 3b be 37 85 03 3e bb 67 cd bd
       0.088767596 -0.18339537 0.12843786 -0.10029551
000380 76 3e d4 bc 38 5b d1 3d cf 80 3a 3d 82 a2 c2 bd
       -0.02590869 0.10222477 0.045532998 -0.09503652
000390 6d f1 a8 bd 0a 57 c4 bd 38 d9 f5 3d da 9e 1d 3e
       -0.08249173 -0.09586914 0.12004322 0.15392628
0003a0 59 7f ae 3d 48 8c f9 3b 36 6c f3 3d 77 c5 b1 bd
       0.085203834 0.0076156 0.11885874 -0.086802416
0003b0 0f df 16 3e a2 eb e1 3d 59 82 1a 3e 16 0f 17 3e
       0.14733528 0.110312715 0.15088786 0.14751849
0003c0 9c 89 b7 bb 6b b9 d2 3d 4b e9 6a 3d bc b8 91 bd
       -0.005601121 0.10289272 0.05735139 -0.071153134
0003d0 04 5a a6 bd 14 c2 40 3c a8 c6 f5 bc ac e3 bb 3d
       -0.08122638 0.011765022 -0.030001953 0.09174284
0003e0 b1 30 e9 bd 25 e1 fc 3c bf 03 88 3d 83 1e 33 be
       -0.1138624 0.030869076 0.066413395 -0.17492108
0003f0 07 c6 f0 3d 51 6c 1d 3e cc 7b d3 3d dc 13 b4 3d
       0.11756521 0.1537335 0.10326347 0.087928504

bias f4 [50]
000000 14 93 01 be 11 9d 42 3b 7a d4 d4 bd cf 18 72 bd
       -0.12653762 0.002969567 -0.10392089 -0.05910569
000010 d8 88 74 3c 5d a3 1b be 9f c5 52 bd cb 11 26 bd
       0.014925204 -0.15199037 -0.051457997 -0.040544312
000020 ba 4e 36 bd 0b 80 19 3e 1c 47 06 be 0d e8 1c 3e
       -0.044508673 0.14990251 -0.13113064 0.15322895
000030 2d 21 e6 3c 94 20 00 3c 43 6d c3 3d b4 5e 94 3d
       0.028091991 0.007820267 0.095423244 0.07244626
000040 dd 80 10 bd ee ff 3a bd 43 21 a8 bd b5 63 a2 3b
       -0.035279144 -0.04565423 -0.08209469 0.0049557337
000050 af bf 6f 3d 5e e5 33 bc 30 87 8f bc 4d 91 6d 3b
       0.058532413 -0.010979978 -0.017520517 0.0036249936
000060 c7 5c 03 3c 6e 0a eb 3d e7 88 44 bc 8a d4 c8 bd
       0.008017725 0.11476599 -0.011995531 -0.098061636
000070 f8 54 38 bd 85 e4 11 be 20 0f 87 bc 23 22 a1 3d
       -0.045002908 -0.1424733 -0.016486704 0.07867839
000080 38 b4 a4 bd f1 6a 98 bc f8 44 1a 3e db 9f 36 be
       -0.080421865 -0.018605681 0.15065372 -0.17834418
000090 57 65 c8 bd 06 dd 98 3c de 16 74 3c 07 0a 06 bd
       -0.09784954 0.01866008 0.01489803 -0.032724407
0000a0 35 8d 0e be 3f 40 3e 3a ff 12 01 be a5 36 2c 3e
       -0.13921054 0.0007257498 -0.12604903 0.1681772
0000b0 e8 b3 67 3c ab 8f 32 3e e4 74 95 bd 06 48 a5 3d
       0.014142014 0.17437617 -0.07297686 0.08070378
0000c0 25 d6 3c 3e c1 bf b5 3d
       0.18441065 0.08874465

mask f4 [50, 50]
000000 00 00 80 3f 00 00 80 3f 00 00 80 3f 00 00 80 3f
       1.0 1.0 1.0 1.0
000010 00 00 80 3f 00 00 80 3f 00 00 80 3f 00 00 80 3f
       1.0 1.0 1.0 1.0
000020 00 00 80 3f 00 00 80 3f 00 00 80 3f 00 00 80 3f
       1.0 1.0 1.0 1.0
000030 00 00 80 3f 00 00 80 3f 00 00 80 3f 00 00 80 3f
       1.0 1.0 1.0 1.0
000040 00 00 80 3f 00 00 80 3f 00 00 80 3f 00 00 80 3f
       1.0 1.0 1.0 1.0
000050 00 00 80 3f 00 00 80 3f 00 00 80 3f 00 00 80 3f
       1.0 1.0 1.0 1.0
000060 00 00 80 3f 00 00 80 3f 00 00 80 3f 00 00 80 3f
       1.0 1.0 1.0 1.0
000070 00 00 80 3f 00 00 80 3f 00 00 80 3f 00 00 80 3f
       1.0 1.0 1.0 1.0
000080 00 00 80 3f 00 00 80 3f 00 00 80 3f 00 00 80 3f
       1.0 1.0 1.0 1.0
000090 00 00 80 3f 00 00 80 3f 00 00 80 3f 00 00 80 3f
       1.0 1.0 1.0 1.0
0000a0 00 00 80 3f 00 00 80 3f 00 00 80 3f 00 00 80 3f
       1.0 1.0 1.0 1.0
0000b0 00 00 80 3f 00 00 80 3f 00 00 80 3f 00 00 80 3f
       1.0 1.0 1.0 1.0
0000c0 00 00 80 3f 00 00 80 3f 00 00 80 3f 00 00 80 3f
       1.0 1.0 1.0 1.0
0000d0 00 00 80 3f 00 00 80 3f 00 00 80 3f 00 00 80 3f
       1.0 1.0 1.0 1.0
0000e0 00 00 80 3f 00 00 80 3f 00 00 80 3f 00 00 80 3f
       1.0 1.0 1.0 1.0
0000f0 00 00 80 3f 00 00 80 3f 00 00 80 3f 00 00 80 3f
       1.0 1.0 1.0 1.0
000100 00 00 80 3f 00 00 80 3f 00 00 80 3f 00 00 80 3f
       1.0 1.0 1.0 1.0
000110 00 00 80 3f 00 00 80 3f 00 00 80 3f 00 00 80 3f
       1.0 1.0 1.0 1.0
000120 00 00 80 3f 00 00 80 3f 00 00 80 3f 00 00 80 3f
       1.0 1.0 1.0 1.0
000130 00 00 80 3f 00 00 80 3f 00 00 80 3f 00 00 80 3f
       1.0 1.0 1.0 1.0
000140 00 00 80 3f 00 00 80 3f 00 00 80 3f 00 00 80 3f
       1.0 1.0 1.0 1.0
000150 00 00 80 3f 00 00 80 3f 00 00 80 3f 00 00 80 3f
       1.0 1.0 1.0 1.0
000160 00 00 80 3f 00 00 80 3f 00 00 80 3f 00 00 80 3f
       1.0 1.0 1.0 1.0
000170 00 00 80 3f 00 00 80 3f 00 00 80 3f 00 00 80 3f
       1.0 1.0 1.0 1.0
000180 00 00 80 3f 00 00 80 3f 00 00 80 3f 00 00 80 3f
       1.0 1.0 1.0 1.0
000190 00 00 80 3f 00 00 80 3f 00 00 80 3f 00 00 80 3f
       1.0 1.0 1.0 1.0
0001a0 00 00 80 3f 00 00 80 3f 00 00 80 3f 00 00 80 3f
       1.0 1.0 1.0 1.0
0001b0 00 00 80 3f 00 00 80 3f 00 00 80 3f 00 00 80 3f
       1.0 1.0 1.0 1.0
0001c0 00 00 80 3f 00 00 80 3f 00 00 80 3f 00 00 80 3f
       1.0 1.0 1.0 1.0
0001d0 00 00 80 3f 00 00 80 3f 00 00 80 3f 00 00 80 3f
       1.0 1.0 1.0 1.0
0001e0 00 00 80 3f 00 00 80 3f 00 00 80 3f 00 00 80 3f
       1.0 1.0 1.0 1.0
0001f0 00 00 80 3f 00 00 80 3f 00 00 80 3f 00 00 80 3f
       1.0 1.0 1.0 1.0
000200 00 00 80 3f 00 00 80 3f 00 00 80 3f 00 00 80 3f
       1.0 1.0 1.0 1.0
000210 00 00 80 3f 00 00 80 3f 00 00 80 3f 00 00 80 3f
       1.0 1.0 1.0 1.0
000220 00 00 80 3f 00 00 80 3f 00 00 80 3f 00 00 80 3f
       1.0 1.0 1.0 1.0
000230 00 00 80 3f 00 00 80 3f 00 00 80 3f 00 00 80 3f
       1.0 1.0 1.0 1.0
000240 00 00 80 3f 00 00 80 3f 00 00 80 3f 00 00 80 3f
       1.0 1.0 1.0 1.0
000250 00 00 80 3f 00 00 80 3f 00 00 80 3f 00 00 80 3f
       1.0 1.0 1.0 1.0
000260 00 00 80 3f 00 00 80 3f 00 00 80 3f 00 00 80 3f
       1.0 1.0 1.0 1.0
000270 00 00 80 3f 00 00 80 3f 00 00 80 3f 00 00 80 3f
       1.0 1.0 1.0 1.0
000280 00 00 80 3f 00 00 80 3f 00 00 80 3f 00 00 80 3f
       1.0 1.0 1.0 1.0
000290 00 00 80 3f 00 00 80 3f 00 00 80 3f 00 00 80 3f
       1.0 1.0 1.0 1.0
0002a0 00 00 80 3f 00 00 80 3f 00 00 80 3f 00 00 80 3f
       1.0 1.0 1.0 1.0
0002b0 00 00 80 3f 00 00 80 3f 00 00 80 3f 00 00 80 3f
       1.0 1.0 1.0 1.0
0002c0 00 00 80 3f 00 00 80 3f 00 00 80 3f 00 00 80 3f
       1.0 1.0 1.0 1.0
0002d0 00 00 80 3f 00 00 80 3f 00 00 80 3f 00 00 80 3f
       1.0 1.0 1.0 1.0
0002e0 00 00 80 3f 00 00 80 3f 00 00 80 3f 00 00 80 3f
       1.0 1.0 1.0 1.0
0002f0 00 00 80 3f 00 00 80 3f 00 00 80 3f 00 00 80 3f
       1.0 1.0 1.0 1.0
000300 00 00 80 3f 00 00 80 3f 00 00 80 3f 00 00 80 3f
       1.0 1.0 1.0 1.0
000310 00 00 80 3f 00 00 80 3f 00 00 80 3f 00 00 80 3f
       1.0 1.0 1.0 1.0
000320 00 00 80 3f 00 00 80 3f 00 00 80 3f 00 00 80 3f
       1.0 1.0 1.0 1.0
000330 00 00 80 3f 00 00 80 3f 00 00 80 3f 00 00 80 3f
       1.0 1.0 1.0 1.0
000340 00 00 80 3f 00 00 80 3f 00 00 80 3f 00 00 80 3f
       1.0 1.0 1.0 1.0
000350 00 00 80 3f 00 00 80 3f 00 00 80 3f 00 00 80 3f
       1.0 1.0 1.0 1.0
000360 00 00 80 3f 00 00 80 3f 00 00 80 3f 00 00 80 3f
       1.0 1.0 1.0 1.0
000370 00 00 80 3f 00 00 80 3f 00 00 80 3f 00 00 80 3f
       1.0 1.0 1.0 1.0
000380 00 00 80 3f 00 00 80 3f 00 00 80 3f 00 00 80 3f
       1.0 1.0 1.0 1.0
000390 00 00 80 3f 00 00 80 3f 00 00 80 3f 00 00 80 3f
       1.0 1.0 1.0 1.0
0003a0 00 00 80 3f 00 00 80 3f 00 00 80 3f 00 00 80 3f
       1.0 1.0 1.0 1.0
0003b0 00 00 80 3f 00 00 80 3f 00 00 80 3f 00 00 80 3f
       1.0 1.0 1.0 1.0
0003c0 00 00 80 3f 00 00 80 3f 00 00 80 3f 00 00 80 3f
       1.0 1.0 1.0 1.0
0003d0 00 00 80 3f 00 00 80 3f 00 00 80 3f 00 00 80 3f
       1.0 1.0 1.0 1.0
0003e0 00 00 80 3f 00 00 80 3f 00 00 80 3f 00 00 80 3f
       1.0 1.0 1.0 1.0
0003f0 00 00 80 3f 00 00 80 3f 00 00 80 3f 00 00 80 3f
       1.0 1.0 1.0 1.0

weight f4 [50, 50]
000000 df dd a6 bd fe bf 43 bd bc bb b4 bd 72 fc 81 bc
       -0.08147787 -0.04779052 -0.0882487 -0.015867446
000010 f5 68 50 bd be 60 02 be 38 9a ca 3c 40 52 2e 3d
       -0.050881345 -0.12732217 0.02473174 0.04255891
000020 80 ae 48 3d 9f 74 23 3d ba 93 87 3d 18 86 d5 bd
       0.04899454 0.03990614 0.066199735 -0.10425967
000030 68 ce 15 3e 31 7f 21 3e e4 82 3c 3d 7b 89 4b 3d
       0.14629519 0.15771176 0.046023265 0.04969166
000040 64 6b 5f 3d ad 50 ad 3b 04 a0 b0 bd 73 ea dc 3d
       0.054545775 0.0052891583 -0.086242706 0.10786905
000050 f8 f9 fd bb e0 b3 01 3d 87 a6 fe bd 13 0b c4 3d
       -0.007750746 0.031665683 -0.12434106 0.09572425
000060 ee 66 38 3c 0c dc 15 3c 67 8b f4 bd 48 64 f0 3c
       0.011255009 0.009146702 -0.119406514 0.029344693
000070 54 ed ed bc 27 5e ef 3c 88 0c af bd d4 2d a9 bd
       -0.02904383 0.0292197 -0.08547312 -0.08260694
000080 f4 f2 45 3d aa 0b 02 3e f6 4a dc 3d f2 35 8b bd
       0.0483274 0.12699762 0.10756485 -0.067973986
000090 14 1e 34 3c 7e 45 a9 3c dd eb 5d bd 52 0e ed bc
       0.010993499 0.02066302 -0.054180015 -0.028937493
0000a0 92 f7 05 bd 10 da ea 3d 97 24 f7 3d ae 48 cd bc
       -0.032706805 0.11467373 0.12067526 -0.02505907
0000b0 98 69 af 3c 5d e0 11 3d 91 26 a0 bd 80 af ae bd
       0.021412656 0.03561436 -0.07819856 -0.08529568
0000c0 f5 0a 10 3d 93 03 d6 3b ba d7 19 3e 78 1f 80 3c
       0.0351667 0.006531188 0.150237 0.015640005
0000d0 ff 28 f7 3d a1 d3 57 bd 4c 8b 21 be 59 8a c8 3d
       0.12068366 -0.05269206 -0.15775794 0.09792013
0000e0 86 16 d0 bd 29 3c 85 bd 71 3f c3 bc 7c ac 46 be
       -0.10160546 -0.06505615 -0.023833962 -0.19401735
0000f0 67 48 12 bd c0 cc 99 bd 2d 62 47 3e a6 f8 1a 3e
       -0.03571358 -0.07509756 0.19471045 0.15133914
000100 3b 24 13 3d 33 eb 2c be 22 19 bd bd e4 92 bd 3d
       0.035923224 -0.16886596 -0.09233309 0.09256533
000110 9c 6d 3f bd 20 0a e9 bd a3 f9 08 3b b8 72 da bd
       -0.04673539 -0.11378884 0.0020900748 -0.10666412
000120 49 dd 38 bc 01 dc 7e bd ee 3a 2b bb ec 08 7c 3c
       -0.011283227 -0.06222153 -0.0026127654 0.0153829865
000130 ca 92 b1 bc a0 e5 26 bd 51 46 18 be 54 f1 d9 bd
       -0.02167644 -0.04074633 -0.14870574 -0.10641733
000140 8a 9b 02 be c6 ed 4c bd 97 39 22 3e 36 d4 c5 bd
       -0.12754646 -0.050031446 0.15842281 -0.09659617
000150 6f 4d 0d 3d 63 20 fc 3d 7f 68 dc bd ea b7 d7 bd
       0.034497675 0.12310865 -0.107621185 -0.10533126
000160 fa 04 01 3e 01 86 2e 3d 81 66 20 3d 5b c6 05 bd
       0.12599555 0.042608265 0.039160255 -0.03265987
000170 7d 74 0d bd 32 d2 78 3d 72 87 6c 3c a3 35 ce 3d
       -0.03453492 0.060747333 0.01443659 0.10068824
000180 9d 49 cc bd 3c ec 3a be a2 c7 fb bd ed 88 1f be
       -0.09974978 -0.18254179 -0.12293936 -0.15579577
000190 99 0c 13 3e 26 58 22 bd 19 34 e1 3d 08 21 e3 3d
       0.14360274 -0.039634846 0.10996265 0.110902846
0001a0 a7 0c 8d 3c bd 58 a1 3d ef 7d a9 3e 51 ea bd bd
       0.017217947 0.078782536 0.33103892 -0.09273208
0001b0 9d 99 e0 3c 6e 6d 06 be c8 41 74 be d8 6f 0b 3e
       0.027416999 -0.13127682 -0.23853219 0.13616884
0001c0 07 30 9d bd 3d 63 f3 3d 5d d0 41 bc 02 1a 33 be
       -0.07675176 0.118841626 -0.011829463 -0.1749039
0001d0 38 eb 66 be e3 7f 12 3d 1b fe 06 be ff ce bc 3d
       -0.22550666 0.035766494 -0.13182871 0.09219169
0001e0 fe 1d f1 3d 35 19 06 3e d4 ef 09 bd c4 c3 51 be
       0.11773299 0.13095553 -0.033675984 -0.20484835
0001f0 75 32 98 3d bf 23 ab 3d c4 2b 08 be f7 61 51 bd
       0.07431499 0.083564274 -0.13297945 -0.051118817
000200 19 7c 36 3d f9 71 3f bd 6e d1 4e be dd a2 ae 3d
       0.044551942 -0.046739552 -0.20197079 0.085271575
000210 f2 25 30 bd e7 92 84 3d ff 7b c8 3d 74 f8 c5 bd
       -0.043004937 0.06473332 0.097892754 -0.09666529
000220 43 41 73 be e6 90 fc 3d 0e 78 c4 3d 0b 77 1b bd
       -0.23755364 0.12332325 0.09593211 -0.037955325
000230 ac 6f ee 3c e4 e0 69 bd 99 fc 89 3d e1 dc 47 bd
       0.029105984 -0.057099238 0.06737632 -0.04879463
000240 9d a1 ee 3b be a1 0f bd 9b 73 3f be b8 b3 9a bd
       0.0072824494 -0.03506636 -0.18696444 -0.0755381
000250 96 47 4c 3d 55 55 f1 3d f3 9b 18 3e f1 b5 be 3d
       0.049872957 0.11783854 0.1490324 0.09312046
000260 05 95 98 bc aa 49 17 bc cf 13 cc bd b9 b9 1f 3e
       -0.018625746 -0.0092338715 -0.09964716 0.15598191
000270 90 90 93 bd cd 13 94 3d 96 12 35 be c1 36 03 be
       -0.072053075 0.07230339 -0.17682871 -0.12813856
000280 0c 44 be bd 80 9f 08 be c8 27 95 3d ab e7 ed 3d
       -0.09290323 -0.13342094 0.07282978 0.11616453
000290 96 76 94 bd 14 85 21 be d2 27 88 3d 64 66 7a 3c
       -0.07249181 -0.15773422 0.0664822 0.015283201
0002a0 a8 63 a0 bc 0f 28 25 be b6 11 30 be ee de 96 3d
       -0.01957877 -0.16128562 -0.17194256 0.07366739
0002b0 00 7a 97 bd 0c dd 8f bd 65 5c 2b 3d 8b 4c 13 bd
       -0.073963165 -0.07024583 0.04183616 -0.03596167
0002c0 86 27 45 3e 0b 75 df bd 9b 12 54 bd fb b5 e4 bc
       0.19253358 -0.10910996 -0.051775556 -0.027918806
0002d0 4c bf 8b 3d 96 24 a6 bc 4d ba ce 3d 73 1b fb 3d
       0.06823596 -0.020281117 0.10094128 0.12261095
0002e0 5b 1f 06 be 7b 89 0b 3d 79 d0 6a bd 9f 17 db 3c
       -0.13097899 0.03406666 -0.05732772 0.026744662
0002f0 fe 84 f8 bc ef b8 97 3d b8 02 10 be 9b b7 05 3e
       -0.030336853 0.0740832 -0.14063537 0.13058321
000300 c3 ed 96 3d ac 4b 09 be 79 da 1e 3d d3 d1 c8 bd
       0.07369568 -0.13407773 0.03878257 -0.09805646
000310 28 24 0f bd de 8a 45 3b d8 62 76 3c 29 0d 45 be
       -0.03494659 0.0030142586 0.015038215 -0.19243301
000320 50 83 ee 3c 30 48 71 3d f7 87 52 be 3f 5e 25 be
       0.029115349 0.058906734 -0.20559679 -0.16149233
000330 98 e2 4c 3e 64 8a d4 bd ab 8c a4 3d d5 80 2c 3e
       0.20008314 -0.103779584 0.08034643 0.1684602
000340 81 5d a2 3d 64 55 43 3e 49 63 37 bd b4 33 b5 bd
       0.07927991 0.19075543 -0.04477242 -0.08847752
000350 5b 0b c9 bd 1a c9 65 3d ff 16 4d 3c 92 70 70 3d
       -0.09816619 0.05609999 0.01251769 0.058701105
000360 42 76 20 3e 4d 44 fc bd 22 09 92 3d 55 af 82 3d
       0.15670112 -0.12317715 0.07130648 0.06381098
000370 fa 27 d5 3d 4b 25 4d 3d fc 98 3c 3d c7 2a 8a 3d
       0.104080155 0.050084393 0.046044335 0.067464404
000380 70 fc 05 3d 4e 68 db 3d bd 69 31 bb df 68 84 bc
       0.032711446 0.10713254 -0.0027071082 -0.016163288
000390 e6 2d 89 3d 24 ae 12 be e2 8c dd bd 3b 84 73 3d
       0.066982076 -0.14324242 -0.10817887 0.059452277
0003a0 5a 18 cb bd cf 57 00 be 05 a6 2a 3e 7f 0d 42 be
       -0.09916754 -0.12533496 0.16664894 -0.18950461
0003b0 af f6 0e 3e ac 8b f5 bc f1 85 17 be ba 52 a0 bd
       0.1396129 -0.029973827 -0.14797188 -0.07828279
0003c0 ed d0 1a bd 70 5b 8a 3d 52 ff e3 bd b2 8b 23 3e
       -0.037796903 0.067557216 -0.11132683 0.15971258
0003d0 6d 33 48 3c d5 f5 3a bc 5b d9 02 bc b3 cc 1e 3e
       0.012219292 -0.01141115 -0.007986392 0.15507774
0003e0 e7 e6 2c 3e 59 23 30 3e 13 98 82 3b 57 24 89 3d
       0.16884957 0.17200984 0.003985414 0.066963844
0003f0 74 92 17 be d3 8e c2 bd 7e f1 c4 bd 8a 86 db bc
       -0.14801961 -0.09499898 -0.096163735 -0.026797552

bias f4 [50]
000000 c9 79 d5 bd 81 3f 96 bd 61 d5 c1 3d 58 a8 14 be
       -0.10423619 -0.07336331 0.09464527 -0.14517343
000010 c3 8d 62 3e 5e 29 85 3c 7c a0 33 be 99 17 58 bc
       0.2212439 0.016255077 -0.17541689 -0.01318922
000020 c4 9d 48 be 9d aa f8 3c fa 28 3e be d8 92 03 3e
       -0.19591433 0.030354792 -0.18570319 0.12848985
000030 ea cf b6 bd 60 7c 80 3c 32 dd 55 bd 5b 2d 86 bd
       -0.08926375 0.015684307 -0.0522129 -0.065516196
000040 e0 ae b7 3d 74 80 c6 3d 21 da 76 bd dc 62 ff bd
       0.08968902 0.09692469 -0.060266618 -0.12470028
000050 d8 bd 51 bd 6c e1 6d 3d 29 8d ea 3d a6 62 23 3d
       -0.05120644 0.058076307 0.114527054 0.039889
000060 fe e4 40 bd f2 2e 52 3d 62 91 1f be ca fc 9a bd
       -0.047093384 0.0513143 -0.15582803 -0.07567747
000070 c4 00 67 3d 1e a5 7a 3d 53 1d 18 3d ad fa 91 bc
       0.056397215 0.061192624 0.03713734 -0.017819727
000080 e8 d5 a3 3c 8a 6c 13 be de 19 c0 bd 44 c6 3d 3e
       0.01999946 -0.14396873 -0.09379934 0.18532664
000090 3f a1 fd 3d 84 8e b7 3d 20 88 2d 3e ed 24 6f 3d
       0.12384271 0.089627296 0.16946459 0.058384825
0000a0 78 1e ae 3d 76 79 e5 3d 21 90 e6 bd ac 8a 21 3c
       0.08501905 0.112048075 -0.11257959 0.009859722
0000b0 df a0 02 3b 9a f3 f8 3d 16 30 db bd e5 f1 1e bd
       0.0019932312 0.12155838 -0.10702531 -0.038804907
0000c0 47 11 11 bd df ad 02 be
       -0.035416868 -0.12761639

mask f4 [50, 50]
000000 00 00 80 3f 00 00 80 3f 00 00 80 3f 00 00 80 3f
       1.0 1.0 1.0 1.0
000010 00 00 80 3f 00 00 80 3f 00 00 80 3f 00 00 80 3f
       1.0 1.0 1.0 1.0
000020 00 00 80 3f 00 00 80 3f 00 00 80 3f 00 00 80 3f
       1.0 1.0 1.0 1.0
000030 00 00 80 3f 00 00 80 3f 00 00 80 3f 00 00 80 3f
       1.0 1.0 1.0 1.0
000040 00 00 80 3f 00 00 80 3f 00 00 80 3f 00 00 80 3f
       1.0 1.0 1.0 1.0
000050 00 00 80 3f 00 00 80 3f 00 00 80 3f 00 00 80 3f
       1.0 1.0 1.0 1.0
000060 00 00 80 3f 00 00 80 3f 00 00 80 3f 00 00 80 3f
       1.0 1.0 1.0 1.0
000070 00 00 80 3f 00 00 80 3f 00 00 80 3f 00 00 80 3f
       1.0 1.0 1.0 1.0
000080 00 00 80 3f 00 00 80 3f 00 00 80 3f 00 00 80 3f
       1.0 1.0 1.0 1.0
000090 00 00 80 3f 00 00 80 3f 00 00 80 3f 00 00 80 3f
       1.0 1.0 1.0 1.0
0000a0 00 00 80 3f 00 00 80 3f 00 00 80 3f 00 00 80 3f
       1.0 1.0 1.0 1.0
0000b0 00 00 80 3f 00 00 80 3f 00 00 80 3f 00 00 80 3f
       1.0 1.0 1.0 1.0
0000c0 00 00 80 3f 00 00 80 3f 00 00 80 3f 00 00 80 3f
       1.0 1.0 1.0 1.0
0000d0 00 00 80 3f 00 00 80 3f 00 00 80 3f 00 00 80 3f
       1.0 1.0 1.0 1.0
0000e0 00 00 80 3f 00 00 80 3f 00 00 80 3f 00 00 80 3f
       1.0 1.0 1.0 1.0
0000f0 00 00 80 3f 00 00 80 3f 00 00 80 3f 00 00 80 3f
       1.0 1.0 1.0 1.0
000100 00 00 80 3f 00 00 80 3f 00 00 80 3f 00 00 80 3f
       1.0 1.0 1.0 1.0
000110 00 00 80 3f 00 00 80 3f 00 00 80 3f 00 00 80 3f
       1.0 1.0 1.0 1.0
000120 00 00 80 3f 00 00 80 3f 00 00 80 3f 00 00 80 3f
       1.0 1.0 1.0 1.0
000130 00 00 80 3f 00 00 80 3f 00 00 80 3f 00 00 80 3f
       1.0 1.0 1.0 1.0
000140 00 00 80 3f 00 00 80 3f 00 00 80 3f 00 00 80 3f
       1.0 1.0 1.0 1.0
000150 00 00 80 3f 00 00 80 3f 00 00 80 3f 00 00 80 3f
       1.0 1.0 1.0 1.0
000160 00 00 80 3f 00 00 80 3f 00 00 80 3f 00 00 80 3f
       1.0 1.0 1.0 1.0
000170 00 00 80 3f 00 00 80 3f 00 00 80 3f 00 00 80 3f
       1.0 1.0 1.0 1.0
000180 00 00 80 3f 00 00 80 3f 00 00 80 3f 00 00 80 3f
       1.0 1.0 1.0 1.0
000190 00 00 80 3f 00 00 80 3f 00 00 80 3f 00 00 80 3f
       1.0 1.0 1.0 1.0
0001a0 00 00 80 3f 00 00 80 3f 00 00 80 3f 00 00 80 3f
       1.0 1.0 1.0 1.0
0001b0 00 00 80 3f 00 00 80 3f 00 00 80 3f 00 00 80 3f
       1.0 1.0 1.0 1.0
0001c0 00 00 80 3f 00 00 80 3f 00 00 80 3f 00 00 80 3f
       1.0 1.0 1.0 1.0
0001d0 00 00 80 3f 00 00 80 3f 00 00 80 3f 00 00 80 3f
       1.0 1.0 1.0 1.0
0001e0 00 00 80 3f 00 00 80 3f 00 00 80 3f 00 00 80 3f
       1.0 1.0 1.0 1.0
0001f0 00 00 80 3f 00 00 80 3f 00 00 80 3f 00 00 80 3f
       1.0 1.0 1.0 1.0
000200 00 00 80 3f 00 00 80 3f 00 00 80 3f 00 00 80 3f
       1.0 1.0 1.0 1.0
000210 00 00 80 3f 00 00 80 3f 00 00 80 3f 00 00 80 3f
       1.0 1.0 1.0 1.0
000220 00 00 80 3f 00 00 80 3f 00 00 80 3f 00 00 80 3f
       1.0 1.0 1.0 1.0
000230 00 00 80 3f 00 00 80 3f 00 00 80 3f 00 00 80 3f
       1.0 1.0 1.0 1.0
000240 00 00 80 3f 00 00 80 3f 00 00 80 3f 00 00 80 3f
       1.0 1.0 1.0 1.0
000250 00 00 80 3f 00 00 80 3f 00 00 80 3f 00 00 80 3f
       1.0 1.0 1.0 1.0
000260 00 00 80 3f 00 00 80 3f 00 00 80 3f 00 00 80 3f
       1.0 1.0 1.0 1.0
000270 00 00 80 3f 00 00 80 3f 00 00 80 3f 00 00 80 3f
       1.0 1.0 1.0 1.0
000280 00 00 80 3f 00 00 80 3f 00 00 80 3f 00 00 80 3f
       1.0 1.0 1.0 1.0
000290 00 00 80 3f 00 00 80 3f 00 00 80 3f 00 00 80 3f
       1.0 1.0 1.0 1.0
0002a0 00 00 80 3f 00 00 80 3f 00 00 80 3f 00 00 80 3f
       1.0 1.0 1.0 1.0
0002b0 00 00 80 3f 00 00 80 3f 00 00 80 3f 00 00 80 3f
       1.0 1.0 1.0 1.0
0002c0 00 00 80 3f 00 00 80 3f 00 00 80 3f 00 00 80 3f
       1.0 1.0 1.0 1.0
0002d0 00 00 80 3f 00 00 80 3f 00 00 80 3f 00 00 80 3f
       1.0 1.0 1.0 1.0
0002e0 00 00 80 3f 00 00 80 3f 00 00 80 3f 00 00 80 3f
       1.0 1.0 1.0 1.0
0002f0 00 00 80 3f 00 00 80 3f 00 00 80 3f 00 00 80 3f
       1.0 1.0 1.0 1.0
000300 00 00 80 3f 00 00 80 3f 00 00 80 3f 00 00 80 3f
       1.0 1.0 1.0 1.0
000310 00 00 80 3f 00 00 80 3f 00 00 80 3f 00 00 80 3f
       1.0 1.0 1.0 1.0
000320 00 00 80 3f 00 00 80 3f 00 00 80 3f 00 00 80 3f
       1.0 1.0 1.0 1.0
000330 00 00 80 3f 00 00 80 3f 00 00 80 3f 00 00 80 3f
       1.0 1.0 1.0 1.0
000340 00 00 80 3f 00 00 80 3f 00 00 80 3f 00 00 80 3f
       1.0 1.0 1.0 1.0
000350 00 00 80 3f 00 00 80 3f 00 00 80 3f 00 00 80 3f
       1.0 1.0 1.0 1.0
000360 00 00 80 3f 00 00 80 3f 00 00 80 3f 00 00 80 3f
       1.0 1.0 1.0 1.0
000370 00 00 80 3f 00 00 80 3f 00 00 80 3f 00 00 80 3f
       1.0 1.0 1.0 1.0
000380 00 00 80 3f 00 00 80 3f 00 00 80 3f 00 00 80 3f
       1.0 1.0 1.0 1.0
000390 00 00 80 3f 00 00 80 3f 00 00 80 3f 00 00 80 3f
       1.0 1.0 1.0 1.0
0003a0 00 00 80 3f 00 00 80 3f 00 00 80 3f 00 00 80 3f
       1.0 1.0 1.0 1.0
0003b0 00 00 80 3f 00 00 80 3f 00 00 80 3f 00 00 80 3f
       1.0 1.0 1.0 1.0
0003c0 00 00 80 3f 00 00 80 3f 00 00 80 3f 00 00 80 3f
       1.0 1.0 1.0 1.0
0003d0 00 00 80 3f 00 00 80 3f 00 00 80 3f 00 00 80 3f
       1.0 1.0 1.0 1.0
0003e0 00 00 80 3f 00 00 80 3f 00 00 80 3f 00 00 80 3f
       1.0 1.0 1.0 1.0
0003f0 00 00 80 3f 00 00 80 3f 00 00 80 3f 00 00 80 3f
       1.0 1.0 1.0 1.0

weight f4 [4, 50]
000000 bc 3d 2c bd 38 77 8a 3d e0 71 77 3c 36 48 fa 3d
       -0.042051062 0.067610204 0.0151028335 0.122208044
000010 e0 34 d5 bc 60 b1 87 bb 48 9f b4 bd 6e 7e ef bd
       -0.02602619 -0.004141018 -0.08819443 -0.116940364
000020 6e 99 0b bd d0 fd 32 3d 1c 38 5e 3d 60 c1 ba 3c
       -0.03408187 0.043699086 0.05425273 0.022797287
000030 12 44 38 bd b6 a2 e7 bd a7 0c 0a 3e 32 82 e9 3d
       -0.044986792 -0.113103315 0.13481389 0.11401786
000040 68 2a dd bd 62 28 4c bd 30 85 57 3c 9c 19 5c bd
       -0.10799104 -0.0498432 0.013154313 -0.05373536
000050 30 41 6b 3c fc ef 69 bd 28 5f 1f 3d 88 9c 04 bd
       0.014358804 -0.057113633 0.038909107 -0.032375842
000060 ee 1c 96 3d 44 a0 ec bd b2 e2 7d bd e8 e4 e8 3c
       0.07329737 -0.11554006 -0.06198377 0.028429464
000070 86 ce aa 3d bc 88 86 bd 00 56 db 3c 5e 1e ba bd
       0.083401725 -0.06569049 0.026774406 -0.09087823
000080 f7 d1 08 be 10 57 98 3d 72 f0 ff 3d 87 56 88 bd
       -0.13361345 0.07438481 0.12497033 -0.06657129
000090 77 1f 02 3e d7 23 0e 3e 30 60 4f 3d 0a 29 f0 bd
       0.12707315 0.1388086 0.05062884 -0.117265776
0000a0 0c 8f d7 3d 7e fa fb 3d 2d ca 00 3e 74 61 00 be
       0.10525331 0.12303637 0.12577124 -0.12537175
0000b0 0c 1c 32 bd a2 e2 86 3d c0 65 28 3c a9 bb 06 be
       -0.04348378 0.065861955 0.010278165 -0.13157524
0000c0 f0 d1 8b 3c 50 06 3c 3c 3e d1 8e 3d 88 3d b3 bd
       0.01706788 0.011476114 0.069735035 -0.087519705
0000d0 d0 41 18 3d e2 ac 60 bd 00 40 8f b9 b0 03 cc 3c
       0.03717214 -0.054852374 -0.0002732277 0.024904102
0000e0 e6 02 f0 bd 20 39 89 3b 3c 1a 4e 3d f2 93 cb bd
       -0.11719303 0.004187718 0.050317988 -0.09940328
0000f0 0e 08 aa 3d df d8 04 3e 36 f2 e3 bd 80 cf 54 bb
       0.083023176 0.12973355 -0.111301824 -0.0032472312
000100 52 d7 d7 3d 20 6c 8f 3c 20 f3 f4 3b 80 3d dd bb
       0.10539116 0.017507613 0.007475272 -0.006751716
000110 50 d7 54 3c 9d 46 d8 bd 88 c7 9e 3d d8 c1 99 3c
       0.012990788 -0.105603434 0.07752901 0.01876919
000120 6c a2 8d 3d 61 15 b1 bd c3 2b 99 bd 18 72 54 3d
       0.06915745 -0.08646656 -0.0747905 0.05186662
000130 2b 2e 87 bd 88 05 90 bd 2c 71 b1 3d ef 34 90 bd
       -0.06600603 -0.07032305 0.08664164 -0.07041346
000140 88 ed ba 3d 9b 62 01 3e 72 51 aa bd 88 87 a6 3d
       0.09127337 0.12635271 -0.08316316 0.08131319
000150 46 89 f3 3d 9f 8a 08 3e 6a a2 a3 3d e0 e5 d7 bd
       0.11891417 0.1333413 0.079899624 -0.10541892
000160 d4 8f d4 bc 2e d8 cf 3d e0 8a 92 3b 96 d7 e4 3d
       -0.025947489 0.10148655 0.0044721216 0.11173932
000170 5e 0b 8e 3d 60 3a a0 3c 4a e8 e9 3d 2a 2d 8f 3d
       0.06935762 0.019559085 0.11421259 0.06991036
000180 9e a6 56 bd 0c b1 56 3d 14 b0 47 bd 2a 58 31 bd
       -0.052404992 0.05241494 -0.048751906 -0.04329697
000190 aa a3 41 3a 9d 4d 2e be d5 60 63 3e 0e eb a6 bd
       0.00073867536 -0.17021795 0.22204907 -0.08150302
0001a0 ba 87 0d 3e 28 b9 20 3e 99 70 1e be eb 74 bd 3d
       0.13821307 0.15695632 -0.1547264 0.09250816
0001b0 ca ca e6 bd 13 54 1c be 19 a1 25 be ee e1 24 3e
       -0.11269148 -0.15266447 -0.16174735 0.1610181
0001c0 90 ee 94 bd d5 c6 67 bd e7 5a 2b be 1e 3f e1 3d
       -0.07272065 -0.056586105 -0.16733895 0.10998367
0001d0 7b 0e ad bd 98 07 f6 3d ac a9 ef 3d ec b0 1e be
       -0.084500276 0.12013167 0.11702284 -0.15497178
0001e0 40 72 ea bd e8 b8 7c 3e 30 9c 3b 3e 89 fc 1a be
       -0.11447573 0.24679911 0.183213 -0.15135397
0001f0 50 04 93 be ed 62 31 3e 5c 43 22 be 20 fe 75 3d
       -0.28714228 0.17322893 -0.15846008 0.060056806
000200 5e 79 a8 3d b5 bd 88 3e da 7b 04 3d 58 56 72 be
       0.08226274 0.26707235 0.032344677 -0.2366575
000210 12 70 db bd 42 2e 1d be 55 90 26 be 25 f0 c2 3d
       -0.10714735 -0.15349677 -0.16265996 0.0951846
000220 1f 2d 42 3e fa f7 1f 3e 13 ab 48 3e d2 1c c9 bd
       0.18962525 0.1562194 0.1959651 -0.0981995
000230 6a 2f f0 bd ae b1 08 3e 6f 58 8a bd 15 95 72 bd
       -0.117277935 0.1334903 -0.067551486 -0.059224207
000240 b9 51 1f be 00 53 46 be 7f 5f 37 be 97 c4 36 be
       -0.15558518 -0.193676 -0.17907523 -0.1784843
000250 bb bd e5 bd 0e fa 92 bd 8d 30 83 3a d7 b3 c7 bd
       -0.11217829 -0.071766004 0.0010008976 -0.097510986
000260 fd 28 17 3e 97 1a c6 bc 4f 50 b0 bc 2c c3 09 3e
       0.1476173 -0.0241826 -0.02152267 0.13453358
000270 66 51 15 3c 32 ab ba 3d d1 02 1e 3d ba 84 8c 3c
       0.009113645 0.09114684 0.038576905 0.017153133
000280 28 d7 06 3d 1a 57 53 bd 4a 52 b0 bd 4d 42 c9 bd
       0.032920033 -0.05159674 -0.086094454 -0.09827099
000290 5d 26 8a bd 6b 6f c7 3d 27 e5 3a 3d 2d 69 eb 3c
       -0.067455985 0.09738048 0.045628693 0.028736675
0002a0 bb 57 b0 3d fe a1 a1 3d 42 54 c9 bd b9 ba 99 3d
       0.08610483 0.07892226 -0.09830524 0.07506318
0002b0 08 c6 d1 bd e3 65 c5 bc b7 0f c6 bd a5 d1 39 3d
       -0.102428496 -0.024096435 -0.09670966 0.04536595
0002c0 47 f0 1d bd 9f 2a 7c 3d fd 6b c4 3c 37 f7 70 3d
       -0.038559224 0.061564084 0.023977274 0.058829512
0002d0 91 e5 81 3d a9 f9 9c 3c 4a 52 1c be 75 f6 b4 bd
       0.063426144 0.019162016 -0.15265766 -0.088360704
0002e0 da df be 3c 2f a6 e5 3d c5 95 bd 3d d2 70 9e bc
       0.0233001 0.11213338 0.09257082 -0.019340906
0002f0 b3 9a 3e 3d ab cd 45 bd 72 23 e4 bc 30 27 80 3d
       0.04653425 -0.048291843 -0.027848933 0.062574744
000300 55 57 c9 bd fc 8a 26 bd 6b 99 8a bc 9b 14 89 3c
       -0.098311104 -0.04065989 -0.016918859 0.016733458
000310 dd c2 6f 3d 8a 26 83 3c 22 55 ac bd 08 5e bf 3d
       0.058535445 0.016009588 -0.08414675 0.09344107

bias f4 [4]
000000 6f 91 52 3d 4d 3b bd bc f3 8d 1f 3e 1f 3b a3 bd
       0.051408228 -0.023099566 0.15581493 -0.07970261

mask f4 [4, 50]
000000 00 00 00 00 00 00 00 00 00 00 00 00 00 00 00 00
       0.0 0.0 0.0 0.0
000010 00 00 00 00 00 00 00 00 00 00 00 00 00 00 00 00
       0.0 0.0 0.0 0.0
000020 00 00 00 00 00 00 00 00 00 00 00 00 00 00 00 00
       0.0 0.0 0.0 0.0
000030 00 00 00 00 00 00 00 00 00 00 00 00 00 00 00 00
       0.0 0.0 0.0 0.0
000040 00 00 00 00 00 00 00 00 00 00 00 00 00 00 00 00
       0.0 0.0 0.0 0.0
000050 00 00 00 00 00 00 00 00 00 00 00 00 00 00 00 00
       0.0 0.0 0.0 0.0
000060 00 00 00 00 00 00 00 00 00 00 00 00 00 00 00 00
       0.0 0.0 0.0 0.0
000070 00 00 00 00 00 00 00 00 00 00 00 00 00 00 00 00
       0.0 0.0 0.0 0.0
000080 00 00 00 00 00 00 00 00 00 00 00 00 00 00 00 00
       0.0 0.0 0.0 0.0
000090 00 00 00 00 00 00 00 00 00 00 00 00 00 00 00 00
       0.0 0.0 0.0 0.0
0000a0 00 00 00 00 00 00 00 00 00 00 00 00 00 00 00 00
       0.0 0.0 0.0 0.0
0000b0 00 00 00 00 00 00 00 00 00 00 00 00 00 00 00 00
       0.0 0.0 0.0 0.0
0000c0 00 00 00 00 00 00 00 00 00 00 00 00 00 00 00 00
       0.0 0.0 0.0 0.0
0000d0 00 00 00 00 00 00 00 00 00 00 00 00 00 00 00 00
       0.0 0.0 0.0 0.0
0000e0 00 00 00 00 00 00 00 00 00 00 00 00 00 00 00 00
       0.0 0.0 0.0 0.0
0000f0 00 00 00 00 00 00 00 00 00 00 00 00 00 00 00 00
       0.0 0.0 0.0 0.0
000100 00 00 00 00 00 00 00 00 00 00 00 00 00 00 00 00
       0.0 0.0 0.0 0.0
000110 00 00 00 00 00 00 00 00 00 00 00 00 00 00 00 00
       0.0 0.0 0.0 0.0
000120 00 00 00 00 00 00 00 00 00 00 00 00 00 00 00 00
       0.0 0.0 0.0 0.0
000130 00 00 00 00 00 00 00 00 00 00 00 00 00 00 00 00
       0.0 0.0 0.0 0.0
000140 00 00 00 00 00 00 00 00 00 00 00 00 00 00 00 00
       0.0 0.0 0.0 0.0
000150 00 00 00 00 00 00 00 00 00 00 00 00 00 00 00 00
       0.0 0.0 0.0 0.0
000160 00 00 00 00 00 00 00 00 00 00 00 00 00 00 00 00
       0.0 0.0 0.0 0.0
000170 00 00 00 00 00 00 00 00 00 00 00 00 00 00 00 00
       0.0 0.0 0.0 0.0
000180 00 00 00 00 00 00 00 00 00 00 00 00 00 00 00 00
       0.0 0.0 0.0 0.0
000190 00 00 80 3f 00 00 80 3f 00 00 80 3f 00 00 80 3f
       1.0 1.0 1.0 1.0
0001a0 00 00 80 3f 00 00 80 3f 00 00 80 3f 00 00 80 3f
       1.0 1.0 1.0 1.0
0001b0 00 00 80 3f 00 00 80 3f 00 00 80 3f 00 00 80 3f
       1.0 1.0 1.0 1.0
0001c0 00 00 80 3f 00 00 80 3f 00 00 80 3f 00 00 80 3f
       1.0 1.0 1.0 1.0
0001d0 00 00 80 3f 00 00 80 3f 00 00 80 3f 00 00 80 3f
       1.0 1.0 1.0 1.0
0001e0 00 00 80 3f 00 00 80 3f 00 00 80 3f 00 00 80 3f
       1.0 1.0 1.0 1.0
0001f0 00 00 80 3f 00 00 80 3f 00 00 80 3f 00 00 80 3f
       1.0 1.0 1.0 1.0
000200 00 00 80 3f 00 00 80 3f 00 00 80 3f 00 00 80 3f
       1.0 1.0 1.0 1.0
000210 00 00 80 3f 00 00 80 3f 00 00 80 3f 00 00 80 3f
       1.0 1.0 1.0 1.0
000220 00 00 80 3f 00 00 80 3f 00 00 80 3f 00 00 80 3f
       1.0 1.0 1.0 1.0
000230 00 00 80 3f 00 00 80 3f 00 00 80 3f 00 00 80 3f
       1.0 1.0 1.0 1.0
000240 00 00 80 3f 00 00 80 3f 00 00 80 3f 00 00 80 3f
       1.0 1.0 1.0 1.0
000250 00 00 80 3f 00 00 80 3f 00 00 80 3f 00 00 80 3f
       1.0 1.0 1.0 1.0
000260 00 00 80 3f 00 00 80 3f 00 00 80 3f 00 00 80 3f
       1.0 1.0 1.0 1.0
000270 00 00 80 3f 00 00 80 3f 00 00 80 3f 00 00 80 3f
       1.0 1.0 1.0 1.0
000280 00 00 80 3f 00 00 80 3f 00 00 80 3f 00 00 80 3f
       1.0 1.0 1.0 1.0
000290 00 00 80 3f 00 00 80 3f 00 00 80 3f 00 00 80 3f
       1.0 1.0 1.0 1.0
0002a0 00 00 80 3f 00 00 80 3f 00 00 80 3f 00 00 80 3f
       1.0 1.0 1.0 1.0
0002b0 00 00 80 3f 00 00 80 3f 00 00 80 3f 00 00 80 3f
       1.0 1.0 1.0 1.0
0002c0 00 00 80 3f 00 00 80 3f 00 00 80 3f 00 00 80 3f
       1.0 1.0 1.0 1.0
0002d0 00 00 80 3f 00 00 80 3f 00 00 80 3f 00 00 80 3f
       1.0 1.0 1.0 1.0
0002e0 00 00 80 3f 00 00 80 3f 00 00 80 3f 00 00 80 3f
       1.0 1.0 1.0 1.0
0002f0 00 00 80 3f 00 00 80 3f 00 00 80 3f 00 00 80 3f
       1.0 1.0 1.0 1.0
000300 00 00 80 3f 00 00 80 3f 00 00 80 3f 00 00 80 3f
       1.0 1.0 1.0 1.0
000310 00 00 80 3f 00 00 80 3f 00 00 80 3f 00 00 80 3f
       1.0 1.0 1.0 1.0
