03b/GPS_1256775418/model_trad_seed_14142.pth (torch, 276498 bytes, 76 tensors)

_shift f4 [2]
2.5814908 -1.7518857
00000000: 2537 2540 ca3d e0bf

_scale f4 [2]
0.17248952 3.4852066
00000000: 18a1 303e a00d 5f40

weight f4 [50, 2]
0.41890794 0.24291253 0.61523384 -0.23284212 0.3494172 0.54942733 -0.08129295 0.5463472
0.35388917 -0.10277653 -0.55711615 0.16831177 -0.55936885 -0.4005817 0.23926781 -0.3442057
0.41890663 0.64547867 -0.49070272 -0.19972306 -0.36249945 -0.4329245 0.14596975 0.32552737
0.33448145 0.461914 0.41578582 -0.5904373 0.024217404 0.49025065 -0.047454823 -0.49787945
0.3044172 -0.32342 0.29358488 -0.43441564 -0.36458313 0.010809243 0.0184551 -0.276747
-0.5661903 0.4590928 -0.050556097 -0.47502777 -0.6478287 -0.09539628 -0.34790567 0.063831985
-0.5504767 0.39967197 -0.43175232 0.14137965 -0.66165817 -0.42001307 0.57672065 -0.024980128
0.3338429 0.06940538 -0.5986082 0.652592 -0.42444023 -0.13858378 0.26533124 0.46154493
0.18180133 -0.32790333 -0.4985184 0.61449665 -0.17677133 -0.27163383 0.37922278 0.09943813
-0.48919836 -0.13535511 0.22156344 -0.35108873 0.36830032 0.38489312 0.319991 -0.049221277
0.014635107 0.11513734 0.3180439 -0.526206 0.64738053 0.5339555 0.44901982 0.008648694
-0.04358387 0.06726277 0.5376878 0.33198935 0.1134179 0.6587656 0.49099746 0.5362293
-0.14730923 0.0013021827 -0.015099515 -0.16206676
00000000: 1a7b d63e 10be 783e f77f 1d3f 2a6e 6ebe
00000010: d0e6 b23e 45a7 0c3f eb7c a6bd 69dd 0b3f
00000020: f630 b53e 807c d2bd 2a9f 0ebf ec59 2c3e
00000030: cc32 0fbf 0b19 cdbe 9f02 753e bb3b b0be
00000040: ee7a d63e 173e 253f 633d fbbe 3484 4cbe
00000050: 8799 b9be 48a8 ddbe 1879 153e 86ab a63e
00000060: 2741 ab3e fe7f ec3e e1e1 d43e e626 17bf
00000070: 9463 c63c 2202 fb3e fd5f 42bd 0eea febe
00000080: 92dc 9b3e 4e97 a5be c250 963e ba6b debe
00000090: a4aa babe 4019 313c 262f 973c c8b1 8dbe
000000a0: d9f1 10bf 360e eb3e e913 4fbd d736 f3be
000000b0: 1ad8 25bf 205f c3bd b120 b2be 58ba 823d
000000c0: 0aec 0cbf cea1 cc3e a40e ddbe d4c5 103e
000000d0: 6e62 29bf f40b d7be f7a3 133f 20a3 ccbc
000000e0: 75ed aa3e 6824 8e3d 633e 19bf 4510 273f
000000f0: 3b50 d9be e8e8 0dbe 7fd9 873e 9e4f ec3e
00000100: 212a 3a3e f2e2 a7be ce3d ffbe a74f 1d3f
00000110: 8b03 35be 9713 8bbe 7d29 c23e 38a6 cb3d
00000120: 3578 fabe 889a 0abe 87e1 623e e7c1 b3be
00000130: dc91 bc3e b610 c53e dcd5 a33e 409c 49bd
00000140: 16c8 6f3c 20cd eb3d a6d6 a23e 70b5 06bf
00000150: bbba 253f 4fb1 083f ede5 e53e 40b3 0d3c
00000160: 0085 32bd 10c1 893d e8a5 093f 82fa a93e
00000170: a547 e83d dda4 283f 0564 fb3e 5346 093f
00000180: 3bd8 16be 00ae aa3a f563 77bc d4f4 25be

bias f4 [50]
0.1079709 0.41123563 -0.092453286 0.57874346 -0.49618718 -0.03164196 0.47639725 -0.5914568
-0.5247316 -0.017694257 -0.21776524 0.7540471 0.60252875 0.19070306 0.09779766 -0.2576384
0.70780027 -0.1371511 0.17701419 -0.53059477 -0.562966 -0.1430984 -0.1254648 0.4512329
0.01904828 -0.046015225 -0.40884683 -0.48542827 -0.5174467 0.5269347 -0.38419995 -0.33850563
0.6984662 0.59286535 0.42612717 -0.5220152 -0.54369295 -0.02020213 0.2621326 -0.1780257
0.70746106 -0.6681379 0.02859761 -0.10500183 0.7259702 -0.6935361 0.31899998 -0.670209
-0.104126275 0.45771486
00000000: d91f dd3d 7a8d d23e 2658 bdbd 8828 143f
00000010: 3f0c febe 009b 01bd 57ea f33e b669 17bf
00000020: cf54 06bf 8cf3 90bc dafd 5ebe 3b09 413f
00000030: 533f 1a3f aa47 433e 244a c83d 2ee9 83be
00000040: 6632 353f 5771 0cbe 3543 353e 0fd5 07bf
00000050: 8a1e 10bf 6388 12be d879 00be 0008 e73e
00000060: 230b 9c3c 767a 3cbd 5f54 d1be 0e8a f8be
00000070: 6377 04bf 31e5 063f dbb5 c4be 9c50 adbe
00000080: aece 323f 06c6 173f 572d da3e caa2 05bf
00000090: 762f 0bbf f07e a5bc 3f36 863e 5e4c 36be
000000a0: 2b1c 353f 160b 2bbf 8945 ea3c 330b d7bd
000000b0: 2fd9 393f 958b 31bf f753 a33e d192 2bbf
000000c0: 2840 d5bd 9a59 ea3e

mask f4 [50, 2]
1.0 0.0 1.0 0.0 1.0 0.0 1.0 0.0
1.0 0.0 1.0 0.0 1.0 0.0 1.0 0.0
1.0 0.0 1.0 0.0 1.0 0.0 1.0 0.0
1.0 0.0 1.0 0.0 1.0 0.0 1.0 0.0
1.0 0.0 1.0 0.0 1.0 0.0 1.0 0.0
1.0 0.0 1.0 0.0 1.0 0.0 1.0 0.0
1.0 0.0 1.0 0.0 1.0 0.0 1.0 0.0
1.0 0.0 1.0 0.0 1.0 0.0 1.0 0.0
1.0 0.0 1.0 0.0 1.0 0.0 1.0 0.0
1.0 0.0 1.0 0.0 1.0 0.0 1.0 0.0
1.0 0.0 1.0 0.0 1.0 0.0 1.0 0.0
1.0 0.0 1.0 0.0 1.0 0.0 1.0 0.0
1.0 0.0 1.0 0.0
00000000: 0000 803f 0000 0000 0000 803f 0000 0000
00000010: 0000 803f 0000 0000 0000 803f 0000 0000
00000020: 0000 803f 0000 0000 0000 803f 0000 0000
00000030: 0000 803f 0000 0000 0000 803f 0000 0000
00000040: 0000 803f 0000 0000 0000 803f 0000 0000
00000050: 0000 803f 0000 0000 0000 803f 0000 0000
00000060: 0000 803f 0000 0000 0000 803f 0000 0000
00000070: 0000 803f 0000 0000 0000 803f 0000 0000
00000080: 0000 803f 0000 0000 0000 803f 0000 0000
00000090: 0000 803f 0000 0000 0000 803f 0000 0000
000000a0: 0000 803f 0000 0000 0000 803f 0000 0000
000000b0: 0000 803f 0000 0000 0000 803f 0000 0000
000000c0: 0000 803f 0000 0000 0000 803f 0000 0000
000000d0: 0000 803f 0000 0000 0000 803f 0000 0000
000000e0: 0000 803f 0000 0000 0000 803f 0000 0000
000000f0: 0000 803f 0000 0000 0000 803f 0000 0000
00000100: 0000 803f 0000 0000 0000 803f 0000 0000
00000110: 0000 803f 0000 0000 0000 803f 0000 0000
00000120: 0000 803f 0000 0000 0000 803f 0000 0000
00000130: 0000 803f 0000 0000 0000 803f 0000 0000
00000140: 0000 803f 0000 0000 0000 803f 0000 0000
00000150: 0000 803f 0000 0000 0000 803f 0000 0000
00000160: 0000 803f 0000 0000 0000 803f 0000 0000
00000170: 0000 803f 0000 0000 0000 803f 0000 0000
00000180: 0000 803f 0000 0000 0000 803f 0000 0000

weight f4 [50, 2]
0.034523826 0.2343026 -0.17542627 -0.21472605 0.40588132 -0.026968297 -0.61421937 0.23234458
0.5449562 -0.20735498 -0.38092768 -0.3050073 0.41599905 -0.12759149 -0.5032151 -0.36908332
-0.5696018 0.0923055 0.055495195 0.5643558 -0.2578014 0.59532875 0.058709458 0.0063600442
-0.54273 0.25405112 -0.11168923 0.38520163 -0.54385203 0.53698134 0.6512671 0.21515137
0.30460244 0.62331384 0.38969815 0.42042458 -0.26869714 0.028021792 -0.42860648 -0.36993185
0.22293761 0.22895427 0.7118087 0.0075464603 -0.06300013 -0.46266177 -0.27639747 0.6596663
0.086876884 -0.4498042 0.26626801 0.37517977 0.3979579 -0.1356958 0.0859216 0.040132195
-0.0090178745 -0.4509629 0.3373663 0.56834847 -0.11738347 -0.50400877 -0.6651309 0.10424412
0.24194083 0.59068 0.17434879 0.6776801 -0.30253714 0.5539081 -0.45144036 0.1358112
-0.5695323 0.23869726 -0.6709758 -0.25012115 0.544854 0.66621333 0.3765432 -0.16621332
-0.5637362 0.16983557 0.666708 0.33322558 -0.03588702 0.5172144 -0.4875049 0.37895793
0.13385911 -0.1829364 -0.23906527 -0.49626473 -0.08064495 -0.6564321 0.47096708 0.5469515
-0.19092408 0.31231847 0.46151274 -0.5220949
00000000: db68 0d3d 05ed 6f3e f2a2 33be 25e1 5bbe
00000010: adcf cf3e 9eec dcbc 7b3d 1dbf bdeb 6d3e
00000020: 4082 0b3f dd54 54be f408 c3be eb29 9cbe
00000030: d4fd d43e 58a7 02be b4d2 00bf 7df8 bcbe
00000040: 6cd1 11bf aa0a bd3d ee4e 633d 9f79 103f
00000050: 8cfe 83be 7767 183f 5479 703d eb67 d03b
00000060: 5af0 0abf fd12 823e 53bd e4bd 2639 c53e
00000070: e339 0bbf 9c77 093f 71b9 263f a450 5c3e
00000080: daf4 9b3e 7f91 1f3f 8486 c73e e441 d73e
00000090: ac92 89be f58d e53c 4f72 dbbe b567 bdbe
000000a0: c249 643e fd72 6a3e 1839 363f 4c48 f73b
000000b0: 3606 81bd 01e2 ecbe f883 8dbe e4df 283f
000000c0: 82ec b13d bc4c e6be 4854 883e 9017 c03e
000000d0: 23c1 cb3e d7f3 0abe aaf7 af3d a861 243d
000000e0: b5bf 13bc 9ce4 e6be 47bb ac3e 497f 113f
000000f0: bf66 f0bd b806 01bf 0546 2abf f17d d53d
00000100: 56bf 773e ce36 173f 7d88 323e 717c 2d3f
00000110: 26e6 9abe eccc 0d3f 3123 e7be 1712 0b3e
00000120: decc 11bf 0e6d 743e 12c5 2bbf e10f 80be
00000130: 8d7b 0b3f f58c 2a3f 45ca c03e d333 2abe
00000140: 0451 10bf 60e9 2d3e 60ad 2a3f 8b9c aa3e
00000150: 45fe 12bd 2a68 043f 3e9a f9be c606 c23e
00000160: 5d12 093e ae53 3bbe 87cd 74be 6916 febe
00000170: 2e29 a5bd ef0b 28bf 9922 f13e 0305 0c3f
00000180: 9a81 43be 35e8 9f3e 664b ec3e 03a8 05bf

bias f4 [50]
0.5945627 0.19219802 -0.12261117 0.41731685 0.44413897 0.2864116 0.671529 -0.30552387
-0.42637253 0.056747094 0.059444737 0.12530111 -0.385799 0.5366504 -0.2623008 0.5853009
0.31562433 0.30857018 0.22920297 -0.5507621 -0.3774612 -0.6483737 -0.21686895 0.040352035
-0.40114343 0.71284527 -0.49232152 0.63082254 0.3333354 -0.26265094 -0.38143918 -0.5298327
0.4135 -0.73435044 -0.5385843 0.6345157 0.050889958 0.66809314 0.059997838 0.6729232
0.20446493 -0.37847412 0.24732876 -0.65143317 0.24906908 0.0724046 0.64490265 0.081001565
-0.6816613 0.7037703
00000000: 4335 183f 8fcf 443e 911b fbbd 8eaa d53e
00000010: 2f66 e33e 8ba4 923e 53e9 2b3f a06d 9cbe
00000020: 804d dabe a46f 683d 537c 733d ef4e 003e
00000030: 7287 c5be ec61 093f 4a4c 86be 48d6 153f
00000040: 8399 a13e e9fc 9d3e 2fb4 6a3e bffe 0cbf
00000050: 9842 c1be d2fb 25bf e512 5ebe 2d48 253d
00000060: ac62 cdbe 077d 363f 9111 fcbe 967d 213f
00000070: f0aa aa3e 2f7a 86be ff4b c3be 1ea3 07bf
00000080: 46b6 d33e 64fe 3bbf a9e0 09bf 9f6f 223f
00000090: fd71 503d 2708 2b3f 4bc0 753d b244 2c3f
000000a0: 415f 513e 5cc7 c1be c043 7d3e 53c4 26bf
000000b0: f70b 7f3e dd48 943d 5718 253f 26e4 a53d
000000c0: 5b81 2ebf 4a2a 343f

weight f4 [50, 50]
-0.29647362 -0.18646188 0.062107626 -0.14922528 -0.17416237 -0.050729252 -0.16389394 0.05189495
0.11459019 0.038625013 0.12573282 0.008140197 -0.086086564 -0.098953195 -0.029031547 0.04996823
-0.18272048 -0.005134697 0.06402095 -0.056684274 0.19042997 -0.0334806 0.27791336 0.02651871
0.14061517 0.08078719 0.27370372 -0.045874372 0.10014782 -0.04821595 0.23286876 -0.03872644
-0.0769384 0.054366674 0.13812067 -0.067157984 0.08416485 -0.21483442 -0.16645147 -0.23240674
-0.0214707 -0.09484975 -0.17784154 -0.09142038 -0.17269263 0.13784882 0.06499199 -0.0485957
0.21085957 -0.08295763 0.050521825 0.008205143 -0.030069193 -0.022214234 0.10877536 -0.16756344
-0.13049974 -0.028749868 -0.0141643975 -0.1098292 0.12585302 -0.1684436 -0.13327163 -0.0101781655
-0.10040082 -0.115687884 -0.062102135 0.0060959514 -0.1317973 0.08141801 0.13602225 0.15711871
0.01632903 -0.25234506 0.11606644 -0.039030395 0.13120326 0.11712155 0.054504797 -0.112512544
-0.07878654 0.15472396 0.022615904 -0.07466394 -0.008604265 -0.14778379 0.10218598 -0.20637722
0.10877005 -0.120405786 -0.13424262 0.17518005 0.14834774 -0.015998853 -0.013673961 0.11065901
-0.1558853 0.15161784 -0.009080403 -0.13884093 0.03450362 -0.023466514 0.10043637 -0.17384456
-0.02656788 -0.15700245 0.044219106 -0.048911057 0.0021622558 -0.020475589 -0.019374445 0.07254661
-0.1553514 -0.15460709 -0.03118379 -0.08510916 -0.105693035 0.09203286 -0.04688208 -0.099011675
0.10306796 0.06654504 0.11802709 0.070708215 0.07366474 0.13065885 0.14955856 -0.0790434
-0.07666319 0.059143845 -0.068980664 0.13781343 0.077355914 0.08682953 -0.08772799 -0.22332771
0.0069449763 -0.039072633 -0.013983268 0.014986691 -0.040451873 0.022336936 0.053511053 0.056599848
-0.111228116 0.0019723843 0.107278556 -0.0045654 -0.061824936 0.09879006 0.05287148 0.13156834
0.04939935 -0.10045345 -0.035618912 -0.09457338 0.002928129 0.16146879 -0.033090103 0.018283123
-0.15984131 0.07339538 0.051801912 0.07409345 -0.048956275 -0.057432417 -0.13772117 -0.083583795
-0.028792882 -0.07237186 0.05272998 0.0021783905 -0.0059500225 -0.093067326 -0.175295 -0.1114587
0.018336011 0.1604025 0.010675132 -0.09260205 -0.060458396 -0.06799692 0.044843003 -0.003193908
-0.06189227 0.0470913 0.012856953 0.11783774 -0.07017878 0.06379855 -0.05640398 0.13184737
0.16256382 0.16272661 -0.005752124 0.14893702 -0.14665572 -0.097951874 0.063426554 -0.12478907
0.087136276 -0.009639459 -0.07337947 -0.067701444 0.13333534 0.06446774 -0.10337884 0.10266899
0.031755045 -0.16754544 -0.09277101 -0.14344798 -0.079911135 0.03517302 0.18347105 -0.24099566
-0.052116245 -0.080263086 -0.072943255 0.020813 0.10328815 -0.05623756 -0.07707404 -0.10470685
-0.041162163 -0.053730283 0.06934625 0.04037664 0.16982543 -0.24640281 0.04162889 0.22436152
-0.016759995 -0.2163667 0.08737223 0.02425868 -0.06794806 0.08707495 -0.045785505 0.07345186
0.04753941 0.12255458 0.038665794 0.13270266 -0.15337592 0.21925117 0.042274985 -0.10074973
0.066222966 0.05701854 0.13736196 0.23196031 -0.048125364 -0.084329955 -0.07581731 0.017176628
00000000: 64cb 97be ddef 3ebe 9164 7e3d 83ce 18be
00000010: 9f57 32be 7ac9 4fbd d0d3 27be cd8f 543d
00000020: 43ae ea3d 4335 1e3d 1bc0 003e 765e 053c
00000030: 274e b0bd f9a7 cabd 91d3 edbc 7dab 4c3d
00000040: 141b 3bbe f640 a8bb 6a1d 833d c52d 68bd
00000050: 1300 433e f422 09bd a94a 8e3e c43d d93c
00000060: 6cfd 0f3e c173 a53d e522 8c3e c4e6 3bbd
00000070: 4d1a cd3d 177e 45bd 2675 6e3e 9e9f 1ebd
00000080: e191 9dbd 97af 5e3d 816f 0d3e 208a 89bd
00000090: 9f5e ac3d 8efd 5bbe 4172 2abe 08fc 6dbe
000000a0: 52e3 afbc 9640 c2bd 181c 36be 9c3a bbbd
000000b0: 56d6 30be 3e28 0d3e 851a 853d 490c 47bd
000000c0: 92eb 573e b1e5 a9bd f9ef 4e3d dd6e 063c
000000d0: ab53 f6bc a0fa b5bc 9ec5 de3d c095 2bbe
000000e0: b9a1 05be d884 ebbc ca11 68bc 22ee e0bd
000000f0: 9ddf 003e 7b7c 2cbe 5c78 08be 52c2 26bc
00000100: f29e cdbd c5ed ecbd cf5e 7ebd 8cc0 c73b
00000110: dff5 06be 7cbe a63d 6b49 0b3e bae3 203e
00000120: 75c4 853c 5f33 81be 3eb4 ed3d 56de 1fbd
00000130: 265a 063e 6cdd ef3d 6c40 5f3d fa6c e6bd
00000140: d65a a1bd f56f 1e3e fd44 b93c 68e9 98bd
00000150: e7f8 0cbc a254 17be e246 d13d 8d54 53be
00000160: d5c2 de3d 4f97 f6bd e676 09be 6662 333e
00000170: 78e8 173e 0710 83bc c008 60bc 31a1 e23d
00000180: 65a0 1fbe b541 1b3e f8c5 14bc 512c 0ebe
00000190: ab53 0d3d d93c c0bc 95b1 cd3d 4f04 32be
000001a0: e2a4 d9bc 40c5 20be 181f 353d f656 48bd
000001b0: a2b4 0d3b 6cbc a7bc 28b7 9ebc 5193 943d
000001c0: 7014 1fbe 5251 1ebe 2675 ffbc b64d aebd
000001d0: 9775 d8bd b97b bc3d 6d07 40bd a2c6 cabd
000001e0: 4b15 d33d c448 883d 30b8 f13d 78cf 903d
000001f0: 8add 963d 6fcb 053e e125 193e 82e1 a1bd
00000200: 9701 9dbd d140 723d bc45 8dbd f71e 0d3e
00000210: c76c 9e3d aed3 b13d bbaa b3bd 05b0 64be
00000220: af92 e33b a00a 20bd 141a 65bc bd8a 753c
00000230: ddb0 25bd f3fb b63c 682e 5b3d 3ed5 673d
00000240: 91cb e3bd 1e43 013b dcb4 db3d 5a99 95bb
00000250: 253c 7dbd 7152 ca3d c48f 583d dab9 063e
00000260: f956 4a3d 8aba cdbd 23e5 11bd b0af c1bd
00000270: dae5 3f3b 1358 253e 7d89 07bd 7dc6 953c
00000280: 71ad 23be 5150 963d 3e2e 543d 4fbe 973d
00000290: 6086 48bd 413e 6bbd c706 0dbe fb2d abbd
000002a0: 0ddf ebbc b337 94bd 64fb 573d 54c3 0e3b
000002b0: 68f8 c2bb 159a bebd 8880 33be 7544 e4bd
000002c0: 6735 963c 8e40 243e c0e6 2e3c 25a6 bdbd
000002d0: 39a3 77bd f841 8bbd 4cad 373d e250 51bb
000002e0: c082 7dbd cfe2 403d f8a5 523c ea54 f13d
000002f0: e4b9 8fbd d0a8 823d dc07 67bd ff02 073e
00000300: 2177 263e cea1 263e 507c bcbb f282 183e
00000310: eb2c 16be fe9a c8bd c8e5 813d 6991 ffbd
00000320: 8174 b23d d2ee 1dbc fa47 96bd 0ea7 8abd
00000330: 0f89 083e aa07 843d 49b8 d3bd 1f44 d23d
00000340: 9411 023d 0891 2bbe bafe bdbd 07e4 12be
00000350: 73a8 a3bd 9611 103d d6df 3b3e 91c7 76be
00000360: d877 55bd f960 a4bd 4663 95bd 0680 aa3c
00000370: bd88 d33d 5b59 66bd ffd8 9dbd 8c70 d6bd
00000380: a899 28bd 4914 5cbd 6805 8e3d fa61 253d
00000390: b8e6 2d3e 0551 7cbe 0e83 2a3d 07bf 653e
000003a0: 424c 89bc 3b8f 5dbe 36f0 b23d 24ba c63c
000003b0: 5a28 8bbd 5a54 b23d 9589 3bbd ee6d 963d
000003c0: afb8 423d e5fd fa3d 0660 1e3d 35e3 073e
000003d0: 940e 1dbe 6183 603e 8928 2d3d e055 cebd
000003e0: e89f 873d 468c 693d 9da8 0c3e 0187 6d3e
000003f0: 1a1f 45bd 2fb5 acbd 1b46 9bbd 00b6 8c3c

bias f4 [50]
0.023155507 -0.020962803 -0.092761785 -0.15080976 0.06686581 -0.0076735257 -0.048860677 -0.08885666
-0.093804836 0.053136747 0.11105776 0.05317522 -0.108034156 -0.003321013 0.07249676 -0.013682634
0.095108256 -0.09927684 -0.12140168 0.01666897 -0.042883664 -0.12208053 -0.04008075 -0.15123434
0.116191015 -0.015619739 -0.046104036 0.062039442 -0.17005157 -0.17650984 -0.14156936 0.0704988
-0.039011337 0.04522516 -0.034609556 -0.034432054 0.06722565 0.11922213 -0.1393465 -0.12831473
-0.01974537 -0.056550514 -0.13741623 0.104375534 0.1491836 0.034595598 0.064747095 -0.028104492
0.007848402 -0.026647842
00000000: 9eb0 bd3c 2fba abbc e4f9 bdbd e06d 1abe
00000010: f1f0 883d 3372 fbbb 2222 48bd 7bfa b5bd
00000020: c01c c0bd eba5 593d 4072 e33d 42ce 593d
00000030: 0341 ddbd 5aa5 59bb 2e79 943d 202d 60bc
00000040: 1ec8 c23d a851 cbbd 72a1 f8bd 5d8d 883c
00000050: c8a6 2fbd 5b05 fabd b62b 24bd 2ddd 1abe
00000060: 8ef5 ed3d efe9 7fbc 96d7 3cbd 121d 7e3d
00000070: 0022 2ebe ffbe 34be 8ff7 10be ad61 903d
00000080: 5aca 1fbd 043e 393d c0c2 0dbd a008 0dbd
00000090: 9aad 893d bb2a f43d d9b0 0ebe f064 03be
000000a0: 0bc1 a1bc 83a1 67bd d7b6 0cbe d7c2 d53d
000000b0: 96c3 183e 1db4 0d3d 209a 843d 643b e6bc
000000c0: 9596 003c 934c dabc

mask f4 [50, 50]
1.0 1.0 1.0 1.0 1.0 1.0 1.0 1.0
1.0 1.0 1.0 1.0 1.0 1.0 1.0 1.0
1.0 1.0 1.0 1.0 1.0 1.0 1.0 1.0
1.0 1.0 1.0 1.0 1.0 1.0 1.0 1.0
1.0 1.0 1.0 1.0 1.0 1.0 1.0 1.0
1.0 1.0 1.0 1.0 1.0 1.0 1.0 1.0
1.0 1.0 1.0 1.0 1.0 1.0 1.0 1.0
1.0 1.0 1.0 1.0 1.0 1.0 1.0 1.0
1.0 1.0 1.0 1.0 1.0 1.0 1.0 1.0
1.0 1.0 1.0 1.0 1.0 1.0 1.0 1.0
1.0 1.0 1.0 1.0 1.0 1.0 1.0 1.0
1.0 1.0 1.0 1.0 1.0 1.0 1.0 1.0
1.0 1.0 1.0 1.0 1.0 1.0 1.0 1.0
1.0 1.0 1.0 1.0 1.0 1.0 1.0 1.0
1.0 1.0 1.0 1.0 1.0 1.0 1.0 1.0
1.0 1.0 1.0 1.0 1.0 1.0 1.0 1.0
1.0 1.0 1.0 1.0 1.0 1.0 1.0 1.0
1.0 1.0 1.0 1.0 1.0 1.0 1.0 1.0
1.0 1.0 1.0 1.0 1.0 1.0 1.0 1.0
1.0 1.0 1.0 1.0 1.0 1.0 1.0 1.0
1.0 1.0 1.0 1.0 1.0 1.0 1.0 1.0
1.0 1.0 1.0 1.0 1.0 1.0 1.0 1.0
1.0 1.0 1.0 1.0 1.0 1.0 1.0 1.0
1.0 1.0 1.0 1.0 1.0 1.0 1.0 1.0
1.0 1.0 1.0 1.0 1.0 1.0 1.0 1.0
1.0 1.0 1.0 1.0 1.0 1.0 1.0 1.0
1.0 1.0 1.0 1.0 1.0 1.0 1.0 1.0
1.0 1.0 1.0 1.0 1.0 1.0 1.0 1.0
1.0 1.0 1.0 1.0 1.0 1.0 1.0 1.0
1.0 1.0 1.0 1.0 1.0 1.0 1.0 1.0
1.0 1.0 1.0 1.0 1.0 1.0 1.0 1.0
1.0 1.0 1.0 1.0 1.0 1.0 1.0 1.0
00000000: 0000 803f 0000 803f 0000 803f 0000 803f
00000010: 0000 803f 0000 803f 0000 803f 0000 803f
00000020: 0000 803f 0000 803f 0000 803f 0000 803f
00000030: 0000 803f 0000 803f 0000 803f 0000 803f
00000040: 0000 803f 0000 803f 0000 803f 0000 803f
00000050: 0000 803f 0000 803f 0000 803f 0000 803f
00000060: 0000 803f 0000 803f 0000 803f 0000 803f
00000070: 0000 803f 0000 803f 0000 803f 0000 803f
00000080: 0000 803f 0000 803f 0000 803f 0000 803f
00000090: 0000 803f 0000 803f 0000 803f 0000 803f
000000a0: 0000 803f 0000 803f 0000 803f 0000 803f
000000b0: 0000 803f 0000 803f 0000 803f 0000 803f
000000c0: 0000 803f 0000 803f 0000 803f 0000 803f
000000d0: 0000 803f 0000 803f 0000 803f 0000 803f
000000e0: 0000 803f 0000 803f 0000 803f 0000 803f
000000f0: 0000 803f 0000 803f 0000 803f 0000 803f
00000100: 0000 803f 0000 803f 0000 803f 0000 803f
00000110: 0000 803f 0000 803f 0000 803f 0000 803f
00000120: 0000 803f 0000 803f 0000 803f 0000 803f
00000130: 0000 803f 0000 803f 0000 803f 0000 803f
00000140: 0000 803f 0000 803f 0000 803f 0000 803f
00000150: 0000 803f 0000 803f 0000 803f 0000 803f
00000160: 0000 803f 0000 803f 0000 803f 0000 803f
00000170: 0000 803f 0000 803f 0000 803f 0000 803f
00000180: 0000 803f 0000 803f 0000 803f 0000 803f
00000190: 0000 803f 0000 803f 0000 803f 0000 803f
000001a0: 0000 803f 0000 803f 0000 803f 0000 803f
000001b0: 0000 803f 0000 803f 0000 803f 0000 803f
000001c0: 0000 803f 0000 803f 0000 803f 0000 803f
000001d0: 0000 803f 0000 803f 0000 803f 0000 803f
000001e0: 0000 803f 0000 803f 0000 803f 0000 803f
000001f0: 0000 803f 0000 803f 0000 803f 0000 803f
00000200: 0000 803f 0000 803f 0000 803f 0000 803f
00000210: 0000 803f 0000 803f 0000 803f 0000 803f
00000220: 0000 803f 0000 803f 0000 803f 0000 803f
00000230: 0000 803f 0000 803f 0000 803f 0000 803f
00000240: 0000 803f 0000 803f 0000 803f 0000 803f
00000250: 0000 803f 0000 803f 0000 803f 0000 803f
00000260: 0000 803f 0000 803f 0000 803f 0000 803f
00000270: 0000 803f 0000 803f 0000 803f 0000 803f
00000280: 0000 803f 0000 803f 0000 803f 0000 803f
00000290: 0000 803f 0000 803f 0000 803f 0000 803f
000002a0: 0000 803f 0000 803f 0000 803f 0000 803f
000002b0: 0000 803f 0000 803f 0000 803f 0000 803f
000002c0: 0000 803f 0000 803f 0000 803f 0000 803f
000002d0: 0000 803f 0000 803f 0000 803f 0000 803f
000002e0: 0000 803f 0000 803f 0000 803f 0000 803f
000002f0: 0000 803f 0000 803f 0000 803f 0000 803f
00000300: 0000 803f 0000 803f 0000 803f 0000 803f
00000310: 0000 803f 0000 803f 0000 803f 0000 803f
00000320: 0000 803f 0000 803f 0000 803f 0000 803f
00000330: 0000 803f 0000 803f 0000 803f 0000 803f
00000340: 0000 803f 0000 803f 0000 803f 0000 803f
00000350: 0000 803f 0000 803f 0000 803f 0000 803f
00000360: 0000 803f 0000 803f 0000 803f 0000 803f
00000370: 0000 803f 0000 803f 0000 803f 0000 803f
00000380: 0000 803f 0000 803f 0000 803f 0000 803f
00000390: 0000 803f 0000 803f 0000 803f 0000 803f
000003a0: 0000 803f 0000 803f 0000 803f 0000 803f
000003b0: 0000 803f 0000 803f 0000 803f 0000 803f
000003c0: 0000 803f 0000 803f 0000 803f 0000 803f
000003d0: 0000 803f 0000 803f 0000 803f 0000 803f
000003e0: 0000 803f 0000 803f 0000 803f 0000 803f
000003f0: 0000 803f 0000 803f 0000 803f 0000 803f

weight f4 [50, 50]
-0.14637949 0.07054012 -0.0062967655 0.17530577 -0.036521133 -0.09344088 -0.063793726 -0.062372815
-0.04323711 0.13314366 -0.107040346 0.16503242 0.019409422 0.032226082 0.06797559 0.0730279
-0.19164065 -0.11346237 -0.023382042 0.112453714 0.17390583 0.11244225 -0.03977569 -0.006791857
0.12795442 0.053507958 -0.09307561 0.0042525004 -0.03219713 -0.051844552 -0.039886843 -0.043573886
0.07316659 -0.13526359 -0.050547954 -0.09264553 -0.14875968 -0.12788907 0.026614768 -0.07874654
-0.053312473 -0.16665955 0.04396826 0.038410597 0.023556156 -0.0050201034 -0.078436375 0.021080306
-0.19265017 0.085849896 0.113721274 -0.017599933 -0.030749612 0.016604409 0.0028257198 0.0503776
-0.047864426 -0.025993532 0.09398792 -0.00046694244 -0.12606964 0.12624958 -0.05841174 0.20380954
-0.11497084 0.14449207 -0.04638513 -0.16506931 0.07515008 0.20409182 0.032018352 0.059151217
0.16398333 0.022478674 0.011503914 0.06849269 -0.089195706 -0.11146645 -0.078746796 0.17512001
0.1383311 -0.08516745 0.040898148 -0.05047303 -0.048342217 -0.030487144 -0.0004481585 0.010259617
0.11556079 0.1041296 -0.067912504 -0.0964668 -0.030754166 -0.015954133 -0.049320854 -0.08137419
-0.18401678 -0.19462499 -0.18404245 0.0052306135 -0.047963265 0.10366132 0.13832833 0.08555834
-0.033526063 -0.04792835 0.07712878 0.103034444 -0.008254207 0.0029627488 0.011018983 0.028215418
0.040526845 -0.046732605 0.09131316 -0.07828966 -0.16560622 -0.009186078 0.0789081 0.097240716
0.06219413 0.11291682 -0.01056782 -0.08835581 -0.07342819 -0.11584513 -0.13404794 0.04532186
0.18911736 0.006827056 0.023212545 -0.19334495 -0.034805577 -0.14923967 0.0904301 0.012183471
0.013473257 -0.12719472 0.16207495 0.1752366 0.111137085 -0.16139588 0.038809672 -0.0718096
-0.1820287 0.10519133 0.024408631 0.053412084 -0.1735623 -0.03712296 0.129719 -0.1843274
0.069833815 -0.008799315 -0.13587634 0.13134111 -0.102934405 -0.07716986 0.054295193 -0.055506937
-0.10812994 0.09565285 -0.024628725 -0.18451583 -0.020967254 -0.119962394 -0.033834554 -0.110503964
-0.07076858 -0.123722546 -0.04113335 -0.15344235 0.0021553328 -0.13993385 0.10916607 -0.087439366
-0.0677383 0.018449472 -0.035499327 -0.103434175 0.03384707 -0.021433398 0.09193478 -0.03481958
0.051551953 -0.062167216 -0.015835565 0.0042394805 -0.048235428 -0.12222617 0.0026985218 -0.053884752
0.016789213 0.15055925 -0.043623343 0.00484693 0.13674167 0.04935298 0.08287869 0.13343453
-0.08330065 0.1836906 0.14815646 0.16926096 0.099735625 0.08058731 0.13841957 0.014855694
0.008160657 -0.01700396 0.12137884 -0.012906684 0.10633857 0.21254781 0.15865125 0.044156514
-0.036515668 0.112276606 -0.049523406 0.06970641 0.05651389 0.05822494 0.10658864 0.014152888
0.048647802 -0.06119995 -0.07271538 -0.10527788 0.06194945 0.11354154 0.044009764 0.021292837
-0.14904298 -0.07690531 -0.013674026 -0.15465882 -0.1410725 -0.21797757 0.19317567 0.0844378
-0.075472586 -0.14249538 0.19282483 0.11406776 -0.17528516 0.03566606 -0.0572595 -0.1592009
-0.12969877 -0.16002195 -0.08600434 -0.049743414 -0.15318826 0.034857836 -0.09290326 -0.01889274
00000000: 81e4 15be 5777 903d 1955 cebb 5b83 333e
00000010: 2f97 15bd ef5d bfbd 49a6 82bd a37a 7fbd
00000020: 6519 31bd d056 083e f837 dbbd 42fe 283e
00000030: 8200 9f3c 7fff 033d c936 8b3d a78f 953d
00000040: 723d 44be f65e e8bd b28b bfbc 224e e63d
00000050: 5f14 323e 1f48 e63d d5eb 22bd 3a8e debb
00000060: 7c06 033e 292b 5b3d 6d9e bebd 8f58 8b3b
00000070: 23e1 03bd f45a 54bd 6360 23bd 887a 32bd
00000080: 5dd8 953d 8a82 0abe 5f0b 4fbd f1bc bdbd
00000090: 7554 18be 5af5 02be 3707 da3c de45 a1bd
000000a0: 2e5e 5abd cda8 2abe 1018 343d 6e54 1d3d
000000b0: d7f8 c03c ae7f a4bb 40a3 a0bd 9bb0 ac3c
000000c0: 1646 45be 12d2 af3d b3e6 e83d bc2d 90bc
000000d0: 9ce6 fbbc f805 883c b62f 393b be58 4e3d
000000e0: 7d0d 44bd 63f0 d4bc bd7c c03d f4cf f4b9
000000f0: 6618 01be 9247 013e 2641 6fbd 73b3 503e
00000100: d575 ebbd bbf5 133e 56fe 3dbd ee07 29be
00000110: 49e8 993d 72fd 503e ad25 033d 8c48 723d
00000120: 3feb 273e 3225 b83c ea7a 3c3c e545 8c3d
00000130: 3dac b6bd 8648 e4bd 0046 a1bd a952 333e
00000140: aba6 0d3e 466c aebd d184 273d cfbc 4ebd
00000150: 7d02 46bd 2dc0 f9bc d1f6 eab9 f417 283c
00000160: 23ab ec3d e641 d53d b615 8bbd 6390 c5bd
00000170: 29f0 fbbc 3eb2 82bc aa04 4abd 83a7 a6bd
00000180: e56e 3cbe c64b 47be a075 3cbe 9165 ab3b
00000190: 2175 44bd 634c d43d f1a5 0d3e 3639 af3d
000001a0: a052 09bd 8450 44bd b2f5 9d3d b903 d33d
000001b0: a73c 07bc ad2a 423b f788 343c 0524 e73c
000001c0: 7aff 253d b06a 3fbd 6502 bb3d 5456 a0bd
000001d0: ad94 29be 3481 16bc 929a a13d 2426 c73d
000001e0: 46bf 7e3d ef40 e73d a624 2dbc e4f3 b4bd
000001f0: 8561 96bd 3640 edbd dd43 09be 6aa3 393d
00000200: fba7 413e 7fb5 df3b 3c28 be3c 38fc 45be
00000210: 4b90 0ebd 49d2 18be 6b33 b93d 2e9d 473c
00000220: f0be 5c3c 553f 02be faf6 253e 3971 333e
00000230: d79b e33d f644 25be e4f6 1e3d e910 93bd
00000240: bb65 3abe 8d6e d73d 9cf4 c73c a1c6 5a3d
00000250: 51ba 31be 3f0e 18bd 0fd5 043e 52c0 3cbe
00000260: 0805 8f3d 012b 10bc 2b23 0bbe 497e 063e
00000270: 46cf d2bd 3b0b 9ebd a364 5e3d 3e5b 63bd
00000280: 3b73 ddbd a4e5 c33d 2ec2 c9bc b8f1 3cbe
00000290: 85c3 abbc d8ae f5bd 1a96 0abd e74f e2bd
000002a0: 1eef 90bd 3f62 fdbd 727b 28bd fe1f 1dbe
000002b0: 7c40 0d3b d24a 0fbe 7692 df3d 6913 b3bd
000002c0: 61ba 8abd 5923 973c be67 11bd 4cd5 d3bd
000002d0: 3aa3 0a3d 1895 afbc 4d48 bc3d fa9e 0ebd
000002e0: 2428 533d 0da3 7ebd 96b9 81bc 57eb 8a3b
000002f0: 8392 45bd b751 fabd afd9 303b 42b6 5cbd
00000300: 8889 893c 342c 1a3e 64ae 32bd ffd2 9e3b
00000310: 0206 0c3e 5a26 4a3d 4dbc a93d 10a3 083e
00000320: 8899 aabd 6319 3c3e 54b6 173e bf52 2d3e
00000330: 3142 cc3d f60a a53d dcbd 0d3e 4c65 733c
00000340: 47b4 053c e44b 8bbc 7895 f83d 8e76 53bc
00000350: 09c8 d93d 22a6 593e 7975 223e 76dd 343d
00000360: 7491 15bd 47f1 e53d 0ed9 4abd 3cc2 8e3d
00000370: 1c7b 673d 467d 6e3d 254b da3d 84e1 673c
00000380: eb42 473d ccac 7abd cdeb 94bd ee9b d7bd
00000390: b5be 7d3d 7888 e83d 9543 343d 516e ae3c
000003a0: b99e 18be 8880 9dbd 0609 60bc e25e 1ebe
000003b0: 4f75 10be 8335 5fbe d8cf 453e baed ac3d
000003c0: 5f91 9abd 4fea 11be df73 453e 5c9c e93d
000003d0: f47d 33be 9316 123d f088 6abd 9005 23be
000003e0: c1cf 04be cbdc 23be 0b23 b0bd c0bf 4bbd
000003f0: 62dd 1cbe 17c7 0e3d 1044 bebd f3c4 9abc

bias f4 [50]
0.04581524 -0.17789295 -0.15859997 0.20035611 0.026810441 0.008251315 -0.022274658 -0.15475278
0.06938495 -0.11545771 0.08221481 -0.004860244 0.054230906 -0.12488349 0.14860287 -0.07817852
-0.031808075 -0.010273723 0.03557933 -0.1517414 0.14741176 0.034264773 0.1383209 0.13609256
-0.09930256 0.03862223 0.09020817 0.0004409287 0.04768637 -0.16400817 0.0369344 0.07999611
-0.03468353 0.009564997 -0.041894037 -0.10571432 0.20932399 0.06700272 -0.12928118 0.065808214
0.0115697095 0.17472273 0.06773318 -0.057045825 -0.008453153 0.0019525695 0.035161253 -0.07055194
0.16766338 0.10836959
00000000: c3a8 3b3d 9229 36be 0868 22be 272a 4d3e
00000010: 92a1 db3c 8630 073c 5879 b6bc 8377 1ebe
00000020: b219 8e3d 1875 ecbd 3d60 a83d af42 9fbb
00000030: 3a21 5e3d eac2 ffbd 5a2b 183e 0f1c a0bd
00000040: 2f49 02bd 1e53 28bc a2bb 113d 1962 1bbe
00000050: 1cf3 163e 3859 0c3d fea3 0d3e d95b 0b3e
00000060: 245f cbbd 5832 1e3d 10bf b83d 732c e739
00000070: c852 433d c2f1 27be 8748 173d 00d5 a33d
00000080: 5110 0ebd 81b6 1c3c 1599 2bbd c080 d8bd
00000090: 0759 563e b938 893d 4962 04be 75c6 863d
000000a0: e18e 3d3c 84ea 323e b2b7 8a3d e2a8 69bd
000000b0: 187f 0abc 5ced ff3a 3f05 103d 897d 90bd
000000c0: f3af 2b3e e0f0 dd3d

mask f4 [50, 50]
1.0 1.0 1.0 1.0 1.0 1.0 1.0 1.0
1.0 1.0 1.0 1.0 1.0 1.0 1.0 1.0
1.0 1.0 1.0 1.0 1.0 1.0 1.0 1.0
1.0 1.0 1.0 1.0 1.0 1.0 1.0 1.0
1.0 1.0 1.0 1.0 1.0 1.0 1.0 1.0
1.0 1.0 1.0 1.0 1.0 1.0 1.0 1.0
1.0 1.0 1.0 1.0 1.0 1.0 1.0 1.0
1.0 1.0 1.0 1.0 1.0 1.0 1.0 1.0
1.0 1.0 1.0 1.0 1.0 1.0 1.0 1.0
1.0 1.0 1.0 1.0 1.0 1.0 1.0 1.0
1.0 1.0 1.0 1.0 1.0 1.0 1.0 1.0
1.0 1.0 1.0 1.0 1.0 1.0 1.0 1.0
1.0 1.0 1.0 1.0 1.0 1.0 1.0 1.0
1.0 1.0 1.0 1.0 1.0 1.0 1.0 1.0
1.0 1.0 1.0 1.0 1.0 1.0 1.0 1.0
1.0 1.0 1.0 1.0 1.0 1.0 1.0 1.0
1.0 1.0 1.0 1.0 1.0 1.0 1.0 1.0
1.0 1.0 1.0 1.0 1.0 1.0 1.0 1.0
1.0 1.0 1.0 1.0 1.0 1.0 1.0 1.0
1.0 1.0 1.0 1.0 1.0 1.0 1.0 1.0
1.0 1.0 1.0 1.0 1.0 1.0 1.0 1.0
1.0 1.0 1.0 1.0 1.0 1.0 1.0 1.0
1.0 1.0 1.0 1.0 1.0 1.0 1.0 1.0
1.0 1.0 1.0 1.0 1.0 1.0 1.0 1.0
1.0 1.0 1.0 1.0 1.0 1.0 1.0 1.0
1.0 1.0 1.0 1.0 1.0 1.0 1.0 1.0
1.0 1.0 1.0 1.0 1.0 1.0 1.0 1.0
1.0 1.0 1.0 1.0 1.0 1.0 1.0 1.0
1.0 1.0 1.0 1.0 1.0 1.0 1.0 1.0
1.0 1.0 1.0 1.0 1.0 1.0 1.0 1.0
1.0 1.0 1.0 1.0 1.0 1.0 1.0 1.0
1.0 1.0 1.0 1.0 1.0 1.0 1.0 1.0
00000000: 0000 803f 0000 803f 0000 803f 0000 803f
00000010: 0000 803f 0000 803f 0000 803f 0000 803f
00000020: 0000 803f 0000 803f 0000 803f 0000 803f
00000030: 0000 803f 0000 803f 0000 803f 0000 803f
00000040: 0000 803f 0000 803f 0000 803f 0000 803f
00000050: 0000 803f 0000 803f 0000 803f 0000 803f
00000060: 0000 803f 0000 803f 0000 803f 0000 803f
00000070: 0000 803f 0000 803f 0000 803f 0000 803f
00000080: 0000 803f 0000 803f 0000 803f 0000 803f
00000090: 0000 803f 0000 803f 0000 803f 0000 803f
000000a0: 0000 803f 0000 803f 0000 803f 0000 803f
000000b0: 0000 803f 0000 803f 0000 803f 0000 803f
000000c0: 0000 803f 0000 803f 0000 803f 0000 803f
000000d0: 0000 803f 0000 803f 0000 803f 0000 803f
000000e0: 0000 803f 0000 803f 0000 803f 0000 803f
000000f0: 0000 803f 0000 803f 0000 803f 0000 803f
00000100: 0000 803f 0000 803f 0000 803f 0000 803f
00000110: 0000 803f 0000 803f 0000 803f 0000 803f
00000120: 0000 803f 0000 803f 0000 803f 0000 803f
00000130: 0000 803f 0000 803f 0000 803f 0000 803f
00000140: 0000 803f 0000 803f 0000 803f 0000 803f
00000150: 0000 803f 0000 803f 0000 803f 0000 803f
00000160: 0000 803f 0000 803f 0000 803f 0000 803f
00000170: 0000 803f 0000 803f 0000 803f 0000 803f
00000180: 0000 803f 0000 803f 0000 803f 0000 803f
00000190: 0000 803f 0000 803f 0000 803f 0000 803f
000001a0: 0000 803f 0000 803f 0000 803f 0000 803f
000001b0: 0000 803f 0000 803f 0000 803f 0000 803f
000001c0: 0000 803f 0000 803f 0000 803f 0000 803f
000001d0: 0000 803f 0000 803f 0000 803f 0000 803f
000001e0: 0000 803f 0000 803f 0000 803f 0000 803f
000001f0: 0000 803f 0000 803f 0000 803f 0000 803f
00000200: 0000 803f 0000 803f 0000 803f 0000 803f
00000210: 0000 803f 0000 803f 0000 803f 0000 803f
00000220: 0000 803f 0000 803f 0000 803f 0000 803f
00000230: 0000 803f 0000 803f 0000 803f 0000 803f
00000240: 0000 803f 0000 803f 0000 803f 0000 803f
00000250: 0000 803f 0000 803f 0000 803f 0000 803f
00000260: 0000 803f 0000 803f 0000 803f 0000 803f
00000270: 0000 803f 0000 803f 0000 803f 0000 803f
00000280: 0000 803f 0000 803f 0000 803f 0000 803f
00000290: 0000 803f 0000 803f 0000 803f 0000 803f
000002a0: 0000 803f 0000 803f 0000 803f 0000 803f
000002b0: 0000 803f 0000 803f 0000 803f 0000 803f
000002c0: 0000 803f 0000 803f 0000 803f 0000 803f
000002d0: 0000 803f 0000 803f 0000 803f 0000 803f
000002e0: 0000 803f 0000 803f 0000 803f 0000 803f
000002f0: 0000 803f 0000 803f 0000 803f 0000 803f
00000300: 0000 803f 0000 803f 0000 803f 0000 803f
00000310: 0000 803f 0000 803f 0000 803f 0000 803f
00000320: 0000 803f 0000 803f 0000 803f 0000 803f
00000330: 0000 803f 0000 803f 0000 803f 0000 803f
00000340: 0000 803f 0000 803f 0000 803f 0000 803f
00000350: 0000 803f 0000 803f 0000 803f 0000 803f
00000360: 0000 803f 0000 803f 0000 803f 0000 803f
00000370: 0000 803f 0000 803f 0000 803f 0000 803f
00000380: 0000 803f 0000 803f 0000 803f 0000 803f
00000390: 0000 803f 0000 803f 0000 803f 0000 803f
000003a0: 0000 803f 0000 803f 0000 803f 0000 803f
000003b0: 0000 803f 0000 803f 0000 803f 0000 803f
000003c0: 0000 803f 0000 803f 0000 803f 0000 803f
000003d0: 0000 803f 0000 803f 0000 803f 0000 803f
000003e0: 0000 803f 0000 803f 0000 803f 0000 803f
000003f0: 0000 803f 0000 803f 0000 803f 0000 803f

weight f4 [4, 50]
0.02859269 -0.084754884 -0.018300027 -0.059017323 -0.02396898 -0.015643448 0.04828866 0.06570947
0.01907909 -0.020708233 -0.019275151 0.059646025 -0.052420147 0.07595746 -0.07388324 0.032674283
-0.013638243 0.12582763 0.12476061 -0.015864506 -0.05326382 -0.08680649 0.010940596 -0.052398294
-0.047857665 0.028209195 -0.015197918 -0.056030832 0.046913892 -0.006648749 0.02650021 -0.12315135
0.06812607 -0.11894189 0.05204977 0.07923409 -0.1329838 -0.11876276 -0.030068167 -0.11435644
0.08372131 -0.1283851 -0.018599235 -0.07121796 -0.11896121 0.059617043 -0.11380005 -0.09842662
-0.046095133 0.040745676 -0.10597591 0.08843207 -0.09227264 0.12232204 0.050933436 0.007139057
0.089972496 0.00095693767 -0.040152937 0.13262378 -0.07949547 0.061203852 0.14055134 -0.10573794
-0.12936737 -0.11089106 0.11628504 0.08815633 0.020085305 0.059059486 0.11307667 0.12141012
0.028980762 0.110632226 -0.006443396 -0.04058396 0.0106604695 -0.10029657 -0.07021212 0.009845465
0.020617932 -0.006275192 0.04223287 -0.035982773 -0.12455409 0.060009196 -0.1253824 0.011743769
0.086480185 -0.026666872 0.0091982335 0.12042077 0.03910038 -0.099359296 8.8751316e-05 0.09701465
-0.03018421 -0.09360197 -0.104167774 0.06255075 -0.040164214 -0.10048777 -0.18797047 0.04895231
-0.18791863 0.17614263 -0.13063839 -0.22019668 0.05733861 -0.010436569 0.16009806 0.1322842
0.114006974 0.16372024 0.16762358 -0.107297905 0.18660508 0.116479084 -0.11369988 -0.17085485
0.19165178 0.1571909 0.033447847 0.13513024 -0.058921978 0.08539718 0.008241935 0.1201839
-0.032153424 -0.09114541 -0.16651973 0.19642137 -0.10105191 -0.17009622 0.29233393 -0.05421027
0.11608333 -0.014408239 -0.020490216 0.207698 -0.08485433 0.19281985 0.05985717 0.31061172
0.119127005 -0.024358418 0.113664776 -0.17810456 0.06305238 0.07704171 -0.07383727 -0.0969704
0.07756666 -0.09387349 -0.09222448 0.15714982 -0.04971209 0.020386713 0.0069729686 -0.003799616
0.05539173 0.15424947 -0.05435983 -0.010224877 -0.0074812407 0.062320076 0.10562696 -0.053112477
-0.048473287 0.037395224 -0.059775267 -0.04383144 0.11108421 -0.033242762 -0.15332022 0.17190878
0.0011448719 0.15651822 -0.114539385 0.023522092 0.04386877 -0.087795 -0.15783322 -0.019098038
-0.09075299 0.07204624 0.10383982 -0.16479059 0.10446966 0.10234786 -0.11785421 0.13057944
0.06653058 -0.07115796 0.07967157 -0.09707859 -0.08493161 -0.026983583 0.002184192 0.078295074
00000000: 383b ea3c f893 adbd f0e9 95bc 26bc 71bd
00000010: 985a c4bc b026 80bc 54ca 453d b092 863d
00000020: c04b 9c3c 50a4 a9bc ece6 9dbc 644f 743d
00000030: 82b6 56bd 968f 9b3d 1950 97bd 78d5 053d
00000040: f072 5fbc f5d8 003e 7e82 ff3d 48f6 81bc
00000050: 2a2b 5abd 9ac7 b1bd 3040 333c 989f 56bd
00000060: 6606 44bd f816 e73c b000 79bc 9680 65bd
00000070: c828 403d c0dd d9bb f816 d93c c636 fcbd
00000080: ae85 8b3d ce97 f3bd 2432 553d 7c45 a23d
00000090: e82c 08be e439 f3bd 8451 f6bc b633 eabd
000000a0: 1476 ab3d 6277 03be 6c5d 98bc b9da 91bd
000000b0: efa1 f3bd 0031 743d 0010 e9bd e593 c9bd
000000c0: 40ce 3cbd f0e4 263d e609 d9bd e01b b53d
000000d0: 70f9 bcbd fa83 fa3d 949f 503d c0ee e93b
000000e0: 8043 b83d 00db 7a3a 6877 24bd 87ce 073e
000000f0: 85ce a2bd e4b0 7a3d b1ec 0f3e 228d d8bd
00000100: e178 04be da1a e3bd da26 ee3d 4e8b b43d
00000110: f089 a43c 5ce8 713d be94 e73d dea5 f83d
00000120: 1069 ed3c 2693 e23d 2023 d3bb 5e3b 26bd
00000130: 40a9 2e3c 4a68 cdbd 5fcb 8fbd e04e 213c
00000140: f0e6 a83c 20a0 cdbb 60fc 2c3d ac62 13bd
00000150: 3716 ffbd 34cc 753d 3e64 00be f068 403c
00000160: 861c b13d 7c74 dabc 30b4 163c 2a9f f63d
00000170: b827 203d e37c cbbd 0020 ba38 9eaf c63d
00000180: e044 f7bc 64b2 bfbd ea55 d5bd 9c1a 803d
00000190: 3b83 24bd 88cc cdbd 557b 40be 3882 483d
000001a0: be6d 40be bc5e 343e 12c6 05be 3d7b 61be
000001b0: e4db 6a3d 25fe 2abc bff0 233e 8275 073e
000001c0: 7d7c e93d 47a6 273e 84a5 2b3e 01bf dbbd
000001d0: 6715 3f3e 968c ee3d 7cdb e8bd 93f4 2ebe
000001e0: 5d40 443e a7f6 203e 9c00 093d 955f 0a3e
000001f0: 2c58 71bd b7e4 ae3d 2e09 073c fa22 f63d
00000200: 4fb3 03bd 72aa babd 2684 2abe af22 493e
00000210: 4ef4 cebd b42d 2ebe cbac 953e 970b 5ebd
00000220: 19bd ed3d 8910 6cbc 19db a7bc c9ae 543e
00000230: 1bc8 adbd 9172 453e cb2c 753d 8008 9f3e
00000240: dcf8 f33d 4e8b c7bc 14c9 e83d 0b61 36be
00000250: 9b21 813d 0bc8 9d3d ff37 97bd 6b98 c6bd
00000260: 45db 9e3d bf40 c0bd 30e0 bcbd e2eb 203e
00000270: e89e 4bbd 0902 a73c 807d e43b fa02 79bb
00000280: 70e2 623d 93f3 1d3e 6aa8 5ebd 3e86 27bc
00000290: 3225 f5bb 5643 7f3d f352 d83d 788c 59bd
000002a0: ed8b 46bd bc2b 193d e9d6 74bd 9988 33bd
000002b0: 1e80 e33d 9029 08bd faff 1cbe db08 303e
000002c0: 870f 963a 5046 203e a093 eabd 67b1 c03c
000002d0: bdaf 333d ddcd b3bd 089f 21be 7d73 9cbc
000002e0: b4dc b9bd fb8c 933d f9a9 d43d ddbe 28be
000002f0: 30f4 d53d c19b d13d 8c5d f1bd 9eb6 053e
00000300: 2f41 883d 44bb 91bd d92a a33d 24d1 c6bd
00000310: a0f0 adbd ad0c ddbc a924 0f3b 2b59 a03d

bias f4 [4]
0.15066007 0.08534195 0.18380709 0.04411184
00000000: a246 1a3e c3c7 ae3d ed37 3c3e 9eae 343d

mask f4 [4, 50]
0.0 0.0 0.0 0.0 0.0 0.0 0.0 0.0
0.0 0.0 0.0 0.0 0.0 0.0 0.0 0.0
0.0 0.0 0.0 0.0 0.0 0.0 0.0 0.0
0.0 0.0 0.0 0.0 0.0 0.0 0.0 0.0
0.0 0.0 0.0 0.0 0.0 0.0 0.0 0.0
0.0 0.0 0.0 0.0 0.0 0.0 0.0 0.0
0.0 0.0 0.0 0.0 0.0 0.0 0.0 0.0
0.0 0.0 0.0 0.0 0.0 0.0 0.0 0.0
0.0 0.0 0.0 0.0 0.0 0.0 0.0 0.0
0.0 0.0 0.0 0.0 0.0 0.0 0.0 0.0
0.0 0.0 0.0 0.0 0.0 0.0 0.0 0.0
0.0 0.0 0.0 0.0 0.0 0.0 0.0 0.0
0.0 0.0 0.0 0.0 1.0 1.0 1.0 1.0
1.0 1.0 1.0 1.0 1.0 1.0 1.0 1.0
1.0 1.0 1.0 1.0 1.0 1.0 1.0 1.0
1.0 1.0 1.0 1.0 1.0 1.0 1.0 1.0
1.0 1.0 1.0 1.0 1.0 1.0 1.0 1.0
1.0 1.0 1.0 1.0 1.0 1.0 1.0 1.0
1.0 1.0 1.0 1.0 1.0 1.0 1.0 1.0
1.0 1.0 1.0 1.0 1.0 1.0 1.0 1.0
1.0 1.0 1.0 1.0 1.0 1.0 1.0 1.0
1.0 1.0 1.0 1.0 1.0 1.0 1.0 1.0
1.0 1.0 1.0 1.0 1.0 1.0 1.0 1.0
1.0 1.0 1.0 1.0 1.0 1.0 1.0 1.0
1.0 1.0 1.0 1.0 1.0 1.0 1.0 1.0
00000000: 0000 0000 0000 0000 0000 0000 0000 0000
00000010: 0000 0000 0000 0000 0000 0000 0000 0000
00000020: 0000 0000 0000 0000 0000 0000 0000 0000
00000030: 0000 0000 0000 0000 0000 0000 0000 0000
00000040: 0000 0000 0000 0000 0000 0000 0000 0000
00000050: 0000 0000 0000 0000 0000 0000 0000 0000
00000060: 0000 0000 0000 0000 0000 0000 0000 0000
00000070: 0000 0000 0000 0000 0000 0000 0000 0000
00000080: 0000 0000 0000 0000 0000 0000 0000 0000
00000090: 0000 0000 0000 0000 0000 0000 0000 0000
000000a0: 0000 0000 0000 0000 0000 0000 0000 0000
000000b0: 0000 0000 0000 0000 0000 0000 0000 0000
000000c0: 0000 0000 0000 0000 0000 0000 0000 0000
000000d0: 0000 0000 0000 0000 0000 0000 0000 0000
000000e0: 0000 0000 0000 0000 0000 0000 0000 0000
000000f0: 0000 0000 0000 0000 0000 0000 0000 0000
00000100: 0000 0000 0000 0000 0000 0000 0000 0000
00000110: 0000 0000 0000 0000 0000 0000 0000 0000
00000120: 0000 0000 0000 0000 0000 0000 0000 0000
00000130: 0000 0000 0000 0000 0000 0000 0000 0000
00000140: 0000 0000 0000 0000 0000 0000 0000 0000
00000150: 0000 0000 0000 0000 0000 0000 0000 0000
00000160: 0000 0000 0000 0000 0000 0000 0000 0000
00000170: 0000 0000 0000 0000 0000 0000 0000 0000
00000180: 0000 0000 0000 0000 0000 0000 0000 0000
00000190: 0000 803f 0000 803f 0000 803f 0000 803f
000001a0: 0000 803f 0000 803f 0000 803f 0000 803f
000001b0: 0000 803f 0000 803f 0000 803f 0000 803f
000001c0: 0000 803f 0000 803f 0000 803f 0000 803f
000001d0: 0000 803f 0000 803f 0000 803f 0000 803f
000001e0: 0000 803f 0000 803f 0000 803f 0000 803f
000001f0: 0000 803f 0000 803f 0000 803f 0000 803f
00000200: 0000 803f 0000 803f 0000 803f 0000 803f
00000210: 0000 803f 0000 803f 0000 803f 0000 803f
00000220: 0000 803f 0000 803f 0000 803f 0000 803f
00000230: 0000 803f 0000 803f 0000 803f 0000 803f
00000240: 0000 803f 0000 803f 0000 803f 0000 803f
00000250: 0000 803f 0000 803f 0000 803f 0000 803f
00000260: 0000 803f 0000 803f 0000 803f 0000 803f
00000270: 0000 803f 0000 803f 0000 803f 0000 803f
00000280: 0000 803f 0000 803f 0000 803f 0000 803f
00000290: 0000 803f 0000 803f 0000 803f 0000 803f
000002a0: 0000 803f 0000 803f 0000 803f 0000 803f
000002b0: 0000 803f 0000 803f 0000 803f 0000 803f
000002c0: 0000 803f 0000 803f 0000 803f 0000 803f
000002d0: 0000 803f 0000 803f 0000 803f 0000 803f
000002e0: 0000 803f 0000 803f 0000 803f 0000 803f
000002f0: 0000 803f 0000 803f 0000 803f 0000 803f
00000300: 0000 803f 0000 803f 0000 803f 0000 803f
00000310: 0000 803f 0000 803f 0000 803f 0000 803f

weight f4 [50, 2]
-0.43819228 0.3524298 0.41722596 0.15717691 0.045613933 0.02253282 0.08877568 -0.43369687
-0.14313897 0.25836152 -0.06871419 -0.4810748 -0.027378188 0.4665069 -0.4588289 0.7000467
1.068024 -0.39555037 -0.6543773 0.35943848 0.25350884 0.10727137 0.723911 0.6891671
0.42679012 -0.27531096 -0.66584533 -0.4141937 -0.61283064 -0.6824066 0.2907279 -0.29012188
0.10851661 0.7058781 -0.61213046 -0.050512552 -0.6021281 -0.354989 -0.31620792 -0.14118797
0.061693024 0.18030387 -0.07085258 0.42728466 0.36805034 -0.25059935 0.13612948 0.69855994
0.170641 -0.50149995 0.6197205 0.38540965 -0.040131718 -0.5027568 0.14638218 -0.3218486
-0.6984541 0.07839888 -0.4083855 -0.4454079 -0.122882664 -0.6198512 0.22232357 -0.656211
-0.32845446 0.3150956 0.24125908 0.19257247 0.44927737 -0.10441798 0.21997453 -0.10398084
-0.008427319 0.5896184 0.23215793 0.32259935 -0.62966675 0.05714184 -0.053169753 0.04698217
-0.112652935 0.38701648 -0.02724088 -0.5430062 -0.051103335 0.013318062 0.4105378 -0.6778985
-0.54934585 -0.43155548 0.43529844 0.018168092 -0.57295454 -0.68271637 0.36490187 -0.23859972
0.42877373 0.67082185 0.20391966 0.42375475
00000000: bd5a e0be ae71 b43e a49e d53e fcf2 203e
00000010: add5 3a3d c096 b83c 06d0 b53d 840d debe
00000020: 0693 12be f647 843e 06ba 8cbd 704f f6be
00000030: 3948 e0bc fed9 ee3e 9feb eabe 4336 333f
00000040: 03b5 883f 9485 cabe 4585 27bf 5208 b83e
00000050: e9cb 813e 18b1 db3d 3b52 393f 416d 303f
00000060: 3c84 da3e 8ff5 8cbe d774 2abf 3211 d4be
00000070: 78e2 1cbf 33b2 2ebf 4ada 943e db8a 94be
00000080: f53d de3d 6db4 343f 95b4 1cbf 40e6 4ebd
00000090: 1125 1abf 1ec1 b5be 01e6 a1be 9493 10be
000000a0: d3b1 7c3d 94a1 383e 281b 91bd 0ec5 da3e
000000b0: 1871 bc3e 8f4e 80be 8765 0b3e d3d4 323f
000000c0: 84bc 2e3e 4d62 00bf 01a6 1e3f 6a54 c53e
000000d0: 2861 24bd abb4 00bf 36e5 153e 57c9 a4be
000000e0: e3cd 32bf 988f a03d e717 d1be 810c e4be
000000f0: e8a9 fbbd 91ae 1ebf caa8 633e 72fd 27bf
00000100: 2f2b a8be 3654 a13e 9f0c 773e b831 453e
00000110: af07 e63e 18d9 d5bd 0141 613e e8f3 d4bd
00000120: bd12 0abc 3bf1 163f cfba 6d3e be2b a53e
00000130: d731 21bf 900d 6a3d 87c8 59bd 6070 403d
00000140: 95b6 e6bd 0627 c63e 4428 dfbc 7402 0bbf
00000150: bb51 51bd 0034 5a3c 0332 d23e c28a 2dbf
00000160: eea1 0cbf d7f4 dcbe 70df de3e 40d5 943c
00000170: 26ad 12bf 80c6 2ebf 6bd4 ba3e 7c53 74be
00000180: 3b88 db3e fbba 2b3f 51d0 503e 62f6 d83e

bias f4 [50]
-0.07962705 -0.034822002 0.4594818 0.19374366 0.12794676 0.120706014 -0.70441073 0.23525567
0.38702565 0.7178659 -0.6470444 -0.014278431 0.17003635 0.4605675 0.17197907 0.5049309
-0.3767711 0.37597203 -0.6131071 -0.421239 0.12083815 -0.19031405 -0.29225916 -0.5486251
0.18941186 0.2784326 -0.57669353 -0.10400394 0.045993466 -0.57445216 0.029180473 0.078681976
0.076102346 -0.090095624 0.31830558 -0.7449221 -0.42074883 -0.24251997 0.5155491 0.31208065
-0.57936835 -0.6995591 -0.08105868 0.3923905 -0.28353214 -0.545853 0.4111572 0.4455469
0.53680617 -0.15739341
00000000: 8213 a3bd 84a1 0ebd 3341 eb3e bd64 463e
00000010: 7a04 033e b734 f73d 4354 34bf dde6 703e
00000020: 3a28 c63e 0fc6 373f b4a4 25bf 15f0 69bc
00000030: 021e 2e3e 81cf eb3e 481b 303e 2743 013f
00000040: 24e8 c0be 687f c03e 96f4 1cbf a3ac d7be
00000050: fe79 f73d b0e1 42be fea2 95be b272 0cbf
00000060: 2ff5 413e b88e 8e3e 30a2 13bf 0500 d5bd
00000070: a563 3c3d 4c0f 13bf e30b ef3c 0424 a13d
00000080: 8cdb 9b3d 0e84 b8bd f3f8 a23e 37b3 3ebf
00000090: 646c d7be 2857 78be 07fb 033f 09c9 9f3e
000000a0: 7c51 14bf 4e16 33bf 1802 a6bd 68e7 c83e
000000b0: 202b 91be 06bd 0bbf 3283 d23e b91e e43e
000000c0: 216c 093f bd2b 21be

mask f4 [50, 2]
1.0 0.0 1.0 0.0 1.0 0.0 1.0 0.0
1.0 0.0 1.0 0.0 1.0 0.0 1.0 0.0
1.0 0.0 1.0 0.0 1.0 0.0 1.0 0.0
1.0 0.0 1.0 0.0 1.0 0.0 1.0 0.0
1.0 0.0 1.0 0.0 1.0 0.0 1.0 0.0
1.0 0.0 1.0 0.0 1.0 0.0 1.0 0.0
1.0 0.0 1.0 0.0 1.0 0.0 1.0 0.0
1.0 0.0 1.0 0.0 1.0 0.0 1.0 0.0
1.0 0.0 1.0 0.0 1.0 0.0 1.0 0.0
1.0 0.0 1.0 0.0 1.0 0.0 1.0 0.0
1.0 0.0 1.0 0.0 1.0 0.0 1.0 0.0
1.0 0.0 1.0 0.0 1.0 0.0 1.0 0.0
1.0 0.0 1.0 0.0
00000000: 0000 803f 0000 0000 0000 803f 0000 0000
00000010: 0000 803f 0000 0000 0000 803f 0000 0000
00000020: 0000 803f 0000 0000 0000 803f 0000 0000
00000030: 0000 803f 0000 0000 0000 803f 0000 0000
00000040: 0000 803f 0000 0000 0000 803f 0000 0000
00000050: 0000 803f 0000 0000 0000 803f 0000 0000
00000060: 0000 803f 0000 0000 0000 803f 0000 0000
00000070: 0000 803f 0000 0000 0000 803f 0000 0000
00000080: 0000 803f 0000 0000 0000 803f 0000 0000
00000090: 0000 803f 0000 0000 0000 803f 0000 0000
000000a0: 0000 803f 0000 0000 0000 803f 0000 0000
000000b0: 0000 803f 0000 0000 0000 803f 0000 0000
000000c0: 0000 803f 0000 0000 0000 803f 0000 0000
000000d0: 0000 803f 0000 0000 0000 803f 0000 0000
000000e0: 0000 803f 0000 0000 0000 803f 0000 0000
000000f0: 0000 803f 0000 0000 0000 803f 0000 0000
00000100: 0000 803f 0000 0000 0000 803f 0000 0000
00000110: 0000 803f 0000 0000 0000 803f 0000 0000
00000120: 0000 803f 0000 0000 0000 803f 0000 0000
00000130: 0000 803f 0000 0000 0000 803f 0000 0000
00000140: 0000 803f 0000 0000 0000 803f 0000 0000
00000150: 0000 803f 0000 0000 0000 803f 0000 0000
00000160: 0000 803f 0000 0000 0000 803f 0000 0000
00000170: 0000 803f 0000 0000 0000 803f 0000 0000
00000180: 0000 803f 0000 0000 0000 803f 0000 0000

weight f4 [50, 2]
-0.6233303 0.5422442 0.47325826 0.6247434 0.14149798 0.25290138 0.26233938 0.5387847
-0.345385 -0.15143314 0.3203782 -0.54987437 0.03785512 0.32080996 -0.7820278 -0.18767585
0.105435684 -0.3540468 -0.032356206 0.28596017 0.35163286 -0.34682983 0.7094835 0.39678562
-0.14759716 0.36874014 -0.8348049 0.43969098 0.0034795355 0.20729855 -0.106664345 -0.19747233
-0.69884586 0.20164637 -0.49296704 0.36254883 -0.3716956 0.10199322 0.03361464 0.45731705
0.19098067 -0.4815593 0.22711115 0.049037665 0.57933605 -0.4799225 0.57868767 -0.3979424
-0.26311997 -0.48275664 -0.09589595 -0.3115284 0.16558817 -0.43577713 0.63939196 -0.65134346
-0.45076182 0.68025565 0.41386306 -0.45015272 0.04147325 0.5641344 0.6227643 0.33872432
0.3094178 -0.2514005 0.57639986 0.528533 0.86366194 0.44631073 -0.5717026 0.017213231
0.28623626 0.15405019 0.6721801 -0.21425936 0.6407399 0.39284104 -0.0033175107 0.13735895
0.46844313 0.4553025 0.0831854 0.35344973 -0.016638998 0.058556866 0.65553445 -0.35988662
-0.46116045 0.1563053 0.7769386 -0.10686684 0.41902936 0.5739192 0.6198781 0.43198517
0.31580627 -0.2966922 0.32457742 -0.62216187
00000000: 9392 1fbf 84d0 0a3f e84e f23e 2fef 1f3f
00000010: d9e4 103e 4a7c 813e 5951 863e cbed 093f
00000020: 4dd6 b0be 4a11 1bbe 9d08 a43e 91c4 0cbf
00000030: f80d 1b3d 3441 a43e f932 48bf 192e 40be
00000040: aaee d73d 9f45 b5be f187 04bd 5f69 923e
00000050: 3909 b43e ae93 b1be b6a0 353f 7c27 cb3e
00000060: b623 17be 82cb bc3e c6b5 55bf 2d1f e13e
00000070: eb08 643b 1246 543e d672 dabd 3036 4abe
00000080: 90e7 32bf 637c 4e3e 2d66 fcbe 00a0 b93e
00000090: e34e bebe d2e1 d03d 81af 093d 7625 ea3e
000000a0: 7090 433e f18e f6be d38f 683e b8db 483d
000000b0: 5e4f 143f 67b8 f5be e024 143f 1bbf cbbe
000000c0: a9b7 86be e12b f7be 1965 c4bd a780 9fbe
000000d0: f28f 293e 2e1e dfbe 31af 233f 72be 26bf
000000e0: 41ca e6be 3c25 2e3f dce5 d33e 6b7a e6be
000000f0: dbdf 293d 1d6b 103f 7b6d 1f3f 466d ad3e
00000100: 036c 9e3e 91b7 80be f18e 133f f04d 073f
00000110: f318 5d3f d782 e43e 1a5b 12bf c302 8d3c
00000120: 8f8d 923e 55bf 1d3e ff13 2c3f ce66 5bbe
00000130: 8807 243f 7622 c93e 986a 59bb d3a7 0c3e
00000140: c7d7 ef3e 691d e93e 1b5d aa3d 5df7 b43e
00000150: 824e 88bc 53d9 6f3d 1bd1 273f 0f43 b8be
00000160: 391d ecbe 7f0e 203e 73e5 463f 00dd dabd
00000170: 048b d63e 5eec 123f 55b0 1e3f 292d dd3e
00000180: 5cb1 a13e 0ae8 97be 032f a63e 0046 1fbf

bias f4 [50]
0.68591464 0.27547482 0.14615217 -0.45773724 0.14754222 -0.28821775 -0.56095946 0.070046134
0.4074725 -0.34316266 -0.29350477 0.6604767 -0.6983919 0.5322064 0.4487222 -0.33651426
-0.46712095 -0.13389076 -0.18246782 0.07175648 0.64562446 0.16446392 0.56866485 0.16262957
-0.4875609 0.5057537 0.16483234 -0.7532778 0.5602903 -0.09676108 0.28256255 -0.74693984
-0.2635298 0.38403308 0.21093582 -0.58738035 0.20817417 0.7022573 -0.5429015 -0.27351892
0.73021996 0.14111184 -0.07656488 0.70251244 0.4474742 -0.45183676 0.3869264 -0.51719606
0.114250295 -0.45755365
00000000: 1a98 2f3f 090b 8d3e eaa8 153e 895c eabe
00000010: 4f15 173e 4791 93be 0a9b 0fbf 5974 8f3d
00000020: 3ca0 d03e 04b3 afbe 4246 96be 0015 293f
00000030: d0c9 32bf ae3e 083f ebbe e53e 994b acbe
00000040: 7a2a efbe a91a 09be d8d8 3abe 10f5 923d
00000050: a547 253f 3b69 283e 0594 113f 5e88 263e
00000060: 95a1 f9be 1379 013f cfc9 283e d0d6 40bf
00000070: 2f6f 0f3f ac2a c6bd 0aac 903e 7337 3fbf
00000080: 61ed 86be fc9f c43e 8fff 573e 8f5e 16bf
00000090: 9c2b 553e 22c7 333f 98fb 0abf ac0a 8cbe
000000a0: b2ef 3a3f 9f7f 103e 0cce 9cbd dbd7 333f
000000b0: 571b e53e 2657 e7be 381b c63e f666 04bf
000000c0: 0ffc e93d 7944 eabe
