03b/GPS_1256775418/model_ai_seed_5678.pth (torch, 278418 bytes, 76 tensors)

_shift f4 [2]
2.603239 -1.7488644
00000000: 789b 2640 cada dfbf

_scale f4 [2]
0.17354907 3.4710941
00000000: d9b6 313e 6826 5e40

weight f4 [50, 2]
-0.48327082 -0.27024078 -0.57912344 0.4483587 0.34678513 -0.34888157 0.3921373 -0.58859104
-0.91844994 -0.17320257 -0.6872115 -0.39625734 0.5588999 0.5909303 -0.6298553 0.43962115
-0.40016502 0.36823624 -0.4587475 0.2168178 0.8474876 0.42316502 -0.2647337 0.5337052
0.16614547 0.4529596 -0.29390326 -0.21362028 0.66210616 0.65023583 0.002444182 0.22613579
0.16935022 -0.15664339 -0.68401617 -0.15323961 -0.27338386 -0.00037062168 0.17512155 -0.0068834424
0.08377596 -0.17536628 -0.0013106192 -0.053222477 0.34364986 -0.62965715 0.29363286 -0.5093741
0.23084073 -0.19586068 -0.20646177 0.44817585 0.6555756 0.54810244 0.40652665 0.36182863
0.5632612 0.33600146 0.21065538 0.09788835 0.7436067 -0.2568987 0.39032876 0.5892783
-0.7124486 -0.087127745 -0.012266331 -0.3779532 0.24703552 0.12420112 -0.52475923 -0.39960185
0.7063878 -0.010938108 -0.24779065 -0.42934647 -0.12423448 -0.3867753 0.71519643 -0.33370197
0.030468421 0.33719605 0.23208825 -0.4351356 0.01141216 0.6003614 -0.33860782 -0.63645095
0.6075069 -0.3048967 0.40340602 -0.46516448 0.51366925 0.564354 0.7619406 0.5553743
-0.3632277 0.62005156 -0.67458266 -0.0955078
00000000: 466f f7be 005d 8abe 6f41 14bf 468f e53e
00000010: d28d b13e 9ba0 b2be 38c6 c83e e7ad 16bf
00000020: 891f 6bbf 045c 31be 18ed 2fbf 3ee2 cabe
00000030: 1014 0f3f 3547 173f 323e 21bf 0616 e13e
00000040: 6ee2 ccbe 7689 bc3e f4e0 eabe 7c05 5e3e
00000050: f3f4 583f 16a9 d83e 2d8b 87be e7a0 083f
00000060: 0a22 2a3e 52ea e73e 7d7a 96be 46bf 5abe
00000070: ca7f 293f db75 263f 922e 203b 2490 673e
00000080: 256a 2d3e 2067 20be af1b 2fbf d8ea 1cbe
00000090: f8f8 8bbe 0050 c2b9 1053 333e 808e e1bb
000000a0: bb92 ab3d 3893 33be 15c9 abba d0ff 59bd
000000b0: e0f2 af3e 3631 21bf 0c57 963e 5766 02bf
000000c0: 8361 6c3e b48f 48be b76a 53be 4e77 e53e
000000d0: cdd3 273f 7150 0c3f 4324 d03e 9a41 b93e
000000e0: e331 103f 6208 ac3e 0bb6 573e b079 c83d
000000f0: 025d 3e3f 3a88 83be 2cd9 c73e f1da 163f
00000100: 0863 36bf 0870 b2bd b9f8 48bc 1583 c1be
00000110: e1f6 7c3e 285d fe3d 9f56 06bf 9d98 ccbe
00000120: d5d5 343f c035 33bc d5bc 7dbe 4dd3 dbbe
00000130: a66e febd 6a07 c6be 1d17 373f fcda aabe
00000140: e998 f93c f6a4 ac3e 8ba8 6d3e 18ca debe
00000150: 11fa 3a3c 49b1 193f 015e adbe 73ee 22bf
00000160: 9285 1b3f 6c1b 9cbe 3c8b ce3e 0a2a eebe
00000170: d47f 033f 8179 103f 8a0e 433f 032d 0e3f
00000180: fbf8 b9be b3bb 1e3f 73b1 2cbf 9899 c3bd

bias f4 [50]
-0.5708312 0.12007589 -0.545367 0.61092466 0.22259954 0.02967191 0.415867 -0.64951587
0.25707674 0.0027829702 0.08140735 -0.29302526 -0.51410854 0.003707746 -0.11508937 0.22485776
0.52780974 -0.49387378 0.2041313 -0.6644889 -0.13808833 0.6897144 0.08474511 -0.057361625
-0.04979371 -0.68865013 0.49058354 -0.6310579 0.4992315 0.5573056 0.3819965 0.3057005
0.35125518 0.3088994 0.421432 -0.33388957 -0.5302126 0.6314296 -0.28732502 -0.6380438
-0.14020424 0.08256061 0.3563956 0.071196616 -0.6079159 0.45842075 0.17735045 -0.3587728
0.43637437 -0.14218155
00000000: fe21 12bf 59ea f53d 2c9d 0bbf 8f65 1c3f
00000010: 22f1 633e 8112 f33c 85ec d43e ac46 26bf
00000020: 909f 833e 7e62 363b e6b8 a63d 6807 96be
00000030: 9e9c 03bf a8fd 723b fab3 ebbd 1d41 663e
00000040: 8a1e 073f 06dd fcbe cc07 513e f21b 2abf
00000050: 0767 0dbe 1f91 303f d88e ad3d 06f4 6abd
00000060: 7df4 4bbd 604b 30bf c42d fb3e 038d 21bf
00000070: 459b ff3e 94ab 0e3f 0c95 c33e c784 9c3e
00000080: b8d7 b33e 1028 9e3e efc5 d73e 93f3 aabe
00000090: 03bc 07bf 5fa5 213f 441c 93be d756 23bf
000000a0: b391 0fbe 8915 a93d 7c79 b63e 88cf 913d
000000b0: 60a0 1bbf 20b6 ea3e 5b9b 353e 12b1 b7be
000000c0: 766c df3e 0a98 11be

mask f4 [50, 2]
1.0 0.0 1.0 0.0 1.0 0.0 1.0 0.0
1.0 0.0 1.0 0.0 1.0 0.0 1.0 0.0
1.0 0.0 1.0 0.0 1.0 0.0 1.0 0.0
1.0 0.0 1.0 0.0 1.0 0.0 1.0 0.0
1.0 0.0 1.0 0.0 1.0 0.0 1.0 0.0
1.0 0.0 1.0 0.0 1.0 0.0 1.0 0.0
1.0 0.0 1.0 0.0 1.0 0.0 1.0 0.0
1.0 0.0 1.0 0.0 1.0 0.0 1.0 0.0
1.0 0.0 1.0 0.0 1.0 0.0 1.0 0.0
1.0 0.0 1.0 0.0 1.0 0.0 1.0 0.0
1.0 0.0 1.0 0.0 1.0 0.0 1.0 0.0
1.0 0.0 1.0 0.0 1.0 0.0 1.0 0.0
1.0 0.0 1.0 0.0
00000000: 0000 803f 0000 0000 0000 803f 0000 0000
00000010: 0000 803f 0000 0000 0000 803f 0000 0000
00000020: 0000 803f 0000 0000 0000 803f 0000 0000
00000030: 0000 803f 0000 0000 0000 803f 0000 0000
00000040: 0000 803f 0000 0000 0000 803f 0000 0000
00000050: 0000 803f 0000 0000 0000 803f 0000 0000
00000060: 0000 803f 0000 0000 0000 803f 0000 0000
00000070: 0000 803f 0000 0000 0000 803f 0000 0000
00000080: 0000 803f 0000 0000 0000 803f 0000 0000
00000090: 0000 803f 0000 0000 0000 803f 0000 0000
000000a0: 0000 803f 0000 0000 0000 803f 0000 0000
000000b0: 0000 803f 0000 0000 0000 803f 0000 0000
000000c0: 0000 803f 0000 0000 0000 803f 0000 0000
000000d0: 0000 803f 0000 0000 0000 803f 0000 0000
000000e0: 0000 803f 0000 0000 0000 803f 0000 0000
000000f0: 0000 803f 0000 0000 0000 803f 0000 0000
00000100: 0000 803f 0000 0000 0000 803f 0000 0000
00000110: 0000 803f 0000 0000 0000 803f 0000 0000
00000120: 0000 803f 0000 0000 0000 803f 0000 0000
00000130: 0000 803f 0000 0000 0000 803f 0000 0000
00000140: 0000 803f 0000 0000 0000 803f 0000 0000
00000150: 0000 803f 0000 0000 0000 803f 0000 0000
00000160: 0000 803f 0000 0000 0000 803f 0000 0000
00000170: 0000 803f 0000 0000 0000 803f 0000 0000
00000180: 0000 803f 0000 0000 0000 803f 0000 0000

weight f4 [50, 4]
0.5331175 -0.027334724 -0.14674047 -0.2917976 -0.4612452 0.10286601 -0.104939386 0.21607077
-0.41044563 -0.40263993 -0.22002956 -0.03139234 0.3449582 -0.1911408 -0.09561372 0.38878363
0.02975936 0.032042813 0.020883864 0.14831978 0.2927681 -0.017731952 0.5902197 0.40135315
-0.3097213 0.5695762 -0.029924447 0.064454846 -0.29263562 0.15879098 -0.012763925 0.15556979
-0.43621036 -0.019727364 0.43760502 -0.23637258 0.28961712 0.4822772 0.13771231 0.20947516
0.477204 0.113828376 0.049116116 -0.39688128 0.45651785 0.2207374 0.6622208 0.4113604
-0.11007045 -0.056621846 -0.22658998 0.19756092 0.22732851 0.08163051 0.066369385 0.30167255
0.31218085 -0.1130122 0.03273318 -0.40379298 0.3684176 -0.31222063 0.33737716 -0.16206254
-0.19794661 -0.27015793 -0.14094123 0.18462491 -0.13934973 0.20291546 -0.2090349 -0.23450366
0.40821674 -0.10151319 -0.056460373 0.049691122 -0.41403097 -0.0915701 -0.06355732 -0.086090185
-0.16057897 0.84250176 0.23814037 0.01751517 0.16767469 -0.69008005 -0.38097793 0.41288042
0.08277486 0.06005744 -0.040520616 0.1416301 -0.5417641 -0.02682223 -0.0055511533 -0.2531913
-0.09130897 -0.27860898 0.14235628 -0.21168052 -0.05686654 0.53611225 0.115655236 0.118038096
-0.07757705 -0.3600767 0.14108683 -0.37116426 -0.40797916 -0.114438824 -0.16382787 -0.37174702
0.32162505 -0.41784695 0.021055719 0.20474975 0.025123455 0.6008535 0.42139715 0.18560405
0.5140343 0.043309752 -0.10007673 0.20046566 0.05747113 0.2323466 0.18587637 0.02679792
-0.07084431 -0.06385571 0.2066317 -0.018581295 -0.15044384 0.053191233 0.20417374 -0.4076621
-0.17753187 -0.60889393 0.4522566 -0.45778236 -0.18729265 0.21134032 -0.25704953 0.22892481
-0.61578405 0.04552355 -0.12035686 0.42693764 -0.026697982 0.5464935 0.18400145 -0.15534227
-0.3779587 -0.45121303 0.14447407 -0.24259822 0.036696877 -0.28592378 0.16378668 -0.425602
0.5647015 0.23264204 -0.08953428 0.091253996 0.1475649 -0.39564666 -0.49540305 0.3034218
0.07981644 -0.35133433 0.22186011 -0.07023703 0.0103905555 -0.2122657 -0.14258042 0.18413912
-0.29648814 0.744203 0.48253408 -0.34234518 -0.37475288 0.13665377 0.12995283 -0.3234725
0.2641222 0.06437976 -0.015426894 0.39151388 0.49563107 0.046050683 -0.436909 -0.16371332
0.14658403 0.9277617 -0.1823057 -0.4874286 0.42345235 -0.41757357 0.1488732 0.15567054
00000000: 637a 083f 12ed dfbc 2243 16be 7f66 95be
00000010: 5528 ecbe 6aab d23d 76ea d6bd a841 5d3e
00000020: ee25 d2be d226 cebe 6e4f 61be 4195 00bd
00000030: 5c9e b03e 6aba 43be 20d1 c3bd a60e c73e
00000040: e7c9 f33c 533f 033d a314 ab3c 24e1 173e
00000050: b3e5 953e 9942 91bc a318 173f 297e cd3e
00000060: ca93 9ebe bfcf 113f 1d24 f5bc e700 843d
00000070: 56d4 95be 1a9a 223e c81f 51bc b04d 1f3e
00000080: f756 dfbe 489b a1bc c40d e03e a70b 72be
00000090: b248 943e 0aed f63e 7504 0d3e a880 563e
000000a0: 1554 f43e da1e e93d fb2d 493d 0634 cbbe
000000b0: b5bc e93e fc08 623e 4d87 293f d59d d23e
000000c0: 9e6c e1bd 4fec 67bd 3407 68be 694d 4a3e
000000d0: cec8 683e e62d a73d acec 873d d374 9a3e
000000e0: 2bd6 9f3e f172 e7bd 3a13 063d f4bd cebe
000000f0: 3ba1 bc3e 62db 9fbe b3bc ac3e b9f3 25be
00000100: 84b2 4abe 2452 8abe e652 10be 500e 3d3e
00000110: b2b1 0ebe 12c9 4f3e 3f0d 56be ba21 70be
00000120: c901 d13e 26e6 cfbd fe42 67bd eb88 4b3d
00000130: defb d3be 1b89 bbbd 572a 82bd 0d50 b0bd
00000140: d06e 24be 32ae 573f 12db 733e f97b 8f3c
00000150: eab2 2b3e 16a9 30bf 8a0f c3be 1065 d33e
00000160: de85 a93d cafe 753d f2f8 25bd 7b07 113e
00000170: 0db1 0abf 4bba dbbc 73e6 b5bb 4aa2 81be
00000180: 3200 bbbd d6a5 8ebe d8c5 113e c7c2 58be
00000190: e4ec 68bd a73e 093f a7dc ec3d f5bd f13d
000001a0: b7e0 9ebd f95b b8be 1179 103e 3e09 bebe
000001b0: a5e2 d0be e75e eabd 7ec2 27be a055 bebe
000001c0: 0aac a43e 09f0 d5be 0b7d ac3c eba9 513e
000001d0: b4cf cd3c 89d1 193f 5ec1 d73e fd0e 3e3e
000001e0: c097 033f 9165 313d 07f5 ccbd df46 4d3e
000001f0: d966 6b3d 44ec 6d3e 6056 3e3e 5087 db3c
00000200: d216 91bd c8c6 82bd 4397 533e cd37 98bc
00000210: f30d 1abe 0ddf 593d ec12 513e 16b9 d0be
00000220: eaca 35be 79e0 1bbf 2d8e e73e 7362 eabe
00000230: a5c9 3fbe 9969 583e ff9b 83be 446b 6a3e
00000240: 06a4 1dbf e776 3a3d a87d f6bd 9297 da3e
00000250: bab5 dabc ffe6 0b3f e06a 3c3e 0b12 1fbe
00000260: cd83 c1be 6505 e7be 03f1 133e ab6b 78be
00000270: 774f 163d 9a64 92be b2b7 273e 81e8 d9be
00000280: 4790 103f b739 6e3e c05d b7bd 60e3 ba3d
00000290: 411b 173e 3392 cabe 78a5 fdbe 1a5a 9b3e
000002a0: cd76 a33d 18e2 b3be 4c2f 633e 6fd8 8fbd
000002b0: 263d 2a3c 2e5c 59be 9a00 12be f78e 3c3e
000002c0: 4bcd 97be 1684 3e3f b50e f73e de47 afbe
000002d0: 9cdf bfbe f7ee 0b3e 5b12 053e 309e a5be
000002e0: 063b 873e 89d9 833d 15c1 7cbc 8274 c83e
000002f0: 5bc3 fd3e a49f 3c3d 89b2 dfbe 77a4 27be
00000300: 201a 163e ca81 6d3f 58ae 3abe 3e90 f9be
00000310: bfce d83e 34cc d5be 3772 183e 1968 1f3e

bias f4 [50]
-0.025181359 -0.31039795 0.50855595 0.16616933 0.6513738 0.4353389 -0.41231948 0.27362913
0.016187456 -0.28438938 0.3588326 0.12901025 0.57135457 -0.2530922 -0.44480976 -0.28739774
-0.10250558 -0.18813963 0.2204288 -0.46042114 0.4771858 0.27161887 -0.25067118 -0.37374753
0.09404559 0.034553193 0.23624074 0.108971685 0.5265395 -0.038057845 0.30248186 0.4225609
0.10606323 -0.36385283 0.12541199 -0.37618387 -0.44805998 0.43506375 0.2707008 0.15367724
-0.1714393 0.20233798 0.0794636 -0.25871715 -0.024501372 -0.12573239 0.39040616 -0.52131057
0.15389547 -0.42414346
00000000: 2349 cebc 7bec 9ebe b930 023f 4b28 2a3e
00000010: 6fc0 263f bee4 de3e 8a1b d3be 1e19 8c3e
00000020: 8e9b 843c 7c9b 91be e8b8 b73e 431b 043e
00000030: 4b44 123f 4d95 81be 1bbe e3be cc25 93be
00000040: 72ee d1bd ada7 40be 16b8 613e 52bc ebbe
00000050: b251 f43e a111 8b3e f957 80be d65b bfbe
00000060: f99a c03d a687 0d3d 18e9 713e 8c2c df3d
00000070: 4bcb 063f 8be2 1bbd e7de 9a3e e759 d83e
00000080: ae37 d93d eb4a babe 006c 003e 2c9b c0be
00000090: 1e68 e5be adc0 de3e 4c99 8a3e 915d 1d3e
000000a0: c98d 2fbe b031 4f3e d0bd a23d 9376 84be
000000b0: 1ab7 c8bc febf 00be 51e3 c73e 9c74 05bf
000000c0: c696 1d3e 5529 d9be

weight f4 [50, 50]
-0.046234258 0.011806024 -0.10640143 0.02092224 -0.13688573 -0.12290439 -0.15560608 0.06301527
-0.07158485 -0.054021873 -0.08924628 0.05766043 0.055451356 -0.103706524 0.17463328 -0.07955991
0.14978305 0.09417861 -0.17024285 -0.04411982 -0.014161291 0.041084193 -0.028818721 0.023458084
0.10770923 -0.081682004 0.097019576 -0.05859529 -0.01864853 0.1355011 -0.15020975 -0.14180468
-0.17547578 0.07966185 0.07206035 -0.050639372 0.021585621 -0.06311754 -0.12520723 0.0142588755
0.13316111 0.037186585 -0.09301321 -0.111486055 -0.07345208 -0.06897548 0.079435565 0.027231112
0.15004136 0.14921308 -0.015634995 -0.1683357 0.0559968 0.1128413 0.12630351 0.12121898
-0.064716116 -0.062165063 0.12263439 0.0926018 -0.080647096 0.102110706 0.09715493 0.07145153
-0.06084515 -0.06386385 0.045186833 0.020082917 -0.039213 0.04420804 -0.12020811 0.055186883
-0.031773616 -0.16511083 0.09155611 0.113657326 0.07295303 0.092162296 -0.04465403 -0.11083097
0.054993782 0.029832095 0.011794365 -0.052899618 0.005332398 -0.13783172 -0.08037427 -0.11934725
0.0844309 -0.1668946 -0.02579504 -0.09587204 -0.07219768 -0.0014720056 0.2146673 -0.10481618
0.06859675 -0.1729823 -0.048099738 -0.15897706 0.09734756 0.025272893 0.05288672 -0.028915368
-0.095695004 -0.09394252 -0.06705264 0.09913216 0.09430687 0.06876937 0.079722464 0.0020488251
-0.047073014 -0.016934797 -0.07446617 -0.039473508 0.0026342697 0.081914224 0.04797464 -0.11216813
0.14675865 0.010838777 0.012647055 0.14666772 -0.06932837 -0.13013485 0.02106558 0.10471583
-0.07722392 0.10628324 0.0712486 0.003568846 -0.031545814 0.07487459 0.09237974 -0.10907169
0.16489348 -0.07395987 -0.08891524 0.037098296 0.13510416 -0.05047308 0.120916456 0.029153062
-0.088157915 -0.100452 0.10937683 0.13098103 -0.069366895 0.09709874 0.17969441 0.13777032
-0.12255848 0.039776288 -0.1383099 0.012543037 -0.036374435 -0.007417163 -0.13655078 -0.101218835
-0.09308428 -0.057715658 0.11112857 0.03549656 0.1288347 0.062268488 0.112696216 -0.08496999
-0.102150075 0.15435046 0.14523582 0.040565297 -0.03067727 0.067037426 0.038823836 -0.12540619
0.07171447 -0.06291335 -0.05617227 0.017277136 0.04002304 0.10867493 -0.112807736 0.06413156
0.002387482 0.026016459 0.07270307 0.008751636 0.11293161 -0.086251594 0.05759257 -0.04670367
-0.021217462 -0.105920345 -0.050724592 -0.12199368 0.07168362 0.10834942 0.1250424 0.08362322
0.14690606 -0.033214446 -0.12736914 0.065765105 -0.042246085 -0.12407899 -0.15169731 -0.1215309
0.083529845 0.11590539 0.020196727 -0.025703218 0.048574742 0.05464854 0.035741575 -0.059509587
0.04488833 0.07805351 -0.0448146 -0.0616694 0.14478454 -0.053984366 0.16363846 0.15288453
0.16184206 0.015663002 0.03047461 0.05122993 0.040533744 0.08928204 -0.071477324 0.0072131613
-0.04556485 0.05569505 0.054008152 -0.12033878 0.2263027 -0.09496278 -0.01523034 0.04979872
0.0976848 0.09216297 0.1548691 0.051906995 -0.100705475 -0.13957974 -0.13192597 0.15545039
0.09918992 0.091583155 -0.22114259 0.025884768 0.015894426 0.067450434 0.096845105 0.076187335
00000000: 2260 3dbd 0e6e 413c fee8 d9bd 1e65 ab3c
00000010: c62b 0cbe 4cb5 fbbd 3357 1fbe 260e 813d
00000020: 149b 92bd 0a46 5dbd c1c6 b6bd 582d 6c3d
00000030: f620 633d 1664 d4bd 11d3 323e 4ef0 a2bd
00000040: ba60 193e b7e0 c03d 2454 2ebe fcb6 34bd
00000050: c204 68bc e647 283d 3d15 ecbc 2b2b c03c
00000060: a896 dc3d e548 a7bd 33b2 c63d 9d01 70bd
00000070: cdc4 98bc cdc0 0a3e 96d0 19be 3f35 11be
00000080: ecaf 33be c125 a33d 6094 933d 3b6b 4fbd
00000090: 54d4 b03c c543 81bd 5336 00be 0f9e 693c
000000a0: 635b 083e f650 183d b67d bebd cd52 e4bd
000000b0: 0b6e 96bd 0443 8dbd 1daf a23d c813 df3c
000000c0: 71a4 193e 50cb 183e f614 80bc 3260 2cbe
000000d0: e75c 653d 5719 e73d b555 013e a841 f83d
000000e0: e289 84bd cba0 7ebd bd27 fb3d 03a6 bd3d
000000f0: 4e2a a5bd 6b1f d13d 2af9 c63d 2e55 923d
00000100: c438 79bd 0dcb 82bd d415 393d ee84 a43c
00000110: d09d 20bd 7d13 353d ab2f f6bd a40b 623d
00000120: 0d25 02bd d012 29be c581 bb3d 2cc5 e83d
00000130: 6668 953d 96bf bc3d 25e7 36bd 59fb e2bd
00000140: 2941 613d 7062 f43c 273d 413c 45ad 58bd
00000150: 66bb ae3b c223 0dbe 449b a4bd 556c f4bd
00000160: 1cea ac3d 6be6 2abe 1f50 d3bc 8f58 c4bd
00000170: 61dc 93bd 50f0 c0ba bfd1 5b3e dea9 d6bd
00000180: 747c 8c3d 4622 31be 3b04 45bd e2ca 22be
00000190: 285e c73d 1909 cf3c bf9f 583d ecdf ecbc
000001a0: befb c3bd f064 c0bd e552 89bd cd05 cb3d
000001b0: f623 c13d f5d6 8c3d 8845 a33d 9545 063b
000001c0: a2cf 40bd d8ba 8abc b881 98bd f9ae 21bd
000001d0: b6a3 2c3b a5c2 a73d 0e81 443d 68b8 e5bd
000001e0: e647 163e 2095 313c 9835 4f3c 1030 163e
000001f0: 08fc 8dbd 1242 05be b991 ac3c 4175 d63d
00000200: 9327 9ebd 07ab d93d c9ea 913d 4de3 693b
00000210: 2f36 01bd d957 993d 9731 bd3d fa60 dfbd
00000220: d6d9 283e 4678 97bd 3119 b6bd 62f4 173d
00000230: bf58 0a3e dcbc 4ebd 0ca3 f73d 67d2 ee3c
00000240: 238c b4bd c7b9 cdbd f600 e03d e41f 063e
00000250: 3b10 8ebd b4db c63d d001 383e aa13 0d3e
00000260: f1ff fabd 76ec 223d 1ca1 0dbe 4f81 4d3c
00000270: 5cfd 14bd ac0b f3bb f8d3 0bbe d24b cfbd
00000280: f9a2 bebd 4167 6cbd 6097 e33d d764 113d
00000290: 3eed 033e 3e0d 7f3d 46cd e63d bf04 aebd
000002a0: 0f34 d1bd 0c0e 1e3e b3b8 143e cc27 263d
000002b0: e64e fbbc eb4a 893d be05 1f3d 7b6a 00be
000002c0: 09df 923d b7d8 80bd e514 66bd c888 8d3c
000002d0: 33ef 233d f690 de3d be07 e7bd 6857 833d
000002e0: 4d77 1c3b 7820 d53c 59e5 943d 0663 0f3c
000002f0: b048 e73d ada4 b0bd 30e6 6b3d 594c 3fbd
00000300: 3ed0 adbc c4ec d8bd 97c4 4fbd d3d7 f9bd
00000310: ddce 923d 4de6 dd3d 1d0b 003e a742 ab3d
00000320: 8b6e 163e df0b 08bd 0e6d 02be dbaf 863d
00000330: 3b0a 2dbd 201d febd 8a56 1bbe 31e5 f8bd
00000340: b211 ab3d ce5f ed3d 9b73 a53c 8e8f d2bc
00000350: 4ff6 463d 26d7 5f3d c265 123d 53c0 73bd
00000360: d3dc 373d 85da 9f3d 848f 37bd 0e99 7cbd
00000370: 6642 143e b61e 5dbd d790 273e c38d 1c3e
00000380: edb9 253e b24f 803c e4a5 f93c 7ad6 513d
00000390: b606 263d 81d9 b63d b462 92bd 625c ec3b
000003a0: 35a2 3abd 7e20 643d a737 5d3d 2e74 f6bd
000003b0: e5bb 673e d97b c2bd ad88 79bc bef9 4b3d
000003c0: f80e c83d f0bf bc3d 0196 1e3e 6e9c 543d
000003d0: ac3e cebd feed 0ebe 9a17 07be 632e 1f3e
000003e0: 1624 cb3d f38f bb3d 3473 62be 4b0c d43c
000003f0: 0735 823c 7423 8a3d ba56 c63d 1b08 9c3d

bias f4 [50]
0.0041465317 -0.09204329 0.044449 0.047357008 0.11739131 0.0007666687 0.059506804 -0.19592734
0.032700952 0.0645918 0.09465436 -0.041307777 -0.06660505 0.16787513 -0.027007021 0.044585515
-0.10241605 -0.0053947545 0.14279258 0.14832807 -0.0029457125 -0.00499528 0.15142937 -0.15671584
0.045689363 -0.11590503 -0.038711928 0.0085111465 -0.007984543 0.17903396 -0.14891712 0.02736712
-0.043580264 0.03366488 -0.14953336 0.14441255 0.006538374 -0.036365453 0.04089036 0.03370401
-0.1607967 0.14985475 0.011196598 0.12920633 0.01943581 0.086421356 -0.119689144 -0.1625863
-0.074121945 0.054080136
00000000: a1df 873b 3181 bcbd 2810 363d 6cf9 413d
00000010: db6a f03d 44fa 483a 68bd 733d 2da1 48be
00000020: 6ff1 053d b548 843d 25da c13d 5832 29bd
00000030: 3a68 88bd 75e7 2b3e d43d ddbc 4d9f 363d
00000040: 82bf d1bd 7bc6 b0bb 3838 123e 50e3 173e
00000050: db0c 41bb 72af a3bb 4d10 1b3e 1e7a 20be
00000060: c524 3b3d 9e5f edbd 6690 1ebd 5672 0b3c
00000070: 9ad1 02bc ae54 373e bb7d 18be 0331 e03c
00000080: 3881 32bd 2fe4 093d 461f 19be e2e0 133e
00000090: db3f d63b f1f3 14bd a67c 273d 370d 0a3d
000000a0: e4a7 24be 8673 193e f071 373c aa4e 043e
000000b0: d937 9f3c aefd b03d 951f f5bd 067d 26be
000000c0: 3fcd 97bd 2283 5d3d

mask f4 [50, 50]
1.0 1.0 1.0 1.0 1.0 1.0 1.0 1.0
1.0 1.0 1.0 1.0 1.0 1.0 1.0 1.0
1.0 1.0 1.0 1.0 1.0 1.0 1.0 1.0
1.0 1.0 1.0 1.0 1.0 1.0 1.0 1.0
1.0 1.0 1.0 1.0 1.0 1.0 1.0 1.0
1.0 1.0 1.0 1.0 1.0 1.0 1.0 1.0
1.0 1.0 1.0 1.0 1.0 1.0 1.0 1.0
1.0 1.0 1.0 1.0 1.0 1.0 1.0 1.0
1.0 1.0 1.0 1.0 1.0 1.0 1.0 1.0
1.0 1.0 1.0 1.0 1.0 1.0 1.0 1.0
1.0 1.0 1.0 1.0 1.0 1.0 1.0 1.0
1.0 1.0 1.0 1.0 1.0 1.0 1.0 1.0
1.0 1.0 1.0 1.0 1.0 1.0 1.0 1.0
1.0 1.0 1.0 1.0 1.0 1.0 1.0 1.0
1.0 1.0 1.0 1.0 1.0 1.0 1.0 1.0
1.0 1.0 1.0 1.0 1.0 1.0 1.0 1.0
1.0 1.0 1.0 1.0 1.0 1.0 1.0 1.0
1.0 1.0 1.0 1.0 1.0 1.0 1.0 1.0
1.0 1.0 1.0 1.0 1.0 1.0 1.0 1.0
1.0 1.0 1.0 1.0 1.0 1.0 1.0 1.0
1.0 1.0 1.0 1.0 1.0 1.0 1.0 1.0
1.0 1.0 1.0 1.0 1.0 1.0 1.0 1.0
1.0 1.0 1.0 1.0 1.0 1.0 1.0 1.0
1.0 1.0 1.0 1.0 1.0 1.0 1.0 1.0
1.0 1.0 1.0 1.0 1.0 1.0 1.0 1.0
1.0 1.0 1.0 1.0 1.0 1.0 1.0 1.0
1.0 1.0 1.0 1.0 1.0 1.0 1.0 1.0
1.0 1.0 1.0 1.0 1.0 1.0 1.0 1.0
1.0 1.0 1.0 1.0 1.0 1.0 1.0 1.0
1.0 1.0 1.0 1.0 1.0 1.0 1.0 1.0
1.0 1.0 1.0 1.0 1.0 1.0 1.0 1.0
1.0 1.0 1.0 1.0 1.0 1.0 1.0 1.0
00000000: 0000 803f 0000 803f 0000 803f 0000 803f
00000010: 0000 803f 0000 803f 0000 803f 0000 803f
00000020: 0000 803f 0000 803f 0000 803f 0000 803f
00000030: 0000 803f 0000 803f 0000 803f 0000 803f
00000040: 0000 803f 0000 803f 0000 803f 0000 803f
00000050: 0000 803f 0000 803f 0000 803f 0000 803f
00000060: 0000 803f 0000 803f 0000 803f 0000 803f
00000070: 0000 803f 0000 803f 0000 803f 0000 803f
00000080: 0000 803f 0000 803f 0000 803f 0000 803f
00000090: 0000 803f 0000 803f 0000 803f 0000 803f
000000a0: 0000 803f 0000 803f 0000 803f 0000 803f
000000b0: 0000 803f 0000 803f 0000 803f 0000 803f
000000c0: 0000 803f 0000 803f 0000 803f 0000 803f
000000d0: 0000 803f 0000 803f 0000 803f 0000 803f
000000e0: 0000 803f 0000 803f 0000 803f 0000 803f
000000f0: 0000 803f 0000 803f 0000 803f 0000 803f
00000100: 0000 803f 0000 803f 0000 803f 0000 803f
00000110: 0000 803f 0000 803f 0000 803f 0000 803f
00000120: 0000 803f 0000 803f 0000 803f 0000 803f
00000130: 0000 803f 0000 803f 0000 803f 0000 803f
00000140: 0000 803f 0000 803f 0000 803f 0000 803f
00000150: 0000 803f 0000 803f 0000 803f 0000 803f
00000160: 0000 803f 0000 803f 0000 803f 0000 803f
00000170: 0000 803f 0000 803f 0000 803f 0000 803f
00000180: 0000 803f 0000 803f 0000 803f 0000 803f
00000190: 0000 803f 0000 803f 0000 803f 0000 803f
000001a0: 0000 803f 0000 803f 0000 803f 0000 803f
000001b0: 0000 803f 0000 803f 0000 803f 0000 803f
000001c0: 0000 803f 0000 803f 0000 803f 0000 803f
000001d0: 0000 803f 0000 803f 0000 803f 0000 803f
000001e0: 0000 803f 0000 803f 0000 803f 0000 803f
000001f0: 0000 803f 0000 803f 0000 803f 0000 803f
00000200: 0000 803f 0000 803f 0000 803f 0000 803f
00000210: 0000 803f 0000 803f 0000 803f 0000 803f
00000220: 0000 803f 0000 803f 0000 803f 0000 803f
00000230: 0000 803f 0000 803f 0000 803f 0000 803f
00000240: 0000 803f 0000 803f 0000 803f 0000 803f
00000250: 0000 803f 0000 803f 0000 803f 0000 803f
00000260: 0000 803f 0000 803f 0000 803f 0000 803f
00000270: 0000 803f 0000 803f 0000 803f 0000 803f
00000280: 0000 803f 0000 803f 0000 803f 0000 803f
00000290: 0000 803f 0000 803f 0000 803f 0000 803f
000002a0: 0000 803f 0000 803f 0000 803f 0000 803f
000002b0: 0000 803f 0000 803f 0000 803f 0000 803f
000002c0: 0000 803f 0000 803f 0000 803f 0000 803f
000002d0: 0000 803f 0000 803f 0000 803f 0000 803f
000002e0: 0000 803f 0000 803f 0000 803f 0000 803f
000002f0: 0000 803f 0000 803f 0000 803f 0000 803f
00000300: 0000 803f 0000 803f 0000 803f 0000 803f
00000310: 0000 803f 0000 803f 0000 803f 0000 803f
00000320: 0000 803f 0000 803f 0000 803f 0000 803f
00000330: 0000 803f 0000 803f 0000 803f 0000 803f
00000340: 0000 803f 0000 803f 0000 803f 0000 803f
00000350: 0000 803f 0000 803f 0000 803f 0000 803f
00000360: 0000 803f 0000 803f 0000 803f 0000 803f
00000370: 0000 803f 0000 803f 0000 803f 0000 803f
00000380: 0000 803f 0000 803f 0000 803f 0000 803f
00000390: 0000 803f 0000 803f 0000 803f 0000 803f
000003a0: 0000 803f 0000 803f 0000 803f 0000 803f
000003b0: 0000 803f 0000 803f 0000 803f 0000 803f
000003c0: 0000 803f 0000 803f 0000 803f 0000 803f
000003d0: 0000 803f 0000 803f 0000 803f 0000 803f
000003e0: 0000 803f 0000 803f 0000 803f 0000 803f
000003f0: 0000 803f 0000 803f 0000 803f 0000 803f

weight f4 [50, 50]
-0.0063458043 -0.013980933 -0.10543193 -0.06091646 0.0062687034 -0.07236942 -0.03629293 0.19729696
0.18733811 0.00791499 0.0060579544 -0.1867472 -0.21339935 -0.083812736 0.008509963 0.08080131
-0.058768913 0.13479656 -0.13825142 0.030827153 0.14704478 0.069175184 -0.04103774 0.08143984
-0.0980755 -0.013498131 -0.11298366 0.17464484 -0.070666865 -0.20450427 0.03702643 0.019613676
0.01213782 -0.010640751 0.19921176 0.06492443 -0.032771595 -0.026058372 0.05675416 -0.025073493
-0.052147012 -0.16037211 -0.114811614 -0.07209056 0.047366843 0.09900636 0.04164263 -0.027693428
-0.14478554 0.076698236 0.0026716138 -0.098296024 0.06204098 0.13028507 0.20071277 0.15218566
0.06128418 0.024688529 0.12257756 -0.020251933 -0.015070352 0.15297218 0.12863272 0.092893034
0.07111594 -0.0045555853 -0.004455972 -0.026025834 -0.07522974 0.04903628 -0.036196318 0.083858676
0.079258434 0.22812569 0.028478717 -0.023514865 -0.011922608 -0.015292889 0.0056442735 0.09024255
-0.071629815 -0.14714272 -0.0025388154 -0.080918655 0.06838968 0.014082196 -0.10360025 0.029396309
0.014596919 -0.03870178 -0.14376582 -0.009158562 0.10878638 -0.098193154 -0.010806638 0.0028584304
-0.109213196 -0.100713275 -0.031784333 -0.14445896 -0.05593464 0.2148457 -0.1932989 -0.15384096
-0.11098902 0.08664014 -0.10228709 0.08836018 0.15208694 -0.086662695 -0.08020178 0.046997048
-0.06456434 -0.036196016 -0.071993336 -0.13027878 0.17707205 0.15088147 -0.09255956 -0.06842949
0.014210455 0.025454389 -0.13555948 -0.19390808 0.09957678 0.17589554 0.18266451 0.11042861
0.09394373 -0.025130564 0.047797635 0.119844116 -0.022919318 -0.08301341 0.14353903 -0.089311786
0.09400691 0.042342134 0.09838064 -0.009457813 0.14919244 0.055049878 0.14260799 -0.17154518
0.15997873 -0.039199397 0.035818677 0.077655636 -0.09103903 0.03930359 0.08542829 0.042359333
-0.037264157 -0.0001398378 0.0354508 0.088737614 0.03349947 0.0016702192 -0.0025933736 -0.08200474
-0.021080833 -0.014722615 -0.084835485 0.010932873 -0.12111679 0.09058807 -0.083184294 -0.026854504
0.042238563 -0.06208625 -0.1599923 0.035722803 -0.004441081 -0.093245156 0.026076159 0.021720778
-0.015319291 -0.069820225 0.008265947 -0.046173934 0.1259244 0.03879607 -0.19594437 -0.029084347
0.12704714 0.08240523 -0.04008571 0.051674034 0.081400886 0.105974495 0.044775195 0.0014218999
0.022969747 -0.102984205 -0.04289315 -0.08778463 0.1014565 0.11401976 -0.084753074 -0.008278867
-0.13003959 -3.4730205e-05 0.07560525 -0.106669724 -0.09681747 0.073900804 -0.078319594 -0.05172382
-0.054334927 0.029399265 -0.010414361 0.107940935 0.011956789 0.103246644 0.02593514 -0.04892349
0.15663357 -0.10238131 -0.084513 -0.097029164 -0.010531372 -0.06747814 -0.060448095 -0.0022901949
-0.10837425 -0.0152992075 -0.07080909 0.00683788 0.14002235 -0.09089604 0.08222807 -0.06069443
-0.0127302 0.08975114 0.03808832 -0.107798226 -0.085703544 -0.13225737 -0.083331496 -0.005315209
0.035169996 0.15416844 -0.055999763 0.045134462 0.17801125 0.06775019 0.20335338 0.04050913
-0.12654641 -0.028626584 -0.063243136 0.13550738 0.112855375 -0.06668503 0.020037917 -0.040477224
00000000: 77f0 cfbb 4910 65bc b2ec d7bd 8a83 79bd
00000010: b269 cd3b 6b36 94bd e5a7 14bd 3708 4a3e
00000020: 90d5 3f3e e0ad 013c ce81 c63b a83a 3fbe
00000030: 5c85 5abe 03a6 abbd 5f6d 0b3c 287b a53d
00000040: acb7 70bd 1c08 0a3e c891 0dbe 3a89 fc3c
00000050: e892 163e b8ab 8d3d 3017 28bd eec9 a63d
00000060: cfdb c8bd 4427 5dbc fa63 e7bd 19d6 323e
00000070: cab9 90bd 9169 51be 07a9 173d dcac a03c
00000080: b5dd 463c 8b56 2ebc 2bfe 4b3e 19f7 843d
00000090: 823b 06bd 5e78 d5bc 0d77 683d ed66 cdbc
000000a0: 1b98 55bd 9638 24be 5a22 ebbd 37a4 93bd
000000b0: bc03 423d d9c3 ca3d 7691 2a3d 54dd e2bc
000000c0: a942 14be f713 9d3d 3e16 2f3b 6d4f c9bd
000000d0: af1e 7e3d 7369 053e a687 4d3e 8fd6 1b3e
000000e0: 1f05 7b3d 993f ca3c f209 fb3d 62e7 a5bc
000000f0: a3e9 76bc bda4 1c3e 4cb8 033e b43e be3d
00000100: 3ca5 913d 0547 95bb 6703 92bb 2134 d5bc
00000110: 0d12 9abd 44da 483d 9742 14bd 19be ab3d
00000120: 3f52 a23d c899 693e 334c e93c 3fa2 c0bc
00000130: 0b57 43bc 078f 7abc 99f3 b83b 16d1 b83d
00000140: a7b2 92bd 95ac 16be 4162 26bb aeb8 a5bd
00000150: e30f 8c3d 03b9 663c 5e2c d4bd 87d0 f03c
00000160: ea27 6f3c c285 1ebd 5937 13be cb0d 16bc
00000170: 65cb de3d 7e19 c9bd 530e 31bc 8154 3b3b
00000180: 2bab dfbd c342 cebd 4a30 02bd 0ded 13be
00000190: b91b 65bd 8300 5c3e 26f0 45be 7c88 1dbe
000001a0: 364e e3bd 6370 b13d e57b d1bd 2ff6 b43d
000001b0: aebc 1b3e 367c b1bd d540 a4bd fa7f 403d
000001c0: 4f3a 84bd 4642 14bd 3e71 93bd cd67 05be
000001d0: 6052 353e ac80 1a3e de8f bdbd c324 8cbd
000001e0: f8d2 683c b985 d03c 1bd0 0abe d78f 46be
000001f0: e9ee cb3d f61d 343e 680c 3b3e 6528 e23d
00000200: 9265 c03d 9dde cdbc 74c7 433d d570 f53d
00000210: 4bc1 bbbc ef02 aabd e5fb 123e 19e9 b6bd
00000220: b286 c03d f26e 2d3d ca7b c93d f1f4 1abc
00000230: e7c5 183e fb7b 613d d407 123e 8aa9 2fbe
00000240: 77d1 233e 8c8f 20bd 9bb6 123d eb09 9f3d
00000250: ac72 babd cdfc 203d 07f5 ae3d fb80 2d3d
00000260: 4da2 18bd 6ca1 12b9 dc34 113d 11bc b53d
00000270: be36 093d 42eb da3a 97f5 29bb 1af2 a7bd
00000280: b6b1 acbc 1f37 71bc 3abe adbd cb1f 333c
00000290: 140c f8bd 3d86 b93d 875c aabd fafd dbbc
000002a0: 5802 2d3d 274e 7ebd 06d5 23be 1352 123d
000002b0: 7d86 91bb 51f7 bebd ab9d d53c c6ef b13c
000002c0: c3fd 7abc e8fd 8ebd e56d 073c e120 3dbd
000002d0: 53f2 003e a1e8 1e3d a4a5 48be 4c42 eebc
000002e0: a518 023e 13c4 a83d ea30 24bd 27a8 533d
000002f0: 82b5 a63d 2809 d93d 3266 373d 0b5f ba3a
00000300: 0d2b bc3c 62e9 d2bd bab0 2fbd 6ec8 b3bd
00000310: 6dc8 cf3d 3183 e93d 0593 adbd 16a4 07bc
00000320: 1929 05be 46ab 11b8 edd6 9a3d a875 dabd
00000330: 3d48 c6bd 4e59 973d 0666 a0bd 5bdc 53bd
00000340: 4d8e 5ebd bad6 f03c ffa0 2abc 2310 dd3d
00000350: 68e6 433c fa72 d33d ee75 d43c ff63 48bd
00000360: 8d64 203e 4bad d1bd 2715 adbd 3ab7 c6bd
00000370: c78b 2cbc fb31 8abd 6c98 77bd 1817 16bb
00000380: 52f3 ddbd 87a9 7abc 5b04 91bd 4b10 e03b
00000390: 0562 0f3e b427 babd 3167 a83d b99a 78bd
000003a0: 5492 50bc 72cf b73d 8002 1c3d 51c5 dcbd
000003b0: 5785 afbd 7a6e 07be b4a9 aabd 342b aebb
000003c0: 6a0e 103d 55de 1d3e 0260 65bd eade 383d
000003d0: 9548 363e 9dc0 8a3d de3b 503e e7ec 253d
000003e0: 6295 01be 4c82 eabc 9e85 81bd 72c2 0a3e
000003f0: b820 e73d 2992 88bd 8f26 a43c 72cb 25bd

bias f4 [50]
-0.1832725 -0.1045092 0.015924925 -0.15908362 -0.120080195 -0.14884919 -0.045841664 -0.039133616
-0.06110129 0.0888976 -0.02421966 -0.17605278 -0.1348264 0.11327794 0.0183679 0.021781715
-0.022766022 -0.06711707 -0.06759883 0.17220002 0.0182937 -0.17720033 0.05891848 0.0020106707
0.1115337 0.17084251 -0.1384151 0.07561767 0.10241728 0.07633315 -0.10079856 0.057466384
-0.09868674 -0.060338594 -0.04000326 -0.026744505 0.0031009095 0.17920737 -0.17954874 -0.059075966
0.13188677 0.10576778 -0.08788671 -0.13626863 -0.041474596 0.071284704 0.10362365 -0.062283415
-0.14820991 -0.08219686
00000000: c9ab 3bbe eb08 d6bd fd74 823c d1e6 22be
00000010: 9bec f5bd ec6b 18be 78c4 3bbd 924a 20bd
00000020: 5945 7abd f20f b63d 4f68 c6bc 2e47 34be
00000030: ef0f 0abe 44fe e73d 4778 963c 916f b23c
00000040: cf7f babc ad74 89bd 4171 8abd 3455 303e
00000050: abdc 953c 0174 35be 8154 713d 75c5 033b
00000060: c86b e43d 57f1 2e3e b0bc 0dbe 70dd 9a3d
00000070: 27c0 d13d 8e54 9c3d 7a6f cebd df61 6b3d
00000080: 461c cabd 9a25 77bd 75da 23bd 4b17 dbbc
00000090: a138 4b3b 2382 373e a0db 37be a4f9 71bd
000000a0: 530d 073e c79c d83d f3fd b3bd 018a 0bbe
000000b0: 44e1 29bd b7fd 913d a338 d43d e51c 7fbd
000000c0: 57c4 17be d456 a8bd

mask f4 [50, 50]
1.0 1.0 1.0 1.0 1.0 1.0 1.0 1.0
1.0 1.0 1.0 1.0 1.0 1.0 1.0 1.0
1.0 1.0 1.0 1.0 1.0 1.0 1.0 1.0
1.0 1.0 1.0 1.0 1.0 1.0 1.0 1.0
1.0 1.0 1.0 1.0 1.0 1.0 1.0 1.0
1.0 1.0 1.0 1.0 1.0 1.0 1.0 1.0
1.0 1.0 1.0 1.0 1.0 1.0 1.0 1.0
1.0 1.0 1.0 1.0 1.0 1.0 1.0 1.0
1.0 1.0 1.0 1.0 1.0 1.0 1.0 1.0
1.0 1.0 1.0 1.0 1.0 1.0 1.0 1.0
1.0 1.0 1.0 1.0 1.0 1.0 1.0 1.0
1.0 1.0 1.0 1.0 1.0 1.0 1.0 1.0
1.0 1.0 1.0 1.0 1.0 1.0 1.0 1.0
1.0 1.0 1.0 1.0 1.0 1.0 1.0 1.0
1.0 1.0 1.0 1.0 1.0 1.0 1.0 1.0
1.0 1.0 1.0 1.0 1.0 1.0 1.0 1.0
1.0 1.0 1.0 1.0 1.0 1.0 1.0 1.0
1.0 1.0 1.0 1.0 1.0 1.0 1.0 1.0
1.0 1.0 1.0 1.0 1.0 1.0 1.0 1.0
1.0 1.0 1.0 1.0 1.0 1.0 1.0 1.0
1.0 1.0 1.0 1.0 1.0 1.0 1.0 1.0
1.0 1.0 1.0 1.0 1.0 1.0 1.0 1.0
1.0 1.0 1.0 1.0 1.0 1.0 1.0 1.0
1.0 1.0 1.0 1.0 1.0 1.0 1.0 1.0
1.0 1.0 1.0 1.0 1.0 1.0 1.0 1.0
1.0 1.0 1.0 1.0 1.0 1.0 1.0 1.0
1.0 1.0 1.0 1.0 1.0 1.0 1.0 1.0
1.0 1.0 1.0 1.0 1.0 1.0 1.0 1.0
1.0 1.0 1.0 1.0 1.0 1.0 1.0 1.0
1.0 1.0 1.0 1.0 1.0 1.0 1.0 1.0
1.0 1.0 1.0 1.0 1.0 1.0 1.0 1.0
1.0 1.0 1.0 1.0 1.0 1.0 1.0 1.0
00000000: 0000 803f 0000 803f 0000 803f 0000 803f
00000010: 0000 803f 0000 803f 0000 803f 0000 803f
00000020: 0000 803f 0000 803f 0000 803f 0000 803f
00000030: 0000 803f 0000 803f 0000 803f 0000 803f
00000040: 0000 803f 0000 803f 0000 803f 0000 803f
00000050: 0000 803f 0000 803f 0000 803f 0000 803f
00000060: 0000 803f 0000 803f 0000 803f 0000 803f
00000070: 0000 803f 0000 803f 0000 803f 0000 803f
00000080: 0000 803f 0000 803f 0000 803f 0000 803f
00000090: 0000 803f 0000 803f 0000 803f 0000 803f
000000a0: 0000 803f 0000 803f 0000 803f 0000 803f
000000b0: 0000 803f 0000 803f 0000 803f 0000 803f
000000c0: 0000 803f 0000 803f 0000 803f 0000 803f
000000d0: 0000 803f 0000 803f 0000 803f 0000 803f
000000e0: 0000 803f 0000 803f 0000 803f 0000 803f
000000f0: 0000 803f 0000 803f 0000 803f 0000 803f
00000100: 0000 803f 0000 803f 0000 803f 0000 803f
00000110: 0000 803f 0000 803f 0000 803f 0000 803f
00000120: 0000 803f 0000 803f 0000 803f 0000 803f
00000130: 0000 803f 0000 803f 0000 803f 0000 803f
00000140: 0000 803f 0000 803f 0000 803f 0000 803f
00000150: 0000 803f 0000 803f 0000 803f 0000 803f
00000160: 0000 803f 0000 803f 0000 803f 0000 803f
00000170: 0000 803f 0000 803f 0000 803f 0000 803f
00000180: 0000 803f 0000 803f 0000 803f 0000 803f
00000190: 0000 803f 0000 803f 0000 803f 0000 803f
000001a0: 0000 803f 0000 803f 0000 803f 0000 803f
000001b0: 0000 803f 0000 803f 0000 803f 0000 803f
000001c0: 0000 803f 0000 803f 0000 803f 0000 803f
000001d0: 0000 803f 0000 803f 0000 803f 0000 803f
000001e0: 0000 803f 0000 803f 0000 803f 0000 803f
000001f0: 0000 803f 0000 803f 0000 803f 0000 803f
00000200: 0000 803f 0000 803f 0000 803f 0000 803f
00000210: 0000 803f 0000 803f 0000 803f 0000 803f
00000220: 0000 803f 0000 803f 0000 803f 0000 803f
00000230: 0000 803f 0000 803f 0000 803f 0000 803f
00000240: 0000 803f 0000 803f 0000 803f 0000 803f
00000250: 0000 803f 0000 803f 0000 803f 0000 803f
00000260: 0000 803f 0000 803f 0000 803f 0000 803f
00000270: 0000 803f 0000 803f 0000 803f 0000 803f
00000280: 0000 803f 0000 803f 0000 803f 0000 803f
00000290: 0000 803f 0000 803f 0000 803f 0000 803f
000002a0: 0000 803f 0000 803f 0000 803f 0000 803f
000002b0: 0000 803f 0000 803f 0000 803f 0000 803f
000002c0: 0000 803f 0000 803f 0000 803f 0000 803f
000002d0: 0000 803f 0000 803f 0000 803f 0000 803f
000002e0: 0000 803f 0000 803f 0000 803f 0000 803f
000002f0: 0000 803f 0000 803f 0000 803f 0000 803f
00000300: 0000 803f 0000 803f 0000 803f 0000 803f
00000310: 0000 803f 0000 803f 0000 803f 0000 803f
00000320: 0000 803f 0000 803f 0000 803f 0000 803f
00000330: 0000 803f 0000 803f 0000 803f 0000 803f
00000340: 0000 803f 0000 803f 0000 803f 0000 803f
00000350: 0000 803f 0000 803f 0000 803f 0000 803f
00000360: 0000 803f 0000 803f 0000 803f 0000 803f
00000370: 0000 803f 0000 803f 0000 803f 0000 803f
00000380: 0000 803f 0000 803f 0000 803f 0000 803f
00000390: 0000 803f 0000 803f 0000 803f 0000 803f
000003a0: 0000 803f 0000 803f 0000 803f 0000 803f
000003b0: 0000 803f 0000 803f 0000 803f 0000 803f
000003c0: 0000 803f 0000 803f 0000 803f 0000 803f
000003d0: 0000 803f 0000 803f 0000 803f 0000 803f
000003e0: 0000 803f 0000 803f 0000 803f 0000 803f
000003f0: 0000 803f 0000 803f 0000 803f 0000 803f

weight f4 [4, 50]
-0.10278921 -0.11840215 -0.04707274 0.0117819905 -0.07345154 -0.13070925 0.07221468 -0.11875522
0.03251958 -0.066513374 -0.052491188 -0.07260098 0.07557881 0.02078481 -0.113871604 -0.020948365
0.09172167 -0.1413924 0.051334426 -0.118120275 -0.13498437 -0.07767368 -0.07533962 0.088827476
-0.12747847 0.03262557 -0.016961329 0.02315642 -0.011713028 -0.09311566 -0.14118002 0.010664448
0.09035671 0.09166472 -0.026558131 -0.07148625 -0.13808453 -0.13392171 0.013510242 -0.113289624
0.023807019 0.13038601 -0.106172144 0.042489454 -0.0274418 0.13086428 0.09714769 -0.080872506
-0.10238348 -0.091143444 0.072304845 0.0807223 0.0131406635 0.13962068 0.12874861 -0.028645277
-0.10010624 -0.08341955 -0.09186346 0.04611914 -0.12902805 0.07445656 0.018887639 -0.06762063
-0.021980561 0.03814614 0.10265896 0.002037838 0.02151309 0.13701616 -0.1274238 0.020317525
0.09300192 -0.02971159 0.084095 0.0018053502 -0.0027986467 0.09753242 0.105443254 -0.04668922
-0.10011428 0.017352 -0.022865877 0.1316453 0.023180082 0.11580248 0.12479274 0.015285164
0.060471997 0.11530577 -0.053212166 0.1337504 0.056255803 0.08674353 0.024830416 -0.012732536
0.006379351 0.08815989 -0.12504964 0.0704841 -0.17143925 -0.0033509696 -0.11207763 -0.082051665
-0.02915612 -0.07222957 -0.11625657 -0.1542345 0.06673914 -0.10624503 0.068223074 -0.12743798
-0.052002802 -0.023549452 0.09453053 0.03329913 -0.011696543 -0.096377365 0.051883362 0.121499665
-0.0016325266 -0.079944074 -0.03325914 0.04332162 0.006100669 0.10613515 -0.14063317 0.03496113
-0.1331284 0.09893038 -0.025840739 0.11916563 -0.079800405 -0.07307158 -0.022894327 0.031700958
-0.04770651 0.13432635 -0.13475512 0.05211316 0.08778247 0.0060825828 0.08270465 -0.08269859
0.005251574 0.056684256 0.07787341 -0.021659883 -0.123861805 -0.17720868 0.02097231 -0.13728698
0.09173043 -0.045233432 0.019306328 0.14310339 -0.07885086 -0.08342686 -0.10343151 -0.103195176
0.10172341 -0.039944917 -0.12222449 0.15766221 0.027977968 0.040763173 -0.0041173873 0.080851994
-0.060676433 -0.090930924 0.00063081994 -0.12740366 0.06465074 0.06692183 -0.002895229 -0.06923274
0.06395888 0.011092139 0.104923755 0.042832 0.08809692 0.1013129 -0.104668796 0.16519652
0.07314268 -0.0161004 -0.049448237 -0.030772846 0.11441605 0.080510944 0.01503019 -0.0014178469
0.09865917 -0.11290762 -0.015893571 0.055874713 0.021634992 -0.12047563 -0.0669193 0.004086552
00000000: 2683 d2bd d47c f2bd 58cf 40bd 4009 413c
00000010: c36d 96bd a5d8 05be 4ae5 933d f035 f3bd
00000020: 4033 053d 2a38 88bd 0001 57bd d3af 94bd
00000030: 10c9 9a3d e844 aa3c 8435 e9bd e89b abbc
00000040: 92d8 bb3d 2bc9 10be 0c44 523d 0be9 f1bd
00000050: 5839 0abe 6113 9fbd a94b 9abd 2eeb b53d
00000060: b789 02be 64a2 053d 7cf2 8abc 88b2 bd3c
00000070: 00e8 3fbc 6cb3 bebd 7f91 10be f0b9 2e3c
00000080: f00c b93d b6ba bb3d 7090 d9bc 6267 92bd
00000090: 0866 0dbe c622 09be 105a 5d3c 6404 e8bd
000000a0: f006 c33c e983 053e c870 d9bd 6c09 2e3d
000000b0: a0cd e0bc 4901 063e 5ef5 c63d 7ca0 a5bd
000000c0: 6eae d1bd 6aa9 babd 9014 943d bc51 a53d
000000d0: f04b 573c b9f8 0e3e add6 033e 80a9 eabc
000000e0: 8004 cdbd ded7 aabd e922 bcbd 6ce7 3c3d
000000f0: ee1f 04be ae7c 983d 40ba 9a3c af7c 8abd
00000100: 9410 b4bc 203f 1c3d dc3e d23d 408d 053b
00000110: 383c b03c f74d 0c3e 627b 02be f070 a63c
00000120: ca77 be3d b865 f3bc 003a ac3d 80a1 ec3a
00000130: 8069 37bb 14bf c73d a2f2 d73d 323d 3fbd
00000140: b708 cdbd c825 8e3c 3851 bbbc 07ce 063e
00000150: 28e4 bd3c da29 ed3d 5693 ff3d a06e 7a3c
00000160: 7cb1 773d 6e25 ec3d 00f5 59bd ddf5 083e
00000170: 7c6c 663d 98a6 b13d 2869 cb3c 209c 50bc
00000180: e009 d13b 2c8d b43d 030d 00be f859 903d
00000190: c58d 2fbe f19b 5bbb f588 e5bd b40a a8bd
000001a0: d1d8 eebc 19ed 93bd ed17 eebd a6ef 1dbe
000001b0: 88ae 883d ff96 d9bd 8ab8 8b3d 1a7f 02be
000001c0: e400 55bd c8ea c0bc 3999 c13d ab64 083d
000001d0: dba2 3fbc 7f61 c5bd a683 543d d1d4 f83d
000001e0: 81fa d5ba b8b9 a3bd bc3a 08bd 0372 313d
000001f0: 1fe8 c73b 635d d93d 2402 10be 6733 0f3d
00000200: d052 08be 039c ca3d f5af d3bc 1c0d f43d
00000210: 656e a3bd 8da6 95bd e28c bbbc ddd8 013d
00000220: e767 43bd d98c 093e 3ffd 09be 9c74 553d
00000230: 4cc7 b33d 6750 c73b 0e61 a93d e15d a9bd
00000240: 6515 ac3b c02d 683d 187c 9f3d 1170 b1bc
00000250: 42ab fdbd 3176 35be 1fce ab3c f594 0cbe
00000260: 2add bb3d b146 39bd 4e28 9e3c b289 123e
00000270: 8f7c a1bd b4db aabd e6d3 d3bd fe57 d3bd
00000280: 5d54 d03d 489d 23bd d550 fabd 3472 213e
00000290: 0d32 e53c 49f7 263d 26eb 86bb bb95 a53d
000002a0: da87 78bd fe39 babd 9c5d 253a 1b76 02be
000002b0: 9b67 843d 500e 893d e2bd 3dbb e5c9 8dbd
000002c0: e0fc 823d cebb 353c 44e2 d63d 9b70 2f3d
000002d0: 286c b43d 237d cf3d 985c d6bd 4729 293e
000002e0: d4cb 953d fce4 83bc 3c8a 4abd 5617 fcbc
000002f0: f652 ea3d ece2 a43d 3041 763c 0cd7 b9ba
00000300: d20d ca3d 1c3c e7bd 3c33 82bc e2dc 643d
00000310: de3b b13c edbb f6bd fc0c 89bd 7ce8 853b

bias f4 [4]
0.5846026 -0.1709352 0.06093557 0.09133016
00000000: 84a8 153f a309 2fbe 9497 793d 4f0b bb3d

mask f4 [4, 50]
0.0 0.0 0.0 0.0 0.0 0.0 0.0 0.0
0.0 0.0 0.0 0.0 0.0 0.0 0.0 0.0
0.0 0.0 0.0 0.0 0.0 0.0 0.0 0.0
0.0 0.0 0.0 0.0 0.0 0.0 0.0 0.0
0.0 0.0 0.0 0.0 0.0 0.0 0.0 0.0
0.0 0.0 0.0 0.0 0.0 0.0 0.0 0.0
0.0 0.0 0.0 0.0 0.0 0.0 0.0 0.0
0.0 0.0 0.0 0.0 0.0 0.0 0.0 0.0
0.0 0.0 0.0 0.0 0.0 0.0 0.0 0.0
0.0 0.0 0.0 0.0 0.0 0.0 0.0 0.0
0.0 0.0 0.0 0.0 0.0 0.0 0.0 0.0
0.0 0.0 0.0 0.0 0.0 0.0 0.0 0.0
0.0 0.0 0.0 0.0 1.0 1.0 1.0 1.0
1.0 1.0 1.0 1.0 1.0 1.0 1.0 1.0
1.0 1.0 1.0 1.0 1.0 1.0 1.0 1.0
1.0 1.0 1.0 1.0 1.0 1.0 1.0 1.0
1.0 1.0 1.0 1.0 1.0 1.0 1.0 1.0
1.0 1.0 1.0 1.0 1.0 1.0 1.0 1.0
1.0 1.0 1.0 1.0 1.0 1.0 1.0 1.0
1.0 1.0 1.0 1.0 1.0 1.0 1.0 1.0
1.0 1.0 1.0 1.0 1.0 1.0 1.0 1.0
1.0 1.0 1.0 1.0 1.0 1.0 1.0 1.0
1.0 1.0 1.0 1.0 1.0 1.0 1.0 1.0
1.0 1.0 1.0 1.0 1.0 1.0 1.0 1.0
1.0 1.0 1.0 1.0 1.0 1.0 1.0 1.0
00000000: 0000 0000 0000 0000 0000 0000 0000 0000
00000010: 0000 0000 0000 0000 0000 0000 0000 0000
00000020: 0000 0000 0000 0000 0000 0000 0000 0000
00000030: 0000 0000 0000 0000 0000 0000 0000 0000
00000040: 0000 0000 0000 0000 0000 0000 0000 0000
00000050: 0000 0000 0000 0000 0000 0000 0000 0000
00000060: 0000 0000 0000 0000 0000 0000 0000 0000
00000070: 0000 0000 0000 0000 0000 0000 0000 0000
00000080: 0000 0000 0000 0000 0000 0000 0000 0000
00000090: 0000 0000 0000 0000 0000 0000 0000 0000
000000a0: 0000 0000 0000 0000 0000 0000 0000 0000
000000b0: 0000 0000 0000 0000 0000 0000 0000 0000
000000c0: 0000 0000 0000 0000 0000 0000 0000 0000
000000d0: 0000 0000 0000 0000 0000 0000 0000 0000
000000e0: 0000 0000 0000 0000 0000 0000 0000 0000
000000f0: 0000 0000 0000 0000 0000 0000 0000 0000
00000100: 0000 0000 0000 0000 0000 0000 0000 0000
00000110: 0000 0000 0000 0000 0000 0000 0000 0000
00000120: 0000 0000 0000 0000 0000 0000 0000 0000
00000130: 0000 0000 0000 0000 0000 0000 0000 0000
00000140: 0000 0000 0000 0000 0000 0000 0000 0000
00000150: 0000 0000 0000 0000 0000 0000 0000 0000
00000160: 0000 0000 0000 0000 0000 0000 0000 0000
00000170: 0000 0000 0000 0000 0000 0000 0000 0000
00000180: 0000 0000 0000 0000 0000 0000 0000 0000
00000190: 0000 803f 0000 803f 0000 803f 0000 803f
000001a0: 0000 803f 0000 803f 0000 803f 0000 803f
000001b0: 0000 803f 0000 803f 0000 803f 0000 803f
000001c0: 0000 803f 0000 803f 0000 803f 0000 803f
000001d0: 0000 803f 0000 803f 0000 803f 0000 803f
000001e0: 0000 803f 0000 803f 0000 803f 0000 803f
000001f0: 0000 803f 0000 803f 0000 803f 0000 803f
00000200: 0000 803f 0000 803f 0000 803f 0000 803f
00000210: 0000 803f 0000 803f 0000 803f 0000 803f
00000220: 0000 803f 0000 803f 0000 803f 0000 803f
00000230: 0000 803f 0000 803f 0000 803f 0000 803f
00000240: 0000 803f 0000 803f 0000 803f 0000 803f
00000250: 0000 803f 0000 803f 0000 803f 0000 803f
00000260: 0000 803f 0000 803f 0000 803f 0000 803f
00000270: 0000 803f 0000 803f 0000 803f 0000 803f
00000280: 0000 803f 0000 803f 0000 803f 0000 803f
00000290: 0000 803f 0000 803f 0000 803f 0000 803f
000002a0: 0000 803f 0000 803f 0000 803f 0000 803f
000002b0: 0000 803f 0000 803f 0000 803f 0000 803f
000002c0: 0000 803f 0000 803f 0000 803f 0000 803f
000002d0: 0000 803f 0000 803f 0000 803f 0000 803f
000002e0: 0000 803f 0000 803f 0000 803f 0000 803f
000002f0: 0000 803f 0000 803f 0000 803f 0000 803f
00000300: 0000 803f 0000 803f 0000 803f 0000 803f
00000310: 0000 803f 0000 803f 0000 803f 0000 803f

weight f4 [50, 2]
0.48226875 -0.59782404 0.7284781 -0.36955673 0.52722776 0.17843813 -0.3489157 0.13846177
0.77729225 -0.39145106 0.65009236 -0.64978176 -0.2030655 0.6641924 0.31734517 -0.0208292
0.040267736 -0.5394154 0.058108926 0.41078192 0.21789764 -0.06923574 0.13495748 0.4957096
0.46247444 0.5135588 -0.04509975 0.24724549 -0.521892 -0.3395361 0.06337234 -0.24498016
0.7912702 -0.58810127 0.47787577 -0.18461448 -0.38325828 0.13284272 -0.10565907 0.58672947
0.42410508 -0.5568993 0.2292959 0.38012785 -0.8869758 0.2939896 0.10512684 0.18938965
-0.09545755 0.44943732 0.305641 -0.5455295 -0.38083926 -0.2383239 -0.03816489 0.09919995
-0.050344106 -0.009104967 -0.94666237 -0.39294374 0.38365403 -0.08619946 -0.45993277 -0.40487686
-0.12842098 -0.47350055 -0.52693236 0.27991366 0.027351657 0.15443736 0.024335211 0.61920077
0.26084495 -0.4827997 0.31308734 -0.5919872 0.16604656 -0.6754193 0.25600988 -0.533578
0.116568126 -0.33231407 -0.2674151 0.057581127 0.21319751 0.014021218 -0.4432384 -0.27839273
-0.16968685 0.068208456 0.039697003 0.09126186 0.31812012 -0.60040545 -0.33490804 -0.43703398
-0.5955985 0.58696276 -0.065740734 0.5949785
00000000: eeeb f63e ff0a 19bf 8a7d 3a3f 8a36 bdbe
00000010: 66f8 063f 7cb8 363e 14a5 b2be ecc8 0d3e
00000020: a0fc 463f 466c c8be 746c 263f 1958 26bf
00000030: 67f0 4fbe 8308 2a3f 117b a23e 00a2 aabc
00000040: c8ef 243d 2117 0abf a003 6e3d 0252 d23e
00000050: 8f20 5f3e 78cb 8dbd 4b32 0a3e a6cd fd3e
00000060: 73c9 ec3e 9778 033f 84ba 38bd ec2d 7d3e
00000070: b79a 05bf add7 adbe 5bc9 813d 14dc 7abe
00000080: af90 4a3f ce8d 16bf 22ac f43e 940b 3dbe
00000090: 6e3a c4be ec07 083e c863 d8bd e733 163f
000000a0: 4d24 d93e f490 0ebf 8bcc 6a3e 1ea0 c23e
000000b0: d910 63bf ce85 963e be4c d73d 5cef 413e
000000c0: 3f7f c3bd a61c e63e fa7c 9c3e d2a7 0bbf
000000d0: 5dfd c2be 2e0b 74be ca52 1cbd 5829 cb3d
000000e0: 9f35 4ebd 002d 15bc 7758 72bf ec2f c9be
000000f0: 4d6e c43e 5889 b0bd 4f7c ebbe 054c cfbe
00000100: ca80 03be aa6e f2be 0ae5 06bf d850 8f3e
00000110: 9510 e03c d424 1e3e a35a c73c f183 1e3f
00000120: 788d 853e 8631 f7be fc4c a03e 798c 17bf
00000130: 1c08 2a3e 47e8 2cbf ba13 833e 9198 08bf
00000140: 45bb ee3d 1225 aabe a2ea 88be 30da 6b3d
00000150: 7350 5a3e 40b9 653c 25f0 e2be 7e89 8ebe
00000160: 64c2 2dbe e0b0 8b3d 5399 223d 80e7 ba3d
00000170: a4e0 a23e 2cb4 19bf 1179 abbe ebc2 dfbe
00000180: 2579 18bf 3143 163f 14a3 86bd 8350 183f

bias f4 [50]
-0.2490626 -0.062707014 0.12668428 -0.13956809 -0.5771723 0.43317235 0.09040362 0.0026686657
-0.37756744 -0.38793924 0.5589863 -0.46839738 0.3825824 -0.5955226 -0.62764937 0.7043703
-0.5575266 0.22938152 0.51789784 -0.59621924 0.44779894 0.18194671 0.47238606 -0.46482912
0.20430885 0.069080986 -0.6042732 -0.34280413 0.4968205 -0.15261213 0.69839406 -0.040287748
0.14627 0.3396879 0.44890985 -0.5951904 0.5557861 -0.01599743 -0.09557182 0.3846809
-0.0030210812 0.4479878 0.44483522 0.19577643 0.42044112 -0.42831346 0.15542261 -0.021727778
0.46656147 -0.5442302
00000000: 440a 7fbe 896c 80bd 86b9 013e f0ea 0ebe
00000010: 90c1 13bf c4c8 dd3e 8825 b93d c8e4 2e3b
00000020: 8550 c1be f99f c6be ba19 0f3f c8d1 efbe
00000030: d7e1 c33e 2b74 18bf a1ad 20bf 9d51 343f
00000040: 10ba 0ebf fde2 6a3e f494 043f d3a1 18bf
00000050: e745 e53e 3d50 3a3e 96dc f13e 15fe edbe
00000060: 5736 513e 557a 8d3d a6b1 1abf 0684 afbe
00000070: 425f fe3e 5b46 1cbe f4c9 323f c404 25bd
00000080: cec7 153e 93eb ad3e 83d7 e53e 665e 18bf
00000090: ff47 0e3f 0b0d 83bc 29bb c3bd e5f4 c43e
000000a0: 55fd 45bb a85e e53e 71c1 e33e 9e79 483e
000000b0: 0f44 d73e e74b dbbe 1b27 1f3e 74fe b1bc
000000c0: 25e1 ee3e ac52 0bbf

mask f4 [50, 2]
1.0 0.0 1.0 0.0 1.0 0.0 1.0 0.0
1.0 0.0 1.0 0.0 1.0 0.0 1.0 0.0
1.0 0.0 1.0 0.0 1.0 0.0 1.0 0.0
1.0 0.0 1.0 0.0 1.0 0.0 1.0 0.0
1.0 0.0 1.0 0.0 1.0 0.0 1.0 0.0
1.0 0.0 1.0 0.0 1.0 0.0 1.0 0.0
1.0 0.0 1.0 0.0 1.0 0.0 1.0 0.0
1.0 0.0 1.0 0.0 1.0 0.0 1.0 0.0
1.0 0.0 1.0 0.0 1.0 0.0 1.0 0.0
1.0 0.0 1.0 0.0 1.0 0.0 1.0 0.0
1.0 0.0 1.0 0.0 1.0 0.0 1.0 0.0
1.0 0.0 1.0 0.0 1.0 0.0 1.0 0.0
1.0 0.0 1.0 0.0
00000000: 0000 803f 0000 0000 0000 803f 0000 0000
00000010: 0000 803f 0000 0000 0000 803f 0000 0000
00000020: 0000 803f 0000 0000 0000 803f 0000 0000
00000030: 0000 803f 0000 0000 0000 803f 0000 0000
00000040: 0000 803f 0000 0000 0000 803f 0000 0000
00000050: 0000 803f 0000 0000 0000 803f 0000 0000
00000060: 0000 803f 0000 0000 0000 803f 0000 0000
00000070: 0000 803f 0000 0000 0000 803f 0000 0000
00000080: 0000 803f 0000 0000 0000 803f 0000 0000
00000090: 0000 803f 0000 0000 0000 803f 0000 0000
000000a0: 0000 803f 0000 0000 0000 803f 0000 0000
000000b0: 0000 803f 0000 0000 0000 803f 0000 0000
000000c0: 0000 803f 0000 0000 0000 803f 0000 0000
000000d0: 0000 803f 0000 0000 0000 803f 0000 0000
000000e0: 0000 803f 0000 0000 0000 803f 0000 0000
000000f0: 0000 803f 0000 0000 0000 803f 0000 0000
00000100: 0000 803f 0000 0000 0000 803f 0000 0000
00000110: 0000 803f 0000 0000 0000 803f 0000 0000
00000120: 0000 803f 0000 0000 0000 803f 0000 0000
00000130: 0000 803f 0000 0000 0000 803f 0000 0000
00000140: 0000 803f 0000 0000 0000 803f 0000 0000
00000150: 0000 803f 0000 0000 0000 803f 0000 0000
00000160: 0000 803f 0000 0000 0000 803f 0000 0000
00000170: 0000 803f 0000 0000 0000 803f 0000 0000
00000180: 0000 803f 0000 0000 0000 803f 0000 0000
