03b/GPS_1256775418/model_trad_seed_101.pth (torch, 276498 bytes, 76 tensors)

_shift f4 [2]
00000000: bdb9 2540 caaf dbbf
2.5894616 -1.7163022

_scale f4 [2]
00000000: 67b2 313e a67d 5d40
0.17353211 3.460794

weight f4 [50, 2]
00000000: a9fd fb3e 06e7 993e 8ed0 2f3f a8fa b63d
00000010: c228 d23e 74f8 703e 6a4d 693c 65ae 1e3f
00000020: f2f6 023f c0fc 023d 49da 45bf 5e2a bcbe
00000030: b461 82bd c4b8 713e 8f10 ba3e 88d5 803d
00000040: 0a68 20bf cc96 0e3e 5779 e7be 7bb2 193f
00000050: 137d b13c ca32 893e e7c1 3abf 3185 8fbe
00000060: 6232 0dbe a213 eb3e b4f5 32bd f8f8 0dbf
00000070: da41 313f 80ec d7bc c34a 013f 6545 143f
00000080: 917b edbe bbd0 0fbf 5f0b 333f cf40 263f
00000090: 041e 963e eeac b63e aaf1 57bd 4014 72bc
000000a0: b24d 06bf 3c25 84be 1e55 03bf 049a 923e
000000b0: 0b52 38be d002 e6be e4d9 61be 43a0 17bf
000000c0: bd82 4a3f 5efc d13e 7b78 89bd 0725 aabe
000000d0: 99fc 0dbf f03f eebd afe0 c0be 30fe c3bd
000000e0: bc1f c0be 00f6 743b b023 073c 1f20 0c3f
000000f0: 23fb bcbe 84d1 31be b20d 30bf 152e 0b3f
00000100: aab5 103f 9e4d 983e 93d4 a03d 5ca0 403e
00000110: 53cb f83c 467b 8cbe deb5 2c3e 3a7a c73e
00000120: ac96 e5be a004 d13d 5356 073e d0c2 2c3e
00000130: 2b39 46bf d891 88be 894f 2d3f 4477 4cbe
00000140: b739 e83d 441f 3ebe bbb4 2ebf 20da 4c3e
00000150: 6ec4 e4be 01c0 0f3f 9179 25bf 99c5 33bf
00000160: 524e 353e ae30 c73e c820 bd3e af34 173f
00000170: 87c8 36bf d219 6dbe b597 033f a4b2 09bf
00000180: b8d2 1dbf c4a5 4a3e 3ad0 813e 86a9 be3e
0.49216965 0.3005907 0.68677604 0.08934528 0.4104672 0.23532277 0.014239648 0.61984855
0.5115806 0.031979322 -0.772862 -0.36751074 -0.06366292 0.23605639 0.36340758 0.06290728
-0.6265875 0.13924712 -0.45209762 0.60037965 0.021666085 0.2679656 -0.7295212 -0.28031304
-0.13788751 0.45913416 -0.043691352 -0.5545802 0.69241107 -0.02635789 0.505047 0.5791839
-0.46383336 -0.5617787 0.69939226 0.6494264 0.29319775 0.3567881 -0.052720703 -0.014775336
-0.52462304 -0.25809658 -0.51301754 0.2863313 -0.18000047 -0.4492402 -0.22055775 -0.59228915
0.7910574 0.41012853 -0.06712433 -0.33231375 -0.5546356 -0.11633289 -0.3767142 -0.09569967
-0.3752421 0.0037378073 0.008248255 0.5473651 -0.36910352 -0.1736508 -0.687709 0.5436719
0.565272 0.29746717 0.07853045 0.18811172 0.03037039 -0.274378 0.16866252 0.3896044
-0.44841516 0.1020596 0.13216524 0.1687119 -0.7743098 -0.2667377 0.67699486 -0.19967371
0.11339133 -0.18566614 -0.6824452 0.20005083 -0.44681114 0.5615235 -0.6463862 -0.70223385
0.17705658 0.38904327 0.36939073 0.59064764 -0.7139973 -0.23154381 0.5140336 -0.5378821
-0.61649656 0.19789797 0.25354177 0.3723871

bias f4 [50]
00000000: ef1c fdbe 6634 063f d786 47be c780 7f3e
00000010: eb61 55bc 401a 193f ca7f a2be 6447 323e
00000020: d1ce 4bbf dede b3bb cde2 a03e 502d 0bbf
00000030: 1553 80be b3b7 e53e d087 03bf 6ece 1dbe
00000040: 6ce0 313e 9594 003f fb8a 1e3e 0345 35bf
00000050: 3c00 bcbe ba79 04bf 84e2 28bf 058d d6be
00000060: bb43 b9be 0b21 593e 8091 29bf 982a dd3e
00000070: 4a06 823a 62ac 24bf 30ea f13d 3e41 d03e
00000080: aa9b b3bd e509 29be bdfd 0cbd 62bb 043f
00000090: 5de3 16be aaf7 04bf 2a9a 26bf 6239 1c3f
000000a0: 99be b9be b872 253f 1c1a f63e 3aa4 6a3e
000000b0: 51ef 203f b4ee c2bd 029d 213d 29ea 203e
000000c0: 449e 8c3e 0b50 1fbf
-0.49436137 0.52423704 -0.19485031 0.24951468 -0.013023834 0.5980568 -0.3173812 0.17410046
-0.7961245 -0.0054892143 0.31423035 -0.54366016 -0.25063387 0.44866714 -0.5137911 -0.15410778
0.17370766 0.5022672 0.15482704 -0.7080843 -0.3671893 -0.5174824 -0.65970635 -0.41904464
-0.36184487 0.21204011 -0.6623764 0.4319656 0.0009920087 -0.64325535 0.11812246 0.40674776
-0.08769925 -0.1650768 -0.03442167 0.51848423 -0.1473517 -0.51940405 -0.65078986 0.6102506
-0.36278227 0.6462817 0.48066795 0.2291421 0.6286517 -0.09518185 0.039456375 0.15714325
0.27464497 -0.6223151

mask f4 [50, 2]
00000000: 0000 803f 0000 0000 0000 803f 0000 0000
00000010: 0000 803f 0000 0000 0000 803f 0000 0000
00000020: 0000 803f 0000 0000 0000 803f 0000 0000
00000030: 0000 803f 0000 0000 0000 803f 0000 0000
00000040: 0000 803f 0000 0000 0000 803f 0000 0000
00000050: 0000 803f 0000 0000 0000 803f 0000 0000
00000060: 0000 803f 0000 0000 0000 803f 0000 0000
00000070: 0000 803f 0000 0000 0000 803f 0000 0000
00000080: 0000 803f 0000 0000 0000 803f 0000 0000
00000090: 0000 803f 0000 0000 0000 803f 0000 0000
000000a0: 0000 803f 0000 0000 0000 803f 0000 0000
000000b0: 0000 803f 0000 0000 0000 803f 0000 0000
000000c0: 0000 803f 0000 0000 0000 803f 0000 0000
000000d0: 0000 803f 0000 0000 0000 803f 0000 0000
000000e0: 0000 803f 0000 0000 0000 803f 0000 0000
000000f0: 0000 803f 0000 0000 0000 803f 0000 0000
00000100: 0000 803f 0000 0000 0000 803f 0000 0000
00000110: 0000 803f 0000 0000 0000 803f 0000 0000
00000120: 0000 803f 0000 0000 0000 803f 0000 0000
00000130: 0000 803f 0000 0000 0000 803f 0000 0000
00000140: 0000 803f 0000 0000 0000 803f 0000 0000
00000150: 0000 803f 0000 0000 0000 803f 0000 0000
00000160: 0000 803f 0000 0000 0000 803f 0000 0000
00000170: 0000 803f 0000 0000 0000 803f 0000 0000
00000180: 0000 803f 0000 0000 0000 803f 0000 0000
1.0 0.0 1.0 0.0 1.0 0.0 1.0 0.0
1.0 0.0 1.0 0.0 1.0 0.0 1.0 0.0
1.0 0.0 1.0 0.0 1.0 0.0 1.0 0.0
1.0 0.0 1.0 0.0 1.0 0.0 1.0 0.0
1.0 0.0 1.0 0.0 1.0 0.0 1.0 0.0
1.0 0.0 1.0 0.0 1.0 0.0 1.0 0.0
1.0 0.0 1.0 0.0 1.0 0.0 1.0 0.0
1.0 0.0 1.0 0.0 1.0 0.0 1.0 0.0
1.0 0.0 1.0 0.0 1.0 0.0 1.0 0.0
1.0 0.0 1.0 0.0 1.0 0.0 1.0 0.0
1.0 0.0 1.0 0.0 1.0 0.0 1.0 0.0
1.0 0.0 1.0 0.0 1.0 0.0 1.0 0.0
1.0 0.0 1.0 0.0

weight f4 [50, 2]
00000000: b579 413e 502c 75bd 2093 b83e 4bb5 8ebe
00000010: b41f 213f e2f0 32bf 6917 e1be 8f3d a23e
00000020: 0b18 d1be 384d 0abe 798c 26be 6f5a fdbe
00000030: ae4c 143e 29ab 9abe 1392 b5be 8e70 f03e
00000040: 83be cc3d 9d03 69be a9c7 323f 7f5d 10bf
00000050: 2b5f ff3e da38 15bf 6d87 7fbe f448 d73e
00000060: e825 f8be 2f71 49be 7e1f 3e3e b734 d33e
00000070: 88c7 0a3f c150 5b3e 0572 383f de1f 6fbe
00000080: f204 1cbf b286 d53e 2aa9 cb3e 4ce5 f9be
00000090: 3f9c 30be ecbd 1fbf e155 85bd 35d2 133f
000000a0: 80e4 03bd 94e5 3dbc 4d5c f6bd 16d8 0a3f
000000b0: 8393 fdbe 84aa bcbe 5e46 dfbe f7ee 14bc
000000c0: dacb ffbe 4af4 293b f486 dabe be70 ecbd
000000d0: 3e7d 1f3d e955 b43e c81c 363f 3055 113f
000000e0: 484f cebc a99b d13d c16a 25bf 245c de3e
000000f0: 3a0b 843e e7af be3e b7ab c4be 853c e6be
00000100: c7ba 24be fa1f 053f 8ccf bdbd 68e1 4238
00000110: 2273 223e d253 55be 5268 8c3e 2952 a73e
00000120: 5ffb 8d3c 3037 09bf cbec 2d3e b6fa 193d
00000130: 2d1f 203e c77d 11bf 90fd 20bd 857d 5c3e
00000140: ed10 b9bd 9c66 5fbe f26e 1dbf ad10 3dbe
00000150: 7396 17bf b989 093c dd32 01be f830 4abd
00000160: 2988 37bf a07c e3be 783b ea3e 6b42 973e
00000170: daea 62be 1988 30bf c87d ec3e 62e7 4cbd
00000180: a0bb b73e 7228 3b3e 550f b43e 0c67 cdbd
0.18894084 -0.059856713 0.36049747 -0.2787269 0.62939 -0.6989881 -0.43963173 0.3168759
-0.40838656 -0.13506019 -0.16264524 -0.49483058 0.14482376 -0.3020871 -0.35463008 0.46960872
0.09997275 -0.22755285 0.6983591 -0.56392664 0.49877295 -0.58289874 -0.24954005 0.42047846
-0.4846642 -0.19672082 0.18566701 0.41251156 0.5421071 0.21417524 0.7204898 -0.23352
-0.60945046 0.41704327 0.397775 -0.48807752 -0.17247103 -0.6239917 -0.06510521 0.57742625
-0.032200336 -0.01159038 -0.12029324 0.5423597 -0.49526605 -0.36848843 -0.43608373 -0.009090177
-0.49960214 0.002593296 -0.42681086 -0.11544941 0.0389378 0.35221794 0.71137667 0.5677061
-0.025184289 0.10234768 -0.6461602 0.43429673 0.25789815 0.37243578 -0.38412258 -0.44968048
-0.16086875 0.5200192 -0.09268102 4.646313e-05 0.15864232 -0.20832756 0.2742334 0.3267987
0.017331777 -0.53599834 0.1698486 0.037592612 0.15636893 -0.56832546 -0.039304316 0.21532257
-0.090364315 -0.21816486 -0.61497414 -0.18463393 -0.5921394 0.008394652 -0.12617059 -0.049363106
-0.7169214 -0.4443102 0.45748496 0.2954286 -0.22159901 -0.6895767 0.46189713 -0.05002535
0.35885334 0.18277147 0.35167947 -0.1002942

bias f4 [50]
00000000: 1d6d bdbd 11b0 763e 9dfe 56be 8861 7bbd
00000010: 9fdf 3a3f 56e0 e6be 13a1 17bf e93c aa3e
00000020: 7f53 043f 16f0 d4bd d3b8 ce3e f7b4 40be
00000030: 0169 fbbe cdfa f8bd da7f 043f 6496 5a3e
00000040: 2ec8 34bc fa38 a6be e081 05bf 3f60 31be
00000050: 4060 45be bf38 273f 00c5 193f 03fa c63e
00000060: 62f0 98be 4466 093f 35ed 043f 2f3c 853e
00000070: a859 d7be 6e60 e43d ab4d e73e 9daa 42be
00000080: 7f2e 343f 2643 963e 8577 c6be 85b1 b63e
00000090: 1053 fb3e b852 11bc 1a95 62bd c0cc e6be
000000a0: ac22 18bf af86 273f 7bd2 20bf d8df 73bd
000000b0: e331 05be 2abf f2be 29fc b4be a567 babe
000000c0: 86b7 623e 1649 8fbe
-0.09249327 0.24090602 -0.20995565 -0.06137231 0.7299747 -0.4509303 -0.59230155 0.33249596
0.51689905 -0.10397355 0.40375385 -0.18819033 -0.4910355 -0.121572115 0.51757586 0.21346432
-0.011034055 -0.32465345 -0.521513 -0.17321871 -0.19274998 0.6532096 0.60066223 0.3886262
-0.29870898 0.5367167 0.5192445 0.2602248 -0.4206059 0.11151205 0.45176443 -0.19010396
0.7038345 0.29348105 -0.3876306 0.35682312 0.4908681 -0.008869819 -0.055317976 -0.45078087
-0.59427905 0.65439886 -0.6282117 -0.059539646 -0.13007312 -0.47411472 -0.35348633 -0.364072
0.22140321 -0.27985448

weight f4 [50, 50]
00000000: bf69 b3bd 3b5f 5dbd 59a5 c33d a31d 2c3c
00000010: 8d10 71bd 08a3 93bb 0008 d73d cb0b f83d
00000020: 5016 dbbd 3588 043e e03b 5cbd bed5 84bd
00000030: 673f 94bc 920b 11be 2c8c 263d acec 553d
00000040: a44a 27bc ad0b 633d 6c6e 8d3d d6fa b33d
00000050: ebb3 80bd 59f7 a9bc 734c 50bd cee1 35bb
00000060: e767 2cbe 8ca4 373d 00d1 ccbd 7343 0bbd
00000070: 6140 b2bd 4d48 42bd 84ef 36bd 39a5 f43d
00000080: 61cf 383d d321 8cbd 5a18 cc3d ba8f 7f3d
00000090: 5639 b7bd 9cd9 93bd f22d 743d 9868 b23d
000000a0: b8c2 a9bc 794d 4e3d 530a 9f3d 2b27 2abb
000000b0: 3fb5 04be f332 45bd 9c4e 093a 177c 423d
000000c0: 3f93 f73d 1dec f13c d392 ecbd 0a8a ffbd
000000d0: 84ec e3bb 47ed aa3d 168e 3fbd cc24 ea3d
000000e0: 87f5 473d d294 063d f618 7cbd 3d12 95bd
000000f0: 9543 cebc 93cf 153e 8173 b6bd 0f70 ae3d
00000100: 6277 c4bd 04ec a1bd 718d 3b3c 4632 0d3e
00000110: 5cfa 94bd 09a4 18bd f78d c63d 1461 ffbc
00000120: efa4 99bd e43f 923c 99e9 1dbd a027 123e
00000130: a18f 18bd c7f0 873c e320 99bd 092d e4ba
00000140: f48d 7d3c f5be 853d 601b adbc 7ff6 ac3d
00000150: c813 20bc 5ba2 3b3d 1575 553d 5727 dabc
00000160: 357e 1c3e 6b3b d0bd b654 a03d 6011 233d
00000170: fc46 dabd 64d8 233d f62a 57bd b4aa 4f3b
00000180: 5cce 063d c81b 1b3d 60bc 803d 2703 e93d
00000190: e412 f1bd 8818 e33d 1e4a d33d 6fb8 e23c
000001a0: fa2f dd3d c2d6 9abc 33c8 a63d 8665 2dbd
000001b0: 2734 d9bd a2f7 8abd 580c 38bd da45 04be
000001c0: 156f 92bd abbf 433d d330 1dbe 89f9 e6bd
000001d0: 5a7d 52bd 234b 02be bebd 213e 42c3 a9bd
000001e0: e91e c2bc 90e7 723d 034a ebbc 22fe e4bd
000001f0: 1068 f6bc 58a6 c2bb 56bf 74bd d711 4ebd
00000200: 8025 803d 9200 94bd a036 25be 0b88 943d
00000210: 3a50 063e 1d6c d73c 8f56 173e f2ce d8bd
00000220: 31a3 a93d 20bb 983c c492 a93c 227d 43bc
00000230: b4fc c1bd 7353 26be 9e67 c6bc f5e5 123e
00000240: 5e22 1fbe edb2 afbd 5a9c 06bd de73 77bd
00000250: 6c11 403d 637e 143e 1909 af3c 9f32 a93c
00000260: 1b99 4d3a 800b bebd ee56 b0bd 0d2a e93d
00000270: 989b 04be 3c3f d13d fdf8 383d 962e b9bb
00000280: e4ab e4bd 59e4 3a3d caa0 d33d 951e 443d
00000290: a33f bfbd 743c abbd 9d0a f93d 3e67 af3d
000002a0: 1742 37bc ffe1 08be fc48 0dbe aa68 8c3d
000002b0: 36b3 c1bd a2e2 f2ba 9baf 81bd 91fa 47bd
000002c0: 2f5c 103e febf 8ebd a42d a1bc 6102 c5bc
000002d0: 59de 0c3d c07c 9cbd 3b68 c5bd 27fc cbbd
000002e0: f215 33bd d6f4 fb3d de3f e3bd 69e4 fdbd
000002f0: 416b 49bd e8b4 213d 71d4 ebbc 11d0 ddbd
00000300: 0afb 1a3e e609 d4bd 36b8 69bd e0e2 5e3c
00000310: 3c58 c93c d2bd 123e abe6 d0bd 2546 07bd
00000320: 46ee 07bd 7d55 9abd 0eb8 88bd 0379 b0bd
00000330: 355f 743d 00b1 213d 15e5 c5bd 68b7 0fbe
00000340: f925 b7bc 751e 8e3c fc2b 6ebd ac21 1cbd
00000350: 680b e93c b5cf 83bd 0be8 cebd d2c1 2bbd
00000360: 3342 e43d bee2 893d 68b9 6fbd 58ec b93d
00000370: aab6 2b3d dfb5 b2bd d252 c33d 4389 0abe
00000380: ea53 fc3d dcc3 c5bb ce17 1f3d 5f7b 303d
00000390: 0941 0cbe 12ad debc 286e 043e 0862 a2bd
000003a0: fc97 b63d a2ec 333c e3ba 113e ad04 88bd
000003b0: bc49 04be a8da d93d 072b ebbd 3669 993d
000003c0: 994b 263d 463d a63c 6ee2 df3d c179 0cbe
000003d0: 7e4b c6bd cda7 d9bd 1187 903d a1ce 833c
000003e0: 7433 78bd d33c c0bb 2ad9 85bd 504c de3d
000003f0: c462 08be aa07 07bc bc8d 173e 7a46 1ebc
-0.08760404 -0.054045897 0.09553022 0.010505113 -0.058853675 -0.004505519 0.10499573 0.12111624
-0.10697615 0.12942584 -0.05376804 -0.064860806 -0.018096639 -0.1416457 0.040661022 0.05222766
-0.010210667 0.055431057 0.06905827 0.087880775 -0.06284317 -0.020747827 -0.050854158 -0.0027752998
-0.1683651 0.04483466 -0.10000801 -0.03399987 -0.087036856 -0.047432233 -0.044662014 0.11945576
0.045119647 -0.06842389 0.09965582 0.062392928 -0.08946483 -0.0721924 0.05961413 0.08711356
-0.020722732 0.050366852 0.07765641 -0.0025963287 -0.12959765 -0.048144292 0.0005237849 0.047481623
0.12088632 0.029531533 -0.11551442 -0.12477501 -0.006955685 0.08346038 -0.046766363 0.114328
0.048818137 0.03285677 -0.061547242 -0.07278869 -0.02517871 0.14629965 -0.08908749 0.08517467
-0.09593083 -0.079063445 0.0114472965 0.13788709 -0.07274315 -0.03726581 0.096950464 -0.03117422
-0.07502162 0.017852731 -0.038552854 0.14272928 -0.03724635 0.016594304 -0.07476976 -0.0017408441
0.015475739 0.06530563 -0.021131217 0.08445453 -0.009770341 0.04580913 0.05211361 -0.026630087
0.15282519 -0.10167583 0.07828657 0.039811492 -0.106580704 0.040001288 -0.052531205 0.003168744
0.032911643 0.03786829 0.0628593 0.113775544 -0.11771181 0.11088663 0.10316871 0.027675835
0.108001664 -0.018901233 0.08143654 -0.04233315 -0.106056504 -0.067855135 -0.044933647 -0.12917271
-0.071500935 0.04779021 -0.15350656 -0.11278064 -0.051389076 -0.12723975 0.15795037 -0.082891956
-0.02369638 0.059302866 -0.028721815 -0.111812845 -0.030078918 -0.00594024 -0.059752785 -0.050309982
0.062571526 -0.07226671 -0.16134119 0.07252511 0.13116542 0.02629667 0.14779113 -0.10586347
0.082830794 0.018643916 0.020699866 -0.011931689 -0.094720274 -0.16242771 -0.02421933 0.14345534
-0.15540454 -0.08579049 -0.032863952 -0.060413234 0.046891615 0.14501338 0.021366643 0.02065402
0.0007842944 -0.09279537 -0.086103305 0.11384974 -0.1294998 0.10217139 0.04515933 -0.0056513054
-0.11165598 0.045627926 0.103334025 0.047880728 -0.093383096 -0.0836114 0.121602274 0.08564614
-0.011185191 -0.1336746 -0.13797373 0.068559006 -0.0945801 -0.0018530677 -0.06332322 -0.048822943
0.14097665 -0.06970213 -0.019675083 -0.024048986 0.034391735 -0.07640982 -0.09639021 -0.099602036
-0.0437221 0.12302558 -0.11096166 -0.123970814 -0.04917455 0.039479166 -0.028787823 -0.10830701
0.15134826 -0.103534505 -0.057060443 0.013603896 0.024578206 0.14330223 -0.102002464 -0.03302588
-0.03318622 -0.07535837 -0.06675731 -0.08616831 0.05966111 0.03947544 -0.096628346 -0.14034808
-0.022356974 0.017348507 -0.058147416 -0.03811805 0.028447822 -0.06436101 -0.101028524 -0.04193289
0.11145439 0.06732701 -0.058526427 0.09078282 0.04192225 -0.087260954 0.09537281 -0.13528924
0.12320693 -0.006035311 0.03884106 0.043086406 -0.13696684 -0.027182136 0.12932646 -0.07928854
0.089157075 0.010981711 0.14231448 -0.06641517 -0.12918752 0.106374085 -0.11482816 0.074907705
0.04059944 0.02029289 0.1093186 -0.1371832 -0.09682368 -0.106277086 0.07057012 0.01608974
-0.060595945 -0.005866626 -0.065355614 0.10854399 -0.13318926 -0.008241573 0.14800161 -0.009660358

bias f4 [50]
00000000: 097c c9bc 8d74 193e 98e0 4b3d c9ab a1bd
00000010: b708 813d e42c d43d 2ea5 7939 4ebc 013e
00000020: a574 30bd df23 cabd ee9f cbbc 146c bb3d
00000030: 3463 bc3d b308 2f3d 34ba a73d 9549 e6bc
00000040: 89c4 a63d a1a0 053e 00d4 ba3d ecfd fd3d
00000050: e05e a63c 9977 77bd cda3 31bd 9232 1e3e
00000060: 5c5d f1bd b0a9 eebd e769 f6bd 1196 153e
00000070: e664 123e b1b6 f33d 30e7 403b 1f3e 153e
00000080: 913b d3bc f62e fd3d 9407 9eba 1df0 99bd
00000090: a678 84bc 6f0b fcbb 10b3 813d 74f2 153e
000000a0: c065 d63d 4613 253c 5619 573d 7caa b33d
000000b0: d2af c3bd 0c2c dcbd 2cb7 5dbc d57a 9fbd
000000c0: 6c80 cbbb 3395 d73d
-0.024595277 0.14985867 0.049774736 -0.078940935 0.0630049 0.10360125 0.00023808025 0.12669489
-0.04307999 -0.09870123 -0.024856534 0.09151474 0.09198609 0.042732906 0.08189812 -0.028111259
0.08142955 0.13049556 0.09122467 0.124019474 0.020308912 -0.06041679 -0.043369103 0.15448979
-0.11785385 -0.11653459 -0.12031918 0.14608027 0.14296302 0.1190008 0.0029434673 0.14574479
-0.02578524 0.12362473 -0.0012056702 -0.07516501 -0.01617081 -0.0076917927 0.063329816 0.1464327
0.10468626 0.010075396 0.052514397 0.08772752 -0.095550194 -0.10750589 -0.013532441 -0.077871
-0.0062103774 0.10526504

mask f4 [50, 50]
00000000: 0000 803f 0000 803f 0000 803f 0000 803f
00000010: 0000 803f 0000 803f 0000 803f 0000 803f
00000020: 0000 803f 0000 803f 0000 803f 0000 803f
00000030: 0000 803f 0000 803f 0000 803f 0000 803f
00000040: 0000 803f 0000 803f 0000 803f 0000 803f
00000050: 0000 803f 0000 803f 0000 803f 0000 803f
00000060: 0000 803f 0000 803f 0000 803f 0000 803f
00000070: 0000 803f 0000 803f 0000 803f 0000 803f
00000080: 0000 803f 0000 803f 0000 803f 0000 803f
00000090: 0000 803f 0000 803f 0000 803f 0000 803f
000000a0: 0000 803f 0000 803f 0000 803f 0000 803f
000000b0: 0000 803f 0000 803f 0000 803f 0000 803f
000000c0: 0000 803f 0000 803f 0000 803f 0000 803f
000000d0: 0000 803f 0000 803f 0000 803f 0000 803f
000000e0: 0000 803f 0000 803f 0000 803f 0000 803f
000000f0: 0000 803f 0000 803f 0000 803f 0000 803f
00000100: 0000 803f 0000 803f 0000 803f 0000 803f
00000110: 0000 803f 0000 803f 0000 803f 0000 803f
00000120: 0000 803f 0000 803f 0000 803f 0000 803f
00000130: 0000 803f 0000 803f 0000 803f 0000 803f
00000140: 0000 803f 0000 803f 0000 803f 0000 803f
00000150: 0000 803f 0000 803f 0000 803f 0000 803f
00000160: 0000 803f 0000 803f 0000 803f 0000 803f
00000170: 0000 803f 0000 803f 0000 803f 0000 803f
00000180: 0000 803f 0000 803f 0000 803f 0000 803f
00000190: 0000 803f 0000 803f 0000 803f 0000 803f
000001a0: 0000 803f 0000 803f 0000 803f 0000 803f
000001b0: 0000 803f 0000 803f 0000 803f 0000 803f
000001c0: 0000 803f 0000 803f 0000 803f 0000 803f
000001d0: 0000 803f 0000 803f 0000 803f 0000 803f
000001e0: 0000 803f 0000 803f 0000 803f 0000 803f
000001f0: 0000 803f 0000 803f 0000 803f 0000 803f
00000200: 0000 803f 0000 803f 0000 803f 0000 803f
00000210: 0000 803f 0000 803f 0000 803f 0000 803f
00000220: 0000 803f 0000 803f 0000 803f 0000 803f
00000230: 0000 803f 0000 803f 0000 803f 0000 803f
00000240: 0000 803f 0000 803f 0000 803f 0000 803f
00000250: 0000 803f 0000 803f 0000 803f 0000 803f
00000260: 0000 803f 0000 803f 0000 803f 0000 803f
00000270: 0000 803f 0000 803f 0000 803f 0000 803f
00000280: 0000 803f 0000 803f 0000 803f 0000 803f
00000290: 0000 803f 0000 803f 0000 803f 0000 803f
000002a0: 0000 803f 0000 803f 0000 803f 0000 803f
000002b0: 0000 803f 0000 803f 0000 803f 0000 803f
000002c0: 0000 803f 0000 803f 0000 803f 0000 803f
000002d0: 0000 803f 0000 803f 0000 803f 0000 803f
000002e0: 0000 803f 0000 803f 0000 803f 0000 803f
000002f0: 0000 803f 0000 803f 0000 803f 0000 803f
00000300: 0000 803f 0000 803f 0000 803f 0000 803f
00000310: 0000 803f 0000 803f 0000 803f 0000 803f
00000320: 0000 803f 0000 803f 0000 803f 0000 803f
00000330: 0000 803f 0000 803f 0000 803f 0000 803f
00000340: 0000 803f 0000 803f 0000 803f 0000 803f
00000350: 0000 803f 0000 803f 0000 803f 0000 803f
00000360: 0000 803f 0000 803f 0000 803f 0000 803f
00000370: 0000 803f 0000 803f 0000 803f 0000 803f
00000380: 0000 803f 0000 803f 0000 803f 0000 803f
00000390: 0000 803f 0000 803f 0000 803f 0000 803f
000003a0: 0000 803f 0000 803f 0000 803f 0000 803f
000003b0: 0000 803f 0000 803f 0000 803f 0000 803f
000003c0: 0000 803f 0000 803f 0000 803f 0000 803f
000003d0: 0000 803f 0000 803f 0000 803f 0000 803f
000003e0: 0000 803f 0000 803f 0000 803f 0000 803f
000003f0: 0000 803f 0000 803f 0000 803f 0000 803f
1.0 1.0 1.0 1.0 1.0 1.0 1.0 1.0
1.0 1.0 1.0 1.0 1.0 1.0 1.0 1.0
1.0 1.0 1.0 1.0 1.0 1.0 1.0 1.0
1.0 1.0 1.0 1.0 1.0 1.0 1.0 1.0
1.0 1.0 1.0 1.0 1.0 1.0 1.0 1.0
1.0 1.0 1.0 1.0 1.0 1.0 1.0 1.0
1.0 1.0 1.0 1.0 1.0 1.0 1.0 1.0
1.0 1.0 1.0 1.0 1.0 1.0 1.0 1.0
1.0 1.0 1.0 1.0 1.0 1.0 1.0 1.0
1.0 1.0 1.0 1.0 1.0 1.0 1.0 1.0
1.0 1.0 1.0 1.0 1.0 1.0 1.0 1.0
1.0 1.0 1.0 1.0 1.0 1.0 1.0 1.0
1.0 1.0 1.0 1.0 1.0 1.0 1.0 1.0
1.0 1.0 1.0 1.0 1.0 1.0 1.0 1.0
1.0 1.0 1.0 1.0 1.0 1.0 1.0 1.0
1.0 1.0 1.0 1.0 1.0 1.0 1.0 1.0
1.0 1.0 1.0 1.0 1.0 1.0 1.0 1.0
1.0 1.0 1.0 1.0 1.0 1.0 1.0 1.0
1.0 1.0 1.0 1.0 1.0 1.0 1.0 1.0
1.0 1.0 1.0 1.0 1.0 1.0 1.0 1.0
1.0 1.0 1.0 1.0 1.0 1.0 1.0 1.0
1.0 1.0 1.0 1.0 1.0 1.0 1.0 1.0
1.0 1.0 1.0 1.0 1.0 1.0 1.0 1.0
1.0 1.0 1.0 1.0 1.0 1.0 1.0 1.0
1.0 1.0 1.0 1.0 1.0 1.0 1.0 1.0
1.0 1.0 1.0 1.0 1.0 1.0 1.0 1.0
1.0 1.0 1.0 1.0 1.0 1.0 1.0 1.0
1.0 1.0 1.0 1.0 1.0 1.0 1.0 1.0
1.0 1.0 1.0 1.0 1.0 1.0 1.0 1.0
1.0 1.0 1.0 1.0 1.0 1.0 1.0 1.0
1.0 1.0 1.0 1.0 1.0 1.0 1.0 1.0
1.0 1.0 1.0 1.0 1.0 1.0 1.0 1.0

weight f4 [50, 50]
00000000: 3524 5fbc cabf 643d 908e 9b3c 22b7 1ebc
00000010: 5801 09bd 2619 abbd fe9a 693d 59a5 7fbd
00000020: 9a81 1a3e be28 eb3d b598 05be eb98 ef3d
00000030: 9e85 973d 382c bc3d c2b7 b23d f390 693d
00000040: f2a8 313d e73a 933d deb5 403a 9730 dcbd
00000050: 3560 afbc 3e3b 32bb c88c 47bc 3306 3dbe
00000060: 8664 ee3d 0e20 233e adc9 8bbd 1c85 9abd
00000070: c68c 0c3e 0df1 10be d0b4 bf3d f897 d63d
00000080: 3f7d 22bd dead 0c3e 1bb9 b1bd e0d3 bebd
00000090: 9d97 32bc ac05 96bd ac69 c5bd d93a aebd
000000a0: 5ea5 cc3d 88d2 21bd 3ba1 0c3d 0c89 cdbd
000000b0: 18eb 0e3e 2f0f 123e 7011 1f3d 929b 923d
000000c0: f17a f83d 4863 f4bd 9d3b 6abd 2d9a 82bd
000000d0: 0313 453d b817 ac3d f926 7dbd 913f b43d
000000e0: 6929 9fbd 1296 84bc abeb 4d3d 89d7 ad3d
000000f0: ebc4 20be 3049 bebd af43 3d3d aa64 eabc
00000100: 6416 6a3c 7123 e43d 0e8a 4cbd ade3 afbd
00000110: 3e51 78bd 4675 bfbd f60c 8b3c ab2f a9ba
00000120: d12a de3c b5b1 2ebe 4884 58bd 55a6 713d
00000130: 334d 2fbd c0f1 1c3d b9c1 61bd de25 b43d
00000140: a302 19bd 8e5f 6b3c 7ffc 98b9 100e 54bd
00000150: 730d 97bd d272 b4bc 6848 0fbd 342f 063e
00000160: c911 ec3d 990c f0bd be01 fd3d bb54 f7bc
00000170: df41 42bd 2ad7 a23d 8ea7 d93d c301 fc3d
00000180: d560 e5bd bd30 b4bd 45ad 8f3d c90b 1d3e
00000190: 5de8 be3d a232 d7bc 6d5d 88bd 5f3a a23d
000001a0: 615b 6d3d bc6b acbc 46ea 5cbd a7ff 39bd
000001b0: 9554 1d3d 64f2 01bd be84 0cbd eaab d3bc
000001c0: c97e 25bd 5919 7cbc 1634 4ebd 5964 10bd
000001d0: f695 a4bd c4e3 a03d 9631 9abc ef6b 75bd
000001e0: d53a 38be d84c a13d 22cd 10bd 0930 9bbc
000001f0: 1b52 843c 331e 0b3c 09dc 96bc 25d3 1dbe
00000200: d046 07be 33c0 52bd 7389 cb3c 8fbe 2b3d
00000210: 957b 3a3a e0b9 47bc 0303 15be 10ba 00be
00000220: 163b 55bd b151 bfbb 8f9e 143e 5eac d63d
00000230: 4159 b5bd 9769 b5bc 263f db3c 8bef 603d
00000240: 3efe afbd c505 8cbd 65d2 92bd 89bc 103d
00000250: 2160 5dbd 3fd2 28bd 7a17 3bbd 92ca 8b3b
00000260: 74a6 003e 4d7b 9dbd 7118 f53d 5f32 ddbb
00000270: fc20 0fbd ec7f bcbd 8d08 933d 636b f33d
00000280: 7a40 8ebd f2aa b4bd 1270 ce3c 4e68 c43d
00000290: 0574 f23d 5132 b4bc fca3 e5bd dbee 00be
000002a0: 00cd d6bb d870 f13d 9007 8e3d ec95 b03d
000002b0: 1852 d03d 1805 b6bd 2be7 7bbd 1223 203c
000002c0: c35b bc3d 48f7 bb3d 9a07 10bd c31d a4bc
000002d0: f7d4 f8bc 046a 8b3d 57b6 603d 01e2 37bb
000002e0: 558b aabd 874f a63d ba7b fd3d 8aff 91bd
000002f0: 5344 3bbd f4e8 f23d d0ca 3fbc eeb7 c83d
00000300: 2c94 843d 4e3f 8bbd 876e a9bc da81 bc3d
00000310: 70af f53d 82aa 83bd 57bb 87bd 56a3 683d
00000320: a0b2 51bd 3b3a d73c 4327 103d 4b19 f5bd
00000330: 7da9 33bd 41c2 4fbb b626 df3d ead6 cb3d
00000340: 04c7 bebd 9ed6 2e3d 65dd b43d fe68 2ebd
00000350: d68b 9dbd 1e4f d53d d7df f8bc c958 cbbb
00000360: 1db3 1bbd e3d7 663d e1d3 223d b879 36bd
00000370: 3805 49bd 899a 24bd 9021 eabc 68db 703d
00000380: 2730 5dbd 4011 adbd b3c5 11be 7395 143e
00000390: b560 953d 98b4 043d dd7e c8bd baca ad3d
000003a0: 1eb0 92bd ccc1 52bd 0b34 02be 636a 053e
000003b0: fba6 9c3d 9752 aa3d b29c fd3d 3fbf 7bbc
000003c0: 24cb f3bd be79 9f3d 4687 8cbd f105 acbd
000003d0: 3bb9 943d 8d77 163d a202 7b3d 1c54 bb3d
000003e0: bd33 c23d 6258 fe3d 9b38 24bd ebfd ac39
000003f0: 1926 d53d 61ed b0bd 9113 1c3d 96bf cd3c
-0.013619472 0.055846967 0.018988878 -0.009687217 -0.033448547 -0.08354406 0.057032578 -0.062413547
0.15088502 0.1148238 -0.13046534 0.11699089 0.07398532 0.091881216 0.08726455 0.057023
0.04337401 0.07188969 0.0007351319 -0.10751455 -0.02140818 -0.0027195956 -0.012179561 -0.18459396
0.11640267 0.15930197 -0.06825576 -0.0754492 0.13725576 -0.14154454 0.09360659 0.104782045
-0.039670225 0.137382 -0.08677884 -0.09317756 -0.010900405 -0.073253006 -0.09639296 -0.08507318
0.09992479 -0.03950742 0.03433345 -0.10035905 0.13956869 0.14263605 0.03883499 0.07158579
0.12132824 -0.11932999 -0.057185758 -0.06377063 0.048113834 0.084029615 -0.061804745 0.08801187
-0.0777157 -0.01618484 0.05027358 0.08488376 -0.15700118 -0.09291303 0.046207126 -0.028612453
0.014287565 0.111395724 -0.049936347 -0.085883476 -0.060624354 -0.0934854 0.016973954 -0.0012907883
0.027120026 -0.17059977 -0.05286053 0.058996517 -0.042798232 0.03831649 -0.05511639 0.08796285
-0.03735603 0.014366044 -0.00029179823 -0.051771224 -0.07375612 -0.022027407 -0.03498116 0.13103944
0.1152683 -0.11721153 0.12353848 -0.03019177 -0.0474261 0.079511955 0.10627662 0.123050235
-0.1120011 -0.087983586 0.070154704 0.15336527 0.093216635 -0.02626926 -0.066584446 0.0792129
0.057948474 -0.021047466 -0.053934358 -0.045409825 0.03841074 -0.031725302 -0.03430628 -0.025838811
-0.040404115 -0.015386903 -0.05034264 -0.03525195 -0.08036415 0.07855943 -0.018822473 -0.059917387
-0.17991193 0.07875985 -0.03535188 -0.018943803 0.016152432 0.008491087 -0.018415468 -0.15412576
-0.13210607 -0.051452827 0.024845814 0.041929778 0.0007113752 -0.012190312 -0.1455193 -0.12570977
-0.052058302 -0.005838596 0.1451361 0.10482095 -0.088549145 -0.022145076 0.02676351 0.054915946
-0.08593415 -0.06837038 -0.07169036 0.03533605 -0.054046754 -0.04121613 -0.045676686 0.0042660916
0.12563497 -0.076895334 0.119675525 -0.0067503895 -0.034943566 -0.09204087 0.07179365 0.11885717
-0.06945892 -0.08821668 0.025199924 0.09590207 0.11838535 -0.021996649 -0.11212918 -0.12591116
-0.0065551996 0.11789101 0.06935036 0.08622345 0.10171908 -0.0888769 -0.061499756 0.009773986
0.0919719 0.091780245 -0.0351635 -0.020033723 -0.030374987 0.0680733 0.054861393 -0.0028058293
-0.08327357 0.081206374 0.123771146 -0.07128818 -0.045719456 0.118608385 -0.011706069 0.09800707
0.06473574 -0.06799184 -0.020682586 0.09204455 0.11996353 -0.06429006 -0.06627529 0.056796394
-0.05119574 0.026272884 0.035193693 -0.11967715 -0.04386281 -0.0031701478 0.108960554 0.09953101
-0.09315303 0.042685144 0.0883129 -0.042580597 -0.07692687 0.10415481 -0.030380173 -0.0062056524
-0.038012613 0.05635823 0.039752845 -0.044549674 -0.049077243 -0.04018644 -0.028580457 0.058802992
-0.054001 -0.08450556 -0.14235573 0.14510135 0.07293836 0.03239879 -0.09789822 0.08485933
-0.07162498 -0.05145435 -0.12715165 0.13028865 0.076490365 0.08316534 0.12383403 -0.015365421
-0.119039804 0.07786892 -0.06861739 -0.08399571 0.072618924 0.036735106 0.061281808 0.09146902
0.094825245 0.124192014 -0.040093046 0.0003299558 0.10407657 -0.086390264 0.038104597 0.02511577

bias f4 [50]
00000000: 3415 263d 4198 1abe eba3 2cbe a463 923d
00000010: ee44 bdbd 7faf 023e 365b bcbd b640 03be
00000020: 8d15 b5bc daae 483d e4f3 c7bd 60c4 543c
00000030: 466d 0cbe 9dd0 b73d 07d8 39be b975 153c
00000040: 6e74 793d 2fd2 01be 3398 a5bd 5071 243e
00000050: 56b8 1bbd 842b 3dbe ab98 f93d cb72 ddbd
00000060: e4ea 90bd 2557 953d 25b4 143e b88c 0d3c
00000070: 9c0c 903d ee68 7a3c ca90 0c3d 45f7 123e
00000080: 7d34 0dbe 61bf 84bd d19e e7bd 0526 50ba
00000090: 2d79 7fbc 5bdd 36bd c65a cc3d 9418 c6bd
000000a0: 42f3 9abd ae1f 1ebb 66df 323c fbbd b73d
000000b0: 7cea bb3d c7ac 1bbd 3184 a9bd dbbb 883c
000000c0: 936a 9bbd eadf b4bd
0.040547565 -0.15097143 -0.16859405 0.07147911 -0.09241663 0.12762259 -0.091970846 -0.12817654
-0.022105003 0.048994876 -0.09763315 0.012986273 -0.1371356 0.08975337 -0.18148814 0.009122306
0.06090205 -0.12677835 -0.0808567 0.1605885 -0.038017593 -0.18473631 0.12187322 -0.10812911
-0.07076052 0.07292012 0.14521845 0.008639507 0.07033655 0.015283806 0.03431777 0.14352138
-0.13789554 -0.06481815 -0.11309589 -0.00079402357 -0.015592855 -0.044644695 0.09978251 -0.09672657
-0.07565929 -0.002412777 0.01091752 0.08971783 0.09175584 -0.03800657 -0.08277167 0.016691139
-0.07588687 -0.08831771

mask f4 [50, 50]
00000000: 0000 803f 0000 803f 0000 803f 0000 803f
00000010: 0000 803f 0000 803f 0000 803f 0000 803f
00000020: 0000 803f 0000 803f 0000 803f 0000 803f
00000030: 0000 803f 0000 803f 0000 803f 0000 803f
00000040: 0000 803f 0000 803f 0000 803f 0000 803f
00000050: 0000 803f 0000 803f 0000 803f 0000 803f
00000060: 0000 803f 0000 803f 0000 803f 0000 803f
00000070: 0000 803f 0000 803f 0000 803f 0000 803f
00000080: 0000 803f 0000 803f 0000 803f 0000 803f
00000090: 0000 803f 0000 803f 0000 803f 0000 803f
000000a0: 0000 803f 0000 803f 0000 803f 0000 803f
000000b0: 0000 803f 0000 803f 0000 803f 0000 803f
000000c0: 0000 803f 0000 803f 0000 803f 0000 803f
000000d0: 0000 803f 0000 803f 0000 803f 0000 803f
000000e0: 0000 803f 0000 803f 0000 803f 0000 803f
000000f0: 0000 803f 0000 803f 0000 803f 0000 803f
00000100: 0000 803f 0000 803f 0000 803f 0000 803f
00000110: 0000 803f 0000 803f 0000 803f 0000 803f
00000120: 0000 803f 0000 803f 0000 803f 0000 803f
00000130: 0000 803f 0000 803f 0000 803f 0000 803f
00000140: 0000 803f 0000 803f 0000 803f 0000 803f
00000150: 0000 803f 0000 803f 0000 803f 0000 803f
00000160: 0000 803f 0000 803f 0000 803f 0000 803f
00000170: 0000 803f 0000 803f 0000 803f 0000 803f
00000180: 0000 803f 0000 803f 0000 803f 0000 803f
00000190: 0000 803f 0000 803f 0000 803f 0000 803f
000001a0: 0000 803f 0000 803f 0000 803f 0000 803f
000001b0: 0000 803f 0000 803f 0000 803f 0000 803f
000001c0: 0000 803f 0000 803f 0000 803f 0000 803f
000001d0: 0000 803f 0000 803f 0000 803f 0000 803f
000001e0: 0000 803f 0000 803f 0000 803f 0000 803f
000001f0: 0000 803f 0000 803f 0000 803f 0000 803f
00000200: 0000 803f 0000 803f 0000 803f 0000 803f
00000210: 0000 803f 0000 803f 0000 803f 0000 803f
00000220: 0000 803f 0000 803f 0000 803f 0000 803f
00000230: 0000 803f 0000 803f 0000 803f 0000 803f
00000240: 0000 803f 0000 803f 0000 803f 0000 803f
00000250: 0000 803f 0000 803f 0000 803f 0000 803f
00000260: 0000 803f 0000 803f 0000 803f 0000 803f
00000270: 0000 803f 0000 803f 0000 803f 0000 803f
00000280: 0000 803f 0000 803f 0000 803f 0000 803f
00000290: 0000 803f 0000 803f 0000 803f 0000 803f
000002a0: 0000 803f 0000 803f 0000 803f 0000 803f
000002b0: 0000 803f 0000 803f 0000 803f 0000 803f
000002c0: 0000 803f 0000 803f 0000 803f 0000 803f
000002d0: 0000 803f 0000 803f 0000 803f 0000 803f
000002e0: 0000 803f 0000 803f 0000 803f 0000 803f
000002f0: 0000 803f 0000 803f 0000 803f 0000 803f
00000300: 0000 803f 0000 803f 0000 803f 0000 803f
00000310: 0000 803f 0000 803f 0000 803f 0000 803f
00000320: 0000 803f 0000 803f 0000 803f 0000 803f
00000330: 0000 803f 0000 803f 0000 803f 0000 803f
00000340: 0000 803f 0000 803f 0000 803f 0000 803f
00000350: 0000 803f 0000 803f 0000 803f 0000 803f
00000360: 0000 803f 0000 803f 0000 803f 0000 803f
00000370: 0000 803f 0000 803f 0000 803f 0000 803f
00000380: 0000 803f 0000 803f 0000 803f 0000 803f
00000390: 0000 803f 0000 803f 0000 803f 0000 803f
000003a0: 0000 803f 0000 803f 0000 803f 0000 803f
000003b0: 0000 803f 0000 803f 0000 803f 0000 803f
000003c0: 0000 803f 0000 803f 0000 803f 0000 803f
000003d0: 0000 803f 0000 803f 0000 803f 0000 803f
000003e0: 0000 803f 0000 803f 0000 803f 0000 803f
000003f0: 0000 803f 0000 803f 0000 803f 0000 803f
1.0 1.0 1.0 1.0 1.0 1.0 1.0 1.0
1.0 1.0 1.0 1.0 1.0 1.0 1.0 1.0
1.0 1.0 1.0 1.0 1.0 1.0 1.0 1.0
1.0 1.0 1.0 1.0 1.0 1.0 1.0 1.0
1.0 1.0 1.0 1.0 1.0 1.0 1.0 1.0
1.0 1.0 1.0 1.0 1.0 1.0 1.0 1.0
1.0 1.0 1.0 1.0 1.0 1.0 1.0 1.0
1.0 1.0 1.0 1.0 1.0 1.0 1.0 1.0
1.0 1.0 1.0 1.0 1.0 1.0 1.0 1.0
1.0 1.0 1.0 1.0 1.0 1.0 1.0 1.0
1.0 1.0 1.0 1.0 1.0 1.0 1.0 1.0
1.0 1.0 1.0 1.0 1.0 1.0 1.0 1.0
1.0 1.0 1.0 1.0 1.0 1.0 1.0 1.0
1.0 1.0 1.0 1.0 1.0 1.0 1.0 1.0
1.0 1.0 1.0 1.0 1.0 1.0 1.0 1.0
1.0 1.0 1.0 1.0 1.0 1.0 1.0 1.0
1.0 1.0 1.0 1.0 1.0 1.0 1.0 1.0
1.0 1.0 1.0 1.0 1.0 1.0 1.0 1.0
1.0 1.0 1.0 1.0 1.0 1.0 1.0 1.0
1.0 1.0 1.0 1.0 1.0 1.0 1.0 1.0
1.0 1.0 1.0 1.0 1.0 1.0 1.0 1.0
1.0 1.0 1.0 1.0 1.0 1.0 1.0 1.0
1.0 1.0 1.0 1.0 1.0 1.0 1.0 1.0
1.0 1.0 1.0 1.0 1.0 1.0 1.0 1.0
1.0 1.0 1.0 1.0 1.0 1.0 1.0 1.0
1.0 1.0 1.0 1.0 1.0 1.0 1.0 1.0
1.0 1.0 1.0 1.0 1.0 1.0 1.0 1.0
1.0 1.0 1.0 1.0 1.0 1.0 1.0 1.0
1.0 1.0 1.0 1.0 1.0 1.0 1.0 1.0
1.0 1.0 1.0 1.0 1.0 1.0 1.0 1.0
1.0 1.0 1.0 1.0 1.0 1.0 1.0 1.0
1.0 1.0 1.0 1.0 1.0 1.0 1.0 1.0

weight f4 [4, 50]
00000000: 00fe af3a b8a7 9dbc 9c78 d73d b8a1 ba3c
00000010: 4aa6 d53d 9c5e 1f3d 5f68 80bd b223 ec3d
00000020: 8879 bf3d 206a 74bc 8040 523c 4cda ccbd
00000030: c08a 5ebc 22a3 31bd 6275 68bd c65d d73d
00000040: 95c1 9dbd 4d01 053e ce00 4ebd 0c43 08bd
00000050: bed8 d3bd e6ac 8f3d c0af 92bc 7094 0b3c
00000060: 241f b5bd 80f2 473b 1e74 c1bd 404d ddbb
00000070: a0d0 a43d 7ac2 9ebd 5f58 023e 061f e2bd
00000080: bc75 0f3d a0af c93c 4a2e 60bd 9869 88bd
00000090: 4ac8 0cbe 02c3 fe3d 9c0e a2bd a696 de3d
000000a0: 5246 babd 82cc d7bd a483 853d 6056 983b
000000b0: 329a d23d 4853 da3d 2bf7 fabd 34a6 a43d
000000c0: e6f1 c6bd 044c 083d 50ca 28bc 2fa6 f2bd
000000d0: 8400 903d 003c b4bd 32e9 60bd 590d 083e
000000e0: 6242 c0bd b0e0 14bd 7840 253d 4018 5a3c
000000f0: 5955 02be 9dff 94bd e1f8 91bd 38f0 e03c
00000100: 98cc b43d 0080 e1b8 1c6a 83bd b6ef ecbd
00000110: be76 c03d f12f 81bd b47a 013d d03f b53d
00000120: 9810 d9bc d3f2 083e 90f7 a33c daad 0dbe
00000130: 37ab 083e 2094 b93b de82 e33d 0067 9a3b
00000140: 7283 fc3d 74cd 9f3d 32ed 86bd 2085 d63d
00000150: 2694 f63d 0cd0 b83d d077 843d 6a0e a8bd
00000160: 2e34 fd3d 002b b23a 9fc0 9dbd 1406 27bd
00000170: 08f5 d13d 9430 9fbc 00bc d43d e18c bdbd
00000180: 5075 1ebc e78c e1bd e093 f2bb 4270 50bd
00000190: 92ec 0cbd 535d 1abe 1568 f8bd 86f2 ea3c
000001a0: 3508 053a 5555 c73b 5df5 c7bc f5a5 42bd
000001b0: 2f45 75bc d61d b33d 08e1 46be 30f3 1bbd
000001c0: fa33 2fbd 2ee0 123c da93 cabd 753b 1d3e
000001d0: e69d 42bc 3d90 debd d4b1 ec3d 6804 f63d
000001e0: 1063 9cbb 59db bebd 5b4f 0a3e 087e 35bc
000001f0: abd6 24bc 6242 e8bb ce26 803d 150b 023e
00000200: a314 34bb 3e69 a03d 4c04 393d 894a a03d
00000210: 6ae2 30bd da9c c33d f381 16bc 535d 6a3d
00000220: 986b 38bd 880e 90bd 648c 743c 0c56 ac3d
00000230: 31ad fbbd 3bfc 93bc b4a0 f43d 82e0 593d
00000240: 3261 a73d e1c8 edbd 9efc dbbd 7a0c d4bd
00000250: c723 47bd d8fe 26bc cc57 8cbb 7be7 ee3d
00000260: e0f0 d83c dab5 0abd 9c69 8b3b 17df 26bd
00000270: 64a4 973d 46f2 febc b30e ae3d 314f aa3d
00000280: edec d93d cd25 cebd af80 643d 35f5 72bd
00000290: 2461 313e 36ed 06be c389 1c3e ccb1 9c3c
000002a0: 2e46 c63d 72fc 14be c02c 083e af8d b43d
000002b0: 865d 693d 6b86 cf3d 04cd 6b3d 2a2a fcbd
000002c0: 91d1 d2bd 702d 4bbc 4984 a33c ac01 f6bc
000002d0: 327a bebd 482b bbbc 4dbf 0e3d c07a aa3d
000002e0: 72b7 373c 8751 be3d b013 133d 0131 b53d
000002f0: 8299 833d 628f e63c 514d 54bd 793a 88bd
00000300: 3dc0 19bc 595b 95bd edf8 cfbc 55bc e43c
00000310: 910f a03d c9a6 c4bd 8963 f53d ec1c ec3d
0.0013427138 -0.019245014 0.10521051 0.022782192 0.10432108 0.038908586 -0.06269907 0.11530246
0.09349352 -0.01491788 0.012832761 -0.10002574 -0.013582885 -0.043368466 -0.05675257 0.10515933
-0.077029385 0.12988777 -0.050293736 -0.033267066 -0.10344075 0.070154 -0.01790607 0.008519277
-0.0884383 0.0030509531 -0.09445976 -0.0067535937 0.080476046 -0.07751937 0.12729023 -0.110410735
0.03502439 0.024619877 -0.054731645 -0.066607654 -0.13748279 0.124395385 -0.07912943 0.10868578
-0.09095444 -0.10537054 0.06519249 0.0046489686 0.10283317 0.10660416 -0.12254175 0.08039513
-0.09714107 0.03327562 -0.010302141 -0.11848103 0.07031348 -0.088005066 -0.054909892 0.13286342
-0.093876615 -0.03634709 0.040344685 0.013311446 -0.1272787 -0.07275317 -0.07127548 0.027458295
0.08828086 -0.00010752678 -0.06416723 -0.11569159 0.09397648 -0.06307972 0.03161116 0.08850062
-0.02649717 0.1337388 0.020015508 -0.1383585 0.13346563 0.00566341 0.11108945 0.0047119856
0.12329759 0.07802859 -0.0658821 0.1047461 0.12039976 0.09024057 0.06468165 -0.08205874
0.12363468 0.0013593137 -0.07702755 -0.04077728 0.10251814 -0.019432344 0.10387421 -0.09255386
-0.009671524 -0.11013203 -0.007402882 -0.050888307 -0.0344053 -0.15074663 -0.12129227 0.028680097
0.00050747703 0.0060831704 -0.02440899 -0.04752155 -0.014970108 0.08745925 -0.1942178 -0.03807372
-0.042774178 0.008964581 -0.09891482 0.15354712 -0.011878466 -0.10867355 0.115573555 0.12012559
-0.0047725514 -0.09319181 0.13506834 -0.0110774115 -0.010060946 -0.0070879916 0.062574014 0.1269954
-0.002747812 0.07832573 0.045170113 0.078267165 -0.043184675 0.095514014 -0.009186256 0.057217907
-0.045024484 -0.070340216 0.01492605 0.0841485 -0.12288893 -0.018064609 0.11944714 0.053192623
0.081728354 -0.1161058 -0.10741542 -0.10353942 -0.048618104 -0.010192595 -0.004282927 0.11665245
0.026482046 -0.033864833 0.004254533 -0.0407401 0.07404402 -0.031121384 0.084988974 0.08315886
0.10640893 -0.10065804 0.055786785 -0.05931588 0.17322212 -0.13176426 0.15286927 0.019127749
0.096813545 -0.14549425 0.13298321 0.088160865 0.056973957 0.1013306 0.057568565 -0.1231273
-0.10293878 -0.01240097 0.01996054 -0.030030094 -0.09300651 -0.022847787 0.034850407 0.08324194
0.01121317 0.09292894 0.035907447 0.088472374 0.06425764 0.028144542 -0.051831547 -0.06651778
-0.009384212 -0.07292814 -0.025387252 0.027921835 0.07815469 -0.09602124 0.119818754 0.11528954

bias f4 [4]
00000000: 8997 bb3c f700 4a3e 846c 003e f3be 07be
0.022899406 0.1972693 0.12541395 -0.13256435

mask f4 [4, 50]
00000000: 0000 0000 0000 0000 0000 0000 0000 0000
00000010: 0000 0000 0000 0000 0000 0000 0000 0000
00000020: 0000 0000 0000 0000 0000 0000 0000 0000
00000030: 0000 0000 0000 0000 0000 0000 0000 0000
00000040: 0000 0000 0000 0000 0000 0000 0000 0000
00000050: 0000 0000 0000 0000 0000 0000 0000 0000
00000060: 0000 0000 0000 0000 0000 0000 0000 0000
00000070: 0000 0000 0000 0000 0000 0000 0000 0000
00000080: 0000 0000 0000 0000 0000 0000 0000 0000
00000090: 0000 0000 0000 0000 0000 0000 0000 0000
000000a0: 0000 0000 0000 0000 0000 0000 0000 0000
000000b0: 0000 0000 0000 0000 0000 0000 0000 0000
000000c0: 0000 0000 0000 0000 0000 0000 0000 0000
000000d0: 0000 0000 0000 0000 0000 0000 0000 0000
000000e0: 0000 0000 0000 0000 0000 0000 0000 0000
000000f0: 0000 0000 0000 0000 0000 0000 0000 0000
00000100: 0000 0000 0000 0000 0000 0000 0000 0000
00000110: 0000 0000 0000 0000 0000 0000 0000 0000
00000120: 0000 0000 0000 0000 0000 0000 0000 0000
00000130: 0000 0000 0000 0000 0000 0000 0000 0000
00000140: 0000 0000 0000 0000 0000 0000 0000 0000
00000150: 0000 0000 0000 0000 0000 0000 0000 0000
00000160: 0000 0000 0000 0000 0000 0000 0000 0000
00000170: 0000 0000 0000 0000 0000 0000 0000 0000
00000180: 0000 0000 0000 0000 0000 0000 0000 0000
00000190: 0000 803f 0000 803f 0000 803f 0000 803f
000001a0: 0000 803f 0000 803f 0000 803f 0000 803f
000001b0: 0000 803f 0000 803f 0000 803f 0000 803f
000001c0: 0000 803f 0000 803f 0000 803f 0000 803f
000001d0: 0000 803f 0000 803f 0000 803f 0000 803f
000001e0: 0000 803f 0000 803f 0000 803f 0000 803f
000001f0: 0000 803f 0000 803f 0000 803f 0000 803f
00000200: 0000 803f 0000 803f 0000 803f 0000 803f
00000210: 0000 803f 0000 803f 0000 803f 0000 803f
00000220: 0000 803f 0000 803f 0000 803f 0000 803f
00000230: 0000 803f 0000 803f 0000 803f 0000 803f
00000240: 0000 803f 0000 803f 0000 803f 0000 803f
00000250: 0000 803f 0000 803f 0000 803f 0000 803f
00000260: 0000 803f 0000 803f 0000 803f 0000 803f
00000270: 0000 803f 0000 803f 0000 803f 0000 803f
00000280: 0000 803f 0000 803f 0000 803f 0000 803f
00000290: 0000 803f 0000 803f 0000 803f 0000 803f
000002a0: 0000 803f 0000 803f 0000 803f 0000 803f
000002b0: 0000 803f 0000 803f 0000 803f 0000 803f
000002c0: 0000 803f 0000 803f 0000 803f 0000 803f
000002d0: 0000 803f 0000 803f 0000 803f 0000 803f
000002e0: 0000 803f 0000 803f 0000 803f 0000 803f
000002f0: 0000 803f 0000 803f 0000 803f 0000 803f
00000300: 0000 803f 0000 803f 0000 803f 0000 803f
00000310: 0000 803f 0000 803f 0000 803f 0000 803f
0.0 0.0 0.0 0.0 0.0 0.0 0.0 0.0
0.0 0.0 0.0 0.0 0.0 0.0 0.0 0.0
0.0 0.0 0.0 0.0 0.0 0.0 0.0 0.0
0.0 0.0 0.0 0.0 0.0 0.0 0.0 0.0
0.0 0.0 0.0 0.0 0.0 0.0 0.0 0.0
0.0 0.0 0.0 0.0 0.0 0.0 0.0 0.0
0.0 0.0 0.0 0.0 0.0 0.0 0.0 0.0
0.0 0.0 0.0 0.0 0.0 0.0 0.0 0.0
0.0 0.0 0.0 0.0 0.0 0.0 0.0 0.0
0.0 0.0 0.0 0.0 0.0 0.0 0.0 0.0
0.0 0.0 0.0 0.0 0.0 0.0 0.0 0.0
0.0 0.0 0.0 0.0 0.0 0.0 0.0 0.0
0.0 0.0 0.0 0.0 1.0 1.0 1.0 1.0
1.0 1.0 1.0 1.0 1.0 1.0 1.0 1.0
1.0 1.0 1.0 1.0 1.0 1.0 1.0 1.0
1.0 1.0 1.0 1.0 1.0 1.0 1.0 1.0
1.0 1.0 1.0 1.0 1.0 1.0 1.0 1.0
1.0 1.0 1.0 1.0 1.0 1.0 1.0 1.0
1.0 1.0 1.0 1.0 1.0 1.0 1.0 1.0
1.0 1.0 1.0 1.0 1.0 1.0 1.0 1.0
1.0 1.0 1.0 1.0 1.0 1.0 1.0 1.0
1.0 1.0 1.0 1.0 1.0 1.0 1.0 1.0
1.0 1.0 1.0 1.0 1.0 1.0 1.0 1.0
1.0 1.0 1.0 1.0 1.0 1.0 1.0 1.0
1.0 1.0 1.0 1.0 1.0 1.0 1.0 1.0

weight f4 [50, 2]
00000000: 4faa d03d f882 06bf 21f9 a73c f439 2ebe
00000010: 868e 183f 9b40 2b3f 2721 1a3f b2ab d13e
00000020: 2f5b 553f fad5 eebe 674d 1fbf 8719 c5be
00000030: 69e1 133f 580d 853d 93ad 22bd e0aa e6bc
00000040: 8eef 643e 28ec f9be a312 93bd 8d41 33bf
00000050: ec1a 2dbe e03f 6ebd f7a6 ccbe 1ac4 e43e
00000060: 3f36 25bf 6cdb 0fbe 18ce d13d c7c4 133f
00000070: 8b76 cf3d 3c26 fbbe f667 7abe 300d 8d3d
00000080: 4387 bc3e 007a bcbc f7b2 f8be 3317 283f
00000090: 1a42 cb3e c0b0 e2be a2d0 dfbe 110b 023f
000000a0: 9c42 cb3e 1fd9 0dbf 0bd2 4e3e 5890 3c3e
000000b0: ba72 62bd 10df c03d f368 2dbe 5b10 2cbf
000000c0: b88e e63e c0fb a2bd 9afe 813e 5a33 fdbe
000000d0: ab60 2ebf eedd 8c3e c8ff 9fbd ef9f dcbe
000000e0: 72d1 f1be 94f6 3abe 53b7 03be 97c4 80be
000000f0: 31ee e03c e45c 143e ebb7 ec3d b0c6 8a3d
00000100: 306f 26bf 526a 1dbf 8d65 323e d022 c9bd
00000110: db4f 1abf 4094 d3bc afc2 9b3e 90c9 113d
00000120: e271 1a3f 004a 3bbc 4428 ad3e 11e7 243f
00000130: 81f5 ed3d 56ba 28bf f125 b0be 88f5 fabe
00000140: 6799 63be 0091 d0bd 8fc2 763c be76 82be
00000150: 5287 e83e f8bc 0dbe b927 aabe 2338 113f
00000160: 41b3 e53d a4d9 20bf 6e2e 023f 60e9 893e
00000170: af94 ae3e 6cdb 0fbf 038d 2abf 44b1 2abf
00000180: 6b85 1dbf 4c03 8cbe 4776 823e 0029 1bbd
0.10188734 -0.5254359 0.020504536 -0.17014295 0.59592474 0.66895455 0.60206836 0.40951306
0.8334226 -0.46647626 -0.6222748 -0.38496038 0.57765824 0.06496686 -0.039716315 -0.028157651
0.22357008 -0.48812985 -0.07181289 -0.700219 -0.16904801 -0.058166385 -0.39971134 0.44680864
-0.645359 -0.14048547 0.102443874 0.57722133 0.10130032 -0.49052608 -0.2445372 0.06887281
0.36821947 -0.023007393 -0.4857404 0.656604 0.3969887 -0.44275475 -0.43713862 0.50798136
0.39699256 -0.55409425 0.20197313 0.18414438 -0.055285193 0.09417546 -0.16934566 -0.67212456
0.4503076 -0.07958174 0.25389558 -0.4945324 -0.68116254 0.2751307 -0.07812458 -0.4309077
-0.47230107 -0.18258125 -0.12862901 -0.25149986 0.027457329 0.1448856 0.11558517 0.06776178
-0.6501341 -0.61490357 0.17421551 -0.09821093 -0.602781 -0.025827527 0.3042197 0.035592616
0.6033002 -0.011431217 0.33819783 0.6441508 0.11619092 -0.65909326 -0.34403947 -0.4901545
-0.22226487 -0.101839066 0.015061035 -0.25481218 0.4541574 -0.13841617 -0.3323343 0.5672628
0.112158306 -0.62832093 0.50852096 0.26935863 0.34097812 -0.56194186 -0.66621417 -0.66676736
-0.61531705 -0.27346265 0.25480863 -0.037880898

bias f4 [50]
00000000: c5ec cfbd 72b5 ce3e 0d45 8b3e 5af7 53be
00000010: e45b 103f c7f0 613e 3baa aa3d 3f6b 38bf
00000020: 7890 273f 6b6e a3be da8b 1dbe be16 963e
00000030: 8cfe 8e3e 29bb d6bd c3a3 273f c9b2 2fbf
00000040: 384a 3ebe 2e04 e73e 47a4 1a3f bed7 1b3f
00000050: fc72 193e 4f35 28bf fb27 a23e f7bb f3be
00000060: c147 b6be 37d0 23bf bda2 fcbe 6ce1 63be
00000070: 01b9 b03d 7251 36bf b7a7 f6be a718 2a3f
00000080: 887a 253e f257 b9be 8a3f 9fbe 87fe 333f
00000090: 1937 2ebf d8a5 cfbd d6fc 0f3d c769 313f
000000a0: 4063 253f d55c a2be 5ab9 1dbf 3fd3 183e
000000b0: ac21 36be e2bc 26bf 001a eebc da09 16bf
000000c0: 5918 983e 140c 133f
-0.10152582 0.40372807 0.2720112 -0.20699826 0.56390214 0.22064506 0.0833325 -0.72038645
0.65454817 -0.3192018 -0.1538538 0.29314226 0.2792858 -0.10484917 0.65484256 -0.6863218
-0.18583 0.45120376 0.6040692 0.6087607 0.1498527 -0.6570634 0.31671128 -0.47604343
-0.3560162 -0.63989586 -0.4934291 -0.2225396 0.08629037 -0.71218026 -0.4817483 0.66443866
0.16160023 -0.3619991 -0.31103164 0.7031025 -0.6805282 -0.10139054 0.035153233 0.6930203
0.6460457 -0.3171145 -0.6161095 0.14924334 -0.17786282 -0.6513196 -0.029065132 -0.5860878
0.29706076 0.57440305

mask f4 [50, 2]
00000000: 0000 803f 0000 0000 0000 803f 0000 0000
00000010: 0000 803f 0000 0000 0000 803f 0000 0000
00000020: 0000 803f 0000 0000 0000 803f 0000 0000
00000030: 0000 803f 0000 0000 0000 803f 0000 0000
00000040: 0000 803f 0000 0000 0000 803f 0000 0000
00000050: 0000 803f 0000 0000 0000 803f 0000 0000
00000060: 0000 803f 0000 0000 0000 803f 0000 0000
00000070: 0000 803f 0000 0000 0000 803f 0000 0000
00000080: 0000 803f 0000 0000 0000 803f 0000 0000
00000090: 0000 803f 0000 0000 0000 803f 0000 0000
000000a0: 0000 803f 0000 0000 0000 803f 0000 0000
000000b0: 0000 803f 0000 0000 0000 803f 0000 0000
000000c0: 0000 803f 0000 0000 0000 803f 0000 0000
000000d0: 0000 803f 0000 0000 0000 803f 0000 0000
000000e0: 0000 803f 0000 0000 0000 803f 0000 0000
000000f0: 0000 803f 0000 0000 0000 803f 0000 0000
00000100: 0000 803f 0000 0000 0000 803f 0000 0000
00000110: 0000 803f 0000 0000 0000 803f 0000 0000
00000120: 0000 803f 0000 0000 0000 803f 0000 0000
00000130: 0000 803f 0000 0000 0000 803f 0000 0000
00000140: 0000 803f 0000 0000 0000 803f 0000 0000
00000150: 0000 803f 0000 0000 0000 803f 0000 0000
00000160: 0000 803f 0000 0000 0000 803f 0000 0000
00000170: 0000 803f 0000 0000 0000 803f 0000 0000
00000180: 0000 803f 0000 0000 0000 803f 0000 0000
1.0 0.0 1.0 0.0 1.0 0.0 1.0 0.0
1.0 0.0 1.0 0.0 1.0 0.0 1.0 0.0
1.0 0.0 1.0 0.0 1.0 0.0 1.0 0.0
1.0 0.0 1.0 0.0 1.0 0.0 1.0 0.0
1.0 0.0 1.0 0.0 1.0 0.0 1.0 0.0
1.0 0.0 1.0 0.0 1.0 0.0 1.0 0.0
1.0 0.0 1.0 0.0 1.0 0.0 1.0 0.0
1.0 0.0 1.0 0.0 1.0 0.0 1.0 0.0
1.0 0.0 1.0 0.0 1.0 0.0 1.0 0.0
1.0 0.0 1.0 0.0 1.0 0.0 1.0 0.0
1.0 0.0 1.0 0.0 1.0 0.0 1.0 0.0
1.0 0.0 1.0 0.0 1.0 0.0 1.0 0.0
1.0 0.0 1.0 0.0

weight f4 [50, 2]
00000000: 8080 fdbc d422 6f3e f8b0 17be eac3 253f
00000010: 25f6 24be 71ba d4be 92ac 003f 3956 06bf
00000020: 86c8 70be 9c83 1bbf e979 46be 1935 25bc
00000030: 5141 c8be 986c 0bbf cbf9 04bf 930d 88bc
00000040: f659 bcbe 4d9b e9be f1bb 81be 7614 73be
00000050: d321 06bf 0242 26bf 6822 073f 87ba 49bd
00000060: 15df 4cbf 46b9 19be 45c4 4fbd 7a4a e43e
00000070: 6bfe d4be eeff 29bf 6f40 fb3e a32d 0a3e
00000080: c388 31bf f81a 3cbd acb5 e73c 2528 173d
00000090: 1459 32bf 04a1 213f e8cb 86be 165c b43e
000000a0: cb4a cabe 8261 c4bd f9bc c03e 2529 173e
000000b0: e158 bbbe f320 90be 710a 113f ca2b c0be
000000c0: 00ce 8d3d 39eb 12bf 9611 9a3e f61f 8a3e
000000d0: 8d23 683e b3e1 f33e 6b94 8f3d 7217 0a3f
000000e0: 6e49 32bf a637 4f3e bb34 993e 04a1 09bf
000000f0: 4b5a 4abe b843 333f 58e9 e53d 6033 83be
00000100: bfbb 8cbe c203 c9bd c4fd 8c3e ed8b b1bd
00000110: a179 93be 097b b5bd 14db 33bf 7be7 2ebf
00000120: 6017 9dbe f6d4 48be 7c3c a43e c6d6 b2be
00000130: cdda 2b3f bc53 f93e ef04 173e 84ce f93e
00000140: d7c3 e5bd 70a3 afbe ade5 ee3e b679 8e3e
00000150: 8eca 15bf f421 08be 3400 10bf 98b3 88be
00000160: 2010 27bf d439 203e f07d 353f 0af5 42be
00000170: 8da8 be3e 2cbe 0ebf f375 03bf ca31 073e
00000180: 6b7f 2f3d b105 5e3e 8a30 1f3f deab 0e3e
-0.030945063 0.2335313 -0.14813602 0.64752066 -0.16109522 -0.41548494 0.5026332 -0.52475315
-0.23513994 -0.60747695 -0.19382443 -0.01008346 -0.39112332 -0.54462576 -0.51943654 -0.016608035
-0.36787385 -0.45626298 -0.253387 -0.23738274 -0.5239536 -0.6494447 0.52786875 -0.049250152
-0.80027896 -0.15012082 -0.050724287 0.4458807 -0.41600356 -0.6640614 0.49072596 0.13493972
-0.69349307 -0.045924157 0.02828487 0.03690352 -0.6966717 0.63136315 -0.26327443 0.35226506
-0.39510188 -0.09588911 0.37644175 0.14761789 -0.36591247 -0.28150138 0.5665656 -0.37533408
0.06924057 -0.5739017 0.30091542 0.2697751 0.22669812 0.47633132 0.0701073 0.53942025
-0.69643295 0.20236072 0.29923043 -0.53761315 -0.19761007 0.70025206 0.112261474 -0.25625134
-0.2748699 -0.0981517 0.27537358 -0.08669267 -0.28803733 -0.08861358 -0.7025616 -0.6832196
-0.30681896 -0.19612488 0.32077396 -0.34929484 0.6713074 0.48696697 0.14747976 0.4879037
-0.11218994 -0.3430438 0.46659604 0.27827233 -0.585122 -0.13294202 -0.5625031 -0.2669952
-0.6525898 0.1564706 0.7089529 -0.19038787 0.3723797 -0.5575893 -0.5135185 0.13202587
0.042846125 0.21681859 0.6218344 0.1393275

bias f4 [50]
00000000: c727 1ebf 3614 f63e eda6 dc3d 36ce 1cbf
00000010: b1b5 103f c60d 7bbd 18e4 f8be a816 173f
00000020: 9301 17bf b78e dc3e f7d9 1abf f467 1e3f
00000030: 5bf8 01bf 45bc 27be 0224 e43e e1c7 99bb
00000040: 724b b5be 7443 243f cfd6 f2bc 0927 a9bd
00000050: 65a0 15bf 3beb c63d f34a 9bbe 6d8f 153f
00000060: 89ff 8abe c2ab 303f 9f16 0e3e 7c82 89bd
00000070: 1e2d 93be c748 7cbe e70e ab3d fc5d 56bd
00000080: 67cd a4bd cdbb 47be 02be 033f 0226 c63e
00000090: 4d66 df3e 201c 0bbe b287 9fbe 5f14 adbe
000000a0: e84e 993e cb31 19bf 6226 323e 97d4 5abe
000000b0: cece dabe a755 10bf 677d 8bbe 9f5c 103f
000000c0: 9e8f 5b3d 5d02 a2bd
-0.61779445 0.48062295 0.10774026 -0.6125215 0.5652724 -0.061292432 -0.48611522 0.59018946
-0.5898678 0.43077633 -0.6048884 0.6187737 -0.50769585 -0.16380413 0.44558722 -0.004693017
-0.35409123 0.64165425 -0.029643444 -0.082593985 -0.5844787 0.097128354 -0.3033062 0.58421975
-0.27148083 0.6901208 0.13875817 -0.06714341 -0.2874536 -0.24637137 0.08352452 -0.052335724
-0.0804699 -0.19505234 0.51461804 0.38700873 0.43632737 -0.13584948 -0.31158215 -0.33804604
0.29943013 -0.59841603 0.17397454 -0.21370159 -0.42735904 -0.56380695 -0.27244112 0.5639133
0.05360376 -0.07910607
