03b/GPS_1256775418/model_trad_seed_27182.pth (torch, 276498 bytes, 76 tensors)

_shift f4 [2]
000000 8d 83 24 40 0e 3f df bf
       2.5705292 -1.7441118

_scale f4 [2]
000000 73 d0 2f 3e 8c 1c 5e 40
       0.17169361 3.4704924

weight f4 [50, 2]
000000 36 3f 14 3f a3 38 95 be 69 d8 86 be 11 71 0b 3f
       0.5790895 -0.29144773 -0.26336983 0.544694
000010 66 48 85 3d 6c 13 42 be c8 13 12 3c ac 74 0e bf
       0.065079495 -0.18952721 0.008915849 -0.5564678
000020 6d 43 23 bf 6b 90 c1 be f9 e2 a7 be af 66 32 bf
       -0.6377476 -0.37805495 -0.32790354 -0.6968793
000030 18 ad 13 bd ed ae 2f bf 36 db 0e bf de 82 28 bf
       -0.036053747 -0.6862629 -0.5580324 -0.6582469
000040 a4 11 ef 3e f3 e4 e1 be 17 82 1e 3f 80 ee e8 bc
       0.46693146 -0.44119987 0.6191725 -0.028434038
000050 d6 7b 0c 3e 6b 9f 27 3f 52 e6 0e bf 58 93 5e 3e
       0.13719115 0.6547763 -0.5582019 0.21735895
000060 15 3b e3 be 00 2f a1 3d 26 03 26 bf a8 d0 e2 bd
       -0.44381014 0.07870293 -0.64848554 -0.11074954
000070 26 23 1d 3f fc 2e 0d be 22 9d eb be f0 4e c5 bd
       0.6138176 -0.13787454 -0.4601832 -0.09634197
000080 67 9d c9 3e 36 ca c0 3e b0 77 e7 be 54 c4 f5 be
       0.393779 0.37654275 -0.45208502 -0.4800135
000090 ed cd 5c 3d 97 75 0a bf e5 5c c5 3c 2f db 31 bf
       0.053907324 -0.5408568 0.024092147 -0.6947507
0000a0 75 0b 6b bc 9e f7 f1 3e 64 0b 87 3e 1f e3 bc be
       -0.014345993 0.4725923 0.26375878 -0.3689203
0000b0 13 05 02 3f f0 ea 6f be 4c 28 4f bf e9 2f 25 3f
       0.5078899 -0.23429465 -0.80920863 0.6452623
0000c0 3e 35 fe be ac 82 7b 3e 6a cb d3 3e 68 79 f9 be
       -0.49649996 0.24561566 0.4136613 -0.48725438
0000d0 28 80 20 3f e3 46 2a 3f b3 2f 2c 3e 4d 9b 0f 3f
       0.6269555 0.66514415 0.16815071 0.56096345
0000e0 f5 17 9a bd 78 3a fe be f4 81 11 bf 16 04 35 bf
       -0.07524101 -0.49653983 -0.5683892 -0.7070936
0000f0 40 2a 30 3f 70 ed ef be 55 63 37 bf 18 a9 9e bd
       0.6881447 -0.46860838 -0.71635944 -0.07747096
000100 49 8d d3 3e b3 aa 0f bf 09 36 96 3e 50 35 21 3e
       0.4131873 -0.5611984 0.293381 0.15742993
000110 b3 4c 4d be 9a 99 73 be a3 cd 10 bf 70 87 e1 bd
       -0.2004879 -0.23789063 -0.56563777 -0.11012161
000120 c6 c4 00 bf 65 2e 1b 3f 5e 5e dc bd a7 89 10 3f
       -0.5030025 0.6061767 -0.107601866 0.5646004
000130 a0 96 73 bd 1e 22 9b 3e 39 17 11 3f 04 43 64 3e
       -0.05946982 0.30299467 0.5667606 0.2229119
000140 26 7c 3e bf 00 c2 3e bd e7 bb 45 be 84 b1 f4 be
       -0.74408185 -0.04657173 -0.1930996 -0.47791684
000150 81 99 e0 be 5e 0b 76 be 6a 1a af be 8a 8f d5 be
       -0.43867114 -0.24027774 -0.3419984 -0.41711074
000160 94 02 42 3f b0 05 ad be 10 db 16 bf 96 bb c9 3e
       0.75785184 -0.33793402 -0.5892801 0.3940093
000170 4a a8 ca be 26 25 ef 3e 52 9f 38 3e 08 30 ba 3d
       -0.3958152 0.4670803 0.18029526 0.090911925
000180 a1 f8 dd be 71 69 0d bf 7b 64 0c 3f 67 bd 04 bf
       -0.4335375 -0.55239016 0.5484082 -0.51851505

bias f4 [50]
000000 c7 9c ca be db ae 05 3f 63 7f 33 bf 6a 0d 8f be
       -0.39572737 0.52219933 -0.7011625 -0.27939922
000010 ee f4 20 bf 08 e3 4a 3e 80 c9 0f bf 02 91 f3 3e
       -0.62873733 0.19813168 -0.5616684 0.4757157
000020 ae d4 ac bd 26 77 c0 3e ad 78 01 bf ea e2 29 bf
       -0.08439003 0.37590903 -0.5057476 -0.6636187
000030 a3 b9 f2 be cb 24 74 bd 04 03 88 be 36 ae 1e 3f
       -0.47407255 -0.0596054 -0.265648 0.61984575
000040 b6 48 35 3f 6b b9 33 be 92 85 92 3e 24 03 e4 be
       0.70814073 -0.175512 0.2861753 -0.44533646
000050 19 cc e4 be 47 f9 29 bf 40 3b 28 3e 5b b1 13 bf
       -0.44686964 -0.6639599 0.16428852 -0.576925
000060 e1 03 bc 3d 5b 1d f2 be 24 de e4 be 0d 8c ee bd
       0.09180427 -0.4728802 -0.4470073 -0.11647806
000070 c9 4c b6 3e c1 b8 3b ba 48 87 1f 3f 7b 62 a9 be
       0.35605457 -0.00071610144 0.623158 -0.33082947
000080 22 41 e9 be b6 b8 11 bf a1 d8 82 be 95 79 a1 be
       -0.45557505 -0.5692247 -0.255559 -0.31538072
000090 4c f6 bf be 44 9c b4 3d e3 1f 19 3e 73 b4 2a bf
       -0.37492597 0.08818868 0.1495357 -0.66681594
0000a0 da bd f2 3d 0e 6d f2 3e 3c 36 cf 3e b4 3c 76 3d
       0.118526176 0.47348827 0.40471065 0.060116485
0000b0 14 5c fb be 19 2c ef 3d 64 00 c7 3e d4 cc aa be
       -0.49093688 0.11678333 0.38867486 -0.33359396
0000c0 9e 4a 97 be be b0 0e bf
       -0.29549116 -0.5573844

mask f4 [50, 2]
000000 00 00 80 3f 00 00 00 00 00 00 80 3f 00 00 00 00
       1.0 0.0 1.0 0.0
000010 00 00 80 3f 00 00 00 00 00 00 80 3f 00 00 00 00
       1.0 0.0 1.0 0.0
000020 00 00 80 3f 00 00 00 00 00 00 80 3f 00 00 00 00
       1.0 0.0 1.0 0.0
000030 00 00 80 3f 00 00 00 00 00 00 80 3f 00 00 00 00
       1.0 0.0 1.0 0.0
000040 00 00 80 3f 00 00 00 00 00 00 80 3f 00 00 00 00
       1.0 0.0 1.0 0.0
000050 00 00 80 3f 00 00 00 00 00 00 80 3f 00 00 00 00
       1.0 0.0 1.0 0.0
000060 00 00 80 3f 00 00 00 00 00 00 80 3f 00 00 00 00
       1.0 0.0 1.0 0.0
000070 00 00 80 3f 00 00 00 00 00 00 80 3f 00 00 00 00
       1.0 0.0 1.0 0.0
000080 00 00 80 3f 00 00 00 00 00 00 80 3f 00 00 00 00
       1.0 0.0 1.0 0.0
000090 00 00 80 3f 00 00 00 00 00 00 80 3f 00 00 00 00
       1.0 0.0 1.0 0.0
0000a0 00 00 80 3f 00 00 00 00 00 00 80 3f 00 00 00 00
       1.0 0.0 1.0 0.0
0000b0 00 00 80 3f 00 00 00 00 00 00 80 3f 00 00 00 00
       1.0 0.0 1.0 0.0
0000c0 00 00 80 3f 00 00 00 00 00 00 80 3f 00 00 00 00
       1.0 0.0 1.0 0.0
0000d0 00 00 80 3f 00 00 00 00 00 00 80 3f 00 00 00 00
       1.0 0.0 1.0 0.0
0000e0 00 00 80 3f 00 00 00 00 00 00 80 3f 00 00 00 00
       1.0 0.0 1.0 0.0
0000f0 00 00 80 3f 00 00 00 00 00 00 80 3f 00 00 00 00
       1.0 0.0 1.0 0.0
000100 00 00 80 3f 00 00 00 00 00 00 80 3f 00 00 00 00
       1.0 0.0 1.0 0.0
000110 00 00 80 3f 00 00 00 00 00 00 80 3f 00 00 00 00
       1.0 0.0 1.0 0.0
000120 00 00 80 3f 00 00 00 00 00 00 80 3f 00 00 00 00
       1.0 0.0 1.0 0.0
000130 00 00 80 3f 00 00 00 00 00 00 80 3f 00 00 00 00
       1.0 0.0 1.0 0.0
000140 00 00 80 3f 00 00 00 00 00 00 80 3f 00 00 00 00
       1.0 0.0 1.0 0.0
000150 00 00 80 3f 00 00 00 00 00 00 80 3f 00 00 00 00
       1.0 0.0 1.0 0.0
000160 00 00 80 3f 00 00 00 00 00 00 80 3f 00 00 00 00
       1.0 0.0 1.0 0.0
000170 00 00 80 3f 00 00 00 00 00 00 80 3f 00 00 00 00
       1.0 0.0 1.0 0.0
000180 00 00 80 3f 00 00 00 00 00 00 80 3f 00 00 00 00
       1.0 0.0 1.0 0.0

weight f4 [50, 2]
000000 e8 32 b2 bd 12 53 06 3f f3 ec 19 bf b9 48 1b 3f
       -0.08701116 0.52470505 -0.6012718 0.6065784
000010 a3 9b 13 bf 17 cf 64 3e fd c8 f0 3d 32 ab f2 be
       -0.5765936 0.22344624 0.117570855 -0.47396237
000020 54 92 ca 3c ab d2 c7 3e d2 c9 81 3c 26 3a 21 bf
       0.024727978 0.39027914 0.015843306 -0.6297935
000030 0e 36 0c 3f 2f 3e b5 be 06 3d 95 3e 22 8d fb be
       0.5476998 -0.35399005 0.2914812 -0.49131113
000040 c9 85 8d 3e ef 37 dd be fd c0 d2 be 22 db b0 3d
       0.27641132 -0.43206736 -0.41162863 0.08635546
000050 d7 aa d5 3e c0 6b 4a 3e ee da ef 3e 74 8c c7 be
       0.41731903 0.19767666 0.46846718 -0.38974345
000060 e1 eb cd bd c1 01 ee bd bc a1 2c 3f f7 cf a8 3e
       -0.10054756 -0.11621428 0.6743429 0.32971165
000070 b2 74 c4 3e c1 80 02 bf 18 3b e3 be 5c 8e 19 bf
       0.3837028 -0.5097771 -0.44381022 -0.5998285
000080 f0 22 b7 be e6 82 b8 be a8 c1 8b bd 70 27 8d 3d
       -0.35768843 -0.36037368 -0.068240464 0.06892288
000090 65 a3 1b 3f de 1e b5 be df 4f f9 bb df 8d 8f bd
       0.60796195 -0.35375112 -0.0076083983 -0.07009482
0000a0 bb 53 69 3e c3 1a 9c be 74 50 20 bf 34 72 91 bd
       0.22785847 -0.30489168 -0.6262276 -0.07101861
0000b0 b5 39 2e 3f 53 fb 2b 3f fb f2 e5 bd 0e 93 0b 3f
       0.68056804 0.67180365 -0.112279855 0.5452126
0000c0 e0 7f cb 3d f1 8f 15 bd 74 cd 33 3f 24 79 cc be
       0.099364996 -0.036514226 0.7023537 -0.39936173
0000d0 1e 7b 44 bf eb 1b 22 3f d1 3e 00 3f c1 31 dd bd
       -0.7675036 0.6332385 0.5009585 -0.108005054
0000e0 c7 64 74 3d 61 8c 28 3f 18 90 99 be 14 bf 25 bf
       0.05966642 0.658392 -0.29992747 -0.6474469
0000f0 18 c6 9c 3d f6 a6 17 bd ba 13 4b 3e 28 95 1f bf
       0.07654971 -0.03702446 0.19831744 -0.6233697
000100 56 b8 fc 3e 3c 06 a8 be 7d d7 7b be 10 0d 01 3d
       0.49359387 -0.32817256 -0.24593921 0.031506598
000110 24 73 26 bf 4a 65 d9 be e9 75 fc 3e 6d 15 25 bf
       -0.6501944 -0.4246009 0.49308708 -0.6448582
000120 8f bc d5 be f3 9e 63 3e 8d a2 c0 3e 20 e3 af be
       -0.4174542 0.22228603 0.37624016 -0.3435297
000130 cf e7 f6 3e 77 73 7b 3e 24 3b a2 be bc 90 81 be
       0.4822373 0.24555765 -0.31685746 -0.25305736
000140 ec 83 16 bf 66 b8 1c bf 1b 83 c3 3e 61 81 1c bf
       -0.58795047 -0.6121887 0.38185963 -0.61134917
000150 74 6e 14 3f e1 24 27 bf ae 60 a1 3e 3c 1e 7b 3e
       0.5798104 -0.6529065 0.31519073 0.24523252
000160 15 f9 fc be e0 17 b2 be ed b3 dd 3e c4 0a 8a be
       -0.49408785 -0.3478384 0.43301335 -0.2696134
000170 8b 4f 45 be c9 87 14 3f 28 95 6c 3e 26 43 f9 bc
       -0.19268624 0.5801969 0.23103774 -0.030427527
000180 98 8f 65 3e 76 36 bb 3e dc a2 dc 3e dc be 47 3e
       0.22418058 0.36564988 0.43093002 0.19506401

bias f4 [50]
000000 c1 ae 40 3f c8 2e 3f 3f ff 4a 08 bf ff 0f 87 be
       0.75266653 0.7468076 -0.53239435 -0.26379392
000010 38 de 9a 3b 12 7a 05 bf 71 ff e9 3e de 2d 7e bd
       0.0047261976 -0.5213939 0.457027 -0.06205546
000020 7f ab b8 be fb bc 14 3f ad 59 1d bf e2 ab bf 3e
       -0.3606834 0.5810086 -0.6146496 0.37435824
000030 de 0f 07 be 43 ad 17 3f 6e cd 21 bf f7 aa 1e be
       -0.13189647 0.5924875 -0.63204086 -0.15494905
000040 0a f9 85 be 31 69 ac be 7f 4b d7 be 94 70 d4 be
       -0.26166564 -0.33674005 -0.42049786 -0.4149214
000050 ae 24 35 3f 68 de 9d 3e 43 08 b1 3e f4 e6 ee be
       0.70759094 0.30833745 0.34576616 -0.46660578
000060 a2 ad a3 bd 81 bb c7 3e a5 95 d0 3d 6c 86 fd be
       -0.07992102 0.39010242 0.101847924 -0.49516618
000070 8b 70 a7 3e 56 b4 3c bf fe f8 34 bd 80 12 34 bf
       0.3270305 -0.7371267 -0.04418277 -0.7034073
000080 f9 7c 49 3e 39 e7 26 bf e4 ab 05 3f 7d 9e 1e 3f
       0.1967658 -0.6519657 0.5221541 0.61960584
000090 1e 12 28 bc a2 20 78 3e 89 70 7c bd aa 28 09 bf
       -0.010258226 0.24231198 -0.06163076 -0.53577673
0000a0 f8 3a b5 3e 07 e8 8c 3e bb 36 3a 3e c2 f9 1c bf
       0.35396552 0.27520773 0.1818494 -0.613186
0000b0 90 65 7e be 94 9f 43 3e 4d 36 b0 be d3 33 e9 3e
       -0.2484343 0.19103843 -0.34416428 0.4554735
0000c0 e8 46 d1 3e c6 f6 06 3f
       0.4087441 0.52720296

weight f4 [50, 50]
000000 10 1d 2f 3d 7d 3a 06 bd f7 8a f4 3c 59 ec 7c 3d
       0.042752326 -0.032770623 0.02985142 0.061748836
000010 36 57 8a bd f9 61 c9 3c a2 17 9c bd 6f b5 1c 3e
       -0.067549154 0.02458285 -0.07621695 0.15303586
000020 4a 9e ee bc 8d fc db 3d 51 c3 fb 3d 44 58 a9 bd
       -0.029128212 0.107415296 0.12293113 -0.082687885
000030 41 0a 76 bc a2 ef 9b bd 52 e3 52 3c 1d f8 f8 3d
       -0.015017093 -0.07614066 0.01287158 0.12156699
000040 20 6e bf 3a bf ee d4 bd 2d d5 a3 bd e2 46 21 bc
       0.0014604963 -0.103971 -0.079996444 -0.00984356
000050 27 5c e9 bd 81 48 04 3c 03 19 a0 3d 5a 40 5e 3c
       -0.1139453 0.008073927 0.078172706 0.013565147
000060 ce b1 a5 3d 5d 9b dd bd 04 e8 bc bc 39 fe a1 bd
       0.08090554 -0.10820649 -0.023059852 -0.07909817
000070 c6 b6 c2 bd e2 a0 cd 3d b0 82 f0 3d ab 71 02 be
       -0.095075175 0.100404516 0.11743677 -0.12738673
000080 7e 9b 97 bd 4c 43 0b 3e 9a 5a e5 bd 5f e8 8f bd
       -0.07402705 0.1359989 -0.111989215 -0.07026743
000090 a6 bd 04 3d e0 38 0b 3d f5 eb 45 bd 8c 8c c8 3d
       0.032407425 0.033989787 -0.04832073 0.09792432
0000a0 92 7c 10 3e 27 55 ae bd 51 58 01 3e 94 cc 80 3d
       0.1411002 -0.08512335 0.12631346 0.0628902
0000b0 25 6e 2e be 41 26 9b 3c 31 32 cf bd cf 44 0b be
       -0.17034204 0.01893914 -0.10116995 -0.13600467
0000c0 73 44 0c 3e ee 4c 5a bc ac 71 35 3e 30 d7 68 3d
       0.13697986 -0.0133240055 0.17719144 0.056845844
0000d0 c2 b1 74 bc f9 bf 48 be f1 86 ba bd bc a6 5c be
       -0.014934959 -0.19604482 -0.09107769 -0.21547979
0000e0 63 a5 b7 bd 67 1c e3 3d 2e ec 1b 3d 5a ed fb 3d
       -0.08967092 0.11089402 0.038067035 0.123011306
0000f0 fe 9b 63 bd fb c2 1d be d1 98 9a bd e4 25 09 be
       -0.055568688 -0.1540641 -0.07548679 -0.1339336
000100 61 c3 81 bd ed 56 1d 3d 66 58 cf 3b 82 dd 46 be
       -0.06336094 0.038412977 0.0063276766 -0.19420436
000110 66 b8 f5 bd 9a 73 4e 3d cc 83 9f 3d c8 3b 53 bd
       -0.11998062 0.050403215 0.0778881 -0.051570684
000120 92 7e f9 3d c5 3e 3e be 85 a5 41 bd 40 ce a9 3d
       0.121823445 -0.18578632 -0.047276992 0.08291292
000130 58 3c 88 3c 7f c6 b8 3d 74 97 31 3e 81 75 0e bd
       0.016630337 0.09022235 0.17342931 -0.03478003
000140 20 24 a2 3e 24 11 45 be c5 ed c2 3c d1 62 e6 bd
       0.31668186 -0.1924482 0.023795018 -0.112493165
000150 d8 ff 0f be 31 2b 44 bd 00 d8 5e be 22 d6 f4 bd
       -0.1406244 -0.047892753 -0.21762085 -0.11954905
000160 cd 84 1b bd 0a 86 81 bc 8f c1 d4 3d fb 9e 33 3e
       -0.037968446 -0.015810985 0.10388481 0.17541115
000170 22 7d d2 3d dc 34 a5 bd 60 95 09 be 88 66 d5 3c
       0.102777734 -0.08066723 -0.13435888 0.026049867
000180 8b 07 47 be 1f 45 d6 bc 04 2b 3c be cf 04 82 3a
       -0.19436471 -0.026156006 -0.18375784 0.0009919646
000190 b1 ca 82 3d 76 7b cc 3c 85 33 c6 bc 31 26 1a bd
       0.063863166 0.024961215 -0.024194488 -0.03763408
0001a0 45 a6 74 be 55 91 90 be 24 3b e2 3d c6 19 94 3d
       -0.23891552 -0.2823588 0.110464364 0.072314784
0001b0 c7 95 89 bd 1c ba c6 3e 32 13 e3 bd 00 81 7a be
       -0.06718021 0.38813865 -0.110876456 -0.24463272
0001c0 8f 2c d9 be 06 48 4d 3c c1 dd 37 be a5 f6 fb 3d
       -0.42416808 0.012529379 -0.17955686 0.12302903
0001d0 9a a9 79 3e 4f 63 88 be 88 1c a4 bd 45 87 d0 3b
       0.24381104 -0.26638266 -0.080132544 0.0063637816
0001e0 46 9a 0f 3e 6e 22 73 3d df a8 84 3e 91 6b f5 be
       0.14023694 0.059359007 0.25910088 -0.4793363
0001f0 86 a0 3c 3d 24 7d ce bc 18 e7 01 3e 54 5d 42 be
       0.046051525 -0.025206156 0.12685812 -0.18980914
000200 67 0d 34 3c 4f e1 eb be fb 12 87 3e 2d 84 a7 be
       0.0109895235 -0.46070334 0.26381668 -0.3271803
000210 c7 5c df bd 36 24 4f be 88 5b 58 3d 5a 4e 86 3d
       -0.10906368 -0.20228657 0.052821666 0.06557913
000220 c1 4f 86 be c5 51 0c 3e 8c 00 33 3c 4e c0 17 bd
       -0.26232722 0.13703068 0.010925423 -0.03704863
000230 cd ce 6a bd 73 75 56 3c 1b 16 84 3d ea bf a0 be
       -0.057326127 0.0130895255 0.06449529 -0.3139642
000240 d0 29 24 be 98 67 af bd 3b 32 5c bc 4d 04 bb 3d
       -0.16031575 -0.08564681 -0.01343971 0.0913168
000250 f2 e2 45 be 29 e5 2b 3e cc a9 e6 bd ac 94 ec bd
       -0.19324854 0.16786636 -0.11262855 -0.115517944
000260 10 ec c3 3d 9d 87 aa bd 3e 30 24 3e ee fd bc 3d
       0.0956651 -0.083266474 0.16034028 0.09228121
000270 9e d8 59 3d 76 b3 04 bc 61 32 87 bc 1e b0 f0 bd
       0.053185098 -0.008099427 -0.016503515 -0.11752342
000280 52 e1 24 3d ee 97 f3 bc 2c 45 c5 3d 61 a6 2b be
       0.040253945 -0.029735532 0.09632334 -0.16762687
000290 76 03 6b 3c 58 e7 e7 3d f5 3b f2 3d f0 76 a1 3c
       0.014344087 0.11323422 0.11827842 0.019710034
0002a0 98 86 9d 3d 57 02 01 bd fd d2 05 be b9 0d e3 bb
       0.07691687 -0.031496372 -0.13068767 -0.006929126
0002b0 ef ff a9 bc 0b 2c 3d 3e ba a9 0e 3d 1e d9 06 be
       -0.020751921 0.18473832 0.034829833 -0.13168761
0002c0 ac 45 49 bc 04 e0 23 be 3c ad e5 3d 58 53 78 3d
       -0.0122846775 -0.16003424 0.112146825 0.060626358
0002d0 0d 1d 05 be b7 20 05 3e a3 ca f3 bd 41 ec e5 3d
       -0.12999363 0.13000761 -0.11903884 0.112267025
0002e0 60 9a 04 bd 6c 0b b3 bd 20 ed 0e 3e 87 c7 43 bd
       -0.032373786 -0.08742413 0.13957644 -0.047797706
0002f0 bc 82 f8 bd 52 aa ee bb 33 9a 36 bd 40 20 04 be
       -0.121343106 -0.0072834874 -0.04458065 -0.12902927
000300 22 e3 47 bd b5 a3 bd bc 95 e7 d0 3d be 78 3d 3d
       -0.048800595 -0.02314935 0.10200421 0.046257727
000310 99 62 ba 3d e0 ba 9e 3d 67 2a af 3b 45 cd 0b 3b
       0.09100837 0.07750487 0.005345631 0.0021332067
000320 b0 c8 d5 bd 36 5e 96 be b4 9a 6d 3e d1 e6 5d 3e
       -0.10438669 -0.29368752 0.23203546 0.2167008
000330 ba 85 de 3b 42 3e ea bd 30 2e 62 bd c3 f1 bd be
       0.006790844 -0.11437656 -0.05521983 -0.37098512
000340 c2 12 fe 3e 28 c1 44 bd 8d 90 60 3e 44 f0 8e 3c
       0.49623686 -0.04803577 0.21930142 0.017448552
000350 47 39 eb 3d eb b1 96 be 7e b5 f3 3e c0 b0 d6 be
       0.11485534 -0.29432616 0.47599405 -0.41931725
000360 a4 17 da bb 3a da a1 bb 0a 5a 15 3d 7c b4 fa bb
       -0.00665565 -0.0049393447 0.03646282 -0.00765091
000370 2f 60 24 bd 39 cd 77 3e 6e 56 4b bd 19 5a 9f bc
       -0.04013079 0.2419938 -0.049642973 -0.019452142
000380 9e 0c 13 be 4d e7 8d 3e 19 50 35 3e 1d 39 14 3e
       -0.14360282 0.2771553 0.17706336 0.14474912
000390 75 03 8b bd 21 8d d4 3d 3d 25 9a bc 0c ef 18 bd
       -0.06787769 0.10378481 -0.018816585 -0.037337348
0003a0 5b bb 9d 3e 7a c8 91 3e f8 1e 01 bd 46 9d 80 be
       0.30807003 0.28473264 -0.031523675 -0.2511999
0003b0 c4 9d 06 bd 37 08 67 bc fc 84 30 bd f7 ea ad 3e
       -0.0328653 -0.01410108 -0.043095574 0.33968326
0003c0 f5 32 3b be f4 7d 25 be f0 fe 0b be 93 86 48 3d
       -0.18281157 -0.16161329 -0.1367147 0.048956465
0003d0 ff 12 f3 3e 20 6c 92 be 49 14 21 be b6 94 26 3e
       0.4747543 -0.28598118 -0.15730394 0.16267666
0003e0 3c bc 63 bd e1 7c 4d 3e 54 7d d3 3d c9 ac d4 3d
       -0.055599436 0.20067169 0.10326639 0.10384519
0003f0 0c 63 6c 3d 95 e5 a7 bb ab b7 94 3d ac 67 27 3c
       0.057711646 -0.005123804 0.072615944 0.010217588

bias f4 [50]
000000 65 cd 8d bd 1c 69 0c 3e 68 85 13 3e 7e 2c 26 3e
       -0.069239415 0.13711971 0.14406359 0.1622791
000010 7f 1c 45 be 74 69 aa bd 15 ba 0d 3d 3d b2 a1 bd
       -0.19249152 -0.08320895 0.03460129 -0.078953244
000020 44 d0 e5 bd fa ef ef 3d cd 93 f3 bd 61 b8 e4 3c
       -0.11221364 0.11715694 -0.11893425 0.02791995
000030 23 4e 99 3c 8b 44 eb bd c8 b1 cc 3d 72 d4 c9 3d
       0.018714016 -0.11487683 0.099948466 0.09854974
000040 9c 04 ef 3d bb 74 d5 3d 20 c0 18 3e e6 68 80 3c
       0.11670801 0.10422655 0.1491704 0.01567502
000050 19 82 b5 3c de b3 2d 3d bb 5d 32 3e cd a2 80 bd
       0.022156762 0.042407863 0.17418568 -0.06281052
000060 37 f6 3a bc 47 f9 9b 3d 54 f5 9d 3c 77 bd 8b bd
       -0.011411241 0.07615905 0.01928202 -0.06823247
000070 e0 8b ca 3b bf 29 64 3d cb 6a 0b 3e 47 0e 22 be
       0.006181225 0.055703875 0.13614957 -0.15825759
000080 9f c3 e8 3d 3f cd 27 bd 63 71 bc 3d 7b d7 11 3e
       0.11365437 -0.040967222 0.09201314 0.14242356
000090 30 f3 bb 3c 33 fb af 3d a5 af dd 3b 34 b9 75 3a
       0.02294311 0.08592834 0.006765323 0.0009373606
0000a0 a5 81 86 bc 86 5c d3 3c b7 63 36 3d 64 d0 37 3e
       -0.016419241 0.025800955 0.04452869 0.17950588
0000b0 ac fa 20 3e 2f b7 c1 bd 29 f9 0e 3e c5 bd d7 3c
       0.15720624 -0.094587676 0.13962235 0.026335606
0000c0 a2 9b 9a bd 7f 5b b3 3d
       -0.07549216 0.08757686

mask f4 [50, 50]
000000 00 00 80 3f 00 00 80 3f 00 00 80 3f 00 00 80 3f
       1.0 1.0 1.0 1.0
000010 00 00 80 3f 00 00 80 3f 00 00 80 3f 00 00 80 3f
       1.0 1.0 1.0 1.0
000020 00 00 80 3f 00 00 80 3f 00 00 80 3f 00 00 80 3f
       1.0 1.0 1.0 1.0
000030 00 00 80 3f 00 00 80 3f 00 00 80 3f 00 00 80 3f
       1.0 1.0 1.0 1.0
000040 00 00 80 3f 00 00 80 3f 00 00 80 3f 00 00 80 3f
       1.0 1.0 1.0 1.0
000050 00 00 80 3f 00 00 80 3f 00 00 80 3f 00 00 80 3f
       1.0 1.0 1.0 1.0
000060 00 00 80 3f 00 00 80 3f 00 00 80 3f 00 00 80 3f
       1.0 1.0 1.0 1.0
000070 00 00 80 3f 00 00 80 3f 00 00 80 3f 00 00 80 3f
       1.0 1.0 1.0 1.0
000080 00 00 80 3f 00 00 80 3f 00 00 80 3f 00 00 80 3f
       1.0 1.0 1.0 1.0
000090 00 00 80 3f 00 00 80 3f 00 00 80 3f 00 00 80 3f
       1.0 1.0 1.0 1.0
0000a0 00 00 80 3f 00 00 80 3f 00 00 80 3f 00 00 80 3f
       1.0 1.0 1.0 1.0
0000b0 00 00 80 3f 00 00 80 3f 00 00 80 3f 00 00 80 3f
       1.0 1.0 1.0 1.0
0000c0 00 00 80 3f 00 00 80 3f 00 00 80 3f 00 00 80 3f
       1.0 1.0 1.0 1.0
0000d0 00 00 80 3f 00 00 80 3f 00 00 80 3f 00 00 80 3f
       1.0 1.0 1.0 1.0
0000e0 00 00 80 3f 00 00 80 3f 00 00 80 3f 00 00 80 3f
       1.0 1.0 1.0 1.0
0000f0 00 00 80 3f 00 00 80 3f 00 00 80 3f 00 00 80 3f
       1.0 1.0 1.0 1.0
000100 00 00 80 3f 00 00 80 3f 00 00 80 3f 00 00 80 3f
       1.0 1.0 1.0 1.0
000110 00 00 80 3f 00 00 80 3f 00 00 80 3f 00 00 80 3f
       1.0 1.0 1.0 1.0
000120 00 00 80 3f 00 00 80 3f 00 00 80 3f 00 00 80 3f
       1.0 1.0 1.0 1.0
000130 00 00 80 3f 00 00 80 3f 00 00 80 3f 00 00 80 3f
       1.0 1.0 1.0 1.0
000140 00 00 80 3f 00 00 80 3f 00 00 80 3f 00 00 80 3f
       1.0 1.0 1.0 1.0
000150 00 00 80 3f 00 00 80 3f 00 00 80 3f 00 00 80 3f
       1.0 1.0 1.0 1.0
000160 00 00 80 3f 00 00 80 3f 00 00 80 3f 00 00 80 3f
       1.0 1.0 1.0 1.0
000170 00 00 80 3f 00 00 80 3f 00 00 80 3f 00 00 80 3f
       1.0 1.0 1.0 1.0
000180 00 00 80 3f 00 00 80 3f 00 00 80 3f 00 00 80 3f
       1.0 1.0 1.0 1.0
000190 00 00 80 3f 00 00 80 3f 00 00 80 3f 00 00 80 3f
       1.0 1.0 1.0 1.0
0001a0 00 00 80 3f 00 00 80 3f 00 00 80 3f 00 00 80 3f
       1.0 1.0 1.0 1.0
0001b0 00 00 80 3f 00 00 80 3f 00 00 80 3f 00 00 80 3f
       1.0 1.0 1.0 1.0
0001c0 00 00 80 3f 00 00 80 3f 00 00 80 3f 00 00 80 3f
       1.0 1.0 1.0 1.0
0001d0 00 00 80 3f 00 00 80 3f 00 00 80 3f 00 00 80 3f
       1.0 1.0 1.0 1.0
0001e0 00 00 80 3f 00 00 80 3f 00 00 80 3f 00 00 80 3f
       1.0 1.0 1.0 1.0
0001f0 00 00 80 3f 00 00 80 3f 00 00 80 3f 00 00 80 3f
       1.0 1.0 1.0 1.0
000200 00 00 80 3f 00 00 80 3f 00 00 80 3f 00 00 80 3f
       1.0 1.0 1.0 1.0
000210 00 00 80 3f 00 00 80 3f 00 00 80 3f 00 00 80 3f
       1.0 1.0 1.0 1.0
000220 00 00 80 3f 00 00 80 3f 00 00 80 3f 00 00 80 3f
       1.0 1.0 1.0 1.0
000230 00 00 80 3f 00 00 80 3f 00 00 80 3f 00 00 80 3f
       1.0 1.0 1.0 1.0
000240 00 00 80 3f 00 00 80 3f 00 00 80 3f 00 00 80 3f
       1.0 1.0 1.0 1.0
000250 00 00 80 3f 00 00 80 3f 00 00 80 3f 00 00 80 3f
       1.0 1.0 1.0 1.0
000260 00 00 80 3f 00 00 80 3f 00 00 80 3f 00 00 80 3f
       1.0 1.0 1.0 1.0
000270 00 00 80 3f 00 00 80 3f 00 00 80 3f 00 00 80 3f
       1.0 1.0 1.0 1.0
000280 00 00 80 3f 00 00 80 3f 00 00 80 3f 00 00 80 3f
       1.0 1.0 1.0 1.0
000290 00 00 80 3f 00 00 80 3f 00 00 80 3f 00 00 80 3f
       1.0 1.0 1.0 1.0
0002a0 00 00 80 3f 00 00 80 3f 00 00 80 3f 00 00 80 3f
       1.0 1.0 1.0 1.0
0002b0 00 00 80 3f 00 00 80 3f 00 00 80 3f 00 00 80 3f
       1.0 1.0 1.0 1.0
0002c0 00 00 80 3f 00 00 80 3f 00 00 80 3f 00 00 80 3f
       1.0 1.0 1.0 1.0
0002d0 00 00 80 3f 00 00 80 3f 00 00 80 3f 00 00 80 3f
       1.0 1.0 1.0 1.0
0002e0 00 00 80 3f 00 00 80 3f 00 00 80 3f 00 00 80 3f
       1.0 1.0 1.0 1.0
0002f0 00 00 80 3f 00 00 80 3f 00 00 80 3f 00 00 80 3f
       1.0 1.0 1.0 1.0
000300 00 00 80 3f 00 00 80 3f 00 00 80 3f 00 00 80 3f
       1.0 1.0 1.0 1.0
000310 00 00 80 3f 00 00 80 3f 00 00 80 3f 00 00 80 3f
       1.0 1.0 1.0 1.0
000320 00 00 80 3f 00 00 80 3f 00 00 80 3f 00 00 80 3f
       1.0 1.0 1.0 1.0
000330 00 00 80 3f 00 00 80 3f 00 00 80 3f 00 00 80 3f
       1.0 1.0 1.0 1.0
000340 00 00 80 3f 00 00 80 3f 00 00 80 3f 00 00 80 3f
       1.0 1.0 1.0 1.0
000350 00 00 80 3f 00 00 80 3f 00 00 80 3f 00 00 80 3f
       1.0 1.0 1.0 1.0
000360 00 00 80 3f 00 00 80 3f 00 00 80 3f 00 00 80 3f
       1.0 1.0 1.0 1.0
000370 00 00 80 3f 00 00 80 3f 00 00 80 3f 00 00 80 3f
       1.0 1.0 1.0 1.0
000380 00 00 80 3f 00 00 80 3f 00 00 80 3f 00 00 80 3f
       1.0 1.0 1.0 1.0
000390 00 00 80 3f 00 00 80 3f 00 00 80 3f 00 00 80 3f
       1.0 1.0 1.0 1.0
0003a0 00 00 80 3f 00 00 80 3f 00 00 80 3f 00 00 80 3f
       1.0 1.0 1.0 1.0
0003b0 00 00 80 3f 00 00 80 3f 00 00 80 3f 00 00 80 3f
       1.0 1.0 1.0 1.0
0003c0 00 00 80 3f 00 00 80 3f 00 00 80 3f 00 00 80 3f
       1.0 1.0 1.0 1.0
0003d0 00 00 80 3f 00 00 80 3f 00 00 80 3f 00 00 80 3f
       1.0 1.0 1.0 1.0
0003e0 00 00 80 3f 00 00 80 3f 00 00 80 3f 00 00 80 3f
       1.0 1.0 1.0 1.0
0003f0 00 00 80 3f 00 00 80 3f 00 00 80 3f 00 00 80 3f
       1.0 1.0 1.0 1.0

weight f4 [50, 50]
000000 b4 71 4c bd 17 39 02 be 29 8f d4 bd b7 b8 9a 3d
       -0.049913123 -0.1271709 -0.10378868 0.07554763
000010 12 f7 24 be c3 4d d0 3d 4c 1f d0 bd da af 90 3c
       -0.16109875 0.10171082 -0.101622194 0.017661978
000020 5d b4 ef 3d e4 2d 91 3d 66 4f bf bd 8f ab 38 bd
       0.117043234 0.07088831 -0.09341316 -0.045085486
000030 98 6b 84 bd f5 e8 f5 3c e5 94 92 3d a4 34 8c bb
       -0.064658344 0.03001831 0.07157306 -0.004278736
000040 9a c2 c3 bd 02 dd 95 bc 88 47 64 bd ec 90 4f 3c
       -0.09558602 -0.018293861 -0.05573228 0.012668829
000050 07 77 4f bd 37 ea fc bd 5f d0 1e bc 55 2f 56 bb
       -0.050650623 -0.123493604 -0.009693234 -0.003268202
000060 4a d0 3f 3d 69 b6 e3 3c c3 45 be bb 90 d8 67 bd
       0.0468295 0.02779694 -0.005806656 -0.056603014
000070 81 30 d1 bd c1 20 05 3e de b1 61 3d c6 f7 a7 bb
       -0.102143295 0.13000776 0.055101268 -0.0051259724
000080 cf 37 9e 3d 64 df 8a bd 5d 5b 4e 3d ea 4b df bd
       0.077254884 -0.0678089 0.0503801 -0.10903151
000090 53 ea 93 bd 80 22 72 3c a3 f1 0f 3c b3 b2 ae 3d
       -0.07222428 0.014778733 0.008785638 0.08530178
0000a0 99 77 ba 3d db 46 a2 3d 03 75 b5 bd 28 38 05 bd
       0.09104843 0.07923671 -0.08860209 -0.032524258
0000b0 f1 e4 d0 3b b0 55 9b bd 31 9c b7 3d 42 bb 91 3d
       0.006374948 -0.07584703 0.08965338 0.07115795
0000c0 73 11 82 bd 0d 66 03 be 85 cc 1b be 15 07 9f bd
       -0.063509844 -0.12831898 -0.15214737 -0.07765023
0000d0 84 9d a6 bd 0d b8 50 bd 5a 19 24 bd 77 5e f5 3d
       -0.081355125 -0.050956775 -0.04006324 0.11980908
0000e0 0f 6c 9b 3c 5e 42 7c bd 2f 6c 1a be 1d 12 d2 bd
       0.018972425 -0.06158673 -0.15080331 -0.10257361
0000f0 03 8d 0e 3e 0b be e9 bd 02 1d 03 be 17 1a f8 3d
       0.13920979 -0.11413201 -0.12804034 0.12114351
000100 55 ce 8c bd a6 06 f1 3d 45 01 33 3d f2 6e 31 3e
       -0.06875292 0.11768846 0.043702383 0.17327479
000110 8b 02 06 3d 34 5a ea 3d 6e ea 18 3e b6 d8 27 3d
       0.03271727 0.11442986 0.14933178 0.040978156
000120 aa f5 4c 3d e1 15 13 3e 84 40 a6 3c eb 15 91 3d
       0.05003897 0.14363815 0.020294435 0.07084259
000130 f6 55 68 bd 91 9b 63 bd b8 44 f2 3c 9c db 20 be
       -0.056722604 -0.05556828 0.029573783 -0.15708774
000140 95 14 cd 3d 63 1f b6 3d 0c d8 e1 bd 88 ba 0f 3e
       0.10013691 0.08892705 -0.11027536 0.14036
000150 02 7c c3 bd cc a2 cd 3d 42 5d 9b bd 4c 72 95 3d
       -0.09545137 0.10040817 -0.07586147 0.07297191
000160 5b 7c 50 bd 21 03 97 3d 5a 4e 23 3e c2 d6 8c 3d
       -0.050899845 0.07373644 0.15947857 0.06876899
000170 d9 0f 14 bd 68 3f f7 3c c6 c2 b1 bd a3 c9 43 bc
       -0.036147926 0.030181602 -0.08679728 -0.011949929
000180 16 0a aa bd d2 71 ea bc 16 4a e3 bd 64 6e 2f bd
       -0.08302705 -0.028618727 -0.11098115 -0.042829886
000190 b6 0d ca bd 55 7f cb bd 37 17 d9 3a 42 b9 bd bd
       -0.098658964 -0.09936396 0.0016562705 -0.09263851
0001a0 d7 f8 22 bd f1 a4 55 3d df 4d eb bd d1 c6 28 3d
       -0.039788093 0.052159254 -0.11489462 0.04120523
0001b0 b7 8c 01 be 89 15 7c bc 18 99 7a 3d 6f 05 a3 3d
       -0.12651335 -0.015385994 0.061181158 0.07960021
0001c0 28 19 ab bd bf 32 dc 3d 7b 8c 93 bb 9b 58 05 3e
       -0.083544075 0.107518665 -0.0045028306 0.13022082
0001d0 1b 20 e2 bd cb fa e8 3d af d6 24 b9 e6 72 f7 3d
       -0.1104128 0.1137596 -0.00015720235 0.12082462
0001e0 ea c2 00 3e 9b 08 8e bd b0 9b b1 3c 34 31 89 bd
       0.12574354 -0.06935235 0.021680683 -0.06698838
0001f0 c0 d3 96 bd 41 d6 ff bd 73 b7 d1 3d a8 6e a9 3d
       -0.07364607 -0.124920376 0.10240068 0.08273059
000200 93 f8 1c 3c fc 83 d7 bd 32 12 1f bd 5f 59 f2 3c
       0.009580749 -0.10523221 -0.03883571 0.029583631
000210 37 94 4c bc 60 c3 62 bc 1b 1e e9 bc 76 75 6a bd
       -0.012486509 -0.013840526 -0.028456738 -0.057240926
000220 6b 92 c3 3d 91 41 9b bd 42 73 a5 3d ab 28 be bd
       0.095494114 -0.07580865 0.08078624 -0.092851005
000230 81 ef 0d bd 5f f8 0b be da 80 c0 bd b7 a8 0f 3e
       -0.034652237 -0.13668965 -0.093995765 0.14029203
000240 bc d9 f6 bd 5a f9 0c 3d 26 a7 0b 3e 2c d4 d9 bd
       -0.12053248 0.034417488 0.13637981 -0.10636172
000250 59 4e 1b bd 05 d0 b2 bc 2b 32 96 bc 16 47 3d 3e
       -0.037916515 -0.021827707 -0.018334469 0.18484148
000260 14 bf 87 bc 24 19 a7 bd 3f 28 4e 3d 6e c1 87 bc
       -0.016570605 -0.08159092 0.05033135 -0.016571727
000270 c1 1e 27 bd 85 1a 05 3e b8 6e 0d be 28 d2 04 3e
       -0.040800814 0.12998398 -0.13811767 0.12970793
000280 55 38 04 bd 74 cc 44 3d af 39 fa 3c ce 6e a3 3c
       -0.032280285 0.048046544 0.030545084 0.019950297
000290 97 bd 55 3d 24 77 b4 3d 54 ac c4 3c 6d 43 5b 3c
       0.05218276 0.08811787 0.024007954 0.013382775
0002a0 59 ea 64 bd 21 88 91 3d 90 19 9c bd 09 da ea 3c
       -0.055887554 0.07106043 -0.07622063 0.02866842
0002b0 2f cc dd 3d 77 dc 62 bd 3c b1 e9 3b a7 32 5d bd
       0.108299606 -0.055386033 0.0071317237 -0.054003384
0002c0 9f 21 aa 3d d5 bb c2 3d 99 56 59 3d 00 dd 31 bd
       0.08307194 0.09508482 0.0530611 -0.043423653
0002d0 b8 57 e4 3d d7 cc 0a be 6e f8 0c bd a0 fa c6 3d
       0.111495435 -0.13554703 -0.03441661 0.09715772
0002e0 50 08 e6 bd f2 6e d0 bc a3 fb c5 bd 74 6b 6e 3c
       -0.11232054 -0.025443528 -0.096671365 0.014551986
0002f0 c9 ee 13 bd 6b 15 c9 bc 13 41 3b 3d c6 dd f2 3d
       -0.036116395 -0.024546346 0.045716356 0.11858706
000300 65 31 c1 3d ef 1e 49 bd a7 b3 c4 bd c6 4c 01 be
       0.094332494 -0.049101766 -0.096045785 -0.12626943
000310 23 99 a5 3d c0 ff de bd fe 42 44 3d 57 38 ff bd
       0.08085849 -0.10888624 0.04791545 -0.12461918
000320 61 92 00 3e 7d 4c 21 3b 1d 89 c4 3d 1e c9 89 3c
       0.12555839 0.002461224 0.09596465 0.016819533
000330 80 4e 08 be d6 c6 2f bd 36 5a 14 be 88 8f 6f bd
       -0.13311195 -0.042914234 -0.14487538 -0.05848649
000340 1d 8d e8 3d 00 7e 14 be 81 8e 65 3e b6 9b b3 bd
       0.1135504 -0.1450119 0.22417642 -0.08769934
000350 e6 25 2c 3e c8 5a b1 3c ea 46 aa bc 0a 56 ab bd
       0.16811332 0.021649733 -0.020785768 -0.0836602
000360 ed 92 33 be 0e 34 4e be 19 75 35 be f0 9c 29 be
       -0.17536516 -0.20137045 -0.1772045 -0.16563773
000370 c0 7b ec 3d 22 aa e7 3d d1 eb 4f bb 6b c7 15 be
       0.11547041 0.11311747 -0.003172625 -0.14626853
000380 eb 51 2f 3a cd 47 c5 3c ef e9 99 bc e1 35 23 3d
       0.0006687927 0.024082089 -0.018788306 0.039846305
000390 74 b5 0a be 0f a0 d5 3d 61 6f 26 be fa 72 bc 3d
       -0.13545781 0.104309194 -0.16253425 0.092016175
0003a0 3a a1 9f bd a1 85 46 bc 88 0a 15 be 36 2b 31 be
       -0.077944234 -0.012116821 -0.14554799 -0.1730164
0003b0 72 d2 44 3e 1f 6a 00 3c 3c 22 cb bd 80 9e 83 bc
       0.19220904 0.007837801 -0.09918639 -0.01606679
0003c0 d6 51 fd 3d cc ab f8 3d 35 24 22 be 0f 4c c3 3c
       0.123691246 0.12142143 -0.15834124 0.023839979
0003d0 a8 33 13 be 56 e5 1d 3d d7 77 ea 3d b9 f4 e8 bd
       -0.14375174 0.03854879 0.11448639 -0.11374802
0003e0 51 a2 19 be 14 f2 c8 3d a0 c5 1b 3e 73 e8 e8 3c
       -0.15003325 0.09811798 0.15212107 0.028431153
0003f0 8f c2 f2 3d b1 22 97 bd a4 b6 c1 3b 1f 0b 4a 3d
       0.11853515 -0.07379664 0.005911665 0.049327012

bias f4 [50]
000000 16 e9 ab 3d 41 43 47 bd bc 14 5e 3d 77 a9 06 bd
       0.08394067 -0.048648123 0.054218993 -0.032876458
000010 67 44 18 3d a8 5d 1a be 97 e9 2e bd e2 58 23 3d
       0.03717461 -0.1507479 -0.042703237 0.039879687
000020 d5 27 d3 3d 8d 31 8b 3d d7 a6 96 bd 8a 04 f8 bb
       0.10310332 0.067965604 -0.07356041 -0.0075689005
000030 a7 f3 ff 3d ee a6 19 be d4 c5 f6 3c 66 e4 2b 3e
       0.12497645 -0.15005085 0.030123629 0.16786346
000040 86 b9 27 3e f4 45 0a 3d d1 2d 57 3d f5 82 e9 3d
       0.16379365 0.03375812 0.05253393 0.11401931
000050 8c 86 14 3d 5c 33 1e 3e 6e 23 5b bc 50 e2 b7 bd
       0.036261126 0.1544928 -0.013375146 -0.089787126
000060 9d ee fd bd dc 97 da 3d 31 3c ae 3d 2e 50 a5 bb
       -0.123990275 0.10673496 0.08507574 -0.0050449586
000070 5f 1e 2c bd ff 05 92 bd f5 ed d7 3d 3a 04 6d 3c
       -0.04202115 -0.0713005 0.105434336 0.01446634
000080 de 49 b5 3d 5c b9 86 3c 96 62 2e be 57 4f 8a 3d
       0.0885198 0.016445808 -0.17029795 0.06753414
000090 eb f7 71 bd f6 10 b0 bd 3d 22 85 3d 74 c4 16 bd
       -0.059074324 -0.08596985 0.06500671 -0.036808446
0000a0 67 8a 11 be b6 2f 78 3d ca 47 4c 3d 79 1e 5a 3d
       -0.14212953 0.060592376 0.04987315 0.053251717
0000b0 2d 67 c9 bd bf 28 e6 bd 4c 9b de bd c2 ba c0 bd
       -0.09834132 -0.112382405 -0.10869464 -0.09410621
0000c0 13 cf ff 3c cc ab cd 3d
       0.03122667 0.10042533

mask f4 [50, 50]
000000 00 00 80 3f 00 00 80 3f 00 00 80 3f 00 00 80 3f
       1.0 1.0 1.0 1.0
000010 00 00 80 3f 00 00 80 3f 00 00 80 3f 00 00 80 3f
       1.0 1.0 1.0 1.0
000020 00 00 80 3f 00 00 80 3f 00 00 80 3f 00 00 80 3f
       1.0 1.0 1.0 1.0
000030 00 00 80 3f 00 00 80 3f 00 00 80 3f 00 00 80 3f
       1.0 1.0 1.0 1.0
000040 00 00 80 3f 00 00 80 3f 00 00 80 3f 00 00 80 3f
       1.0 1.0 1.0 1.0
000050 00 00 80 3f 00 00 80 3f 00 00 80 3f 00 00 80 3f
       1.0 1.0 1.0 1.0
000060 00 00 80 3f 00 00 80 3f 00 00 80 3f 00 00 80 3f
       1.0 1.0 1.0 1.0
000070 00 00 80 3f 00 00 80 3f 00 00 80 3f 00 00 80 3f
       1.0 1.0 1.0 1.0
000080 00 00 80 3f 00 00 80 3f 00 00 80 3f 00 00 80 3f
       1.0 1.0 1.0 1.0
000090 00 00 80 3f 00 00 80 3f 00 00 80 3f 00 00 80 3f
       1.0 1.0 1.0 1.0
0000a0 00 00 80 3f 00 00 80 3f 00 00 80 3f 00 00 80 3f
       1.0 1.0 1.0 1.0
0000b0 00 00 80 3f 00 00 80 3f 00 00 80 3f 00 00 80 3f
       1.0 1.0 1.0 1.0
0000c0 00 00 80 3f 00 00 80 3f 00 00 80 3f 00 00 80 3f
       1.0 1.0 1.0 1.0
0000d0 00 00 80 3f 00 00 80 3f 00 00 80 3f 00 00 80 3f
       1.0 1.0 1.0 1.0
0000e0 00 00 80 3f 00 00 80 3f 00 00 80 3f 00 00 80 3f
       1.0 1.0 1.0 1.0
0000f0 00 00 80 3f 00 00 80 3f 00 00 80 3f 00 00 80 3f
       1.0 1.0 1.0 1.0
000100 00 00 80 3f 00 00 80 3f 00 00 80 3f 00 00 80 3f
       1.0 1.0 1.0 1.0
000110 00 00 80 3f 00 00 80 3f 00 00 80 3f 00 00 80 3f
       1.0 1.0 1.0 1.0
000120 00 00 80 3f 00 00 80 3f 00 00 80 3f 00 00 80 3f
       1.0 1.0 1.0 1.0
000130 00 00 80 3f 00 00 80 3f 00 00 80 3f 00 00 80 3f
       1.0 1.0 1.0 1.0
000140 00 00 80 3f 00 00 80 3f 00 00 80 3f 00 00 80 3f
       1.0 1.0 1.0 1.0
000150 00 00 80 3f 00 00 80 3f 00 00 80 3f 00 00 80 3f
       1.0 1.0 1.0 1.0
000160 00 00 80 3f 00 00 80 3f 00 00 80 3f 00 00 80 3f
       1.0 1.0 1.0 1.0
000170 00 00 80 3f 00 00 80 3f 00 00 80 3f 00 00 80 3f
       1.0 1.0 1.0 1.0
000180 00 00 80 3f 00 00 80 3f 00 00 80 3f 00 00 80 3f
       1.0 1.0 1.0 1.0
000190 00 00 80 3f 00 00 80 3f 00 00 80 3f 00 00 80 3f
       1.0 1.0 1.0 1.0
0001a0 00 00 80 3f 00 00 80 3f 00 00 80 3f 00 00 80 3f
       1.0 1.0 1.0 1.0
0001b0 00 00 80 3f 00 00 80 3f 00 00 80 3f 00 00 80 3f
       1.0 1.0 1.0 1.0
0001c0 00 00 80 3f 00 00 80 3f 00 00 80 3f 00 00 80 3f
       1.0 1.0 1.0 1.0
0001d0 00 00 80 3f 00 00 80 3f 00 00 80 3f 00 00 80 3f
       1.0 1.0 1.0 1.0
0001e0 00 00 80 3f 00 00 80 3f 00 00 80 3f 00 00 80 3f
       1.0 1.0 1.0 1.0
0001f0 00 00 80 3f 00 00 80 3f 00 00 80 3f 00 00 80 3f
       1.0 1.0 1.0 1.0
000200 00 00 80 3f 00 00 80 3f 00 00 80 3f 00 00 80 3f
       1.0 1.0 1.0 1.0
000210 00 00 80 3f 00 00 80 3f 00 00 80 3f 00 00 80 3f
       1.0 1.0 1.0 1.0
000220 00 00 80 3f 00 00 80 3f 00 00 80 3f 00 00 80 3f
       1.0 1.0 1.0 1.0
000230 00 00 80 3f 00 00 80 3f 00 00 80 3f 00 00 80 3f
       1.0 1.0 1.0 1.0
000240 00 00 80 3f 00 00 80 3f 00 00 80 3f 00 00 80 3f
       1.0 1.0 1.0 1.0
000250 00 00 80 3f 00 00 80 3f 00 00 80 3f 00 00 80 3f
       1.0 1.0 1.0 1.0
000260 00 00 80 3f 00 00 80 3f 00 00 80 3f 00 00 80 3f
       1.0 1.0 1.0 1.0
000270 00 00 80 3f 00 00 80 3f 00 00 80 3f 00 00 80 3f
       1.0 1.0 1.0 1.0
000280 00 00 80 3f 00 00 80 3f 00 00 80 3f 00 00 80 3f
       1.0 1.0 1.0 1.0
000290 00 00 80 3f 00 00 80 3f 00 00 80 3f 00 00 80 3f
       1.0 1.0 1.0 1.0
0002a0 00 00 80 3f 00 00 80 3f 00 00 80 3f 00 00 80 3f
       1.0 1.0 1.0 1.0
0002b0 00 00 80 3f 00 00 80 3f 00 00 80 3f 00 00 80 3f
       1.0 1.0 1.0 1.0
0002c0 00 00 80 3f 00 00 80 3f 00 00 80 3f 00 00 80 3f
       1.0 1.0 1.0 1.0
0002d0 00 00 80 3f 00 00 80 3f 00 00 80 3f 00 00 80 3f
       1.0 1.0 1.0 1.0
0002e0 00 00 80 3f 00 00 80 3f 00 00 80 3f 00 00 80 3f
       1.0 1.0 1.0 1.0
0002f0 00 00 80 3f 00 00 80 3f 00 00 80 3f 00 00 80 3f
       1.0 1.0 1.0 1.0
000300 00 00 80 3f 00 00 80 3f 00 00 80 3f 00 00 80 3f
       1.0 1.0 1.0 1.0
000310 00 00 80 3f 00 00 80 3f 00 00 80 3f 00 00 80 3f
       1.0 1.0 1.0 1.0
000320 00 00 80 3f 00 00 80 3f 00 00 80 3f 00 00 80 3f
       1.0 1.0 1.0 1.0
000330 00 00 80 3f 00 00 80 3f 00 00 80 3f 00 00 80 3f
       1.0 1.0 1.0 1.0
000340 00 00 80 3f 00 00 80 3f 00 00 80 3f 00 00 80 3f
       1.0 1.0 1.0 1.0
000350 00 00 80 3f 00 00 80 3f 00 00 80 3f 00 00 80 3f
       1.0 1.0 1.0 1.0
000360 00 00 80 3f 00 00 80 3f 00 00 80 3f 00 00 80 3f
       1.0 1.0 1.0 1.0
000370 00 00 80 3f 00 00 80 3f 00 00 80 3f 00 00 80 3f
       1.0 1.0 1.0 1.0
000380 00 00 80 3f 00 00 80 3f 00 00 80 3f 00 00 80 3f
       1.0 1.0 1.0 1.0
000390 00 00 80 3f 00 00 80 3f 00 00 80 3f 00 00 80 3f
       1.0 1.0 1.0 1.0
0003a0 00 00 80 3f 00 00 80 3f 00 00 80 3f 00 00 80 3f
       1.0 1.0 1.0 1.0
0003b0 00 00 80 3f 00 00 80 3f 00 00 80 3f 00 00 80 3f
       1.0 1.0 1.0 1.0
0003c0 00 00 80 3f 00 00 80 3f 00 00 80 3f 00 00 80 3f
       1.0 1.0 1.0 1.0
0003d0 00 00 80 3f 00 00 80 3f 00 00 80 3f 00 00 80 3f
       1.0 1.0 1.0 1.0
0003e0 00 00 80 3f 00 00 80 3f 00 00 80 3f 00 00 80 3f
       1.0 1.0 1.0 1.0
0003f0 00 00 80 3f 00 00 80 3f 00 00 80 3f 00 00 80 3f
       1.0 1.0 1.0 1.0

weight f4 [4, 50]
000000 97 ea d0 bd dc f7 fe bc ca c7 9a 3d 72 f6 b6 3d
       -0.102009945 -0.031124048 0.07557638 0.089337245
000010 c6 c1 c5 bd 2a 17 e9 3d 4c f1 d8 3d a2 bb 0a be
       -0.096561 0.11381371 0.10592899 -0.13548139
000020 47 ab f1 bd 71 7f ec bd a0 77 77 3d ce 73 d1 bd
       -0.11800247 -0.11547745 0.060416818 -0.10227166
000030 f7 ac 09 be 48 d6 90 3c 00 68 37 3b 00 a4 87 3b
       -0.13444887 0.017680302 0.0027985573 0.0041394234
000040 58 43 df bc 42 4a f5 bd f8 c9 39 3d 87 7e 02 3e
       -0.027253792 -0.11977054 0.045358628 0.12743579
000050 24 7b d8 3d e8 2d f5 3c c4 64 41 3d e5 b9 00 3e
       0.10570362 0.029929116 0.04721524 0.12570913
000060 fc 21 ca 3d 78 26 ee bc 30 d1 aa bc f6 80 0f be
       0.09869763 -0.029071078 -0.020851701 -0.14014038
000070 ed 68 07 3e 2c 0d 4d bd 9e 31 f4 3d e8 70 4c 3d
       0.1322362 -0.05006139 0.11923526 0.049912363
000080 0e 37 e3 3d 36 d0 ea bd 76 b8 e0 3d 7c 28 cf 3d
       0.11094485 -0.11465494 0.10972683 0.10115144
000090 f6 94 8a 3d c0 14 b8 3b 08 8a 07 bd 0e ce b3 3d
       0.06766693 0.005617708 -0.03309062 0.08779536
0000a0 fc b3 ba 3d d0 e5 19 3d 60 96 12 3d 5e b4 f8 bd
       0.091163605 0.037572682 0.03578794 -0.12143777
0000b0 08 c6 a8 bd ae 7c c3 bd fa fd ea bd 3a 5e 92 bd
       -0.082408965 -0.09545265 -0.114742234 -0.071468785
0000c0 48 46 d3 3d 78 5b 90 bd 1a 68 82 3d 36 00 27 bd
       0.103161395 -0.07048696 0.06367512 -0.040771686
0000d0 98 a3 d5 3c e0 51 9c 3b 8c 40 8c bc b0 fe 5f bd
       0.026078984 0.0047705024 -0.017120622 -0.05468625
0000e0 20 5f d6 3b f6 35 99 3d a1 09 f5 bd 40 a6 07 bc
       0.0065421015 0.07480995 -0.11964727 -0.008279383
0000f0 07 4f ae bd 6e 7c 63 bd 98 fb 35 bd 33 89 0c 3e
       -0.08511167 -0.055538587 -0.04442939 0.13724212
000100 a4 47 79 3d eb 8f b3 bd 38 05 d4 3d 6a 86 f5 bd
       0.060859337 -0.087676845 0.10352558 -0.11988528
000110 3e 76 c7 3d 3e 61 d2 bd a4 07 be bc 6c 65 54 bd
       0.0973935 -0.10272454 -0.023197003 -0.051854536
000120 5c 2d 28 3d 32 3f ad bd ca 90 cb 3d a4 35 1f 3d
       0.041058883 -0.08459319 0.09939726 0.038869515
000130 f0 09 2c bd 24 03 1e bd 1c 8a 9c 3d 94 9d dc bc
       -0.042001665 -0.038577214 0.0764353 -0.026930608
000140 41 0a ab bd ce f9 ce 3d 4c 06 33 3d d2 a7 f9 3d
       -0.08351565 0.1010624 0.043707177 0.12190212
000150 ae c7 ff 3d 97 d6 00 3e c8 57 00 3d 00 17 05 be
       0.12489258 0.1258186 0.031333715 -0.12997055
000160 ec a1 10 be f1 cd 04 3e c9 af 07 3e 50 26 1f 3d
       -0.14124268 0.12969185 0.1325065 0.038854897
000170 4a 56 92 bd de 92 ca 3d a3 ec 05 be 64 06 10 be
       -0.071453646 0.09891294 -0.13078551 -0.14064938
000180 50 e6 0f 3c 28 43 a2 bd 8e 00 9d 3d 56 01 f1 3d
       0.008782938 -0.07922965 0.076661214 0.11767833
000190 df 40 0a bd 55 ab 9a 3d d1 da 7a 3d 76 af 27 3d
       -0.033753272 0.0755221 0.061243836 0.040938817
0001a0 32 d0 1a be 6f 77 26 be 97 b2 42 bd b3 b4 bc bd
       -0.15118483 -0.16256498 -0.047533598 -0.09214153
0001b0 18 16 97 3c c1 27 44 3d 47 62 2b 3d 7c 03 ab bd
       0.018443152 0.047889475 0.04184177 -0.08350274
0001c0 2e 18 84 bd 50 5c 0c be 10 00 f3 bb 07 25 e0 3d
       -0.064499244 -0.1370709 -0.007415779 0.109445624
0001d0 2a 30 6e 3d 0c 16 b3 3c 1b f7 48 bc 2b 2a 3f 3e
       0.0581514 0.021861099 -0.012265946 0.1866843
0001e0 55 29 e9 3d 34 49 06 3e 5d e2 83 bd ac 2f 46 3d
       0.113848366 0.13113862 -0.0643966 0.048385307
0001f0 c7 3a 81 3d 60 7f 8a 3e 31 85 53 3d 7d ec ff 3d
       0.06310039 0.27050304 0.051640693 0.124962784
000200 c8 68 07 bc 41 02 ff 3d fb 31 01 be 40 c2 05 be
       -0.008264728 0.12451602 -0.12616722 -0.13062382
000210 92 0a f4 3d be 2b 9c bc 5f a4 35 be 8f 6b fe bd
       0.119160786 -0.019063827 -0.17738484 -0.12422859
000220 2c d1 39 3b 0e c0 e1 bd c4 39 c6 3d 82 be 4e 3d
       0.0028353436 -0.1102296 0.09678987 0.05047465
000230 db 31 99 bd 4f 1d 6b 3b 59 ea 5d bb f9 46 04 3e
       -0.07480212 0.0035875624 -0.0033861606 0.12917699
000240 29 37 69 3c 3c 47 8d 3d 2c e5 b4 bc a1 47 14 be
       0.014234343 0.068983525 -0.022081934 -0.1448045
000250 87 1d 25 be e9 e7 ef bd 28 c4 b6 3d 6e 41 e9 bd
       -0.16124545 -0.11714155 0.089241326 -0.11389433
000260 4f 99 70 3d a5 fb e0 bd 60 1b a2 3d 75 02 84 bc
       0.058739956 -0.109854974 0.079153776 -0.016114453
000270 ea 7c cf 3c d6 d1 1e bd dd 28 5b bd aa bf 82 bd
       0.025328118 -0.038774334 -0.053505767 -0.06384213
000280 ed 69 a0 bd eb 9a 6f 3c 72 13 01 be d6 0d 14 3d
       -0.07832704 0.014624338 -0.12605074 0.036146007
000290 2c 5f 4e 3d cc 43 e6 bd 52 0d 48 3c e2 10 9d 3d
       0.05038373 -0.112434 0.012210207 0.07669236
0002a0 eb ba 40 bd 7e 88 cf 3b 11 9c bd 3d 13 b3 2c bd
       -0.04705326 0.00633341 0.09258283 -0.042162966
0002b0 1b 80 be 3d d8 25 f3 bd ef 42 9c bd 48 61 26 3e
       0.09301778 -0.118724525 -0.07629954 0.16248047
0002c0 d0 c5 64 bd 70 60 8e bd 83 79 27 bd ab dc bd 3d
       -0.05585271 -0.06951988 -0.040887367 0.09270605
0002d0 4a 5c 20 3e b2 ea f9 bc 87 59 ec bd 08 20 33 3e
       0.15660205 -0.03050742 -0.115405135 0.17492688
0002e0 28 a5 dc 3d 28 11 e5 3d 20 e6 43 bc c8 fb b3 bc
       0.107736886 0.11184913 -0.011956722 -0.021970645
0002f0 fb 27 fb 3c 87 5f 8a 3d 26 e7 d6 bd 25 d2 50 bd
       0.030658713 0.06756502 -0.10493307 -0.05098166
000300 9b 3c ee 3b 88 6d e7 bd c8 df a3 bd 62 c2 c6 3d
       0.0072704083 -0.11300188 -0.08001667 0.09705044
000310 05 d1 c7 bb e8 e2 bd 3d 5d 9d ba 3d 60 35 0b be
       -0.006097915 0.092717946 0.09112046 -0.1359458

bias f4 [4]
000000 2b ad 0b 3e 38 bb 56 bd 07 67 04 3e 64 3c dc 3d
       0.13640277 -0.05242464 0.12929927 0.10753706

mask f4 [4, 50]
000000 00 00 00 00 00 00 00 00 00 00 00 00 00 00 00 00
       0.0 0.0 0.0 0.0
000010 00 00 00 00 00 00 00 00 00 00 00 00 00 00 00 00
       0.0 0.0 0.0 0.0
000020 00 00 00 00 00 00 00 00 00 00 00 00 00 00 00 00
       0.0 0.0 0.0 0.0
000030 00 00 00 00 00 00 00 00 00 00 00 00 00 00 00 00
       0.0 0.0 0.0 0.0
000040 00 00 00 00 00 00 00 00 00 00 00 00 00 00 00 00
       0.0 0.0 0.0 0.0
000050 00 00 00 00 00 00 00 00 00 00 00 00 00 00 00 00
       0.0 0.0 0.0 0.0
000060 00 00 00 00 00 00 00 00 00 00 00 00 00 00 00 00
       0.0 0.0 0.0 0.0
000070 00 00 00 00 00 00 00 00 00 00 00 00 00 00 00 00
       0.0 0.0 0.0 0.0
000080 00 00 00 00 00 00 00 00 00 00 00 00 00 00 00 00
       0.0 0.0 0.0 0.0
000090 00 00 00 00 00 00 00 00 00 00 00 00 00 00 00 00
       0.0 0.0 0.0 0.0
0000a0 00 00 00 00 00 00 00 00 00 00 00 00 00 00 00 00
       0.0 0.0 0.0 0.0
0000b0 00 00 00 00 00 00 00 00 00 00 00 00 00 00 00 00
       0.0 0.0 0.0 0.0
0000c0 00 00 00 00 00 00 00 00 00 00 00 00 00 00 00 00
       0.0 0.0 0.0 0.0
0000d0 00 00 00 00 00 00 00 00 00 00 00 00 00 00 00 00
       0.0 0.0 0.0 0.0
0000e0 00 00 00 00 00 00 00 00 00 00 00 00 00 00 00 00
       0.0 0.0 0.0 0.0
0000f0 00 00 00 00 00 00 00 00 00 00 00 00 00 00 00 00
       0.0 0.0 0.0 0.0
000100 00 00 00 00 00 00 00 00 00 00 00 00 00 00 00 00
       0.0 0.0 0.0 0.0
000110 00 00 00 00 00 00 00 00 00 00 00 00 00 00 00 00
       0.0 0.0 0.0 0.0
000120 00 00 00 00 00 00 00 00 00 00 00 00 00 00 00 00
       0.0 0.0 0.0 0.0
000130 00 00 00 00 00 00 00 00 00 00 00 00 00 00 00 00
       0.0 0.0 0.0 0.0
000140 00 00 00 00 00 00 00 00 00 00 00 00 00 00 00 00
       0.0 0.0 0.0 0.0
000150 00 00 00 00 00 00 00 00 00 00 00 00 00 00 00 00
       0.0 0.0 0.0 0.0
000160 00 00 00 00 00 00 00 00 00 00 00 00 00 00 00 00
       0.0 0.0 0.0 0.0
000170 00 00 00 00 00 00 00 00 00 00 00 00 00 00 00 00
       0.0 0.0 0.0 0.0
000180 00 00 00 00 00 00 00 00 00 00 00 00 00 00 00 00
       0.0 0.0 0.0 0.0
000190 00 00 80 3f 00 00 80 3f 00 00 80 3f 00 00 80 3f
       1.0 1.0 1.0 1.0
0001a0 00 00 80 3f 00 00 80 3f 00 00 80 3f 00 00 80 3f
       1.0 1.0 1.0 1.0
0001b0 00 00 80 3f 00 00 80 3f 00 00 80 3f 00 00 80 3f
       1.0 1.0 1.0 1.0
0001c0 00 00 80 3f 00 00 80 3f 00 00 80 3f 00 00 80 3f
       1.0 1.0 1.0 1.0
0001d0 00 00 80 3f 00 00 80 3f 00 00 80 3f 00 00 80 3f
       1.0 1.0 1.0 1.0
0001e0 00 00 80 3f 00 00 80 3f 00 00 80 3f 00 00 80 3f
       1.0 1.0 1.0 1.0
0001f0 00 00 80 3f 00 00 80 3f 00 00 80 3f 00 00 80 3f
       1.0 1.0 1.0 1.0
000200 00 00 80 3f 00 00 80 3f 00 00 80 3f 00 00 80 3f
       1.0 1.0 1.0 1.0
000210 00 00 80 3f 00 00 80 3f 00 00 80 3f 00 00 80 3f
       1.0 1.0 1.0 1.0
000220 00 00 80 3f 00 00 80 3f 00 00 80 3f 00 00 80 3f
       1.0 1.0 1.0 1.0
000230 00 00 80 3f 00 00 80 3f 00 00 80 3f 00 00 80 3f
       1.0 1.0 1.0 1.0
000240 00 00 80 3f 00 00 80 3f 00 00 80 3f 00 00 80 3f
       1.0 1.0 1.0 1.0
000250 00 00 80 3f 00 00 80 3f 00 00 80 3f 00 00 80 3f
       1.0 1.0 1.0 1.0
000260 00 00 80 3f 00 00 80 3f 00 00 80 3f 00 00 80 3f
       1.0 1.0 1.0 1.0
000270 00 00 80 3f 00 00 80 3f 00 00 80 3f 00 00 80 3f
       1.0 1.0 1.0 1.0
000280 00 00 80 3f 00 00 80 3f 00 00 80 3f 00 00 80 3f
       1.0 1.0 1.0 1.0
000290 00 00 80 3f 00 00 80 3f 00 00 80 3f 00 00 80 3f
       1.0 1.0 1.0 1.0
0002a0 00 00 80 3f 00 00 80 3f 00 00 80 3f 00 00 80 3f
       1.0 1.0 1.0 1.0
0002b0 00 00 80 3f 00 00 80 3f 00 00 80 3f 00 00 80 3f
       1.0 1.0 1.0 1.0
0002c0 00 00 80 3f 00 00 80 3f 00 00 80 3f 00 00 80 3f
       1.0 1.0 1.0 1.0
0002d0 00 00 80 3f 00 00 80 3f 00 00 80 3f 00 00 80 3f
       1.0 1.0 1.0 1.0
0002e0 00 00 80 3f 00 00 80 3f 00 00 80 3f 00 00 80 3f
       1.0 1.0 1.0 1.0
0002f0 00 00 80 3f 00 00 80 3f 00 00 80 3f 00 00 80 3f
       1.0 1.0 1.0 1.0
000300 00 00 80 3f 00 00 80 3f 00 00 80 3f 00 00 80 3f
       1.0 1.0 1.0 1.0
000310 00 00 80 3f 00 00 80 3f 00 00 80 3f 00 00 80 3f
       1.0 1.0 1.0 1.0

weight f4 [50, 2]
000000 02 fc 47 3f 64 90 89 3e 8e 73 d5 3e f1 53 21 bf
       0.7811891 0.26867974 0.41689724 -0.6301871
000010 03 ee 4a 3f 34 42 1e bf 1c a0 f2 be 56 d7 f9 3e
       0.7926943 -0.6181977 -0.4738778 0.487971
000020 75 d4 9d be aa 17 03 bf b0 ba 63 bd f8 cf 7a 3e
       -0.30826154 -0.51207983 -0.05559796 0.24493396
000030 d7 35 07 bf 0e 77 f5 be 17 b2 2b 3f c0 b9 51 3e
       -0.5281653 -0.47942394 0.6706862 0.20481014
000040 95 7a 31 3f 96 48 fd be 49 48 07 3f e4 74 57 be
       0.6932767 -0.4946944 0.52844673 -0.21040684
000050 b2 dc ab 3c 7a b9 b7 3e 1a f9 14 bf c6 08 ea 3e
       0.02097926 0.35883695 -0.581926 0.4570982
000060 74 32 3b bf 62 be 58 be 8f cc ed 3e e8 59 79 3e
       -0.7312386 -0.21166375 0.46445128 0.24350703
000070 dd ed 33 3c ea e0 c7 3e bd 0a 4d 3f 92 58 cb 3e
       0.010982004 0.39038783 0.8009451 0.3971601
000080 64 de 0b be e2 dc 28 bf ab 8f a1 3c 14 7f 00 be
       -0.13659054 -0.6596204 0.019721827 -0.12548476
000090 b2 46 95 3d 98 9b 52 3e 23 7c ac 3d e0 72 11 3e
       0.07288875 0.20567167 0.08422115 0.14203978
0000a0 48 9c 04 bf 28 76 05 3e b0 19 3d be 23 63 19 3f
       -0.51800966 0.13033354 -0.1846683 0.59916896
0000b0 be 53 f2 3e 5a 26 b1 3e 91 ff fd be f0 1c 87 3e
       0.47329515 0.34599572 -0.49609044 0.26389265
0000c0 12 8d 13 bf 48 a7 03 bf f5 23 0f 3f 6d 81 1d bf
       -0.5763713 -0.51427126 0.5591424 -0.61525613
0000d0 0d b8 50 3e a0 26 86 3d f0 80 30 3e 0a 40 e3 be
       0.2038271 0.06550336 0.17236686 -0.44384795
0000e0 9e ff da bb 78 d0 6c 3e a9 2b 1e 3e 40 a6 45 bd
       -0.006683304 0.231264 0.15446343 -0.04825425
0000f0 f6 ee 0e bf d0 7f 01 bd d5 31 e9 be 25 47 34 3f
       -0.55833375 -0.031616032 -0.4554583 0.7042106
000100 5e 60 96 3e 42 af 11 bf 4d 4e 02 3f fe bd 2d bf
       0.29370397 -0.5690805 0.5090073 -0.6786803
000110 43 d6 ea 3d 82 4e be 3e 59 d9 24 3c 0c 57 74 3e
       0.114666484 0.37169272 0.010061585 0.23861331
000120 04 da 2a 3d 57 1c 0f 3f f7 d4 12 3e 51 00 96 be
       0.041711822 0.5590262 0.14339052 -0.29297116
000130 bb 90 93 bd 75 c9 0d 3f 4c 4a 48 bd 93 03 c9 be
       -0.072053395 0.55385524 -0.04889898 -0.3926054
000140 7d ef 45 3f a6 7e 65 be 8b 4e 31 3f 46 89 20 bf
       0.77318555 -0.22411594 0.6926047 -0.6270946
000150 d8 85 53 bf b4 da 32 be aa b7 82 be 00 69 3f be
       -0.82626104 -0.17466241 -0.2553075 -0.18692398
000160 83 e7 f9 3e 1c 5b 46 be 8e 15 54 be 28 5c 32 3e
       0.48809442 -0.19370693 -0.20711347 0.17417967
000170 2d 30 31 bc a0 11 a8 bc 63 c2 87 be 2d 0f 32 3f
       -0.010814709 -0.020516217 -0.26515493 0.69554406
000180 2e ad 36 3f 74 b4 2c bf dd 3b 0f 3f 78 74 0c 3e
       0.71358 -0.6746285 0.5595072 0.13716304
