04a/Results_O4a_MultiSeed_Final/Models_Seed_2024_20260210/model_ai_seed_2024.pth (torch, 278418 bytes, 76 tensors)

_shift f4 [2]
2.577014 -1.7322775
00000000: cced 2440 45bb ddbf

_scale f4 [2]
0.17290431 3.4539242
00000000: d40d 313e 180d 5d40

weight f4 [50, 2]
0.54154056 -0.67169785 -0.17958832 0.30195016 0.12538317 0.62687844 0.08598279 0.4392311
-0.36916167 -0.3547775 0.0030125207 0.5289677 -0.28343064 0.440952 -0.14137924 0.5576152
0.13257022 -0.31942666 -0.30646414 -0.51875746 0.40320975 0.15584457 0.054212138 0.035870492
0.16095302 0.397574 0.11860918 0.3436187 -0.075350076 0.05543828 0.23318405 -0.6824159
0.3829113 -0.14831161 0.079458155 -0.6104224 0.63430935 0.2196312 0.3008777 0.18637031
0.30234587 -0.02388984 0.6778668 -0.5818578 0.07540928 -0.45817697 -0.47997406 -0.16418117
-0.53142065 -0.6404097 -0.275098 0.18252546 -0.09459802 -0.05662799 0.41341656 -0.33224478
0.2759571 0.18002051 0.40336034 -0.35530517 -0.58562374 0.5464125 -0.45806253 0.054978132
-0.35908026 0.66196114 -0.33852163 0.2132886 0.46502608 -0.6259532 0.729268 0.51135856
-0.62153494 -0.4059897 0.2730532 0.1039418 0.7504023 -0.42198747 0.70246583 0.5659911
-0.27791327 -0.17819232 0.1415702 -0.33972645 -0.3824372 0.23038924 0.13436113 0.5419329
0.5187527 0.40430337 -0.038195856 -0.496087 0.2374702 -0.64048135 0.51434934 0.4590339
-0.25874132 0.08393502 0.06799882 -0.59628886
00000000: 67a2 0a3f 64f4 2bbf 00e6 37be 3699 9a3e
00000010: 7264 003e 1b7b 203f bf17 b03d e6e2 e03e
00000020: c202 bdbe 65a5 b5be b66d 453b 6d6a 073f
00000030: d21d 91be 76c4 e13e b8c5 10be dfbf 0e3f
00000040: 7dc0 073e e48b a3be dee8 9cbe 4acd 04bf
00000050: 8271 ce3e b895 1f3e 8c0d 5e3d f0ec 123d
00000060: ded0 243e d28e cb3e 5fe9 f23d caee af3e
00000070: 2451 9abd 4013 633d cdc7 6e3e cfb2 2ebf
00000080: f30c c43e 00df 17be f5ba a23d a444 1cbf
00000090: 1962 223f 00e7 603e a40c 9a3e dcd7 3e3e
000000a0: 14cd 9a3e a0b4 c3bc ae88 2d3f a2f4 14bf
000000b0: 2e70 9a3d 2c96 eabe 29bf f5be 1c1f 28be
000000c0: 2f0b 08bf e4f1 23bf a5d9 8cbe f4e7 3a3e
000000d0: 9bbc c1bd c0f2 67bd 56ab d33e fd1b aabe
000000e0: 404a 8d3e 4c57 383e 3f85 ce3e 8fea b5be
000000f0: 70eb 15bf b1e1 0b3f 2c87 eabe c030 613d
00000100: 5ed9 b7be 4976 293f b552 adbe 5468 5a3e
00000110: e617 ee3e 783e 20bf 4fb1 3a3f 65e8 023f
00000120: ea1c 1fbf e2dd cfbe a1cd 8b3e 70df d43d
00000130: 5d1a 403f be0e d8be cdd4 333f cbe4 103f
00000140: a64a 8ebe 0c78 36be c7f7 103e a0f0 adbe
00000150: cfce c3be 28eb 6b3e f795 093e 1dbc 0a3f
00000160: facc 043f da00 cf3e 4273 1cbd 1eff fdbe
00000170: 632b 733e 96f6 23bf 66ac 033f 7e06 eb3e
00000180: be79 84be 20e6 ab3d f742 8b3d 63a6 18bf

bias f4 [50]
0.1453663 0.68543786 -0.15536682 -0.0616408 0.08762944 0.67884517 -0.60199267 0.039767694
-0.35765544 -0.42835146 0.49928096 -0.4183488 -0.2861719 -0.5654477 -0.6540806 -0.7056884
0.28143337 0.3350433 -0.12648574 -0.17538577 0.017097086 -0.75600517 -0.514011 -0.26491624
0.19238731 -0.57857734 -0.28514743 0.21069969 0.14704324 -0.67079294 0.6015889 -0.23835167
-0.079397075 -0.11858551 0.25324026 -0.7190812 0.3777094 -0.43567696 -0.5098213 -0.32093415
0.26472774 -0.18915422 -0.26459622 0.12177176 0.53656363 0.5740062 -0.65934175 0.2335436
-0.569016 -0.21008684
00000000: e7da 143e db78 2f3f 7b18 1fbe 107b 7cbd
00000010: 1077 b33d ccc8 2d3f 311c 1abf 73e3 223d
00000020: 9d1e b7be e250 dbbe c1a1 ff3e d031 d6be
00000030: 2085 92be 2ec1 10bf d471 27bf ffa7 34bf
00000040: 0918 903e cc8a ab3e 7a85 01be 5498 33be
00000050: 300f 8c3c 8e89 41bf 3a96 03bf 1aa3 87be
00000060: 2e01 453e a51d 14bf d8fe 91be a9c1 573e
00000070: 8192 163e 16b9 2bbf bb01 1a3f 7612 74be
00000080: ef9a a2bd f6dc f2bd b5a8 813e b515 38bf
00000090: 2063 c13e 0d11 dfbe a683 02bf 7b51 a4be
000000a0: 658a 873e a5b1 41be 2879 87be 7963 f93d
000000b0: 3c5c 093f 12f2 123f 9fca 28bf 0e26 6f3e
000000c0: 08ab 11bf 0121 57be

mask f4 [50, 2]
1.0 0.0 1.0 0.0 1.0 0.0 1.0 0.0
1.0 0.0 1.0 0.0 1.0 0.0 1.0 0.0
1.0 0.0 1.0 0.0 1.0 0.0 1.0 0.0
1.0 0.0 1.0 0.0 1.0 0.0 1.0 0.0
1.0 0.0 1.0 0.0 1.0 0.0 1.0 0.0
1.0 0.0 1.0 0.0 1.0 0.0 1.0 0.0
1.0 0.0 1.0 0.0 1.0 0.0 1.0 0.0
1.0 0.0 1.0 0.0 1.0 0.0 1.0 0.0
1.0 0.0 1.0 0.0 1.0 0.0 1.0 0.0
1.0 0.0 1.0 0.0 1.0 0.0 1.0 0.0
1.0 0.0 1.0 0.0 1.0 0.0 1.0 0.0
1.0 0.0 1.0 0.0 1.0 0.0 1.0 0.0
1.0 0.0 1.0 0.0
00000000: 0000 803f 0000 0000 0000 803f 0000 0000
00000010: 0000 803f 0000 0000 0000 803f 0000 0000
00000020: 0000 803f 0000 0000 0000 803f 0000 0000
00000030: 0000 803f 0000 0000 0000 803f 0000 0000
00000040: 0000 803f 0000 0000 0000 803f 0000 0000
00000050: 0000 803f 0000 0000 0000 803f 0000 0000
00000060: 0000 803f 0000 0000 0000 803f 0000 0000
00000070: 0000 803f 0000 0000 0000 803f 0000 0000
00000080: 0000 803f 0000 0000 0000 803f 0000 0000
00000090: 0000 803f 0000 0000 0000 803f 0000 0000
000000a0: 0000 803f 0000 0000 0000 803f 0000 0000
000000b0: 0000 803f 0000 0000 0000 803f 0000 0000
000000c0: 0000 803f 0000 0000 0000 803f 0000 0000
000000d0: 0000 803f 0000 0000 0000 803f 0000 0000
000000e0: 0000 803f 0000 0000 0000 803f 0000 0000
000000f0: 0000 803f 0000 0000 0000 803f 0000 0000
00000100: 0000 803f 0000 0000 0000 803f 0000 0000
00000110: 0000 803f 0000 0000 0000 803f 0000 0000
00000120: 0000 803f 0000 0000 0000 803f 0000 0000
00000130: 0000 803f 0000 0000 0000 803f 0000 0000
00000140: 0000 803f 0000 0000 0000 803f 0000 0000
00000150: 0000 803f 0000 0000 0000 803f 0000 0000
00000160: 0000 803f 0000 0000 0000 803f 0000 0000
00000170: 0000 803f 0000 0000 0000 803f 0000 0000
00000180: 0000 803f 0000 0000 0000 803f 0000 0000

weight f4 [50, 4]
0.50573295 0.013219467 -0.3482655 0.2717553 -0.19053303 0.35025167 -0.25200206 0.22749008
0.26510462 -0.17965339 0.48319802 -0.0004413606 -0.000710708 -0.16984165 -0.36225736 -0.3493055
0.35153684 0.42659223 -0.02964072 -0.08547602 -0.061322454 -0.102378845 0.18640332 -0.3274812
-0.12612781 0.2640856 -0.27978063 0.26531643 0.31826377 0.15601316 -0.17948268 0.18318215
0.15070303 0.4544376 0.519022 0.27188852 -0.2916553 -0.051182784 0.0122283595 -0.04679186
-0.2191955 0.08387873 -0.11054281 0.4635274 -0.20720197 0.17080136 0.6367498 -0.20081945
0.19748421 -0.13132815 0.2369112 -0.08137805 -0.1840363 -0.013736767 0.11145174 -0.38582635
0.15926515 0.47360706 -0.04110592 -0.4284837 -0.057299245 0.076713204 -0.14919564 0.32260948
-0.3852931 0.5158813 0.38183376 -0.18092413 0.19859865 0.17018789 0.015639542 0.051351193
-0.18127683 0.047217004 -0.042971503 0.31060594 0.14301354 0.075701304 -0.36699826 0.0045598485
0.15673958 0.2334989 -0.3516774 0.0062246295 -0.251798 -0.39748126 0.4573898 -0.39908856
-0.29408816 -0.2246033 0.42236632 0.043235596 -0.1790762 0.14903975 0.15308575 0.13477884
0.079872005 0.43087247 0.3566057 0.09662326 0.20011291 -0.02926974 0.20134234 0.3798695
0.16925482 -0.25773042 -0.26862934 0.48620346 0.39692014 -0.3231416 -0.04301285 0.4938251
-0.31091782 0.25077185 0.06249881 0.21761084 0.14996308 0.44340277 0.67879283 0.37966183
-0.43159536 0.004275651 -0.10762786 0.47978652 0.1040863 -0.02845055 0.7816918 0.003529565
-0.41469434 0.6286994 -0.18361089 0.38198006 -0.10142105 0.39318934 0.064372145 -0.1076209
-0.14252464 0.5291723 -0.025422828 0.04831436 -0.2474226 -0.40504342 -0.26479846 0.042549487
-0.2966355 0.36063883 -0.20867197 0.063512884 -0.16104862 0.5097519 0.34907734 -0.16004317
0.1405042 0.41170943 -0.41362515 -0.36184767 -0.033695936 -0.13863614 -0.3627346 -0.041365683
-0.41636878 -0.24991627 0.099766225 -0.41749585 -0.13081968 0.4035822 0.3962544 0.36850056
-0.22708051 -0.12885515 -0.30350053 0.31789592 0.35729906 0.175427 0.13442206 0.04788918
-0.59292436 -0.18221523 -0.19227573 -0.38326448 -0.32582542 0.08502153 0.4210402 -0.22450271
-0.34443876 -0.24236815 0.3569067 -0.22240502 -0.19953755 0.1426461 -0.30343398 -0.11589709
-0.12255663 -0.55475336 -0.50337386 0.35246357 -0.060354635 -0.27298328 -0.18503004 -0.12914169
00000000: b777 013f 7796 583c db4f b2be 8323 8b3e
00000010: 171b 43be 3054 b33e 6a06 81be 29f3 683e
00000020: cbbb 873e 0ff7 37be bb65 f73e 6b66 e7b9
00000030: ce4e 3aba f8ea 2dbe cc79 b9be 2cd8 b2be
00000040: a3fc b33e 4c6a da3e 18d1 f2bc 0d0e afbd
00000050: 412d 7bbd 00ac d1bd 83e0 3e3e 9eab a7be
00000060: a627 01be 3a36 873e 683f 8fbe 8ed7 873e
00000070: 78f3 a23e eac1 1f3e 4fca 37be 1a94 3b3e
00000080: e551 1a3e 0cac e83e a0de 043f f934 8b3e
00000090: d853 95be 0aa5 51bd 7559 483c d2a8 3fbd
000000a0: c974 60be 9dc8 ab3d 4564 e2bd 7753 ed3e
000000b0: c12c 54be 8de6 2e3e 0902 233f 9da3 4dbe
000000c0: 4d39 4a3e e37a 06be da98 723e 89a9 a6bd
000000d0: 0374 3cbe 2d10 61bc cf40 e43d 088b c5be
000000e0: 6716 233e a07c f23e ae5e 28bd 3762 dbbe
000000f0: 9db2 6abd d01b 9d3d bec6 18be 122d a53e
00000100: 2345 c5be cc10 043f b77f c33e 2d44 39be
00000110: 725d 4b3e bc45 2e3e 7f1e 803c a155 523d
00000120: a2a0 39be 9e66 413d e302 30bd be07 9f3e
00000130: 2472 123e 4909 9b3d 32e7 bbbe c86a 953b
00000140: 5780 203e 561a 6f3e 0f0f b4be faf7 cb3b
00000150: abeb 80be aa82 cbbe ff2e ea3e 5655 ccbe
00000160: b992 96be 68fe 65be 6640 d83e cf17 313d
00000170: c05f 37be e09d 183e 83c2 1c3e 7703 0a3e
00000180: ef93 a33d 519b dc3e 0695 b63e 6ae2 c53d
00000190: 66ea 4c3e 18c7 efbc b02c 4e3e 417e c23e
000001a0: 2351 2d3e 3ef5 83be c989 89be a9ef f83e
000001b0: 1e39 cb3e d172 a5be 3e2e 30bd a5d6 fc3e
000001c0: 9f30 9fbe 2b65 803e c1fe 7f3d 60d5 5e3e
000001d0: ec8f 193e b005 e33e 5ec5 2d3f 0963 c23e
000001e0: 11fa dcbe c31a 8c3b ff6b dcbd 94a6 f53e
000001f0: 332b d53d 2111 e9bc f41c 483f 4650 673b
00000200: d152 d4be 72f2 203f 7e04 3cbe e492 c33e
00000210: d7b5 cfbd 1d50 c93e 8bd5 833d 5968 dcbd
00000220: fbf1 11be d677 073f 8943 d0bc 47e5 453d
00000230: 5a5c 7dbe da61 cfbe aa93 87be 5f48 2e3d
00000240: 9ce0 97be a7a5 b83e 1bae 55be 0b13 823d
00000250: eee9 24be 1a7f 023f 44ba b23e 5be2 23be
00000260: 55e0 0f3e 94cb d23e adc6 d3be 1944 b9be
00000270: c004 0abd a2f6 0dbe 59b8 b9be 106f 29bd
00000280: 4a2e d5be 0dea 7fbe 3c52 cc3d 04c2 d5be
00000290: 98f5 05be 53a2 ce3e dbe1 ca3e 1bac bc3e
000002a0: cb87 68be 9bf2 03be 6c64 9bbe 41c3 a23e
000002b0: e7ef b63e 23a3 333e f0a5 093e 7227 443d
000002c0: e4c9 17bf a196 3abe eee3 44be 3e3b c4be
000002d0: 97d2 a6be c51f ae3d 9592 d73e 0ae4 65be
000002e0: 475a b0be 5b2f 78be 7abc b63e 24be 63be
000002f0: 9253 4cbe d211 123e b35b 9bbe 745b edbd
00000300: f8fe fabd 5104 0ebf 1cdd 00bf 1b76 b43e
00000310: 6c36 77bd 77c4 8bbe 8478 3dbe b83d 04be

bias f4 [50]
0.14224623 0.48653114 -0.10604389 -0.48823476 -0.31383607 -0.34818026 0.4776489 -0.38305637
-0.36217245 0.18306793 0.37126848 0.019332137 0.28936124 0.21225066 0.17546892 0.100588046
-0.21534498 0.03114932 -0.122594 0.09350273 0.14445813 -0.22881986 -0.01905268 -0.5058601
-0.12234497 -0.12633336 -0.13089056 0.02936566 -0.5202982 0.13089283 -0.16234893 0.59240425
-0.4914764 -0.06586626 0.20677005 0.03858785 0.19994204 -0.10083921 -0.32811144 -0.49208018
0.01191707 0.24568173 0.017805237 -0.29218996 -0.35980058 0.49414662 -0.3834302 0.013859575
-0.33493882 0.22302431
00000000: ffa8 113e 9c1a f93e 8a2d d9bd e8f9 f9be
00000010: 1faf a0be af44 b2be 668e f43e f71f c4be
00000020: ab6e b9be 2976 3b3e e716 be3e 6e5e 9e3c
00000030: 2827 943e 3d58 593e 20ae 333e 1b01 ce3d
00000040: 6583 5cbe dc2c ff3c 9012 fbbd 5c7e bf3d
00000050: d5ec 133e c14f 6abe 5e14 9cbc 0c80 01bf
00000060: 0090 fabd 885d 01be 2d08 06be 4190 f03c
00000070: 4332 05bf c508 063e cc3e 26be cea7 173f
00000080: cba2 fbbe e4e4 86bd 87bb 533e 4b0e 1e3d
00000090: 9bbd 4c3e ca84 cebd 39fe a7be eff1 fbbe
000000a0: d03f 433c fe93 7b3e 4adc 913c ec99 95be
000000b0: c837 b8be c900 fd3e f750 c4be 4513 633c
000000c0: 1a7d abbe 7c60 643e

weight f4 [50, 50]
-0.05553147 0.0054366114 -0.1117654 0.018132001 -0.09470382 0.15050547 0.10322742 -0.082569785
-0.08262907 -0.030523678 -0.07774292 0.018271532 -0.13244782 -0.014782813 -0.037140545 0.09494698
-0.050819885 0.15657218 -0.028725514 -0.1058382 -0.1144352 0.12460099 0.102946356 -0.017350916
0.10705871 -0.020499801 0.03197986 -0.10336826 0.001979658 -0.07002345 -0.013578976 -0.023648972
-0.04462121 -0.01902066 -0.013433254 -0.0882292 -0.07259864 0.022678496 0.012245096 0.03080217
0.005786466 0.08180327 -0.10800049 0.0006821567 -0.16011354 0.07421379 -0.020451337 -0.054081205
-0.13638665 -0.17401068 0.13237596 -0.049611367 -0.069837734 0.034122024 -0.0008282579 0.10102015
-0.098109 -0.038961705 -0.08696156 -0.038930617 0.121586815 0.038712785 -0.07694022 -0.09731201
0.10930808 0.093977325 -0.105899945 -0.08530819 -0.043145932 0.12256923 -0.118146434 -0.021892913
0.04291454 0.011894443 -0.05286319 -0.022040892 0.09529087 -0.029120978 0.046445124 0.105787985
0.118099734 0.035040345 0.12788883 -0.11662026 0.009045958 -0.025941988 -0.013090551 -0.07477029
0.09904203 0.10660358 0.06353894 0.036617875 0.032785967 0.01994238 -0.07679313 0.13206941
-0.016890071 -0.056013484 -0.06427267 0.10345425 0.18338285 -0.08084294 0.07166772 0.0696492
-0.04093272 0.16799039 0.04371825 -0.1535342 -0.18380989 -0.055364273 -0.049538948 0.041066095
0.05079586 0.058669064 -0.13338697 -0.15384667 -0.12930918 -0.077029265 0.13558471 0.012807189
0.114484414 -0.045667388 -0.1326993 -0.17319682 -0.13483937 -0.12771447 -0.14193696 -0.022613533
-0.09447479 -0.09306756 -0.04327108 -0.11265521 0.021977635 -0.08947352 0.037058026 -0.07936256
0.08229688 0.022270896 -0.10390808 -0.118787065 -0.12165157 -0.037924584 0.07847385 0.08450984
0.11160863 0.11304147 0.053405754 0.043800775 -0.15594944 0.09418355 0.13756081 0.110404775
-0.06954488 -0.17169572 -0.18474507 0.0016933269 -0.16813771 -0.13040783 -0.11490012 -0.014903029
0.16801162 -0.08761998 -0.12614487 0.06402532 -0.05146533 -0.18361439 0.08198633 0.10079789
0.02168646 -0.14639057 0.11372014 -0.111059316 -0.12987293 -0.1483882 -0.14173368 0.072189115
-0.100992315 0.114747554 -0.06875659 0.051172275 -0.018034693 0.078790784 0.00041012975 -0.19503865
-0.12442415 -0.0631312 0.07414901 -0.10171518 0.13866512 -0.14792943 -0.0016966303 0.008780105
-0.12952627 0.12316355 0.044271 0.11548931 -0.004064621 -0.02314234 -0.04584573 -0.101210974
-0.0737615 -0.059122298 -0.00037729982 -0.047071073 0.026476063 -0.024024997 0.081958584 -0.009971118
0.13566057 -0.12315506 -0.11660985 -0.11456736 -0.043890297 -0.06086406 0.06797399 -0.13460618
-0.041742124 0.0067694793 -0.020186463 -0.095781706 -0.10145877 0.1585415 -0.12506467 0.037518255
0.10392928 -0.16118568 0.058700893 0.09411215 -0.05631077 -0.1300493 -0.03358101 -0.07504691
0.11357095 0.015212975 -0.029364565 0.09680715 -0.14017388 -0.0013607829 0.070459634 -0.017756721
0.06867491 0.10847161 -0.03848838 -0.0361029 0.11839568 0.12512283 0.063013405 -0.03963635
0.014732088 -0.032681182 -0.19100282 -0.15261598 0.15697435 -0.09637876 0.14391431 -0.07828491
00000000: f774 63bd 9a25 b23b 42e5 e4bd 9089 943c
00000010: 14f4 c1bd 1b1e 1a3e e668 d33d 591a a9bd
00000020: 6e39 a9bd cb0c fabc ae37 9fbd 2eae 953c
00000030: 67a0 07be 9d33 72bc af20 18bd 9073 c23d
00000040: 8328 50bd 7554 203e c551 ebbc b3c1 d8bd
00000050: 015d eabd ce2e ff3d 8ad5 d23d 8223 8ebc
00000060: 9941 db3d 33ef a7bc 50fd 023d bdb2 d3bd
00000070: 26bd 013b 7468 8fbd 5a7a 5ebc 7dbb c1bc
00000080: bbc4 36bd 37d1 9bbc 2717 5cbc 83b1 b4bd
00000090: 99ae 94bd 41c8 b93c a89f 483c d554 fc3c
000000a0: 659c bd3b 7988 a73d 5c2f ddbd c3d2 323a
000000b0: cef4 23be 66fd 973d 9089 a7bc 4184 5dbd
000000c0: f1a8 0bbe db2f 32be 908d 073e 4a35 4bbd
000000d0: 1607 8fbd 89c3 0b3d 721f 59ba a7e3 ce3d
000000e0: 5fed c8bd 4f96 1fbd e718 b2bd b675 1fbd
000000f0: 8202 f93d 4c91 1e3d d692 9dbd 854b c7bd
00000100: eadc df3d 2f77 c03d 12e2 d8bd 0fb6 aebd
00000110: cab9 30bd 9405 fb3d c2f6 f1bd c458 b3bc
00000120: 28c7 2f3d e9e0 423c 1387 58bd 1a8f b4bc
00000130: dc27 c33d 1e8f eebc 3e3d 3e3d 5fa7 d83d
00000140: 46de f13d 7786 0f3d 4af5 023e 9ad6 eebd
00000150: 7f35 143c 4b84 d4bc c079 56bc 2a21 99bd
00000160: 8cd6 ca3d fa52 da3d b420 823d a0fc 153d
00000170: 944a 063d 345e a33c b745 9dbd 343d 073e
00000180: 0c5d 8abc 656e 65bd 64a1 83bd d2df d33d
00000190: b7c8 3b3e fc90 a5bd 87c6 923d 3da4 8e3d
000001a0: 11a9 27bd ac05 2c3e e811 333d 1238 1dbe
000001b0: a938 3cbe a6c5 62bd 5ae9 4abd ec34 283d
000001c0: 520f 503d f94e 703d 9896 08be fb89 1dbe
000001d0: a069 04be 85c1 9dbd b8d6 0a3e 3ed5 513c
000001e0: ce76 ea3d ba0d 3bbd 53e2 07be 825a 31be
000001f0: 5513 0abe 95c7 02be ec57 11be 0440 b9bc
00000200: 007c c1bd 349a bebd 043d 31bd c6b7 e6bd
00000210: 710a b43c e53d b7bd 28ca 173d d688 a2bd
00000220: 448b a83d 7471 b63c c2cd d4bd a246 f3bd
00000230: 7524 f9bd cf56 1bbd e6b6 a03d 7f13 ad3d
00000240: 1193 e43d 4982 e73d febf 5a3d 7168 333d
00000250: 36b1 1fbe 4ee3 c03d bedc 0c3e e61b e23d
00000260: 8c6d 8ebd 01d1 2fbe d02d 3dbe 9ff2 dd3a
00000270: 4b2c 2cbe a189 05be c150 ebbd d62b 74bc
00000280: 3d0b 2c3e 1b72 b3bd 1f2c 01be b51f 833d
00000290: 4fcd 52bd 6905 3cbe 73e8 a73d 206f ce3d
000002a0: cea7 b13c 69e7 15be 1be6 e83d 1173 e3bd
000002b0: 69fd 04be 14f3 17be a222 11be e3d7 933d
000002c0: 0fd5 cebd c400 eb3d 41d0 8cbd 059a 513d
000002d0: 7ebd 93bc 105d a13d af06 d739 36b8 47be
000002e0: 17d2 febd ee4a 81bd 70db 973d 0c50 d0bd
000002f0: 3bfe 0d3e d07a 17be 7761 deba 6eda 0f3c
00000300: 89a2 04be 2c3d fc3d 8255 353d a985 ec3d
00000310: 8330 85bb 0195 bdbc bbc8 3bbd b347 cfbd
00000320: 4510 97bd 392a 72bd 53d0 c5b9 99cd 40bd
00000330: 54e4 d83c 12d0 c4bc e7d9 a73d e65d 23bc
00000340: 9bea 0a3e b838 fcbd 25d1 eebd 4ba2 eabd
00000350: 50c6 33bd 984c 79bd f335 8b3d 34d6 09be
00000360: caf9 2abd 82d2 dd3b 155e a5bc 3329 c4bd
00000370: 9ec9 cfbd b458 223e f410 00be beac 193d
00000380: e0d8 d43d dc0d 25be 5970 703d dfbd c03d
00000390: 1fa6 66bd a52b 05be 3e8c 09bd 32b2 99bd
000003a0: e397 e83d d83f 793c f58d f0bc d442 c63d
000003b0: be89 0fbe 4c5c b2ba 244d 903d 8b76 91bc
000003c0: 6ea5 8c3d 5d26 de3d fea5 1dbd a2e0 13bd
000003d0: 6f79 f23d 3320 003e 2c0d 813d ba59 22bd
000003e0: db5e 713c b4dc 05bd 3e96 43be 5d47 1cbe
000003f0: e2bd 203e 3a62 c5bd 465e 133e d753 a0bd

bias f4 [50]
-0.10349771 -0.06242352 0.019897474 0.120611176 0.09531874 -0.058916494 0.059996646 -0.066648364
-0.1007832 0.016380277 -0.050260864 -0.13076852 -0.010393824 -0.16670333 0.13332793 -0.07686143
0.12236643 -0.04639029 -0.11843586 -0.0885254 -0.027966637 -0.16135755 -0.084836364 -0.09398889
-0.010856433 0.04520905 0.1502914 -0.054283846 -0.12534684 0.10790516 -0.16251126 0.02686906
-0.05059401 0.08488815 -0.031666122 -0.13661653 0.019323198 -0.06404844 -0.034105208 -0.010306141
-0.113387786 0.021343306 0.12642045 0.072720535 -0.16942354 0.0093841385 0.15521188 -0.16198125
-0.043439664 -0.0049290303
00000000: 9bf6 d3bd ceaf 7fbd 0700 a33c fe02 f73d
00000010: 7936 c33d 6c52 71bd 0bbf 753d f07e 88bd
00000020: 6c67 cebd ee2f 863c 56de 4dbd 2fe8 05be
00000030: dc4a 2abc 47b4 2abe 1e87 083e 8769 9dbd
00000040: 409b fa3d bf03 3ebd 808e f2bd ce4c b5bd
00000050: 4a1a e5bc ea3a 25be b0be adbd 3f7d c0bd
00000060: 2edf 31bc 202d 393d fde5 193e bd58 5ebd
00000070: ec5a 00be 61fd dc3d 5a69 26be 811c dc3c
00000080: aa3b 4fbd d7d9 ad3d 56b4 01bd 34e5 0bbe
00000090: af4b 9e3c d42b 83bd e7b1 0bbd 17db 28bc
000000a0: db37 e8bd 28d8 ae3c 5d74 013e 81ee 943d
000000b0: 5d7d 2dbe eebf 193c ddef 1e3e 6ade 25be
000000c0: caed 31bd b483 a1bb

mask f4 [50, 50]
1.0 1.0 1.0 1.0 1.0 1.0 1.0 1.0
1.0 1.0 1.0 1.0 1.0 1.0 1.0 1.0
1.0 1.0 1.0 1.0 1.0 1.0 1.0 1.0
1.0 1.0 1.0 1.0 1.0 1.0 1.0 1.0
1.0 1.0 1.0 1.0 1.0 1.0 1.0 1.0
1.0 1.0 1.0 1.0 1.0 1.0 1.0 1.0
1.0 1.0 1.0 1.0 1.0 1.0 1.0 1.0
1.0 1.0 1.0 1.0 1.0 1.0 1.0 1.0
1.0 1.0 1.0 1.0 1.0 1.0 1.0 1.0
1.0 1.0 1.0 1.0 1.0 1.0 1.0 1.0
1.0 1.0 1.0 1.0 1.0 1.0 1.0 1.0
1.0 1.0 1.0 1.0 1.0 1.0 1.0 1.0
1.0 1.0 1.0 1.0 1.0 1.0 1.0 1.0
1.0 1.0 1.0 1.0 1.0 1.0 1.0 1.0
1.0 1.0 1.0 1.0 1.0 1.0 1.0 1.0
1.0 1.0 1.0 1.0 1.0 1.0 1.0 1.0
1.0 1.0 1.0 1.0 1.0 1.0 1.0 1.0
1.0 1.0 1.0 1.0 1.0 1.0 1.0 1.0
1.0 1.0 1.0 1.0 1.0 1.0 1.0 1.0
1.0 1.0 1.0 1.0 1.0 1.0 1.0 1.0
1.0 1.0 1.0 1.0 1.0 1.0 1.0 1.0
1.0 1.0 1.0 1.0 1.0 1.0 1.0 1.0
1.0 1.0 1.0 1.0 1.0 1.0 1.0 1.0
1.0 1.0 1.0 1.0 1.0 1.0 1.0 1.0
1.0 1.0 1.0 1.0 1.0 1.0 1.0 1.0
1.0 1.0 1.0 1.0 1.0 1.0 1.0 1.0
1.0 1.0 1.0 1.0 1.0 1.0 1.0 1.0
1.0 1.0 1.0 1.0 1.0 1.0 1.0 1.0
1.0 1.0 1.0 1.0 1.0 1.0 1.0 1.0
1.0 1.0 1.0 1.0 1.0 1.0 1.0 1.0
1.0 1.0 1.0 1.0 1.0 1.0 1.0 1.0
1.0 1.0 1.0 1.0 1.0 1.0 1.0 1.0
00000000: 0000 803f 0000 803f 0000 803f 0000 803f
00000010: 0000 803f 0000 803f 0000 803f 0000 803f
00000020: 0000 803f 0000 803f 0000 803f 0000 803f
00000030: 0000 803f 0000 803f 0000 803f 0000 803f
00000040: 0000 803f 0000 803f 0000 803f 0000 803f
00000050: 0000 803f 0000 803f 0000 803f 0000 803f
00000060: 0000 803f 0000 803f 0000 803f 0000 803f
00000070: 0000 803f 0000 803f 0000 803f 0000 803f
00000080: 0000 803f 0000 803f 0000 803f 0000 803f
00000090: 0000 803f 0000 803f 0000 803f 0000 803f
000000a0: 0000 803f 0000 803f 0000 803f 0000 803f
000000b0: 0000 803f 0000 803f 0000 803f 0000 803f
000000c0: 0000 803f 0000 803f 0000 803f 0000 803f
000000d0: 0000 803f 0000 803f 0000 803f 0000 803f
000000e0: 0000 803f 0000 803f 0000 803f 0000 803f
000000f0: 0000 803f 0000 803f 0000 803f 0000 803f
00000100: 0000 803f 0000 803f 0000 803f 0000 803f
00000110: 0000 803f 0000 803f 0000 803f 0000 803f
00000120: 0000 803f 0000 803f 0000 803f 0000 803f
00000130: 0000 803f 0000 803f 0000 803f 0000 803f
00000140: 0000 803f 0000 803f 0000 803f 0000 803f
00000150: 0000 803f 0000 803f 0000 803f 0000 803f
00000160: 0000 803f 0000 803f 0000 803f 0000 803f
00000170: 0000 803f 0000 803f 0000 803f 0000 803f
00000180: 0000 803f 0000 803f 0000 803f 0000 803f
00000190: 0000 803f 0000 803f 0000 803f 0000 803f
000001a0: 0000 803f 0000 803f 0000 803f 0000 803f
000001b0: 0000 803f 0000 803f 0000 803f 0000 803f
000001c0: 0000 803f 0000 803f 0000 803f 0000 803f
000001d0: 0000 803f 0000 803f 0000 803f 0000 803f
000001e0: 0000 803f 0000 803f 0000 803f 0000 803f
000001f0: 0000 803f 0000 803f 0000 803f 0000 803f
00000200: 0000 803f 0000 803f 0000 803f 0000 803f
00000210: 0000 803f 0000 803f 0000 803f 0000 803f
00000220: 0000 803f 0000 803f 0000 803f 0000 803f
00000230: 0000 803f 0000 803f 0000 803f 0000 803f
00000240: 0000 803f 0000 803f 0000 803f 0000 803f
00000250: 0000 803f 0000 803f 0000 803f 0000 803f
00000260: 0000 803f 0000 803f 0000 803f 0000 803f
00000270: 0000 803f 0000 803f 0000 803f 0000 803f
00000280: 0000 803f 0000 803f 0000 803f 0000 803f
00000290: 0000 803f 0000 803f 0000 803f 0000 803f
000002a0: 0000 803f 0000 803f 0000 803f 0000 803f
000002b0: 0000 803f 0000 803f 0000 803f 0000 803f
000002c0: 0000 803f 0000 803f 0000 803f 0000 803f
000002d0: 0000 803f 0000 803f 0000 803f 0000 803f
000002e0: 0000 803f 0000 803f 0000 803f 0000 803f
000002f0: 0000 803f 0000 803f 0000 803f 0000 803f
00000300: 0000 803f 0000 803f 0000 803f 0000 803f
00000310: 0000 803f 0000 803f 0000 803f 0000 803f
00000320: 0000 803f 0000 803f 0000 803f 0000 803f
00000330: 0000 803f 0000 803f 0000 803f 0000 803f
00000340: 0000 803f 0000 803f 0000 803f 0000 803f
00000350: 0000 803f 0000 803f 0000 803f 0000 803f
00000360: 0000 803f 0000 803f 0000 803f 0000 803f
00000370: 0000 803f 0000 803f 0000 803f 0000 803f
00000380: 0000 803f 0000 803f 0000 803f 0000 803f
00000390: 0000 803f 0000 803f 0000 803f 0000 803f
000003a0: 0000 803f 0000 803f 0000 803f 0000 803f
000003b0: 0000 803f 0000 803f 0000 803f 0000 803f
000003c0: 0000 803f 0000 803f 0000 803f 0000 803f
000003d0: 0000 803f 0000 803f 0000 803f 0000 803f
000003e0: 0000 803f 0000 803f 0000 803f 0000 803f
000003f0: 0000 803f 0000 803f 0000 803f 0000 803f

weight f4 [50, 50]
-0.06250165 -0.04481072 0.10746359 -0.04117897 -0.013658182 -0.017954582 0.0017718027 0.11417076
-0.06470154 0.09329076 -0.084122255 0.026335979 0.0038389943 -0.101377316 -0.07966082 0.037491847
-0.0835753 0.1516133 0.079287946 0.046775375 0.054123748 0.15094928 -0.06261862 0.13877976
-0.041237414 0.1136234 0.06395332 0.135433 -0.07044528 -0.13313107 -0.01345663 -0.04923913
-0.099510394 -0.1041621 0.00848209 -0.06601459 0.12470492 -0.038680512 -0.06894975 0.030492092
-0.047032602 0.05805439 -0.02990618 0.016903952 -0.10023577 -0.10034092 0.052449994 -0.06269635
-0.017042702 0.10479107 0.053838547 0.084268115 0.103652224 -0.082113564 0.10843768 0.040220033
0.16273692 0.13076656 -0.08258411 0.13867526 -0.069145896 -0.032972086 -0.06548746 -0.034620944
-0.08801757 -0.032842506 -0.05445267 0.012733368 0.048780873 0.0646329 0.1341866 -0.0012492051
0.1419177 0.095147155 0.097132094 -0.07610533 0.0850041 -0.09330538 0.0743406 -0.019829556
0.12896222 0.06275837 0.0943904 -0.0061084745 -0.06566007 0.016079748 -0.11095022 0.090827
0.04318853 -0.057858452 0.117351614 0.00025146222 -0.08375713 -0.017353522 0.10626134 -0.01767012
-0.012562028 0.01732285 0.011864921 0.10037239 -0.000747414 0.10575945 0.074672945 -0.022559034
-0.035542276 -0.021194668 -0.13588932 -0.16529967 0.035137128 -0.015924139 -0.024062319 0.026063476
-0.049042635 -0.019521084 -0.055334825 0.01626378 0.033323754 0.12585889 0.017378125 0.12138209
-0.034816824 -0.059084266 -0.17193206 -0.03225723 0.016949527 0.063195415 -0.005763286 -0.21483606
0.0030864275 -0.054774236 0.10389765 0.13790062 -0.06796659 -0.11677935 -0.041051548 0.12316432
-0.09694648 -0.019785838 0.01700358 -0.04995954 0.10379195 0.104191676 -0.058844358 -0.106327884
-0.015171733 0.048692368 -0.11919222 0.099691935 -0.12379974 -0.04736488 0.15723571 0.012734371
-0.106960304 -0.10117337 0.055308063 0.03582112 0.02768672 -0.082191505 -0.0004357404 0.051749904
-0.109142214 0.007597748 0.026226273 0.0930905 0.034022573 0.078981474 -0.023500051 -0.119718306
0.028273834 0.09725507 0.13628916 -0.020680841 0.009536497 -0.11340248 0.11779013 0.08601041
-0.06117099 0.049254633 -0.033040363 -0.102288306 -0.12613238 -0.18232432 -0.08513586 -0.090360455
-0.05618732 0.0753067 -0.030816676 -0.08257281 -0.09031694 -0.089019164 -0.047600113 -0.10924411
-0.08753444 -0.10172398 0.0029436327 -0.03558833 0.107611716 -0.073776826 0.1547288 -0.12449084
-0.07391544 0.044499844 -0.018954234 -0.007886238 0.07477121 0.011095418 -0.041379947 0.10908102
0.08225021 -0.13376524 0.046250705 -0.039394878 0.07449622 0.012674652 0.055594616 0.07028821
-0.13046429 0.13665813 0.116819255 -0.014602471 -0.00035602244 0.09208125 0.023763064 0.025195854
-0.0015135402 -0.07793085 -0.13975875 0.016014198 0.013264353 -0.13927016 -0.11422027 -0.21109006
0.025536243 0.1307118 -0.0014495704 -0.012630227 0.07203714 0.19765154 -0.077305116 -0.037478592
0.011926999 -0.036447126 -0.020808779 -0.03640269 0.13347222 -0.0048570624 0.090262294 0.044836883
-0.016020253 -0.048398077 -0.15677215 -0.044797014 -0.10514857 0.12901089 -0.035702445 -0.047764983
00000000: dd00 80bd 728b 37bd df15 dc3d 48ab 28bd
00000010: 91c6 5fbc 7d15 93bc d53b e83a 5cd2 e93d
00000020: 3e82 84bd 3a0f bf3d 4a48 acbd 8dbe d73c
00000030: a397 7b3b e99e cfbd 3625 a3bd 0d91 193d
00000040: 8729 abbd 8440 1b3e b861 a23d 8997 3f3d
00000050: ddb0 5d3d 7392 1a3e 313e 80bd 481c 0e3e
00000060: 90e8 28bd 63b3 e83d f5f9 823d f3ae 0a3e
00000070: 9d45 90bd 8353 08be 3279 5cbc f8ae 49bd
00000080: 1bcc cbbd f052 d5bd 77f8 0a3c a832 87bd
00000090: 4b65 ff3d 756f 1ebd 8735 8dbd 8dca f93c
000000a0: 42a5 40bd 71ca 6d3d cefd f4bc 287a 8a3c
000000b0: 6948 cdbd 8a7f cdbd ced5 563d f266 80bd
000000c0: 239d 8bbc b39c d63d cf85 5c3d c394 ac3d
000000d0: 9e47 d43d 282b a8bd 9314 de3d c3bd 243d
000000e0: 82a4 263e abe7 053e dc21 a9bd e300 0e3e
000000f0: 5d9c 8dbd bd0d 07bd 4a1e 86bd b1ce 0dbd
00000100: 8e42 b4bd dd85 06bd c309 5fbd 9e9f 503c
00000110: 74ce 473d 415e 843d 3668 093e 5ebc a3ba
00000120: e052 113e 83dc c23d 31ed c63d 1cdd 9bbd
00000130: a116 ae3d e416 bfbd e23f 983d 9871 a2bc
00000140: ac0e 043e 7687 803d c14f c13d 9929 c8bb
00000150: c978 86bd adb9 833c de39 e3bd 8203 ba3d
00000160: 75e6 303d fcfc 6cbd 0b56 f03d b0d6 8339
00000170: dc88 abbd f928 8ebc 8c9f d93d edc0 90bc
00000180: f7d0 4dbc a6e8 8d3c 1665 423c 0a90 cd3d
00000190: 1bee 43ba 6998 d83d 21ee 983d b9cd b8bc
000001a0: c794 11bd 71a0 adbc 9226 0bbe 5144 29be
000001b0: f3eb 0f3d 5773 82bc 571e c5bc 1283 d53c
000001c0: eee0 48bd aeea 9fbc c5a6 62bd 9e3b 853c
000001d0: 7d7e 083d 27e1 003e 925c 8e3c 2c97 f83d
000001e0: 169c 0ebd 5802 72bd f50e 30be 2820 04bd
000001f0: bcd9 8a3c 996c 813d f2d9 bcbb fcfd 5bbe
00000200: a945 4a3b f35a 60bd 4bc8 d43d d235 0d3e
00000210: 1132 8bbd 032a efbd ab25 28bd 933d fc3d
00000220: e08b c6bd e915 a2bc 184b 8b3c 60a2 4cbd
00000230: e090 d43d 7262 d53d c806 71bd 6fc2 d9bd
00000240: dc92 78bc a671 473d 0d1b f4bd 492b cc3d
00000250: b88a fdbd ad01 42bd 6602 213e d3a3 503c
00000260: 010e dbbd fc33 cfbd b58a 623d 2bb9 123d
00000270: 43cf e23c 0554 a8bd 1674 e4b9 b5f7 533d
00000280: f485 dfbd 88f6 f83b 7bd8 d63c 3ba6 be3d
00000290: 415b 0b3d 0ac1 a13d 2e83 c0bc df2e f5bd
000002a0: 879e e73c ab2d c73d 638f 0b3e de6a a9bc
000002b0: f83e 1c3c 8f3f e8bd f43b f13d 3a26 b03d
000002c0: 6f8e 7abd 3abf 493d 5555 07bd 887c d1bd
000002d0: d928 01be 3ab3 3abe b65b aebd e70e b9bd
000002e0: ad24 66bd 663a 9a3d 4173 fcbc ef1b a9bd
000002f0: 16f8 b8bd ae4f b6bd 56f8 42bd 60bb dfbd
00000300: 4245 b3bd a954 d0bd f6e9 403b 12c5 11bd
00000310: 8863 dc3d 4e18 97bd 3a71 1e3e 0ef5 febd
00000320: fa60 97bd 7845 363d e945 9bbc 4835 01bc
00000330: a621 993d 8ec9 353c 057e 29bd df65 df3d
00000340: cc72 a83d c1f9 08be 6171 3d3d 865c 21bd
00000350: 7991 983d 58a9 4f3c 2eb7 633d 44f3 8f3d
00000360: 6e98 05be 1cf0 0b3e ef3e ef3d 343f 6fbc
00000370: 86a8 bab9 1895 bc3d c2aa c23c 8967 ce3c
00000380: fb61 c6ba 369a 9fbd eb1c 0fbe 3530 833c
00000390: bb52 593c d69c 0ebe 51ec e9bd fe27 58be
000003a0: 6231 d13c 50d9 053e 83ff bdba 03ef 4ebc
000003b0: 3588 933d 2a65 4a3e 2552 9ebd 2783 19bd
000003c0: 7669 433c 9549 15bd 2c77 aabc fd1a 15bd
000003d0: f1ac 083e fe27 9fbb 70db b83d e1a6 373d
000003e0: e83c 83bc 103d 46bd e188 20be 137d 37bd
000003f0: 2258 d7bd 6e1b 043e ba3c 12bd 37a5 43bd

bias f4 [50]
0.08312808 -0.09672292 0.018433547 0.04414453 -0.005467038 0.055737175 0.008202738 -0.09203995
-0.022534462 -0.10629828 0.05534872 0.11411002 0.0546254 -0.16616136 0.11735436 -0.023893457
0.09944851 -0.07315468 0.03426799 0.08502858 0.1816584 -0.12056404 -0.040353153 0.05689465
-0.06327326 0.06920458 -0.17182066 0.0017765142 -0.10057806 -0.026516398 -0.10364369 0.07502714
-0.07744025 0.03699914 0.033481922 -0.1987522 -0.15100946 0.062936954 -0.06314657 0.050596517
-0.010313563 -0.11915349 0.10085557 0.08754626 -0.0759954 -0.12666577 0.010826161 -0.17004845
-0.14201131 0.18287197
00000000: 0e3f aa3d ab16 c6bd f301 973c e5d0 343d
00000010: d724 b3bb aa4c 643d c764 063c 717f bcbd
00000020: 319a b8bc eab2 d9bd 57b5 623d 84b2 e93d
00000030: e2be 5f3d 3426 2abe 7c57 f03d 36bc c3bc
00000040: a9ab cb3d 1fd2 95bd 985c 0c3d 7723 ae3d
00000050: a904 3a3e 48ea f6bd 5949 25bd 5d0a 693d
00000060: 6995 81bd 21bb 8d3d c1f1 2fbe edd9 e83a
00000070: dffb cdbd eb38 d9bc 2543 d4bd d4a7 993d
00000080: fe98 9ebd 698c 173d 5724 093d b285 4bbe
00000090: 39a2 1abe 17e5 803d fd52 81bd 4b3e 4f3d
000000a0: 38fa 28bc bf06 f4bd 5d8d ce3d 744b b33d
000000b0: 7aa3 9bbd acb4 01be 3660 313c 2e21 2ebe
000000c0: 6a6b 11be ca42 3b3e

mask f4 [50, 50]
1.0 1.0 1.0 1.0 1.0 1.0 1.0 1.0
1.0 1.0 1.0 1.0 1.0 1.0 1.0 1.0
1.0 1.0 1.0 1.0 1.0 1.0 1.0 1.0
1.0 1.0 1.0 1.0 1.0 1.0 1.0 1.0
1.0 1.0 1.0 1.0 1.0 1.0 1.0 1.0
1.0 1.0 1.0 1.0 1.0 1.0 1.0 1.0
1.0 1.0 1.0 1.0 1.0 1.0 1.0 1.0
1.0 1.0 1.0 1.0 1.0 1.0 1.0 1.0
1.0 1.0 1.0 1.0 1.0 1.0 1.0 1.0
1.0 1.0 1.0 1.0 1.0 1.0 1.0 1.0
1.0 1.0 1.0 1.0 1.0 1.0 1.0 1.0
1.0 1.0 1.0 1.0 1.0 1.0 1.0 1.0
1.0 1.0 1.0 1.0 1.0 1.0 1.0 1.0
1.0 1.0 1.0 1.0 1.0 1.0 1.0 1.0
1.0 1.0 1.0 1.0 1.0 1.0 1.0 1.0
1.0 1.0 1.0 1.0 1.0 1.0 1.0 1.0
1.0 1.0 1.0 1.0 1.0 1.0 1.0 1.0
1.0 1.0 1.0 1.0 1.0 1.0 1.0 1.0
1.0 1.0 1.0 1.0 1.0 1.0 1.0 1.0
1.0 1.0 1.0 1.0 1.0 1.0 1.0 1.0
1.0 1.0 1.0 1.0 1.0 1.0 1.0 1.0
1.0 1.0 1.0 1.0 1.0 1.0 1.0 1.0
1.0 1.0 1.0 1.0 1.0 1.0 1.0 1.0
1.0 1.0 1.0 1.0 1.0 1.0 1.0 1.0
1.0 1.0 1.0 1.0 1.0 1.0 1.0 1.0
1.0 1.0 1.0 1.0 1.0 1.0 1.0 1.0
1.0 1.0 1.0 1.0 1.0 1.0 1.0 1.0
1.0 1.0 1.0 1.0 1.0 1.0 1.0 1.0
1.0 1.0 1.0 1.0 1.0 1.0 1.0 1.0
1.0 1.0 1.0 1.0 1.0 1.0 1.0 1.0
1.0 1.0 1.0 1.0 1.0 1.0 1.0 1.0
1.0 1.0 1.0 1.0 1.0 1.0 1.0 1.0
00000000: 0000 803f 0000 803f 0000 803f 0000 803f
00000010: 0000 803f 0000 803f 0000 803f 0000 803f
00000020: 0000 803f 0000 803f 0000 803f 0000 803f
00000030: 0000 803f 0000 803f 0000 803f 0000 803f
00000040: 0000 803f 0000 803f 0000 803f 0000 803f
00000050: 0000 803f 0000 803f 0000 803f 0000 803f
00000060: 0000 803f 0000 803f 0000 803f 0000 803f
00000070: 0000 803f 0000 803f 0000 803f 0000 803f
00000080: 0000 803f 0000 803f 0000 803f 0000 803f
00000090: 0000 803f 0000 803f 0000 803f 0000 803f
000000a0: 0000 803f 0000 803f 0000 803f 0000 803f
000000b0: 0000 803f 0000 803f 0000 803f 0000 803f
000000c0: 0000 803f 0000 803f 0000 803f 0000 803f
000000d0: 0000 803f 0000 803f 0000 803f 0000 803f
000000e0: 0000 803f 0000 803f 0000 803f 0000 803f
000000f0: 0000 803f 0000 803f 0000 803f 0000 803f
00000100: 0000 803f 0000 803f 0000 803f 0000 803f
00000110: 0000 803f 0000 803f 0000 803f 0000 803f
00000120: 0000 803f 0000 803f 0000 803f 0000 803f
00000130: 0000 803f 0000 803f 0000 803f 0000 803f
00000140: 0000 803f 0000 803f 0000 803f 0000 803f
00000150: 0000 803f 0000 803f 0000 803f 0000 803f
00000160: 0000 803f 0000 803f 0000 803f 0000 803f
00000170: 0000 803f 0000 803f 0000 803f 0000 803f
00000180: 0000 803f 0000 803f 0000 803f 0000 803f
00000190: 0000 803f 0000 803f 0000 803f 0000 803f
000001a0: 0000 803f 0000 803f 0000 803f 0000 803f
000001b0: 0000 803f 0000 803f 0000 803f 0000 803f
000001c0: 0000 803f 0000 803f 0000 803f 0000 803f
000001d0: 0000 803f 0000 803f 0000 803f 0000 803f
000001e0: 0000 803f 0000 803f 0000 803f 0000 803f
000001f0: 0000 803f 0000 803f 0000 803f 0000 803f
00000200: 0000 803f 0000 803f 0000 803f 0000 803f
00000210: 0000 803f 0000 803f 0000 803f 0000 803f
00000220: 0000 803f 0000 803f 0000 803f 0000 803f
00000230: 0000 803f 0000 803f 0000 803f 0000 803f
00000240: 0000 803f 0000 803f 0000 803f 0000 803f
00000250: 0000 803f 0000 803f 0000 803f 0000 803f
00000260: 0000 803f 0000 803f 0000 803f 0000 803f
00000270: 0000 803f 0000 803f 0000 803f 0000 803f
00000280: 0000 803f 0000 803f 0000 803f 0000 803f
00000290: 0000 803f 0000 803f 0000 803f 0000 803f
000002a0: 0000 803f 0000 803f 0000 803f 0000 803f
000002b0: 0000 803f 0000 803f 0000 803f 0000 803f
000002c0: 0000 803f 0000 803f 0000 803f 0000 803f
000002d0: 0000 803f 0000 803f 0000 803f 0000 803f
000002e0: 0000 803f 0000 803f 0000 803f 0000 803f
000002f0: 0000 803f 0000 803f 0000 803f 0000 803f
00000300: 0000 803f 0000 803f 0000 803f 0000 803f
00000310: 0000 803f 0000 803f 0000 803f 0000 803f
00000320: 0000 803f 0000 803f 0000 803f 0000 803f
00000330: 0000 803f 0000 803f 0000 803f 0000 803f
00000340: 0000 803f 0000 803f 0000 803f 0000 803f
00000350: 0000 803f 0000 803f 0000 803f 0000 803f
00000360: 0000 803f 0000 803f 0000 803f 0000 803f
00000370: 0000 803f 0000 803f 0000 803f 0000 803f
00000380: 0000 803f 0000 803f 0000 803f 0000 803f
00000390: 0000 803f 0000 803f 0000 803f 0000 803f
000003a0: 0000 803f 0000 803f 0000 803f 0000 803f
000003b0: 0000 803f 0000 803f 0000 803f 0000 803f
000003c0: 0000 803f 0000 803f 0000 803f 0000 803f
000003d0: 0000 803f 0000 803f 0000 803f 0000 803f
000003e0: 0000 803f 0000 803f 0000 803f 0000 803f
000003f0: 0000 803f 0000 803f 0000 803f 0000 803f

weight f4 [4, 50]
-0.0941535 0.0537989 -0.10972427 -0.098108985 -0.012474537 0.067201465 -0.09675439 0.110311285
-0.12436959 -0.095229 0.13833539 -0.12988156 0.10700317 -0.026055418 0.0911898 0.12547578
0.13212804 -0.08646966 0.13536726 0.027790397 0.015740514 0.068412915 0.0108971 -0.13076799
0.1293632 -0.04649573 -0.004454285 0.07099381 -0.07455431 -0.009042442 0.07641806 -0.025470957
-0.018037267 0.05180219 -0.07415929 0.043140084 0.10688679 0.085271835 -0.006050721 0.028355673
-0.105895124 -0.09504776 -0.02571632 0.0008724928 -0.058224663 -0.011225 0.12525637 -0.005544767
-0.10333575 0.11555715 0.0034879148 -0.09532284 0.006757319 0.12838738 -0.14134885 -0.12743346
0.056212783 -0.07188931 0.13877253 0.06428763 0.042909652 0.042543486 0.04938975 0.13593756
-0.055783547 0.10732694 0.12140347 0.122926906 -0.041297726 0.05891198 0.0014885813 -0.060686357
0.11895056 -0.10369041 -0.029259712 -0.06883145 0.0867742 -0.03903237 0.04198648 -0.10557282
-0.10068169 -0.10952255 0.06945014 -0.10521304 -0.10396123 -0.0049213916 0.12494396 -0.046373755
-0.14082086 0.041409284 0.02794452 -0.0057761967 -0.017238565 0.13663138 0.1279159 0.14035572
-0.0686952 0.07827419 -0.026097529 -0.061394505 -2.795851e-05 -0.14078707 0.008635063 -0.019359866
-0.05960745 0.059606276 -0.028088765 -0.108746655 0.10975045 -0.0032972866 0.12094007 -0.09481876
-0.03556316 -0.056802038 0.05175885 -0.05715543 0.075263835 0.07202111 0.09084033 0.1346923
0.1091755 -0.049839668 0.0055603236 -0.14680609 -0.13431811 0.01687006 -0.21268094 -0.13347197
-0.13005 -0.06443906 -0.06465175 -0.07706709 -0.203102 -0.17687796 0.11193399 -0.1635603
-0.11894215 0.202218 0.10427659 -0.1683241 -0.1382641 -0.09749865 -0.053913362 0.040794834
0.105308704 -0.17656055 -0.0836191 -0.13796248 -0.10568188 0.15779823 -0.0012786598 -0.020189084
-0.1062386 0.045132913 0.07466389 -0.053726494 -0.08233541 -0.115243815 -0.06545995 0.027536895
0.07387478 -0.07203282 -0.18163933 0.0459322 0.11301231 -0.060525965 0.05071988 0.13744466
0.13232581 0.020375386 -0.06838936 0.06625687 -0.09051632 -0.16849846 -0.06497722 0.137468
0.044009786 -0.017797276 -0.0974263 -0.17263412 -0.1268509 0.015454156 -0.02712066 -0.106943585
0.011793375 0.04968641 -0.03418559 -0.10537854 0.0005744537 -0.011739781 -0.002458746 -0.025567181
-0.11239656 0.15221053 -0.043926302 -0.11611337 -0.097016886 0.053220235 0.017804531 0.03861066
00000000: 8dd3 c0bd 3c5c 5c3d 1eb7 e0bd 5ded c8bd
00000010: 0062 4cbc eca0 893d 2a27 c6bd e2ea e13d
00000020: 7cb5 febd 6c07 c3bd cba7 0d3e acff 04be
00000030: 7a24 db3d 2c72 d5bc b8c1 ba3d b97c 003e
00000040: 934c 073e 0117 b1bd b79d 0a3e b0a8 e33c
00000050: 40f2 803c 121c 8c3d c089 323c 0be8 05be
00000060: c977 043e 4e72 3ebd 40f5 91bb 3465 913d
00000070: eeaf 98bd c026 14bc 1281 9c3d 78a8 d0bc
00000080: e4c2 93bc 882e 543d d3e0 97bd a8b3 303d
00000090: 76e7 da3d 00a3 ae3d 2045 c6bb 284a e83c
000000a0: 8bdf d8bd 66a8 c2bd 08ab d2bc 00b8 643a
000000b0: fc7c 6ebd 10e9 37bc 3543 003e e0b0 b5bb
000000c0: b2a1 d3bd 3aa9 ec3d 8095 643b 9f38 c3bd
000000d0: 806c dd3b fb77 033e c1bd 10be eb7d 02be
000000e0: 603f 663d b43a 93bd 631a 0e3e 3ca9 833d
000000f0: 08c2 2f3d 1442 2e3d e84c 4a3d 3733 0b3e
00000100: 4a7d 64bd 3ace db3d 62a2 f83d 1ac1 fb3d
00000110: ce27 29bd b04d 713d 801c c33a 4292 78bd
00000120: 5a9c f33d a35b d4bd 10b2 efbc 81f7 8cbd
00000130: acb6 b13d 68e0 1fbd 04fa 2b3d 9036 d8bd
00000140: 3432 cebd 5c4d e0bd e03b 8e3d ef79 d7bd
00000150: a0e9 d4bd a043 a1bb 9ee2 ff3d 68f2 3dbd
00000160: 5833 10be c89c 293d e8eb e43c 4046 bdbb
00000170: e437 8dbc 19e9 0b3e 63fc 023e 69b9 0f3e
00000180: 12b0 8cbd 384e a03d 7cca d5bc ce78 7bbd
00000190: 7188 eab7 7c2a 10be 147a 0d3c 9598 9ebc
000001a0: f126 74bd b625 743d 691a e6bc 91b6 debd
000001b0: d8c4 e03d 4a17 58bb 6daf f73d 5730 c2bd
000001c0: adaa 11bd 41a9 68bd 1701 543d d01b 6abd
000001d0: ed23 9a3d ce7f 933d 7f0a ba3d c7ec 093e
000001e0: 6897 df3d ae24 4cbd 6033 b63b 5654 16be
000001f0: b08a 09be 1433 8a3c 08c9 59be e0ac 08be
00000200: d42b 05be a0f8 83bd 2368 84bd 5ad5 9dbd
00000210: f8f9 4fbe 7f1f 35be a63d e53d 5a7c 27be
00000220: f197 f3bd 3c12 4f3e f78e d53d 275d 2cbe
00000230: 1b95 0dbe 5fad c7bd 42d4 5cbd 7c18 273d
00000240: 17ac d73d 4acc 34be 7e40 abbd 0946 0dbe
00000250: be6f d8bd dc95 213e b498 a7ba 9463 a5bc
00000260: a093 d9bd 4add 383d 62e9 983d 5010 5cbd
00000270: 789f a8bd f304 ecbd de0f 86bd 0e95 e13c
00000280: a94b 973d f185 93bd a9ff 39be 6723 3c3d
00000290: ff72 e73d 13ea 77bd a6bf 4f3d 4bbe 0c3e
000002a0: 6b80 073e 48ea a63c b90f 8cbd afb1 873d
000002b0: 9f60 b9bd dc8a 2cbe c712 85bd 69c4 0c3e
000002c0: 9b43 343d 98cb 91bc 7187 c7bd 00c7 30be
000002d0: 34e5 01be 6e33 7d3c 252c debc 3d05 dbbd
000002e0: 0039 413c fa83 4b3d 3006 0cbd b4d0 d7bd
000002f0: ef96 163a 3658 40bc ea22 21bb 4472 d1bc
00000300: 2b30 e6bd 14dd 1b3e 11ec 33bd d9cc edbd
00000310: cab0 c6bd 76fd 593d cfda 913c 3626 1e3d

bias f4 [4]
-0.01305157 -0.16029966 0.1925054 -0.115726404
00000000: 41d6 55bc 9825 24be 2320 453e f701 edbd

mask f4 [4, 50]
0.0 0.0 0.0 0.0 0.0 0.0 0.0 0.0
0.0 0.0 0.0 0.0 0.0 0.0 0.0 0.0
0.0 0.0 0.0 0.0 0.0 0.0 0.0 0.0
0.0 0.0 0.0 0.0 0.0 0.0 0.0 0.0
0.0 0.0 0.0 0.0 0.0 0.0 0.0 0.0
0.0 0.0 0.0 0.0 0.0 0.0 0.0 0.0
0.0 0.0 0.0 0.0 0.0 0.0 0.0 0.0
0.0 0.0 0.0 0.0 0.0 0.0 0.0 0.0
0.0 0.0 0.0 0.0 0.0 0.0 0.0 0.0
0.0 0.0 0.0 0.0 0.0 0.0 0.0 0.0
0.0 0.0 0.0 0.0 0.0 0.0 0.0 0.0
0.0 0.0 0.0 0.0 0.0 0.0 0.0 0.0
0.0 0.0 0.0 0.0 1.0 1.0 1.0 1.0
1.0 1.0 1.0 1.0 1.0 1.0 1.0 1.0
1.0 1.0 1.0 1.0 1.0 1.0 1.0 1.0
1.0 1.0 1.0 1.0 1.0 1.0 1.0 1.0
1.0 1.0 1.0 1.0 1.0 1.0 1.0 1.0
1.0 1.0 1.0 1.0 1.0 1.0 1.0 1.0
1.0 1.0 1.0 1.0 1.0 1.0 1.0 1.0
1.0 1.0 1.0 1.0 1.0 1.0 1.0 1.0
1.0 1.0 1.0 1.0 1.0 1.0 1.0 1.0
1.0 1.0 1.0 1.0 1.0 1.0 1.0 1.0
1.0 1.0 1.0 1.0 1.0 1.0 1.0 1.0
1.0 1.0 1.0 1.0 1.0 1.0 1.0 1.0
1.0 1.0 1.0 1.0 1.0 1.0 1.0 1.0
00000000: 0000 0000 0000 0000 0000 0000 0000 0000
00000010: 0000 0000 0000 0000 0000 0000 0000 0000
00000020: 0000 0000 0000 0000 0000 0000 0000 0000
00000030: 0000 0000 0000 0000 0000 0000 0000 0000
00000040: 0000 0000 0000 0000 0000 0000 0000 0000
00000050: 0000 0000 0000 0000 0000 0000 0000 0000
00000060: 0000 0000 0000 0000 0000 0000 0000 0000
00000070: 0000 0000 0000 0000 0000 0000 0000 0000
00000080: 0000 0000 0000 0000 0000 0000 0000 0000
00000090: 0000 0000 0000 0000 0000 0000 0000 0000
000000a0: 0000 0000 0000 0000 0000 0000 0000 0000
000000b0: 0000 0000 0000 0000 0000 0000 0000 0000
000000c0: 0000 0000 0000 0000 0000 0000 0000 0000
000000d0: 0000 0000 0000 0000 0000 0000 0000 0000
000000e0: 0000 0000 0000 0000 0000 0000 0000 0000
000000f0: 0000 0000 0000 0000 0000 0000 0000 0000
00000100: 0000 0000 0000 0000 0000 0000 0000 0000
00000110: 0000 0000 0000 0000 0000 0000 0000 0000
00000120: 0000 0000 0000 0000 0000 0000 0000 0000
00000130: 0000 0000 0000 0000 0000 0000 0000 0000
00000140: 0000 0000 0000 0000 0000 0000 0000 0000
00000150: 0000 0000 0000 0000 0000 0000 0000 0000
00000160: 0000 0000 0000 0000 0000 0000 0000 0000
00000170: 0000 0000 0000 0000 0000 0000 0000 0000
00000180: 0000 0000 0000 0000 0000 0000 0000 0000
00000190: 0000 803f 0000 803f 0000 803f 0000 803f
000001a0: 0000 803f 0000 803f 0000 803f 0000 803f
000001b0: 0000 803f 0000 803f 0000 803f 0000 803f
000001c0: 0000 803f 0000 803f 0000 803f 0000 803f
000001d0: 0000 803f 0000 803f 0000 803f 0000 803f
000001e0: 0000 803f 0000 803f 0000 803f 0000 803f
000001f0: 0000 803f 0000 803f 0000 803f 0000 803f
00000200: 0000 803f 0000 803f 0000 803f 0000 803f
00000210: 0000 803f 0000 803f 0000 803f 0000 803f
00000220: 0000 803f 0000 803f 0000 803f 0000 803f
00000230: 0000 803f 0000 803f 0000 803f 0000 803f
00000240: 0000 803f 0000 803f 0000 803f 0000 803f
00000250: 0000 803f 0000 803f 0000 803f 0000 803f
00000260: 0000 803f 0000 803f 0000 803f 0000 803f
00000270: 0000 803f 0000 803f 0000 803f 0000 803f
00000280: 0000 803f 0000 803f 0000 803f 0000 803f
00000290: 0000 803f 0000 803f 0000 803f 0000 803f
000002a0: 0000 803f 0000 803f 0000 803f 0000 803f
000002b0: 0000 803f 0000 803f 0000 803f 0000 803f
000002c0: 0000 803f 0000 803f 0000 803f 0000 803f
000002d0: 0000 803f 0000 803f 0000 803f 0000 803f
000002e0: 0000 803f 0000 803f 0000 803f 0000 803f
000002f0: 0000 803f 0000 803f 0000 803f 0000 803f
00000300: 0000 803f 0000 803f 0000 803f 0000 803f
00000310: 0000 803f 0000 803f 0000 803f 0000 803f

weight f4 [50, 2]
-0.028754495 -0.26397735 0.10092989 0.39100224 -0.2539174 0.06382853 -0.07481931 0.35193056
0.23881806 -0.14676493 -0.40199643 -0.23542133 0.056166504 0.21866941 0.3874125 0.1826309
0.21201003 0.49115533 0.06707167 0.42892843 -0.19622856 0.022952855 -0.24081461 -0.57417
-0.20065252 0.1576562 -0.049831882 -0.19479585 0.43015215 -0.06361663 -0.04302369 -0.072558045
-0.5303476 -0.31782356 0.18108952 0.34374756 0.32721663 0.35457188 -0.40334842 0.6233023
0.13954507 -0.0871312 -0.004765799 -0.18241107 -0.6200509 -0.054998517 0.28024796 0.25240707
0.6417207 -0.3843655 0.21335034 0.23261213 -0.28256273 -0.5218747 0.36611304 -0.34740198
-0.43622866 -0.61574477 0.4846192 -0.15474129 -0.12787336 -0.029244542 0.14032754 -0.37657544
-0.18570992 -0.16006279 -0.5843703 0.3839802 -0.58107865 -0.1218645 -0.38709342 0.4630404
-0.15039551 0.27152556 0.47905815 0.60759574 -0.68385434 0.5219256 -0.5512975 0.21926057
-0.035220332 -0.029687285 -0.0028572872 -0.23484105 -0.025637958 0.007037103 0.004199228 -0.53909343
-0.075318135 0.23493022 0.49152312 -0.46631062 -0.25840288 0.5024194 0.085345365 -0.32868952
-0.06631116 0.68066746 0.54526484 -0.6111124
00000000: 8c8e ebbc 0a28 87be 55b4 ce3d 7231 c83e
00000010: 7601 82be 88b8 823d de3a 99bd 3e30 b43e
00000020: b98c 743e 8c49 16be 7ad2 cdbe 4a12 71be
00000030: d90e 663d e0ea 5f3e ee5a c63e 9803 3b3e
00000040: 2819 593e b678 fb3e df5c 893d 829c db3e
00000050: 24f0 48be a007 bc3c 1b98 76be cefc 12bf
00000060: db77 4dbe a070 213e 841c 4cbd 9078 47be
00000070: e73c dc3e 7049 82bd 9c39 30bd 5099 94bd
00000080: dcc4 07bf c5b9 a2be 886f 393e aeff af3e
00000090: f088 a73e 728a b53e af83 cebe bd90 1f3f
000000a0: e7e4 0e3e d871 b2bd 6b2a 9cbb f8c9 3abe
000000b0: a8bb 1ebf 2046 61bd a97c 8f3e 803b 813e
000000c0: cf47 243f 8ecb c4be 8378 5a3e e031 6e3e
000000d0: 10ac 90be 9599 05bf 2b73 bb3e acde b1be
000000e0: 5d59 dfbe 73a1 1dbf 0220 f83e 8074 1ebe
000000f0: 3cf1 02be 4092 efbc 06b2 0f3e 7fce c0be
00000100: be2a 3ebe 80e7 23be 4b99 15bf 0e99 c43e
00000110: 92c1 14bf 1894 f9bd 1c31 c6be a213 ed3e
00000120: 4801 1abe 6605 8b3e 1c47 f53e 658b 1b3f
00000130: 1411 2fbf eb9c 053f d521 0dbf d885 603e
00000140: 3243 10bd c032 f3bc 5341 3bbb 2c7a 70be
00000150: b206 d2bc 8097 e63b ad99 893b 0702 0abf
00000160: 6540 9abd 8c91 703e eba8 fb3e 44c0 eebe
00000170: 624d 84be 8f9e 003f 8dc9 ae3d fe49 a8be
00000180: 25ce 87bd 3940 2e3f 7a96 0b3f dd71 1cbf

bias f4 [50]
0.16619615 -0.22320516 -0.19310923 -0.38890377 0.32789028 0.57747287 0.69805497 0.2434181
-0.35716835 0.32837328 0.6460029 0.47470766 0.23071274 -0.58897823 -0.6875896 -0.14682375
0.14266665 0.56233746 0.3110482 -0.7285559 -0.17005455 0.6028742 0.19927424 0.14240776
-0.66187185 0.5348477 0.75056905 0.40729293 -0.25768605 0.07085022 0.47945833 -0.10563573
-0.6889218 -0.2327533 0.21867353 -0.78763646 -0.006734396 0.5680554 -0.46549994 0.45398667
-0.7188014 0.05773799 -0.08945617 0.7758499 0.054590736 -0.38089943 0.36598697 0.23382717
-0.6884864 0.25639752
00000000: 532f 2a3e e58f 64be 6dbe 45be 651e c7be
00000010: 3ce1 a73e 43d5 133f bbb3 323f 9842 793e
00000020: c5de b6be 8b20 a83e 7260 253f e20c f33e
00000030: f63f 6c3e 47c7 16bf df05 30bf f758 16be
00000040: 3517 123e 59f5 0f3f b641 9f3e a482 3abf
00000050: c822 2ebe f755 1a3f 8c0e 4c3e 57d3 113e
00000060: 6f70 29bf c7eb 083f 4b25 403f b388 d03e
00000070: 6def 83be ec19 913d 907b f53e 8c57 d8bd
00000080: 2e5d 30bf e256 6ebe f4eb 5f3e 8ba2 49bf
00000090: 35ac dcbb 146c 113f 0256 eebe f170 e83e
000000a0: 5e03 38bf ac7e 6c3d cc34 b7bd 199e 463f
000000b0: 899a 5f3d 4005 c3be a562 bb3e 6470 6f3e
000000c0: a540 30bf 8946 833e

mask f4 [50, 2]
1.0 0.0 1.0 0.0 1.0 0.0 1.0 0.0
1.0 0.0 1.0 0.0 1.0 0.0 1.0 0.0
1.0 0.0 1.0 0.0 1.0 0.0 1.0 0.0
1.0 0.0 1.0 0.0 1.0 0.0 1.0 0.0
1.0 0.0 1.0 0.0 1.0 0.0 1.0 0.0
1.0 0.0 1.0 0.0 1.0 0.0 1.0 0.0
1.0 0.0 1.0 0.0 1.0 0.0 1.0 0.0
1.0 0.0 1.0 0.0 1.0 0.0 1.0 0.0
1.0 0.0 1.0 0.0 1.0 0.0 1.0 0.0
1.0 0.0 1.0 0.0 1.0 0.0 1.0 0.0
1.0 0.0 1.0 0.0 1.0 0.0 1.0 0.0
1.0 0.0 1.0 0.0 1.0 0.0 1.0 0.0
1.0 0.0 1.0 0.0
00000000: 0000 803f 0000 0000 0000 803f 0000 0000
00000010: 0000 803f 0000 0000 0000 803f 0000 0000
00000020: 0000 803f 0000 0000 0000 803f 0000 0000
00000030: 0000 803f 0000 0000 0000 803f 0000 0000
00000040: 0000 803f 0000 0000 0000 803f 0000 0000
00000050: 0000 803f 0000 0000 0000 803f 0000 0000
00000060: 0000 803f 0000 0000 0000 803f 0000 0000
00000070: 0000 803f 0000 0000 0000 803f 0000 0000
00000080: 0000 803f 0000 0000 0000 803f 0000 0000
00000090: 0000 803f 0000 0000 0000 803f 0000 0000
000000a0: 0000 803f 0000 0000 0000 803f 0000 0000
000000b0: 0000 803f 0000 0000 0000 803f 0000 0000
000000c0: 0000 803f 0000 0000 0000 803f 0000 0000
000000d0: 0000 803f 0000 0000 0000 803f 0000 0000
000000e0: 0000 803f 0000 0000 0000 803f 0000 0000
000000f0: 0000 803f 0000 0000 0000 803f 0000 0000
00000100: 0000 803f 0000 0000 0000 803f 0000 0000
00000110: 0000 803f 0000 0000 0000 803f 0000 0000
00000120: 0000 803f 0000 0000 0000 803f 0000 0000
00000130: 0000 803f 0000 0000 0000 803f 0000 0000
00000140: 0000 803f 0000 0000 0000 803f 0000 0000
00000150: 0000 803f 0000 0000 0000 803f 0000 0000
00000160: 0000 803f 0000 0000 0000 803f 0000 0000
00000170: 0000 803f 0000 0000 0000 803f 0000 0000
00000180: 0000 803f 0000 0000 0000 803f 0000 0000
