04a/Results_O4a_MultiSeed_Final/Models_Seed_2024_20260210/model_trad_seed_2024.pth (torch, 276498 bytes, 76 tensors)

_shift f4 [2]
00000000: a30c 2540 6566 ddbf
2.5788963 -1.7296873

_scale f4 [2]
00000000: 97f4 303e 2619 5d40
0.17280804 3.45466

weight f4 [50, 2]
00000000: 1994 1abf 2011 cb3d 2f09 ecbd 60d1 a13c
00000010: bea0 233f 5769 e7be 7861 abbe fde3 0f3f
00000020: d627 73be 78cd d63d c70a b9be a688 9b3e
00000030: ef8f 0a3f 8fd2 2d3f 87c6 9b3d 9c27 43be
00000040: 5b77 0cbf 4c4b eebe f489 0d3f 2424 053e
00000050: 49f5 1bbf 729b 58be e494 103f cb83 0ebf
00000060: ac97 f8bd b5ba 123f e363 74be 9cc9 07be
00000070: a90e 0b3f c82d babd 34b4 38be 04f4 89be
00000080: 5603 63be 0432 eebe 1f2c 103e c008 21bf
00000090: 2e74 d23e c598 0d3f 7225 a23e f034 813d
000000a0: 483f b2bd b244 af3e eb70 2a3f a2fc e43e
000000b0: c14c 17bd b056 05bd 7486 2c3e e632 a93e
000000c0: 0136 d83e 329e 86be 8b51 263e 60c7 9a3c
000000d0: 24f4 ce3e d6fb 06bf 3b3f fb3d 86b4 c1be
000000e0: e528 493e 8978 243f 92d6 2fbf 603e 81be
000000f0: 4629 c63e d94d 8fbe f479 1fbe 52a1 a93e
00000100: d9fe 5dbd f819 273e 85d2 b0bc efd4 20bf
00000110: fe62 103b 25b4 133f 1fd9 a63d 09b2 033f
00000120: 3888 1b3f e760 29bf e4ec 18bf 25c0 25bf
00000130: abb1 493e ffef 063f 52e7 f23d d775 e6be
00000140: 6fb6 77bd 2ead ad3e de5c f5bc 3146 cebe
00000150: 95db a4be 07ca 1dbf b372 0e3f 4add d83e
00000160: 80ea a23e 5e33 ea3e 8f82 7a3e 6002 afbd
00000170: a5b9 01bf e4ff 51be 09e4 a9bd 5e63 df3e
00000180: 1f09 4f3f ba38 e9be 61c0 09bf 1a31 a53e
-0.6038223 0.09915376 -0.11525189 0.019753158 0.6391715 -0.45197555 -0.334728 0.5620726
-0.23745665 0.10488409 -0.36141035 0.30377692 0.54125875 0.6789941 0.076062255 -0.19058079
-0.5486962 -0.46541822 0.55288625 0.13002068 -0.6092115 -0.21153048 0.5647719 -0.5566985
-0.12138304 0.5731614 -0.23866229 -0.13260502 0.54319245 -0.09090763 -0.18037492 -0.26943982
-0.22169241 -0.46522534 0.14079331 -0.62903976 0.41104263 0.5531123 0.31669194 0.06308925
-0.08703476 0.34232098 0.6657855 0.44723994 -0.036938433 -0.032553375 0.16848165 0.33046645
0.42228702 -0.26292568 0.16242044 0.018893898 0.4042064 -0.5272802 0.1226792 -0.3783304
0.19644506 0.6424642 -0.68686783 -0.252429 0.38703364 -0.2798908 -0.15573865 0.3313089
-0.05419812 0.163185 -0.021584759 -0.6282491 0.002203166 0.57696754 0.08146881 0.51443535
0.6075473 -0.66163486 -0.59736466 -0.64746314 0.19696681 0.52709955 0.11860527 -0.4501178
-0.060476717 0.33921188 -0.02995151 -0.40287927 -0.32198778 -0.61636394 0.5564377 0.4235633
0.31819534 0.45742315 0.24463867 -0.08545375 -0.50673896 -0.20507771 -0.082954474 0.436305
0.8087329 -0.4555109 -0.5380917 0.32264024

bias f4 [50]
00000000: 07d7 a13e 9e75 973e 2dd8 213f 15ad 01bf
00000010: 9fdc ac3e f6b6 b23e 632d e0be 5ffa 533e
00000020: 63d8 663d d472 f63e a6ef 20be d2db b83c
00000030: 0616 2ebf 730c 343e 2473 e23e 8e35 823e
00000040: b410 493e 7548 19bf 147c 4c3e 8dc7 2fbe
00000050: ef5b 143f e4f6 3f3e 7b1b 1dbf fe65 193f
00000060: e0ae 303f dd4a cebe 6911 bf3c b177 b0be
00000070: 8586 2b3f 9154 f43e 65f2 223e 3889 a2be
00000080: aacc 2a3f 1d7f 083f 882b f7be 913f b33e
00000090: c957 0dbe d266 03be dffb 493e 2fbf 15bf
000000a0: e148 37bf ce7c 2d3f d3d0 b83d 6bc2 a3be
000000b0: 9155 ca3e 6f17 313f ea61 cfbe d5c9 fabe
000000c0: f5ed e8be 0458 27bf
0.31609365 0.29581922 0.63220483 -0.5065473 0.3376207 0.34905213 -0.43784627 0.20700978
0.056358706 0.48134482 -0.15716419 0.022565756 -0.68002355 0.17582874 0.4422847 0.25431484
0.19635278 -0.59876186 0.19969207 -0.17165966 0.5795278 0.18746525 -0.61370057 0.5992125
0.6901684 -0.4029149 0.023323731 -0.34466317 0.67002136 0.4772077 0.15912779 -0.31745315
0.6671854 0.5331896 -0.482754 0.35009435 -0.13803019 -0.12832192 0.19724987 -0.5849485
-0.7159558 0.6776856 0.09024205 -0.31984267 0.39518407 0.6917638 -0.4050439 -0.4898211
-0.45494047 -0.65368676

mask f4 [50, 2]
00000000: 0000 803f 0000 0000 0000 803f 0000 0000
00000010: 0000 803f 0000 0000 0000 803f 0000 0000
00000020: 0000 803f 0000 0000 0000 803f 0000 0000
00000030: 0000 803f 0000 0000 0000 803f 0000 0000
00000040: 0000 803f 0000 0000 0000 803f 0000 0000
00000050: 0000 803f 0000 0000 0000 803f 0000 0000
00000060: 0000 803f 0000 0000 0000 803f 0000 0000
00000070: 0000 803f 0000 0000 0000 803f 0000 0000
00000080: 0000 803f 0000 0000 0000 803f 0000 0000
00000090: 0000 803f 0000 0000 0000 803f 0000 0000
000000a0: 0000 803f 0000 0000 0000 803f 0000 0000
000000b0: 0000 803f 0000 0000 0000 803f 0000 0000
000000c0: 0000 803f 0000 0000 0000 803f 0000 0000
000000d0: 0000 803f 0000 0000 0000 803f 0000 0000
000000e0: 0000 803f 0000 0000 0000 803f 0000 0000
000000f0: 0000 803f 0000 0000 0000 803f 0000 0000
00000100: 0000 803f 0000 0000 0000 803f 0000 0000
00000110: 0000 803f 0000 0000 0000 803f 0000 0000
00000120: 0000 803f 0000 0000 0000 803f 0000 0000
00000130: 0000 803f 0000 0000 0000 803f 0000 0000
00000140: 0000 803f 0000 0000 0000 803f 0000 0000
00000150: 0000 803f 0000 0000 0000 803f 0000 0000
00000160: 0000 803f 0000 0000 0000 803f 0000 0000
00000170: 0000 803f 0000 0000 0000 803f 0000 0000
00000180: 0000 803f 0000 0000 0000 803f 0000 0000
1.0 0.0 1.0 0.0 1.0 0.0 1.0 0.0
1.0 0.0 1.0 0.0 1.0 0.0 1.0 0.0
1.0 0.0 1.0 0.0 1.0 0.0 1.0 0.0
1.0 0.0 1.0 0.0 1.0 0.0 1.0 0.0
1.0 0.0 1.0 0.0 1.0 0.0 1.0 0.0
1.0 0.0 1.0 0.0 1.0 0.0 1.0 0.0
1.0 0.0 1.0 0.0 1.0 0.0 1.0 0.0
1.0 0.0 1.0 0.0 1.0 0.0 1.0 0.0
1.0 0.0 1.0 0.0 1.0 0.0 1.0 0.0
1.0 0.0 1.0 0.0 1.0 0.0 1.0 0.0
1.0 0.0 1.0 0.0 1.0 0.0 1.0 0.0
1.0 0.0 1.0 0.0 1.0 0.0 1.0 0.0
1.0 0.0 1.0 0.0

weight f4 [50, 2]
00000000: ec4d bfbe a95f b7be fce5 f03d 9846 02bf
00000010: 554c f5be efa6 e83e 45c7 843c 989c 79be
00000020: 63c2 883e d8ac 7c3e a2ce 073f 0e22 303d
00000030: c5cc 2f3e bf96 303f 8aa8 c4bc d402 41be
00000040: d5c4 07bf 1723 e53e 8729 18bf 89ac 61be
00000050: 691c 763e e889 fc3d 8c0d ba3d 7cba 21bf
00000060: 9271 dc3e c24a f0be 79b9 283f 8282 a6be
00000070: 1bff ad3d ac19 03bf e62d b9be cf54 193e
00000080: 04e5 17be c0fc 003f fb38 0a3f da7e 333f
00000090: e623 25bf b869 813e eec7 39be 4022 b93e
000000a0: ab18 d3be 7d1f 88bd 33d4 9d3d ad5f 8ebe
000000b0: 374c 903e d677 d9be cc7e 0ebf 051c e33e
000000c0: e2c4 963e 5e96 0fbf e06c 0dbf ee0a dd3e
000000d0: 08ac 7cbe d611 27be b8e5 dcbe bd02 c93e
000000e0: d757 993e 8e64 e73e e22a 173f f5a3 883e
000000f0: 54ba 47bd 0083 02bf 3e88 893d 8100 143f
00000100: f8c2 cfbe 6a5d 38bc daa6 9b3e 7466 3dbe
00000110: 59cd 3fbe 544b 03be 06ac 623e 7140 35be
00000120: d6d6 97ba f3b6 a5be b7ab 31bf c23f 6bbd
00000130: 21cb a4be 6ce0 493d c21d 1d3f 494f 153f
00000140: cb4d 803e d944 0abf a64d e2be c0ea d8bd
00000150: ea41 44be 11d2 2d3f b7de 22bf 7071 8cbe
00000160: 2c92 05bf 3a6c 97be 96df fc3e f1a5 2dbf
00000170: d67d 24bf dbb8 ca3e 3881 703d 895c 143f
00000180: 50d2 133e 68ae 03bf d419 1e3f 74c2 90be
-0.37364137 -0.3581517 0.11762616 -0.5088897 -0.479098 0.4543986 0.0162083 -0.24376142
0.26710805 0.2467531 0.5304967 0.043001227 0.17167957 0.6898002 -0.024006147 -0.18848735
-0.53034717 0.44753334 -0.59438366 -0.22038473 0.24034275 0.12330991 0.09084615 -0.6317518
0.43055397 -0.46932036 0.6590801 -0.32521445 0.08495923 -0.5121105 -0.3616783 0.14973758
-0.14833456 0.50385666 0.53993195 0.70115435 -0.645079 0.2527597 -0.18142673 0.36158943
-0.41229758 -0.06646631 0.077064894 -0.2780737 0.28183147 -0.4247424 -0.55662227 0.44357315
0.29447085 -0.5608882 -0.55244255 0.431724 -0.24675 -0.16315398 -0.43144011 0.39259902
0.2994983 0.45193905 0.5904981 0.2668759 -0.04876168 -0.5098114 0.06715439 0.5781327
-0.40578437 -0.01125274 0.30400735 -0.18496114 -0.18730678 -0.12821704 0.22135934 -0.17700364
-0.0011584412 -0.32366142 -0.6940264 -0.05743385 -0.32186225 0.04928629 0.6137353 0.58324105
0.2505935 -0.54011303 -0.44199866 -0.1059165 -0.19165769 0.6789866 -0.63621086 -0.27430296
-0.52176166 -0.29574758 0.49389333 -0.6783133 -0.6425451 0.3959416 0.058716983 0.579537
0.14435697 -0.51438 0.6175816 -0.28273356

bias f4 [50]
00000000: 28b5 0d3e f1b3 42be 0d4d 563e 5c32 8f3d
00000010: f2a6 c33e 0207 20bf 1ab4 263f ee43 a63c
00000020: 36fb 163e 2fb9 073f 871c e6bd ef24 013f
00000030: 2950 353f a56b ef3d adc1 7abe 1720 9c3e
00000040: 51b0 523e 1e28 0f3e 7fd5 e8be 29a6 213f
00000050: fa51 9a3e f22d 33bf 7545 afbe 2bd3 cfbe
00000060: 5740 1bbf 78d4 12be 169e 953c e73f bcbe
00000070: f2c9 0ebf bd66 9bbe 1105 49be d725 1abd
00000080: 21c5 babe 5637 a33e 6c19 20bf f1e5 ab3d
00000090: a546 333e a122 06bf 2e78 10bf 0537 55be
000000a0: f4b7 d23e f802 02be b342 02be ae48 a7be
000000b0: 2909 15bf 9f26 88be 106d 26bc ce58 20bf
000000c0: a92a 7abe d8f4 f13e
0.13838637 -0.19013955 0.2092783 0.06992027 0.38213307 -0.62510693 0.65118563 0.020296063
0.14744267 0.5301694 -0.1123591 0.5044698 0.7082544 0.116904534 -0.24487944 0.30493233
0.20575072 0.13980147 -0.45475385 0.63144165 0.30140668 -0.6999198 -0.3423268 -0.40590796
-0.6064505 -0.14338863 0.018263858 -0.36767504 -0.55776894 -0.3035182 -0.19630839 -0.037633743
-0.36478522 0.31878155 -0.6253879 0.08393467 0.17507418 -0.5239659 -0.5643338 -0.2082177
0.4115597 -0.12696445 -0.12720756 -0.32672638 -0.582171 -0.26591966 -0.010157838 -0.62635505
-0.24430336 0.47257113

weight f4 [50, 50]
00000000: 0836 363d 5376 f7bc ce28 413d 6112 cbbd
00000010: 9d30 af3d a0ff e73b b511 9b3d b2dd 7b3d
00000020: e5ee 37bc 1c62 f33d 97aa 063e af6b ba3c
00000030: 31f9 0ebd 8e29 42bd cfdc 9dbd 3def c2bd
00000040: 0ad4 0bbe 14dc d4bd 54a8 eeba f7c5 eabc
00000050: cbf7 2c3d a9e3 913b 5b72 863d 7484 f8bc
00000060: d5f9 593d c156 213e 0388 dc3c 853d 36bd
00000070: 2f30 813d d7cf 203d 6637 33bd 18cc 6abd
00000080: 477e 0bbd 04a0 60ba 9bc9 b3bd 5996 0dbb
00000090: 6f23 333c 8a81 c1bd a046 6abd a289 10bd
000000a0: 64c7 b13c 3d91 d3bc bb83 dbbd be26 87bd
000000b0: cb2e c93d d4e3 22be 51bc b63b c979 2ebd
000000c0: a429 7dbd ee99 eb3d 0085 583d f7e8 5dbd
000000d0: 0dc2 1fbe 4ef7 f4bd 43a7 c73d e8b4 e53d
000000e0: 8f77 8239 b39a cfbd f1d8 05be 05d1 c1bd
000000f0: 6239 123d a020 d53d e173 66bd a259 a7bd
00000100: 393f 733d 1028 a13d 1f2f d1bc 857a 4dbc
00000110: 72ff c8ba ab4e 033e fd81 023e bbbf 4e3b
00000120: 20fd a93d f5c5 c43d 6771 b03d f5cf e4bd
00000130: 0be9 6b3d 4abd e93c b2de 11be d8c0 a23d
00000140: 5929 1abd addc afbd 9829 98bd 117a e73d
00000150: 4189 ccbd e13f a2bd 16c1 a4bd c270 903d
00000160: 5186 23bd e350 843d e092 f8bd 9f44 6f3c
00000170: e077 14bc 39ac 81bc a76f b43d 0076 30bd
00000180: 8f95 82bc a7a0 61bc 04a2 103e 8a6e bb3d
00000190: a61c 9ebd 90e8 683b ae13 93bd 1fe3 40bd
000001a0: 4023 d63d 1278 e73d 87e8 d03d ab51 523d
000001b0: 5662 14bd 4540 e53d 371c e0bd 53cb d03d
000001c0: 1f41 b13c c9a0 d33d 3ca3 dfbd 8158 abbd
000001d0: 4ac6 f03d 9273 0e3d 50e5 c2bd 8376 93b5
000001e0: db08 683d 302b 803d 9018 833d 906f b23d
000001f0: ac31 4f3d 75ad 95bd 60b9 463c 1516 b73d
00000200: 70a6 ebbc bd98 a53d e20a 413c 6671 643d
00000210: 8c09 583d 128e 10be e477 0e3d f8b8 99bd
00000220: 25c3 e93d ef2f 023e 090b 073e 4c4b a3bd
00000230: cc6a 1e3d d43b 0c3e 367a aabd ab70 6abc
00000240: 7f9a 53bd 3024 29bd 698e 813d 534d df3d
00000250: f788 02bd 04d9 b23d 0e45 c7bc e6b4 b13d
00000260: 887b 01be e0a0 26bb d9ee e0bd ec37 d9bd
00000270: 75df a3bd 5ed4 533c e611 03be 9d73 dfbc
00000280: cfc3 85bd 9dbd 523d cee5 ca3b e873 d13d
00000290: 0026 c1bd ab1b d73c 1c6a 8e3d 0923 ad3d
000002a0: 497e d2bd 5260 71bd d672 893c f3bc 913d
000002b0: b09d c63a 9888 003d 145c ecbb 6c26 45bd
000002c0: ea0c aebc 3374 37bd 5deb 43bd 2997 933d
000002d0: 590c 033e f7ed 6dbd b5f6 1cbb 9056 0e3e
000002e0: b8c7 28be 24bd 9d3c 8d84 f5bb 1218 503e
000002f0: 06bf 083e bb82 a03d 54a3 0abe ec96 073d
00000300: b2a7 8dbd e581 603c 380b d93d d0ae 823d
00000310: 335b e23c 0526 1d3d fd43 343e 15a4 023d
00000320: fa9d e43d 0516 9fbd 4e91 663c 8870 e8bd
00000330: 6f04 e63c 59be ae3c 91d1 b93d 5370 fd3d
00000340: e781 7cbc 2348 36bd f5b6 5bbd 21fa e2bd
00000350: 73c2 8fbd d786 5c3c 0360 a03d e562 b63d
00000360: f0fb d5bd 27e4 e93d a4ea 5e39 8506 87bc
00000370: 18ab 70bd bf6b 16be 95b6 e63a 3113 953d
00000380: e0e2 9cbd d5f2 ccbb befd 80bd ce1c 90bd
00000390: 527e 26bd cd86 03be 92ed 18bd 906f 043d
000003a0: bd39 e4bd 6ef7 03be a12e d53d 266a ac3d
000003b0: 4052 edbd 4a7f ef3d 5284 f5bc 54e7 dabc
000003c0: d6e3 963d 3aa8 98bd 33fa 58bd 6b6d febc
000003d0: 73c4 0c3e 53c6 1ebd 81bc 19bd f144 463d
000003e0: ef38 dc3d 8682 5d3d e15c a8bd f066 653c
000003f0: cf80 d9bd e041 d3bd af2d 893d 4727 38bd
0.044485122 -0.030207789 0.047158055 -0.09915615 0.08554194 0.0070800334 0.07571737 0.061490722
-0.0112263905 0.11883947 0.13151012 0.022756426 -0.034905616 -0.04740291 -0.077081315 -0.09518287
-0.13655105 -0.10393539 -0.0018208125 -0.02865885 0.0422285 0.004452188 0.0656478 -0.030336596
0.053216774 0.1575575 0.026920324 -0.044492263 0.063080184 0.03926071 -0.043754004 -0.057323545
-0.034055974 -0.0008568766 -0.087786876 -0.0021604507 0.010933741 -0.09448536 -0.05719626 -0.035287507
0.021701522 -0.025826091 -0.10718485 -0.06599186 0.09823378 -0.15907222 0.0055766483 -0.042596612
-0.06180729 0.11503969 0.052861214 -0.05417725 -0.15601368 -0.11961232 0.097486995 0.11216146
0.0002488461 -0.101369284 -0.13071038 -0.094636954 0.035699256 0.10406613 -0.056262854 -0.08171393
0.059386466 0.078689694 -0.025535164 -0.012541418 -0.0015334918 0.12822978 0.12744899 0.0031547386
0.08300233 0.0960807 0.0861538 -0.11172477 0.057595294 0.028532643 -0.14245108 0.07946938
-0.03763709 -0.085870124 -0.074298084 0.11302579 -0.099871166 -0.0792234 -0.08044641 0.07052757
-0.039923016 0.064607404 -0.12137389 0.014603763 -0.009061784 -0.015829192 0.088103585 -0.043081284
-0.015940456 -0.013771213 0.14124304 0.09151943 -0.07720308 0.0035539009 -0.07181488 -0.0470916
0.10455942 0.113021985 0.10200601 0.051347416 -0.036226593 0.11193899 -0.109428816 0.10195031
0.021637497 0.10333402 -0.10919806 -0.0836649 0.11756571 0.034778185 -0.09516394 -1.0986845e-06
0.05664907 0.06258237 0.06401169 0.08712685 0.05058448 -0.07308475 0.012129158 0.08939759
-0.028765887 0.08085773 0.01178238 0.055772208 0.05274348 -0.14116696 0.034782305 -0.07505983
0.11414174 0.12713598 0.13187803 -0.07973346 0.03867607 0.13694698 -0.08324091 -0.014309089
-0.05166101 -0.041294277 0.06325991 0.1090342 -0.0318689 0.08732799 -0.02432492 0.08677082
-0.1264478 -0.0025425479 -0.109830566 -0.106063694 -0.080016054 0.01292905 -0.12799796 -0.027276808
-0.06531488 0.05145036 0.0061919456 0.102271855 -0.09431076 0.02625831 0.069538325 0.08453948
-0.10277993 -0.05892975 0.01677839 0.07116117 0.0015153196 0.031380266 -0.007213125 -0.048132345
-0.021246392 -0.04478855 -0.04783188 0.07206566 0.12797679 -0.05808827 -0.002395076 0.13900208
-0.16482437 0.019255228 -0.007492608 0.20321682 0.1335412 0.07837435 -0.13538867 0.033102915
-0.06916751 0.013702844 0.10597843 0.06380999 0.027631378 0.038366336 0.1760406 0.031894762
0.11162944 -0.07767872 0.014072729 -0.11349589 0.028078286 0.021331 0.09073175 0.1237494
-0.0154118305 -0.04450239 -0.05364128 -0.110828646 -0.0701951 0.013459883 0.07830813 0.089055814
-0.10448444 0.1142047 0.0002125898 -0.016482601 -0.058756918 -0.1468954 0.0017602021 0.07279051
-0.076604605 -0.006254534 -0.062983975 -0.07036744 -0.040647812 -0.12844391 -0.03733594 0.032332957
-0.11143825 -0.12887356 0.104092844 0.08418684 -0.115879536 0.116942 -0.029970322 -0.026721634
0.07367675 -0.07453962 -0.052972984 -0.031058034 0.13746814 -0.038763355 -0.037533287 0.04840559
0.10753047 0.054079555 -0.0822084 0.014001593 -0.106202714 -0.10315299 0.066981666 -0.044959333

bias f4 [50]
00000000: 3e38 25be 3821 71bd 1dd1 e73d 708f d93d
00000010: 343e c03c f556 5f3a bf0e 8a3b 16fe 0cbd
00000020: 2191 bf3d 1dee bbbc c8a0 0d3e fc53 ee3c
00000030: 9230 cbbd f1c5 6a3d 1946 dd3d a4ea 3bbd
00000040: ef53 c4bb b821 febd ea36 283c 6baa 12be
00000050: 2b00 1cbd d780 7abd e2c1 163d c0ed 23be
00000060: 36ab a9bc 3a58 973d 2691 aebd dbe8 a23d
00000070: 2e16 e8bd 5277 bd3d 973b 51bb 3d50 1d3d
00000080: 476d b0bb bbc7 223c 8f7d 8cbd 063c c2bd
00000090: f785 2e3c 200a 05bc 731e 533d f80b a9bc
000000a0: 29cf 083d e9f0 8ebd 8166 00be 13fa b13d
000000b0: b232 17be 4da5 a0bd 39c1 513d 21e6 953d
000000c0: 00bb 11bd d131 1dbe
-0.16134736 -0.05886957 0.11319182 0.10623062 0.02346716 0.00085197325 0.0042131837 -0.034422003
0.09353853 -0.02294069 0.13830864 0.029092781 -0.099213734 0.057317678 0.10804386 -0.045878068
-0.005991451 -0.12408775 0.010266999 -0.14322822 -0.038086098 -0.061158027 0.036805995 -0.16008663
-0.020711523 0.07389875 -0.085237786 0.0795457 -0.113323554 0.09251274 -0.0031926387 0.0384066
-0.0053841206 0.009935315 -0.06859886 -0.09484105 0.010652057 -0.00812009 0.05154271 -0.02063559
0.03340069 -0.06979544 -0.12539102 0.08690276 -0.14765432 -0.078440286 0.051209662 0.07319284
-0.035578728 -0.15351035

mask f4 [50, 50]
00000000: 0000 803f 0000 803f 0000 803f 0000 803f
00000010: 0000 803f 0000 803f 0000 803f 0000 803f
00000020: 0000 803f 0000 803f 0000 803f 0000 803f
00000030: 0000 803f 0000 803f 0000 803f 0000 803f
00000040: 0000 803f 0000 803f 0000 803f 0000 803f
00000050: 0000 803f 0000 803f 0000 803f 0000 803f
00000060: 0000 803f 0000 803f 0000 803f 0000 803f
00000070: 0000 803f 0000 803f 0000 803f 0000 803f
00000080: 0000 803f 0000 803f 0000 803f 0000 803f
00000090: 0000 803f 0000 803f 0000 803f 0000 803f
000000a0: 0000 803f 0000 803f 0000 803f 0000 803f
000000b0: 0000 803f 0000 803f 0000 803f 0000 803f
000000c0: 0000 803f 0000 803f 0000 803f 0000 803f
000000d0: 0000 803f 0000 803f 0000 803f 0000 803f
000000e0: 0000 803f 0000 803f 0000 803f 0000 803f
000000f0: 0000 803f 0000 803f 0000 803f 0000 803f
00000100: 0000 803f 0000 803f 0000 803f 0000 803f
00000110: 0000 803f 0000 803f 0000 803f 0000 803f
00000120: 0000 803f 0000 803f 0000 803f 0000 803f
00000130: 0000 803f 0000 803f 0000 803f 0000 803f
00000140: 0000 803f 0000 803f 0000 803f 0000 803f
00000150: 0000 803f 0000 803f 0000 803f 0000 803f
00000160: 0000 803f 0000 803f 0000 803f 0000 803f
00000170: 0000 803f 0000 803f 0000 803f 0000 803f
00000180: 0000 803f 0000 803f 0000 803f 0000 803f
00000190: 0000 803f 0000 803f 0000 803f 0000 803f
000001a0: 0000 803f 0000 803f 0000 803f 0000 803f
000001b0: 0000 803f 0000 803f 0000 803f 0000 803f
000001c0: 0000 803f 0000 803f 0000 803f 0000 803f
000001d0: 0000 803f 0000 803f 0000 803f 0000 803f
000001e0: 0000 803f 0000 803f 0000 803f 0000 803f
000001f0: 0000 803f 0000 803f 0000 803f 0000 803f
00000200: 0000 803f 0000 803f 0000 803f 0000 803f
00000210: 0000 803f 0000 803f 0000 803f 0000 803f
00000220: 0000 803f 0000 803f 0000 803f 0000 803f
00000230: 0000 803f 0000 803f 0000 803f 0000 803f
00000240: 0000 803f 0000 803f 0000 803f 0000 803f
00000250: 0000 803f 0000 803f 0000 803f 0000 803f
00000260: 0000 803f 0000 803f 0000 803f 0000 803f
00000270: 0000 803f 0000 803f 0000 803f 0000 803f
00000280: 0000 803f 0000 803f 0000 803f 0000 803f
00000290: 0000 803f 0000 803f 0000 803f 0000 803f
000002a0: 0000 803f 0000 803f 0000 803f 0000 803f
000002b0: 0000 803f 0000 803f 0000 803f 0000 803f
000002c0: 0000 803f 0000 803f 0000 803f 0000 803f
000002d0: 0000 803f 0000 803f 0000 803f 0000 803f
000002e0: 0000 803f 0000 803f 0000 803f 0000 803f
000002f0: 0000 803f 0000 803f 0000 803f 0000 803f
00000300: 0000 803f 0000 803f 0000 803f 0000 803f
00000310: 0000 803f 0000 803f 0000 803f 0000 803f
00000320: 0000 803f 0000 803f 0000 803f 0000 803f
00000330: 0000 803f 0000 803f 0000 803f 0000 803f
00000340: 0000 803f 0000 803f 0000 803f 0000 803f
00000350: 0000 803f 0000 803f 0000 803f 0000 803f
00000360: 0000 803f 0000 803f 0000 803f 0000 803f
00000370: 0000 803f 0000 803f 0000 803f 0000 803f
00000380: 0000 803f 0000 803f 0000 803f 0000 803f
00000390: 0000 803f 0000 803f 0000 803f 0000 803f
000003a0: 0000 803f 0000 803f 0000 803f 0000 803f
000003b0: 0000 803f 0000 803f 0000 803f 0000 803f
000003c0: 0000 803f 0000 803f 0000 803f 0000 803f
000003d0: 0000 803f 0000 803f 0000 803f 0000 803f
000003e0: 0000 803f 0000 803f 0000 803f 0000 803f
000003f0: 0000 803f 0000 803f 0000 803f 0000 803f
1.0 1.0 1.0 1.0 1.0 1.0 1.0 1.0
1.0 1.0 1.0 1.0 1.0 1.0 1.0 1.0
1.0 1.0 1.0 1.0 1.0 1.0 1.0 1.0
1.0 1.0 1.0 1.0 1.0 1.0 1.0 1.0
1.0 1.0 1.0 1.0 1.0 1.0 1.0 1.0
1.0 1.0 1.0 1.0 1.0 1.0 1.0 1.0
1.0 1.0 1.0 1.0 1.0 1.0 1.0 1.0
1.0 1.0 1.0 1.0 1.0 1.0 1.0 1.0
1.0 1.0 1.0 1.0 1.0 1.0 1.0 1.0
1.0 1.0 1.0 1.0 1.0 1.0 1.0 1.0
1.0 1.0 1.0 1.0 1.0 1.0 1.0 1.0
1.0 1.0 1.0 1.0 1.0 1.0 1.0 1.0
1.0 1.0 1.0 1.0 1.0 1.0 1.0 1.0
1.0 1.0 1.0 1.0 1.0 1.0 1.0 1.0
1.0 1.0 1.0 1.0 1.0 1.0 1.0 1.0
1.0 1.0 1.0 1.0 1.0 1.0 1.0 1.0
1.0 1.0 1.0 1.0 1.0 1.0 1.0 1.0
1.0 1.0 1.0 1.0 1.0 1.0 1.0 1.0
1.0 1.0 1.0 1.0 1.0 1.0 1.0 1.0
1.0 1.0 1.0 1.0 1.0 1.0 1.0 1.0
1.0 1.0 1.0 1.0 1.0 1.0 1.0 1.0
1.0 1.0 1.0 1.0 1.0 1.0 1.0 1.0
1.0 1.0 1.0 1.0 1.0 1.0 1.0 1.0
1.0 1.0 1.0 1.0 1.0 1.0 1.0 1.0
1.0 1.0 1.0 1.0 1.0 1.0 1.0 1.0
1.0 1.0 1.0 1.0 1.0 1.0 1.0 1.0
1.0 1.0 1.0 1.0 1.0 1.0 1.0 1.0
1.0 1.0 1.0 1.0 1.0 1.0 1.0 1.0
1.0 1.0 1.0 1.0 1.0 1.0 1.0 1.0
1.0 1.0 1.0 1.0 1.0 1.0 1.0 1.0
1.0 1.0 1.0 1.0 1.0 1.0 1.0 1.0
1.0 1.0 1.0 1.0 1.0 1.0 1.0 1.0

weight f4 [50, 50]
00000000: 0833 18bd fea2 493d 2bd6 64bd 2c37 babc
00000010: 5eb9 b93b 8cb5 8abd a59b 9ebd 5979 98bd
00000020: 5ba9 b8bd 47ff f5bd 7ed0 c23d 11f5 3abc
00000030: b610 df3c c8f1 f5bc d6b5 2cbc 6eb8 5e3d
00000040: ca4f aabd c7ee 5bbd 47f4 25bd 627d c1bd
00000050: aca9 853d a98b f93b cdc6 86bc cd7f 9c3d
00000060: a6f3 d03d 86a1 303d ed81 a5bd c3fe f9bd
00000070: 0b3c 413d 430e d0bb 6ffe 633d 1fe9 44bd
00000080: 63ce 003e a309 64bd cd49 76bd 65fe efbd
00000090: 559a fe3d 2187 94bc 4e4d ecbd 405b 13be
000000a0: de3a 8e3d aa5c 853d e56d bd3d b34b bcbd
000000b0: e3d8 ee3d 8d5b 69bd a349 a3bd f659 e5bd
000000c0: 544c 3abd e7f0 693c 9a8d c93d 1a53 353d
000000d0: 7bc2 0b3e 84dd b4bc 848d 90bd 8e09 bb3d
000000e0: 1a9e f33c 2f3b eabd bd3e 4e3d 2590 dbbd
000000f0: 3c54 08be ac59 75bd 62eb 323d ffe2 013e
00000100: 9940 e2bb d726 183e 0618 70bd fdd6 bf3c
00000110: 1f74 18bd 9776 403d 080e 1a3d 2c7f d53d
00000120: 27ff ce3c 01a0 07bc 9d6e 4a3d 7d38 533c
00000130: a174 cc3b a981 b9bd 3042 42bc 1d7b f0bd
00000140: 6c6d c9bc ec88 f53c 8a40 143e 10a1 6e3d
00000150: bf67 f63d 9dc5 e2bd c766 9e3d 4dde b7bd
00000160: ee31 68bd be1e 873d 23f5 c3bd 800e 953d
00000170: 3484 103e 7056 bdbc 7b06 8dbd 76cc ea3d
00000180: 5a29 a0bd 4995 21bb 5f59 a0bd 8df3 07be
00000190: 3b0f 0dbe a627 9bbd eff6 a93c de7f a9bd
000001a0: f115 fb3b 0d44 c3bd 223e fcbd 337a ac3d
000001b0: 692b b1bd db80 f63d b07f b13d e7a8 fc3d
000001c0: dbb0 303d 2101 903d 51e6 97bc 1ba3 2c3e
000001d0: b95d 913d 92e8 dc3d 2f80 813d fdb9 b0bd
000001e0: 50d2 38bd 3a31 fa3d 7344 45bc 7e79 c43d
000001f0: 4905 ebbd e2cf f7bc 3e0d 1abd c1ec 98bc
00000200: b945 373d 3851 043e 8e38 3a3d 5822 8d3c
00000210: 8f60 3f3d 0f06 c93d e4dc 1c3e 2cb2 b03d
00000220: f05a 38bd 4918 72bc 26c1 c63c 054c 733d
00000230: 85b2 c23d 53a3 3d3d 0fb5 0e3e b7e3 72bd
00000240: 11c5 1d3e bffc ba3d c9f1 09bd a261 1cbd
00000250: a68b bcbc c2df c0bd 3dd2 b03d d1fc 76bd
00000260: 16eb 60bd 0802 b73d 552b 113b f2e1 113d
00000270: e878 5b3d 0b66 ba3d 46d0 0d3e 5da7 3e3d
00000280: e3ed fc3d 2c21 92bd c1b3 67bd 38e2 0cbe
00000290: 7103 083e 9421 75bd a2f9 823d 53e5 dabd
000002a0: 54d0 99bc 908c 8ebd dc01 cc3a fc96 51bd
000002b0: 66c1 f539 348d a7bd 27ee 073e 9f8a 943d
000002c0: b93e 2b3d de1c b3bc 9b87 92bd a1b6 f63d
000002d0: be19 1fbe aa0c 00bd fde5 08bd be44 d83d
000002e0: bb9f b2bc ee46 1fb9 a54d 273d 8f67 60bd
000002f0: 64c0 57bd 7e69 e7bd c036 61bd 593e 00be
00000300: 709d b1bd 038e 3fbc d021 01be 30b0 10bc
00000310: fde3 af3d 5112 353c e9c3 bdbd c669 043d
00000320: 423a 5d3d 3b65 5abd e769 fbbd 3acf 14be
00000330: 0bfa 87bc fbf8 2fbc 9542 ce3d 47bd 26bd
00000340: 514b 9f3d 251f eebd 3d92 88bd 821e 26bd
00000350: cd5e 8e3d c2ff c1bd ca8d 773d 95d1 a13c
00000360: 9d1a fe3d aec8 1abd 640e 47bc 9f72 c4bc
00000370: 70ae c9bd addb 0c3e 28bc 17be d387 98bc
00000380: ec26 f1bd cee0 a63d 0d16 ce3c db74 70bc
00000390: e8cd c63d 9b9f debb a220 8f3d e0d2 ec3c
000003a0: 0c87 b73c 5f65 bebc f9d6 72bd dd9f 94bd
000003b0: dd57 80bd 9ed8 0c3d 3b68 44bd e7e3 633d
000003c0: b7f9 993d 0400 cb3d 8f03 4e3d 3d85 ce3d
000003d0: 3beb 493d af5b b03d efeb c33d cd6a d13d
000003e0: 0edc eb3d a141 2b3d f713 073e fd02 07bd
000003f0: aa63 a63d 3e92 01bd 794c bbbd 396b 07be
-0.037158042 0.049227707 -0.05586831 -0.022731386 0.0056678494 -0.067729086 -0.077445306 -0.0744502
-0.09016677 -0.12011581 0.09512423 -0.011410967 0.027229648 -0.030022517 -0.0105414 0.054375105
-0.08316 -0.053694513 -0.040516164 -0.09447743 0.06526503 0.0076155257 -0.016452217 0.076415636
0.10202722 0.04312279 -0.08081422 -0.12206795 0.047176402 -0.0063493564 0.05566257 -0.048073884
0.1257873 -0.055673253 -0.060128976 -0.11718444 0.1243178 -0.01813084 -0.11538182 -0.14390278
0.06944822 0.06511815 0.09249476 -0.09194126 0.116624616 -0.056972075 -0.079730295 -0.11198799
-0.04548295 0.014278627 0.098414615 0.044268705 0.13648407 -0.022078283 -0.07058242 0.09132682
0.029738475 -0.114370696 0.0503528 -0.10720853 -0.13313383 -0.05989997 0.04368151 0.12684248
-0.0069046733 0.14858566 -0.05861666 0.023417944 -0.037220117 0.046988096 0.037611037 0.10424647
0.02526815 -0.008277894 0.049421895 0.012891886 0.006239489 -0.09057934 -0.011856601 -0.11742232
-0.02458831 0.029972516 0.14477745 0.05825907 0.12031507 -0.11072848 0.07734447 -0.089779474
-0.05668824 0.065976605 -0.095682405 0.07278156 0.14112931 -0.023112506 -0.06886002 0.11464779
-0.07820387 -0.0024655631 -0.07829546 -0.13276501 -0.13775341 -0.07575922 0.02074763 -0.08276342
0.0076625277 -0.09534464 -0.123165384 0.08421745 -0.08650858 0.12036296 0.086669326 0.12336903
0.043137413 0.07031465 -0.01854244 0.16859095 0.07097954 0.10786547 0.06323277 -0.086292244
-0.045122445 0.122164205 -0.012040245 0.09593485 -0.114756174 -0.030250493 -0.037610285 -0.01866758
0.044744227 0.12921607 0.04546409 0.01722829 0.046722945 0.09815609 0.15318638 0.086277336
-0.0450086 -0.014776298 0.024262022 0.05939867 0.09506706 0.046298336 0.13936256 -0.059299197
0.15407206 0.09130239 -0.03367785 -0.038179047 -0.023015808 -0.094176784 0.0863385 -0.0602997
-0.054911695 0.08935934 0.0022151072 0.03561587 0.053582102 0.091014944 0.13848981 0.04654633
0.12350061 -0.07135233 -0.05656791 -0.1375817 0.13282563 -0.059846476 0.0639527 -0.106882714
-0.018776096 -0.06960404 0.0015564519 -0.05116938 0.00046874135 -0.08181229 0.13274442 0.072530024
0.041807864 -0.02186435 -0.07154771 0.120465524 -0.15537164 -0.031262077 -0.03342246 0.105599865
-0.021804681 -0.00015189845 0.040845532 -0.05478626 -0.052673712 -0.11299418 -0.054983854 -0.12523784
-0.08672607 -0.011691573 -0.12610555 -0.008831069 0.08588407 0.01105173 -0.092658825 0.032327436
0.054010637 -0.053319197 -0.12276059 -0.14532176 -0.016598722 -0.010740514 0.10071293 -0.040707853
0.07778037 -0.11627034 -0.06668518 -0.04055644 0.069516756 -0.0947261 0.060437955 0.019753257
0.1240742 -0.03778904 -0.012149427 -0.023980437 -0.098477244 0.13755675 -0.1481787 -0.018619454
-0.11775002 0.08148347 0.025156999 -0.014676298 0.09707242 -0.006793929 0.06988646 0.028909147
0.022403263 -0.023241697 -0.059287045 -0.07257054 -0.062667586 0.03438627 -0.047950964 0.055637266
0.075183325 0.09912112 0.050296362 0.10084007 0.0492966 0.08611237 0.09566485 0.10225449
0.115165815 0.041810635 0.1319121 -0.032961834 0.08124478 -0.031633608 -0.091454454 -0.13224496

bias f4 [50]
00000000: 042f 063e 631d 353d c261 24be 4e52 25bd
00000010: 62b7 30be 2e05 bf3d bcd1 1abc 9d68 92bd
00000020: c5f2 fcbc 92f2 a73d 9a0b 1a3e e3a5 1f3b
00000030: b857 a9bd f594 36bd 38f1 57bd 56fe f0bd
00000040: dacd 003e 9c97 e4bd 1acc ed3b 3c67 d7bd
00000050: 84d2 353d b40e 043e 6ee1 113d 71ff 6cbd
00000060: 6a48 20be 660b f7bc 4d28 bcbc bef3 1dbd
00000070: 033d fbbd d417 fb3d 3f82 e3bd 6090 ca3d
00000080: 691c 273b ac38 04be b7e7 ec3d b129 243c
00000090: f534 7e3b eb9d b33d b0b9 1b3e 6f97 e1bd
000000a0: 31b2 153c dbb4 1fbe 5c05 e5ba 9385 ff3d
000000b0: acb1 053e 73cf 533d 5a79 0e3d 5926 283d
000000c0: eacb d73d 871c ddbd
0.13103873 0.04421748 -0.16052917 -0.040361695 -0.17257455 0.0932716 -0.009449419 -0.0714886
-0.03087748 0.082005635 0.15043488 0.002436035 -0.08268684 -0.04457565 -0.05272028 -0.11767261
0.12578526 -0.1116173 0.007256997 -0.10517737 0.044390216 0.12896234 0.035615377 -0.057860795
-0.15652624 -0.030156802 -0.022968436 -0.03856253 -0.122674964 0.12260404 -0.11108827 0.098908186
0.0025499112 -0.12912244 0.115676336 0.010019706 0.003878889 0.08770355 0.15207553 -0.11015212
0.009136722 -0.15596335 -0.0017472911 0.12476649 0.13056058 0.05171151 0.0347837 0.041052196
0.105369404 -0.10796457

mask f4 [50, 50]
00000000: 0000 803f 0000 803f 0000 803f 0000 803f
00000010: 0000 803f 0000 803f 0000 803f 0000 803f
00000020: 0000 803f 0000 803f 0000 803f 0000 803f
00000030: 0000 803f 0000 803f 0000 803f 0000 803f
00000040: 0000 803f 0000 803f 0000 803f 0000 803f
00000050: 0000 803f 0000 803f 0000 803f 0000 803f
00000060: 0000 803f 0000 803f 0000 803f 0000 803f
00000070: 0000 803f 0000 803f 0000 803f 0000 803f
00000080: 0000 803f 0000 803f 0000 803f 0000 803f
00000090: 0000 803f 0000 803f 0000 803f 0000 803f
000000a0: 0000 803f 0000 803f 0000 803f 0000 803f
000000b0: 0000 803f 0000 803f 0000 803f 0000 803f
000000c0: 0000 803f 0000 803f 0000 803f 0000 803f
000000d0: 0000 803f 0000 803f 0000 803f 0000 803f
000000e0: 0000 803f 0000 803f 0000 803f 0000 803f
000000f0: 0000 803f 0000 803f 0000 803f 0000 803f
00000100: 0000 803f 0000 803f 0000 803f 0000 803f
00000110: 0000 803f 0000 803f 0000 803f 0000 803f
00000120: 0000 803f 0000 803f 0000 803f 0000 803f
00000130: 0000 803f 0000 803f 0000 803f 0000 803f
00000140: 0000 803f 0000 803f 0000 803f 0000 803f
00000150: 0000 803f 0000 803f 0000 803f 0000 803f
00000160: 0000 803f 0000 803f 0000 803f 0000 803f
00000170: 0000 803f 0000 803f 0000 803f 0000 803f
00000180: 0000 803f 0000 803f 0000 803f 0000 803f
00000190: 0000 803f 0000 803f 0000 803f 0000 803f
000001a0: 0000 803f 0000 803f 0000 803f 0000 803f
000001b0: 0000 803f 0000 803f 0000 803f 0000 803f
000001c0: 0000 803f 0000 803f 0000 803f 0000 803f
000001d0: 0000 803f 0000 803f 0000 803f 0000 803f
000001e0: 0000 803f 0000 803f 0000 803f 0000 803f
000001f0: 0000 803f 0000 803f 0000 803f 0000 803f
00000200: 0000 803f 0000 803f 0000 803f 0000 803f
00000210: 0000 803f 0000 803f 0000 803f 0000 803f
00000220: 0000 803f 0000 803f 0000 803f 0000 803f
00000230: 0000 803f 0000 803f 0000 803f 0000 803f
00000240: 0000 803f 0000 803f 0000 803f 0000 803f
00000250: 0000 803f 0000 803f 0000 803f 0000 803f
00000260: 0000 803f 0000 803f 0000 803f 0000 803f
00000270: 0000 803f 0000 803f 0000 803f 0000 803f
00000280: 0000 803f 0000 803f 0000 803f 0000 803f
00000290: 0000 803f 0000 803f 0000 803f 0000 803f
000002a0: 0000 803f 0000 803f 0000 803f 0000 803f
000002b0: 0000 803f 0000 803f 0000 803f 0000 803f
000002c0: 0000 803f 0000 803f 0000 803f 0000 803f
000002d0: 0000 803f 0000 803f 0000 803f 0000 803f
000002e0: 0000 803f 0000 803f 0000 803f 0000 803f
000002f0: 0000 803f 0000 803f 0000 803f 0000 803f
00000300: 0000 803f 0000 803f 0000 803f 0000 803f
00000310: 0000 803f 0000 803f 0000 803f 0000 803f
00000320: 0000 803f 0000 803f 0000 803f 0000 803f
00000330: 0000 803f 0000 803f 0000 803f 0000 803f
00000340: 0000 803f 0000 803f 0000 803f 0000 803f
00000350: 0000 803f 0000 803f 0000 803f 0000 803f
00000360: 0000 803f 0000 803f 0000 803f 0000 803f
00000370: 0000 803f 0000 803f 0000 803f 0000 803f
00000380: 0000 803f 0000 803f 0000 803f 0000 803f
00000390: 0000 803f 0000 803f 0000 803f 0000 803f
000003a0: 0000 803f 0000 803f 0000 803f 0000 803f
000003b0: 0000 803f 0000 803f 0000 803f 0000 803f
000003c0: 0000 803f 0000 803f 0000 803f 0000 803f
000003d0: 0000 803f 0000 803f 0000 803f 0000 803f
000003e0: 0000 803f 0000 803f 0000 803f 0000 803f
000003f0: 0000 803f 0000 803f 0000 803f 0000 803f
1.0 1.0 1.0 1.0 1.0 1.0 1.0 1.0
1.0 1.0 1.0 1.0 1.0 1.0 1.0 1.0
1.0 1.0 1.0 1.0 1.0 1.0 1.0 1.0
1.0 1.0 1.0 1.0 1.0 1.0 1.0 1.0
1.0 1.0 1.0 1.0 1.0 1.0 1.0 1.0
1.0 1.0 1.0 1.0 1.0 1.0 1.0 1.0
1.0 1.0 1.0 1.0 1.0 1.0 1.0 1.0
1.0 1.0 1.0 1.0 1.0 1.0 1.0 1.0
1.0 1.0 1.0 1.0 1.0 1.0 1.0 1.0
1.0 1.0 1.0 1.0 1.0 1.0 1.0 1.0
1.0 1.0 1.0 1.0 1.0 1.0 1.0 1.0
1.0 1.0 1.0 1.0 1.0 1.0 1.0 1.0
1.0 1.0 1.0 1.0 1.0 1.0 1.0 1.0
1.0 1.0 1.0 1.0 1.0 1.0 1.0 1.0
1.0 1.0 1.0 1.0 1.0 1.0 1.0 1.0
1.0 1.0 1.0 1.0 1.0 1.0 1.0 1.0
1.0 1.0 1.0 1.0 1.0 1.0 1.0 1.0
1.0 1.0 1.0 1.0 1.0 1.0 1.0 1.0
1.0 1.0 1.0 1.0 1.0 1.0 1.0 1.0
1.0 1.0 1.0 1.0 1.0 1.0 1.0 1.0
1.0 1.0 1.0 1.0 1.0 1.0 1.0 1.0
1.0 1.0 1.0 1.0 1.0 1.0 1.0 1.0
1.0 1.0 1.0 1.0 1.0 1.0 1.0 1.0
1.0 1.0 1.0 1.0 1.0 1.0 1.0 1.0
1.0 1.0 1.0 1.0 1.0 1.0 1.0 1.0
1.0 1.0 1.0 1.0 1.0 1.0 1.0 1.0
1.0 1.0 1.0 1.0 1.0 1.0 1.0 1.0
1.0 1.0 1.0 1.0 1.0 1.0 1.0 1.0
1.0 1.0 1.0 1.0 1.0 1.0 1.0 1.0
1.0 1.0 1.0 1.0 1.0 1.0 1.0 1.0
1.0 1.0 1.0 1.0 1.0 1.0 1.0 1.0
1.0 1.0 1.0 1.0 1.0 1.0 1.0 1.0

weight f4 [4, 50]
00000000: 4fb3 c8bd 888c 583d 9ae6 f43d 8ebd e03d
00000010: 3004 b8bd 7ce8 35bd 6c5f 883d fa19 4cbd
00000020: 20a6 de3b 2858 cf3d c0e4 553b e7b8 cabd
00000030: e8f4 acbc fa08 15bd 79e5 98bd 92a5 23bd
00000040: e8a2 113d 7c47 323d 40c1 293c 802b 8f3b
00000050: c28c d23d a44f b3bc 3972 fcbd 2a29 993d
00000060: 2816 99bc d441 e5bc 4ac5 07bd 46ce 66bd
00000070: bec0 ecbd cb0b 96bd c28e ff3d 30f4 c1bc
00000080: c010 43bc c045 b8bc 7854 c73c db38 c8bd
00000090: 72ec 22bd b6ab ce3d 80f1 45bb 9486 113d
000000a0: 2041 1c3c 58b6 b7bd 883b a73c a0a0 0d3c
000000b0: 9eac ad3d 4e8a c2bd 6091 0f3c 0083 a13c
000000c0: d8d5 363d 3de3 0e3e c49b 7f3d 40c9 503b
000000d0: 3d74 083e 80b2 63bc d097 743c 7c11 f7bd
000000e0: 3af2 a1bd ceb1 bb3d a912 80bd f404 d43d
000000f0: 7ac4 ee3d 3d76 0dbe da99 8c3d d0d2 013c
00000100: f726 013e fc5a e7bc 94ce 55bd eee1 de3d
00000110: d676 f53d ece8 283d 10c2 20bc 72a5 e93d
00000120: c095 3a3c ade5 003e cc25 0ebe 604e 9abc
00000130: f09f 2ebc 8041 6abb 5e0a fa3d c514 04be
00000140: 74dc a1bd a046 9b3b b0c3 433c c760 043e
00000150: 32c2 e93d f0fe 1ebc 0293 e83d a001 783c
00000160: b906 053e c078 073b a826 c7bd 6c28 413d
00000170: 6084 dabb c0c1 bb3b 6cb0 383d a8a8 e6bc
00000180: d66a 9e3d 2207 05bd 5d6f 053e 7155 063e
00000190: 605b 893d f497 6f3b 3a72 51bd fecf f53d
000001a0: 9428 aabd ad09 c4bd 930c 9f3d 27d1 c3bd
000001b0: d0d4 e8bd 5e35 ebbb 49b5 0a3e 59d3 203e
000001c0: 41a8 913d 180d 8c3b 8d2f 18be 3137 1bbe
000001d0: cbe1 0c3d d0ce d43d ad43 73bd 0ab6 1e3d
000001e0: 992a 25bd 503b b5bb a8ae 85bc b8d9 a0bd
000001f0: d6fe c2bd 7a68 a43d 4879 993d f74a 063d
00000200: fc8a c0bd e1d6 543c a5f0 fdbd a9c9 58bc
00000210: 8053 8cbd 4389 8ebd f13a 093e 262e 0bbe
00000220: 0296 25bd c640 e5bd d7dd cf3d acd2 f9bc
00000230: a24b 853d e891 26be 5380 b5bd fe04 353e
00000240: bf23 ab3c 8573 ea3c 9d91 a5bb 3230 06be
00000250: 44e3 fb3d 31a7 be3d 1713 cbbd 3597 9ebd
00000260: 3bdb 18b9 e764 9cbd dc09 57ba 3da9 31bd
00000270: 46ca 633d 1c8e 40bd 9e9b de3c c52b 64bc
00000280: 2c2f c63d 3a8e de3d b8ba 5ebd c82d 94bd
00000290: fdd5 bfbd 7831 c8ba 8c38 cabd 16eb 47bd
000002a0: 6216 c2bd 3277 993d 0acb e43d 9c28 963d
000002b0: 93ab fcbd 1b39 edbc dade 21bd 8df1 983d
000002c0: f684 d6bd 649e d13c 8c19 ae3d 2e18 d1bc
000002d0: 2c10 c53c a78a 893b 2b73 bf3c 028e febd
000002e0: 7fdd b7bc 0c21 2dbd 0583 b8bd 34f1 023c
000002f0: eead 31bd ac72 c83d 30bd 443d eb39 df3d
00000300: 7458 46bd 8e41 523d 917d c5bd 1b47 6ebc
00000310: 8faf 473d a20d bebc 1c93 f93d 70c1 a5bd
-0.097998254 0.052868396 0.11958046 0.10973655 -0.08985174 -0.044411168 0.06658825 -0.04982946
0.006794706 0.10124236 0.0032637566 -0.098985486 -0.021112874 -0.036385514 -0.074656434 -0.039952822
0.03555575 0.043525204 0.010361016 0.0043691993 0.10280754 -0.021888562 -0.12326474 0.074785545
-0.018687323 -0.02798549 -0.033147134 -0.05634906 -0.115602 -0.07326468 0.12478401 -0.023676008
-0.011905849 -0.022494197 0.02433227 -0.09776469 -0.039776273 0.10091345 -0.003020376 0.035528734
0.009537011 -0.08970326 0.020414129 0.008644253 0.0848019 -0.09499036 0.008762687 0.019715786
0.04463753 0.13953872 0.06240441 0.0031858236 0.13325591 -0.013897538 0.014928773 -0.12063882
-0.07907529 0.09164773 -0.06253559 0.10352507 0.11658569 -0.13814636 0.06865282 0.007923797
0.1261252 -0.028241627 -0.05219896 0.108829364 0.11985557 0.041237757 -0.009811893 0.11408509
0.011388242 0.12587614 -0.13881606 -0.0188362 -0.010658249 -0.0035744607 0.12209009 -0.12898548
-0.07903376 0.0047386438 0.011948511 0.12927543 0.11413993 -0.0097043365 0.113561645 0.015137106
0.12990846 0.0020671338 -0.0972417 0.04715769 -0.0066686124 0.005729884 0.045090124 -0.028156593
0.07735221 -0.032477506 0.13030763 0.13118531 0.067068815 0.0036559077 -0.051134326 0.12002562
-0.08308521 -0.09572158 0.0776607 -0.09561377 -0.11368716 -0.0071779927 0.13545717 0.15705623
0.0711217 0.004274022 -0.14861889 -0.15157773 0.03439502 0.10391009 -0.059390713 0.038747825
-0.040323827 -0.0055307522 -0.016318634 -0.078540266 -0.09521262 0.0802774 0.07493836 0.032786336
-0.09401509 0.012990684 -0.12399415 -0.013231673 -0.06851864 -0.06959774 0.1340139 -0.13591823
-0.04042626 -0.11193995 0.101497345 -0.030495964 0.065085664 -0.16266596 -0.088623665 0.17677686
0.020891069 0.028619537 -0.005052759 -0.13104323 0.12299207 0.09309233 -0.099157505 -0.07743684
-0.0001457752 -0.07636433 -0.0008203068 -0.04337429 0.055612825 -0.047010526 0.027173813 -0.013926451
0.09676966 0.10866971 -0.054377288 -0.072352946 -0.09366987 -0.0015273532 -0.09874067 -0.04880818
-0.094769254 0.07493438 0.11171539 0.073319644 -0.12337413 -0.028957894 -0.03951917 0.07467947
-0.10474579 0.025588222 0.085009664 -0.025524225 0.024055563 0.004197437 0.023370346 -0.124294296
-0.022444485 -0.042267844 -0.09009365 0.007992078 -0.043378763 0.09787497 0.048031986 0.10899719
-0.0484242 0.05133205 -0.096430905 -0.01454332 0.04875141 -0.02319986 0.12186262 -0.08093536

bias f4 [4]
00000000: 478a 793d 7ea4 b3bd 8ee0 e33d 3856 f63c
0.060922887 -0.08771609 0.11126815 0.03007041

mask f4 [4, 50]
00000000: 0000 0000 0000 0000 0000 0000 0000 0000
00000010: 0000 0000 0000 0000 0000 0000 0000 0000
00000020: 0000 0000 0000 0000 0000 0000 0000 0000
00000030: 0000 0000 0000 0000 0000 0000 0000 0000
00000040: 0000 0000 0000 0000 0000 0000 0000 0000
00000050: 0000 0000 0000 0000 0000 0000 0000 0000
00000060: 0000 0000 0000 0000 0000 0000 0000 0000
00000070: 0000 0000 0000 0000 0000 0000 0000 0000
00000080: 0000 0000 0000 0000 0000 0000 0000 0000
00000090: 0000 0000 0000 0000 0000 0000 0000 0000
000000a0: 0000 0000 0000 0000 0000 0000 0000 0000
000000b0: 0000 0000 0000 0000 0000 0000 0000 0000
000000c0: 0000 0000 0000 0000 0000 0000 0000 0000
000000d0: 0000 0000 0000 0000 0000 0000 0000 0000
000000e0: 0000 0000 0000 0000 0000 0000 0000 0000
000000f0: 0000 0000 0000 0000 0000 0000 0000 0000
00000100: 0000 0000 0000 0000 0000 0000 0000 0000
00000110: 0000 0000 0000 0000 0000 0000 0000 0000
00000120: 0000 0000 0000 0000 0000 0000 0000 0000
00000130: 0000 0000 0000 0000 0000 0000 0000 0000
00000140: 0000 0000 0000 0000 0000 0000 0000 0000
00000150: 0000 0000 0000 0000 0000 0000 0000 0000
00000160: 0000 0000 0000 0000 0000 0000 0000 0000
00000170: 0000 0000 0000 0000 0000 0000 0000 0000
00000180: 0000 0000 0000 0000 0000 0000 0000 0000
00000190: 0000 803f 0000 803f 0000 803f 0000 803f
000001a0: 0000 803f 0000 803f 0000 803f 0000 803f
000001b0: 0000 803f 0000 803f 0000 803f 0000 803f
000001c0: 0000 803f 0000 803f 0000 803f 0000 803f
000001d0: 0000 803f 0000 803f 0000 803f 0000 803f
000001e0: 0000 803f 0000 803f 0000 803f 0000 803f
000001f0: 0000 803f 0000 803f 0000 803f 0000 803f
00000200: 0000 803f 0000 803f 0000 803f 0000 803f
00000210: 0000 803f 0000 803f 0000 803f 0000 803f
00000220: 0000 803f 0000 803f 0000 803f 0000 803f
00000230: 0000 803f 0000 803f 0000 803f 0000 803f
00000240: 0000 803f 0000 803f 0000 803f 0000 803f
00000250: 0000 803f 0000 803f 0000 803f 0000 803f
00000260: 0000 803f 0000 803f 0000 803f 0000 803f
00000270: 0000 803f 0000 803f 0000 803f 0000 803f
00000280: 0000 803f 0000 803f 0000 803f 0000 803f
00000290: 0000 803f 0000 803f 0000 803f 0000 803f
000002a0: 0000 803f 0000 803f 0000 803f 0000 803f
000002b0: 0000 803f 0000 803f 0000 803f 0000 803f
000002c0: 0000 803f 0000 803f 0000 803f 0000 803f
000002d0: 0000 803f 0000 803f 0000 803f 0000 803f
000002e0: 0000 803f 0000 803f 0000 803f 0000 803f
000002f0: 0000 803f 0000 803f 0000 803f 0000 803f
00000300: 0000 803f 0000 803f 0000 803f 0000 803f
00000310: 0000 803f 0000 803f 0000 803f 0000 803f
0.0 0.0 0.0 0.0 0.0 0.0 0.0 0.0
0.0 0.0 0.0 0.0 0.0 0.0 0.0 0.0
0.0 0.0 0.0 0.0 0.0 0.0 0.0 0.0
0.0 0.0 0.0 0.0 0.0 0.0 0.0 0.0
0.0 0.0 0.0 0.0 0.0 0.0 0.0 0.0
0.0 0.0 0.0 0.0 0.0 0.0 0.0 0.0
0.0 0.0 0.0 0.0 0.0 0.0 0.0 0.0
0.0 0.0 0.0 0.0 0.0 0.0 0.0 0.0
0.0 0.0 0.0 0.0 0.0 0.0 0.0 0.0
0.0 0.0 0.0 0.0 0.0 0.0 0.0 0.0
0.0 0.0 0.0 0.0 0.0 0.0 0.0 0.0
0.0 0.0 0.0 0.0 0.0 0.0 0.0 0.0
0.0 0.0 0.0 0.0 1.0 1.0 1.0 1.0
1.0 1.0 1.0 1.0 1.0 1.0 1.0 1.0
1.0 1.0 1.0 1.0 1.0 1.0 1.0 1.0
1.0 1.0 1.0 1.0 1.0 1.0 1.0 1.0
1.0 1.0 1.0 1.0 1.0 1.0 1.0 1.0
1.0 1.0 1.0 1.0 1.0 1.0 1.0 1.0
1.0 1.0 1.0 1.0 1.0 1.0 1.0 1.0
1.0 1.0 1.0 1.0 1.0 1.0 1.0 1.0
1.0 1.0 1.0 1.0 1.0 1.0 1.0 1.0
1.0 1.0 1.0 1.0 1.0 1.0 1.0 1.0
1.0 1.0 1.0 1.0 1.0 1.0 1.0 1.0
1.0 1.0 1.0 1.0 1.0 1.0 1.0 1.0
1.0 1.0 1.0 1.0 1.0 1.0 1.0 1.0

weight f4 [50, 2]
00000000: b669 79be 90f7 7c3e 9c83 5abe d8eb 6cbe
00000010: b7bb eabd 975f 273f 4f1c 42bd bcc2 053e
00000020: b79b a6be dc49 2b3e 4854 ebbe d3b0 033f
00000030: b886 12bf c0e8 2cbf 495d c6bc 82ec d2be
00000040: 0b58 74be 9883 f5bd a985 36be 5764 fbbe
00000050: 6542 ae3e 5d92 34bf cd07 023b 481a 66be
00000060: b085 163f 0050 3cbc d703 72bb e8bb 61be
00000070: a38a 7d3e 889c 3fbe 008f d1be a453 513e
00000080: 4bdc c23d 2f87 efbe f43e e3bd b2bd bc3e
00000090: fa57 a8be ed1d 053f ee35 35bf a068 263e
000000a0: 6d55 8b3e dc30 8a3e ebec 1c3e cc6a 103e
000000b0: 4a8e 85bc 8e90 993e d8fb 7c3e 8daf b3be
000000c0: 7768 f7be 9682 963e a23a e2ba 0743 223f
000000d0: 0e8e c9be a2de f83e f078 86be fc18 8a3e
000000e0: 95a8 023f fe54 873e af96 78be d81d 47be
000000f0: a941 e6be 3e2e d73e 3347 debe aa52 ae3e
00000100: ea13 adbc 76b4 b53e a8cf a03e a0d8 38be
00000110: 0872 03be 9cc2 17be e86a 9b3e d023 d03d
00000120: 33f9 4c3e a01f ad3c f765 fd3e 2c3b 2dbe
00000130: 7e2a 56be ab2b 18bf 3e6e 36be 9374 0c3f
00000140: 6428 d83e fce7 6ebe 4a74 313e 7ccd 80be
00000150: 6d23 ebbe 90cb 6bbd 6ead 6dbd 822b aa3e
00000160: d79b f53e d973 cbbe 083e 32be 4204 b33e
00000170: a076 803e f4f1 3e3e 9e05 8c3b e24a a9be
00000180: 8b7d b2be 4081 b7bd e0db 2c3f 5485 90be
-0.24356732 0.24703813 -0.21339267 -0.23136842 -0.11461585 0.65380234 -0.04739028 0.13062567
-0.32540676 0.16727394 -0.4596274 0.5144169 -0.57236814 -0.6754265 -0.024214404 -0.41196066
-0.2386171 -0.1198799 -0.17824425 -0.4909999 0.3403503 -0.7053583 0.0019841075 -0.22470963
0.5879774 -0.011493683 -0.0036928558 -0.22044337 0.24759917 -0.18712056 -0.40929413 0.20442063
0.09514674 -0.46782824 -0.11095992 0.36863476 -0.3287962 0.5199879 -0.70785415 0.16250849
0.27213612 0.26990402 0.15324752 0.1410324 -0.0163032 0.299931 0.24705446 -0.35094872
-0.48321888 0.29396504 -0.0017259906 0.63383526 -0.39366192 0.48607355 -0.26264143 0.26972187
0.51038486 0.2643203 -0.24276231 -0.19444978 -0.4497197 0.42027467 -0.43413696 0.34047443
-0.02112766 0.35489243 0.3140843 -0.18051386 -0.12836468 -0.14820331 0.30355 0.10163081
0.20016937 0.021133244 0.49491856 -0.16917104 -0.20914647 -0.5944163 -0.17815492 0.5486538
0.42218316 -0.23330683 0.17329517 -0.25156772 -0.45925465 -0.05756718 -0.058026724 0.3323632
0.4797046 -0.39736822 -0.17406476 0.34964186 0.25090504 0.18646985 0.0042731306 -0.33064944
-0.34861407 -0.08960199 0.67523 -0.2822672

bias f4 [50]
00000000: aafc be3e e812 c83e 8e36 86be 7ef1 ddbe
00000010: 4241 fa3d 1065 d33e 1aa0 123f 2d34 203f
00000020: b6c4 c93d 78f9 723d 7ac4 dc3e 43ad b7bd
00000030: d3df d5bd f56e e0bd b161 9dbd fa5a 0ebe
00000040: bba1 1d3f 6351 a13e bdb2 103e 562c 80be
00000050: 7691 10bf 5236 083e 094e cbbe 7684 fc3e
00000060: 288b 33bf 5bf9 033f 1f19 29bf 1d98 ad3e
00000070: 016d 09bf 25ca ef3e b81c 27be 2384 f9be
00000080: 2b8b 913e 1b5a 51bd 1ed9 18bf deb1 523e
00000090: 4c18 f0be 51fc 923e 6589 a8bd 7b8c 9e3e
000000a0: 1b2e e2be 8d75 08bf 4ccd ae3e ee29 323f
000000b0: 54b8 a6be fa86 a5be b9d0 a9bd bf9f 0fbd
000000c0: 5cb4 cb3e 0040 263f
0.37302142 0.39076924 -0.26213497 -0.43348306 0.12219478 0.41288042 0.57275546 0.62579614
0.09851973 0.059319943 0.4311865 -0.08968594 -0.10443082 -0.109586634 -0.07684649 -0.13901892
0.61574906 0.31507406 0.14130683 -0.25033826 -0.56471956 0.13301972 -0.39707974 0.4931981
-0.7013421 0.5155236 -0.66053957 0.33905116 -0.5368195 0.46833912 -0.16319549 -0.48733625
0.2842649 -0.051111322 -0.59706295 0.20575663 -0.46893537 0.28708127 -0.08229331 0.30966553
-0.441758 -0.5330437 0.34141004 0.6959523 -0.32562506 -0.3232954 -0.08291764 -0.035064455
0.3978604 0.64941406

mask f4 [50, 2]
00000000: 0000 803f 0000 0000 0000 803f 0000 0000
00000010: 0000 803f 0000 0000 0000 803f 0000 0000
00000020: 0000 803f 0000 0000 0000 803f 0000 0000
00000030: 0000 803f 0000 0000 0000 803f 0000 0000
00000040: 0000 803f 0000 0000 0000 803f 0000 0000
00000050: 0000 803f 0000 0000 0000 803f 0000 0000
00000060: 0000 803f 0000 0000 0000 803f 0000 0000
00000070: 0000 803f 0000 0000 0000 803f 0000 0000
00000080: 0000 803f 0000 0000 0000 803f 0000 0000
00000090: 0000 803f 0000 0000 0000 803f 0000 0000
000000a0: 0000 803f 0000 0000 0000 803f 0000 0000
000000b0: 0000 803f 0000 0000 0000 803f 0000 0000
000000c0: 0000 803f 0000 0000 0000 803f 0000 0000
000000d0: 0000 803f 0000 0000 0000 803f 0000 0000
000000e0: 0000 803f 0000 0000 0000 803f 0000 0000
000000f0: 0000 803f 0000 0000 0000 803f 0000 0000
00000100: 0000 803f 0000 0000 0000 803f 0000 0000
00000110: 0000 803f 0000 0000 0000 803f 0000 0000
00000120: 0000 803f 0000 0000 0000 803f 0000 0000
00000130: 0000 803f 0000 0000 0000 803f 0000 0000
00000140: 0000 803f 0000 0000 0000 803f 0000 0000
00000150: 0000 803f 0000 0000 0000 803f 0000 0000
00000160: 0000 803f 0000 0000 0000 803f 0000 0000
00000170: 0000 803f 0000 0000 0000 803f 0000 0000
00000180: 0000 803f 0000 0000 0000 803f 0000 0000
1.0 0.0 1.0 0.0 1.0 0.0 1.0 0.0
1.0 0.0 1.0 0.0 1.0 0.0 1.0 0.0
1.0 0.0 1.0 0.0 1.0 0.0 1.0 0.0
1.0 0.0 1.0 0.0 1.0 0.0 1.0 0.0
1.0 0.0 1.0 0.0 1.0 0.0 1.0 0.0
1.0 0.0 1.0 0.0 1.0 0.0 1.0 0.0
1.0 0.0 1.0 0.0 1.0 0.0 1.0 0.0
1.0 0.0 1.0 0.0 1.0 0.0 1.0 0.0
1.0 0.0 1.0 0.0 1.0 0.0 1.0 0.0
1.0 0.0 1.0 0.0 1.0 0.0 1.0 0.0
1.0 0.0 1.0 0.0 1.0 0.0 1.0 0.0
1.0 0.0 1.0 0.0 1.0 0.0 1.0 0.0
1.0 0.0 1.0 0.0

weight f4 [50, 2]
00000000: 4229 b8bd b7bc febc 52af 0a3f a860 f7bc
00000010: fde0 403e 4ec3 403d 694a af3e 93b6 1ebe
00000020: 0054 f4bd b589 303f 0255 bcbc c882 633d
00000030: 33ad 443d 1e7c 823a 207d e9be 260d 973c
00000040: 1eca a5be a4a2 ea3e 403d de3e 4f98 eb3e
00000050: 995d 19bf 833c e3bd 089a 7e3e 5afc 1e3f
00000060: fc3b f5bd 02b0 0fbf 6f86 1f3f 9e02 903d
00000070: a742 c53e 066b 2ebe 5aa4 2a3f 3929 59bd
00000080: 66e9 893e eed3 2d3e 0911 c8be de68 b23d
00000090: 2830 d73e 605e 06bd ec9e 923d 1bdf 30bf
000000a0: af1e a6be a99f 553e d97d 1cbf e118 9c3e
000000b0: 9a39 083f 04ee 193f 4161 eebe 8342 85bc
000000c0: 42c7 63bc b6c2 f4be bf99 0fbe 7219 843e
000000d0: 8a4a e73e b556 e73e 9018 ba3e d608 553e
000000e0: d733 6a3e df1d c73e 5904 1ebf 9adc a7be
000000f0: fd98 63be b908 0e3f 4888 13bf 5630 9fbe
00000100: 46a7 963e 8dd5 c1bd 9727 6bbe a7d5 a3be
00000110: 5599 8e3e 1b7c ce3e b301 d6bd 6165 94be
00000120: 1c7e 59bd 95c4 033f e6e5 4b3e 591a ab3c
00000130: 867e 04be ea89 2abf 8084 d1be 882f e53e
00000140: 4403 b9be f54d 1e3f d042 213e cac8 253e
00000150: 899e 043f adf3 f13e 1931 86be 48b4 14bf
00000160: 0e68 95be a6b7 ca3e 467e 5dbe 2dbc 9d3d
00000170: c449 02bf 14cb 03bf 045a cf3d c6ad 1ebf
00000180: 89ce 033f c52a 90be 66cc f93d deb2 fd3e
-0.08992244 -0.031095846 0.5417377 -0.030197456 0.18835826 0.047061257 0.34236458 -0.15499334
-0.11930084 0.68960124 -0.022989754 0.055544645 0.04801674 0.0009955203 -0.45603275 0.018438887
-0.32380766 0.4582721 0.43406105 0.4601464 -0.59908444 -0.11095526 0.24863446 0.6210381
-0.11974332 -0.5612794 0.62314504 0.07031749 0.38527414 -0.17033014 0.6665703 -0.05301783
0.2693588 0.16975376 -0.39075497 0.08711408 0.42028928 -0.032804847 0.07159218 -0.6909043
-0.32445285 0.20861687 -0.6112953 0.3048773 0.53212893 0.6012881 -0.46558574 -0.016267067
-0.013902487 -0.47804803 -0.14023493 0.25800663 0.45174056 0.4518334 0.36346865 0.20804152
0.22871338 0.38889977 -0.61725384 -0.32785493 -0.22226329 0.5548206 -0.57629824 -0.31091565
0.29424495 -0.0946456 -0.22964321 -0.3199894 0.27851358 0.4032906 -0.10449543 -0.28983596
-0.053098783 0.51471835 0.19911918 0.020886587 -0.1293889 -0.6661669 -0.40921402 0.44762826
-0.36135304 0.61837703 0.15748143 0.16189876 0.51804405 0.47256222 -0.26209334 -0.5808759
-0.2918095 0.39593238 -0.216302 0.07701907 -0.5089381 -0.5148175 0.10124591 -0.6198391
0.5148702 -0.2815763 0.12197189 0.49550527

bias f4 [50]
00000000: 3d10 02bf c063 06bf 419f 66be 0872 de3e
00000010: fbbb db3e 8b3e 0c3e a9cf 4cbd 9709 32bf
00000020: a507 bebd bf9e 373f c45c 033f c1bc 44bc
00000030: 99a7 b73e c51d 10bf bdee e33d 6db2 f6be
00000040: b0b5 10be de79 5e3e 93a9 10bf a6e8 163f
00000050: 7c7c 3cbd a80f 143e aa27 4f3c 613d 0bbf
00000060: 74d1 29be dbd8 183f 2b97 103e 2310 f2be
00000070: 2bba a83e 4280 213e 13d3 1d3f 450b 69be
00000080: ae96 4abe 026a 9bbd 7e81 9ebe 37a3 113f
00000090: f014 e0be 8f69 b2bc 985c 01bf c5a3 fe3a
000000a0: c2b7 e73c 1880 2e3f a1fb 1a3f f0a8 a13e
000000b0: dc02 3d3e 836d e2be 9347 dfbe c016 a73e
000000c0: 1089 503e 93ea 20bf
-0.5080603 -0.52495956 -0.22521688 0.43446374 0.42916855 0.13695733 -0.050002728 -0.6954588
-0.09278802 0.717266 0.51313424 -0.012007893 0.35870054 -0.56295425 0.1112952 -0.48183003
-0.14131808 0.21726176 -0.5650875 0.58948743 -0.046017155 0.14459097 0.012643734 -0.5439053
-0.16583806 0.59705895 0.14120166 -0.47277936 0.32954535 0.15771583 0.616502 -0.22758205
-0.19784042 -0.07588579 -0.3095817 0.5688967 -0.43765974 -0.02177885 -0.5053191 0.0019427469
0.028285865 0.68164206 0.60540205 0.31574202 0.18458122 -0.44224176 -0.43609294 0.32634544
0.20364785 -0.6285793
